training_cgcnn_p_u/saved_models/gllb-sc_252_p_u.ckpt (torch, 676938 bytes, 60 tensors)

crystalGraphConvNet.embedding.weight f4 [64, 92]
-0.095202856 -0.008176431 -0.0027243765 -0.07807923 -0.024706377 -0.05430232 -0.021950074 0.07934868
0.018979257 0.0023171841 -0.08005288 0.07482371 -0.09033627 0.07949884 -0.10102566 -0.001044961
-0.006978982 0.115237966 0.060944755 -0.087124355 -0.053571638 0.0063295923 0.0034786863 0.0020088984
0.027047133 0.0732901 -0.09990324 -0.011381402 0.008717025 -0.09080736 0.061017267 -0.010107867
-0.06854397 -0.052950066 0.07454099 0.046969548 0.03291377 0.058204014 -0.052263986 0.0075167655
-0.008509021 -0.08452413 -0.103821285 -0.003717719 -0.09656722 0.052579727 -0.08622884 -0.032750208
0.032754805 -0.01957343 0.028799418 -0.06872242 -0.001148682 -0.0541665 0.06401752 0.09862212
-0.004360114 0.055986725 0.07037184 0.074780636 -0.017859979 -0.088725835 0.087289594 -0.090458825
0.06704529 0.064217485 0.05723594 0.05080445 0.034925923 0.07943316 -0.081730016 -0.039242286
-0.09819885 0.056053836 -0.059897445 0.002816324 0.03857872 0.049500432 0.011674002 0.03571867
-0.06739098 0.03044242 -0.03485958 -0.06547784 0.008112492 -0.006526992 0.11449905 -0.044393543
0.005722824 -0.09784021 0.079835735 -0.016914861 0.091013625 0.050741214 -0.11524476 0.08291154
-0.0048883366 -0.080959536 -0.0006271974 -0.048565954 0.068919644 -0.086439066 -0.10445844 0.0023869248
-0.022462089 -0.031769704 0.0034559243 0.06613791 0.012792799 0.07587585 -0.043077674 -0.02947134
-0.02078716 0.039101705 -0.06354755 -0.026223898 0.060315806 -0.05244282 0.012298914 0.07195958
0.025232038 0.021735722 -0.06727624 -0.101523496 -0.02191303 0.017473405 -0.04645835 0.013867337
0.10180223 0.055350255 -0.08890872 0.020921417 0.023385588 -0.0548813 0.054804515 -0.08086082
0.016728092 0.014505144 0.07673412 -0.08272387 -0.042966556 -0.02305993 0.06987745 0.013478325
-0.09728651 0.054947585 0.021666376 -0.047356136 -0.03427474 0.008149758 0.0820662 0.058165036
-0.013358601 -0.06563942 -0.00037595452 0.0673898 0.10636513 -0.02473065 0.05928043 0.054931276
-0.025957784 -0.03114877 -0.052585192 0.033700015 -0.090517424 0.075314656 -0.04696603 -0.06085323
0.031071479 0.06808943 0.020544179 0.047162827 -0.049638793 -0.025922993 -0.052443687 -0.111006044
-0.0069191502 -0.019568628 -0.08466537 0.024279304 0.020133525 0.001280199 -0.09670958 0.110144824
-0.0103874095 -0.094111525 0.094103634 0.050180886 -0.019635828 0.08063212 -0.06447849 -0.08054699
-0.10756341 0.021850962 0.014946502 0.083791785 0.07399266 0.00420339 0.022304555 0.10071926
0.11233302 0.0078209 0.040704913 -0.08760435 0.07043806 -0.04203832 -0.037127122 0.0853622
-0.0658509 -0.01586428 -0.024509946 0.10572546 -0.056652363 -0.11756043 -0.0014799945 -0.009396494
-0.07027848 0.043130763 -0.052239332 -0.096119635 -0.012015283 0.045515303 -0.05895572 0.042526662
0.060432296 -0.07192021 0.06094962 0.033097845 -0.07995419 0.08300434 -0.06409249 -0.08649915
0.020659579 -0.06726778 -0.050766237 -0.07141491 0.02852535 -0.044907648 -0.032674216 0.021979973
0.008902103 -0.0410237 -0.04156019 -0.012071049 -0.043569513 0.020505171 -0.07068364 0.07767044
-0.046393998 -0.046487115 0.020611987 -0.0071751424 0.08823752 0.099973 -0.06660889 0.07428758
00000000: b7f9 c2bd 70f6 05bc 748b 32bb 01e8 9fbd
00000010: 0765 cabc 1c6c 5ebd a4d0 b3bc 9081 a23d
00000020: 637a 9b3c e6db 173b c4f2 a3bd 2c3d 993d
00000030: 3902 b9bd 4ad0 a23d 8be6 cebd 13f7 88ba
00000040: f2af e4bb e201 ec3d 35a1 793d 416e b2bd
00000050: ef6d 5bbd 7868 cf3b acfa 633b b9a7 033b
00000060: f391 dd3c 1f19 963d 129a ccbd 0f79 3abc
00000070: dad1 0e3c 36f9 b9bd 3eed 793d 789b 25bc
00000080: c860 8cbd 2be2 58bd f2a8 983d 2463 403d
00000090: 97d0 063d 5567 6e3d c312 56bd 334f f63b
000000a0: 6c69 0bbc fd1a adbd 41a0 d4bd faa4 73bb
000000b0: 09c5 c5bd d75d 573d bf98 b0bd 1525 06bd
000000c0: e729 063d 7558 a0bc c2ec eb3c 57be 8cbd
000000d0: 5f8f 96ba b1dd 5dbd 9e1b 833d 65fa c93d
000000e0: 4adf 8ebb 5652 653d 1c1f 903d 9726 993d
000000f0: 174f 92bc e4b5 b5bd e3c4 b23d 7a42 b9bd
00000100: 0a4f 893d 7584 833d 3c70 6a3d 5418 503d
00000110: 7c0e 0f3d daad a23d 1162 a7bd 85bc 20bd
00000120: 7b1c c9bd b598 653d 0657 75bd 1392 383b
00000130: b804 1e3d f7c0 4a3d 5044 3f3c bd4d 123d
00000140: 4804 8abd 6262 f93c ebc8 0ebd 3f19 86bd
00000150: 42ea 043c 61e0 d5bb 7a7e ea3d 01d6 35bd
00000160: 8786 bb3b 7360 c8bd eb80 a33d 0991 8abc
00000170: 5a65 ba3d 05d6 4f3d 7205 ecbd 87cd a93d
00000180: 572e a0bb 1dce a5bd 816a 24ba 18ed 46bd
00000190: be25 8d3d f706 b1bd 4eee d5bd f46d 1c3b
000001a0: 6a02 b8bc f320 02bd ca7c 623b 5073 873d
000001b0: e398 513c cc64 9b3d 3772 30bd e16d f1bc
000001c0: d649 aabc 1c29 203d 3825 82bd 80d3 d6bc
000001d0: b50d 773d 48ce 56bd 6281 493c 8b5f 933d
000001e0: 6bb3 ce3c 1d0f b23c 20c8 89bd 8deb cfbd
000001f0: f482 b3bc 6324 8f3c 1c4b 3ebd d433 633c
00000200: b07d d03d f3b6 623d c615 b6bd 6463 ab3c
00000210: 2293 bf3c 37cb 60bd b37a 603d 5c9a a5bd
00000220: 5a09 893c fca6 6d3c c726 9d3d 226b a9bd
00000230: b3fd 2fbd 2ee8 bcbc e91b 8f3d 31d4 5c3c
00000240: 263e c7bd b810 613d af7d b13c 82f8 41bd
00000250: ab63 0cbd 9086 053c 5312 a83d 763e 6e3d
00000260: 09de 5abc f66d 86bd c31b c5b9 aa03 8a3d
00000270: f6d5 d93d ef97 cabc 09d0 723d 9eff 603d
00000280: 6ba5 d4bc b52b ffbc 9263 57bd 0709 0a3d
00000290: 3361 b9bd 923e 9a3d 745f 40bd 3d41 79bd
000002a0: 9d89 fe3c 7972 8b3d 444c a83c cf2d 413d
000002b0: 0c52 4bbd 755c d4bc 31cf 56bd 2357 e3bd
000002c0: 0aba e2bb 634e a0bc 0a65 adbd 64e5 c63c
000002d0: 10ef a43c 5acc a73a ac0f c6bd 9c93 e13d
000002e0: f42f 2abc 8bbd c0bd 68b9 c03d 798a 4d3d
000002f0: 51db a0bc 7422 a53d 4c0d 84bd d2f5 a4bd
00000300: 354a dcbd ca00 b33c 2ce2 743c 079b ab3d
00000310: 7789 973d 97bc 893b 0bb8 b63c e645 ce3d
00000320: db0e e63d 3b23 003c 32ba 263d e969 b3bd
00000330: d441 903d 6030 2cbd 9c12 18bd 61d2 ae3d
00000340: d6dc 86bd cef5 81bc 15c9 c8bc 9786 d83d
00000350: 4f0c 68bd 86c3 f0bd 60fc c1ba c1f3 19bc
00000360: 2aee 8fbd e2a9 303d e9f8 55bd 5fda c4bd
00000370: c0db 44bc 416e 3a3d 8e7b 71bd 7030 2e3d
00000380: db87 773d e74a 93bd 4fa6 793d 9b91 073d
00000390: 06bf a3bd 2efe a93d ec42 83bd 7726 b1bd
000003a0: 473e a93c b1c3 89bd 42f0 4fbd fb41 92bd
000003b0: ffad e93c 15f1 37bd 66d5 05bd 580f b43c
000003c0: 20da 113c 7808 28bd 053b 2abd a6c5 45bc
000003d0: f275 32bd 76fa a73c 96c2 90bd ae11 9f3d
000003e0: a207 3ebd 4669 3ebd 78da a83c 751d ebbb
000003f0: dfb5 b43d a5be cc3d 3e6a 88bd 1624 983d

crystalGraphConvNet.embedding.bias f4 [64]
-0.024599206 0.025941532 -0.0037052839 0.02746098 0.07723532 0.0044136588 -0.057975564 -0.044473946
-0.024633972 -0.10868275 -0.022188475 -0.015028844 0.009589984 0.092733644 -0.033093676 0.055436283
0.029239457 -0.07117311 0.02157801 -0.02629621 -0.06719026 0.038481977 -0.028894925 -0.037121266
-0.0037398434 0.026425136 -0.11169595 -0.010179786 0.058831137 -0.026586147 -0.10538816 -0.09360471
-0.07925654 -0.060618248 -0.016414596 -0.10716417 -0.07578901 -0.0059512793 0.08283616 0.09019339
-0.05820812 -0.09104631 -0.042658694 0.0992174 -0.07218294 0.062175225 -0.087722145 0.07865941
0.06454215 0.015780907 0.049780108 -0.061522093 0.09111379 -0.07769309 -0.06783653 -0.034155488
0.0067659207 -0.1002448 0.106138065 -0.02600952 -0.02643526 -0.029120933 -0.06788999 -0.054437265
00000000: 4684 c9bc 5683 d43c 59d4 72bb d9f5 e03c
00000010: 8d2d 9e3d 74a0 903b c977 6dbd 502a 36bd
00000020: 2fcd c9bc 1095 debd 9bc4 b5bc 8a3b 76bc
00000030: 4f1f 1d3c 23eb bd3d 3c8d 07bd 2811 633d
00000040: 9687 ef3c 35c3 91bd 5ec4 b03c 266b d7bc
00000050: 0c9b 89bd 479f 1d3d 0db5 ecbc 780c 18bd
00000060: 2918 75bb 8779 d83c d9c0 e4bd 1ec9 26bc
00000070: ebf8 703d 31cb d9bc bfd5 d7bd d4b3 bfbd
00000080: 4151 a2bd d74a 78bd e777 86bc e378 dbbd
00000090: 4537 9bbd f302 c3bb 01a6 a93d 50b7 b83d
000000a0: a36b 6ebd 7d76 babd e2ba 2ebd 7e32 cb3d
000000b0: a6d4 93bd 73ab 7e3d aba7 b3bd 2f18 a13d
000000c0: ad2e 843d f646 813c 3ae6 4b3d 97fe 7bbd
000000d0: de99 ba3d 8e1d 9fbd e1ed 8abd a0e6 0bbd
000000e0: a8b4 dd3b 254d cdbd ea5e d93d eb11 d5bc
000000f0: c28e d8bc 068f eebc e809 8bbd 9cf9 5ebd

crystalGraphConvNet.convs.0.fc_full.weight f4 [128, 169]
-0.01923147 0.033978 -0.06259506 0.015328585 0.0060848026 0.0029518188 -0.0498673 -0.082125016
-0.0028907785 -0.05422002 0.01355848 -0.076270275 0.06778713 -0.0023128155 0.07135601 -0.0484672
0.052867226 0.01068059 0.0033957264 -0.07447046 -0.055309374 0.06048597 -0.028539458 -0.047003876
0.052637465 -0.030282209 0.0066194665 -0.07376784 0.06608479 0.027997937 0.062014 0.07850748
-0.053100128 0.05267945 -0.06549675 -0.015597587 -0.020516356 -0.013492809 -0.033865575 0.010379141
-0.049830962 0.028928071 0.058360197 0.025922636 0.034807466 0.039773297 -0.05367615 -0.018493842
-0.052795514 0.032665953 0.07109159 0.071725786 0.07907974 -0.04385474 0.012317446 0.029595444
-0.031653233 -0.04594942 0.017536841 0.017968148 -0.0041412152 -0.005145833 -0.0034694793 0.023366975
-0.017801618 0.03480017 -0.037657056 -0.06959926 0.029000431 0.06482605 -0.06776428 -0.03590402
0.05630498 -0.07081069 0.015465524 -0.082723856 -0.0072664768 0.025680916 -0.002223779 -0.004331231
-0.049036738 0.022384856 -0.028030323 0.062367737 -0.06886661 0.04071575 -0.008733994 0.06369428
-0.056307644 -0.027414411 -0.021447642 0.02335443 -0.010671735 0.06151655 0.05403237 0.020646326
0.05892402 -0.008206761 0.020709371 -0.0071479618 0.030286102 -0.03488161 0.03091868 -0.00568063
-0.045310352 -0.05193126 0.055452492 0.0060961125 0.06749484 0.08014064 0.063399956 0.027849179
-0.06629308 0.066821754 0.053609774 0.03415653 -0.0040314808 0.06744951 0.05828212 0.0010053264
-0.064024374 0.06510255 0.038345832 0.016934372 -0.05839567 0.055945456 0.03735914 -0.053739306
0.0008297334 0.053958792 -0.004094714 0.062168367 -0.06280742 -0.035279755 0.02738085 0.03072634
0.05556283 -0.044624444 0.04085141 -0.030384678 0.06542493 0.055156324 -0.0347194 -0.029256022
-0.004600925 -0.0966188 0.011196144 0.069719486 0.040825367 -0.07462861 -0.017952895 0.07115301
0.021783672 0.019048396 -0.034335595 0.04499905 -0.051936794 -0.04779941 0.006311078 0.053041477
-0.044829626 -0.042224746 0.06341858 0.023567522 0.01455595 0.044785436 -0.071254924 0.04997904
0.07095192 0.025953285 -0.04227354 -0.054280315 -0.008605088 -0.080122836 -0.06726543 -0.0024921685
0.074764274 -0.030195177 -0.06738353 0.06547494 0.06783892 -0.058886968 -0.024182124 0.038850844
0.058830693 -0.051122773 -0.016842289 0.03990375 -0.036484923 -0.0055684126 0.018925795 0.04807084
-0.079426445 0.061434526 -0.025763262 -0.067547426 -0.020846805 -0.026400883 -0.0017298991 0.0626598
0.034380622 0.07964385 0.0073352833 -0.023178859 0.011856378 -0.042082477 0.047615197 -0.07912474
-0.034815498 0.04022742 0.06338568 -0.074717395 0.0632081 0.010094515 0.07422697 -0.0022735677
-0.022353457 -0.009981308 -0.069398336 -0.021005796 0.008825941 -0.031397067 0.023020148 -0.054164037
-0.023620825 -0.03579991 0.05671923 -0.0044641006 -0.02083438 -0.048269536 0.054057986 0.0009775625
0.043563828 -0.03277148 0.051627945 -0.05859745 -0.010613989 -0.066472776 -0.055846732 0.030893246
0.07963281 -0.05453349 0.049780272 -0.00039526218 0.016212411 -0.05227571 0.02847847 -0.05681036
0.06980175 -0.07021157 0.019498397 -0.029206371 -0.031257052 -0.02036986 0.010802098 0.007471882
00000000: 518b 9dbc 842c 0b3d d731 80bd bf24 7b3c
00000010: 0663 c73b 4d73 413b a741 4cbd 2931 a8bd
00000020: 3773 3dbb d015 5ebd 6324 5e3c 9733 9cbd
00000030: fbd3 8a3d 9b92 17bb 1a23 923d 8b85 46bd
00000040: 4e8b 583d a4fd 2e3c d68a 5e3b f883 98bd
00000050: 158c 62bd 23c0 773d 95cb e9bc 2387 40bd
00000060: 629a 573d 6512 f8bc 1ce8 d83b 9813 97bd
00000070: 7657 873d ee5b e53c 6402 7e3d 88c8 a03d
00000080: 857f 59bd 68c6 573d 2923 86bd 068d 7fbc
00000090: eb11 a8bc f110 5dbc a1b6 0abd 460d 2a3c
000000a0: 8d1b 4cbd 90fa ec3c 1a0b 6f3d b55b d43c
000000b0: 4692 0e3d 53e9 223d 86db 5bbd 6680 97bc
000000c0: 1c40 58bd bccc 053d 7898 913d f8e4 923d
000000d0: 8ff4 a13d 07a1 33bd 1dcf 493c 2572 f23c
000000e0: d2a6 01bd 7635 3cbd 6ca9 8f3c f031 933c
000000f0: 08b3 87bb 609e a8bb 3460 63bb 196c bf3c
00000100: b3d4 91bc a08a 0e3d 493e 1abd 0f8a 8ebd
00000110: 5092 ed3c 85c3 843d 00c8 8abd 1810 13bd
00000120: 0da0 663d 3205 91bd 1c63 7d3c 206b a9bd
00000130: a01b eebb c960 d23c d2bc 11bb 00ed 8dbb
00000140: bfda 48bd 7260 b73c d99f e5bc 5075 7f3d
00000150: f009 8dbd 8fc5 263d 0719 0fbc 2672 823d
00000160: d8a2 66bd 3094 e0bc f7b2 afbc ca51 bf3c
00000170: 80d8 2ebc c7f8 7b3d 0c51 5d3d 7c22 a93c
00000180: 505a 713d a775 06bc b3a6 a93c 7339 eabb
00000190: 8f1a f83c 05e0 0ebd 2c49 fd3c 9424 babb
000001a0: 5997 39bd dfb5 54bd 2722 633d e6c1 c73b
000001b0: bc3a 8a3d c720 a43d d6d7 813d f623 e43c
000001c0: abc4 87bd d8d9 883d ec95 5b3d b8e7 0b3d
000001d0: 831a 84bb f822 8a3d 3bb9 6e3d 28c5 833a
000001e0: 361f 83bd 7c54 853d 8510 1d3d f4b9 8a3c
000001f0: 4c30 6fbd 1027 653d e605 193d bf1d 5cbd
00000200: 7782 593a e503 5d3d f32c 86bb 42a4 7e3d
00000210: 2da1 80bd 8181 10bd ce4d e03c ceb5 fb3c
00000220: da95 633d 1fc8 36bd cf53 273d 4ae9 f8bc
00000230: 81fd 853d 99eb 613d ee35 0ebd 53aa efbc
00000240: 5bc3 96bb 14e0 c5bd 0870 373c 17c9 8e3d
00000250: 8038 273d e2d6 98bd f311 93bc abb8 913d
00000260: ac73 b23c 620b 9c3c 7ba3 0cbd ed50 383d
00000270: adbb 54bd 50c9 43bd 29cd ce3b 0542 593d
00000280: 459f 37bd dbf3 2cbd 9ae1 813d ad10 c13c
00000290: 147c 6e3c ef70 373d 1aee 91bd d2b6 4c3d
000002a0: 3d4f 913d fc9b d43c 0527 2dbd 0955 5ebd
000002b0: 5bfc 0cbc 7117 a4bd 75c2 89bd a653 23bb
000002c0: 031e 993d e05b f7bc 6000 8abd ba17 863d
000002d0: 22ef 8a3d 7633 71bd 9719 c6bc 1022 1f3d
000002e0: 74f8 703d 1d66 51bd d7f8 89bc 1d72 233d
000002f0: 3771 15bd 3b77 b6bb 450a 9b3c eee5 443d
00000300: 55aa a2bd c5a2 7b3d 7a0d d3bc 4e56 8abd
00000310: ebc6 aabc aa46 d8bc c8bd e2ba c853 803d
00000320: b2d2 0c3d 511c a33d d15c f03b 97e1 bdbc
00000330: 4141 423c ad5e 2cbd 2708 433d 270c a2bd
00000340: b29a 0ebd 82c5 243d 5ad0 813d 6f05 99bd
00000350: 4073 813d 7763 253c 4f04 983d 2300 15bb
00000360: 991e b7bc a488 23bc b720 8ebd 5914 acbc
00000370: ae9a 103c 369a 00bd c094 bc3c 1cdb 5dbd
00000380: 7680 c1bc eda2 12bd 6c52 683d 9747 92bb
00000390: ddac aabc 47b6 45bd e86b 5d3d 8e21 803a
000003a0: fc6f 323d 633b 06bd d377 533d e103 70bd
000003b0: 4ce6 2dbc e122 88bd 8bbf 64bd d513 fd3c
000003c0: 8716 a33d 825e 5fbd 66e6 4b3d 313b cfb9
000003d0: e4cf 843c 0e1f 56bd ae4b e93c fbb1 68bd
000003e0: 38f4 8e3d 15cb 8fbd 1abb 9f3c 3342 efbc
000003f0: 6507 00bd b1de a6bc 48fb 303c b0d6 f43b

crystalGraphConvNet.convs.0.fc_full.bias f4 [128]
0.025870634 0.023263631 0.02762237 -0.014617672 -0.035328493 -0.06648635 0.013321019 0.038664684
0.032591317 0.049206607 0.014315799 0.05300914 0.04712053 -0.02446276 -0.07251092 0.020380633
0.025209723 0.07678314 0.060807463 -0.042587347 0.059736874 -0.04679262 -0.05144813 -0.021947972
0.057398863 0.04113642 -0.027121343 0.07265517 -0.047643572 -0.05512334 0.0260785 0.045815308
0.048768055 0.0017664776 0.031617004 -0.008701583 -0.03377276 0.039116282 -0.057477336 0.07056382
-0.027638385 -0.062697716 0.008736919 0.0469605 0.07344521 0.020470358 0.040677153 0.029250966
0.014511791 -0.048665874 -0.065811135 0.015547767 0.04459949 0.07481213 0.003907115 -0.035935916
0.06697579 0.0016611447 0.06592777 -0.0504191 0.008644563 -0.015531085 0.043189615 0.057162948
-0.051976983 -0.035617657 0.021770136 0.06994488 0.054246277 -0.040550362 0.0076249805 -0.06635065
-0.060107905 -0.03649303 0.074638985 0.035057392 0.0700065 0.013080469 -0.056743577 0.061251838
-0.07149386 0.04274427 0.065641575 -0.06467758 0.066274226 0.06006511 0.05593518 0.0723664
0.0051274807 -0.059149124 -0.067798816 0.019613512 -0.00013403328 0.027528608 -0.014022256 -0.06273221
0.04884807 0.0656725 -0.05677747 -0.027849732 -0.049558405 0.06895078 0.06682314 0.00766429
-0.023438605 -0.054385766 -0.07408011 0.029592277 -0.019125732 -0.031366818 -0.0018305551 -0.04554256
0.036058217 -0.047849316 -0.06028542 -0.056116935 0.017470554 0.026178125 -0.038072027 0.02018537
-0.022277294 0.06809633 -0.028105525 0.018783076 -0.027514117 -0.0038599651 -0.044529784 -0.048068885
00000000: a7ee d33c 5f93 be3c 4f48 e23c f67e 6fbc
00000010: 9cb4 10bd ff29 88bd 6740 5a3c dc5e 1e3d
00000020: 797e 053d de8c 493d d08c 6a3c 1d20 593d
00000030: 7501 413d 2066 c8bc 9b80 94bd 49f5 a63c
00000040: 9f84 ce3c 7b40 9d3d 3f11 793d 1270 2ebd
00000050: a7ae 743d 9ea9 3fbd 46bb 52bd 3ccc b3bc
00000060: 121b 6b3d aa7e 283d 942d debc 3ccc 943d
00000070: e825 43bd 03c9 61bd 94a2 d53c d5a8 3b3d
00000080: 03c1 473d 2789 e73a d580 013d 1691 0ebc
00000090: 4e55 0abd 6538 203d 5b6d 6bbd c483 903d
000000a0: e569 e2bc a967 80bd 4b25 0f3c a759 403d
000000b0: 716a 963d 74b1 a73c 169d 263d b99f ef3c
000000c0: ddc2 6d3c de55 47bd fdc7 86bd 10bc 7e3c
000000d0: f4ad 363d 1a37 993d 4207 803b 8a31 13bd
000000e0: 9a2a 893d c4ba d93a 2405 873d 4284 4ebd
000000f0: eda1 0d3c 1876 7ebc 98e7 303d b223 6a3d
00000100: d1e5 54bd d2e3 11bd 4957 b23c 433f 8f3d
00000110: 5831 5e3d 2318 26bd f9da f93b d9e2 87bd
00000120: b533 76bd b779 15bd 53dc 983d 5798 0f3d
00000130: 915f 8f3d 774f 563c f46b 68bd 35e3 7a3d
00000140: 5f6b 92bd 9e14 2f3d 176f 863d ae75 84bd
00000150: c8ba 873d d506 763d 4a1c 653d d634 943d
00000160: 6d04 a83b 5a46 72bd 1bda 8abd 84ac a03c
00000170: 498b 0cb9 ad83 e13c 9bbd 65bc bf79 80bd
00000180: ea14 483d 4e7f 863d 7e8f 68bd 1f25 e4bc
00000190: c1fd 4abd 1136 8d3d 92da 883d b924 fb3b
000001a0: 5102 c0bc 9cc3 5ebd 50b7 97bd 816b f23c
000001b0: 91ad 9cbc 7e7a 00bd 3def efba d68a 3abd
000001c0: c8b1 133d a5fd 43bd d8ed 76bd dfda 65bd
000001d0: 681e 8f3c 8273 d63c 6af1 1bbd ca5b a53c
000001e0: df7e b6bc 1776 8b3d 8f3d e6bc f7de 993c
000001f0: 4965 e1bc 78f7 7cbb dd64 36bd e1e3 44bd

crystalGraphConvNet.convs.0.bn1.weight f4 [128]
1.0009328 0.9993449 1.0022383 1.0041187 1.0033164 0.99925894 1.0030547 0.99901175
1.0039238 0.9993696 1.0036678 0.993334 1.0009892 1.0027615 1.0019928 1.0041715
1.000441 1.0004948 1.0031841 1.0034343 0.9993883 0.99825656 1.0033286 0.9995423
1.0026128 1.0002642 1.000997 1.0011748 1.0120146 1.0001677 1.0012934 1.0024679
0.9999666 1.0049719 0.9998659 1.0071716 1.0029846 1.0019994 1.001229 1.0009992
1.002519 0.9983988 1.0014715 1.000787 1.0041616 1.0012054 0.99916375 1.0007278
1.0059732 0.9968507 1.0011636 0.99848753 0.9991823 1.0055547 0.996123 1.0084422
0.99960285 0.99565446 0.9993402 1.0027535 0.9985027 1.0066401 1.0011606 0.9960994
0.9987243 0.99698496 1.0032991 0.99403465 0.99773145 1.0012876 0.9991608 1.0049547
0.99906945 0.9996693 1.000178 1.0134784 1.0026991 0.9988897 0.9994107 0.99845
1.0021069 0.99800766 0.99602705 0.9956202 0.99935853 0.9984271 1.0002022 0.99795175
0.9963625 1.0011917 1.0022732 0.9993159 1.0065026 0.99976015 1.00113 1.0011184
1.0017096 1.0023775 0.997114 1.0025328 0.9949111 0.99783105 1.0012134 1.005782
0.99976045 1.0000114 0.99642795 0.99924827 1.001513 0.9992035 1.0012887 1.0045395
0.99171764 1.0035566 1.0033559 1.0030285 1.0005739 1.0000911 1.0010072 1.0009481
1.0070859 1.0005723 1.0042018 1.0015004 1.0034435 0.9972047 0.9978702 1.0015043
00000000: 911e 803f 11d5 7f3f 5849 803f f686 803f
00000010: ac6c 803f 6fcf 7f3f 1964 803f 3cbf 7f3f
00000020: 9380 803f b0d6 7f3f 3078 803f 234b 7e3f
00000030: 6a20 803f 7d5a 803f 4d41 803f b188 803f
00000040: 730e 803f 3710 803f 5668 803f 8970 803f
00000050: e9d7 7f3f be8d 7f3f 126d 803f 01e2 7f3f
00000060: 9e55 803f a808 803f ab20 803f 7f26 803f
00000070: b289 813f 7f05 803f 622a 803f de50 803f
00000080: d0fd 7f3f eba2 803f 36f7 7f3f 00eb 803f
00000090: cd61 803f 8441 803f 4628 803f be20 803f
000000a0: 8b52 803f 1097 7f3f 3830 803f ca19 803f
000000b0: 5e88 803f 8027 803f 32c9 7f3f d917 803f
000000c0: bbc3 803f 9c31 7f3f 2126 803f e19c 7f3f
000000d0: 69ca 7f3f 04b6 803f eb01 7f3f a214 813f
000000e0: f9e5 7f3f 36e3 7e3f c2d4 7f3f 3a5a 803f
000000f0: df9d 7f3f 95d9 803f 0826 803f 5f00 7f3f
00000100: 65ac 7f3f 683a 7f3f 1b6c 803f 0e79 7e3f
00000110: 546b 7f3f 312a 803f 01c9 7f3f 5ba2 803f
00000120: 04c3 7f3f 54ea 7f3f d505 803f a9b9 813f
00000130: 7258 803f 3cb7 7f3f 61d9 7f3f 6b9a 7f3f
00000140: 0a45 803f 6e7d 7f3f a1fb 7e3f f7e0 7e3f
00000150: f6d5 7f3f eb98 7f3f a006 803f c479 7f3f
00000160: 9d11 7f3f 0d27 803f 7d4a 803f 2bd3 7f3f
00000170: 14d5 803f 48f0 7f3f 0725 803f a624 803f
00000180: 0538 803f e84d 803f dd42 7f3f ff52 803f
00000190: 7eb2 7e3f db71 7f3f c327 803f 77bd 803f
000001a0: 4df0 7f3f 6000 803f e715 7f3f bcce 7f3f
000001b0: 9431 803f cdcb 7f3f 3a2a 803f c094 803f
000001c0: 35e1 7d3f 8b74 803f f76d 803f 3d63 803f
000001d0: ce12 803f fc02 803f 0121 803f 111f 803f
000001e0: 31e8 803f c112 803f af89 803f 2a31 803f
000001f0: d670 803f cf48 7f3f 6c74 7f3f 4b31 803f

crystalGraphConvNet.convs.0.bn1.bias f4 [128]
-3.038709e-05 0.0036431805 0.0010425302 -0.0005596327 -0.001011428 0.0029681441 -0.004265183 -0.0027854478
-0.0010660982 -0.00091597554 -0.0035527544 0.0002567843 0.0004618447 0.000574679 -0.0010758027 -0.0028291414
0.00023356649 -0.0006502809 0.00067051465 -0.0033279816 0.00056310825 -0.00022274756 -0.0035949918 0.0003129656
9.657674e-05 0.0030708404 -0.00025653775 0.0011087299 -0.0054683196 0.0004040373 -0.0010743532 0.0017389747
-0.0030489874 -0.003145995 0.0022008105 -0.008084468 -0.0010090749 -0.001503747 -3.2146638e-06 0.0012066134
-0.00057083246 1.2670464e-05 0.0021933774 0.0022664038 -0.001947423 0.0011646183 0.00015220275 9.914877e-05
-0.0050074128 0.0005308795 -1.8118113e-05 0.0007055609 0.0011580669 0.0013994814 8.072464e-05 0.0008581704
-0.0005505599 -0.0039378824 -0.0012338167 -0.0010222405 0.0024640255 -0.0014518664 0.00013790026 0.002922294
0.0013818559 0.0015193039 -0.0008155602 0.0028058696 0.00010759179 0.000172359 0.0002389018 -0.003285107
-0.00065629557 0.00010508678 -0.000486286 -0.0061004893 -0.0013515626 -0.00045101362 -6.747735e-05 9.2225055e-05
-0.0010538944 0.0007312251 0.0010670273 0.0015288107 0.0001239583 0.0013720648 0.0014205961 0.0013110626
0.0015316567 -0.0008131731 -0.00093225285 8.985688e-05 -0.0018406238 0.00038401427 -0.00037150015 -0.0012502469
-0.0018345453 -0.0006308282 0.0010443284 -0.0020951303 0.0024356155 0.0009478643 -0.00083383196 -0.0037797072
0.000638898 0.0004912103 0.0017276952 0.0008043915 -0.00096030656 -1.6360742e-05 -0.00023722525 -0.0018572243
0.002010249 -0.0019249193 -0.0015935295 -0.0011003326 -8.384335e-05 -0.00085964357 -0.0011244033 -0.0008846114
-0.0037810688 0.0027097997 -0.001782445 -0.0009425388 -0.0015002984 0.00080223934 0.001199598 0.00022398708
00000000: c7e7 feb7 6dc2 6e3b 82a5 883a 51b4 12ba
00000010: e491 84ba 3285 423b f3c2 8bbb 0f8c 36bb
00000020: 52bc 8bba 141e 70ba 54d5 68bb 01a1 8639
00000030: bf23 f239 0ea6 163a f301 8dba 1e69 39bb
00000040: 87e9 7439 9d77 2aba 7ac5 2f3a 441a 5abb
00000050: 8e9d 133a 5891 69b9 f499 6bbb 8815 a439
00000060: 3e89 ca38 2740 493b ea7f 86b9 cd52 913a
00000070: 972f b3bb f8d4 d339 50d1 8cba 4fee e33a
00000080: 85d1 47bb 0a2d 4ebb 793b 103b b774 04bc
00000090: ef42 84ba 6019 c5ba 81bb 57b6 3a27 9e3a
000000a0: eba3 15ba 3a93 5437 c4be 0f3b f287 143b
000000b0: ac40 ffba 1ba6 983a 9d98 1f39 17ee cf38
000000c0: 3915 a4bb b82a 0b3a 5afc 97b7 64f5 383a
000000d0: 47ca 973a ce6e b73a b64a a938 d7f6 603a
000000e0: 7353 10ba 5a09 81bb 05b8 a1ba b3fc 85ba
000000f0: 7d7b 213b 8d4c beba 5299 1039 f583 3f3b
00000100: 641f b53a 6123 c73a 52cb 55ba aee2 373b
00000110: e7a2 e138 44bb 3439 b781 7a39 f34a 57bb
00000120: 400b 2cba 0962 dc38 34f4 feb9 9de6 c7bb
00000130: ea26 b1ba 0676 ecb9 a082 8db8 f368 c138
00000140: d422 8aba b0af 3f3a 7fdb 8b3a 6062 c83a
00000150: cefa 0139 dbd6 b33a 4c33 ba3a f6d7 ab3a
00000160: dfc1 c83a 1f2b 55ba 6e62 74ba 8c71 bc38
00000170: 1641 f1ba 8655 c939 e8c5 c2b9 53df a3ba
00000180: 2075 f0ba 2a5e 25ba d9e1 883a 744e 09bb
00000190: d99e 1f3b 197a 783a 8495 5aba f7b4 77bb
000001a0: b87b 273a 91c4 003a d573 e23a cddd 523a
000001b0: 15bd 7bba 6d3e 89b7 abbf 78b9 1b6e f3ba
000001c0: 62be 033b 934d fcba fadd d0ba 0939 90ba
000001d0: 0ed5 afb8 b459 61ba b760 93ba 44e5 67ba
000001e0: cfcb 77bb e596 313b eea0 e9ba b514 77ba
000001f0: a9a5 c4ba 5f4d 523a d43b 9d3a 13de 6a39

crystalGraphConvNet.convs.0.bn1.running_mean f4 [128]
0.066732354 -0.055451695 0.06950302 0.10264939 0.019724073 -0.19744748 -0.08437736 -0.03942639
0.036372487 0.09649744 0.0536056 0.0743474 -0.043342914 0.06834173 0.032621548 0.0125531545
0.06480869 0.17433144 0.08460869 0.06076325 0.10283115 0.06608932 0.05619467 -0.05788244
0.058746215 0.017426278 -0.018231247 0.15775727 -0.0016424267 -0.20350543 0.046261534 -0.06790813
0.0023908988 -0.031115329 0.025386533 0.025089705 -0.02453245 0.04216013 -0.11474794 -0.00492637
-0.079053536 -0.071451865 -0.1728071 0.0904744 0.13462238 0.006223176 0.1355545 0.10036081
0.16511199 0.021211956 -0.17193367 0.1556691 0.13180985 -0.026820686 0.10310752 0.025925329
0.054237638 0.023537302 0.101375565 -0.07070417 0.09192958 0.07376667 0.13566448 0.12882026
-0.025706727 0.063105956 0.014902381 0.21902743 0.10810904 -0.108706936 0.13163441 -0.12451025
0.0997415 -0.12623374 0.030324051 0.122434594 0.1168069 0.09653406 -0.022604551 0.19077154
0.054256424 0.291797 0.10498409 -0.06508282 0.15774176 0.104433194 0.059881773 0.036565166
-0.055789426 -0.019475488 -0.09023521 -0.018604819 -0.0038596774 0.0054858704 0.009952121 -0.12675834
0.090600505 0.24546531 0.043638796 -0.14476755 0.088282526 0.24519171 0.10462639 0.01547725
-0.059962083 0.10358562 -0.09960448 -0.079049125 -0.07216018 0.064659044 0.14811173 -0.042922556
0.13762195 -0.056602478 -0.118811324 0.037853934 0.062150937 -0.09179555 -0.07050527 0.022562573
0.06899549 0.034468032 -0.08566692 0.019923773 0.023168802 0.00807875 0.0007899676 0.12709315
00000000: f9aa 883d 5121 63bd 9957 8e3d d839 d23d
00000010: 6194 a13c ac2f 4abe 0ace acbd 917d 21bd
00000020: 51fb 143d 73a0 c53d 8c91 5b3d 7343 983d
00000030: 5788 31bd c0f6 8b3d 2c9e 053d bfab 4d3c
00000040: 6bba 843d f183 323e 5247 ad3d e3e2 783d
00000050: 2399 d23d d659 873d 622c 663d 2316 6dbd
00000060: df9f 703d 8ec1 8e3c b259 95bc 1f8b 213e
00000070: b246 d7ba ba63 50be bc7c 3d3d 6b13 8bbd
00000080: a0b0 1c3b 93e5 febc 6bf7 cf3c ed88 cd3c
00000090: 47f8 c8bc 1ab0 2c3d f800 ebbd 636d a1bb
000000a0: d2e6 a1bd 5b55 92bd 58f4 30be a44a b93d
000000b0: 73da 093e c9eb cb3b cdce 0a3e f889 cd3d
000000c0: 1e13 293e b2c4 ad3c 610f 30be b867 1f3e
000000d0: 29f9 063e 0eb7 dbbc 092a d33d 5b61 d43c
000000e0: 4928 5e3d 4dd1 c03c fe9d cf3d 59cd 90bd
000000f0: 9345 bc3d fb12 973d a1eb 0a3e 75e9 033e
00000100: ea96 d2bc b23d 813d 1e29 743c ba48 603e
00000110: 4668 dd3d bea1 debd 2ccb 063e 3bff febd
00000120: 4645 cc3d 6b43 01be 256a f83c fdbe fa3d
00000130: 7538 ef3d a6b3 c53d 2e2d b9bc 9d59 433e
00000140: fc3b 5e3d 6b66 953e e601 d73d 244a 85bd
00000150: 0e87 213e 12e1 d53d 9746 753d 5bc5 153d
00000160: 7483 64bd 0f8b 9fbc 3dcd b8bd 2269 98bc
00000170: a4f2 7cbb d1c2 b33b 390e 233c f0cc 01be
00000180: c28c b93d 425b 7b3e 98be 323d f23d 14be
00000190: 78cd b43d 8913 7b3e 5c46 d63d 4b94 7d3c
000001a0: cd9a 75bd b324 d43d 6ffd cbbd 82e4 a1bd
000001b0: b7c8 93bd f66b 843d 9aaa 173e 90cf 2fbd
000001c0: c5ec 0c3e 00d8 67bd 5a53 f3bd ba0c 1b3d
000001d0: fb91 7e3d 4eff bbbd 1165 90bd 25d5 b83c
000001e0: 824d 8d3d 5a2e 0d3d 2372 afbd 2e37 a33c
000001f0: 80cc bd3c bc5c 043c d415 4f3a b524 023e

crystalGraphConvNet.convs.0.bn1.running_var f4 [128]
0.012009932 0.020742353 0.017743852 0.023831706 0.016899792 0.016512543 0.01694067 0.012252631
0.01723079 0.01639727 0.010485943 0.013100783 0.022208223 0.013491852 0.015297557 0.022631375
0.0119886715 0.023335906 0.013720879 0.018092988 0.010518898 0.022556134 0.016204879 0.008856945
0.009853693 0.015817782 0.018443238 0.019677822 0.022455586 0.01703601 0.013939047 0.024847575
0.010383217 0.013607522 0.012303623 0.012289113 0.01815565 0.017041154 0.03304637 0.010684182
0.015997773 0.010350559 0.020694511 0.016160827 0.009051699 0.018143177 0.013725795 0.01596346
0.026203277 0.011916976 0.009106706 0.0082511315 0.021868695 0.017605182 0.015848802 0.011075574
0.016108304 0.026304923 0.012905951 0.019386038 0.015543095 0.01583795 0.011751806 0.016188914
0.021950403 0.032203786 0.024058571 0.025413765 0.013832189 0.020289166 0.016379869 0.012476236
0.036830157 0.023521785 0.01181064 0.030557858 0.015199996 0.015172708 0.0154397385 0.032534607
0.020122772 0.063060194 0.020448305 0.015099653 0.007329317 0.025616512 0.009575886 0.024357764
0.011783058 0.023176663 0.019333376 0.0139382705 0.02144654 0.018126814 0.006590586 0.020930741
0.016618945 0.025200311 0.02542926 0.016015338 0.025278414 0.041843254 0.0133763 0.014286285
0.0108086765 0.027505634 0.04513783 0.022237217 0.017292311 0.016682014 0.016199183 0.010550206
0.039119363 0.028241986 0.02148585 0.025376223 0.014529213 0.014089362 0.018559601 0.020119615
0.015971282 0.04459871 0.011771929 0.039894003 0.030434627 0.033478737 0.015908387 0.054929666
00000000: 4ec5 443c deeb a93c 8e5b 913c b63a c33c
00000010: 6f71 8a3c 5045 873c 29c7 8a3c 42bf 483c
00000020: 9627 8d3c 9153 863c 3ccd 2b3c aba4 563c
00000030: 05ee b53c ee0c 5d3c 9ba2 7a3c 6f65 b93c
00000040: 226c 443c f12a bf3c 8acd 603c bf37 943c
00000050: 7557 2c3c a4c7 b83c 18c0 843c b81c 113c
00000060: 6271 213c 4b94 813c 4616 973c 6233 a13c
00000070: c7f4 b73c 1a8f 8b3c 9a60 643c 248d cb3c
00000080: 5e1e 2a3c 15f2 5e3c 2395 493c 4758 493c
00000090: 28bb 943c e499 8b3c a15b 073d b50c 2f3c
000000a0: c30d 833c 6495 293c 8987 a93c b663 843c
000000b0: 944d 143c 00a1 943c 28e2 603c cdc5 823c
000000c0: 41a8 d63c 6c3f 433c 4b34 153c c12f 073c
000000d0: fa25 b33c be38 903c 59d5 813c 5376 353c
000000e0: 90f5 833c 6c7d d73c 7b73 533c 78cf 9e3c
000000f0: 77a8 7e3c 97be 813c a68a 403c 9d9e 843c
00000100: 55d1 b33c 1ee8 033d 7b16 c53c 8730 d03c
00000110: 68a0 623c 7735 a63c 132f 863c 2069 4c3c
00000120: 38db 163d c2b0 c03c 6a81 413c 7954 fa3c
00000130: 6709 793c f396 783c f5f6 7c3c 0243 053d
00000140: 83d8 a43c b425 813d 3483 a73c 8964 773c
00000150: c42a f03b b8d9 d13c 2de4 1c3c ef89 c73c
00000160: ba0d 413c fcdc bd3c 0761 9e3c 585d 643c
00000170: a7b0 af3c af7e 943c d8f5 d73b f276 ab3c
00000180: 7424 883c e270 ce3c 0651 d03c 9932 833c
00000190: ad14 cf3c d563 2b3d 4528 5b3c 0611 6a3c
000001a0: e016 313c 7f53 e13c 72e2 383d d32a b63c
000001b0: 9ba8 8d3c b8a8 883c 26b4 843c c5da 2c3c
000001c0: a03b 203d bd5b e73c 1803 b03c cce1 cf3c
000001d0: f00b 6e3c 11d7 663c 4e0a 983c e4d1 a43c
000001e0: 35d6 823c 23ad 363d 0ddf 403c e567 233d
000001f0: 0a52 f93c 0021 093d 4e52 823c eefd 603d

crystalGraphConvNet.convs.0.bn2.weight f4 [64]
0.9947596 0.95128816 1.0097815 0.99024224 0.99013805 0.99635357 1.0058379 1.008486
0.9840149 0.99427545 1.0098195 0.9955977 1.0092194 1.0087262 1.0072833 1.0169113
0.9920398 0.9800062 1.0087352 0.9981633 0.99408245 0.99400926 1.0077593 0.99928254
0.98931915 1.0106543 0.99039274 0.98469377 1.0157034 1.0067886 1.0061383 0.99562657
0.99599725 0.9951228 0.96896225 1.0093765 0.9699517 0.9821127 0.9928551 1.0101004
0.98651046 0.9962144 0.99219304 0.98180306 1.0117233 0.9822206 1.0020378 1.0129093
0.96801597 0.9989737 0.9969092 1.0132064 1.0013213 1.014335 0.98779225 1.0030055
0.98090696 1.0094928 0.99885726 1.0186965 0.9971321 1.0206934 0.98148113 1.0039374
00000000: 91a8 7e3f 9f87 733f 8540 813f 8480 7d3f
00000010: b079 7d3f 0711 7f3f 4cbf 803f 1216 813f
00000020: 67e8 7b3f d688 7e3f c441 813f 7edf 7e3f
00000030: 1a2e 813f f11d 813f a9ee 803f 262a 823f
00000040: 52f6 7d3f b0e1 7a3f 3c1e 813f a187 7f3f
00000050: 307c 7e3f 6477 7e3f 42fe 803f fbd0 7f3f
00000060: 0544 7d3f 1f5d 813f 618a 7d3f e414 7c3f
00000070: 9202 823f 73de 803f 24c9 803f 62e1 7e3f
00000080: adf9 7e3f 5ec0 7e3f e90d 783f 4033 813f
00000090: c14e 783f bd6b 7b3f c02b 7e3f f84a 813f
000000a0: f38b 7c3f e807 7f3f 5d00 7e3f 7257 7b3f
000000b0: 2680 813f cf72 7b3f c642 803f 03a7 813f
000000c0: e5cf 773f bebc 7f3f 7135 7f3f bfb0 813f
000000d0: 4c2b 803f bbd5 813f f4df 7c3f 7c62 803f
000000e0: b81c 7b3f 0f37 813f 1cb5 7f3f a664 823f
000000f0: 0d44 7f3f 15a6 823f 5942 7b3f 0581 803f

crystalGraphConvNet.convs.0.bn2.bias f4 [64]
-0.0037924687 -0.041293908 -0.0041563367 -0.002465634 0.0051931306 0.0039404533 -0.0021916674 0.0022935686
-0.028635157 -0.0063847885 -0.0009880913 0.00059433986 0.005095561 0.0040603583 -0.0024512804 -0.0074599134
-0.0072996076 -0.02512366 0.012798217 0.005640128 -0.0067854594 -0.0038874713 0.008732438 0.0022098033
-0.0023801043 0.017865501 -0.012242708 -0.02243716 -0.016510138 -0.003083813 -0.0013770906 0.00048703694
-0.010782823 -0.0013870512 -0.024668489 -0.012074539 -0.025166944 -0.021275727 -0.016242405 0.0015431776
-0.017294139 -0.0006067956 0.0054063206 0.0042614085 0.0020051172 -0.007458678 0.007890795 0.01159462
-0.024897441 -0.004154962 -0.00019643836 0.017705869 0.00963398 0.007036012 -0.018839382 -0.0035250487
-0.034256108 0.0029889948 0.002315679 0.011577232 0.0009886882 0.019944238 -0.012681757 0.013510021
00000000: 118b 78bb cd23 29bd e131 88bb 7996 21bb
00000010: 232b aa3b eb1e 813b 14a2 0fbb b24f 163b
00000020: 4794 eabc 7d37 d1bb d882 81ba 79cd 1b3a
00000030: aaf8 a63b c10c 853b a9a5 20bb 4a72 f4bb
00000040: 8c31 efbb 22d0 cdbc 9daf 513c d3d0 b83b
00000050: 8f58 debb f2c4 7ebb 8012 0f3c 59d2 103b
00000060: 86fb 1bbb ac5a 923c a495 48bc 23ce b7bc
00000070: 4540 87bc cc19 4abb 7e7f b4ba fe58 ff39
00000080: 70aa 30bc b7cd b5ba 9215 cabc 4ad4 45bc
00000090: e82a cebc 6f4a aebc cb0e 85bc 7344 ca3a
000000a0: 70ac 8dbc 5d11 1fba 8127 b13b 49a3 8b3b
000000b0: 4968 033b ed67 f4bb 6548 013c 5cf7 3d3c
000000c0: b8f5 cbbc 5926 88bb 05fb 4db9 e60b 913c
000000d0: d7d7 1d3c 598e e63b 0c55 9abc 8104 67bb
000000e0: 2250 0cbd 03e3 433b a6c2 173b 6eae 3d3c
000000f0: df96 813a 1962 a33c 25c7 4fbc 2359 5d3c

crystalGraphConvNet.convs.0.bn2.running_mean f4 [64]
5.0512633 4.657738 4.9234796 5.6476765 4.956085 5.3537188 4.82656 5.4964333
5.642122 5.4438615 4.7722373 5.32817 5.1804013 5.218778 5.5373964 5.7629232
5.6609364 6.0319695 5.5138764 4.859106 5.354666 5.4403276 4.9973555 5.454372
5.2897353 5.387314 5.3623385 5.444153 4.5998125 5.7754273 5.187621 5.769964
4.5749044 4.351005 5.7766037 4.615315 5.745581 5.845132 4.7775636 5.253861
5.4492283 4.2319794 5.724342 4.654021 4.88883 4.934101 5.2616673 4.8527994
5.9210653 5.6589875 4.685826 5.3125067 5.8755093 5.343042 5.218968 4.528329
4.848598 5.3357453 5.4859705 5.465096 5.137697 5.677248 5.365495 5.3818097
00000000: f3a3 a140 310c 9540 258d 9d40 c4b9 b440
00000010: 4098 9e40 aa51 ab40 2e73 9a40 c8e2 af40
00000020: 438c b440 1d34 ae40 2bb6 9840 5e80 aa40
00000030: d9c5 a540 3b00 a740 5a32 b140 de69 b840
00000040: 6426 b540 e505 c140 ad71 b040 cc7d 9b40
00000050: 6d59 ab40 2a17 ae40 56ea 9f40 378a ae40
00000060: 8345 a940 e064 ac40 4798 ab40 8036 ae40
00000070: aa31 9340 4dd0 b840 fe00 a640 8ca3 b840
00000080: 9e65 9240 6f3b 8b40 f0d9 b840 a9b0 9340
00000090: cddb b740 520b bb40 cde1 9840 a11f a840
000000a0: 1460 ae40 606c 8740 cf2d b740 bded 9440
000000b0: 4c71 9c40 28e4 9d40 945f a840 224a 9b40
000000c0: 5e79 bd40 6d16 b540 49f2 9540 0e00 aa40
000000d0: 2c04 bc40 33fa aa40 c901 a740 12e8 9040
000000e0: b727 9b40 6dbe aa40 128d af40 11e2 ae40
000000f0: 0468 a440 04ac b540 23b2 ab40 c937 ac40

crystalGraphConvNet.convs.0.bn2.running_var f4 [64]
11.993872 8.700509 13.262325 22.942924 10.629241 13.506752 11.658009 21.304102
16.586157 9.752891 7.7018023 12.941539 20.003384 8.406533 12.599795 16.323795
16.275291 31.499464 13.569919 11.287469 15.20678 19.811848 10.420699 24.982754
9.991791 12.30916 21.260859 13.310204 10.137122 24.02229 10.935297 17.727575
6.1569285 5.1153984 30.469406 6.5454507 13.278249 27.768261 11.939198 14.972505
17.498846 4.6361523 26.934605 5.8022823 14.022547 12.078673 17.729103 9.672251
28.71802 15.083083 8.991407 16.731037 31.022532 23.141092 23.782942 6.534272
15.826322 22.328766 12.451499 10.698557 15.106818 14.693956 12.607418 24.778366
00000000: e6e6 3f41 4935 0b41 7c32 5441 1c8b b741
00000010: 5f11 2a41 a81b 5841 3487 3a41 cd6e aa41
00000020: 73b0 8441 d70b 1c41 2a75 f640 8b10 4f41
00000030: ee06 a041 2981 0641 c398 4941 2297 8241
00000040: cc33 8241 e7fe fb41 631e 5941 7999 3441
00000050: f94e 7341 aa7e 9e41 2fbb 2641 aedc c741
00000060: 60de 1f41 52f2 4441 3d16 aa41 98f6 5441
00000070: a731 2241 a62d c041 faf6 2e41 13d2 8d41
00000080: 8f05 c540 58b1 a340 58c1 f341 5574 d140
00000090: b573 5441 6625 de41 f406 3f41 618f 6f41
000000a0: a3fd 8b41 5c5b 9440 127a d741 4cac b940
000000b0: 5a5c 6041 3f42 4141 34d5 8d41 8ac1 1a41
000000c0: 81be e541 4f54 7141 cedc 0f41 2ad9 8541
000000d0: 252e f841 f520 b941 7743 be41 c218 d140
000000e0: 9d38 7d41 50a1 b241 5739 4741 4a2d 2b41
000000f0: 87b5 7141 721a 6b41 fcb7 4941 183a c641

crystalGraphConvNet.convs.1.fc_full.weight f4 [128, 169]
0.025853112 0.021868974 -0.008878762 -0.04905179 -0.04702719 0.07612229 0.065664954 0.024026308
0.038009975 -0.06342406 0.06899262 0.027532104 -0.028479053 -0.040256318 -0.032819107 0.06577933
-0.0014944088 -0.059351157 -0.06211436 -0.025011918 0.030569697 -0.011489683 0.06208975 0.057070076
-0.04392245 -0.05168068 -0.021050658 0.017769415 -0.028791139 -0.035952833 -0.077116 0.034305133
0.023218893 -0.022071173 -0.0064097242 0.08738741 -0.05441187 -0.048257206 -0.051924072 0.010663431
0.049049772 -0.022150103 -0.012231241 0.0062639127 0.041915152 -0.006303479 -0.038549703 0.011283909
0.025053918 0.030738132 0.0060187723 -0.04730471 -0.053733747 0.013800783 -0.02512602 -0.0604669
-0.046478696 -0.034210827 -0.015314141 0.0010562091 -0.030005762 -0.038297445 -0.04229134 0.059838407
0.030983342 -0.00447855 -0.009951011 0.031971306 0.031395543 -0.024500461 0.023469266 -0.035851788
0.013278075 0.06662512 0.045688957 0.08411212 -0.067206495 -0.02631368 -0.055859275 0.07483504
-0.016422538 0.061930496 -0.020431686 0.025784632 -0.05551489 -0.05012472 0.048349287 0.05442643
0.050455164 0.061187863 -0.053656634 -0.038911343 -0.037546564 0.04419256 0.044332847 -0.082666606
0.07294091 -0.030716637 -0.01536806 -0.033349555 0.05701668 0.07689572 -0.055068675 0.06964117
0.055809185 0.02689404 -0.04767976 0.03855933 -0.04474329 -0.042969476 -0.06877319 -0.050812986
0.050009888 -0.0044669174 -0.05336526 -0.06355794 -0.05632844 -0.05499095 0.06116249 0.012164612
0.01981285 0.08491972 0.019310955 0.06019772 0.0017819704 0.06820038 -0.033277 0.04496159
-0.004302236 -0.062400654 -0.04099524 -0.03099912 -0.05783593 -0.02886026 0.07679083 -0.027261194
0.00574967 -0.05814795 -0.028669683 0.052819155 -0.06661164 0.053175922 -0.0681894 -0.043639213
0.05315813 0.027645368 0.010368588 0.02818532 -0.025376998 0.038597867 -0.03269812 -0.024836538
0.052276883 -0.04727642 0.035751868 -0.061153293 -0.0557522 -0.052751835 -0.012382179 -0.0100859925
0.036946464 0.046993442 -0.014135508 -0.05944973 -0.0646156 0.033417188 0.015634125 -0.022175157
0.06028721 -0.04711861 0.0057623642 -0.06029325 0.020104768 0.049053103 -0.06670696 -0.06296016
0.066015735 -0.012286949 -0.06247813 0.006189932 0.031751458 -0.06100199 0.001877863 -0.0038952886
-0.022442283 -0.04590087 0.05886618 0.012411124 0.030958228 -0.014839914 0.014808126 -0.023184901
-0.023758216 0.01117735 0.021025505 0.0358187 -0.038978953 -0.05893711 -0.049490586 0.001444047
-0.026810315 -0.076994814 -0.019131081 0.002954489 -0.016189877 0.036784872 0.023828873 0.039494924
0.02541076 -0.0143668465 -0.014098209 0.0013254598 -0.055806015 0.022370633 0.024558637 -0.067996286
0.005262354 -0.058695693 0.023096137 0.044637337 0.040528905 0.05957896 0.07533489 0.0061438824
0.01703928 0.04314853 -0.0080718305 -0.04915802 0.048760265 0.058191173 -0.038448498 0.041905474
0.013606489 -0.008476349 0.0034998425 0.004710742 -0.013254834 -0.04436678 0.04949598 0.0066660517
0.061866406 0.06791763 0.041245822 0.019795489 -0.03870251 -0.0068558333 0.057499822 0.06724257
0.06953586 0.061342463 -0.030339632 -0.00426195 -0.035867855 -0.011982942 0.05354011 -0.0447585
00000000: e8c9 d33c 9026 b33c 3a78 11bc 88ea 48bd
00000010: 959f 40bd 01e6 9b3d 597b 863d d2d2 c43c
00000020: 59b0 1b3d 79e4 81bd 014c 8d3d 028b e13c
00000030: e74c e9bc cfe3 24bd 546d 06bd 50b7 863d
00000040: 0ae0 c3ba 331a 73bd a16b 7ebd cbe5 ccbc
00000050: 4d6d fa3c 393f 3cbc d251 7e3d 50c2 693d
00000060: 07e8 33bd 1faf 53bd 6e72 acbc 2a91 913c
00000070: 65db ebbc 4743 13bd feee 9dbd 8a83 0c3d
00000080: 8c35 be3c 9bce b4bc aa08 d2bb 2cf8 b23d
00000090: fbde 5ebd 59a9 45bd 56ae 54bd acb5 2e3c
000000a0: 6ae8 483d 2274 b5bc 8b65 48bc 8241 cd3b
000000b0: 39af 2b3d 6a8d cebb 4be6 1dbd 25e0 383c
000000c0: e03d cd3c 89ce fb3c 1f39 c53b 95c2 41bd
000000d0: eb17 5cbd ae1c 623c 15d5 cdbc 24ac 77bd
000000e0: 7260 3ebd a720 0cbd 2ae8 7abc 7f70 8a3a
000000f0: a5ce f5bc c8dd 1cbd af39 2dbd 1e19 753d
00000100: c7d0 fd3c cdc0 92bb 9109 23bc 58f4 023d
00000110: 9d98 003d 31b5 c8bc 9e42 c03c 53d9 12bd
00000120: 488c 593c c072 883d 5824 3b3d fa42 ac3d
00000130: 8fa3 89bd c98f d7bc b2cc 64bd 1d43 993d
00000140: 8f88 86bc d5aa 7d3d 5a60 a7bc 4b3a d33c
00000150: 9563 63bd 944f 4dbd e709 463d 40ee 5e3d
00000160: 13aa 4e3d 20a0 7a3d 0fc7 5bbd 8061 1fbd
00000170: 6dca 19bd 4203 353d 5c96 353d 1c4d a9bd
00000180: 0b62 953d 75a1 fbbc 51ca 7bbc 8b99 08bd
00000190: 528a 693d 817b 9d3d b18f 61bd 08a0 8e3d
000001a0: 2c98 643d e450 dc3c da4b 43bd 63f0 1d3d
000001b0: bd44 37bd c300 30bd f5d8 8cbd 4721 50bd
000001c0: 2bd7 4c3d 385f 92bb 8895 5abd aa2a 82bd
000001d0: a6b8 66bd 313e 61bd 8585 7a3d 154e 473c
000001e0: 8f4e a23c 64ea ad3d 0232 9e3c e291 763d
000001f0: 0191 e93a a4ac 8b3d 774d 08bd a529 383d
00000200: c5f9 8cbb d497 7fbd a0ea 27bd def1 fdbc
00000210: 5ee5 6cbd 5a6c ecbc 8344 9d3d de52 dfbc
00000220: ba67 bc3b 8b2c 6ebd afdc eabc e658 583d
00000230: af6b 88bd ffce 593d e2a6 8bbd 08bf 32bd
00000240: 57bc 593d 8a78 e23c 03e1 293c e6e4 e63c
00000250: 6ce3 cfbc cc18 1e3d 77ee 05bd ff75 cbbc
00000260: 4920 563d eba4 41bd 8d70 123d e07b 7abd
00000270: 6b5c 64bd 4f12 58bd 9fde 4abc b83f 25bc
00000280: 2d55 173d 327c 403d 9e98 67bc 8f81 73bd
00000290: 2f55 84bd 76e0 083d 2313 803c ada8 b5bc
000002a0: b9ef 763d 72ff 40bd 37d2 bc3b 0ef6 76bd
000002b0: c1b2 a43c e8eb 483d a99d 88bd 42f1 80bd
000002c0: 4233 873d 334f 49bc 11e9 7fbd ead4 ca3b
000002d0: d10d 023d 39dd 79bd a022 f63a 1948 7fbb
000002e0: e1d8 b7bc 8d02 3cbd aa1d 713d 0758 4b3c
000002f0: 1c9c fd3c 1c23 73bc c89d 723c 43ee bdbc
00000300: 97a0 c2bc 3421 373c ae3d ac3c a1b6 123d
00000310: 65a8 1fbd 0a68 71bd a4b6 4abd 2d46 bd3a
00000320: 4ea1 dbbc 75af 9dbd c9b8 9cbc 1aa0 413b
00000330: a2a0 84bc bcab 163d c534 c33c 6ec5 213d
00000340: 3a2a d03c ec62 6bbc 2dfc 66bc 0dbb ad3a
00000350: d994 64bd 9e42 b73c 322f c93c a341 8bbd
00000360: d36f ac3b e56a 70bd 1c34 bd3c a4d5 363d
00000370: a301 263d 1109 743d 2e49 9a3d 9f52 c93b
00000380: f695 8b3c 83bc 303d b63f 04bc ec59 49bd
00000390: d8b8 473d de59 6e3d 2c7c 1dbd 13a5 2b3d
000003a0: c0ed 5e3c 62e0 0abc 9d5d 653b 915c 9a3b
000003b0: ce2a 59bc f1b9 35bd 4cbc 4a3d e56e da3b
000003c0: a167 7d3d 6618 8b3d 61f1 283d 262a a23c
000003d0: 8686 1ebd e6a6 e0bb ef84 6b3d 79b6 893d
000003e0: d168 8e3d 3c42 7b3d d28a f8bc d4a7 8bbb
000003f0: 2cea 12bd 1a54 44bc e04c 5b3d b054 37bd

crystalGraphConvNet.convs.1.fc_full.bias f4 [128]
0.048113357 -0.0046206755 0.026885638 -0.0124304965 0.04145331 -0.046243347 -0.062424533 -0.059291758
0.009645943 -0.075914524 -0.005902572 0.004220497 0.008184338 -0.067753315 -0.050970998 0.02773173
-0.0536695 0.045219462 -0.061898444 -0.06691824 -0.053947944 0.021591 0.021098323 -0.07300284
0.032973118 -0.06898179 0.035419244 -0.035168145 -0.02978905 -0.005032778 -0.01428452 0.02537766
-0.07389056 -0.0430471 -0.026124887 0.049768 0.043167304 0.068712704 -0.035471596 0.06661377
0.009348071 0.0047226935 -0.048529215 -0.03569109 -0.061587803 -0.025384242 -0.058238078 0.017252555
-0.016461333 0.060727317 0.035196014 -0.018968353 -0.075101815 0.05225558 -0.02561274 0.013906658
0.044867344 -0.06460021 0.06687405 0.0130657535 -0.07434465 0.06998319 -0.07474182 0.040040154
-0.07579752 -0.012615618 -0.029888477 -0.047323935 0.005502225 0.016756978 -0.0061771497 0.015061262
-0.045219865 -0.025326854 -0.05353692 0.020687671 -0.039933085 -0.05066332 -0.074327216 0.058702976
0.047208145 -0.059796825 -0.013710212 0.009955321 -0.02210264 0.06491335 0.023500297 0.062098745
0.0015641262 0.061349805 0.02973519 0.052861657 0.060036954 -0.06395547 0.0566251 0.05866811
0.033461023 0.013735181 0.043298833 -0.039596394 -0.041176956 0.015014213 -0.061161466 -0.01917402
-0.0212233 -0.028379593 0.059123877 0.054877363 -0.03193539 0.04156391 0.010347851 0.0054253303
-0.0072647887 -0.0212204 -0.0027261188 -0.0041205604 0.021081071 -0.06816939 -0.07192361 0.0139685245
-0.007433854 0.045784082 -0.054733433 0.021223025 0.047695287 -0.07282645 0.053136542 0.06078612
00000000: 8312 453d 0969 97bb 453f dc3c 48a9 4bbc
00000010: f2ca 293d aa69 3dbd deb0 7fbd eadb 72bd
00000020: 040a 1e3c 1379 9bbd 5d6a c1bb 184c 8a3b
00000030: 9a17 063c 40c2 8abd f7c6 50bd a72d e33c
00000040: 8dd4 5bbd 0b38 393d 3989 7dbd 6e0c 89bd
00000050: 85f8 5cbd 9cdf b03c 64d6 ac3c 8382 95bd
00000060: d20e 073d 5346 8dbd c513 113d 790c 10bd
00000070: 2a08 f4bc 00ea a4bb 9f09 6abc cfe4 cf3c
00000080: ef53 97bd 2852 30bd dc03 d6bc 88d9 4b3d
00000090: 33d0 303d 3fb9 8c3d aa4a 11bd cd6c 883d
000000a0: a728 193c d3c0 9a3b 92c6 46bd d230 12bd
000000b0: 7e43 7cbd 9df2 cfbc 0d8b 6ebd 3b55 8d3c
000000c0: ebd9 86bc 35bd 783d b229 103d 8563 9bbc
000000d0: fbce 99bd f209 563d cfd1 d1bc c0d8 633c
000000e0: d2c6 373d 1d4d 84bd 43f5 883d be11 563c
000000f0: 0242 98bd 5953 8f3d 3d12 99bd 2501 243d
00000100: bb3b 9bbd bdb1 4ebc aed8 f4bc bed6 41bd
00000110: 024c b43b ee45 893c b069 cabb 83c3 763c
00000120: 7738 39bd 437a cfbc 8849 5bbd 3179 a93c
00000130: e090 23bd 5784 4fbd de38 98bd 8872 703d
00000140: 545d 413d 84ed 74bd cca0 60bc a51b 233c
00000150: 9810 b5bc 4af1 843d b283 c03c 415b 7e3d
00000160: 5e03 cd3a ef49 7b3d 3797 f33c 7785 583d
00000170: 4fe9 753d 16fb 82bd b9ef 673d f94d 703d
00000180: 6d0e 093d 8609 613c 1e5a 313d d42f 22bd
00000190: 2ba9 28bd 2cfe 753c 7284 7abd d612 9dbc
000001a0: 7cdc adbc 527c e8bc e12b 723d 16c7 603d
000001b0: afce 02bd eb3e 2a3d 088a 293c f8c6 b13b
000001c0: 770d eebb 68d6 adbc afa8 32bb c405 87bb
000001d0: 36b2 ac3c 659c 8bbd b04c 93bd 3ddc 643c
000001e0: b097 f3bb 1788 3b3d 2a30 60bd e9db ad3c
000001f0: 225c 433d 0926 95bd b4a5 593d defa 783d

crystalGraphConvNet.convs.1.bn1.weight f4 [128]
0.99922305 1.0006967 0.9995877 0.9963451 1.0010108 1.000191 0.99931955 1.0006127
1.0021075 1.0017868 1.0006728 1.0104396 0.98953515 0.99999946 1.0011675 1.0050156
1.0056642 0.9975869 1.0019159 1.006413 0.9994154 0.9994021 1.00003 0.99887055
1.0007751 1.0033145 0.9995933 1.0006751 0.9988353 0.9991326 1.0014316 1.0043648
1.002168 1.0017607 1.0051235 0.9989779 0.9978884 1.0023113 1.0005113 0.99959964
1.000587 1.003693 0.9968706 1.0021632 1.0016997 0.99984753 1.0019127 0.99939376
0.99594504 1.0010188 1.0006157 1.0024267 0.9999972 1.0047839 1.0105906 0.9997384
1.000688 1.0033212 1.0006534 1.0059774 1.0093691 1.0002173 0.99948376 0.9996632
1.0003295 0.9973488 1.0015641 1.0026203 0.9995679 0.9999072 0.9973 0.999223
0.99999475 1.000368 0.99822766 0.9934492 1.0083344 1.00126 0.99746084 0.9930265
0.99785626 1.001048 0.9907826 0.9999751 1.0027894 1.0002364 1.0008565 1.0030309
0.9983015 0.9979632 1.0019222 1.0007546 0.99825 0.9975347 0.9992252 1.0075922
0.9990466 0.9991874 1.0052989 1.0000032 1.0009961 0.9977525 0.9983543 1.0013757
1.0048372 0.99779636 0.99944866 1.0023445 0.9980896 1.0002052 0.9981448 1.0019362
1.0058309 0.99862576 0.99943984 0.99846196 1.0021292 0.99775857 0.99571383 1.0022215
0.99824 0.9967857 1.0035255 1.0013514 0.99931616 0.99979365 1.001802 1.0007704
00000000: 15cd 7f3f d416 803f fbe4 7f3f 7910 7f3f
00000010: 1f21 803f 4206 803f 68d3 7f3f 1414 803f
00000020: 0f45 803f 8d3a 803f 0c16 803f 1656 813f
00000030: 2d52 7d3f f7ff 7f3f 4226 803f 5aa4 803f
00000040: 9bb9 803f db61 7f3f c83e 803f 24d2 803f
00000050: b0d9 7f3f d1d8 7f3f fc00 803f fbb5 7f3f
00000060: 6619 803f 9c6c 803f 59e5 7f3f 1f16 803f
00000070: acb3 7f3f 27c7 7f3f e92e 803f 078f 803f
00000080: 0b47 803f b239 803f e3a7 803f 04bd 7f3f
00000090: 9d75 7f3f bd4b 803f c110 803f c3e5 7f3f
000000a0: 3c13 803f 0379 803f e932 7f3f e246 803f
000000b0: b237 803f 02f6 7f3f ad3e 803f 45d8 7f3f
000000c0: 41f6 7e3f 6221 803f 2d14 803f 854f 803f
000000d0: d1ff 7f3f c29c 803f 085b 813f dbee 7f3f
000000e0: 8b16 803f d46c 803f 6915 803f dec3 803f
000000f0: 0233 813f 1f07 803f 2bde 7f3f ede9 7f3f
00000100: cc0a 803f 4052 7f3f 4133 803f dd55 803f
00000110: afe3 7f3f ebf9 7f3f 0e4f 7f3f 14cd 7f3f
00000120: a8ff 7f3f 0f0c 803f d98b 7f3f b052 7e3f
00000130: 1a11 813f 4a29 803f 9859 7f3f fc36 7e3f
00000140: 8273 7f3f 5722 803f eea3 7d3f 5efe 7f3f
00000150: 675b 803f bf07 803f 111c 803f 5163 803f
00000160: b090 7f3f 847a 7f3f fd3e 803f ba18 803f
00000170: 508d 7f3f 6f5e 7f3f 39cd 7f3f c8f8 803f
00000180: 85c1 7f3f bfca 7f3f a2ad 803f 1b00 803f
00000190: a420 803f b56c 7f3f 2694 7f3f 142d 803f
000001a0: 819e 803f 956f 7f3f dedb 7f3f d34c 803f
000001b0: cd82 7f3f b906 803f 6b86 7f3f 723f 803f
000001c0: 11bf 803f f0a5 7f3f 4adb 7f3f 349b 7f3f
000001d0: c545 803f 1b6d 7f3f 1ae7 7e3f cb48 803f
000001e0: a88c 7f3f 592d 7f3f 8673 803f 482c 803f
000001f0: 2fd3 7f3f 7af2 7f3f 0c3b 803f 3f19 803f
