training_cgcnn_p_u/saved_models/gllb-sc_294_p_u.ckpt (torch, 676938 bytes, 60 tensors)

crystalGraphConvNet.embedding.weight f4 [64, 92]
00000000: a677 94ba b657 3abd 9f4b 6fbd 9968 323c
00000010: cc59 80bc 7d9c 9f3d 6681 6a3b 3bde fcbc
00000020: 5b43 903c 75b2 cf3b 27e6 9d3c 0996 91bd
00000030: 61c7 42bd d16f a13c 53bf ad3d 0cbc d23b
00000040: dad9 8ebd 3ddd 023d 8506 223d 09f7 713d
00000050: 989d 01bd 1396 933c 4ed5 43bb b513 fe3d
00000060: 8d2a 53bd 4ede dc3c 854d 1b3a 0db5 9cbd
00000070: c0bd dc3c 5d1e 43bd 3177 b93d dd72 c93d
00000080: f367 b03c 7f16 7bba bd7c 95bd d41e dd3b
00000090: 1bf8 843c 6a73 1ebe e8d3 813d 1d86 be3d
000000a0: 4189 84bc aad2 acbc dfec ecbc 4098 1bbc
000000b0: daee a93c e06a 3bbb f197 ecbd cd79 c0bd
000000c0: c7e7 3a3d f652 083d 13b9 1abd 6d74 6ebd
000000d0: c54e cdbd 248b 283d ed6e a6bd 390e 883d
000000e0: 913d 293d ce2d 8d3d 24c4 cd3c e0f5 a23c
000000f0: 87f6 3e3d 776e e73d c186 893d 1abb 66bd
00000100: 83c3 eabd a059 ab3c de9d 41bd ba67 81bc
00000110: 4c40 313d ea41 cc3c 6476 ca3d f8f4 81bc
00000120: a248 8b3d 49a6 33bd 9b1b 79bc 455d 5c3d
00000130: de38 82bc a352 803d 691b bf3d e95f 5ebd
00000140: fa20 813d efee 17bd caa0 523d a3f3 ec3d
00000150: 477f c9bd 20ae 973c a680 a8bc 1511 85bd
00000160: 29ab 87bd 43b1 8a3d f0a7 6dbc e95e 8abd
00000170: 7e83 7e3d a67b 923c ba49 abbd a360 813c
00000180: 86da 9a3d 3d78 ab3c 6319 833d fbe8 77bd
00000190: f0d3 b7bd 94f2 053d 477c 8f3d c7f9 0d3d
000001a0: c3fd 98bd 6ab2 ab3d f0ef bbba 675d 1ebd
000001b0: 4a96 abbd d4f2 e03a 56cf ae3c 69ca 063d
000001c0: cc56 ce3c d603 023e 4701 5dbd fbb2 b0bd
000001d0: 568d 96bd 3bac db3c 04cb f93d 552f 493d
000001e0: a9a0 42bd 6e1a 14bb 1a70 96bd c94d 483b
000001f0: 40c8 2fbd e384 513c f802 d53c 3362 c0bd
00000200: 3e42 b13d 6948 d53d 884a 3ebc 6f8c 9dbd
00000210: f610 9c3d 8acc 87bd 6a1e 73bd c535 90bd
00000220: 0c99 aa3d bb02 95bd 2d17 52bd 223f a93d
00000230: 25f7 ae3d 8845 e7bc 59f9 f63c eb21 bdbd
00000240: 7952 3a3d cf5f 943d b595 1dbd 4cef 62bd
00000250: 5ee5 6d3d 6ec9 dbbd 1bea ec3d aab3 a63c
00000260: e338 3d3d c94d f5bd 8eff e1bd 3fec a13b
00000270: 72be 6b3c bda9 9f3d 6b93 c33d 0a9a 1dbd
00000280: 8860 843d 46d9 30bb 5688 cfbd 1796 123d
00000290: 3e48 3ebd 215b 2bbc 9a46 84bd 3f49 463d
000002a0: 2eef a1bd 40c4 b5bd ad7a e43d 31e9 023c
000002b0: b17d 063c 4f5a bc3d 9e3f a3bc 32ee d9bd
000002c0: d4a5 ef3b 3dba 10bd cb1f e9bc fe31 72bd
000002d0: 50be d93b 1273 acba 9c1a 963d a80d abbd
000002e0: d15f 2a3d 6c9c 9e3d 839a afbc 76b3 04bc
000002f0: 8ddc c73c 11f1 c93d e9c9 183d 732c 82bd
00000300: 9fca 903d 186b e3bc a169 333d 34b1 48bd
00000310: c878 d0bd 9fd0 5b3d f58b 093c d1d1 c13c
00000320: 971f 583d f9c5 073e d66c 6f3d fb83 59bd
00000330: 9354 a13d 1f5c 163d 6cf9 4bbd b65d 05bb
00000340: 11b4 bebd 28db 86bc 7d27 19bd 87f9 6fbb
00000350: 3a6f c5bd a795 dcbd 683f 31bd 24d3 d9bc
00000360: 771e 453a 26e4 8cbc fbe9 a2bb c523 9e3d
00000370: bb24 7ebd 34d2 893d 33e8 bebd 8ec8 2abd
00000380: 31b4 ddbd 7537 363b 015e 96bb 91cd c23c
00000390: 0d9f b73d 6a2e a5bd c2b0 debc 8d3a d2bd
000003a0: 3190 9f3d 99b4 39bc 3ba5 be3c f34c f4bb
000003b0: b2fa 133d 7433 503d ffc2 673d 15d2 e93c
000003c0: e37a ac3d 3f9c 8abd cb88 b1bd cd52 123d
000003d0: 2c46 22bd 8c65 07be 1fd4 4f3d b270 35bd
000003e0: e2d9 bb3d 1509 323a 3252 163d 0f66 a4bd
000003f0: fa2e a23a afaf a4bc 1f48 0a3d e7f6 8dbd
-0.0011327162 -0.045493804 -0.058421727 0.010889196 -0.015667818 0.0779352 0.0035782694 -0.030867686
0.017610243 0.0063384124 0.019274784 -0.07108695 -0.047553424 0.019706639 0.08483758 0.0064311083
-0.06975146 0.03194927 0.039557 0.05907348 -0.031644434 0.018015897 -0.0029881778 0.124061026
-0.05155425 0.026961472 0.0005924332 -0.0765172 0.026945949 -0.04763638 0.09055937 0.098363616
0.021533942 -0.00095782423 -0.072991826 0.0067480598 0.016231587 -0.15473714 0.06339246 0.09302924
-0.016178729 -0.021096546 -0.028921543 -0.009496748 0.020743776 -0.0028597638 -0.11552418 -0.09398232
0.045631196 0.033282243 -0.037774157 -0.0582165 -0.1002479 0.04114832 -0.08126626 0.06643338
0.04131848 0.06893502 0.025117941 0.019892633 0.046621826 0.11300366 0.067151554 -0.056330778
-0.11463072 0.02091676 -0.047269695 -0.015796531 0.04327421 0.024933774 0.098858625 -0.01586388
0.06800963 -0.043859754 -0.015204336 0.053799886 -0.015896257 0.06265762 0.093314 -0.054290686
0.06305118 -0.0370931 0.05142287 0.115699075 -0.09838729 0.018515646 -0.020569157 -0.06497399
-0.06624443 0.06772091 -0.014505371 -0.06756384 0.06213712 0.017881226 -0.083636716 0.01579315
0.07561211 0.020931358 0.064013265 -0.060524922 -0.08975971 0.032702044 0.07006126 0.034662034
-0.07470276 0.08383639 -0.0014338475 -0.038663294 -0.08378275 0.0017162212 0.0213391 0.032907877
0.025187872 0.12696776 -0.053956296 -0.08627888 -0.073511764 0.026815524 0.12196925 0.049117405
-0.0475165 -0.002259876 -0.073456004 0.0030563942 -0.042915583 0.01278803 0.026002392 -0.0939373
0.08655213 0.10414202 -0.011614449 -0.07692801 0.076204225 -0.066308096 -0.059355177 -0.07041506
0.083299726 -0.072759114 -0.051291633 0.08263995 0.08543233 -0.028231397 0.030148195 -0.09234985
0.04548881 0.072448365 -0.03847285 -0.055403993 0.05808007 -0.10731779 0.115680896 0.020349342
0.04619683 -0.11977727 -0.11035071 0.004941493 0.014388667 0.07796047 0.09549602 -0.03847698
0.064637244 -0.0026984974 -0.10133426 0.035787668 -0.046455614 -0.010458739 -0.06458779 0.048409697
-0.07906948 -0.08875322 0.11156211 0.0079901675 0.008208678 0.091969125 -0.019927796 -0.10641135
0.0073134694 -0.03533386 -0.028457543 -0.059129708 0.0066450015 -0.0013156852 0.07329294 -0.08352214
0.041595284 0.07744679 -0.021435982 -0.008099427 0.024397159 0.09860433 0.03730193 -0.06356134
0.07069897 -0.027761027 0.043801907 -0.04899712 -0.10179287 0.053665753 0.008395185 0.023659619
0.0527645 0.13259114 0.058453403 -0.053104382 0.078774594 0.036708947 -0.049798414 -0.0020350046
-0.09311689 -0.016461924 -0.037391175 -0.0036617236 -0.096403554 -0.107707314 -0.04327336 -0.026589938
0.0007519493 -0.017198633 -0.0049717403 0.07721666 -0.062046748 0.06729546 -0.09321632 -0.04169517
-0.108253844 0.002780405 -0.004588843 0.023779662 0.089658834 -0.080654934 -0.027183894 -0.10265074
0.07791174 -0.011334562 0.023272147 -0.007455462 0.036127754 0.05083032 0.056582447 0.028542558
0.08421876 -0.06768083 -0.08668669 0.035723496 -0.039617702 -0.13222331 0.050739404 -0.044296928
0.09172417 0.00067915145 0.03669948 -0.08027279 0.0012373619 -0.020103304 0.033760186 -0.069318585

crystalGraphConvNet.embedding.bias f4 [64]
00000000: 5ff8 e1bd 5406 c43d 2a31 bebc ac38 a8bd
00000010: ffb5 8dbc 3bf5 9c3d 0f58 93bd 001c c43b
00000020: e971 b5bd 02c5 c43d a49f 20bc b859 c8bc
00000030: bfc7 a3bd 6d45 0f3d ead5 86bd 742c e93d
00000040: 9c1c 793d 8ffc 663d a45f 883d 69a6 293d
00000050: e323 523d d05a 843d 6065 9cbd e92c ae3c
00000060: 13dd 6abc 9ad5 b5bd 3400 273d 0330 3bbd
00000070: 0f05 d2bd 7173 843d 1405 613d be83 e63c
00000080: 21c4 3e3d a52f b8bd 7b99 96bc 2246 f2bc
00000090: 6437 8abd 4019 c43c 79fa 743d 43e9 bcbd
000000a0: 0c77 7abd 47e4 d03b 4ad2 e7bd bfbe 20bd
000000b0: ab74 33bc 9d38 343d f715 9e3b 24c0 d93b
000000c0: 9de1 4fbc c3c6 6f3d bb89 5abd c9e3 cd3c
000000d0: 5a8c 2cbd a876 593d 8c27 a23d dc12 283d
000000e0: 1ec4 bb3c b054 b6bd 73fa ebbd 5cf1 c33d
000000f0: 4a38 793d 49f5 f43c 5f4f 0f3d 897d a53c
-0.11033701 0.095715195 -0.023216803 -0.08213934 -0.017298697 0.076639615 -0.0719453 0.005984783
-0.08859617 0.09607889 -0.009803686 -0.024456844 -0.07997083 0.03497832 -0.065837696 0.11385432
0.0608183 0.056393202 0.06658867 0.041418467 0.051303755 0.064626336 -0.07636523 0.02126165
-0.014334935 -0.08878632 0.040771678 -0.045700084 -0.10254871 0.06467331 0.054936484 0.028138991
0.04657376 -0.089934625 -0.018383732 -0.029574458 -0.06748846 0.023937821 0.05980918 -0.09224179
-0.06114869 0.006374869 -0.11319406 -0.03924441 -0.010953109 0.043999303 0.0048243958 0.0066452194
-0.012688068 0.058539163 -0.053354006 0.02513303 -0.042126037 0.053091675 0.07917699 0.04103361
0.022920664 -0.089028716 -0.11522379 0.0956752 0.060844697 0.029902117 0.034987804 0.020201461

crystalGraphConvNet.convs.0.fc_full.weight f4 [128, 169]
00000000: 538e 5a3c 1c5c a9bd 9467 dd39 a8bd 783d
00000010: 747f 5dbd ae67 8abd 420b dd3c 01a6 41bd
00000020: 6656 61bb b731 993d ca40 6bbd 867d a23c
00000030: f5c3 f03c 7cb8 363d 0353 8a3c 498a 34bd
00000040: 11a3 81bd 2831 2fbd 7bb0 f8bc 1d20 a83d
00000050: d156 7b3d 4a4d 673d 67e0 083c 3630 3ebd
00000060: 135d 05bd a750 d23d 9c2e 713d 4ba2 30bd
00000070: 1c51 2abd a25d 5fbd f0fe 59bd 35dc 4cbc
00000080: fa2b 843b 501f 193c fb59 d7bc 7056 b5bb
00000090: c816 3fbd edd9 8abd bb50 223d ff22 64bd
000000a0: ab7d 803d 93f4 2bbd e7e8 c8bc af54 7cbd
000000b0: 0acf e3bc 0898 263d fa2d 933d 724b 21bd
000000c0: c03c a0bb a216 303d 3b1e 4abd 191a f6bc
000000d0: b0f6 3d3c b4ae 4f3c 335f c2bc 1ae9 7cbc
000000e0: 8253 753d 9cfb 77bd 4e81 57bd 7896 f63c
000000f0: 53a1 99bb 8a96 cbbc be90 763d 1294 4f3d
00000100: edd4 9bbd 20e7 293d 86c3 2e3d e401 493d
00000110: f97f 303d 16d9 a0bd d358 ee3c 5076 0bbd
00000120: 8299 ca3b 6791 08bc 74ed 20bd 95b5 6dbd
00000130: 1366 00bb ab7d e3bb c0e3 953a 2f00 48bc
00000140: 38f0 88bc 8847 79bd 2636 88bd 7ce0 60bd
00000150: 3ed1 053d 5cd3 e439 3595 4ebc 5e5f 9bb9
00000160: 1013 ac3c 1a7d 89bd 546e 1abd b3da d2bc
00000170: f72a 7cbd 6be8 4c3d 8455 2c3d 8d1d a53c
00000180: 73d9 26bd b3de 853d 4f31 893c 2ef5 273d
00000190: b096 41bc afd5 ab3c 4fe6 903c 0c5a 753d
000001a0: c520 25bd 80cf 98bd edce 0a3d fe43 863d
000001b0: 249e 76bd f19d 5e3c e5e5 843d 1b51 bcbb
000001c0: 40be ee3c 3e06 883d 6ee2 0abb c498 853d
000001d0: 937b 1e3d 0581 1fbc 1fcf 1a3d 1ee4 58bc
000001e0: a0c9 13bd f64a b6ba 1b18 f73c 5e0b 25bd
000001f0: e761 643d 2bae 7fbd d1a5 f53c 4d72 1fbb
00000200: c3b1 3abd 1476 b4bb b710 9b3c 8aaa ad3b
00000210: 78be 93bd f7a0 873d a6ea 5dbb c7e8 c33c
00000220: d1b7 df3c fb1f 373c 31c0 853c 07ab 6e3d
00000230: 9590 ee3c f4d5 8d3d bc4f e8bc 1967 903c
00000240: 3637 e33c f62b e63c 2bc6 5cbd 27c6 253d
00000250: c936 5b3d 9a48 05bd ff21 3f3d 4aab 533c
00000260: 6a98 ea3c 6b56 513d 3b92 a43b 2533 9bbd
00000270: 1fba 0bbd 2b4b 923c f44c 7ebd c7b3 d83c
00000280: 8ae9 47bd 923a 1bbd 6a0b 76bd d498 323d
00000290: fec2 26bd 720c 0abd 01b0 e2ba 5644 893d
000002a0: 12b7 53bd 99ae 20bd bee7 9ebc 3979 94bb
000002b0: d17e 8abd b6f6 0cbd 09a7 993c d833 353d
000002c0: aa6d 7b3c e00b 15bd 752d 4ebc b12f 573d
000002d0: a5dc 823c fb89 6cbd f453 00bd daa9 be3c
000002e0: 05eb 053d 2581 2f3d 6845 763c 2b12 ccbc
000002f0: 6d27 b13c 3b0a 5ebd 4c77 7bbc e7da 6c3d
00000300: f7c2 883c 1a25 703d 9b0b 603c 6884 583b
00000310: e820 debc f58b 86bc d2af 063d c931 80bd
00000320: 5e9e 473d 9682 ecbc 66d1 7a3d 4064 183d
00000330: 0670 8d3d 5350 8d3d 9f3a 3abc e7bb 763d
00000340: 120c 503d 1955 75bb 263e 003d a896 533d
00000350: 7efe 8cbd 5efd 9d3d 2103 893d 6c1e 4b3d
00000360: c5f1 513d b978 423d d0a6 a03d d680 873d
00000370: 7bb2 febc f298 a43d 5ddc 92bd 3727 6b3d
00000380: 0da0 393d 2e10 a03c e65f 2fbc ad9b 3cbd
00000390: b8ba a8bd ee26 9b3c 0a78 17bc 6feb 96bc
000003a0: f435 e0bc 3b14 a2bd b3d5 6ebd bfec 803c
000003b0: a643 7ebd 4088 663d 8c30 8abd a1b3 7bbd
000003c0: 556a 92bd 268a e2bc d05f 123d fbf1 9d3c
000003d0: b2ca 313d 42a8 823d 10fc 873d cff9 463d
000003e0: 621a 6bbc c271 93bd 57d1 3b3d e3a1 00bd
000003f0: 0dea 453d 2594 29bd 7deb 95bd bd79 3f3d
0.013339597 -0.082695216 0.00042229577 0.060727745 -0.054076627 -0.067580566 0.026982907 -0.047277454
-0.0034383773 0.074801855 -0.057434835 0.019835245 0.029390315 0.04460953 0.016885286 -0.04407719
-0.063299306 -0.04277149 -0.03035759 0.0820925 0.06136209 0.056470193 0.008354283 -0.046432696
-0.032559466 0.102692895 0.05888234 -0.043123525 -0.04158126 -0.054532655 -0.053221643 -0.012503673
0.0040335627 0.009345844 -0.026288023 -0.005533986 -0.046652585 -0.06779847 0.03962777 -0.055697437
0.06273969 -0.04198129 -0.024525119 -0.061604198 -0.027808685 0.040672332 0.07186504 -0.03937859
-0.0048900545 0.042990334 -0.049345236 -0.030041741 0.011594459 0.01267593 -0.023727035 -0.015436435
0.059894092 -0.060542688 -0.05261355 0.030101046 -0.004688421 -0.024852056 0.06019663 0.05067832
-0.07608972 0.041480184 0.042666934 0.04907407 0.043090794 -0.07853906 0.029095089 -0.03404838
0.0061828503 -0.008335448 -0.039288953 -0.0580345 -0.001959209 -0.006942471 0.0011435673 -0.012207075
-0.016716108 -0.060859233 -0.06650953 -0.054901585 0.032670252 0.00043645024 -0.012608816 -0.00029634958
0.021005183 -0.06713314 -0.037702873 -0.02573905 -0.061564412 0.05002634 0.04207374 0.020155692
-0.04073472 0.06536617 0.016747145 0.041005306 -0.011815712 0.020975916 0.017687945 0.05990033
-0.040314455 -0.074614525 0.033888746 0.06555937 -0.06020941 0.013587461 0.064891614 -0.005746973
0.029143453 0.066418156 -0.0021192092 0.06523278 0.03869207 -0.0097353505 0.037795182 -0.013237981
-0.036080956 -0.0013907838 0.030162862 -0.040294044 0.05575743 -0.06242196 0.029986294 -0.0024329603
-0.045579683 -0.00550724 0.018928869 0.005299871 -0.072140634 0.066224985 -0.0033861785 0.023914708
0.02730933 0.011177058 0.016326996 0.058268573 0.029121676 0.06925574 -0.028358333 0.017627286
0.027736288 0.028097134 -0.053899925 0.040472176 0.053519044 -0.03253994 0.04666328 0.012919256
0.02863713 0.051107805 0.005022315 -0.075781144 -0.034113046 0.017858109 -0.062085107 0.026452912
-0.048806705 -0.037897654 -0.06006948 0.04360278 -0.040713303 -0.033703275 -0.0017294885 0.06702487
-0.05168826 -0.03922901 -0.019397613 -0.0045310524 -0.067624696 -0.03441497 0.018756406 0.044238895
0.01534597 -0.036388278 -0.01258408 0.052535716 0.015974352 -0.057748776 -0.031330064 0.02327435
0.032694835 0.04284777 0.015031196 -0.024911007 0.021625245 -0.054208975 -0.015348267 0.05782595
0.016694529 0.058629133 0.013674642 0.0033037905 -0.0271153 -0.016424159 0.03288252 -0.06259496
0.048735015 -0.028870862 0.061234854 0.03720498 0.069061324 0.06900086 -0.011366515 0.06023779
0.05079276 -0.0037434755 0.03130927 0.05165735 -0.06884478 0.077143416 0.0669005 0.04958956
0.05125596 0.04747841 0.07844317 0.066163704 -0.031090965 0.080369845 -0.07170937 0.057410445
0.045318652 0.019538965 -0.010704016 -0.0460469 -0.08238739 0.018939462 -0.009244928 -0.01842281
-0.027369477 -0.07914015 -0.05830927 0.01573789 -0.062076233 0.056282282 -0.06747541 -0.061450604
-0.071491875 -0.027653765 0.035735905 0.019280424 0.043406196 0.06379749 0.06639874 0.04857808
-0.014349552 -0.07199432 0.04585394 -0.031404387 0.04831891 -0.041401047 -0.073203065 0.046746958

crystalGraphConvNet.convs.0.fc_full.bias f4 [128]
00000000: 55ca 36bd 7d6c 013c ee9d 5d3d d655 e73b
00000010: 8b3d 89bd 5247 8e3c 7adb 8cbd 4539 76bc
00000020: 0041 a7bc 981c bcbc d9e2 94bc 8efc 24bd
00000030: bec1 02bc a89f 8dbd 2487 cabc 2f78 81bd
00000040: b41e e13c 67de 20bd a7ff 8b3d 3cdb c5bc
00000050: ad12 653d 2216 053d 0d82 17bd a076 ecbc
00000060: b731 cabc 5ab7 9b3d 129d 0d3c ab98 23bd
00000070: a439 dc3c c87f 333d 451a 9c3c fdfc 813d
00000080: 2e95 c3bc ef78 913d ab28 37bd 1e8c 993c
00000090: b35c 40bd a3cd b13c 166d 6bbd a3b2 9fbc
000000a0: 0d0b 533c b4b3 1b3d 6a7d 84bd 9966 7cbd
000000b0: 9f8d 83bc 50ea 72bd d302 9b3d 4efd 013d
000000c0: 79c4 683d 14e5 433d 83ed 2bbd f513 623b
000000d0: a3c1 33bd 1ea0 dcbc 1210 2fbd 845a 1ebd
000000e0: 3c78 0b3d 2244 fdbc 1565 d33c c954 c63c
000000f0: c59a 2a3c 44b4 c5bc 7646 42bd 3bdc 9fbc
00000100: f5e4 6d3d 6e00 8f3d 9784 3c3d bef1 883d
00000110: cb3c 613c 555a 9abd 6fff 91bd 08f1 a13c
00000120: 2114 823d c067 bcbc c0bf 053c 87cc 1bbd
00000130: 0172 89bd 1c57 4d3d e6d1 93bc da33 663d
00000140: 197a 47bd 1295 163d 4562 083d 9a2d 74ba
00000150: daef 6bbb 9077 7e3d db17 153d a771 893d
00000160: 58b8 86bd 6790 95bc 816f f6bb 0ecb 33bb
00000170: 9f94 b6bc f09f bb3b 293a 4b3d f75f cbbc
00000180: 5860 703d 7192 95bd 8cd2 8f3d 854a 81bd
00000190: 22c9 b73a ea7c 3abc 2caf 3abd 4984 973d
000001a0: c833 e13a c276 4d3c da33 503d 175d 92bd
000001b0: 2aaf 9b3d 5d1b 2e3c e046 1abd b813 4bbc
000001c0: b82c 93bd 149f 95bd bc1b 1e3c 4746 203d
000001d0: 5759 883d 5fc2 8b3d c94a ed3c fb4d d3bc
000001e0: 4e0d 51bd 75ed b83b b6fd 813d d3cd 23bd
000001f0: 4f9b b83c 8d40 a63c 9b6e 8ebc b389 f53c
-0.044626553 0.007899401 0.05410569 0.007059793 -0.067011915 0.017367993 -0.06877799 -0.015028303
-0.020416737 -0.022962853 -0.018174576 -0.040279917 -0.007980762 -0.06915218 -0.024722643 -0.06321751
0.02748046 -0.0392746 0.06835871 -0.02415239 0.055926014 0.03249181 -0.03698926 -0.028865159
-0.024681909 0.07603331 0.0086434055 -0.039940517 0.026882954 0.043823034 0.019055495 0.06347082
-0.023874845 0.071031444 -0.04471652 0.01874357 -0.046963405 0.0217045 -0.05747708 -0.01949436
0.012881053 0.038013175 -0.06469233 -0.061621282 -0.016058741 -0.05930549 0.07568898 0.03173571
0.056827996 0.047825888 -0.041974556 0.0034496759 -0.04388584 -0.026931819 -0.042739935 -0.03866054
0.03405021 -0.030916277 0.025805036 0.02421035 0.0104128765 -0.024133809 -0.047430478 -0.019514194
0.05807968 0.06982504 0.046024885 0.06686734 0.013747404 -0.07536761 -0.07128798 0.019768253
0.063514955 -0.02299869 0.008163393 -0.03803685 -0.06711198 0.050131902 -0.018044423 0.056201793
-0.048700426 0.03676326 0.033296842 -0.00093146565 -0.0036001117 0.062125742 0.036399703 0.067111306
-0.065781295 -0.018257333 -0.0075206165 -0.0027434262 -0.022287665 0.005725853 0.049616013 -0.024826033
0.05868563 -0.07303322 0.070225805 -0.063130416 0.0014021734 -0.011382321 -0.045577213 0.07398278
0.001718157 0.012540521 0.0508307 -0.07146662 0.07601769 0.010626641 -0.037665248 -0.012394838
-0.07186264 -0.07305732 0.009650167 0.03912952 0.06657665 0.06824183 0.028966324 -0.02579402
-0.05103808 0.0056435415 0.0634722 -0.03999121 0.022534994 0.020294452 -0.017386725 0.029972887

crystalGraphConvNet.convs.0.bn1.weight f4 [128]
00000000: 45bc 803f 6d20 803f 1617 803f 02db 7e3f
00000010: f616 803f 22eb 7f3f 669d 803f 7a27 803f
00000020: 48ff 7f3f 5eae 7f3f 4b8e 803f 2062 823f
00000030: 7e2b 7f3f 6544 7f3f 6163 803f b2df 7f3f
00000040: 5919 803f 2e8e 7f3f b0e0 7f3f bf84 813f
00000050: 48fb 7f3f 45a3 7f3f 8126 803f be4b 7f3f
00000060: 288b 7f3f ed8f 7f3f f757 813f 7061 803f
00000070: 385d 7f3f 3a4c 7f3f 0221 803f c63f 803f
00000080: 4071 803f ba51 803f 1fb2 803f 2f77 803f
00000090: 2283 7f3f f980 803f f212 823f c247 803f
000000a0: 4f81 7f3f 9c20 803f b1df 7f3f c272 7f3f
000000b0: 0143 803f a421 803f 0eeb 7f3f 7d81 803f
000000c0: 423c 803f a52e 803f b8a6 7f3f 2571 7f3f
000000d0: 1a13 803f e78b 803f db74 803f 711e 803f
000000e0: 4731 803f fbd6 7f3f 6cb3 7f3f 3938 803f
000000f0: 0a96 803f 88b6 7f3f 06be 7f3f 0809 803f
00000100: ed20 7f3f 5e76 803f 1441 803f 7031 803f
00000110: daa7 7f3f 8079 7f3f d81e 7f3f 82fc 7f3f
00000120: 16be 7f3f 2b49 803f 99cb 7f3f 3fa6 833f
00000130: 5bf9 7f3f 9a34 803f 018c 803f 5a60 803f
00000140: e250 7f3f 1405 803f 42e8 7f3f 555d 7e3f
00000150: 81cd 7f3f 60ff 7f3f 0ee4 803f 7d35 803f
00000160: 82c2 7f3f b1f6 803f 809c 803f dae8 7e3f
00000170: eb13 803f 70b7 7e3f d2c1 7e3f a0f4 7e3f
00000180: d075 803f ef5b 7f3f 0679 803f b7b1 803f
00000190: ad4c 7f3f 62eb 7e3f 9b74 7f3f 142f 7f3f
000001a0: 1da6 7f3f 1bc4 7f3f 3a09 7f3f 4b5e 803f
000001b0: 4226 7f3f fda5 7e3f 060a 803f 8aaf 803f
000001c0: 9717 7e3f 1385 7f3f a422 803f 75a5 803f
000001d0: 5d81 7f3f 43a9 7f3f f04e 7f3f 0eeb 7f3f
000001e0: 459b 7f3f bc2d 803f e78e 803f dd31 803f
000001f0: ad68 803f edb3 803f 194b 803f ba13 803f
1.0057455 1.0009896 1.0007045 0.9955293 1.0007007 0.9996816 1.0048034 1.0012047
0.99998903 0.9987544 1.0043424 1.0186195 0.9967574 0.99713737 1.0030328 0.99950707
1.0007735 0.99826324 0.9995222 1.0118636 0.999928 0.99858505 1.001175 0.9972495
0.9982171 0.9982899 1.010497 1.0029736 0.99751616 0.9972569 1.0010073 1.0019462
1.0034561 1.0024941 1.0054358 1.0036372 0.9980947 1.0039359 1.0162032 1.0021899
0.99806684 1.0009952 0.999507 0.9978448 1.0020448 1.0010266 0.9996804 1.0039517
1.0018389 1.0014235 0.9986377 0.9978202 1.0005829 1.0042695 1.0035661 1.000929
1.0015038 0.9993741 0.9988315 1.0017158 1.0045788 0.99887896 0.9989933 1.0002756
0.99659616 1.0036123 1.001986 1.0015087 0.99865496 0.9979477 0.9965644 0.9999467
0.99899423 1.0022329 0.9992004 1.0285109 0.9998986 1.0016053 1.0042726 1.0029404
0.9973279 1.000155 0.9996377 0.99361163 0.9992295 0.99999046 1.0069597 1.0016323
0.9990617 1.0075284 1.004776 0.99574053 1.0006078 0.99498653 0.99514496 0.9959202
1.0035954 0.99749655 1.0036933 1.0054234 0.9972637 0.99577916 0.997873 0.9968121
0.99862844 0.9990861 0.99623454 1.0028776 0.9966775 0.9947203 1.0003059 1.005357
0.99254745 0.9981243 1.0010571 1.0050493 0.9980677 0.9986765 0.99729824 0.9996804
0.998463 1.0013957 1.004361 1.0015217 1.0031945 1.0054909 1.0022918 1.000602

crystalGraphConvNet.convs.0.bn1.bias f4 [128]
00000000: 08b5 94bb eb31 29bb 0c13 2e38 7de8 903b
00000010: 931c 0d3a c51b 6b3a f18f 5fbb f442 a03a
00000020: e250 823a cf02 643b 3983 8dbb c056 f9bb
00000030: f842 8c3a 8fc9 be3b 2c26 86ba 6d80 4fb9
00000040: f70f 2e3b 72ef b73b 307b 31ba 9c05 6739
00000050: 6720 d9b9 42d0 ecba 1f2e 22bb fed6 703b
00000060: ad1d 253a 42d3 4c3a 4be6 a8bb 3a6c 40ba
00000070: 5c10 5b3b 27e7 2d3b 6cd5 0eba 211b 083a
00000080: 9dad 4bbb 58f5 d7ba 66ec 85ba 0f74 2abb
00000090: 5ffa cf3a e469 ccba 96a6 13bc a5e8 153b
000000a0: 2d04 7c3a d519 66ba 6c4c bc3a ee95 053b
000000b0: c40b 513a e19f 373b ad4a b1ba 2735 64bb
000000c0: 03a7 7dbb 6f4f 83ba b5e1 80b9 98ff 9e3a
000000d0: c906 9dba 9438 9f3a a8c2 e2ba 1d8a 48ba
000000e0: 5931 0ebb 8b46 623a f9ae 2c3b 6a22 a939
000000f0: 88b8 19bb 4bf5 b2ba 48d4 643b f220 563b
00000100: cdc3 7b3a 8f10 1aba b4ef 01ba 01ce abba
00000110: dfb4 793a 4c52 8d3a 1f90 d93a 974d 25ba
00000120: 4b20 f938 4f5b 57ba 47ef 0d39 77f4 a5bc
00000130: cf62 733a 9d24 a138 b000 04bb 0e27 25bb
00000140: 89f5 933a f1e9 513a 20eb 0bb9 3669 813b
00000150: 431c dc39 2004 de39 379a d7ba 32d0 263a
00000160: 4b80 4e3a edd0 21bb 10e5 20bb 46b3 063b
00000170: 3c2b 76b9 01e5 cb3a e5a4 3d3b bbdb 343b
00000180: 0d3d 34bb b57a 5c3a 3441 a8ba 11a2 2cbb
00000190: 72b0 573b 2c70 f73a 96e0 95b9 6087 ee3a
000001a0: ec66 8c3a 354b b6b7 9908 8c3a 5521 ccb9
000001b0: f456 d93a ac68 1e3b f914 0bba a3ec 7dbb
000001c0: 0132 773b c447 7c39 96ea 15b9 f27b 16bb
000001d0: 8794 36b8 105d 823a 59a4 463a bba2 61ba
000001e0: 74ad 723a b317 98ba 31d2 aeba 27c5 b8ba
000001f0: 4084 62bb 00d5 44bb 4f21 8eba a1bf dd39
-0.004538182 -0.0025817107 4.150257e-05 0.004422246 0.0005382981 0.00089686766 -0.0034112895 0.0012226985
0.0009942318 0.0034791713 -0.0043186215 -0.0076092184 0.0010701111 0.0058223675 -0.0010234765 -0.000197889
0.0026559809 0.005613261 -0.00067703705 0.00022031966 -0.00041413607 -0.0018067437 -0.0024746729 0.003674924
0.00062986725 0.0007813462 -0.005154406 -0.0007340346 0.00334265 0.0026535483 -0.00054486725 0.0005192031
-0.0031078823 -0.0016476316 -0.0010217547 -0.0026009118 0.0015867463 -0.0015595523 -0.009011885 0.0022874263
0.00096136593 -0.0008777653 0.0014366037 0.0020383555 0.00079744705 0.002801888 -0.0013526283 -0.003482172
-0.0038704283 -0.001001818 -0.00024582227 0.0012130616 -0.0011980172 0.0012147599 -0.0017300444 -0.0007649975
-0.0021696894 0.00086317275 0.002634941 0.00032259832 -0.0023455936 -0.0013653425 0.0034916569 0.0032673446
0.0009604067 -0.0005877101 -0.0004956678 -0.0013107659 0.0009525548 0.0010781973 0.0016598738 -0.0006305812
0.0001187926 -0.0008215205 0.00013535946 -0.020258171 0.0009284438 7.683898e-05 -0.0020142011 -0.002520028
0.0011288385 0.0008007577 -0.00013343664 0.0039493097 0.00041982727 0.00042346213 -0.0016449158 0.0006363421
0.00078773935 -0.002469118 -0.0024550594 0.0020553633 -0.00023476494 0.0015555919 0.0028937396 0.002759679
-0.002750221 0.0008410619 -0.0012836815 -0.0026341716 0.0032911566 0.0018878034 -0.00028586824 0.0018198304
0.0010711825 -2.1731112e-05 0.0010683715 -0.00038934746 0.00165817 0.0024171276 -0.00053055544 -0.0038745783
0.0037719014 0.00024059328 -0.00014297137 -0.002296206 -4.353051e-05 0.0009945948 0.00075775903 -0.00086073176
0.0009257414 -0.0011603743 -0.0013337788 -0.0014096842 -0.003456369 -0.0030034184 -0.0010843667 0.0004229518

crystalGraphConvNet.convs.0.bn1.running_mean f4 [128]
00000000: e96d 623c 3345 af3c 4c31 393e da13 dc3d
00000010: 6fcc 763c f3c6 02bd f2b9 a83c f314 56be
00000020: c1ea 263c 83a3 65be 6e83 04be 2e80 2f3c
00000030: c15e 0bbe 0140 56bb 0d50 1abc 66b6 66be
00000040: e476 3dbe 6ad9 27be 6c55 8ebb a0b3 dbbd
00000050: c209 5a3d 9788 3abd 16fc 0cbd 590e 28bd
00000060: bd6e d33d a801 a2bd f56a 193d 9811 ea3d
00000070: eb0d e6bb 8249 d53d bb05 9dbd 2bdf 133e
00000080: d029 2d3e 1641 af3d c9fa 19be 6936 d4bc
00000090: 59ce 47be a0c2 abbd e5d0 8cbd 47fb c0bd
000000a0: 0275 44bd bae0 873e e991 eebb cc4d 9abd
000000b0: 12ed 8e3c 530d 85bd 47b9 c8bc fd75 cb3d
000000c0: 3e7b 333d 9209 c43c 710b 4b3d 09ca ca3d
000000d0: 956e b43d 195f ab3d bac0 8dbd 2400 28be
000000e0: 29b9 e93d e4d3 70bd 3b87 2dbe 88c4 0b3d
000000f0: ecf0 51bd 1664 f1bd 2955 81be 9400 34be
00000100: 1be0 42bc 1adc 25bd a938 5c3e 5739 4d3e
00000110: 4a90 c63d 63c2 2cbe 81b8 123d deb1 8abc
00000120: 4e45 29bd a26f 77be 2bc6 b7bc 7620 3ebe
00000130: 371c 37bd 9487 65bd ab54 c4bd 73ea 8e3d
00000140: ef78 f4bd 443c 8e3b c578 c6bc 258e 14be
00000150: 2aa3 203d 71d1 84bc 92ae 30bc 3430 003d
00000160: 00b9 353d fe65 f73c 785c 50bd 3794 813e
00000170: 98f9 1e3c 4418 a13d 140f d83b b600 313e
00000180: 0fb0 563e 759b 7b3e 3751 a03d 9315 eabd
00000190: 4721 fbbd 2726 38be 0d7f 30be dea1 85bd
000001a0: 636f 5a3d f077 063e 2fe8 313e f8b0 c13d
000001b0: 0810 023e b0e7 da3b bd16 1c3d 7ead 96ba
000001c0: 7794 273d babe ecbd b002 553e 8ad8 1d3e
000001d0: 2dfa b23e 0aa8 f1bc e020 96bd 019d a1bd
000001e0: 1c62 c4bb d6a1 a9bd 13e3 793c 314c 093d
000001f0: 35e2 983b e612 86bb 3d28 0bbe 519c 573e
0.01382015 0.021395301 0.18085212 0.10745974 0.015063389 -0.031928014 0.020596478 -0.20906429
0.010187806 -0.22425656 -0.12940761 0.010711713 -0.13610364 -0.0032691958 -0.0094185 -0.22530517
-0.18502384 -0.1639153 -0.004343679 -0.1072762 0.053231962 -0.04554042 -0.034420095 -0.041029308
0.10323856 -0.07910472 0.037455518 0.11429137 -0.007020702 0.10414411 -0.076671086 0.144406
0.16910481 0.08557336 -0.15037073 -0.025904851 -0.19512309 -0.08386731 -0.06875781 -0.09422927
-0.04796315 0.2653864 -0.0072805774 -0.0753437 0.017447028 -0.06496682 -0.02450241 0.09934614
0.043818705 0.023930345 0.04957146 0.099018164 0.08810154 0.08367748 -0.06921525 -0.16406304
0.114122696 -0.058795825 -0.16946118 0.034122974 -0.05125515 -0.11786668 -0.25260285 -0.17578346
-0.011894251 -0.04049311 0.21505989 0.20041405 0.0969549 -0.16871028 0.035820488 -0.016930517
-0.04132586 -0.24163678 -0.022433361 -0.1856707 -0.044704642 -0.0560375 -0.09586462 0.069783114
-0.11937129 0.0043406803 -0.02422751 -0.14507349 0.039218105 -0.01621315 -0.010783808 0.03129597
0.044365883 0.0302 -0.050869435 0.2530839 0.0097030625 0.078659564 0.0065935943 0.17285427
0.20965599 0.24571021 0.078279905 -0.11429896 -0.122622065 -0.17983304 -0.17235966 -0.06525014
0.053328883 0.1313169 0.17373727 0.09457582 0.12701428 0.0066804513 0.038107622 -0.0011495796
0.04091307 -0.11559816 0.20801806 0.15414634 0.34956494 -0.029499073 -0.07330489 -0.07891274
-0.005993141 -0.08282821 0.015251893 0.033519927 0.004665638 -0.0040916083 -0.13589568 0.21055724

crystalGraphConvNet.convs.0.bn1.running_var f4 [128]
00000000: a6e7 da3c 0076 273c 8b69 773c 557b e23c
00000010: 33f0 933c 2db4 8a3c 24ae e03c 1f08 d03c
00000020: e95d 543c c22e b93c f356 7b3c 5eb5 113d
00000030: c649 bc3c 0348 8a3c 6288 7b3c b739 b13c
00000040: 4179 a93c c8f3 2d3d 9fb7 b23c 2059 2b3c
00000050: f5d5 943c 1510 413c 9258 d13c 701c 873c
00000060: abc9 6b3c b856 c23c 4369 2b3c c13c 263d
00000070: fd5a 1c3c 058d 233c 4085 bc3c ef56 c53c
00000080: 2618 cf3c 2a8d 973c bcac 5c3c 8df0 a83c
00000090: 4f86 093d b3e8 733c aec5 963c ce82 973c
000000a0: 753d a43c 439b d53c 253b 293c 8800 8a3c
000000b0: 8027 3b3c 096e bc3c 4868 5f3c 4b6a 3c3c
000000c0: 348a 153c ca80 563c ebd9 883c 6f52 763c
000000d0: 4749 f13c 6091 603c e081 873c 9b74 7b3c
000000e0: 58e8 593c fd4d 403c 55c0 9b3c d7ff 373c
000000f0: 5c12 8f3c 7500 5c3c 99de 263d 712f 823c
00000100: 2957 a93c 507c 473c a0ec 8e3c db5b 713c
00000110: 331b 793c 062b 053d 958c 6b3d a287 4d3c
00000120: faea be3c 1b12 253d ddfc f13c e4c1 ac3c
00000130: 7520 b43c 8486 cf3c 6861 883c 421e 6f3c
00000140: bf63 d73c 32a1 173d 5c5e a53c 47fa e23c
00000150: a9e6 b43c 53ef b33c 416c a13c 9013 5d3c
00000160: 4e16 c73c f345 833c e5d9 933c 6bf8 e53d
00000170: be3e 9c3c 1ea9 a73c b171 b23c b162 133d
00000180: 18db 3f3c 858b 933d 6303 833c 5ef8 563c
00000190: dfca ef3c 59c6 d33c 500b 913c fe53 fc3c
000001a0: c114 883c 7d0b ee3c 5f0a 9d3c 0a0a f33c
000001b0: c6d1 e43c 2407 a03c ac9a 993c 0ba4 513c
000001c0: 853b 1e3d 5907 9b3c 39bc d33c 5d3a 573c
000001d0: a764 923d 73c7 4f3c 4a89 923c feb8 9c3c
000001e0: e3df 883c 5cf5 3f3c 537b a63c 8ab7 493c
000001f0: 65e1 723c e188 683c c96f b43c df3b 173d
0.026721787 0.0102210045 0.015100847 0.0276467 0.018058872 0.016931618 0.027426787 0.025394497
0.012961843 0.022605304 0.0153405545 0.035573356 0.022984397 0.016880041 0.01535234 0.021633966
0.020687701 0.042468816 0.021816073 0.010458261 0.018168429 0.011783619 0.025554929 0.016493052
0.014391343 0.023722991 0.010462108 0.040585283 0.009543178 0.009982352 0.023012757 0.024089305
0.02528007 0.01849993 0.013468917 0.020622516 0.033575352 0.014887023 0.018404808 0.01849499
0.020048836 0.026075011 0.010329043 0.016845956 0.011422992 0.023001688 0.013635702 0.011499952
0.0091271885 0.013092229 0.016705474 0.015034302 0.029453887 0.013706535 0.016541421 0.015347625
0.013300024 0.011737344 0.01901261 0.011230431 0.01746481 0.013427843 0.04073963 0.015891762
0.020671444 0.0121756345 0.017446816 0.014731373 0.015204239 0.032511733 0.057507116 0.012544544
0.023305405 0.04030047 0.02953952 0.021088548 0.021988133 0.025332697 0.01664801 0.014594616
0.02629268 0.037018962 0.020186596 0.027707232 0.022082644 0.021964705 0.01970494 0.013493434
0.024302628 0.016024565 0.018048236 0.112290226 0.019072887 0.020466384 0.021782728 0.03598279
0.011709951 0.072043456 0.015992826 0.013120739 0.029271541 0.025851415 0.01770559 0.03080177
0.016611459 0.029058212 0.019169984 0.029667873 0.027932059 0.019534655 0.018750511 0.012795459
0.03863098 0.018924402 0.025846587 0.0131364735 0.07148104 0.01268183 0.01788773 0.01913118
0.01670832 0.011716213 0.020322477 0.0123118255 0.014824246 0.014192791 0.02202596 0.036922332

crystalGraphConvNet.convs.0.bn2.weight f4 [64]
00000000: 1710 7c3f e6f5 7e3f 4902 803f 69de 793f
00000010: 5eb9 813f fe5f 7d3f 2393 793f 1722 7e3f
00000020: 0479 783f 7770 823f 8222 803f 3b0c 833f
00000030: 62e0 793f 7937 793f 9d04 7f3f c9ab 803f
00000040: f08e 7a3f a7b0 7a3f 04c7 803f ba5a 7f3f
00000050: af50 7c3f 07f0 7b3f 9db2 7d3f b8c9 7f3f
00000060: 9edc 7b3f ba21 823f 4b48 833f 2321 7d3f
00000070: 2aba 7e3f ad6b 7b3f 9ad1 783f 8572 7d3f
00000080: 351f 813f 25bf 773f c753 813f c3ac 833f
00000090: 8960 813f deda 803f 7e38 823f 6f81 7f3f
000000a0: d975 7c3f 8997 7c3f 33e7 793f bb5c 803f
000000b0: ca4f 803f ffc8 793f 686a 803f 5f1c 823f
000000c0: 0ed7 793f a2da 7d3f dc3d 7e3f 087a 7e3f
000000d0: 2e3b 793f a5a2 803f 5890 7e3f 7e79 7d3f
000000e0: 9946 793f f40a 7b3f 31f1 7a3f 95e9 803f
000000f0: fec2 813f a249 803f 1d2f 7c3f e1c5 793f
0.9846205 0.9959396 1.0000697 0.97604996 1.0134695 0.989746 0.9749014 0.99270767
0.97059655 1.0190572 1.0010531 1.0238107 0.97608006 0.9735027 0.99616414 1.0052425
0.97874355 0.979258 1.0060735 0.9974781 0.98560613 0.9841313 0.9910067 0.99917173
0.9838351 1.0166543 1.0256437 0.9887869 0.99502814 0.98211175 0.97194827 0.9900287
1.0087649 0.9677604 1.0103692 1.0287098 1.0107585 1.0066793 1.017349 0.99806875
0.9861732 0.98668724 0.97618407 1.0028299 1.002435 0.9757232 1.0032473 1.0164908
0.9759377 0.9916173 0.9931314 0.99404955 0.97355926 1.0049635 0.99439 0.9901351
0.9737335 0.9806359 0.9802428 1.0071284 1.0137632 1.0022471 0.9850939 0.97567564

crystalGraphConvNet.convs.0.bn2.bias f4 [64]
00000000: b021 69bc b271 04bc e6f4 febb cbcd 87bc
00000010: c54c aa3c 40fd 2abc d43b bdbc 4cfd 0dbc
00000020: 3645 04bd 7166 6c3c 5c4f a9bb 9a99 cbbc
00000030: dfb4 bfbc cf47 33bc 54f0 47bc 3752 303c
00000040: ca97 91bc d488 1e3b 7288 153b 956b acbb
00000050: 2bd5 03bc e3d4 82bc 0277 afbb 3de1 373c
00000060: 3a3a 36bc 3640 873b 4315 953b fbe9 45bc
00000070: 523f e7bb 434c bcbb 5957 a4bb 53ee bb3b
00000080: 90b4 a1ba b1a7 17bd 1e41 8f3a cdb0 a23c
00000090: ccd6 313c f960 763c 508f 75bc fe25 743b
000000a0: 5d69 7e38 2560 1dbc 4786 c6bc af47 97bc
000000b0: 5693 903c a493 6abc c972 fb3a 514c 84bc
000000c0: 136c 86bc 4679 2ebc d879 82bc 0ccc 6dbc
000000d0: 9e1d 21bc 33dc 08bc 5e18 223a 723d 89bc
000000e0: 2d46 aebc 8bb8 8fbc 1a73 9ebc 7a54 113b
000000f0: 1dc3 1ebc 07f1 adbc 9693 34bc e0b0 80bc
-0.014229223 -0.008083748 -0.007780659 -0.016577622 0.02078856 -0.010436356 -0.023099817 -0.008666348
-0.032292567 0.014428721 -0.005166931 -0.024853516 -0.023401676 -0.0109424135 -0.012203295 0.010761789
-0.017772574 0.0024190443 0.0022816923 -0.005261848 -0.008046429 -0.015970653 -0.005354763 0.011223135
-0.011122281 0.0041275276 0.0045496537 -0.012079711 -0.007057109 -0.005746396 -0.0050152955 0.0057351976
-0.0012337137 -0.037025157 0.0010929441 0.019859696 0.010854434 0.0150377685 -0.014987782 0.003725409
6.0656446e-05 -0.009605442 -0.02423395 -0.018466799 0.01764838 -0.014317427 0.0019183989 -0.016149672
-0.016408956 -0.010649031 -0.01592724 -0.014513981 -0.009833721 -0.008353281 0.00061834406 -0.016752932
-0.021273697 -0.017544052 -0.019341994 0.0022175596 -0.009690073 -0.021233095 -0.011021515 -0.01570934

crystalGraphConvNet.convs.0.bn2.running_mean f4 [64]
00000000: 3acc a440 cb8a a040 fc14 aa40 3e39 9740
00000010: c695 a340 c34a ad40 672f b840 38ba ac40
00000020: c803 b640 0bc4 ac40 c463 9240 fdea 8940
00000030: 3ee1 af40 ff8e 9b40 ba9e 8b40 c7c3 a640
00000040: 4a24 ab40 325b b840 abac b140 908d ac40
00000050: 358e bc40 d876 ae40 e91f a540 730b b140
00000060: b8c0 b040 2199 9c40 0acf 9940 8247 c240
00000070: db66 ac40 b34e b640 b481 9a40 e62a b940
00000080: 86cf a340 2a66 b840 f2b2 a040 c58b 9740
00000090: bd64 b840 9238 af40 62db a140 a09b b640
000000a0: 1297 b440 b0c7 b640 9c53 b540 8614 b240
000000b0: dd1c a140 2acd 9d40 7416 9c40 a3ed 9f40
000000c0: 2b0e 9b40 0ece a340 db1c bc40 b78e b140
000000d0: 7a55 be40 c404 af40 9400 8e40 c50e af40
000000e0: 8ade b440 3ac2 8f40 4e6c ac40 cf73 9740
000000f0: d975 9440 d04c af40 a465 b440 b3c1 a740
5.14993 5.0169425 5.3150616 4.7257376 5.112033 5.415376 5.7557864 5.397732
5.6879616 5.398931 4.5746784 4.309935 5.4962454 4.8612056 4.363126 5.2113986
5.34818 5.7611322 5.5523276 5.3922806 5.8923593 5.4520073 5.1601453 5.5326476
5.523525 4.8936925 4.8065233 6.071229 5.3875556 5.697107 4.828333 5.7864866
5.1190825 5.762471 5.021844 4.7358117 5.762297 5.4756556 5.05803 5.706497
5.643441 5.711876 5.666456 5.5650053 5.0347733 4.9312944 4.877741 4.9977584
4.8454795 5.118903 5.8785224 5.5486712 5.947934 5.4693317 4.4375706 5.470553
5.6521654 4.4924593 5.388221 4.732887 4.6393857 5.4781265 5.6374073 5.242395

crystalGraphConvNet.convs.0.bn2.running_var f4 [64]
00000000: c9fb 6041 cb8c 0b41 8691 8441 2e95 fb40
00000010: f4de e140 5779 5441 8a4a cc41 2717 9b41
00000020: a489 4d41 70a5 ae41 4170 9640 3c66 8140
00000030: c5b1 b641 196d 3341 ed9b 1041 6851 2d41
00000040: 9407 9f41 bd28 ba41 3b85 6341 bda1 6941
00000050: 22b6 da41 c421 9841 4a34 1841 abb6 6641
00000060: dbcd 9d41 1ae5 1e41 14b2 6341 9d68 0a42
00000070: 0fb3 b941 a40c a241 4f86 4841 0adf b941
00000080: 7cec 9541 293d b641 de1c 3f41 f66e d540
00000090: 5539 9441 8271 8541 cc89 3741 32b8 b641
000000a0: 9410 a841 4699 b041 426f 7541 f31d 0f41
000000b0: cd31 0541 c61f 5841 27e9 5041 1155 2541
000000c0: a5b7 1041 a69b 2541 f50d 9f41 a8f8 1f41
000000d0: 89bb d341 5d6e ae41 d503 d340 27f5 5b41
000000e0: c1c4 7441 1c4c bf40 1470 7c41 4b88 c040
000000f0: ee56 0e41 e88c ff41 6aa4 b541 3ce6 8341
14.061471 8.721873 16.571056 7.8619604 7.058466 13.279624 25.536396 19.386305
12.846104 21.83078 4.701203 4.04373 22.836802 11.214135 9.038068 10.832375
19.8787 23.269892 14.220027 14.601987 27.338932 19.016487 9.512766 14.419597
19.725515 9.930933 14.230976 34.60216 23.212431 20.256172 12.53279 23.233906
18.74047 22.779863 11.944548 6.669795 18.527994 16.680424 11.471142 22.83994
21.008095 22.07484 15.339663 8.944812 8.324658 13.507757 13.056922 10.333268
9.044835 10.3505 19.881815 9.998207 26.46657 21.803888 6.594218 13.747352
15.298036 5.9780407 15.777363 6.0166373 8.896223 31.943802 22.70528 16.48742

crystalGraphConvNet.convs.1.fc_full.weight f4 [128, 169]
00000000: 050c 52bd 5778 a73d eee1 5fbd 34ca fcbc
00000010: f2ca c93b 3c0c 06bd a6f7 18bd 0ced 533d
00000020: 03ed 9cbb 35c5 8e3c 5595 21bd df78 cebc
00000030: f22d 95bc b4cd f4bc 5f89 893a 4cb5 c8bc
00000040: 3e9f 4e3d d9f5 c23c edaf e0bb babc 11bd
00000050: 9678 133d 655a 59bd 6a21 5fbd 160a 6fbd
00000060: 8cff b73c 0a5b 8c3d 9b1f 703d e655 4ebd
00000070: 9614 633d 118c a8bc abeb 23bd 89c5 64bd
00000080: b26f 2dbd 2856 0fbd 59bc 1c3d ff12 213c
00000090: c7f9 fd3b 24e4 93bd 8e11 53bd b447 28bc
000000a0: 3695 923d a037 ccbb c819 6abc a3ce 3e3c
000000b0: b530 f3bb 67df f3bc 0112 5ebd f19f dabb
000000c0: aa6d a6bc 2975 9b3d 48fb 7cbd 8b6f 96bc
000000d0: ed03 27bd 7aa0 733d 3458 71bd d43d 40bd
000000e0: 3228 513c 8fe0 4ebd 655f 5cbd 15a2 cdbc
000000f0: 50c2 0dbd debf c239 b05f b53c f24f 92bd
00000100: b4de 503d b757 b53c bb00 913d f656 71bc
00000110: 224a 9f3d 61d5 57bd dd56 963d cb0b 4fbd
00000120: 971f 923d d4a0 54bd 6c40 4a3d 7061 cdbb
00000130: 3e23 693d 085d 1abd 9bbc a8bd c59f 5abd
00000140: 18c6 8cbd 4230 83bd d20f 0d3d c695 0fbc
00000150: 2270 52bd 09b3 103b eb74 fe3c f310 72bd
00000160: 9fd5 683d 2239 69bc 8f63 453d 5b9e 32bd
00000170: 733b 273d c7ec 7a3c 1bce 7abc 2180 923d
00000180: 8cf0 86bc 7863 7ebd a264 af3d eee2 3bbc
00000190: 8178 88bc 58b6 a7bd dc1f 203a b0d2 c83c
000001a0: e82f 37bd 3d25 75bd 4073 0fbd edab 81bd
000001b0: 956c 04bd 88e6 9abc 4c3b 79bd fe8f a8bc
000001c0: e386 d5bc bf86 05bc f650 803d 01ca e2ba
000001d0: d600 f4bc 1d6b ebbc ef87 103d 697e 3a3c
000001e0: 4bc3 173c 88bb bbbb cbc6 4fbd 80d0 23bc
000001f0: fda3 e3bc 3c7c 5e3d 915e 403d 92d9 66bd
00000200: 8fd7 783d 2335 aa3c d4d1 e83c c884 7abd
00000210: 6b65 e83c c1bc ecbb 696c 893b a983 d23c
00000220: 2e27 a8ba 4280 a6bc 441a 193d dc49 7abc
00000230: c433 813c 2ff3 9cbd 9843 92bd 61ab 4b3d
00000240: 8a15 02bd a1a2 ff3b 4b89 96bd e486 80bd
00000250: 4c01 ffbc a5b6 653b 8b0c 68bd 2dde 923c
00000260: 449d 1f3d a8f8 90bd 8bb5 233c 5624 10bc
00000270: 0e7e 98bd c1e3 733b 024e 753d 01d7 52bc
00000280: 3bd0 8abd f2f5 683d 94bd d33c 9efe ba3b
00000290: d496 88bd 4f1a b33b cfc3 60bc a8d6 1f3d
000002a0: 941c fc3c f70b 8a3d 25c1 4b3d 536c 9c3c
000002b0: 0bd7 a4bd 5adc 783d aa76 a6bb 7cce be3c
000002c0: de60 e8ba 65ed 07bd 7ed0 2c38 a5e3 28bc
000002d0: 21b1 a8bb 17dd 84bc 3d83 ac3a 5bdd 623b
000002e0: 4d2c 793d 7480 67bd 6e51 483d a3c9 95bc
000002f0: a4a6 a33b 26f1 ab3c d378 543d e6a1 2e3d
00000300: 3a5e 8abd 5c49 8a3d 1c48 8dbd 5d8a 4abd
00000310: 5e0b 633d d1f2 d33b 3863 4e3d ef1f 4d3d
00000320: 47ab 46bd 2238 f7bc 4918 5abd a3a4 69bc
00000330: 4bc0 7f3b e1ae 1fbd cb46 193c 4c1e 85bd
00000340: b17c 53bd 3171 eabc a478 323c da29 6bbd
00000350: c78d 933d 31a2 8f3c eaa0 4f3d 49a3 8d3c
00000360: 4f99 613c 23c0 a03c cc81 8f3c 8b27 16bc
00000370: faba c2bc 89b6 28bd 4a04 f23c 0faa 8d3d
00000380: eb3a 0abd 9186 44bd a589 843d c113 513c
00000390: 36d3 6cbc f754 583d c023 acbd 9a96 b8bc
000003a0: 1731 8a3c 7946 91bd 3976 cdbc 6fac 8fbc
000003b0: edc5 c93c a2cf 99bd 322c 1a3d 1e86 9bbd
000003c0: 2f46 873b 6884 ff3c 39eb 0e3c 6bd7 3abd
000003d0: e34c aa3d 92ac a8ba 37a0 f3bc 6476 713d
000003e0: dbac 933c 604a 4ebd 2bfc 243d f228 96bd
000003f0: 8f59 743a 3b20 47bd 24dd 7c3d 0cff 0e3d
-0.051280994 0.0817725 -0.054658823 -0.030858137 0.006158226 -0.03272651 -0.03734555 0.051739737
-0.004788996 0.01742802 -0.039449055 -0.02520412 -0.018210385 -0.029883243 0.001049321 -0.024500512
0.050444834 0.02379887 -0.0068569095 -0.035580374 0.03600367 -0.053064723 -0.054475226 -0.058359228
0.022460721 0.06853302 0.05862389 -0.050374888 0.055439554 -0.020574601 -0.040019672 -0.055852447
-0.04234285 -0.034994274 0.03826556 0.009831189 0.007750723 -0.07221249 -0.051530413 -0.010271002
0.07157366 -0.006232217 -0.014288373 0.011645946 -0.007421578 -0.029769612 -0.05421639 -0.0066718985
-0.020315964 0.07590706 -0.061763078 -0.018363735 -0.04077523 0.059479214 -0.058922008 -0.046933964
0.012765931 -0.050507125 -0.053801913 -0.0251017 -0.03460914 0.00037145516 0.022140354 -0.071441546
0.050993636 0.022136552 0.070802175 -0.014730206 0.077778116 -0.05269373 0.073407866 -0.050548356
0.071349315 -0.05191119 0.049377844 -0.006267719 0.056918375 -0.037686378 -0.08239099 -0.053375024
-0.06873721 -0.06405689 0.034438916 -0.008763736 -0.05137647 0.002207937 0.03106161 -0.059098195
0.05684435 -0.014234813 0.04819065 -0.04360805 0.04082818 0.015315241 -0.015307928 0.07153345
-0.016472124 -0.06210658 0.08564116 -0.0114676785 -0.016659023 -0.08189076 0.0006108263 0.024514526
-0.04472342 -0.059849966 -0.03502202 -0.0633162 -0.032330114 -0.018908754 -0.060847566 -0.020576473
-0.026065296 -0.008149802 0.06265442 -0.0017302633 -0.029785555 -0.028737599 0.035285886 0.011382678
0.00926287 -0.0057291426 -0.050726693 -0.009998441 -0.027788157 0.054317698 0.046965186 -0.056359835
0.060752448 0.02077729 0.028420366 -0.061161786 0.028368672 -0.0072246497 0.0041938317 0.025697546
-0.0012829059 -0.02032483 0.037378564 -0.0152763985 0.015771754 -0.07663571 -0.07141799 0.049723987
-0.031758823 0.0078013693 -0.07350405 -0.06275728 -0.031128548 0.0035051492 -0.056652587 0.017928207
0.03896834 -0.070786774 0.009992014 -0.008797726 -0.07445918 0.003721461 0.059888847 -0.012868644
-0.06777998 0.056875177 0.025847234 0.0057066223 -0.06669393 0.0054657827 -0.013718559 0.03902307
0.030775346 0.06740563 0.049744744 0.019094622 -0.08048829 0.06075702 -0.005080064 0.023291819
-0.0017729064 -0.03318538 4.120217e-05 -0.010308181 -0.0051480685 -0.016218705 0.0013161671 0.0034616801
0.060833264 -0.056518987 0.048905782 -0.018284624 0.0049942303 0.020989012 0.05187304 0.042634867
-0.067562535 0.067522734 -0.068985194 -0.04944836 0.055430762 0.006468155 0.05038759 0.050079282
-0.048503187 -0.030178133 -0.053245816 -0.014260444 0.0039024528 -0.038985137 0.009355257 -0.06499919
-0.051632587 -0.028618427 0.010893021 -0.05741296 0.07204776 0.017533394 0.05069057 0.017289774
0.013769462 0.019622868 0.017517947 -0.009164701 -0.023770798 -0.041189704 0.02954306 0.06917202
-0.033747595 -0.047979895 0.06471566 0.012761057 -0.0144546535 0.052815404 -0.08405256 -0.02253275
0.016869111 -0.0709352 -0.025080787 -0.017538277 0.024630511 -0.07510306 0.037639804 -0.0759394
0.0041282396 0.031191066 0.008723074 -0.045615595 0.08315446 -0.0012868813 -0.029739482 0.058950797
0.01802676 -0.0503639 0.04027955 -0.073320284 0.00093212066 -0.04861472 0.061734334 0.0349112

crystalGraphConvNet.convs.1.fc_full.bias f4 [128]
00000000: 32b0 f7bc 7896 9a3d ad7f c6bc e5ca 41bd
00000010: 196a 6cbd d7ad 26bd 6363 50bd e6c3 223d
00000020: e4c8 83bd fa35 85bd ed0a 80bb 8f0b 28bd
00000030: 14c9 ddbc 568d 07bd 2ebc 493d 18ea 9cbd
00000040: b029 f5bc edd7 1dbd 8f03 d9bc ecaf 2a3c
00000050: a839 8ebc cdc3 5e3d d08c 9a3d f4fa 8ebc
00000060: 60c1 483d f22a 9a3c f31b acbc de44 2ebd
00000070: 4309 19bd 86da d23c 19fb d3bc 12ae 3d3d
00000080: 3470 27bd f92d 1bbd bfbf 53bb 6b11 8d3d
00000090: 3499 95bd 27cf 903d 462a 8abd 543c 3e3d
000000a0: a8e1 153d 4a11 71bd c04e 70bc 4db6 32bd
000000b0: 1829 2d3c 647f ad3b f4bd 993c 3d82 61bc
000000c0: b7df 24bd c9d1 193c 3616 b0bc aa3b 7abd
000000d0: efe6 9abd a3d3 773d c31c 723d e56a 81bd
000000e0: d221 8a3d 5432 f4bc a893 323d 1042 813d
000000f0: b811 bf3c 846e acbb 599d 963d 7391 97bd
00000100: 0023 85bd f401 38bd d985 3cbd f31d 803b
00000110: 65d2 84bd cd9c 0cbd 9ea2 25bc dca7 c6bc
00000120: 4b10 273c 3ecf 7e3d 116a 0a3d 4f46 a53c
00000130: d2d3 2cbd 76c2 e43c a8a1 1abd 057a 443d
00000140: a124 1f3d 4d9b 9f3c 12b3 023d 5f75 d13b
00000150: 231a 073d 14cf 563d 22ce 9c3b 8a52 423b
00000160: 76b8 c33c 0a59 2fbd 02c3 6dbd 7ca9 8e3c
00000170: 2a53 503d 1a8a 2cbd aa69 223d 5b54 8fbc
00000180: f629 cfbc 5ebd 81bc 8fbc 443d 4526 553d
00000190: 803c 523c 817b b53c 259c 90bd 801f 8ebd
000001a0: bbaf a53c 482b 99bd 715a 57bb e85a cbbc
000001b0: d993 ed3c 94f6 c6bb 056d 20bd 300f fd3c
000001c0: 570a e7bb da1f 70bc 7263 933d 4dec 163d
000001d0: b2e9 743c 7b5a 13bd 4c46 5f3d 149e 143d
000001e0: 7ce2 b83c 04cf 933d 6d72 ff3c e025 3f3d
000001f0: 8399 413d 1a18 873d c4e6 953d b276 5ebd
-0.030235384 0.07548231 -0.024230802 -0.047312636 -0.05771837 -0.04069313 -0.050876033 0.039737605
-0.06434801 -0.06504436 -0.0039075525 -0.041026648 -0.02707342 -0.033093773 0.049251728 -0.07661837
-0.029927105 -0.038536 -0.026490955 0.01041792 -0.017361477 0.05438595 0.07546389 -0.017453648
0.04901254 0.018819306 -0.021009421 -0.042546146 -0.03736235 0.025738966 -0.025876569 0.046308585
-0.04087849 -0.03788564 -0.0032310334 0.06888088 -0.07304612 0.07070761 -0.06746344 0.046444252
0.036592156 -0.05885438 -0.014667213 -0.043630887 0.01056888 0.005294727 0.018767335 -0.013763961
-0.040252414 0.009388396 -0.021494966 -0.061092056 -0.07563578 0.060504567 0.05910946 -0.06319217
0.06744732 -0.029809155 0.043597847 0.063114285 0.023323879 -0.005262198 0.073542304 -0.07400789
-0.06500816 -0.044923738 -0.046026085 0.00390982 -0.06485442 -0.034329224 -0.010109572 -0.024249963
0.010196756 0.06220936 0.03379256 0.020175127 -0.042194195 0.027924757 -0.037751824 0.04796793
0.03885329 0.019483233 0.031909056 0.0063921656 0.03298391 0.05244358 0.004785315 0.0029651248
0.023891669 -0.042809524 -0.058047302 0.0174148 0.05086056 -0.04212389 0.03965155 -0.017496279
-0.025288563 -0.015837368 0.048031386 0.05203845 0.012831807 0.022153618 -0.07061032 -0.06939602
0.020225396 -0.07478958 -0.0032860304 -0.02482362 0.029001163 -0.006071875 -0.03916647 0.030891031
-0.007050793 -0.0146560315 0.07196702 0.036846448 0.014948295 -0.03597496 0.0545104 0.036283568
0.022568934 0.072172195 0.031182492 0.04666698 0.04726554 0.06596394 0.07319406 -0.054312415

crystalGraphConvNet.convs.1.bn1.weight f4 [128]
00000000: fc3c 7f3f f6e2 7f3f 8f98 803f fc54 813f
00000010: 1f71 7f3f f743 803f 326c 803f 61c5 7f3f
00000020: 8fb0 7f3f 4369 803f 11a5 803f f7d4 7f3f
00000030: 485e 803f 4d46 803f 8bfb 7f3f f112 803f
00000040: 1b3f 803f f304 803f c14b 803f 5be7 813f
00000050: 265f 7e3f cbc5 803f a70e 813f eb95 803f
00000060: 73c6 7f3f d7fc 7f3f 1bcc 7f3f 0e6c 803f
00000070: 0b3a 803f ea73 803f c30a 803f 2684 7f3f
00000080: cf2f 803f 847f 803f 5325 813f c848 803f
00000090: 95d3 7f3f 0eed 7e3f 9dc1 7f3f efe5 7f3f
000000a0: 3c2a 803f 4dc9 7f3f 624e 803f 52bb 7f3f
000000b0: 3233 803f 970a 803f b375 803f 2624 813f
000000c0: 4c2b 803f 06e4 7f3f e819 803f 5ba8 7f3f
000000d0: 6f55 803f 7f37 803f 7996 7f3f 99c4 7f3f
000000e0: e82c 803f 3085 7f3f d0a3 7f3f c907 803f
000000f0: 3403 803f fe8e 813f 2fde 7f3f 5043 803f
00000100: 373a 803f 8bbb 803f 9191 7f3f e4d3 803f
00000110: f1ed 7f3f cf01 803f 6e5c 7f3f 38c5 7f3f
00000120: ca3b 803f a8ed 7f3f d240 803f 6f69 7f3f
00000130: 5efe 7f3f a538 7f3f 7356 803f 9870 803f
00000140: 8ad2 7e3f 16d5 7f3f 726a 7f3f 4cac 803f
00000150: a42b 803f 3143 7f3f 7d5b 7f3f c5d1 803f
00000160: dac9 7f3f 8ea4 803f 978a 7f3f 71b8 7f3f
00000170: 9b95 7f3f b37c 803f 49fa 7f3f 9008 803f
00000180: 4300 803f ed03 7e3f 4986 7f3f a0d5 7e3f
00000190: 4f21 803f e790 803f 357a 803f 3b0f 803f
000001a0: 6c90 7f3f 1378 803f 8b13 7f3f a650 803f
000001b0: 1dbe 7e3f d91a 803f 189e 7e3f 667a 803f
000001c0: cfd2 803f f653 803f dce1 7f3f c7e4 7f3f
000001d0: 7f2e 7f3f 9ba0 7f3f d10e 803f e01d 803f
000001e0: 7cc2 7f3f 0f9b 803f 2e1c 803f 12d4 7f3f
000001f0: f952 803f c954 803f add5 7e3f 323b 803f
0.9970243 0.9995569 1.0046557 1.010406 0.99781984 1.0020741 1.0033019 0.9991055
0.9987878 1.0032123 1.0050374 0.99934334 1.0028772 1.0021454 0.999932 1.000578
1.0019258 1.000151 1.0023118 1.0148729 0.99363935 1.0060362 1.0082597 1.0045751
0.99912184 0.9999518 0.99920815 1.0032976 1.0017713 1.0035374 1.0003284 0.9981102
1.001459 1.0038915 1.0089515 1.0022211 0.99932224 0.99580467 0.99904805 0.99960226
1.0012889 0.99916536 1.002392 0.99895203 1.0015624 1.0003232 1.0035919 1.0089157
1.0013213 0.9995731 1.0007906 0.99866265 1.0026072 1.0016936 0.9983898 0.9990936
1.0013704 0.99812603 0.99859333 1.0002376 1.0000978 1.0121763 0.999484 1.0020542
1.0017766 1.0057234 0.9983149 1.0064664 0.99972445 1.0000552 0.9975041 0.99910307
1.0018246 0.9997201 1.0019782 0.99770254 0.9999751 0.9969581 1.0026382 1.0034361
0.9954001 0.9993452 0.997718 1.0052581 1.0013318 0.997119 0.99748975 1.0064017
0.99917376 1.0050218 0.99820846 0.9989081 0.99837655 1.0038055 0.9999128 1.0002613
1.000008 0.9922474 0.9981428 0.99544716 1.0010165 1.0044221 1.0037295 1.0004648
0.99829745 1.0036644 0.99639195 1.0024612 0.9950884 1.0008193 0.9945998 1.0037353
1.0064334 1.0025623 0.9995401 0.9995846 0.9968032 0.9985444 1.0004522 1.0009117
0.99906135 1.004732 1.00086 0.9993297 1.0025321 1.0025874 0.99544793 1.0018065
