training_cgcnn_p_u/saved_models/gllb-sc_168_p_u.ckpt (torch, 677002 bytes, 60 tensors)

crystalGraphConvNet.embedding.weight f4 [64, 92]
0	0x3c9edaaf	0.019391386
1	0x3d834544	0.06409696
2	0x3dd87929	0.105699845
3	0xbcc5051e	-0.024050292
4	0x3ad12507	0.001595647
5	0xbbce9386	-0.0063042073
6	0xbd8a6d61	-0.067591436
7	0xbd26752d	-0.04063909
8	0x3dad3696	0.08457677
9	0x3dada5bf	0.08478879
10	0x3d75aabc	0.059977278
11	0xbd8b0cde	-0.067895636
12	0x3d2464a0	0.040135026
13	0xbb367b3b	-0.0027844447
14	0xbdb404cc	-0.087899774
15	0xbcd9ac7c	-0.026571505
16	0x3db9e004	0.09075931
17	0xbdc31bb5	-0.09526769
18	0xbd843389	-0.06455142
19	0xbd1984ef	-0.03748029
20	0x3d949c47	0.0725637
21	0xbd85900f	-0.065216176
22	0x3d79b705	0.060965557
23	0x3c192555	0.00934728
24	0x3dd2ec3a	0.10298963
25	0x3bb1c97b	0.0054256297
26	0x3db79fa7	0.08965998
27	0xbd086677	-0.033300843
28	0x3da6d2e8	0.08145696
29	0xbdc33e24	-0.09533337
30	0x3dc2801c	0.09497091
31	0x3deb37ca	0.1148525
32	0xbcc209e5	-0.023686359
33	0x3d8c3c5b	0.068474494
34	0x3ceff60e	0.029292133
35	0xbcda94b1	-0.02668223
36	0xbd50566c	-0.05086367
37	0xbd7c47ce	-0.061591916
38	0xbdac2c1f	-0.08406853
39	0xbd7c7369	-0.0616335
40	0x3bf3dea3	0.007442312
41	0xbc7387b4	-0.014863897
42	0xbd2dd526	-0.042439602
43	0x3d104057	0.03521761
44	0x3d1c69d0	0.03818685
45	0xbce5d3f5	-0.02805517
46	0x3dd1a8f5	0.10237304
47	0xbdcac997	-0.099017315
48	0x3d8a7d5c	0.06762192
49	0xbc871074	-0.016487338
50	0x3d26a792	0.04068715
51	0x3d1d5e10	0.038419783
52	0x3c716aeb	0.014734964
53	0xbd945f95	-0.07244793
54	0xbbce81af	-0.0063020806
55	0x3abebd73	0.001455231
56	0xbd91c3be	-0.07117413
57	0xbd854463	-0.06507184
58	0x3d3016b6	0.04299041
59	0xbcbb34e3	-0.022852367
60	0xbd85a541	-0.0652566
61	0xbd24d31e	-0.0402404
62	0x3d0bb181	0.034104828
63	0xbd3121f9	-0.04324529
64	0xbe07db8a	-0.13267341
65	0xbc110d3b	-0.008853252
66	0x3d9cd02f	0.07656895
67	0xbd77226d	-0.060335565
68	0xbba40193	-0.0050050705
69	0x3d14ef89	0.03636125
70	0xbdaa9ffa	-0.08331294
71	0x3d38faf4	0.045161203
72	0xbd7eb8b6	-0.062187873
73	0x3db6ecba	0.08931871
74	0xbdaadba2	-0.08342673
75	0x3d63480d	0.055488635
76	0xbce47209	-0.027886407
77	0xbd963c4d	-0.0733572
78	0x3d036627	0.032079842
79	0xbe1f2928	-0.15543044
80	0x3d9f42d4	0.07776418
81	0x3d908441	0.070564754
82	0xbc684ed1	-0.014178948
83	0xbd93f3a9	-0.07224209
84	0xbbf494f8	-0.0074640475
85	0xbd966693	-0.07343783
86	0x3cc7748d	0.024347568
87	0x3d094e29	0.033521805
88	0x3c91a8ea	0.01778074
89	0xbccd9839	-0.025097
90	0xbb36256a	-0.0027793297
91	0xbd8e967d	-0.06962297
92	0xbd032a30	-0.032022655
93	0x3ce2c0b9	0.027679788
94	0xbb378ad8	-0.0028006341
95	0xbcddbd03	-0.027067667
96	0xbdb7565e	-0.0895202
97	0xbd220b06	-0.039561294
98	0x3da1dd39	0.07903523
99	0x3d3ce422	0.046116002
100	0x3a38281a	0.00070250186
101	0xbd8f39f3	-0.06993475
102	0xbd8f2af6	-0.06990616
103	0x3d0d66f2	0.034522004
104	0x3dd3f261	0.103489645
105	0xbd244a48	-0.040109903
106	0x3dd4fcea	0.10399802
107	0x3ca59fba	0.020217765
108	0x3da1e90d	0.07905779
109	0x3c1d2613	0.009591597
110	0xbdc4e055	-0.096131004
111	0x3d7c0c14	0.061534956
112	0x3d9b829b	0.075932704
113	0x3dde2449	0.108467646
114	0xbd00e4e3	-0.031468283
115	0x3d11ab53	0.035563778
116	0xbd9d2bf4	-0.07674399
117	0xbd2fe326	-0.042941235
118	0xbcbc8081	-0.023010494
119	0x3c86eeb3	0.016471243
120	0xbcfecad8	-0.031102583
121	0xbd8bc2bd	-0.06824253
122	0xbe093996	-0.13400874
123	0x3d9c8c6f	0.07643973
124	0x3d345fc6	0.04403665
125	0x3def4902	0.11683847
126	0xbd8ff2d7	-0.0702874
127	0xbc9a95fa	-0.018870343
128	0xbdc5d99f	-0.096606486
129	0x3dae6240	0.085148335
130	0xbcf22095	-0.029556552
131	0xbd05bf1d	-0.032652963
132	0xba99045b	-0.0011674272
133	0x3c7d34bb	0.015454466
134	0x3ad6a8b6	0.0016377184
135	0xbd84d70a	-0.06486328
136	0xbce36dd2	-0.027762327
137	0xbae14af4	-0.0017188475
138	0x3d545c8c	0.051846072
139	0xbbdfeb70	-0.0068334863
140	0x3d1f55d6	0.03890022
141	0x3bd3b1da	0.0064604105
142	0x3cd41f8d	0.02589395
143	0xbc914fb0	-0.017738193
144	0xbd5a1284	-0.053240314
145	0x3cb0cf99	0.021583365
146	0x3cebd41f	0.02878767
147	0x3ca19c5f	0.019727884
148	0x3d78226a	0.060579695
149	0xbde96cc0	-0.113976955
150	0x3a9e7dbd	0.0012091916
151	0xbbbe9cf4	-0.00581705
152	0x3d7a127b	0.06105278
153	0x3d969470	0.07352531
154	0x3dc2653b	0.094919644
155	0xbdc676c3	-0.09690621
156	0xbd2a9540	-0.041646242
157	0x3d183ad3	0.037165474
158	0x3dcc0fb0	0.0996393
159	0xbd257a31	-0.040399734
160	0x3dca47e2	0.09876992
161	0xbd619dd7	-0.05508217
162	0x3d7f51a4	0.062333718
163	0x3d06d19b	0.03291474
164	0x3a20b7af	0.00061308866
165	0xbd6db45b	-0.05803333
166	0xbdbf932b	-0.09354242
167	0xbdd26748	-0.102736056
168	0x3d8bb2c8	0.06821209
169	0x3e0ad6e6	0.1355854
170	0xbd51edb8	-0.051252097
171	0x3e26ade5	0.16277273
172	0xbd7bbd79	-0.061459992
173	0xbd8d2061	-0.068909414
174	0x3dd5a846	0.10432486
175	0x3c2bd0ac	0.010486763
176	0x391a17f1	0.00014695503
177	0xbd8253dd	-0.06363652
178	0xbab9d0ba	-0.0014176585
179	0x3cd25015	0.025672952
180	0xbce69fef	-0.028152434
181	0x3d8e73c0	0.06955671
182	0x3dae39fc	0.085071534
183	0xbdd1b542	-0.1023965
184	0x3d579615	0.052633364
185	0x3ca63d1a	0.020292807
186	0x3d7f8f9d	0.06239282
187	0xbc48c2d2	-0.01225348
188	0xbbd5faf6	-0.006530161
189	0xbd332ace	-0.043741994
190	0xbcf3d23b	-0.029763332
191	0xbdccc708	-0.099989
192	0x3b16c032	0.002300274
193	0x3dc50b1e	0.09621261
194	0x3b82e3f9	0.0039944616
195	0x3c8fdf03	0.017562395
196	0xbda94a09	-0.08266074
197	0x3d113865	0.035454173
198	0xbd64def6	-0.055876695
199	0xbcd8b2ac	-0.026452385
200	0x3deab5bc	0.11460444
201	0x3d7a8cbd	0.061169375
202	0x3cc3561c	0.023844771
203	0x3d514c49	0.05109814
204	0xbd4f0610	-0.05054289
205	0xbdcc8db8	-0.09987968
206	0xbd38d141	-0.045121435
207	0x3c6261ac	0.013817232
208	0xbe047fef	-0.12939428
209	0x3c59265c	0.0132537745
210	0xbd6961dd	-0.056978095
211	0x3ca56635	0.020190338
212	0xbde27e08	-0.11059195
213	0xbcad675e	-0.021167453
214	0xbdd1b8bc	-0.102403134
215	0x3cb8e773	0.022571301
216	0x3d5b2bc9	0.053508554
217	0xbd779c4a	-0.060451783
218	0x3c85b3eb	0.016321143
219	0x3d8ef7eb	0.0698088
220	0xbd47759a	-0.048696138
221	0x3d8f7c34	0.07006112
222	0x3d898165	0.06714133
223	0xbd83114c	-0.063997835
224	0xbd95a94c	-0.073076814
225	0x3c8b72c3	0.017022496
226	0x3db3aa63	0.08772733
227	0xbbb72527	-0.0055891457
228	0x3d98bb13	0.074575566
229	0x3d61ce2b	0.055128258
230	0x3cf1c9c6	0.029515158
231	0x3b2a6624	0.0026000822
232	0xbdcf84ad	-0.10132728
233	0x3c6a9a2d	0.014318985
234	0xb9c0855d	-0.00036720457
235	0x3c643dd5	0.0139307575
236	0xbdcd9f1a	-0.10040112
237	0xbcbb89bc	-0.022892825
238	0xbd050134	-0.03247185
239	0xbd3c0689	-0.04590467
240	0xbd9ccffe	-0.07656859
241	0xbcad2dc4	-0.021139987
242	0xbdc63f6f	-0.09680068
243	0x3e0240d3	0.12720041
244	0x3d1ba657	0.03800043
245	0x3bf29ade	0.0074037155
246	0x3d8bde02	0.06829454
247	0x3d9efa3c	0.07762572
248	0xbd11fd8b	-0.035642188
249	0x3cc74518	0.024324939
250	0x3d3d42d0	0.046206295
251	0xbda709b9	-0.08156151
252	0x3dbe72ce	0.09299241
253	0xbc313700	-0.010816336
254	0xbd8c3fe8	-0.06848127
255	0x3d0d28fe	0.03446292

crystalGraphConvNet.embedding.bias f4 [64]
0	0xbdd182b5	-0.102300085
1	0xbc990001	-0.01867676
2	0xbd0dbbf7	-0.034603085
3	0xbda50a15	-0.080585636
4	0xbd1c5fdf	-0.038177367
5	0x3c8ba8f5	0.017048338
6	0x3dab415f	0.08362078
7	0xbdb50407	-0.08838659
8	0xbd87b881	-0.06626988
9	0x3d428ee5	0.047499556
10	0x3c7740a2	0.015091093
11	0x3db21bb2	0.08696689
12	0xbdacfbbd	-0.08446453
13	0xbc79706a	-0.0152245555
14	0x3cb2a581	0.021807434
15	0x3d7cc698	0.06171283
16	0x3d1e95c6	0.038717054
17	0xbbe59b3f	-0.007007032
18	0x3d87d8f4	0.066331774
19	0x3cae7474	0.021295764
20	0xbd98184d	-0.0742651
21	0xbd789b4a	-0.06069497
22	0xbda85056	-0.08218448
23	0x3c6d599b	0.014486696
24	0x3d6cc57c	0.057805523
25	0xbc8ffdcc	-0.017577074
26	0xbcb0d603	-0.021586424
27	0xbc020cab	-0.007937591
28	0xbd14fc06	-0.03637316
29	0xbda99347	-0.08280044
30	0x3d8647a3	0.06556632
31	0x3b8d3beb	0.0043101213
32	0x3db5751a	0.08860226
33	0xbdb96702	-0.0905285
34	0xbdd9a58a	-0.10627277
35	0x3bf0eee1	0.0073526953
36	0x3d973579	0.07383246
37	0xbdc31add	-0.09526608
38	0xbcf4af73	-0.029868817
39	0xbd85afff	-0.06527709
40	0x3d5b1b27	0.05349269
41	0x3d87f5da	0.06638689
42	0xbd63baea	-0.055598177
43	0x3d8bd45e	0.06827615
44	0xbd151902	-0.036400802
45	0xbc43fa64	-0.011961553
46	0x3dc2f69a	0.09519692
47	0x3d6dea9f	0.05808508
48	0xbde21a89	-0.110402174
49	0xbd9cc3e0	-0.07654548
50	0xbca5c175	-0.020233849
51	0xbd523d8d	-0.05132823
52	0x3d99e0ed	0.07513604
53	0x3d89e1c7	0.06732517
54	0xbcf988af	-0.030460684
55	0xbdb91cfc	-0.090387315
56	0x3d893af3	0.06700697
57	0xbd2e2057	-0.04251131
58	0xbdcb2ca9	-0.099206276
59	0xbd2aca07	-0.041696575
60	0x3d96e9ad	0.07368789
61	0xbda37b1e	-0.07982467
62	0xbd4ef98b	-0.05053095
63	0xbe03fbb1	-0.12888981

crystalGraphConvNet.convs.0.fc_full.weight f4 [128, 169]
0	0xbd99560f	-0.074871175
1	0xbcf9c764	-0.030490585
2	0xbd77b53d	-0.060475577
3	0x3d4f35dd	0.050588477
4	0x3c77429e	0.015091566
5	0xbc9e52e5	-0.019326637
6	0x3d6f731a	0.05845938
7	0xbd131bed	-0.035915304
8	0x3d772d9f	0.060346242
9	0x3d227190	0.039659083
10	0xbd51641f	-0.051120874
11	0xbd8f5282	-0.06998159
12	0x3d455d0e	0.048184447
13	0xbccef3ab	-0.025262674
14	0x3cb4dd88	0.02207829
15	0x3d27276d	0.040809084
16	0xbdad65a1	-0.0846665
17	0x3b3a12be	0.002839252
18	0xbc675fef	-0.014121993
19	0xbd5988bf	-0.053108927
20	0x3d62047d	0.05518006
21	0x3ace4ee2	0.0015740062
22	0xbd729ad7	-0.059229698
23	0x3d44764f	0.04796439
24	0x3d5a475d	0.053290714
25	0x3c104bc7	0.008807129
26	0x3d1f6e98	0.03892383
27	0x3b7c9f18	0.0038546976
28	0x3a78a24e	0.00094846345
29	0x3d1a4a9a	0.0376688
30	0x3d8b6390	0.068060994
31	0x3d2cd343	0.042193662
32	0x3ce56380	0.028001547
33	0x3dc01d21	0.09380556
34	0xbd0e1543	-0.034688246
35	0xbcb9fc51	-0.022703322
36	0xbca964e9	-0.020678
37	0xbbba5d4f	-0.005687393
38	0xbdc7c8b0	-0.09755075
39	0xbc741495	-0.014897485
40	0xba7c8306	-0.0009632561
41	0x3d6a9964	0.05727519
42	0xbd10a65a	-0.035314895
43	0x3d692d85	0.056928176
44	0x3b82b4b5	0.003988827
45	0x3cf301fc	0.029664032
46	0xbd3cd896	-0.04610499
47	0x3c941f0e	0.018081214
48	0xbc4035a3	-0.011731538
49	0xbce82e64	-0.028342433
50	0x3d735c46	0.05941417
51	0x3c20c582	0.0098127145
52	0xbdad62c1	-0.084661014
53	0x3cdb239d	0.02675038
54	0xbd14d94a	-0.036340035
55	0xbd5c6d35	-0.053815085
56	0xbcfa6035	-0.030563453
57	0x3d840798	0.06446761
58	0x3dc17756	0.0944659
59	0xbd93833b	-0.072027646
60	0x3cd8dfa9	0.026473837
61	0x3a9d2067	0.0011987806
62	0xbd33d6fb	-0.043906193
63	0x3d795a44	0.0608771
64	0x3cfc8d86	0.030829202
65	0x3d938b3f	0.072042935
66	0x3dafb9a8	0.08580333
67	0x3d1aee88	0.037825137
68	0x3d6bbf12	0.057555266
69	0xbba82714	-0.0051316116
70	0x3d4e136a	0.050311483
71	0x3d08def7	0.03341576
72	0xbd5a9e77	-0.05337378
73	0x3d9d7a35	0.07689325
74	0x3d62ef0b	0.05540375
75	0xbc816a45	-0.015797744
76	0xbd0ca492	-0.034336634
77	0xbbadad5c	-0.005300207
78	0xbbed65d7	-0.0072448063
79	0xbd8d3d81	-0.068964966
80	0xbc8f5257	-0.017495317
81	0xbd6ef919	-0.058343027
82	0x3d50ae58	0.050947517
83	0xbcb49d1e	-0.022047576
84	0x3b115ba1	0.002217986
85	0xbd0201c7	-0.031739976
86	0xbd0c6b94	-0.034282282
87	0xbd6b8751	-0.057502095
88	0x3ad3797a	0.0016134225
89	0x3cd497a6	0.025951218
90	0xbbff3cac	-0.007789215
91	0x3d6f79fc	0.058465943
92	0xbcf506dd	-0.0299105
93	0x3d56d516	0.05244931
94	0xbb878a70	-0.004136376
95	0xbd883f15	-0.06652657
96	0xbd71e1b6	-0.059053145
97	0xbd590495	-0.052982885
98	0x3c64f57f	0.013974546
99	0x3cad67ff	0.021167753
100	0xbc569c35	-0.013098766
101	0x3cfe1abd	0.03101861
102	0x3d34dac3	0.04415394
103	0xbc394f6b	-0.011310439
104	0x3c5954f3	0.013264882
105	0x3d55f3ae	0.052234344
106	0x3d7b5136	0.061356746
107	0xbd4c3c21	-0.04986203
108	0xbc9df050	-0.019279629
109	0xbd882a9b	-0.06648751
110	0x3d3f3994	0.04668577
111	0xbba73d11	-0.005103715
112	0xbd59e85d	-0.053200115
113	0x3d1bfe57	0.038084354
114	0xbd54e6fc	-0.051978096
115	0xbda54976	-0.08070652
116	0x3d8636e4	0.06553438
117	0xbbcddb1c	-0.0062822234
118	0xbdb92ae7	-0.09041386
119	0xbd213041	-0.03935266
120	0x3d6d4e32	0.0579359
121	0x3cdf1fc8	0.027236834
122	0xbd641ee6	-0.05569353
123	0x3d844049	0.06457574
124	0x3d2bb124	0.04191698
125	0xbcf76176	-0.03019784
126	0x3cf43bfe	0.029813763
127	0xb9779d7f	-0.00023614427
128	0xbd28185b	-0.041038852
129	0x3d52ea68	0.05149308
130	0x3d262ed2	0.040571995
131	0x3c2293d1	0.0099229375
132	0xbd269a68	-0.040674597
133	0xbcc0def3	-0.02354381
134	0x3cd8a752	0.026446972
135	0x3d6e73e3	0.058215987
136	0xbbcb6f01	-0.006208301
137	0x3cc8215d	0.024429971
138	0x3d509404	0.05092241
139	0xbd343f85	-0.04400589
140	0xbd0f50f9	-0.03498933
141	0xbd610b1a	-0.054942228
142	0xbd952b61	-0.072836645
143	0x3d45ab20	0.0482589
144	0xbd76fa57	-0.060297336
145	0xbdc76563	-0.09736135
146	0x3cb6a8b7	0.022297246
147	0x3d77ed21	0.060528878
148	0x3d3aa587	0.045568015
149	0xbcc5dec9	-0.024154084
150	0xbd9dc72c	-0.07704005
151	0x3c7ea2f6	0.015541783
152	0x3d6750ea	0.05647365
153	0xbd6dc4d1	-0.058049027
154	0xbd853235	-0.06503717
155	0x3c0b87b5	0.008516242
156	0xbd383c30	-0.044979274
157	0x3d9b9900	0.07597542
158	0xbd96d745	-0.07365278
159	0x3d3574bb	0.044300776
160	0x3d9c8fb0	0.07644594
161	0xbd428765	-0.047492404
162	0xbc396900	-0.011316538
163	0xbd3f9000	-0.04676819
164	0x3c49d41e	0.012318639
165	0x3d7ee5c1	0.06223083
166	0xbb9180c5	-0.0044403994
167	0xbd7bb6cd	-0.06145363
168	0x3d366714	0.044531897
169	0x3d36c197	0.044618215
170	0xbd1d737d	-0.038440216
171	0xbd15a061	-0.036529902
172	0xbd41a068	-0.047272116
173	0xbb14433c	-0.0022623083
174	0x3d01a33c	0.031649813
175	0xbcfbc64f	-0.03073421
176	0xbcf8140f	-0.030283002
177	0xba8e96f4	-0.0010878728
178	0x3d3334be	0.04375147
179	0x3da1c2d4	0.07898489
180	0x3b03fb6b	0.002013887
181	0xbce2c62f	-0.027682392
182	0x3d89bd00	0.06725502
183	0xbd2efa5e	-0.042719238
184	0xbd1b7e3e	-0.03796219
185	0x3d0fef01	0.03514004
186	0x3cd1dbd5	0.02561752
187	0x3bcab9bb	0.0061866916
188	0x3bb4a28a	0.00551254
189	0xbca522c8	-0.020158187
190	0x3dd772b9	0.105199285
191	0x3c7f5c84	0.015586022
192	0x3c84a42a	0.01619156
193	0xbd818f0d	-0.06326113
194	0xbdb24e9e	-0.08706401
195	0xbda0cd5a	-0.07851668
196	0x3aa01e7d	0.0012216117
197	0xbdd0853a	-0.10181661
198	0xbd7d14db	-0.061787467
199	0xbd118bcc	-0.03553371
200	0x3da6e8bf	0.081498615
201	0xbab7eb89	-0.0014031987
202	0xbd86477d	-0.06556604
203	0xbb2a3d27	-0.002597639
204	0xbc680c8f	-0.01416315
205	0xbcfbcd62	-0.030737583
206	0xbd07c6ae	-0.03314846
207	0xbc28a9e6	-0.010294413
208	0x3dae6bdf	0.085166685
209	0xbc655c4b	-0.013999055
210	0x3c7139b8	0.014723234
211	0x3d739c61	0.059475306
212	0x3d644f49	0.055739675
213	0x3cb0e901	0.02159548
214	0x3d590acd	0.052988816
215	0xbd78d7ce	-0.060752682
216	0x3d6a2b90	0.05717045
217	0xbd1cd569	-0.03828946
218	0x3d01acaa	0.031658806
219	0x3cc4565b	0.023966959
220	0x3ca0b65a	0.019618202
221	0x3db2e951	0.08735908
222	0xbb871191	-0.004121967
223	0xbc47e10c	-0.012199651
224	0x3c000f93	0.007816213
225	0xbd3f7c42	-0.04674936
226	0xbbfce64e	-0.007717884
227	0xbd158d53	-0.03651173
228	0x3d1dc6fc	0.038519844
229	0xbd81fcea	-0.06347068
230	0x3cb6d992	0.022320542
231	0x3d412ced	0.047161985
232	0xbabe6cb8	-0.001452825
233	0x3d7da2f8	0.061922997
234	0xbcb6eec5	-0.022330651
235	0xbd5831e7	-0.052781966
236	0xbc22dc2a	-0.0099401865
237	0x3d6ee3ca	0.058322705
238	0x3c8e92d1	0.017403992
239	0xbd5a08a0	-0.05323088
240	0x3cec0ed0	0.028815657
241	0xbd1d379e	-0.03838312
242	0xbcee1efa	-0.029067505
243	0x3d065d9e	0.032804124
244	0xbbaf8eb8	-0.0053575896
245	0xbdb7e2f3	-0.08978834
246	0x3d873442	0.06601764
247	0x3d8b8930	0.06813276
248	0xbc776e90	-0.015102044
249	0xbd6bc52c	-0.057561085
250	0xbb2eea45	-0.0026689928
251	0xbc1b9889	-0.009496816
252	0x3cb5c6f8	0.022189602
253	0xbd3511ed	-0.04420655
254	0xbcb274a8	-0.021784142
255	0xbd18c915	-0.03730114

crystalGraphConvNet.convs.0.fc_full.bias f4 [128]
0	0x3cd3e75f	0.025867162
1	0xbd38ba7d	-0.045099724
2	0x3d4d558e	0.05013042
3	0x3aa0d0a0	0.0012269206
4	0x3c5ab34c	0.013348412
5	0x3d63bb36	0.05559846
6	0x3d8ff2ca	0.0702873
7	0xbd2bd063	-0.04194678
8	0x3d340094	0.043945864
9	0x3d9abb79	0.07555289
10	0x3cab1a73	0.020886635
11	0xbd55b513	-0.05217464
12	0xbd1216e9	-0.03566638
13	0x3d59b49f	0.05315077
14	0x3c634ec6	0.0138737615
15	0x3d200737	0.03906938
16	0x3d8b64b9	0.06806321
17	0x3d8a0c59	0.067406364
18	0x3d991826	0.07475309
19	0xbc7ad62c	-0.015309852
20	0x3c60d921	0.013723643
21	0x3d993a76	0.07481854
22	0x3b312540	0.002703026
23	0xbc9b88e6	-0.018986177
24	0x3c65f571	0.014035569
25	0xbd260ffd	-0.04054259
26	0xbcc2b9dd	-0.023770267
27	0xbcfbcf18	-0.030738398
28	0x3d2d0da1	0.042249326
29	0xbd66fccf	-0.05639344
30	0xbc64c132	-0.013962077
31	0x3c9af584	0.0189159
32	0x3d0af23a	0.03392241
33	0x3cd2bb7d	0.025724167
34	0x3d8c3606	0.06846242
35	0xbc0e5bf5	-0.008688916
36	0x3d78cf32	0.06074447
37	0x3ada311e	0.0016646718
38	0xbacd3db6	-0.001565865
39	0xbca2bd8a	-0.01986577
40	0x3bd58ab8	0.0065167807
41	0xbd1062b2	-0.035250373
42	0xbcaf7985	-0.02142025
43	0x3d1f1a7d	0.03884362
44	0xbceb0906	-0.028690826
45	0x3d3bf4e4	0.045887843
46	0x3c8aeb55	0.016957918
47	0x3ca277a8	0.019832447
48	0x3d0e5ea3	0.03475822
49	0xbd97a253	-0.07404008
50	0xb79868c8	-1.8168605e-05
51	0xbc90884c	-0.017643116
52	0xbd914235	-0.07092706
53	0xbbc191bd	-0.005907266
54	0xbd4cd291	-0.0500055
55	0x38fa8c54	0.00011947067
56	0xbd846fd4	-0.06466642
57	0x3d7f3ab0	0.062311828
58	0xbd4e43ff	-0.050357815
59	0x3d2ed690	0.04268509
60	0x3c40fdc5	0.011779253
61	0x3cd314d0	0.02576676
62	0x3d755fc7	0.059905794
63	0x3d010843	0.03150202
64	0x3d8acb1c	0.06777021
65	0x3c2d7958	0.010588013
66	0x3c60fb4c	0.013731789
67	0x3b9e81f7	0.0048372704
68	0xbd8022ca	-0.062566355
69	0xbd4c2841	-0.049843077
70	0x3cc527b0	0.024066776
71	0xbd15d8d2	-0.03658373
72	0x3d5f572a	0.054526486
73	0x3cca9843	0.024730807
74	0x3d558ce9	0.052136336
75	0x3d927377	0.071509294
76	0x3cb2f85d	0.021846944
77	0xbbc90aef	-0.0061353366
78	0x3ca1e409	0.019762056
79	0x3c3a70b7	0.011379412
80	0x3ce65ada	0.028119493
81	0xbc8b7d45	-0.017027507
82	0x3d7105ad	0.058843303
83	0x3c45a86d	0.012064082
84	0x3c65fa32	0.014036702
85	0x3b2c1e72	0.0026263264
86	0x3d154467	0.036442187
87	0x3d700fd5	0.05860885
88	0xbd94c337	-0.07263797
89	0xbd8f86f8	-0.07008165
90	0xbcb680d6	-0.02227823
91	0x3d0de585	0.034642715
92	0xbcd19e08	-0.02558805
93	0x3cd6da62	0.02622718
94	0x3d81ffcd	0.06347618
95	0x3d5a8ac6	0.053355
96	0x3d680331	0.05664367
97	0x3d996568	0.07490045
98	0x3b8a8e81	0.0042284136
99	0xbd98e203	-0.07464983
100	0x3d54faf1	0.05199713
101	0x3b8d5cbb	0.004314033
102	0x3c745a01	0.014914037
103	0xbd99a2af	-0.075017326
104	0x3cfd7450	0.030939251
105	0xbb60a633	-0.003427875
106	0x3cea72ff	0.028619288
107	0xbd81576c	-0.063155025
108	0xbcd19fdb	-0.02558892
109	0x3d1d4dba	0.038404204
110	0x3cc4d0d9	0.024025368
111	0xbd91082b	-0.07081636
112	0xbcdd83a4	-0.02704031
113	0x3c1bb0d1	0.009502606
114	0xbbe5a104	-0.00700772
115	0x3d3318fb	0.043724995
116	0x3d12891f	0.0357753
117	0x3d986b04	0.074422866
118	0xbd1938a2	-0.037407525
119	0x3d17e378	0.037082165
120	0xbd66f2e4	-0.056383982
121	0x3c13cb58	0.009020649
122	0xbd54eb84	-0.051982418
123	0xbbbd6a65	-0.0057805055
124	0xbd17abf5	-0.037029225
125	0x3d52432b	0.051333588
126	0x3d52d070	0.051468313
127	0xbd3df822	-0.046379216

crystalGraphConvNet.convs.0.bn1.weight f4 [128]
0	0x3f80c94f	1.0061435
1	0x3f7f5662	0.99741185
2	0x3f80f1b7	1.0073766
3	0x3f8170b2	1.0112517
4	0x3f7f9bc4	0.99847054
5	0x3f7fd9f9	0.99941975
6	0x3f803ac7	1.0017937
7	0x3f80963c	1.0045848
8	0x3f80be9a	1.0058167
9	0x3f7e3582	0.99300396
10	0x3f808857	1.0041608
11	0x3f7ef9b8	0.9959979
12	0x3f80322d	1.0015312
13	0x3f7e5ef7	0.99363655
14	0x3f80b9a9	1.0056659
15	0x3f80c88e	1.0061204
16	0x3f7fc4ec	0.99909854
17	0x3f7f3fde	0.9970683
18	0x3f7f589c	0.9974458
19	0x3f800dc9	1.0004207
20	0x3f80621d	1.0029942
21	0x3f7dce84	0.9914324
22	0x3f80512d	1.0024773
23	0x3f7e3ec7	0.9931454
24	0x3f800eb8	1.0004492
25	0x3f7f3d8a	0.99703276
26	0x3f7fbdfe	0.9989928
27	0x3f801d0b	1.0008863
28	0x3f80ea45	1.0071493
29	0x3f809a3a	1.0047066
30	0x3f80778e	1.0036485
31	0x3f815e0e	1.0106828
32	0x3f804427	1.0020798
33	0x3f7f016c	0.99611545
34	0x3f8044a2	1.0020945
35	0x3f80916c	1.0044379
36	0x3f7ff491	0.99982554
37	0x3f8155c3	1.0104297
38	0x3f7fe6ef	0.9996175
39	0x3f7faba4	0.9987128
40	0x3f80a587	1.0050515
41	0x3f806955	1.0032145
42	0x3f800fe9	1.0004855
43	0x3f8024a8	1.0011187
44	0x3f802c5e	1.001354
45	0x3f7ff47d	0.99982435
46	0x3f7ea46a	0.99469626
47	0x3f7fd2d0	0.9993105
48	0x3f802db7	1.0013951
49	0x3f80da5a	1.0066636
50	0x3f800290	1.0000782
51	0x3f7d2905	0.98890716
52	0x3f810ccd	1.0082031
53	0x3f8021e3	1.0010341
54	0x3f801d90	1.0009022
55	0x3f800bda	1.0003617
56	0x3f7fb60a	0.99887145
57	0x3f7fa351	0.99858576
58	0x3f8038ff	1.0017394
59	0x3f802af7	1.0013112
60	0x3f802432	1.0011046
61	0x3f818a54	1.0120339
62	0x3f800bc7	1.0003594
63	0x3f81f370	1.0152416
64	0x3f7f77c0	0.997921
65	0x3f80b377	1.0054768
66	0x3f81191d	1.0085789
67	0x3f7dfeae	0.99216735
68	0x3f80fe95	1.0077692
69	0x3f8009a8	1.0002947
70	0x3f7f1ba3	0.99651545
71	0x3f7fb3fb	0.99884003
72	0x3f7f0733	0.9962036
73	0x3f807a55	1.0037333
74	0x3f800601	1.0001832
75	0x3f7f1f16	0.9965681
76	0x3f800746	1.000222
77	0x3f80a460	1.0050163
78	0x3f7f200a	0.9965826
79	0x3f804b81	1.0023042
80	0x3f801fd2	1.0009711
81	0x3f81d804	1.0144048
82	0x3f7f5084	0.9973223
83	0x3f7fac41	0.99872214
84	0x3f7eaf7d	0.99486524
85	0x3f809bcf	1.0047549
86	0x3f7f09ea	0.996245
87	0x3f815eba	1.0107033
88	0x3f7fec99	0.99970394
89	0x3f80d613	1.006533
90	0x3f80292d	1.0012566
91	0x3f7bd447	0.98370785
92	0x3f7ee01d	0.9956072
93	0x3f7f80c7	0.99805874
94	0x3f8093cf	1.0045108
95	0x3f80bf73	1.0058426
96	0x3f805c48	1.0028162
97	0x3f7fa0f0	0.99854946
98	0x3f80c397	1.0059689
99	0x3f800bb7	1.0003575
100	0x3f7e5acc	0.99357295
101	0x3f7e26f2	0.99278176
102	0x3f7f8c05	0.9982303
103	0x3f806b3b	1.0032724
104	0x3f7e5b34	0.99357915
105	0x3f7fa9d5	0.9986852
106	0x3f8096f3	1.0046066
107	0x3f800ae4	1.0003324
108	0x3f7f6d3b	0.9977605
109	0x3f806f8d	1.0034043
110	0x3f8113ee	1.0084207
111	0x3f80554e	1.0026033
112	0x3f7e92c8	0.9944272
113	0x3f803ec7	1.0019158
114	0x3f8078db	1.0036882
115	0x3f80e4be	1.0069807
116	0x3f8257ae	1.0183008
117	0x3f804247	1.0020226
118	0x3f7fd7f6	0.99938905
119	0x3f80f18b	1.0073713
120	0x3f7ffe0e	0.9999703
121	0x3f7f521e	0.99734676
122	0x3f81a85a	1.0129502
123	0x3f80828c	1.003984
124	0x3f7f6ab2	0.9977218
125	0x3f7f156c	0.9964206
126	0x3f8083a3	1.0040172
127	0x3f841e15	1.032168

crystalGraphConvNet.convs.0.bn1.bias f4 [128]
0	0xbb836b74	-0.004010612
1	0x3aaf8562	0.0013391192
2	0xbbe28cee	-0.006913773
3	0xbb32daa4	-0.0027290964
4	0x3b149702	0.0022673015
5	0x3ae43003	0.0017409328
6	0xbb075916	-0.0020652465
7	0x3ab4ad8a	0.0013784629
8	0x391a00e8	0.00014686922
9	0x3b1c9f10	0.002389852
10	0xbb1895ef	-0.0023282727
11	0x3a477255	0.00076082844
12	0xba557b5f	-0.0008143689
13	0x3b1af8c2	0.0023646806
14	0xbba296cb	-0.0049618236
15	0xbb67c5de	-0.003536574
16	0xba363750	-0.0006950991
17	0x3b16125a	0.0022899122
18	0xbb7e057c	-0.0038760593
19	0x3aab5cb5	0.0013073893
20	0xbb67fb10	-0.0035397448
21	0x3b7b0067	0.00382998
22	0xb7fba905	-3.0000238e-05
23	0xba914b1b	-0.0011085005
24	0x3b8f4445	0.004372152
25	0x3b2468b3	0.002508682
26	0x3adc1022	0.0016789476
27	0xba33cbe3	-0.00068586896
28	0xbbb0d440	-0.005396396
29	0xbb9efda5	-0.004852014
30	0xbaaebe8f	-0.0013331937
31	0xbbcc1dbd	-0.006229131
32	0xba0fa804	-0.00054800534
33	0x3bbfe9e8	0.005856741
34	0x3a8593d5	0.0010191152
35	0xbba45085	-0.0050144815
36	0x3b02c6f5	0.0019955013
37	0xbbcb2990	-0.006200023
38	0xb9b60ef2	-0.0003472488
39	0xbb210b6c	-0.0024573458
40	0xb9c38eb1	-0.00037299612
41	0xbaf40331	-0.0018616674
42	0x3af44f0c	0.001863928
43	0xba7257b7	-0.0009244638
44	0xb8b09bda	-8.4213636e-05
45	0x3b990283	0.004669489
46	0x3bb0c79b	0.0053948886
47	0x39a5f46e	0.00031653367
48	0xb9710ed8	-0.00022989081
49	0xbbbc9bef	-0.0057558934
50	0xbbb5c578	-0.0055472218
51	0x3c12f033	0.008968401
52	0xbaf7d397	-0.0018907663
53	0xbb398504	-0.0028308043
54	0xbae1e9bd	-0.0017235797
55	0xbb4a5e2a	-0.003087888
56	0xbaa1768f	-0.0012318658
57	0x3af0b20e	0.0018363611
58	0xbbd5118b	-0.0065023354
59	0xb77c991d	-1.505602e-05
60	0x3a003430	0.0004890589
61	0xbc04b5ef	-0.008100017
62	0xba2a8970	-0.0006505465
63	0xbc88e57a	-0.016710985
64	0x3aceef41	0.0015787856
65	0x3a7957f4	0.0009511702
66	0xbc1c0cee	-0.009524567
67	0x3b516e78	0.0031956714
68	0xbb7572fb	-0.0037452567
69	0xba7a25dc	-0.00095423847
70	0x3a2d54d9	0.00066120696
71	0x3a311fdc	0.00067567616
72	0x3b14de95	0.0022715677
73	0xba9509f8	-0.0011370769
74	0xb7abb7a8	-2.047031e-05
75	0x3b156634	0.0022796514
76	0xb9dda28a	-0.00042273506
77	0xbb255d69	-0.0025232679
78	0x3a50367c	0.0007942689
79	0xbaf37b15	-0.001857611
80	0xb86004e7	-5.3410327e-05
81	0xbbdcc7c8	-0.006737683
82	0x3a464a24	0.00075641484
83	0xb9f78b42	-0.00047215266
84	0x3b0c387e	0.0021395977
85	0xbb01fbcf	-0.0019833928
86	0x3aa0ad03	0.0012258593
87	0xbb862ad1	-0.0040944596
88	0x3ad5d8cd	0.0016315222
89	0xbb468aac	-0.0030295057
90	0xb9db4dd6	-0.00041828927
91	0x3c311cc5	0.010810082
92	0x3a5829ed	0.00082459935
93	0x391eb529	0.00015135542
94	0xbb5c271f	-0.0033592654
95	0xbbd4c21e	-0.006492867
96	0xbac44d85	-0.0014976716
97	0xb86d973b	-5.6646048e-05
98	0xbb5174ab	-0.0031960409
99	0xba210e60	-0.00061438046
100	0x3b0e3237	0.002169741
101	0x3a99f7cb	0.0011746822
102	0x3a807f1e	0.0009803509
103	0xbab8323b	-0.0014053056
104	0x3b3d383a	0.0028872625
105	0x3a4378ad	0.0007456642
106	0xbb14e58a	-0.0022719824
107	0x395c4c7d	0.00021009329
108	0x3a02c543	0.0004988501
109	0xba8967ab	-0.0010483166
110	0xbb8a32e3	-0.004217492
111	0xbb046a98	-0.0020205136
112	0x3b185b39	0.0023247732
113	0xbaf3993c	-0.0018585096
114	0xbb69fb66	-0.0035702824
115	0xbaed9124	-0.001812492
116	0xbbe5bb1f	-0.007010832
117	0xba7e8cfd	-0.000971034
118	0x3a7afcec	0.00095744315
119	0xbb86292f	-0.004094265
120	0x3a29d536	0.0006478609
121	0x3ac9b045	0.0015387615
122	0xbc1a698e	-0.00942458
123	0xbb49fce3	-0.0030820898
124	0x3b70d88d	0.0036750168
125	0xb8dd52c6	-0.00010553519
126	0xbb2b4dff	-0.0026139019
127	0xbccbf5d3	-0.024897492

crystalGraphConvNet.convs.0.bn1.running_mean f4 [128]
0	0x3d2225ac	0.039586708
1	0xbe2c85e0	-0.16847944
2	0x3d31e88c	0.043434665
3	0x3dd897fa	0.10575862
4	0x3dc02103	0.093812965
5	0xbd1dc5bc	-0.038518652
6	0x3c1b7d9f	0.0094904
7	0xbdb04547	-0.086069636
8	0x3d1f877f	0.03894758
9	0x3e5d55c8	0.21614754
10	0xbc9940b4	-0.01870761
11	0x3c7e3490	0.015515462
12	0x3cb041fe	0.021515843
13	0x3e343f6a	0.17602316
14	0xbd821580	-0.06351757
15	0x3bf5d361	0.007502005
16	0xbce075bc	-0.02739989
17	0x3dc4e4fb	0.09613987
18	0x3dd81521	0.10550905
19	0xbc696cc4	-0.014247123
20	0xbd1ca80e	-0.038246207
21	0x3e04784d	0.12936516
22	0x3d58ff6a	0.052977957
23	0xbdf2be94	-0.11852756
24	0x3e492ed6	0.19646773
25	0xbc2f199b	-0.010687257
26	0x3d1a50ad	0.037674595
27	0x3c6ff550	0.014645889
28	0x3cb87790	0.02251795
29	0xbe38f9e8	-0.18064082
30	0x3e596896	0.21231303
31	0x3d22c1c4	0.03973557
32	0x3da0fb59	0.07860441
33	0x3d8ceea8	0.068814576
34	0x3d95ce7a	0.07314773
35	0x3c2235d5	0.00990053
36	0x3d9bc391	0.07605661
37	0xbe1d0e28	-0.15337431
38	0x3e1b7d1e	0.15184447
39	0x3b5d49bb	0.003376587
40	0xbdf47edb	-0.11938258
41	0x3bcd7ce5	0.006270992
42	0xbddde05e	-0.1083381
43	0x3e266697	0.16250072
44	0xbd059a53	-0.03261788
45	0x3e1b6ff2	0.15179422
46	0x3de89f59	0.11358518
47	0x3d8de081	0.06927586
48	0x3d812a39	0.063068815
49	0xbe29c0b8	-0.16577423
50	0x3d90ee33	0.07076683
51	0x3c90cae0	0.017674863
52	0xbda4088d	-0.080094434
53	0x3d262af6	0.040568314
54	0xbd1af830	-0.037834346
55	0xbdb5c1f9	-0.08874888
56	0xbdda370f	-0.10655033
57	0x3e0efd96	0.13963923
58	0xbcc846be	-0.024447795
59	0xbd3d3ed0	-0.04620248
60	0x3e41f632	0.18941572
61	0xbd00b12f	-0.031418975
62	0xbdcfa8b0	-0.101395965
63	0xbbe47df9	-0.006973025
64	0x3dfc156b	0.12308773
65	0xbe33b0a6	-0.17547855
66	0x3ddd98f8	0.10820192
67	0xbc0f0bba	-0.008730823
68	0xbe3a8bbc	-0.18217367
69	0xbcf5793b	-0.029965034
70	0xbb204239	-0.0024453534
71	0xbd9c6a4a	-0.076374605
72	0x3dba9631	0.09110678
73	0x3e8ec0aa	0.27881366
74	0x3e2228d0	0.15835881
75	0x3e24c5fd	0.16091152
76	0xbca69531	-0.020334812
77	0x3c6c034d	0.014405084
78	0xbd3ddfa1	-0.046355847
79	0x3e00bd97	0.12572323
80	0x3d76364a	0.060110368
81	0x3e073e25	0.132073
82	0x3e2de1f6	0.16980729
83	0x3cfab1c8	0.03060235
84	0xbd94a418	-0.07257861
85	0x3e5561f2	0.20838144
86	0x3e173dd6	0.14769682
87	0x3ba0c7dd	0.004906638
88	0x3e589d6d	0.21153803
89	0xbdaee293	-0.08539309
90	0x3d513511	0.051076
91	0x3b83c9f1	0.004021876
92	0xbdc633b5	-0.09677831
93	0x3e64449e	0.222918
94	0xbd896b53	-0.067099236
95	0x3bd547e0	0.0065088123
96	0x3dd846ad	0.10560355
97	0x3e4549dc	0.19266456
98	0x3d9985ec	0.07496247
99	0xbda47598	-0.08030242
100	0x3e498146	0.1967822
101	0xbd4c4649	-0.049871717
102	0x3dda0614	0.106456906
103	0xbd1bbc87	-0.03802159
104	0x3db6ca45	0.089252986
105	0x3dcd618f	0.100283735
106	0x3dbdca46	0.09267096
107	0x3bb4aad6	0.0055135293
108	0x3d4a9ba9	0.049464855
109	0x3d262c2c	0.04056947
110	0x3d45818b	0.048219245
111	0xbe2cdfc3	-0.16882233
112	0xbc8fc152	-0.017548237
113	0xbdee03dc	-0.1162183
114	0x3e6454a3	0.22297911
115	0x3d809d02	0.06279947
116	0x3ce5d70e	0.028056648
117	0x3daec198	0.08533019
118	0xbd18e755	-0.03732999
119	0xbe67b14b	-0.22626226
120	0xbd7abb76	-0.061213933
121	0x3b72b336	0.0037033088
122	0xbd95ee0a	-0.07320793
123	0x3df6a59a	0.12043305
124	0xbb916b94	-0.004437873
125	0xbdb432aa	-0.08798726
126	0x3da02b99	0.078208156
127	0xbd0bb920	-0.034112096

crystalGraphConvNet.convs.0.bn1.running_var f4 [128]
0	0x3c51786b	0.012785058
1	0x3cb40d2d	0.021978939
2	0x3c938bfe	0.01801109
3	0x3cbc9ce1	0.023024024
4	0x3cd90882	0.026493315
5	0x3cee8eff	0.02912092
6	0x3c70f29d	0.014706281
7	0x3cc3bdf4	0.023894288
8	0x3c9bde8d	0.019027019
9	0x3d415901	0.04720402
10	0x3cd2867d	0.025698895
11	0x3c3a6d0a	0.011378536
12	0x3c72cbf3	0.014819133
13	0x3cc71edf	0.024306713
14	0x3d2e6ec4	0.042586103
15	0x3c807255	0.015679518
16	0x3c87b141	0.016564013
17	0x3c7319d1	0.014837698
18	0x3cb15b59	0.021650003
19	0x3cd7b67a	0.026332129
20	0x3c4d39e9	0.012526014
21	0x3ca62cf3	0.020285105
22	0x3c2e7757	0.01064857
23	0x3c614a50	0.013750628
24	0x3d49b8fb	0.049248677
25	0x3cb4a4dd	0.02205127
26	0x3cbb6844	0.022876866
27	0x3d33754d	0.04381304
28	0x3c84e903	0.01622439
29	0x3c27e5cf	0.010247662
30	0x3cb70ad9	0.02234404
31	0x3c4e58be	0.0125944
32	0x3c483324	0.012219224
33	0x3d18d1f7	0.037309613
34	0x3c442a86	0.011973029
35	0x3c851452	0.016245041
36	0x3d202aaa	0.039103188
37	0x3d158778	0.036506146
38	0x3c47bb6e	0.012190683
39	0x3c556322	0.013024123
40	0x3c840e8b	0.016120216
41	0x3c9c0204	0.01904393
42	0x3c3961df	0.011314838
43	0x3c922080	0.017837763
44	0x3cc6fab1	0.02428946
45	0x3ccd2108	0.025040165
46	0x3cf9693d	0.03044569
47	0x3c2ee3e3	0.01067445
48	0x3cec5b81	0.028852226
49	0x3caa69ea	0.020802457
50	0x3ca65946	0.02030624
51	0x3d219d4d	0.039456654
52	0x3c97cfa3	0.018531626
53	0x3c7c6f0b	0.015407334
54	0x3ca2c7cd	0.019870663
55	0x3ccdb1c0	0.025109172
56	0x3c681656	0.014165482
57	0x3c676b6b	0.0141247315
58	0x3c7f03d2	0.015564876
59	0x3cb5f633	0.022212123
60	0x3cfb5aa3	0.030682867
61	0x3c6b5fd6	0.014366111
62	0x3c342d4d	0.010997129
63	0x3c966463	0.018358415
64	0x3ca46e56	0.020072144
65	0x3d6f18a1	0.058373097
66	0x3c763dbd	0.015029368
67	0x3d5f5f9b	0.054534536
68	0x3c9aa807	0.01887895
69	0x3d031334	0.032000735
70	0x3c682994	0.014170069
71	0x3d030d86	0.03199532
72	0x3cbee1f2	0.023301098
73	0x3e129031	0.14312817
74	0x3cc5429f	0.024079619
75	0x3c8fa939	0.017536746
76	0x3cf1c414	0.029512443
77	0x3d1d0cb5	0.038342196
78	0x3d4dc79b	0.050239187
79	0x3c79b834	0.015241671
80	0x3c836870	0.01604101
81	0x3cdc0d34	0.026861764
82	0x3cc0e0f1	0.02354476
83	0x3d228495	0.03967722
84	0x3cee4b71	0.029088708
85	0x3d34f662	0.04418028
86	0x3cf7f236	0.030266862
87	0x3c7ec9fd	0.015551087
88	0x3dd8d33a	0.10587163
89	0x3cdd3a85	0.027005443
90	0x3d434680	0.047674656
91	0x3d6e3d03	0.058163654
92	0x3c741f2d	0.014900011
93	0x3d030999	0.031991575
94	0x3c923f52	0.01785246
95	0x3c512432	0.012764977
96	0x3c542984	0.012949351
97	0x3d382665	0.04495849
98	0x3c822abf	0.015889524
99	0x3d01ea3f	0.031717535
100	0x3d7369da	0.05942712
101	0x3d02b036	0.03190633
102	0x3cc37300	0.023858547
103	0x3d2bc869	0.041939173
104	0x3cac48b9	0.02103077
105	0x3cbd00d4	0.023071684
106	0x3cdedd45	0.027205119
107	0x3c37ed52	0.011226015
108	0x3d21f1d7	0.039537277
109	0x3cc5dba0	0.024152577
110	0x3cf3db9f	0.02976781
111	0x3ca3f94a	0.020016331
112	0x3d22e82b	0.039772194
113	0x3d015ef8	0.03158471
114	0x3d8be30a	0.06830414
115	0x3d8b86e3	0.06812837
116	0x3c9aa59b	0.018877795
117	0x3c8bba86	0.017056715
118	0x3d267467	0.040638354
119	0x3d14e683	0.036352646
120	0x3c653e41	0.013991893
121	0x3ca147bb	0.019687524
122	0x3c6c38bc	0.014417823
123	0x3d6725fd	0.056432713
124	0x3d0940b6	0.03350898
125	0x3c62029f	0.01379457
126	0x3c7b587f	0.015340923
127	0x3c648c90	0.013949528

crystalGraphConvNet.convs.0.bn2.weight f4 [64]
0	0x3f7b93ce	0.9827241
1	0x3f827a43	1.0193561
2	0x3f833a13	1.0252098
3	0x3f7e7cfa	0.9940945
4	0x3f80c57f	1.0060271
5	0x3f7e4a29	0.9933191
6	0x3f7a0e4d	0.9767807
7	0x3f79e15d	0.976095
8	0x3f75be2b	0.959933
9	0x3f75603f	0.95849985
10	0x3f793396	0.9734434
11	0x3f7ab55d	0.9793299
12	0x3f806a4a	1.0032437
13	0x3f79dc38	0.9760165
14	0x3f72bd39	0.9481998
15	0x3f81e1ff	1.0147094
16	0x3f7eb4e4	0.9949477
17	0x3f81716b	1.0112737
18	0x3f7abf1e	0.9794787
19	0x3f769118	0.96315145
20	0x3f7cb0e6	0.98707426
21	0x3f7d6c7c	0.9899366
22	0x3f7dfdf4	0.99215627
23	0x3f8295cb	1.0201963
24	0x3f7ab0bd	0.9792593
25	0x3f7b84e5	0.98249656
26	0x3f7facee	0.99873245
27	0x3f6f9efe	0.9360198
28	0x3f82c37f	1.0215911
29	0x3f81bf4f	1.0136508
30	0x3f7ad37e	0.9797896
31	0x3f80bad3	1.0057014
32	0x3f835257	1.0259503
33	0x3f76ebcf	0.96453565
34	0x3f818805	1.0119635
35	0x3f826eb7	1.0190037
36	0x3f79dde5	0.9760421
37	0x3f7e4c9b	0.9933564
38	0x3f7be4cc	0.9839599
39	0x3f7b2ebd	0.9811819
40	0x3f80c1f6	1.0059192
41	0x3f7fe679	0.9996105
42	0x3f7d2501	0.9888459
43	0x3f7f9580	0.99837494
44	0x3f7e924f	0.99442
45	0x3f7a5543	0.9778635
46	0x3f7b92a4	0.9827063
47	0x3f7be0ce	0.983899
48	0x3f740026	0.95312726
49	0x3f8360d4	1.0263925
50	0x3f7e89a2	0.9942876
51	0x3f7a6112	0.9780437
52	0x3f845f86	1.0341651
53	0x3f7cbcb2	0.98725426
54	0x3f8028a3	1.0012401
55	0x3f8184c6	1.0118644
56	0x3f80cc0b	1.0062269
57	0x3f78333b	0.9695317
58	0x3f8407ad	1.0314842
59	0x3f80a919	1.0051605
60	0x3f789236	0.970981
61	0x3f7f7906	0.9979404
62	0x3f7dfa84	0.9921038
63	0x3f859a47	1.0437707

crystalGraphConvNet.convs.0.bn2.bias f4 [64]
0	0xbc95d973	-0.018292164
1	0xbbb1191e	-0.0054046055
2	0xbc5903d3	-0.013245541
3	0xbbcbe368	-0.0062221773
4	0xbb8cd24c	-0.0042975303
5	0xbc793dc6	-0.015212482
6	0xbc2d1606	-0.010564333
7	0xbb9c8bc9	-0.004777406
8	0xbd0f97f1	-0.035057012
9	0xbd0921ae	-0.033479385
10	0xbc9898a3	-0.01862747
11	0xbc65e0e8	-0.014030673
12	0xbc2b6f04	-0.01046348
13	0xbd08613a	-0.033295847
14	0xbd48554d	-0.048909474
15	0x3c5b1f50	0.013374165
16	0xbbcc44af	-0.0062337737
17	0xbc9725b6	-0.0184506
18	0xbc17661b	-0.009240652
19	0xbd066eb1	-0.032820407
20	0x3b0cc8e5	0.0021482047
21	0xbcb59def	-0.022170035
22	0x3cab22cb	0.020890614
23	0xbca5740e	-0.02019694
24	0xbca3a748	-0.019977227
25	0xbce76380	-0.028245687
26	0xbaf1ee94	-0.0018457943
27	0x3a25d72e	0.0006326315
28	0x3c42953b	0.0118764
29	0xba40dc06	-0.0007357005
30	0xbd150e0c	-0.03639035
31	0xbd1657d4	-0.036704853
32	0xbacd618f	-0.0015669334
33	0xbd033b53	-0.032038998
34	0xbc22aa40	-0.009928286
35	0x3bcdc9a7	0.0062801423
36	0xbba6e3b3	-0.005093062
37	0xbc952756	-0.018207233
38	0xbcc8d260	-0.024514377
39	0xbc06f42f	-0.008236929
40	0x3a2d431e	0.00066094275
41	0x3c4c0c50	0.012454107
42	0xbc870167	-0.01648016
43	0x3ad2b53a	0.0016075738
44	0x3b672954	0.0035272436
45	0x3a48cb85	0.00076597213
46	0x3b690257	0.0035554373
47	0xbc90169c	-0.017588906
48	0xbd1e9291	-0.038713995
49	0x3c3cd9db	0.01152655
50	0xbb4ac4bd	-0.003094002
51	0xbbc3a67d	-0.0059707747
52	0xbc343970	-0.011000022
53	0xbc874dfb	-0.016516676
54	0x3ba5dcc2	0.005061717
55	0xba08341d	-0.0005195754
56	0x3b972b2d	0.0046133013
57	0xbd198847	-0.03748348
58	0x3ac2e0b0	0.0014867987
59	0xbc2155af	-0.009847089
60	0xbcdd9c9b	-0.027052214
61	0xbc287aa6	-0.010283148
62	0xbcf5e7c8	-0.030017748
63	0xbcf8e6d2	-0.030383501

crystalGraphConvNet.convs.0.bn2.running_mean f4 [64]
0	0x40904bc1	4.5092473
1	0x40b1e950	5.5597305
2	0x40978dcc	4.736059
3	0x4093d754	4.620035
4	0x4086899b	4.2042975
5	0x40b7b093	5.7403045
6	0x40a62de3	5.1931014
7	0x40ba5796	5.8231916
8	0x40aed0d9	5.462994
9	0x40be2d17	5.943004
10	0x40ac20b4	5.378992
11	0x409bb80f	4.866218
12	0x40b56cd8	5.6695366
13	0x40a45f90	5.1366653
14	0x40b093af	5.518028
15	0x40928a27	4.5793643
16	0x40a3d7c9	5.120091
17	0x40af829b	5.484693
18	0x40b299a4	5.581255
19	0x40afd211	5.494393
20	0x409e0172	4.9376764
21	0x40b66fe0	5.7011566
22	0x40a07974	5.014826
23	0x40a4541a	5.1352663
24	0x40c0ec4d	6.0288453
25	0x40af5029	5.478535
26	0x40b742d6	5.7269087
27	0x40b5f19a	5.6857424
28	0x40aff7d2	5.4990015
29	0x40ad3a07	5.4133334
30	0x409f6f32	4.9823236
31	0x40a21a0f	5.065681
32	0x409f2882	4.973695
33	0x40bd91e4	5.924059
34	0x40992efe	4.7869864
35	0x409ec771	4.961846
36	0x40bdfb65	5.936938
37	0x40a7b17d	5.240416
38	0x40ae3f2e	5.4452124
39	0x40af3c5e	5.476119
40	0x40b82d8a	5.755559
41	0x40a5799a	5.171094
42	0x40987c56	4.7651777
43	0x40a55741	5.166901
44	0x40b0eb0d	5.5286927
45	0x40b522b9	5.6604886
46	0x40b1b724	5.553606
47	0x40a421d1	5.129128
48	0x40b4c83b	5.649442
49	0x40b1e313	5.558969
50	0x40ad8216	5.4221296
51	0x40b81dd5	5.7536416
52	0x40ac86fe	5.3914785
53	0x40aa7af9	5.3275113
54	0x40b4647c	5.637266
55	0x40b38788	5.6102943
56	0x40a8c4af	5.274009
57	0x40a6b7dc	5.209944
58	0x40a4899d	5.1417985
59	0x40b5a0af	5.6758647
60	0x40b62df2	5.6931086
61	0x4095c583	4.6803603
62	0x409960a0	4.793045
63	0x409f2b10	4.9740067

crystalGraphConvNet.convs.0.bn2.running_var f4 [64]
0	0x40c82005	6.2539086
1	0x418d89e8	17.692337
2	0x4103e19b	8.242579
3	0x41052987	8.3226385
4	0x40a165e2	5.043687
5	0x4187447d	16.908442
6	0x4156fbb0	13.436447
7	0x41fa7d33	31.311132
8	0x41fea68a	31.831318
9	0x41ae59ed	21.79391
10	0x41a2a8be	20.332394
11	0x40f72631	7.723412
12	0x419329e7	18.39546
13	0x41825d8b	16.295675
14	0x41802dae	16.022305
15	0x40d5bc26	6.6792173
16	0x4176999e	15.412504
17	0x413a2571	11.634141
18	0x4192acf9	18.33446
19	0x41928189	18.31325
20	0x417ef379	15.934442
21	0x41ab94e6	21.447704
22	0x41410796	12.064352
23	0x41412d47	12.073554
24	0x41dbb61f	27.463926
25	0x4193f818	18.49614
26	0x413520da	11.32052
27	0x41917af0	18.185028
28	0x415699e1	13.412568
29	0x412e8d9f	10.909575
30	0x41447a9c	12.279934
31	0x41422e7f	12.136352
32	0x41403859	12.013757
33	0x41ded69f	27.854795
34	0x40e5e71d	7.184462
35	0x410386eb	8.220439
36	0x41b08b6e	22.06808
37	0x419380a4	18.437813
38	0x418ca291	17.579378
39	0x417acef1	15.675523
40	0x41d96ef7	27.179182
41	0x41484736	12.5173855
42	0x40ec4458	7.3833427
43	0x41a4417d	20.531977
44	0x415bbac3	13.733096
45	0x41971c56	18.888836
46	0x41571159	13.441735
47	0x4172602e	15.148481
48	0x41dd6160	27.672546
49	0x411e7bec	9.905254
50	0x41572a57	13.447837
51	0x41c35687	24.41725
52	0x41933bc5	18.404184
53	0x4199a9a5	19.207834
54	0x41907ef3	18.061987
55	0x41806a28	16.051834
56	0x41b9a725	23.206614
57	0x4130d839	11.052789
58	0x410c1151	8.754228
59	0x41aa0399	21.251757
60	0x4189744f	17.181791
61	0x41275df6	10.46044
62	0x41257962	10.342134
63	0x4125e1f1	10.367661

crystalGraphConvNet.convs.1.fc_full.weight f4 [128, 169]
0	0x3d91a52d	0.07111583
1	0x3d465196	0.04841765
2	0xbc7c20dc	-0.015388694
3	0xbd2e3d21	-0.042538766
4	0xbd8a6bc5	-0.06758837
5	0xbc923502	-0.017847542
6	0xbcc9a888	-0.024616495
7	0x3ce9d568	0.028544143
8	0xbcca48da	-0.024692941
9	0x3cfc748b	0.03081729
10	0x3d24dbbb	0.040248614
11	0xbd80d0ce	-0.06289826
12	0xbd90aac4	-0.07063821
13	0x3d0ea16b	0.03482191
14	0x3b5f8a74	0.0034109624
15	0x3d95fce4	0.07323626
16	0xbd805666	-0.06266479
17	0x3ca6f56a	0.020380694
18	0xbcd70460	-0.026247203
19	0x3d1a7ef6	0.037718736
20	0x3cc475e6	0.023982
21	0x3d67282b	0.05643479
22	0xbd0b67ef	-0.034034666
23	0x398e5ad8	0.00027152034
24	0xbd998888	-0.074967444
25	0xbd255f77	-0.040374245
26	0x3cd7d301	0.026345732
27	0xbcf3511e	-0.029701766
28	0xbd671c5d	-0.056423534
29	0x3d46b97b	0.04851673
30	0xbd0b34f1	-0.033986036
31	0x3dac863e	0.08424042
32	0xbcf10585	-0.029421577
33	0xbbdd3e0b	-0.006751781
34	0x3cb33ff6	0.021881085
35	0xbd8f9fea	-0.07012923
36	0xbd877d12	-0.06615652
37	0xbd82e74b	-0.06391772
38	0xbdaef4dd	-0.08542798
39	0x3d001848	0.031273156
40	0x3d978c8b	0.07399853
41	0x3cc9c392	0.024629388
42	0xbc4de28e	-0.012566222
43	0xbcc63077	-0.024193032
44	0xbd383f23	-0.044982087
45	0x3d710a52	0.058847733
46	0xbc56e1d5	-0.013115366
47	0x3d87e37b	0.06635185
48	0x3c1be45b	0.009514893
49	0x3d36b74e	0.044608407
50	0xbc8fe76d	-0.017566407
51	0xbb6fe22f	-0.0036603322
52	0xbd20c239	-0.039247725
53	0xbc758892	-0.014986174
54	0x3cd10080	0.025512934
55	0xbd62da85	-0.055384178
56	0x3d990cf3	0.07473173
57	0x3d20b1ac	0.03923194
58	0xbd7f177f	-0.062278267
59	0xbcbfdbc4	-0.023420222
60	0xbd984040	-0.0743413
61	0x3bd84f91	0.006601282
62	0xbdc93301	-0.09824181
63	0xbda4520a	-0.0802346
64	0xbd926776	-0.0714864
65	0x3cc5797e	0.024105784
66	0x3d048209	0.032350574
67	0xbd077faf	-0.033080753
68	0xbcf10085	-0.029419193
69	0x3c0fccbc	0.00877684
70	0xbbc26902	-0.005932928
71	0x3cb80a51	0.022465857
72	0x3cfedfc3	0.031112557
73	0x3c87f23c	0.016594999
74	0x3c900e5d	0.017584974
75	0xbd5c7cec	-0.053830072
76	0x3c8d2920	0.017231524
77	0x3c5d6450	0.013512686
78	0xbd6d110f	-0.057877596
79	0xbcf993c5	-0.03046597
80	0xbd88a817	-0.066726856
81	0x3d30bdbd	0.0431497
82	0xbddecae9	-0.10878546
83	0xbd71bc93	-0.05901773
84	0xbd254d57	-0.04035696
85	0xbd8ee8af	-0.069779746
86	0xbd885c94	-0.06658283
87	0x3d7766fa	0.06040094
88	0x3d6aed40	0.057355165
89	0x3d412c21	0.047161225
90	0xbd772654	-0.060339287
91	0xbd6fdf77	-0.058562722
92	0x3cfc2943	0.030781394
93	0x3d6aee0b	0.05735592
94	0x3cb02f88	0.02150704
95	0x3d7da6fe	0.061926834
96	0x3ca0e7b4	0.019641735
97	0xbd179fab	-0.037017506
98	0x3d9bd4f5	0.07608978
99	0x3d64c552	0.05585224
100	0x3c8b134d	0.016976977
101	0xbd9e0b91	-0.0771705
102	0x3d3f5470	0.046711385
103	0x3d43d701	0.047812466
104	0x3d243d02	0.040097244
105	0x3d55d954	0.052209213
106	0xbdab0701	-0.08350945
107	0x3cdc3e11	0.026885064
108	0xbdbb0cf9	-0.09133334
109	0xbbbb4389	-0.005714838
110	0xbd6045bf	-0.054754015
111	0xbd937df1	-0.07201756
112	0xbd965b91	-0.07341684
113	0xbdb23dde	-0.087032065
114	0x3cff9890	0.031200677
115	0x3bcfee65	0.0063455575
116	0xbb93b600	-0.00450778
117	0x3ce0231e	0.027360495
118	0xbd5bf592	-0.05370099
119	0xbd4f1284	-0.050554767
120	0xbd83c263	-0.06433561
121	0xbd88af29	-0.06674034
122	0xbd285f56	-0.041106544
123	0x3d2a814f	0.041627225
124	0x3c897ebc	0.016784064
125	0x3ca3007e	0.019897696
126	0xbdd2bb3e	-0.1028962
127	0xbd057039	-0.032577727
128	0xbd66e67c	-0.05637215
129	0xbd63607e	-0.055511944
130	0x3d8592eb	0.06522163
131	0x3d091719	0.033469293
132	0x3b7a7971	0.0038219357
133	0x3d432b16	0.04764851
134	0xbd2898cc	-0.041161343
135	0xbd42d33a	-0.047564723
136	0xbd71698b	-0.058938544
137	0xbcb70212	-0.022339854
138	0xbd76fa9b	-0.06029759
139	0x3d10bfdb	0.035339218
140	0x3c79294b	0.015207599
141	0x3d94a5ee	0.07258211
142	0xbda2ec45	-0.07955221
143	0x3d92aac2	0.07161476
144	0x3d55b9c5	0.052179117
145	0x3d4848c3	0.048897516
146	0xbc7450f8	-0.014911883
147	0x3ce8e777	0.028430684
148	0xbd2e3cf1	-0.042538587
149	0x3d70dd21	0.058804635
150	0xbd5b707b	-0.053574067
151	0x3d3fab42	0.046794184
152	0xbd147eba	-0.03625367
153	0x3c805e6c	0.015670024
154	0x3d2c4ce8	0.04206553
155	0xbcd9c968	-0.026585296
156	0xbc4c65e6	-0.012475466
157	0x3cb099af	0.021557657
158	0xbd3519ee	-0.04421418
159	0x3d5123f8	0.051059693
160	0xbd9c3ee8	-0.07629186
161	0xbd8c929f	-0.06863903
162	0x3b4da8ed	0.0031381205
163	0xbca2419e	-0.01980668
164	0xbc14dc63	-0.009085747
165	0xbca08dd4	-0.019598879
166	0x3cf9b44a	0.030481476
167	0xbd19ca25	-0.037546296
168	0x3d93bf98	0.07214278
169	0x3d4f4448	0.050602227
170	0xbc77d1c7	-0.015125698
171	0xbcf62da6	-0.030051064
172	0xbb407440	-0.0029366165
173	0x3b8ff259	0.0043929038
174	0x3c8b44e1	0.017000617
175	0xbd9d73fd	-0.07688139
176	0xbd7e1ce5	-0.062039275
177	0x3d669eaa	0.056303658
178	0xbba2dec3	-0.004970403
179	0x3d05fe4f	0.03271323
180	0x3d54fcef	0.05199903
181	0x3c2770e0	0.010219783
182	0xbd9269d4	-0.07149091
183	0x3d08a49a	0.0333601
184	0x3c02e4bd	0.007989106
185	0xbd42fd50	-0.04760486
186	0xbd117e56	-0.035520874
187	0xbac4a895	-0.0015003855
188	0xbad1f141	-0.0016017334
189	0xbd0c721d	-0.034288514
190	0xbd3e0f71	-0.046401445
191	0x3c6ae85d	0.014337626
192	0xbc2bb0dc	-0.010479178
193	0x3d768310	0.060183585
194	0x3cfe8412	0.031068835
195	0x3d886c0b	0.066612326
196	0xbd0cf2b4	-0.034411147
197	0xbd8b3ff3	-0.06799307
198	0x3d0cb349	0.034350667
199	0xbd39f952	-0.045403786
200	0x3d315535	0.04329415
201	0x3ccceb8c	0.025014661
202	0xbc680af3	-0.014162767
203	0xbcd41beb	-0.025892219
204	0xbb81240a	-0.003941064
205	0xbca87df0	-0.020567864
206	0x3da0df48	0.078550875
207	0xbcdf7817	-0.027278943
208	0x3d55f793	0.05223806
209	0x3d7cbc5a	0.061703064
210	0xbd2acdc4	-0.04170014
211	0x3d92c317	0.07166117
212	0xbda7eb61	-0.08199192
213	0x3d86ff4e	0.06591664
214	0xbd79aee3	-0.0609578
215	0x3dc2115a	0.09475966
216	0xbc9413fd	-0.018075937
217	0x3c9a0e23	0.018805569
218	0x3d1bad92	0.038007326
219	0xbd7c5ac2	-0.06160999
220	0x3c0313c7	0.008000321
221	0xbd33ef71	-0.04392952
222	0x3d3cef56	0.046126686
223	0xbd1edb2e	-0.038783245
224	0xb7949f99	-1.7717293e-05
225	0xbcb85ede	-0.022506174
226	0xbcaa9723	-0.02082402
227	0xbc97e4b4	-0.018541671
228	0xbda0cd68	-0.07851678
229	0x3ad1869b	0.001598555
230	0xbcd9e072	-0.026596282
231	0x3b5e24e8	0.003389651
232	0x3da3b07a	0.079926446
233	0x3cd0378b	0.02541711
234	0x3d57aa48	0.052652627
235	0x3c173453	0.009228784
236	0x3d83a59e	0.06428073
237	0xbd9df619	-0.07712955
238	0x3ced02db	0.028932026
239	0x3c67ba08	0.014143474
240	0xbd5561ad	-0.052095104
241	0x3a6f39b5	0.00091257255
242	0xbd8f409b	-0.069947444
243	0xbd07b527	-0.033131745
244	0x3d430480	0.047611713
245	0x3bb5d4be	0.0055490425
246	0xba37ed0b	-0.0007016218
247	0x3d37d9f9	0.04488561
248	0x3d417078	0.0472264
249	0xbbf0c183	-0.007347287
250	0xbd30bcc8	-0.043148786
251	0xbc71ab28	-0.0147502795
252	0xbd9761d6	-0.073917076
253	0xbd268dd6	-0.04066261
254	0x3ca6e816	0.02037434
255	0xbd3548c2	-0.04425884

crystalGraphConvNet.convs.1.fc_full.bias f4 [128]
0	0x3d4f864a	0.050665177
1	0xbb4daad4	-0.003138234
2	0x3d0cec4f	0.03440505
3	0x3c930768	0.017947868
4	0x3c93d93e	0.018047925
5	0xbb5e66f9	-0.0033935888
6	0xbcc2204b	-0.02369704
7	0x3d91cbc8	0.07118946
8	0xbd9a072d	-0.075209
9	0x3c781bf6	0.015143385
10	0xbbd8b687	-0.006613556
11	0x3cac410a	0.021027107
12	0xbbda0fc5	-0.006654712
13	0xbd9308f9	-0.07179446
14	0x3d7aeb75	0.061259706
15	0x3d9622fd	0.07330892
16	0x3d16f9a5	0.036859173
17	0xbd3d276a	-0.046180166
18	0xbd51cde5	-0.051221747
19	0x3d9273ed	0.07151017
20	0x3cccca28	0.02499874
21	0xbc844f14	-0.016150989
22	0x3d95f850	0.073227525
23	0x3d30cd2e	0.043164425
24	0xbd48959a	-0.048970796
25	0x3d2637e0	0.04058063
26	0xbc32ad93	-0.010905641
27	0xbd356c43	-0.0442927
28	0x3d6b2b9c	0.057414636
29	0x3ced6ac6	0.028981578
30	0xbb344f6d	-0.0027513162
31	0x3d376f91	0.044784132
32	0x3d1ac96f	0.03778976
33	0x3ce63d63	0.028105443
34	0xbd0e6ff2	-0.034774728
35	0xbcd507e3	-0.026004737
36	0xbcc23b80	-0.023710012
37	0x3c66d7cc	0.014089536
38	0xbd499260	-0.04921186
39	0x3d8cca45	0.06874517
40	0xbd48fd20	-0.049069524
41	0xbd371199	-0.044694517
42	0xbd28fecb	-0.041258615
43	0xbd41ef4f	-0.047347363
44	0xbd1a330c	-0.03764634
45	0xbc9a96c0	-0.018870711
46	0xbd957367	-0.07297402
47	0x3c59bc77	0.013289562
48	0xbce6eac5	-0.028188119
49	0x3d898aee	0.06715952
50	0xbcff46ad	-0.03116163
51	0x3c528b3e	0.012850581
52	0xbd32fdf7	-0.04369923
53	0xbd9a500e	-0.075348005
54	0xbd8081c5	-0.062747516
55	0x3d54d1b7	0.051957812
56	0xbcb78114	-0.022400416
57	0x3d84c4a4	0.06482819
58	0x3d8c8a56	0.06862323
59	0x3d4fc66d	0.050726343
60	0x3aee28ad	0.0018170081
61	0xbd2bd92a	-0.04195515
62	0x3c4214ce	0.011845781
63	0xb9b2fcb6	-0.0003413909
64	0xbc037707	-0.008023984
65	0xbc969dfd	-0.018385882
66	0xbcca6cc1	-0.024710061
67	0x3d0fbd56	0.035092674
68	0x3ceaa44d	0.028642798
69	0xbd849e25	-0.06475476
70	0xbd52184d	-0.051292706
71	0x3d873a99	0.066029735
72	0xbd9ccfc7	-0.07656818
73	0xbcc3fd79	-0.023924576
74	0x3d37cabe	0.044871084
75	0xbd51d443	-0.05122782
76	0x3cb6da54	0.022320904
77	0x3d34cd83	0.044141304
78	0xbc75e6da	-0.015008653
79	0x3c312f37	0.01081448
80	0xbd95316e	-0.072848186
81	0xbd03cd8a	-0.03217844
82	0xbd96d9c5	-0.07365755
83	0xbce49e2a	-0.02790745
84	0x3d7b73f4	0.06138988
85	0x3d95a572	0.07306947
86	0xbb336881	-0.0027375522
87	0x3d5d3ac8	0.054011136
88	0x3d8a1335	0.06741945
89	0x3d6b20e8	0.05740443
90	0xbd89a778	-0.06721395
91	0x3bef65e8	0.0073058493
92	0xbc5b596d	-0.01338802
93	0x3d784ad8	0.06061825
94	0xbd82af60	-0.063811064
95	0x3d865ff3	0.065612696
96	0x3d39d4fc	0.045369133
97	0xbd8c2fc0	-0.06845045
98	0xbd390379	-0.045169327
99	0xbd592d77	-0.053021874
100	0x3cb5fb2d	0.022214497
101	0x3d0067f8	0.031349152
102	0xbd85d8e4	-0.06535509
103	0x3d2f319e	0.042771928
104	0xbd87c934	-0.06630173
105	0x3d98f004	0.07467654
106	0xbc60d6d1	-0.013723091
107	0x3cc00e14	0.023444213
108	0x3d72bbc1	0.059261087
109	0xbd36ee21	-0.04466069
110	0x3d250ea1	0.040297154
111	0xbc5a43d0	-0.013321832
112	0x3d8dbd1c	0.069208354
113	0x3d08dafe	0.033411972
114	0x3d80290f	0.06257831
115	0x3d134d48	0.035962373
116	0xbbcf5278	-0.0063269697
117	0x3c98abe7	0.018636657
118	0xbd762fbe	-0.060104124
119	0xbd3274ac	-0.0435683
120	0xbd64c56d	-0.055852342
121	0x3d6301a5	0.05542149
122	0xbcbeb169	-0.023277955
123	0xbd8b9812	-0.068161145
124	0xbc16cfc5	-0.00920481
125	0xbbd318da	-0.0064421715
126	0xbd36563e	-0.04451584
127	0xbc940fcc	-0.018073939
