training_cgcnn_p_u/saved_models/hse_294_p_u.ckpt (torch, 676938 bytes, 60 tensors)

crystalGraphConvNet.embedding.weight f4 [64, 92]
00000000: b233 ae3d d9d5 ebbd be2d 2b3d c492 c6bc
00000010: df2c a13d a378 bbbc ec98 513c aaa1 b43d
00000020: 78c3 1b3d 2cbd 7fbb 77d3 14bd 6e56 72bc
00000030: 1ff9 03bb e3a6 9a3d bbf5 5abd 5849 6d3d
00000040: df9e 5e3d be45 2fbd c595 1f3b d271 74bd
00000050: 1f08 8fbd 41ce 723b 6d92 3dbd 394f 543c
00000060: ceb1 9f3b bfe6 eabc 0046 bc3d 72ba 11bd
00000070: 8d6a 59bd 6e1b be3d 201f adbd 9f7c a6bc
00000080: 0247 94bd 6c32 70bb 107b 6a3d dfae b53c
00000090: f236 4cbd b825 e838 c4c1 0a3d 8d93 5e3d
000000a0: 54bb ce3c 0031 32bd 3fcc 03bb 869b b63d
000000b0: 0045 bf3c 7835 173d 4fe8 a13c 0560 9f3d
000000c0: e970 f83c 4461 fd3d 0671 0bbc 995e 3a3d
000000d0: 4a71 aabc c1be 2cbc 0439 2b3c ee9f 6bbd
000000e0: a154 d6ba 9571 56bd c17a 6b3d e1bf 0abd
000000f0: 2716 643c fe55 abbd 8aeb 95bc 6fcc 2c3a
00000100: 9ffc 9dbd 5b8a 903d 4d52 a4bd 82f0 b8bd
00000110: be1f bdbd 7ad1 2f3d ccf9 b9bc 90b2 39bd
00000120: e070 c63b 9811 bcbd eef3 b93a 90f3 91bc
00000130: d794 c7bd d847 25bd 42e0 52bd 4d17 d93c
00000140: 8bd4 3abd c4dc c53d 9236 87bd 6e11 99bc
00000150: 0502 9a3d 5251 5bbc 9213 e53c 9930 9abc
00000160: bfd1 61bd 26ee 8fbd 5a02 2abb d121 9a3c
00000170: 3965 c8bb c035 1cbd 0d32 c0bd 80e0 3dbd
00000180: 06cc 80bd 514e 823d b59d c83d d2a7 98bd
00000190: e8c0 82bd d39e 02bd a372 783d c76a 3a3d
000001a0: fd80 063d 653a a2bd 6c9d acbd df5a b2bd
000001b0: cdc3 6e3d 6f31 ca3c f831 70bd 9e59 b33d
000001c0: 758d d13c bbc1 cdbd 7b15 3a3d 0743 a2bd
000001d0: c592 a3bd 3e4a 4cbd 7acb 40bd bf92 e1bc
000001e0: 41fa 91bd 9da8 833d 07dd 6ebd 5178 01bd
000001f0: 5d74 a6bd 8e8e e43c 3556 8cbd 1c7c a53d
00000200: f51f 98bd 0466 9a3c c445 b7bd 7d2b acbd
00000210: 3359 943d d0b0 c7bb 0898 b8bc 95d1 b6bd
00000220: 9d52 d73d 928a 813d db3d c03d acf6 32bc
00000230: 8da6 62bd bcaf a3bd 2bcb 7ebd 012b a83c
00000240: 3971 bdbd 3c37 683d 94c3 b83d 82b0 d8bc
00000250: 496d 2d3d 0026 9d3d d241 95bd 0eb7 8f3c
00000260: 4077 46bd aae2 debd 34e7 2d3c 9971 9abd
00000270: 32af 993d dbb6 c73d 333f d93c 17cf e53b
00000280: 9c45 b93d 5de6 14bc c958 98bd 0ab1 45bd
00000290: dae1 adbd 7d3a d13c 1fb1 863c fad5 7f3d
000002a0: 81d1 1d3d 2d89 27bd 385c c53d 4b9d b4bc
000002b0: 0c2f c3bd 95b7 a4bc 2fb2 90bd 881a 233d
000002c0: 2d66 6abd 188f b53b 8cf5 9b3d 2bf7 de3c
000002d0: 889f b3bd 4793 64bc b4e0 df3c f575 d03d
000002e0: 5545 813d 5b48 67bd 6a11 a8bd 0439 983d
000002f0: 96ac 00bc ee2f 86bd c466 3e3d e545 d63d
00000300: aa31 5a3d 8fef 31bc bdf8 92bd 1a3d 54ba
00000310: 619b fa3b 1ae7 983c f0df 15bd 5549 ab3d
00000320: 05ad 963d bd49 69bd 338c b33d 1f84 86bd
00000330: 7a73 20bc dc7b ae3d 9739 acbd 4bdf 8a3d
00000340: 666d d3bd 0de1 5bbd 087f 0ebd 30ce a2bd
00000350: b6e0 1fbd 1c93 a0bd 9a81 8bbd bd96 44bd
00000360: 1921 0cbd 2b46 a6bd a629 c3bd 0a9a 84bd
00000370: 74e2 bd3d 8e25 d63d 3eb1 8b3d ada2 43bc
00000380: e71e 933c a123 abbd 7e10 c5bd 903c d9bd
00000390: 4e30 b83d 2880 c03b 6b9c 48bd 815e a1bd
000003a0: f11d 34bd 18fc 03bd c667 1f3d 9a15 cdbd
000003b0: fbdf 59bd bedc d8bd db18 81bc 7063 9ebd
000003c0: 4a6f c33d 7c71 bd3b b4b2 39bd bcf6 75bd
000003d0: 4bb7 10bd e337 2e3d 4dc5 1a3d fb4a 79bd
000003e0: 269b 8dbd 6a8e fe3c a014 823d 5d61 8fbc
000003f0: 6035 68ba ee17 93bc c361 96bd 5a67 0dbc
0.08505954 -0.115153976 0.04179167 -0.024239905 0.078698866 -0.022884673 0.012792807 0.088198975
0.03802821 -0.0039022667 -0.03633448 -0.014791114 -0.0020137501 0.07551362 -0.053457003 0.057931274
0.05435073 -0.04279112 0.0024350744 -0.05967886 -0.06983971 0.0037049206 -0.04628222 0.012958341
0.004873491 -0.028674481 0.09193039 -0.0355782 -0.05308013 0.092825755 -0.08453202 -0.020323096
-0.07240106 -0.0036651148 0.057246268 0.022178112 -0.049857087 0.00011069648 0.033876196 0.054339934
0.02523581 -0.04350376 -0.0020110754 0.089163825 0.023348331 0.036916226 0.019764094 0.07781986
0.030327277 0.123720676 -0.008510834 0.04550037 -0.020805974 -0.010543526 0.010450605 -0.057525568
-0.0016352126 -0.052354414 0.057490114 -0.033874396 0.013921297 -0.08366011 -0.01830079 0.0006591742
-0.07714199 0.07057639 -0.0802351 -0.09030248 -0.0923457 0.04292438 -0.02270212 -0.045336306
0.006055936 -0.09183043 0.0014187077 -0.017816335 -0.09745186 -0.04035172 -0.0514834 0.026500368
-0.045612853 0.09661248 -0.06602205 -0.018685069 0.075199164 -0.0133860875 0.027963433 -0.018822001
-0.05513167 -0.07027845 -0.0025941343 0.018814953 -0.0061155823 -0.038137197 -0.093845464 -0.046356678
-0.062889144 0.06362594 0.09795705 -0.07453884 -0.0638445 -0.031889748 0.0606562 0.045511987
0.032837857 -0.07921294 -0.08428463 -0.087087385 0.0582922 0.024681775 -0.058641404 0.087573275
0.025580147 -0.10046717 0.04543064 -0.07922941 -0.079869784 -0.04987549 -0.04706905 -0.027535794
-0.0712781 0.06428645 -0.058316257 -0.031608883 -0.08127663 0.027900007 -0.0685238 0.080803126
-0.0742797 0.018847473 -0.089488536 -0.08406732 0.07243576 -0.0060940757 -0.022533432 -0.08926693
0.10513804 0.06325258 0.09386798 -0.010923069 -0.055334616 -0.07992503 -0.062205475 0.020528318
-0.09250111 0.0566933 0.090216786 -0.026451353 0.04234055 0.076732635 -0.07287945 0.017543342
-0.04845357 -0.108830765 0.010614205 -0.07541198 0.07504119 0.09751674 0.026519394 0.0070132124
0.0904648 -0.009088126 -0.074388094 -0.04826454 -0.084903434 0.025540585 0.01644188 0.062459923
0.038529877 -0.040902305 0.0963673 -0.02204766 -0.09530458 -0.02010707 -0.07065236 0.039820224
-0.05722635 0.0055407397 0.07615194 0.027217468 -0.087706625 -0.013951129 0.027328826 0.101787485
0.06312052 -0.056465488 -0.082064465 0.0743275 -0.007853648 -0.065521106 0.046484724 0.1046255
0.05327002 -0.010860338 -0.07176349 -0.0008096263 0.007647917 0.018664885 -0.036590517 0.08363596
0.073572196 -0.056955088 0.08766975 -0.06568169 -0.009793157 0.08519718 -0.08409422 0.06780871
-0.103236005 -0.053681422 -0.034789115 -0.079494834 -0.03903266 -0.07840559 -0.06811829 -0.047995318
-0.034211252 -0.08118852 -0.09529428 -0.06474693 0.09271708 0.10456382 0.06820916 -0.01194064
0.017959071 -0.08356405 -0.09622286 -0.106072545 0.089935884 0.0058746524 -0.048977297 -0.07879353
-0.043973867 -0.032222837 0.038917325 -0.10013886 -0.05319212 -0.10588978 -0.015758922 -0.0773381
0.09542711 0.0057813507 -0.04533644 -0.060049757 -0.03533105 0.042533766 0.037785817 -0.060862523
-0.06914358 0.031073768 0.0635159 -0.017502481 -0.0008858051 -0.017955747 -0.07342865 -0.008630598

crystalGraphConvNet.embedding.bias f4 [64]
00000000: 8602 9d3b 3895 4abd 0804 263d 8f20 ad3d
00000010: 223e e93c 6234 903d 3d05 b83d d5f1 bdbb
00000020: 3edf 74bc 13ab 533d 05db 14bc 8d94 9d3d
00000030: 23de 6cbd cde8 adbd 5739 fbbc 83e8 cbbc
00000040: 8fca abbd 778a 723d f4a0 89bc 07ce 9d3d
00000050: 1b24 833d 4be0 953d 5013 713d 99bf c6bd
00000060: 8296 8bbd 4259 7abc 89ef b0bd ddcc 9abd
00000070: a20a 923d da69 743d eb90 65bc 5c26 cb3d
00000080: 88f1 9ebb 46f4 c83b c239 4a3c 06ae 8ebd
00000090: d60f 033d 0fa4 95bc b922 f73c 891f 803c
000000a0: 8873 1dbd 0e44 91bd 903b b8bd ddd1 c23d
000000b0: 77fb 5c3d 9430 bebb 7993 973d 1d19 51bc
000000c0: 52ea 083c c961 e1bd ff5e e0bc 2f97 683c
000000d0: 7320 92bd 9324 08bd 8ea7 dbbc ab69 a3bd
000000e0: 41c1 193d 2641 e7bc 3c0c 7ebd 1f0f 5b3d
000000f0: 28e4 a13d 6e92 9bbd cda6 bdbd f00e a3bb
0.0047915606 -0.049458712 0.04053119 0.08453476 0.02847201 0.07041241 0.08985374 -0.005796651
-0.014945803 0.05167682 -0.009085421 0.076943494 -0.057829034 -0.08491669 -0.03066699 -0.024891144
-0.08388244 0.05921408 -0.016800381 0.07705312 0.06403371 0.07318171 0.05885631 -0.09704513
-0.068158165 -0.01528007 -0.08639438 -0.07558606 0.07130934 0.05967126 -0.014011602 0.09919426
-0.00485057 0.0061326353 0.012342872 -0.06966786 0.031997524 -0.018266706 0.030167924 0.015640037
-0.038440257 -0.070930585 -0.08995736 0.095126845 0.053950753 -0.005804131 0.07401175 -0.012762335
0.008356648 -0.11004979 -0.027389048 0.014196201 -0.071350954 -0.033238005 -0.026813295 -0.07979139
0.037537817 -0.028229307 -0.062023386 0.053481217 0.079048455 -0.075962886 -0.0926033 -0.004976146

crystalGraphConvNet.convs.0.fc_full.weight f4 [128, 169]
00000000: f54c 163c ff8e 8dbd bbfa 523d 7ae5 273d
00000010: 4cff 9ebd 63ea 5cba 2a24 58bd 2237 aa3c
00000020: 4ca0 adbc 8e34 7abd 6e2d 88bd 9ca1 61bd
00000030: 7768 ad3d 56b8 a03d 16e7 043c 31f7 58bd
00000040: 5b5b e8bc 6db2 963c be1a 893d 1417 ff3c
00000050: 5d89 05bd 1bc8 8ebd b098 79bd f055 e6bc
00000060: b8c4 513d eccc 513d 2e4d 87bd 2645 69bd
00000070: f725 863d f23d 613d 9edf 223d 5f66 9cba
00000080: c8dd 2fbb 3273 87bd c9ec 38bd db9a c5bb
00000090: ad79 7b3d 5da9 b7bc 2d6d 503d 6c80 51bc
000000a0: b9df 5fbd 7dfb d83a f03d 783c af88 ecbb
000000b0: 4874 9fbd 5d1c 653d 6120 563d 2d80 8c3c
000000c0: c400 a03d e5ec 563d 1875 043d 06a3 4a3b
000000d0: 0451 32bd 229e 883d d81e 063d 5c96 f6bc
000000e0: cd4e a5bc 4861 173c 10cb a5bb a204 b73c
000000f0: ba8e d8bc 9018 363d 8c91 73bd 5fc8 7d3d
00000100: a594 623d 3ba4 1fbd bf62 cbbc 1ede 243b
00000110: e2ce 06bd dab9 0cbd 5b38 943c 5937 b2bb
00000120: ff16 32bd 6a18 fe3c 6d5d fe3a 4580 863d
00000130: 46e2 17bd 2382 8bbd 6cee 7c3d 01f1 dd3c
00000140: 94a0 60bd 8f28 c9bb 3442 9abd cbc4 02bd
00000150: 797f 18bd 0d9a f63c 474a ecbc 794a 12bd
00000160: dfed 9dbd 2912 63bd d8ff 72bc fe5b 1d3c
00000170: 9e0b 543b 7c00 793d 0c9e 9ebd 09ec 813d
00000180: b598 f53c 3969 14bd 6d49 853d 1a50 07ba
00000190: 3e6f 8d3d 0316 703d 7678 d93c f7c4 5e3d
000001a0: ffdc 79bc 030a 973b 1df5 77bd e481 7f3d
000001b0: 8467 90bd f186 58bd 2dab 50bc c306 543d
000001c0: 3628 69bd 34ec 093d 9e04 963d 3e79 85bd
000001d0: 6df6 9e3c 3fcb 183d f58e 423d 8ea2 863d
000001e0: df53 903c 0404 9cbd 13c6 3cbc 0085 e03c
000001f0: 626b 123d 8a84 663d 2c4b 41bd c4b0 533d
00000200: defb 0f3d 0a58 983c 196d ebbc 4050 f4bc
00000210: 47a5 0a3d f824 35ba 9105 50bd 30b3 f53c
00000220: bf91 8d3b ab49 3ebd 2098 7dbc 4391 83bc
00000230: 743e 9bbc 12bd 62bd df27 92ba 3ffb 6fbc
00000240: c110 94bd 498f 4b3d 3908 22bd 78af 8c3d
00000250: f3e4 1bbd f776 dd3c c34f 62bd 3499 66bd
00000260: ecb1 903c b525 683d 6c1c 2ebd 2efd 423d
00000270: 5b33 65bd e134 cb3c 8388 b1bb 28bf 85bd
00000280: 1aa4 1a3b 14ff 913c 35ab 9b3d b89d 90bd
00000290: 08a1 5d3d 8af5 4cbc 4a55 863d b23c 9cbd
000002a0: 59b6 6a3d 3d98 823d 5852 fc3c 1236 6fbd
000002b0: 0d5c 383b d7fb 8f3c f6f8 043c 95c9 38bd
000002c0: 99c0 8b3d 267b 833b 51b9 9cbb 2269 6a3c
000002d0: 3993 853d 05c4 933d 8230 d43c 5b13 8b3c
000002e0: 0d35 483d b3c3 dabc 3c97 283d 3029 1c3d
000002f0: 91c2 42bd d999 003d a159 ecbc f2b4 273d
00000300: ca69 e03c 34bb 3f3d d78d 463d 34f4 0cbd
00000310: 7d00 36bd a4a4 f33c b755 a4bd 6b4c 213d
00000320: 3a51 1d3d 9be6 423d 62e8 dfb8 514b 973d
00000330: 37cf 90bc 8cfb 43bc b433 113d e006 61bd
00000340: 77ec c8bc 904c 1f3d 1f5c 933c a949 983a
00000350: 99ee 80bc 04cc 0abd f829 873d 422b f73a
00000360: f967 403c 5964 353d 31dd 80bd ad4b 073d
00000370: 37f7 823d 27ca e03c d845 b33b b616 36bd
00000380: 60ee 08bb 2dec d4bc 5dd2 81bd eb5a 753d
00000390: e250 6c3d c07c 893d 918d 5e3d d313 8d3d
000003a0: 4e82 1cbd 7269 523d 4ebc 913d 14fd 6f3d
000003b0: dbb1 eb3c 608e 8f3d d29c 963c 3803 133d
000003c0: bd73 763d ef70 263d fc2b 79bd c2f5 cebb
000003d0: d659 4f3b abba 17bc fd67 243d c2d5 9fbd
000003e0: 1236 20bd 397a 913d 8af5 51bd ce15 5c3d
000003f0: 210e 8f3c b1f2 4e3c 4120 70bd c850 3cbd
0.009173621 -0.0691204 0.051508646 0.04099033 -0.07763538 -0.00084272603 -0.052768864 0.020778242
-0.0211946 -0.061085276 -0.0664929 -0.055085763 0.08467191 0.07847659 0.008111736 -0.052970115
-0.028363874 0.018395627 0.06694554 0.031138934 -0.032601703 -0.06971761 -0.06093663 -0.02811715
0.051212996 0.05122082 -0.06606518 -0.05695071 0.0655021 0.054990716 0.03976404 -0.0011932364
-0.0026835073 -0.06613769 -0.04514769 -0.006030423 0.061395336 -0.022419626 0.05088537 -0.012786966
-0.054656718 0.0016554442 0.015151486 -0.0072184424 -0.07785851 0.055935252 0.052276973 0.017150963
0.07812646 0.052472014 0.03233823 0.0030919923 -0.043534294 0.066707864 0.03274426 -0.030100994
-0.020179177 0.009239502 -0.0050596073 0.022341076 -0.026435245 0.04445702 -0.059464976 0.061958667
0.05531754 -0.03897498 -0.02482736 0.0025156806 -0.032912143 -0.03435693 0.018093279 -0.005438727
-0.043478962 0.0310175 0.0019406505 0.06567434 -0.037081026 -0.06811931 0.061750814 0.027092459
-0.05484064 -0.006138868 -0.075321585 -0.031925958 -0.037230942 0.030102754 -0.028844012 -0.035715554
-0.07711386 -0.05543724 -0.014831506 0.009604452 0.0032355557 0.060791478 -0.07744989 0.06343848
0.029980043 -0.03623316 0.065081455 -0.00051617774 0.069059834 0.058614742 0.026546698 0.05438706
-0.0152504435 0.004609348 -0.060536493 0.062379733 -0.07050994 -0.052863065 -0.012736124 0.05176426
-0.056923114 0.033672526 0.073250994 -0.06517266 0.019404614 0.037303206 0.047499616 0.065739736
0.017618118 -0.076179534 -0.011521834 0.02740717 0.03574694 0.056278743 -0.04719083 0.05168225
0.03515231 0.018596668 -0.028738545 -0.029823422 0.033849027 -0.0006910111 -0.05078656 0.02999267
0.004320353 -0.046456974 -0.015478164 -0.016060477 -0.018950678 -0.055356093 -0.0011150799 -0.014647304
-0.07229758 0.049697194 -0.039558623 0.068694055 -0.03806014 0.027034266 -0.055251848 -0.05629845
0.017662965 0.056676585 -0.042507574 0.047604732 -0.05595718 0.024805488 -0.005417885 -0.06530601
0.0023596347 0.017821826 0.076010145 -0.070613325 0.05410865 -0.012509713 0.06559236 -0.07628764
0.057302807 0.063766934 0.030800983 -0.058401175 0.0028131038 0.017576141 0.008115998 -0.04511412
0.068238445 0.004012483 -0.0047828336 0.014307292 0.06522221 0.07215122 0.025902037 0.016977003
0.04887872 -0.026704645 0.041159853 0.038125217 -0.047548834 0.03139672 -0.028851332 0.040944047
0.027394194 0.04680939 0.048475113 -0.034412578 -0.04443406 0.029741593 -0.08024161 0.03937952
0.03840754 0.047583204 -0.00010676753 0.07387412 -0.017676933 -0.011961829 0.0354497 -0.054938197
-0.024526818 0.038891375 0.017988263 0.0011618632 -0.015738772 -0.03388597 0.06599802 0.0018857496
0.011743539 0.044285152 -0.06292189 0.033031154 0.06394809 0.027440144 0.0054709725 -0.044455253
-0.0020894036 -0.025991524 -0.06338952 0.05990116 0.057694323 0.06713247 0.054334227 0.06888547
-0.038210206 0.05137009 0.071159944 0.058590963 0.028771332 0.07009578 0.018385325 0.03589174
0.06016897 0.040635046 -0.060832962 -0.0063159177 0.003163924 -0.009260814 0.040138233 -0.07804443
-0.039114065 0.0710339 -0.051259555 0.053731732 0.017462792 0.012631104 -0.05862451 -0.045975477

crystalGraphConvNet.convs.0.fc_full.bias f4 [128]
00000000: b2dd 57bd 48d6 7a3d 3344 5bbd 841f 6cbd
00000010: 206a 89bd c4bc e83c 2eb8 e33c 39e9 6bbb
00000020: 2849 4dbd 4899 6c3c 4d24 3a3d 6ed4 97bd
00000030: e6cb 6c3d afb8 06bd e055 5b3c 2d2d ca3c
00000040: 5b9c 043d 3ef3 68bd 4d68 89bd 6f80 4e3c
00000050: 832a edbc 1e7d 0a3b 8e2c 9bbc 2e89 c2ba
00000060: 5d47 613d 0da6 57bd ebfb 09bc 03ae 623d
00000070: 05bb 93bd 5e0e bdbc 16ed 293d ff38 79bc
00000080: b07a 493c 98b9 5d3d 8ec5 d73c 5992 1fbd
00000090: 09b8 c1bc bbe4 67bd 7309 63bd fa81 2fbd
000000a0: 84e4 273d 97e2 44bc bf99 a73c 3782 e23c
000000b0: c538 1a3d eb82 893d 3e49 f63b 23bb 9b3d
000000c0: 26bc 1f3d 0504 f8bb 79ed 413d 2bac 57bd
000000d0: bbe1 8fbb 54ab 22bd 61e4 9c3d 8fa3 9fbc
000000e0: e58b 99bc f07e 633b 9680 d6bc 4481 79bc
000000f0: 1c92 373d cb55 9cbc 2280 87bd 2e2e 3b3c
00000100: ec0b 71bb df28 bf3c 4d50 033b 5d2d 1fbd
00000110: 114c 873d ec22 923d 8cbf aebc 227d 7b3c
00000120: ba6e 46bb 1638 8a3d 8bc3 7b3d 5c6e 83bd
00000130: c489 91bd 4b57 773d 02ef 9b3d f542 0cbc
00000140: f93d 7c3d 4428 4dbd 0482 7dbc d845 963c
00000150: f07d 263c 1f87 ef3c 703d 0bbd 3ba5 0cbd
00000160: 2f7d 983d 4c6b 9b3c b762 f1bb 03c9 3abd
00000170: 08cf 813d 7a8a 85bc 640e 323c 16f4 8abd
00000180: 8172 a53c 6e6b 663d 5eba 943d 7fd7 cfbc
00000190: 484d 843d cd86 57bd 9aad 733b e656 4b3d
000001a0: 8845 993c 5db9 fabc 2624 70bd f41e bebc
000001b0: 0556 54bd 2dd1 8f3c c85a 553d 12af df3c
000001c0: 05d6 99bd 3f0f e1bc 8ef2 503d d649 23bd
000001d0: a477 943d 6065 8cbd 24b8 013d 1687 433d
000001e0: 65ee 0d3d ab48 813d 2057 2cbc 0928 963d
000001f0: 7aed 8abd 474e 953c 3b10 fcbb f442 d8bb
-0.05270166 0.06123951 -0.053531837 -0.057647243 -0.06709695 0.028410323 0.027797785 -0.0035997166
-0.050118595 0.014440842 0.045444775 -0.074135646 0.05781164 -0.03289097 0.013387173 0.024679745
0.032375675 -0.0568726 -0.06709347 0.012603863 -0.028950935 0.0021131705 -0.018942144 -0.0014841908
0.054999698 -0.052648593 -0.008421878 0.05534173 -0.072134055 -0.02307814 0.04148587 -0.015211343
0.012297317 0.054132074 0.026339319 -0.038957927 -0.023647325 -0.05661462 -0.055428933 -0.042848565
0.040989414 -0.012016914 0.020459054 0.027649982 0.037651796 0.06714424 0.0075160554 0.07604053
0.03899779 -0.0075688385 0.047345612 -0.052654427 -0.004390923 -0.039714172 0.07660747 -0.01948717
-0.018743465 0.0034713112 -0.026184361 -0.015228573 0.044817075 -0.019083878 -0.06616236 0.011424584
-0.0036780788 0.023334919 0.0020036877 -0.03886162 0.066063054 0.07135567 -0.021331571 0.015349658
-0.00302784 0.06748979 0.06146578 -0.06417534 -0.07106355 0.060385983 0.076139465 -0.008560886
0.06158254 -0.05008723 -0.015472893 0.018343851 0.010161862 0.029239235 -0.03399414 -0.034337264
0.07445752 0.018972062 -0.007366504 -0.045601856 0.06338316 -0.016301382 0.010867689 -0.06784837
0.020196201 0.056254797 0.07262109 -0.025371311 0.06460053 -0.05261879 0.0037182332 0.04964342
0.018709913 -0.030605966 -0.058628224 -0.023208119 -0.051839847 0.017555797 0.05208853 0.02730516
-0.07511524 -0.02747309 0.05101257 -0.039865337 0.07249382 -0.06855273 0.03166975 0.04773625
0.03465118 0.063126884 -0.010518819 0.07331855 -0.06783576 0.018225802 -0.0076923645 -0.0065997783

crystalGraphConvNet.convs.0.bn1.weight f4 [128]
00000000: 8e23 803f df31 803f b3ec 7f3f 40e2 7f3f
00000010: 5734 803f 2db2 7f3f c50b 803f 8230 813f
00000020: 2968 7f3f 5721 803f 88f3 7f3f 5175 803f
00000030: 2cf6 7f3f e1e8 7e3f 7614 803f dc9f 7f3f
00000040: b60c 803f 6e4d 803f 561b 803f 3847 803f
00000050: b7ce 7f3f 6c25 803f 0b51 803f 6285 7f3f
00000060: ed88 7f3f 8858 803f cd05 803f 5e0a 7f3f
00000070: e847 803f 3807 803f 6e45 7e3f 8882 803f
00000080: 3627 7f3f 3c2d 803f 8aeb 7f3f 265b 813f
00000090: 0626 803f ea74 803f 383c 7f3f c6a4 7f3f
000000a0: 06ce 7f3f 5325 7f3f 8a48 803f 8a15 803f
000000b0: d5f0 7f3f 4c32 803f a74f 803f 9121 803f
000000c0: 3827 803f 46f4 7f3f 6959 803f 2fcb 7f3f
000000d0: 094e 803f e28e 7f3f 39ff 7e3f 8d65 803f
000000e0: 3946 803f 2c5f 803f 57eb 7f3f 8373 803f
000000f0: af89 7f3f 640a 803f ea48 803f 8a4d 803f
00000100: 6faa 7f3f 00d5 7f3f d613 803f 8a05 803f
00000110: d577 7f3f 3805 803f c614 803f ab1a 7f3f
00000120: b9fd 7f3f 608d 7f3f ff28 803f f1b6 7f3f
00000130: 680c 803f de22 813f 760f 803f 43f7 7f3f
00000140: a916 803f 3a27 7f3f 6e31 803f 9478 803f
00000150: 9c1d 803f e89c 7f3f fe78 7e3f ff3e 803f
00000160: d28b 803f f7fa 7e3f 371e 803f e955 7f3f
00000170: 67e3 7e3f 6f3d 803f dbda 803f 38f0 7e3f
00000180: 464f 803f 168a 7f3f 3d23 803f 713c 803f
00000190: ec51 803f 15a3 7f3f 9343 803f 9c4f 803f
000001a0: 974f 803f 875f 803f 583f 7f3f 804d 803f
000001b0: 1fdb 7f3f 800c 803f 740e 803f cdfe 7e3f
000001c0: 3cce 7f3f 16a6 7f3f 3614 7f3f 8112 803f
000001d0: a2f0 7f3f 7d8d 803f 886a 7f3f 4f72 7f3f
000001e0: e1a3 7f3f 7e0a 7f3f 774b 803f b80c 803f
000001f0: ddc3 803f 561f 803f 1312 7f3f 62ca 7e3f
1.001085 1.001522 0.9997055 0.99954605 1.0015973 0.9988125 1.0003592 1.0092928
0.9976831 1.0010175 0.99980974 1.0035802 0.99985003 0.99574095 1.0006244 0.998533
1.0003879 1.002363 1.0008342 1.0021734 0.99924797 1.001142 1.0024732 0.998129
0.9981831 1.0027018 1.000177 0.99625194 1.0021944 1.0002203 0.9932469 1.0039835
0.99669206 1.0013804 0.9996878 1.0105941 1.0011604 1.0035679 0.9970126 0.998608
0.9992374 0.9966633 1.0022137 1.0006573 0.99976856 1.0015349 1.0024308 1.0010244
1.0011969 0.99982107 1.0027286 0.9991941 1.0023814 0.99827397 0.9960819 1.0030991
1.002143 1.0029044 0.99968475 1.0035251 0.99819463 1.0003171 1.0022252 1.0023663
0.99869436 0.9993439 1.0006053 1.000169 0.99792224 1.0001593 1.000634 0.9965007
0.99996525 0.99825096 1.0012511 0.9988852 1.0003786 1.0088766 1.0004718 0.99986666
1.0006915 0.9966923 1.0015085 1.0036798 1.0009036 0.99848795 0.9940337 1.0019225
1.004267 0.9960169 1.0009221 0.99740463 0.9956574 1.0018748 1.0066789 0.99585295
1.0024192 0.9982008 1.0010754 1.0018445 1.0025 0.9985822 1.0020622 1.0024295
1.0024289 1.0029153 0.9970603 1.0023651 0.9994373 1.0003815 1.0004411 0.99607545
0.99924064 0.998628 0.99640214 1.0005647 0.9997655 1.0043179 0.9977193 0.99783796
0.99859434 0.99625385 1.002303 1.0003881 1.0059773 1.0009563 0.99636954 0.9952756

crystalGraphConvNet.convs.0.bn1.bias f4 [128]
00000000: f4dc 103b 8ce0 4dba cabc 4bba a15d 59ba
00000010: 75d9 45ba 0015 033b 5d22 2d3a 8fca abbb
00000020: 70e6 163b 429f 6739 a6be 3d3a e565 153a
00000030: c64b 883a 9377 3f38 71c7 19ba 2c63 7739
00000040: 9455 5d3a 2b1f b5b9 2ecc c839 285a 37ba
00000050: 4e95 4eba b27c b6ba b750 c4ba a86a 463a
00000060: afc9 9c39 0e1c adba c8d1 e139 363f b13b
00000070: 8d54 b0ba 8339 45ba e0c0 893b fb88 22bb
00000080: fe52 0a3b a956 28ba 9d82 db3a 39f3 a8bb
00000090: de75 8eb9 7780 64bb 10f3 5b3b 4597 3e3a
000000a0: 0238 8e3a c476 2f3b 2d8a a6ba b64f d5ba
000000b0: 0483 4dba 1140 1dbb a2fc cfb8 e675 203a
000000c0: c835 a9ba ea25 9eba 8f68 0039 5a28 603a
000000d0: 8c1b 06bb a592 c7ba e65a 1f3a 2ff1 d8ba
000000e0: b2f9 feba 7b4c 07bb 6406 edb8 cb6e 76bb
000000f0: 7262 bf3a f899 7839 1f2a 4d3b 9d20 a23a
00000100: adb1 c03a 932e 4239 c9fc 9aba 8e7c bcb8
00000110: 7d53 783a 9a6a 4139 463e 9eb9 6a22 083a
00000120: 489a 9d39 7b1e 9e3a 5942 bdb9 9d44 29b9
00000130: 515a b6b9 1e26 89bb bfad d6b9 21e5 8037
00000140: 1b63 c1b9 7a76 0d3b e4fb 83ba 7187 f7ba
00000150: dd4c ccb9 6619 043a 05c7 0b3b d2e8 b6ba
00000160: 27e9 3cbb 65ae c23a 2d94 87b9 6428 da3a
00000170: f064 f93a a18c 97ba 8240 87ba 932f 9e3a
00000180: 9803 8dba 4636 a7b8 959e c237 c7ff 23bb
00000190: e9ce 01bb ae7d e939 ba88 023a 0829 31ba
000001a0: 70a8 16ba 9895 95ba 7c67 8939 4605 9eba
000001b0: 40c0 9c39 a311 8639 a144 42b9 3eda 3b3b
000001c0: 71e8 91b9 edca 7eb8 cfef 003b 992c 44b9
000001d0: 0446 d1b9 8979 4fbb edd1 e43a f44b 8a3a
000001e0: 23aa c339 6b1f 8c3a 6f57 c6ba 58d5 7bba
000001f0: aaef 1ebb e27f 5cba 5c5a 173b 9312 6c3b
0.0022104355 -0.00078535895 -0.0007771967 -0.0008291845 -0.0007547357 0.002000153 0.0006604547 -0.0052426527
0.0023025535 0.00022089205 0.00072381867 0.00056990824 0.0010398559 4.564931e-05 -0.0005866206 0.000235927
0.0008443233 -0.00034546232 0.00038299098 -0.00069943303 -0.00078805245 -0.001392266 -0.0014977668 0.00075689936
0.00029904905 -0.0013207213 0.00043071643 0.0054091467 -0.0013452932 -0.00075235235 0.0042039007 -0.0024800885
0.0021106596 -0.0006421605 0.00167473 -0.0051559475 -0.00027172168 -0.003486661 0.0033561625 0.0007270466
0.0010850432 0.002677367 -0.0012705975 -0.0016274366 -0.0007839652 -0.0023994485 -9.917586e-05 0.0006121084
-0.0012909705 -0.0012065743 0.00012245982 0.0008550935 -0.0020463197 -0.0015226199 0.00060789136 -0.001655137
-0.0019453077 -0.002064495 -0.00011302231 -0.003760266 0.0014601483 0.00023708481 0.0031305624 0.0012369339
0.0014701389 0.00018518632 -0.0011824603 -8.987739e-05 0.000947289 0.00018445626 -0.00030182506 0.00051931164
0.00030060322 0.0012063527 -0.00036098322 -0.00016142656 -0.00034781036 -0.004185452 -0.00040946712 1.5365486e-05
-0.00036885668 0.002158551 -0.0010069576 -0.0018884969 -0.0003896718 0.0005039185 0.0021328342 -0.0013954884
-0.0028825493 0.0014852999 -0.00025859606 0.0016644117 0.0019027274 -0.0011562296 -0.0010318907 0.0012068622
-0.0010758517 -7.97329e-05 2.3200448e-05 -0.0025024281 -0.0019807166 0.00044534862 0.000497948 -0.00067581283
-0.0005747145 -0.001141238 0.00026207778 -0.0012056015 0.00029897876 0.00025571612 -0.00018526848 0.0028664018
-0.00027829738 -6.074731e-05 0.0019674187 -0.0001870863 -0.00039915752 -0.0031658134 0.0017457582 0.00105512
0.0003732006 0.0010690516 -0.0015132258 -0.0009606681 -0.0024251738 -0.000841139 0.002309463 0.0036021813

crystalGraphConvNet.convs.0.bn1.running_mean f4 [128]
00000000: 3682 bcbd 5f87 333e c5d1 8bbc 999d 9abd
00000010: 46dd 97bd f8cc a73d bcdb 953c 22f0 96bd
00000020: 84e8 0a3d 222b 45bd c300 683e 6b29 b8bd
00000030: d924 edbd ebbc cdbd 7b64 31bd d870 a43c
00000040: 5cc0 c73d dffe f6ba a914 00bd ae7f 8d3b
00000050: d64e 693d 958f ce3c e471 2f3e f25d 92bc
00000060: 8676 f03d a971 89bd c0b9 843d a2ff 6a3c
00000070: a640 1abe ffea 14bc d100 80bd 4daa a3bd
00000080: dc11 53bd 3613 e1bd 21f2 26bd ba52 b63d
00000090: e4e5 c0bd 97fb 95bd e275 38bd 5981 10bc
000000a0: 822f 963d e9aa d0bc 1c5c 88ba 3535 d3bd
000000b0: 59f7 8ebd d8bb d43d 58c7 55bd e2fb 21bd
000000c0: 2cd5 a33d ef3e e2bd b481 263e 053d ecbd
000000d0: 189b c93c 4f00 693d c5e0 e73a 1273 d43d
000000e0: 2231 9abd d606 9d3d ad74 4dbd d454 933d
000000f0: ab2c 6d3b bb1a f2bd ca84 b2bd 7416 d1bd
00000100: c84e bdbd 086d e63c dafa 0b3d 0f6c b73c
00000110: ea1b cc3d 6b0b 5a3e e156 30bd c6b2 a93d
00000120: 64c7 6d3e 63e6 2a3e d26c 473e 22f4 1bbd
00000130: 4c40 5fbd ccd7 753d c975 ff3c 16d5 89bd
00000140: 4abd 093e 72ba fabc 661d cfbd 086e cc3c
00000150: ed3a c5bc cef7 bbbb 4253 583e 4f55 96bd
00000160: 13d7 733d 4696 503d 258e d73d 4a3d 06be
00000170: 5406 37bc ff86 d13d f49c e13d 8d2c bebd
00000180: e796 8b3d 766e 43bc 5298 2dbd a320 cebc
00000190: 2005 db3d 9681 e3bd a24d 0f3e 8890 3a3d
000001a0: fc80 ed3d 3a32 35be cd0a e6bd b279 9b3d
000001b0: 96c1 aebd f236 79bd 2184 a73d ac2e 01be
000001c0: c6d7 16bd 72bf 33be 5620 1a3e efa9 bfbd
000001d0: 2c57 3f3d 7e18 ffbd a9de 9abc 5eb4 023e
000001e0: 9ee6 1f3e e8d7 6d3c 6fd0 973c f8de 003e
000001f0: 1031 bfbd ba4a ca3d 644a 1fbe 30b0 33bc
-0.09204523 0.17532109 -0.0170678 -0.075495906 -0.074152514 0.081933916 0.018293254 -0.073700204
0.03391315 -0.048136838 0.2265654 -0.08992275 -0.11579294 -0.10045799 -0.043308716 0.02007334
0.097534865 -0.0018844268 -0.031269703 0.004318199 0.05695995 0.02521495 0.1713329 -0.017867062
0.117413566 -0.06711132 0.064807415 0.014343174 -0.15063724 -0.009089231 -0.06250156 -0.07991467
-0.051530704 -0.10989992 -0.040758256 0.089024976 -0.09418848 -0.073233776 -0.045034297 -0.008819901
0.0733328 -0.025472121 -0.0010403427 -0.10312883 -0.069807716 0.10387391 -0.052192062 -0.039546855
0.07999644 -0.1104716 0.16260415 -0.11535076 0.024610087 0.05688506 0.0017690888 0.103735104
-0.075289026 0.076673195 -0.0501601 0.07193914 0.0036189954 -0.11821505 -0.08716734 -0.10209361
-0.09243542 0.028128162 0.034174778 0.022390394 0.09966262 0.21293418 -0.043051604 0.082860515
0.23220593 0.16689448 0.19475105 -0.03807462 -0.054504678 0.060020253 0.031184094 -0.06730096
0.13451114 -0.030606482 -0.10113029 0.02495481 -0.02407595 -0.0057363277 0.2112551 -0.0734049
0.059531283 0.050924562 0.10525159 -0.13109317 -0.011170942 0.102308266 0.110162646 -0.09285841
0.06815892 -0.011928191 -0.042381592 -0.025162047 0.10694337 -0.11108701 0.13994458 0.045547992
0.115968674 -0.17694941 -0.11232529 0.07591571 -0.08533017 -0.060843416 0.081794985 -0.1261546
-0.03682687 -0.175535 0.15051398 -0.09358584 0.046713993 -0.124558434 -0.018905 0.12764117
0.15615317 0.014516808 0.018532006 0.12585056 -0.0933553 0.09877534 -0.15555722 -0.010967299

crystalGraphConvNet.convs.0.bn1.running_var f4 [128]
00000000: 60a5 8d3c 68af db3c aa3a 1f3c a411 d63b
00000010: fae8 933c cc45 6a3c 50bc ca3c a37d 1f3c
00000020: 5e17 c03c 23e0 543c d9a5 cf3c 5090 7d3c
00000030: 93c8 6c3c 445e ab3c 3054 423c c31e f53b
00000040: a70f 553c fbe0 553c 9763 cc3b 6639 173c
00000050: 946f 5f3c 5e68 bb3b 843c 053d 986d 623c
00000060: 16d7 273c 6b34 fc3b b12f 7c3c 8de1 8a3c
00000070: 4106 333c 3f5e 443c 9cbb 8f3c f030 803c
00000080: fa2f 653c 276f b63c 56fc 443c a87a fe3b
00000090: 0428 003c 1cf4 773c defc 233c 906f a93c
000000a0: 8284 113c e804 093c d571 893c 57fe 513c
000000b0: bbe7 443c 9041 863c d328 413c cb02 933c
000000c0: 4fe2 743c 2a85 783c 8a58 c53c e660 4f3c
000000d0: d94e 103c f8c6 d43c 6292 a73c db15 663c
000000e0: fbe2 963c d984 413c 3242 703c d773 013c
000000f0: f053 703c f30c f83b 2887 283c 4208 953c
00000100: 6080 ae3c af87 573c 7060 6a3c 0ec9 c33c
00000110: 4350 703c 6c35 153d ae02 a73c fc9e b03c
00000120: 579e 5f3d dd87 673c ecc0 103d ffd8 5e3c
00000130: 6dd6 153c d2e0 833c 017c 6f3c 3f57 d63c
00000140: cc14 4e3c a53c 603c d045 8e3c 671c 5f3c
00000150: ca87 613c 77b3 783c bf83 843d 1785 573c
00000160: ecb4 333c 7916 b53c e121 9a3c 5a8c e63c
00000170: 199f 6a3c f2bb b83c d9b7 f43c 4893 d23c
00000180: d946 863c 76f8 743c 91da 523c a9cb d53c
00000190: a5e2 153c eb74 d33b 917a bf3c daa4 4d3c
000001a0: 4e7e 893c f6e5 953c b11c 733c 1a50 fb3b
000001b0: cf2d 633c 16bd 703c 845e 173c 5f23 073d
000001c0: 14a6 e23c e016 8d3c d1da 0d3d addd 303c
000001d0: d9c2 1b3c 93b0 1c3c 87f7 a33c 0ac7 883c
000001e0: 117f 7a3c b121 b03c 034f d73c 29ab 543c
000001f0: 2fb9 4d3c aa92 553c 635e cb3c c102 f13c
0.017290771 0.026817039 0.009718576 0.0065328646 0.018055428 0.014298867 0.024747998 0.009734544
0.023448642 0.0129928915 0.025347637 0.015476301 0.0144521175 0.020918973 0.011860892 0.0074804737
0.01300422 0.013054128 0.006237458 0.009229993 0.013637442 0.0057192286 0.032528415 0.0138200745
0.010244152 0.0076966784 0.01539223 0.016953254 0.010926784 0.011985361 0.017545514 0.015648335
0.013988489 0.022269798 0.012023052 0.0077660866 0.0078220405 0.015133884 0.010009019 0.02068308
0.00888169 0.008362986 0.016777912 0.012816987 0.0120181395 0.016388685 0.011789518 0.017945668
0.014946534 0.015168468 0.02409007 0.01265738 0.008807861 0.025973782 0.020455543 0.014043297
0.01841878 0.0118114585 0.01466422 0.0079011535 0.01466845 0.007569903 0.01028613 0.018192414
0.021301448 0.013154908 0.014305219 0.023899581 0.014667573 0.0364279 0.02038702 0.021560185
0.054594364 0.014131513 0.035340235 0.013601541 0.009145361 0.016098414 0.014616967 0.026164649
0.012578201 0.013686334 0.017367274 0.0136176115 0.013765285 0.0151795065 0.06470441 0.01315429
0.010968428 0.022105442 0.018814983 0.028143097 0.014320158 0.022550557 0.029872822 0.025704995
0.016391205 0.014951816 0.012869493 0.02609809 0.009148275 0.0064531467 0.023373874 0.012551511
0.01678386 0.01829813 0.0148383835 0.007669461 0.013865902 0.014693519 0.009238843 0.032992717
0.027667083 0.017222822 0.034632508 0.010795039 0.0095069045 0.009563583 0.020015491 0.016696472
0.015289084 0.02150044 0.026282793 0.012980261 0.012556358 0.013035456 0.02482528 0.029420258

crystalGraphConvNet.convs.0.bn2.weight f4 [64]
00000000: c83d 803f 4fb4 7f3f 2d3c 7c3f 4d60 803f
00000010: 368b 7e3f 3830 7d3f 7a3a 7e3f 0001 803f
00000020: 4dc5 7d3f 2aab 7b3f 8920 7d3f e7c2 803f
00000030: 652e 803f 4fd1 813f 32c4 7f3f e78f 7c3f
00000040: 7e00 833f cb73 7f3f d11c 813f 1f4e 803f
00000050: 7db3 803f b053 7f3f 4934 7c3f 68a7 7d3f
00000060: 4357 7f3f aca5 7d3f 2047 803f c0fd 803f
00000070: f835 803f fc64 7f3f 6847 7c3f bec5 803f
00000080: 3c9d 7d3f e0de 7e3f e529 7d3f 87a0 823f
00000090: 3938 803f a68e 813f 3766 7a3f e9e0 7e3f
000000a0: b8de 7e3f ea57 803f 96f1 7d3f 9496 803f
000000b0: 020a 7d3f c2ed 813f ca31 803f a427 7d3f
000000c0: 9f2c 7d3f 7396 7d3f 6e20 7d3f 2dae 7f3f
000000d0: e6e0 803f 5198 803f 2b42 7c3f e56c 7f3f
000000e0: df5b 7e3f a5d1 7e3f 460b 7d3f 8fc9 813f
000000f0: 24dd 7d3f 5ef9 7e3f bb58 7a3f 8d4a 7f3f
1.0018854 0.99884504 0.9852932 1.0029389 0.9943117 0.989017 0.9930798 1.0000305
0.9912918 0.9830805 0.9887777 1.005948 1.0014158 1.0142001 0.99908745 0.9865708
1.0234525 0.9978606 1.0086919 1.0023841 1.0054775 0.9973707 0.9851728 0.99083567
0.99742526 0.9908092 1.0021706 1.0077438 1.001647 0.99763465 0.9854646 1.0060346
0.99068046 0.9955883 0.9889205 1.0205239 1.0017158 1.0121658 0.9781222 0.99561936
0.9955859 1.0026829 0.99196756 1.0045953 0.98843396 1.0150683 1.0015194 0.9888861
0.9889621 0.9905769 0.9887761 0.99875146 1.0068634 1.0046483 0.98538464 0.99775535
0.99358934 0.9953864 0.98845327 1.0139636 0.9916556 0.99599254 0.9779164 0.9972313

crystalGraphConvNet.convs.0.bn2.bias f4 [64]
00000000: 7a53 c2bb 765f 553b 81ab 89bc bc9a 3f3c
00000010: 5ae0 153a acf2 aabb aa43 9a3a 0919 0ebb
00000020: 0ef9 3dbb d63f 5dbc eead 2ebc 3f38 683c
00000030: 4ff3 393a 3371 0dbc bedc 8abb 5ed9 29bc
00000040: bbd6 9f3c 0ce2 f2ba dd52 663c a530 0fbb
00000050: 169b 2fbb e8f4 6d3a c794 25bc 475b c6bb
00000060: c6a5 0bbc ccc9 f6bb b6c2 393c ce25 5b3c
00000070: 573a 5b3c f06c fcbb 8d85 38bc e71c 5e3b
00000080: 61a8 f6b9 4782 4b3b 346a cabb 71be 41bb
00000090: eb4a c5bb 43f3 db3b 4744 5abc eefd 1e3b
000000a0: f4e2 ae3b f1b6 033c 5452 60bc fbf6 ccbb
000000b0: 31d3 4bba b72f bb3b 0afa 8039 b547 fdbb
000000c0: 722a 5dbc ebd0 57bc 1d36 983a 1050 31bc
000000d0: ba36 e5ba 72e3 00bb aa0b 95bb 31a7 3cbb
000000e0: 9945 5b3a 3cfe d537 7333 bcbc 9d85 783b
000000f0: cc15 93bc b0c0 2ebc 3684 21bc 54ef 953b
-0.0059303613 0.003255812 -0.016805412 0.011694606 0.000571733 -0.005216917 0.0011769433 -0.0021682403
-0.002898756 -0.013503989 -0.010661585 0.014173566 0.0007093446 -0.008632946 -0.0042377403 -0.010366766
0.019511571 -0.0018530502 0.014057842 -0.0021849063 -0.002679532 0.00090773264 -0.010106272 -0.0060533616
-0.00852341 -0.0075313803 0.011337927 0.013375713 0.0133806085 -0.007703416 -0.01126231 0.003389174
-0.00047046228 0.0031052993 -0.006177211 -0.0029562975 -0.006020894 0.0067123487 -0.013321943 0.002426024
0.0053371135 0.008039222 -0.013691504 -0.0062550283 -0.00077753054 0.005712475 0.00024600356 -0.0077294954
-0.013498889 -0.0131723685 0.0011612807 -0.010822311 -0.0017487623 -0.0019666818 -0.0045485096 -0.0028786177
0.0008364558 2.5509966e-05 -0.022973752 0.0037921437 -0.01795473 -0.0106660575 -0.009858182 0.0045756493

crystalGraphConvNet.convs.0.bn2.running_mean f4 [64]
00000000: 6744 b840 8f00 b440 f78e a740 cc4b a040
00000010: f79a b240 c168 ac40 a043 ab40 1972 8840
00000020: 149b b640 ad6f a740 f2fc be40 ab02 ad40
00000030: 5a2d 9140 e761 b040 46c6 ad40 3d28 a740
00000040: 1934 a540 73de ac40 1cb4 9b40 6a41 9540
00000050: fe94 8c40 13cd 9e40 125c bc40 0349 a240
00000060: 67b0 aa40 056f 8d40 3b9c b540 06b1 b840
00000070: 6be7 ad40 baee b340 efc0 9640 daa6 a140
00000080: f276 ad40 3b2d b140 5441 a740 06b0 a540
00000090: 19d4 9e40 460f 9b40 c805 9f40 c854 ab40
000000a0: 9d4a ac40 8436 ae40 a544 9b40 a037 9b40
000000b0: 854c ac40 c508 a540 e784 9e40 8914 b240
000000c0: 3373 ba40 8ab0 b140 202a bc40 7e83 9b40
000000d0: 67da 9c40 25b4 9c40 69d7 a840 27ae b540
000000e0: 7bfc a340 a667 a440 d8ec b140 7f5c 9a40
000000f0: b7d4 9f40 2436 a240 2f3a b340 b754 b240
5.75835 5.625068 5.236202 5.0092525 5.5814166 5.3877873 5.352005 4.263928
5.7064304 5.2323823 5.968377 5.4065757 4.536786 5.511951 5.4304533 5.223662
5.1626096 5.4021544 4.865736 4.664235 4.3931875 4.9625335 5.886239 5.0714126
5.3340335 4.419802 5.675321 5.7716093 5.4344993 5.6228914 4.7110515 5.0516176
5.4207697 5.5367713 5.2267246 5.177737 4.963391 4.8456144 4.9694557 5.3540993
5.384108 5.4441547 4.8521295 4.85054 5.384341 5.1573205 4.9537234 5.5650067
5.8265624 5.5528 5.880142 4.8598013 4.9016604 4.8969903 5.276295 5.677509
5.1245704 5.1376524 5.5601616 4.823791 4.994716 5.069109 5.6008525 5.572841

crystalGraphConvNet.convs.0.bn2.running_var f4 [64]
00000000: 1f7e a941 d0f2 6841 b8af 1a41 41ca 6241
00000010: 67b8 9d41 e884 9c41 df44 ce41 2ab9 b040
00000020: a52a 9841 3269 8341 92ac d041 cc10 8341
00000030: 95df 1541 4922 4941 0b58 8541 0c3e 7d41
00000040: 31d8 1f41 569d 7741 5a3b 4041 e442 e540
00000050: c6f3 cc40 c941 f840 c381 bf41 480a 2141
00000060: 45ad 3541 1e1a 0041 3459 bb41 c26f 5941
00000070: c6b0 8541 8e04 9c41 266b 1a41 a204 5241
00000080: 1c47 ae41 6593 9a41 8731 8941 4c7f 4b41
00000090: 875f 1941 54cd 3841 1866 1041 dd77 5e41
000000a0: 448f 5e41 40cf a541 7b4c 8f41 fd43 4a41
000000b0: cfc9 9141 6b9f 8241 ab09 0141 733c 9741
000000c0: a15f 8341 083d 9941 c4dc 8541 9cdc 1941
000000d0: dd1b 3d41 376d 1441 e422 8041 e14c 7841
000000e0: 6818 2641 f867 5e41 9858 1741 31bd 1041
000000f0: a778 3541 4742 5441 8217 ac41 9433 a841
21.186583 14.55928 9.6679 14.174378 19.71504 19.564896 25.783628 5.522603
19.020823 16.426365 26.084263 16.383202 9.367085 12.57087 16.66799 15.827648
9.990281 15.475912 12.01449 7.1644154 6.4047575 7.7580304 23.93836 10.06501
11.354802 8.006376 23.418556 13.589785 16.711315 19.502224 9.651159 13.126131
21.784721 19.32197 17.149183 12.718578 9.585822 11.550129 9.024925 13.9042635
13.909977 20.726196 17.912344 12.641599 18.22354 16.32784 8.06486 18.904516
16.421694 19.1548 16.732796 9.61636 11.819303 9.276664 16.017036 15.518769
10.380959 13.900383 9.459129 9.046189 11.341956 13.266181 21.511478 21.025185

crystalGraphConvNet.convs.1.fc_full.weight f4 [128, 169]
00000000: 96ed c03c 6aeb 2abd 9511 53bd ce79 5b3d
00000010: 98ca 2d3d 3c53 fcbc 84f3 b33c 2ad2 4bbd
00000020: 8b79 7d3d 68ea 583c 775a 403d 9362 6a3d
00000030: cd4d 76bd 73d0 64bd 6484 a5bd f2d9 2abd
00000040: e9f8 eebb c231 47bd c13e af3d 0d02 2a3c
00000050: f04f 19bd c216 073d 108c 85bd f762 27bd
00000060: 5f2a 123d 63a4 3f3d 3f54 8fbd 913e 893d
00000070: b0f8 283c 5885 25bd 1b0d 163d d76a eeb9
00000080: e607 a83b 95e1 b63b 7516 94bd 7df4 9ebd
00000090: 1a1d 373d 2dad 91bd 99de 8b3d 25ec 9fbc
000000a0: 9dc0 89bd 62c2 5d3d af91 40bd 57d5 86bd
000000b0: 9686 243c 5a8b 7bbd fa1a ba3c d590 163b
000000c0: 5754 8b3d 050f 9d3d 537a 8ebd bab6 98bd
000000d0: d48c 4ebd c80f 3b3c bb37 06bd d0cc d2bc
000000e0: e930 50bd f7d2 a7bd 637a c8bc 62e5 0dbb
000000f0: 8101 9dbd a3a1 96bc 0f7a 6abd 673a f0bb
00000100: f940 6abd c89a 703c d4e8 683d e35e 923d
00000110: 786e 88bd 47d4 773c 7041 e63c 5c08 823d
00000120: 4fe5 243c e1ca b0bc 400b 9abd eae4 2c3d
00000130: eadf a53c 2c46 2b3d e6b7 563d d9cf 41bd
00000140: 8dc1 afb9 28e0 463d 57b7 2e3d 817e 94bb
00000150: 3ff3 9f3d ed12 783d 254f 573d bd24 213d
00000160: a2f8 823d d9e0 6a3d ae97 c03c b371 0f3d
00000170: 0548 5d3d 237a 9ebd 9592 303d 980c 93bd
00000180: 9ba0 a03c c0ea 81bb d78b 123d 5986 acbc
00000190: 9e10 293d c805 85bd 18b6 9cbc 3686 d13a
000001a0: ab67 293d f65b 153c ad4c 2b3c 2002 fbbc
000001b0: 735e c33b d6db 82bc ce1e 193d 4643 8dbd
000001c0: 832b 60bd f665 f73c f7bf 55bd e786 553d
000001d0: 3999 123d bd48 52b9 271e 95bd 4120 7c3d
000001e0: 9a88 e93a 69d1 243d b6df 343d 29ac 403c
000001f0: 2f33 06bd fb8a 693d f404 343d f5cb 2dbd
00000200: 8de7 5c3d bcdf 633c 28f9 613d 0e6a 123d
00000210: e398 403c 6554 93bd 031c 293c 4090 483d
00000220: 0695 ce3a 8cbe 99bd 22aa 773d ca17 333d
00000230: 1e6c 443d e37f 823d 6c6c fbbc e0f0 4e3d
00000240: 2c84 963d 5a29 02bd 646d 053d 1722 dfba
00000250: 3f4f 9ebd 01ae 233d 637f 3bbd aa45 6f3d
00000260: ffa2 183c e062 9e3c 5fb2 2d3d 60be 4e3c
00000270: 2185 babb ef20 03bd bd85 89bd de6e 283d
00000280: cff1 71bd de0d 173d 78ac 98bd fc50 783d
00000290: 2528 58bd 3c30 ff3c 7cd2 54bd 8559 553d
000002a0: 9ecb ea3c 5b6a 0539 52e2 86bd e405 ab3d
000002b0: ccda 41bd 9cb4 d7bc 7196 893d ebe9 debc
000002c0: 14f6 20bd 4e36 d03c c67f a4bc c573 07bd
000002d0: 10b7 fcb7 d987 523d 9bb0 a93c 1bf9 1fbd
000002e0: d707 68bd 6e8b d9bc b015 68bd 00b4 ad3b
000002f0: 0228 ee3c 0c64 9fbd 43be b63b 84b6 333d
00000300: 0c07 993d 2444 2ebc 4235 9bbd 284e 893d
00000310: 9a39 f7bc 4808 d93b 27ab 573d 377e 52bd
00000320: 0004 28bd fa4e e5bc 496c 343d f4a1 75bd
00000330: 9078 893d 8417 863d f25a 39bd 6fef ddbb
00000340: e665 74bd b4ff 173d c296 91bc 36ec 7cbd
00000350: 9607 943c 2772 c5bc 9108 053d 2b93 99bd
00000360: 6519 7cbd 00cb f2bc 90b8 c5bc 47c8 efbc
00000370: 1bca 933d d9c2 9abb 2742 c83c 6ddb 653d
00000380: fc74 9a3d f88d 6bbd 50bf 74bd 10f3 583d
00000390: 99de 6f3d 945b 9abd 6545 d13c 67df 3a3d
000003a0: 9f7a cebc 2cd3 a1bd 10c7 4d3d da40 c7bc
000003b0: 13d6 073d 036f 05bd 63f7 73bc 9b80 6d3d
000003c0: 15a3 68bc b244 babc 0fc5 2d3d c3d4 2c3d
000003d0: 8e6b 613d bd51 81bd 09b2 2ebc 375f 91bd
000003e0: c8c4 40bd 50f6 dbbc ea11 b13b 0cb0 b23b
000003f0: a07f 363d 27a7 01bc f1e5 24bd cda2 02bd
0.02355079 -0.041728415 -0.05153044 0.05358296 0.042429537 -0.030801408 0.021966703 -0.049760975
0.06188349 0.013239481 0.046961274 0.057222914 -0.06013279 -0.055862855 -0.08081892 -0.041711755
-0.007292856 -0.048631437 0.08556891 0.0103764655 -0.03742975 0.032980688 -0.065208554 -0.040865865
0.03568494 0.04678763 -0.069984905 0.06701387 0.010313198 -0.04041037 0.036633592 -0.000454745
0.0051278947 0.0055810907 -0.07230846 -0.07761476 0.044705488 -0.07113109 0.068295665 -0.019521782
-0.06726191 0.054140456 -0.047013935 -0.0658366 0.010041853 -0.061412193 0.022717942 0.002297451
0.06803196 0.076688804 -0.06956925 -0.07456727 -0.050427273 0.011417337 -0.032767992 -0.025732428
-0.050827894 -0.08194535 -0.024472421 -0.0021651615 -0.076663025 -0.018387621 -0.05724531 -0.007331181
-0.05719087 0.01468534 0.056862667 0.071470045 -0.06661695 0.015126294 0.028107375 0.06349251
0.010064437 -0.021581115 -0.07521677 0.042210497 0.020248372 0.041814968 0.052421473 -0.04731736
-0.00033522808 0.048553616 0.042655315 -0.004531682 0.078100674 0.060564924 0.052565712 0.039341677
0.06395079 0.057343338 0.023509827 0.03502054 0.05402376 -0.077381395 0.04310854 -0.071801364
0.019607833 -0.003964752 0.035777893 -0.021060156 0.041275613 -0.06495243 -0.019129798 0.0015985433
0.04135863 0.0091161635 0.010455293 -0.030640662 0.005962187 -0.015973967 0.037382893 -0.06897597
-0.054728996 0.030199986 -0.052185025 0.052130606 0.035790656 -0.00020054258 -0.07281142 0.061554197
0.00178172 0.04023877 0.04415866 0.011759796 -0.032763656 0.057017308 0.043950036 -0.042430837
0.05393176 0.013908323 0.055169255 0.035745673 0.011755201 -0.07193831 0.01032162 0.048965693
0.0015760965 -0.07507047 0.060464986 0.04372386 0.04795467 0.06372049 -0.030691348 0.050522685
0.073494285 -0.031777717 0.032575026 -0.0017023709 -0.07729959 0.039960865 -0.045775782 0.058416046
0.009316205 0.019334257 0.042406436 0.012618631 -0.0056921397 -0.03201383 -0.06714962 0.041121356
-0.059068497 0.03687846 -0.07454771 0.060624108 -0.05277266 0.03115093 -0.051958546 0.052087326
0.028661545 0.00012723489 -0.06586136 0.08350733 -0.0473278 -0.026331238 0.067181475 -0.02721115
-0.03929718 0.02541652 -0.020080458 -0.03306939 -3.0125986e-05 0.051399086 0.020714095 -0.039055925
-0.0566481 -0.026555743 -0.056661308 0.0053009987 0.029071812 -0.07782754 0.00557688 0.043875232
0.07472047 -0.010636363 -0.075785175 0.0670436 -0.030178834 0.0066233017 0.052653458 -0.0513899
-0.04101944 -0.02799176 0.04404858 -0.059968904 0.067124486 0.06547454 -0.045252748 -0.0067729275
-0.05966749 0.037109092 -0.017772082 -0.061748706 0.018070024 -0.024102284 0.032478873 -0.07498773
-0.061547656 -0.029637814 -0.024135858 -0.029270304 0.07216283 -0.0047229347 0.024445606 0.056117464
0.07541844 -0.05750844 -0.059752762 0.052966177 0.058561895 -0.075369984 0.025545785 0.04562321
-0.025204955 -0.07901606 0.05023867 -0.024322916 0.03316314 -0.032576572 -0.014890525 0.057983976
-0.014199038 -0.022737835 0.042424258 0.042195093 0.055034213 -0.063144185 -0.010662564 -0.07098239
-0.047062665 -0.02685085 0.005403747 0.0054531153 0.044555306 -0.007913387 -0.04025835 -0.03189354

crystalGraphConvNet.convs.1.fc_full.bias f4 [128]
00000000: 3cec dcbc 3a4d 67bb f267 ea3c 05d4 4fbd
00000010: ca01 0f3d 7517 89bd 7203 efbc 7c22 65bd
00000020: eab0 3cbd 93c2 a6bb 95c7 17bc 324d 123d
00000030: 6acf 2c3d aa50 3abc a9a1 46bc 0e8d 873d
00000040: 78fa 263c 3ceb 08bc b25c bb3c 9689 09bd
00000050: 9ce3 3fbd 2017 39bd f49c 443d af64 34bd
00000060: 685e 9abc d2a7 1c3d a372 13bd 3eb2 4e3d
00000070: 149e 4c3d 8afd 62bc 8573 303d a4b6 84bd
00000080: e252 973d 6dcd 293d c00c 9d3d 085c 0fbd
00000090: 28e2 81bd ef3b 5dbd d272 7abd 999e 10bd
000000a0: 3245 1bbd 23a7 88bc 3019 fbbb 6d14 a03c
000000b0: 94f4 653d aa27 9bbd 4aac 913d 5227 143d
000000c0: 033b 3d3d 196f b6bc 1e2e 98bc ad76 003d
000000d0: fe66 183c f5ef aa3c 57f5 d83b 4582 ccbc
000000e0: 0597 8e3d faf3 8ebb 3adb 9cbd ee73 d4b9
000000f0: ed2d 23bc b442 8ebd fbf2 23bd 8a19 4c3d
00000100: 535b 813d 1c31 713c cf10 6fbc 03b0 743d
00000110: e8a1 bd3c a025 9a3d 209c 20bd fa13 8e3d
00000120: 407b 08bd e787 c93c b9bd 44bd 28a8 583d
00000130: ed5d 943d 044a f8bc 149e 1cbd 2877 15bd
00000140: 0f80 cebc a879 7d3d 25b7 12bd 8f91 aa3c
00000150: d78a 3bbd 014e a9bb 146e 973c 63e4 393c
00000160: 9dca b5bb 5429 2f3d d511 8ebd 6eb0 74bc
00000170: 7df4 9b3d d9db a03c efcf 8bbc e0a6 83bd
00000180: de54 853c 6869 5f3d e549 1b3d ff1d c83b
00000190: 4af8 843c 75c3 f73c b728 b9bc da78 903d
000001a0: 367c 063d 0561 55bd 12f3 8bbd 232d da3c
000001b0: 54d8 fe3c 0034 16bc 406d 8a3d 2a86 0f3d
000001c0: 8f31 763d 8d59 74bd 27ad 96bd 97e6 13bd
000001d0: 3928 83bd 377a 973d 48de 2ebd 0119 523d
000001e0: edef 043b 63ec 47bd 9441 c1bc 5f69 5d3b
000001f0: eb5f 8b3d eac2 08bd c0bb 933c e021 063c
-0.026968114 -0.0035293833 0.028614018 -0.050739307 0.034913816 -0.06693927 -0.029176448 -0.05594109
-0.046067156 -0.005089113 -0.009263893 0.03571815 0.042189993 -0.011371771 -0.012123504 0.06618701
0.010191552 -0.0083568655 0.022871349 -0.033578478 -0.046847925 -0.04518807 0.048001245 -0.04404133
-0.018843845 0.038245983 -0.035997998 0.050462954 0.049955443 -0.013854394 0.043078918 -0.064801484
0.073888555 0.041455675 0.076684475 -0.034999877 -0.06341964 -0.054012235 -0.061144657 -0.0353075
-0.037907787 -0.01668126 -0.0076629147 0.01954099 0.05614145 -0.07575925 0.0711294 0.03617031
0.046198856 -0.022269772 -0.018576678 0.031363178 0.009301899 0.020866374 0.0066210437 -0.024964461
0.069623984 -0.0043625804 -0.07659002 -0.00040522165 -0.00995968 -0.06946316 -0.040026646 0.049829043
0.06316247 0.014721181 -0.01459141 0.05973817 0.023148492 0.07526708 -0.039211392 0.06937404
-0.033320665 0.024600936 -0.048032496 0.05289474 0.072444774 -0.03030873 -0.038236693 -0.03649059
-0.025207547 0.0618836 -0.03581919 0.02082136 -0.045786705 -0.0051667695 0.018485107 0.011345956
-0.005547835 0.042764023 -0.06936995 -0.014934642 0.07614992 0.019636082 -0.017066924 -0.06428313
0.01627582 0.054543883 0.03791227 0.0061070914 0.016231675 0.030244568 -0.022602422 0.070543006
0.0328333 -0.05209448 -0.06833471 0.026632851 0.031109013 -0.009167671 0.06759119 0.03504006
0.060105857 -0.059655715 -0.07357245 -0.03610858 -0.06404156 0.073963575 -0.042692453 0.051293377
0.0020284608 -0.04880942 -0.02359084 0.003378473 0.06805404 -0.03338901 0.018033862 0.008186787

crystalGraphConvNet.convs.1.bn1.weight f4 [128]
00000000: d407 803f c76d 7f3f d4dd 7f3f 4523 803f
00000010: 54b1 7f3f 451a 803f 1544 803f bce5 7f3f
00000020: 3091 803f db55 803f cec6 7f3f 842e 803f
00000030: 217a 7f3f 3b3c 803f 3282 803f 4227 803f
00000040: 08a3 7f3f 2bc6 7f3f 5d56 803f a4c9 7e3f
00000050: 067d 803f d985 7f3f 1b7c 803f 9b70 803f
00000060: 684f 803f 1ce9 7f3f 1f71 803f 9325 803f
00000070: c62d 803f f853 7f3f 7d97 7f3f 9309 803f
00000080: 50fb 7f3f 8392 7f3f 937a 7f3f 192d 803f
00000090: a312 7f3f 0e26 803f 7c23 803f 8e1a 803f
000000a0: e552 7f3f 8482 803f c75e 803f 4ec0 7f3f
000000b0: b89c 7f3f 6458 803f b20f 803f fdaf 7f3f
000000c0: cc42 803f ec69 7f3f 2865 803f f6fe 7f3f
000000d0: 0f76 7f3f 9a26 803f 6c34 7f3f 1222 803f
000000e0: c604 803f 9ea4 7f3f 2804 803f d30b 803f
000000f0: 1a85 7f3f 4f46 803f 4613 803f dbe1 7f3f
00000100: 282e 803f 2c9a 803f 840f 803f c4bf 7f3f
00000110: 9c3c 803f f92e 803f 0a86 803f f027 803f
00000120: ae53 7f3f f3fc 7f3f b63c 803f 564e 7f3f
00000130: 1e9d 803f af62 803f b574 7e3f 5210 803f
00000140: 4d14 803f 8953 803f 90bf 7f3f fddf 803f
00000150: f155 7e3f d30e 803f 3d27 7f3f 161a 7f3f
00000160: 7527 803f f223 803f 7c1d 803f 38c9 7f3f
00000170: 934b 803f 8bad 7f3f 4f81 803f 7022 7f3f
00000180: 9fe8 7f3f 20d0 7f3f 8928 803f 4f10 803f
00000190: 2665 803f 50a7 7f3f eee8 7f3f 03b6 7f3f
000001a0: d36e 803f ee4d 7f3f 5258 7f3f c022 803f
000001b0: 6deb 7f3f a657 7f3f 1ced 7f3f 951e 803f
000001c0: ed12 7f3f 9626 803f 3cc0 7f3f 81f8 803f
000001d0: 0f33 803f d211 803f b493 803f 88ec 7f3f
000001e0: f6fe 7f3f 6bf3 7f3f ac11 803f e234 803f
000001f0: 5d30 803f 249e 7f3f a111 803f 6d31 803f
1.0002389 0.9977688 0.9994786 1.0010763 0.99879956 1.0008017 1.0020777 0.9995992
1.0044308 1.0026201 0.99912727 1.0014195 0.9979573 1.0018381 1.0039732 1.001198
0.9985814 0.99911755 1.0026356 0.9952643 1.0038154 0.9981361 1.0037874 1.0034364
1.0024233 0.9996507 1.0034522 1.0011467 1.0013969 0.997375 0.9984053 1.0002922
0.9999285 0.99832934 0.9979641 1.0013763 0.9963781 1.0011613 1.0010829 1.0008104
0.9973586 1.003983 1.0028924 0.9990281 0.9984851 1.0026975 1.000479 0.9987791
1.0020385 0.99771 1.003087 0.99998415 0.9978952 1.001178 0.99689364 1.0010397
1.0001457 0.9986056 1.0001268 1.0003608 0.9981247 1.0021456 1.0005882 0.99954003
1.0014086 1.004705 1.0004735 0.99901986 1.0018497 1.0014335 1.0040905 1.0012188
0.9973706 0.99995345 1.0018528 0.99728906 1.0047948 1.0030116 0.9939683 1.000498
1.0006195 1.0025493 0.99901676 1.0068356 0.99349886 1.0004524 0.9966925 0.9964918
1.0012041 1.001097 1.0008998 0.9991641 1.0023063 0.9987418 1.0039462 0.9966192
0.99964327 0.9992695 1.001237 1.0004977 1.0030868 0.99864674 0.999648 0.998871
1.0033821 0.99728286 0.9974414 1.0010605 0.99968606 0.99743116 0.99971175 1.0009333
0.99638253 1.0011775 0.999027 1.0075837 1.0015582 1.0005438 1.0045075 0.99970293
0.99998415 0.999808 1.0005393 1.0016139 1.0014759 0.9985068 1.000538 1.0015084
