training_cgcnn_p_u/saved_models/pbe_252_p_u.ckpt (torch, 676938 bytes, 60 tensors)

crystalGraphConvNet.embedding.weight f4 [64, 92]
00000000: fd9c c33d 90a8 b03c 4d2f debd b158 febc
00000010: b6ee 893d 6f47 303d 4dcc 4cbc abf4 bcbd
00000020: 71b7 8c3d f8f8 ea3d eb67 853d d439 943d
00000030: 4ec3 9fbd 1c77 623d 00fc 0d3d 6b27 1c3d
00000040: 59f5 6bbd 0a56 0a3d f158 20bd f484 c9bd
00000050: 5b13 ce3c 8f30 16bd 0318 2d3d 690a 1c3d
00000060: 925a a1bb 3444 c43d c1ad 943c 496c ae3c
00000070: 6835 b73d 0635 25ba 0cab 54bc 7f06 873d
00000080: 9219 b5bd 4299 c4bd f851 6abc a68f 82bd
00000090: b8b0 9d3b 2b6b f6bd cc56 9d3d 5ab2 64bb
000000a0: 7497 80bc 293c 6fbc d0bb c3bc 1e6e 1abd
000000b0: ee7c d1bb 5914 b7bd ad3e a83d 791b 25bd
000000c0: 0743 4c3d fad5 be3c d5ff 823d 1ddb cfbd
000000d0: fc2f 02be a3f3 983d 353d 63bc 9e45 9bbd
000000e0: af34 88bc 03c8 28bc a6e9 393d 18e8 58bd
000000f0: 7b8a 2f3d d144 003e 76cf eabc 95d3 e9bc
00000100: 4030 21be 03f6 a73d b6a1 95bd 5509 21bc
00000110: d7e1 763d 6466 783d 872a ec3c fac4 8c3d
00000120: 370f 103d da66 b53d a5e9 b83d 59bd 2b3c
00000130: 5ace bb3d 76f1 363d e8fd 38bd 3f06 4c3d
00000140: 14c2 c93d 4560 b33d ada3 803d 7f89 133e
00000150: 67fb 813c 172b ecbd 4d41 0bbe a385 613d
00000160: 99fd b23b f20d aabd 0670 a13d 217b 95bd
00000170: acea 5abc 8c13 08bd 1fdc 903d dd5b 893d
00000180: 5a3b 8f3d 7e6e ba3d 7f79 edbd fa25 8b3d
00000190: 8b1b f5bc 8a30 1dbc d3fc 10bd c36a 7c3d
000001a0: d311 9abd 7173 93bd 270e df3d 1818 513d
000001b0: 1c96 1fbd e20c 8ebd 7a7e bebd 2d02 f33c
000001c0: 6f34 d03d 1546 8a3d 4be2 13bd 67c7 83bd
000001d0: 9e3d b3bd 1469 eb3b 226e 5fbd c10c 743d
000001e0: 188f 9b3d 657d 403a 99a6 52bd 0901 97bd
000001f0: 1052 bb3d ff41 013e f4ab eb3c 9a59 bdbd
00000200: c26f d63d 0567 19ba 8dca be3c 791e d5bd
00000210: 1075 863c 7b50 13bc 3ae8 a4bd b627 733d
00000220: 938b c7bd 4edc 3bbc 1843 3bbc 01c1 033d
00000230: d9c1 a83b a82a 5cbd f35e abbd 04db bf3c
00000240: 1e8e c73c 407f 693d f9e1 8d3d ff9c 573d
00000250: a7c9 b93d 88c0 e6ba 8f46 963c bab3 e33d
00000260: d941 b8bd 91af ccbd 9d6a 86bd 44e7 d2bd
00000270: 303d 403d 56a5 4d3d 38a1 5b3d ab0e 89bc
00000280: 77f3 cd3d 620d cebd 88f5 5b3d 818e f43c
00000290: ea0c dc3d e75e 903d dfa8 9e3d ef29 70bd
000002a0: b14b f93b 72d7 443d 498a 4d3c 32d5 913c
000002b0: 22df 3f3d 79d5 1bbe f611 c0bd bd7a 1a3d
000002c0: 8a09 e63c bc7e 773c 400c 8f3d 356d afbd
000002d0: 43d9 673d 0792 cf3d 6cb0 173d df22 953d
000002e0: 835e a93d 7868 fc3c 4fe5 9c3d 0e8f e43c
000002f0: c760 62bd 0dbc aabd 5fa2 6e3d 97a2 8b3c
00000300: 11ac 9ebc a3ee d23d 51c3 b5bd 6094 e73c
00000310: d139 babd bb2c bebd 7978 b83d 7e2a 883d
00000320: 89a7 8ebc cb3a 26bd 5647 8abc 0d55 9d3d
00000330: 3556 94bc 449c e0bd 54e9 893d 0663 053c
00000340: 822e b63d db69 abbd 1383 0bbd 8e49 d4bd
00000350: 5eb0 11be 8fba 8ebc 5778 213c d647 cf3d
00000360: 9903 bcbd a698 81bd 0fa3 e0bb 47f7 6cbd
00000370: 2464 dcbb 1227 6fbd 599c a0bb 5123 3bbd
00000380: 5fe9 9fbd 216d 9d3d 9a84 04bd 5bc7 a6bd
00000390: 2ac3 1ebd 1ff6 afbd 3522 e7bc 104f 0f3c
000003a0: b47d 5a3c 1844 e0bd c8c0 c3bc b494 bb3d
000003b0: 5c9b 86bd 7dd6 9a3d 63a4 a03d cb81 713b
000003c0: 2b4f 923d d61a 153d 827f 69bd e68c 753d
000003d0: c61e a03d 9246 b0bc 0abc 87bd c16d c53d
000003e0: 78ff 03bd 42e1 88bd 65b5 c9bc 4371 babc
000003f0: fb82 cebd 6837 bebd 2444 a3bd 79ca ecbb
0.095514275 0.021564752 -0.10848866 -0.03104815 0.067349836 0.043036874 -0.012499881 -0.09226354
0.06870926 0.11473268 0.065139614 0.07237592 -0.07800923 0.055289373 0.034664154 0.03812353
-0.05760703 0.03377346 -0.03914732 -0.09839812 0.025155714 -0.036667403 0.042259227 0.038095865
-0.004924127 0.09583321 0.018149259 0.021291869 0.08945733 -0.00063021516 -0.012980234 0.06593036
-0.08842768 -0.09599544 -0.014301769 -0.06375055 0.0048123263 -0.120321594 0.07682571 -0.0034896345
-0.015697218 -0.014601746 -0.023893267 -0.037702672 -0.0063930666 -0.08939428 0.082150795 -0.040309403
0.04986861 0.023295391 0.06396452 -0.101492144 -0.12713617 0.07468345 -0.013869573 -0.07581638
-0.016626684 -0.010301593 0.04538884 -0.052955717 0.042856675 0.12526251 -0.028663378 -0.028543273
-0.15741062 0.0820122 -0.073062345 -0.009828885 0.06027397 0.060644522 0.028828872 0.06873508
0.03517076 0.08857508 0.09028939 0.010482156 0.09170218 0.04466387 -0.04516402 0.049810644
0.098514706 0.08758596 0.06281219 0.1440792 0.015866948 -0.11531656 -0.13599129 0.055059087
0.00546236 -0.08303441 0.07882695 -0.072988756 -0.013361614 -0.033221766 0.07073235 0.06706975
0.06993742 0.09103106 -0.11595439 0.06794353 -0.02992036 -0.009594092 -0.035397362 0.061625253
-0.07522931 -0.07199753 0.10891371 0.05104837 -0.038961515 -0.06936051 -0.09301467 0.029664123
0.10166251 0.06751648 -0.03610448 -0.06434517 -0.08751987 0.007184157 -0.05454839 0.059582476
0.07595652 0.0007342904 -0.05142841 -0.07373244 0.091465116 0.12622832 0.028768517 -0.09245606
0.10470535 -0.0005851838 0.023289943 -0.10406203 0.016413242 -0.008991356 -0.08052106 0.059364043
-0.097434185 -0.011466099 -0.011429571 0.032166485 0.0051500616 -0.053751618 -0.083677195 0.023419864
0.024359759 0.05700612 0.069278665 0.052639958 0.09071665 -0.0017604986 0.018344192 0.111182645
-0.089969344 -0.09994424 -0.065633036 -0.10298017 0.046933353 0.050206505 0.053620547 -0.016730627
0.10056203 -0.10061146 0.053700954 0.029853107 0.10744651 0.07049351 0.07747053 -0.05863374
0.0076079 0.048057027 0.012545177 0.017801855 0.046843655 -0.15218152 -0.09378426 0.03771471
0.02808072 0.015105899 0.069847584 -0.085657515 0.05660368 0.101352744 0.037033483 0.07282042
0.0826998 0.030811533 0.07660925 0.027900245 -0.055268075 -0.08336649 0.058260318 0.017045302
-0.019369157 0.102994226 -0.08875144 0.028268993 -0.09093059 -0.092858754 0.09007353 0.0664873
-0.017413871 -0.040583413 -0.016879719 0.07682238 -0.018107513 -0.10967305 0.06733957 0.008141285
0.088955894 -0.083698 -0.03406055 -0.10365592 -0.14227435 -0.017422942 0.009855351 0.101211235
-0.09180374 -0.063279435 -0.0068553756 -0.05785301 -0.006725805 -0.05838687 -0.0049014506 -0.045687977
-0.07808184 0.0768683 -0.03235302 -0.08143493 -0.03876034 -0.08591866 -0.028214553 0.008746877
0.013335634 -0.10950488 -0.023895636 0.09159222 -0.06572601 0.07560442 0.07843854 0.0036851044
0.07144006 0.036402546 -0.057006367 0.059948824 0.078183696 -0.021518026 -0.066276625 0.096400745
-0.032226056 -0.066835895 -0.024622628 -0.022759086 -0.10083576 -0.09287912 -0.07971981 -0.007226285

crystalGraphConvNet.embedding.bias f4 [64]
00000000: 1711 743d a376 413d 95e3 453d 2e55 c53b
00000010: 563e 613d f98c 143d 6cbe c53c 34a3 15bb
00000020: c81b 403b a7df acbc dc3a 4fbb 8ffe 2fbd
00000030: e74e f73c 2084 d53d 3133 0bb9 6bd7 8c3d
00000040: 8e56 b3bc a094 0a3d 2b01 7a3d 4873 aabc
00000050: 2f23 b5bc 57bc 273d 3856 9f3d 644f 61bc
00000060: 7733 4fbc e697 c2bd 142e b03b ea9b d8bd
00000070: 3c84 bd3d fb52 7b3d b545 57bd 862c 873d
00000080: 8887 5f3d 535b a1bd 9bc8 b03d 08af 76bb
00000090: 776d 5dbd b630 3ebc 8aeb 6b3d eab5 463b
000000a0: 6043 813d bb8b 23bd 0fa4 823d ef1f 84bd
000000b0: 2258 cfbd ab4c 97bd e4fd c03c 3833 8fbd
000000c0: 7af6 3c3d f80e b13c 7f7d 9ebd 0870 b73d
000000d0: 0c2b f03a 0e96 9bbc 1014 4abd d805 493c
000000e0: 84e7 b33d 9d15 9bbd 1892 84bd b493 423d
000000f0: b58e a13d 1a69 c93b 5144 9ebd b9ab d3bc
0.05958661 0.04723228 0.048312742 0.006022117 0.05499109 0.036267255 0.024138652 -0.0022832872
0.0029313434 -0.02110274 -0.0031620776 -0.042967375 0.03018899 0.104255915 -0.00013275143 0.06877025
-0.021891858 0.033833146 0.06103627 -0.020806924 -0.022111503 0.0409511 0.07780117 -0.013751838
-0.0126465475 -0.095016286 0.0053765867 -0.10576613 0.09253737 0.061358433 -0.052556712 0.06600289
0.054572612 -0.07878747 0.086320125 -0.0037640948 -0.054059472 -0.011608293 0.057597674 0.0030320832
0.06311679 -0.03992818 0.06378948 -0.06451403 -0.10124232 -0.0738767 0.023558564 -0.06992191
0.046133496 0.021613583 -0.0773878 0.08956915 0.0018323376 -0.01899245 -0.04933554 0.01226946
0.087843925 -0.07572482 -0.06473178 0.047504142 0.07888547 0.0061465623 -0.07727874 -0.02583872

crystalGraphConvNet.convs.0.fc_full.weight f4 [128, 169]
00000000: 9bfa 133d a1e7 253d 48fd 2e3d d3d1 423d
00000010: 483c 5abd 8dac 6fbc e90c 25bc bbfd 2cbd
00000020: 16e8 abbd 12b9 22bd 6eaa 043d 0677 b6bc
00000030: d7cf 613d 504c a83d 8819 5ebc 7ed0 8e3d
00000040: 7bed 49bd b38f 513d 1fc1 c1bc 1a7a 713d
00000050: 6ba3 063b 074a 4d3d 68a1 aa3c 8551 3f3c
00000060: a62f 56bd db34 c0bc ae6f ff3c a828 10bd
00000070: 9f6b d5bb 23a4 733c 6e2f 69bd 9999 c8bb
00000080: a135 463d 867d a13d 25ed db38 624a 483d
00000090: 5ae8 663d 1e16 9abd 87a6 a8bd 459b ceba
000000a0: 8531 74bd b209 1e3c bc82 a8bc 7666 d7bc
000000b0: bbd4 77bd 955e 26bd 7ecf 913d d01c 61bc
000000c0: c832 b1bd 57c8 82bd b626 633c fc0f caba
000000d0: f8e7 c1bc 8c26 01bd db03 583d 1562 983c
000000e0: 1e1e 963c ba01 1fbd 6b24 b83c 8ddc 613d
000000f0: d372 be3c f03e 9e3d 4c27 9d3d e62a 453d
00000100: e4eb 8b3d ffa8 a0bc 82ce 633d bfbe 9a3d
00000110: de53 e23c 71b9 50bd 10a6 fa3b 2fd5 85bd
00000120: cb11 953d 20e9 0bbd 739a 3a3d 8de1 c5bc
00000130: b76f 493d 9e41 2abd d8a8 89bd e65a 4fbd
00000140: d6b7 dbbb 1a8e 413b de2e 11bd 3721 b0bd
00000150: a619 9ebd cb01 b23d e8a0 1b3d f4b0 c83b
00000160: 19f6 25bd 6086 223d 24d5 973d 749a 05bc
00000170: 2d8e 8d3d cbd9 0dbd 486c 753c 4f9a 86bd
00000180: 379a 85bd 1c8c 29bd 2639 693d cf61 963b
00000190: f545 2abc 28b3 1cbd 369c 4cbd 33c3 94bd
000001a0: be28 a8bc 32a8 7a3d 73f6 613d 7a0d f23c
000001b0: 7126 cbbc 68f1 5fbd a230 4c3d 8fb4 46bd
000001c0: 387f 6bbd 38ed 4abc 842f 1f3d 1fd5 57bd
000001d0: 6ccb 42bc 0449 593d 97d2 b03c 0829 8bbd
000001e0: 714f 9bbd 3adc 3e3c 8ed9 68bd 78f1 1e3d
000001f0: de81 85bd f174 4f3d 93a6 713d 4b2d 653d
00000200: 99b8 81bd 9014 a1bc e451 9a3d 6164 163d
00000210: 4b8c 83bd b1f2 4f3d b34c 0b3d 27dd 7b3d
00000220: 0fb3 02bc a3f7 033d 6448 823d 6a19 233d
00000230: efdf 433d 3dc1 87bd d93b 373d 974c eb3c
00000240: e925 af3c 41a6 d0bc e38f 3cbd 1ce5 b2bd
00000250: aa53 87bd 75e2 113c c4de 423c babf 86bc
00000260: 9942 5ebd 7023 d83c 351c 41bd 6678 1fbd
00000270: 44ba 3c3c c3df 9c3d d9bc 9abd 6e39 c53c
00000280: 8a48 bebc 2dc1 30bd 04ba 01bb d91b ef3c
00000290: 8f6f 963d cf22 043c 28ff 97bd d875 853d
000002a0: b20b 02bb 4958 d0bc 58d3 a3bd 9523 6bbd
000002b0: b6fe bbbc 26ae 1d3d 4ea6 983c dc79 93bc
000002c0: b736 f4bc 258d 553d 719d 38bd fc40 99bd
000002d0: 76cf 7c3c 80f0 1a3d 44a8 45bd c96e 8cbd
000002e0: 5f7e 4e3d dac1 5b3d 40b0 5cbd 4b78 d53a
000002f0: 34b8 483c fc37 8dba f97f 873d 4e1c 0e3d
00000300: dd10 d3bc 9a4d 1b3d 07f9 a03d 4440 85bd
00000310: 6d0c 66bd 7305 083c 1b4e 58bd 2e26 a3bd
00000320: 595b f83c e056 d3bc 61b8 9f3c dd03 4f3d
00000330: cb11 813d 9984 71bd 5e95 3c3d 6bf8 3bbc
00000340: 98d3 d4bc e815 973c 405b 033d 9b10 4cbc
00000350: 8508 05bd 428c dc3b 4834 fabb 81dd 6ebd
00000360: d1e6 8f3d cb0b 3bbd 1727 a9bd 359b 8ebb
00000370: 75ef 3f3d c622 64bd afb9 8d3d a9ed b03a
00000380: 799f 42bd c583 9e3c 44fb 5e3d 5b17 c639
00000390: 6da4 553d 9d01 fd3c 7ac8 4f3b 6223 473d
000003a0: 393b e2bc 3899 83bd ae9d 643d cfbb 48bb
000003b0: b09d 3d3d 1097 d13c 53ec b9bc c5db 5abd
000003c0: a532 1dbc 4500 43bb e37a 3ebd 9b49 3b3d
000003d0: 0ead 243d ee35 593c 0cb6 45bc dbc3 573d
000003e0: 13bf 35bd 9a8c a23c 5f94 a1bc b540 dd3c
000003f0: 0bd8 a8bc 5ab4 ee3c 71f2 78bc 40ea 133c
0.036127668 0.0405041 0.042722017 0.047563385 -0.053280145 -0.014628542 -0.010073879 -0.042234164
-0.08393876 -0.039727278 0.032389097 -0.022273552 0.055129852 0.082176805 -0.013555892 0.069733605
-0.049298745 0.051162433 -0.023651658 0.058954336 0.0020544182 0.050119426 0.020828918 0.011677151
-0.052291535 -0.023462703 0.031181183 -0.035195023 -0.0065130736 0.014870676 -0.056929998 -0.006121826
0.04839099 0.0788527 0.000104869054 0.048899062 0.05637393 -0.0752375 -0.082348876 -0.0015762827
-0.059617538 0.009645866 -0.020570152 -0.026293974 -0.06050561 -0.040617544 0.07119654 -0.01373978
-0.08652264 -0.06385868 0.01386421 -0.0015416141 -0.023670182 -0.0315309 0.05273805 0.018601457
0.018324908 -0.038820006 0.022478303 0.055141974 0.023248112 0.07726848 0.07673511 0.048136614
0.06832102 -0.019611834 0.055616863 0.07555913 0.027627882 -0.0509581 0.0076491907 -0.06534802
0.07278784 -0.034157872 0.04555745 -0.024155403 0.049178805 -0.041566484 -0.067216575 -0.050623797
-0.0067052646 0.0029534162 -0.035445087 -0.08600085 -0.07719736 0.08691748 0.03799525 0.00612461
-0.0405179 0.03967893 0.074137 -0.0081545 0.069118835 -0.03463153 0.01497943 -0.06572401
-0.06523555 -0.041393384 0.056939267 0.0045892964 -0.010392656 -0.038256794 -0.04995366 -0.07263794
-0.02052724 0.06119556 0.055166673 0.029547442 -0.024798604 -0.054673582 0.049851067 -0.048512038
-0.057494372 -0.012385659 0.038863674 -0.052693482 -0.01188932 0.05304815 0.021584792 -0.067949355
-0.075835116 0.011649186 -0.0568481 0.0388045 -0.06518911 0.050648633 0.05899675 0.055951398
-0.06334037 -0.019663125 0.07535151 0.036716823 -0.06423243 0.050768558 0.034008693 0.061490204
-0.007977261 0.032218587 0.06361464 0.03981916 0.04782098 -0.06628654 0.04473481 0.028723044
0.021380382 -0.025469901 -0.04603566 -0.087351054 -0.066077545 0.008904089 0.011893932 -0.016448844
-0.05426273 0.026384085 -0.04714604 -0.03893318 0.011519019 0.07659867 -0.07555551 0.024075236
-0.023227949 -0.043152977 -0.0019794712 0.029188083 0.07345497 0.00806494 -0.07421714 0.065166175
-0.0019843397 -0.025432723 -0.07999295 -0.05740698 -0.022948604 0.03849616 0.018633988 -0.018002443
-0.029811246 0.05213656 -0.045072023 -0.07483098 0.015430322 0.037827015 -0.048256174 -0.06857068
0.050413486 0.053651668 -0.053879023 0.001628646 0.012250949 -0.0010774131 0.06616206 0.034694962
-0.025764877 0.037915803 0.07859998 -0.06506398 -0.056164194 0.00830208 -0.052808862 -0.079662666
0.030316995 -0.025798261 0.019497098 0.050540794 0.06302222 -0.058964346 0.046040885 -0.011472802
-0.025979802 0.018443063 0.032069445 -0.012455131 -0.032478828 0.006730587 -0.007635627 -0.05831671
0.070264466 -0.045665544 -0.08259409 -0.004351998 0.046859223 -0.055697225 0.06920182 0.0013498563
-0.047515366 0.019349942 0.054438844 0.00037782904 0.05215876 0.030884558 0.0031705187 0.048617728
-0.02761613 -0.064257085 0.055814438 -0.003062952 0.04629296 0.025584728 -0.022695696 -0.053432245
-0.009594594 -0.00297548 -0.046503913 0.045724493 0.0402041 0.013257487 -0.012067329 0.052677017
-0.044371676 0.019842435 -0.01972407 0.027008394 -0.02061083 0.029138733 -0.015194521 0.0090280175

crystalGraphConvNet.convs.0.fc_full.bias f4 [128]
00000000: 4d4b 9dbd ce05 843c ecdd 523d 8e38 81bd
00000010: 57cd 4e3d cde8 13bd 1bb1 4e3d bed0 793b
00000020: 8c3b 553d 1662 0b3d 4c18 cfbc 5924 593c
00000030: 7c97 a439 8416 4f3d 0f51 4abc d3fd 0b3d
00000040: 4980 49bb ca28 9cbd aaa1 43bd 8d06 20bc
00000050: 0aeb 203d 7da8 6cbb 2570 0e3c 623c a23c
00000060: 4031 053b 9349 43bd 008c cdbc 2222 a03c
00000070: 8fed d23c d691 74bd 0609 02bd ddb0 6d3b
00000080: 7c83 f23b 18fc da3b ce41 5b3c dfcb fe39
00000090: 9deb 72bd fb8c 103d 68b0 18bc 249f a0bb
000000a0: 3035 77bd c067 103d d523 8ebd a16f e33c
000000b0: cec2 1d3d 76b0 4e3d 0401 12b8 c284 dfbc
000000c0: e2d7 793d 2030 963b 90ec 4aba 4e27 0e3c
000000d0: d998 4a3d e480 873c 2858 983d 5865 1abd
000000e0: 7284 14bd b50e 55bd aaf6 1b3d 9aed 983d
000000f0: 33fd 183d 0654 41bd 6be6 4b3c 928d 353d
00000100: 6740 8c3c 4cc8 a7bc b88e 483d 8e76 933c
00000110: 41bc 7a3d dd49 363d e647 3bba 60f6 4cbd
00000120: ce4d c9bb e08e 30bc d9f8 f03c adee 34bd
00000130: fa45 913d 3f39 483d 87d2 60bb 24b9 72bd
00000140: bb8c f6bc a5af 653d b6c5 31bc 9438 abbc
00000150: d53d 943d 6baf 12bd bffc 97bc 6d37 f43c
00000160: 6d4a 8bbd 9bb0 303d a080 94bd 2cc7 4fbd
00000170: 16cc 80bd b408 903d 3717 853d 8480 6d3d
00000180: baf4 94bc d190 c33c f408 3e3d a9f7 223d
00000190: 1cba 35bd 8401 7abd 8a27 963d 9a91 f73c
000001a0: 1140 d0bc 9467 433d f1bb e23c c65c ea3c
000001b0: dd04 923d e762 31bd bab5 15bd 7f7b 48bd
000001c0: 3c1f 2ebd de1a 9cbd b098 9bbc 64cd f23c
000001d0: 8c19 913d 3aed 863d cfa4 7cbd 1c65 5c3a
000001e0: b37d 8b3b e8d5 96bd f5e6 543a 1551 0e3c
000001f0: 5ac5 cd3c ebb2 91bd cce8 1c3d 792c 43bd
-0.07680378 0.01611605 0.051481172 -0.06309615 0.050488796 -0.036110688 0.05046187 0.0038118805
0.05205874 0.03402909 -0.02528014 0.013253295 0.00031393382 0.050558582 -0.012348427 0.034177613
-0.003074663 -0.076249674 -0.047761597 -0.009767187 0.03928665 -0.003611117 0.0086937295 0.019804183
0.0020323545 -0.047677588 -0.025091171 0.019547526 0.025748042 -0.059709392 -0.031746887 0.0036268749
0.007400928 0.006682884 0.013382388 0.0004859855 -0.05930673 0.0352907 -0.009319402 -0.0049017835
-0.060353458 0.035255194 -0.06940428 0.02776319 0.03851586 0.050461255 -3.481006e-05 -0.027284984
0.060996898 0.0045833737 -0.0007740939 0.008676363 0.049462173 0.016540952 0.074386895 -0.037694305
-0.036259122 -0.05201598 0.038077034 0.07467194 0.037350845 -0.04719927 0.012445073 0.044324465
0.017120553 -0.020481251 0.048964232 0.018000867 0.06121469 0.044504035 -0.00071441976 -0.05003965
-0.0061433082 -0.010776252 0.029415535 -0.04417293 0.07093425 0.04888272 -0.0034305172 -0.059258595
-0.030096402 0.05607571 -0.010850361 -0.020901002 0.07238356 -0.035811823 -0.018553136 0.029811585
-0.06801305 0.043137174 -0.07251096 -0.050727054 -0.06288926 0.0703291 0.064985685 0.05798389
-0.018183101 0.023872765 0.046395257 0.03978697 -0.04436694 -0.0610366 0.0733176 0.030220795
-0.025421174 0.0477062 0.027677508 0.028608691 0.07129834 -0.04330721 -0.03655026 -0.0489459
-0.042510256 -0.07622312 -0.018993706 0.029638954 0.07084951 0.06588216 -0.06168061 0.00084074005
0.004256928 -0.07365018 0.00081215735 0.008686324 0.025118519 -0.07114204 0.03830795 -0.047649834

crystalGraphConvNet.convs.0.bn1.weight f4 [128]
00000000: 255a 7f3f 6054 803f 5d38 803f 18a1 803f
00000010: 6c38 803f 299b 803f 63cd 7f3f 90ce 7f3f
00000020: 024f 803f c7f8 7f3f 8cb5 7f3f f820 813f
00000030: d36b 803f 8be4 7f3f d330 803f 145b 803f
00000040: 0703 803f ddc2 813f 7d6b 7e3f d068 803f
00000050: 8f31 803f 8374 803f 2804 7f3f 933a 7e3f
00000060: 892b 803f 1c67 803f ca24 803f d1d6 7f3f
00000070: 359a 803f bf74 803f ae75 7f3f 2148 803f
00000080: 63a7 7e3f e816 803f feed 803f 2cab 803f
00000090: 0a3f 7f3f 8c1c 803f eb34 7f3f 77ad 803f
000000a0: 29e7 7f3f 651b 803f a238 803f 4e69 7f3f
000000b0: 4497 7e3f a184 7f3f e8cf 7f3f 2033 803f
000000c0: a31d 803f b759 803f 92e5 7f3f c923 803f
000000d0: 11c8 7f3f 0f32 803f ad63 813f d606 803f
000000e0: 6d95 803f fde3 7f3f 4118 803f f5f5 7f3f
000000f0: 02e0 813f 2e2c 803f 31f3 803f 4b70 7f3f
00000100: d7a2 803f bb15 7f3f 12dc 7f3f d0a2 7e3f
00000110: 69c1 7e3f 2333 7f3f c6ac 7f3f 6c0a 803f
00000120: 4e11 803f bbe3 7f3f dbab 7f3f f7d3 7f3f
00000130: 1207 803f 9025 803f 7613 803f 34c0 7e3f
00000140: 961f 7f3f 4147 7d3f 9c10 803f 5ace 7f3f
00000150: 65bb 7f3f 954a 7f3f 2dce 803f 5691 803f
00000160: a72b 803f 00ff 7f3f d3fb 7f3f 3aef 803f
00000170: 3788 7f3f ed13 7d3f d975 803f 0a32 803f
00000180: 56a7 803f cb58 7e3f dd91 803f 21c4 7e3f
00000190: f83d 803f 100b 803f 1133 803f 01e9 803f
000001a0: d969 803f 6aa4 7f3f eea7 7d3f eb48 803f
000001b0: e050 803f d92e 7f3f 9c5a 7f3f 6793 7f3f
000001c0: e866 803f 7514 7f3f 8e35 803f 16a6 803f
000001d0: 5939 803f 9185 7f3f 6f6a 7e3f 0965 803f
000001e0: 3725 7e3f 3ab4 803f 091b 803f 3653 803f
000001f0: 5872 7b3f 6ac1 7f3f fdef 803f 4c0a 803f
0.99746925 1.0025749 1.0017201 1.0049162 1.0017219 1.0047351 0.9992277 0.99924564
1.0024111 0.9998898 0.99886394 1.0088186 1.0032905 0.99958104 1.00149 1.0027795
1.0000924 1.0137593 0.99382764 1.0031986 1.0015124 1.0035557 0.99615717 0.9930813
1.0013286 1.0031466 1.0011227 0.9993716 1.004706 1.0035628 0.9978894 1.0022012
0.9947416 1.000699 1.007263 1.0052238 0.99705565 1.0008712 0.9969012 1.0052937
0.999621 1.000836 1.0017283 0.9977006 0.99449563 0.9981175 0.99926615 1.0015602
1.0009044 1.0027379 0.9995967 1.0010921 0.9991465 1.0015277 1.0108544 1.0002086
1.0045601 0.9995726 1.0007402 0.99984676 1.0146487 1.0013483 1.0074216 0.9978072
1.0049695 0.99642533 0.99945176 0.9946718 0.9951387 0.99687403 0.99873006 1.000318
1.0005281 0.99956864 0.99871606 0.9993281 1.0002158 1.0011463 1.0005939 0.9951203
0.9965757 0.9893685 1.0005069 0.9992424 0.99895316 0.9972318 1.006292 1.0044353
1.0013322 0.99998474 0.9999363 1.0073006 0.9981722 0.9885853 1.0035964 1.0015271
1.0051067 0.9935424 1.0044514 0.9951802 1.0018911 1.0003376 1.0015584 1.0071107
1.0032302 0.9986025 0.99084365 1.0022253 1.0024681 0.9968086 0.99747634 0.99834293
1.0031404 0.9964059 1.0016344 1.0050685 1.0017501 0.9981318 0.99381155 1.0030833
0.99275535 1.0055001 1.000825 1.0025394 0.9822135 0.999045 1.0073239 1.0003142

crystalGraphConvNet.convs.0.bn1.bias f4 [128]
00000000: cf6e 2a3b db9b 4cba c456 b2ba cd2b f8ba
00000010: 559f 49b9 dbf1 0fbb 06bf 4aba a1ac a639
00000020: 8862 8dbb 1158 18ba 818c 80ba dbd9 72bb
00000030: 0d22 89bb 56ad 903a fcac 3aba 1e62 37bb
00000040: fc18 14bb ebc2 10bc 4513 cd3b 5252 8bbb
00000050: 4f7e c9ba a6a8 ab3a 2372 8f3a 5571 b73b
00000060: fe7a 57ba 36e0 e6ba 97d3 d3b9 ba71 dbba
00000070: e2f5 2dbb adfe ad3b e07d 183a 8140 2ab9
00000080: 46d2 8d3b 4489 923b 519d 0dba ea3c 14ba
00000090: c593 923a 3e4e 3d3a 000f 66ba 1917 acbb
000000a0: f275 513a 6788 d039 3fc5 1b3c 93f9 423b
000000b0: eea6 a53a 03de 443b 5ea3 5338 f3ad 71ba
000000c0: fa24 b4b9 9d1c beba b012 57ba b829 16bb
000000d0: d98c 053b ab88 a9ba 16a0 0fbb 88b6 913b
000000e0: 4cef 2aba 922e 9337 a0d0 04ba 475e 973b
000000f0: 0c7d 43bc 76ec 39b7 9b62 30bc 0e62 213b
00000100: 814e 1339 852a 923a bb49 bcb9 e30d 823b
00000110: 6a7f cb3a 77c0 3b3b 7e9d 613a b562 84b9
00000120: 4be3 0dbb 0420 1939 6450 653a 3223 2e3a
00000130: ff86 23ba fcd8 c3b7 f1d7 1c39 f10f b73a
00000140: 29a0 3c3b 7cd9 be3b 85d4 233a 64a1 1539
00000150: 520e 5639 6b92 b63a 918d 1dbb 5912 9cba
00000160: 4f65 fcb8 6f2e bc39 ba97 c4b7 065b 00bb
00000170: 23f3 8939 5a9e a73b ceed 5dba 8ebb 84ba
00000180: 68ac 60bb c5e2 8d3b ff40 d6ba 0666 ad3a
00000190: 17cc 14ba 64b8 5bb9 d72f 2eba c727 a3bb
000001a0: 2a22 92ba 7175 8c3a 5731 4c3b b3bb 7cb8
000001b0: 0511 12ba 7968 f73a e00e 043b 53c7 1f3a
000001c0: 3d27 51bb c74e 893a 3978 52ba ca9c cdba
000001d0: e8fc 0bba 121d a23a 8855 053b f8b9 7fba
000001e0: 80b2 2f3b 62de 60bb b395 73b9 4441 aeba
000001f0: b178 023c 7016 1c3a f3a7 9ebb 6429 63ba
0.0026005988 -0.00078052067 -0.001360618 -0.0018933952 -0.0001922821 -0.0021964225 -0.0007734153 0.00031790606
-0.0043147244 -0.0005811463 -0.0009807498 -0.0037056122 -0.0041849674 0.0011037986 -0.00071211136 -0.0027982066
-0.00225979 -0.008835535 0.0062584006 -0.0042517567 -0.0015372726 0.0013096526 0.001094405 0.005598227
-0.00082199264 -0.0017614427 -0.00040402703 -0.0016742267 -0.0026544263 0.0053099007 0.00058170967 -0.00016236493
0.004328045 0.0044719297 -0.0005402165 -0.0005654829 0.0011182955 0.0007221437 -0.0008776039 -0.005251777
0.00079902925 0.0003977448 0.009507476 0.0029750809 0.001263825 0.0030039556 5.0458468e-05 -0.0009219341
-0.00034359825 -0.0014504377 -0.0008204384 -0.002291305 0.0020378141 -0.0012934407 -0.0021915487 0.0044468082
-0.00065206434 1.7545452e-05 -0.0005066488 0.004619393 -0.011931669 -1.1081915e-05 -0.010765697 0.0024625096
0.00014048257 0.0011151588 -0.00035913088 0.0039689406 0.0015525643 0.0028648654 0.0008606537 -0.00025250544
-0.002165037 0.00014603144 0.0008747636 0.0006642818 -0.00062380725 -2.3346853e-05 0.00014957764 0.0013966543
0.0028781986 0.005824266 0.00062496244 0.0001426987 0.00020413965 0.0013929134 -0.002404068 -0.0011907323
-0.000120351666 0.0003589275 -2.3435674e-05 -0.0019585504 0.00026311827 0.0051153125 -0.00084659166 -0.0010126696
-0.003428245 0.0043300116 -0.0016346275 0.0013229258 -0.0005676164 -0.00020954158 -0.0006644702 -0.004979107
-0.0011149098 0.0010716153 0.0031157339 -6.025629e-05 -0.0005571994 0.001887574 0.0020150468 0.000609507
-0.0031914257 0.0010475748 -0.0008028779 -0.0015686986 -0.0005340115 0.0012368283 0.002034517 -0.00097551895
0.0026809275 -0.0034312238 -0.00023230053 -0.0013294597 0.007963345 0.0005954271 -0.0048417985 -0.00086655305

crystalGraphConvNet.convs.0.bn1.running_mean f4 [128]
00000000: 96ca c9bc 109c fe3d 2f0c 683d 9578 1fbd
00000010: d205 6d3e 7585 44be 9006 d93d f55a e2bd
00000020: 44ae 213e b5b3 9ebd 019c f13d eef7 123d
00000030: 4c5b 503c f6af cbbd 1e14 74be df13 db3c
00000040: 5221 f8bd 2e6c 05be cafa 02be f4ce e83c
00000050: c346 1d3c cac2 7fbd d8da bc3d 5414 8ebd
00000060: 357c a53d 68ca 48bd 36ad 083e f50a de3d
00000070: 4ee5 203e 500a 103e 4960 4ebe 78b4 f0bd
00000080: 1c14 2ebe ae34 e83d 02c4 15be 7b13 c43d
00000090: 6429 5cbd fad3 85bd 1c04 963e 5bb4 4b3d
000000a0: d3af 163e df48 ef3d f439 17bd b62a c03d
000000b0: 34dd ec3d b6af f7bb 6b36 a7bd 3900 e8bd
000000c0: c776 bdbc 989b 093e 55b9 2a3d 5ab3 923b
000000d0: 1459 fb3d 439e 4a3c 6c87 c8ba f468 1f3d
000000e0: 4af2 4b3e 5d85 43bd 3e0a 62bc a4a3 1e3e
000000f0: 906a 7e3e 4232 9abd 5b2d 8b3d 7733 1f3e
00000100: 880c bebc 5ced 503d 1cf0 ab3d 3dd8 39be
00000110: de29 de3d 606d 0f3e 56cf 153e 5153 e9bd
00000120: 912a 0b3e 6eee 363d a490 883d 001f c93c
00000130: 8fe0 0b3e 5cd9 fbbd 1354 52be 2503 9d3d
00000140: 2962 1dbe adcc b23e 1365 083d 9cb7 ad3d
00000150: 2896 153d e782 7f3b 0442 043d 621e 9f3d
00000160: 54ab 183d 36cd 82bd 998a 36bd 7d24 e73d
00000170: 7e07 d03d 5a95 bd3e 6403 753d a517 4f3e
00000180: fcf6 963d 8a53 a43e dbbc 5c3d e095 623e
00000190: d396 d73d f4d8 73bd 4a91 683e bb00 e7bc
000001a0: 96d7 27bb a719 e83d e097 a33e ca78 4e3e
000001b0: 4e3e 903d 3f5b 793d cbae febd ce99 1ebe
000001c0: 1c7c 90bd 07b2 173e 33a8 e23d f362 a43d
000001d0: 6970 963e 8c52 043e 140e 443e 291f 243d
000001e0: 83c2 013e 569b 20be 3f94 cd3d 2214 293e
000001f0: a453 dabd 71f5 193d ccf4 d0bd 95e5 f73d
-0.024632733 0.1243211 0.056652244 -0.038933355 0.23146752 -0.19191535 0.10596955 -0.11052505
0.15789133 -0.0774912 0.117973335 0.035880975 0.012717079 -0.09945671 -0.23835799 0.026742874
-0.1211573 -0.13029549 -0.12790981 0.028418995 0.00959939 -0.062441625 0.09221429 -0.06937471
0.08080331 -0.049021155 0.13347325 0.10841934 0.15712473 0.14066434 -0.20153917 -0.11753172
-0.16999859 0.11338173 -0.14625552 0.09574028 -0.05375041 -0.06534572 0.2930001 0.049732547
0.14715509 0.11683821 -0.036920503 0.093831465 0.11565629 -0.007558788 -0.08164676 -0.113281675
-0.023127927 0.1343826 0.041680653 0.004476947 0.1227285 0.012366834 -0.0015299148 0.03891845
0.19916645 -0.047734607 -0.013796387 0.15492111 0.24845338 -0.07529117 0.0679576 0.15546976
-0.023199335 0.051007614 0.083954066 -0.18148895 0.10847829 0.14006567 0.14629874 -0.113928445
0.13590457 0.044660978 0.06668213 0.024550915 0.13659881 -0.122973174 -0.20539884 0.076666154
-0.15369476 0.3492178 0.033299517 0.08482286 0.036520153 0.0038987936 0.03228952 0.07769467
0.037272766 -0.06386797 -0.04456577 0.112862565 0.10157679 0.3702801 0.059817687 0.20223863
0.07371327 0.32094985 0.053891044 0.22127485 0.10526814 -0.059533074 0.22711673 -0.02819859
-0.0025610677 0.11333018 0.3195181 0.20163265 0.07043134 0.060878035 -0.12435683 -0.1548836
-0.07054922 0.14814006 0.11067238 0.080266856 0.29382637 0.12922114 0.19145995 0.04006878
0.12671857 -0.15684256 0.10038041 0.16511586 -0.106604844 0.037587587 -0.10202941 0.12104336

crystalGraphConvNet.convs.0.bn1.running_var f4 [128]
00000000: 5d88 dd3c 48a6 c83c 451e d03b 67f3 cb3c
00000010: d049 2a3d 370a cc3c ec02 af3c 61b0 ae3c
00000020: bbbb c23c 60d8 893c fca0 bc3d 0e36 453c
00000030: e4ba 843c 0433 ee3c ba03 b83d 8dfa 363c
00000040: 9f91 0c3d be11 a43c 5783 613c 02c3 833c
00000050: 3833 1d3c c609 293c b24c 003d bcda 643c
00000060: 79fd f03c 13fd 783c 4c25 a03c 1186 3e3c
00000070: fa29 c83c 97b2 fb3d db4d bf3c 0f19 e73c
00000080: eaf2 793d 135c 8c3d b331 543c 4949 a83c
00000090: e217 b63c c2af ba3c e571 773d 3ac7 693c
000000a0: 56e8 3b3d 6f37 463c b05c b83c a1ab 793c
000000b0: 5d55 9c3c a264 cb3c 9abd 553c a46d 933c
000000c0: 6fd6 1f3c e20e 893c ec13 c83c 3b59 9e3c
000000d0: 1f37 c83c c000 843c 0460 e53c 7c1b 6c3c
000000e0: d4f8 bc3d 03e1 c73c 4c99 413c 2978 bf3c
000000f0: 030b fd3d 5094 103c e5b1 bf3c 9810 bb3c
00000100: 2c45 a13c 2557 043d d59f 9a3c 106c 893d
00000110: 2ead 053d 8654 433d ac07 fe3c b9bb f83c
00000120: b395 683d ed2a 7d3c 4540 e33d 0f1f 0a3d
00000130: 1699 063d c84e 393d 47e8 d53d 4480 523d
00000140: 055d 393d 55a7 df3d 30fd 283d 2eec 483d
00000150: 28dc 1e3d 4ca3 693c b6df 7f3c ef22 153d
00000160: aa98 1a3d 326a fe3c 710a bb3c fe1a 253d
00000170: 85e0 333d 0026 943e cf98 433c be13 fa3c
00000180: 0e68 c93c 4bd5 363e ddca 5f3c 163e 793d
00000190: 3fdd 4a3d f78a f53c f88e cd3d 0e32 833c
000001a0: 0451 c73c 128b b93c 4d5e 213e e9aa 023d
000001b0: e69e 893c 8df0 da3c a23d d23c 34bb b13c
000001c0: 422a 3c3c 33fc a73d 446a d53c cfb4 053d
000001d0: 94be 2f3d fe71 943c 7fb1 9d3d c224 323d
000001e0: 6af3 923d 8c5e 573c 2f9e 5d3c c3fe 8a3d
000001f0: b866 773d 1541 283d 6833 b43c 0bb0 583d
0.027042562 0.024493352 0.0063512647 0.024896337 0.0415743 0.024907215 0.021363698 0.021324338
0.023771157 0.016826808 0.09210393 0.012036813 0.016202398 0.02907706 0.08985086 0.011168134
0.034318563 0.020027991 0.013764224 0.016084198 0.009594731 0.010317272 0.031323142 0.013968166
0.02941774 0.015197056 0.019549035 0.011628644 0.024434078 0.12289923 0.023352554 0.028210191
0.061022677 0.06853499 0.012951302 0.020542758 0.022228185 0.022788886 0.060411353 0.014268691
0.04587587 0.012098177 0.022505134 0.015238673 0.019083673 0.024828259 0.013045693 0.017996617
0.009755715 0.01673073 0.024423562 0.019329658 0.024440346 0.016113639 0.027999885 0.01441085
0.09227148 0.024399286 0.011816334 0.023372727 0.12355616 0.008824423 0.023400256 0.022835061
0.019686304 0.03230967 0.018875042 0.067100644 0.03263586 0.04768803 0.031009518 0.03036295
0.05678339 0.015452129 0.11096243 0.033721026 0.032860838 0.045241147 0.10444694 0.051391855
0.045254726 0.10920588 0.041257083 0.049053364 0.038784176 0.014260124 0.015617302 0.03641027
0.037743248 0.031056497 0.022832127 0.040308945 0.04391529 0.28935242 0.011938288 0.030526992
0.02458575 0.17854802 0.013659206 0.060850225 0.049527403 0.02997349 0.10037035 0.016015079
0.024330623 0.022649322 0.15758629 0.031901274 0.016799401 0.026726032 0.025664154 0.02169571
0.011484684 0.082024 0.026051648 0.032643136 0.04290636 0.018120762 0.0769987 0.043492086
0.07175334 0.0131451 0.013526483 0.06786873 0.060400695 0.041077692 0.021997169 0.052902263

crystalGraphConvNet.convs.0.bn2.weight f4 [64]
00000000: c258 7f3f c081 7f3f 3250 803f 4f70 7b3f
00000010: 752f 7d3f 02c9 833f c494 7e3f f92f 7f3f
00000020: a9c1 833f f97f 7f3f e0c7 793f 7db9 813f
00000030: 0960 813f 9ad1 823f a71a 813f ce74 813f
00000040: 77e9 793f 0104 7c3f b616 793f bb0c 7f3f
00000050: 1dad 803f f665 803f 2aac 823f 32ef 7c3f
00000060: 8c26 7f3f 9866 803f 11dd 7d3f cbf8 803f
00000070: 589e 7e3f d94f 713f 1b28 7d3f aded 803f
00000080: 54cb 803f f788 753f af56 853f cb51 7e3f
00000090: ed03 7e3f 928c 7b3f f778 803f 85ca 843f
000000a0: ef8b 813f 068b 803f 4fcf 703f 6d73 7e3f
000000b0: a65f 803f d93a 7c3f d0d4 7e3f 48ce 7e3f
000000c0: d657 813f 893b 803f 28ed 803f ab18 803f
000000d0: a095 7e3f f8ce 7d3f e502 813f 8410 7b3f
000000e0: 3923 7d3f 62ad 823f 5606 7f3f d289 7d3f
000000f0: 0fc3 713f 765b 803f 2c10 863f 7048 7e3f
0.9974481 0.9980736 1.0024474 0.98218244 0.9890054 1.0295718 0.9944575 0.99682575
1.0293475 0.99804646 0.9757061 1.0134732 1.0107433 1.0220215 1.0086259 1.0113771
0.97621864 0.9844361 0.9730028 0.996288 1.005283 1.0031116 1.020879 0.98802483
0.9966819 1.0031309 0.99165446 1.0075926 0.99460363 0.9426246 0.9888932 1.0072533
1.0062051 0.95912117 1.0417079 0.99343556 0.9922474 0.9826137 1.0036916 1.0374304
1.0120829 1.0042427 0.9406633 0.99394876 1.002919 0.98527294 0.99543476 0.9953351
1.010493 1.0018169 1.0072374 1.0007528 0.9944706 0.99143934 1.0079008 0.98072076
0.9888187 1.0209162 0.9961904 0.9903842 0.9443826 1.0027912 1.0473685 0.9932928

crystalGraphConvNet.convs.0.bn2.bias f4 [64]
00000000: df34 9bbb 04bc a7bb 38b0 acba 9d3b 18bc
00000010: 1d8a 8cbc ee84 463c 41b4 29bc 56ed d7bb
00000020: 5b16 7f3c 65c2 abbb ccb9 bcbb 6840 98bb
00000030: 302f ec3b 8815 503c 04a9 e43b 7a6f cabb
00000040: 13be 97bc 896f 25bc bd31 c7bb 7a0b 58bb
00000050: 48c1 cc3b 698c c8ba eaa1 1d3c b6cd 093a
00000060: d246 d6bb 92f8 9eba 378a 4bbc 687a e2bb
00000070: a03f e8bb 3bd8 a9bc 9dc8 36bb bbb7 44bc
00000080: 3fa7 43bb 3c37 1cbc 9724 0d3c 24a0 3ebc
00000090: 51e1 3cbc 8cda 6fbc ac12 0fbb 571c de3b
000000a0: ac81 403c a4dc 103b 8a14 bebc a758 5dbb
000000b0: eb09 e3bb dae0 65bb 4dcc 34bb ea7c 12bc
000000c0: 8ae6 59bb e21b 613b f427 4a3b 01f8 20bc
000000d0: 4958 f3bb 6524 e1bb bf14 803b f9d2 e3bb
000000e0: 0551 2ebb 70f6 bbb9 7204 bcba 7604 afbb
000000f0: 2a21 a0bc be0c 1f3c 732e 22b9 4d37 a73b
-0.0047365273 -0.0051188488 -0.0013175076 -0.009291557 -0.017155701 0.012116654 -0.010357917 -0.006589572
0.015569295 -0.0052416795 -0.0057594534 -0.0046463497 0.0072077736 0.012700446 0.006978156 -0.00617784
-0.018523252 -0.010097393 -0.0060789273 -0.0032965825 0.006248627 -0.0015300635 0.009621123 0.00052567886
-0.006539204 -0.0012128523 -0.01242309 -0.0069115646 -0.007087663 -0.02073299 -0.002789057 -0.012006695
-0.0029854325 -0.009534653 0.008614681 -0.01163486 -0.011528329 -0.014639508 -0.0021831198 0.0067782807
0.011749666 0.0022104168 -0.023203153 -0.0033774765 -0.0069286725 -0.003507665 -0.0027587593 -0.008940915
-0.0033248984 0.0034348895 0.0030846568 -0.009824754 -0.007426296 -0.0068707936 0.003908723 -0.00695264
-0.0026598584 -0.0003585103 -0.0014344587 -0.005341108 -0.019547064 0.009707628 -0.00015466828 0.005103028

crystalGraphConvNet.convs.0.bn2.running_mean f4 [64]
00000000: de69 b040 a4d9 ae40 ae03 9f40 7194 a440
00000010: 1482 b040 d67c 9240 dd49 a440 aef7 ba40
00000020: b946 b440 4b13 9540 c5ac bc40 76c9 b040
00000030: ba5e a040 3ed4 b140 88cd bf40 ac24 b740
00000040: 3d39 b940 1b8a 9b40 1011 9040 77ea a240
00000050: bf17 a340 e2f5 a740 e228 b040 a691 8e40
00000060: cce5 ad40 b907 a040 8fca b640 7eea 9740
00000070: 5a95 b340 b5ba c240 ff48 9b40 5360 8d40
00000080: b054 9640 e337 bf40 9458 a040 b09d a540
00000090: 2272 af40 bdfa a440 6f3d c240 5852 9240
000000a0: 26b7 a640 39ff a540 c66a b340 3670 aa40
000000b0: 0a11 a640 2ed4 a840 923e aa40 02ee b040
000000c0: 4366 9d40 e214 bb40 7521 b540 a0b9 8c40
000000d0: 06fb a640 9d5d 9640 61d9 8940 a579 b140
000000e0: 4c61 c140 6864 a940 8548 9a40 9edd ae40
000000f0: 800e a040 002f a640 6f01 9140 bf16 b240
5.5129232 5.4640675 4.969199 5.1431203 5.5158787 4.577739 5.1340165 5.8427343
5.633633 4.658605 5.89609 5.5245924 5.0115633 5.5571585 5.9938393 5.7232265
5.788237 4.8606086 4.502083 5.091121 5.0966487 5.248765 5.5049906 4.4552794
5.4343014 5.0009427 5.7122264 4.7473745 5.6119814 6.0852914 4.8526607 4.4180083
4.697838 5.975572 5.0108128 5.175499 5.482682 5.1556077 6.069999 4.5725517
5.209857 5.187405 5.606784 5.3261976 5.18958 5.275901 5.320138 5.5290537
4.918733 5.846299 5.660334 4.3976593 5.2181425 4.6989274 4.3077855 5.546099
6.043127 5.2935066 4.8213525 5.464553 5.00177 5.1932373 4.531425 5.5652766

crystalGraphConvNet.convs.0.bn2.running_var f4 [64]
00000000: beca f641 52fd 7341 7d70 1341 f54e 8541
00000010: 229a 8441 d98a cf40 a16e bc40 1eab e741
00000020: 133b a541 a72b a640 806b 4641 00e6 6441
00000030: 3921 1241 2a07 a841 8831 d441 55af 9a41
00000040: 8985 e641 993a 3241 3229 de40 cb6e 3d41
00000050: 628d a041 c613 5b41 f4eb 5341 2137 d140
00000060: f872 9a41 c82a 9541 2871 9241 77d0 db40
00000070: d829 8841 eb39 9b41 777d 4e41 7524 8040
00000080: f5e1 aa40 c66d b841 e7cb 3e41 9e70 6341
00000090: 44c4 8c41 c93e 3b41 7b2b 6a41 9f93 e340
000000a0: 63a1 7441 4eea 3f41 c926 4441 2081 7141
000000b0: 2467 7041 2adf 8c41 1334 bc41 6137 6e41
000000c0: b13a 3b41 f8c0 b141 5dba 3941 d950 b540
000000d0: 0aa0 5141 399c b840 52ff 9740 1437 8141
000000e0: 637f 2441 3cad 8941 81a5 0c41 ceec ff40
000000f0: 35cf 5c41 b016 e040 c58f d440 93d9 2f41
30.848995 15.249346 9.214963 16.663553 16.57526 6.485699 5.8885045 28.958553
20.653845 5.1928287 12.401245 14.306152 9.133111 21.003498 26.524185 19.335611
28.815203 11.139306 6.9425287 11.839549 20.069035 13.6923275 13.245106 6.5379796
19.306137 18.64589 18.305252 6.8691974 17.020432 19.40328 12.905631 4.0044503
5.3400826 23.0536 11.924781 14.214994 17.595833 11.702828 14.635615 7.11177
15.289401 11.994703 12.259469 15.094025 15.025181 17.608967 23.525427 14.88852
11.701829 22.219223 11.607999 5.666119 13.101572 5.76907 4.749917 16.151894
10.2811 17.209587 8.790406 7.997657 13.800588 7.0027695 6.64255 10.990619

crystalGraphConvNet.convs.1.fc_full.weight f4 [128, 169]
00000000: 329a 4f3d 05f8 97bc f5ae bebc 0913 b03c
00000010: f6a3 82bc becd 503d 0dcf 263d 9316 54bd
00000020: 73d3 863d 76fc 0a3c 9b21 a8bb f3f2 81bd
00000030: b43e 20bd b668 3cbd 5ee8 cd3c dccd 41bc
00000040: eb38 963d fa1d d8bc 2af2 9ebc d4ab 8f3d
00000050: ebae 7ebd f5d7 98bd 544b 5ebc 0902 1dbc
00000060: e39b 773c a264 ea3c 6a63 543d 5115 9dbd
00000070: 442f 9cbd 336c 1e3d e558 9bbc 36a0 15bd
00000080: 4f9b ddbc f30b e3bc b873 d6bb a9ab 833d
00000090: 30f2 8a3d 0e90 5dbd 2dca 97b9 2ceb 2abd
000000a0: 48ad 07bd acc6 23bd 9caf 5fbd ac84 12bd
000000b0: acf7 fe3c d8c3 ce3c 53d2 99bd 2fa9 8b3d
000000c0: b94a 983b 274a 24bd e5b6 9e3c 3185 2b3c
000000d0: 12aa f53c 6c88 6f3b 5317 69bd 7a52 02bd
000000e0: ef5a 79bb 16a5 83bd e19a 393d a20d 59bd
000000f0: 1e19 433d 5176 50bd b1fc 8ebd e868 ebbc
00000100: 8ae0 06bd 0a73 c33c eaff 703d fc53 873a
00000110: 74dc 0ebd 4556 8b3d 15ae c8bb 34a8 47bd
00000120: dd0e 04bd 0763 9abd 22c4 0b3d 8734 1dbc
00000130: f527 a7bd 158f 183d 93ec 2f3d 9673 a2bd
00000140: e31c ae3c 3c94 2ebd d1ed 183c d874 ef3b
00000150: d4bc ecbb 40f9 d4bc 0f7e 793d 98ee 33bc
00000160: 3416 abbb 5605 333d 4295 513d 2434 5dbd
00000170: 1200 7abd dcaf 26bd 95ed 73bd b7aa a23d
00000180: 3712 823d f7b4 6ebd 8ea6 2f3d b9fe 783d
00000190: b296 6a3d d295 983d bdf2 e53c 3e33 e3bc
000001a0: d856 01bd 455e 093d 6173 493d 4915 00b9
000001b0: 619a 303d 711d d03c 846b e43b e3e8 bfbc
000001c0: eff7 37bd 7ced d3bc c987 603d 2783 913d
000001d0: 6701 39bd 111a 9a3d 8a29 463d 3c78 03ba
000001e0: 9506 d43c 1bcb 4b3d 8abc e23c b29b 88bc
000001f0: d8d6 663a d937 883d 7bf1 263d 24fa 48bd
00000200: 8d76 20bd b68a 05bd d980 873d 68d3 743d
00000210: c701 4f3d f62b 72bd b2af 5abd b3b3 70bd
00000220: d2ed 5bbd 7634 80bc 2825 8abd b217 953d
00000230: 64bf 4fbd 2289 95bc ccf7 98bd 7ff7 8abd
00000240: 0914 033d 020a 233d 4867 8abc 7a7c 8cbc
00000250: b7de 943d f13a 4bbc d4f2 3b3d 917f 96bd
00000260: 48bb 553d 7294 92bc c668 6e3d 4613 393c
00000270: eed2 bfbc 617e 8e3d 8ee6 4d3c 7e34 21bd
00000280: adc0 363d a165 30bb 8a4f b6bc 489f 38bd
00000290: 2d05 dfbc 1e26 e83c bc15 4abc 63d3 273b
000002a0: 97e5 2bbd b978 8dbd b521 1f3d 6bb4 28bd
000002b0: 8b25 84bd efe2 9539 f224 06bd 995f 6bbd
000002c0: c82c 473d bcbe 28bd 608a 43bd ee60 48bd
000002d0: 47ed 883c d306 84bd 3bb8 ab3d 9ba7 94bd
000002e0: e89e bb3d a66c 7fbd f346 4fbc d428 bbbd
000002f0: 9c38 8ebc 441f 68bd 01b9 f63c 2597 05bc
00000300: f74a 913d 980f 0bbc afee 963d e44a de3c
00000310: 4b12 aebc d3b3 8ebd 7f9b 3f3d ea16 fcbc
00000320: 44b6 69bd f4c7 313d 5eb6 25bd 4deb a13c
00000330: 9e3a 63bd 902d d5bb d69e c33c b7a3 133d
00000340: 990f 81bd 1a9f fcbc b141 98bd 5a72 833d
00000350: 2f71 8f3a a27f 9dbc 5b82 0abd a5d3 f0bb
00000360: 30b7 623c f6a6 e93c bb8b 0a3d bf54 48bc
00000370: 5897 38bc 309a 6d3d 01f6 bebc 1716 34bb
00000380: 2111 8abc 6d2e 023d 16c9 bb3d cc25 7b3d
00000390: b8e2 153d 4279 12bd 7265 58bd 74e5 863c
000003a0: ec81 353d 8b8d 73bd 2b3a 523d daf8 2c3d
000003b0: 8d7e 2ebd 4390 98bc a913 1a3d 0817 a03d
000003c0: aefd 57bb a249 92bd cdb8 7e3d 9dc1 2d3d
000003d0: cef6 ac3c b963 333c db5d 9b3c 3a77 7a3d
000003e0: 52cc 7e3d 06d7 1bbd 12c7 f03c c878 7abd
000003f0: c257 153d 6521 49bd 8b03 23bb 2ce4 38bd
0.05068416 -0.018550882 -0.023276785 0.021493452 -0.015947323 0.05097746 0.040724803 -0.05177934
0.065832995 0.008483043 -0.005130959 -0.06345167 -0.0391223 -0.045998298 0.025135215 -0.011828866
0.07335075 -0.026381481 -0.019402582 0.070151955 -0.062178534 -0.074630655 -0.013567764 -0.009583005
0.01511285 0.028612439 0.05185262 -0.076700814 -0.07626203 0.038677406 -0.018963287 -0.036529742
-0.027051596 -0.027715659 -0.0065445565 0.06429226 0.06784475 -0.05409246 -0.00028951597 -0.041728184
-0.03312424 -0.03998439 -0.054610834 -0.035771057 0.031123959 0.02523987 -0.07510819 0.068193786
0.0046475795 -0.04010978 0.01937432 0.010468767 0.029988322 0.003654982 -0.05690701 -0.031816937
-0.0038048585 -0.06427972 0.04531372 -0.052991517 0.047631375 -0.050894085 -0.06981791 -0.028736547
-0.03292898 0.023858566 0.05883781 0.0010324712 -0.03487821 0.06803564 -0.006124268 -0.048744395
-0.032240737 -0.07538419 0.034122594 -0.009595043 -0.08161918 0.03724583 0.042950224 -0.079322025
0.021254009 -0.042621836 0.009334044 0.00730763 -0.0072246585 -0.025997758 0.060911234 -0.010982178
-0.0052211527 0.04370626 0.051167734 -0.054004803 -0.061035223 -0.040695056 -0.059552748 0.079427175
0.063511305 -0.05827805 0.04288345 0.060789797 0.05727262 0.07450451 0.028069848 -0.027734395
-0.03157696 0.033537168 0.0491823 -0.0001221496 0.043115977 0.025404664 0.0069708247 -0.023426479
-0.044914182 -0.025870077 0.054816995 0.071050934 -0.045167353 0.07524503 0.04837946 -0.000501517
0.025882045 0.049754243 0.027677793 -0.016675804 0.0008805818 0.06651277 0.040757637 -0.049066678
-0.03917556 -0.03260299 0.066163726 0.059771925 0.050538804 -0.059123956 -0.053390212 -0.058765125
-0.0536936 -0.015650015 -0.06745368 0.0727991 -0.050719634 -0.018253867 -0.074691385 -0.067854874
0.03200153 0.039804466 -0.016894951 -0.017149199 0.07269042 -0.012404189 0.045885876 -0.0734855
0.05218056 -0.01789305 0.05820539 0.011296099 -0.023416009 0.069576986 0.012567176 -0.0393567
0.044617344 -0.0026916044 -0.022254724 -0.045073777 -0.027224148 0.028338488 -0.012334283 0.0025608174
-0.041967 -0.06907792 0.038850505 -0.041187685 -0.06452473 0.00028588573 -0.032750078 -0.057464216
0.04862669 -0.041197523 -0.047739387 -0.048920564 0.016714705 -0.06446614 0.083847485 -0.07258531
0.09161168 -0.062359475 -0.012651193 -0.09138647 -0.017360978 -0.056670442 0.030117514 -0.008153711
0.070943765 -0.008487605 0.07369744 0.02713532 -0.021248957 -0.069678925 0.046779152 -0.030772645
-0.057058588 0.04340358 -0.040457122 0.01976552 -0.055475824 -0.0065056756 0.02387945 0.036044803
-0.06301803 -0.030837584 -0.07434405 0.06418295 0.0010943766 -0.0192259 -0.033815723 -0.0073494487
0.013837621 0.028521996 0.033824664 -0.012227236 -0.011266552 0.058008373 -0.023310663 -0.0027478987
-0.01685387 0.031782556 0.091692135 0.061315343 0.03659317 -0.03576017 -0.05283112 0.016466834
0.044313356 -0.059461158 0.051325005 0.04222951 -0.042601157 -0.018623477 0.037616406 0.07816893
-0.0032957601 -0.071429506 0.06218796 0.042420972 0.02111378 0.010949069 0.018965652 0.06114886
0.062206574 -0.03804686 0.0293918 -0.061150342 0.036460645 -0.049104113 -0.0024873938 -0.045139477

crystalGraphConvNet.convs.1.fc_full.bias f4 [128]
00000000: 2a9e 653d d38f 393c 541b 06bc 41d2 59bd
00000010: 1903 e93c 1347 b0bc aeab 3abc 5e33 b8bc
00000020: bb6a e3bc 54d7 90bd a6bf 823d 00e2 9d3c
00000030: 196f c73c 5f35 b8bc d480 79bd 915e b33b
00000040: daa0 84bd d09c 443c 679a 6c3b 2df6 c3bb
00000050: bc35 6b3d af60 37bb eecd 8bbd 7841 993d
00000060: ad0c c23c 970d 86bc 125f a0bc afb0 0dbd
00000070: 0d4b 8fbd 4511 523d 6dd3 8d3c a05a 00bd
00000080: 46df 26bb 3664 a23c 2eda 183a 64b7 6bbd
00000090: b474 163d 092c 99bd 8d2e 783d 099f c1bc
000000a0: 63d3 183d 32f4 253d 4dd9 ddbc 6aab 853d
000000b0: 5299 283d 5bba 953c 540e b7bc 6da1 833c
000000c0: f23c 513d 554b e4bb 6577 67bd 3ef5 27bd
000000d0: 4e19 a7bc ffb6 a8bc ae37 b43c 6082 893c
000000e0: 63dc 4e3d 1730 5cbc 33f6 81bd 5754 4ebd
000000f0: 0acf 1c3d 0c49 f53c 8afe b7bc 4531 a1bc
00000100: 4e24 a7bc cd91 fc3c f776 733d cd48 433c
00000110: 86c5 7f3c 455a 003d 81d0 a2ba 7624 0a3d
00000120: ce2f 2c3d 8d30 3dbc 51e5 d83c cf3f 8abd
00000130: b462 7f3c 44d2 de3c 2fb1 343c 8d44 0f3c
00000140: e23a 2c3d ca69 4ebd afbf 9a3d c32e 41bd
00000150: 7a83 89bd 599a 643d d3cc 24bc 3f91 85bd
00000160: e2c3 913d dca9 eebc 1780 71bc 9ed3 263d
00000170: 689f 803d 630e 93bd 9c34 523d 7f13 033c
00000180: 1c21 93bc 5cac 323d 6b7c afba 53b4 2dbc
00000190: 391c 8a3b 5259 053d 4cf4 b03c c7fe 4dbd
000001a0: d011 6d3c a41f 0bbd 38c2 eb3c b17f ca3b
000001b0: cdde 7c3c baa8 703c 9729 1ebd 5478 163d
000001c0: ce6b 98bb a33f 5c3d 3723 39bd de01 103c
000001d0: aafa 95bd af3a eabc 5b26 153d 0158 2dbd
000001e0: 573a e5bc f96a fd3c 004d 9bbd 39b9 4dbd
000001f0: e38d 8f3d 6ad0 8a3d b29c 8b3d 814f 723d
0.05605904 0.011325794 -0.0081852265 -0.05317903 0.02844386 -0.021518266 -0.011393471 -0.022485431
-0.027760854 -0.070723206 0.0638421 0.019272804 0.024344968 -0.022486387 -0.060913876 0.0054739197
-0.064759925 0.012000278 0.0036102773 -0.005980274 0.057424292 -0.0027981212 -0.06826387 0.0748319
0.023687685 -0.016363902 -0.019576583 -0.034592327 -0.06996737 0.051286 0.01731273 -0.031336427
-0.0025462671 0.019823175 0.0005830851 -0.05754794 0.03673239 -0.07479102 0.06059127 -0.023635404
0.03731097 0.040516086 -0.027081156 0.06526835 0.041161843 0.018277338 -0.0223457 0.016068185
0.051083513 -0.006966988 -0.056510348 -0.041005366 -0.020397808 -0.020595072 0.021999206 0.0167858
0.050503146 -0.0134392 -0.06345787 -0.0503734 0.038283385 0.029942058 -0.02246024 -0.019676814
-0.020403054 0.030831242 0.059439626 0.0119192125 0.015611058 0.031336088 -0.0012421758 0.033726178
0.042037778 -0.01154722 0.026476534 -0.06750452 0.0155874975 0.027199872 0.011028572 0.008744371
0.042048343 -0.050393857 0.07556092 -0.047163736 -0.0671453 0.05581126 -0.0100585995 -0.06521844
0.0711744 -0.02913373 -0.014740012 0.040729158 0.06280404 -0.071804784 0.051319703 0.008000254
-0.017960124 0.043621406 -0.001338852 -0.010602075 0.00421479 0.032555886 0.021600865 -0.050291803
0.014469579 -0.03396572 0.028779134 0.006179773 0.015433979 0.014688665 -0.038613882 0.036735848
-0.004651523 0.053771626 -0.0451996 0.008789508 -0.07323201 -0.028592436 0.03641353 -0.042320255
-0.02798192 0.030934798 -0.07583046 -0.05022547 0.070094846 0.06778033 0.06816997 0.059157852

crystalGraphConvNet.convs.1.bn1.weight f4 [128]
00000000: 33f5 7f3f 44c7 7e3f c94d 803f c801 803f
00000010: 9ec0 7f3f 41e8 803f 712f 803f d1a6 7f3f
00000020: 02cb 803f cf5c 803f d38f 7f3f fc2a 803f
00000030: 6c3e 803f 4221 803f 0a93 7e3f 4031 803f
00000040: f918 803f 25f0 7f3f 0423 803f 8029 803f
00000050: b68a 803f 644d 7f3f 79a1 7f3f 27f1 7f3f
00000060: 35c4 7f3f cc49 7f3f cac1 7f3f 9a05 7f3f
00000070: f674 803f 5734 803f 803f 803f 31f5 7f3f
00000080: 6613 803f 4d6a 803f a037 803f 6a46 803f
00000090: 4f43 803f a228 803f 2c6e 803f 07b6 7f3f
000000a0: 4712 803f 783e 803f 396a 803f 6359 803f
000000b0: a703 803f bc93 803f 9cdb 7f3f dc38 803f
000000c0: e94e 803f 52cc 7f3f ca32 803f 6b61 803f
000000d0: b564 803f cf5e 7f3f 7214 803f 9794 803f
000000e0: 678c 7f3f 7c36 803f 4ad3 7f3f f7fd 7f3f
000000f0: 2061 7f3f 5389 7f3f 8c65 803f 83c7 7f3f
00000100: ca1d 803f 8c0a 803f 54cf 7f3f 5c4d 803f
00000110: 55c4 7e3f 6bf6 7e3f d6d0 7f3f a322 803f
00000120: 62c5 7e3f 3d14 7f3f 4b47 803f be6c 7f3f
00000130: a64e 7f3f 6987 7f3f 7f08 813f 22b2 803f
00000140: e893 7f3f 81be 7f3f 743c 7f3f 5c78 7f3f
00000150: bf1b 803f a04d 803f 4c01 803f 22a7 7f3f
00000160: 135d 803f 47a8 803f ac95 7f3f 9c4a 803f
00000170: c846 7f3f 3ac0 7f3f bf44 7f3f f687 7f3f
00000180: 5334 7f3f 82b7 7e3f 7ad2 7f3f 1e07 7f3f
00000190: 4433 7f3f b0bf 7f3f ade4 7d3f f690 803f
000001a0: 4ea4 7f3f 1be0 7f3f 271f 7f3f 7efb 7e3f
000001b0: bfe1 7f3f b227 7f3f 160e 803f b533 7f3f
000001c0: b19c 7f3f e790 7f3f e81e 803f 648d 7f3f
000001d0: 8bbd 7f3f 6529 803f 657c 803f dfaf 7f3f
000001e0: 5712 803f ed0b 803f 5c35 803f 87f4 7f3f
000001f0: 9e4c 803f 9a43 803f 48f1 7f3f 84ad 803f
0.9998352 0.99522805 1.0023738 1.0000544 0.99903286 1.0070878 1.0014478 0.99863917
1.0061953 1.0028323 0.99828833 1.0013118 1.001905 1.001015 0.99443114 1.001503
1.0007621 0.99975806 1.0010686 1.0012665 1.0042331 0.99727464 0.9985576 0.99977344
0.99908763 0.9972198 0.99905074 0.9961792 1.0035694 1.0015973 1.0019379 0.9998351
1.000592 1.003244 1.0016975 1.0021489 1.0020541 1.00124 1.0033622 0.99887127
1.0005578 1.0019064 1.0032417 1.0027279 1.0001115 1.0045085 0.9994447 1.0017352
1.0024081 0.99921143 1.00155 1.002973 1.0030733 0.9975404 1.000624 1.0045346
0.9982361 1.0016627 0.99931777 0.99996895 0.99757576 0.99818915 1.003099 0.99913806
1.0009091 1.0003219 0.9992573 1.0023608 0.9951833 0.99594754 0.99928033 1.001057
0.9951993 0.99640256 1.0021757 0.997753 0.99729383 0.99815995 1.0080718 1.0054362
0.9983506 0.9990006 0.9970162 0.9979303 1.0008467 1.0023689 1.0000396 0.998644
1.0028404 1.0051354 0.99837756 1.0022769 0.9971738 0.9990269 0.99714273 0.99816835
0.99689215 0.9949876 0.99930537 0.99620235 0.996876 0.99901867 0.99177057 1.0044239
0.99860084 0.9995133 0.9965691 0.99602497 0.99953836 0.99669945 1.0004299 0.99688274
0.9984847 0.9983048 1.0009432 0.9982512 0.99898595 1.0012633 1.0037962 0.99877733
1.0005597 1.000364 1.0016284 0.99982494 1.0023382 1.002063 0.9997754 1.0052953
