training_cgcnn_p_u/saved_models/pbe_84_p_u.ckpt (torch, 676938 bytes, 60 tensors)

crystalGraphConvNet.embedding.weight f4 [64, 92]
00000000: bedc f9bd 5c24 1d3e bc03 3abc 5c6e 6cbd
00000010: 2bbc 84bb 0cda 173d c5c5 7cba 472f a2bc
00000020: 43cc a23d ccd6 d8bd ad2f a53d 7390 0c3d
00000030: 1d00 0d3d 48fd 51bd 1b0a 023e 3a5a 4abd
00000040: e54f 95bd 2bce 183d 9b30 b53d 7b83 bc3d
00000050: b4a0 daba 945d 4ebc 880e 0ebc b820 ffbc
00000060: ba28 ddbd d281 62bd 0d3d 8dbd b846 15bc
00000070: e371 89bd 9765 b63d c397 043e 1f52 cf3c
00000080: bb8e c3bd f8a5 bdbd 79d9 aebd b42a eabc
00000090: e0c3 f53d f69a 11be f219 0c3d e8ab ff3c
000000a0: 912f c03b cced cbbd 9f1b 01bd 2014 f63a
000000b0: 326e 4abc 2b5a 3abd 4cf7 eabc 4a59 0b3e
000000c0: 5361 b7bd 6fda 8dbd 6514 edbd 5555 a039
000000d0: 0f49 473d e93a 50bd b5f4 b13d e4ae ba3d
000000e0: b5b2 b63d b31a 35bd 951b 01bd 8461 d63c
000000f0: e630 763d e574 bfbd c4b1 b9bc 2f23 fcbd
00000100: 3ffb 8abd fa9d b53d d096 b6bd 83c8 8ebd
00000110: 5cee 1fbc 0d83 87bd 5cf4 81bc 0d50 a33d
00000120: a41f 4c3d 4e41 0c3c 006c 123d fa09 09be
00000130: c0ff 063d 147d 4b3c bb5f da3d 603d 1abd
00000140: ad48 b4bd 01d5 e2bc b8df e73d bba3 ae3d
00000150: b458 8f3c 09c4 a7bc 71e8 013c 2452 c23d
00000160: 9ed0 3f3d 0e8c 3f3d 4ecb bbbd 3995 4abd
00000170: 7122 1ebd f7a8 c7bd 1836 973d 37ac f9b8
00000180: 919a 86bc 56b6 4bbd 0413 a93d 2f99 69bd
00000190: 8f38 0dbd aa0c 04bd 140e 533d 6402 c4bc
000001a0: 0b11 83bc 4acd 36bc 00fe 5dbc 7d8b 153b
000001b0: cb2c df3d 159b a03d 1425 d6bd 5a0c e3bb
000001c0: 97f4 963d fe0b c0bd 0276 b2bd 4e62 7bbd
000001d0: 6af3 bc3d b02b 9b3d 6f7d 8d3d a435 ba3d
000001e0: 86d8 ac3a 62b2 4d3d 86ee c23d 10d6 fdbc
000001f0: 3ebe f33c d1e5 38bd 70dc ea3b 8bd0 14bd
00000200: 0bed 263b c0b1 e93d 10df 173d 0b8b 8f3b
00000210: a691 8b3c c093 b23d 8856 683d cac0 b23d
00000220: 719e 8abd 879e 99bc 2d4d c2bd 173e 54bd
00000230: ca9a 7738 7d67 0c3d 620a 6839 5018 ef3c
00000240: 4868 babd 8cc1 8b3d 7137 9dbd 65aa cc3d
00000250: f27d f73b 75f6 d03d 3302 8e3b 91d7 cabb
00000260: d494 b63c dd75 ebbb 29c6 9f3d 4259 483d
00000270: 5ec9 bfbd a472 72bc 2ba5 abbd f89b a43d
00000280: d959 c53d 4dc5 0dbd 17a0 a2bb 783c 3e3c
00000290: ed98 d23d 71ba 943d b144 2b3d d431 b2bd
000002a0: abed c2bb 8359 cabd 1a66 24bd f3ba 43bd
000002b0: a00f 13bd 09b5 713d 67d6 4c3d dee4 cfbd
000002c0: 1ce1 a83d 95ce 933c b872 6e3d ee0f 2dbd
000002d0: 1625 f83c 6e68 8bbd bbb7 473d 1050 83bd
000002e0: c767 be3d aa9e 2f3e 48e1 fabc 7a9d a03d
000002f0: 8eff ae3c e219 68bd 31fb bebc e78a ffbd
00000300: 9083 203d 9a8a 6abd e022 5cbd a467 893d
00000310: 3956 d1bd b0b6 963d eff1 843d 3b0f c23c
00000320: 9bf5 1bbe a7d3 b139 3eb6 a8bd e79d 833d
00000330: 0d20 65bd 8ce3 063d 66ff f3bd 5bdb e33c
00000340: c09a d43d be73 573d db5d 9b3c d2bf 753d
00000350: f596 233c 800f 9fbb 7b81 ed3d 8068 95bd
00000360: bf8c a83d 0342 fc3c 07e3 ef3c 2920 c33d
00000370: 5112 e23d e4bd 1f3d a69b f83b 5d8e 8c3d
00000380: b156 b1bc 9869 b3bd b2bd 5f3d 8948 213d
00000390: 5c16 873d 414b aa3d a96d 973d e875 853d
000003a0: 5d1e d23d 4b0c 24bd bfb4 1bbd 3db8 183d
000003b0: 965f 113c 5749 9f3d 8d1d 96bd 1b7c 37bd
000003c0: 3a6d 31bd 46af 543c 8f70 d5bd 8115 bd3d
000003d0: ec77 aebd d408 e4bd fafa c83d 6442 b5bb
000003e0: e75c 113d d666 113e 7332 ca3a bd5a 3e3c
000003f0: 5f61 17bd 6dbf b93c d62a 7d3d ea50 a8bd
-0.12200306 0.15345901 -0.011353429 -0.057722434 -0.0040507517 0.03707318 -0.0009642507 -0.019797934
0.07949116 -0.10587844 0.08065734 0.034317445 0.034423936 -0.05126694 0.12699167 -0.049402453
-0.07290629 0.037305992 0.088471614 0.092047654 -0.0016679973 -0.012595553 -0.008670457 -0.031143531
-0.107987836 -0.055299588 -0.0689641 -0.009111099 -0.06711175 0.089060955 0.12948518 0.025307713
-0.09548708 -0.09260172 -0.08537573 -0.028584816 0.12000251 -0.14219269 0.03420443 0.031209901
0.0058650454 -0.099574655 -0.031520482 0.0018774308 -0.012355374 -0.045496147 -0.028682373 0.1360828
-0.0895411 -0.069264285 -0.115761556 0.00030581155 0.04865366 -0.05083743 0.08689252 0.09115389
0.089208044 -0.044214915 -0.031520445 0.026169546 0.060105227 -0.09348468 -0.022667773 -0.12311398
-0.06786203 0.08868022 -0.08915484 -0.06971838 -0.009761419 -0.06616793 -0.01586359 0.07974253
0.049834862 0.008560492 0.035747528 -0.13382712 0.032958746 0.012419958 0.106627904 -0.037656188
-0.08802924 -0.027689459 0.11321968 0.08527323 0.017498352 -0.020479219 0.0079289535 0.09488323
0.046829812 0.046764426 -0.09169637 -0.049458716 -0.038607065 -0.09749024 0.073833644 -0.00011905323
-0.016431125 -0.049734436 0.0825558 -0.057030853 -0.034477767 -0.03223864 0.051527098 -0.023926921
-0.015999338 -0.011157343 -0.013549328 0.0022818737 0.108972155 0.078420796 -0.10456291 -0.0069289627
0.073708706 -0.09377287 -0.087139145 -0.061373048 0.09226115 0.07576692 0.0690869 0.090922624
0.0013187088 0.050218947 0.09518151 -0.030985862 0.0297538 -0.045141045 0.0071673915 -0.036331695
0.0025470878 0.11410856 0.037077963 0.004380589 0.017037224 0.08719587 0.056723148 0.08728178
-0.067685015 -0.01875235 -0.09487376 -0.051817026 5.9033548e-05 0.03427838 0.00022129112 0.029186398
-0.09101921 0.068240255 -0.0767659 0.09993438 0.0075528556 0.10203258 0.0043337583 -0.0061902483
0.022287764 -0.0071856813 0.07801468 0.048913248 -0.093645796 -0.01479784 -0.08381113 0.08037561
0.09636278 -0.03461199 -0.004962932 0.011611097 0.102830745 0.072621234 0.041813556 -0.0870091
-0.0059487424 -0.09880354 -0.040136434 -0.04778571 -0.035903573 0.05901054 0.050009158 -0.10151075
0.08246061 0.018042842 0.058214873 -0.04225152 0.030291121 -0.06807028 0.048759203 -0.06411755
0.09297138 0.1715037 -0.030625 0.07842536 0.021362092 -0.05666531 -0.023313137 -0.124776654
0.039187968 -0.057261087 -0.053744197 0.06709221 -0.10221524 0.073590636 0.06491458 0.023688903
-0.1523041 0.00033917764 -0.08237885 0.06426602 -0.05593877 0.03293185 -0.11913948 0.027814558
0.10381079 0.052600615 0.018965652 0.059997387 0.009984721 -0.0048541427 0.11596962 -0.072953224
0.0822997 0.030793196 0.02928306 0.095276184 0.1103865 0.038999453 0.007586914 0.06863091
-0.021647783 -0.08760375 0.054624267 0.039375816 0.065960616 0.08315135 0.07393963 0.065166295
0.102596976 -0.040050786 -0.03801417 0.03728508 0.008872887 0.0777766 -0.07329855 -0.04479609
-0.043317057 0.012981242 -0.104218595 0.09232617 -0.08518967 -0.11134496 0.09813495 -0.005531596
0.03548899 0.14199385 0.0015426412 0.011618313 -0.036958095 0.022674287 0.06180843 -0.08218558

crystalGraphConvNet.embedding.bias f4 [64]
00000000: 611a a23c 2bd0 e93c b5d1 873d 7348 a73b
00000010: de19 2bbd 4316 9cbd 77f3 953d 9f00 a6bd
00000020: 8356 d33d 1d5c b63d 6ac1 483d a4b7 74bc
00000030: 0d9f 84bd 54f8 73bd 623b b5bd 8499 3c3d
00000040: d91e 60bd 9fda ae3d 9825 66bc c4d4 5b3d
00000050: beb9 053e 64a7 833d 5de7 a6bc 1e0a 61bd
00000060: 17cd 52bd 0b14 27bc 308a 3fbd bbf8 8fbd
00000070: 0bf9 3dbc 0464 413d b34f 02bc 0f0a 95bd
00000080: 328c 093d a7a9 883d f6a1 03bd 43a4 41bd
00000090: 101c ed3c 6259 7fbd 6afb 77bd eb90 a13d
000000a0: 551e 37bd b3bc e23c b6ef f23d 71e8 b4bd
000000b0: e04b 23bd 58bf 283c 81fb c1bd d183 193d
000000c0: 5254 5bbc e809 143d 5dac 383c fdfb c9bd
000000d0: 0743 9d3d 3235 47bc d7bb dbbd 0548 4a3d
000000e0: d108 d4bd 12fd ac3c 880e f23c 7de2 9f3d
000000f0: 6dbf a6bc c5c9 873d b8cb ea3d d6e3 70bd
0.019787969 0.028541645 0.06631795 0.005105072 -0.041772716 -0.076214336 0.07321828 -0.08105587
0.10319235 0.08904288 0.04901258 -0.014936361 -0.06475649 -0.059562996 -0.08849217 0.04604484
-0.05471692 0.085377924 -0.014047049 0.053669706 0.13059136 0.064284116 -0.020373994 -0.05494129
-0.05146512 -0.01019765 -0.046762645 -0.070298634 -0.011595021 0.047214523 -0.007953572 -0.07277309
0.033580966 0.066729836 -0.03213688 -0.047275793 0.028944045 -0.0623411 -0.0605425 0.07888969
-0.04470666 0.02767787 0.118621275 -0.08833397 -0.039867282 0.010299526 -0.09471799 0.037479226
-0.013386803 0.03614226 0.011271563 -0.09862516 0.076788 -0.012158679 -0.10729187 0.04938509
-0.10353244 0.021116767 0.029547945 0.07806871 -0.02035495 0.06630281 0.114646375 -0.05881103

crystalGraphConvNet.convs.0.fc_full.weight f4 [128, 169]
00000000: b8d4 61bd 4292 2c3d a1ce 043d b24d 52bd
00000010: 6171 aabc 4262 99bd 389f e9bc 1d7e 3fbb
00000020: 1d44 acbd 39ba 5bbd fe66 bc3d 9688 3dbd
00000030: 1988 44bd 9b96 083c 6215 e23d 43fc d5bc
00000040: 7aa6 a4bd d310 c23b 771a 99bd af88 6dbc
00000050: 9e52 ac3b cc18 96bb 2d31 693d b5f1 9ebd
00000060: fce9 c93d f854 8e3d 9d61 87bd 0f9c f13c
00000070: c548 afbd fc18 7bbc adcb 623d 1753 98bd
00000080: 6060 6f3d 6b5d 083d 0451 4abd 7e7c 1a3c
00000090: 3ebd 303d 326e ed3b 7f69 aebc c896 21bc
000000a0: dcae c1bc d75b 003d fa1a 44bd 0bc0 c93c
000000b0: e267 1a3d 0e34 2b3d 566a b7bc d72b 6d3d
000000c0: d368 883d 4c52 4bbd c4b4 79bd 1072 d83b
000000d0: e8bd e13b bdef 263d d24a 883d bbd3 d9bd
000000e0: 57ad 87ba 57c5 64bc a202 33bd d43f fbbc
000000f0: 2512 d63c 669e b23c 76f8 19bd 72a7 d7bb
00000100: e3df 52bd 1a0d 1c3d c785 c1bd 60a8 c03d
00000110: 82f5 a93d 6422 933b 7445 553d 5958 3f3d
00000120: 1e59 073d 64ac 7d3d a04a ab3d 9b6d 043c
00000130: 5de3 803d 15e1 13bd 1bf6 893d e851 36bb
00000140: 720f 183d 35bc 023d 2b81 4e3d e631 cabc
00000150: 521e 05bc 1a31 32bc 0844 38bc 3fc4 1d3d
00000160: 19f2 be3d 1c3f 7a3d b958 c63c f49a cebb
00000170: 74f4 8a3d e159 edbb d015 9abc d6a4 c33c
00000180: 8b99 36bd 97ec dfbc 7a1a 663d 8382 b13d
00000190: a9af 863d fbda a9bd 8ba8 73bd 59e2 11bc
000001a0: ad0c 753d d093 26bd 0da7 adbd d28f a9ba
000001b0: efa0 15bc b2fc 643d 205b 97bc 9fde 3f3d
000001c0: 1053 ea3c b7e9 3fbc ee61 06bc a96a 8ebd
000001d0: a2b7 7abd f632 45bd b70f b33c 6041 1fbd
000001e0: 21da 1b3d 0949 63bd b654 36bd 26f4 a53c
000001f0: 69cc 993d f500 603a b7c3 963c c26a 24bd
00000200: d479 103d 0638 fe3c aea7 43bb a35f 20bc
00000210: 8ddf e33c e4ee 0f3b 2b8a 53bc cc2f 39bc
00000220: 810a c63b b9c0 93bc 62bc 8bbd ff57 20bd
00000230: d54d 73bd 8136 0b3d cdf6 753d 4298 663d
00000240: e138 ba3b f0d9 903d e83b 1ebd 8213 a9bd
00000250: c949 1e3c 83d5 b2bc d0c3 223d cfa4 1abd
00000260: 64ce 213d a76d 423d e42a 86bd 93ba 073d
00000270: a86c 7eba f7d3 3e3d 0e0f 68bc cc64 86bc
00000280: fb47 84bd c699 88bc 6300 5c3d c1b1 e2bc
00000290: 4676 7a3c 14ac d53b 215b 58bd 07a3 973d
000002a0: 4ae4 f73c 4ffa 513c bad3 6bbd 803f ccbc
000002b0: f70a 78bd 40bb 23bd 0db7 813c f672 2c3d
000002c0: 087b b1bc c270 7cbd 039d 903c 6170 103d
000002d0: ea1c 7ebd 3b42 eb3c df36 02bd 0c09 983d
000002e0: 6e9f 853c 0493 613c 914f 92bd d0db a4bc
000002f0: 6bce 53bd dd99 8fbc d287 503c ff74 9f3c
00000300: 9ed5 e43c f5de 50bd 9d05 563d f313 8e3d
00000310: 2891 5c3c 32dc 293d 2a2a b23d ce64 18bd
00000320: 41c6 33bd 03c4 4ebd d565 6b3d 798c 613d
00000330: 0571 a6bd 2148 8bbd e91d 9bbc 6c17 e73b
00000340: 50ae 3a3c 091b 833d 3fc4 ef3c 32b2 1c3c
00000350: 07ff 023d 8667 07bc ded1 d1bd e850 59bd
00000360: c1d5 4fbd 0e58 8c3d 9788 123d df0e e03b
00000370: 8809 8a3d 2c52 ff3b d72f 993d 6a4f 72bc
00000380: 9fb6 75bd 72e6 d5bc 2ad2 8cbc bae4 5cbd
00000390: 3114 803c 5b3c 353d 540a 83bd b5cf b7bd
000003a0: 1c6f 0bbc 5d98 b9bd 9cb5 023c 209a d4bc
000003b0: 1e54 aa3c 0c22 d33b b195 a93d e94d 303c
000003c0: 7e9a 493d fc58 a8bb 6c75 4b3d 228e 16bc
000003d0: 2ccf 94bd 6ea0 a7bc 9c63 893d 4310 4abd
000003e0: 6f04 393d fb25 3fbd 9054 633d 66fd c73c
000003f0: f39f e9bc 010c 543d 931c 26bd 4da3 c8bc
-0.055134505 0.04213167 0.03242362 -0.051343627 -0.020806016 -0.07489444 -0.028518304 -0.0029219456
-0.08411429 -0.053644393 0.09199332 -0.046272837 -0.047981355 0.008336688 0.11039235 -0.026121264
-0.080395654 0.0059224158 -0.07475751 -0.01449792 0.005258872 -0.0045805927 0.056931663 -0.07760946
0.09859082 0.069498 -0.06610415 0.02949336 -0.085588016 -0.015325781 0.05537002 -0.07437723
0.05844152 0.033292215 -0.04939367 0.009429095 0.043149225 0.0072458023 -0.021290539 -0.009862609
-0.02364295 0.031337585 -0.04787729 0.024627706 0.037696727 0.04179769 -0.022389572 0.057903137
0.06660619 -0.04963903 -0.060963407 0.006605394 0.0068890937 0.040755976 0.06654896 -0.106360875
-0.0010351342 -0.013963065 -0.043703683 -0.030670084 0.026131699 0.021804046 -0.037590466 -0.0065812403
-0.051483046 0.038098432 -0.09449344 0.09407115 0.0829878 0.0044901837 0.05206819 0.046715114
0.033043973 0.061931983 0.08363843 0.008082773 0.06293366 -0.036103327 0.06736394 -0.0027819816
0.037124105 0.03191777 0.050416153 -0.024681997 -0.008124905 -0.010875965 -0.011246689 0.038517233
0.0932352 0.061095342 0.024212228 -0.006305093 0.06784907 -0.0072433804 -0.01880923 0.02388231
-0.044580024 -0.027334495 0.056177594 0.08667471 0.06576473 -0.0829372 -0.059486907 -0.008904063
0.05982654 -0.04066831 -0.08479128 -0.0012936539 -0.009132608 0.05590505 -0.018476069 0.046843167
0.02860406 -0.011713437 -0.008202059 -0.069539376 -0.061210282 -0.048144303 0.02185808 -0.038880706
0.03804982 -0.055489574 -0.04451438 0.02025802 0.07509691 0.00085450645 0.018403871 -0.040140875
0.035272434 0.031032573 -0.0029854584 -0.009788427 0.027816558 0.0021962458 -0.01291136 -0.0113029
0.0060437326 -0.018036233 -0.068230405 -0.03914642 -0.0594004 0.033987526 0.06004982 0.056297548
0.00568305 0.07072818 -0.03863135 -0.08255674 0.009661146 -0.021830326 0.039737523 -0.03775483
0.03950347 0.047467854 -0.065511495 0.033136915 -0.0009705522 0.046588864 -0.014163746 -0.016405486
-0.06459042 -0.016674887 0.053711306 -0.02767265 0.015286988 0.0065207575 -0.052821282 0.07404142
0.030260224 0.012816026 -0.057574965 -0.024932623 -0.060557332 -0.039973497 0.015834356 0.042101823
-0.021665111 -0.06163097 0.017652994 0.035263423 -0.062039293 0.028718105 -0.03179061 0.074236006
0.016311374 0.013767961 -0.07144082 -0.020124346 -0.051710527 -0.017529422 0.012727695 0.019464968
0.027933892 -0.05099388 0.052251447 0.06937399 0.013462342 0.04146976 0.086994484 -0.03720551
-0.04389024 -0.0504799 0.05747016 0.055065606 -0.081270255 -0.06800867 -0.01893516 0.0070523527
0.011394098 0.06401641 0.029268382 0.009563969 0.031981494 -0.008264428 -0.10245107 -0.053055674
-0.05074096 0.068527326 0.035774793 0.0068377103 0.06740099 0.007791778 0.07479828 -0.014789442
-0.059988614 -0.026110861 -0.017190058 -0.05392907 0.015634628 0.044247013 -0.06398454 -0.08975164
-0.008510377 -0.09062264 0.007977869 -0.025952399 0.020792063 0.0064432677 0.082805045 0.010760763
0.0492196 -0.005137561 0.04967253 -0.009189161 -0.072660774 -0.020462241 0.06708452 -0.049331915
0.045170244 -0.04666708 0.055500567 0.024412822 -0.028518653 0.05176926 -0.040554594 -0.02449193

crystalGraphConvNet.convs.0.fc_full.bias f4 [128]
00000000: 0260 61bc daa7 273d d234 a3bc 6ad0 aa3b
00000010: f277 9abd 7fbb b23c 3506 e6bc 5669 7f3d
00000020: bb45 9c3d 7be8 8dbc 69c6 833d 67db 513d
00000030: 7fb8 61bd 75c6 39bc 125a 8cbd 3c14 d3bc
00000040: ffc9 9b3c 8ccc 143d 6626 27bd 133e 0e3d
00000050: 7158 0fbd 1c99 7abd 4dcb 90bd f69f e1bc
00000060: bfc0 65bc ac68 d53c c230 82bd ec28 233d
00000070: 3485 083c 0292 e1bc ea9e 273c a499 bebc
00000080: 112e 9d3c 76d4 e63b 6c4c 973d 13fd 8a3d
00000090: cfe6 453d 2d2a 87bd 1155 55bd 2777 6fbc
000000a0: e7ec 91bd 2042 8ebd d033 213d cbfa 923c
000000b0: b345 29bd 4202 b33b d6f0 59bd f194 27bd
000000c0: 5fe3 4bbd d2c0 2e3c acf3 3c3c 6a97 8bbd
000000d0: 601e 67bd 67e8 493d eecf 42bd 92f0 bf3c
000000e0: 3934 6abd f2e0 3abd 0d9a 98bd a78b 97bd
000000f0: 646c d4bc 3ea1 463d e243 90bc ca5e 64bc
00000100: 0ff3 91bd 4cf3 d7bb 62a1 d73c f544 29bd
00000110: 6cc1 4ebd 2f17 17bd 3969 3ebd ef93 873d
00000120: 69d3 b7bc 0553 5fbd 0e8c ba3b 6b0c 163c
00000130: e4f6 713d b564 6ebc ab61 89bd 1e21 583b
00000140: 0886 8a3d 5a95 6939 a3e6 e03c d5ae d7bb
00000150: 9bdf 443d 66ca 693d ed59 80bd e93c f3bc
00000160: e86d ecbc e46e c0bc df11 35bd 253f 5dbd
00000170: e4a3 103d 9c63 983d 7092 dd3c e199 d63c
00000180: f0c6 97bd acfd 893d adaa 8fbd 705a 0d3d
00000190: 76d3 74bd 564f 8a3d a8f8 d33b 68a3 5fbd
000001a0: 772c 15bd a87a 8abd d8f5 f9bc 6aeb 79bd
000001b0: 2c96 843a 4083 23bc 4730 92ba f65f 64bd
000001c0: b489 be3c d6bf 48bd c401 5abb 8a08 bf3c
000001d0: 5411 3f3c 3040 6abc 2ae3 d6ba afbf 893c
000001e0: 363f 14bb 8b1b 443d 55d5 4f3d 88fa 9b3d
000001f0: d624 42bd 29f4 2fbd 5c85 653d 4bc1 1fbc
-0.0137558 0.04093156 -0.019922648 0.005212833 -0.07542409 0.02181792 -0.028079132 0.062356316
0.076304875 -0.01732277 0.06434328 0.05123463 -0.05510759 -0.01133882 -0.06853117 -0.025766484
0.019017218 0.036327884 -0.040808104 0.034727167 -0.034996454 -0.061181173 -0.070700265 -0.027542096
-0.014023005 0.026050888 -0.06356956 0.039833948 0.008332539 -0.027535442 0.010230759 -0.023266621
0.019187005 0.0070443703 0.07387623 0.06786551 0.04831582 -0.06599841 -0.05208308 -0.0146158105
-0.07125264 -0.06946206 0.039356053 0.017941853 -0.041326236 0.0054629156 -0.053208195 -0.040913526
-0.049777385 0.010666089 0.011532705 -0.06815989 -0.056425452 0.0492939 -0.04756158 0.023430143
-0.05717871 -0.04562468 -0.07451258 -0.073996834 -0.02593059 0.048493616 -0.017610494 -0.013938615
-0.07126438 -0.0065902825 0.02632207 -0.04132553 -0.05047743 -0.036887344 -0.046487067 0.06620013
-0.022439675 -0.054522533 0.0056929654 0.009158234 0.059073344 -0.014550378 -0.06708082 0.0032978724
0.06763846 0.0002227625 0.027453726 -0.006582121 0.04806481 0.057077788 -0.06267152 -0.02969213
-0.028861001 -0.023490377 -0.044206496 -0.054015297 0.03531255 0.07440874 0.027047366 0.026196422
-0.07410991 0.06737837 -0.07014976 0.034510076 -0.059771977 0.067534134 0.006468851 -0.054599196
-0.036419358 -0.06761676 -0.030512735 -0.061015524 0.0010115555 -0.009980023 -0.0011153304 -0.055755578
0.023259021 -0.049011074 -0.0033265213 0.023319501 0.011661846 -0.01429753 -0.0016394604 0.016815035
-0.0022620684 0.04787783 0.05074056 0.076161444 -0.04739841 -0.04295746 0.056035385 -0.0097506745

crystalGraphConvNet.convs.0.bn1.weight f4 [128]
00000000: 25e0 7f3f 051c 7f3f 6796 803f bda4 7d3f
00000010: 6acd 7f3f ea18 813f 8cc1 803f 8d12 813f
00000020: f79e 823f f605 803f 8d63 813f 64f0 7e3f
00000030: 9364 803f 8a93 7e3f 51d2 7f3f f7db 803f
00000040: 9abe 803f 9e6b 803f cb25 803f d624 7e3f
00000050: 9a3f 7f3f 16ce 7e3f 3b2e 803f b662 803f
00000060: 5036 7f3f fffb 7f3f 6caa 7e3f 16e5 803f
00000070: f446 803f 5521 803f fb2e 803f 0d92 7f3f
00000080: ec11 803f c751 7f3f 9b32 803f 9372 7f3f
00000090: 2e91 7f3f d11f 803f d065 7f3f 220d 803f
000000a0: 76d2 7f3f e5b3 7d3f 9e23 813f ec75 813f
000000b0: a865 7f3f 4040 803f 475a 7f3f 63b1 7f3f
000000c0: 7642 803f bf46 7c3f d709 803f 9e07 813f
000000d0: eb1b 7f3f 24d0 7f3f 2546 813f cf2c 7e3f
000000e0: 2966 803f efb3 853f a56f 7f3f 5624 803f
000000f0: 8276 803f 91e6 823f b74d 853f 98de 7f3f
00000100: d8f2 7e3f a4a7 7f3f ae60 7e3f 3075 803f
00000110: d542 803f 805e 7f3f f3d2 7e3f d121 7e3f
00000120: 54f3 753f 4520 803f d00b 7e3f 8b10 803f
00000130: ff7c 7e3f b107 813f d51a 803f 19b7 7f3f
00000140: c839 803f 933e 7f3f a014 803f 3b0e 813f
00000150: 0a37 803f 5698 803f 3dc2 7e3f 91c6 7f3f
00000160: 9f16 803f b0a9 7f3f b05f 813f 7914 803f
00000170: edff 7e3f 17c3 7f3f 3e80 7f3f 0432 813f
00000180: 3ddf 7e3f 6e17 7f3f 512b 803f 2f6f 7d3f
00000190: 1ae7 7f3f 23b8 7f3f 1277 803f 4dd0 7f3f
000001a0: 212d 803f 815f 813f a109 7e3f 744b 7d3f
000001b0: b6f4 7f3f 7717 803f a10a 813f 98f9 7d3f
000001c0: f5b5 7f3f 7477 813f a474 7f3f e242 7d3f
000001d0: 795a 803f f4dc 7f3f 3d02 803f 7858 813f
000001e0: 321d 803f b2f5 773f 71bc 7e3f b0f4 7e3f
000001f0: 6712 803f 0306 7e3f e436 763f c712 803f
0.9995139 0.9965213 1.0045899 0.99079496 0.9992281 1.0085728 1.0059066 1.0083786
1.0204762 1.0001819 1.0108505 0.99585557 1.0030693 0.99443877 0.9993029 1.0067128
1.0058167 1.0032842 1.0011533 0.9927496 0.99706423 0.9953321 1.0014108 1.0030124
0.9969225 0.9999389 0.99478793 1.0069911 1.0021653 1.0010172 1.0014337 0.9983223
1.0005469 0.9973416 1.0015444 0.997842 0.998309 1.000971 0.9976473 1.0004008
0.9993051 0.9910262 1.0088995 1.0114112 0.9976449 1.0019608 0.9974713 0.99880046
1.0020282 0.9854545 1.0003003 1.008045 0.99651974 0.9992697 1.0099531 0.9928712
1.0031177 1.0445536 0.9977973 1.0011089 1.0036166 1.0226613 1.0414342 0.99949026
0.995893 0.99865174 0.9936627 1.0035763 1.0020396 0.9975357 0.9954063 0.9927035
0.96074414 1.0009848 0.99236774 1.0005049 0.9940948 1.0080472 1.0008188 0.9988876
1.0017633 0.99704856 1.0006294 1.0082468 1.0016797 1.0046489 0.99515134 0.99912363
1.0006903 0.998683 1.0107327 1.0006248 0.9960926 0.9990706 0.9980506 1.0093389
0.99559385 0.99645126 1.0013219 0.9899778 0.9996201 0.99890345 1.0036337 0.99927217
1.0013772 1.010727 0.9923344 0.9894326 0.99982774 1.0007161 1.0081369 0.99208975
0.9988702 1.0114579 0.99787354 0.9893018 1.002761 0.9994652 1.0000683 1.0105124
1.000891 0.96859276 0.9950629 0.99592113 1.0005616 0.99227923 0.96177506 1.000573

crystalGraphConvNet.convs.0.bn1.bias f4 [128]
00000000: 4b10 ed3b ea0f 583b c1dd 72bb 7473 f43b
00000010: b910 e73a db59 6cbb 7388 77bb 3f4e a4bb
00000020: 5112 933b 5d6f 3ebb ee10 63bb acb0 933a
00000030: a92c 95b9 5713 eb3b 1fac c23a 6e3c 7dbb
00000040: fe6d 68b9 8384 b839 665a bb39 b827 a83b
00000050: 1331 823b 45d2 813b 9362 fcba d175 edba
00000060: d458 7e3b f061 be3b 7bb8 273b e71f 4bbb
00000070: 499d 1abb 065c 9a3a 261d 073a 61e8 ca3a
00000080: 49bc d1ba 13c6 00bb 1fe6 1fba f870 243c
00000090: d4ca 8d3a 8351 12ba ec85 d13a d4c7 523b
000000a0: a039 1639 f004 3b3a 75b2 b1bb 31ca 24bb
000000b0: c07b 4e3b 5f45 edba d296 b83a f9a8 01ba
000000c0: 78c0 a7ba 8326 d33b c258 ef3a 8a82 53bb
000000d0: 3f34 2a3b 7e12 81b9 cf5b d6bb 4d8f c23b
000000e0: 7945 2cbb 98ec 013d 330d 04bb bb3e 98bb
000000f0: 9b5f 3239 a44c b63c c79b d43c 0847 d239
00000100: 644b df3a 41af fa3a 5105 5c3b 7ddd 81ba
00000110: 2523 d1b9 b286 163a 1e19 433a ac23 533b
00000120: c2af b53c dcc4 feb9 2c9b 113b c2ac 8db9
00000130: 4fd7 603b d212 20bb 25f6 51b8 218a 5538
00000140: d698 25bb c85a ae3a b88c 1dba 9ca2 6fbb
00000150: 2629 1bbb f53e e3ba c5d1 173b 5603 053a
00000160: e693 90b9 fd6e 343b 63e5 86bb f957 50bb
00000170: 03a8 de3a 4853 9139 e705 5a3a 08b0 6ebb
00000180: d7da 093b 1347 e43a 6339 8aba f57f eb3b
00000190: 59c5 b539 1b8e 5939 95f4 52ba 00a3 af3a
000001a0: 77d8 3bba f60b 2abb d4d6 2b3b 275b 693b
000001b0: b204 ce3a 0ccf 4d39 2771 71bb 00fe d43b
000001c0: 7e88 c039 97a1 36bb 42ba 2eb8 4d75 1b3b
000001d0: dd44 1bba 3519 033a a4f9 74ba 125b 57bb
000001e0: 6579 80bb 4d60 373d 1745 1c3b f8df e43a
000001f0: b02e 35ba 896a bf3c 235a d83c 6061 ffb9
0.0072346083 0.003296847 -0.0037058445 0.007460052 0.0017628885 -0.00360643 -0.003777054 -0.0050142105
0.0044882675 -0.0029058077 -0.0034647542 0.0011267862 -0.0002845277 0.0071739363 0.0014852321 -0.0038640755
-0.0002216622 0.00035193944 0.00035734772 0.005131688 0.0039731353 0.0039618337 -0.0019255452 -0.0018116777
0.003881027 0.005810015 0.0025592137 -0.0030994357 -0.0023592284 0.0011776693 0.0005154185 0.0015480631
-0.0016001548 -0.0019649311 -0.00060996594 0.0100366995 0.0010817894 -0.0005581604 0.0015985346 0.0032162564
0.00014326582 0.00071342196 -0.005422885 -0.002514493 0.0031506866 -0.0018102339 0.0014083034 -0.00049461384
-0.0012798449 0.0064438 0.0018260705 -0.0032273852 0.0025971083 -0.00024618575 -0.006541706 0.005937493
-0.0026286526 0.031719774 -0.002014947 -0.00464615 0.00017011019 0.022253342 0.025953187 0.00040107244
0.0017036018 0.0019125716 0.0033572505 -0.0009907928 -0.0003988977 0.0005742117 0.00074424024 0.0032217307
0.022178534 -0.00048593327 0.0022217734 -0.0002702233 0.0034308021 -0.002442528 -5.0058723e-05 5.09118e-05
-0.00252681 0.0013302201 -0.00060100434 -0.0036565429 -0.002367565 -0.0017337488 0.0023165804 0.00050740445
-0.00027576013 0.0027531974 -0.0041167005 -0.0031790717 0.0016987327 0.00027718605 0.00083169196 -0.003642084
0.002103498 0.0017416201 -0.0010545667 0.0071868845 0.00034670046 0.00020747671 -0.000804731 0.0013400018
-0.00071657397 -0.002594707 0.0026220577 0.003560731 0.0015717952 0.00019627454 -0.0036841126 0.0065000057
0.00036722788 -0.002786731 -4.16583e-05 0.002372104 -0.0005923042 0.00050010096 -0.00093450607 -0.0032860679
-0.0039207214 0.044769574 0.0023844892 0.0017461767 -0.0006911559 0.02336623 0.026410168 -0.0004870994

crystalGraphConvNet.convs.0.bn1.running_mean f4 [128]
00000000: 182a 603e e7ce 23bc 2514 b33d 911f a9bd
00000010: 8003 ff3d f8e4 a03d a265 aa3d a668 923e
00000020: 1ec3 afbe 770a 06be 218c 373e df30 ab3c
00000030: 7e7c 80be f669 973d d62e 1bbe fb77 603e
00000040: 3bce 9dbe aedd 3dbd 12aa d6bc 76b1 913e
00000050: 2eec 9bbc 624b eabd cdfd c7be 9a74 913d
00000060: 09a8 b33e ec9a a63d 6009 6c3a 3bc0 9e3e
00000070: 96e8 753e ae94 a0bb 2fe1 0c3d 4e0b 973d
00000080: 22db be3e d27c 03be 54c2 4f3d af1d be3e
00000090: 762d d1bb 1967 033e ac58 77bc 09ff 83be
000000a0: 2096 ebbd a198 1cbe 647d b83e e4ee 97be
000000b0: 000e 043d aaa8 163e 085c 20bd 04aa b23e
000000c0: e9c3 153d 42c3 803e dd0b 87be c23c 57bd
000000d0: 60e1 913d aa8b 8d3d 7a4f 343d ac67 3e3e
000000e0: 9804 c6bd c7df e1be 34e6 fbbc c540 1c3d
000000f0: 1777 25be 4647 2ebf c484 f7be 0fa0 993d
00000100: 6942 903e 49b7 a5be 24c0 013e e036 ab3c
00000110: 18c2 ed3d 7551 20be feb7 773d 16a8 c23e
00000120: 2bb3 113f daf1 81be b79c 883e c0ce 5abe
00000130: a439 45be 28f7 203e 6c7c 423e b844 583e
00000140: 1fbe 3b3e 5810 52bc af5b 233e f9d3 04be
00000150: 5fe2 383e 6b79 c93e 758d b0be 1a3a 703c
00000160: 5eca 793e 7ab8 273e ad04 f43d b4cf 35bd
00000170: a822 be3e 4253 333e 92e2 98be 748a 9c3e
00000180: 0877 0a3f cc51 953e b6c7 53be 4f73 143f
00000190: cc2b 92be 3d96 a33e ff29 5d3e 08a5 83bd
000001a0: 3409 fdbd 12a8 83be a35e b53e 3cce 8a3e
000001b0: 9168 653e 2a17 1b3e 5f2f 83be 981d 6f3e
000001c0: 39eb 883e 6086 103f f2f9 b4bd 4db7 783e
000001d0: c860 d93e 0a19 e33d 0c62 5e3d 332f 96bd
000001e0: 8552 bd3d 0946 5dbf 899f f53d a27e 4b3e
000001f0: f6ef 05be 308b 2abf 592e bebf d5c7 333d
0.21891057 -0.00999806 0.08744077 -0.08257974 0.124518394 0.07856172 0.08320166 0.28595465
-0.3432855 -0.1308993 0.17924549 0.020897327 -0.2509498 0.07393257 -0.15154585 0.21920769
-0.30821404 -0.04635399 -0.026204143 0.28455704 -0.019033518 -0.114401594 -0.39060822 0.07102318
0.35089138 0.08135018 0.00090040825 0.31006035 0.24014506 -0.0049005365 0.03439444 0.07375203
0.3727656 -0.12840584 0.050722435 0.37132022 -0.006383593 0.12832297 -0.015096825 -0.25780514
-0.115032434 -0.15292598 0.36033165 -0.29674447 0.032239914 0.14712778 -0.039150268 0.34895337
0.036563788 0.2514897 -0.26376238 -0.052548178 0.07123065 0.069114044 0.044021107 0.18594235
-0.09668845 -0.4411604 -0.030749418 0.038147707 -0.1615871 -0.68077505 -0.4834348 0.07501232
0.28175667 -0.32366398 0.12670952 0.02090019 0.11609286 -0.15656073 0.060478203 0.38018864
0.56914014 -0.2537983 0.26682064 -0.21367931 -0.1926027 0.15719283 0.18992776 0.21119964
0.18334244 -0.0128212795 0.15952943 -0.12971486 0.18055104 0.39350447 -0.34482923 0.01466229
0.24393603 0.16378966 0.11914954 -0.044387534 0.37135816 0.17512229 -0.2986036 0.3057438
0.5408788 0.2916397 -0.20681652 0.57988447 -0.2854904 0.3195056 0.21598051 -0.064279616
-0.12355271 -0.25714165 0.35423765 0.2711047 0.2240317 0.15145555 -0.2562208 0.23351133
0.2674196 0.5645504 -0.08836736 0.24288674 0.4245665 0.1108876 0.054292724 -0.07333221
0.09244255 -0.8643499 0.119933195 0.19872525 -0.13079819 -0.66618633 -1.4857894 0.043891747

crystalGraphConvNet.convs.0.bn1.running_var f4 [128]
00000000: 21fa e83d 429a 133d f124 fe3c c34d 4a3d
00000010: d552 623d 6fb4 183e d3a1 c33c 822a 893d
00000020: dd3f 463e 6dea 873d 8929 fe3c 9603 0b3d
00000030: 774f a13d c2d0 613c 5703 ec3c fe33 3d3d
00000040: c2f9 073e 23a9 b53c c694 7c3c 395b 663d
00000050: 19f5 ff3d 26a6 813d a87d 943d 54e5 653d
00000060: b447 993d 7693 453d 3ee3 a13c 4aae 183d
00000070: 3aaa 493d bb2a 203c a7a4 053d e7d2 1e3d
00000080: bc41 e43d 5829 633d 16b5 8f3c b634 d33d
00000090: 6743 e13c 9905 cd3d aa56 953c 161d d23c
000000a0: 9072 a73c 4ea6 3a3d 9447 ac3d 522f e33d
000000b0: c56d 833d 2624 113d 5b1c 003d 6074 193e
000000c0: a5b3 573c 9873 c83d 9684 413d 726d 083d
000000d0: dbb4 1a3d 0019 9b3c b4ab d23c 2f86 4b3c
000000e0: 6c9a 3d3c 9cff 3d3f c36a c93c c8e7 3f3d
000000f0: 3b01 0d3d dce8 6c3f 9864 1f3f 0449 7a3d
00000100: e372 553e 044c 3e3e fdab 873d da52 ae3d
00000110: 99da 123d dc8a 833d 7583 103d 4a59 763e
00000120: 41c2 133f fd50 033e dd34 2d3e 9925 253d
00000130: d7b2 083e 7be9 803d 17d4 cc3d 64ab 2e3d
00000140: dcdc 083d c949 b53d 9d40 913d 8c82 9d3d
00000150: b4c1 593e aaf2 9d3d 64a1 103e ecb7 b73c
00000160: 7f32 8a3d 6f97 0e3d 7f60 133d 13b1 e33c
00000170: ef59 e43d b385 ff3c df73 2f3e 1e34 ce3d
00000180: 5dee a83e 944e 6d3d ac2d 423d dc1b 913e
00000190: f46b 7b3d d686 a73d af62 1f3d 812e 773d
000001a0: e43f 573d e4b7 963d 9cd9 b03d 8085 a03d
000001b0: c3b3 513d f5e7 903d 9d67 943d c6c3 143e
000001c0: c4ad c53d d2fc a13e 6b21 293d 39a2 cd3d
000001d0: 69ba 253e 924c fd3c f2a6 4a3c 77ab 3d3c
000001e0: f321 653c 00aa 0040 e492 903d 4326 bb3d
000001f0: ad1b 273d 5cb5 513f ba2c 2440 8a0a 113d
0.11375833 0.036035784 0.031023474 0.049390566 0.055254776 0.1491258 0.023880875 0.06697561
0.193603 0.0663651 0.031025665 0.033938967 0.07876485 0.013782682 0.028810186 0.04619216
0.13278869 0.022175377 0.01541633 0.05623934 0.124979205 0.063305184 0.072505295 0.056126907
0.074843794 0.048236333 0.019761678 0.03727559 0.049234606 0.009775813 0.032627728 0.03877535
0.1114535 0.05545935 0.017542403 0.10312788 0.02749796 0.10010833 0.018229801 0.025648635
0.02044037 0.045568757 0.0841209 0.1109301 0.06417421 0.035434864 0.031277042 0.149858
0.013165389 0.09787673 0.047245584 0.0333075 0.037770133 0.01893282 0.02571664 0.012422129
0.011572462 0.74218154 0.02458704 0.046851903 0.034425 0.92542815 0.6226287 0.06110479
0.20844607 0.18583685 0.06624601 0.085118964 0.035853002 0.0642297 0.035281617 0.24057499
0.5771828 0.12823863 0.16914697 0.04031906 0.13349472 0.06294533 0.100013904 0.04264392
0.033413753 0.08851964 0.07092402 0.076909155 0.21265298 0.077123 0.14124066 0.022426568
0.067479126 0.034812387 0.035980698 0.027794397 0.11149966 0.031191682 0.17134045 0.10068534
0.32994357 0.057936266 0.047406837 0.28341568 0.06138225 0.08180015 0.03891247 0.060347084
0.052551165 0.07359293 0.08635256 0.07837963 0.051196825 0.07075492 0.07246325 0.14527807
0.09652284 0.316382 0.041291635 0.10040707 0.16184391 0.0309203 0.012368904 0.011576525
0.013985145 2.010376 0.07059267 0.09138157 0.040797878 0.8191736 2.56523 0.03541044

crystalGraphConvNet.convs.0.bn2.weight f4 [64]
00000000: 88d7 753f ee24 783f cd78 803f 14eb 743f
00000010: be36 813f d9d4 803f 9caa 743f 2958 783f
00000020: e72f 823f a8c2 803f 44f2 7e3f 29e6 773f
00000030: 3970 7f3f 1468 7f3f f3a1 813f e950 833f
00000040: a93b 833f 5322 803f 726a 803f def8 823f
00000050: 2d19 833f ee0e 703f 164c 7c3f b027 803f
00000060: 3f42 7d3f e25e 7a3f ab69 833f 3ec1 803f
00000070: 5d74 813f ea43 833f 430c 773f 56ec 843f
00000080: 4243 7e3f 1f31 803f 0d9c 7f3f 602e 6f3f
00000090: 2a49 7e3f 0c28 823f 4985 7a3f 3b4c 813f
000000a0: e9af 7d3f 18d4 843f 166e 843f 20bb 7d3f
000000b0: 0c52 813f 3832 813f c935 833f fc63 7a3f
000000c0: fff3 803f 38b7 7c3f 7f93 813f 039e 813f
000000d0: 74c2 7f3f 3eeb 823f 4009 7f3f 434a 7f3f
000000e0: 03be 813f 8233 713f c061 783f 6b90 7b3f
000000f0: 88ae 803f f8e5 843f 8166 7c3f d093 7e3f
0.96032 0.9693135 1.0036865 0.956712 1.0094831 1.0064956 0.9557283 0.9700952
1.0170869 1.0059404 0.9958842 0.9683557 0.99780613 0.99768186 1.0127548 1.0259067
1.0252582 1.0010475 1.0032485 1.0232198 1.0242058 0.9377278 0.985536 1.0012112
0.9892921 0.9780103 1.0266622 1.0058973 1.0113636 1.0255101 0.96503085 1.0384624
0.9932138 1.001499 0.9984749 0.9343014 0.9933039 1.0168471 0.97859627 1.0101389
0.9909654 1.0377226 1.0346096 0.99113655 1.0103164 1.009345 1.0250789 0.97808814
1.0074462 0.9871707 1.0123137 1.0126346 0.99906087 1.022804 0.9962349 0.9972269
1.0136112 0.9421922 0.97024155 0.9826724 1.0053263 1.0382681 0.9859391 0.99444294

crystalGraphConvNet.convs.0.bn2.bias f4 [64]
00000000: 5298 d8bb 33e8 973b 368c c1bb 8e46 c0bc
00000010: 34b2 aa39 bcb5 da3a 9ced a2bc 97e6 e1bc
00000020: de15 053d 6422 1fbc 3f6d 24bc 3235 b9bc
00000030: b782 6e3a e93d d03b 72c3 163b bb2f cd3a
00000040: 1d1b be3b 3757 693c 7b9a a2bb d9dd 063d
00000050: efae f03c c7d8 14bd cf96 22bc 2799 5cba
00000060: 42c7 57bc b5cd 7abc 2938 5f3c 5a25 adbb
00000070: dbe5 4b3c ffe7 fa3b fbc3 71bc e27a a03c
00000080: 6b1c d7bb d7fc e1ba 2be5 833b 96c1 dbbc
00000090: 9e19 c7ba b080 d93a 51e2 babc ccac 4a3c
000000a0: 6f18 17bc 4ea7 f13a a25d 713c 6795 52bb
000000b0: 65f2 013c d9e6 51b9 f1f1 173c 96f1 bab9
000000c0: bcdc 1e3c a740 debb ab74 673c 4187 763b
000000d0: 860d d1b9 f285 703c 48c7 9abc f17a afbc
000000e0: a077 f8bb 937b 493c cd4e bfbb d468 2ebc
000000f0: 2b5c 543b 385c 163d 6400 693c a3a3 a4ba
-0.006609955 0.0046358346 -0.005906607 -0.023471143 0.00032557698 0.0016686241 -0.019888692 -0.027575774
0.032491557 -0.009712789 -0.010035812 -0.022608373 0.00090984575 0.0063550365 0.0023004678 0.0015654484
0.005801572 0.014241985 -0.004962263 0.032926414 0.02938029 -0.036339547 -0.009923651 -0.00084151555
-0.013170065 -0.015307833 0.0136242295 -0.0052839937 0.0124449385 0.0076570506 -0.014756198 0.019589845
-0.006564667 -0.001724149 0.0040251217 -0.026825707 -0.001519013 0.0016594138 -0.022812994 0.0123703
-0.009222134 0.0018436702 0.014731796 -0.0032132508 0.0079313265 -0.0002001779 0.009273992 -0.0003565668
0.009696182 -0.0067826095 0.014126937 0.0037617239 -0.00039873662 0.014680373 -0.018893853 -0.021420928
-0.00758262 0.012297529 -0.005838251 -0.01064511 0.003240357 0.03670904 0.014221285 -0.0012560975

crystalGraphConvNet.convs.0.bn2.running_mean f4 [64]
00000000: 4850 c040 9915 b040 8f08 ba40 abc5 b940
00000010: 222b bb40 5868 9140 36cc 8e40 a0f8 bf40
00000020: 6f36 8440 6db9 bc40 334d c040 13ea b340
00000030: dbad ba40 b684 8f40 232a 9840 628d bc40
00000040: 85f9 8f40 ef89 b340 7c86 b740 902e 9340
00000050: f3cf c040 fedf 9840 2207 c140 0361 b740
00000060: ecde bd40 16d7 b540 2e70 ac40 e88f 8f40
00000070: 8bb9 bf40 56d8 aa40 7b1e a940 828f b940
00000080: 7c2c c440 395a 9d40 0112 aa40 fba0 b640
00000090: 47e2 ad40 a312 c140 a4a7 9040 40e4 a440
000000a0: 96db b440 e91c b140 ee63 bc40 bd35 7940
000000b0: 5a51 be40 6978 bf40 050f 9940 2bce bb40
000000c0: 8c95 ad40 c810 c440 3197 a740 d36f a240
000000d0: 579c bb40 28f6 ad40 f6b8 8f40 7dcb 9840
000000e0: b1a5 ac40 2d35 c440 79ed ad40 b349 b940
000000f0: 31e5 b640 ad08 c840 9ebf bb40 61c2 b940
6.0098 5.5026364 5.8135448 5.8053794 5.849015 4.5439873 4.462428 5.9990997
4.1316447 5.897635 6.0094237 5.6223235 5.8337226 4.48495 4.7551436 5.8922586
4.499209 5.6105876 5.7351665 4.599434 6.0253844 4.777343 6.0321207 5.7305923
5.933462 5.6825056 5.388694 4.4863167 5.9913993 5.338908 5.2849708 5.798768
6.13043 4.9172635 5.3146977 5.707151 5.4338717 6.033525 4.520464 5.1528625
5.651805 5.534779 5.8871984 3.893905 5.9474306 5.9834485 4.7830834 5.868917
5.424505 6.1270485 5.237206 5.0761504 5.8628345 5.4362984 4.4913282 4.77484
5.395226 6.131491 5.4352384 5.7902465 5.7154775 6.251059 5.867141 5.804978

crystalGraphConvNet.convs.0.bn2.running_var f4 [64]
00000000: 5b7f 8041 11f1 9041 dafb 3341 648a ac41
00000010: 19b1 ab41 e1df 1241 e24d 5e41 b2ff bc41
00000020: a70b 6b40 ba36 0642 51b8 c741 9889 ae41
00000030: 5568 a341 d981 d140 a2ff 3041 bdc8 b041
00000040: 7721 9341 22bc 6c41 2c71 3241 9bfa 9841
00000050: 6346 b441 11f3 c241 6535 bc41 823c b441
00000060: a9af 9441 70a7 0e42 7229 1941 4c30 ad40
00000070: 7993 3841 b4f5 9641 a47d b041 926d 9c41
00000080: 779e dd41 2efe cb41 2558 8141 02f1 8a41
00000090: 784f ab41 7158 aa41 4161 c340 e51c 2341
000000a0: 3360 fc41 fe8c 2341 7869 4341 7325 4240
000000b0: fcea cf41 6ce8 b841 f867 7a41 ed69 aa41
000000c0: 3c38 7b41 a5db ec41 d23d 6b41 7560 4f41
000000d0: f27a af41 0788 9f41 40d5 cc40 68c7 b940
000000e0: d5a7 ae41 9337 e641 cce6 c641 8e6f 6241
000000f0: 489f d641 5615 ce41 69ac 8541 170c 9d41
16.062185 18.117708 11.248987 21.567574 21.461473 9.179658 13.894014 23.624851
3.6725862 33.553444 24.964998 21.817184 20.425943 6.5471005 11.06241 22.098017
18.39134 14.795931 11.15263 19.122366 22.534369 24.368685 23.526072 22.529545
18.585772 35.663513 9.5726185 5.4121456 11.536004 18.869972 22.061348 19.553501
27.702375 25.499111 16.16804 17.36768 21.413803 21.293184 6.105622 10.194554
31.546972 10.221922 12.213249 3.0335357 25.989738 23.113487 15.650383 21.301722
15.701229 29.607248 14.702593 12.961049 21.935032 19.94142 6.4010315 5.8055916
21.83195 28.777136 24.862694 14.152235 26.827774 25.760418 16.709185 19.630903

crystalGraphConvNet.convs.1.fc_full.weight f4 [128, 169]
00000000: 229d 8bbd b82d 2d3d f621 9c3d e2d6 66bc
00000010: 6f49 02bc cc95 ecbc ef26 1fbd 3ddf e8bc
00000020: d73b 3b3d eae6 673d 9a72 6f3d 7542 da3c
00000030: 7266 49bb 344b 5fbd 274b d63c e0aa ff3c
00000040: 3813 8abd afba c13c caab 3abd 9f95 6dbb
00000050: 6732 1e3d 30fe a6bd 37ee 60bd 30bf 5f3d
00000060: bc9b 313c 318e f13c 6d8a a53d 67b0 3b3d
00000070: 8960 063d 08e1 023d 6ebb 2cbc f337 45ba
00000080: a9e6 85bd 246a 513c 442e d1bc e37b 44bd
00000090: 2a51 883d 34f3 8c3d e1df 12bc c51c 53bc
000000a0: 0197 6f3d 21bb 4dbd 4adf 9f3d b6c8 5bbc
000000b0: 5416 48bd 211f a53d c393 a8bc 1d78 34bc
000000c0: b768 4535 dece a5bc e8c2 a83d e024 333d
000000d0: 3906 66bd 1b27 893c 0870 7fbd fdf2 9d3d
000000e0: 358c 9cbd 4fb4 ef3b 6650 e43b 53d7 643c
000000f0: 50c1 813d 5c31 7c3d 1b16 8cbd 0f70 af3c
00000100: acc6 1abc 26af 033d 27ba 893d 60fe 97bc
00000110: cfca 29bd 17d4 1fbd aa45 f6bc b6d4 403d
00000120: ca43 5a3d 3a7d 623d 09fc 973d ef52 3c3d
00000130: 907e 0f3d f292 fcbb 7b8a 7bbd de04 b13d
00000140: dcdc edbc f8af e93c 4b74 68bc 32eb 01bd
00000150: 40cc ebbc 7a44 543d f6b5 7dbd c7e3 073c
00000160: a50b 9c3c afa3 81bd e7a5 87bd 3ad4 acbc
00000170: 9f03 7dbd 0ee0 3dbd 9dff b93c 5a97 dd3c
00000180: d5de 3c3d e40e 5abd 7a82 70bd b86c a93d
00000190: d12a d33c 3f41 35bd 107b f6bb f6e6 8abc
000001a0: 3b4c fd3c 51ca 52bd 3629 d63c 34aa 59bb
000001b0: 422d 2fbc 917c 53bd 1c18 79bd 8237 803d
000001c0: 9ac2 b6bc f365 333d f730 613d 3433 19bd
000001d0: 39c2 a9bc 5ea4 87bd fe5e 873d d34e f7bc
000001e0: 3b47 34bd cc88 bc38 e7b1 10bd b650 a73b
000001f0: 7e62 bcbc 9a3c ab3b 6ec8 aabd a0a5 0ebd
00000200: 63c7 00bb 1881 9abd a223 6d3d 91ed 8bbd
00000210: b6fd 53bd 73c6 3d3d c2be f63b a2d4 4b3d
00000220: c4d3 dd3b c946 ccbc b8d1 5e3d 0172 b43c
00000230: 89c9 7f3d 4812 473d 48e1 9d39 6a82 1dbd
00000240: d302 ebbc 9c4f 0d3c c46a 95bc 7190 aabc
00000250: b2bc 5ebd 8259 54bd d83c 8cbd 9da8 48bd
00000260: f5b9 6abd d1b3 693d 8360 97bd efd8 0abb
00000270: 03bf 8e3d ebb5 0fbd 5fa0 b5ba 8441 0abd
00000280: 6bb4 2ebd a0c6 3ebb 9e91 ecbc 4dfd 993d
00000290: 9427 5bbd d4f7 96bc d4f8 e53c be14 6f3d
000002a0: bd0c 93bd 702c 95bd a3e4 83bd dc0e 9bbd
000002b0: 6eff fb3c 743f bcbc 72f3 7f3c 9695 f63c
000002c0: 139b c13c 90b3 7c3c a19d c0ba 3d0c 2a3b
000002d0: 0fdb 573d bc96 863c 9617 6ebc 1dbb 513d
000002e0: 3e29 09bd 0d90 a4bd d385 063d 7ebe adbc
000002f0: f9bf 2dbd 3f33 783c 768d bc3c 95d8 a13c
00000300: 8c05 433c 7998 833d a16f 46bd 979d 2dbd
00000310: faa9 273d 0db5 7e3d f991 123d eb72 d03c
00000320: 7798 f9bb cbe5 c0bc 06c9 97bd 6c62 8f3d
00000330: 4058 cbbc 4dbe 57bc 1a3c a4bd cf23 1a3c
00000340: 5b8b adbd ef44 5fbd a02f 4cbb f9c1 25bd
00000350: bf1a 13bd bc43 05bb 2d8f 33bd 60d1 85bc
00000360: 05b9 acbd 68b4 85bd 9cc3 a3bd dd13 7c3d
00000370: 1fb1 ddbc 6c03 73bd d283 273d da1f 7a3d
00000380: 13a3 723c 9f47 883d eb63 89bd 4252 f53b
00000390: 3304 8abd 7d29 a2bc 038c 28bd 1fb8 663d
000003a0: e258 1a3d 4f05 9f3c 0642 17bd c2ce 9dbd
000003b0: c584 9e3c b057 853c ab8b b43a 34fa 1c3d
000003c0: 5d5d a93c 1c58 8bbd 3712 2cbc 1312 91bd
000003d0: f078 cc3c d8ba 84bd 188a 13bd 7b31 3bb8
000003e0: 4f38 9f3c 7e0d 2f3c 2424 943b ad01 5ebd
000003f0: c37f 66bd a36d 873d abb7 31bd ae7b 3bbd
-0.0681708 0.04227993 0.07623665 -0.014089318 -0.007952078 -0.028880022 -0.03885549 -0.02842676
0.045711365 0.0566167 0.058458902 0.026643017 -0.0030731228 -0.05451508 0.026158882 0.03120941
-0.06741947 0.023648588 -0.045573987 -0.0036252511 0.038622286 -0.08153951 -0.05491468 0.05462569
0.010840353 0.029486747 0.08083043 0.045822527 0.032806907 0.031952888 -0.010542734 -0.00075232907
-0.065381356 0.012781654 -0.025534756 -0.04796971 0.06656106 0.06882325 -0.00896451 -0.012885277
0.058493618 -0.05022729 0.07806261 -0.013414552 -0.04884942 0.08062578 -0.02057827 -0.011014965
7.35406e-07 -0.020240244 0.082403004 0.04373634 -0.05615828 0.01674228 -0.0623627 0.07712362
-0.0764393 0.0073151956 0.006967592 0.013967353 0.063356996 0.06157051 -0.06840154 0.021415738
-0.009446781 0.032149456 0.06724959 -0.018553913 -0.04145318 -0.039020624 -0.030062515 0.047077857
0.053287305 0.055295207 0.07421119 0.04597753 0.03503281 -0.007707947 -0.061411362 0.086435065
-0.029035978 0.028526291 -0.014187883 -0.03171844 -0.028783917 0.051823117 -0.06194111 0.008294052
0.019048521 -0.06330048 -0.0662344 -0.021097291 -0.06177103 -0.046356253 0.022704894 0.02704971
0.046110947 -0.053236857 -0.058718182 0.082726896 0.025777252 -0.044251677 -0.0075219944 -0.016955834
0.030920139 -0.051462475 0.026142698 -0.0033213021 -0.010691943 -0.051632468 -0.060814008 0.06260587
-0.02230959 0.0437984 0.054978337 -0.037402347 -0.020722495 -0.066231474 0.06609915 -0.030188954
-0.044013243 8.990019e-05 -0.03532591 0.005106057 -0.022996183 0.00522573 -0.0833901 -0.03482592
-0.0019650094 -0.07544154 0.05789531 -0.068324216 -0.05175563 0.046331834 0.0075300643 0.04976333
0.006769629 -0.024936097 0.054399222 0.022027018 0.06244806 0.04860142 0.0003011322 -0.03845445
-0.02868787 0.008624937 -0.018239386 -0.020820828 -0.054379173 -0.051843174 -0.068475425 -0.048988927
-0.05730625 0.057056252 -0.07391455 -0.0021186431 0.06970026 -0.0350856 -0.0013856998 -0.033753887
-0.04265253 -0.002911009 -0.02887803 0.075190164 -0.05350454 -0.01842872 0.028072752 0.05836939
-0.07180164 -0.072838664 -0.06440093 -0.075711936 0.030761447 -0.022979476 0.015622007 0.030100625
0.023633515 0.01542367 -0.0014695415 0.0025947236 0.052699145 0.016429298 -0.0145319905 0.051203836
-0.033486597 -0.08035288 0.03284247 -0.021208998 -0.042419408 0.015148937 0.023016673 0.019756595
0.011903178 0.06425566 -0.0484463 -0.042386618 0.040933587 0.062184382 0.03578374 0.025445422
-0.007617052 -0.023547074 -0.07411389 0.07001194 -0.024822354 -0.01316793 -0.08019276 0.0094079515
-0.084738456 -0.0545091 -0.0031156316 -0.04046819 -0.03591418 -0.0020334562 -0.043837715 -0.01633519
-0.08433727 -0.065285504 -0.07996294 0.06154238 -0.027061997 -0.059329435 0.040897198 0.061065532
0.014809388 0.06654286 -0.06708511 0.0074866125 -0.06739082 -0.019795174 -0.04114915 0.056327935
0.03768242 0.019411711 -0.0369282 -0.077054515 0.019350419 0.016277164 0.0013774534 0.03832455
0.020674402 -0.06803915 -0.01050239 -0.070835255 0.024960011 -0.0648095 -0.03602037 -4.4630357e-05
0.01943603 0.010684369 0.00452091 -0.054200817 -0.056274187 0.066127084 -0.04338805 -0.045772247

crystalGraphConvNet.convs.1.fc_full.bias f4 [128]
00000000: 7339 92bd 74a9 56bb b96d 003d 5731 14bd
00000010: d906 913d d0ac 23bc 3c67 083c d934 5dbd
00000020: c3fe 47bd f5b7 82bc a4b2 94bd e7e9 f43c
00000030: 285b 823d 4aa5 6fbd 9d47 51bd 5754 6b3d
00000040: 92ea f7bb 25e2 8f3d bded 9dbc bbb3 943d
00000050: 260b 6d3d edcf 58bd 59cf 593c dccf 163d
00000060: 79e9 5e3b 9ebf b13c 8c68 da3b b38e 153b
00000070: 8390 7fbd c89d 383d fe97 c9bc 2e8c 03bd
00000080: 19a9 b1bb 82cb 8c3b 8bb1 d93b a9ca d4bc
00000090: 0f37 bc3c e8cf 1abd 8e27 81b9 bec0 64bd
000000a0: aa1c 663d f06d 9a3d 4f7e f7bc 4dae ab3c
000000b0: 96d1 babc ad16 d63c fca3 0b3d bf5e 09bd
000000c0: 9d4b 7ebc f8c7 423d 8dfa 42bd 59f9 34bd
000000d0: ef9d 643d 10f0 31bc 623b 873b c51a 84bd
000000e0: 0b77 8ebd 67d7 9a3d a3e6 1abd 5e09 863d
000000f0: 68fa e0bc 922b bcbc 05e6 2e3d 5e7b 3bbd
00000100: ee9a 8e3d 9405 883c 5210 e4bb 4ff7 38bb
00000110: 04b1 70bd 74be 1c3c 871e 823c bc97 303d
00000120: c190 e8bc 2aee 793c 5e76 483d 2641 5b3d
00000130: 5e66 4d3d 18e6 8d3d 4a02 29bd cad1 de3c
00000140: d3c2 4fbd ea7b 3ebd ab19 7e3d 25cd c5bc
00000150: 1e9d 6fbc 705c 99bb 1ed0 e3bc 56c8 823d
00000160: 91e7 5e3c 2369 0ebc 0aab 903d 7a26 8f3d
00000170: 1096 1e3c 351c f1bc 5719 90bc 8e0b 9dbd
00000180: 4486 83bd e04e 34bd bc33 bfbc 3691 45bb
00000190: 8a9f 0cbd 9d0d 853d faa8 983d 33c5 ddbc
000001a0: 733a 96bb dabe 2d3d 8112 6f3d 8da9 6abd
000001b0: 438c 11bc 6f8a 953c 01f6 983c 0868 77bd
000001c0: e70b 863d 3c18 403d f586 09bb 52e9 73bd
000001d0: de83 3f3b 59e6 71bd 4eba 8bbd cb03 44bc
000001e0: 0214 06bd adfd c53c e2a4 a53c dd57 903d
000001f0: 94c4 69bd 739c 1b3d 4d96 7cbd de11 9abd
-0.07139864 -0.003275481 0.03135464 -0.036179867 0.07081384 -0.009989932 0.008325394 -0.054005478
-0.048826944 -0.015956858 -0.072606355 0.02989669 0.06365043 -0.05850724 -0.051093686 0.05745348
-0.0075658048 0.070255555 -0.019278402 0.07260843 0.05787196 -0.05293267 0.013294064 0.036819324
0.0034013672 0.021697816 0.006665295 0.002282065 -0.062393676 0.045072347 -0.024608608 -0.032116108
-0.0054217693 0.004296721 0.006643479 -0.025975542 0.022975473 -0.03779593 -0.00024634268 -0.055847876
0.05617968 0.075405 -0.030211596 0.020957137 -0.022805016 0.02613386 0.034091935 -0.033537623
-0.015520957 0.047553986 -0.047602225 -0.04418311 0.05581468 -0.010860458 0.004126952 -0.064504184
-0.069562994 0.07560616 -0.03781761 0.065447554 -0.027463153 -0.022969995 0.042699832 -0.04577195
0.06963144 0.016604222 -0.0069599533 -0.002822358 -0.058762565 0.009566892 0.015883697 0.043113455
-0.028389337 0.015254537 0.04894101 0.053528927 0.050146453 0.069286525 -0.04126195 0.027199645
-0.05072291 -0.046504892 0.062036198 -0.024145672 -0.014624862 -0.004680209 -0.027809199 0.06385867
0.013605014 -0.008692059 0.07063873 0.06989761 0.009679332 -0.029432395 -0.017590208 -0.076682195
-0.064220935 -0.044020534 -0.023340099 -0.0030146367 -0.034331836 0.06496737 0.07454105 -0.027071571
-0.0045846044 0.04241834 0.058367256 -0.057290602 -0.008883539 0.018254487 0.018671991 -0.060401946
0.06545239 0.04689811 -0.0020984982 -0.059548683 0.0029222886 -0.059057567 -0.06822644 -0.011963795
-0.032733925 0.024168814 0.020220224 0.070480086 -0.057072237 0.037991 -0.061666775 -0.07522939

crystalGraphConvNet.convs.1.bn1.weight f4 [128]
00000000: a904 7f3f 240f 803f 781e 803f 4ea3 7f3f
00000010: 3f8d 7f3f 40af 7f3f 4565 7f3f 9f42 803f
00000020: b83e 803f a1da 7f3f 9348 803f 47d1 7f3f
00000030: c012 803f 011e 803f bed4 803f 3daa 7f3f
00000040: 9bff 793f 3cae 803f 108c 803f 64e1 803f
00000050: 4e69 813f a26d 7f3f 4823 803f ed9b 803f
00000060: c438 803f a1fd 803f b973 7f3f d313 803f
00000070: 55bc 803f ae02 803f c340 823f 5e6b 803f
00000080: fa8c 803f 9ef5 7a3f 881f 7f3f e438 803f
00000090: 0019 803f 779f 7f3f e019 803f b943 803f
000000a0: a405 803f e09c 7e3f 1bf5 7e3f 7114 813f
000000b0: 6e23 813f 07d7 7f3f 3aa1 803f 4a48 803f
000000c0: 1ffb 803f d592 803f ac35 7f3f 6c1a 803f
000000d0: d2dd 803f f7d4 7e3f 4b72 7f3f 3c3c 803f
000000e0: 926c 813f 88ad 803f 9d50 803f 8e8d 7f3f
000000f0: 62b7 7f3f b246 823f ceac 803f 46e1 7f3f
00000100: 5fc0 803f 892e 803f 6df1 7f3f 1d12 803f
00000110: eae1 7f3f 538b 7f3f 2bff 7f3f 6b3d 7f3f
00000120: 30a2 7e3f a7f5 7f3f a807 803f 1b37 803f
00000130: b51e 803f 7a1b 803f a417 7d3f 6e05 803f
00000140: 865b 813f 217e 7f3f e201 803f eeab 7d3f
00000150: b4ad 7d3f 4895 803f f0b8 7e3f 8fa3 7e3f
00000160: 41cf 7e3f 8a04 7e3f 3bc6 7f3f 41b7 7f3f
00000170: 900d 7f3f 2e09 803f 4042 7c3f 4433 7f3f
00000180: a8b2 7f3f d005 813f 2cd4 803f 75b2 7f3f
00000190: 7e56 7f3f 1c17 803f f3e3 7f3f 8af4 7f3f
000001a0: 7102 803f addc 803f fd00 803f ae56 7d3f
000001b0: 5172 7e3f 4702 803f 7011 7f3f 2502 7e3f
000001c0: 6eba 7e3f dfe8 7e3f 51ea 7f3f bf41 7f3f
000001d0: 50f7 7e3f 0c0a 803f 3e59 803f d16d 7f3f
000001e0: e01a 7e3f 8b2c 7e3f 2e08 7f3f d70f 803f
000001f0: e22b 803f f49e 7c3f 3ce1 7f3f 2ee4 803f
0.99616486 1.000462 1.0009298 0.9985856 0.998249 0.99876785 0.997639 1.0020331
1.001914 0.99942976 1.0022148 0.99928707 1.0005722 1.0009156 1.0064924 0.9986914
0.9765565 1.0053172 1.0042744 1.0068784 1.0110261 0.9977666 1.0010767 1.0047585
1.0017323 1.0077401 0.99785954 1.000605 1.0057474 1.0000818 1.0176014 1.0032766
1.0043023 0.9803103 0.9965749 1.0017362 1.0007629 0.998527 1.0007896 1.0020667
1.0001721 0.9945812 0.9959275 1.0084363 1.0088937 0.9993748 1.0049202 1.0022061
1.0076636 1.004481 0.9969127 1.0008063 1.0067694 0.9954371 0.9978377 1.0018382
1.0111258 1.0052958 1.0024601 0.9982537 0.99889195 1.0177824 1.0052736 0.99953115
1.0058707 1.0014201 0.9997776 1.0005528 0.9995409 0.99821967 0.9999873 0.9970309
0.9946623 0.9998421 1.0002337 1.0016817 1.0009371 1.0008385 0.988642 1.0001657
1.0106056 0.9980183 1.0000575 0.9909047 0.99093175 1.0045557 0.9950094 0.9946832
0.99534994 0.99225676 0.9991185 0.99889 0.9963007 1.0002801 0.9853859 0.996876
0.9988198 1.0079899 1.006475 0.9988168 0.9974135 1.0007052 0.999572 0.9998251
1.0000745 1.0067345 1.0000302 0.9896039 0.99393183 1.0000695 0.9963598 0.9922202
0.9950322 0.99574083 0.99966913 0.99709696 0.9959612 1.0003066 1.0027235 0.9977694
0.9925976 0.9928672 0.99621856 1.0004834 1.0013392 0.98680043 0.99953055 1.0069635
