training_cgcnn_p_u/saved_models/pbe_378_p_u.ckpt (torch, 676938 bytes, 60 tensors)

crystalGraphConvNet.embedding.weight f4 [64, 92]
000000 cf a1 04 be a2 b7 55 3d 07 0e b0 3d 70 2f ad bd
       -0.1295235 0.05217708 0.085964255 -0.084563136
000010 61 e0 dc bc 89 92 9d bd 34 1c 03 bd 67 4c 89 bc
       -0.026962461 -0.07693965 -0.03200932 -0.016760064
000020 fb 3f 53 bc a2 fe a2 3d fc 42 8c 3c 6a 10 a7 bd
       -0.012893672 0.079587236 0.017121784 -0.081574276
000030 1a e8 21 bd 13 c7 a0 3a bf c2 05 3b c6 0a 3b bd
       -0.03952799 0.001226636 0.0020410267 -0.04566457
000040 36 65 6c 3c 55 b1 98 3d 3f 38 9c 3c 5b 98 b3 bc
       0.014428427 0.074556984 0.019069789 -0.021923235
000050 fa 23 cb 3d 8b 64 e5 bc ca 21 5f 3d cf 0a 22 bd
       0.09918971 -0.028002044 0.054475583 -0.03956109
000060 13 e4 73 bd 80 e8 6b bc e5 d1 ab bd d7 eb 61 bd
       -0.05954368 -0.014398694 -0.083896436 -0.055156555
000070 0f b1 11 3d 5d 42 c1 bd 37 bd 5b bd 64 d3 4b bd
       0.035569247 -0.09436486 -0.053647246 -0.049762145
000080 87 90 48 3c 52 ba cb 3c 6e 17 a0 3c a9 b7 a3 3c
       0.012241489 0.024869118 0.019542422 0.019985037
000090 d3 0c 10 3d 5d c4 ec 3d b4 6c 96 3d 93 1f d5 3d
       0.03516848 0.11560891 0.07344952 0.10406413
0000a0 fe 54 94 3c 26 13 c8 bc b2 bc 96 bd 4d 6f 32 bd
       0.018106934 -0.024423193 -0.073602095 -0.043563176
0000b0 37 f8 ea 3b 80 a3 91 bd c5 c7 5c 3c bd 70 91 bd
       0.007170703 -0.07111263 0.013475363 -0.07101581
0000c0 bd f5 98 bd 5f e6 cd 3d db 3e 4a bc 3c 7e 9d 3d
       -0.07468746 0.100537054 -0.0123440875 0.07690093
0000d0 55 e6 63 bd 9e 28 96 3d 86 c7 38 bc af a0 3f bb
       -0.055639584 0.07331966 -0.011278039 -0.0029240062
0000e0 77 ff 7d ba 9c c3 11 bd 82 6c 2d bd e8 ef ab bd
       -0.00096892513 -0.03558694 -0.04233981 -0.08395368
0000f0 2a 24 15 bd 80 39 13 3d a7 1f ad 3c 2c 15 96 bb
       -0.03641144 0.03594351 0.021133257 -0.0045801606
000100 3b fe 9b 3d bf e4 ca bc 09 f7 92 3d 87 aa 16 3c
       0.0761685 -0.024767278 0.071760245 0.00919593
000110 18 82 93 bd 81 1f 10 bd fa e0 79 bd 1a 7f 0b bd
       -0.07202548 -0.035186294 -0.06100557 -0.03405676
000120 f5 37 3a 3d 6d 48 76 3d 9a 33 d1 3d e7 4e 02 3d
       0.04546352 0.060127664 0.1021492 0.03181353
000130 72 7b 5d 3d 38 89 12 3d 23 54 ed 3d fc 78 dd bc
       0.054072805 0.035775393 0.115883134 -0.027035229
000140 2c 28 08 3c d9 90 2f bd 48 c9 e0 bb 63 e5 e2 bb
       0.008310359 -0.042862747 -0.006859932 -0.0069243177
000150 08 4b 0c 3b 62 b4 08 3d 9e fe 02 3e 27 94 13 bd
       0.0021407027 0.03337515 0.12792441 -0.03602996
000160 a7 7e 6a bd 7a e3 94 bd bc 69 c0 3d 62 0c 5a bd
       -0.05724969 -0.0726995 0.09395167 -0.053234465
000170 80 1e 13 bd 0d 30 66 3c 8c 30 4e bd 56 c9 a4 39
       -0.03591776 0.014049542 -0.050339267 0.00031430525
000180 9e 49 87 3d 6c 57 7b bd e2 4c 45 3c df 1e e3 bb
       0.06605838 -0.06136267 0.012042256 -0.0069311704
000190 92 49 3d 3c 29 6b 03 3c 1b 56 fe 3c 55 c7 92 3d
       0.011553185 0.008021154 0.031046918 0.07166926
0001a0 47 e5 91 3d b2 c5 ab bd 31 77 8c 3a 97 a5 a6 bd
       0.07123809 -0.08387317 0.0010716674 -0.081370525
0001b0 0c d5 88 bd 4c 95 6f bd 33 0a 1f bc c3 ad 94 3d
       -0.066812605 -0.05849199 -0.0097070215 0.07259705
0001c0 2c 49 96 bd 01 9c 9f 3d ca 96 60 3d 99 1c 06 be
       -0.07338175 0.07793427 0.054831304 -0.13096847
0001d0 8c 0f 92 bd c6 8c db bd 7b f6 c1 bd 9b 75 07 3c
       -0.071318716 -0.1072021 -0.094708405 0.008267785
0001e0 db b2 21 3d ba f6 1e 3d b2 e0 ac bc 18 eb 85 bd
       0.03947721 0.038809516 -0.021103237 -0.06538981
0001f0 c5 92 c0 3c b9 14 4b 3c 8b 66 54 bd a6 61 90 3d
       0.023507485 0.012395077 -0.051855605 0.07049875
000200 f9 f7 8e 3d ec 7b b6 3d c3 68 a0 3c 29 32 91 bd
       0.06980891 0.08910355 0.019581204 -0.070896454
000210 09 d1 a9 bd 27 21 6c bb 3f 7c 47 bd 27 04 ad bd
       -0.082918234 -0.0036030503 -0.048702475 -0.084480576
000220 06 f5 a9 3d 73 03 62 3d ed 7a 51 3d ff 62 99 3d
       0.08298688 0.05517907 0.05114262 0.07489585
000230 c8 b8 17 3d 6b 87 bd 3d c9 a8 42 bd 86 e9 cf 3d
       0.037041456 0.092543446 -0.047524247 0.10151963
000240 b1 25 75 bd be 0e a4 bc 4d d5 f2 3b fd 03 b3 3d
       -0.0598504 -0.02002656 0.0074106813 0.08740995
000250 0f 07 9d bc f6 45 6c 3d c1 86 53 bd 07 d9 a5 3d
       -0.019168405 0.057683907 -0.051642183 0.08098035
000260 40 15 ef 3d d0 14 59 bc ad 96 e3 3c 53 55 b6 3b
       0.11673975 -0.013249591 0.027781809 0.0055643707
000270 05 44 90 bd 1a 92 ba 3d 38 73 c6 bd a7 e2 03 38
       -0.07044224 0.09109898 -0.09689945 3.144392e-05
000280 7e 27 3c 3d 6c 62 17 bd c2 6a d3 bd 26 98 74 3d
       0.0459361 -0.036959097 -0.10323097 0.059715413
000290 91 f4 74 bc 1e 65 29 bc c5 bb ec 3c b1 7d 85 3d
       -0.014950887 -0.01033905 0.02889813 0.06518114
0002a0 09 2b d3 bd f5 02 8d 3d c9 af 39 bd d9 bb 98 3d
       -0.10310943 0.0688533 -0.045333657 0.07457704
0002b0 7d f1 8d bd 3f 12 9b bd f4 73 8d bd f4 4f 41 bd
       -0.06930826 -0.075718395 -0.06906882 -0.04719539
0002c0 1d 1b 37 38 dc f5 80 3c 75 61 d7 bd 65 4c 35 3d
       4.365585e-05 0.015742235 -0.10516635 0.04426231
0002d0 ec 6d 04 bd b9 c4 cc 3c a5 9b 3b bc b5 dc d1 3c
       -0.032331392 0.024996148 -0.011450683 0.025617937
0002e0 05 c6 3f bd 58 51 89 3d f0 cf 85 3d 4c 88 4a bd
       -0.046819706 0.06704968 0.065338016 -0.04944639
0002f0 b6 2b bd 3d 77 23 c8 bd 7a 9b ef 39 92 62 2a bd
       0.09236853 -0.097723894 0.0004570147 -0.04159791
000300 80 bd 7f 3d ae fb 68 bc fd 57 86 bd fe fb 84 bb
       0.06243658 -0.014220161 -0.06559751 -0.00405836
000310 2a c6 b4 3d c3 10 9b 3d 35 67 5f bb ac 5b 95 bc
       0.08826859 0.075715564 -0.0034088616 -0.01823219
000320 ee 42 3f 3d 00 1e 6f 3d 6a 0c 60 bd 0a 8c 5a 3c
       0.04669469 0.05837822 -0.05469934 0.013339052
000330 37 8c d0 3c 45 53 8e bd b3 ea b3 bc eb ff 57 bd
       0.025457485 -0.06949476 -0.0219625 -0.052734297
000340 75 c2 d1 3c 2d 39 93 bd c9 90 67 3d ed a9 66 3d
       0.02560542 -0.0718864 0.056534562 0.056314398
000350 4a 73 98 3c 36 47 ba 3d ed 1e 32 3d 03 5c e5 3c
       0.018609662 0.09095614 0.043486524 0.027997976
000360 72 48 60 bc 0d e6 e2 bd ea 7c 8a 3d 7f fa 6d bd
       -0.013689147 -0.11079035 0.06762107 -0.05810022
000370 dd 47 db 3d 00 46 f5 3a 36 7f 5c bc 7e db b8 3a
       0.10707066 0.0018712878 -0.013458064 0.00141035
000380 0e 93 12 3d 4d 5b 4e 3b 62 74 ab 3d ed 96 4f bc
       0.035784774 0.0031487525 0.08371808 -0.012670261
000390 e6 62 8a bc 8b 61 3c 3c 9b 84 9b 3d 7e 4c 41 bd
       -0.016892862 0.011497865 0.07593652 -0.04719209
0003a0 f7 c2 6d bd c0 7a bc bd 09 9f 80 bd 29 2a a0 bc
       -0.05804726 -0.092031 -0.062803335 -0.019551354
0003b0 1d 2d c8 3c 23 35 78 3c 70 09 b0 3d 45 08 ad 3d
       0.024435574 0.0151493875 0.0859555 0.08448843
0003c0 c2 bf c8 3d cc 47 d5 bd 38 2f 3e bc ce 35 81 bc
       0.098022 -0.10414085 -0.0116079375 -0.015772726
0003d0 d8 8b 8c 3d 18 49 9b 3c 15 5a 2b bc a9 08 7c bd
       0.068626106 0.018955752 -0.010458489 -0.061531696
0003e0 11 6e 25 bd 38 03 52 bd 4a d8 14 3d b0 26 69 bd
       -0.04038817 -0.0512726 0.03633908 -0.05692166
0003f0 75 d5 ae 3c 21 f1 74 bc cd ed 41 bd 7b 23 d4 bd
       0.021342019 -0.014950068 -0.047345925 -0.1035833

crystalGraphConvNet.embedding.bias f4 [64]
000000 d2 ce 07 3d 9c 44 9e bc 1f 28 db 3a 51 60 98 3d
       0.033156224 -0.019319825 0.0016720331 0.07440246
000010 c1 a9 01 bd 4f 90 46 bd 05 33 f5 3c 25 f5 5a bd
       -0.03165603 -0.048477467 0.029931555 -0.053456444
000020 7e 20 21 bd 9a 37 ab 3d 40 80 bf 3d 53 8a cc 3c
       -0.039337628 0.083602145 0.093506336 0.024968302
000030 e4 55 9f bd b2 51 ec bd 30 9d 88 bd 4d 71 2e bd
       -0.07780054 -0.1153902 -0.06670606 -0.04258852
000040 8d 41 ec 3c 7f 6d cb 3d ca d4 11 bd a6 1e 9e bd
       0.02883985 0.09932994 -0.035603322 -0.077206895
000050 73 73 ae bc aa 98 76 3c bb fa c1 bd e6 52 2c 3d
       -0.021295285 0.015051046 -0.09471651 0.042071246
000060 44 6c ab bd ef b7 8c bc 19 9e a6 3d b0 76 0e 3d
       -0.083702594 -0.01717755 0.081356235 0.034781158
000070 ad 7a b1 bd 88 db 9c 3d 9a ed 2d 3c 97 bc 23 bd
       -0.08665977 0.0765906 0.010615731 -0.039974775
000080 bd 32 c1 bd 80 6e c8 bd 80 02 ba 3d f0 f2 09 bd
       -0.09433506 -0.09786701 0.09082508 -0.03367895
000090 88 71 93 bd 0c 88 b7 bd 22 4d 2d bd 0b 91 f4 bc
       -0.07199389 -0.08961496 -0.042309888 -0.029854318
0000a0 6f 39 a2 bd ab 9e 52 bd 7c 5d a6 bd a0 89 c8 3d
       -0.07921111 -0.05142085 -0.081232995 0.09791875
0000b0 b2 6d be bd 56 e4 19 bd b7 23 b5 bd 40 1f ae bd
       -0.092982665 -0.037571274 -0.08844703 -0.08502054
0000c0 38 ee f0 bd 56 3f 8b bd 9e d0 60 b9 8b 8f 9a 3d
       -0.117641866 -0.0679919 -0.0002144002 0.0754691
0000d0 08 8f 64 bd 0b 25 4d 3d 29 5b a3 3d 67 ec d9 bc
       -0.055800468 0.050084155 0.07976372 -0.026601983
0000e0 46 bf 54 bc 7c a7 5f bc bf bc 58 3d 0a 35 a3 3d
       -0.012985056 -0.013650771 0.052914377 0.07969101
0000f0 b6 37 c1 bd e1 9e 13 3d 61 ce ea b8 21 ec 80 bd
       -0.09434454 0.03604019 -0.000111964306 -0.06295038

crystalGraphConvNet.convs.0.fc_full.weight f4 [128, 169]
000000 3d 01 bb bc 5e 3a fe bc 13 92 72 3b a2 a3 f0 bc
       -0.022827739 -0.031033691 0.0037013337 -0.029374901
000010 b9 48 f2 bc b5 b4 3e 3c be cf 94 bc 96 3d 4f bd
       -0.029575692 0.011639764 -0.018165465 -0.050595842
000020 24 1d 3e 3d c5 51 ae bd 0c d6 65 bd 84 22 59 3d
       0.04641451 -0.0851169 -0.056112334 0.053011432
000030 30 31 fa bc 68 f7 52 3d 27 66 08 3c cd 41 01 bd
       -0.030541033 0.051505476 0.008325136 -0.031556893
000040 b8 e1 04 3d 77 c7 2d 3d 61 fb e2 3c d1 28 13 3d
       0.032441825 0.042426553 0.027707757 0.035927597
000050 74 f5 56 bd e7 c1 2e 3d 77 04 b8 3d bb cd b7 bd
       -0.052480176 0.04266539 0.089852266 -0.08974787
000060 e9 91 90 3c 72 d1 04 bc f9 0b db bc ca 4b 47 bd
       0.0176477 -0.008106576 -0.026739107 -0.048656262
000070 33 a7 4c 3d fb 1d cd bc 36 fd 7f 3d 19 e1 53 bd
       0.04996414 -0.02503871 0.06249734 -0.05172834
000080 29 ae d5 3c 7e cf 73 bd 0c a7 ae 3d 64 6a b1 3b
       0.026084023 -0.05952405 0.085279554 0.005414294
000090 78 59 3d 3d 30 d4 c9 3c b5 2c 91 3c 11 0a ba 3d
       0.046227902 0.024637312 0.017721513 0.09083951
0000a0 58 ca 95 3d 18 5c 8f bb b0 32 b8 bc 36 53 21 3d
       0.07313985 -0.004374992 -0.022485107 0.039385997
0000b0 ad 54 30 bb 6e 37 9f 3d b8 a7 88 3d 54 bc 24 3d
       -0.002690594 0.07774244 0.06672615 0.040218666
0000c0 de 82 a7 3c 3f 51 52 bd d0 3f f8 3c c9 d3 26 3d
       0.020448145 -0.051347014 0.030303866 0.040729318
0000d0 71 af 5e 3d c1 9e e7 3b 41 f1 a3 bd a9 4c 75 3c
       0.054366533 0.0070684855 -0.08005 0.0149718905
0000e0 da 65 7f bd 39 2f 00 bd 53 a7 12 bc 24 f2 a5 3d
       -0.062352993 -0.031295035 -0.008951026 0.08102825
0000f0 b6 f5 b0 bc ab 0a a0 3d 19 88 c4 3c 31 84 5a bd
       -0.02160154 0.07814535 0.023990678 -0.053348724
000100 9b 16 cb bb 94 56 17 3d 47 75 4e bc 41 97 9c 3d
       -0.006197763 0.0369478 -0.012601203 0.07646037
000110 6e 47 69 3d 7b 9c 98 bd bd 07 aa bc 0a 1b 28 bd
       0.056952886 -0.07451721 -0.020755643 -0.04104141
000120 3f 09 91 3d 21 9a 5a bd 3f 74 fe 3c ba 30 8b bd
       0.07081842 -0.053369645 0.03106129 -0.06796403
000130 99 4d bb 3d 67 e7 1b 3c 4d 04 cc 3c 23 21 84 3d
       0.0914566 0.00951562 0.024904395 0.06451633
000140 b3 0f d1 3c b8 1f 61 bd 4d 07 01 3d 26 0a 23 bd
       0.025520181 -0.05496189 0.031501103 -0.0398046
000150 6f 60 d3 bc e1 00 f1 3c f3 a6 f3 bc 65 1e 49 bc
       -0.025802819 0.029419364 -0.029742694 -0.012275313
000160 04 91 9d 3d 97 2d 57 3d bc 53 a9 3d 55 44 30 bd
       0.07693675 0.052533712 0.08267924 -0.043033917
000170 1e 6d fe 3c d4 5b db bc 9e de d3 bc bf 10 12 bd
       0.03105789 -0.026777185 -0.025862988 -0.0356605
000180 6e da e9 bc b8 4f a7 3d c0 fd 01 3d 4e 99 90 3c
       -0.028546538 0.08169502 0.031736135 0.017651226
000190 8b 03 15 3d a6 46 8b bd 02 58 5f 3d ed a6 3a 3d
       0.036380332 -0.068005845 0.05452729 0.04556935
0001a0 f5 18 77 3c 94 00 05 3c be b9 24 3d 6e e9 59 bd
       0.015081634 0.008117814 0.0402162 -0.05320113
0001b0 e3 46 1f 3a 13 10 01 3d e5 e3 0e 3d 78 ab ac bd
       0.00060759316 0.03150947 0.034885306 -0.084311426
0001c0 64 c5 91 bd a5 65 04 bd f3 e3 83 3d f9 78 46 3d
       -0.071177274 -0.0323235 0.06439962 0.048455212
0001d0 f3 1c 98 bc f6 ba 66 bc 8d 14 43 bd d2 a8 b9 3d
       -0.018568492 -0.014082661 -0.04762702 0.09065403
0001e0 d6 ee 3f bd 8d 4c 2f 3d 67 90 42 3d 59 28 68 bc
       -0.04685863 0.042797614 0.047500994 -0.014169776
0001f0 19 b7 36 3c 7e b5 7a bd 48 22 e3 bd 19 29 e8 3c
       0.011152052 -0.06120824 -0.11090523 0.02833991
000200 83 fb 1b bd d7 3b 98 3d 9a f5 67 bd 9b c9 5a 3d
       -0.038081657 0.074332885 -0.05663071 0.053414922
000210 be d2 04 3c d8 59 d8 bc 6d c8 87 bd 91 c3 ef bc
       0.0081068855 -0.026410028 -0.06630025 -0.029268058
000220 eb 71 40 3b 17 a5 85 bd 14 ce 6d 3c 73 dc ad 3d
       0.0029364775 -0.06525629 0.014514465 0.08489313
000230 2e 72 1b 3d e0 dd 39 3d 64 79 ae bd 4f 0d 46 3d
       0.037950687 0.045377612 -0.08519247 0.048352536
000240 3f fa 29 bc b1 5f 2b 3d 85 ed 1a bd 2f 7a 9b bd
       -0.010374605 0.041839305 -0.037824173 -0.07591664
000250 19 a4 7e bd fe e0 0b 3c b4 60 85 bd 27 b1 5a 3d
       -0.062168214 0.008537529 -0.06512585 0.053391602
000260 fc c6 84 bc 21 3c d4 3a 39 84 74 3d 06 8b b8 3c
       -0.016208164 0.0016192236 0.05969641 0.022527229
000270 36 a5 68 bd 3e 5e 27 bc 13 b1 97 3d 80 6e 53 3d
       -0.056798182 -0.01021534 0.07406821 0.051619053
000280 d9 57 98 3d e6 4f 7c bd c7 03 99 3d c3 d9 6a bd
       0.074386306 -0.061599635 0.074714236 -0.05733658
000290 4f 00 41 3d 28 60 d7 3b b2 e3 49 ba de 81 2e 3d
       0.047119435 0.006572742 -0.0007701471 0.04260432
0002a0 0a bb a3 3c e0 43 6a bc 94 98 b7 3c 2d e3 17 3d
       0.019986648 -0.014298409 0.022411622 0.037081886
0002b0 c8 67 5c 3d cf e2 22 3d e9 66 71 3d 2c 31 12 3d
       0.05380991 0.039767083 0.058936033 0.035691425
0002c0 ad 9d 72 3b c3 8b 2f 3d a0 4f 51 3d 93 29 94 bc
       0.0037020252 0.042857897 0.051101327 -0.01808623
0002d0 11 c1 67 3b 82 8f 60 bd 44 2d 1c bd c1 66 a5 bc
       0.003536288 -0.05482436 -0.038129106 -0.020190598
0002e0 d1 26 4b 3d 55 f3 a6 3c f3 43 9c 3c e5 77 8c bd
       0.049597565 0.020379702 0.01907537 -0.068588056
0002f0 df f1 d2 3b 45 08 8f 3d 14 d9 95 3d c8 64 10 3d
       0.0064375247 0.06983999 0.07316795 0.035252362
000300 46 13 44 bb 39 fb 91 3d 0f 6a 97 3d d1 1d 54 bd
       -0.0029918714 0.07127995 0.07393276 -0.051786248
000310 a0 cd 92 bd c9 33 87 3d f1 b8 32 bb be 6b 7e bd
       -0.07168126 0.06601674 -0.0027270878 -0.06211447
000320 77 61 7d 3d d7 f6 88 bd 49 0c d1 3c 34 f5 e6 bc
       0.061860528 -0.06687706 0.025518553 -0.028193094
000330 5b 45 ff 3c b0 22 2e bd f7 67 8e bd da f3 ec bc
       0.031161001 -0.04251355 -0.069534235 -0.028924871
000340 a2 a2 07 3b 8f 50 a5 3c c0 ad a1 bc 40 99 1a bd
       0.0020696302 0.020180015 -0.01973617 -0.037743807
000350 ec 7d a5 bd bb 19 6f bd f4 79 7b bd d8 1d e8 3b
       -0.08080658 -0.058374148 -0.0613956 0.007083636
000360 e3 1e 66 bb 08 a4 da ba 98 70 8d bd f3 27 50 3d
       -0.0035113625 -0.0016680965 -0.06906241 0.05081935
000370 51 06 34 3d dc 8f 92 3d 79 ea a5 bc 1b 42 35 bc
       0.043951336 0.07156345 -0.020253407 -0.011063124
000380 8a 94 5c 3d 7e 3d 2d 3b b4 3f b2 b9 4c 83 71 3d
       0.053852595 0.0026434357 -0.00033998268 0.058963105
000390 82 31 91 bd a7 90 a6 bc 79 18 2f 3c 8e cf e9 3c
       -0.07089521 -0.020332647 0.010686987 0.028541353
0003a0 3d 29 39 bd 6f 20 ac 3c e1 dc 87 3d f9 a4 10 3b
       -0.045205344 0.02101156 0.06633926 0.0022070988
0003b0 31 b0 bc 3b 1b 72 88 bc f6 33 91 bc bb 1f c1 bc
       0.0057583083 -0.016655972 -0.017724972 -0.0235747
0003c0 2d 4a 5a bc 64 12 a2 3d 31 74 8a bd 77 a3 27 bc
       -0.013323349 0.07913664 -0.06760443 -0.010231844
0003d0 fa 48 81 3d 5f e9 85 bc b7 51 63 3d bf 7d 23 bd
       0.06312747 -0.016346632 0.05549785 -0.039914843
0003e0 86 6c 5f 3d 63 75 4a bd 02 69 48 bd 5d e9 26 3c
       0.054546855 -0.049428355 -0.04892827 0.010187474
0003f0 b0 89 19 bd 29 df 94 3d 54 9c a2 3d 58 85 59 3d
       -0.037484825 0.07269127 0.079399735 0.053105682

crystalGraphConvNet.convs.0.fc_full.bias f4 [128]
000000 a4 a0 9b 3c 62 c8 35 3d 7f 7f 91 bd d6 df db bc
       0.018997498 0.044380553 -0.07104396 -0.026840132
000010 4e 58 97 bd 82 29 ec bc 66 0f 38 bb cb 33 eb 3c
       -0.0738989 -0.028828386 -0.002808535 0.02871122
000020 d4 af 21 3a fb fa a5 bc 13 16 5c bd 4c 9b bd 3c
       0.0006167863 -0.020261278 -0.05373199 0.02314534
000030 6b dc 82 bd 6e 27 94 bd 54 18 70 3d 09 b2 0a bd
       -0.06389698 -0.07234083 0.05861695 -0.033861194
000040 25 b2 5d bd 21 c3 85 bd 17 77 71 3d 3f 1d 3a 3d
       -0.05412497 -0.065313585 0.058951464 0.045438047
000050 b6 c0 56 bb 49 02 67 bd 57 de 7a 3d 07 d8 70 bd
       -0.0032768673 -0.056398664 0.061247196 -0.05879977
000060 e0 6a 4b 3d 15 12 97 3b 25 c4 9c 3c 93 fa 09 bd
       0.04966247 0.00461031 0.019136498 -0.03368623
000070 93 b7 b3 3b 1b af 17 bc 2e c4 96 bd 38 55 53 3c
       0.0054845302 -0.009258057 -0.07361637 0.012898736
000080 0f da 0a bd fc 9d 1c 3d af 6a ae 3c 6d 7b 2c bc
       -0.033899363 0.038236603 0.021291105 -0.010527474
000090 e9 d6 d6 3c 5e 2f 42 3d cb da 65 bd 08 0d 29 bd
       0.026225524 0.047408454 -0.05611686 -0.041272193
0000a0 fb bd 32 bd 6f 1a 92 3c 12 42 88 3c 36 a3 24 bd
       -0.04363821 0.01783487 0.016633067 -0.040194713
0000b0 74 86 08 3b 90 b3 1f 3d c9 ad 90 bd 88 ff b6 3c
       0.0020832093 0.038989604 -0.07064397 0.022338644
0000c0 3b a0 f5 bc 67 1f 2e 3d 8f d4 3a 3d bc e2 6a bc
       -0.02998363 0.042510416 0.045612868 -0.014336284
0000d0 69 e7 98 bd 73 2d 33 bd c0 8d f2 bb d3 5c 97 3d
       -0.07466013 -0.043744516 -0.007402152 0.07390752
0000e0 d4 e0 df 3c 8e 80 8f 3d f9 68 80 bc 40 49 6f 3b
       0.027328886 0.07006942 -0.015675055 0.0036512166
0000f0 7d a6 4b 3d 0c d1 36 bd 8b f9 cd bb 4a 65 44 3d
       0.049719322 -0.044632956 -0.0062858514 0.04794816
000100 68 df 34 bc bc 61 7e bd 70 5e 46 3d a2 eb 0d bd
       -0.011039592 -0.062104926 0.048429906 -0.034648545
000110 db 18 42 bc ec 77 71 bd 60 bf 3f bd 38 99 3b 3c
       -0.011846746 -0.058952257 -0.04681337 0.011450104
000120 54 b2 c4 3c 35 c6 b3 bc 67 02 9d bd c5 17 64 bd
       0.024010815 -0.021945098 -0.07666474 -0.05568673
000130 ad c2 1c 3b 96 9b 2b 3c 7d bf 8a bd 8e 5f 58 bd
       0.0023919747 0.010474106 -0.06774805 -0.052825503
000140 9c d4 0f bc bb 3d 8e bc 17 fb 9b 3c ce e8 a9 bc
       -0.008778717 -0.01736342 0.019040627 -0.020740893
000150 c1 e2 61 3d 76 21 54 3c 61 f2 ca 3c ad 57 9b bd
       0.05514789 0.012947431 0.024773778 -0.07585082
000160 be 9c 98 3a 8d 38 4c 3d f2 6d 40 3d b8 44 28 bd
       0.0011643392 0.04985862 0.046979852 -0.04108116
000170 39 9f 6f 3d cb b4 40 bb e5 b0 8d 3d 8a 6d 73 3d
       0.058501456 -0.0029404636 0.069185056 0.059430636
000180 ef 02 df 3c 0a a0 84 3d eb 4f 8e 3d 35 8e 8e bd
       0.027223079 0.064758375 0.06948837 -0.069607176
000190 11 cf 73 bd 1b 49 31 bd ac ea 22 bd fb 65 55 3d
       -0.059523646 -0.04328261 -0.03977458 0.05209921
0001a0 fb fc 31 3d da be bd bc 72 9f 0d 3d ca ea a3 bc
       0.04345415 -0.023162294 0.034575887 -0.020009417
0001b0 ca d4 b9 3c d3 e5 e5 bb 3d 0a 5f 3d ba 78 71 3d
       0.022684474 -0.0070159226 0.054453123 0.058953024
0001c0 1a fd 08 3d 95 42 14 3c e9 3e 8e 3d 08 db 95 bd
       0.0334445 0.0090490775 0.06945593 -0.073171675
0001d0 7a fd 91 3c a1 76 88 bd 06 47 21 3c 33 a1 3b 3d
       0.017821062 -0.06663252 0.009843593 0.04580803
0001e0 14 d6 c9 bb 27 a4 ab bc 4f 0e e6 bc df 97 4d 3d
       -0.0061595533 -0.020952297 -0.028082995 0.050193664
0001f0 03 3e 88 bd 3c 73 ac bc 43 ca 0b 3d 19 f9 d3 3c
       -0.06652453 -0.021051042 0.03412844 0.025875615

crystalGraphConvNet.convs.0.bn1.weight f4 [128]
000000 d6 fe 81 3f 93 26 80 3f 9b 32 80 3f 57 bc 7f 3f
       1.0155895 1.0011772 1.0015444 0.9989676
000010 48 56 80 3f 6d 58 80 3f 99 fa 7f 3f 21 e3 7f 3f
       1.0026331 1.0026985 0.99991757 0.99955946
000020 b7 e5 7f 3f ce a7 7f 3f fc fd 7d 3f ac eb 7f 3f
       0.9995989 0.99865425 0.99215674 0.9996898
000030 4a ce 80 3f 16 ae 7f 3f 55 09 80 3f 25 24 80 3f
       1.0062954 0.9987501 1.0002848 1.001103
000040 d7 ca 7f 3f 16 8b 7f 3f 5a 40 81 3f d8 bf 7f 3f
       0.99918884 0.99821603 1.0097764 0.99902105
000050 20 a7 7f 3f d6 3b 81 3f e5 77 80 3f 39 2d 80 3f
       0.9986439 1.0096385 1.0036589 1.0013801
000060 94 66 80 3f 2f b2 7f 3f 94 69 80 3f 39 d1 7f 3f
       1.0031304 0.9988126 1.003222 0.99928623
000070 cf 15 80 3f 5f c8 80 3f e3 f4 7f 3f 89 42 80 3f
       1.0006655 1.0061148 0.9998304 1.0020305
000080 51 6b 80 3f bf 45 80 3f 37 f8 7f 3f 3b b6 80 3f
       1.003275 1.0021285 0.9998812 1.0055612
000090 1b 53 80 3f 0b 90 7f 3f 15 1a 80 3f 9d 50 80 3f
       1.0025362 0.9982917 1.000796 1.0024601
0000a0 b3 aa 80 3f 96 04 80 3f 2a a7 7f 3f 6f 3e 80 3f
       1.0052093 1.00014 0.9986445 1.0019053
0000b0 02 03 80 3f c8 59 80 3f a7 80 7f 3f 79 f2 7f 3f
       1.0000918 1.0027399 0.9980568 0.9997936
0000c0 af 0f 80 3f b5 96 81 3f d3 86 7f 3f 4a 6d 80 3f
       1.0004786 1.0124117 0.998151 1.0033352
0000d0 85 1d 80 3f bf 64 80 3f a2 e2 81 3f 55 89 80 3f
       1.0009009 1.0030745 1.0147288 1.004191
0000e0 ae 29 81 3f f7 e0 7f 3f 73 4b 81 3f 09 06 7f 3f
       1.0090845 0.99952644 1.010115 0.99618584
0000f0 a9 7d 7f 3f 62 ad 7f 3f 1f d7 81 3f 53 08 80 3f
       0.9980112 0.99873936 1.0143775 1.000254
000100 93 b6 80 3f 3a b9 7f 3f 1d 86 7f 3f 70 6c 80 3f
       1.0055717 0.9989201 0.99814016 1.0033092
000110 7d fa 7f 3f 6f a8 80 3f a5 e9 7f 3f 7a f0 7e 3f
       0.9999159 1.0051402 0.9996589 0.9958569
000120 23 9f 80 3f 59 38 80 3f e4 ca 81 3f a8 2f 80 3f
       1.0048565 1.0017196 1.0140042 1.0014544
000130 31 c1 7f 3f cc 0f 80 3f 99 ba 7f 3f b1 c5 80 3f
       0.9990416 1.0004821 0.998941 1.0060331
000140 94 69 80 3f c4 5d 80 3f 77 f3 7f 3f 2b 57 80 3f
       1.003222 1.0028615 0.9998087 1.0026602
000150 41 2c 80 3f bf 0b 80 3f 68 1a 80 3f ef f8 7f 3f
       1.0013505 1.0003585 1.0008059 0.9998922
000160 6b c4 7f 3f e2 63 80 3f 5d a3 7f 3f e1 bc 7f 3f
       0.99909085 1.0030482 0.9985865 0.9989758
000170 7b 94 7e 3f 65 51 7f 3f e2 fe 7f 3f ad 03 80 3f
       0.99445313 0.99733573 0.99998295 1.0001122
000180 60 63 80 3f 87 9b 7f 3f 98 be 7f 3f 2c 95 7f 3f
       1.0030327 0.9984669 0.999002 0.99836993
000190 e0 06 80 3f 32 22 80 3f 3d 63 80 3f c6 91 7e 3f
       1.0002098 1.0010436 1.0030285 0.9944118
0001a0 8e 41 7f 3f 04 fb 7f 3f 97 4d 80 3f ea 83 7f 3f
       0.99709404 0.99992394 1.0023679 0.9981066
0001b0 0c ba 7f 3f aa 0d 80 3f 35 2c 81 3f 8d f9 7f 3f
       0.9989326 1.000417 1.0091616 0.9999016
0001c0 3e 38 7f 3f df c9 81 3f 84 62 80 3f d2 0a 7f 3f
       0.99695194 1.0139731 1.0030065 0.99625885
0001d0 be 6a 7f 3f cb 8d 7d 3f c4 e3 80 3f 42 24 7f 3f
       0.9977225 0.99044484 1.0069509 0.996647
0001e0 a7 09 7d 3f 47 26 80 3f ec a1 80 3f ec 49 80 3f
       0.98842853 1.0011681 1.0049415 1.0022559
0001f0 7f 86 7f 3f ef e5 7f 3f f0 c0 82 3f 8b 71 80 3f
       0.998146 0.99960226 1.021513 1.003465

crystalGraphConvNet.convs.0.bn1.bias f4 [128]
000000 19 d4 ea bb c1 52 27 37 a5 22 ef b9 f3 f4 5a 3b
       -0.0071663973 9.973243e-06 -0.00045611445 0.0033410161
000010 5e 8e f6 ba 74 71 b3 ba 0e 68 11 bb b9 be 4f b9
       -0.0018810739 -0.0013690428 -0.0022187266 -0.00019812108
000020 38 9a 19 39 70 02 63 3a 32 86 84 bb 2f ce de 3a
       0.00014648668 0.0008659726 -0.0040443176 0.0016998703
000030 6b e4 d5 ba 6d 7c cd 39 85 c8 1b 3a 96 0d 59 3a
       -0.0016318684 0.0003919335 0.00059426605 0.00082799175
000040 24 db 01 bb e5 10 0d 3b f8 66 75 ba 03 75 36 3a
       -0.0019814456 0.0021524963 -0.0009361352 0.0006960185
000050 d6 5a 14 3b c5 e2 00 bc 46 88 75 bb f4 79 2e 3b
       0.002263715 -0.007866566 -0.0037465259 0.0026622983
000060 d5 0a 42 bb 2e 2a 5a 3b 72 a0 19 bb 4a cf 9d 3a
       -0.0029608507 0.0033289301 -0.002344158 0.0012039926
000070 2f 50 29 38 e5 2d c3 37 ae ec 73 ba e4 43 68 3a
       4.0367417e-05 2.3267183e-05 -0.00093049824 0.0008860214
000080 01 2b 03 b8 7e 99 86 ba dd ea 78 3b 88 bf 10 bb
       -3.1272884e-05 -0.0010269133 0.0037981786 -0.0022086818
000090 fa 9f c6 3b 59 a8 1e 3b 86 be 55 bb b7 a5 68 bb
       0.006061551 0.002420923 -0.0032614782 -0.0035499164
0000a0 85 05 fc ba eb b0 85 3a 3b 0f a9 b9 ce 3f ba ba
       -0.0019227719 0.001019982 -0.0003224554 -0.0014209689
0000b0 32 0c ee 3a d4 ca 57 ba cc e1 a3 bb b8 e2 4b ba
       0.0018161593 -0.0008231823 -0.0050012823 -0.0007777619
0000c0 a7 da 3a 3b 7e 7a 5c 3b 1d b4 55 3a f0 bc 17 bb
       0.0028511675 0.0033642347 0.0008152144 -0.0023153387
0000d0 09 1e c5 3a 27 fc b5 3a e3 eb f1 bb 99 62 14 bb
       0.0015038858 0.0013884351 -0.007382856 -0.0022641777
0000e0 6a 57 95 bb 27 43 0e ba 13 ea 4b bc d8 db 11 3b
       -0.0045575397 -0.00054268766 -0.012445944 0.0022256281
0000f0 6b 93 02 3b 78 d4 46 3b b6 52 4d bc 4b 6c d4 ba
       0.0019924294 0.0030339044 -0.012531927 -0.001620659
000100 66 f0 f5 bb 56 d0 0f 39 a5 49 ec 39 a0 46 75 ba
       -0.0075054644 0.00013715154 0.00045068297 -0.0009356532
000110 69 a1 b3 39 d1 f3 9e bb 21 e7 90 3a cc da db 3a
       0.000342618 -0.0048508425 0.001105521 0.001677358
000120 bb 31 1a bb d0 39 77 ba b0 4a 11 bc 36 94 7d b9
       -0.0023528177 -0.0009430917 -0.008867905 -0.00024183173
000130 35 4d bf 39 21 ab 31 b9 73 e8 41 3a 4c 20 1a bb
       0.00036487883 -0.00016943786 0.00073970034 -0.0023517786
000140 41 c5 ad ba d1 de 91 ba 9d 7a f8 b9 27 24 96 ba
       -0.0013257639 -0.0011129027 -0.000473936 -0.0011454866
000150 d3 fa bd 38 b5 88 e2 ba dd 92 98 b8 a1 98 82 3a
       9.058942e-05 -0.0017283174 -7.27528e-05 0.00099637
000160 aa 2c 9b 39 ec 21 40 3a 04 2d 70 37 b9 99 5a 3a
       0.0002959718 0.00073292735 1.4315596e-05 0.00083389465
000170 25 8f 4f 3b 82 d6 af 3a c8 4f 6c 39 65 42 16 39
       0.0031671014 0.0013415369 0.00022536435 0.00014329849
000180 c8 25 c7 ba 5b 3b 80 3a bd 04 ff 39 a4 8e ac 3a
       -0.0015193755 0.0009783314 0.0004864092 0.0013165069
000190 31 5e f7 39 56 8c 82 ba 26 22 06 bb 68 00 d0 3a
       0.0004718169 -0.0009960036 -0.0020467131 0.0015869262
0001a0 55 33 c4 3a 24 43 0c 3a 86 51 82 ba 4e 6d 87 3a
       0.0014968911 0.0005350581 -0.0009942509 0.0010332258
0001b0 8e d0 5f 3a 17 a5 d0 b9 df e4 dc bb a3 ae ad 39
       0.0008537852 -0.00039795853 -0.0067411507 0.00033127246
0001c0 0e 6a e1 3a c4 f7 f1 bb 73 a1 b7 ba ca 8d af 3a
       0.0017197744 -0.0073842723 -0.0014009908 0.0013393697
0001d0 ad 66 88 3a 15 9d 39 3b f1 e6 bd bb 09 87 9c 3a
       0.0010406576 0.0028322388 -0.0057953526 0.0011942099
0001e0 52 ca a3 3b 8d 34 12 b9 39 04 5a bb 5b d2 4c ba
       0.0049984837 -0.00013943222 -0.0033266677 -0.0007813328
0001f0 10 65 61 3a b1 f1 64 3a 66 ce 79 bc e8 ee 54 3a
       0.00085981283 0.00087335246 -0.015246963 0.0008122758

crystalGraphConvNet.convs.0.bn1.running_mean f4 [128]
000000 f9 ab 3e 3d 1d 35 bb 3d 77 e3 5e be 17 a9 38 bd
       0.046550725 0.0914099 -0.21766458 -0.04508313
000010 ec 02 8a bd 98 e6 91 bd ca 1c de bd 34 07 ad 3d
       -0.067388386 -0.071240604 -0.10845335 0.084486395
000020 d8 d9 a9 bc e6 05 52 be 90 4e 10 be 46 05 1d 3d
       -0.020733759 -0.20510063 -0.14092469 0.038335107
000030 ea 10 0e 3c 3a ed 8a 3c f7 db 19 3e 43 a8 c1 bc
       0.008671025 0.016958822 0.15025316 -0.023639804
000040 97 b0 d2 3d 5f 31 c6 3d b0 07 7d 3d 18 f6 2d 3e
       0.10287588 0.096773855 0.06177491 0.16988409
000050 27 92 4f 3d fd c8 1e 3d 87 d6 d2 3d 4a b9 68 be
       0.05067649 0.038765896 0.10294824 -0.22726932
000060 d1 d2 3c 3e fd 69 dd 3d ca 56 42 bd c9 93 6b 3d
       0.18439795 0.10811231 -0.04744605 0.057513986
000070 ad 6a cf bd 0b 3f 5f 3d 00 b5 8d be b1 79 0d 3e
       -0.10127769 0.05450348 -0.27677155 0.13815953
000080 56 14 e4 3b a0 d0 33 3d ec 67 1c 3e d5 69 8f bd
       0.006960432 0.043900132 0.15274018 -0.07002608
000090 ec 67 35 3c 42 05 a8 3b 28 ed 80 bd 16 fd 58 be
       0.01107214 0.00512758 -0.06295234 -0.21190295
0000a0 40 1a 72 3d 1a 39 1b 3e 4e de 49 3d b5 5d 28 3e
       0.059107065 0.15158501 0.049284272 0.16441996
0000b0 f2 43 29 bd 8d 2c 02 3e 38 88 02 be d6 0c e7 3d
       -0.041324563 0.12712307 -0.12747276 0.11281745
0000c0 f1 f1 37 3d 64 7d 52 bc d2 8c 56 bd 04 4f 6d bd
       0.044908468 -0.012847278 -0.05238039 -0.057936683
0000d0 5c c3 4e 3d 00 55 7f 3d c9 14 9e bc aa 7b 90 3e
       0.050479278 0.06233692 -0.01929702 0.28219348
0000e0 fb 20 8b 3e 74 f4 94 39 1a 75 c9 bc e2 22 a0 3d
       0.271736 0.00028410892 -0.024591971 0.07819153
0000f0 52 7e 32 3d 65 fd d8 bc fe 26 c7 bd 23 90 c7 3d
       0.0435775 -0.026488015 -0.09724234 0.09744289
000100 58 4b 8d bd 60 cb 1c 3c fa 02 b8 bd 82 9d a7 bd
       -0.06899136 0.009569973 -0.08984943 -0.08184339
000110 f5 d9 b7 3c 21 49 bd bd 0f 96 8f be 58 08 c3 3c
       0.022442797 -0.09242464 -0.28044173 0.02380769
000120 ed 25 fa 3c 72 cd 3c bd 80 44 2a be 39 26 d6 3d
       0.030535663 -0.046094365 -0.16627693 0.10456509
000130 d6 ea 43 bd bd bf 56 3e 5a b5 23 3c 86 6f 71 bc
       -0.04783138 0.2097158 0.009991968 -0.014736062
000140 06 67 2c bd a2 e0 30 3e c9 61 81 bd 4c bd 13 3d
       -0.04209044 0.1727319 -0.06317479 0.0360692
000150 f2 7f 67 3e 49 02 11 3d 54 ce 77 3d a3 58 81 bd
       0.22607401 0.03540257 0.060499504 -0.06315734
000160 95 d1 ad bd 44 f7 fd bb 27 84 cf 3d e0 10 05 3e
       -0.0848724 -0.0077504236 0.10132628 0.12994719
000170 e6 9c 78 3e 81 ee 4c 3e d6 f8 06 bd 3e 7b a8 3e
       0.24278602 0.20012857 -0.032952152 0.32906526
000180 06 31 78 3d 18 72 94 3e 76 58 38 3e 2e 76 9a bd
       0.060593627 0.28993297 0.18002495 -0.07542072
000190 9a f1 9d bd 78 0a 20 be 93 c0 bc bd 7b 1d b8 3d
       -0.077120975 -0.15628994 -0.09216418 0.08989998
0001a0 81 4f ca bb 9f 43 d6 3b 72 ec 59 bd fd bf 3e 3e
       -0.0061740284 0.006538823 -0.053204007 0.18627925
0001b0 1a 80 04 3e 06 06 6d 3d c0 68 9d b9 66 58 2d 3d
       0.12939492 0.057867073 -0.00030023418 0.04232063
0001c0 64 07 7e 3e 2e d8 a1 bd 7f 03 a7 bb f2 9a 7c be
       0.24807507 -0.07902561 -0.0050968523 -0.24668482
0001d0 74 35 7d 3d 33 87 ac 3d 03 ae 9a 3d 20 0b 45 3e
       0.061818555 0.08424225 0.07552721 0.19242525
0001e0 3e d5 a9 3e 09 c0 1c be f6 1b 84 bd 51 42 bc 3e
       0.33170503 -0.1530763 -0.064506456 0.36769345
0001f0 e4 d2 33 3c 87 1f c4 3c 07 d7 40 bd e2 64 ab bd
       0.010975573 0.023940815 -0.047080066 -0.08368851

crystalGraphConvNet.convs.0.bn1.running_var f4 [128]
000000 5a a9 5a 3c cc 18 75 3c 2a ef e3 3c 2c 7c 15 3c
       0.013346041 0.014959525 0.027824003 0.009123843
000010 99 61 33 3c e7 c0 71 3c da 42 49 3c 5b 68 22 3c
       0.010948562 0.014755464 0.012284005 0.009912576
000020 a1 e2 47 3c 11 7f 92 3c 2f 6a e0 3c 5d f7 30 3c
       0.012200029 0.017882856 0.027394382 0.0108011635
000030 fa fd 0d 3c 87 9a 94 3c 86 ba 69 3c 6a 43 10 3c
       0.00866651 0.01814009 0.014265662 0.008805135
000040 85 ce d4 3c 91 81 35 3c 8c 27 aa 3c 38 bf 68 3c
       0.025977382 0.011078254 0.02077081 0.014205746
000050 14 06 35 3c 59 9a 85 3c 40 fd 91 3c 31 0b cf 3c
       0.011048812 0.01630895 0.017820954 0.025273891
000060 d1 b1 15 3c d1 39 89 3c 23 b2 ac 3c 6c d5 86 3c
       0.009136633 0.016751202 0.021081036 0.01645919
000070 2a bf 62 3c 4c 6d 71 3c 26 86 34 3d 08 1a 17 3c
       0.013839522 0.014735531 0.044073246 0.009222515
000080 b5 81 56 3c 01 7c e3 3c eb be fc 3b d6 55 1e 3c
       0.013092448 0.02776909 0.007713189 0.00966402
000090 03 84 25 3c 10 e6 8d 3c 47 bc 7e 3c 77 e5 23 3c
       0.010102275 0.017321616 0.0155478185 0.010003439
0000a0 40 22 7d 3c 9f 59 26 3c f5 2e 67 3c 53 ec 19 3d
       0.01545006 0.010153203 0.0141103165 0.037578892
0000b0 d0 a0 a1 3c 08 3d 3a 3c f9 5c 7f 3c f6 fb 77 3c
       0.019730002 0.01136709 0.015586131 0.015135756
0000c0 92 d9 83 3c 89 51 5f 3c 35 5a 03 3c b0 e6 a3 3c
       0.016094957 0.013630279 0.0080171125 0.020007461
0000d0 0c da f4 3c a5 88 21 3d f3 30 4e 3c d6 29 05 3d
       0.02988913 0.039436955 0.012584913 0.0325106
0000e0 07 80 33 3d 01 52 93 3c f7 03 36 3c e9 85 60 3c
       0.04382327 0.017983438 0.011109344 0.013703802
0000f0 b9 97 25 3c 73 75 c7 3c 73 33 54 3c e8 97 b3 3c
       0.010106974 0.024347996 0.01295172 0.02192302
000100 44 53 ba 3c 1a df 7d 3c 8b 5c 1e 3d af 1a 43 3c
       0.022744782 0.015495086 0.038662475 0.011908217
000110 7a 3c 8b 3c ad c4 82 3c 31 07 1b 3d 05 fc a0 3c
       0.01699661 0.015962923 0.037848655 0.019651422
000120 d9 7b 3b 3c 29 ba 83 3c ff 66 c6 3c 28 c0 d1 3c
       0.011443102 0.016079979 0.024219034 0.025604323
000130 82 01 e7 3c b5 35 e1 3c df 53 7d 3c d5 fd b1 3c
       0.028198961 0.02749143 0.015461891 0.021727482
000140 a4 b3 b0 3c 9c 48 f3 3c 88 da 14 3d 5e 56 e1 3c
       0.021570034 0.029697709 0.03634122 0.027507003
000150 c3 ab b5 3d b4 82 4d 3c ee e3 f2 3c 21 b3 c1 3c
       0.088706516 0.012543369 0.029649701 0.023644986
000160 65 0f 95 3c 24 bf c9 3c 61 0c 89 3c 21 fb 22 3d
       0.018195817 0.024627276 0.016729536 0.039790276
000170 cd fa df 3c 21 0f 0b 3d 85 11 0b 3d 37 3f bd 3d
       0.02734127 0.033949975 0.033952255 0.09240573
000180 38 ee ae 3c 99 8c 10 3d 86 c1 27 3c 35 01 3f 3c
       0.021353826 0.035290334 0.010239011 0.011658003
000190 09 42 b3 3c cf 53 59 3c 5d 7e 75 3c 11 0c a6 3c
       0.021882074 0.01326461 0.014983741 0.020269426
0001a0 24 49 da 3c 4f e5 7b 3c d6 ca 5a 3c 44 56 8e 3d
       0.026646204 0.015374496 0.013354024 0.069500476
0001b0 54 b0 12 3d 97 d4 ae 3c 31 ab ca 3c e0 b0 89 3c
       0.03581269 0.021341605 0.024739834 0.016807973
0001c0 68 d2 39 3d 40 cf f6 3c 9b 80 a5 3c 4a 6d ea 3c
       0.045366675 0.030128121 0.020202925 0.028616566
0001d0 84 c6 65 3c 2c 54 77 3d 52 59 5b 3c ce cb d3 3c
       0.014024381 0.060383007 0.013387995 0.025854018
0001e0 ac 14 06 3e 0f e8 0d 3d f9 5b f0 3c e7 ac 34 3d
       0.13093823 0.034645136 0.029340731 0.044110205
0001f0 77 66 b4 3c 82 b6 74 3d c7 58 bc 3c 43 88 41 3d
       0.022021515 0.059744366 0.022991551 0.04724909

crystalGraphConvNet.convs.0.bn2.weight f4 [64]
000000 ac a0 85 3f 29 4a 7f 3f 0f 1f 7e 3f 2e 7c 7f 3f
       1.0439658 0.99722534 0.9926614 0.9979886
000010 1a da 7d 3f 0c d6 81 3f fb b8 80 3f b0 41 78 3f
       0.9916092 1.0143447 1.0056452 0.9697523
000020 95 32 83 3f e9 19 7e 3f 1d 5b 83 3f 28 cd 7f 3f
       1.0249811 0.99258286 1.026218 0.9992242
000030 ea d1 80 3f 47 ab 7c 3f 26 1d 7c 3f ff 68 80 3f
       1.0064061 0.9869885 0.98481977 1.0032042
000040 be 34 80 3f 58 c2 7f 3f e4 7a 7f 3f 13 be 7f 3f
       1.0016096 0.9990592 0.9979689 0.99899405
000050 e9 82 7b 3f 29 ed 7b 3f ec 6b 80 3f a1 fd 7d 3f
       0.9824663 0.9840875 1.0032935 0.9921513
000060 c5 04 82 3f bd 87 76 3f f0 a6 80 3f 48 da 7b 3f
       1.0157706 0.9630087 1.0050945 0.98379946
000070 7b cd 76 3f e0 37 80 3f 95 e2 80 3f 53 08 7f 3f
       0.9640729 1.0017052 1.0069147 0.99622077
000080 d8 e5 7b 3f ba 42 7d 3f e0 ca 7b 3f 97 fa 7d 3f
       0.9839759 0.9892994 0.9835644 0.99210495
000090 89 00 7e 3f 6f 63 7d 3f 4f 3b 81 3f 3b 33 7e 3f
       0.99219567 0.9897985 1.0096225 0.9929692
0000a0 8f ec 79 3f 36 6f 7b 3f 04 09 81 3f 3c 39 7f 3f
       0.97626585 0.9821657 1.0080876 0.9969671
0000b0 43 8e 74 3f 08 10 7f 3f 02 08 83 3f 3d 02 7f 3f
       0.95529574 0.99633837 1.0236819 0.9961279
0000c0 ba bb 7a 3f 9e 55 83 3f ff e6 7d 3f d0 e5 7f 3f
       0.979427 1.0260503 0.991806 0.9996004
0000d0 e0 48 7b 3f db 46 7b 3f 11 66 83 3f ee 10 7c 3f
       0.98158073 0.9815499 1.0265523 0.9846333
0000e0 82 90 7b 3f 03 6d 84 3f 71 0a 85 3f e3 f3 7f 3f
       0.98267376 1.0345768 1.0393811 0.99981517
0000f0 cc ef 7e 3f 73 fc 7c 3f 8c f9 85 3f 53 9b 86 3f
       0.9958465 0.98822707 1.0466781 1.0516151

crystalGraphConvNet.convs.0.bn2.bias f4 [64]
000000 18 44 09 bc 09 94 c6 bb 5c 07 ae bb 2f 0d 90 bc
       -0.008378051 -0.0060601276 -0.005310936 -0.017584411
000010 3d e2 fd bb 38 c4 fa 3b 05 7a 66 3c 7b e4 af bc
       -0.007747917 0.0076527856 0.014067178 -0.021471253
000020 a1 45 5e 3c 74 b9 e8 bb a6 09 a8 ba 32 6d 53 ba
       0.0135664055 -0.007102186 -0.0012820258 -0.00080652826
000030 6b e7 87 3a 32 68 75 bc ba 0d 1f bc 74 f8 dc bb
       0.001036865 -0.014978455 -0.0097078625 -0.006743485
000040 18 5c 14 bb d5 a3 09 bb 27 93 67 39 79 5a 5d 3b
       -0.00226379 -0.0021002193 0.00022084695 0.003377585
000050 fa 39 45 bc 59 ac 97 bc 04 44 20 bc 5c 47 9a bb
       -0.0120377485 -0.018514799 -0.009781841 -0.0047082137
000060 a2 9e 58 3c b5 ba 87 bc 6c 52 43 bb 4a bb 62 bc
       0.013221415 -0.016568521 -0.0029803766 -0.0138385985
000070 28 30 70 bc db 09 31 3a ef c1 cc 3b e2 4d ea bb
       -0.014659919 0.0006753483 0.0062487046 -0.0071503976
000080 0b 86 52 bc dc 6c 04 bb 2f f9 46 bc be bc 4b bc
       -0.012849341 -0.0020206487 -0.012144371 -0.012435136
000090 4e 18 fb ba f4 08 d7 3a bf cc 2c bc 0e cb 11 bc
       -0.0019157024 0.0016405866 -0.010546862 -0.00889851
0000a0 d8 36 86 bc 55 25 09 bc 4f e1 8e bb 49 bc ce 3b
       -0.016383573 -0.008370717 -0.004360355 0.0063090664
0000b0 3f ea 93 bc 80 31 b3 bb 7b 27 4a bc 91 80 54 bc
       -0.018056033 -0.0054685473 -0.012338514 -0.012970106
0000c0 22 6c 78 bc b8 98 b3 bc eb 80 51 bc a2 5c 83 bb
       -0.0151625 -0.021923408 -0.012787084 -0.0040088454
0000d0 3b f0 cd bb 7b 32 8d bc c8 04 0c bc a7 a5 4e bc
       -0.006284741 -0.017235985 -0.008546062 -0.012612737
0000e0 58 0d 3a bc 10 96 5b 3c 27 8c 06 bc 57 a0 33 3a
       -0.01135572 0.013402477 -0.008212126 0.00068522006
0000f0 b0 4a 22 3c 2e 8a c0 ba 4b 20 de 3a 00 ca c8 3c
       0.009905502 -0.0014689618 0.001694688 0.024510384

crystalGraphConvNet.convs.0.bn2.running_mean f4 [64]
000000 2a 1c 9e 40 45 71 ab 40 ad 70 bc 40 12 32 9b 40
       4.940938 5.357577 5.8887544 4.849862
000010 ff 4f a6 40 99 aa a1 40 0f ca b3 40 a7 e3 b7 40
       5.197265 5.052075 5.6184154 5.7465396
000020 cd 84 a2 40 e6 45 af 40 1f 38 9d 40 d0 1a 9d 40
       5.078711 5.4772825 4.9131007 4.909523
000030 ab 25 96 40 f7 b2 ae 40 7a 0b ba 40 3c d1 ac 40
       4.692098 5.4593463 5.813901 5.4005413
000040 95 b7 9f 40 51 73 b5 40 ff 3a b1 40 1a aa b4 40
       4.99116 5.6703267 5.5384517 5.6457644
000050 16 86 ac 40 f4 69 9f 40 49 a8 b2 40 c5 17 ae 40
       5.391368 4.9816837 5.5830426 5.4404016
000060 ed 48 94 40 01 59 a3 40 e9 e8 b0 40 17 7e ba 40
       4.633902 5.1046147 5.5284314 5.827892
000070 06 1c 9c 40 28 5c a5 40 f2 e7 b8 40 9c 7b a7 40
       4.878421 5.1674995 5.7783136 5.233839
000080 29 8e a9 40 72 6b b7 40 1f 92 a5 40 cf 65 9f 40
       5.2986035 5.731866 5.174087 4.981178
000090 c1 fb a6 40 ff 5d b8 40 44 ff af 40 35 e0 95 40
       5.2182317 5.761474 5.4999104 4.683619
0000a0 d3 2c b4 40 27 f5 b4 40 b3 cd a6 40 b0 12 c0 40
       5.6304717 5.654926 5.21261 6.002281
0000b0 00 76 ab 40 f0 43 a8 40 ed 99 ad 40 bf e5 bc 40
       5.3581543 5.258293 5.42504 5.903045
0000c0 af 1c bb 40 dc 3c 9a 40 05 ae af 40 4b 2c ae 40
       5.8472514 4.819929 5.4899926 5.442907
0000d0 90 b9 b0 40 7e 65 bc 40 96 89 93 40 9a 5d b9 40
       5.5226517 5.887389 4.610545 5.792676
0000e0 c8 21 c1 40 57 bf b9 40 39 a3 9e 40 c7 c6 b3 40
       6.0353737 5.804607 4.9574246 5.618015
0000f0 1c 60 a4 40 f8 45 b9 40 4b c8 9e 40 40 b0 b2 40
       5.136732 5.789791 4.96195 5.584015

crystalGraphConvNet.convs.0.bn2.running_var f4 [64]
000000 36 38 28 41 99 8f 3f 41 55 24 ac 41 43 16 72 41
       10.513723 11.972558 21.51774 15.130435
000010 55 b3 5e 41 26 84 46 41 98 a2 c1 41 ee a9 c7 41
       13.918782 12.407263 24.204391 24.957973
000020 f5 9a 68 41 80 92 94 41 5a 91 9a 40 6c 51 31 41
       14.537831 18.571533 4.830243 11.082378
000030 f8 6d 13 41 f0 39 00 41 19 e4 96 41 ba 3c 26 41
       9.214348 8.014145 18.861376 10.389826
000040 dd 68 50 41 b2 43 7e 41 a1 f6 cb 41 ea 75 88 41
       13.025601 15.891527 25.495424 17.057575
000050 d5 b3 e7 40 a2 ca 03 41 48 bc 48 41 05 20 9e 41
       7.240702 8.236971 12.545967 19.765635
000060 1c 73 06 41 af 25 82 41 bc c6 39 41 02 1d 7c 41
       8.403103 16.2684 11.611019 15.757082
000070 73 38 5b 41 d7 01 15 41 a1 f5 d1 41 6f f3 2d 41
       13.701282 9.312949 26.244936 10.871932
000080 80 a2 21 41 61 75 9d 41 42 78 03 41 5a 03 56 41
       10.102173 19.682314 8.21686 13.375818
000090 cb 4e 80 41 1d a6 c1 41 8d 0e 73 41 2b 5e d1 40
       16.038473 24.20611 15.191052 6.542745
0000a0 14 7a 36 41 cd da 94 41 27 1c 20 41 b1 f6 44 41
       11.404804 18.606836 10.006873 12.310227
0000b0 5a 1a 5c 41 b4 b1 44 41 62 64 48 41 ce 10 4a 41
       13.7564335 12.293385 12.5245075 12.629103
0000c0 65 7c b2 41 98 58 de 40 0f 11 8a 41 48 74 91 41
       22.31074 6.9483147 17.25833 18.181778
0000d0 4d f5 53 41 96 8b 8a 41 b1 f4 4c 41 c3 1f 89 41
       13.247388 17.318157 12.809739 17.140509
0000e0 e9 2d 94 41 42 cc 46 41 c5 94 2f 41 2e b6 8a 41
       18.522417 12.424868 10.973821 17.338955
0000f0 44 8c 31 41 f5 42 04 41 b4 f3 01 41 17 51 c5 41
       11.096745 8.266347 8.121998 24.664595

crystalGraphConvNet.convs.1.fc_full.weight f4 [128, 169]
000000 25 58 44 3a 9c 29 83 bc fa b6 bb bd d0 aa 81 bd
       0.0007489941 -0.016011052 -0.091657594 -0.06331408
000010 0e 4d 05 bd ac 7a 95 3d fd be 71 3d 07 0a 2f 3d
       -0.03254419 0.072987884 0.05902003 0.042734172
000020 18 9d 7d 3d a9 17 1c bd ad 07 9a 3c 5f db 4c 3c
       0.061917394 -0.0381085 0.018802488 0.012503474
000030 8a 49 d0 bc 6b f7 1c 3d c2 04 62 3d d2 c5 7a 3d
       -0.025425691 0.038321894 0.05518032 0.061223812
000040 25 33 55 3c e8 9d 30 bc 2a 98 80 3c e3 be 8e 3d
       0.013012682 -0.010779835 0.015697557 0.069700025
000050 1a 98 7b 3d 42 64 33 3d 78 74 ae bd ea 20 bc bd
       0.061424352 0.043796785 -0.085183084 -0.09185965
000060 81 f0 39 3d 72 a1 e2 3c fb f7 02 bd 46 25 96 bd
       0.045395378 0.027664874 -0.031974774 -0.07331328
000070 2c be 61 3c 8e b2 77 bc 9a fc f1 bc 0d 77 dc bc
       0.013778251 -0.015118254 -0.029539395 -0.026912237
000080 d6 be a5 3d 6e 28 97 bd c0 55 a9 3c 31 36 12 3d
       0.0809304 -0.07380758 0.020670772 0.035696212
000090 dd e6 28 bd 90 eb a3 bd 54 4d be bb c7 ae 1c bc
       -0.041235793 -0.08003914 -0.005807558 -0.009563155
0000a0 ba ae a1 bd 67 16 1f 3c 3e 4a 8d 3d a7 89 92 3d
       -0.078946546 0.009709931 0.06898926 0.07155161
0000b0 4e 50 c0 3c 6f c7 22 3d 87 b1 8f 3c 00 b1 46 3d
       0.023475792 0.039740976 0.017540706 0.048508644
0000c0 f1 f3 84 3d 7a 73 94 3d 4f 58 5c bd 3b 27 6f bd
       0.06491841 0.07248588 -0.053795155 -0.058387022
0000d0 f7 65 1a 3c e2 5f c1 3c 4c cb eb 3c 09 47 9a 3c
       0.009423724 0.02360529 0.028783463 0.0188327
0000e0 01 4e 99 bd 95 aa 5c 3d e2 25 9c bd f1 3e bd 3c
       -0.07485581 0.053873617 -0.07624413 0.023101302
0000f0 4e 06 a3 3c da ff 4a bd 4e 66 b4 3d 1c 5c 4e bd
       0.019900467 -0.049560405 0.088085756 -0.05038081
000100 36 eb 64 3d ed 34 5a 3d 1f 7a ab bd e7 ff a1 3d
       0.055888377 0.05327313 -0.08372902 0.079101376
000110 98 d2 e4 3c 38 3c 52 bd b2 56 86 bc 87 67 1d 3d
       0.02793245 -0.05132696 -0.016398761 0.03842881
000120 7e 3b fb bb ef 85 fe bb 5c 9e 9f bd e6 c8 54 3c
       -0.007667004 -0.007767431 -0.077938765 0.012987351
000130 5f cb e5 3b c6 22 69 3d b4 f3 f7 bc 11 c1 2b 3d
       0.007012769 0.05691793 -0.030267574 0.04193217
000140 db 35 ff bb 22 d5 4d bd 38 0f fd bc 9a a0 dc 3c
       -0.0077884025 -0.050252087 -0.030891046 0.02693205
000150 1c f7 66 bd 27 47 b2 3c 94 ee 05 3c 90 8f 6f 3d
       -0.056388006 0.021762444 0.008174557 0.05848652
000160 5f 40 76 bd ec b8 20 3d 7e 45 04 3c 30 71 25 bd
       -0.060119983 0.039238855 0.008073209 -0.040391147
000170 51 6b 4e 3d 1d 24 dc 3c ec 0d f2 3c 72 99 3b 3d
       0.050395314 0.026872689 0.029547654 0.045800634
000180 7c d0 13 3d 8f 21 11 bd 7a ed ed bc 06 58 8b 3d
       0.036087498 -0.035432395 -0.029043902 0.068038985
000190 ab 1e 28 bd fa d1 5c bd 45 0e 4c bd 27 81 15 3d
       -0.041044872 -0.053911187 -0.049818296 0.036500122
0001a0 87 d3 41 bd da ef 39 bc a7 a9 7c 3c 14 cd 87 bc
       -0.04732087 -0.011348689 0.015421308 -0.016577281
0001b0 cc ab 85 3c b7 f1 1c 3d 4b fb 96 3d 8c f3 4f bc
       0.01631727 0.038316455 0.07372149 -0.012692343
0001c0 8a d2 e7 bc 37 f7 3a bb ca 04 95 3d da 94 05 bd
       -0.028298635 -0.00285287 0.07276304 -0.03261266
0001d0 45 28 86 bc 0b 74 1a 3d 0c a8 a1 3d dd 36 29 bd
       -0.016376624 0.037708323 0.078933805 -0.041312087
0001e0 39 c8 6f bc bc 1d c3 3b 90 48 94 bd 70 0d 94 3d
       -0.014635139 0.0059544723 -0.07240403 0.072291255
0001f0 ba 5b c0 bc ac bc 35 bd fc 65 a3 3b 1d 9b 19 bc
       -0.023481239 -0.044369385 0.0049865227 -0.009375361
000200 28 f9 9f 3b ba 4b 9a 3d f3 d0 d9 bc 0d 05 4b ba
       0.0048819967 0.07533975 -0.026588893 -0.0007744588
000210 56 8e 5b bd 5f d3 bc bc 12 3a 9d 3a ec 8d 85 bc
       -0.05360254 -0.023050008 0.0011995456 -0.016303025
000220 ab 70 32 3d 23 59 8c 3d da 8d c4 3a 0c 66 84 bd
       0.04356448 0.06852939 0.0014995888 -0.064647764
000230 31 46 d5 bc 31 ad 1a bd db 14 3e bd 1c ff dd 3c
       -0.026034446 -0.037762824 -0.046406608 0.027099185
000240 5f 31 5c bb d4 07 23 bc 4e fe 40 bd b7 7a b8 3c
       -0.0033598763 -0.009950597 -0.047117524 0.022519452
000250 48 e7 6c bd 92 8a 5b bd 41 29 54 3c dc 3b 23 bc
       -0.057837754 -0.053598948 0.012949289 -0.009963002
000260 65 fc 4a bd f1 72 94 3d 1b b7 81 bd 6f b2 0b 3d
       -0.04955711 0.07248486 -0.06333753 0.034105714
000270 b2 4e 2c 3d 06 2a 63 3d bd 0c 2a 3c 8a c2 05 3d
       0.042067237 0.05546 0.010379014 0.03265623
000280 9e 70 76 ba 4f af 69 3c 78 8a 95 bd 82 9c 80 3d
       -0.00094009365 0.014262988 -0.073018014 0.062798515
000290 0b af 98 3d c5 36 e6 ba 0d a9 5b bd 14 6b d4 bc
       0.07455262 -0.001756393 -0.053628016 -0.025929965
0002a0 a8 13 53 3c ec 8b 6c bd b1 6f ae bc 38 88 1c bd
       0.012883104 -0.057750627 -0.021293493 -0.038215846
0002b0 d3 e1 92 bd 91 6a 17 bc d7 a8 44 3d 7c e0 4c bd
       -0.07171979 -0.009241716 0.04801258 -0.050018772
0002c0 64 5f b4 bc 19 58 4a 3d 79 9d 52 3d 72 9b 81 bd
       -0.022018142 0.049400423 0.05141971 -0.06328477
0002d0 d4 c9 9c bd 94 d4 b0 3b bc 75 a9 3c 5f 3c 1d bb
       -0.07655683 0.005396435 0.020686023 -0.0023992283
0002e0 0b 04 f5 3a c9 1c 97 3d 0d 24 df 3c 2e 5a 2f bd
       0.0018693222 0.07378537 0.02723887 -0.04281061
0002f0 0a 1b d1 bc df 88 01 3d 02 cf 0d bd 6f 4e ac 3d
       -0.025525589 0.03162467 -0.034621246 0.084133975
000300 bb 0e eb bc 09 55 0f 3b 65 24 94 3c ee 08 05 bd
       -0.028693547 0.0021870753 0.01808376 -0.03247922
000310 bb 68 80 3d cb 4f 71 3d 56 9c 37 3c 9c 2f 63 bd
       0.06269976 0.058913987 0.011206707 -0.055465326
000320 35 77 78 bd 1e 90 20 bd 33 31 b5 bc d4 9e 10 bd
       -0.06066056 -0.03919994 -0.022118187 -0.03530772
000330 e1 79 98 3d 1d 13 f4 3b 7b 5b 47 bd 90 bd 3f bc
       0.074451216 0.0074485675 -0.048671227 -0.01170291
000340 a6 1e 8e 3b c5 36 83 3c 3f 7a 15 3c 11 3a 49 bd
       0.0043371497 0.016017327 0.009123384 -0.049127642
000350 83 5d 54 bd d9 f6 80 bc 51 e5 00 3c f8 d4 11 3d
       -0.051846992 -0.015742706 0.007867173 0.035603493
000360 66 f5 54 bd 66 85 8e 3b 5f 71 d2 3c 08 aa 90 3b
       -0.051991843 0.0043493984 0.025688825 0.0044148006
000370 98 70 38 bd 5f d3 19 bd 0e 93 83 bd a5 51 09 3c
       -0.045029253 -0.037555095 -0.06424533 0.008381282
000380 ef b6 74 3d 58 7a 9d 3c 3e cf 7b bd 22 3a 79 bd
       0.05974477 0.019223377 -0.06147694 -0.060846455
000390 c1 a7 76 3d ce 30 59 3d a5 91 95 bd 65 52 25 bd
       0.060218576 0.05302506 -0.0730317 -0.04036178
0003a0 61 24 f0 3c e5 2e 87 3d 94 a8 2b bc 61 78 87 3d
       0.029314222 0.06600741 -0.010477204 0.06614757
0003b0 75 6c 36 3d 0c ff be 3c cc 3b a2 bc 83 c0 80 3c
       0.044537026 0.023314975 -0.019803904 0.015716797
0003c0 b5 c0 4a bd 30 2d 00 bc 0d 73 29 3c 33 fd e2 3c
       -0.049500186 -0.007823274 0.010342372 0.027708625
0003d0 da cc 13 bd d4 f3 8b bd f5 fa a9 3c f5 ab 38 bc
       -0.036084034 -0.06833616 0.020749548 -0.0112714665
0003e0 67 c9 8c 3d 46 cc 5f bd 0c fd 92 3d 6f dc b0 3c
       0.06874352 -0.05463817 0.07177171 0.021589486
0003f0 c5 46 3d 3d 32 ce 4f bb 2e ee 3d bd 31 c7 70 3d
       0.04621007 -0.0031708595 -0.046369724 0.058783714
