training_cgcnn_p_u/saved_models/pbe_168_p_u.ckpt (torch, 676938 bytes, 60 tensors)

crystalGraphConvNet.embedding.weight f4 [64, 92]
0	0x3bf04971	0.0073329736
1	0x3d2c1734	0.042014316
2	0xbd91afc9	-0.071136065
3	0xbd3aecee	-0.04563611
4	0x3dee3c42	0.11632587
5	0xbdd0d675	-0.101971544
6	0x3b3b67b2	0.0028595743
7	0xbddd8376	-0.1081609
8	0x3cf5af8c	0.029990934
9	0x3d88e57f	0.06684398
10	0x3c86db2a	0.016461927
11	0x3cb523a4	0.022111721
12	0x3bdac4a1	0.006676272
13	0x3da2de3c	0.07952544
14	0xbb1ead74	-0.0024212273
15	0x3dc32c76	0.095299646
16	0xbd9b5706	-0.07584958
17	0x3d38e125	0.04513659
18	0x3d5dc215	0.05414017
19	0xbd6d1a8f	-0.057886656
20	0xbd862e2f	-0.065517776
21	0xbdc40988	-0.095721304
22	0xbdc71c0e	-0.09722148
23	0x3baeb190	0.0053312257
24	0xbd392303	-0.045199405
25	0x3ca9678b	0.020679256
26	0x3d6b3b69	0.057429705
27	0xbd7bbeb4	-0.061461166
28	0x3e19a3fd	0.15003963
29	0xbd192af5	-0.037394483
30	0x3cbf5a5a	0.023358513
31	0xbd7c8823	-0.061653268
32	0x3db37090	0.08761704
33	0xbdc68981	-0.096941955
34	0xbd5f7766	-0.054557227
35	0xbd753f78	-0.05987498
36	0xbdb40b6c	-0.08791241
37	0xbd775c69	-0.060390864
38	0x3b0ffd80	0.0021971166
39	0xbd9aeb81	-0.0756445
40	0xbdae51b2	-0.08511676
41	0xbc8527a7	-0.01625426
42	0x3d60b449	0.054859433
43	0x3d947e34	0.07250634
44	0xbd58c7a4	-0.052924767
45	0x3db47c77	0.08812802
46	0xbd9c0214	-0.07617584
47	0x3d74303a	0.059616305
48	0x3d974baa	0.07387479
49	0x3d2686d4	0.040655926
50	0x3d2f2b0d	0.042765666
51	0xbd0cd3ea	-0.034381784
52	0xbd819fa5	-0.06329278
53	0x3d8ce866	0.06880264
54	0xbda015c6	-0.07816653
55	0xbc86b260	-0.016442478
56	0xbd581adf	-0.05276
57	0x3db25c34	0.087089926
58	0x3d4c74a0	0.04991591
59	0xbd830399	-0.063971706
60	0x3da04de9	0.0782736
61	0xbd91635f	-0.07099032
62	0x3cf286a0	0.02960521
63	0x3d5a483b	0.05329154
64	0xbdb913e2	-0.090369955
65	0x3cd97a4d	0.026547575
66	0x3dcdfc4f	0.1005789
67	0x3cbfa96c	0.023396216
68	0x3c454e9a	0.012042666
69	0x3d2ee40b	0.042697947
70	0xbda58536	-0.080820486
71	0x3d10a840	0.035316706
72	0x3c014ea4	0.007892285
73	0x3dbae73d	0.091261365
74	0x3ccaa215	0.02473549
75	0xbdd0bfe5	-0.10192851
76	0xbcfd0598	-0.030886456
77	0x3dd608bf	0.10450887
78	0x3d12e68e	0.035864405
79	0xbdbbe245	-0.09174017
80	0x3df21786	0.11820893
81	0x3c89ecd8	0.016836569
82	0xbd97e6ba	-0.074170545
83	0xbcf783a5	-0.03021414
84	0xbd161ca8	-0.036648422
85	0xbd90d51a	-0.07071896
86	0x3dcc6366	0.09979896
87	0xbd2d28a1	-0.042275075
88	0x3da652c5	0.08121256
89	0x3d6e97f5	0.058250386
90	0x3d834245	0.06409124
91	0x3dcd6d05	0.100305595
92	0x3d71cc5c	0.059032783
93	0x3dcc2781	0.09968472
94	0x3d14f226	0.036363743
95	0x3d970055	0.0737311
96	0xbd644832	-0.055732913
97	0x3d729560	0.059224486
98	0x3dc81e6c	0.097714275
99	0x3d79d618	0.06099519
100	0xbd6aab6e	-0.057292394
101	0x3d4a942d	0.049457718
102	0xbdb88ff6	-0.09011833
103	0x3d85870f	0.06519901
104	0x3de8bd7d	0.11364267
105	0x3dca3ed8	0.09875268
106	0xbb5009a5	-0.003174403
107	0x3d3e8600	0.04651451
108	0x3d50027f	0.05078363
109	0x3c14b343	0.009075942
110	0x3d5b7b66	0.05358448
111	0x3d31f544	0.043446794
112	0x3d27a505	0.04092886
113	0x3dec3c51	0.11534942
114	0xbc990189	-0.01867749
115	0xbd6c71f0	-0.057725847
116	0xbd58974c	-0.052878663
117	0x3ddab0a0	0.1067822
118	0xbd69e8b6	-0.057106696
119	0xbd30eeef	-0.043196615
120	0x3d8d60c9	0.06903226
121	0x3e215b4d	0.15757485
122	0x3d7fc3c4	0.062442556
123	0x3cd06e46	0.025443207
124	0x3d6dcc44	0.05805613
125	0x3d15499d	0.036447156
126	0xbda0624d	-0.078312494
127	0xbd9820ec	-0.07428154
128	0xbc7050f6	-0.01466774
129	0xbda56981	-0.08076764
130	0x3d51f549	0.051259313
131	0x3c80f382	0.015741114
132	0xbc639c0d	-0.013892186
133	0xbdbf44f2	-0.09339322
134	0xbd45717e	-0.048203938
135	0xbdc4e2c9	-0.09613568
136	0x3dfbb661	0.122906454
137	0xbda37c36	-0.07982676
138	0xbd55032f	-0.05200499
139	0xbc97d8d9	-0.018536018
140	0x3d8d9bb5	0.069144644
141	0x3da62c1f	0.08113884
142	0xbdc42c42	-0.09578754
143	0x3d32448f	0.043522414
144	0x3b297e1f	0.0025862528
145	0xbd9b90bb	-0.075959645
146	0xbc5a2dfd	-0.0133166285
147	0x3d2aa707	0.041663196
148	0x3cf31f92	0.02967814
149	0x3d88f42e	0.066871986
150	0x3c461c8a	0.012091765
151	0x3de7c584	0.1131697
152	0x3c0d45f0	0.008622631
153	0x3c863c61	0.016386213
154	0x3dd3b21a	0.103367046
155	0x3d5eba3e	0.054376833
156	0xbdefdf5d	-0.11712525
157	0xbd92137c	-0.071326226
158	0x3c7f2ab7	0.015574149
159	0x3b79d460	0.003812097
160	0xbcac9d52	-0.02107111
161	0xbdc7da41	-0.097584255
162	0x3dbd287c	0.092362374
163	0xbcf75129	-0.030190067
164	0xbd27f872	-0.04100842
165	0xbd9d16c1	-0.076703556
166	0xbdccbe74	-0.099972636
167	0xbd184253	-0.037172627
168	0x3d9d4b1c	0.076803416
169	0x3dddfde4	0.108394414
170	0x3b965b4e	0.004588521
171	0x3d7b91b4	0.06141825
172	0x3c8ef121	0.017448964
173	0x3c965441	0.018350722
174	0x3d5df57e	0.054189198
175	0x3c4538fd	0.012037513
176	0xbdf92cf3	-0.121667765
177	0xbd9a7591	-0.07541955
178	0xbcadd304	-0.021218784
179	0xbd0f9c0f	-0.03506094
180	0x3d9fd2fc	0.07803914
181	0x3d9e3e9c	0.077267855
182	0x3d22f896	0.03978785
183	0x3d1bc97a	0.03803394
184	0x3d72ecf4	0.059308007
185	0xbd141a41	-0.03615785
186	0xbd854b85	-0.06508545
187	0x3d296aa0	0.04136145
188	0xbdd93795	-0.106063046
189	0xbcb0324e	-0.021508362
190	0x3dcb7d40	0.09935999
191	0xbcdd136b	-0.026986798
192	0x3d18dd1e	0.03732025
193	0x3d92dfa4	0.07171562
194	0xbcd7b815	-0.026332894
195	0xbcf6890a	-0.030094642
196	0x3d12fccc	0.035885617
197	0x3d492eb7	0.049116816
198	0x3de1d257	0.11026447
199	0x3dc00901	0.09376717
200	0x3c842dec	0.016135179
201	0xbcaf7292	-0.021416936
202	0xbdbcff12	-0.09228338
203	0xbd57cb0a	-0.052683868
204	0xbd3cb982	-0.04607535
205	0xbd3583a9	-0.044315014
206	0xbc548f6d	-0.0129736485
207	0x3d87549b	0.06607934
208	0x3d2b9526	0.041890286
209	0xbd31655e	-0.043309562
210	0x3c3f10dd	0.011661735
211	0xbdb5f80b	-0.08885201
212	0xbc15b3f8	-0.009137146
213	0x3daabbbc	0.08336589
214	0x3da3146d	0.0796288
215	0x3dc2a9d2	0.09505047
216	0x3d0dc40d	0.034610797
217	0xbacc9512	-0.0015608391
218	0xbd9fff04	-0.07812312
219	0xbce23f74	-0.027618147
220	0x3cb32ccf	0.021871952
221	0xbdc92452	-0.09821381
222	0xbc916a23	-0.017750805
223	0xbdb02901	-0.08601571
224	0xbcd3f8e6	-0.02587552
225	0xbd9f807f	-0.077881806
226	0x3d1f6268	0.038912207
227	0x3bc30a81	0.00595218
228	0xbdfcd18d	-0.12344656
229	0x3df3adb1	0.118983634
230	0x3d36b16d	0.0446028
231	0xbd80ccc8	-0.06289059
232	0x3a08e921	0.0005222727
233	0x3d7a73a6	0.061145447
234	0xbdab1612	-0.08353819
235	0x3db5886a	0.088639095
236	0xbce05f2b	-0.02738913
237	0xbd5ae5b1	-0.053441707
238	0x3d25f7f6	0.040519677
239	0xbddc1335	-0.10745851
240	0xbb27a7cc	-0.0025582192
241	0x3d14e68c	0.03635268
242	0xbd8daf30	-0.0691818
243	0xbc483b5f	-0.012221186
244	0xbd891e39	-0.06695218
245	0x3df86a20	0.12129617
246	0x3e0e7840	0.13913059
247	0x3d23749c	0.03990613
248	0xbcfe014e	-0.031006481
249	0xbdee6ade	-0.11641477
250	0x3d7284ee	0.059208803
251	0xbdb3c88b	-0.08778485
252	0x3cec88d7	0.028873844
253	0xbd15db6b	-0.036586206
254	0x3d052687	0.032507446
255	0x3d5be2e0	0.05368316

crystalGraphConvNet.embedding.bias f4 [64]
0	0x3cc1c4c1	0.02365339
1	0xbd1bfdc6	-0.038083814
2	0x3da36dab	0.07979902
3	0x3da9e9e4	0.08296564
4	0xbd7a6625	-0.06113257
5	0x3d9d0faa	0.07669003
6	0x3cba5201	0.02274418
7	0x3d084f12	0.033278532
8	0xbd1b8967	-0.037972834
9	0x3db78235	0.08960382
10	0xbdf9fecb	-0.12206801
11	0x3d1002cc	0.035158917
12	0xba1dc6e7	-0.00060187135
13	0x3cbcf1f5	0.023064593
14	0xbd859256	-0.06522052
15	0xbd283481	-0.041065697
16	0xbd22dbb4	-0.039760306
17	0xbdfe6482	-0.12421514
18	0xbd7c630a	-0.06161789
19	0xbdb38479	-0.087655015
20	0xbd263d1b	-0.04058562
21	0xbdd71525	-0.1050208
22	0x3d1404ed	0.03613751
23	0x3db3c9d5	0.08778731
24	0xbdd99610	-0.10624325
25	0x3d7a2103	0.06106664
26	0xbd15c213	-0.036562037
27	0xbd21fd46	-0.03954818
28	0xbd83ffe0	-0.06445289
29	0xbdc20ae6	-0.09474735
30	0xbdad2bfb	-0.08455654
31	0xbdc890e6	-0.09793262
32	0xbdc0d82e	-0.09416233
33	0x3d9a5a65	0.07536773
34	0xbcb3c0f7	-0.021942599
35	0xbdb4f26b	-0.088353
36	0xbdc1a9bb	-0.09456202
37	0xbd133d9d	-0.03594743
38	0xbd8be2f4	-0.06830397
39	0x3d122735	0.035681922
40	0xbdc1fd7b	-0.09472176
41	0x3dab5437	0.08365672
42	0x3ceb2233	0.02870283
43	0x3d7e1fa8	0.06204191
44	0xbdac948f	-0.08426773
45	0xbc9856e1	-0.018596115
46	0xbda02bcf	-0.07820856
47	0x3d83b003	0.06430056
48	0x3d77f598	0.06053695
49	0x3d70a444	0.058750406
50	0xbcbf1e3b	-0.023329845
51	0x3d0c5120	0.034257054
52	0x3d82f4f1	0.06394375
53	0xbd43f625	-0.047842164
54	0x3d78e6f1	0.060767118
55	0xbd224cbe	-0.03962397
56	0x3d05902e	0.032608204
57	0xbc6292f3	-0.013828981
58	0xbdb3de2f	-0.087826125
59	0xbd004efb	-0.03132532
60	0xbd4d9412	-0.05019004
61	0xbd95b07a	-0.07309051
62	0xbd64815c	-0.05578743
63	0x3984b276	0.00025309966

crystalGraphConvNet.convs.0.fc_full.weight f4 [128, 169]
0	0x3c6310ff	0.013859033
1	0xbd78b676	-0.060720883
2	0xbca99da8	-0.02070506
3	0xbd230a84	-0.03980495
4	0x3cf8e6b6	0.030383449
5	0xbbd7e724	-0.0065888334
6	0x3da6b4b6	0.081399366
7	0x3d70758f	0.058705863
8	0x3cba517a	0.02274393
9	0x3bc63e9d	0.0060499446
10	0xbc8eca56	-0.017430466
11	0x3aa70bcd	0.0012744606
12	0xbcd15e36	-0.025557619
13	0xbd0d1c6e	-0.03445094
14	0xbdabd2de	-0.08389829
15	0x3d1b8218	0.037965864
16	0x3d573525	0.052540917
17	0xbc96847a	-0.018373717
18	0x3d8c0d8a	0.0683852
19	0xbb4fe0ee	-0.0031719762
20	0xbd5fb3fe	-0.054615013
21	0x3d3c239d	0.0459324
22	0xbd7368e3	-0.0594262
23	0xbc43b566	-0.011945104
24	0x3d8b5c9c	0.06804773
25	0x3d182977	0.03714892
26	0xbceafd05	-0.028685102
27	0x3bdfdf16	0.006832014
28	0xbd1a18b8	-0.03762123
29	0xbcc8a43c	-0.024492376
30	0x3d3b2d27	0.045697358
31	0xbd20f82d	-0.03929918
32	0xbc81b25b	-0.015832117
33	0x3d77fa86	0.060541652
34	0xbd7bc626	-0.061468266
35	0x3beced5e	0.007230445
36	0x3cd016dc	0.025401525
37	0x3d93b608	0.07212454
38	0xbc209d22	-0.009803088
39	0x3d97bd53	0.074091576
40	0xbdede96d	-0.11616788
41	0x3d115564	0.035481825
42	0xbd947e9c	-0.07250711
43	0x3d16722b	0.036729973
44	0xbc27d380	-0.010243297
45	0xbd8fd34b	-0.07022723
46	0xbd6e3cff	-0.05816364
47	0x3ae562f8	0.0017500808
48	0xbde1112a	-0.10989602
49	0x3bc6ad85	0.0060631656
50	0x3d197ff1	0.03747553
51	0xbd81634b	-0.06317767
52	0xbc80e738	-0.015735254
53	0x3d3d4adb	0.046213966
54	0x3cfef3f5	0.031122187
55	0x3c6febef	0.014643653
56	0xbd4ec779	-0.0504832
57	0xbd6d43bb	-0.05792592
58	0xbccb6dc5	-0.024832616
59	0x3b04512f	0.002018999
60	0xbb2e4d7b	-0.0026596475
61	0xbb734978	-0.0037122648
62	0xbd57f563	-0.052724253
63	0x3d413b5f	0.04717576
64	0x3d7165df	0.058935042
65	0x3d228072	0.039673276
66	0x3c616278	0.013756387
67	0x3d869fd5	0.06573454
68	0xbda2f57f	-0.07956981
69	0xbd6a964d	-0.057272244
70	0xbd63c071	-0.05560345
71	0x3d645a32	0.05575008
72	0xbd7fec94	-0.062481478
73	0xbd1a4bcf	-0.037669953
74	0xbd624bf9	-0.055248234
75	0x3d738326	0.059451245
76	0xbb05ec51	-0.0020435045
77	0xbce7abc6	-0.02828015
78	0x3c3ce8c7	0.011530108
79	0x3da51d7c	0.08062264
80	0xbcf2e77e	-0.0296514
81	0xbc63f429	-0.013913193
82	0xbd49ba89	-0.04925016
83	0xbd5bfe3f	-0.053709265
84	0xbd9c5fad	-0.07635436
85	0x3d7be195	0.06149443
86	0x3d76ca6f	0.06025165
87	0x3c8ece8b	0.017432472
88	0xbd8c811c	-0.06860563
89	0xbd2b85be	-0.041875593
90	0xbd4397b6	-0.047752105
91	0xbd59a5bc	-0.053136572
92	0x3d10f588	0.035390407
93	0x3da2c76c	0.07948193
94	0xbcc50088	-0.024048105
95	0xbd9f09fa	-0.07765575
96	0xbc7ff4c1	-0.015622319
97	0x3a208ebb	0.0006124784
98	0xbcf836ef	-0.030299632
99	0xbd891241	-0.06692935
100	0x3d9444b1	0.07239664
101	0xbcec20d4	-0.028824247
102	0x3d258eb0	0.04041928
103	0x3d5218e6	0.051293276
104	0xbd2a61a8	-0.04159704
105	0xbc341fb1	-0.010993884
106	0x3cbdafca	0.023155112
107	0xbd05e3e0	-0.03268802
108	0xbd1a1d5f	-0.037625667
109	0xbd7c5f48	-0.061614305
110	0x3d40549c	0.04695569
111	0x3b9f3702	0.0048588524
112	0x3bcf8d3a	0.006333974
113	0x3cb7168a	0.022349615
114	0xbd54bb3f	-0.051936384
115	0xbc8866af	-0.016650526
116	0xbd2f99da	-0.042871334
117	0x3dac7802	0.08421327
118	0x3cd09721	0.025462689
119	0x3d126d90	0.03574902
120	0xbdaf04b9	-0.08545823
121	0xbce8dcaa	-0.028425533
122	0xbd159696	-0.036520563
123	0xbd82bf74	-0.06384173
124	0xbd2fca63	-0.04291762
125	0x3c856855	0.016285101
126	0xbdb6181e	-0.08891319
127	0x3cd4d423	0.02598006
128	0x3d7d5c0d	0.061855365
129	0xbd2d1d65	-0.04226436
130	0x3ca4ecf6	0.020132523
131	0xbd49b977	-0.04924914
132	0xbd296cb7	-0.041363444
133	0x3d6efb6e	0.05834525
134	0xbd181d4e	-0.037137322
135	0xbd1343a3	-0.035953175
136	0xbd4a5d7f	-0.04940557
137	0xbd332c30	-0.043743312
138	0x3a55f746	0.0008162152
139	0xbcdc5609	-0.026896494
140	0x3c88f377	0.016717656
141	0xb8a1e4db	-7.719706e-05
142	0xbd475c75	-0.04867216
143	0xbd7ebbf2	-0.062190957
144	0x3b108674	0.0022052797
145	0xbd67414b	-0.056458753
146	0x3bfc1403	0.0076928153
147	0xbd4958d0	-0.049156964
148	0xbba703e4	-0.0050968993
149	0x3d8cd190	0.068759084
150	0x3d8993e9	0.06717665
151	0xbb6d2258	-0.00361838
152	0xbc69c739	-0.01426869
153	0x3ca66e1c	0.020316176
154	0xbd9581f1	-0.07300175
155	0x3d6954c7	0.056965616
156	0x3a8e714d	0.0010867506
157	0xbd381339	-0.044940207
158	0xbce180e2	-0.027527276
159	0x3d8a079e	0.06739734
160	0x3d470b63	0.048594844
161	0x3d44bd17	0.048031893
162	0x3ccb62a3	0.024827307
163	0xbca7cf3b	-0.020484557
164	0x3d9af7af	0.07566773
165	0x3d223f4a	0.03961114
166	0xbd69ddaf	-0.05709618
167	0xbd759c99	-0.059963796
168	0xbd1a7b43	-0.037715208
169	0xbd34af2a	-0.044112362
170	0x3d68d481	0.056843285
171	0xbce8eab2	-0.028432224
172	0xbd68c0f5	-0.056824643
173	0x3cc26291	0.02372864
174	0xbda05a8e	-0.07829772
175	0xbc081ce9	-0.008307674
176	0xbd1dfa88	-0.038569003
177	0xbcfa5122	-0.030556265
178	0xbcfaf51a	-0.030634452
179	0x3d83b7d6	0.06431548
180	0xbc84a968	-0.01619406
181	0x3c3d85b0	0.011567518
182	0xbc895251	-0.016762884
183	0x3d540c58	0.051769584
184	0xbda307a8	-0.07960445
185	0xbb0fa7c8	-0.0021920074
186	0x3d9110c1	0.07083274
187	0x3d712960	0.05887735
188	0x3b9b22ea	0.0047343867
189	0x3c3af457	0.011410794
190	0xbd65e77f	-0.056128975
191	0xbcee1ca6	-0.029066395
192	0xbd93b83f	-0.072128765
193	0xbd7bd4fc	-0.061482415
194	0x3ae5e042	0.0017538148
195	0xbcbc53ed	-0.022989238
196	0xbd458ac1	-0.04822803
197	0xbd9ff637	-0.07810634
198	0xbd9fe2a6	-0.07806902
199	0x3d324d03	0.043530475
200	0xbd087227	-0.03331199
201	0xbd716c2f	-0.058941063
202	0x3c2cbee8	0.0105435625
203	0x3d0c7cce	0.03429871
204	0x3d3e1efc	0.046416268
205	0x3d1ec801	0.038764957
206	0xbce6a231	-0.02815351
207	0x3d2f444f	0.042789754
208	0xbbbc5f46	-0.005748662
209	0x3d66fb13	0.056391787
210	0xbcf99775	-0.030467728
211	0x3c7013e8	0.0146531835
212	0x3d3aa2d1	0.04556543
213	0x3d36005b	0.044433933
214	0x3d389a95	0.045069296
215	0x3c2d29be	0.010569034
216	0x3d48f269	0.049059305
217	0xbce7e130	-0.02830562
218	0xbc47b0aa	-0.012188116
219	0xbc932335	-0.017961124
220	0x3d022e70	0.031782568
221	0x3d13eced	0.036114622
222	0x3d03c1b9	0.03216717
223	0x3d5c437e	0.053775303
224	0xbd55598c	-0.05208735
225	0xbd0155b1	-0.031575862
226	0xbd1fb536	-0.038991176
227	0x3d447296	0.04796084
228	0x3cc3070f	0.023807077
229	0xbd059fee	-0.032623224
230	0xbd2195e3	-0.039449584
231	0xbb8014c3	-0.003908725
232	0x3d784f6d	0.06062262
233	0xbd8370d3	-0.06418004
234	0x3b953c8c	0.004554337
235	0x3c69b59b	0.0142644895
236	0x3c27ec16	0.010249158
237	0x3d988156	0.07446544
238	0xbbcb4717	-0.006203543
239	0x3cee76eb	0.029109439
240	0x3c8c434e	0.017121937
241	0xbc4caada	-0.012491906
242	0xbcfebef7	-0.031096919
243	0x3aa25bdd	0.0012386997
244	0x3b54eb1f	0.0032488776
245	0xbd658567	-0.056035426
246	0xbd393146	-0.045213006
247	0x3b356793	0.0027680143
248	0x3d237888	0.03990987
249	0x3d0af756	0.033927284
250	0x3cb3f080	0.021965265
251	0x3d79f21e	0.061021917
252	0xbc05a3b0	-0.008156702
253	0xbd19cfe0	-0.03755176
254	0x3d848910	0.06471455
255	0x3c719952	0.014746027

crystalGraphConvNet.convs.0.fc_full.bias f4 [128]
0	0xbd69ee96	-0.0571123
1	0x3c77bb45	0.015120332
2	0x3d7a80af	0.06115788
3	0xbd8bcd39	-0.068262525
4	0xbd6b7e57	-0.057493534
5	0x3cad5365	0.02115793
6	0x3d66f845	0.056389112
7	0x3c521106	0.0128214415
8	0xbd981c9b	-0.07427331
9	0xbd16eb5e	-0.036845557
10	0xbcbb5083	-0.02286554
11	0x3d834ec0	0.06411505
12	0x3d0556e4	0.03255357
13	0x3d4894e9	0.048970137
14	0xbd7239d0	-0.059137166
15	0xbcb31d4b	-0.021864554
16	0xbd513d94	-0.051084116
17	0xbbc08dfc	-0.005876301
18	0x3d98b9f9	0.074573465
19	0xbd9d7f9d	-0.07690356
20	0x3cd713f3	0.02625463
21	0x3d743527	0.059621003
22	0xbb28f7a3	-0.0025782369
23	0x3d94ba64	0.07262114
24	0x3d068712	0.032843657
25	0x3ca2237c	0.01979231
26	0x3cde339f	0.027124224
27	0xbd90c1e4	-0.07068232
28	0x3d6a15bf	0.057149645
29	0x3d08f0ea	0.03343288
30	0x3d952e6d	0.07284246
31	0xbd269ac5	-0.040674943
32	0xbd17a811	-0.037025515
33	0xbd821c74	-0.06353083
34	0x3d9215ad	0.071330406
35	0xbd97c9e5	-0.07411555
36	0x3d69a01b	0.057037454
37	0xbc89c148	-0.016815796
38	0x3caae5df	0.020861564
39	0x3d581a54	0.052759483
40	0x3cf5f39b	0.030023387
41	0xbd3d7ed3	-0.046263527
42	0xbc40a4d8	-0.011758052
43	0xbd99c874	-0.075089365
44	0x3d6b6c27	0.05747619
45	0x3cca0c56	0.024664085
46	0xbd2b784e	-0.04186278
47	0xbd6a25d5	-0.057164986
48	0xbd4414e7	-0.047871497
49	0xbd837702	-0.06419183
50	0xbd53994c	-0.051659867
51	0x3cf2398b	0.029568454
52	0x3d4c6354	0.049899414
53	0xbb644963	-0.003483378
54	0xbd7797ac	-0.06044738
55	0x3c41f032	0.011837052
56	0x3d505738	0.05086443
57	0xbd5a3fcc	-0.053283498
58	0x39aa59c4	0.00032491807
59	0xbbe5c134	-0.007011557
60	0xbd8a16cb	-0.06742629
61	0x3d8bbdf9	0.06823344
62	0xbd20d7b3	-0.039268207
63	0xbd1ab2ef	-0.0377683
64	0xbd401fba	-0.046905257
65	0xbd585624	-0.052816525
66	0x392ffe76	0.00016784095
67	0xbd7d6922	-0.06186784
68	0xbb338375	-0.0027391587
69	0xbd44c120	-0.04803574
70	0x3ccfe178	0.025376067
71	0xbd41d086	-0.047318004
72	0xbc843181	-0.016136887
73	0x3d08f6a2	0.033438332
74	0xbd3bc9d6	-0.045846783
75	0x3d231deb	0.039823454
76	0x3b0df220	0.002165921
77	0xbd49a18c	-0.04922633
78	0x3d8ebf01	0.06970025
79	0xbcfec617	-0.031100316
80	0xbce2d14b	-0.02768769
81	0x3b183456	0.0023224554
82	0x3d90330f	0.07040989
83	0xbd9207a5	-0.07130364
84	0xbc7029db	-0.014658417
85	0xbd4e09de	-0.05030238
86	0xbd2a76c9	-0.04161719
87	0xbd451778	-0.048118085
88	0xbd9a2858	-0.07527226
89	0xbd4ac101	-0.04950047
90	0x3ce954e1	0.028482856
91	0xbd66eb74	-0.05637689
92	0x3cf3677a	0.029712427
93	0x3d2ca15a	0.042146064
94	0xbbca0765	-0.0061654323
95	0xbc4c8937	-0.012483886
96	0x3d0a7002	0.033798225
97	0x3d8fa9b4	0.0701479
98	0x3d6f6657	0.05844721
99	0xbd4beab3	-0.049784373
100	0x3cc9af9e	0.024619874
101	0xbcf8f036	-0.030387979
102	0xbce6d12b	-0.028175911
103	0x3d11c1f7	0.03558537
104	0x3c7232de	0.0147826355
105	0xbd9839b8	-0.07432884
106	0xbd4d7b80	-0.050166607
107	0x3d1a3650	0.037649453
108	0xbb146f5f	-0.002264939
109	0x3cc612d4	0.0241789
110	0xbc22fa4f	-0.0099473735
111	0xbd12f4db	-0.035878044
112	0x3c54c61e	0.012986688
113	0x3d01e3db	0.03171144
114	0x3c0e9d3f	0.008704483
115	0x3d247156	0.040147148
116	0xbd63b7c2	-0.055595167
117	0x3d4ae028	0.04953018
118	0x3d575ad0	0.05257684
119	0xbd1be9b9	-0.038064692
120	0xbcced268	-0.025246814
121	0xbc0e715d	-0.00869402
122	0x3c816c58	0.015798733
123	0xbd05a85c	-0.032631263
124	0x3d0f49c6	0.034982465
125	0x3d90c557	0.070688896
126	0xbd2ef94e	-0.042718224
127	0x3d6759fb	0.056482296

crystalGraphConvNet.convs.0.bn1.weight f4 [128]
0	0x3f7fb40e	0.99884117
1	0x3f805a62	1.0027583
2	0x3f81671d	1.0109593
3	0x3f80346f	1.0016001
4	0x3f801cf9	1.0008842
5	0x3f808c59	1.0042831
6	0x3f80716e	1.0034616
7	0x3f7f1644	0.9964335
8	0x3f80704b	1.0034269
9	0x3f7ff5e3	0.9998457
10	0x3f80b8bb	1.0056375
11	0x3f822ffa	1.0170891
12	0x3f7fef57	0.9997458
13	0x3f805d07	1.002839
14	0x3f805fc4	1.0029225
15	0x3f80ee44	1.0072713
16	0x3f804a4c	1.0022674
17	0x3f7f38f8	0.996963
18	0x3f82259b	1.0167726
19	0x3f80d224	1.006413
20	0x3f826285	1.0186316
21	0x3f80b74a	1.0055935
22	0x3f8056e8	1.0026522
23	0x3f8097de	1.0046346
24	0x3f7fc096	0.9990324
25	0x3f800f99	1.000476
26	0x3f83665a	1.026561
27	0x3f7ef4be	0.99592197
28	0x3f80eb93	1.0071892
29	0x3f7fffc6	0.99999654
30	0x3f8026a1	1.0011789
31	0x3f7e78c7	0.9940304
32	0x3f7fc803	0.9991457
33	0x3f807d32	1.0038207
34	0x3f80880f	1.0041522
35	0x3f7f350d	0.99690324
36	0x3f7fd81a	0.9993912
37	0x3f7fa1ff	0.9985656
38	0x3f8040cf	1.0019778
39	0x3f7ed298	0.9954009
40	0x3f7fae64	0.99875474
41	0x3f7fe8aa	0.9996439
42	0x3f80b0bc	1.0053935
43	0x3f8066cd	1.0031372
44	0x3f807dfc	1.0038447
45	0x3f8000e2	1.000027
46	0x3f8144ca	1.0099118
47	0x3f8024fc	1.0011287
48	0x3f7ca56e	0.98689926
49	0x3f801393	1.0005974
50	0x3f805133	1.002478
51	0x3f813bca	1.0096371
52	0x3f82a567	1.0206727
53	0x3f7d2955	0.9889119
54	0x3f812cd0	1.0091801
55	0x3f805804	1.002686
56	0x3f7fe11f	0.9995288
57	0x3f7fe74b	0.999623
58	0x3f8047fa	1.0021966
59	0x3f7f8cbf	0.99824136
60	0x3f806915	1.0032068
61	0x3f7fb7d0	0.9988985
62	0x3f7ffaa3	0.99991816
63	0x3f7f4da3	0.9972784
64	0x3f7f6ab4	0.9977219
65	0x3f7f70cd	0.99781495
66	0x3f81940a	1.0123303
67	0x3f7f2dad	0.9967907
68	0x3f7f31fa	0.99685633
69	0x3f8076bc	1.0036235
70	0x3f7fc992	0.99916947
71	0x3f806ca0	1.003315
72	0x3f7f7fb2	0.9980422
73	0x3f80632c	1.0030265
74	0x3f81c266	1.0137451
75	0x3f7f7e96	0.9980253
76	0x3f803142	1.0015032
77	0x3f7e6e43	0.99386996
78	0x3f7f2e39	0.99679905
79	0x3f809e94	1.0048394
80	0x3f80242b	1.0011038
81	0x3f7f0ce0	0.9962902
82	0x3f80a0a6	1.0049026
83	0x3f7f5085	0.9973224
84	0x3f813d9f	1.009693
85	0x3f7e7ce5	0.99409324
86	0x3f7ff7ec	0.99987674
87	0x3f805497	1.0025815
88	0x3f80af75	1.0053545
89	0x3f7f82b1	0.99808794
90	0x3f829eee	1.0204751
91	0x3f8026f5	1.0011889
92	0x3f7e3adb	0.99308556
93	0x3f80f417	1.007449
94	0x3f80b9c9	1.0056697
95	0x3f80fb0a	1.0076611
96	0x3f7f3eea	0.99705374
97	0x3f80e343	1.0069355
98	0x3f811e4a	1.0087368
99	0x3f801676	1.0006855
100	0x3f7f1398	0.9963927
101	0x3f807a4b	1.0037321
102	0x3f7f94a0	0.9983616
103	0x3f801491	1.0006276
104	0x3f80007f	1.0000151
105	0x3f7f488d	0.9972008
106	0x3f7ffd4e	0.9999589
107	0x3f7e98ec	0.9945209
108	0x3f7eef3d	0.995838
109	0x3f806148	1.0029688
110	0x3f8172cb	1.0113157
111	0x3f7ff660	0.99985313
112	0x3f81c85e	1.0139272
113	0x3f7e9080	0.9943924
114	0x3f80294e	1.0012605
115	0x3f81859b	1.0118898
116	0x3f825f51	1.0185338
117	0x3f812f8b	1.0092634
118	0x3f8193f0	1.0123272
119	0x3f82fb86	1.0233009
120	0x3f7e7686	0.993996
121	0x3f809698	1.0045958
122	0x3f809e73	1.0048355
123	0x3f80216d	1.0010201
124	0x3f804349	1.0020534
125	0x3f7f8e85	0.9982684
126	0x3f805fa2	1.0029185
127	0x3f818ed7	1.0121716

crystalGraphConvNet.convs.0.bn1.bias f4 [128]
0	0xb999a2b7	-0.00029303666
1	0xbaf48670	-0.0018655788
2	0xbbd02ed8	-0.0063532405
3	0xbb94f2a7	-0.004545528
4	0xbab9a5d7	-0.0014163804
5	0xbb013bbc	-0.0019719442
6	0x38fbcb0c	0.00012006433
7	0x3a43f605	0.00074753194
8	0xbb4b1866	-0.0030989884
9	0x3b4740f0	0.0030403696
10	0xbac28cd7	-0.0014842999
11	0x396719da	0.00022039507
12	0x3b129444	0.0022366205
13	0xbba7bcce	-0.005118943
14	0x3ac17f56	0.001476268
15	0xbac9ddf7	-0.0015401234
16	0xba1791ab	-0.0005781899
17	0x3b3a05b1	0.002838474
18	0xbc009593	-0.007848161
19	0xbb67ec53	-0.0035388663
20	0xbc07d66f	-0.008290871
21	0xbbb82625	-0.0056197816
22	0xbace5783	-0.0015742633
23	0xba5904ee	-0.00082786276
24	0x3ab0b679	0.0013482115
25	0xbb38935b	-0.0028164003
26	0xbc7bc10e	-0.015365852
27	0x3bc766e9	0.006085266
28	0xba1bc651	-0.0005942332
29	0x3b29f4d1	0.0025933275
30	0xbb0c2e13	-0.0021389767
31	0x3a7f87dd	0.0009747723
32	0xb9dd379a	-0.0004219383
33	0xba238152	-0.0006237227
34	0xbb4ceb08	-0.003126802
35	0xbb9d50c0	-0.004800886
36	0x3b26a960	0.0025430545
37	0xba009280	-0.00049046427
38	0xbaecf0c0	-0.001807712
39	0x3becc697	0.007225822
40	0x3b1470ec	0.0022650314
41	0x3aea55ff	0.0017878412
42	0xbbb7681d	-0.005597128
43	0xbba07885	-0.0048971795
44	0xbab21bfc	-0.0013588662
45	0x3c313d10	0.010817781
46	0xbbc67408	-0.0060563125
47	0xb73a1082	-1.1090307e-05
48	0x3be525c3	0.006993027
49	0x39be9d9d	0.00036357055
50	0xbadd82a6	-0.0016899898
51	0xbc0937df	-0.008375137
52	0xbbbf8bf5	-0.0058455416
53	0x3b5da76a	0.003382171
54	0xbc17f8a1	-0.009275586
55	0xbb27b702	-0.002559126
56	0xb997e236	-0.00028969505
57	0x3baeafa2	0.0053309957
58	0xbc02b2d7	-0.007977209
59	0xb8419955	-4.6157587e-05
60	0xbb1c55cf	-0.0023854857
61	0x3ad7a517	0.0016452399
62	0x39018984	0.00012353627
63	0x3b52c11f	0.0032158566
64	0x3a9374c0	0.0011250004
65	0x3a6708f7	0.00088132865
66	0xbc29c121	-0.010360987
67	0x3a03aa7f	0.00050226593
68	0x38cef7c0	9.8689925e-05
69	0xbb385673	-0.00281277
70	0x39bc3465	0.0003589719
71	0xbabcd5d0	-0.0014406983
72	0x3a516522	0.0007987787
73	0xba4b6157	-0.000775834
74	0xbbf981f3	-0.007614368
75	0x39a6dbdd	0.00031825798
76	0xb9c45a88	-0.00037451484
77	0x3abd98c1	0.001446508
78	0x3b7e083f	0.003876224
79	0xbad77271	-0.0016437304
80	0xba8689d8	-0.0010264469
81	0x3b226c98	0.0024783965
82	0xbb38e5f9	-0.0028213246
83	0x3b0567d1	0.002035607
84	0xbbc0ed19	-0.0058876392
85	0x3b12c474	0.0022394927
86	0xba2b7704	-0.0006540867
87	0xba869c69	-0.0010270003
88	0xbb03e684	-0.0020126412
89	0x3a589164	0.0008261411
90	0xbc9a4bc5	-0.018834958
91	0xb9174f25	-0.00014429966
92	0x3b2dff02	0.0026549702
93	0xbb3360f2	-0.0027371016
94	0xbc00c66b	-0.0078598065
95	0xbb85f307	-0.004087809
96	0x3a77d3b5	0.0009453849
97	0xbb32904b	-0.002724665
98	0xbb43eccb	-0.0029895778
99	0x3946934e	0.00018937627
100	0x3b133645	0.0022462767
101	0xbaad333f	-0.0013214125
102	0x3a9db3aa	0.0012031693
103	0x39d29874	0.00040167908
104	0xb91e387f	-0.000150891
105	0x3a9ab7fd	0.00118041
106	0xba911ed4	-0.001107181
107	0x3b1c03bc	0.0023805937
108	0x3b4011a9	0.0029307401
109	0xbb14306e	-0.0022611874
110	0xbbb96d9d	-0.005658819
111	0x39610304	0.00021458796
112	0xbba7f2ce	-0.00512538
113	0x3b36666d	0.0027832047
114	0xba0ebef0	-0.0005445322
115	0xbc259ff1	-0.010108934
116	0xbbc76dd0	-0.0060860887
117	0xbb271f67	-0.0025500895
118	0xbc341acc	-0.010992717
119	0xbc366ea9	-0.011134782
120	0x3b0acbc0	0.0021178573
121	0xbacbaf17	-0.0015539852
122	0xbaa50e5f	-0.0012592784
123	0xbac3ac2d	-0.0014928632
124	0xba415992	-0.0007375713
125	0x3aa536c4	0.0012604822
126	0xba5a2e04	-0.0008322897
127	0xbbaeedac	-0.0053383913

crystalGraphConvNet.convs.0.bn1.running_mean f4 [128]
0	0xbd4c8b8f	-0.04993778
1	0xbd056f41	-0.032576803
2	0x3d992439	0.07477612
3	0xbda15c25	-0.07878903
4	0x3c902ac8	0.017598525
5	0x3e329c55	0.17442448
6	0x3e0f92b9	0.14020814
7	0xbdccdc4c	-0.10002956
8	0xbc7d3455	-0.015454371
9	0x3b0e047c	0.0021670153
10	0x3e1e8115	0.15478928
11	0x3ce40df8	0.027838692
12	0x3d3e1e18	0.04641542
13	0x3e05efb8	0.13079727
14	0xbd076ec3	-0.033064615
15	0x3d7b7d50	0.061398804
16	0xbe01e2f2	-0.12684229
17	0xbd98adb0	-0.07455003
18	0xbb0eb8d0	-0.0021777637
19	0xbdaa20cc	-0.08307037
20	0x3d8564b8	0.06513351
21	0xbdf4cece	-0.11953507
22	0x3c3c59b9	0.011496001
23	0x3e07560d	0.1321642
24	0x3a906d73	0.0011018947
25	0xbd5e07b6	-0.054206572
26	0x3e2e5561	0.17024757
27	0xbb74ab34	-0.003733349
28	0xbd26ab3f	-0.040690657
29	0x3e1ecff1	0.15509011
30	0x3d8ccfc6	0.06875567
31	0xbd695ac1	-0.056971315
32	0x3d87f2d8	0.06638116
33	0xbe5074eb	-0.203571
34	0xbb6ab137	-0.0035811195
35	0xbe0b258f	-0.13588546
36	0xbd1b6584	-0.03793861
37	0xbdb45b56	-0.088064834
38	0x3cefdd67	0.029280378
39	0x3de0b75e	0.109724745
40	0x3e0a3564	0.1349693
41	0xbbee1038	-0.007265117
42	0x3d8155d1	0.06315196
43	0x3d1a3103	0.037644397
44	0x3e19c2e0	0.15015745
45	0xbdeeaa7d	-0.11653612
46	0xbcec8a16	-0.028874438
47	0x3d12f07e	0.035873882
48	0xbdb1c561	-0.08680225
49	0xbd3d4183	-0.046205055
50	0xbd12ca54	-0.035837486
51	0x3d77a341	0.060458425
52	0x3d2c463c	0.04205917
53	0x3d0b1252	0.03395302
54	0xbd56650b	-0.052342456
55	0xbc73798c	-0.014860522
56	0x3e372259	0.17884196
57	0xbcc91dfb	-0.024550429
58	0x3e1c617a	0.1527156
59	0xbde702ca	-0.11279829
60	0xbde8e281	-0.11371327
61	0x3e666229	0.22498383
62	0xbd9434ab	-0.07236608
63	0xbde35191	-0.11099542
64	0xbd7745ec	-0.060369417
65	0xbdfd0bc1	-0.123557575
66	0xbbf89386	-0.0075859455
67	0x3c91a68e	0.017779615
68	0x3c2ee06d	0.010673624
69	0xbd99fb0d	-0.07518587
70	0x3e3be726	0.18349895
71	0xbc984238	-0.018586263
72	0x3b42c62e	0.0029720175
73	0xbd231499	-0.039814565
74	0x3c470934	0.01214819
75	0xbd973556	-0.0738322
76	0x3cc2516f	0.023720471
77	0xbcf848f9	-0.030308234
78	0x3e3a406d	0.18188639
79	0xbd162014	-0.036651686
80	0xbbc1f557	-0.0059191394
81	0xbd63618d	-0.055512954
82	0x3e2dbdd0	0.16966939
83	0xbd499fa6	-0.04922452
84	0x3d474f96	0.048659883
85	0xbd9a38c5	-0.07530359
86	0xbd1289b4	-0.035775855
87	0x3d135559	0.035970066
88	0x3df58bbd	0.119895436
89	0xbe7fed18	-0.24992788
90	0xbd3c5c95	-0.04598673
91	0x3d01ed73	0.03172059
92	0xbc558a48	-0.013033457
93	0x3c619941	0.013769449
94	0xbb1e04e3	-0.00241118
95	0xbde040dd	-0.10949872
96	0x3e640432	0.22267225
97	0xbc99347b	-0.018701782
98	0x3e3329e6	0.17496452
99	0xbe4aa9a8	-0.19791281
100	0xbd1f7cc4	-0.038937345
101	0x3dd71dfc	0.10503766
102	0xbd285f20	-0.041106343
103	0x3e5bc057	0.2146009
104	0xbb182586	-0.0023215725
105	0xbdf9a16a	-0.121889904
106	0x3e156caa	0.14592233
107	0xbce9350c	-0.028467678
108	0xbd3bb2b0	-0.045824707
109	0xbd683679	-0.056692574
110	0x3d4feecc	0.050764844
111	0x3dbcae19	0.09212894
112	0xbda3abe8	-0.07991773
113	0x3e5968bb	0.21231358
114	0x3c7e6c02	0.015528681
115	0x3e234dcb	0.15947644
116	0xbda3094f	-0.0796076
117	0xbdd731b3	-0.10507526
118	0xbb8ca3b0	-0.004291974
119	0xbdcfc1bf	-0.10144376
120	0x3e84121b	0.25795063
121	0xbdbc9a3c	-0.09209105
122	0x3dd5aade	0.10432981
123	0xbe88e95e	-0.26740545
124	0x3d797b84	0.06090881
125	0x3e745315	0.23859818
126	0xbd06d612	-0.032918997
127	0x3d98f00d	0.07467661

crystalGraphConvNet.convs.0.bn1.running_var f4 [128]
0	0x3cbf3ec8	0.023345366
1	0x3c2a0cc3	0.010379019
2	0x3c43888e	0.011934413
3	0x3c1ed8e5	0.009695266
4	0x3ce46814	0.02788166
5	0x3c24f47b	0.010068054
6	0x3c402eb8	0.011729889
7	0x3ca5c26d	0.020234311
8	0x3c48f1c3	0.012264672
9	0x3cb27e45	0.021788726
10	0x3c2ee898	0.010675572
11	0x3c18d0f3	0.009327161
12	0x3c9d1499	0.01917486
13	0x3cd425ae	0.025896873
14	0x3cfacc77	0.030615075
15	0x3c289da4	0.010291491
16	0x3c2cf223	0.010555777
17	0x3cc6a143	0.024246817
18	0x3c32041a	0.010865236
19	0x3c43e3b0	0.01195614
20	0x3c3b6f01	0.01144004
21	0x3c3cfc93	0.011534828
22	0x3cade863	0.021228975
23	0x3c5ab380	0.01334846
24	0x3c8dd558	0.017313644
25	0x3d03b0c3	0.032150995
26	0x3c7805f3	0.015138137
27	0x3cd6e082	0.0262301
28	0x3c7ad326	0.015309131
29	0x3c8e0cad	0.017340029
30	0x3c4ac01f	0.012374907
31	0x3c2ed9c3	0.010672036
32	0x3c5bd7a5	0.013418113
33	0x3d09417c	0.033509716
34	0x3c26936a	0.010166982
35	0x3ca787fc	0.020450585
36	0x3c68ce36	0.014209321
37	0x3bef9b84	0.00731224
38	0x3c61fdc5	0.0137934135
39	0x3ce71ca2	0.028211895
40	0x3c56590c	0.013082754
41	0x3c800421	0.015626969
42	0x3ca8e1aa	0.020615418
43	0x3c622688	0.013803132
44	0x3c9614c7	0.018320454
45	0x3d182c73	0.037151765
46	0x3c984b3d	0.018590564
47	0x3c9bb0bb	0.01900517
48	0x3c7a6c2c	0.015284579
49	0x3cd53327	0.026025368
50	0x3cfc421a	0.030793238
51	0x3c5f2e95	0.013621946
52	0x3c7b8516	0.015351554
53	0x3c6cab6a	0.014445165
54	0x3c8229bb	0.01588904
55	0x3c657019	0.014003777
56	0x3ca3cd11	0.019995244
57	0x3c33a0b6	0.010963609
58	0x3cb62ce3	0.0222382
59	0x3c8da7bb	0.017291894
60	0x3bf0899c	0.007340623
61	0x3cf70563	0.030153936
62	0x3c7249d5	0.014788111
63	0x3c8a43c0	0.016878009
64	0x3cd7de24	0.026351042
65	0x3c93ff02	0.018065933
66	0x3ca79ea4	0.020461388
67	0x3ca9279e	0.020648774
68	0x3d2c7866	0.04210701
69	0x3cc1c240	0.023652196
70	0x3ccabf9b	0.024749568
71	0x3ca20e43	0.019782191
72	0x3c5781d5	0.013153513
73	0x3cba2168	0.022721007
74	0x3c6881fe	0.014191149
75	0x3ca9fba3	0.020749873
76	0x3c81e939	0.01585828
77	0x3d619dcb	0.055082124
78	0x3c8d701e	0.017265376
79	0x3c840aaf	0.016118376
80	0x3d0a6e5b	0.03379665
81	0x3cb38ac9	0.021916764
82	0x3cda3558	0.026636764
83	0x3cc3aedd	0.023887092
84	0x3ca0ceb7	0.01962982
85	0x3c708f16	0.014682552
86	0x3d1f6a8a	0.038919963
87	0x3cd2a01c	0.025711112
88	0x3cd349c2	0.025792006
89	0x3d74dbe1	0.059780005
90	0x3c8cc88f	0.017185478
91	0x3ca7583f	0.020427821
92	0x3c93cebc	0.018042915
93	0x3c8bd646	0.017069947
94	0x3c2e88d9	0.010652744
95	0x3c898fa3	0.016792124
96	0x3cc26fd1	0.023734959
97	0x3c5bda9f	0.013418823
98	0x3cd80526	0.026369642
99	0x3d567b0c	0.05236344
100	0x3d12c1e9	0.03582946
101	0x3c25c6ed	0.010118228
102	0x3c7d6481	0.0154658565
103	0x3d654086	0.055969737
104	0x3c4dd1a3	0.012562188
105	0x3d216eb2	0.039412208
106	0x3d231181	0.039811615
107	0x3d1af3f3	0.037830304
108	0x3d02e52a	0.03195683
109	0x3d19312e	0.037400417
110	0x3cd4c3a2	0.025972191
111	0x3cec8151	0.028870257
112	0x3cd0b1d7	0.025475426
113	0x3d917950	0.07103217
114	0x3cbbff14	0.02294878
115	0x3c801cba	0.015638698
116	0x3ccf9f8c	0.025344633
117	0x3ce3b708	0.027797237
118	0x3cb8e066	0.022567939
119	0x3ca14306	0.01968528
120	0x3d5d2ce1	0.053997878
121	0x3c4a53d3	0.012349087
122	0x3d34142d	0.043964554
123	0x3d075e99	0.0330492
124	0x3c40891f	0.011751442
125	0x3d10c155	0.035340626
126	0x3c7f5230	0.01558356
127	0x3c8987db	0.016788414

crystalGraphConvNet.convs.0.bn2.weight f4 [64]
0	0x3f7e2aac	0.9928386
1	0x3f81649f	1.0108832
2	0x3f83d622	1.0299723
3	0x3f805193	1.0024894
4	0x3f7aca2d	0.97964746
5	0x3f7b2dc2	0.98116696
6	0x3f80cca4	1.0062451
7	0x3f7c9894	0.98670316
8	0x3f7b043a	0.98053324
9	0x3f7e210e	0.9926919
10	0x3f810cad	1.0081993
11	0x3f7e140d	0.99249345
12	0x3f78db1c	0.97209334
13	0x3f75f650	0.9607897
14	0x3f8075d6	1.0035961
15	0x3f81754c	1.0113921
16	0x3f7d2635	0.98886424
17	0x3f720d86	0.94551885
18	0x3f8449a8	1.0334978
19	0x3f7d4558	0.98933935
20	0x3f817fa4	1.0117078
21	0x3f7b330d	0.9812477
22	0x3f7ff71e	0.99986446
23	0x3f805630	1.0026302
24	0x3f80104b	1.0004972
25	0x3f808e2f	1.0043391
26	0x3f885fd7	1.0654248
27	0x3f7ba07e	0.98291767
28	0x3f785387	0.9700245
29	0x3f80aa62	1.0051997
30	0x3f856d08	1.0423899
31	0x3f7c7bff	0.98626703
32	0x3f7d705c	0.9899957
33	0x3f809142	1.0044329
34	0x3f8290cf	1.0200442
35	0x3f75c28e	0.9599999
36	0x3f7c9baa	0.98675025
37	0x3f8185f9	1.011901
38	0x3f7d37df	0.9891338
39	0x3f772b42	0.9655038
40	0x3f7897f4	0.9710686
41	0x3f7c1950	0.98476124
42	0x3f7eb1ea	0.99490225
43	0x3f7d6ab3	0.98990935
44	0x3f7b8cca	0.982617
45	0x3f7480a7	0.9550881
46	0x3f83172d	1.0241448
47	0x3f7e2957	0.9928183
48	0x3f7c635b	0.98589104
49	0x3f7bbb89	0.9833303
50	0x3f7adc7b	0.97992676
51	0x3f83a05a	1.028331
52	0x3f84323d	1.0327832
53	0x3f8041fc	1.0020137
54	0x3f850d97	1.0394772
55	0x3f853020	1.0405312
56	0x3f78b552	0.9715167
57	0x3f7c9f65	0.98680717
58	0x3f805861	1.0026971
59	0x3f7ed48f	0.9954309
60	0x3f7d97e6	0.99059904
61	0x3f78eaeb	0.97233456
62	0x3f7e3c96	0.99311197
63	0x3f827513	1.0191978

crystalGraphConvNet.convs.0.bn2.bias f4 [64]
0	0x3a75cee2	0.0009376836
1	0x3c44d1d4	0.012012918
2	0xbc80dbac	-0.015729748
3	0xbc0c7720	-0.0085733235
4	0xbc821035	-0.015876869
5	0xbcd4c943	-0.025974875
6	0xba85fe2c	-0.0010222844
7	0xbc8805ff	-0.016604422
8	0xbcc1a244	-0.023636945
9	0xbbfe38ae	-0.0077582216
10	0xbd04d013	-0.032424998
11	0xbc8921e4	-0.016739793
12	0xbc8d5d37	-0.017256362
13	0xbd1878ad	-0.03722446
14	0x3c066d96	0.008204838
15	0xbbb006a9	-0.0053718877
16	0xbcce80ec	-0.02520796
17	0xbca4bb78	-0.020108923
18	0xbc7c245c	-0.015389528
19	0xbbfc0604	-0.007691147
20	0xbce47863	-0.027889436
21	0xbcd51538	-0.026011094
22	0x3b5aa23b	0.0033360857
23	0xbb81c7dc	-0.0039605927
24	0xbba7f744	-0.005125912
25	0x3af892a7	0.0018964604
26	0xbc90ea88	-0.017689958
27	0xbb7d812e	-0.0038681733
28	0xbca3e67f	-0.02000737
29	0xbca5532e	-0.020181265
30	0x3c19dc7a	0.009390945
31	0xbc043160	-0.008068413
32	0xbbb8833b	-0.0056308783
33	0x3bbb9536	0.0057245744
34	0xbb89ceb7	-0.0042055505
35	0xbcdc4e9a	-0.026892949
36	0xb8365958	-4.347539e-05
37	0xbbc460a1	-0.0059929644
38	0xbca94a7c	-0.0206654
39	0xbcc8a8f5	-0.024494627
40	0xbbf8b776	-0.0075902296
41	0xbb4bb544	-0.0031083385
42	0xbcce8a8a	-0.025212545
43	0xbc946930	-0.018116564
44	0xbbb8d834	-0.005641008
45	0xbcb65d86	-0.022261392
46	0x3c2e4a54	0.010637838
47	0xbbfba479	-0.007679519
48	0xbcbe67d5	-0.02324287
49	0x3b6d06ae	0.0036167311
50	0xbd072ba1	-0.033000592
51	0xbc84067c	-0.016116373
52	0xbc4f7899	-0.01266303
53	0x3a4dcda0	0.000785077
54	0xbc372c3e	-0.011179982
55	0xbc08f31f	-0.008358746
56	0xbcd21742	-0.025645856
57	0x3bbc4d47	0.005746517
58	0x3c0550ef	0.008136972
59	0xbc2d8e14	-0.010592956
60	0xbc764d78	-0.015033118
61	0xbcca5ca8	-0.024702385
62	0xbc6e37f4	-0.014539707
63	0x3c2150d6	0.009845933

crystalGraphConvNet.convs.0.bn2.running_mean f4 [64]
0	0x40b7c552	5.742837
1	0x40af4ca7	5.478107
2	0x4098b7de	4.7724447
3	0x40a9deb5	5.308436
4	0x40b9c02e	5.8047094
5	0x409bf6dc	4.873884
6	0x40b0261b	5.5046515
7	0x409d75b7	4.9206195
8	0x40a1e842	5.059602
9	0x40b7af2c	5.7401333
10	0x40aaf60c	5.342535
11	0x409e42a7	4.9456363
12	0x409f81dc	4.984602
13	0x40bb6a06	5.8566923
14	0x409ac144	4.836092
15	0x40a5d0a7	5.1817203
16	0x40ad75f2	5.4206476
17	0x40b525fa	5.660886
18	0x408d2b1d	4.411513
19	0x40b5ec16	5.685069
20	0x409d6cce	4.919532
21	0x40a4c73f	5.149322
22	0x40b02298	5.504223
23	0x4096efca	4.716771
24	0x40ac6191	5.38691
25	0x40be08d7	5.938579
26	0x40ac74a4	5.3892384
27	0x40b1aeac	5.5525723
28	0x409d962e	4.9245825
29	0x40a41f9c	5.1288586
30	0x40a91794	5.284128
31	0x40a189af	5.048057
32	0x40bd771c	5.9207897
33	0x40ac56ee	5.3856115
34	0x40b5dd56	5.6832685
35	0x40b71136	5.720851
36	0x40ae4e61	5.4470677
37	0x40a1b76c	5.0536404
38	0x40b1582d	5.5420136
39	0x40be6b11	5.9505696
40	0x40a9ff4b	5.3124137
41	0x40b96c17	5.7944446
42	0x40bb66d4	5.8563023
43	0x409efebc	4.9685955
44	0x40a4f367	5.154712
45	0x40b31260	5.595993
46	0x4097d72b	4.7450156
47	0x40bb0b69	5.845143
48	0x40a75130	5.2286606
49	0x40bda1e6	5.926013
50	0x40b644f2	5.695916
51	0x40a138de	5.038192
52	0x409eedc2	4.966523
53	0x40a30e93	5.095529
54	0x40add8e4	5.432726
55	0x409ab395	4.8344216
56	0x40ba4474	5.820856
57	0x40a4d1b5	5.150599
58	0x40bd71b8	5.9201317
59	0x40b5726c	5.6702175
60	0x409f80be	4.9844656
61	0x40b9980b	5.79981
62	0x40ab0332	5.34414
63	0x40b22a1a	5.5676394

crystalGraphConvNet.convs.0.bn2.running_var f4 [64]
0	0x4186604f	16.797026
1	0x419fdd3e	19.983028
2	0x41065462	8.395601
3	0x40e0182e	7.0029516
4	0x4119f6cf	9.622756
5	0x413c9c22	11.788118
6	0x4129a732	10.603319
7	0x415a6dfa	13.65185
8	0x40f50050	7.656288
9	0x41988755	19.06608
10	0x410d4485	8.829228
11	0x412f2263	10.945895
12	0x4132bd1a	11.171167
13	0x419eef02	19.866703
14	0x41358d88	11.347054
15	0x41336d7b	11.214229
16	0x41438fa2	12.222567
17	0x41b57d3f	22.686155
18	0x409c710d	4.8888
19	0x418e6443	17.798956
20	0x415cf228	13.80912
21	0x418eae23	17.835028
22	0x41945ef2	18.54636
23	0x40fd6fd2	7.9199
24	0x410d8e0b	8.847178
25	0x41ad8f19	21.694872
26	0x4150bd89	13.046273
27	0x413b4bad	11.705976
28	0x417483b1	15.282151
29	0x413f5781	11.958863
30	0x410f150d	8.942639
31	0x4180ea58	16.114426
32	0x41c3a519	24.455614
33	0x40eda0cd	7.425879
34	0x4115876a	9.34556
35	0x41d4439f	26.533018
36	0x418b2a58	17.395676
37	0x40d377b9	6.6083646
38	0x4148a905	12.541265
39	0x412a3c1a	10.639673
40	0x41ae7db2	21.811375
41	0x41b8e5be	23.112179
42	0x414ed941	12.9280405
43	0x416b2469	14.696389
44	0x418db0dc	17.711357
45	0x41d540c8	26.656631
46	0x40b4517a	5.634946
47	0x41886b0c	17.052269
48	0x414fafbe	12.980406
49	0x41bca8dd	23.582453
50	0x416058f1	14.021714
51	0x4107c195	8.484761
52	0x411f5c30	9.960007
53	0x4196c9f5	18.848612
54	0x4126d941	10.4280405
55	0x41172062	9.445406
56	0x419298ff	18.324705
57	0x41901add	18.013117
58	0x4140167e	12.005491
59	0x41a25336	20.29063
60	0x40d2c381	6.586365
61	0x419aacee	19.334438
62	0x4157ff3f	13.499816
63	0x411e5b42	9.89728

crystalGraphConvNet.convs.1.fc_full.weight f4 [128, 169]
0	0xbc392a8e	-0.01130165
1	0x3d27aedf	0.040938254
2	0xbd84be41	-0.064816006
3	0xbd23069f	-0.039801236
4	0x3cb40922	0.021977011
5	0xbc883b0e	-0.016629722
6	0xbb895f36	-0.004192258
7	0xbd5e42d2	-0.054262944
8	0xbc310292	-0.0108038355
9	0x3cc2e991	0.023793014
10	0xbd1372cb	-0.035998147
11	0xbd2e3176	-0.04252764
12	0x3d198327	0.037478592
13	0xbc40c328	-0.011765279
14	0x3c81c6d9	0.015841888
15	0xbcbc90b8	-0.023018226
16	0xbc77a8a5	-0.015115892
17	0x3d1c2a31	0.038126174
18	0xbd90c1a4	-0.07068184
19	0xbcdebbd8	-0.02718918
20	0x3b841552	0.004030862
21	0x3bdb8359	0.0066990075
22	0xbd25a151	-0.040437046
23	0xbd2a1b85	-0.04153015
24	0x3c5d21fc	0.013496872
25	0x3d369b8d	0.04458194
26	0xbd4f590b	-0.050622027
27	0xbd5f13d0	-0.054462254
28	0x3d64c023	0.0558473
29	0x3d37d6c5	0.044882555
30	0xbd569684	-0.052389637
31	0x3cd6032b	0.026124557
32	0x3c8868d3	0.016651547
33	0x3d879754	0.066206604
34	0x3d4f5390	0.0506168
35	0x3ce5e25b	0.028062036
36	0x3cda6d80	0.026663542
37	0x3d848ba5	0.064719476
38	0xbd75a64e	-0.059973054
39	0xbc59f5fb	-0.013303275
40	0xbda8ebfc	-0.082481354
41	0xbccc1453	-0.024912035
42	0x3d1aae0f	0.03776365
43	0x3d4dac45	0.050213117
44	0xbd38d158	-0.04512152
45	0x3c85e5ee	0.01634499
46	0xbd09d587	-0.0336509
47	0x3da9a4df	0.082834
48	0x3d5dda72	0.054163404
49	0x3d046a17	0.032327738
50	0x3cd3b84f	0.025844721
51	0x3d086a46	0.033304475
52	0x3d265d77	0.04061648
53	0x3d7cf8d4	0.06176074
54	0x3c3d1185	0.0115398215
55	0xbcc2841e	-0.023744639
56	0xbd77e32a	-0.060519375
57	0xbc916e60	-0.017752826
58	0x3d1fff8c	0.039062068
59	0xbc8eabdb	-0.017415931
60	0x3ca2ef95	0.019889632
61	0xbd9acedc	-0.075589865
62	0xbd8ec674	-0.06971446
63	0x3d1cd7ac	0.03829162
64	0x3d1becf8	0.038067788
65	0x3adbf93f	0.0016782655
66	0xbd47ee0f	-0.048811015
67	0xbd15a053	-0.03652985
68	0x3d5b99ef	0.0536136
69	0x3b884ca3	0.0041595264
70	0xbca3017a	-0.019898165
71	0x3d8fbf4c	0.07018909
72	0x3d00bdcb	0.031431
73	0xbd2f04ec	-0.042729303
74	0x3cbe411b	0.023224404
75	0x3d327ee9	0.043578062
76	0xbd8400d5	-0.06445471
77	0xbd984183	-0.0743437
78	0x3d894436	0.06702463
79	0x3d97ac03	0.074058555
80	0x3b899458	0.004198592
81	0xbc193bf1	-0.00935267
82	0x3c194569	0.009354928
83	0x3d812706	0.06306271
84	0x3d2008d5	0.039070923
85	0xbc01ca18	-0.007921718
86	0xbc0d48b7	-0.008623294
87	0x3d886f90	0.06661904
88	0xbcaaf795	-0.02087001
89	0x3d795acc	0.060877606
90	0xbd569e12	-0.05239684
91	0xbca67a7f	-0.020322083
92	0xbc9a2291	-0.01881531
93	0xbc857ebd	-0.016295785
94	0xbd4dde68	-0.05026093
95	0xbca0aed3	-0.019614613
96	0x3d8446fb	0.06458851
97	0x3cc204aa	0.023683865
98	0x388f80b9	6.842748e-05
99	0x3d3765d1	0.044774834
100	0xbcd5dca3	-0.026106184
101	0x3dad685c	0.084671706
102	0x3d30b761	0.043143634
103	0x3d869fc3	0.06573441
104	0x3c494ef0	0.012286887
105	0xbd0de54e	-0.03464251
106	0xbd6a8859	-0.057258938
107	0xbd906880	-0.07051182
108	0xbd61d31f	-0.05513298
109	0x3cc5cc23	0.024145192
110	0x3cc398d4	0.023876585
111	0xbd323d26	-0.043515347
112	0x3d08d90c	0.033410117
113	0xbd17b0fc	-0.03703402
114	0x3d0a1f2f	0.033721145
115	0xbcb04fc3	-0.021522408
116	0xbd630df9	-0.055433247
117	0xbc9deede	-0.01927894
118	0x3d2095a7	0.03920522
119	0x3d80385a	0.06260748
120	0x3cbb50dd	0.022865707
121	0x3d90cb4b	0.07070025
122	0x3d9d82ea	0.076909855
123	0xbd250584	-0.040288463
124	0xbd99f9e8	-0.07518369
125	0xbd083530	-0.03325385
126	0xbd6fcdbe	-0.05854582
127	0xbcc75260	-0.024331272
128	0xbc0a9b6d	-0.008459908
129	0x3d964d70	0.07338989
130	0x3d98c8bb	0.07460161
131	0xbab5ad00	-0.0013860762
132	0x3d50ec68	0.051006705
133	0x3d37b861	0.04485357
134	0xbd32d707	-0.043662097
135	0xbcb1e28e	-0.021714475
136	0x3cde8d6c	0.027167045
137	0xbc0652d1	-0.008198456
138	0x3d72a989	0.059243713
139	0x3d96911a	0.07351895
140	0xbd290abe	-0.04127001
141	0xbd704f0c	-0.058669135
142	0x3c952433	0.018205738
143	0xbd7169e2	-0.05893887
144	0xbd1ef7fe	-0.038810723
145	0xbd44319d	-0.047898877
146	0xbd7b71b7	-0.061387744
147	0xbd74654c	-0.059666917
148	0xbce3b982	-0.027798418
149	0x3d977441	0.073952205
150	0x3d0af22c	0.03392236
151	0xbbaea3d7	-0.00532959
152	0x3d66c16c	0.056336805
153	0xbcfee24c	-0.031113766
154	0xbd6da172	-0.058015294
155	0xbbc76714	-0.006085286
156	0xbd40f65d	-0.04710995
157	0x3d50c657	0.0509704
158	0x3d77b4d6	0.060475193
159	0x3ce09674	0.027415492
160	0x3c075d00	0.008261919
161	0x3d05e31e	0.0326873
162	0x3d6af84f	0.05736571
163	0xbd1e4b59	-0.038646076
164	0x3d888210	0.066654325
165	0xbd84c47b	-0.06482788
166	0x3c3b680a	0.011438379
167	0x3bb521b2	0.0055276984
168	0x3cf01163	0.029305166
169	0xbd8a2e0c	-0.06747064
170	0xbd1cd582	-0.038289554
171	0x3da1d891	0.07902635
172	0xbcfe95fa	-0.031077374
173	0xbcfeaeda	-0.031089235
174	0xbd41a8dc	-0.047280177
175	0x3d2cbaac	0.04217021
176	0x3a07ceaa	0.00051806367
177	0x3d35cfc2	0.044387586
178	0xbbba8fb7	-0.0056934017
179	0xbd604739	-0.054755423
180	0x3d0acebb	0.03388856
181	0xbdaf5b2c	-0.085623115
182	0xbd0cab77	-0.03434321
183	0x3d3f0d73	0.046643686
184	0x3c8244f5	0.015902022
185	0x3d8ee52e	0.06977306
186	0x3da8971c	0.08231947
187	0xbd062ff9	-0.032760594
188	0xbc9462a3	-0.01811344
189	0xbc6f9d82	-0.014624955
190	0x3ba0134d	0.0048851133
191	0xbd91a2f7	-0.07111161
192	0xbd84f7f8	-0.06492609
193	0xbccb7223	-0.024834698
194	0x3d910201	0.0708046
195	0x3d46e82d	0.048561264
196	0xbd81967f	-0.06327533
197	0x3d0bfede	0.034178607
198	0xbd997fd2	-0.07495083
199	0x3d4cfa6c	0.05004351
200	0xbd2cf3c3	-0.042224657
201	0xbbf313e4	-0.0074181426
202	0x3d2159f4	0.039392427
203	0xbcba82a5	-0.022767374
204	0xb910cba0	-0.00013808766
205	0x3c4fbc24	0.012679134
206	0xbd7cda2b	-0.0617315
207	0x3c956213	0.018235242
208	0x3d96f204	0.073703796
209	0x3d1ce579	0.03830478
210	0xbd084984	-0.033273235
211	0xbd636733	-0.05551834
212	0x3ba7653b	0.005108503
213	0x3c5b3337	0.01337891
214	0x3d905516	0.07047479
215	0x3cb86c14	0.022512473
216	0xbd9bdf13	-0.076109074
217	0xbc9f26cd	-0.019427681
218	0x3d2323d5	0.039829094
219	0xbb910f23	-0.0044268533
220	0x3d4088d6	0.047005497
221	0x3cfd3eeb	0.03091379
222	0x3d4c0344	0.0498078
223	0x3bbdbe51	0.0057905097
224	0x3d787324	0.06065668
225	0xbaba764f	-0.0014225933
226	0xbca4e2a1	-0.020127596
227	0x3cbd9bb5	0.023145536
228	0xbd46ecbf	-0.048565622
229	0xbd4a325d	-0.049364436
230	0x3cd4c5b4	0.025973178
231	0xbc6dc3d2	-0.014512019
232	0xbc861748	-0.016368523
233	0xbd8911c9	-0.066928454
234	0xbd605c68	-0.054775625
235	0x3d01be78	0.031675786
236	0xbd8ff266	-0.07028656
237	0x3bcc4bb5	0.006234611
238	0x3b98c4c1	0.004662127
239	0xbd87b19b	-0.066256724
240	0x3c28b31c	0.010296609
241	0x3d835548	0.064127505
242	0x3d506a8a	0.050882854
243	0xbd5cc4f6	-0.053898774
244	0x3d521de3	0.051298033
245	0xbd8073f0	-0.06272113
246	0x3d4fd39f	0.050738927
247	0x3d14889c	0.036263093
248	0xbbf7ce99	-0.00756247
249	0x3c66f02c	0.014095347
250	0xbd5d0fc2	-0.053970106
251	0x3ca3aa15	0.019978562
252	0x3b0a1419	0.0021069108
253	0x3cf64a3e	0.030064698
254	0xbd93ca72	-0.07216348
255	0x3d94c6e0	0.07264495

crystalGraphConvNet.convs.1.fc_full.bias f4 [128]
0	0xbcdcd6d0	-0.0269579
1	0x3d0b9f1e	0.034087293
2	0x3c8d6e2d	0.01726445
3	0x3d84a21d	0.06476233
4	0x3d6cdc2a	0.057827152
5	0x3d7264bb	0.059178095
6	0xbd3da86d	-0.0463032
7	0xbcb7b225	-0.022423813
8	0x3bb93858	0.0056524687
9	0x3d172b97	0.036906805
10	0xbcfb788a	-0.030697126
11	0x3d9944cd	0.07483826
12	0xbc5ee796	-0.013605019
13	0x3cb048d4	0.021519102
14	0xbd82b9e2	-0.063831106
15	0xbd903b9a	-0.07042618
16	0x3c222606	0.009896761
17	0xbc7301af	-0.014831944
18	0x3d0f7daf	0.03503197
19	0x3d1ae0cc	0.03781204
20	0x3d2ba9aa	0.04190985
21	0x3d15d1ef	0.03657716
22	0x3d278620	0.040899396
23	0xbcb0481e	-0.021518763
24	0x3cd2715e	0.025688823
25	0xbd35c903	-0.044381153
26	0x3d013979	0.03154895
27	0x3d18b246	0.03727939
28	0xbb81d0c9	-0.0039616567
29	0xbc91a9dc	-0.01778119
30	0x3d020170	0.031739652
31	0xbd897e10	-0.06713498
32	0xbd9bcea5	-0.07607774
33	0xbd12bd31	-0.03582496
34	0xbd8c7215	-0.06857697
35	0xbd9a5bbd	-0.07537029
36	0x3d473e77	0.048643555
37	0xbcfd8d50	-0.030951172
38	0xbd72a179	-0.059236024
39	0x3d15fe08	0.036619216
40	0x3ce5ac76	0.028036337
41	0x3c68fa98	0.014219902
42	0x3d45c672	0.048284955
43	0x3d24fbef	0.040279325
44	0xbd1485ad	-0.036260296
45	0x3d6b8eb9	0.057509158
46	0xbd1cc914	-0.0382777
47	0x3d7b7dcf	0.061399277
48	0xbd81b55e	-0.06333421
49	0x3c4108c6	0.011781877
50	0x3d155fea	0.036468424
51	0xbd6212aa	-0.05519358
52	0xbc9edff8	-0.019393906
53	0xbd33879c	-0.0438305
54	0xbc74ba5e	-0.0149370115
55	0x3c81e902	0.015858177
56	0x3d604c32	0.054760166
57	0xbd8eee87	-0.06979089
58	0xbd65a6b4	-0.056067184
59	0xbc835349	-0.016030924
60	0xbab48769	-0.0013773266
61	0xbd9ac66f	-0.075573795
62	0x3ca1939d	0.019723708
63	0xbcb5ffca	-0.022216696
64	0xbd95d898	-0.073167026
65	0x3d8b3ca0	0.06798673
66	0xbd9a3abd	-0.07530735
67	0xbd826d45	-0.06368498
68	0xbcda6ae7	-0.026662303
69	0xbd7a9d13	-0.061184954
70	0xbd461d87	-0.048368003
71	0x3beb92d8	0.007189136
72	0x3cc20711	0.02368501
73	0xbc9e63f2	-0.019334767
74	0x3ccb8b5c	0.024846725
75	0xbd87a2ef	-0.06622874
76	0x3c28d572	0.010304796
77	0xbafbace5	-0.0019201307
78	0x3d4ec448	0.050480157
79	0x3bc7bb3b	0.0060953177
80	0x3ccc70c5	0.024956116
81	0x3c87a104	0.01655627
82	0xbbeec81d	-0.007287039
83	0x3d9303cb	0.07178458
84	0x3d8c36ed	0.06846414
85	0x3d74ae0a	0.05973629
86	0xbd12e2cf	-0.035860833
87	0xbd41020a	-0.047121085
88	0x3d03f70f	0.032218035
89	0x3d9ca120	0.0764792
90	0xbd898770	-0.06715286
91	0x3b97bc8b	0.0046306304
92	0xbd14a4b3	-0.036289882
93	0x3c0cd8ce	0.008596612
94	0xbc84088a	-0.016117353
95	0xba1565ae	-0.00056990504
96	0x3d7079f8	0.05871007
97	0x3d717fc8	0.058959752
98	0x3d706ebc	0.058699355
99	0x3d976028	0.07391387
100	0xbcb1f7b2	-0.021724556
101	0x3cd75b04	0.026288517
102	0xbd682192	-0.05667264
103	0xbd432d05	-0.047650356
104	0x3c85256a	0.016253192
105	0x3d5cadaf	0.053876575
106	0xbd30f109	-0.04319862
107	0x3cc0e914	0.02354864
108	0x3c6c78e5	0.01443312
109	0x3c1360b9	0.008995228
110	0x3c590edf	0.013248174
111	0xbbf1aaae	-0.007375083
112	0x3b93b250	0.0045073405
113	0x3d940033	0.072266005
114	0xbd85a4e5	-0.06525592
115	0xbd50a7f3	-0.05094142
116	0xbc91d686	-0.017802488
117	0x3d729ce9	0.059231672
118	0x3c7c257d	0.015389797
119	0x3cc94681	0.024569752
120	0x39e74b12	0.00044115685
121	0x3cf2ed88	0.02965428
122	0x3cd3de72	0.025862906
123	0x3b751e15	0.0037401963
124	0x3d27b6e9	0.04094592
125	0x3d7b78e9	0.061394606
126	0x3afbd169	0.0019212189
127	0xbd557188	-0.052110225
