training_cgcnn_p_u/saved_models/pbe_42_p_u.ckpt (torch, 676938 bytes, 60 tensors)

crystalGraphConvNet.embedding.weight f4 [64, 92]
00000000: 81fc a5b9 fc6e 39bd 9941 d33c 3520 cb3b
00000010: 89a8 a5bd 124d b1bd 5894 a73d b874 89bc
00000020: 00e8 d5bc 7aca 033d a528 d13d 597f 4dbd
00000030: 18ad 893d 0d82 a6bd 3c8c babd b9cb ed3d
00000040: ac25 84bd 7a6b 1e3b ad97 143d 5e90 fcbc
00000050: 6ca8 8c3d 8bea a03d 99f2 a73d 3fa1 c1bd
00000060: ebfd 9fbd 5fb3 cebd cf39 ea3c 8de9 b93b
00000070: 88a2 cd3c cccf bebd d9e2 4bbd a895 643d
00000080: 2593 6e3d e553 9f3d 2884 9cbd 82d1 a1bd
00000090: b612 86bd eca3 c6bd 7bbd a33d caca af3b
000000a0: 2b9a 863d 686b b4bd d5e8 6e3d b71f 923d
000000b0: db8b 85bd fe6d 1abd 46ab 2a3b 7b75 bcbd
000000c0: 9448 83bd facc b03d aebe 483d 4fa4 29bc
000000d0: 5891 4cbc 52f0 3ebc 191b fb3b d634 7a3d
000000e0: 053b eabc 74e8 e3bc 5578 053c 78f9 a83d
000000f0: fa7c 193d c835 5fbd c63a 9c3c 3459 2cbb
00000100: c91e 98bd fc45 833d 485a bdbd af5f 95bd
00000110: 4ef2 95bd 0ab0 89bd 8480 b0bd 170c b23d
00000120: 50cd 86bc a7d8 53bb 8b6c d43d 57cd 963d
00000130: c3ff 093d 387d 423d 522f a23d c8ea 6f3d
00000140: 09ec e13c b775 813d 046a c7bd d9db 643d
00000150: cffa 82bd c45c 35bd bde2 c93d 67a3 47bd
00000160: b7cf 563d fe62 4a3d 5931 443d 1942 ac3c
00000170: c2d8 693c 79a2 bc3c 74cc 653b a7f9 b9bd
00000180: 1441 72bd 28d1 18bb dadd 0b3d c8d6 983d
00000190: d07c 52bd df9d b4bd 7c5b a6bd 12d2 90bc
000001a0: d991 053d 0913 7c3d 9d4d 2dbd 0102 a8bd
000001b0: af32 e6bb 7a02 cf3d 61b9 03bd 0594 8b3d
000001c0: e873 e23d 392b b73d 4825 45bd 5f0e b5bd
000001d0: 1074 6e3c 379d fcbc 40be 4b3d 4219 b9bc
000001e0: 5727 babc a527 aabc 626c 443d 21f1 333d
000001f0: d294 a1bd 9cb4 71bd bfb9 5d3c 9b0e ec3c
00000200: 21af 1b3d cea0 98bd 572d fe3c 2684 03bd
00000210: 9660 c6bd a55b 69bb 7b7c d23d 6f80 633d
00000220: abec ebbc 948e d3bb 99ae 66bd 7255 a63d
00000230: 5590 b23d 0f27 5d3c 3580 4b3d 49f9 f53b
00000240: 28d0 303c 469a 203d a977 543d 914d f53c
00000250: baaa b7bd ac04 b13c 1c2c b0bd f9ad b2bd
00000260: fabc 65bd d8d9 373d c169 633b 07b6 053d
00000270: d328 2ebd 44da 72bb 62c7 d2bd bca1 2dbd
00000280: e132 a63d bc80 abbd 6ca5 92bd a924 cf3d
00000290: b937 543d cff4 b33c 3e44 673d 048e c8bd
000002a0: 230b 8f3d 1da9 46bc 3295 cd3b fb68 cd3c
000002b0: 2673 3fbd 36e1 edbb 9f6b 803d f90b 8e3d
000002c0: c2cf a4bd cf14 94bb 7c39 80bd fab9 9c3d
000002d0: 377b a7bd c46b 0ebd b4be ac3d c41e 8dbd
000002e0: c5d9 4b3d 5561 85bd 9896 adbd 54cd e4bc
000002f0: 036c 133d 70a0 abbc 0a0d c43c eb0d a9bd
00000300: d4ae 8abd af8c 1cbd 875a 763c 1bca 13bd
00000310: e808 133d a066 953d 2278 3d3d 8ca9 f6bc
00000320: 2c1d 58bc 549e cf3d 7656 94bc c4f1 103d
00000330: 9ce5 743c eb8d f03c 5e90 b3bd 531f 993d
00000340: 88ff b4bd 9583 0fbb 8921 133d ef09 603d
00000350: 0848 083d 57dd 85bb d634 e23d 098c 88bc
00000360: 7f04 a5bd bdfe 033d 5d3f df3c ca88 dc3c
00000370: 93c6 933d 6b2a 94bc 96e3 b63b c649 90bc
00000380: afd4 d338 b2b1 6dbc 953a 9f3d 00b1 773b
00000390: 009a 87bd cf42 c63d 90d8 533c 5c6a a1bd
000003a0: 1ef4 8e3c 5a4d 9ebd d13a b8bd 5616 04bd
000003b0: 7b70 6bbd 606e 7cbd 60af a53d 67a1 033d
000003c0: f02e bebd 9bd0 3f3b 8228 c33d 7a0e 34bd
000003d0: 2802 7dbd 04eb 82bd c9cf 7f3d 2335 b13d
000003e0: fac2 ae3d dcba 643d ebe7 783b a8c8 42bc
000003f0: 9a9b ba3d 6bb4 b03c c295 273d 42d7 f7bc
-0.00031659383 -0.04527186 0.025788115 0.0061989077 -0.08088786 -0.08657278 0.08182591 -0.016779289
-0.026111603 0.03217552 0.102128305 -0.050170276 0.06722468 -0.08130274 -0.09108779 0.11611123
-0.06452498 0.0024172948 0.03627746 -0.030830558 0.068680614 0.078572355 0.08200569 -0.094545834
-0.07812103 -0.10092806 0.028592018 0.0056735934 0.025101915 -0.09316978 -0.049776886 0.055806786
0.058245797 0.077796735 -0.07642394 -0.079012886 -0.065465376 -0.09699234 0.07995125 0.0053647505
0.06572374 -0.088095486 0.058327515 0.071349554 -0.06520816 -0.037702553 0.0026042028 -0.09202095
-0.064103276 0.08632846 0.04900997 -0.010354116 -0.0124858245 -0.0116539765 0.0076631424 0.061085545
-0.028592596 -0.027820803 0.008146365 0.082507074 0.037472703 -0.05449465 0.019070994 -0.0026298286
-0.07427747 0.06409833 -0.092457354 -0.07293641 -0.073216066 -0.0672303 -0.086182624 0.08693712
-0.016455323 -0.003232518 0.103722654 0.07363384 0.03369118 0.0474827 0.07919182 0.058573514
0.02757837 0.063212804 -0.09737018 0.055873726 -0.06395494 -0.04427792 0.098577 -0.048739817
0.052444186 0.049410813 0.047898624 0.021027612 0.0142728705 0.023026692 0.003506449 -0.090808205
-0.059144095 -0.0023318026 0.03414712 0.07462841 -0.05138856 -0.08819174 -0.08122918 -0.017678294
0.032609794 0.06154159 -0.042310346 -0.08203507 -0.007025085 0.10107894 -0.032159213 0.06815342
0.110572636 0.08943791 -0.048131257 -0.08840632 0.014554039 -0.030836685 0.049741983 -0.022595052
-0.022723837 -0.020770857 0.047954924 0.04393113 -0.07889713 -0.059010133 0.013533055 0.028815558
0.038008813 -0.07452546 0.03102748 -0.03210845 -0.09686391 -0.0035607603 0.10277649 0.055542406
-0.028799376 -0.0064562056 -0.056318853 0.08121766 0.087189354 0.013498082 0.049682815 0.0075065237
0.010791816 0.039209627 0.05187193 0.029944213 -0.089681104 0.021608673 -0.08602163 -0.08724589
-0.056088425 0.044885486 0.0034700485 0.032644298 -0.0425194 -0.0037056366 -0.102919355 -0.04239057
0.08115173 -0.083741635 -0.07160458 0.10114414 0.051810954 0.02196732 0.056461565 -0.09792712
0.06984546 -0.012125281 0.006273889 0.025074473 -0.046740673 -0.0072595133 0.06270527 0.06935877
-0.08047439 -0.004519082 -0.06260964 0.0765266 -0.08177798 -0.034770742 0.08434811 -0.06890634
0.049768228 -0.06512705 -0.08475989 -0.02792994 0.03599168 -0.020950526 0.023931999 -0.08254608
-0.06771627 -0.038220104 0.015036232 -0.036081415 0.035897166 0.07294965 0.046257146 -0.030110143
-0.013190549 0.101376206 -0.018107634 0.035386816 0.014947321 0.029364547 -0.0876777 0.07476678
-0.08837801 -0.0021898497 0.035920653 0.054696973 0.03327182 -0.0040852237 0.11045234 -0.016668336
-0.08057498 0.03222536 0.027251894 0.026920695 0.072156094 -0.018086633 0.0055813296 -0.017613303
0.000101008794 -0.014507698 0.077748455 0.003779471 -0.0662117 0.096807115 0.0129300505 -0.078816146
0.017450389 -0.077295974 -0.08995593 -0.032247864 -0.057480317 -0.0616287 0.08090091 0.032136347
-0.09286296 0.0029268626 0.095292106 -0.04395912 -0.061769634 -0.06392482 0.06245402 0.08652713
0.085332826 0.055842265 0.003798003 -0.0118886605 0.0911171 0.021570405 0.040914305 -0.03025401

crystalGraphConvNet.embedding.bias f4 [64]
00000000: 20fd 6bbd f583 a93d 21db 88bd a370 c13d
00000010: 69dc 60bd 85a4 d1bc cacf 95bd 7c02 f23c
00000020: 02ea c83c d173 24b9 c3e6 b3bc ee4e e33c
00000030: 0ee3 dfb9 8963 843c 9c19 babc d9a9 72bd
00000040: c0fc 8fbc d14e 8e3d bd3c 8d3d d9c5 013b
00000050: e288 acbd e7a6 493d a0e5 963d a27e c93d
00000060: b021 59bd 188c 82bd ddb3 453d 07e2 743d
00000070: 3383 863b 8de2 29bd a977 5abc 903c 48bb
00000080: 1da6 f93b 9cf6 57bd 9b08 543d 52b8 08bd
00000090: 8f58 063d c94a 4a3d b9cf 6bbd e7f6 ae3d
000000a0: 25be 69bd 916e 383d 60b0 76bd df90 81bd
000000b0: a982 fcbb 331e 923c 9478 c43c d9b8 8ebd
000000c0: 2f34 a43d f239 8dbc 1cae 79bd b2c2 213b
000000d0: 5a04 7ebd e57f bf3c 62db d83c 7605 53bc
000000e0: 0f9f 023d af41 d93d 39eb 4bbc 9c23 8cbd
000000f0: 93fa 903d d0a0 b4bc 40ea 5abd 5392 37bd
-0.057614446 0.08277122 -0.066824205 0.09445312 -0.0548977 -0.025591144 -0.07315023 0.0295422
0.024525646 -0.00015683404 -0.021960622 0.027747598 -0.00042703043 0.016160743 -0.02271729 -0.05924401
-0.017576575 0.06948627 0.068963505 0.0019801764 -0.08424546 0.049231436 0.07368016 0.098386064
-0.053010643 -0.06374377 0.048267234 0.05978587 0.0041049956 -0.04147582 -0.013334193 -0.0030553676
0.007618679 -0.05272542 0.05176602 -0.033378907 0.0327993 0.049387727 -0.057571147 0.08543187
-0.0570661 0.04502732 -0.060226798 -0.0632646 -0.0077060056 0.017836666 0.023983277 -0.06968851
0.08017766 -0.017239545 -0.06095706 0.0024682698 -0.06201587 0.023376415 0.026471797 -0.01287972
0.03188997 0.10608231 -0.012446218 -0.068427294 0.07079043 -0.022049338 -0.053446054 -0.04481728

crystalGraphConvNet.convs.0.fc_full.weight f4 [128, 169]
00000000: a1cc f7bb bc6a 72bd 0a00 31bc 78db 1c3d
00000010: 7b8c da3c 88cb a3bb 75c0 96bd 769e b3bc
00000020: 5444 56bc 44e5 d73c abd3 dcba a211 09bd
00000030: b527 8ebb 922c e4bc b016 6f3d 6639 dc3a
00000040: 8e22 b13c 063b 103d 5e5a ef3c 9b5f 20bd
00000050: 0574 44bc 152e 88bd 9085 2bbd 9e55 463b
00000060: 8b99 2dbd 0529 1fbd 542a 4a3c d220 233d
00000070: 10fb bcbb d8ca 543d ed0f f0bc afd8 90bd
00000080: 6beb 37bd 3a7e 97bd 4c06 923c 3dfb 4f3d
00000090: 6886 a1bc d511 5a3c 18df 79bd 874a a93c
000000a0: d189 bebb 03d1 d03c bede 213c 3ad6 763d
000000b0: fe6f 15bd 2b86 f43c 6486 89bb fc0c 66bb
000000c0: 78ee 85bd 4ffe 953d a3ce 263d 3b6f 1a3c
000000d0: 8eb1 78bd 46fd 19bd 9e0b 1dbd 45c7 3cbd
000000e0: 4511 303d 9158 453d a340 5d3b d930 92bd
000000f0: 134f 51bd 155d 7bbd 8fe6 31bb f7e2 093c
00000100: ee88 85bc 5651 80bd 4993 753c 9d24 23bd
00000110: d131 21bd a1a4 e93b 0ef6 94bd 276e a63d
00000120: 7e79 263c abed 8ebc d2a1 82bd 1d3e 1f3d
00000130: b759 3dbd 4d07 7abb 88b4 833c 0a84 c83c
00000140: 3ce7 66bd 1e85 a73d 4951 ea3c 366c 243d
00000150: 0562 86bd 1253 853d b4cf 693d 2483 713c
00000160: 5b8f 2dbd 5b2c 403d 59f0 87bd 856c 9fbc
00000170: 1495 003c 34d9 363c 1e55 843c ce8a a9bc
00000180: 493b a93d 30b5 913b 9dec 81bb 6010 80bd
00000190: f645 6cbd dadc d43b 6825 3ebd 7ac4 813d
000001a0: 2982 aa3b 33ce 89bd b2c1 e0bc a012 5fbd
000001b0: a602 593d d5f6 993b ad8d 003d 2272 3fbd
000001c0: f5cc da3c 59c0 e73c 1c60 52bb 4dab 76bc
000001d0: 568b 84bd 1b01 3e3d 5ced 98bc ad83 5fbd
000001e0: 7469 2d3b 0494 2abb 2e57 f5bb 8e22 43bc
000001f0: 0d8a 7b3d ea1e e0bc 8612 7a3d 97cb 24bd
00000200: 41b8 7bbd b7d8 3d3d 6027 f4bc d221 963d
00000210: eeb7 9abd 57df cbbc 2b9b 7f3c a0a8 d73b
00000220: ab52 6a3c 58aa bbbc c2a6 28bd 227d 823d
00000230: f352 4cbd 1fac 26bd dd13 073d 2c0b 323d
00000240: 38e6 de3b 6164 563c 8ac0 5d3d 63f3 e8bd
00000250: c539 803d a2e3 9e3b dd56 97bd 8f75 57bd
00000260: 2aaf 1b3d c98e 4bbd d6f0 15bd 594c 5c3d
00000270: 5e8c 27bc dee7 6cbd 6eef ad3b ca76 afbc
00000280: 325e 123c 4a55 62bd 72e0 efbc 6d74 263c
00000290: c0be 833d f99b 5b3d 3cc1 cb3c 68ac 8abc
000002a0: c96a 903d aaa9 7f3c a771 503d 049c 533d
000002b0: 8618 0b3d 6c34 8abd dbf9 32bd a629 97bd
000002c0: e070 893d 229a 31bd ecd5 373d 95dd f0bc
000002d0: 0563 8b3d fe03 78bb a9c2 88bc d1a2 5abd
000002e0: 712e 203c 4845 863d 514b 81bd d651 8ebd
000002f0: 09f0 11bd fb07 fdbb aac4 39bc 6f21 19bc
00000300: 1e3a d03b 84a7 3a3c b88e 3c3d f543 9c3c
00000310: a0fe 1ebd 2026 8fbd 83cb 453d ffdc f7bc
00000320: 76f5 fcbb 8afd 893d a429 b4bd 104b 493d
00000330: 12d3 5c3d 60c2 633d 668f e8bc 8e5f 943c
00000340: 13ef 2a3d 7d3f 0d3c 381e 4cbb fbbf 8ebd
00000350: db26 8cbc 243f 763d 455f 903b 925e 6bbd
00000360: 220b 583d cd25 d9bc 56b4 1fbd 2404 96bd
00000370: 60b9 e53c 322c 783d 4ecd 52bd bdb8 a6bc
00000380: ee3e 53bd 2211 823d 96fc 04ba 240b 5d3d
00000390: 1c8d 62bd 9efc 6d3d 59b0 82bd 69b0 a6bb
000003a0: dcbb abbc 4f9e 78bc d5b4 61bc dd2c 72bc
000003b0: b379 b4bd 71a8 353d 4ceb 073c 9de2 1c3d
000003c0: fde3 c2bb 7557 1e3d 197f 013d 28a0 173c
000003d0: 7dbc fb3c b136 2c3d 8eea febc c4f2 2abc
000003e0: 32a4 363d d2c5 573d 9fea 223d 2586 823d
000003f0: 4614 163d 7fdd 713b cd3e acbc e359 b43c
-0.0075622355 -0.05918382 -0.010803232 0.03829524 0.026678314 -0.004998628 -0.07360927 -0.021926146
-0.013077814 0.02635444 -0.001684775 -0.03346408 -0.0043382295 -0.027853284 0.058371246 0.0016801774
0.021622922 0.03521254 0.029217895 -0.039153676 -0.011990552 -0.066494144 -0.041875422 0.0030263434
-0.042382758 -0.03885748 0.012339193 0.03982622 -0.0057672337 0.05195126 -0.029304469 -0.07072579
-0.044902246 -0.07397123 0.017825268 0.05077671 -0.01971741 0.013309916 -0.061003774 0.02066542
-0.005814769 0.02549029 0.009879766 0.060262896 -0.036483757 0.029849133 -0.004196929 -0.0035102954
-0.06539625 0.07323896 0.040724408 0.0094259335 -0.060716204 -0.037595056 -0.038341157 -0.046088476
0.04298522 0.048180167 0.003376045 -0.07138223 -0.0511008 -0.061368067 -0.002714548 0.008415929
-0.016300645 -0.062655136 0.014988729 -0.03982984 -0.03935415 0.007130221 -0.07273494 0.08126479
0.010160802 -0.017447313 -0.06378521 0.038877595 -0.046228137 -0.0038151324 0.016077295 0.024477024
-0.056372866 0.08179687 0.028603213 0.04014226 -0.065616645 0.06509985 0.057082847 0.014740739
-0.042373043 0.0469173 -0.066376396 -0.019460926 0.007848043 0.011160184 0.016153868 -0.02069607
0.08263261 0.004446648 -0.003964974 -0.06253123 -0.057683907 0.006496054 -0.046422392 0.06336303
0.0052035046 -0.067287825 -0.027436111 -0.05446112 0.05298104 0.004698614 0.031385113 -0.046739705
0.02670906 0.02828996 -0.0032100743 -0.01505549 -0.06471889 0.046387773 -0.01866787 -0.054568935
0.002646056 -0.0026028166 -0.0074871993 -0.011910094 0.061410952 -0.027358491 0.06105282 -0.04023322
-0.061455015 0.046349254 -0.029803932 0.073306695 -0.07554613 -0.02488677 0.01560096 0.006581381
0.014301936 -0.022908375 -0.041174658 0.063715234 -0.049883794 -0.04069149 0.032977927 0.043467686
0.0068023466 0.013085456 0.054138698 -0.11374547 0.06261019 0.0048489133 -0.07389615 -0.052602347
0.038008846 -0.049696717 -0.036606632 0.05378375 -0.010226337 -0.057838313 0.0053080833 -0.021418948
0.008933591 -0.05525712 -0.029281829 0.010159594 0.06432867 0.053615544 0.024872415 -0.016927913
0.07051618 0.015604416 0.050889637 0.05166246 0.033958934 -0.0674828 -0.043695312 -0.07380991
0.06710982 -0.043359883 0.044881746 -0.029402534 0.06805996 -0.0037844176 -0.016694384 -0.05337793
0.0097766975 0.06556183 -0.063131936 -0.06949203 -0.035629306 -0.0077218986 -0.011338392 -0.00934635
0.0063545844 0.011392478 0.046034545 0.019075373 -0.038817048 -0.06989694 0.048289787 -0.030256746
-0.007719691 0.06737812 -0.08797005 0.04914385 0.05391223 0.055605292 -0.02838869 0.01811197
0.041731905 0.008621094 -0.0031145941 -0.06970211 -0.017108371 0.06011881 0.0044058883 -0.057463236
0.052744992 -0.026507283 -0.03899034 -0.073250085 0.028042495 0.060589023 -0.051465325 -0.020351762
-0.051573686 0.06350924 -0.00050730386 0.053965703 -0.055310354 0.058102243 -0.06381292 -0.0050869477
-0.020963602 -0.015174462 -0.013776024 -0.014781204 -0.08812275 0.04435009 0.008295845 0.038302053
-0.0059475885 0.038657624 0.03161535 0.009254493 0.030729527 0.042044345 -0.031117704 -0.010433856
0.044590183 0.05267889 0.039774533 0.06373242 0.036640428 0.0036905704 -0.02102604 0.022015518

crystalGraphConvNet.convs.0.fc_full.bias f4 [128]
00000000: ecaa 7f3d 341b 463d 7142 0d3d fcfa 8fbb
00000010: b448 94bd bf03 5d3c 7545 633b 8cfa 023d
00000020: e8bf 863d d496 1dbd 92ae dbbc daa1 18bd
00000030: f695 c8bc ba92 86bd 78ce 98bd 0597 8f3b
00000040: 6bf3 6dbd fd56 a63c 1b94 90bd 3239 233c
00000050: ee1a 993d 5403 48ba f865 983d 60d3 8ebb
00000060: c0bd c33b 22cf 873c cf4f 903d 2a7f 5f3d
00000070: 1f78 c0bc dc1a d8bc 3a50 32bd 09e5 08bc
00000080: efc3 2cbc 91b2 333d 6364 9c3d adff 0b3d
00000090: 002b 803d 5b78 81bd 7d4a 733d a335 8cbd
000000a0: d350 dcbb 7f6f 9b3d 8213 48bd fa95 8ebd
000000b0: ff65 903d f1f4 7abd f822 8dbd 9378 893d
000000c0: 2cb7 533d ead1 4abd 86df 243d cc66 56bd
000000d0: 5c4d 4b3d c728 813d db34 90bc dad9 55bd
000000e0: d827 c13c 50ed bfbc ceff 793d a73a a53c
000000f0: 2d2d eb3c 4bd3 dfbc 455b 963d 08bd 30bd
00000100: 4d7f 83bd 8058 80bc 9e59 723d ca6f 943d
00000110: 736e 823d 9494 263d e44f 593d 05ba 273d
00000120: 5a92 74bc 9cc6 713d 7e31 3cbd f890 583d
00000130: f65b e73c 0bca 223c 7a75 9bbd b57e 94bb
00000140: 42e2 88bd 27e3 88bc e7ed 19bd fe34 9d3b
00000150: a104 88bd 4d06 27bd 3fce 493d f9d0 93bd
00000160: 7a89 b0ba ac9f 7e3d a4fe 283d 8856 9bbd
00000170: 0d2c 97bc addc fcbc c6ca 6fbd bb53 b0bc
00000180: de4a 6e3d a17d b1bb 090f 3dbd afc1 4dbd
00000190: 5c05 653c 4ff8 503d ac78 95bd 07e0 853d
000001a0: 9a6a 84bd 7f5c 98bd a33e c13c 9630 b3bc
000001b0: 6bf9 83bd 6665 22bd 90ca 013d 7376 ee3c
000001c0: a72f 753d 9c24 40bd 3145 a3bc 9912 963d
000001d0: 4542 8d3d 64a7 87bb 8cd4 8bbd 9f17 efbc
000001e0: f5da 8fbd 9fdc 903d 6b60 ffbb 4ad3 7f3d
000001f0: 4926 f73c ed76 14bd 98b9 03bd fabd dabc
0.062418863 0.048365787 0.03448719 -0.0043939333 -0.072404295 0.013489663 0.003467885 0.03197722
0.06579572 -0.03847392 -0.02681664 -0.03726373 -0.02448557 -0.065709546 -0.07461256 0.0043820166
-0.05809347 0.020305151 -0.07059499 0.009962367 0.074758396 -0.00076298905 0.07441324 -0.004358694
0.0059735477 0.01657826 0.07046472 0.054564632 -0.023494778 -0.026379995 -0.04353354 -0.0083553875
-0.010544761 0.043871466 0.07636335 0.03417938 0.062582016 -0.06321784 0.05939721 -0.06846168
-0.006723502 0.075896256 -0.04884673 -0.069621995 0.07050704 -0.06126875 -0.068914354 0.06712451
0.05168836 -0.049516596 0.04025223 -0.05234413 0.049634323 0.06306606 -0.017603328 -0.052209713
0.02357857 -0.02342859 0.06103497 0.02016957 0.028708065 -0.027322432 0.07341627 -0.043149024
-0.06420765 -0.0156672 0.059167497 0.072478846 0.06368723 0.04066904 0.053054705 0.040948886
-0.014927471 0.0590273 -0.045945637 0.052872628 0.028242093 0.009935866 -0.07590766 -0.004531706
-0.0668378 -0.016709877 -0.037580397 0.004797577 -0.06641508 -0.040777493 0.049268957 -0.07217593
-0.0013468706 0.062163994 0.04125847 -0.07584864 -0.018453622 -0.030866945 -0.05854299 -0.0215243
0.058176868 -0.0054165875 -0.046156917 -0.05023354 0.013978329 0.051018056 -0.07298407 0.065368704
-0.06465645 -0.07439517 0.023589438 -0.021873754 -0.06444057 -0.039647482 0.03168732 0.029109215
0.059859898 -0.046909913 -0.019930454 0.07327766 0.068974055 -0.0041398276 -0.068276495 -0.029186068
-0.070241846 0.0707333 -0.0077934763 0.06245736 0.030169623 -0.03624623 -0.032159418 -0.026701916

crystalGraphConvNet.convs.0.bn1.weight f4 [128]
00000000: 7be3 7f3f ef2b 803f 2d3b 803f aadd 7f3f
00000010: 89bb 803f 30d7 7f3f 33e8 7f3f f3fc 7f3f
00000020: 2932 803f acdc 803f 7066 803f 3a89 803f
00000030: e5ab 7f3f 4ecd 803f 6cf1 7f3f 17f6 7f3f
00000040: 5a4b 803f 3610 803f 795c 7f3f a5bb 7f3f
00000050: 295d 803f 10da 803f 0763 803f f5d4 7f3f
00000060: 1eea 7f3f d00d 803f c30c 803f 6c20 803f
00000070: 405b 803f 37fd 7e3f 5a46 803f c9f7 7f3f
00000080: d01e 7f3f 47b9 7f3f 4b1c 803f ad3d 803f
00000090: 2b99 803f 042e 803f e088 803f c93b 803f
000000a0: 193c 803f 8b6d 803f 4af5 7e3f 243a 803f
000000b0: 950e 803f bc2e 803f f437 803f ed17 803f
000000c0: da7e 813f a3ab 803f 3684 7f3f ba15 7f3f
000000d0: 363d 803f 0a15 803f f93f 813f 4691 803f
000000e0: 4192 7f3f b577 813f 7d70 803f 9d88 803f
000000f0: bce0 7f3f 470b 803f 2a84 803f 596e 803f
00000100: 590a 803f d86e 803f 0e8f 7f3f 5f51 803f
00000110: 9662 803f 9f4f 803f a9cb 803f 7abd 7f3f
00000120: 2711 803f d8a3 7f3f 3531 803f ccf9 7f3f
00000130: b622 803f ad71 803f 52c0 7f3f 1b25 7f3f
00000140: 4532 803f 6c28 803f 80f5 803f 4d39 803f
00000150: c026 803f 58ea 7e3f 4ff9 7f3f ca3d 803f
00000160: 56fc 7f3f cf93 803f cb06 803f 0b38 803f
00000170: ea41 803f 82e1 7f3f 016f 7f3f c470 803f
00000180: e14e 803f ba3d 803f 1205 803f a24d 803f
00000190: 616b 803f 61f7 7f3f 71b3 803f 7f54 7f3f
000001a0: 8693 803f d3ec 7f3f 6f16 803f 5b52 803f
000001b0: 6a19 803f 658e 7f3f df3b 803f 1fe7 7f3f
000001c0: 8c1a 803f 7b1d 803f 8814 813f 4148 813f
000001d0: 3517 803f 59b5 803f bb92 7f3f ff5c 813f
000001e0: 3ba1 803f 4253 803f c2a4 7f3f 1179 803f
000001f0: 2515 803f 9b30 7f3f c251 803f 7340 803f
0.9995648 1.0013407 1.0018059 0.9994761 1.0057231 0.99937725 0.9996368 0.99995345
1.0015308 1.0067344 1.0031261 1.0041878 0.99871665 1.0062654 0.99977756 0.9998488
1.0022995 1.0004947 0.9975048 0.998957 1.002843 1.0066547 1.0030221 0.9993432
0.9996661 1.0004215 1.0003895 1.0009894 1.0027847 0.99605125 1.002147 0.99987465
0.9965639 0.99892086 1.0008634 1.0018822 1.0046743 1.0014043 1.0041771 1.0018245
1.001834 1.003343 0.9959303 1.0017743 1.000445 1.0014262 1.0017076 1.0007302
1.0116837 1.0052379 0.9981111 0.9964253 1.001868 1.0006421 1.0097648 1.0044334
0.9983254 1.0114657 1.0034329 1.0041691 0.9995229 1.0003442 1.0040333 1.0033675
1.0003158 1.0033827 0.9982766 1.0024832 1.0030086 1.0024298 1.0062152 0.99898493
1.0005234 0.9985938 1.0015017 0.99990535 1.0010593 1.0034691 0.9990283 0.99665993
1.0015341 1.0012336 1.0074921 1.0017487 1.0011826 0.9957633 0.9998979 1.0018857
0.9999441 1.0045108 1.0002073 1.0017103 1.0020115 0.9995347 0.99778754 1.0034413
1.0024072 1.0018837 1.0001547 1.0023692 1.003277 0.99986845 1.0054761 0.99738306
1.004502 0.9997074 1.0006846 1.0025133 1.0007756 0.9982665 1.0018271 0.9996204
1.0008101 1.0008997 1.0084391 1.0100175 1.0007082 1.0055343 0.9983327 1.0106505
1.0049204 1.0025408 0.99860775 1.0036947 1.0006453 0.9968354 1.002495 1.0019668

crystalGraphConvNet.convs.0.bn1.bias f4 [128]
00000000: 649b 0a3a 9ba4 0fb9 0079 82ba 6c83 1639
00000010: 0fc7 4cbb 6650 c83a 9415 8b37 4a92 80ba
00000020: b1ea e0ba 55e6 833b e40e b7ba c103 68bb
00000030: b61b 49b9 3270 a5ba d01a dfba faa8 d53a
00000040: 0526 78ba 5c32 253a f11b da3a c41c ecba
00000050: d6b1 b53a 6727 e9ba 0744 56bb 501c 9a3a
00000060: e81b 8e39 30d3 cfba d47b 0739 3240 54ba
00000070: 3867 a93a 3d30 783a 2c03 feba 2cd3 153b
00000080: 5e56 813b b5de 723a 62f6 9e39 abd4 1539
00000090: dd9e 0e3b 6c7a 093a 6d2f 19bb 3530 faba
000000a0: 7a90 b23a ad76 10bb f047 a33a e803 09bb
000000b0: 4305 80b9 183a 90b9 62e4 6839 a69e 523a
000000c0: ec65 92bb 34ed e3ba 79c7 cf3a 5ed1 0839
000000d0: ebec c938 c1af e63a a1a8 aebb 7d57 40bb
000000e0: 710c 1d3b 214d 8cbb 3d5a 15bb adad 0ebb
000000f0: e83c 233a a5a7 953a 2b00 6eba 274e c839
00000100: 86c9 2ab9 ef37 c0ba 457c 5039 2d1d abba
00000110: 3e44 1abb 9fdb 9bba 2477 3dbb 814b 3a3a
00000120: da7f ce39 11b0 8f3a 5151 f6ba e26d 6437
00000130: 6594 e6b8 816e bbba c04f 133a 63b1 9f3a
00000140: 3d26 94ba f2ef 19ba c3aa 4abb f2df 03ba
00000150: 2bb2 a2b8 d835 9a3a e3b7 113a cabf 02b7
00000160: 70d5 473a 651b 15bb 4add fd37 26a1 a3ba
00000170: e47b 72ba b858 c539 55e9 903a 89b5 0cbb
00000180: 438b 7cba 34fa 5dba d2fb 9a39 dd60 9aba
00000190: 5475 4dbb cd96 d239 0e01 14bb 65f9 2c3a
000001a0: d70e 24bb b73a 86b9 9361 1b3a fc53 34ba
000001b0: 8938 a339 6ac5 a03a 0edf b4ba 0468 f839
000001c0: e0b4 0fbb 74ab c0b9 e631 72bb c9be 90bb
000001d0: ccb9 bcb9 a94b 5dbb ff83 b4ba 6551 e6bb
000001e0: c239 20bb f22b e0ba 73b5 353a 0193 43bb
000001f0: 16c9 87b9 bb54 e33a f543 10ba acc3 f039
0.0005287437 -0.00013698863 -0.0009954274 0.00014354073 -0.0031246578 0.001528275 1.658014e-05 -0.0009809223
-0.0017159787 0.0040252605 -0.001396623 -0.0035402628 -0.00019179177 -0.0012621938 -0.001702154 0.0016300969
-0.00094661146 0.00063017546 0.0016640407 -0.0018013944 0.0013862203 -0.0017788232 -0.0032694356 0.0011757705
0.00027105142 -0.0015855785 0.00012920733 -0.0008096724 0.0012924438 0.0009467637 -0.0019379607 0.0022861464
0.0039470633 0.00092647533 0.00030319678 0.00014288972 0.002176217 0.00052443775 -0.0023374215 -0.0019087853
0.001362338 -0.0022043393 0.0012457352 -0.002090687 -0.00024417983 -0.00027509104 0.00022210323 0.0008034505
-0.0044677164 -0.0017389418 0.0015852294 0.00013047966 9.628556e-05 0.0017599986 -0.0053301607 -0.0029349022
0.0023963714 -0.0042816554 -0.0022789382 -0.0021771 0.0006227032 0.001141776 -0.00090790045 0.000382052
-0.00016287537 -0.0014665107 0.0001988272 -0.001305496 -0.002353921 -0.0011891014 -0.0028910125 0.0007106588
0.0003938664 0.0010962506 -0.0018792545 1.3615443e-05 -0.00010994895 -0.00142999 0.00056194887 0.0012183603
-0.00113029 -0.00058722415 -0.0030924536 -0.0005030624 -7.757948e-05 0.0011765314 0.00055587123 -7.793258e-06
0.0007623052 -0.0022751924 3.0262996e-05 -0.0012483939 -0.00092500285 0.0003764087 0.0011055866 -0.0021470508
-0.0009633789 -0.0008467764 0.0002956079 -0.0011778135 -0.003135045 0.00040166677 -0.0022583636 0.0006598442
-0.002503326 -0.00025602218 0.00059273205 -0.000687897 0.00031131905 0.0012265865 -0.0013799386 0.00047379744
-0.0021927878 -0.00036748836 -0.0036956011 -0.0044172746 -0.00035996584 -0.003376702 -0.0013772248 -0.007028746
-0.002444849 -0.001710294 0.000693164 -0.002984226 -0.00025899027 0.0017343977 -0.00055032904 0.00045922154

crystalGraphConvNet.convs.0.bn1.running_mean f4 [128]
00000000: 383a 243e 7a2b b03d 5171 293d 8557 53bc
00000010: 079f 2f3d 5364 003e ce17 13bc 82b6 843d
00000020: 1d97 343d aa19 903c 1142 99bb dc2b 07bd
00000030: 0b5e e73c 32fa d4bc eb64 1f3d a847 75be
00000040: 0da7 163b af1f c03d e363 f8bb eaee 563d
00000050: af9b 253e 86e2 043d 69fd 3a3e 57f5 47bc
00000060: cf2a 9cbd d243 883d 26fd 843e efd2 613d
00000070: 523d bbbd 433a 8bbd 1ff3 3d3c f922 073d
00000080: bcd8 3939 1e77 db3d 8f16 173e aade 983c
00000090: 0674 1c3e 1b3b 02bd b792 a63d 7044 3ebe
000000a0: 2058 063e 04ff 033e a542 00be 6b8c 3bbd
000000b0: a312 dd3d 57f6 ddbd b2d4 ffbd 29cb ab3b
000000c0: d218 523d b2ba f2bc bc62 9cbd cbbc 22bd
000000d0: 5df5 76bc 54ce ca3d 7372 443d 383c 013d
000000e0: 5936 f43d c2b9 9f3d 26fe 0f3e cf2f 52bc
000000f0: 1689 eb3c 6519 823d cef7 07bc 4124 a8bd
00000100: e040 a2bc 2784 ecbc b41a 01bd 3a85 463e
00000110: 131f 0c3e 64fc 3c3d c5ee 153e b6d0 0ebe
00000120: c2cd 873d f0df d03d 4ee8 29be a85e 6b3e
00000130: 351a 9c3c 9b8d a93c 2eff 18be 8f13 aabd
00000140: 2b7c 5abd ef8f af3d 8f09 d9bc aedb 443c
00000150: ea2c 43be c6ef 5abd 51a8 e83d 94ac 3dbb
00000160: 203c 02be 0caa 973d 2d87 033e d21b 77bd
00000170: 9da5 013d 3172 80bd 272e 9abc edb7 a6bd
00000180: 978c 1f3c 7308 14bd a765 ecbd 3c35 923d
00000190: 5c45 ebbd e819 b73d 3a29 2abe 9ac4 113d
000001a0: e936 473a 7b24 c23d ee51 64bc d61e 593d
000001b0: ce93 07be f53a 08bb 24d2 b83d 1f47 f3bd
000001c0: 9620 ba3d bcf2 8d3d 8109 6f3d 02e2 463e
000001d0: 46e8 f03d 5a3d 15bc 2aee babd 1289 b93c
000001e0: e82e 873d 9a0e a3bd 2bd6 593d 5d3c bf3d
000001f0: b295 2e3d f2bc c2bd c379 9cbc d04f 093b
0.16037834 0.086020425 0.041367833 -0.012899284 0.04287627 0.1253827 -0.008977843 0.06480123
0.044089425 0.017590363 -0.004677065 -0.033000812 0.028243085 -0.025998209 0.038914602 -0.23953116
0.0022987754 0.09381043 -0.007580267 0.05247394 0.1617267 0.032442592 0.18260731 -0.01220449
-0.076253526 0.06653561 0.25974387 0.055132803 -0.09142555 -0.06798222 0.011593609 0.032992337
0.00017723715 0.10716079 0.14754699 0.018660862 0.15278634 -0.03179465 0.081334524 -0.18580794
0.13119555 0.1289025 -0.12525423 -0.04578821 0.1079457 -0.10838001 -0.1249174 0.0052427244
0.0512932 -0.029630039 -0.076360196 -0.03973083 -0.015073148 0.09902635 0.04796071 0.03155157
0.119244285 0.07799102 0.14061794 -0.012828781 0.028751891 0.063525 -0.008298827 -0.0821004
-0.019806325 -0.028871609 -0.031519607 0.1938676 0.13683729 0.046139136 0.14641865 -0.13946804
0.06631042 0.10198963 -0.16592523 0.22985327 0.019055465 0.020697406 -0.14941093 -0.08304512
-0.053341072 0.08572375 -0.026493816 0.012015266 -0.19060102 -0.053451322 0.11360229 -0.0028941976
-0.12718248 0.07405481 0.12844534 -0.060329266 0.03165208 -0.0627178 -0.018820835 -0.0814055
0.009738109 -0.03614087 -0.11542826 0.0713906 -0.114878386 0.08940488 -0.16617289 0.035587884
0.000759943 0.09479614 -0.013935549 0.053007923 -0.13239977 -0.0020787094 0.09024456 -0.118788
0.090882465 0.069310635 0.058358673 0.19422153 0.11763053 -0.009108866 -0.091274574 0.022648368
0.066007435 -0.079617694 0.053182762 0.09337685 0.04262323 -0.09508695 -0.01910103 0.0020952113

crystalGraphConvNet.convs.0.bn1.running_var f4 [128]
00000000: c60e cf3b 11c9 ef3b a5d0 b83b 4312 423c
00000010: 008b 1c3c 7c9f d43b d8eb 083c d033 9a3b
00000020: ed73 d93b 3993 2a3c 2924 0a3c 8474 ec3b
00000030: b09a 0a3c 1933 343c 8ff3 e73b 04e4 533c
00000040: 00a1 1c3c 32a3 3a3c 7641 f63b d22d e63b
00000050: 54c5 f33b 5a54 333c 2236 123c 7d28 553c
00000060: 93c2 103c 120b f63b 038d 2d3c dff3 3f3c
00000070: 4b8a 5d3c a43d 123c d577 233c 885b 123c
00000080: 750b fd3b 9569 eb3b 4c19 cb3b 4808 f13b
00000090: 7e24 6d3c 0e84 ef3b a329 fd3b aab9 2d3c
000000a0: 5058 683c 022b 923b a9eb 163c e26a 0d3c
000000b0: 830e 393c b4bb e13b 709d 0a3c ef12 2e3c
000000c0: 3edc 073c 421b 113c f5d7 e23b abeb 2f3c
000000d0: 72bf 0f3c 6c53 2c3c 86f2 d93b f8f7 2a3c
000000e0: b641 023c 823d 473c 5193 e93b cebd d63b
000000f0: ae85 e63b b97e 3e3c 200a 063c d66c 173c
00000100: fd3c 613c 6315 253c d5ad 2d3c d4f1 093c
00000110: 6eee 0c3c 5605 023c b5c5 0e3c ad54 863c
00000120: 07b6 ff3b 13fe 773c 76ac 3a3c 6a15 6c3c
00000130: 95d7 f83b 91ed 623c bba3 fc3b 239e 723c
00000140: 2b06 083c 3c82 633c 5386 213c ed5d 773c
00000150: fef3 0f3c fc96 5b3c b40b 5f3c 4adc 183c
00000160: c107 fd3b 6022 de3b 791b 053c 8793 353c
00000170: 2078 413c dbc5 0f3c 7585 233c b60d fd3b
00000180: 0328 163c 9393 0c3c a2ae 053c 836e 293c
00000190: f972 283c 6aa9 733c 7851 083c abb8 413c
000001a0: a5e9 1d3c 2708 183c 1f84 fc3b df16 433c
000001b0: e1bc 183c 4b80 713c 0dc5 0b3c 2a74 783c
000001c0: e175 1e3c 3e6f 803c 6a73 393c 0879 823c
000001d0: e545 a13b c31c 133c 79f6 d53b 8b22 543c
000001e0: 5d47 683c 844f 683c 1ea9 283c 465a 493c
000001f0: 331a de3b c415 1e3c c53d 553c 5657 6a3c
0.0063189 0.00731767 0.0056401067 0.011845174 0.009554625 0.0064887386 0.008357011 0.0047058836
0.006636134 0.010411077 0.008431473 0.007216038 0.008459732 0.010998511 0.007078595 0.012932781
0.00955987 0.011391448 0.007515128 0.007024505 0.007439295 0.010945404 0.008924039 0.013010141
0.008835453 0.007508644 0.010592702 0.011715858 0.013521741 0.008925829 0.009977301 0.008932956
0.007722313 0.007184217 0.006198084 0.0073557235 0.014474032 0.0073094433 0.0077259107 0.010603348
0.014181212 0.0044606933 0.009211459 0.00863144 0.011294964 0.006888831 0.008460388 0.010624631
0.008292256 0.008856596 0.0069227167 0.01073734 0.008773671 0.010517936 0.0066512255 0.010435097
0.007950237 0.012160661 0.007128157 0.006553388 0.007034979 0.011626893 0.008181125 0.009242257
0.013747451 0.0100759 0.010600527 0.008419473 0.008601768 0.0079358425 0.008714129 0.016397798
0.007803682 0.01513626 0.011393657 0.014409402 0.0075940588 0.013850586 0.007709948 0.014808211
0.008302252 0.013886031 0.009858686 0.015098077 0.0087862 0.013402697 0.01361363 0.009329865
0.0077218716 0.006779 0.008124226 0.011082537 0.011808425 0.0087752 0.009980549 0.0077225817
0.009164813 0.008580106 0.0081593115 0.010341289 0.010281318 0.014871934 0.008320205 0.011823813
0.009638225 0.009279287 0.0077061797 0.011907308 0.009322376 0.01474006 0.008530867 0.015164414
0.009671659 0.015678044 0.011319021 0.015926853 0.004921662 0.008979025 0.006529626 0.012947689
0.014177171 0.014179114 0.010294227 0.012289589 0.0067780255 0.009648744 0.013015215 0.014303049

crystalGraphConvNet.convs.0.bn2.weight f4 [64]
00000000: 5342 7f3f 6dc6 803f feb6 7e3f d31f 7e3f
00000010: 8005 813f 38df 7e3f 01b3 813f 49bc 7f3f
00000020: 8086 7f3f 0567 7f3f 9a96 823f 92af 7f3f
00000030: 3dda 7d3f 8deb 803f 9026 7f3f 6aeb 803f
00000040: b4b3 7e3f cf86 7e3f 109a 823f 9a8c 7f3f
00000050: 34d7 7f3f 9184 7e3f dfd6 813f 41ea 7d3f
00000060: f2a9 7e3f 15c6 813f f98c 7e3f 7f1b 7e3f
00000070: 77c1 803f 184a 803f 22b3 7c3f 3b7a 803f
00000080: 8543 7b3f 58d7 7d3f 101c 7f3f 4bab 813f
00000090: a6c7 803f 6989 7d3f f578 823f f42c 7e3f
000000a0: 2a42 803f ca79 7f3f 2c0e 7d3f f163 803f
000000b0: dc9e 7f3f 2d75 7c3f 05bd 803f c229 7e3f
000000c0: 2f5e 7f3f e8a1 803f 85da 803f 4028 813f
000000d0: 2d2e 7f3f 4573 803f a308 813f 7b4a 813f
000000e0: 433a 7e3f e8d9 823f aa10 7d3f f5e0 823f
000000f0: 771d 7e3f 2aa5 7c3f 3239 803f 7957 803f
0.9971058 1.0060555 0.99497974 0.9926731 1.0079803 0.99559355 1.0132753 0.99896675
0.99814606 0.9976657 1.020221 0.99877274 0.9916113 1.0071884 0.99668217 1.0071843
0.99492955 0.9942445 1.0203266 0.99823916 0.9993775 0.9942103 1.0143698 0.9918557
0.99478066 1.0138575 0.9943386 0.99260706 1.0059041 1.0022612 0.98710835 1.0037302
0.981499 0.99156713 0.99652195 1.01304 1.0060928 0.99037796 1.0193163 0.99287343
1.0020192 0.9979521 0.9884975 1.00305 0.99851775 0.98616296 1.0057684 0.9928247
0.9975309 1.004941 1.0066687 1.0090408 0.99679834 1.0035177 1.0080761 1.0100855
0.9930765 1.022275 0.9885355 1.0224901 0.9926371 0.9868952 1.0017455 1.0026695

crystalGraphConvNet.convs.0.bn2.bias f4 [64]
00000000: a8a5 ce3a 2604 853a ac78 2dbb 7d50 45bb
00000010: c81c 84bb 0667 15bb 4a53 bdba 1060 4dbb
00000020: ced7 79bb 83ed b8bb 979f ac3b 2235 8ebb
00000030: 2b78 82bb df80 dbb9 e8ca aeb9 06d7 a73b
00000040: 0aa6 07bc 56a7 50bb a899 ae3b 1bc7 8eba
00000050: 3196 a43a a037 8cbb 0a56 cf3a 6b70 afba
00000060: 983b 7639 199b cbb9 4e25 2ebb bd62 c6bb
00000070: 0e0d edb9 3084 543b 254e d0bb b93b ccb9
00000080: a0c1 69bb 78a4 fbba e749 97bb 708b 07ba
00000090: a97f 0e3b cfb0 bcba e06a 3839 6f3a 71ba
000000a0: 8d60 a9ba eb3e 8bbb b790 5cbb e8e9 93bb
000000b0: 1faf 2dba 0fa9 c0bb e09b 8fbb 3d54 62bb
000000c0: b82a c1bb 4ba0 b5bb 5d9f 9dbb ed8a 153b
000000d0: e1da a6ba da86 0cbb afb7 abbb f573 1dbc
000000e0: 6003 75bb 8d19 273b cee5 a9bb 187e 7b3b
000000f0: 9c36 fdba 71e7 13bb 4fd0 693a 0ec6 aeb8
0.0015765922 0.0010148331 -0.002646963 -0.003010779 -0.0040317513 -0.0022797002 -0.0014444378 -0.0031337775
-0.0038123014 -0.005643548 0.005268048 -0.00433983 -0.0039816103 -0.00041866952 -0.00033339043 0.0051220683
-0.008279333 -0.0031838021 0.005328376 -0.0010893078 0.0012556968 -0.004279092 0.0015818488 -0.0013384944
0.00023482589 -0.00038834734 -0.0026572528 -0.006054251 -0.0004521389 0.0032427423 -0.006356972 -0.0003895441
-0.0035668388 -0.0019198796 -0.004616964 -0.0005170619 0.0021743572 -0.0014395955 0.00017587421 -0.00092021277
-0.0012922451 -0.0042494438 -0.0033655593 -0.004513968 -0.00066255213 -0.0058795284 -0.0043825954 -0.0034535073
-0.005894985 -0.00554279 -0.0048102573 0.0022818402 -0.0012730026 -0.0021442682 -0.0052404027 -0.009610166
-0.0037386045 0.0025497407 -0.0051848656 0.0038374718 -0.0019318643 -0.002256837 0.0008919285 -8.333857e-05

crystalGraphConvNet.convs.0.bn2.running_mean f4 [64]
00000000: fc67 a840 787a a740 f0b7 9740 f286 9c40
00000010: 0e8f a740 437a a240 b5ac 9740 ad19 9c40
00000020: 6660 a140 911d b040 5dcb a040 bc26 9840
00000030: 4594 ae40 3a51 9840 ca8b aa40 e64b aa40
00000040: 63c0 a240 d4d6 b240 a3d6 9540 7593 9c40
00000050: 820e 9540 a402 a340 9dcb b240 30ad 9440
00000060: 7ee8 9a40 9db0 a040 9cb1 a540 7198 a240
00000070: f3cc 8f40 40ef a740 68b2 af40 3b59 a940
00000080: 9c1d a540 365c 9e40 af81 9c40 dfba a740
00000090: 1906 a440 e6d5 a140 7b7d 9d40 d168 a440
000000a0: 376b aa40 32f7 a040 8b61 9a40 0aa0 9940
000000b0: 8f2e 8d40 7a08 9a40 058e 9a40 59c7 aa40
000000c0: 22fb 9640 b2f0 ad40 c688 9840 850c b240
000000d0: dff9 a040 18b0 a040 86e5 9d40 9167 a640
000000e0: 1372 af40 fe29 9a40 f99e a440 28b9 ab40
000000f0: 9b91 9b40 921d a240 5c15 9a40 8d3d aa40
5.2626934 5.2337 4.7412033 4.891473 5.2362127 5.0774245 4.7398324 4.8781343
5.0430174 5.503609 5.0248246 4.7547283 5.4555993 4.7599154 5.329564 5.321765
5.0859847 5.588724 4.682451 4.893 4.658021 5.0940723 5.587355 4.646141
4.8408804 5.0215592 5.177931 5.0811086 4.493768 5.2479553 5.490528 5.2921424
5.1598644 4.948756 4.8908305 5.2415614 5.1257443 5.0573606 4.9215674 5.137795
5.3255877 5.030175 4.824407 4.800786 4.4119334 4.8135347 4.8298364 5.3368344
4.718156 5.4356318 4.766696 5.5640283 5.030502 5.021496 4.934268 5.2001424
5.482675 4.817626 5.144406 5.366352 4.861524 5.0661097 4.8151073 5.3200135

crystalGraphConvNet.convs.0.bn2.running_var f4 [64]
00000000: 7a7f 1341 0594 1141 8bae 2d41 a6fd e340
00000010: 803e 1d41 c077 0f41 c2b6 1941 4b04 8041
00000020: f142 1241 02d0 f740 3054 6441 3b2f dd40
00000030: 9289 aa41 940b 0d41 4f32 8c41 b950 c341
00000040: 154d 0d41 28fc 8741 5ae1 f640 2064 9141
00000050: 2b94 f140 c5b0 7d41 8e9e 2841 e168 ce40
00000060: fd21 4b41 d5a2 0241 e7ae 3041 1434 3241
00000070: 948a 3941 84fb 0f41 08de 3441 d973 1341
00000080: 3ca8 1b41 53d1 8e41 4461 3741 3199 d140
00000090: d437 0741 743f 7741 7c40 de40 f078 2d41
000000a0: f41a 0d41 6c99 fb40 f360 2341 34e8 f840
000000b0: 74e7 0d41 e0bd 2041 5904 c540 4d73 8841
000000c0: c600 ea40 c952 0a41 e15c ba40 3cb0 2c41
000000d0: 3671 6d41 4dd2 2941 844c 0b41 25d2 1c41
000000e0: 80e2 3841 de3a e740 e8b7 4941 2875 2f41
000000f0: e248 5c41 5763 2d41 3bf0 cd40 3113 9e41
9.218622 9.098638 10.855113 7.124713 9.827759 8.966736 9.607119 16.002096
9.141343 7.7441416 14.270554 6.9120154 21.317173 8.815327 17.524565 24.414415
8.831319 16.998123 7.7150087 18.17389 7.549337 15.855657 10.53871 6.4503026
12.695798 8.164754 11.042701 11.137714 11.596333 8.998905 11.304207 9.215783
9.728573 17.85221 11.4612465 6.54995 8.45113 15.4529915 6.9453716 10.842026
8.81908 7.8624783 10.211169 7.778345 8.869007 10.046356 6.1567807 17.0563
7.3125944 8.645211 5.8238378 10.793026 14.840139 10.613843 8.706181 9.801305
11.555298 7.225936 12.607399 10.966103 13.767794 10.836753 6.435575 19.75937

crystalGraphConvNet.convs.1.fc_full.weight f4 [128, 169]
00000000: 10dd 41bc 1462 fa3c 3ad2 6e3d 0da2 203d
00000010: 312e babc 9160 d8bc aa09 6ebc 8ed2 853c
00000020: c4d5 1ebd d6e8 863d e800 02bd accd f33c
00000030: f333 60bd c7fe 443d 7198 3bbd 9138 8c3d
00000040: 9196 10bd b1fe 513d 79ff 493d 98c0 a9bd
00000050: bab0 233d 312e 7abd f49f 8d3d 6c22 273d
00000060: 49ba 533d 66ab 0fbb ddeb cb3a e37b 9bbc
00000070: c834 38bc f927 9e3d 5d1e 8f3c 5563 48bd
00000080: 3940 0dbd bf77 0bbd 978e 2bbb 7211 aabd
00000090: dca7 23bd 80a0 6a3d fa40 a2bc 9d7c 253c
000000a0: 8ce1 8c3d ae76 a73c a3aa 7dbd ce13 443c
000000b0: 7f44 d5bb 00f3 49bd db45 623b c129 fb3c
000000c0: a68f 85bb 7015 d7bc 75eb 35bc dc98 403d
000000d0: 0882 2b3d a702 5dbd 9658 023c 357b 823d
000000e0: c0d2 1dbc 7c26 a9bd 2075 463d a6d1 283c
000000f0: 103d 843d 56d4 10bd f891 193d a8e6 52bd
00000100: 391d 80bd b437 4c3d fbee 9a3d 6af6 79bd
00000110: 4040 033c 815a 5f3d e130 8c3c a588 473c
00000120: 3010 febc 864b 883d 2ce0 853c 721e e93c
00000130: c1e0 063b d5a4 d0bc 241e 543d 5f4a 4f3d
00000140: baeb 06bc 5b18 1f3d e3ad 8fbd f6b3 6cbd
00000150: 70d9 a43c 4fad f03c 019d cf3c bfd0 ea3c
00000160: 0783 9dbd 426f 613d 5385 3abd e8d4 dd39
00000170: ec64 89bd 912b 54bc 5cc7 b2bd 25af b1bc
00000180: 55fd 8cbd 404e c93c 04d0 893d 71b6 503d
00000190: 6300 f9ba 7afb c4bc 7b22 e0bc 4af6 93bd
000001a0: 8276 123c 16f3 803d ceb1 95bd 0da2 5c3d
000001b0: c345 a9bd 129a b2bc b009 d73c e4c4 a7bb
000001c0: 6eda 3abd ad9e 983d b890 ebbc ff73 803d
000001d0: 7a54 fc3c f2f0 4abd 5f54 ac3c 8fcb dbbc
000001e0: 2c6e 9cbc 855c 5fbc 9b5b 86bd abe0 a9bc
000001f0: f21b 8abd bf9e a8bc d92d 083d 7c0f 833d
00000200: 1ec5 5fbc 278d cbba 3891 053d 503f 8fbc
00000210: 6bf7 7db8 3e8b 5fbd 9671 803d a8e5 083d
00000220: e1df 8b3d 5726 5b3c 0006 77bd 449d eebb
00000230: 6007 823d 5b4e 41bd 1049 8eba bd3d 6abc
00000240: 9e8f d3bc c172 463c e04b b0bc ce99 49bd
00000250: 2f9a 793d b012 793c 28b0 6e3d f427 01bd
00000260: 2c62 6e3d 4b78 02bd 9135 463d 274e e83b
00000270: 2ee2 203d 71d2 693d 5806 2d3d 330f 5e3d
00000280: ca2a 8ebc 924c 4abd c1a5 59bd 1ead 97bd
00000290: d72c 53bd 4d77 683d 0884 3f3d 0a87 853c
000002a0: 526e 36bd 02e7 843c 84d9 c43b cb65 3cbd
000002b0: a872 e5bc 1141 1abd 80b0 27bd c59a 953d
000002c0: 2c95 08bd 0295 b7bc 08ed 1a3d 7f33 b4bb
000002d0: 9ff0 5fbd e693 2d3c 0559 80bd 7ba7 573d
000002e0: f105 2abd e117 293c 3172 ec3c 7e7b 7bbd
000002f0: 8070 923d 6721 613d 5328 73bd cb3a 993d
00000300: 391f 94bd 0df1 b0bc 6944 243d 230a 543d
00000310: 2987 2dbd c2fd 6c3d c50f 153d eb96 57bc
00000320: b986 933d 9a2e bdbc fe44 4ebd fee5 273d
00000330: fcad 43bd 07f9 95bd 78aa fb3c f8d7 86bc
00000340: 9938 9f3d 2a1e 8c3d 3381 073d 9355 743d
00000350: 1dec 0b3d 7fc1 73bd 19a6 6ebd 1732 3dbd
00000360: 25c3 903d c9eb 0d3c 94fc 963d 3371 04bd
00000370: 525d 80bd 9cca 833d 3e78 d5bc 5305 01bd
00000380: 030f a03d 2914 67bc f058 c0b9 dafc 65bd
00000390: f483 4b3d 61c6 ebbc ceaa 7f3d 6135 693d
000003a0: b1cc 9c3c d353 55bd 03a3 65bd 5798 7dbd
000003b0: 919f 75bd d055 683d 8485 35bd e4ba ac3c
000003c0: 36d5 493d da71 9fbd 4dbb 83bd 600c 78bc
000003d0: 92ce bdbc bfd3 8fbd 4cd5 6ebd fad1 6d3c
000003e0: d523 073d 4016 fcbb 3415 ad3c 77c4 30bd
000003f0: 5854 273d 6356 b93c 9982 adbc 00a7 493d
-0.011832491 0.030564345 0.058305956 0.039217044 -0.022727104 -0.026413234 -0.014528671 0.016335752
-0.03877808 0.06587379 -0.031739146 0.029761158 -0.054737043 0.048094537 -0.045799676 0.06846727
-0.03529984 0.051268283 0.049315903 -0.082886875 0.03996346 -0.061079208 0.06915274 0.04080431
0.051691327 -0.002192223 0.0015557964 -0.018979972 -0.011243053 0.07722468 0.017470533 -0.048922855
-0.034485076 -0.034049746 -0.002617752 -0.08304109 -0.039955005 0.05728197 -0.019806374 0.010100511
0.06878957 0.020442333 -0.06193031 0.011967612 -0.0065084095 -0.04930401 0.00345265 0.030659558
-0.004075962 -0.02625534 -0.011103501 0.047020778 0.041872054 -0.053957608 0.007955691 0.06371156
-0.009632766 -0.082592934 0.048451543 0.01030389 0.06456959 -0.03535875 0.037492722 -0.051489502
-0.06255574 0.04985781 0.07565113 -0.061026014 0.008010924 0.05452967 0.017113151 0.012178575
-0.031013578 0.0665503 0.016342245 0.0284569 0.002058074 -0.025469223 0.051786557 0.050608035
-0.0082349125 0.038841587 -0.07015588 -0.05778881 0.020123214 0.029379515 0.02534342 0.028663991
-0.07691007 0.055037744 -0.045537304 0.00042311032 -0.067087024 -0.01294984 -0.08729431 -0.02168996
-0.06884257 0.024573445 0.06729129 0.05095524 -0.0018997308 -0.024045695 -0.027360192 -0.0722471
0.008939387 0.06296365 -0.07309304 0.05386548 -0.08265259 -0.021801982 0.026249737 -0.0051199067
-0.045618467 0.0745214 -0.02875553 0.062721245 0.030802 -0.04954619 0.021036325 -0.026830463
-0.019095503 -0.013632898 -0.06560441 -0.020737013 -0.067436114 -0.020583509 0.03324685 0.06399438
-0.013657836 -0.0015529738 0.032609195 -0.017486244 -6.0550326e-05 -0.05457615 0.06271665 0.033422142
0.06829811 0.01337584 -0.060308456 -0.007281931 0.06349063 -0.047193866 -0.0010855515 -0.014296946
-0.025825318 0.01211232 -0.021520555 -0.049218945 0.060938057 0.015202209 0.058273464 -0.031532243
0.058199093 -0.031853 0.04839093 0.0070893946 0.0392782 0.05708546 0.042242378 0.054213714
-0.017354388 -0.04938943 -0.05313659 -0.07406066 -0.051556434 0.0567544 0.046756774 0.016299743
-0.044538803 0.016223434 0.006007375 -0.045995515 -0.028008774 -0.03765971 -0.040939808 0.073049106
-0.033345386 -0.02240992 0.037823707 -0.005499303 -0.054672834 0.010594344 -0.06266979 0.052649956
-0.041509572 0.010320635 0.028863044 -0.06139707 0.07150364 0.054963496 -0.059364628 0.07481917
-0.07232518 -0.021599317 0.040104304 0.05176748 -0.042365227 0.05785919 0.036391992 -0.01315854
0.07203431 -0.02309351 -0.050358765 0.040990822 -0.047773346 -0.07322889 0.030720934 -0.016460404
0.07774467 0.06841691 0.0330822 0.059651922 0.034160722 -0.059510704 -0.05826387 -0.046190348
0.07068471 0.008662173 0.07372394 -0.032334518 -0.062677994 0.06435129 -0.026058313 -0.03149922
0.07815363 -0.014103928 -0.00036687357 -0.05614934 0.049686387 -0.028781118 0.06241875 0.05693567
0.019140573 -0.052081894 -0.056063663 -0.06191286 -0.059966628 0.056722462 -0.044316784 0.02108521
0.0492756 -0.07785387 -0.06432209 -0.015139669 -0.02316979 -0.07022809 -0.058308885 0.014515394
0.032993156 -0.007693082 0.021128275 -0.043156113 0.04085192 0.0226242 -0.021180438 0.04923153

crystalGraphConvNet.convs.1.fc_full.bias f4 [128]
00000000: faca 8b3c f504 943d 764b 8b3c 92c5 1dbd
00000010: 99b3 c23b 0fd6 9e3c 2138 72bd c548 e8bc
00000020: b8ca d13c bc03 aebb ead3 41bd 43b1 4c3d
00000030: 8c1b 763b c532 a6bc 172f 1eb7 79ec 33bb
00000040: dec4 65bd e809 b13c 6910 843d 34ad 2d3d
00000050: e817 463d ed73 0bbd 95ec 87bd c33d 82bd
00000060: 5bfe 213d e3cb dcbc 1f88 853c 63cb a4bb
00000070: fb63 c2bc 1c5c 7bbd fc68 423d 40ee 49bd
00000080: 0113 5b3d 5ccf 73bd a8c9 273d 6864 b6bc
00000090: 4139 6f3d 2c45 043c 5c50 f43a 75a2 903d
000000a0: 7ab5 5abc 392b f83a 9540 95bd b7ab 663b
000000b0: 7262 57bd 46f1 6ebd d930 92bc 3bb8 243d
000000c0: 0a2c 19bd 2f69 783d 20a4 0bbd 6596 843b
000000d0: ba08 e6ba c116 53bd 3a7b 8ebd 0052 99bc
000000e0: 06fa 0abc c14e b93b ada3 25bd 7d26 e73b
000000f0: d71e 173d ff2b afbc f392 463c d7b4 bdbc
00000100: a9b9 493d 79ea a23b 365a 89bc fbe6 843d
00000110: 6fcb 093a 40fb 21bd b18d 33bb f4f8 603d
00000120: 990b 7bbd 845d 91bd 05f5 f73c dfcb 893b
00000130: 48a6 7b3d d23d 84bd 0415 10bc 750c 98bd
00000140: 68a8 f03c 539e 873d fd51 92bd 25a5 2e3d
00000150: 8427 973d 93e6 2ebb cfe9 e43c 32d9 5cbd
00000160: 0e4f 9d3d df6b 663c 722d 9b3d c0d0 36bd
00000170: b347 553d 134c 6bbc 93ab 683c c597 633d
00000180: 3b4f 913d 5466 433d 5bac 403c 7a21 943d
00000190: d971 3e3c 3a13 833c b9c9 b63b 153a cb3b
000001a0: 2e97 8abd a901 93bd 8a57 7fbd a8bc 893d
000001b0: 9844 cc3a 343c 38bd 8f10 8fbd d8da 903d
000001c0: c14f 7c3d 7202 553d 2a24 1e3d 51a0 31bd
000001d0: af30 88bd 343b 693b fc46 d43c 2d7c 0f3d
000001e0: 8e97 833d 8539 6ebd fbe0 c6bc a86b 5fbd
000001f0: 2299 813d 0198 db3c bcb7 43bc b30a d03c
0.01706456 0.07227508 0.017003756 -0.038518496 0.00594182 0.01938918 -0.05913556 -0.028355012
0.02560936 -0.0053105038 -0.047321238 0.049973737 0.003755304 -0.02028788 -9.428498e-06 -0.002745418
-0.05609595 0.021611169 0.064484425 0.042401507 0.048362643 -0.034046102 -0.06636921 -0.06359436
0.039549213 -0.02695269 0.01630026 -0.0050291284 -0.023729315 -0.06136714 0.047463402 -0.04929948
0.05348492 -0.059523925 0.0409638 -0.022264674 0.05840421 0.0080731325 0.0018639672 0.07062236
-0.013348931 0.001893378 -0.07287709 0.0035197565 -0.05258412 -0.058335565 -0.017845558 0.04021476
-0.037395515 0.060647186 -0.03409207 0.0040462487 -0.0017550208 -0.05153537 -0.06957097 -0.018715858
-0.008482462 0.00565514 -0.040439297 0.0070541487 0.036894646 -0.021383284 0.012119996 -0.02315752
0.049249325 0.004971799 -0.016766649 0.064893685 0.0005256449 -0.03954625 -0.0027397687 0.05492492
-0.061290357 -0.07097915 0.030268202 0.0042052115 0.061437875 -0.06457104 -0.008794073 -0.07424251
0.029377177 0.06621995 -0.07144544 0.042637963 0.07380584 -0.0026687726 0.02794352 -0.05391807
0.07681094 0.014063804 0.075770274 -0.044632673 0.05207033 -0.014361399 0.014201063 0.05556466
0.0709519 0.04770501 0.011759843 0.07232948 0.011623823 0.016000379 0.0055782464 0.0062019923
-0.067671165 -0.07178051 -0.062339343 0.067254364 0.0015584407 -0.04497929 -0.0698558 0.07072991
0.061599497 0.052004285 0.038608707 -0.04336578 -0.06649911 0.0035588266 0.025912754 0.035030533
0.06425391 -0.058160324 -0.0242772 -0.05454603 0.06328036 0.02680588 -0.011945661 0.025395727

crystalGraphConvNet.convs.1.bn1.weight f4 [128]
00000000: 32da 7f3f e4f1 7f3f a6fe 7f3f 03aa 7f3f
00000010: a8ac 7f3f d0e3 7f3f 7de8 7f3f 5df7 7f3f
00000020: 3a3a 803f a451 803f 76cf 803f fa64 803f
00000030: b5db 7f3f bbe9 7f3f 84f2 7f3f c4f6 7f3f
00000040: c142 803f 5fe0 7f3f 23c3 7f3f 820d 803f
00000050: 0444 803f ac00 803f bb2d 803f 612c 803f
00000060: 2288 7f3f 994d 803f 39b9 803f 2010 803f
00000070: 4f9a 803f 16f7 7f3f d149 803f 4553 803f
00000080: 07c3 7f3f f711 803f 803f 803f ae32 803f
00000090: 26e2 803f 2781 803f e3a5 803f f53f 803f
000000a0: 8e56 803f 58f2 7f3f 967c 803f 9402 803f
000000b0: a931 803f 7395 7f3f 73b1 7f3f 8533 803f
000000c0: c1df 7f3f 99db 7f3f c436 803f b478 803f
000000d0: 34ed 803f ba30 803f 5c64 803f 183f 803f
000000e0: 0c56 803f 4bad 7f3f b91a 803f 1f6e 7f3f
000000f0: 0c4e 803f ecaf 803f 2347 803f 1f72 803f
00000100: 62ea 803f f622 803f 4cb7 7f3f 3763 803f
00000110: 33ca 803f ff20 803f c208 803f 7243 803f
00000120: 531f 803f 1dc1 7f3f 1162 803f 9385 803f
00000130: 39fd 7f3f 3209 803f 6801 803f 4952 803f
00000140: 4827 803f f52f 803f 3f12 803f 4d02 803f
00000150: b1c9 7f3f 9a07 803f 3760 7f3f fa0c 803f
00000160: ad07 813f aa1d 803f 9f46 803f 35ee 7f3f
00000170: 7074 7f3f f8d9 7f3f 38a1 7f3f 7c1c 803f
00000180: c41a 803f 81c9 7f3f ed40 7f3f d322 803f
00000190: 129f 7f3f 61a9 7e3f 1c80 803f 2bd3 7f3f
000001a0: 3fc8 803f 7ce7 7f3f d2de 7f3f 1f14 803f
000001b0: e7ed 7f3f 6b5a 803f 622e 803f 0e1d 803f
000001c0: 7d1c 803f 1cad 803f 8ca3 7f3f 0fb9 803f
000001d0: d735 803f 969c 803f 9a50 7f3f 0197 7f3f
000001e0: 47c9 7f3f 485e 803f ac7b 813f 1eda 803f
000001f0: ce1e 803f eb74 803f f53d 803f 9827 803f
0.99942315 0.9997847 0.9999794 0.9986879 0.9987283 0.9995699 0.99964124 0.9998682
1.0017769 1.0024915 1.0063312 1.0030816 0.9994462 0.9996602 0.99979424 0.9998591
1.0020372 0.9995174 0.9990713 1.0004122 1.0020757 1.0000205 1.0013956 1.0013543
0.998171 1.0023681 1.0056525 1.0004921 1.0047091 0.999864 1.0022527 1.0025412
0.99906963 1.0005482 1.0019379 1.0015466 1.0069015 1.0039414 1.0050625 1.0019518
1.0026414 0.9997916 1.0038021 1.0000787 1.0015155 0.99837416 0.9988014 1.0015723
0.99950796 0.99944454 1.0016713 1.0036836 1.0072389 1.001487 1.0030627 1.0019255
1.002626 0.998738 1.0008155 0.99777406 1.0023818 1.0053687 1.0021709 1.0034827
1.0071528 1.0010669 0.99889064 1.0030278 1.0061706 1.001007 1.0002673 1.0020583
1.0009559 0.9990404 1.0029927 1.0040764 0.9999576 1.0002806 1.0000429 1.0025111
1.0011988 1.0014635 1.0005568 1.0000702 0.9991713 1.000232 0.9975619 1.000396
1.0080467 1.0009053 1.0021552 0.9997285 0.99787045 0.9994197 0.99855375 1.0008693
1.0008168 0.99916846 0.99708444 1.0010628 0.998521 0.994772 1.0039096 0.9993159
1.006111 0.9996259 0.9994937 1.000614 0.99972385 1.0027593 1.0014155 1.0008867
1.0008694 1.0052829 0.9985893 1.0056475 1.0016431 1.0047786 0.99732363 0.9983979
0.999165 1.0028772 1.0115867 1.0066564 1.0009401 1.003568 1.0018908 1.0012083
