get_descriptor_megnet/saved_models/pbe_420/state.pt (torch, 710298 bytes, 105 tensors)

bond_expansion.rbf.centers f4 [100]
0	0x00000000	0.0
1	0x3d4ede62	0.05050505
2	0x3dcede62	0.1010101
3	0x3e1b26ca	0.15151516
4	0x3e4ede62	0.2020202
5	0x3e814afd	0.25252524
6	0x3e9b26ca	0.3030303
7	0x3eb50296	0.35353535
8	0x3ecede62	0.4040404
9	0x3ee8ba2e	0.45454544
10	0x3f014afd	0.5050505
11	0x3f0e38e3	0.5555555
12	0x3f1b26ca	0.6060606
13	0x3f2814b0	0.65656567
14	0x3f350296	0.7070707
15	0x3f41f07c	0.75757575
16	0x3f4ede62	0.8080808
17	0x3f5bcc48	0.85858583
18	0x3f68ba2e	0.9090909
19	0x3f75a814	0.9595959
20	0x3f814afd	1.010101
21	0x3f87c1f0	1.060606
22	0x3f8e38e3	1.111111
23	0x3f94afd6	1.1616161
24	0x3f9b26ca	1.2121212
25	0x3fa19dbd	1.2626263
26	0x3fa814b0	1.3131313
27	0x3fae8ba3	1.3636364
28	0x3fb50296	1.4141414
29	0x3fbb7989	1.4646465
30	0x3fc1f07c	1.5151515
31	0x3fc8676f	1.5656565
32	0x3fcede62	1.6161616
33	0x3fd55555	1.6666666
34	0x3fdbcc48	1.7171717
35	0x3fe2433b	1.7676767
36	0x3fe8ba2e	1.8181818
37	0x3fef3121	1.8686868
38	0x3ff5a814	1.9191918
39	0x3ffc1f07	1.9696969
40	0x40014afd	2.020202
41	0x40048677	2.070707
42	0x4007c1f0	2.121212
43	0x400afd6a	2.1717172
44	0x400e38e3	2.222222
45	0x4011745d	2.2727273
46	0x4014afd6	2.3232322
47	0x4017eb50	2.3737373
48	0x401b26ca	2.4242425
49	0x401e6243	2.4747474
50	0x40219dbd	2.5252526
51	0x4024d936	2.5757575
52	0x402814b0	2.6262627
53	0x402b502a	2.6767678
54	0x402e8ba3	2.7272727
55	0x4031c71d	2.777778
56	0x40350296	2.8282828
57	0x40383e10	2.878788
58	0x403b7989	2.929293
59	0x403eb503	2.979798
60	0x4041f07c	3.030303
61	0x40452bf6	3.0808082
62	0x4048676f	3.131313
63	0x404ba2e9	3.1818182
64	0x404ede62	3.2323232
65	0x405219dc	3.2828283
66	0x40555555	3.3333333
67	0x405890cf	3.3838384
68	0x405bcc49	3.4343436
69	0x405f07c2	3.4848485
70	0x4062433c	3.5353537
71	0x40657eb5	3.5858586
72	0x4068ba2f	3.6363637
73	0x406bf5a8	3.6868687
74	0x406f3122	3.7373738
75	0x40726c9b	3.7878788
76	0x4075a815	3.838384
77	0x4078e38e	3.8888888
78	0x407c1f08	3.939394
79	0x407f5a81	3.989899
80	0x40814afd	4.040404
81	0x4082e8ba	4.090909
82	0x40848677	4.141414
83	0x40862434	4.1919193
84	0x4087c1f1	4.2424245
85	0x40895fad	4.292929
86	0x408afd6a	4.3434343
87	0x408c9b27	4.3939395
88	0x408e38e4	4.4444447
89	0x408fd6a0	4.4949493
90	0x4091745d	4.5454545
91	0x4093121a	4.5959597
92	0x4094afd7	4.646465
93	0x40964d93	4.6969695
94	0x4097eb50	4.7474747
95	0x4099890d	4.79798
96	0x409b26ca	4.848485
97	0x409cc486	4.8989897
98	0x409e6243	4.949495
99	0x40a00000	5.0

embedding.layer_node_embedding.weight f4 [89, 64]
0	0x40058cb3	2.0867126
1	0x3fd51190	1.6645985
2	0x3f4c5f7a	0.79833186
3	0xc0123777	-2.2846353
4	0x3f520484	0.8203814
5	0xbfb38e6c	-1.4027839
6	0xbdc7dae0	-0.09758544
7	0xbfcfcb24	-1.6233869
8	0xbf696bb6	-0.9117998
9	0x3fbd18c6	1.4773185
10	0xbf0de040	-0.55420303
11	0xbf9e1849	-1.2351161
12	0xbf24165c	-0.6409662
13	0xbf2e68d1	-0.6812869
14	0xbf661d40	-0.8988838
15	0x3f701f9e	0.93798244
16	0x3fe93f4b	1.822244
17	0xbea90412	-0.33010918
18	0xbf265851	-0.6497851
19	0x3e8ca2d3	0.27467975
20	0xbf19a975	-0.60024196
21	0x3f93570f	1.1510943
22	0x3f35d792	0.7103206
23	0x3fc66377	1.5499104
24	0x3fb3c3bc	1.4044108
25	0x3f8fea46	1.124337
26	0x3f3f219d	0.74660665
27	0x3fbf823d	1.496162
28	0xbd8177e8	-0.063216984
29	0x3e51c19f	0.20484017
30	0xbd9e251b	-0.07721921
31	0x3f841895	1.0320002
32	0xbfa1f6c6	-1.2653434
33	0xbf83ec43	-1.0306476
34	0xbec95456	-0.39322156
35	0x3ff1cab5	1.8889986
36	0x3e110450	0.14161801
37	0xbf19ce01	-0.6007996
38	0x3e050a11	0.12992121
39	0xbf704d30	-0.9386778
40	0xbfdae3d2	-1.7100775
41	0x3f6aac09	0.91668755
42	0xbf4f0049	-0.8085981
43	0xbf41854f	-0.7559404
44	0xbf91ea2a	-1.1399586
45	0x40012888	2.0180988
46	0xbfa839ca	-1.3142636
47	0xbea8f37f	-0.32998273
48	0xbf849ad3	-1.0359749
49	0xbf08997d	-0.53359205
50	0x3d0b2c8a	0.033978023
51	0x3f30fafe	0.69132984
52	0xbea200f6	-0.31641358
53	0x3f83204a	1.0244229
54	0xbf4cf09b	-0.80054635
55	0xbf117223	-0.56814784
56	0xbfb99b94	-1.4500604
57	0xbe0e2187	-0.13879977
58	0x3ddc73ce	0.107642755
59	0x3f01f338	0.5076175
60	0xbe7327ad	-0.23745604
61	0x400181b6	2.023542
62	0xbf8e20f7	-1.110381
63	0x3fa7245d	1.3057972
64	0x3fba2812	1.4543478
65	0x3f5cd268	0.86258554
66	0x4011ffc8	2.2812366
67	0x3ef2ef97	0.47448418
68	0x3ea58666	0.323291
69	0xbe5060fa	-0.20349494
70	0xbf732207	-0.94973797
71	0x3fa864f3	1.3155807
72	0xbe691247	-0.22760879
73	0x3f04969b	0.51792306
74	0xbc38db07	-0.011282689
75	0x3eeb2ba5	0.45931736
76	0x3ee491af	0.44642398
77	0xbf240a82	-0.64078534
78	0xc011dbf0	-2.279049
79	0xbf382afc	-0.7194059
80	0x3da5f8da	0.08104105
81	0xbec36599	-0.3816345
82	0xbfb034a5	-1.3766066
83	0xbf264826	-0.6495384
84	0x3f0184b0	0.5059309
85	0x3f02a3da	0.5103127
86	0x3f854217	1.0410794
87	0x3d735856	0.059410416
88	0x3f3b82f8	0.7324672
89	0xbedf30b4	-0.43591845
90	0xbf899038	-1.0747137
91	0x3f2fa5d2	0.68612397
92	0xbfda41d9	-1.7051345
93	0xbf4fe1b9	-0.812038
94	0x3fabc27a	1.3418725
95	0x3f08d1e6	0.5344528
96	0xc0286020	-2.630867
97	0x3ed95ecf	0.42455146
98	0x3f3b1d0e	0.7309121
99	0x3d3ff5b5	0.046865184
100	0x3f30fb8b	0.69133824
101	0x3f053d30	0.5204649
102	0x3f858176	1.0430133
103	0xbee34852	-0.44391114
104	0xbe86f395	-0.26357713
105	0x3f65ba12	0.89737046
106	0x3eb7cf7a	0.3590048
107	0x3d8c7d7b	0.06859871
108	0x3e0b188d	0.13583584
109	0x3fb44da6	1.4086196
110	0x3a8a78d6	0.0010564576
111	0xbea1e38d	-0.3161892
112	0xbfb946e6	-1.4474761
113	0xbe229e36	-0.15880665
114	0xbf04c004	-0.5185549
115	0x3f0f5322	0.55986226
116	0x3f4233f2	0.7586051
117	0x3c834e4b	0.016028544
118	0xbf090e74	-0.5353768
119	0x3f164568	0.58699656
120	0xbdfbb355	-0.12290064
121	0x3e519c2b	0.2046973
122	0x3e674903	0.22586446
123	0x3f46a7b7	0.7759966
124	0x3f7cf4d9	0.9881111
125	0x3ecf41d0	0.40479898
126	0x3f180cdd	0.5939463
127	0x3f01faf4	0.5077355
128	0x4009666a	2.1468759
129	0x3f9caaa4	1.2239575
130	0xbfc99a32	-1.5750182
131	0xbfad65a3	-1.3546642
132	0x3d033ebd	0.032042254
133	0x3fb947c3	1.4475025
134	0x3f3722ab	0.71537274
135	0x3f30dba1	0.6908513
136	0x3f6f7a45	0.93545943
137	0xbe229c30	-0.15879893
138	0xc000701f	-2.0068433
139	0x3f8a785d	1.0817982
140	0xbe835a2b	-0.2565473
141	0x3f5db46c	0.86603427
142	0xbf5f888d	-0.87317735
143	0x3f5b983d	0.8577917
144	0xbf3fc771	-0.749137
145	0x3f400e54	0.75021863
146	0x3fb6e23d	1.4287792
147	0x3fa44745	1.283425
148	0x3ef04e3e	0.46934694
149	0xbd843f40	-0.064573765
150	0xbf530fe5	-0.8244613
151	0xbc8154ab	-0.015787443
152	0x3f121fd5	0.5707982
153	0x3f478a1d	0.7794512
154	0xbe8a70d1	-0.27039197
155	0x3fea20b4	1.829123
156	0xc010cea7	-2.262613
157	0xbe5c8a40	-0.21537113
158	0xbf819e57	-1.0126446
159	0x3f840320	1.0313454
160	0xbfe471be	-1.7847211
161	0x3c4b0273	0.012390721
162	0xbe468ae7	-0.19388925
163	0xbe01e214	-0.12683898
164	0x3e65b1d5	0.22431119
165	0xbf732cc5	-0.9499019
166	0xbd122116	-0.035676084
167	0xbfa528b2	-1.2903044
168	0xbfe71560	-1.8053398
169	0x3fa47ff5	1.2851549
170	0x3f9c5932	1.221472
171	0xbd57a46e	-0.052647047
172	0xbfbf6b2f	-1.4954585
173	0x3f533d76	0.82515657
174	0x3f1e396c	0.6180637
175	0x400f1f42	2.2362828
176	0xbe0c9f2e	-0.13732597
177	0x3e8568b5	0.26056448
178	0xbf7c0aa4	-0.98453736
179	0x3c2fc870	0.01072894
180	0xbf37ce1e	-0.71798885
181	0xbfe827d7	-1.8137158
182	0xbf8da0b5	-1.1064669
183	0xbe9d51fd	-0.30726615
184	0xbf2d3099	-0.6765228
185	0xbfdb8641	-1.7150346
186	0xbfd92728	-1.6965075
187	0xbd856417	-0.06513231
188	0x3f7ef183	0.9958727
189	0xbeac5792	-0.3366056
190	0x3f46d8e4	0.776747
191	0x3f48a474	0.78375936
192	0x3fea2fe0	1.829586
193	0xbf61fa8a	-0.8827292
194	0x3f80c6a1	1.0060617
195	0xbede9cd2	-0.4347902
196	0xbf946242	-1.1592486
197	0x3e8f3a52	0.27974182
198	0x3f21e105	0.6323398
199	0x3fb58fd3	1.4184517
200	0x3ede3869	0.43402413
201	0x40073daf	2.1131399
202	0xbf20a06b	-0.6274478
203	0xbf6016fd	-0.8753508
204	0x3d81d3fd	0.06339262
205	0x3f80cede	1.0063131
206	0x3f98e13f	1.194374
207	0x3f062b0c	0.52409434
208	0xbf36958e	-0.7132195
209	0xbf8c4f5b	-1.0961717
210	0xbf139611	-0.5765086
211	0xbf3086f6	-0.68955934
212	0x3e45c225	0.19312342
213	0x3ef2eac3	0.47444734
214	0xbe958e00	-0.292099
215	0xc0160f1e	-2.3446727
216	0xbeb555d9	-0.3541706
217	0x3f887bdc	1.0662799
218	0xbfdf7fda	-1.7460892
219	0x3fce6ef8	1.6127615
220	0x3ebe97b2	0.3722511
221	0xbee5ad41	-0.44858745
222	0x3f8fc7e0	1.1232872
223	0x3fe35944	1.7761617
224	0xbe09e696	-0.13466868
225	0x3fc92269	1.5713626
226	0x3d64fa1b	0.05590258
227	0xbf7c4d02	-0.98555005
228	0xbef5f091	-0.480351
229	0xbce091d3	-0.027413284
230	0x3eac9d56	0.33713788
231	0x3ff93d6c	1.947187
232	0xbe457e15	-0.19286378
233	0xbf3dfc6e	-0.742133
234	0xc0083c2b	-2.1286724
235	0xbf9ba2b4	-1.2159028
236	0xbe0cc349	-0.1374637
237	0x3e7b904e	0.24566767
238	0x3e1c9a19	0.15293159
239	0x3ee8d84e	0.45477527
240	0xbf790cea	-0.9728533
241	0x3e5949ab	0.21219508
242	0xbefb62f0	-0.4909892
243	0x3f0e6bfb	0.55633515
244	0xbf4aca6d	-0.7921513
245	0xbdf68bc9	-0.12038381
246	0xbf08b329	-0.53398377
247	0x3fc82fe9	1.5639621
248	0x3f94f7e8	1.1638155
249	0xbf49f5e7	-0.7889084
250	0x3f788b1c	0.97087264
251	0x3ef68f24	0.48156083
252	0x3ec7ef80	0.39049911
253	0x3f275fa8	0.65380335
254	0x3eaa79fe	0.33296198
255	0x3ec61494	0.38687575

edge_encoder.layers.0.weight f4 [64, 100]
0	0x3dc3a509	0.09552962
1	0x3e459248	0.19294083
2	0x3e2cbd6b	0.16869132
3	0x3daf0ced	0.08547387
4	0x3cbc9598	0.02302055
5	0x3e38fc7d	0.18065067
6	0x3dd80360	0.10547519
7	0x3e40a97c	0.18814653
8	0xb9a746b7	-0.0003190541
9	0x3ddb590c	0.10710344
10	0xbb5dddda	-0.0033854158
11	0x3d88dadd	0.0668237
12	0xbc4ded81	-0.012568832
13	0xbca2d6bd	-0.019877786
14	0x3d93dc20	0.0721972
15	0x3e259b13	0.16172437
16	0x3d88bf88	0.06677157
17	0x3d3bb11e	0.04582321
18	0x3e13c484	0.14430434
19	0x3d668d71	0.056287233
20	0xbc4e7a08	-0.012602337
21	0x3dd2f001	0.10299683
22	0x3ddb2f85	0.10702423
23	0x3df32e4e	0.11874066
24	0x3ddb6f1b	0.10714551
25	0x3df1c5ea	0.11805327
26	0xbc7a2dce	-0.01526971
27	0x3d0762f0	0.03305334
28	0xbcaa9144	-0.020821221
29	0xba04940e	-0.0005057462
30	0x3db691ff	0.08914565
31	0xbd92717b	-0.07150551
32	0x3d749d0d	0.059720088
33	0xbd6143ef	-0.054996427
34	0x3a9a7565	0.0011784254
35	0xbc59bf78	-0.013290279
36	0xbd45dc99	-0.04830608
37	0x3b667d4e	0.0035169902
38	0xbd6aa368	-0.057284743
39	0x3da8dd10	0.08245289
40	0xbd3b28a9	-0.045693073
41	0x3d5740f1	0.052552167
42	0xbd1236d5	-0.035696823
43	0xbdbba907	-0.09163099
44	0x3d82b40e	0.06381999
45	0xbd2cf18e	-0.042222552
46	0xbd686115	-0.05673321
47	0xbc09a9b4	-0.008402277
48	0xbc8e9e67	-0.017409516
49	0x3c3b5a9a	0.011435175
50	0xbd2954d8	-0.04134068
51	0xbd3cf23a	-0.046129443
52	0x3d18e707	0.0373297
53	0x3ce8f246	0.028435837
54	0x3d918a57	0.07106464
55	0xbbc8cad0	-0.0061276928
56	0xbd2fa178	-0.042878598
57	0xbd1b3aa8	-0.037897736
58	0xbd15c8a9	-0.036568318
59	0xbd41ce8c	-0.04731612
60	0xbd49eaa3	-0.049296033
61	0xbd2f0968	-0.04273358
62	0x3c85430a	0.016267318
63	0x3cd83d70	0.026396483
64	0x3d8278bd	0.06370685
65	0xbddf0f0c	-0.10891542
66	0x3d88c341	0.06677867
67	0xbcf6395d	-0.03005665
68	0xbddaa190	-0.10675347
69	0x3d6a6293	0.057222914
70	0xbd82fe83	-0.063962005
71	0xbd52bbca	-0.05144862
72	0x3ce2b090	0.027672082
73	0x3c3ff468	0.011715986
74	0x3d83c126	0.064333245
75	0xbd951bb6	-0.07280676
76	0x3d554432	0.05206699
77	0x3d4f41b6	0.050599776
78	0x3d7a283f	0.061073538
79	0xbd0904b8	-0.033451766
80	0x3c8ec792	0.017429147
81	0x3cf96e9e	0.030448254
82	0x3dc43e78	0.095822275
83	0xbd70ae22	-0.058759816
84	0xbdb710b5	-0.089387335
85	0xbdb3790a	-0.08763321
86	0x3c8628cf	0.01637688
87	0xbd94aaeb	-0.072591625
88	0xbc73ad90	-0.0148729235
89	0xbd2fd33d	-0.042926062
90	0x3cb4ce7c	0.022071116
91	0xbd88d628	-0.06681472
92	0x3d86ae74	0.06576243
93	0xbdc0cb41	-0.094137676
94	0xbd4fbe02	-0.050718315
95	0x3cc9c898	0.024631783
96	0xbdc178aa	-0.09446843
97	0x3ce8a3be	0.02839839
98	0xbd0a9414	-0.033832625
99	0xbd4107e3	-0.047126662
100	0x3d96309a	0.07333489
101	0xbd00b7ba	-0.031425215
102	0x3cc1ad69	0.023642259
103	0xbd21fd13	-0.03954799
104	0x3d379ef4	0.044829324
105	0x3db44409	0.08802039
106	0x3dbbf311	0.091772206
107	0xbd8719d3	-0.065967225
108	0xbdd98823	-0.10621669
109	0xbda00f0c	-0.0781537
110	0x3c973133	0.018456077
111	0x3cec7e96	0.028868955
112	0x3d2243d4	0.039615467
113	0x3cec221e	0.028824862
114	0x3da5bf51	0.08093131
115	0xbdc07bec	-0.09398636
116	0xbdc985de	-0.09839986
117	0xbd59eb21	-0.053202752
118	0x3d5c6aff	0.053812977
119	0xbdd1fb9f	-0.10253071
120	0x3d41a31b	0.04727469
121	0xbc556e88	-0.013026841
122	0x3cf79072	0.030220244
123	0x3d861406	0.06546788
124	0x3d7cf747	0.06175926
125	0x3d6f7a41	0.0584662
126	0xbd832206	-0.06402974
127	0xbdac433c	-0.084112614
128	0xba762174	-0.000938914
129	0x3d238987	0.03992608
130	0xbd37a8f7	-0.04483887
131	0xbd95862d	-0.073009826
132	0xbd8a63bd	-0.06757305
133	0xbdb6bd55	-0.08922831
134	0xbbfe1e07	-0.0077550444
135	0xbe215f86	-0.15759096
136	0x3cc86726	0.024463248
137	0xbd8902ee	-0.06690012
138	0xbe017b50	-0.12644696
139	0xbdd4c90e	-0.10389911
140	0xbe06bcb0	-0.13157916
141	0xbe223b45	-0.15842922
142	0xbd7e8d0b	-0.062146228
143	0xbdc289d4	-0.09498945
144	0xbdef2091	-0.116761334
145	0xbdb483fe	-0.08814238
146	0xbdabc9eb	-0.08388122
147	0xbccb68c8	-0.024830237
148	0xbe17fd8b	-0.14842813
149	0xbd8c1f54	-0.06841913
150	0xbd86ed66	-0.06588249
151	0xbe14190c	-0.1446268
152	0x3cfe15db	0.03101628
153	0xbddab0d7	-0.10678261
154	0x3cb2bde8	0.02181907
155	0x3cac7f81	0.021056892
156	0xbd506de1	-0.05088604
157	0x3cbbdd25	0.022932598
158	0xbdff4292	-0.12463869
159	0xbd6e4624	-0.05817236
160	0xbe02726b	-0.1273896
161	0xbdd3d15f	-0.10342669
162	0xbc0bdcf6	-0.008536568
163	0x3d1707b0	0.036872566
164	0xbdc164ed	-0.09443078
165	0xbd953f5e	-0.07287477
166	0xbdafd631	-0.08585776
167	0xbd125fbf	-0.03573584
168	0xbddbc7dd	-0.1073148
169	0xbdcdf103	-0.10055735
170	0xbd24f29c	-0.040270433
171	0x3da4dca0	0.080498934
172	0x3b972e4a	0.0046136724
173	0xbd51e124	-0.0512401
174	0x3d76d14d	0.0602582
175	0x3d8fdff6	0.07025139
176	0x3d8aeec8	0.06783825
177	0x3b63d2f9	0.00347632
178	0xbbabbad3	-0.005240777
179	0x3d96b22e	0.07358204
180	0x3d85f18c	0.06540212
181	0x3db944c4	0.09046319
182	0x3db78bde	0.089622244
183	0xbc00cd3b	-0.007861431
184	0x3ddd63d1	0.10810054
185	0x3d3b9469	0.04579583
186	0x3e03a5f2	0.12856272
187	0x3e065949	0.13119997
188	0x3df2255b	0.11823531
189	0x3dd40011	0.10351575
190	0x3df19e2e	0.117977485
191	0xbba748c9	-0.005105112
192	0x3bae9247	0.005327496
193	0x3cbe55d3	0.023234284
194	0xbb1fefeb	-0.0024404477
195	0x3dfea3f8	0.12433618
196	0x3d7effe8	0.06225577
197	0x3cf200f1	0.029541465
198	0x3c43ba1a	0.011946226
199	0xbcf9b39c	-0.030481152
200	0x3dc17a55	0.09447161
201	0x3e31124e	0.17292139
202	0x3e17f471	0.14839341
203	0x3e234062	0.15942529
204	0x3e156ca0	0.14592218
205	0x3defa77f	0.11701869
206	0x3d8df381	0.0693121
207	0xbb973af6	-0.004615183
208	0x3e0f5714	0.13998061
209	0xbbe1b1d5	-0.0068876543
210	0x39a26fff	0.0003098249
211	0x3dc7a306	0.09747891
212	0x3ddf82b4	0.109136015
213	0xba8214a2	-0.0009924362
214	0x3de39c2d	0.111137725
215	0xbd48797c	-0.04894398
216	0x3d85a758	0.06526059
217	0x3da8b271	0.0823716
218	0x3d5b971b	0.053610902
219	0xbcc7da1b	-0.024395993
220	0xbd1edd80	-0.038785458
221	0x3dd840d8	0.10559243
222	0x3d36f823	0.044670235
223	0xbcbec9bb	-0.023289552
224	0x3de79a83	0.11308768
225	0xbbe34295	-0.0069354274
226	0xbbef7d12	-0.0073086107
227	0x3d0c4894	0.034248903
228	0x3db6a137	0.08917468
229	0xbd28570f	-0.04109865
230	0x3ac56a5b	0.0015061604
231	0xbd3d4d2b	-0.04621617
232	0xbd4813f0	-0.04884714
233	0xbc9e493b	-0.019322028
234	0xbc0066d2	-0.007837014
235	0x3d33f8c5	0.043938417
236	0xbdb09761	-0.08622623
237	0x3d3746c6	0.04474523
238	0x3d8168aa	0.06318791
239	0xbce48001	-0.027893068
240	0xbcdc644d	-0.026903296
241	0x3bafcb30	0.005364798
242	0xbde591e1	-0.11209465
243	0x3d54910c	0.05189614
244	0xbd24bb9e	-0.04021799
245	0xbca0de5b	-0.019637277
246	0x3cbbc267	0.022919847
247	0x3c8689c3	0.016423112
248	0xbd93aeee	-0.072110996
249	0xbdcc6bfb	-0.09981533
250	0xbdfc6e90	-0.123257756
251	0xbde28a8b	-0.11061581
252	0xbd461a4b	-0.04836492
253	0xbdd74545	-0.10511259
254	0xbd1a1be3	-0.03762425
255	0xbda47d90	-0.08031762

edge_encoder.layers.0.bias f4 [64]
0	0x3bf1ae7e	0.0073755374
1	0xbda8bde9	-0.082393475
2	0x3cc929a1	0.024555983
3	0xbc638ab0	-0.013888046
4	0xbc2261e2	-0.009911032
5	0xb9f591d9	-0.00046838706
6	0xbd5a1fdd	-0.053253043
7	0x3da55355	0.08072535
8	0xbd76396f	-0.060113367
9	0xbcc7014f	-0.024292616
10	0x3da31d63	0.079645894
11	0x3b846c16	0.004041205
12	0xbda0f105	-0.07858471
13	0x3ddd909b	0.10818597
14	0xbd9218b6	-0.071336195
15	0xbd4ebc5d	-0.050472606
16	0x3d5a6a53	0.053324055
17	0xbd67b890	-0.056572497
18	0x3c742cdc	0.014903273
19	0x3c8e6b80	0.017385244
20	0x3c886941	0.016651751
21	0xbd76e074	-0.06027265
22	0x3df31e17	0.118709736
23	0x3d5d4e29	0.054029617
24	0xbd182c58	-0.037151664
25	0xbc7cedfa	-0.015437597
26	0xbd12127b	-0.035662156
27	0xbd6e57e4	-0.058189288
28	0x3db16f10	0.086637616
29	0x3d8f9ae6	0.070119664
30	0x3cd07fd5	0.02545158
31	0x3d963902	0.07335092
32	0xbddb0dea	-0.10696013
33	0xbb69b1ae	-0.0035658884
34	0xbd610071	-0.05493206
35	0x3da5b8a9	0.08091862
36	0xbcc528c2	-0.024067286
37	0xbda67e68	-0.08129579
38	0x3b8d9d86	0.004321757
39	0x3d39ec2a	0.04539124
40	0xbd4781d5	-0.0487078
41	0xb98aba1e	-0.0002646008
42	0xbdc24449	-0.094856806
43	0x3dc6f99f	0.0971558
44	0xbdbee2e7	-0.09320622
45	0xbd8d058b	-0.06885823
46	0xbdbbac54	-0.09163728
47	0xbd5e5c86	-0.054287456
48	0xbd5f00e9	-0.054444227
49	0x3d3e1bb4	0.04641314
50	0x3dbb7fa4	0.09155205
51	0x3cdcede2	0.0269689
52	0x3c89e34e	0.01683202
53	0x3dbc33aa	0.09189542
54	0xbdd44a27	-0.10365706
55	0x3c5aff26	0.013366496
56	0x3d3510e1	0.04420555
57	0x3ce14d09	0.027502554
58	0xbbd07caa	-0.0063625174
59	0xbcb3c219	-0.021943139
60	0xbd919ddd	-0.07110188
61	0x3db1e432	0.08686103
62	0xbd5032da	-0.050829746
63	0xbcfd3db6	-0.030913215

edge_encoder.layers.2.weight f4 [32, 64]
0	0x3c587083	0.013210419
1	0xbdbe102a	-0.09280427
2	0xbd9c5ccd	-0.07634888
3	0xbda3ff45	-0.08007673
4	0x3d37e820	0.044899106
5	0xbd8f3f70	-0.069945216
6	0xbdc3b7e9	-0.095565625
7	0xbd5aeb9f	-0.053447362
8	0xbcc0569d	-0.0234788
9	0xbc95c70d	-0.018283391
10	0xbd6ceff5	-0.05784603
11	0x3d408817	0.047004785
12	0xbbd220a5	-0.006412583
13	0xbd9f6eb9	-0.077847905
14	0x3d804208	0.062625945
15	0x3d2cd495	0.04219492
16	0x3cd7de4d	0.026351118
17	0x3e0dc090	0.13842988
18	0xbc43c747	-0.011949367
19	0x3dc1e2ff	0.09467124
20	0xbd756602	-0.059911735
21	0xbd429ce6	-0.04751291
22	0x3d604d9f	0.054761525
23	0xbd807097	-0.06271475
24	0x3da61411	0.08109296
25	0xbdc98d7b	-0.098414384
26	0xbd0ed767	-0.034873392
27	0x3e0ccd54	0.13750201
28	0xbb2c1259	-0.0026256053
29	0x3d8f42e9	0.06995184
30	0x3e0071cb	0.12543409
31	0xbcc0ef70	-0.023551673
32	0xbcb687ab	-0.022281488
33	0xbba9c544	-0.0051809866
34	0xbd840349	-0.06445939
35	0x3c82483f	0.01590359
36	0x3d8895f7	0.066692285
37	0x3dda5ec2	0.10662605
38	0x3dd4555a	0.10367842
39	0x3e0e359d	0.1388764
40	0xbd700f70	-0.058608472
41	0xbd952528	-0.072824776
42	0xbdf8cbdb	-0.12148257
43	0x3dc2b352	0.09506859
44	0x3d9d94bc	0.076943845
45	0xbca28187	-0.019837154
46	0x3de40305	0.111333884
47	0xbd96d08b	-0.07363995
48	0xbc3954bc	-0.011311706
49	0x3c0b2978	0.008493774
50	0x3d8707fc	0.0659332
51	0x3e000212	0.1250079
52	0xbd6bd9f3	-0.0575809
53	0x3e25e017	0.16198765
54	0x3dfa2a47	0.12215095
55	0x3d18c887	0.037300613
56	0xbd9ef1cc	-0.07760963
57	0x3d618a08	0.055063277
58	0x3d66d8a7	0.05635896
59	0xbcd05573	-0.02543137
60	0x3e0b77f5	0.13619979
61	0xbdc1b4af	-0.09458291
62	0xbd3d563b	-0.046224814
63	0xbd0bc56f	-0.034123834
64	0xbc3013fa	-0.01074695
65	0x3db2c637	0.08729213
66	0x3bc2bd03	0.005942942
67	0x3c35de5f	0.011100381
68	0xbd583410	-0.052784026
69	0xbd964147	-0.073366694
70	0x3da0f8af	0.07859933
71	0x3a031417	0.0005000247
72	0x3d925f11	0.07147039
73	0xbdad662f	-0.084667556
74	0xbcff6cff	-0.031179903
75	0x3db5604d	0.088562585
76	0x3debf515	0.11521355
77	0x3d1315f9	0.035909627
78	0xbdbeead0	-0.09322131
79	0xbd177970	-0.036981046
80	0xbd15c882	-0.036568172
81	0x3de11465	0.10990218
82	0xbdc5fded	-0.09667573
83	0xbd7e5761	-0.06209505
84	0xbddd8060	-0.10815501
85	0xbd78fbbb	-0.060786944
86	0x3e1b9f57	0.15197502
87	0xbce0d4a6	-0.027445149
88	0x3d0b4b9e	0.03400766
89	0x3d35bfc4	0.044372335
90	0xbc13a6b5	-0.009011914
91	0x3b63d574	0.003476468
92	0xbb7aed30	-0.0038288347
93	0xbd1e174f	-0.038596448
94	0x3de69e59	0.11260671
95	0x3c2b32b6	0.010449102
96	0x3db32c63	0.087487005
97	0x3d637c0b	0.05553822
98	0x3dad83aa	0.084723786
99	0x3df2f69d	0.11863444
100	0xbd662418	-0.056186765
101	0xbca02bd8	-0.019552156
102	0x3d90bf22	0.07067706
103	0xbae47899	-0.001743096
104	0xbd855a4b	-0.06511363
105	0x3e19a8f4	0.15005857
106	0x3dc75608	0.09733206
107	0xbba61113	-0.0050679534
108	0x3db5a984	0.08870223
109	0x3dbe0fbd	0.092803456
110	0xbd919b1e	-0.071096644
111	0x3bb2603c	0.005443601
112	0xbda6d0b8	-0.08145279
113	0xbd87bd4a	-0.06627901
114	0x3e1d23d4	0.15345699
115	0x3dd9c6fb	0.10633656
116	0xbd708696	-0.0587221
117	0x3d9119b4	0.070849806
118	0xbd74134e	-0.059588723
119	0xbcab6835	-0.020923713
120	0xbc64c44d	-0.013962817
121	0x3dbc1275	0.09183208
122	0x3dbac976	0.09120457
123	0xbd7c2905	-0.061562557
124	0x3db887b8	0.09010261
125	0x3ce8200a	0.02833559
126	0xbd938d50	-0.072046876
127	0xbd78f9ad	-0.060784984
128	0xbc8a0ecb	-0.016852757
129	0x3d0e259b	0.034703832
130	0xbe02be52	-0.12767914
131	0xbd230cc2	-0.03980709
132	0xbde9f5ea	-0.114238575
133	0xbe031179	-0.12799634
134	0x3d64a73f	0.05582356
135	0xbd773485	-0.06035282
136	0xbe0bb1e8	-0.13642085
137	0xbd48a58a	-0.048985995
138	0xbdb34152	-0.08752693
139	0x3d53228c	0.05154662
140	0xbd0f0f7b	-0.034926873
141	0xbdb8d0a0	-0.09024167
142	0xbd83ae3a	-0.064297155
143	0xbd3a002c	-0.04541032
144	0x3daba5a3	0.08381202
145	0xbc193ddf	-0.00935313
146	0xbde1f621	-0.110332735
147	0xbd3e9401	-0.046527866
148	0x3dceb01b	0.10092183
149	0xbdf83419	-0.12119312
150	0xbd93b428	-0.072120965
151	0x3dc36a77	0.09541791
152	0xbd9b0fae	-0.0757135
153	0x3d9e9b17	0.07744425
154	0xbdc6d724	-0.097090036
155	0x3d9a8303	0.0754452
156	0x3d9516a8	0.07279712
157	0xbd18239d	-0.03714334
158	0xbe063713	-0.13106947
159	0xbd6c4022	-0.05767835
160	0x3c6f398c	0.014601123
161	0xbd76bdb9	-0.060239527
162	0xbddf598f	-0.10905754
163	0xbe09f924	-0.13473946
164	0x3d406785	0.046973724
165	0x3da3fbc7	0.08007007
166	0xbd8b657e	-0.068064675
167	0xbc6d648a	-0.014489302
168	0xbdb89667	-0.09013062
169	0x3d505830	0.050865352
170	0xbdc0fa71	-0.09422768
171	0xbdc8c1f1	-0.098026164
172	0xbd9f1c93	-0.07769122
173	0xbd12e42c	-0.035862133
174	0x3b25801e	0.0025253366
175	0xbe099972	-0.13437441
176	0xbd7222db	-0.059115272
177	0xbd9dab05	-0.07698635
178	0xbd3a16f9	-0.045432065
179	0xbd1090d6	-0.035294376
180	0xbc1df094	-0.009639878
181	0x3cfacd0f	0.030615358
182	0xbda8f63e	-0.08250092
183	0xbbf1f2eb	-0.0073836944
184	0x3dd15273	0.10220804
185	0xbbe79ef5	-0.0070685097
186	0xbdfe3aaf	-0.12413537
187	0x3d8b5558	0.068033874
188	0xbe0336e3	-0.12813906
189	0x3d1b89c6	0.037973188
190	0x3dc28ce3	0.09499528
191	0x3995cc7c	0.00028571847
192	0x3d438fb2	0.04774446
193	0x3dae1e8a	0.085019186
194	0x3d333959	0.043755863
195	0xbd5bd37b	-0.05366848
196	0xbb85a064	-0.004077958
197	0x3db08994	0.08619991
198	0x3c7d00d3	0.015442091
199	0xbdfad31b	-0.122472964
200	0x3db6a451	0.089180596
201	0x3dd45892	0.10368456
202	0x3d50989f	0.0509268
203	0x3d3b0eb7	0.04566833
204	0x3d4e77c0	0.05040717
205	0xbdbf575c	-0.09342834
206	0xbd686bc0	-0.056743383
207	0x3ce3244d	0.02772727
208	0x3c89ec45	0.016836295
209	0x3cae832f	0.021302788
210	0xbca92bdf	-0.020650802
211	0xbe0e2d82	-0.13884547
212	0x3d2a6627	0.041601326
213	0xbdcb22a3	-0.09918716
214	0xbe0bb53a	-0.13643351
215	0x3dd5efc0	0.10446119
216	0x3ccdcd08	0.02512218
217	0x3d1f7ddf	0.0389384
218	0xbd95c4fe	-0.07312964
219	0x3cbaf100	0.022819996
220	0xbb6d995f	-0.0036254746
221	0x3d880014	0.0664064
222	0xbbf3e5d3	-0.0074431687
223	0x3dbffa46	0.09373908
224	0xbd59fd01	-0.0532198
225	0x3db03d7a	0.08605476
226	0x3de4323c	0.11142394
227	0xbc7d9cc1	-0.015479268
228	0xbdddebf7	-0.10836022
229	0xbc5620e8	-0.013069369
230	0x3d992e37	0.07479518
231	0xbde5cfc1	-0.112212665
232	0xbd83f3d0	-0.06442988
233	0x3c9b0131	0.018921467
234	0x3c17cfe7	0.009265876
235	0x3db65263	0.08902433
236	0xbc24d7e5	-0.010061239
237	0xbc883778	-0.016628012
238	0xb988a95b	-0.0002606612
239	0xbd3a4774	-0.0454783
240	0xbe08a095	-0.13342507
241	0xbd8d5b4b	-0.069021784
242	0xbe105ae3	-0.1409717
243	0x3d653518	0.055958837
244	0xbc3f607a	-0.011680717
245	0xbcdba61e	-0.02681261
246	0xbcbab5c5	-0.022791753
247	0xbda0902e	-0.0784
248	0xbdd508e9	-0.1040209
249	0xbd4aa351	-0.049472157
250	0x3b41a4db	0.0029547724
251	0xbdb65d59	-0.089045234
252	0xbdc85046	-0.09780936
253	0x3d87d913	0.066332005
254	0xbd6e5012	-0.05818183
255	0x3d5760e7	0.052582648

edge_encoder.layers.2.bias f4 [32]
0	0x3e0b1d55	0.13585408
1	0xbd9a3317	-0.07529276
2	0xbdd5102d	-0.10403476
3	0xbd1f7da8	-0.038938195
4	0xbd98d966	-0.074633405
5	0xbe0e7bd5	-0.13914426
6	0x3d052776	0.032508336
7	0xbd96eb70	-0.07369125
8	0x3cd4280d	0.025898004
9	0xbdb44240	-0.08801699
10	0xbc76449f	-0.015031009
11	0xbd4bce59	-0.049757335
12	0xbd0d2781	-0.034461502
13	0xbd7bfb3b	-0.06151889
14	0xbde1f82b	-0.110336624
15	0x3dce4e47	0.10073524
16	0xbcb3d1b0	-0.021950573
17	0xbdc6259f	-0.096751444
18	0x3deb1886	0.11479287
19	0x3d317eaa	0.043333687
20	0xbd0eda5b	-0.03487621
21	0x3c87a205	0.01655675
22	0x3bd6a994	0.006550977
23	0x3c860740	0.016360879
24	0x3dbdbfe9	0.092651196
25	0x3d39d7e5	0.04537191
26	0x3dcce97a	0.100054696
27	0x3d85f161	0.0654018
28	0xbd8023a8	-0.06256801
29	0xbc03d154	-0.008045513
30	0xbb289b3d	-0.0025727295
31	0x3e10a1e1	0.14124252

node_encoder.layers.0.weight f4 [64, 64]
0	0x3d603393	0.054736685
1	0x3e4f4798	0.20242155
2	0xbd13c4fc	-0.03607653
3	0xbd3dfd2b	-0.046384018
4	0x3dda6c1d	0.10665152
5	0xbd1612eb	-0.036639135
6	0xbdc1c742	-0.094618335
7	0x3c98de25	0.018660614
8	0x3d70c9ec	0.058786318
9	0xbe055958	-0.13022363
10	0xbdf78996	-0.12086789
11	0xbda1c0b7	-0.078980856
12	0xbda94c2b	-0.08266481
13	0x3cb49518	0.02204375
14	0xbe1c1462	-0.1524215
15	0x3dd5ea57	0.104450874
16	0x3d3722a0	0.044710755
17	0xbe0d7e4c	-0.1381771
18	0x3d397700	0.045279503
19	0xbd399b9c	-0.045314416
20	0x3c88f86d	0.016720021
21	0x3d6cb892	0.057793207
22	0x3e0863c3	0.13319306
23	0x3e1bd954	0.15219623
24	0x3e2dcd6c	0.16972893
25	0x3d81354d	0.063089944
26	0x3dd28a8a	0.102803305
27	0x3dc1644c	0.09442958
28	0x3dec5208	0.11539084
29	0xbcd1b502	-0.025599007
30	0x3c89178c	0.01673486
31	0x3e3e7b04	0.18601614
32	0x3dea62bd	0.11444614
33	0xbd9cc63f	-0.07655
34	0xbe0527fb	-0.13003533
35	0x3e416b0c	0.18888491
36	0xbd1ea762	-0.038733847
37	0xbdb565db	-0.08857318
38	0xbe1bde87	-0.15221606
39	0xbe091655	-0.13387425
40	0xbe1bce44	-0.15215403
41	0x3da848e5	0.082170285
42	0x3e458a59	0.19291057
43	0x3dc724c2	0.09723808
44	0xbc907e79	-0.017638432
45	0xbd5bfb8c	-0.05370669
46	0xbc9b22e3	-0.018937534
47	0x3e223737	0.15841375
48	0x3d84fca3	0.06493499
49	0x3dc803d1	0.09766353
50	0xbdfd286f	-0.12361228
51	0x3c661f83	0.014045599
52	0x3e3cc9cf	0.18436359
53	0xbe0c4342	-0.13697532
54	0xbd71f6f0	-0.05907339
55	0x3d872eb1	0.066007026
56	0xbd15ad5e	-0.03654229
57	0xbcb3440b	-0.021883031
58	0x3d834e1c	0.064113826
59	0xbdafe9c5	-0.0858951
60	0xbe8cdd8d	-0.2751278
61	0x3e339fcd	0.17541428
62	0x3d3778cb	0.04479293
63	0xbd1ab765	-0.037772555
64	0x3db0bb54	0.0862948
65	0x3dd26874	0.10273829
66	0x3e66aa61	0.22525932
67	0xbe64ff23	-0.22362952
68	0xbd9398d0	-0.07206881
69	0xbd8ef693	-0.06980624
70	0x3d843213	0.064548634
71	0xbc03cfaa	-0.008045116
72	0x3cbf86eb	0.023379764
73	0x3d174efd	0.036940563
74	0xbe3aa343	-0.18226342
75	0xbdfb7016	-0.12277238
76	0xbcc436a0	-0.023951828
77	0x3c9443bc	0.018098705
78	0xbc884534	-0.016634561
79	0x3dfd28f4	0.12361327
80	0x3e556130	0.20837855
81	0x3d5c5848	0.05379513
82	0xbe214e93	-0.1575263
83	0xbe170dec	-0.14751405
84	0xbd89f0fc	-0.06735417
85	0x3e36577d	0.17806812
86	0xbd8d4da6	-0.06899576
87	0x3c018ed0	0.007907584
88	0xbd0ffe26	-0.035154484
89	0xbca99c98	-0.020704553
90	0xbc5907a3	-0.01324645
91	0x3e36dabc	0.17856878
92	0xbd8c1d54	-0.068415314
93	0x3e023eb8	0.12719238
94	0x3d10695f	0.03525674
95	0x3db6cfa2	0.089263216
96	0xbe430172	-0.1904352
97	0xbd187712	-0.03722293
98	0x3c4900c6	0.012268251
99	0x3dc4d111	0.09610189
100	0x3daa6717	0.08320444
101	0xbdd747f1	-0.105117686
102	0xbdbf3ee0	-0.09338164
103	0xbc721deb	-0.014777641
104	0x3c859ec7	0.016311062
105	0x3e16d016	0.14727816
106	0x3db9c095	0.09069935
107	0xbd76eeca	-0.06028632
108	0x3d0e1e37	0.034696784
109	0x3e2daabb	0.1695966
110	0xbc16b3fc	-0.009198185
111	0x3c5f3b3b	0.0136249615
112	0x3b87126b	0.0041220686
113	0xbdf588a1	-0.119889505
114	0xbdc026a0	-0.09382367
115	0x3e105eb4	0.14098626
116	0x3e1feb1b	0.1561703
117	0x3d808bdf	0.06276678
118	0xbdac6cb3	-0.0841917
119	0x3c30f19e	0.0107997935
120	0x3ba54e75	0.005044753
121	0xbdfd1776	-0.123579904
122	0x3e5521ad	0.20813628
123	0x3bbbbb3e	0.005729108
124	0xbd92e816	-0.07173173
125	0x3dee16d3	0.11625447
126	0xbd054e4b	-0.03254537
127	0x3d354fdc	0.044265613
128	0xbe576984	-0.21036345
129	0xbdeb4818	-0.1148836
130	0xbce545be	-0.027987357
131	0x3e0a95ed	0.13533755
132	0xbce7aa1c	-0.028279357
133	0x3d1347ae	0.03595703
134	0xbdeb6a56	-0.11494891
135	0xbdba7137	-0.09103625
136	0x3cec92bf	0.028878568
137	0xbdedb243	-0.11606266
138	0x3e455f65	0.19274671
139	0xbbbbabb2	-0.005727255
140	0xbbef7165	-0.007307219
141	0x3e748d32	0.23881987
142	0x3d2be128	0.041962773
143	0xbd7faccf	-0.062420662
144	0xbe0fa00f	-0.14025901
145	0x3dd6be2f	0.104854934
146	0xbda15e8b	-0.07879361
147	0x3b750040	0.0037384182
148	0xbdf044e7	-0.11731892
149	0xbcc67502	-0.024225716
150	0x3d084484	0.033268467
151	0xbb98fba0	-0.004668668
152	0xbcd33684	-0.025782831
153	0x3bd63775	0.0065373727
154	0xbe6ef7b5	-0.2333668
155	0xbe4f1ace	-0.20225069
156	0xbe0bae4c	-0.13640708
157	0x3c63edb5	0.013911654
158	0xbdee5a4a	-0.11638315
159	0x3d24dfba	0.040252425
160	0xbc50bdfb	-0.012740607
161	0x3e2e07b5	0.16995127
162	0x3e13370d	0.14376469
163	0x3d1b3f4d	0.037902165
164	0x3bed8440	0.0072484314
165	0x3ce2c1b4	0.027680255
166	0x3e692576	0.22768196
167	0xbc882533	-0.0166193
168	0xbe26c521	-0.16286136
169	0xbda6f9be	-0.08153103
170	0x3e0832f2	0.13300684
171	0xbdc41271	-0.0957383
172	0x3c7abd66	0.015303945
173	0xbd4e06f7	-0.05029961
174	0x3d273a8c	0.04082732
175	0x3d14ed7b	0.03635929
176	0xbe02bbbb	-0.12766926
177	0x3d490b95	0.04908331
178	0x3da9acca	0.0828491
179	0xbdb76aa1	-0.08955885
180	0x3cb2f499	0.021845149
181	0xbdc2ce75	-0.09512035
182	0x3cca89b3	0.024723863
183	0xbe517942	-0.20456412
184	0x3d1968da	0.03745351
185	0xbb94efa0	-0.004545167
186	0xbe550c8d	-0.20805569
187	0x3a60ab8b	0.0008570484
188	0x3e815fc3	0.25268373
189	0xbe40ab54	-0.18815356
190	0x3ceb5995	0.02872924
191	0xbc7dfab7	-0.01550167
192	0xbdc6c268	-0.09705049
193	0x3d45b7af	0.048270877
194	0x3db8fe83	0.09032919
195	0x3e44ed83	0.19231229
196	0xbe173ea2	-0.14769986
197	0x3e7919d7	0.24326263
198	0xbd464a93	-0.048410963
199	0xbdd1b2b8	-0.10239166
200	0xbdd25537	-0.1027016
201	0xbe002516	-0.12514147
202	0x3e19d6dc	0.15023369
203	0xbda6a4ab	-0.08136877
204	0x3dc78408	0.0974198
205	0x3dc8d3ac	0.09805998
206	0xbc2d422f	-0.010574861
207	0xbdc61aea	-0.09673102
208	0xbe2f2844	-0.17105204
209	0xbd260c48	-0.040539056
210	0x3e05a186	0.13049898
211	0x3dee1585	0.11625198
212	0x3d5d7f02	0.054076202
213	0x3d660b85	0.05616333
214	0x3c8d2eae	0.017234173
215	0x3cbcfdb5	0.023070196
216	0xbd120074	-0.035644963
217	0x3e0cdd26	0.13756236
218	0xbe1b9245	-0.15192516
219	0xbd9d0ac6	-0.076680705
220	0xbe6692e6	-0.22516975
221	0xbd9acefe	-0.07559012
222	0xbe33cb43	-0.17558007
223	0x3ca46ea8	0.020072296
224	0x3d8d7d44	0.06908658
225	0x3e4b867d	0.19875522
226	0x3d8ee842	0.069778934
227	0xbe202738	-0.15639961
228	0xba1d9325	-0.0006011001
229	0x3d57aa87	0.052652862
230	0x3db3f414	0.087867886
231	0x3df8da20	0.12150979
232	0x3e0445a8	0.12917197
233	0xbe0ad793	-0.13558798
234	0xbd471f94	-0.0486141
235	0xbdd34eeb	-0.10317787
236	0xbd1d6e74	-0.038435414
237	0x3e60c56f	0.21950315
238	0x3bcd8d89	0.006272976
239	0x3d7672cc	0.060168073
240	0x3df8b697	0.12144201
241	0x3d7b37db	0.061332565
242	0x3daad20a	0.08340843
243	0xbcb9278d	-0.022601867
244	0xbd3fca68	-0.04682389
245	0x3e0285d2	0.12746361
246	0xbdcb72a0	-0.09933972
247	0xbe8a3265	-0.26991573
248	0x3d5d960a	0.054098167
249	0x3c50a1d2	0.0127338935
250	0xbe8c7bdf	-0.27438256
251	0x3bc449e9	0.005990256
252	0x3db2c4c7	0.087289385
253	0x3d9668e2	0.073442236
254	0x3d99b734	0.07505646
255	0xbe4385cf	-0.19094013

node_encoder.layers.0.bias f4 [64]
0	0x3c88ee49	0.016715186
1	0x3e12c5aa	0.14333215
2	0xbdca0ec8	-0.098661005
3	0xbdad5bd7	-0.08464783
4	0x3cbd08a9	0.023075419
5	0xbd869cb3	-0.06572857
6	0x3e5a8a53	0.21341829
7	0x3dd7c662	0.105358854
8	0xbc7f9525	-0.015599524
9	0xbcaa6174	-0.020798422
10	0x3d47f92a	0.048821606
11	0xbd7d45da	-0.061834194
12	0xbd5f32a4	-0.054491654
13	0x3e3a4f4e	0.18194315
14	0xbd8982d2	-0.06714405
15	0x3dda3b1b	0.10655805
16	0xbc240c05	-0.010012631
17	0xbce68cc8	-0.028143302
18	0x3cb789f0	0.02240464
19	0x3c996bb5	0.018728117
20	0xbcbab13f	-0.022789596
21	0xbbbce370	-0.0057644174
22	0xbc8e51b8	-0.01737295
23	0x3a85a6a1	0.0010196754
24	0x3e45109c	0.19244617
25	0xbdb6da80	-0.08928394
26	0x3cea1d8f	0.028578548
27	0x3dc5d81a	0.09660359
28	0xbd8f95cc	-0.07010993
29	0xbc1d3034	-0.009594012
30	0xbcb8b4b9	-0.022547113
31	0xbdaaef45	-0.08346418
32	0x3e096790	0.13418412
33	0x3dd66ecd	0.10470352
34	0x3db496f9	0.08817858
35	0x3df3bc60	0.11901164
36	0x3d02c701	0.031928066
37	0xbd400c66	-0.046886824
38	0xbd35d51f	-0.0443927
39	0x3da95bb9	0.08269448
40	0xbcb66bb0	-0.022268146
41	0x3e2bd2bf	0.16779612
42	0x3d42336c	0.04741232
43	0x3e2bc96f	0.1677606
44	0xbca694e0	-0.020334661
45	0xbd4b69dd	-0.049661506
46	0xbda0a879	-0.078446336
47	0x3e4a8d68	0.19780505
48	0xbce4af4c	-0.02791562
49	0x3e17434b	0.14771764
50	0x3cbc64e1	0.022997322
51	0xbd14e602	-0.036352165
52	0x3d0a517d	0.03376912
53	0x3de47f05	0.111570396
54	0x3e1356be	0.14388558
55	0xbd642f7d	-0.05570935
56	0xbd40932f	-0.047015365
57	0x3db0500b	0.08609017
58	0x3daab941	0.08336116
59	0xbd78cd58	-0.060742706
60	0x3dd636b3	0.10459652
61	0x3d430946	0.047616266
62	0xbd67af18	-0.056563467
63	0x3e0de329	0.13856186

node_encoder.layers.2.weight f4 [32, 64]
0	0xbdf3c362	-0.11902501
1	0x3a14e221	0.0005679448
2	0x3da079d0	0.07835734
3	0x3d313114	0.043259695
4	0x3d9389f6	0.07204048
5	0xbd87fe1d	-0.06640265
6	0x3d8c98a8	0.06865054
7	0x3cbe6174	0.023239829
8	0x3d61124e	0.054949097
9	0x3c4b36cf	0.012403204
10	0x3ddd223d	0.10797546
11	0x3ce9b5ca	0.028529067
12	0x3d3b7f37	0.04577562
13	0xbd6a57db	-0.05721269
14	0x3e3d1da9	0.18468346
15	0x3d393d24	0.045224324
16	0x3df7716b	0.1208218
17	0xbe075279	-0.13215055
18	0xbdd9e911	-0.10640157
19	0x3e400244	0.18750864
20	0x3e2cf85b	0.16891615
21	0xbe18db7a	-0.14927474
22	0xbd8d9045	-0.06912283
23	0x3d4b4495	0.04962595
24	0xbd1ebc3f	-0.038753744
25	0x3e574514	0.21022445
26	0xbd222614	-0.039587095
27	0x3dd2ceee	0.10293375
28	0xbdc92892	-0.09822191
29	0x3e0cd69e	0.13753745
30	0xbd7a09fc	-0.061044678
31	0xbbc8d5aa	-0.0061289864
32	0xbd89a9ec	-0.06721863
33	0xbcfc2555	-0.03077952
34	0xbe012ee1	-0.12615539
35	0xbd9493aa	-0.07254727
36	0x3e20882e	0.15676948
37	0xbdaea2ad	-0.08527122
38	0x3bda5c79	0.0066638556
39	0xbd05ff76	-0.03271433
40	0x3d8133ed	0.06308732
41	0x3d530910	0.051522315
42	0x3e3f562c	0.18685216
43	0xbc9fa8da	-0.019489694
44	0xbae71f48	-0.0017633224
45	0x3d831360	0.0640018
46	0x3b3e5f41	0.0029048475
47	0x3e167056	0.1469129
48	0xbdabd4b5	-0.0839018
49	0x3c98aec6	0.018638026
50	0xbd36a864	-0.044594184
51	0xbd9a5aa2	-0.07536818
52	0xbdc19229	-0.09451706
53	0xbd5dd040	-0.05415368
54	0x3daf760c	0.085674375
55	0x3cfd4cce	0.030920412
56	0xbdb609ec	-0.08888611
57	0x3bb03e2f	0.0053785066
58	0x3db8d6fd	0.09025381
59	0x3e2a617f	0.16638754
60	0x3e536566	0.20644149
61	0x3c18d4fc	0.009328123
62	0xbd194f2a	-0.037429012
63	0x3dbbb415	0.09165207
64	0x3c9f33af	0.019433824
65	0xbd5cac63	-0.05387534
66	0xbd838770	-0.06422317
67	0xbd850ce7	-0.064966016
68	0xbdb8ca38	-0.09022945
69	0xbd95ae59	-0.07308645
70	0x3e0130cd	0.12616272
71	0xbcb40784	-0.02197624
72	0x3dbdc22f	0.09265553
73	0xbe0eb64f	-0.13936733
74	0x3d127064	0.035751715
75	0x3d50419b	0.050843816
76	0xbdfb24dc	-0.1226289
77	0xbc336de0	-0.010951489
78	0x3c89ff8e	0.01684549
79	0xbdd8296a	-0.10554774
80	0x3d934beb	0.071922146
81	0x3d5be08f	0.053680953
82	0xbdd7c54f	-0.105356805
83	0xbce6b4e2	-0.028162424
84	0x3dba15ff	0.09086227
85	0xbc649e18	-0.013953708
86	0xbd9909ca	-0.0747257
87	0x3d281d09	0.041043315
88	0xbdc2f7d0	-0.09519923
89	0x3d484f18	0.048903555
90	0xbd75926b	-0.05995409
91	0x3d2958d7	0.04134449
92	0xbda7c4e1	-0.081918485
93	0xbd7815b8	-0.060567588
94	0xbda8684d	-0.08223019
95	0x3d6cf772	0.05785317
96	0xbdf515c8	-0.11967045
97	0x3d8d08ab	0.06886419
98	0x3db22ded	0.08700166
99	0xbdc4336c	-0.095801204
100	0x3dae678a	0.08515842
101	0x3de2ab0d	0.110677816
102	0xbdac5477	-0.08414548
103	0x3cbe0bcc	0.023198985
104	0x3cb8e901	0.022572042
105	0xbca663da	-0.020311285
106	0x3de68c25	0.11257199
107	0xbd1f6c33	-0.038921546
108	0xbd0c41c9	-0.034242425
109	0x3d392536	0.045201503
110	0x3d85481e	0.06507896
111	0x3decffd3	0.11572232
112	0xbe15efc8	-0.1464225
113	0xbd31ac39	-0.043377135
114	0xbd75b1da	-0.059984066
115	0xbd064b0c	-0.032786414
116	0xbca0c8f4	-0.019627072
117	0xbd44fb07	-0.04809096
118	0xbd76d91d	-0.06026565
119	0xbda019ef	-0.078174464
120	0xbda531c7	-0.08066135
121	0x3ce72bec	0.028219186
122	0x3da593a1	0.080847986
123	0xbd39dd00	-0.045376778
124	0x3e08551e	0.1331372
125	0x3d7e41c0	0.062074423
126	0xbdcc7387	-0.099829726
127	0x3d62104a	0.055191316
128	0x3d1596cb	0.03652076
129	0x3e1266f9	0.14297093
130	0xbcc2ee89	-0.023795383
131	0xbda5eca3	-0.081017755
132	0x3e17f073	0.14837818
133	0xbd180efa	-0.037123658
134	0x3da27d87	0.07934099
135	0xbe013c73	-0.12620716
136	0xbc471ca8	-0.012152828
137	0xbab82406	-0.0014048822
138	0xbe222439	-0.1583413
139	0xbc3e9004	-0.011631016
140	0xbd6cddcd	-0.057828713
141	0x3cf2698e	0.029591348
142	0x3c465a0c	0.01210643
143	0xbdb78572	-0.089609995
144	0x3e1124e5	0.1417423
145	0x3d32e6dd	0.0436772
146	0x3d39d83a	0.045372225
147	0x3d74c283	0.059755813
148	0xbdd23b88	-0.10265261
149	0x3cbbbc17	0.022916837
150	0xbdc381bf	-0.095462315
151	0x3dfa6b80	0.12227535
152	0xbc85184b	-0.016246935
153	0xbe0ca73b	-0.13735668
154	0x3cef9218	0.029244468
155	0xbdcf60de	-0.10125898
156	0xbde2040a	-0.11035927
157	0xbdde839d	-0.10864947
158	0x3b890c36	0.004182364
159	0x3d7769e5	0.060403723
160	0xbdc5d327	-0.09659415
161	0xbbc9e4a6	-0.00616129
162	0x3be87b71	0.0070947935
163	0xbd1b47ff	-0.037910458
164	0x3d5ecd1a	0.05439482
165	0x3e18e59f	0.14931343
166	0x3d553d54	0.05206044
167	0xbc5700bf	-0.0131227365
168	0x3d647400	0.05577469
169	0xbd72241a	-0.05911646
170	0xbc273a8e	-0.010206832
171	0x3dc05471	0.09391106
172	0xbcf40e38	-0.029791936
173	0x3e369e57	0.1783384
174	0x3de4cd23	0.11171939
175	0x3ce89700	0.028392315
176	0xbb4175d0	-0.0029519685
177	0xbc074640	-0.008256495
178	0x3d8f79d5	0.070056595
179	0x3d447826	0.047966145
180	0xbda8a6bb	-0.08234926
181	0xbdc3e4a8	-0.09565097
182	0x3cc79c35	0.024366478
183	0x3d3797bc	0.04482244
184	0x3dce9ef3	0.10088911
185	0x3dce0050	0.10058653
186	0x3d85e2c9	0.065373965
187	0x3de5b3ab	0.112159096
188	0x3da1bc27	0.07897215
189	0xbd9811d2	-0.07425274
190	0x3e01fceb	0.12694137
191	0xbd182d5b	-0.03715263
192	0xbdb445ba	-0.08802362
193	0x3be567dc	0.0070009064
194	0x3d0f7db4	0.03503199
195	0x3e02c12e	0.12769005
196	0x3dd2830b	0.10278901
197	0x3db2b291	0.08725465
198	0xbde1aae2	-0.110189214
199	0x3e45729d	0.19282003
200	0x3d9ebde5	0.07751063
201	0x3ca6c288	0.020356432
202	0x3e354bce	0.17704698
203	0xbd23119d	-0.03981172
204	0x3e1b26e3	0.15151553
205	0xbdd9d1e2	-0.10635735
206	0x3d4e90c0	0.050431013
207	0x3db7b985	0.08970932
208	0x3d9a5bd4	0.07537046
209	0x3da2cdf2	0.07949437
210	0xbcbc52e5	-0.022988746
211	0x3e670948	0.22562134
212	0x3e29431c	0.16529506
213	0xbda4d567	-0.08048516
214	0xbca77224	-0.020440169
215	0xbcebd3f8	-0.028787598
216	0xbde54f44	-0.11196759
217	0x3e2de906	0.16983423
218	0x3e4d6cab	0.20060985
219	0x3e1b20bf	0.1514921
220	0x3dda128f	0.10648071
221	0x3e5c29f0	0.21500373
222	0xbc8e8cbe	-0.017401095
223	0x3be39068	0.006944705
224	0xbdbbfcc1	-0.09179068
225	0xbe0e6f3c	-0.1390962
226	0xbde2f4e0	-0.110818624
227	0xbbda8fec	-0.006669989
228	0x3c3efdb5	0.011657168
229	0xbddc2270	-0.10748756
230	0xbc8833d2	-0.016626272
231	0xbdb3636a	-0.08759196
232	0xbdf1ba32	-0.11803092
233	0x3b823f19	0.003974807
234	0x3e30d730	0.17269588
235	0xba11d2ff	-0.0005562752
236	0xbcc59401	-0.024118425
237	0xbd678350	-0.056521714
238	0x3e12b947	0.1432849
239	0x3e814bae	0.25253052
240	0x3c2d351d	0.010571745
241	0x3d8f1124	0.06985691
242	0xbcea5abc	-0.028607719
243	0x3cb92ff3	0.022605872
244	0x3dad2533	0.08454361
245	0xbd92ef20	-0.07174516
246	0x3d62368e	0.05522781
247	0xbd83de5d	-0.06438897
248	0x3ca9a419	0.02070813
249	0xbdfa052d	-0.122080185
250	0x3b06a166	0.0020542978
251	0x3cd6b4bd	0.02620923
252	0x3dac3546	0.084085986
253	0x3e52e255	0.20594151
254	0xbdaeb16d	-0.08529935
255	0x3c54de64	0.012992475

node_encoder.layers.2.bias f4 [32]
0	0x3dc745c1	0.097301014
1	0x3bafe8a6	0.00536831
2	0x3d83b556	0.064310715
3	0xbd69873e	-0.057013743
4	0x3df07231	0.1174053
5	0xbdb070b8	-0.086152494
6	0x3b9e9031	0.0048389663
7	0x3d27a5d5	0.040929634
8	0x3d7f721e	0.06236469
9	0xbcdee175	-0.027207116
10	0xbdb9059d	-0.09034274
11	0xbdd1cbac	-0.102439255
12	0xbda9ac86	-0.08284859
13	0x3de8e98d	0.11372671
14	0x3d5f7cc6	0.054562353
15	0x3dfca14e	0.12335454
16	0xbcdbc013	-0.026824987
17	0x3dafd564	0.08585623
18	0xbd07393c	-0.033013567
19	0x3d8506d2	0.064954415
20	0x3da076b3	0.0783514
21	0x3e0fc069	0.14038242
22	0x3d9c3df5	0.07629005
23	0x3c353934	0.011061002
24	0x3e053a40	0.13010502
25	0x3de2776f	0.110579364
26	0xbd665907	-0.056237247
27	0xbcbb895a	-0.022892643
28	0x3dee8523	0.116464876
29	0xbcd876b0	-0.026423782
30	0xbc949517	-0.018137498
31	0x3bcd5676	0.0062664105

state_encoder.layers.0.weight f4 [64, 2]
0	0x3eda292f	0.42609546
1	0xbf1bc56a	-0.60848105
2	0x3ecef4fe	0.4042129
3	0x3d832995	0.064044155
4	0x3eaa017c	0.33204257
5	0xbf092d2a	-0.5358454
6	0xbd888dd0	-0.066676736
7	0x3f11c43f	0.5694007
8	0xbea2231d	-0.31667414
9	0x3d777393	0.060412955
10	0x3d8b810c	0.06811723
11	0xbecb5ec5	-0.3972074
12	0x3f2d67ea	0.67736685
13	0xbf2f5607	-0.6849064
14	0x3da07f53	0.07836785
15	0xbe0d0df4	-0.13774854
16	0x3f218d54	0.63106275
17	0x3ed6c094	0.419438
18	0xbf12b491	-0.5730677
19	0xbda1f5de	-0.079082236
20	0x3f23493e	0.63783634
21	0x3d85373b	0.06504675
22	0x3eb1b411	0.34707692
23	0xbf138672	-0.5762702
24	0xbe43abb5	-0.1910847
25	0xbf315deb	-0.6928393
26	0xbf026e6a	-0.5094973
27	0xbf010fbc	-0.50414634
28	0xbdf3fc60	-0.11913371
29	0x3dbcb5e3	0.0921438
30	0xbf30b965	-0.6903289
31	0xbe7d9bf0	-0.24766517
32	0xbaea26db	-0.0017864363
33	0x3f3446e6	0.7042068
34	0xbe4e5ce6	-0.20152625
35	0xbeed9989	-0.464062
36	0x3dfa15e4	0.122112066
37	0x3d7bfde2	0.06152142
38	0x3bcdb512	0.006277689
39	0xbe1c3831	-0.1525581
40	0xbd29efc6	-0.04148843
41	0x3f0c2102	0.54737866
42	0xbf0de3b0	-0.5542555
43	0x3e95bb02	0.29244238
44	0xbe9c0d0f	-0.30478713
45	0x3e521a57	0.2051786
46	0xbebdfa19	-0.37104872
47	0xbf0d7397	-0.552545
48	0x3e9859f1	0.2975612
49	0x3e4ac68b	0.198023
50	0x3eb16923	0.34650525
51	0xbe83610f	-0.25659987
52	0x3e0cc65c	0.13747543
53	0x3f01db0e	0.50724876
54	0x3f081ecc	0.5317199
55	0x3eea7873	0.4579502
56	0xbe14295d	-0.14468904
57	0xbebaa8bd	-0.36456862
58	0x3d747583	0.05968238
59	0xbef2c6d4	-0.4741732
60	0xbe53d914	-0.20688277
61	0x3db831db	0.08993884
62	0x3e8081e3	0.25099096
63	0xbd96778e	-0.07347022
64	0x3e8a533e	0.27016634
65	0xbf1ac22c	-0.6045253
66	0x3e899ab0	0.2687583
67	0xbeecaa96	-0.46223897
68	0xbf14093e	-0.578266
69	0x3d96168c	0.07328519
70	0x3f1f838e	0.6231011
71	0x3dd27233	0.10275688
72	0x3e80e5b3	0.25175247
73	0xbdc1df1e	-0.09466384
74	0x3d1b7798	0.03795585
75	0x3d9c8462	0.076424375
76	0xbea05bca	-0.3132003
77	0x3f12b0f7	0.57301277
78	0xbee1e7d8	-0.44122195
79	0x3ebabb0f	0.3647084
80	0x3ef3d1a7	0.4762089
81	0xbebe02a9	-0.37111405
82	0x3f1c1709	0.6097265
83	0x3e9222ca	0.28542167
84	0x3f1dab83	0.6158983
85	0x3e90b15b	0.2826031
86	0xbed4d751	-0.41570523
87	0x3ede0144	0.4336034
88	0x3f124323	0.5713369
89	0x3eddf062	0.4334746
90	0x3e820751	0.25396207
91	0x3df37a5b	0.11888572
92	0x3d48665d	0.048925746
93	0x3f321333	0.69560546
94	0xbeb07765	-0.3446609
95	0x3e22f703	0.1591454
96	0xbc8cf59a	-0.017206956
97	0x3f2344cd	0.63776857
98	0x3ece666f	0.40312526
99	0xbee009e5	-0.4375755
100	0x3ea4c472	0.32181126
101	0xbe6b57aa	-0.2298266
102	0x3efc3325	0.4925777
103	0xbf18931c	-0.5959947
104	0xbf23669a	-0.6382843
105	0x3ea143b3	0.31496963
106	0xbe498bec	-0.19682282
107	0x3e3ada1e	0.18247268
108	0x3f15df44	0.585438
109	0xbefb5a24	-0.4909221
110	0xbdb68149	-0.08911378
111	0xbe801bb9	-0.2502115
112	0x3ec3ea0e	0.38264507
113	0xbe891e04	-0.26780713
114	0x3f18d2f4	0.5969689
115	0x3cc07bf9	0.023496615
116	0x3e5156ac	0.20443219
117	0xbeb32e50	-0.3499627
118	0xbce3dc6b	-0.027815064
119	0xbf223b22	-0.6337148
120	0xbea23481	-0.31680682
121	0xbe4f09ad	-0.20218535
122	0xbf17d588	-0.593102
123	0xbc3b62d5	-0.011437138
124	0x3eb8c5ee	0.36088508
125	0xbed63265	-0.41835323
126	0xbd435bce	-0.047694974
127	0x3f07511f	0.52858156

state_encoder.layers.0.bias f4 [64]
0	0xbed8ede1	-0.42368987
1	0x3e6fd8d9	0.23422565
2	0xbe0239fe	-0.12717435
3	0x3f14a097	0.5805754
4	0xbd6a4669	-0.057196055
5	0x3f14acd8	0.5807624
6	0xbe70fc88	-0.23533833
7	0xbf08ba15	-0.5340894
8	0x3cca2a52	0.024678383
9	0xbee0debf	-0.43919942
10	0xbec4ecec	-0.38462007
11	0x3ef93ceb	0.4867929
12	0x3f2e7cde	0.6815928
13	0xbee3f8da	-0.44525796
14	0xbf37fdb4	-0.71871495
15	0x3e601ded	0.21886416
16	0xbf1d6279	-0.6147838
17	0xbe4c5104	-0.1995278
18	0x3e9deeda	0.30846292
19	0x3e811758	0.25213122
20	0x3dc470f2	0.09591855
21	0x3e9954d0	0.2994752
22	0xbec3dbb5	-0.3825356
23	0xbe62a839	-0.22134484
24	0xbe5f9ed9	-0.2183794
25	0xbf30f4d5	-0.69123584
26	0xbed4ecc9	-0.41586903
27	0x3dcb9877	0.0994119
28	0x3e30e7fd	0.17275997
29	0xbe9954d6	-0.29947537
30	0x3ef4fc89	0.4784892
31	0xbec62b26	-0.38704795
32	0x3cab3473	0.020899033
33	0x3f19f3c2	0.6013757
34	0x3eef0912	0.46686608
35	0x3f281edc	0.6567209
36	0x3e4352cd	0.19074555
37	0xbef2817a	-0.47364408
38	0xbe7eb05f	-0.24871968
39	0xbe595bab	-0.21226375
40	0xbf076ee2	-0.5290357
41	0xbe87f7af	-0.26556155
42	0xbf2c4fcd	-0.67309266
43	0xbeb1f622	-0.34758097
44	0xbf3683c0	-0.71294785
45	0x3f32cbf6	0.6984247
46	0x3e026036	0.12732014
47	0x3f2aac40	0.6666908
48	0x3ec68b5d	0.387782
49	0x3f379291	0.7170802
50	0xbe650aad	-0.22367354
51	0xbe9cf692	-0.30656868
52	0xbe9306c9	-0.28716114
53	0xbf2a696e	-0.6656712
54	0xbd412d85	-0.04716255
55	0x3dd07c50	0.10179961
56	0x3ecb5485	0.3971292
57	0xbe0507fd	-0.12991329
58	0x3e637bde	0.2221522
59	0x3e9707a1	0.29498008
60	0x3df5cc81	0.12001897
61	0x3e35de2c	0.17760533
62	0xbe8d6049	-0.27612522
63	0x3ec6b0f2	0.38806874
