get_descriptor_megnet/saved_models/hse_168/state.pt (torch, 710298 bytes, 105 tensors)

bond_expansion.rbf.centers f4 [100]
0	0x00000000	0.0
1	0x3d4ede62	0.05050505
2	0x3dcede62	0.1010101
3	0x3e1b26ca	0.15151516
4	0x3e4ede62	0.2020202
5	0x3e814afd	0.25252524
6	0x3e9b26ca	0.3030303
7	0x3eb50296	0.35353535
8	0x3ecede62	0.4040404
9	0x3ee8ba2e	0.45454544
10	0x3f014afd	0.5050505
11	0x3f0e38e3	0.5555555
12	0x3f1b26ca	0.6060606
13	0x3f2814b0	0.65656567
14	0x3f350296	0.7070707
15	0x3f41f07c	0.75757575
16	0x3f4ede62	0.8080808
17	0x3f5bcc48	0.85858583
18	0x3f68ba2e	0.9090909
19	0x3f75a814	0.9595959
20	0x3f814afd	1.010101
21	0x3f87c1f0	1.060606
22	0x3f8e38e3	1.111111
23	0x3f94afd6	1.1616161
24	0x3f9b26ca	1.2121212
25	0x3fa19dbd	1.2626263
26	0x3fa814b0	1.3131313
27	0x3fae8ba3	1.3636364
28	0x3fb50296	1.4141414
29	0x3fbb7989	1.4646465
30	0x3fc1f07c	1.5151515
31	0x3fc8676f	1.5656565
32	0x3fcede62	1.6161616
33	0x3fd55555	1.6666666
34	0x3fdbcc48	1.7171717
35	0x3fe2433b	1.7676767
36	0x3fe8ba2e	1.8181818
37	0x3fef3121	1.8686868
38	0x3ff5a814	1.9191918
39	0x3ffc1f07	1.9696969
40	0x40014afd	2.020202
41	0x40048677	2.070707
42	0x4007c1f0	2.121212
43	0x400afd6a	2.1717172
44	0x400e38e3	2.222222
45	0x4011745d	2.2727273
46	0x4014afd6	2.3232322
47	0x4017eb50	2.3737373
48	0x401b26ca	2.4242425
49	0x401e6243	2.4747474
50	0x40219dbd	2.5252526
51	0x4024d936	2.5757575
52	0x402814b0	2.6262627
53	0x402b502a	2.6767678
54	0x402e8ba3	2.7272727
55	0x4031c71d	2.777778
56	0x40350296	2.8282828
57	0x40383e10	2.878788
58	0x403b7989	2.929293
59	0x403eb503	2.979798
60	0x4041f07c	3.030303
61	0x40452bf6	3.0808082
62	0x4048676f	3.131313
63	0x404ba2e9	3.1818182
64	0x404ede62	3.2323232
65	0x405219dc	3.2828283
66	0x40555555	3.3333333
67	0x405890cf	3.3838384
68	0x405bcc49	3.4343436
69	0x405f07c2	3.4848485
70	0x4062433c	3.5353537
71	0x40657eb5	3.5858586
72	0x4068ba2f	3.6363637
73	0x406bf5a8	3.6868687
74	0x406f3122	3.7373738
75	0x40726c9b	3.7878788
76	0x4075a815	3.838384
77	0x4078e38e	3.8888888
78	0x407c1f08	3.939394
79	0x407f5a81	3.989899
80	0x40814afd	4.040404
81	0x4082e8ba	4.090909
82	0x40848677	4.141414
83	0x40862434	4.1919193
84	0x4087c1f1	4.2424245
85	0x40895fad	4.292929
86	0x408afd6a	4.3434343
87	0x408c9b27	4.3939395
88	0x408e38e4	4.4444447
89	0x408fd6a0	4.4949493
90	0x4091745d	4.5454545
91	0x4093121a	4.5959597
92	0x4094afd7	4.646465
93	0x40964d93	4.6969695
94	0x4097eb50	4.7474747
95	0x4099890d	4.79798
96	0x409b26ca	4.848485
97	0x409cc486	4.8989897
98	0x409e6243	4.949495
99	0x40a00000	5.0

embedding.layer_node_embedding.weight f4 [89, 64]
0	0xbe32a254	-0.17444736
1	0xbf00c9b2	-0.5030776
2	0x3f6ff91b	0.9373948
3	0xbe1db00c	-0.15399188
4	0xbf8c0b81	-1.0941011
5	0xbf7da230	-0.99075603
6	0x3e545416	0.20735201
7	0x3f66e7be	0.9019736
8	0xbfd0625e	-1.6280019
9	0x3f28af95	0.65892917
10	0x3e800ef2	0.25011402
11	0x3f9fd27c	1.248611
12	0xbf679471	-0.9046088
13	0x40022210	2.033329
14	0x3c02a7f5	0.007974614
15	0xbf8cf16d	-1.1011177
16	0x3e80bcdc	0.25144088
17	0x3eb61c49	0.35568455
18	0xbfcac71a	-1.5842011
19	0x3fd3e846	1.6555259
20	0x3ee9cabb	0.45662484
21	0xbdb53bda	-0.088493064
22	0x3f7485cb	0.9551665
23	0xbfc2c10a	-1.5215161
24	0x3e73a136	0.23791966
25	0x3b4d7cda	0.0031354935
26	0xbe6c6405	-0.2308503
27	0xbf17c973	-0.5929176
28	0xbf9bfd65	-1.2186705
29	0xbf8b3db7	-1.0878209
30	0xbf92095f	-1.140911
31	0x3d0effe3	0.034912
32	0xbf6b5cf5	-0.91938716
33	0xbf36bde3	-0.71383494
34	0xbf3e2087	-0.7426838
35	0x3f62440e	0.88385093
36	0x3fbfefb1	1.4995023
37	0xbffdaf5e	-1.9819143
38	0x3f9d1011	1.2270528
39	0xbf966e5f	-1.1752433
40	0xbce28730	-0.027652353
41	0x3e55e99b	0.20889895
42	0x3fc29cb6	1.5204074
43	0xbf031185	-0.5119861
44	0xbdc2fd3a	-0.095209554
45	0xc005c341	-2.0900424
46	0xbdd0cc4b	-0.10195216
47	0x3dcefbda	0.101066306
48	0x3ecc8013	0.39941463
49	0xbf25f52d	-0.64827234
50	0xbea43e15	-0.32078615
51	0xbf950a1e	-1.1643713
52	0xbef74929	-0.48298004
53	0xbf8bb5e5	-1.0914885
54	0xbf2d446e	-0.6768254
55	0xbf349b9b	-0.70549935
56	0xc0332bdb	-2.7995517
57	0xbfbfccfb	-1.498443
58	0xbfbbca27	-1.4671067
59	0x3faae472	1.3350966
60	0xbf536cd8	-0.8258796
61	0xbf8061d4	-1.0029855
62	0xbe0ab300	-0.13544846
63	0xbf540ec7	-0.8283505
64	0x3f746c7d	0.9547804
65	0xbf38f8ba	-0.72254527
66	0x3f2c0456	0.67194116
67	0x3f267705	0.6502536
68	0x3fe4497e	1.7834928
69	0xbf80a38d	-1.0049912
70	0xbf1ea7e0	-0.61974907
71	0x3ee7fa6a	0.45308238
72	0xbf328ff7	-0.6975092
73	0x3f247b77	0.6425089
74	0xbf016291	-0.50541025
75	0x3cc356ec	0.023845159
76	0xbfabed72	-1.3431838
77	0x3f853843	1.0407795
78	0x4026dbb7	2.6071603
79	0xbf010804	-0.50402856
80	0xbb8cff72	-0.0043029124
81	0x3f45811f	0.7715015
82	0xbf335de3	-0.70065135
83	0xbead6950	-0.3386941
84	0xbf00fbf8	-0.50384474
85	0xbf9506ad	-1.1642662
86	0xbd5d44c6	-0.054020666
87	0x3f847c6d	1.0350472
88	0xbfb5ba0c	-1.4197402
89	0x3f7ac5e2	0.97958195
90	0xbf43333c	-0.7625005
91	0x3f151796	0.58239114
92	0x3fa2f4b6	1.273093
93	0xbdbe5f58	-0.09295529
94	0xbf542ca4	-0.82880616
95	0x3eb54b79	0.35409144
96	0x3f0d513b	0.5520207
97	0x3f214a2e	0.63003814
98	0xbfc1bf3b	-1.5136484
99	0x3cb425af	0.021990625
100	0xbe14c560	-0.14528418
101	0x3de010d5	0.109407105
102	0x3f9aa8b2	1.2082732
103	0xbe7c2095	-0.24621804
104	0xbed65bbf	-0.41866872
105	0xbef9244c	-0.48660505
106	0x3f3ac6a2	0.7295934
107	0x3fc44a2a	1.5335133
108	0xbea6ac85	-0.32553497
109	0x3f891b2d	1.0711418
110	0x3f8ec556	1.1153972
111	0xbdea3a4b	-0.114369
112	0x3f9b718c	1.2144027
113	0xbf662343	-0.89897555
114	0x3f4f8c12	0.81073105
115	0x3fd3a0d1	1.6533452
116	0xbe897e99	-0.268544
117	0x3fa2b0ef	1.2710246
118	0x401a0513	2.4065597
119	0x3e7767f0	0.24160743
120	0x3f3ce6fd	0.7378996
121	0xbf5863b8	-0.8452716
122	0xbf41d104	-0.7570956
123	0xbfa63d82	-1.2987521
124	0xbfe3a875	-1.7785784
125	0x3fae5f63	1.362286
126	0x3f62eed3	0.88645667
127	0x3f14b542	0.5808908
128	0xbf715ce8	-0.9428239
129	0xbe4e5085	-0.20147903
130	0x3f8c4299	1.0957824
131	0xbf345732	-0.7044555
132	0x3fe362c9	1.7764522
133	0xbe854782	-0.2603112
134	0x3f444b74	0.7667763
135	0x3ea0b4c3	0.3138791
136	0xbf02f4a5	-0.5115455
137	0xbdb7e395	-0.08978955
138	0xbf54e92e	-0.83168304
139	0xbf81d2f4	-1.0142503
140	0xbf68d082	-0.9094316
141	0xbdf989fe	-0.12184523
142	0x3f8439a6	1.0330093
143	0x3fb463cd	1.4092957
144	0xbf0916f2	-0.53550637
145	0x3f1b409b	0.60645455
146	0x3e4c632c	0.19959706
147	0xbf30d466	-0.69074094
148	0xbfbd87bd	-1.4807049
149	0x3f093e1c	0.53610396
150	0xbf806057	-1.00294
151	0x3f2a22ba	0.6645924
152	0x3fcc65af	1.5968531
153	0xbfcb788d	-1.5896164
154	0x3f395441	0.72394186
155	0xbf4aed33	-0.7926819
156	0x3f59e530	0.8511534
157	0xbfc5ea81	-1.546219
158	0xbef9023f	-0.48634526
159	0x3fa0e297	1.256915
160	0xbfb41c93	-1.407122
161	0x3f3a4bca	0.72771895
162	0xc026c856	-2.6059775
163	0xbfd6394a	-1.6736233
164	0xbdedee37	-0.116177015
165	0x3f6d9ebd	0.9282034
166	0x3f0a2308	0.53959703
167	0x40005f25	2.0058072
168	0x3f8c724d	1.0972382
169	0x3d46633c	0.04843448
170	0xbd9ff435	-0.07810251
171	0xbdf29060	-0.118439436
172	0xbfe06d82	-1.7533419
173	0xbf7a488c	-0.9776695
174	0xbf177993	-0.5916988
175	0x3fb54b24	1.4163556
176	0xbee44e9d	-0.44591227
177	0x3f422bf3	0.7584831
178	0x3d2b0a6e	0.041757993
179	0x3f59c2b4	0.8506272
180	0x3fcbd295	1.592364
181	0xbf5c2559	-0.8599449
182	0xbf1e3b2b	-0.61809033
183	0xbea4723d	-0.32118407
184	0x3f11ba6a	0.5692507
185	0x3e19eac1	0.15030958
186	0x3f71783f	0.94324106
187	0x3e5ff1f8	0.21869648
188	0xbdcebcd5	-0.100946106
189	0x3f5efc01	0.8710328
190	0xbfca5f4a	-1.581033
191	0xbeb169da	-0.3465107
192	0xbfa14781	-1.2599946
193	0x3f6f2482	0.9341508
194	0x3f6cd2d9	0.9250923
195	0x3e736bb8	0.2377156
196	0xbeb7926f	-0.35853907
197	0xbf6b0855	-0.9180959
198	0x3fb539c2	1.4158251
199	0xbf96dfd2	-1.1787055
200	0xc00a4724	-2.160592
201	0xbf595fcf	-0.8491182
202	0xbf9b7482	-1.214493
203	0x3f1e941c	0.61944747
204	0xbfdff558	-1.7496748
205	0x3e49a37e	0.19691274
206	0x3e399e81	0.1812687
207	0xbfa044a8	-1.2520952
208	0xbe9578f9	-0.29193857
209	0x3edd10ed	0.43176976
210	0x3e2c3d42	0.16820243
211	0xbeee3c00	-0.4653015
212	0xbede5dba	-0.43430883
213	0xbf8546bc	-1.0412211
214	0x3f69bf42	0.9130746
215	0xbefce084	-0.49390042
216	0xbf8192f9	-1.0122977
217	0xbef87bb5	-0.4853188
218	0xc0004816	-2.0043998
219	0x3f829e17	1.0204495
220	0x3fcd5c4b	1.604379
221	0x3f8de757	1.1086224
222	0xbf01401b	-0.5048844
223	0xbfed6f0f	-1.8549517
224	0x3d7ffdc9	0.062497888
225	0xbee7d952	-0.4528299
226	0x3deb946b	0.11502918
227	0x3f3ae0c7	0.72999233
228	0x3f2d9f8c	0.67821574
229	0xbfe89336	-1.8169925
230	0xbf3dd0a5	-0.7414649
231	0xbea52c8e	-0.32260555
232	0x3f2db934	0.6786072
233	0xbf94adf7	-1.161559
234	0x3d5de215	0.054170687
235	0x3f4275c1	0.7596093
236	0xbe5f1cc1	-0.21788312
237	0x3f7ca046	0.9868206
238	0x3fb76fb1	1.433096
239	0x3ff1b65f	1.888378
240	0x3fb27c58	1.3944197
241	0x3f78a970	0.9713354
242	0x3e10f767	0.14156877
243	0x3ef80a84	0.48445523
244	0x3fd3732b	1.6519521
245	0x3e92b87b	0.28656372
246	0xbf423fef	-0.75878805
247	0xbfcdfd89	-1.6092998
248	0xbfdff022	-1.7495158
249	0xbf755cb1	-0.9584456
250	0xc019e3c9	-2.404528
251	0xbfb4da2f	-1.4129084
252	0xbeba3851	-0.3637109
253	0xbe176e7d	-0.14788242
254	0x3f502e25	0.8132041
255	0x3f87db64	1.0613828

edge_encoder.layers.0.weight f4 [64, 100]
0	0xbd185180	-0.0371871
1	0x3db6467d	0.08900163
2	0x3dbec6f3	0.0931529
3	0x3d236331	0.03988952
4	0xbc69b4ab	-0.014264266
5	0x3d9cc611	0.07654966
6	0x3d606947	0.0547879
7	0xbda310fa	-0.079622224
8	0xbd299e93	-0.041410994
9	0x3d41948e	0.047260813
10	0xbcccd14b	-0.025002142
11	0xbdb7a491	-0.089669354
12	0xbc8467fa	-0.016162861
13	0x3d76de45	0.060270566
14	0xbdb27fb2	-0.08715762
15	0xbd5004c8	-0.05078581
16	0x3d89306e	0.0669869
17	0x3d821b3c	0.06352851
18	0x3cd2a737	0.0257145
19	0x3c6bd833	0.014394808
20	0xbdaa1c7c	-0.08306214
21	0xbc555de4	-0.013022874
22	0x3d2ae57c	0.04172276
23	0xbcd0d8ad	-0.025493944
24	0xbd4f8bd4	-0.05067046
25	0xbdb23247	-0.08700996
26	0x3d225e43	0.039640676
27	0x3d1a308f	0.037643965
28	0x3d6b0933	0.05738182
29	0xbd842563	-0.064524435
30	0x3da2e7d4	0.07954374
31	0xbbc1e773	-0.0059174835
32	0xbd85d437	-0.065346174
33	0x3dddae20	0.10824227
34	0x3d33fbba	0.043941237
35	0xbd83dc64	-0.064385206
36	0xbb8c3b05	-0.0042794966
37	0x3cfada25	0.030621598
38	0x3a67e52f	0.00088461017
39	0x3c8128e3	0.015766567
40	0xbc8bf4a0	-0.01708442
41	0x3c27b59e	0.010236172
42	0x3d38b0b9	0.04509041
43	0x3bffeb51	0.0078100343
44	0x3d18e6e2	0.037329562
45	0xbc97b6e8	-0.018519834
46	0x3c6dc221	0.014511616
47	0xbd8211cc	-0.06351051
48	0xbda33d2d	-0.07970653
49	0x3d3e6a06	0.04648783
50	0xbd5dcf16	-0.05415257
51	0x3dda73dd	0.106666304
52	0xbd6982b5	-0.057009418
53	0x3d1c6ccf	0.038189705
54	0x3bf3ee2f	0.007444165
55	0xbc789c04	-0.015173916
56	0xbdadcf5b	-0.084868155
57	0x3d1059d4	0.035241917
58	0xbd0e044a	-0.03467206
59	0x3dd68f90	0.10476601
60	0xbd1146cb	-0.035467904
61	0x3dc21aac	0.094777435
62	0xbc18cf9e	-0.009326844
63	0xbd836b52	-0.06416954
64	0xbd259b41	-0.040431265
65	0xbd922e46	-0.07137732
66	0xbd8f8898	-0.07008475
67	0xbd56bf40	-0.052428484
68	0x3dc90c7e	0.09816836
69	0x3dbcc5a8	0.092173874
70	0xbd62f330	-0.055407703
71	0x3dc829e8	0.09773618
72	0xbd10440a	-0.035221137
73	0x3db934f6	0.090433046
74	0x3d610695	0.054937918
75	0x3d3888d6	0.045052372
76	0x3d62d49e	0.05537855
77	0xbce1858c	-0.0275295
78	0xbdcbb333	-0.09946289
79	0x3dbdf3fe	0.092750534
80	0x3d4a5852	0.049400635
81	0x3d1df230	0.038561046
82	0xbd392ce1	-0.045208815
83	0x3cf31f02	0.029677872
84	0x3d8c15b9	0.06840081
85	0xbc1918dd	-0.009344307
86	0xbce63a51	-0.02810398
87	0x3c70de62	0.014701458
88	0xbcbb1331	-0.0228363
89	0x3d828df5	0.063747324
90	0x3da1fb2a	0.07909234
91	0x3cdf459c	0.027254872
92	0x3d94431b	0.07239362
93	0xbdce1413	-0.100624226
94	0xbd955d1b	-0.07293149
95	0x3da2edaa	0.07955487
96	0x3d9c19e5	0.076221265
97	0xbd439f41	-0.0477593
98	0xbd70af4b	-0.058760922
99	0xbdf26a1b	-0.11836644
100	0xbdb46862	-0.08808972
101	0xbd761964	-0.060082808
102	0xbe1bab9a	-0.1520218
103	0xbe09ea75	-0.13468345
104	0xbe49e9ad	-0.19718046
105	0xbd72cd98	-0.0592781
106	0xbd83ec31	-0.06441534
107	0xbe3d1666	-0.18465576
108	0xbe3a70cb	-0.1820709
109	0xbd570fc5	-0.052505273
110	0xbd4c194e	-0.04982882
111	0xbdcf2d59	-0.10116071
112	0xbe2a9d0b	-0.1666147
113	0xbe2a4ab0	-0.16630054
114	0xbe260bdb	-0.1621546
115	0xbe305619	-0.17220344
116	0xbde4f2a4	-0.111790925
117	0xbd4ac70c	-0.049506232
118	0xbd5c1097	-0.05372676
119	0xbd82f7b5	-0.063949026
120	0xbe229eb9	-0.1588086
121	0xbc5b4a74	-0.01338445
122	0xbc9ea3d0	-0.019365221
123	0x3ade1a40	0.0016945079
124	0x3c0bd6de	0.008535115
125	0xbba5e209	-0.005062346
126	0xbc69982e	-0.014257474
127	0xbcf74423	-0.030183857
128	0xbdb67a52	-0.089100495
129	0x3cbb8755	0.02289168
130	0x3b102d65	0.0021999713
131	0xbd44241f	-0.04788601
132	0xbcf92298	-0.030412003
133	0x3d47c6a0	0.048773408
134	0xbd895b15	-0.06706826
135	0x3d9640c5	0.073365726
136	0x3d26b4c7	0.040699746
137	0x3dcc682a	0.09980805
138	0x3deaccb1	0.11464823
139	0xbd57fa31	-0.052728835
140	0x3e0fba4e	0.14035913
141	0x3d3bae46	0.045820497
142	0x3e09a6a8	0.1344248
143	0x3cac142a	0.021005709
144	0xbd15aca3	-0.036541592
145	0x3b91b60e	0.0044467514
146	0x3ceaa0b3	0.02864108
147	0x3dc4fbad	0.09618316
148	0xbc867d4c	-0.016417168
149	0x3e0f39f1	0.13986947
150	0x3d1a1509	0.037617717
151	0x3c331498	0.010930203
152	0x3df98464	0.12183455
153	0x3df4c969	0.119524784
154	0x3deae91d	0.11470244
155	0xbb278746	-0.0025562807
156	0x3c812beb	0.015768012
157	0xbb923a12	-0.004462489
158	0x3dcd5f56	0.100279495
159	0x3e0f1e1c	0.1397633
160	0x3da1b936	0.07896654
161	0x3e180039	0.14843835
162	0x3cfe2cb5	0.031027177
163	0x3dab1f8f	0.08355629
164	0x3d86f76a	0.06590159
165	0x3d4c977c	0.049949154
166	0x3d9cdcdf	0.07659315
167	0x3d63af54	0.055587128
168	0x3a00f919	0.0004919931
169	0x3d59b3c0	0.05314994
170	0x3df62210	0.12018216
171	0x3dab701e	0.08370994
172	0x3dfc1c61	0.123101
173	0x3da8bd91	0.08239282
174	0x3dede90a	0.11616714
175	0xbd356d09	-0.044293437
176	0x3d8d33ac	0.06894621
177	0xbdaabef2	-0.08337201
178	0x3d5857d5	0.05281814
179	0x3c07b360	0.008282512
180	0x3d18bc03	0.037288677
181	0x3dc0638f	0.09393989
182	0xbd9c8070	-0.07641685
183	0xbd76b59d	-0.060231794
184	0x3d8b8c80	0.068139076
185	0xbdb496ea	-0.08817847
186	0xbd8de84f	-0.06929075
187	0xbddcf1cf	-0.10788309
188	0xbdc98a94	-0.09840885
189	0xbdc4a3d4	-0.0960156
190	0xbdb2c23f	-0.08728456
191	0x3d2e0731	0.042487327
192	0x3bc3df74	0.0059775654
193	0xbda2389a	-0.07920952
194	0xbd142699	-0.036169622
195	0x3d1eaaf7	0.038737264
196	0xbd2c0fa6	-0.04200711
197	0xbe040d2a	-0.12895647
198	0xbc8bd08f	-0.017067222
199	0xbe29e1b2	-0.16590002
200	0xbcd7a7b6	-0.026325088
201	0x3e08b2e9	0.13349499
202	0x3e081a42	0.13291267
203	0x3dcf6fec	0.10128769
204	0xbc81ec17	-0.015859647
205	0x3d19ced5	0.037550766
206	0x3da1051c	0.07862303
207	0x3dc6b12f	0.09701764
208	0xbcd9dc17	-0.026594205
209	0x3c53e82b	0.012933771
210	0x3c8023de	0.015642103
211	0x3d9d7792	0.07688822
212	0xbd6ff120	-0.058579564
213	0xbd7796bc	-0.060446486
214	0x3d268f38	0.040663928
215	0xbb9407d3	-0.0045175343
216	0x3d54a3be	0.05191397
217	0xbd8d4412	-0.06897749
218	0x3dc2d8bb	0.09513994
219	0x3da77a4d	0.08177624
220	0x3d863b26	0.065542504
221	0x3ce7483d	0.028232688
222	0x3d1dbfda	0.038513042
223	0x3c644dc6	0.013934558
224	0x3d92d2c7	0.07169109
225	0xbdc85f75	-0.09783832
226	0x3da4433e	0.08020638
227	0x3d6ce0e3	0.057831656
228	0x3cca87e0	0.024722993
229	0xbd634d86	-0.055493854
230	0x3b4d4013	0.0031318709
231	0xb8a5e806	-7.911031e-05
232	0xbc39cf77	-0.011340967
233	0xbd758112	-0.059937544
234	0xbd8f9d51	-0.070124276
235	0x3c262dfe	0.010142801
236	0xbdeff65d	-0.11716912
237	0x3cf8b03c	0.030357473
238	0x3d83f58a	0.06443317
239	0xbcdf3724	-0.027247973
240	0x3d427360	0.04747331
241	0x3d455149	0.048173223
242	0xbd146e63	-0.036238085
243	0xbddf06f3	-0.10889997
244	0x3d7b8dbe	0.061414473
245	0xbcd24309	-0.02566673
246	0xbd83dbb4	-0.064383894
247	0x3c8f576d	0.017497743
248	0xbdbfe374	-0.09369555
249	0xbd73ee16	-0.05955323
250	0xbdc53cbd	-0.096307255
251	0xbcd4d7b3	-0.02598176
252	0x3ce18121	0.027527394
253	0x3d7f4d13	0.062329363
254	0x3d3c4abc	0.04596971
255	0xbdbe6894	-0.092972904

edge_encoder.layers.0.bias f4 [64]
0	0xbc457ec8	-0.012054153
1	0xbd14eff8	-0.036361665
2	0x3c5139e4	0.01277015
3	0x3da5b97b	0.08092018
4	0x3d6e6c38	0.058208674
5	0x3ca48c50	0.020086437
6	0xbda8be81	-0.08239461
7	0xbd9879b2	-0.074450865
8	0x3a9aec98	0.0011819778
9	0xbd98b4fa	-0.074563935
10	0xbdbc217b	-0.091860734
11	0xbdcbc6df	-0.09950041
12	0x3cf27519	0.029596852
13	0x3d02eba7	0.031963017
14	0xbdb907d0	-0.09034693
15	0xbdbf8d36	-0.09353106
16	0xbdbebc00	-0.09313202
17	0xbd8b96d4	-0.068158776
18	0x3dc7179c	0.097213
19	0x3d9835c8	0.07432133
20	0xbd7a5252	-0.061113663
21	0x3d7f1993	0.06228025
22	0xbd4ae5f7	-0.049535718
23	0xbccb7880	-0.024837732
24	0x3d06741e	0.03282558
25	0xbd94b29e	-0.07260631
26	0xbd424260	-0.04742658
27	0xbdb2c4b4	-0.087289244
28	0x3d4fb1a4	0.05070652
29	0x3d08f609	0.033437762
30	0x3dc22f8f	0.09481727
31	0xbd8e7e83	-0.06957724
32	0xbdbbe1e8	-0.091739476
33	0x3d5ed928	0.054406315
34	0xbda05d78	-0.07830328
35	0x3c3ce710	0.011529699
36	0x3d968e6c	0.073513836
37	0xbd07003e	-0.032959215
38	0x3d2d3be6	0.04229345
39	0x3d3f0b82	0.046641834
40	0xbc7e6612	-0.015527265
41	0x3d5c0fe9	0.05372611
42	0xbd88ec5a	-0.066857055
43	0x3ca83e77	0.020537598
44	0xbd200a2a	-0.039072193
45	0xbc9f10c4	-0.019417174
46	0xbca9b614	-0.020716704
47	0xbc8712bb	-0.016488424
48	0xbcdde78a	-0.027087945
49	0x3d1c1ee8	0.038115412
50	0x3d9339db	0.071887694
51	0x3c61a35e	0.01377186
52	0xbdef4924	-0.11683872
53	0xbd3d4fd0	-0.046218693
54	0xbcfc2bce	-0.030782606
55	0xb9e7e79d	-0.0004423232
56	0x3dcf8554	0.10132852
57	0xbb92fbaf	-0.0044855694
58	0xbd80cd22	-0.06289126
59	0xbcaec874	-0.021335818
60	0x3dd79beb	0.10527786
61	0x3c844a0d	0.016148591
62	0x3d6bfe1c	0.057615384
63	0x3d815eee	0.063169345

edge_encoder.layers.2.weight f4 [32, 64]
0	0xbd9125ec	-0.07087311
1	0x3cb8c16a	0.022553165
2	0x3da80fc8	0.08206135
3	0xbd174d6e	-0.036939077
4	0x3c9d2a13	0.019185102
5	0xbdeb81dd	-0.11499379
6	0x3d92fcd6	0.07177131
7	0xbd875938	-0.06608814
8	0x3df82786	0.121169135
9	0x3d971f50	0.07379019
10	0x3de2e938	0.11079639
11	0xbde8ab81	-0.11360837
12	0xbde1d1eb	-0.11026367
13	0xbde3f582	-0.11130811
14	0xbe01356c	-0.12618035
15	0x3d9b7b82	0.075919166
16	0xbde8eda1	-0.11373449
17	0xbdeb6a76	-0.11494915
18	0x3cbc493c	0.02298414
19	0xbbb6b4aa	-0.005575736
20	0xbd8b0866	-0.06788711
21	0xbd21c745	-0.03949668
22	0xbd0e3d65	-0.03472652
23	0xbd25b425	-0.040455002
24	0x3c96cc5c	0.018407993
25	0xbdf0902a	-0.11746247
26	0xbd83f046	-0.06442313
27	0x3d015c55	0.031582195
28	0xbdf99684	-0.12186912
29	0xbda97f98	-0.0827629
30	0xbd15e808	-0.036598235
31	0xbdde5fba	-0.10858102
32	0x3cc32d53	0.023825323
33	0xb8ca070b	-9.6334225e-05
34	0xbe034847	-0.1282054
35	0x3d913631	0.07090414
36	0x3d185f61	0.037200335
37	0xbdb05918	-0.08610743
38	0x3d83f44a	0.06443079
39	0xbddffc4a	-0.10936792
40	0xbdf1d1ff	-0.11807632
41	0x3d5661e2	0.052339442
42	0x3d9458cd	0.072435
43	0x3de50ecc	0.11184463
44	0x3be4e213	0.006984958
45	0x3a6d5d46	0.00090547313
46	0x3d8a9b45	0.067678966
47	0x3cad3f96	0.021148484
48	0x3de20eab	0.11037954
49	0xbd9ca28e	-0.07648192
50	0x3da0f8b0	0.078599334
51	0xbd9364ae	-0.071969375
52	0xbdc30ba7	-0.09523707
53	0xbdc72980	-0.09724712
54	0x3d6087e8	0.05481711
55	0xbd75febb	-0.060057383
56	0xbcdfc14b	-0.027313849
57	0xbd1ea700	-0.038733482
58	0xbd691d68	-0.05691281
59	0xbcf57012	-0.029960666
60	0x3d01b4a0	0.031666398
61	0x3da3de91	0.080014355
62	0xbcd33505	-0.025782118
63	0xbce818b8	-0.0283321
64	0x3dbd7e2c	0.09252581
65	0x3bfb9fda	0.007678968
66	0x3d08c3f8	0.033390015
67	0xbdf03ecf	-0.1173073
68	0x3d33debc	0.043913588
69	0x3d05f341	0.032702688
70	0xbabc20ad	-0.0014353
71	0xbcd45686	-0.025920164
72	0x3dc10478	0.094246805
73	0xbd578026	-0.052612446
74	0x3dc48ad0	0.09596789
75	0xbdc8b9c7	-0.09801059
76	0x3da0212b	0.07818826
77	0x3db38da0	0.08767247
78	0xbcef8b60	-0.029241264
79	0x3d7cb6d7	0.061697807
80	0x3c944253	0.018098032
81	0xbc44432d	-0.011978907
82	0xbd035d6a	-0.03207151
83	0xbcdfdce1	-0.027327003
84	0x3da01c57	0.078179054
85	0xbddb28a3	-0.1070111
86	0xbe0ed783	-0.13949399
87	0xbde7aa6e	-0.11311804
88	0x3ddbe357	0.10736721
89	0xbd91cdd8	-0.0711934
90	0xbd38fe1e	-0.04516422
91	0xbc283240	-0.010265887
92	0xbda623da	-0.08112307
93	0x3d9986c4	0.07496408
94	0xbc197ab2	-0.009367632
95	0x3dbf8381	0.09351254
96	0x3dc15e84	0.094418555
97	0xbdfb35d8	-0.12266129
98	0xbd84c468	-0.06482774
99	0xbd38484b	-0.04499082
100	0xbdb88a21	-0.09010721
101	0xbdbdcf04	-0.09268001
102	0x3cc047a4	0.02347166
103	0xbd56ca60	-0.052439094
104	0x3c6ba404	0.014382366
105	0x3b8f70ae	0.004377446
106	0x3d50cf40	0.0509789
107	0x3dde4111	0.10852254
108	0xbd4fbad1	-0.05071527
109	0x3ce67494	0.02813176
110	0x3cd755fc	0.026286118
111	0xbc999a1e	-0.018750247
112	0x3d3c2a69	0.045938883
113	0xbcc3d18b	-0.023903629
114	0x3d68af48	0.056807786
115	0x3dda2334	0.10651246
116	0x3dc58750	0.096449494
117	0xbdf6681b	-0.12031575
118	0xbda78159	-0.08178968
119	0x3d87baaa	0.066274
120	0xbdeea332	-0.11652221
121	0xbd8757b2	-0.066085234
122	0x3cdb38e6	0.02676053
123	0x3d4d1348	0.050067216
124	0xbd88cbb0	-0.06679475
125	0x3da6ba45	0.08140997
126	0xbda58e63	-0.08083799
127	0x3db106af	0.08643853
128	0xbdb40e5a	-0.087918
129	0x3d282c65	0.041057963
130	0x3da07507	0.07834821
131	0xbdc9643c	-0.09833571
132	0xbdbde9cd	-0.092731096
133	0xbcb19f0c	-0.021682285
134	0xbcb8acee	-0.022543397
135	0x3cd75da7	0.026289774
136	0xbcfcff17	-0.030883355
137	0x3cf63ff5	0.030059794
138	0x3dccb3e2	0.099952474
139	0xbcd7d8e7	-0.026348544
140	0xbde93fe6	-0.11389141
141	0x3b214e56	0.0024613342
142	0xbe068565	-0.13136823
143	0xbce1c8f1	-0.027561637
144	0xbdb4f3cf	-0.08835565
145	0xbd22240b	-0.039585155
146	0xbd7c8017	-0.061645593
147	0x3d86ea7f	0.06587695
148	0xbd67ba7b	-0.056574326
149	0x3c281e1b	0.010261084
150	0xbde161c5	-0.11004976
151	0x3c69dbae	0.014273567
152	0xbceba134	-0.028763391
153	0xbda99b1f	-0.0828154
154	0x3b880deb	0.00415205
155	0xbd2a82b5	-0.04162856
156	0x3a44ae33	0.00075027643
157	0xbdb6f487	-0.08933359
158	0xbc9c2eb6	-0.019065242
159	0x3cb733ed	0.022363627
160	0xbcaa1b9c	-0.020765118
161	0xbd70e864	-0.058815375
162	0x3caa80b9	0.020813333
163	0xbc5b47b9	-0.013383799
164	0x3db62257	0.088932686
165	0x3d65f1f2	0.05613894
166	0xbdc4f4ab	-0.09616979
167	0x3dd37eb9	0.10326905
168	0x3db69871	0.08915795
169	0x3d1730ba	0.036911704
170	0x3d3d172e	0.046164684
171	0xbdf4e69a	-0.11958046
172	0xbb461094	-0.0030222284
173	0x3de55a85	0.11198906
174	0xbc2e488d	-0.010637415
175	0x3dd938a9	0.1060651
176	0x3d759534	0.059956744
177	0x3d7c98bf	0.061669108
178	0xbcdac0e9	-0.026703315
179	0x3dc46b07	0.09590726
180	0x3d8ba3a0	0.06818318
181	0x3de19ab2	0.11015834
182	0x3dcbc615	0.099498905
183	0x3de4b2d4	0.11166921
184	0x3d8b6fbd	0.06808422
185	0xbbb9debe	-0.005672305
186	0x3d46c6cd	0.048529435
187	0x3cf6cfb2	0.030128334
188	0xbcda1466	-0.026621055
189	0xbd6842dd	-0.05670439
190	0x3d214cc5	0.039379854
191	0x3d4c974b	0.04994897
192	0xbddd5287	-0.108067565
193	0xbcace1e5	-0.021103809
194	0x3daa005b	0.08300849
195	0x3d9799be	0.07402371
196	0x3ccbfdfd	0.024901384
197	0x3da4d03d	0.08047531
198	0xbda187e6	-0.07887249
199	0xbd565019	-0.05232248
200	0xbce898ed	-0.028393233
201	0x3dd3c6b6	0.103406355
202	0x3d527554	0.051381424
203	0xbd90b180	-0.070651054
204	0x3c9dbfbc	0.019256465
205	0x3da73141	0.08163691
206	0x3d121d6b	0.035672586
207	0x3d9c8344	0.076422244
208	0xbda1f9af	-0.079089515
209	0xbd788e42	-0.060682543
210	0x3dd92386	0.10602479
211	0xbd371052	-0.0446933
212	0x3dcf33fc	0.10117337
213	0xbd01539e	-0.031573884
214	0xbe00cd59	-0.12578334
215	0x3dbf46a8	0.093396485
216	0x3c55810d	0.013031256
217	0xbd839f80	-0.064269066
218	0x3c2599db	0.010107483
219	0xbd1d9631	-0.03847331
220	0x3de02ba2	0.10945822
221	0xbc4fea32	-0.012690114
222	0xbd897728	-0.067121804
223	0xbaea4126	-0.0017872199
224	0xbccdcb96	-0.025121491
225	0xbdd65541	-0.1046548
226	0xbce9dea1	-0.02854854
227	0x3dad9a74	0.08476725
228	0x3da0c7b4	0.0785059
229	0xbdc9df47	-0.0985704
230	0xbdbfa2ae	-0.093572006
231	0xbd62e9b5	-0.05539866
232	0x3d8183c1	0.06323958
233	0x3dc0aee9	0.094083615
234	0x3bda4115	0.0066605904
235	0xbd2e63d7	-0.042575683
236	0xbd736f5d	-0.059432376
237	0x3dc437c9	0.09580953
238	0xbd87ff57	-0.06640499
239	0x3da81b06	0.08208279
240	0xbd4912d8	-0.049090236
241	0x3deaaaec	0.11458382
242	0x3dc75760	0.09733462
243	0xbdcefc40	-0.101067066
244	0x3cbfe023	0.023422306
245	0xbdabdb60	-0.08391452
246	0x3bd98cd4	0.0066391025
247	0x3d8eb7fe	0.069686875
248	0x3ac216de	0.001480784
249	0x3db21263	0.08694913
250	0x3db97b93	0.09056773
251	0xbd893d89	-0.0670119
252	0xbdea15b6	-0.11429922
253	0x3dd48208	0.10376364
254	0xbd14ff9b	-0.036376577
255	0xbd07fcd1	-0.03320009

edge_encoder.layers.2.bias f4 [32]
0	0x3d0b0172	0.033936925
1	0xbcabb0e4	-0.020958371
2	0xbda1d2e5	-0.07901553
3	0x3db01bfc	0.085990876
4	0x3b9f6e53	0.0048654466
5	0xbde784e9	-0.113046475
6	0xbb31bbbc	-0.0027119955
7	0xbdb80e91	-0.08987153
8	0x3d73976e	0.059470586
9	0xbe11a4af	-0.14222978
10	0x3d0b1375	0.033954103
11	0xbdcf3656	-0.10117786
12	0xbe0a414e	-0.13501474
13	0x3d85ec7c	0.065392464
14	0x3daf1357	0.08548611
15	0xbdcd9546	-0.10038237
16	0x3c050ae6	0.008120274
17	0x3db78f37	0.08962863
18	0x3d3b13f8	0.04567334
19	0xbd76ecfd	-0.060284603
20	0xbdd6266c	-0.10456547
21	0x3dc94eee	0.09829508
22	0xbd31c3f6	-0.043399774
23	0xbdc4c1db	-0.096072875
24	0xbd89f34a	-0.06735857
25	0xbdbdeb1a	-0.09273358
26	0x3c64aff8	0.01395797
27	0x3df953e1	0.12174202
28	0x3d55c275	0.0521874
29	0xbcbf3af1	-0.023343535
30	0xbc5545d2	-0.013017135
31	0xbdc16047	-0.094421916

node_encoder.layers.0.weight f4 [64, 64]
0	0xbd8df0ab	-0.069306694
1	0x3e0a46bd	0.13503547
2	0xbcd1b64b	-0.02559962
3	0x3ab0dba2	0.001349319
4	0xbe34ac11	-0.17643763
5	0x3d003eae	0.031309776
6	0x3e1f387d	0.15548892
7	0x3d6ebd45	0.05828597
8	0xbdd8822c	-0.10571703
9	0xbd85c1ad	-0.06531081
10	0xbbc6cb56	-0.00606672
11	0x3e5c7b53	0.2153142
12	0xbdf4ddfe	-0.11956404
13	0x3cc4dd8f	0.024031429
14	0x3e11ea29	0.14249481
15	0x3d60d17b	0.054887276
16	0x3e76ab90	0.24088883
17	0x3defc58d	0.11707602
18	0x3dafdd8b	0.08587178
19	0xbe23a751	-0.15981795
20	0x3d21422e	0.039369754
21	0x3da7f89e	0.08201717
22	0x3e29a1f4	0.16565686
23	0x3ccb2e4f	0.024802355
24	0xbda16fa7	-0.07882624
25	0xbe2bf005	-0.16790779
26	0xbd5da9a9	-0.05411688
27	0x3de3d313	0.111242436
28	0x3d41c24c	0.047304437
29	0x3e38508a	0.17999473
30	0x3e9b0c50	0.3028283
31	0x3d5de949	0.054177556
32	0xbe0ad1e9	-0.13556637
33	0xbe75c9b8	-0.24002731
34	0x3e59b83f	0.2126169
35	0x3c8f691b	0.017506173
36	0x3d46bf2e	0.048522167
37	0xbd5af29c	-0.053454027
38	0xbd918e1e	-0.07107185
39	0x3e19a45e	0.15004107
40	0x3dc6384e	0.09678708
41	0x3e78d33c	0.2429933
42	0x3e24438c	0.16041392
43	0x3ce8b3e4	0.028406091
44	0xbb846ed3	-0.0040415316
45	0xbdd62a08	-0.104572356
46	0x3e0abb94	0.13548118
47	0xbd21cb33	-0.039500427
48	0xbe5746b3	-0.21023063
49	0xbd9aeba5	-0.07564477
50	0xbe3d4b40	-0.18485737
51	0x3e5ba197	0.2144836
52	0xbdf24820	-0.11830163
53	0x3e310a52	0.17289093
54	0x3e14db0a	0.14536682
55	0xbd7045df	-0.058660384
56	0xbe6de77a	-0.23232833
57	0x3dce3b70	0.100699306
58	0x3c1d478f	0.00959958
59	0xbd939cec	-0.07207665
60	0x3d84f349	0.064917155
61	0xbe48eef6	-0.19622406
62	0xbd99ce57	-0.07510059
63	0x3d5d3870	0.0540089
64	0x3d4ef3c1	0.05052543
65	0x3db55e31	0.08855856
66	0xbe21a1a2	-0.15784314
67	0xbdd4353d	-0.10361717
68	0x3d5a3814	0.053276137
69	0x3e12fb73	0.14353733
70	0xbc468929	-0.0121176625
71	0xbe1ff71e	-0.15621611
72	0x3db37a53	0.08763566
73	0x3d15bc3d	0.03655647
74	0x3dcb3051	0.09921325
75	0xba8f536a	-0.0010934894
76	0x3ce629be	0.028096076
77	0x3e1e4ed5	0.1545976
78	0xbe34da29	-0.17661346
79	0xbdcc0642	-0.09962131
80	0xbe177412	-0.14790371
81	0xbd928af9	-0.07155413
82	0xbe24c5cb	-0.16091077
83	0x3de28f83	0.11062529
84	0xbca398e6	-0.019970369
85	0xbe27350a	-0.16328827
86	0x3b99d19a	0.004694176
87	0xbdff2ea0	-0.12460065
88	0xbe175451	-0.14778258
89	0x3e0f53c1	0.13996793
90	0x3e123777	0.1427897
91	0xbdda85ff	-0.10670089
92	0xbe4a969a	-0.19784012
93	0x3e0d0ec3	0.13775162
94	0xbe6eb09c	-0.23309559
95	0x3e139f60	0.14416265
96	0xbd742ae0	-0.0596112
97	0x3c101971	0.008795128
98	0xbc076807	-0.008264548
99	0xbd9c1500	-0.07621193
100	0xbc400adf	-0.011721342
101	0xbcbff44f	-0.023431925
102	0x3e272e03	0.16326146
103	0xbe1eaee5	-0.15496404
104	0xbbaea256	-0.0053294105
105	0x3cd8a999	0.026448058
106	0x3d80c601	0.06287766
107	0xbcbb64af	-0.022875158
108	0xbe0445ac	-0.12917203
109	0xbd6969d0	-0.056985676
110	0xbdde6e19	-0.10860843
111	0x3d5edf3a	0.054412104
112	0x3d07b2b6	0.033129416
113	0xbe19f621	-0.15035297
114	0x3e47df84	0.19518858
115	0xbe0a95ab	-0.13533656
116	0x3e1624d1	0.14662482
117	0xbe14ece8	-0.14543498
118	0xbe6c5584	-0.23079497
119	0x3e02b83f	0.12765597
120	0x3e37dcb2	0.17955282
121	0xbe591d1a	-0.21202508
122	0xbe0a9929	-0.13534988
123	0x3d9bdafb	0.076101266
124	0xbd463162	-0.04838694
125	0x3cf57637	0.029963596
126	0x3d9d418a	0.07678516
127	0x3e68001d	0.22656293
128	0xbd33e9ed	-0.04392426
129	0xbd7cd258	-0.061724037
130	0xbd1d5556	-0.03841146
131	0x3d360f87	0.0444484
132	0xbd6f004f	-0.058349904
133	0x3d622cd1	0.05521852
134	0xbc8faef3	-0.017539477
135	0x3cab90b6	0.020943027
136	0x3cc38273	0.023865914
137	0xbde28fc2	-0.11062576
138	0xbe2423c3	-0.16029267
139	0x3e373b87	0.17893802
140	0x3dab4a98	0.08363837
141	0xbceefa4e	-0.029172089
142	0xbcf7a0f6	-0.03022812
143	0x3e6798ca	0.22616878
144	0x3dca63fd	0.098823525
145	0xbc93313d	-0.017967815
146	0x3d7952ac	0.060869858
147	0xbdaa04c3	-0.083016895
148	0x3e726e24	0.23674828
149	0x3d813396	0.06308667
150	0x3dffd987	0.12492662
151	0x3e205932	0.15659025
152	0x3e71a045	0.23596294
153	0xbe0faffd	-0.14031978
154	0x3c9b58c1	0.01896322
155	0x3e5cf49d	0.21577688
156	0x3e06c571	0.13161255
157	0x3cdf2351	0.02723852
158	0x3d95e8d1	0.07319797
159	0x3d460b89	0.048350845
160	0xbd981508	-0.074258864
161	0xbe03088b	-0.12796228
162	0x3e445525	0.19173105
163	0x3e01535f	0.1262946
164	0xbe66ad2f	-0.22527002
165	0xbcf2de58	-0.029647037
166	0xbe969295	-0.29408708
167	0xbdbfeabf	-0.09370946
168	0x3d8bbcb4	0.06823102
169	0x3e1c3373	0.15254001
170	0x3d8b017a	0.06787391
171	0x3e1f9144	0.15582758
172	0x3d5a4fbb	0.053298693
173	0x3d44a85b	0.04801212
174	0x3cf2225f	0.029557405
175	0x3c7a6ba5	0.0152844535
176	0x3d582949	0.052773748
177	0x3dc71bdf	0.09722113
178	0xbe24fdfb	-0.16112511
179	0x3e43b027	0.19110166
180	0xbe14009d	-0.14453359
181	0x3e3c04e9	0.18361248
182	0x3e4149bf	0.18875788
183	0xbc20c6c5	-0.009813015
184	0xbe295707	-0.16537105
185	0x3d035aba	0.032068945
186	0x3df39ee0	0.118955374
187	0xbdc28753	-0.09498467
188	0xbdd9f971	-0.1064328
189	0x3b062c4b	0.0020473178
190	0x3dc27f49	0.09496934
191	0x3da9302b	0.082611404
192	0xbe1d20f4	-0.15344602
193	0xbc903b34	-0.017606355
194	0xbda1f763	-0.079085134
195	0xbdc75e47	-0.09734779
196	0xbccad1a9	-0.024758177
197	0x3e01b7f8	0.12667835
198	0xbd6dc01d	-0.05804454
199	0xbd2857ae	-0.041099243
200	0x3e225e80	0.15856361
201	0xbd5c3341	-0.053759817
202	0x3e2e1232	0.16999128
203	0xbd8eb566	-0.06968193
204	0x3b91716f	0.004438571
205	0x3d4fa8fe	0.050698273
206	0xbe509d53	-0.20372514
207	0xbdbe6d83	-0.092982315
208	0xbc76cfce	-0.015064193
209	0xbd8c01a8	-0.068362534
210	0x3dcbb11e	0.09945892
211	0x3e033a78	0.12815273
212	0xbc701731	-0.014653967
213	0x3d4e7407	0.05040362
214	0xbdce2265	-0.10065154
215	0x3cb0e847	0.021595133
216	0x3d6a833b	0.057254057
217	0x3d7a034f	0.06103831
218	0x3e211ea4	0.15734345
219	0x3ce274bc	0.027643554
220	0xbcbf8dad	-0.023382986
221	0x3d3dd2c6	0.046343587
222	0xbd894590	-0.06702721
223	0x3d9a0f1a	0.07522412
224	0xbe29423c	-0.16529173
225	0xbc59431a	-0.013260627
226	0x3e0cafe9	0.1373898
227	0xbdc71947	-0.09721618
228	0x3e0fce65	0.14043577
229	0xbd9331fd	-0.07187269
230	0x3de4d674	0.11173716
231	0xbdaeb0a7	-0.085297875
232	0xbd809a19	-0.06279392
233	0xbd914cb3	-0.07094707
234	0x3d844fe9	0.06460554
235	0xbe216108	-0.1575967
236	0xbd946705	-0.07246212
237	0xbe2d3f52	-0.16918686
238	0xbdb1f1f9	-0.08688731
239	0xbe153ebe	-0.14574715
240	0xbdbe1ff9	-0.09283442
241	0x3d989e97	0.074521236
242	0x3dd79e95	0.10528294
243	0xbd3b82d4	-0.045779064
244	0xbdd52802	-0.104080215
245	0xbd5a0686	-0.053228877
246	0x3daa019d	0.08301089
247	0x3b5203c6	0.0032045706
248	0x3dd8f1ef	0.1059302
249	0xbd2c4a70	-0.042063177
250	0x3d850382	0.0649481
251	0xbda212a8	-0.07913715
252	0x3dc41a64	0.09575346
253	0x3e207c61	0.15672447
254	0x3d3fbce6	0.046811007
255	0x3cef127d	0.02918362

node_encoder.layers.0.bias f4 [64]
0	0x3e2e03f0	0.1699369
1	0x3cab3121	0.02089745
2	0x3da74c47	0.081688456
3	0x3e0bcd25	0.13652475
4	0xbdaf3d1c	-0.085565776
5	0xbc856f92	-0.016288552
6	0xbc5d9fef	-0.013526901
7	0x3c3f1cac	0.011664551
8	0x3dbdd72f	0.09269559
9	0x3dffcb81	0.12489987
10	0xbd8bac0d	-0.068199255
11	0xbbc586b6	-0.0060280217
12	0x3dbf55b7	0.09342521
13	0xbdbc1c62	-0.09185101
14	0x3be39680	0.006945431
15	0x3c931510	0.01795438
16	0x3c980bd7	0.018560333
17	0x3e036a41	0.12833501
18	0x3e180db8	0.14848983
19	0x3daaf8a9	0.083482094
20	0x3e20b73a	0.15694895
21	0xbd30179b	-0.042991262
22	0x3dda3691	0.10654939
23	0x3e2ddcf2	0.16978815
24	0x3d9cd497	0.07657736
25	0x3cf8f42a	0.030389864
26	0x3e28ab4a	0.16471592
27	0x3e05124d	0.12995262
28	0xbd79d877	-0.060997453
29	0x3c6cdbce	0.014456702
30	0x3d43f7a8	0.047843605
31	0x3bc9f500	0.0061632395
32	0xbd44bda8	-0.048032433
33	0x3d85636d	0.065131046
34	0x3ddf01e0	0.108890295
35	0x3dcf6e49	0.10128457
36	0x3e17f773	0.14840488
37	0xbd3dd547	-0.046345975
38	0x3beb24f2	0.007176035
39	0x3b934a71	0.004494958
40	0x3e05770f	0.13033698
41	0x3e2e6f36	0.17034611
42	0xbc06fe0a	-0.008239279
43	0x3dbba736	0.09162752
44	0x3e44c7f0	0.19216895
45	0xbc979c8f	-0.01850727
46	0x3dcc4bbe	0.09975384
47	0xbd578bf7	-0.052623715
48	0xbc72fd76	-0.014830938
49	0xbbec95d6	-0.0072200103
50	0x3da1c61c	0.078991145
51	0x3e6454fc	0.22298044
52	0x3e21ed41	0.15813161
53	0x3e10d5ea	0.14144102
54	0x3c4072ce	0.011746122
55	0xbd23d995	-0.040002424
56	0x3e00f3b4	0.12592965
57	0xbd161247	-0.036638524
58	0x3d8d344a	0.06894739
59	0x3e375df3	0.17906933
60	0x3de1b62b	0.11021074
61	0x3d2b80d3	0.041870903
62	0xb96b0363	-0.00022412608
63	0xbd90f09b	-0.07077142

node_encoder.layers.2.weight f4 [32, 64]
0	0x3e23cc7e	0.15995976
1	0x3c0e097b	0.0086692525
2	0xbd671045	-0.056412
3	0x3de9b705	0.11411861
4	0xbd1b8390	-0.037967265
5	0x3ddae2a3	0.10687759
6	0x3e00e31d	0.12586637
7	0x3d9926f5	0.074781336
8	0x3de3b576	0.11118595
9	0x3e07362e	0.13204262
10	0xbdce1141	-0.10061885
11	0xbd814e5e	-0.063137755
12	0x3d8c6209	0.06854636
13	0x3c835e14	0.01603607
14	0xbdb17204	-0.08664325
15	0x3e6b0997	0.22952877
16	0xbcdbdfed	-0.026840175
17	0x3e22a991	0.15884997
18	0x3b76319a	0.0037566186
19	0x3d0d1ad9	0.034449432
20	0xbdc95d9c	-0.09832308
21	0xbd1b018a	-0.037843265
22	0x3d632ed8	0.055464596
23	0x3d8b4531	0.068003066
24	0xbd9a9e42	-0.075497165
25	0xbe296bd5	-0.16545041
26	0x3d50a10b	0.050934833
27	0xbd84b2b1	-0.06479395
28	0xbb748444	-0.0037310282
29	0xbc5f58a0	-0.01363197
30	0x3daf12fc	0.08548543
31	0xbdf9c08c	-0.121949285
32	0x3dc3cb48	0.09560257
33	0xbd5d89cd	-0.054086495
34	0x3de415fe	0.11137007
35	0x3aa961b2	0.0012922792
36	0x3da43b71	0.0801915
37	0xbd813b83	-0.06310179
38	0xbe0ead37	-0.13933264
39	0x3d2b919a	0.041886903
40	0x3d9cc408	0.076545775
41	0x3de241a9	0.1104768
42	0x3d43e474	0.04782529
43	0xbdf259be	-0.11833523
44	0x3df018af	0.11723458
45	0x3d132356	0.03592237
46	0x3da3073a	0.07960363
47	0xbd040f85	-0.032241363
48	0xbd851f76	-0.06500141
49	0xbcc6a0ce	-0.0242466
50	0xbdbf9846	-0.09355216
51	0x3df5df3a	0.12005468
52	0x3c38bb17	0.011275074
53	0xbd12466f	-0.035711702
54	0x3b3602c8	0.0027772654
55	0x3b95aad7	0.004567485
56	0x3d0b0562	0.03394068
57	0xbd915712	-0.070966855
58	0x3bf2ae93	0.007406065
59	0x3cd02bdb	0.025411537
60	0x3d47690d	0.04868417
61	0xbd914c46	-0.07094626
62	0x3d836510	0.064157605
63	0x3d7ed879	0.062218163
64	0xbe07f987	-0.13278781
65	0x3d0a422d	0.033754516
66	0xbd99b846	-0.075058505
67	0xbd5ce95f	-0.053933498
68	0xbcd43fd9	-0.025909351
69	0x3cb993c8	0.022653475
70	0xbc9d37df	-0.01919168
71	0x3db56851	0.088577874
72	0x3e0350ca	0.12823787
73	0xbe1d1d24	-0.15343148
74	0xbc86c436	-0.016450983
75	0x3e47cef4	0.1951254
76	0xbe2be962	-0.16788247
77	0x3d815266	0.063145444
78	0x3d9139c7	0.07091098
79	0x3ca3313b	0.019920936
80	0xbde69dae	-0.11260544
81	0xbe257e89	-0.1616155
82	0x3e0b0600	0.13576508
83	0x3d5f1d3d	0.054471243
84	0xbd7e1d65	-0.06203975
85	0x3e505b37	0.20347296
86	0x3e242bbc	0.16032308
87	0x3de2cca9	0.11074192
88	0x3bafc10e	0.00536359
89	0x3e0f6ca2	0.14006284
90	0x3e433170	0.19061828
91	0x3a9656a5	0.0011469914
92	0xbd0e3edf	-0.034727927
93	0xbce9fc40	-0.028562665
94	0x3dec8bb2	0.11550082
95	0xbd54a352	-0.051913567
96	0xbe3b40df	-0.18286465
97	0x3de5d558	0.11222333
98	0xbd284b42	-0.041087396
99	0x3cd9030f	0.026490716
100	0xbcbc1465	-0.022958944
101	0xbce6b4ff	-0.028162478
102	0x3e4f99fe	0.20273587
103	0x3d422bad	0.047404934
104	0xbd690dfc	-0.056898102
105	0x3e41ff93	0.1894515
106	0xbd1eef61	-0.03880251
107	0x3dbd0f16	0.09231393
108	0xbe3b0743	-0.18264489
109	0x3d4b3d66	0.0496191
110	0xbdece908	-0.11567885
111	0x3e0490b3	0.12945823
112	0xbcde8f9a	-0.027168084
113	0xbd46e2f5	-0.048556287
114	0x3e336df5	0.17522414
115	0xbe27401a	-0.16333047
116	0x3d414558	0.047185272
117	0x3e341e67	0.17589723
118	0x3db97400	0.09055328
119	0xbda94502	-0.08265115
120	0x3e27ec2f	0.1639869
121	0x3df3ceb9	0.119046636
122	0x3c980584	0.018557318
123	0x3e3d8406	0.18507394
124	0x3de12b35	0.10994569
125	0x3e1ddf52	0.15417221
126	0xbd54fce3	-0.051998984
127	0x3df5f361	0.120093115
128	0xbdeaf589	-0.11472613
129	0x3e225cbb	0.15855686
130	0x3d440ba1	0.047862653
131	0xbba649b4	-0.005074704
132	0xbdf91981	-0.121630676
133	0xbcfe8705	-0.031070242
134	0xbde9a3b9	-0.11408181
135	0x3e043aec	0.12913102
136	0x3c2cec77	0.0105544245
137	0xbb7222fa	-0.0036947117
138	0x3dabb903	0.083848976
139	0xbc6c7031	-0.014431045
140	0x3c768b2a	0.015047828
141	0x3e082103	0.13293843
142	0xbc096c8c	-0.008387696
143	0xbe2f5b2f	-0.17124628
144	0x3c844793	0.01614741
145	0xbce7fdd9	-0.028319286
146	0xbcf34ff8	-0.029701218
147	0x3dbe055c	0.09278366
148	0xbddb1a92	-0.10698427
149	0xbc8f96fa	-0.017528046
150	0x3e164df4	0.14678174
151	0x3e19c6a6	0.15017185
152	0xbd1323e4	-0.0359229
153	0x3d6d2d88	0.05790475
154	0xbc87948c	-0.016550325
155	0x3c850e1b	0.016242078
156	0x3e1357eb	0.14389007
157	0xbddaf774	-0.10691729
158	0xbc5a7b28	-0.013335027
159	0x3de7ffd2	0.11328091
160	0xbcfd0a7b	-0.030888787
161	0x3e2110fe	0.15729138
162	0xbdb3be59	-0.0877654
163	0x3cea955e	0.028635677
164	0xbcc58641	-0.024111869
165	0xbdc9c51e	-0.0985205
166	0xbd264ab2	-0.04059858
167	0x3e0fbeb1	0.14037587
168	0xbdbae895	-0.09126393
169	0x3de1c72c	0.11024317
170	0x3b1e1f1e	0.0024127434
171	0x3dd03a94	0.10167423
172	0xbda24c70	-0.079247355
173	0xbd4aa3fb	-0.04947279
174	0x3e02d864	0.12777859
175	0x3d7ef3a9	0.06224409
176	0xbd1caab0	-0.038248718
177	0x3dea9539	0.11454243
178	0x3c8b98f0	0.0170407
179	0xbd8ab165	-0.067721166
180	0x3d998ba2	0.07497336
181	0xbd603baa	-0.0547444
182	0xbe05a745	-0.1305209
183	0xbdb9bd39	-0.090692945
184	0x3e0cdf91	0.13757159
185	0x3daf8eee	0.085721835
186	0xbdb64f81	-0.08901883
187	0x3d08f011	0.03343207
188	0x3cebf098	0.028801247
189	0xbc76375b	-0.015027846
190	0x3c567bf4	0.013091076
191	0x3da4feec	0.08056435
192	0x3e0898ef	0.1333959
193	0x3dcbc68d	0.0994998
194	0x3d42cab8	0.04755661
195	0x3cce898c	0.025212072
196	0xbdad7c9a	-0.084710315
197	0xbc842b0f	-0.016133813
198	0x3de953f4	0.11392966
199	0xbd801c5e	-0.062554106
200	0xbcae0717	-0.021243615
201	0x3e4276ba	0.18990603
202	0xbd72d297	-0.059282865
203	0xbe1866e5	-0.14883001
204	0x3c8ce265	0.017197797
205	0x3de0ca07	0.10976034
206	0xbcfaba9e	-0.030606564
207	0xbc70a1db	-0.014687027
208	0xbccfa441	-0.025346877
209	0x3e3f52a5	0.1868387
210	0x3d981a21	0.07426859
211	0xbd02da88	-0.03194669
212	0x3cc4c190	0.024018079
213	0x3be764cd	0.007061577
214	0x3cb31a09	0.021863
215	0xbcfa2ec8	-0.030539885
216	0xbbd5a594	-0.0065199826
217	0xbc653d13	-0.013991612
218	0xbd52c496	-0.05145701
219	0xbda52a14	-0.080646664
220	0x3db1271e	0.08650039
221	0x3cae2b0a	0.021260757
222	0xbd5738b9	-0.05254433
223	0xbd19a903	-0.037514698
224	0xbcc396fa	-0.023875702
225	0x3c95bb21	0.018277707
226	0x3d25832d	0.040408302
227	0xbde8b85f	-0.11363291
228	0x3e4006a4	0.18752533
229	0x3d394821	0.045234803
230	0xbe1979a3	-0.14987807
231	0x3dc10134	0.094240576
232	0x3dfe4d44	0.12417081
233	0x3cb128eb	0.021625957
234	0x3da533b8	0.08066505
235	0x3d8dc67a	0.06922622
236	0x3d410f04	0.04713346
237	0x3cc5f4d4	0.024164595
238	0xbd5577e3	-0.052116286
239	0xbccb1b42	-0.024793271
240	0x3dd95aee	0.106130466
241	0xbdf64c21	-0.12026239
242	0xbdab9a4b	-0.083790384
243	0x3ca6a1c4	0.020340808
244	0xbb477adb	-0.0030438218
245	0xbd971a6c	-0.073780864
246	0x3e139348	0.14411652
247	0xbd978d69	-0.07400019
248	0x3d06f296	0.03294619
249	0xbbd91705	-0.0066250586
250	0x3dbbf5fe	0.09177779
251	0xbdb9ee03	-0.090786
252	0x3d36c7cf	0.044624146
253	0xbbf88079	-0.0075836745
254	0x3dd0f850	0.10203612
255	0xbd9e78bf	-0.07737874

node_encoder.layers.2.bias f4 [32]
0	0xbcbd00bd	-0.023071641
1	0x3c3a74cf	0.011380388
2	0xbd813428	-0.06308776
3	0xbb3c4404	-0.0028727064
4	0x3dc9db64	0.098562986
5	0x3dc73f62	0.09728886
6	0x3d4fc8c7	0.050728586
7	0xbd9ba2a7	-0.07599383
8	0xbd2eacf9	-0.04264543
9	0x3d1ef317	0.038806047
10	0xbd15af20	-0.036543965
11	0x3c7a89e0	0.015291661
12	0x3d8153e1	0.06314827
13	0x3d6b723a	0.05748198
14	0x3e11bb20	0.14231539
15	0x3b6f83c6	0.003654705
16	0x3d8e2cf5	0.069421686
17	0x3daa6e8a	0.08321865
18	0x3cd30c57	0.02576272
19	0x3db4253b	0.08796164
20	0x3d81bcd7	0.063348465
21	0x3e06c705	0.13161857
22	0x3d49bec8	0.04925421
23	0xbd1f1d8b	-0.038846534
24	0x3a96e6fe	0.0011512933
25	0x3ddf5cec	0.10906395
26	0xbda78384	-0.081793815
27	0x3de4ffb9	0.11181588
28	0xbd44bfd2	-0.048034497
29	0x3d62cfba	0.055373885
30	0xbddfc92e	-0.10927044
31	0x3d36622d	0.04452722

state_encoder.layers.0.weight f4 [64, 2]
0	0x3eebfb75	0.46090284
1	0xbe496e4b	-0.1967098
2	0x3eb107d2	0.3457628
3	0x3e5bd887	0.21469317
4	0xbeb8d528	-0.36100125
5	0xbe448aab	-0.19193523
6	0xbeedcfa4	-0.4644748
7	0x3f320dd6	0.6955236
8	0x3eff391e	0.49848264
9	0xbe8b4105	-0.27198043
10	0x3e375291	0.1790259
11	0x3e3713f1	0.17878701
12	0x3ec1221f	0.37721345
13	0x3f2d7ec2	0.6777154
14	0x3d46af6d	0.048507143
15	0xbebdcada	-0.37068826
16	0xbdbe3ae3	-0.092885755
17	0xbe02c510	-0.12770486
18	0x3ed02d44	0.40659535
19	0xbe781203	-0.24225621
20	0x3f0aea2b	0.5426356
21	0xbf0cdc1c	-0.5502336
22	0xbcaa0f26	-0.020759176
23	0x3dd00129	0.10156471
24	0xbee2208b	-0.44165453
25	0xbdcba668	-0.09943849
26	0x3e72e270	0.23719192
27	0x3f2cfc78	0.67572737
28	0x3ec70d84	0.388775
29	0xbeb1c9e6	-0.3472435
30	0xbd9ec24a	-0.077519014
31	0x3df1a296	0.11798589
32	0xbf1e0610	-0.61728
33	0xbf03fd4c	-0.51558375
34	0x3f0cefa0	0.5505314
35	0x3f057dcf	0.52145094
36	0xbe4f4271	-0.20240189
37	0xbf04a8dc	-0.5182016
38	0xbf2a4118	-0.66505575
39	0x3c3f0eee	0.011661274
40	0xbf16e990	-0.5895014
41	0x3dd89db3	0.10576954
42	0x3f2066bc	0.6265676
43	0x3d60e6c1	0.054907564
44	0xbcd175ad	-0.025568807
45	0xbf0b0686	-0.5430683
46	0xbc712a8d	-0.014719618
47	0xbf2b6bfb	-0.6696164
48	0xbeca447b	-0.3950537
49	0x3e271878	0.16317928
50	0x3e6b8d3a	0.23003092
51	0x3b905692	0.0044048512
52	0xbeb677dc	-0.3563832
53	0x3f05eeb4	0.5231736
54	0xbe830835	-0.255922
55	0xbf1a0ec5	-0.60178787
56	0xbe41e334	-0.18934327
57	0xbf342d23	-0.70381373
58	0xbf0447d0	-0.5167208
59	0x3f18ade5	0.5964034
60	0xbf1f9b04	-0.6234591
61	0x3e91fbf1	0.2851253
62	0x3e291086	0.1651021
63	0x3eb53ae6	0.35396498
64	0xbd699f9f	-0.057036992
65	0x3e8b3ab6	0.2719323
66	0x3f00da12	0.5033275
67	0xbf1a56d1	-0.6028872
68	0x3f17e463	0.59332865
69	0xbf2b63df	-0.66949266
70	0x3db439bf	0.08800077
71	0xbee932a3	-0.45546445
72	0xbd58f835	-0.052971084
73	0x3e516b06	0.20450982
74	0x3f1a3aba	0.6024586
75	0xbdafc764	-0.085829526
76	0x3e800543	0.25004014
77	0x3dcc284b	0.09968623
78	0xbcd53209	-0.026024835
79	0x3ebb1ce2	0.36545473
80	0xbdcfd596	-0.1014816
81	0x3e23159e	0.15926215
82	0xbe96dfaf	-0.29467532
83	0x3ef43051	0.47693112
84	0xbe5e40cb	-0.21704404
85	0xbf1ffc81	-0.62494665
86	0xbe696b73	-0.22794895
87	0xbe9170f6	-0.28406495
88	0x3e29705c	0.16546768
89	0xbe8b9d55	-0.27268472
90	0x3e9806d9	0.29692724
91	0xbe8e515e	-0.27796453
92	0x3ea02166	0.3127548
93	0xbd6dccdb	-0.058056694
94	0xbe8f6581	-0.2800713
95	0xbef9b975	-0.48774305
96	0x3ed590b0	0.4171195
97	0x3bc803b9	0.0061039594
98	0x3eac0bba	0.33602697
99	0x3f2849e6	0.6573776
100	0x3eef8860	0.46783733
101	0x3e893683	0.26799402
102	0xbf347662	-0.7049314
103	0xbf00d230	-0.5032072
104	0xbe62a3db	-0.22132818
105	0x3e8ffb8e	0.28121608
106	0xbf0cf64b	-0.55063313
107	0x3f0a6742	0.5406381
108	0x3f1a126c	0.6018436
109	0xbf21a35e	-0.63139904
110	0xbecc2106	-0.39868945
111	0x3f3206ec	0.6954181
112	0xbecc7e46	-0.3994009
113	0xbe9cc775	-0.30620924
114	0x3a912ab4	0.0011075349
115	0xbf1073d5	-0.56426746
116	0x3eda34f9	0.4261854
117	0xbe35f50e	-0.17769262
118	0xbf20705c	-0.62671447
119	0xbdc88ff3	-0.09793081
120	0xbf20beff	-0.62791437
121	0x3efd86f4	0.49517024
122	0xbee2b74d	-0.44280472
123	0x3e2a636e	0.16639492
124	0xbf1eb4cf	-0.6199464
125	0x3f0e5070	0.5559149
126	0xbf09d608	-0.5384221
127	0x3f124ce9	0.57148606

state_encoder.layers.0.bias f4 [64]
0	0xbe94bf87	-0.29052374
1	0xbe2e078d	-0.16995068
2	0x3e2c59ec	0.16831177
3	0x3e8f2402	0.2795716
4	0xbf2d1707	-0.6761326
5	0x3f2091a9	0.6272226
6	0xbf1bb807	-0.6082768
7	0xbea10171	-0.31446412
8	0xbe80dd7f	-0.25168988
9	0x3f137e6f	0.576148
10	0xbee861a8	-0.45387006
11	0x3dd4334e	0.10361348
12	0x3edbfdc3	0.42967042
13	0x3e4d701f	0.20062302
14	0x3edb97c2	0.4288922
15	0x3ef925d5	0.48661676
16	0xbf30149f	-0.68781465
17	0xbea13f6a	-0.31493694
18	0xbee77485	-0.45206085
19	0xbf1adfe3	-0.60497874
20	0xbf046599	-0.51717526
21	0xbdd5cd5f	-0.10439562
22	0x3ec0ecc0	0.37680626
23	0xbde11b50	-0.109915376
24	0xbe1928bd	-0.14956947
25	0xbd604c88	-0.054760486
26	0xbf31bc22	-0.6942769
27	0xbf239784	-0.6390307
28	0xbf30164f	-0.6878404
29	0xbdf83a5d	-0.12120507
30	0xbe8fcdf1	-0.28086808
31	0x3f0bc3e5	0.54595786
32	0xbef6d86c	-0.48211992
33	0xbed20c97	-0.4102523
34	0x3f36c746	0.7139782
35	0xbc2c4f19	-0.010516905
36	0xbf139442	-0.576481
37	0xbef1fbda	-0.4726246
38	0xbf15fdeb	-0.58590573
39	0xbf1b2a02	-0.60610974
40	0xbed25130	-0.41077566
41	0xbf1dc7b9	-0.6163288
42	0xbf281ba6	-0.6566719
43	0xbf313cab	-0.69233197
44	0xbc512b84	-0.012766723
45	0x3e44a27d	0.1920261
46	0xbf2b5237	-0.66922325
47	0xbe45ea0f	-0.19327568
48	0xbf016e46	-0.5055889
49	0xbeefd122	-0.46839243
50	0x3d859725	0.06522969
51	0xbe783f9e	-0.24243018
52	0xbef774bb	-0.48331246
53	0x3f2d7825	0.6776145
54	0x3e9c6761	0.30547622
55	0xbec94e05	-0.39317337
56	0x3ea12975	0.31476942
57	0xbea8ce1e	-0.32969755
58	0xbf267aa4	-0.65030885
59	0xbf2bd877	-0.67127174
60	0x3e4a687f	0.19766425
61	0xbe8d8ffc	-0.27648914
62	0xbe29d78e	-0.16586134
63	0xbf12de77	-0.57370704
