get_descriptor_cgcnn/saved_models/gllb-sc_84.ckpt (torch, 675914 bytes, 58 tensors)

crystalGraphConvNet.embedding.weight f4 [64, 92]
0.028553491 0.060749047 -0.046502806 0.04646381 -0.025844535 0.011572929 0.06313252 -0.025354594
0.0040538167 -0.07961078 0.059532166 -0.11303856 0.10019442 0.026174089 0.040677898 -0.07344508
-0.074079566 0.00967663 0.07462388 -0.05197784 -0.09728245 0.07744079 -0.06506163 0.007542073
-0.042729527 0.0057856315 0.03056425 -0.0038078437 -0.08933648 0.059017166 0.02074419 -0.059860535
0.0970404 0.090363644 -0.0804117 0.100187734 -0.09407005 -0.030662142 0.03926789 0.019947104
0.045795657 0.08583957 -0.064906985 -0.07672474 0.032057833 -0.10051487 -0.062229045 -0.019078426
-0.0814779 0.029379293 -0.07821564 0.043381352 0.06545914 0.07129769 0.0308423 0.018119713
-0.10455638 0.060851015 0.014808661 0.09121673 -0.012201216 0.045294676 -0.0454968 0.11631915
0.072032355 -0.052180115 0.07922449 -0.042751327 -0.03416133 -0.061821718 0.041576955 0.0108807525
-0.029916553 -0.017825877 -0.02892235 -0.09841194 -0.040457252 -0.050036255 0.014585085 0.1165232
0.036433063 0.0049278005 0.021526804 -0.07769706 0.0739681 0.084056824 0.060731955 -0.04636147
-0.040814392 0.038433105 -0.008807801 -0.10120253 -0.051770646 -0.07328027 -0.1006354 0.025386875
0.112858295 0.092306815 -0.076987915 -0.055989202 -0.015804427 -0.024574302 0.08828505 -0.030393563
-0.06329148 0.047858458 0.01841985 0.06551148 -0.0074513485 -0.01423805 0.06444388 0.05320984
-0.04098527 -0.08209356 -0.06545521 -0.006310889 -0.09982646 0.06415696 0.0035966763 -0.005340399
0.103422634 -0.010414346 -0.07741031 0.054739915 0.012690777 -0.07726685 0.03738204 0.04460142
-0.05734236 0.0057540415 0.03909151 -0.029916061 0.05818199 0.05291909 0.09192339 0.0038898822
0.0248462 -0.08885984 -0.07747862 -0.021046545 -0.010626283 0.017721608 -0.021046547 0.083439805
-0.09812511 0.031165836 -0.07850146 0.060110606 -0.017565852 0.044784326 0.058404673 0.08349738
0.047210928 0.041944537 0.03258488 0.08015229 0.027843157 0.08165328 0.0064504407 0.012953081
-0.051423777 -0.064068004 0.049675226 -0.017602071 0.049551062 0.0950524 -0.10386937 -0.007488348
-0.04593171 -0.08029577 0.043324776 -0.025185447 0.07969826 0.045914717 -0.015412779 -0.01917463
0.09390994 -0.015859248 -0.100194804 -0.040408876 -0.08327743 -0.07724063 0.00613112 -0.044731442
-0.022453133 -0.096107386 0.038813777 0.07207594 0.096482866 0.06566563 0.07976272 -0.040782824
0.053735357 -0.009990527 0.014891473 -0.051406372 -0.06388171 -0.07507891 0.09823919 -0.07224141
-0.09134708 -0.077604674 -0.017924463 0.0052047838 0.06760108 -0.07631536 -0.02380424 0.039801344
0.07864541 -0.031236552 -0.040680476 0.07015593 -0.10281581 -0.028902108 -0.00688471 -0.07164834
0.040613096 -0.04129241 -0.0068039666 0.08532783 0.028970443 0.0650288 -0.06837421 -0.081447676
-0.030616023 -0.0914518 0.07452253 0.07825896 -0.05730421 -0.0120017305 -0.10685892 0.053578943
-0.07112392 0.03361234 0.065912925 -0.01909071 -0.008745616 -0.052194327 0.105582625 0.05590955
0.03558894 -0.076407135 -0.016872877 -0.06284027 0.07136679 0.10210876 0.035522796 0.055057168
-0.07479144 0.041751895 0.018404014 -0.010252421 -0.017034844 -0.077919014 -0.06297185 0.07834587
00000000: 03e9 e93c fed3 783d ba79 3ebd d650 3e3d
00000010: ebb7 d3bc 629c 3d3c 9f4b 813d 70b4 cfbc
00000020: e1d5 843b fa0a a3bd 00d8 733d c380 e7bd
00000030: bb32 cd3d 0b6b d63c de9d 263d 606a 96bd
00000040: 07b7 97bd ba8a 1e3c 68d4 983d b7e6 54bd
00000050: 053c c7bd 4799 9e3d 083f 85bd 7e23 f73b
00000060: 2805 2fbd 6595 bd3b e161 fa3c 048d 79bb
00000070: 0bf6 b6bd fcbb 713d b8ef a93c 5230 75bd
00000080: 1ebd c63d 9310 b93d e4ae a4bd 3a2f cd3d
00000090: cca7 c0bd 2c2f fbbc 5ed7 203d 1c68 a33c
000000a0: 3a94 3b3d a8cc af3d f4ed 84bd dc21 9dbd
000000b0: 134f 033d bdda cdbd e2e3 7ebd 5c4a 9cbc
000000c0: e3dd a6bd d8ac f03c 852f a0bd a5b0 313d
000000d0: 710f 863d 8604 923d fea8 fc3c cb6f 943c
000000e0: a821 d6bd ea3e 793d 07a0 723c d6cf ba3d
000000f0: 9ce7 47bc e986 393d da5a 3abd bc38 ee3d
00000100: b385 933d d1ba 55bd 7340 a23d 041c 2fbd
00000110: c0ec 0bbd c538 7dbd 994c 2a3d 2f45 323c
00000120: 8f13 f5bc 9307 92bc 90ee ecbc 338c c9bd
00000130: 81b6 25bd d1f2 4cbd 48f6 6e3c b7a3 ee3d
00000140: d63a 153d 6379 a13b fb58 b03c a31f 9fbd
00000150: 967c 973d fc25 ac3d 12c2 783d 86e5 3dbd
00000160: fe2c 27bd 086c 1d3d 984e 10bc 4643 cfbd
00000170: 750d 54bd f713 96bd ef19 cebd 23f8 cf3c
00000180: 4022 e73d 5b0b bd3d d7ab 9dbd ef54 65bd
00000190: 4978 81bc 0c50 c9bc cbce b43d ecfb f8bc
000001a0: f79e 81bd 3b07 443d 3ae5 963c e22a 863d
000001b0: 712a f4bb b646 69bc 27fb 833d 90f2 593d
000001c0: 2ce0 27bd ab20 a8bd 620d 86bd 93cb cebb
000001d0: d171 ccbd b964 833d 37b6 6b3b 84fe aebb
000001e0: 3fcf d33d efa0 2abc 4c89 9ebd f636 603d
000001f0: faec 4f3c 153e 9ebd e91d 193d fbaf 363d
00000200: d3df 6abd 668c bc3b 6b1e 203d 8712 f5bc
00000210: 3d50 6e3d b0c1 583d 5542 bc3d 65ed 7e3b
00000220: 428a cb3c 26fc b5bd 1cad 9ebd ce69 acbc
00000230: dc19 2ebc e82c 913c cf69 acbc 7de2 aa3d
00000240: d1f5 c8bd 7f4f ff3c 60c5 a0bd 8a36 763d
00000250: 43e6 8fbc c56f 373d bd39 6f3d ad00 ab3d
00000260: 3f60 413d 09ce 2b3d b977 053d e226 a43d
00000270: 5517 e43c d639 a73d 385e d33b 2939 543c
00000280: bda1 52bd 1636 83bd 4078 4b3d 3832 90bc
00000290: 0ef6 4a3d d5aa c23d 77b9 d4bd d160 f5bb
000002a0: e422 3cbd 1c72 a4bd 5275 313d b651 cebc
000002b0: d738 a33d 1211 3c3d e185 7cbc 1d14 9dbc
000002c0: db53 c03d 41eb 81bc ef32 cdbd c783 25bd
000002d0: 5b8d aabd 5630 9ebd 90e7 c83b 5138 37bd
000002e0: a2ef b7bc f3d3 c4bd 32fb 1e3d 8d9c 933d
000002f0: cf98 c53d b47b 863d a35a a33d e40b 27bd
00000300: 9b19 5c3d 4faf 23bc 5dfb 733c 7d8f 52bd
00000310: 6ad4 82bd f9c2 99bd a131 c93d 4ef3 93bd
00000320: 2e14 bbbd 33ef 9ebd 53d6 92bc e48c aa3b
00000330: 6f72 8a3d 3a4b 9cbd 1c01 c3bc bc06 233d
00000340: d810 a13d cce3 ffbc 92a0 26bd eaad 8f3d
00000350: 1891 d2bd 1dc4 ecbc 2299 e1bb 5dbc 92bd
00000360: eb59 263d 3b22 29bd cff3 debb 5bc0 ae3d
00000370: 6c53 ed3c d22d 853d c707 8cbd 0ace a6bd
00000380: 74ce fabc 154b bbbd 459f 983d 3c46 a03d
00000390: d2b7 6abd e8a2 44bc d9d8 dabd 9875 5b3d
000003a0: 6ba9 91bd 18ad 093d 5bfd 863d 1f64 9cbc
000003b0: c649 0fbc b8c9 55bd b43b d83d 6a01 653d
000003c0: b5c5 113d 587b 9cbd fd38 8abc 66b2 80bd
000003d0: c028 923d 661e d13d 5a80 113d a083 613d
000003e0: 412c 99bd 0904 2b3d 04c4 963c c5f9 27bc
000003f0: a88c 8bbc 0194 9fbd 63f7 80bd cd73 a03d

crystalGraphConvNet.embedding.bias f4 [64]
0.053043194 -0.024853278 0.05807127 -0.028166473 0.017189164 -0.07215681 -0.0072963294 0.0611722
0.043108135 -0.10010525 -0.031175096 -0.06585616 -0.07270916 0.033848453 0.0014954088 0.01901049
0.03428292 -0.08831347 -0.048870422 0.009741621 -0.099338345 -0.094640136 -0.011724376 0.060817543
-0.062196404 0.0900395 0.029930005 0.014016734 0.009021569 0.074983984 0.047185935 0.040259678
-0.033590425 -0.10340922 -0.05785638 0.022684732 0.01894381 0.020686474 -0.086034775 0.06882787
0.022050563 0.012459016 0.03968325 -0.0033873147 0.09022872 -0.044106036 0.042657137 0.0031331088
-0.07211102 0.009085552 0.07039909 -0.0587028 0.02159594 -0.104016624 -0.014498814 0.041265555
-0.059773047 -0.013691228 0.07039777 0.10022326 -0.09265216 -0.032784168 -0.02640398 -0.05837288
00000000: d243 593d 1a99 cbbc 24dc 6d3d 60bd e6bc
00000010: 4ad0 8c3c f3c6 93bd 0c16 efbb b38f 7a3d
00000020: 2892 303d fb03 cdbd ea62 ffbc 98df 86bd
00000030: 8ae8 94bd ada4 0a3d 9801 c43a e3bb 9b3c
00000040: 3f6c 0c3d b1dd b4bd 5a2c 48bd 529b 1f3c
00000050: e771 cbbd b0d2 c1bd 9917 40bc d11b 793d
00000060: a8c1 7ebd a166 b83d c52f f53c 72a6 653c
00000070: 34cf 133c 3491 993d 0a46 413d 55e7 243d
00000080: 1d96 09bd 37c8 d3bd d0fa 6cbd 55d5 b93c
00000090: 0d30 9b3c ae76 a93c 0033 b0bd a0f5 8c3d
000000a0: 62a3 b43c e720 4c3c e78a 223d b6fd 5dbb
000000b0: d6c9 b83d 88a8 34bd 40b9 2e3d d854 4d3b
000000c0: f1ae 93bd 91db 143c 662d 903d 5972 70bd
000000d0: f8e9 b03c ab06 d5bd 6f8c 6dbc 1206 293d
000000e0: 95d4 74bd 2c51 60bc b52c 903d da41 cd3d
000000f0: 6ac0 bdbd b148 06bd 294d d8bc 6718 6fbd

crystalGraphConvNet.convs.0.fc_full.weight f4 [128, 169]
-0.053189244 0.023755739 -0.0122496355 0.0012578428 -0.05666844 -0.009487126 -0.064985685 0.047614444
-0.00470237 0.037123777 0.065321796 0.007681773 0.04705227 0.024766473 0.014002895 -0.051225234
0.058922425 0.012454748 0.04228322 -0.038281303 0.037094347 -0.080086246 -0.022002023 0.0754463
-0.012218019 -0.027903352 0.060584217 0.037918374 -0.07023474 0.03353373 0.039831806 -0.044891365
0.013978152 0.06883943 0.045049634 -0.015243739 0.05740417 0.006819281 -0.027289698 0.026477994
0.008688294 -0.008101076 -0.061410055 -0.046322156 0.003813481 0.053605855 -0.04840216 0.044100497
0.03169071 -0.078585096 0.0017377672 0.032666612 -0.073710226 0.0051535014 0.07224834 -0.05405894
0.0056971638 -0.032238584 0.06971433 0.015482898 -0.031411808 -0.020559216 -0.026025182 -0.05501393
-0.01477977 -0.019833323 0.038736213 0.05918724 0.07281907 0.054382082 0.013247297 0.05372664
-0.06774531 0.0784664 -0.0027496582 -0.025019038 -0.022819059 0.038565375 0.06488294 0.07238021
0.05431425 -0.06487424 0.0038844144 0.040154617 -0.07052063 0.0182892 -0.013029427 0.07390802
-0.017165814 -0.06259401 0.003336697 0.0048004882 0.021821363 0.06650405 -0.0058280774 -0.02399707
-0.034775082 -0.007494071 -0.027987126 -0.0443621 0.0027625496 -0.051196873 -0.054641653 -0.08493376
-0.02464689 -0.031783383 -0.07376643 -0.0053154826 -0.039200608 0.07452514 0.0057500224 0.016855642
0.030773433 0.06993834 -0.06324217 0.063976675 -0.068457395 0.011846773 -0.02579716 0.033570733
0.08017603 0.0024398854 0.02710071 0.03469216 -0.047752425 0.046715204 0.06879843 0.009243906
0.035973825 -0.008723103 0.007689027 0.05805221 0.0085808635 -0.062483735 -0.07043383 -0.043155648
0.054258503 -0.08760469 0.038622674 0.044010613 -0.022894077 -0.047340054 0.073680386 -0.04899958
0.0011724134 0.07123983 -0.041070778 -0.029986722 0.07479684 0.06513954 -0.024633393 -0.06829495
-0.02578069 -0.05200488 -0.022862565 -0.010543262 0.03543635 -0.010427675 0.0025879375 -0.057595305
0.05938354 -0.07124913 0.0415453 0.055198196 0.01444139 0.037179243 0.03452734 -0.04339853
-0.019391702 -0.058478557 -0.013951908 0.014428109 0.007352924 -0.03687625 -0.025043173 -0.041824892
-0.009609951 0.0065564592 -0.051398177 -0.07088605 -0.068350635 -0.011379961 0.08243185 0.071672045
-0.03894713 0.001517827 -0.060324833 -0.005155472 -0.03358506 -0.00016926651 0.059766203 0.047323458
-0.070013106 -0.004584537 -0.051315226 0.06447175 -0.06736653 0.023792055 0.0670443 0.015198428
-0.033730034 -0.063451916 -0.020134227 0.035461966 0.012320291 -0.045667287 -0.042890504 -0.06096419
0.05672349 -0.0018205418 0.04305423 -0.03596149 0.0013504334 -0.05148157 -0.047096282 -0.031220797
0.07260828 0.012760029 0.07311718 0.0070194383 0.065272845 -0.02209779 0.019288614 -0.024655782
-0.03981311 -0.09466052 0.057921585 -0.07343147 0.028460423 -0.054052558 0.006335853 -0.027288532
-0.022973344 -0.023253428 0.03595724 0.048708815 -0.020184278 -0.024595702 0.027917992 0.03441127
0.017585518 -0.046349432 0.03056234 0.055661872 0.064604916 -0.04130864 0.037174802 0.0026450506
0.05031847 0.06057749 -0.032135278 -0.026533501 -0.023898527 0.02109903 -0.04187167 -0.05503954
00000000: f7dc 59bd 659b c23c b2b2 48bc 33de a43a
00000010: 2b1d 68bd e46f 1bbc 3717 85bd 5d07 433d
00000020: 5716 9abb 1a0f 183d 6fc7 853d 62b7 fb3b
00000030: e2b9 403d 0fe3 ca3c 666c 653c 8dd1 51bd
00000040: a458 713d 000f 4c3c 2b31 2d3d dbcc 1cbd
00000050: 3ef0 173d 4204 a4bd 963d b4bc 9783 9a3d
00000060: 162e 48bc 9295 e4bc 2827 783d 4c50 1b3d
00000070: 3bd7 8fbd aa5a 093d ad26 233d 02e0 37bd
00000080: 9e04 653c b0fb 8c3d f785 383d e0c0 79bc
00000090: a320 6b3d 4674 df3b a58e dfbc 61e8 d83c
000000a0: 5959 0e3c 60ba 04bc 1c89 7bbd 4dbc 3dbd
000000b0: 98eb 793b d091 5b3d 5841 46bd b9a2 343d
000000c0: 1ece 013d 39f1 a0bd cbc5 e33a 6dcd 053d
000000d0: 63f5 96bd b4de a83b f0f6 933d e86c 5dbd
000000e0: 46af ba3b 9b0c 04bd 63c6 8e3d fbab 7d3c
000000f0: aba9 00bd cd6b a8bc c332 d5bc 4956 61bd
00000100: d926 72bc 7e79 a2bc dda9 1e3d 526e 723d
00000110: 2a22 953d bfbf 5e3d 310b 593c 7710 5c3d
00000120: 0ebe 8abd feb2 a03d 9c33 34bb baf4 ccbc
00000130: 09ef babc baf6 1d3d 59e1 843d 133c 943d
00000140: 9e78 5e3d c9dc 84bd a991 7e3b 2b79 243d
00000150: 1f6d 90bd 3bd3 953c 6179 55bc 175d 973d
00000160: 529f 8cbc 4a31 80bd 7cac 5a3b 6a4d 9d3b
00000170: b7c2 b23c 4633 883d 75f9 bebb 8195 c4bc
00000180: 5170 0ebd d390 f5bb 4245 e5bc 09b5 35bd
00000190: e40b 353b d0b3 51bd edcf 5fbd c0f1 adbd
000001a0: 46e8 c9bc 4b2f 02bd db12 97bd 802d aebb
000001b0: d190 20bd a3a0 983d af6a bc3b d814 8a3c
000001c0: 9118 fc3c d53b 8f3d 1c85 81bd 3406 833d
000001d0: 6433 8cbd f818 423c 9154 d3bc 7781 093d
000001e0: 5533 a43d 7ce6 1f3b 4f02 de3c 5e19 0e3d
000001f0: 0c98 43bd 7158 3f3d 31e6 8c3d c073 173c
00000200: 4a59 133d 59eb 0ebc 3cf4 fb3b 27c8 6d3d
00000210: c096 0c3c f2ee 7fbd 9d3f 90bd fac3 30bd
00000220: 2a3e 5e3d 166a b3bd cf32 1e3d 7944 343d
00000230: 5c8c bbbc a5e7 41bd bee5 963d c9b3 48bd
00000240: aaab 993a 30e6 913d d539 28bd b7a6 f5bc
00000250: 162f 993d e167 853d f8cb c9bc 39de 8bbd
00000260: 0732 d3bc 1203 55bd 464a bbbc a5bd 2cbc
00000270: b525 113d d7d8 2abc 639a 293b 0ee9 6bbd
00000280: 283c 733d 10eb 91bd 682b 2a3d 8117 623d
00000290: 949b 6c3c 4349 183d 8a6c 0d3d a8c2 31bd
000002a0: 59db 9ebc 3687 6fbd 8b96 64bc e063 6c3c
000002b0: ccf0 f03b 8d0b 17bd 5727 cdbc 9450 2bbd
000002c0: 0e73 1dbc 91d7 d63b e586 52bd b52c 91bd
000002d0: 6bfb 8bbd 0473 3abc 08d2 a83d cbc8 923d
000002e0: 0787 1fbd d3f1 c63a 2c17 77bd 3cef a8bb
000002f0: 7d90 09bd 227d 31b9 68cd 743d 3ed6 413d
00000300: 0863 8fbd e239 96bb ea2f 52bd c409 843d
00000310: 77f7 89bd 8ee7 c23c 864e 893d d402 793c
00000320: 8128 0abd 14f3 81bd 89f0 a4bc 9140 113d
00000330: 0cdb 493c 9f0d 3bbd f4ad 2fbd 96b5 79bd
00000340: e456 683d 3f9f eeba a259 303d 5b4c 13bd
00000350: 0701 b13a 57de 52bd 08e8 40bd c2c2 ffbc
00000360: a6b3 943d 710f 513c 76be 953d 5103 e63b
00000370: c5ad 853d 6d06 b5bc 2803 9e3c ecfa c9bc
00000380: 1213 23bd 60dd c1bd 2f3f 6d3d 3d63 96bd
00000390: d525 e93c 3766 5dbd fd9c cf3b 338c dfbc
000003a0: 9832 bcbc f97d bebc e647 133d e582 473d
000003b0: 8059 a5bc ed7c c9bc 46b4 e43c d5f2 0c3d
000003c0: 810f 903c e7d8 3dbd df5d fa3c b4fd 633d
000003d0: 954f 843d 4033 29bd 9b44 183d 9658 2d3b
000003e0: bd1a 4e3d 1a20 783d 48a0 03bd c95c d9bc
000003f0: d8c6 c3bc dfd7 ac3c a181 2bbd 2471 61bd

crystalGraphConvNet.convs.0.fc_full.bias f4 [128]
-0.0013793921 -0.008832972 0.014035467 -0.052372057 -0.07083972 -0.015206042 -0.06249553 -0.056949332
-0.058690354 -0.002842978 0.0100793075 0.06114754 -0.0609062 -0.052972987 -0.07175299 -0.02118857
0.0016717555 -0.048556376 -0.047157217 -0.0005857218 -0.01205854 0.07163769 -0.04678861 0.024488602
-0.05477602 -0.050867416 0.07599197 -0.041012004 -0.02382597 -0.032348122 -0.05159272 0.020828202
0.027063794 0.021201808 -0.027881043 0.040862434 0.039653737 0.021072168 -0.06526073 0.07687303
0.009101626 0.028504413 -0.0600369 -0.019358402 -0.020056644 -0.041974578 -0.05468419 -0.019844955
0.022316558 -0.045475513 0.044533443 0.03734089 -0.035545535 0.059573296 -0.07656731 0.046750683
0.04319992 0.009228115 -0.01975476 -0.048794527 -0.036782246 -0.0068028653 -0.028012278 0.014552263
-0.01803898 -0.050744947 0.03707565 0.035755794 0.058273267 0.022012793 0.028305894 0.03698534
-0.014918598 -0.039337967 0.066549174 0.06801041 -0.039498247 0.050299373 -0.0023556973 -0.041222148
-0.06660453 -0.058595102 0.016654423 0.047122292 -0.047537234 -0.016731083 -0.0031977529 0.04288634
0.036603846 -0.07344846 -0.05522189 0.019969339 0.033546 -0.071230814 0.022329764 -0.0018783278
0.043873068 -0.03157902 -0.032301474 -0.030163666 0.010925204 0.027054863 -0.009970115 -0.024049815
-0.03654255 0.059448127 -0.04895282 -0.013447607 0.030005965 -0.025376067 -0.008058943 -0.04899781
0.062639564 0.055506885 0.02513957 0.07260252 -0.05334085 0.075911194 -0.022931682 -0.0018818623
-0.03374004 0.04687138 0.06320008 0.07024597 -0.004008194 -0.0020010117 0.033538498 0.07531025
00000000: b8cc b4ba 2bb8 10bc 04f5 653c 1584 56bd
00000010: 6a14 91bd c322 79bc 50fb 7fbd b443 69bd
00000020: 4c65 70bd 4251 3abb ae23 253c d875 7a3d
00000030: c878 79bd 34fa 58bd 3bf3 92bd a793 adbc
00000040: ce1e db3a 0de3 46bd ed27 41bd 208b 19ba
00000050: 2f91 45bc c8b6 923d 6aa5 3fbd 529c c83c
00000060: d25c 60bd 5a5a 50bd aea1 9b3d 34fc 27bd
00000070: ae2e c3bc 777f 04bd e352 53bd e89f aa3c
00000080: e4b4 dd3c 6aaf ad3c c966 e4bc 5e5f 273d
00000090: f56b 223d 8a9f ac3c 6ba7 85bd 9b6f 9d3d
000000a0: fd1e 153c 1682 e93c 41e9 75bd 8395 9ebc
000000b0: d54d a4bc 89ed 2bbd 87fc 5fbd e391 a2bc
000000c0: 37d1 b63c 8844 3abd b368 363d c3f2 183d
000000d0: 3298 11bd 2103 743d 52cf 9cbd a57d 3f3d
000000e0: 66f2 303d 8531 173c bcd4 a1bc c5dc 47bd
000000f0: fba8 16bd 92ea debb 017a e5bc 9d6c 6e3c
00000100: 7cc6 93bc efd9 4fbd a3dc 173d ab74 123d
00000110: f3af 6e3d 2c54 b43c c3e1 e73c f17d 173d
00000120: 236d 74bc d920 21bd ef4a 883d 0b49 8b3d
00000130: eac8 21bd b706 4e3d 0b62 1abb 8ed8 28bd
00000140: f567 88bd 6b01 70bd db6e 883c 4e03 413d
00000150: 67b6 42bd a00f 89bc 6491 51bb 96a9 2f3d
00000160: eaed 153d 256c 96bd 5930 62bd bd96 a33c
00000170: 8867 093d 76e1 91bd e9ec b63c 3932 f6ba
00000180: 3fb4 333d 0159 01bd 8d4e 04bd cb19 f7bc
00000190: a0ff 323c 29a2 dd3c b159 23bc 1e04 c5bc
000001a0: a4ad 15bd e17f 733d c182 48bd 5a53 5cbc
000001b0: 12cf f53c 78e1 cfbc a809 04bc edb1 48bd
000001c0: 2c49 803d 305b 633d 80f1 cd3c a1b0 943d
000001d0: ef7b 5abd 5477 9b3d 39db bbbc d2a8 f6ba
000001e0: ff32 0abd 34fc 3f3d 0b6f 813d 1edd 8f3d
000001f0: 2b57 83bb 6823 03bb aa5f 093d 433c 9a3d

crystalGraphConvNet.convs.0.bn1.weight f4 [128]
1.000537 1.0062237 1.0031483 0.9999282 0.9976618 1.0002723 1.0039312 1.0021799
1.0000095 1.0022662 0.9992705 1.0006814 1.0008296 1.0032643 1.0037676 0.99908906
0.99900854 1.0009222 1.0015112 1.0007008 0.9994512 1.0016997 0.9992759 1.0014544
1.0021944 1.000871 1.000408 0.9998252 0.9994821 1.0049949 1.0027825 1.0014395
0.99956495 0.9998839 1.0085784 1.0007586 1.0014849 1.0035036 1.0002581 1.0023425
1.0075862 1.0049604 0.9987442 1.0041184 1.0017855 1.0017188 1.001146 0.9986276
1.0044475 1.0000381 1.0018301 1.0013236 0.9974842 1.0025116 1.000943 0.99702054
1.0018665 0.9995853 1.005306 1.0012364 1.0068072 0.9988694 1.0003042 1.0008268
0.99809504 0.996851 0.9981294 1.0017905 0.9996796 0.99694043 1.0017002 1.0018233
0.99844205 1.0008414 1.0002352 0.997892 1.0001562 0.9997899 0.99765617 1.0004542
1.0020925 0.9986735 1.0010129 0.9964313 1.0027003 0.99833304 1.0006294 0.99970675
0.9972386 1.0002812 1.0005264 1.002589 1.0000627 1.0025954 1.0018215 0.9995023
1.00026 1.000001 1.0108862 0.99881655 0.9977527 1.0044323 1.0038192 0.9966388
0.99845564 0.9992927 1.0012411 0.9986068 1.0026432 0.99876434 1.0001707 0.99985474
1.0021819 1.0013859 1.0005555 0.99716306 1.0027068 0.9990199 0.99812615 1.0016316
1.004003 0.99734205 0.9947825 1.0028987 1.0007739 1.0022205 1.0004919 1.0015074
00000000: 9911 803f f0cb 803f 2a67 803f 4bfb 7f3f
00000010: c466 7f3f ec08 803f d180 803f 6e47 803f
00000020: 5000 803f 424a 803f 31d0 7f3f 5416 803f
00000030: 2f1b 803f f76a 803f 757b 803f 4dc4 7f3f
00000040: 06bf 7f3f 381e 803f 8531 803f f716 803f
00000050: 09dc 7f3f b237 803f 8cd0 7f3f a82f 803f
00000060: e847 803f 8a1c 803f 5f0d 803f 8bf4 7f3f
00000070: 0fde 7f3f aca3 803f 2d5b 803f 2b2f 803f
00000080: 7de3 7f3f 64f8 7f3f 1919 813f dc18 803f
00000090: a830 803f ce72 803f 7508 803f c24c 803f
000000a0: 96f8 803f 8ba2 803f b3ad 7f3f f486 803f
000000b0: 823a 803f 5238 803f 8d25 803f 0fa6 7f3f
000000c0: bc91 803f 4001 803f f83b 803f 5f2b 803f
000000d0: 205b 7f3f 4d52 803f e61e 803f bd3c 7f3f
000000e0: 293d 803f d2e4 7f3f dead 803f 8428 803f
000000f0: 0fdf 803f e8b5 7f3f f809 803f 181b 803f
00000100: 2883 7f3f a131 7f3f 6985 7f3f ac3a 803f
00000110: 01eb 7f3f 7d37 7f3f b637 803f bf3b 803f
00000120: e699 7f3f 921b 803f b507 803f da75 7f3f
00000130: 1e05 803f 3bf2 7f3f 6566 7f3f e20e 803f
00000140: 9144 803f 11a9 7f3f 3121 803f 1f16 7f3f
00000150: 7c58 803f c192 7f3f a014 803f c8ec 7f3f
00000160: 074b 7f3f 3709 803f 4011 803f d654 803f
00000170: 0e02 803f 0c55 803f b03b 803f 62df 7f3f
00000180: 8508 803f 0800 803f b864 813f 71b2 7f3f
00000190: b96c 7f3f 3d91 803f 267d 803f b823 7f3f
000001a0: ca9a 7f3f a5d1 7f3f ab28 803f b2a4 7f3f
000001b0: 9d56 803f 05af 7f3f 9805 803f 7bf6 7f3f
000001c0: 7f47 803f 6a2d 803f 3412 803f 1446 7f3f
000001d0: b258 803f c5bf 7f3f 3285 7f3f 7735 803f
000001e0: 2c83 803f cf51 7f3f 11aa 7e3f fc5e 803f
000001f0: 5c19 803f c348 803f 1e10 803f 6531 803f

crystalGraphConvNet.convs.0.bn1.bias f4 [128]
-0.0005069323 -0.0036423889 -0.0015181858 0.001553271 0.0022978901 0.00014424228 -0.0037771321 0.00070117705
0.0011520685 -0.00062678644 0.00038618257 0.00015835951 0.00038787996 -0.0025437213 0.0033971872 0.0019805967
0.0025971492 -3.731014e-05 -0.0012888705 0.00033862193 0.00086948555 -0.0004544496 -0.002099014 -0.0013100475
-0.0018513711 -0.0010695297 0.00054067455 0.0018990698 -0.0015342198 -0.0024472438 -0.0006802827 0.0014637648
0.00092916674 -0.00028789416 -0.0043716882 -0.0010268411 0.00019116224 -0.00287787 0.00091394596 -0.0024745108
-0.0022857147 -0.0015584702 0.0007076786 -0.00045834793 0.0003816493 -0.0007640572 -0.0001147752 -0.00011741136
-0.0010874973 0.00055270625 -0.001297284 -0.0019025926 0.0007805593 -0.0021934037 -0.00077079044 0.0021106475
0.0006490073 -0.00073952315 -0.00428175 2.5406887e-05 -0.0012610342 0.0004047975 0.00044885153 0.00090395514
0.0006328872 0.00083104434 0.0013570939 -4.208142e-05 0.000912362 0.0017796609 -0.0015534005 -0.0012217589
0.00095441414 -0.00039409797 6.917147e-05 0.001991236 -0.00012325442 0.00019405449 0.0010812285 -0.00057487097
-0.0007715736 0.00033873483 -0.001220537 0.0024177034 -0.0012746615 0.0008689644 1.528485e-05 0.00042536398
0.0018885094 0.00046032036 9.252607e-05 -0.0008083589 0.0012321128 -0.00087149517 -0.00047780352 0.00035026998
-0.0005207425 2.3604061e-05 -0.004998003 0.0010378178 0.0012022686 -0.0020931102 -0.0018396822 0.0014355561
-8.204199e-05 8.7390355e-05 -0.00037800366 -1.9306452e-05 -0.0022374664 0.00061564083 -3.1742677e-06 -0.0005994852
-0.0009586939 -0.00082738133 -0.00023550769 0.00055536116 -0.00031633006 -6.0080507e-05 0.0008073775 -0.00043612535
-0.0031178675 0.0010614517 0.0016560096 -0.0013476062 -0.0015610015 -0.0009257864 -0.0005104084 -0.0007689901
00000000: a7e3 04ba 25b5 6ebb ddfd c6ba 2097 cb3a
00000010: 3398 163b be3f 1739 c389 77bb 32cf 373a
00000020: 0101 973a ed4e 24ba 8c78 ca39 4f0d 2639
00000030: 5e5c cb39 90b4 26bb 58a3 5e3b e6cc 013b
00000040: ef34 2a3b 757d 1cb8 51ef a8ba 1189 b139
00000050: 30ee 633a 3143 eeb9 9c8f 09bb e6b5 abba
00000060: b5a9 f2ba 762f 8cba 0ebc 0d3a 35ea f83a
00000070: e017 c9ba f061 20bb 0055 32ba ccdb bf3a
00000080: 5393 733a 80f0 96b9 6140 8fbb 1297 86ba
00000090: b972 4839 a69a 3cbb e095 6f3a 672b 22bb
000000a0: eecb 15bb 9545 ccba 8283 393a 6b4e f0b9
000000b0: 1a18 c839 034b 48ba 77b3 f0b8 be3a f6b8
000000c0: 5b8a 8eba 7de3 103a a109 aaba 6a60 f9ba
000000d0: 739e 4c3a 35bf 0fbb df0e 4aba ca52 0a3b
000000e0: 2522 2a3a 8fdc 41ba ec4d 8cbb e020 d537
000000f0: 4949 a5ba 003b d439 d553 eb39 67f7 6c3a
00000100: 57e8 253a 71da 593a 84e0 b13a 9580 30b8
00000110: 942b 6f3a 8343 e93a 799b cbba 6d23 a0ba
00000120: a631 7a3a ef9e ceb9 2610 9138 657f 023b
00000130: db3d 01b9 1b7b 4b39 02b8 8d3a f0b2 16ba
00000140: 6e43 4aba 3898 b139 6dfa 9fba 5572 1e3b
00000150: 8b12 a7ba 37cb 633a f737 8037 6303 df39
00000160: dc87 f73a 2757 f139 8e0a c238 0ce8 53ba
00000170: d87e a13a 0d75 64ba b481 fab9 71a4 b739
00000180: 7082 08ba 5601 c637 4ac6 a3bb 6307 883a
00000190: 7195 9d3a 902c 09bb 7e21 f1ba 4529 bc3a
000001a0: f50d acb8 5745 b738 cb2e c6b9 4af4 a1b7
000001b0: 75a2 12bb f562 213a 8105 55b6 c526 1dba
000001c0: dc50 7bba 9fe4 58ba 9df2 76b9 a895 113a
000001d0: 1ad9 a5b9 f4fe 7bb8 30a6 533a c1a7 e4b9
000001e0: 2355 4cbb 6920 8b3a 760e d93a 29a2 b0ba
000001f0: 859a ccba 79b0 72ba eecc 05ba 0d96 49ba

crystalGraphConvNet.convs.0.bn1.running_mean f4 [128]
-0.009104583 -0.056043316 -0.0033461512 -0.12743081 -0.12432569 -0.07932219 -0.085888475 0.0045453277
-0.05378983 0.03573734 -0.023942905 0.11594541 -0.097055316 -0.093533374 0.0074748057 -0.08148403
-0.010557177 -0.088616185 -0.101849504 -0.08648229 -0.0030883856 -0.0171527 -0.003969845 -0.025511775
-0.13538031 -0.03966052 0.0706562 0.05586599 -0.021277633 -0.089475155 0.0008689535 -0.038444698
-0.013199057 0.06737603 -0.024335682 -0.040351216 -0.022890154 -0.025881492 0.031024303 0.066486694
0.06911779 0.052283246 -0.0105859125 0.025831046 -0.01656707 0.0028967832 -0.053003278 -0.0043209936
-0.07545454 -0.08299666 0.09599325 0.053733505 -0.08494018 0.07630354 -0.14554654 0.035883248
0.072903216 0.013535212 -0.03334438 0.0006674401 -0.11906166 0.019325338 -0.06894227 0.028702103
-0.029164204 -0.06857948 0.020387184 0.09635549 0.032031924 -0.034450807 -0.056025278 -0.03201728
-0.058824725 0.042171296 0.054471932 -0.121075764 -0.05391786 -0.021116748 -0.09146562 0.03828731
-0.106977105 -0.062486593 0.100598305 0.056780487 0.036982015 -0.060238957 0.0896216 0.08633712
0.011952214 -0.15819761 -0.04048053 0.036058445 0.061219722 -0.06753572 0.055858653 -0.089417204
-0.10046019 -0.063312866 0.02477932 -0.04699376 -0.023632627 -0.03701566 0.0136813475 -0.08685801
-0.01757141 -0.018919276 -0.02638185 -0.107769944 0.18049966 -0.047684304 0.09198818 -0.056787856
0.09655327 0.14159474 -0.042943332 0.025001626 -0.05198469 0.087366626 -0.07739306 -0.054758586
-0.06619773 0.016546693 0.025885426 0.029236548 -0.02375636 -0.042483952 0.080281585 0.16790767
00000000: 642b 15bc ad8d 65bd 1a4b 5bbb 397d 02be
00000010: 789e febd ac73 a2bd 4ce6 afbd f9f0 943b
00000020: ba52 5cbd 5161 123d e923 c4bc ca74 ed3d
00000030: f0c4 c6bd 6d8e bfbd 37ef f43b 19e1 a6bd
00000040: 02f8 2cbc 677c b5bd 7996 d0bd a01d b1bd
00000050: 8366 4abb d283 8cbc 7915 82bb 12fe d0bc
00000060: 23a1 0abe 1273 22bd 33b4 903d bdd3 643d
00000070: 6e4e aebc c03e b7bd 7bca 633a 3078 1dbd
00000080: dc40 58bc 72fc 893d a05b c7bc 5147 25bd
00000090: 2284 bbbc 6c05 d4bc ae26 fe3c 2d2a 883d
000000a0: a18d 8d3d f526 563d 8970 2dbc a19b d33c
000000b0: aab7 87bc f5d7 3d3b f719 59bd 1f97 8dbb
000000c0: e987 9abd 27fa a9bd 1c98 c43d aa17 5c3d
000000d0: 1ef5 adbd 0845 9c3d 270a 15be 50fa 123d
000000e0: 484e 953d cbc2 5d3c 1e94 08bd 26f7 2e3a
000000f0: 99d6 f3bd 2c50 9e3c 9b31 8dbd ac20 eb3c
00000100: c5e9 eebc 6673 8cbd 0603 a73c 0756 c53d
00000110: e833 033d 4a1c 0dbd c37a 65bd 8d24 03bd
00000120: 32f2 70bd cfbb 2c3d f61d 5f3d 92f6 f7bd
00000130: f9d8 5cbd 08fd acbc 5452 bbbd 28d3 1c3d
00000140: d016 dbbd f1f1 7fbd 7c06 ce3d a892 683d
00000150: 747a 173d 20bd 76bd 888b b73d 84d1 b03d
00000160: 38d3 433c 8efe 21be eace 25bd 05b2 133d
00000170: 88c1 7a3d 2b50 8abd 0bcc 643d 5e20 b7bd
00000180: 12be cdbd 2daa 81bd 00fe ca3c 877c 40bd
00000190: 3699 c1bc bc9d 17bd bb27 603c 9de2 b1bd
000001a0: ebf1 8fbc 99fc 9abc c01e d8bc 7db6 dcbd
000001b0: e7d4 383e 9e50 43bd 4d64 bc3d 629a 68bd
000001c0: b9bd c53d 36fe 103e 59e5 2fbd 36d0 cc3c
000001d0: e6ed 54bd 46ed b23d 4180 9ebd 8a4a 60bd
000001e0: ad92 87bd ee8c 873c ac0d d43c 7c81 ef3c
000001f0: b39c c2bc a703 2ebd ac6a a43d fdef 2b3e

crystalGraphConvNet.convs.0.bn1.running_var f4 [128]
0.007133044 0.010690938 0.0046581225 0.015648535 0.0112201115 0.011013087 0.0062196795 0.013405069
0.0056660976 0.009140136 0.0068859966 0.0073250695 0.010687496 0.009425121 0.01153352 0.010346879
0.0060881595 0.010046718 0.007782982 0.016993247 0.005763922 0.015203121 0.008460639 0.015659614
0.013669518 0.012949173 0.008665206 0.011583038 0.016229441 0.012372236 0.014210228 0.013796715
0.014249942 0.006692083 0.010318021 0.012901853 0.012418353 0.009626895 0.0082482025 0.010499147
0.007843334 0.008243679 0.007877727 0.0083917035 0.0122142425 0.0112914145 0.0059915194 0.0088438485
0.006922393 0.009828132 0.008016383 0.012090407 0.010630541 0.008968218 0.012296558 0.008585979
0.011874951 0.008072743 0.010676222 0.0070361607 0.015284617 0.011356864 0.008290356 0.010112249
0.015934044 0.013236211 0.009452878 0.021818725 0.013479661 0.011207246 0.012279174 0.015560198
0.012670889 0.0147949 0.016391365 0.014632966 0.010611322 0.011857588 0.0135861095 0.011343362
0.009194012 0.007992966 0.008737635 0.03240954 0.005553157 0.011539779 0.010925099 0.007962743
0.011848867 0.012937014 0.014036868 0.016303677 0.026391232 0.009062758 0.012990206 0.011525654
0.008584183 0.010882262 0.00928421 0.011668862 0.011172143 0.011216468 0.013625704 0.009431484
0.0074110804 0.009417807 0.009820898 0.010406733 0.017860133 0.008501389 0.011518775 0.010612189
0.011059421 0.009257608 0.012451207 0.014479624 0.011555604 0.013209995 0.011067318 0.014386824
0.009806912 0.013013918 0.012940528 0.008187328 0.01492771 0.014857175 0.016004784 0.0064381077
00000000: 4fbc e93b 0b29 2f3c 2aa3 983b 5b31 803c
00000010: 8fd4 373c 3c70 343c 74ce cb3b efa0 5b3c
00000020: acaa b93b 82c0 153c eda3 e13b 2307 f03b
00000030: 9b1a 2f3c d36b 1a3c 17f7 3c3c f585 293c
00000040: 2f7f c73b fd9a 243c 6308 ff3b 6c35 8b3c
00000050: 48df bc3b 8316 793c 7e9e 0a3c 9748 803c
00000060: 1df6 5f3c c528 543c 82f8 0d3c c8c6 3d3c
00000070: 9bf3 843c ebb4 4a3c 04d2 683c 9e0b 623c
00000080: 9778 693c 4349 db3b eb0c 293c 4b62 533c
00000090: 5976 4b3c 20ba 1d3c 7823 073c 9d04 2c3c
000000a0: 5481 003c 7f10 073c 9511 013c 5b7d 093c
000000b0: 3f1e 483c a0ff 383c 8254 c43b cae5 103c
000000c0: 3ed5 e23b 2c06 213c 2657 033c d816 463c
000000d0: b82b 2e3c 6fef 123c 8177 493c 35ac 0c3c
000000e0: 288f 423c 8a43 043c 52eb 2e3c 988f e63b
000000f0: 556c 7a3c 2412 3a3c 46d4 073c d9ad 253c
00000100: 1d88 823c b1dc 583c 3ee0 1a3c 2fbd b23c
00000110: ccd9 5c3c 999e 373c 972e 493c 33f0 7e3c
00000120: 8f99 4f3c 4f66 723c 2f47 863c 1cbf 6f3c
00000130: 1cdb 2d3c 5446 423c 4698 5e3c 82d9 393c
00000140: 7ba2 163c eef4 023c 4c28 0f3c debf 043d
00000150: 42f7 b53b 5711 3d3c 30ff 323c 2a76 023c
00000160: c021 423c c5f5 533c e4fa 653c 4a8f 853c
00000170: 6d32 d83c f67b 143c dfd4 543c 19d6 3c3c
00000180: aca4 0c3c 844b 323c cd1c 183c c12e 3f3c
00000190: 5d0b 373c 47c5 373c 583e 5f3c 8386 1a3c
000001a0: a6d8 f23b 254d 1a3c d5e7 203c 0081 2a3c
000001b0: 6a4f 923c 6949 0b3c 3eb9 3c3c bfde 2d3c
000001c0: 9332 353c 39ad 173c 2600 4c3c f23b 6d3c
000001d0: b753 3d3c bc6e 583c b253 353c b7b6 6b3c
000001e0: 2cad 203c 5438 553c 8204 543c 2524 063c
000001f0: 5b93 743c 826b 733c 771c 833c c3f6 d23b

crystalGraphConvNet.convs.0.bn2.weight f4 [64]
0.9903147 1.0038357 0.990891 1.0002526 0.9931007 0.98794377 1.0167328 0.99906766
0.9864253 1.0074619 1.0070765 0.99016875 1.0013934 0.9965968 0.99272126 0.9899157
0.9989106 0.9924712 1.0039871 0.99688464 1.0045536 0.9975261 0.99490136 1.00409
1.0053687 1.000778 1.001066 0.9936806 0.9869711 1.004914 1.0011339 0.99477226
1.0082936 0.9886035 1.0178705 1.0070297 0.9863225 1.007849 1.0066737 0.99345773
0.9979558 1.0011214 0.99060607 1.0019783 1.019897 0.9955937 0.99404484 1.0073057
0.9993866 0.99713093 1.00355 0.99834996 0.99847376 0.9981279 0.9892389 0.98984885
1.0066818 0.98760206 0.9868495 1.0044571 1.0012091 1.0047816 1.0004283 0.9991934
00000000: 4485 7d3f b07d 803f 08ab 7d3f 4708 803f
00000010: d93b 7e3f e2e9 7c3f 4d24 823f e6c2 7f3f
00000020: 5e86 7c3f 83f4 803f e2e7 803f b37b 7d3f
00000030: a92d 803f f820 7f3f fb22 7e3f 1e6b 7d3f
00000040: 9bb8 7f3f 9812 7e3f a682 803f d533 7f3f
00000050: 3695 803f df5d 7f3f dbb1 7e3f 0586 803f
00000060: ecaf 803f 7e19 803f ee22 803f da61 7e3f
00000070: 23aa 7c3f 06a1 803f 2825 803f 65a9 7e3f
00000080: c40f 813f 1e15 7d3f 9549 823f 59e6 803f
00000090: a27f 7c3f 3201 813f afda 803f 3f53 7e3f
000000a0: 087a 7f3f bf24 803f 5c98 7d3f d340 803f
000000b0: fc8b 823f 3bdf 7e3f b979 7e3f 65ef 803f
000000c0: cdd7 7f3f f943 7f3f 5474 803f dd93 7f3f
000000d0: fa9b 7f3f 4f85 7f3f c33e 7d3f bc66 7d3f
000000e0: f3da 803f 7dd3 7c3f 2ba2 7c3f 0d92 803f
000000f0: 9f27 803f af9c 803f 090e 803f 23cb 7f3f

crystalGraphConvNet.convs.0.bn2.bias f4 [64]
-0.003275055 -2.2054004e-05 -0.009859683 0.00021223852 -0.0002935371 -0.0066336133 -0.0028128352 -0.0016229891
-0.002083218 -0.0038541914 0.0040410487 0.00065991824 0.0015123406 -0.005963575 -0.002510507 -0.0092848465
-0.0016737974 -0.0061598667 0.0014334087 -0.0020822273 -0.0071446933 -0.0033490022 -0.006654797 0.0007501602
0.004251038 -0.006326463 -0.0020584888 -0.0049356897 -0.0045362064 -0.0069141043 -0.0008857388 -0.0037371202
0.0065978686 -0.007177979 -0.006022735 0.0040539294 -0.006817284 -0.0073319785 0.005155646 -0.008528383
-0.0019304622 -0.0054283584 -0.008685636 -0.0052193254 0.0048539853 -0.0022264363 -0.005671846 0.0012158817
-0.004625846 -0.004473227 -0.0012822157 -0.0023421326 -0.0014422567 -0.00040412284 -0.0050286246 -0.0025405788
-0.0072526555 -0.0013842864 -0.0031669242 -0.00040227766 -0.0005740404 -0.001871202 -0.0028054279 -0.0030959365
00000000: 4ea2 56bb 9d00 b9b7 828a 21bc 588c 5e39
00000010: e2e5 99b9 c85e d9bb 8b57 38bb 7aba d4ba
00000020: 9986 08bb 9a96 7cbb c66a 843b 5dfe 2c3a
00000030: bb39 c63a 186a c3bb 5187 24bb 781f 18bc
00000040: 5263 dbba b5d8 c9bb 37e1 bb3a fa75 08bb
00000050: 081e eabb ef7a 5bbb 7c10 dabb 66a6 443a
00000060: 4b4c 8b3b 384e cfbb b6e7 06bb 91bb a1bb
00000070: 75a4 94bb b68f e2bb ed30 68ba 79ea 74bb
00000080: ef32 d83b 4135 ebbb 5d5a c5bb d3d6 843b
00000090: 8663 dfbb 1841 f0bb b1f0 a83b a2ba 0bbc
000000a0: 9007 fdba 5fe0 b1bb 334e 0ebc e006 abbb
000000b0: 2e0e 9f3b 67e9 11bb e5da b9bb 385e 9f3a
000000c0: 6994 97bb 2694 92bb 0510 a8ba 777e 19bb
000000d0: 1b0a bdba 73e0 d3b9 29c7 a4bb d77f 26bb
000000e0: afa7 edbb f270 b5ba 2c8c 4fbb cbe8 d2b9
000000f0: 337b 16ba 1f43 f5ba 45db 37bb 32e5 4abb

crystalGraphConvNet.convs.0.bn2.running_mean f4 [64]
4.985566 4.891516 4.8211656 5.1691647 5.1978374 5.196561 4.824182 4.9774666
4.9216805 4.46477 5.172824 5.0348134 4.810384 5.1535997 4.9928603 5.2135587
4.8352256 5.407193 4.987445 5.2426195 4.868754 5.3109474 5.112138 4.9551644
5.392105 4.675875 4.9771075 4.788181 4.5997167 5.056954 5.1957235 4.949151
4.7982464 4.799922 4.5264564 4.753669 5.1516986 4.410264 5.2440825 4.5496354
4.876436 4.567287 4.924343 4.8175664 5.30985 4.6825504 4.9359055 5.078536
5.0338755 4.739347 4.8358645 4.6006284 5.0294814 5.160979 4.713724 4.875121
5.0073395 5.107295 5.182913 4.4997106 4.7036815 5.10248 5.264354 4.6152325
00000000: c289 9f40 4d87 9c40 fd46 9a40 cc69 a540
00000010: af54 a640 3a4a a640 b35f 9a40 6847 9f40
00000020: 687e 9d40 65df 8e40 c687 a540 311d a140
00000030: aaee 9940 4aea a440 83c5 9f40 79d5 a640
00000040: 2bba 9a40 ba07 ad40 2699 9f40 8ac3 a740
00000050: d5cc 9b40 48f3 a940 a296 a340 b590 9e40
00000060: 208c ac40 c5a0 9540 7744 9f40 c738 9940
00000070: e130 9340 91d2 a140 5e43 a640 725f 9e40
00000080: 3c8b 9940 f698 9940 bbd8 9040 0e1e 9840
00000090: b7da a440 e220 8d40 86cf a740 9d96 9140
000000a0: c40b 9c40 3727 9240 3894 9d40 8129 9a40
000000b0: 4bea a940 74d7 9540 f0f2 9d40 5e83 a240
000000c0: 8215 a140 bba8 9740 67bf 9a40 5938 9340
000000d0: 83f1 a040 bd26 a540 d4d6 9640 fe00 9c40
000000e0: 203c a040 f66e a340 6cda a540 a1fd 8f40
000000f0: 8f84 9640 8447 a340 9775 a840 fcaf 9340

crystalGraphConvNet.convs.0.bn2.running_var f4 [64]
12.9744835 6.0478873 14.808693 9.49968 14.134327 16.244452 10.453417 13.245403
16.76209 4.895754 18.301273 18.074085 10.655683 13.955602 10.258094 13.555021
10.623208 19.270435 11.768749 11.708493 5.891183 11.660102 12.593738 10.144359
14.49269 6.663019 8.713288 8.654058 8.945877 9.769924 11.369468 9.793219
4.809553 12.155313 9.192252 12.789803 14.235829 7.930095 11.550039 5.1315165
6.957892 9.532579 10.139083 8.623463 19.849136 8.087967 8.34527 13.893212
20.841732 7.6682715 9.242156 5.356438 10.761708 10.759491 8.40768 9.211511
17.605806 9.208719 18.09254 5.20135 6.974693 11.598144 13.750858 5.950921
00000000: 7c97 4f41 4b88 c140 68f0 6c41 b0fe 1741
00000010: 3426 6241 a3f4 8141 3241 2741 2ced 5341
00000020: c318 8641 04aa 9c40 0269 9241 ba97 9041
00000030: ad7d 2a41 254a 5f41 2721 2441 5ee1 5841
00000040: a9f8 2941 da29 9a41 cc4c 3c41 fd55 3b41
00000050: 9284 bc40 c78f 3a41 f37f 4941 4b4f 2241
00000060: 0fe2 6741 7437 d540 a169 0b41 0677 0a41
00000070: 5022 0f41 9c51 1c41 57e9 3541 06b1 1c41
00000080: dce7 9940 297c 4241 7713 1341 08a3 4c41
00000090: f5c5 6341 57c3 fd40 f6cc 3841 6235 a440
000000a0: 0da7 de40 7285 1841 af39 2241 b4f9 0941
000000b0: 08cb 9e41 5068 0141 3a86 0541 994a 5e41
000000c0: debb a641 7b62 f540 dfdf 1341 f167 ab40
000000d0: f52f 2c41 e026 2c41 db85 0641 5962 1341
000000e0: b1d8 8c41 ea56 1341 86bd 9041 7671 a640
000000f0: af30 df40 ff91 3941 8403 5c41 f26d be40

crystalGraphConvNet.convs.1.fc_full.weight f4 [128, 169]
-0.060817365 0.005963123 0.06446817 0.070633106 0.07626015 -0.011745577 0.0079657575 0.0075950176
-0.027585972 0.07707561 0.058085978 0.024290629 -0.07668032 -0.02734166 0.0025470017 -0.034388207
-0.02012914 0.00397251 0.06787206 -0.040471062 -0.034585334 0.034013435 0.024453118 -0.0052803718
-0.057114415 0.06743391 -0.07420042 0.04011207 0.0042214827 -0.014183013 0.0663804 -0.017763723
-0.02403399 0.007370534 0.069510184 -0.01136234 -0.016303536 0.025721092 0.0100273425 0.026988462
0.0116374595 -0.04647238 -0.06486113 -0.006706309 -0.024035236 -0.017548755 0.011550083 -0.07481574
-0.029692953 -0.014922559 -0.0069524474 -0.04896347 0.07213956 0.020093802 -0.050204616 0.061405666
0.016865406 0.038196668 -0.07111885 0.042986587 0.03848569 0.05269937 -0.041271254 0.07692564
0.007403505 0.024248568 0.05204226 -0.021076702 0.06943343 0.04006424 0.04592903 -0.063072145
-0.07186008 -0.020215051 0.05286895 0.07330041 -0.025696032 -0.0747467 0.0055725896 0.07665622
0.056376368 0.042963378 0.033328906 -0.011558586 0.023133641 -0.059750937 -0.059338912 -0.030434087
0.040188864 0.034548935 -0.068811215 0.06869457 -0.07099775 0.017050136 -0.01461879 -0.035212375
-0.055515554 0.023505116 0.06885496 0.07291862 0.03177899 0.010375717 0.04669267 0.050971847
0.00037512777 0.07435691 0.036585454 -0.018430138 0.011494383 0.06659434 0.016297696 -0.0279442
0.016424634 0.05924983 -0.06062137 -0.0046923463 -0.03989213 0.0052109296 -0.04518747 -0.0436038
-0.0043879338 -0.05932341 0.044972025 0.05952184 -0.04458453 -0.03394688 0.023303395 -0.06637105
-0.04828276 -0.008076429 0.072508015 -0.03549264 -0.06875694 -0.07264461 -0.023259755 -0.031191308
0.075996436 0.02402977 0.03258209 0.03521132 -0.04084532 -0.023979142 0.034264486 -0.021335477
-0.03200996 -0.07051354 0.032749932 0.0047860728 0.037580937 0.07014732 -0.025509382 0.015260477
-0.014540069 -0.05222726 -0.04179694 -0.07183926 -0.013875659 0.07389623 -0.049227364 0.048770558
0.011585759 0.04884618 0.02393299 0.015193848 -0.013145392 0.013683797 0.0014505204 -0.032486532
0.03884057 0.047248974 0.03187213 -0.008441947 0.04897665 0.012800911 0.021626115 0.040655475
-0.070156954 0.066324525 0.0040731155 -0.008067305 0.0037335225 -0.006320848 -0.058277432 -0.0788839
-0.014580149 0.06493864 0.009780783 0.061218124 0.05836579 0.07644909 -0.020441579 0.055644624
-0.015293501 0.013311082 0.05442153 -0.06934833 0.026419368 0.022657791 -0.0038266699 -0.002913636
-0.029769847 0.035718 0.04484578 0.07181747 -0.064355895 0.010524823 -0.03191178 0.025079863
0.044084128 -0.061052892 -0.029444875 -0.05183278 -0.022944193 -0.0043187253 0.055954933 0.06930227
0.07983354 0.06265369 0.078099936 -0.042395048 0.067470975 -0.020358913 -0.0039665313 -0.049239535
0.064455256 -0.033080712 -0.021635475 0.04421535 -0.0025169505 0.03273416 -0.014001676 -0.0625932
0.008555325 0.067808755 -0.05305698 0.0016642691 -0.00237937 -0.05100816 0.0048403633 0.050909474
-0.035063762 0.021492451 0.05022474 -0.008168289 0.001432762 0.0008347803 -0.0054642446 -0.03132505
0.053790495 0.006535086 -0.028302182 -0.010902138 -0.03343231 0.036981296 0.052803937 -0.06606602
00000000: a11b 79bd 4d66 c33b e307 843d 17a8 903d
00000010: 482e 9c3d 8570 40bc cf82 023c a0df f83b
00000020: fafb e1bc d1d9 9d3d 90eb 6d3d 24fd c63c
00000030: 920a 9dbd 9efb dfbc 99eb 263b a6da 0cbd
00000040: dee5 a4bc d42b 823b 8200 8b3d fcc4 25bd
00000050: 5aa9 0dbd ac51 0b3d e851 c83c f806 adbb
00000060: cef0 69bd ca1a 8a3d 64f6 97bd 8e4c 243d
00000070: 5d54 8a3b de5f 68bc 72f2 873d 3a85 91bc
00000080: eee2 c4bc 8584 f13b 5b5b 8e3d 1c29 3abc
00000090: fe8e 85bc 0ab5 d23c b949 243c e816 dd3c
000000a0: 0bab 3e3c d359 3ebd ead5 84bd 99c0 dbbb
000000b0: 8be5 c4bc 68c2 8fbc 8f3c 3d3c ff38 99bd
000000c0: a33e f3bc c07d 74bc 5bd1 e3bb eb8d 48bd
000000d0: e8bd 933d c29b a43c 5ba3 4dbd 8284 7b3d
000000e0: 5229 8a3c 1c74 1c3d c2a6 91bd b412 303d
000000f0: 2ca3 1d3d 4bdb 573d 0c0c 29bd 318b 9d3d
00000100: 1a99 f23b efa4 c63c 442a 553d 0ca9 acbc
00000110: 1d33 8e3d 671a 243d 1420 3c3d f82b 81bd
00000120: 612b 93bd 099a a5bc 1d8d 583d 861e 963d
00000130: 7c80 d2bc cc14 99bd 459a b63b f0fd 9c3d
00000140: e8ea 663d 5efa 2f3d e483 083d 3960 3dbc
00000150: c382 bd3c 66bd 74bd 5c0d 73bd e850 f9bc
00000160: 149d 243d 2f83 0d3d e5ec 8cbd bdaf 8c3d
00000170: 4567 91bd baac 8b3c a683 6fbc da3a 10bd
00000180: 4764 63bd cd8d c03c d403 8d3d 5c56 953d
00000190: b02a 023d e9fe 293c d040 3f3d dbc7 503d
000001a0: ccac c439 7048 983d a1da 153d cdfa 96bc
000001b0: f052 3c3c 9d62 883d bf82 853c 3ceb e4bc
000001c0: f48c 863c f3af 723d 1d4e 78bd 41c2 99bb
000001d0: ee65 23bd 72c0 aa3b 7f16 39bd e699 32bd
000001e0: a8c8 8fbb 1bfd 72bd 9634 383d 2ccd 733d
000001f0: 459e 36bd e20b 0bbd c3e6 be3c 8ced 87bd
00000200: 25c4 45bd 0053 04bc 157f 943d bb60 11bd
00000210: 70d0 8cbd b3c6 94bd 3e8b bebc ea84 ffbc
00000220: 05a4 9b3d 15da c43c cc74 053d bf39 103d
00000230: 6c4d 27bd e86f c4bc eb58 0c3d bdc7 aebc
00000240: e01c 03bd 6769 90bd cb24 063d 7dd4 9c3b
00000250: 78ee 193d 66a9 8f3d 0df9 d0bc 1407 7a3c
00000260: 7839 6ebc 40ec 55bd 4533 2bbd 7620 93bd
00000270: bb56 63bc e856 973d a2a2 49bd a3c3 473d
00000280: 32d2 3d3c ef12 483d 1e0f c43c 9eef 783c
00000290: c55f 57bc 0132 603c 631f be3a 9910 05bd
000002a0: 4a17 1f3d 2488 413d 5a8c 023d 1850 0abc
000002b0: bd9b 483d eaba 513c 4029 b13c 5b86 263d
000002c0: 73ae 8fbd 27d5 873d c577 853b bb2c 04bc
000002d0: 1dae 743b 1e1f cfbb 51b4 6ebd e28d a1bd
000002e0: 94e1 6ebc 8dfe 843d 943f 203c dbbf 7a3d
000002f0: f710 6f3d 5791 9c3d 1975 a7bc 9eeb 633d
00000300: 9891 7abc b916 5a3c 1ce9 5e3d 7f06 8ebd
00000310: 6e6d d83c d59c b93c dec8 7abb b3f2 3ebb
00000320: e5df f3bc 0a4d 123d 35b0 373d 0a15 933d
00000330: 06cd 83bd 4f70 2c3c edb5 02bd 4974 cd3c
00000340: 8f91 343d 9912 7abd 6136 f1bc 9c4e 54bd
00000350: 76f5 bbbc 1884 8dbb 0031 653d 59ee 8d3d
00000360: c47f a33d 9450 803d dcf2 9f3d 6ea6 2dbd
00000370: 392e 8a3d bcc7 a6bc adf9 81bb 65af 49bd
00000380: 1e01 843d a47f 07bd e13c b1bc 281b 353d
00000390: 6cf3 24bb 4114 063d 4967 65bc dd30 80bd
000003a0: a22b 0c3c 51df 8a3d 4752 59bd 9b23 da3a
000003b0: 34ef 1bbb efed 50bd e99b 9e3b 7486 503d
000003c0: 059f 0fbd f010 b03c 75b8 4d3d 4ad4 05bc
000003d0: 84cb bb3a 28d5 5a3a 680d b3bb b24e 00bd
000003e0: 6c53 5c3d 4624 d63b fad9 e7bc e29e 32bc
000003f0: 51f0 08bd b379 173d f148 583d 9f4d 87bd

crystalGraphConvNet.convs.1.fc_full.bias f4 [128]
0.06539935 -0.06738579 -0.01650184 -0.037193593 0.007527319 0.05987571 -0.06258582 -0.022686537
-0.048156228 0.03167524 -0.052153774 0.022138486 -0.060187615 -0.024487294 -0.02063379 0.0074292077
-0.026811345 -0.023221934 -0.06993699 -0.010179777 -0.047316663 0.026570367 -0.064127706 -0.024909047
-0.06345476 0.076113395 0.03407339 -0.033024002 -0.06798984 0.06767298 -0.025703587 0.029107947
0.042552985 -0.038471308 -0.015508967 -0.010813365 -0.07179071 0.014770939 0.022312412 0.0011196701
-0.0010837015 0.020713046 -0.01599829 -0.057849564 0.043201733 0.0027128805 -0.042725105 0.03228296
-0.014332277 0.014149015 0.028006133 -0.006388875 -0.018829841 0.031894997 -0.06651635 0.06604579
-0.006182063 0.025395786 -0.06902955 -0.033044744 -0.0741651 -0.014755305 0.026167687 0.059288368
-0.06842296 0.017210465 -0.0423689 0.073368736 -0.06964489 -0.0074147983 -0.06290642 0.032732774
0.026534146 -0.016612971 -0.0047149546 0.048567884 -0.024084743 0.052092914 0.059156228 0.07024669
-0.05374301 -0.032180823 0.02089198 0.0024138617 -0.015022389 0.012218468 0.014642775 -0.031416986
0.04427689 0.049506243 -0.059046224 0.037763167 -0.021990318 -0.020788359 -0.06783306 -0.016084708
-0.0031201418 0.053732105 0.06742207 -0.03528675 -0.03782642 0.0064514214 -0.029574754 0.062084593
-0.016249465 0.06573069 0.06689693 0.064459845 0.01256962 -0.07512849 0.018593239 -0.05922447
-0.054523937 -0.026382474 0.021860048 0.0071064658 -0.052556414 0.064833395 0.036102463 0.07350882
-0.0112475855 -0.019753378 -0.028492406 0.07470151 -0.059520368 0.053381912 0.04711708 0.06583319
00000000: 18f0 853d 9001 8abd de2e 87bc 4f58 18bd
00000010: baa7 f63b 3c40 753d ff2c 80bd 1ed9 b9bc
00000020: 773f 45bd e5bd 013d 329f 55bd c55b b53c
00000030: 4a87 76bd 9499 c8bc 3208 a9bc b670 f33b
00000040: 77a3 dbbc ed3b bebc 203b 8fbd 14c9 26bc
00000050: 1ecf 41bd 19aa d93c 6355 83bd 0f0e ccbc
00000060: 92f4 81bd 57e1 9b3d 8a90 0b3d 2d44 07bd
00000070: 423e 8bbd 2298 8a3d 5490 d2bc ca73 ee3c
00000080: 0a4c 2e3d 1794 1dbd 5319 7ebc 8a2a 31bc
00000090: 0207 93bd cf01 723c 85c8 b63c e5c1 923a
000000a0: fd0a 8eba 68ae a93c d90e 83bc aaf3 6cbd
000000b0: 4df4 303d 95ca 313b 8500 2fbd 233b 043d
000000c0: edd1 6abc 45d1 673c 1e6d e53c c559 d1bb
000000d0: 0a41 9abc 54a4 023d b939 88bd 0443 873d
000000e0: e792 cabb d30a d03c 5d5f 8dbd ed59 07bd
000000f0: dfe3 97bd 3cc0 71bc 9e5d d63c 5cd8 723d
00000100: 5621 8cbd f6fc 8c3c 038b 2dbd 5942 963d
00000110: fba1 8ebd d6f7 f2bb 15d5 80bd cd12 063d
00000120: 235e d93c ed17 88bc e87f 9abb 1eef 463d
00000130: 5e4d c5bc 615f 553d cd4d 723d 7fdd 8f3d
00000140: a121 5cbd 0ad0 03bd a825 ab3c e131 1e3b
00000150: 7720 76bc f82f 483c 40e8 6f3c 19af 00bd
00000160: af5b 353d 0fc7 4a3d 74da 71bd 8dad 1a3d
00000170: 0a25 b4bc 594c aabc 0fec 8abd 14c4 83bc
00000180: 4b7b 4cbb 3216 5c3d 9514 8a3d d788 10bd
00000190: e0ef 1abd 7266 d33b c146 f2bc 6a4c 7e3d
000001a0: 991d 85bc d09d 863d 4201 893d 8603 843d
000001b0: cff0 4d3c f7dc 99bd d950 983c 5c95 72bd
000001c0: 7e54 5fbd 0f20 d8bc d813 b33c 5bdd e83b
000001d0: 6545 57bd 5fc7 843d 2de0 133d cb8b 963d
000001e0: cb47 38bc d6d1 a1bc e868 e9bc 1bfd 983d
000001f0: a1cb 73bd fea6 5a3d d7fd 403d 8dd3 863d

crystalGraphConvNet.convs.1.bn1.weight f4 [128]
0.9997048 0.999922 1.0004821 0.9994208 1.0022727 1.0019528 0.9995667 0.997868
1.0047863 1.0006293 0.9994663 1.0001359 1.0005424 1.0018983 1.0056988 1.0001312
0.9994387 0.9991488 0.999608 1.0045079 1.0001348 1.0000615 1.0004256 0.9995138
0.99998033 1.0011696 1.0017364 1.0019795 0.9979538 1.0000215 0.9990936 0.99945736
1.0013447 1.0012645 0.99918944 1.0015253 1.0018905 1.0005778 0.999844 0.9996442
1.000171 1.0101992 1.000108 1.0004137 1.0038226 0.9974476 1.0018426 1.0018389
1.0038329 1.000401 0.99784255 1.0008674 0.99981445 1.0018976 1.0038635 0.9980806
1.0036734 1.0017481 1.001133 1.0036055 1.001347 1.0005896 0.9985876 1.0041482
0.99961877 1.0016948 0.99846166 1.0014255 1.0025587 0.9963837 1.000405 1.0021071
0.99659276 0.9990421 1.0025362 1.0009763 1.00041 1.0003492 0.9981963 1.0008849
1.0017492 1.0016036 0.9991987 1.0047791 1.0011469 0.998724 0.999556 0.9999143
1.0009093 1.001041 0.9975521 0.9988987 1.0004276 0.9991081 1.0014786 1.0013441
1.0009052 0.99851114 1.0007244 1.0010769 0.9986111 1.0003552 0.99998903 1.0007747
1.000397 1.0006149 1.0002463 1.0004189 0.9987075 1.0027112 1.0002465 0.99750805
0.99805284 0.9992489 1.0027655 0.99979824 1.002085 0.9988115 0.99886346 1.0020485
1.0059181 0.99973655 0.9985744 0.9981222 1.0004944 1.0001917 1.002934 0.99705064
00000000: a7ec 7f3f e3fa 7f3f cc0f 803f 0bda 7f3f
00000010: 794a 803f fd3f 803f 9ae3 7f3f 4774 7f3f
00000020: d69c 803f 9f14 803f 06dd 7f3f 7404 803f
00000030: c611 803f 343e 803f bdba 803f 4d04 803f
00000040: 37db 7f3f 37c8 7f3f 4fe6 7f3f b793 803f
00000050: 6b04 803f 0402 803f f20d 803f 23e0 7f3f
00000060: b6fe 7f3f 5326 803f e638 803f dd40 803f
00000070: e679 7f3f b400 803f 99c4 7f3f 70dc 7f3f
00000080: 102c 803f 6f29 803f e1ca 7f3f fb31 803f
00000090: f33d 803f ef12 803f c7f5 7f3f afe8 7f3f
000000a0: 9a05 803f 354e 813f 8a03 803f 8e0d 803f
000000b0: 427d 803f ba58 7f3f 613c 803f 423c 803f
000000c0: 997d 803f 240d 803f 9c72 7f3f 6c1c 803f
000000d0: d7f3 7f3f 2e3e 803f 997e 803f 3682 7f3f
000000e0: 5f78 803f 4839 803f 2025 803f 2576 803f
000000f0: 232c 803f 5213 803f 70a3 7f3f ee87 803f
00000100: 04e7 7f3f 8937 803f 2f9b 7f3f b62e 803f
00000110: d853 803f 0113 7f3f 450d 803f 0c45 803f
00000120: b420 7f3f 39c1 7f3f 1b53 803f fe1f 803f
00000130: 6f0d 803f 710b 803f cb89 7f3f ff1c 803f
00000140: 5139 803f 8c34 803f 7ccb 7f3f 9a9c 803f
00000150: 9525 803f 60ac 7f3f e7e2 7f3f 62fa 7f3f
00000160: cc1d 803f 1d22 803f 935f 7f3f d3b7 7f3f
00000170: 030e 803f 8cc5 7f3f 7330 803f 0b2c 803f
00000180: a91d 803f 6d9e 7f3f bd17 803f 4a23 803f
00000190: faa4 7f3f a40b 803f 48ff 7f3f 6319 803f
000001a0: 020d 803f 2614 803f 1208 803f ba0d 803f
000001b0: 4bab 7f3f d758 803f 1408 803f b05c 7f3f
000001c0: 6480 7f3f c7ce 7f3f 9f5a 803f c7f2 7f3f
000001d0: 5244 803f 1cb2 7f3f 84b5 7f3f 2043 803f
000001e0: edc1 803f bcee 7f3f 92a2 7f3f f084 7f3f
000001f0: 3310 803f 4806 803f 2460 803f b63e 7f3f
