get_descriptor_cgcnn/saved_models/gllb-sc_252.ckpt (torch, 675914 bytes, 58 tensors)

crystalGraphConvNet.embedding.weight f4 [64, 92]
0.07903774 -0.0025326018 0.060454313 0.010063868 0.10103634 0.013785798 -0.10238362 -0.03164097
0.08322322 -0.046600886 0.061533146 0.06280555 -0.07705049 0.041420728 0.049003627 -0.02734483
0.08623683 -0.0025927452 -0.0018163277 0.056679096 -0.09558432 0.047859788 -0.09171107 -0.020940615
-0.009695188 0.0784061 0.070284665 0.05495385 0.06257239 0.045393072 -0.07225344 0.10022428
-0.0068061985 -0.03372704 0.004492369 0.017189449 -0.09409653 -0.08523911 -0.061132222 -0.07438241
-0.06510521 -0.053470477 0.034401584 0.105575316 -0.058728486 0.02049669 0.010537311 -0.097050786
0.06452386 -0.02144542 0.06420132 -0.06453341 -0.0015024266 0.004311846 -0.009868832 -0.06416496
0.009638432 -0.06218511 -0.030851737 0.102755666 0.025269222 0.02308408 0.021555139 -0.015258021
0.016103907 -0.064370885 0.033906627 0.043297943 -0.07068793 -0.031953238 -0.014992989 -0.10230747
-0.016613066 -0.04998682 0.04180297 0.046761513 -0.03368934 0.0524584 0.102545634 -0.040362194
-0.07920674 0.023004593 0.036630232 -0.028507182 -0.05753936 -0.08351532 0.08157838 -0.03489826
0.037699323 -0.06462132 0.06119601 0.018010478 -0.028267935 -0.03172483 0.049671866 0.009507899
-0.017402202 -0.010544515 0.056062378 -0.10156167 -0.07346269 -0.056512013 -0.024995133 -0.047327973
-0.08031637 -0.076173276 -0.053866547 -0.037513934 0.09073986 -0.025229925 -0.06888288 0.016261043
0.06483324 0.07480891 -0.00865578 -0.09233446 -0.046082884 0.04137759 -0.0025056624 0.040965702
0.026301503 0.028348496 -0.06644829 0.018218054 -0.09990226 -0.026546417 0.09218815 -0.00047267033
-0.071119905 0.07955596 0.046474937 0.035940245 0.03012281 0.022122698 0.06105016 0.003017622
0.0015951211 0.049102195 -0.084612474 0.06032288 0.061574847 0.06428271 0.007083724 -0.10337335
0.038156364 0.100092396 -0.049731884 -0.055231556 0.10298333 -0.084266745 -0.09721675 -0.04035426
0.0010334232 -0.025122212 -0.042005084 -0.005388576 -0.09265686 -0.08188409 -0.06789733 -0.04955516
-0.09707396 0.058380052 0.06689195 -0.08941027 -0.03589273 0.022913525 -0.028249891 -0.050170545
0.059474636 0.05268874 0.05700391 0.053226113 0.041285694 0.09749822 0.068737715 0.09569973
0.044813927 -0.067623876 -0.06722823 -0.10946257 -0.095657796 -0.06160671 -0.02601334 0.046450123
-0.04196191 0.087591715 -0.06819162 0.07718025 0.055299453 0.079122104 -0.05418593 -0.053682044
-0.0017185522 0.072390154 0.064632796 -0.026543075 -0.106390536 0.045176134 0.057187945 -0.11184251
0.036607407 0.05922217 0.06440256 0.022941476 -0.02541617 -0.010501108 0.017468002 0.11984649
0.009061387 0.09862404 -0.11086425 0.08039297 -0.07408598 -0.017142 0.037392046 0.078401916
-0.026413897 -0.014974772 -0.016179953 0.04630541 0.01207277 -0.006030477 0.06610797 0.075437136
-0.0380185 -0.08547876 -0.039521076 0.049079422 0.06329559 0.06480177 0.042648867 0.0014348386
-0.007246872 0.09521338 0.07444305 0.0203379 -0.0005210119 -0.04772236 -0.09982091 0.026330017
-0.007046678 0.08852389 0.06713366 -0.010265962 -0.032628804 0.050368167 0.054655395 0.026428947
-0.07255685 -0.06091297 0.05689698 0.06561829 -0.01837326 -0.025355918 0.07939921 0.100697264
00000000: 8ade a13d 02fa 25bb f19e 773d ece2 243c
00000010: 24ec ce3d d4dd 613c 81ae d1bd f699 01bd
00000020: f070 aa3d 92e0 3ebd 2e0a 7c3d 32a0 803d
00000030: a6cc 9dbd c8a8 293d 07b8 483d 4402 e0bc
00000040: ef9c b03d 0ceb 29bb d811 eeba 5728 683d
00000050: b6c1 c3bd a008 443d 03d3 bbbd a78b abbc
00000060: 91d8 1ebc 6193 a03d 68f1 8f3d 4a17 613d
00000070: f425 803d 16ee 393d 9df9 93bd 6342 cd3d
00000080: 8806 dfbb 5d25 0abd b934 933b e3d0 8c3c
00000090: aeb5 c0bd d891 aebd c865 7abd ce55 98bd
000000a0: e155 85bd dc03 5bbd ade8 0c3d df37 d83d
000000b0: 488d 70bd ade8 a73c b0a4 2c3c 90c2 c6bd
000000c0: 1625 843d 4eae afbc fb7b 833d 182a 84bd
000000d0: 12ed c4ba 634a 8d3b e2b0 21bc eb68 83bd
000000e0: 84ea 1d3c d0b5 7ebd c8bc fcbc 9071 d23d
000000f0: 6601 cf3c d31a bd3c 6794 b03c c7fc 79bc
00000100: 57ec 833c e2d4 83bd ade1 0a3d 2f59 313d
00000110: d5c4 90bd 66e1 02bd 27a5 75bc 9486 d1bd
00000120: 2018 88bc fbbe 4cbd 9739 2b3d 0089 3f3d
00000130: d5fd 09bd 9fde 563d 7203 d23d d452 25bd
00000140: 2537 a2bd 2174 bc3c 9509 163d e587 e9bc
00000150: 64ae 6bbd 150a abbd 9112 a73d 7af1 0ebd
00000160: 9b6a 1a3d 2f58 84bd aba8 7a3d b68a 933c
00000170: 2892 e7bc e5f1 01bd ba74 4b3d 05c7 1b3c
00000180: 108f 8ebc e7c2 2cbc aaa1 653d 91ff cfbd
00000190: 9b73 96bd 2479 67bd 98c2 ccbc fada 41bd
000001a0: e97c a4bd bc00 9cbd 2ba3 5cbd 36a8 19bd
000001b0: d2d5 b93d fdae cebc 7812 8dbd e135 853c
000001c0: 4ac7 843d 6a35 993d f9d0 0dbc d919 bdbd
000001d0: 68c1 3cbd 8c7b 293d 0a36 24bb a7cb 273d
000001e0: 4076 d73c 1b3b e83c 0b16 88bd 073e 953c
000001f0: 8e99 ccbd df77 d9bc 24cd bc3d bdd0 f7b9
00000200: 50a7 91bd 3cee a23d 815c 3e3d 1436 133d
00000210: 1cc4 f63c a93a b53c bc0f 7a3d 4cc3 453b
00000220: 6213 d13a 621f 493d 4e49 adbd 2015 773d
00000230: e835 7c3d a7a6 833d 951e e83b 68b5 d3bd
00000240: d949 1c3d 3efd cc3d a9b3 4bbd 7c3a 62bd
00000250: ede8 d23d 0b94 acbd 9319 c7bd 824a 25bd
00000260: ee73 873a 19cd cdbc 860d 2cbd a792 b0bb
00000270: e1c2 bdbd d9b2 a7bd c10d 8bbd 5afa 4abd
00000280: b6ce c6bd ec1f 6f3d a6fe 883d bb1c b7bd
00000290: 4104 13bd 25b5 bb3c 516c e7bc a17f 4dbd
000002a0: ad9b 733d 26d0 573d ef7c 693d a003 5a3d
000002b0: 301b 293d 26ad c73d 5cc6 8c3d 38fe c33d
000002c0: cf8e 373d 637e 8abd f4ae 89bd e92d e0bd
000002d0: 3ce8 c3bd 5157 7cbd ee19 d5bc 7c42 3e3d
000002e0: 40e0 2bbd 4963 b33d 0ca8 8bbd ae10 9e3d
000002f0: ae81 623d c50a a23d 11f2 5dbd b4e1 5bbd
00000300: 0b41 e1ba 4a41 943d 335e 843d dd70 d9bc
00000310: 48e3 d9bd 9c0a 393d e83d 6a3d b00d e5bd
00000320: a6f1 153d f292 723d 7de5 833d c3ef bb3c
00000330: 9235 d0bc d70c 2cbc 0e19 8f3c 1472 f53d
00000340: 3676 143c 67fb c93d cc0c e3bd 12a5 a43d
00000350: 64ba 97bd 616d 8cbc 6728 193d 2f91 a03d
00000360: f561 d8bc bf58 75bc d28b 84bc beaa 3d3d
00000370: decc 453c 4f9b c5bb 9e63 873d c97e 9a3d
00000380: 49b9 1bbd 7d0f afbd dae0 21bd 8107 493d
00000390: 1ea1 813d cab6 843d 94b0 2e3d 3211 bc3a
000003a0: 2b77 edbb 3cff c23d 9975 983d ab9b a63c
000003b0: 8494 08ba 8578 43bd e86e ccbd 0cb2 d73c
000003c0: d2e7 e6bb 034c b53d 5f7d 893d 9132 28bc
000003d0: c8a5 05bd da4e 4e3d 56de 5f3d 8581 d83c
000003e0: b098 94bd e17f 79bd cf0c 693d e262 863d
000003f0: 8583 96bc 37b7 cfbc 0e9c a23d 5e3a ce3d

crystalGraphConvNet.embedding.bias f4 [64]
-0.03341753 0.032285675 -0.060649943 -0.08296022 0.013980168 -0.09378514 0.006367248 0.025391763
-0.03787182 -0.04961221 -0.085705675 0.026571883 0.08222403 -0.07279678 -0.03148823 -0.003784508
0.07293838 0.06760141 -0.021028904 0.089479744 0.01982516 0.09341109 0.016207598 -0.039266407
-0.0036613354 0.060140662 -0.06465323 -0.035808727 0.058456663 -0.104318455 -0.08217654 -0.044032928
0.005903296 -0.09219373 -0.034639593 -0.09562532 -0.069268525 0.06777655 0.0030396946 0.0004669569
0.011121169 0.06908168 0.08873034 0.026754495 0.09029929 0.019374825 -0.1050952 -0.04633314
-0.005620598 -0.06759829 -0.08472686 -0.034812618 0.045507498 0.07197243 0.005347944 0.018578228
-0.06920414 0.03369339 0.08525107 0.07996389 0.033825647 0.022365166 -0.083473794 0.015143064
00000000: d2e0 08bd fc3d 043d 136c 78bd 0ce7 a9bd
00000010: 130d 653c 6c12 c0bd 59a4 d03b 6302 d03c
00000020: 7b1f 1bbd 2c36 4bbd 7586 afbd 47ad d93c
00000030: 1265 a83d 7a16 95bd cdf9 00bd 8205 78bb
00000040: b860 953d 9c72 8a3d cf44 acbc 2841 b73d
00000050: 6068 a23c 504e bf3d ccc5 843c d0d5 20bd
00000060: 04f3 6fbb 0e56 763d ea68 84bd 2cac 12bd
00000070: 4170 6f3d eaa4 d5bd 2c4c a8bd df5b 34bd
00000080: 7070 c13b 11d0 bcbd 3fe2 0dbd 35d7 c3bd
00000090: a8dc 8dbd 6fce 8a3d 9d35 473b e5d1 f439
000000a0: 9035 363c b27a 8d3d 41b8 b53d 3e2c db3c
000000b0: d6ee b83d f4b7 9e3c 273c d7bd d2c7 3dbd
000000c0: fe2c b8bb f970 8abd 4785 adbd ad97 0ebd
000000d0: 1266 3a3d 4866 933d ce3d af3b 5e31 983c
000000e0: e6ba 8dbd 1502 0a3d 1d98 ae3d 1cc4 a33d
000000f0: c38c 0a3d 2737 b73c 4ff4 aabd 9d1a 783c

crystalGraphConvNet.convs.0.fc_full.weight f4 [128, 169]
0.0239733 0.06997938 0.044318512 -0.030040478 -0.008511911 0.056082774 -0.009879872 -0.056583285
0.068730764 0.027542042 0.0048233955 -0.028977238 -0.06447436 -0.058136135 -0.06511494 0.05495764
0.045639068 -0.057751413 -0.018951733 -0.06503429 0.0141811 -0.07530974 -0.0025982142 -0.036985423
-0.01394098 -0.04952995 -0.05838442 0.022009002 0.017742999 0.03881099 0.003907008 0.046721835
0.033407822 0.06971113 -0.062044542 -0.022330638 -0.040758062 0.025880538 0.06937867 -0.013167685
-0.07047267 -0.022531342 -0.07088535 0.010370768 0.021809181 0.0010811349 0.066488765 -0.03232048
0.04567925 -0.018449895 -0.018068759 0.01788709 0.059015326 0.062295076 -0.059131104 -0.024419744
-0.018727522 0.03657181 0.057157107 -0.0509361 0.062665 -0.069500566 -0.034021415 0.0040692007
-0.06111748 -0.033281554 -0.037662484 -0.07632514 -0.008782606 -0.0492637 -0.0012820085 0.037436232
0.012226037 0.06308284 -0.059616312 -0.014553744 -0.0027438768 -0.0008489309 0.06707455 0.03234193
0.043859277 -0.0054806215 -0.069734775 -0.039963067 0.013818355 0.05364479 -0.044520788 -0.031559918
0.06192732 -0.04997069 0.037863012 -0.026803805 0.08312405 0.016985832 0.035248794 0.059278652
0.06266556 -0.042905744 -0.007339781 0.0037447372 0.047172364 0.07184089 0.03152617 -0.025611348
-0.05077176 4.4676908e-05 0.06961541 -0.048922922 -0.055698052 0.059751198 0.038057167 -0.056611307
0.012007088 -0.03338754 -0.020765599 0.07431398 0.050167236 0.0589589 0.0547713 -0.079415455
-0.0004907196 0.048506714 -0.039380793 0.005890841 0.009068987 -0.009218257 0.026874514 0.04311251
-0.05617902 0.018106526 0.04554887 -0.047640402 -0.038023617 0.050305095 0.04352492 0.07432609
0.024864728 -0.02239437 -0.01671295 0.02585823 0.01316988 0.07557753 -0.044557575 -0.008273374
-0.017857127 0.021015467 -0.01494458 0.07013961 0.018612336 0.008504683 -0.07371427 0.02326001
-0.0015188188 -0.03670618 0.0732805 -0.0026170565 0.037911244 0.057354398 -0.030537514 0.040070917
0.00061290775 -0.0023532556 0.04897083 -0.031074297 0.011688737 0.025207914 0.027742093 0.027036274
0.010610086 0.077358015 0.0047263843 -0.01765177 -0.0071006883 -0.010720083 -0.011525015 0.02410131
0.056763254 0.05985052 0.08013313 0.06834811 -0.036725394 0.059738405 -0.0003116465 0.063024186
-0.059696153 0.00055900135 0.030861612 -0.07687322 -0.045306183 -0.07447462 -0.059529107 0.026377995
0.014988642 -0.05203045 -0.009575681 -0.015768433 0.0566721 0.014025457 0.039026063 -0.013094782
-0.004204368 -0.036164973 -0.011016656 -0.07261281 0.039101396 0.056202054 0.040566076 0.04903819
-0.0026802483 0.009191874 -0.0035108745 0.08063227 -0.06660355 -0.019481413 -0.003936284 0.042859565
-0.053529974 0.045964163 0.035940714 0.06396186 0.05654161 0.039931726 -0.022132866 -0.028848974
0.050235108 -0.03715619 0.075097725 0.067517534 -0.016582187 0.08224511 -0.062254418 0.0086947465
0.004197243 -0.049956538 -0.047846414 -0.019366486 -0.06284314 0.06921272 -0.035247397 0.0036846923
-0.041640814 0.053315166 0.076259896 0.05695839 0.0615123 0.053351965 -0.028326353 -0.022288676
0.03550047 -0.06805196 -0.034342736 -0.0170117 -0.0028653557 -0.013116496 0.023438597 0.016648935
00000000: a763 c43c 5951 8f3d 5487 353d 7317 f6bc
00000010: 8b75 0bbc 0db7 653d 30df 21bc e0c3 67bd
00000020: b7c2 8c3d d99f e13c 930d 9e3b ac61 edbc
00000030: 220b 84bd 2820 6ebd fb5a 85bd 431b 613d
00000040: 08f0 3a3d bf8c 6cbd aa40 9bbc b330 85bd
00000050: d857 683c fe3b 9abd cd46 2abb 077e 17bd
00000060: b568 64bc ebdf 4abd 8024 6fbd 394c b43c
00000070: c459 913c 46f8 1e3d 5c06 803b 655f 3f3d
00000080: a4d6 083d b5c4 8e3d 6b22 7ebd beee b6bc
00000090: edf1 26bd 6c03 d43c 6716 8e3d 46bd 57bc
000000a0: fa53 90bd a693 b8bc 572c 91bd 27ea 293c
000000b0: 2ba9 b23c deb4 8d3a 432b 883d 7b62 04bd
000000c0: 2a1a 3b3d 3c24 97bc ef04 94bc f287 923c
000000d0: 0eba 713d 1f29 7f3d 7533 72bd ea0b c8bc
000000e0: 766a 99bc 52cc 153d 921d 6a3d 5fa2 50bd
000000f0: 8256 803d 5056 8ebd 0a5a 0bbd ee56 853b
00000100: 5356 7abd 3d52 08bd fa43 1abd 5b50 9cbd
00000110: ebe4 0fbc bcc8 49bd 1109 a8ba bc56 193d
00000120: b74f 483c 9331 813d 3c30 74bd d472 6ebc
00000130: 9dd2 33bb ca8a 5eba 625e 893d f978 043d
00000140: c9a5 333d c996 b3bb 1bd1 8ebd 50b0 23bd
00000150: 6266 623c a4ba 5b3d 6e5b 36bd f944 01bd
00000160: 80a7 7d3d 11ae 4cbd 3f16 1b3d a793 dbbc
00000170: f13c aa3d df25 8b3c 0a61 103d 2cce 723d
00000180: cd56 803d efbd 2fbd 8c82 f0bb 446a 753b
00000190: cf37 413d 5121 933d 9621 013d e4ce d1bc
000001a0: 0df6 4fbd 7763 3b38 8692 8e3d 6763 48bd
000001b0: a423 64bd acbd 743d d5e1 1b3d 42e1 67bd
000001c0: 61b9 443c 60c1 08bd 9e1c aabc ee31 983d
000001d0: 297c 4d3d e37e 713d df57 603d 92a4 a2bd
000001e0: a3a3 00ba faae 463d c14d 21bd f507 c13b
000001f0: 1796 143c 2c08 17bc f127 dc3c be96 303d
00000200: f91b 66bd 2354 943c 7491 3a3d 9522 43bd
00000210: a7be 1bbd b70c 4e3d 3047 323d 4738 983d
00000220: 1db1 cb3c 6674 b7bc 99e9 88bc a4d4 d33c
00000230: 7bc6 573c 64c8 9a3d 0182 36bd 0c8d 07bc
00000240: 1c49 92bc a128 ac3c 1dda 74bc 5ba5 8f3d
00000250: e678 983c 3a57 0b3c 82f7 96bd c78b be3c
00000260: 1a13 c7ba 3859 16bd 1614 963d ec82 2bbb
00000270: d248 1b3d 72ec 6a3d cf29 fabc 6721 243d
00000280: 8bab 203a 1439 1abb a395 483d 868f febc
00000290: 1e82 3f3c d480 ce3c 6343 e33c 2d7b dd3c
000002a0: edd5 2d3c e16d 9e3d c9df 9a3b 729a 90bc
000002b0: e4ac e8bb 49a3 2fbc 6bd3 3cbc 1c70 c53c
000002c0: 9680 683d d225 753d d71c a43d 18fa 8b3d
000002d0: 5e6d 16bd 42b0 743d 7c64 a3b9 d312 813d
000002e0: f483 74bd f289 123a 7ed1 fc3c b56f 9dbd
000002f0: fa92 39bd 2686 98bd cbd4 73bd aa16 d83c
00000300: ec92 753c e21d 55bd 51e3 1cbc cd2c 81bc
00000310: 0121 683d 08cb 653c cbd9 1f3d 7f8b 56bc
00000320: ccc4 89bb b921 14bd 347f 34bc 06b6 94bd
00000330: c928 203d 2034 663d 9d28 263d 45dc 483d
00000340: 1ba7 2fbb 8499 163c b316 66bb 8822 a53d
00000350: 7167 88bd 7c97 9fbc f2fb 80bb 838d 2f3d
00000360: 3f42 5bbd eb44 3c3d 9236 133d 70fe 823d
00000370: 2d98 673d 738f 233d fc4f b5bc af54 ecbc
00000380: 54c3 4d3d 1731 18bd d6cc 993d a246 8a3d
00000390: 5ed7 87bc 2070 a83d 7dfe 7ebd 6974 0e3c
000003a0: 0789 893b 3a9f 4cbd 9afa 43bd 77a6 9ebc
000003b0: e7b3 80bd 66bf 8d3d 935f 10bd e17a 713b
000003c0: 8f8f 2abd 0161 5a3d 262e 9c3d 334d 693d
000003d0: 52f4 7b3d 9787 5a3d ab0c e8bc be96 b6bc
000003e0: f168 113d d35e 8bbd f8aa 0cbd 1f5c 8bbc
000003f0: b1c8 3bbb 92e6 56bc 4d02 c03c 5963 883c

crystalGraphConvNet.convs.0.fc_full.bias f4 [128]
-0.05934565 0.022942884 0.018048363 0.036927793 0.017003179 -0.016890917 -0.05341676 -0.07617469
0.04611582 -0.07297573 0.00802763 -0.032697637 -0.07595915 -0.029404156 0.014591162 0.020555804
0.0039606425 -0.018135643 -0.03654987 -0.062057924 0.022892008 -0.06262026 0.016213056 -0.07294041
0.026907323 -0.01224385 -0.06951434 -0.056294147 0.004661423 -0.004910576 0.06670161 0.025386529
0.014323724 0.07503568 -0.04292063 -0.05500214 0.06832785 -0.07491994 0.03673691 -0.02444579
-0.062034156 -0.012676562 -0.0064913384 0.057428516 0.075446345 -0.054312315 -0.020862056 -0.008987684
0.073678225 0.024246877 -0.019837027 -0.067340076 -0.032538887 -0.025583943 -0.072462775 0.060974132
0.07002588 0.063580275 0.03236987 -0.01292382 -0.07452599 -0.054847732 -0.039752405 0.04928169
-0.008524863 -0.05819867 -0.065742776 0.024981095 0.050397307 -0.034769036 0.030451894 0.036260497
-0.0041457564 0.024955984 -0.025601301 -0.049429122 0.04049985 -0.03745807 -0.066943765 0.034151725
0.07613912 0.038727485 0.02416389 -0.0323553 -0.055940878 -0.024463857 0.014058701 0.006495843
-0.048135314 0.075871766 0.073055215 -0.030212572 0.033895895 -0.05436765 0.05344726 0.0344079
-0.009424695 0.0025386324 0.0767677 0.06455802 -0.058700107 0.018531209 0.060937725 -0.02382598
-0.043570105 -0.025131542 0.01356715 -0.07365916 0.067570426 -0.052091092 0.067584634 -0.045230336
-0.016380716 -0.014011652 0.05384684 0.07675244 0.07196561 -0.036843892 0.027102945 0.015169123
0.073687725 -0.049968194 -0.019923829 0.04957995 0.030684635 -0.024976322 0.060665168 0.031792235
00000000: 6d14 73bd b7f2 bb3c 29da 933c 9941 173d
00000010: 404a 8b3c d25e 8abc 88cb 5abd 7a01 9cbd
00000020: f1e3 3c3d 4d74 95bd 5286 033c f5ed 05bd
00000030: 7990 9bbd fce0 f0bc c50f 6f3c a564 a83c
00000040: 47c8 813b 3391 94bc 51b5 15bd 7330 7ebd
00000050: 0588 bb3c 0d3f 80bd 3ed1 843c c861 95bd
00000060: bf6c dc3c 6e9a 48bc 895d 8ebd b194 66bd
00000070: dabe 983b e6e8 a0bb db9a 883d 69f7 cf3c
00000080: 0eae 6a3c 4eac 993d 8bcd 2fbd ed49 61bd
00000090: 79ef 8b3d a06f 99bd 7179 163d 8a42 c8bc
000000a0: 8717 7ebd 5bb1 4fbc 4bb5 d4bb 2a3a 6b3d
000000b0: 9d83 9a3d 9776 5ebd e7e6 aabc 1441 13bc
000000c0: 9ce4 963d 63a1 c63c 4381 a2bc 98e9 89bd
000000d0: 7f47 05bd 6b95 d1bc 5d67 94bd 03c0 793d
000000e0: bb69 8f3d 6036 823d 4596 043d 6ebe 53bc
000000f0: 15a1 98bd 04a8 60bd 6bd3 22bd 99db 493d
00000100: deab 0bbc bb61 6ebd 26a4 86bd 27a5 cc3c
00000110: 686d 4e3d fa69 0ebd 4076 f93c e385 143d
00000120: 20d9 87bb 7e70 cc3c d2b9 d1bc 3176 4abd
00000130: 2ce3 253d a26d 19bd d019 89bd aee2 0b3d
00000140: d4ee 9b3d b6a0 1e3d 5af3 c53c fe86 04bd
00000150: 4322 65bd 6d68 c8bc 7756 663c 15db d43b
00000160: 8929 45bd a862 9b3d f99d 953d 5b80 f7bc
00000170: 6cd6 0a3d 9db0 5ebd 84eb 5a3d 4cef 0c3d
00000180: 096a 1abc 2f5f 263b 6238 9d3d ff36 843d
00000190: 866f 70bd c3ce 973c d699 793d b42e c3bc
000001a0: 9176 32bd aae0 cdbc c048 5e3c 9dda 96bd
000001b0: 5d62 8a3d 785d 55bd d069 8a3d 7243 39bd
000001c0: da30 86bc 2191 65bc 818e 5c3d 6230 9d3d
000001d0: b562 933d 9fe9 16bd ff06 de3c ea87 783c
000001e0: 97e9 963d 73ab 4cbd 4c37 a3bc 5814 4b3d
000001f0: 585e fb3c 259b ccbc 0a7c 783d 9338 023d

crystalGraphConvNet.convs.0.bn1.weight f4 [128]
0.99771684 1.000606 1.0010476 1.0051198 0.99883354 1.0046048 1.0008154 0.9964868
1.0008756 1.0012224 1.0016776 1.0017381 1.0033087 1.0030329 1.0031135 1.0029981
0.99819994 0.9991619 1.0029314 1.0006497 0.99915594 0.99903804 1.0041627 0.99903995
1.0026627 1.0030047 1.0017264 1.0104966 0.99899167 0.99942297 0.9996667 1.002415
1.0031043 0.9985559 1.0039027 1.0038092 1.002266 1.0051235 0.9990228 1.0009642
0.9996578 1.0010523 1.00313 1.0001248 1.0002903 0.99808466 1.0114238 0.99991065
0.9972908 1.0030549 1.0016179 1.0007048 1.0072162 1.0001943 1.001281 0.9973288
0.9962466 0.9999724 0.9979272 1.000102 1.0026814 1.0013418 1.0004727 1.0029851
1.0013957 0.99854153 1.0001203 1.0017402 0.9990475 0.99758726 1.0040804 1.0046451
1.0055918 0.99825704 0.9993749 1.002213 1.0052456 0.99832267 1.0130656 0.9994342
1.0045444 1.0018566 0.9992238 1.0023948 0.9990316 0.9998173 0.99586105 1.0030142
0.9962985 1.001913 1.0010135 1.0021288 1.0019851 1.0038432 1.0016959 1.0002447
0.99772894 1.004586 1.0028372 1.0005533 0.9991265 1.0010012 1.0005995 0.9970573
0.99974453 1.0055686 0.99780154 1.002809 1.0002528 0.9994433 1.0011487 1.0001076
1.0078584 0.9980773 0.99979275 1.0022017 0.9990117 0.9981838 0.9991277 1.000481
1.0012321 0.9978798 1.0017596 1.0011168 0.99773186 1.0032538 0.99885786 0.9973584
00000000: 5f6a 7f3f db13 803f 5422 803f c4a7 803f
00000010: 8eb3 7f3f e496 803f b81a 803f c219 7f3f
00000020: b11c 803f 0e28 803f f936 803f f438 803f
00000030: 6b6c 803f 6263 803f 0666 803f 3e62 803f
00000040: 088a 7f3f 13c9 7f3f 0e60 803f 4a15 803f
00000050: afc8 7f3f f5c0 7f3f 6788 803f 15c1 7f3f
00000060: 4057 803f 7562 803f 9238 803f f457 813f
00000070: ebbd 7f3f 2fda 7f3f 28ea 7f3f 224f 803f
00000080: b965 803f 5ca1 7f3f e27f 803f d27c 803f
00000090: 414a 803f e3a7 803f f5bf 7f3f 981f 803f
000000a0: 93e9 7f3f 7b22 803f 9066 803f 1704 803f
000000b0: 8309 803f 7a82 7f3f 5676 813f 25fa 7f3f
000000c0: 734e 7f3f 1a64 803f 0435 803f 1817 803f
000000d0: 76ec 803f 5e06 803f fa29 803f f150 7f3f
000000e0: 040a 7f3f 31fe 7f3f 2878 7f3f 5803 803f
000000f0: dd57 803f f82b 803f 7d0f 803f d161 803f
00000100: bc2d 803f 6ba0 7f3f f103 803f 0639 803f
00000110: 94c1 7f3f e161 7f3f b585 803f 3698 803f
00000120: 3bb7 803f c68d 7f3f 09d7 7f3f 8448 803f
00000130: e3ab 803f 1392 7f3f 22ac 813f ebda 7f3f
00000140: e994 803f d63c 803f 22cd 7f3f 794e 803f
00000150: 89c0 7f3f 07f4 7f3f c0f0 7e3f c562 803f
00000160: 6b0d 7f3f af3e 803f 3621 803f c245 803f
00000170: 0c41 803f ef7d 803f 9237 803f 0508 803f
00000180: 2a6b 7f3f 4696 803f f85c 803f 2112 803f
00000190: c1c6 7f3f cf20 803f a513 803f 263f 7f3f
000001a0: 42ef 7f3f 79b6 803f ec6f 7f3f 0c5c 803f
000001b0: 4908 803f 84db 7f3f a425 803f 8703 803f
000001c0: 8101 813f fe81 7f3f 6bf2 7f3f 2548 803f
000001d0: 3bbf 7f3f f988 7f3f d5c6 7f3f c30f 803f
000001e0: 6028 803f 0d75 7f3f a939 803f 9824 803f
000001f0: 5b6b 7f3f 9f6a 803f 26b5 7f3f e152 7f3f

crystalGraphConvNet.convs.0.bn1.bias f4 [128]
0.0021344414 -0.0016716033 -0.0014636667 -0.005238917 0.00066193094 0.00011773597 8.867551e-05 0.002091709
-0.0008071051 -0.0020502817 -0.00031180383 0.00013543635 -0.0011847009 -0.0005549523 -0.005532427 -0.002842694
0.0030791946 0.0012480468 0.0017229045 -6.610432e-05 0.0007698569 0.00091685686 0.0003775222 0.00019538752
-0.0019887849 -0.0035076728 0.0011820388 -0.003364058 0.000945796 0.0010080164 -0.00075030606 -0.0027736467
-0.0029368675 -0.00011940047 -0.00069776503 -0.00080593344 -0.0013945827 -0.00067690545 0.00082545815 -3.253022e-05
0.002290844 0.0036253114 0.001953232 -0.00015548096 -0.0015340094 0.001175182 -0.003786145 0.00025320664
0.000396743 0.0007645063 -0.0012944383 -0.000392946 -0.0047933157 -9.26369e-05 -0.0013640618 0.0020555384
0.002586501 4.561527e-05 0.00030716052 -0.00015195763 1.9735894e-06 -8.741583e-05 0.0016396429 -0.0017821735
-0.0007419067 0.000338758 -0.0002657874 -0.0010939592 0.0005800884 0.00070889737 -0.0024413557 -0.0019336281
-0.002841795 0.0007959861 0.00010143659 -0.0004121099 -0.0022830165 0.00071589753 -0.008693284 0.00010492093
-0.0014176148 -0.00078272447 -0.00018481506 -0.0009307118 0.0003827638 -4.05301e-05 0.0021322402 -0.0034149962
0.0012651619 -0.0017831184 -0.0014556961 -0.0020791679 -0.0012144379 -0.0019767692 -0.0014505901 -0.000809061
0.0007075665 -0.0025462827 -0.0014196314 -0.0007474594 0.00029496552 -0.00058289286 0.0002867827 0.0013671068
0.000703013 -0.0040476965 0.0006853431 -0.0015143645 0.0001773359 0.0005917984 -0.0005661763 -0.00052334764
-0.0022718708 0.0010803804 0.0002572658 -0.0009419993 5.5181423e-05 0.0005536427 7.776995e-05 0.00018688253
-0.00013298473 0.0004583096 -0.0003628327 -0.0006465565 0.0014480293 -0.001917926 0.00087530323 0.0014992349
00000000: fce1 0b3b b319 dbba 81d8 bfba 39ab abbb
00000010: 6f85 2d3a 05e9 f638 4df7 b938 0e15 093b
00000020: e893 53ba 055e 06bb 9a79 a3b9 eb03 0e39
00000030: f747 9bba 387a 11ba 5d49 b5bb 7e4c 3abb
00000040: 50cc 493b 8095 a33a 15d3 e13a 7da1 8ab8
00000050: 39d0 493a 3959 703a 2cee c539 f0e0 4c39
00000060: 4656 02bb fce0 65bb a4ee 9a3a 8777 5cbb
00000070: 4cef 773a 6b1f 843a 30b0 44ba 12c6 35bb
00000080: 7678 40bb a466 fab8 38ea 36ba 4745 53ba
00000090: 6eca b6ba 5b72 31ba 8f63 583a 0f71 08b8
000000a0: fc21 163b a296 6d3b cc01 003b 9a08 23b9
000000b0: d010 c9ba 9108 9a3a f920 78bb d2c0 8439
000000c0: f201 d039 2669 483a 24aa a9ba 5204 ceb9
000000d0: 3f11 9dbb 0f46 c2b8 52ca b2ba 36b6 063b
000000e0: 4982 293b 0653 3f38 630a a139 d156 1fb9
000000f0: 0272 0436 0453 b7b8 49e9 d63a d297 e9ba
00000100: 847c 42ba 549b b139 6259 8bb9 2e63 8fba
00000110: 1311 183a 4cd5 393a 27ff 1fbb cb71 fdba
00000120: 693d 3abb b9a9 503a 5bba d438 7410 d8b9
00000130: a99e 15bb 12ab 3b3a 476e 0ebc ff08 dc38
00000140: 42cf b9ba c02f 4dba eaca 41b9 03fb 73ba
00000150: b0ad c839 ddfe 29b8 0ebd 0b3b 21ce 5fbb
00000160: cad3 a53a 86b7 e9ba 0ecd beba a642 08bb
00000170: c62d 9fba af8c 01bb ba21 beba 2a17 54ba
00000180: fc7b 393a 89df 26bb ed12 baba 27f1 43ba
00000190: 9aa5 9a39 47cd 18ba 535b 9639 7e30 b33a
000001a0: 674a 383a 8aa2 84bb 99a8 333a a47d c6ba
000001b0: 3ef3 3939 eb22 1b3a 736b 14ba 4431 09ba
000001c0: abe3 14bb 8d9b 8d3a a2e1 8639 81f0 76ba
000001d0: 9a72 6738 5522 113a 6d18 a338 e6f5 4339
000001e0: d171 0bb9 4649 f039 953a beb9 ac7d 29ba
000001f0: cdcb bd3a eb62 fbba 9b74 653a fa81 c43a

crystalGraphConvNet.convs.0.bn1.running_mean f4 [128]
-0.060090937 0.021592949 0.11185238 0.02180899 -0.04103149 -0.027750745 -0.07363246 -0.035937674
-0.043683626 -0.102037154 0.047158316 -0.057811506 -0.09566846 -0.07504398 -0.057656806 -0.078278966
0.11560777 -0.0010652064 0.07318027 -0.1084999 0.07144036 0.009717835 0.036834545 -0.11550441
0.091111965 0.08940655 -0.08327844 -0.07975125 0.042948645 0.020977905 0.10456345 0.050710388
-0.13103898 0.12549858 -0.012758504 -0.036617767 0.17832829 -0.088566594 0.0016627676 -0.03764443
-0.08722511 -0.001423531 -0.067549005 -0.058967255 0.14950764 -0.06674896 -0.07572731 -0.05111554
0.17508388 -0.013147481 0.093951486 -0.0041191555 -0.11346656 -0.11959466 -0.06552623 0.04165308
0.05519674 0.09508442 0.06631627 0.053157408 -0.14694133 0.02714255 -0.05843893 0.06609517
-0.118918285 -0.032260228 0.0012339406 0.010257962 0.015609916 0.07921172 0.059309203 0.10363019
0.057784498 0.09089275 -0.11042306 -0.01864412 0.05988037 -0.02410318 -0.052866343 -0.033442345
0.055590495 0.007033823 0.022576597 0.019968199 -0.0544838 -0.048627626 0.12491543 0.007795357
0.073487565 0.062467154 -0.014789855 -0.0646607 0.077582605 -0.09950508 0.11514042 -0.013184972
0.11179644 0.015488548 0.13452889 0.061835837 -0.08862971 -0.061452366 0.09621403 -0.07338
0.032546405 -0.023158832 0.05122962 -0.12003866 0.057384126 -0.035664633 0.11145744 0.03920714
0.069898784 0.0031694672 0.10045806 0.15166803 -0.04951104 -0.023616832 0.08391156 0.021982322
0.21089402 -0.058087505 -0.10925451 -0.05385444 -0.019798815 -0.07267567 0.06969515 0.053278927
00000000: ea21 76bd b2e3 b03c dc12 e53d c4a8 b23c
00000010: a310 28bd 8855 e3bc 9dcc 96bd 6233 13bd
00000020: 9aed 32bd dbf8 d0bd 1429 413d c2cb 6cbd
00000030: d3ed c3bd a8b0 99bd 8b29 6cbd b950 a0bd
00000040: c4c3 ec3d 659e 8bba 8adf 953d 3235 debd
00000050: 534f 923d 8e37 1f3c d2df 163d 938d ecbd
00000060: e998 ba3d c81a b73d e38d aabd a054 a3bd
00000070: ebea 2f3d dbd9 ab3c 5d25 d63d b2b5 4f3d
00000080: 152f 06be b382 003e 0b09 51bc 83fc 15bd
00000090: b19b 363e 6762 b5bd 39f1 d93a 0c31 1abd
000000a0: 14a3 b2bd c695 baba 2257 8abd a687 71bd
000000b0: 8818 193e aeb3 88bd eb16 9bbd 875e 51bd
000000c0: 3049 333e 8868 57bc a369 c03d fbf9 86bb
000000d0: 2861 e8bd 0cee f4bd 9e32 86bd 6c9c 2a3d
000000e0: fa15 623d 9fbb c23d d3d0 873d 95bb 593d
000000f0: ca77 16be 0e5a de3c a95d 6fbd e85c 873d
00000100: 6e8b f3bd 4d23 04bd 2dbc a13a 0311 283c
00000110: bcc0 7f3c c139 a23d 35ee 723d 113c d43d
00000120: 70af 6c3d fa25 ba3d 7c25 e2bd 8ebb 98bc
00000130: 1e45 753d 0874 c5bc 618a 58bd d7fa 08bd
00000140: dcb2 633d fc7b e63b 8ef2 b83c 5994 a33c
00000150: 682a 5fbd c32d 47bd a9d3 ff3d 3270 ff3b
00000160: a680 963d 8fdd 7f3d 2651 72bc d46c 84bd
00000170: a1e3 9e3d 52c9 cbbd bece eb3d c805 58bc
00000180: 88f5 e43d aec3 7d3c f1c1 093e 9347 7d3d
00000190: 7e83 b5bd 7ab5 7bbd dd0b c53d 4148 96bd
000001a0: 614f 053d 97b7 bdbc 26d6 513d d4d6 f5bd
000001b0: 9e0b 6b3d 1415 12bd cc43 e43d ab97 203d
000001c0: 1827 8f3d d6b6 4f3b f5bc cd3d dd4e 1b3e
000001d0: 17cc 4abd 1678 c1bc d3d9 ab3d 4514 b43c
000001e0: 9af4 573e 2aed 6dbd d4c0 dfbd 7996 5cbd
000001f0: 2031 a2bc fbd6 94bd 55bc 8e3d 013b 5a3d

crystalGraphConvNet.convs.0.bn1.running_var f4 [128]
0.016233858 0.008452553 0.009860094 0.011398022 0.009277629 0.013712246 0.008996227 0.006157641
0.007842199 0.010825842 0.0117354 0.01110126 0.008551473 0.010169724 0.0072065913 0.009299232
0.008047586 0.010099241 0.0068824077 0.006920388 0.012938408 0.010206259 0.0096436255 0.01814279
0.012495818 0.008161112 0.011126454 0.014702432 0.012410054 0.010125271 0.013922903 0.009304604
0.009129778 0.012396814 0.007935428 0.00923984 0.016304184 0.010361687 0.010141957 0.010804459
0.015501868 0.01475058 0.014307098 0.014378962 0.010224754 0.008392988 0.0110659525 0.008694216
0.010349189 0.008718895 0.008088283 0.010517876 0.008066965 0.008403199 0.009862208 0.012141236
0.013760027 0.0094347 0.011820951 0.010970759 0.008788683 0.010206935 0.010810965 0.010901214
0.012075763 0.0119214095 0.010176781 0.018774644 0.012950453 0.017668892 0.009041837 0.008440312
0.0072935126 0.010646442 0.00974339 0.009269448 0.01192289 0.015462836 0.007863062 0.008969526
0.011589487 0.0094470875 0.010776329 0.011829976 0.010643584 0.008837753 0.012851151 0.011230217
0.012393322 0.009640099 0.009847062 0.01598064 0.009927704 0.008878823 0.011702586 0.010820753
0.013329047 0.0064047356 0.011429765 0.014746077 0.009318301 0.011301216 0.0076596113 0.016938407
0.009215737 0.010699546 0.014700049 0.014144343 0.011596185 0.01094812 0.011092119 0.011485066
0.010687065 0.015025413 0.013492031 0.0093464395 0.0113347275 0.01241516 0.012985499 0.011918419
0.016031398 0.009249817 0.009623931 0.005169606 0.016766796 0.010975986 0.013327558 0.00969409
00000000: defc 843c 947c 0a3c 3b8c 213c c5be 3a3c
00000010: 3201 183c 54a9 603c e964 133c 09c6 c93b
00000020: 917c 003c df5e 313c d645 403c 0fe2 353c
00000030: 7a1b 0c3c ea9e 263c 4525 ec3b ce5b 183c
00000040: 06da 033c 4977 253c d285 e13b 6cc4 e23b
00000050: 9efb 533c 2738 273c 4c00 1e3c 30a0 943c
00000060: 42bb 4c3c 2fb6 053c bb4b 363c 78e2 703c
00000070: 8a53 4b3c 77e4 253c e31c 643c 5672 183c
00000080: 1095 153c 021c 4b3c 9903 023c b362 173c
00000090: 5a90 853c 11c4 293c 732a 263c 3005 313c
000000a0: 8cfb 7d3c 6bac 713c 5268 6a3c bd95 6b3c
000000b0: ba85 273c be82 093c f84d 353c 2f72 0e3c
000000c0: a58f 293c b2d9 0e3c b884 043c 2b53 2c3c
000000d0: 4e2b 043c 92ad 093c 1995 213c 09ec 463c
000000e0: bc71 613c 0094 1a3c a9ac 413c b3be 333c
000000f0: 69fe 0f3c fd3a 273c 7920 313c 019b 323c
00000100: 6cd9 453c 0452 433c 83bc 263c 48cd 993c
00000110: 232e 543c 5abe 903c 3724 143c 3c49 0a3c
00000120: 6bfe ee3b 6a6e 2e3c bda2 1f3c e2de 173c
00000130: 3a58 433c d657 7d3c 13d4 003c ebf4 123c
00000140: d5e1 3d3c f5c7 1a3c 338f 303c 84d2 413c
00000150: 6d62 2e3c 39cc 103c a28d 523c f2fe 373c
00000160: 5c0d 4b3c 81f1 1d3c 9255 213c d5e9 823c
00000170: cfa7 223c 7c78 113c 34bc 3f3c 8749 313c
00000180: 1362 5a3c d1de d13b e943 3b3c 8899 713c
00000190: caab 183c bc28 393c 7afd fa3b 6ac2 8a3c
000001a0: 9afd 163c 264d 2f3c 79d8 703c adbd 673c
000001b0: edfd 3d3c be5f 333c b8bb 353c dc2b 3c3c
000001c0: cd18 2f3c 262d 763c ae0d 5d3c cf21 193c
000001d0: 4bb5 393c f568 4b3c 21c1 543c 7945 433c
000001e0: 4754 833c 8b8c 173c b1ad 1d3c cc65 a93b
000001f0: 855a 893c 9fd4 333c d45b 5a3c f6d3 1e3c

crystalGraphConvNet.convs.0.bn2.weight f4 [64]
0.9982579 0.9958921 1.0061973 1.0186945 0.9918036 0.99488324 1.0115114 0.9894889
0.9992727 0.9974179 0.9929803 0.9977242 1.0057409 0.9961617 1.0147796 0.9968877
0.9942293 1.0054331 0.9999489 0.99714506 0.9938826 1.0064716 0.9952471 1.0055133
0.9989623 1.0063423 1.0041199 1.0113368 1.0039973 1.0051864 0.99888694 1.0047276
0.9984284 1.0091889 1.0128757 1.0083858 1.0045494 1.002011 0.99864215 0.9830088
0.99086064 0.99031067 0.99354047 1.0144473 1.0026602 0.9925176 1.0145965 0.99603564
1.0132868 0.99115384 1.0042007 1.0074853 1.0055135 0.9920862 1.0021532 1.0004772
0.99290574 0.9940742 0.9952051 0.9998237 0.989009 1.0013436 0.9966301 1.0021787
00000000: d48d 7f3f c9f2 7e3f 13cb 803f 9564 823f
00000010: d7e6 7d3f abb0 7e3f 3579 813f 254f 7d3f
00000020: 56d0 7f3f c856 7f3f f533 7e3f da6a 7f3f
00000030: 1ebc 803f 7404 7f3f 4ce4 813f 0834 7f3f
00000040: d085 7e3f 08b2 803f a7fc 7f3f e644 7f3f
00000050: 176f 7e3f 10d4 803f 84c8 7e3f a9b4 803f
00000060: febb 7f3f d3cf 803f 0087 803f 7c73 813f
00000070: fc82 803f f3a9 803f 0eb7 7f3f ea9a 803f
00000080: 0199 7f3f 1a2d 813f e9a5 813f c912 813f
00000090: 1395 803f e541 803f 03a7 7f3f 77a6 7b3f
000000a0: 0ba9 7d3f 0085 7d3f ab58 7e3f 69d9 813f
000000b0: 2b57 803f a215 7e3f 4cde 813f 31fc 7e3f
000000c0: 62b3 813f 42bc 7d3f a689 803f 47f5 803f
000000d0: abb4 803f 5cf9 7d3f 8e46 803f a30f 803f
000000e0: 122f 7e3f a67b 7e3f c3c5 7e3f 72f4 7f3f
000000f0: b22f 7d3f 072c 803f 2623 7f3f 6447 803f

crystalGraphConvNet.convs.0.bn2.bias f4 [64]
-0.0040225945 -0.0021001918 -0.0013375093 0.001316306 -0.002310187 -0.0015801861 -6.310873e-05 -0.004549409
-0.0071628024 -0.0019698723 -0.0031197895 -0.0016761689 -0.00093499705 -0.00025401317 -0.0126976585 -0.00434671
-0.0028313189 0.0030683791 -0.0014452294 -0.0050820988 -0.003673134 0.0035183062 -0.0014907101 -0.0034378485
0.0002105445 -0.006898118 -0.004792175 0.003861188 -0.0020773632 -0.002909369 -0.0008434283 -0.00209507
-0.0014834275 0.00022692462 0.000101894395 -0.0008477649 -0.002582219 -0.0050586876 -0.0015611146 -0.0030227373
-0.003433243 -0.0068724956 -0.0010446364 0.004315999 -0.0016325921 -0.003812252 -0.0017547918 -0.003606244
-0.0010135858 -0.0031495055 -0.00050328457 0.0006597578 -0.003601503 -0.004833293 -0.002276659 0.0043542576
-0.0014335994 -0.0018010042 -0.0008752024 0.00016630796 -0.0053133043 -0.00219599 -0.001817754 -0.0017305755
00000000: f8cf 83bb 5fa3 09bb 5d4f afba e687 ac3a
00000010: 8266 17bb 3f1e cfba 3e59 84b8 3513 95bb
00000020: f1b5 eabb f918 01bb 6275 4cbb e5b2 dbba
00000030: 971a 75ba 122d 85b9 d709 50bc d96e 8ebb
00000040: a68d 39bb dc16 493b da6d bdba bc87 a6bb
00000050: f6b8 70bb 6293 663b ee63 c3ba 874d 61bb
00000060: 9cc5 5c39 9c09 e2bb ad07 9dbb fc0b 7d3b
00000070: 5f24 08bb 1dab 3ebb 8419 5dba 714d 09bb
00000080: 916f c2ba 9df2 6d39 23b0 d538 8a3c 5eba
00000090: 723a 29bb 59c3 a5bb 509e ccba 1e19 46bb
000000a0: 4200 61bb ac32 e1bb 2eec 88ba 396d 8d3b
000000b0: b3fc d5ba fad6 79bb 0b01 e6ba bc56 6cbb
000000c0: 4cda 84ba ef67 4ebb dbee 03ba 99f3 2c3a
000000d0: 3207 6cbb 9a60 9ebb 0034 15bb 29ae 8e3b
000000e0: 9de7 bbba ac0f ecba d76d 65ba f462 2e39
000000f0: 3a1b aebb 99ea 0fbb b441 eeba 7ad4 e2ba

crystalGraphConvNet.convs.0.bn2.running_mean f4 [64]
5.4028625 4.52679 4.9720526 4.7425265 5.1067057 5.04824 4.499758 5.0420604
4.9141417 4.9318132 5.1014924 4.658806 5.1345563 5.4151654 4.6846914 4.9972596
4.9973135 5.236082 5.1911955 4.9546294 5.2093883 4.8091493 4.648264 4.77925
4.77763 4.816377 5.3569846 4.812916 4.5641465 5.350328 5.4726152 4.926883
5.0731177 5.0697274 4.8323884 4.5780196 5.234632 5.1380877 4.7987337 4.9654717
5.307827 5.0956464 4.858785 5.253321 5.1097193 4.9513016 4.7129226 5.0287266
4.94637 4.9182634 5.107318 4.9781084 4.6696687 5.316652 4.495539 5.50578
4.925454 4.9602137 5.178894 5.05665 4.8368526 4.6044297 4.9268804 5.054165
00000000: 40e4 ac40 77db 9040 0e1b 9f40 c7c2 9740
00000010: 226a a340 2f8b a140 04fe 8f40 8f58 a140
00000020: a640 9d40 6ad1 9d40 6d3f a340 f014 9540
00000030: 494e a440 0949 ad40 fee8 9540 8de9 9f40
00000040: fee9 9f40 fc8d a740 461e a640 538c 9e40
00000050: 4fb3 a640 8de4 9940 94be 9440 9eef 9840
00000060: 58e2 9840 c31f 9a40 6b6c ab40 6803 9a40
00000070: 7d0d 9240 e335 ab40 aa1f af40 07a9 9d40
00000080: fb56 a240 353b a240 eda2 9a40 237f 9240
00000090: 1b82 a740 376b a440 3a8f 9940 25e5 9e40
000000a0: b8d9 a940 890f a340 2b7b 9b40 351b a840
000000b0: d282 a340 1071 9e40 43d0 9640 54eb a040
000000c0: aa48 9e40 6a62 9d40 266f a340 aa4c 9f40
000000d0: ed6d 9540 0322 aa40 75db 8f40 5a2f b040
000000e0: 529d 9d40 12ba 9e40 80b9 a540 14d0 a140
000000f0: 7fc7 9a40 7d57 9340 01a9 9d40 b8bb a140

crystalGraphConvNet.convs.0.bn2.running_var f4 [64]
16.753756 6.922651 10.579874 11.852786 9.61462 8.636897 7.196386 9.848545
8.3788 11.878554 9.732657 7.181944 8.160993 23.930311 10.608409 7.2223425
8.535425 10.867759 12.861861 7.932334 10.719153 8.721636 5.41739 9.326765
7.1298585 7.509311 12.725986 5.5559497 7.1919703 10.387871 15.887346 11.584643
11.221046 11.019348 6.329301 5.9479046 12.293537 15.865742 7.203219 10.149822
15.407623 16.538033 5.9761405 11.169488 8.276815 10.624339 12.899997 15.824681
8.075925 9.3611145 7.5473022 9.036426 5.0896473 13.28468 5.5966964 18.230736
10.984362 7.011986 16.685793 9.042658 13.0672035 9.17122 12.910729 8.44462
00000000: b107 8641 5b86 dd40 2a47 2941 03a5 3d41
00000010: 7cd5 1941 bb30 0a41 cb48 e640 a493 1d41
00000020: 910f 0641 8f0e 3e41 f7b8 1b41 7cd2 e540
00000030: 6d93 0241 4771 bf41 0bbc 2941 6e1d e740
00000040: 1a91 0841 57e2 2d41 2fca 4d41 aed5 fd40
00000050: a781 2b41 d28b 0b41 425b ad40 6e3a 1541
00000060: cd27 e440 474c f040 a39d 4b41 57ca b140
00000070: 9f24 e640 b834 2641 9232 7e41 b35a 3941
00000080: 6889 3341 404f 3041 a289 ca40 3c55 be40
00000090: 54b2 4441 14da 7d41 c580 e640 ac65 2241
000000a0: a085 7641 e44d 8441 8b3c bf40 39b6 3241
000000b0: d66d 0441 4bfd 2941 6366 4e41 e531 7d41
000000c0: fd36 0141 20c7 1541 8083 f140 3395 1041
000000d0: 64de a240 0d8e 5441 2318 b340 8cd8 9141
000000e0: f2bf 2f41 3062 e040 817c 8541 baae 1041
000000f0: 4413 5141 51bd 1241 5992 4e41 2a1d 0741

crystalGraphConvNet.convs.1.fc_full.weight f4 [128, 169]
-0.029203119 0.065909915 0.0054941713 0.0057637235 -0.06489064 0.021138908 -0.019614656 0.0593759
0.006164097 0.039804667 0.07452462 -0.014700317 0.06033298 0.065254435 -0.047252733 0.045982286
-0.06488087 -0.048483346 -0.024312815 -0.05161889 -0.033003494 -0.023501836 -0.006078461 0.03989477
-0.04207441 -0.07156869 -0.07387814 -0.06526899 -0.07431118 0.05625632 -0.042943362 -0.051087704
-0.057675134 -0.020522406 -0.01824786 0.043084364 -0.028802482 -0.04350986 -0.029173382 -0.067740224
-0.025214367 0.061720744 0.008045174 0.047209807 -0.006393975 -0.011085118 -0.015391064 -0.007670488
-0.07679442 -0.0650801 0.0061951405 -0.028732596 0.06150901 -0.030225117 -0.04046325 0.06552991
0.062277526 0.00447063 0.081694715 0.073015615 0.02770455 -0.05554493 0.0017868007 -0.052363962
-0.011940657 0.004173047 -0.01246438 -0.051615 -0.0027691242 0.029352047 -0.07074911 0.064186685
-0.01888272 0.0052456683 -0.051052988 -0.028985504 -0.07218101 -0.038734578 0.064041905 -0.014249738
0.016987974 -0.03947828 -0.06522467 0.07171699 -0.051119637 -0.014320822 0.056799054 -0.07074956
-0.033951305 -0.007945993 0.050242536 -0.048044972 -0.0022143072 0.017743755 -0.07505355 -0.03480015
0.05511041 -0.027527986 0.0022984245 -0.074701816 -0.064307764 0.0024231398 -0.01864005 0.037805744
0.0686104 0.053281005 -0.026004562 -0.06351183 -0.021044299 0.071485475 0.035648864 0.04703083
0.014715995 -0.01048032 -0.03884806 0.027385242 0.04072192 -0.07432102 0.041376412 -0.03986351
0.027606254 0.017406328 -0.025617782 -0.0056917043 0.02344271 -0.05171465 0.039269347 0.0651311
-0.04097704 -0.036491442 -0.023925755 0.050818004 -0.012344594 -0.021721931 0.0025386673 0.020561416
-0.042022593 -0.013057673 0.0005190565 -0.056028806 -0.07254934 -0.019356463 -0.015775839 0.050558973
0.06670305 -0.06531624 0.013143088 -0.06629137 0.027712017 -0.038984735 0.05171448 0.042025693
-0.04528898 0.05412382 -0.0054283985 0.023618335 0.0020348511 -0.07668735 0.060564984 0.053834375
0.010412089 -0.05928138 0.020829605 0.012998389 -0.02613685 0.056407243 -0.011357602 0.031627454
0.057437513 -0.031024527 -0.05750587 0.06992337 0.002751525 -0.004079995 -0.00082123576 0.07239298
0.038647808 0.058219958 -0.07349104 -0.019455029 0.06515264 0.05385493 0.013833178 -0.06803691
-0.040393572 -0.040111057 9.0907e-05 -0.013691231 -0.059107628 0.012671375 0.0097310385 -0.061423
-0.045187812 0.00094747037 -0.03152742 0.03404831 -0.03837893 -0.07462376 -0.03413494 0.023470147
-0.0024122964 0.029855648 0.038127102 0.06632606 0.06045496 0.017409625 0.03117021 -0.05911167
0.031443488 0.0126544945 -0.04973452 0.056785073 -0.035373587 0.051128518 0.0008197292 0.031864587
0.0793016 0.0036173726 0.034416292 -0.023887258 -0.0055466658 0.018989779 -0.0504954 0.04709489
-0.0624379 0.047729623 0.029370164 -0.010298914 -0.056488596 0.026418807 0.056745652 -0.056598656
0.034258388 0.034702037 0.039990384 -0.008514207 -0.03111915 -0.052131493 0.050416697 -0.052494444
-0.051360704 -0.05572488 0.023663554 0.0049393037 0.08055409 -0.031802088 -0.007669488 0.06889525
-0.030004198 -0.034785323 -0.0689798 -0.026763516 0.021078203 -0.0071232957 -0.023661872 0.020152818
00000000: 613b efbc c7fb 863d 7308 b43b 9edd bc3b
00000010: 62e5 84bd 812b ad3c eaae a0bc 2534 733d
00000020: 32fc c93b 380a 233d 5da0 983d 99d9 70bc
00000030: b71f 773d 1ea4 853d 158c 41bd ec57 3c3d
00000040: 43e0 84bd 7996 46bd ab2b c7bc 546e 53bd
00000050: ac2e 07bd ec86 c0bc d42d c7bb b368 233d
00000060: 3756 2cbd 9b92 92bd 6c4d 97bd c0ab 85bd
00000070: 7630 98bd 076d 663d 61e5 2fbd 5741 51bd
00000080: c33c 6cbd 9b1e a8bc 897c 95bc 3b79 303d
00000090: 2ff3 ebbc 6537 32bd 04fd eebc 63bb 8abd
000000a0: 5c8e cebc e4ce 7c3d e8cf 033c 125f 413d
000000b0: 8d84 d1bb 5b9e 35bc cd2a 7cbc b858 fbbb
000000c0: 6546 9dbd b748 85bd 9b00 cb3b 9f60 ebbc
000000d0: dff0 7b3d aa9a f7bc cbbc 25bd 8c34 863d
000000e0: b816 7f3d 5d7e 923b 8f4f a73d 3689 953d
000000f0: a7f4 e23c 1583 63bd 1533 ea3a 987b 56bd
00000100: bfa2 43bc 0ebe 883b 6637 4cbc 406a 53bd
00000110: 327a 35bb b473 f03c e9e4 90bd 4f74 833d
00000120: efaf 9abc dbe3 ab3b f01c 51bd 0273 edbc
00000130: a3d3 93bd 26a8 1ebd 6728 833d bc77 69bc
00000140: 5d2a 8b3c fab3 21bd 8394 85bd 5be0 923d
00000150: d362 51bd e2a1 6abc 20a6 683d 25e5 90bd
00000160: 8610 0bbd e92f 02bc 1ecb 4d3d ceca 44bd
00000170: e91d 11bb 5a5b 913c adb5 99bd 9a8a 0ebd
00000180: 74bb 613d 5f82 e1bc 2aa1 163b 44fd 98bd
00000190: cab3 83bd 8acd 1e3b 05b3 98bc 32da 1a3d
000001a0: 9c83 8c3d 2f3d 5a3d 8507 d5bc 7e12 82bd
000001b0: 1865 acbc fa66 923d 8b04 123d 66a3 403d
000001c0: 5b1b 713c a6b5 2bbc 251f 1fbd 0457 e03c
000001d0: 07cc 263d 9e35 98bd 507a 293d eb47 23bd
000001e0: 8326 e23c b797 8e3c 62dc d1bc 7a81 babb
000001f0: ed0a c03c bed2 53bd e5d8 203d 7463 853d
00000200: 8ad7 27bd 0d78 15bd f2ff c3bc 8a26 503d
00000210: fb40 4abc 31f2 b1bc c55f 263b 6a70 a83c
00000220: e21f 2cbd daef 55bc 4b11 083a 767e 65bd
00000230: c094 94bd 7291 9ebc 553c 81bc ed16 4f3d
00000240: 9c9b 883d 85c4 85bd 1b56 573c c5c3 87bd
00000250: 5004 e33c 75ae 1fbd 90d2 533d 2223 2c3d
00000260: f080 39bd f0b0 5d3d b5e0 b1bb 3d7b c13c
00000270: 235b 053b 420e 9dbd fd12 783d 6f81 5c3d
00000280: 7797 2a3c 08d1 72bd d9a2 aa3c 32f7 543c
00000290: f21c d6bc 480b 673d 3c15 3abc ca8b 013d
000002a0: 9943 6b3d 2627 febc 468b 6bbd fc33 8f3d
000002b0: ee52 343b 7bb1 85bb 3348 57ba c542 943d
000002c0: 2a4d 1e3d 0d78 6e3d 7882 96bd 2760 9fbc
000002d0: bf6e 853d fd96 5c3d 8ea4 623c ef56 8bbd
000002e0: bb73 25bd 7e4b 24bd 53a5 be38 2f51 60bc
000002f0: d71a 72bd 999b 4f3c ef6e 1f3c af96 7bbd
00000300: db16 39bd a95f 783a e522 01bd 3e76 0b3d
00000310: 3a33 1dbd 58d4 98bd 14d1 0bbd 7744 c03c
00000320: 9e17 1ebb d593 f43c 2a2b 1c3d f5d5 873d
00000330: 9f9f 773d a19e 8e3c ab58 ff3c 141f 72bd
00000340: e3ca 003d cc54 4f3c 6db6 4bbd 7797 683d
00000350: e5e3 10bd 236c 513d 18e3 563a 7184 023d
00000360: e168 a23d 7111 6d3b 19f8 0c3d 36af c3bc
00000370: cec0 b5bb 7490 9b3c 44d4 4ebd 92e6 403d
00000380: e2be 7fbd 2380 433d b399 f03c c7bc 28bc
00000390: 9660 67bd 416c d83c 216e 683d fed3 67bd
000003a0: 8652 0c3d b923 0e3d f5cc 233d 2c7f 0bbc
000003b0: 96ed febc d587 55bd bd81 4e3d 6a04 57bd
000003c0: 9a5f 52bd c63f 64bd 12da c13c e2d9 a13b
000003d0: 8bf9 a43d e842 02bd 5450 fbbb f418 8d3d
000003e0: 5dcb f5bc 0e7b 0ebd 4845 8dbd 293f dbbc
000003f0: 32ac ac3c 896a e9bb 8bd6 c1bc 8617 a53c

crystalGraphConvNet.convs.1.fc_full.bias f4 [128]
-0.02464808 0.02570566 -0.06661662 0.03589524 -0.018286688 -0.04115299 0.024445295 -0.038993176
-0.01606426 0.049451556 -0.011505687 0.028717859 -0.0532485 0.016550956 0.050337162 -0.06498112
-0.038206935 -0.054425616 0.021604383 0.026696848 0.061099533 0.0742816 -0.018137338 0.021587152
0.052562155 0.047555503 0.0642228 -0.06308055 0.017183498 -0.059437644 0.013417431 -0.0016560861
-0.011528837 -0.010626454 0.005119611 0.05181962 -0.05553344 0.04627406 0.075031996 0.016364675
0.04496284 -0.020506842 -0.0052299607 -0.02876677 -0.07088512 -0.056701075 0.015650466 0.021162026
-0.07211369 0.07518052 0.01471194 0.0006176856 -0.027843619 -0.010098898 -0.048294086 -0.076563105
-0.025191482 -0.028366549 -0.025315965 0.06560984 -0.023215525 -0.03238813 -0.07290538 -0.012791561
-0.049417306 0.0046805087 0.06629461 -0.015097171 -0.04349111 0.03377921 0.012323729 -0.050066356
-0.044984672 -0.00989501 0.039980836 -0.061255798 0.028719408 0.05972869 0.0013935656 0.041642
0.0005575984 0.07257155 0.03587844 0.05455174 -0.060332216 0.011102191 -0.05994697 0.0365932
-0.07628894 0.058610633 0.010348059 0.04520257 -0.009950868 0.014614703 -0.055628456 0.06742949
-0.015566879 -0.04649961 -0.035593145 -0.020611048 -0.058871813 -0.023662202 0.071834445 0.05947517
0.019981459 0.072543085 0.055058032 -0.012909811 -0.010920195 -0.013103054 0.07415741 0.011728578
0.066860825 -0.055697188 -0.015075308 -0.036261752 0.016831584 0.0044317935 0.06465815 -0.004477731
0.0023664213 0.05738299 -0.06145647 0.02610624 0.04773517 -0.034608044 0.024272406 -0.010989346
00000000: c5ea c9bc ad94 d23c 4b6e 88bd e306 133d
00000010: f7cd 95bc 0a90 28bd 8041 c83c 4fb7 1fbd
00000020: 3299 83bc b78d 4a3d 5982 3cbc b741 eb3c
00000030: 191b 5abd df95 873c 572e 4e3d d214 85bd
00000040: e07e 1cbd 65ed 5ebd adfb b03c 59b3 da3c
00000050: 8143 7a3d f420 983d c194 94bc 8ad7 b03c
00000060: 6a4b 573d 8fc9 423d 3e87 833d 6030 81bd
00000070: 68c4 8c3c e374 73bd c9d4 5b3c 0711 d9ba
00000080: 72e3 3cbc 941a 2ebc 69c2 a73b cf40 543d
00000090: 0877 63bd de89 3d3d 60aa 993d 360f 863c
000000a0: f42a 383d f7fd a7bc 1760 abbb 4aa8 ebbc
000000b0: 382c 91bd 633f 68bd 6835 803c fc5b ad3c
000000c0: 58b0 93bd 3ff8 993d 590a 713c 2eec 213a
000000d0: 4d18 e4bc d975 25bc 05d0 45bd 1ecd 9cbd
000000e0: 5e5e cebc f760 e8bc 6d63 cfbc 745e 863d
000000f0: 7c2e bebc 6aa9 04bd 6a4f 95bd b293 51bc
00000100: cd69 4abd f45e 993b 78c5 873d 205a 77bc
00000110: bc23 32bd 125c 0a3d 77e9 493c 6112 4dbd
00000120: d941 38bd ae1e 22bc f2c2 233d 5ce7 7abd
00000130: f744 eb3c 12a6 743d 4da8 b63a cd90 2a3d
00000140: cc2b 123a 65a0 943d 45f5 123d a571 5f3d
00000150: ea1e 77bd f7e5 353c f48a 75bd c0e2 153d
00000160: 603d 9cbd b411 703d e88a 293c 5426 393d
00000170: f708 23bc 8272 6f3c aada 63bd 7918 8a3d
00000180: 390c 7fbc 6076 3ebd 1eca 11bd 80d8 a8bc
00000190: 9223 71bd 3cd7 c1bc f01d 933d 3c9c 733d
000001a0: 28b0 a33c 7891 943d 8884 613d ac83 53bc
000001b0: 9eea 32bc 31ae 56bc d7df 973d 3929 403c
000001c0: 54ee 883d bc22 64bd 6dfe 76bc 3487 14bd
000001d0: 64e2 893c 9438 913b 7e6b 843d eeb9 92bb
000001e0: f615 1b3b 6d0a 6b3d c8b9 7bbd c1dc d53c
000001f0: f485 433d 2ac1 0dbd edd6 c63c a80c 34bc

crystalGraphConvNet.convs.1.bn1.weight f4 [128]
1.0009116 0.9999033 1.0029751 0.9993787 1.0006886 1.0023167 1.0002241 1.0015635
0.9995613 1.0030426 0.998947 1.0005612 1.0053282 1.0005773 1.0028621 1.0010406
1.0001355 1.0011983 1.0012418 0.99994254 0.99878526 1.0019554 1.0062233 1.0003468
0.9987782 0.99938536 1.0001853 1.0008534 1.0003134 0.9999157 1.0054741 1.0025941
1.0024161 0.9972463 1.0057877 1.0015994 1.0023888 0.99971485 1.0016766 1.0014147
1.0008152 1.000438 1.0019718 1.00221 0.99992305 1.0001198 1.0031399 1.0006722
0.9993382 0.9996812 1.0007526 1.0036246 0.9986744 0.99919635 0.999681 1.003475
0.99903214 1.0003194 1.00316 1.0028669 1.0016338 1.0026662 1.0030684 1.0003463
1.0000683 1.0011203 1.0105206 0.99923706 0.9993524 1.0002024 1.0008107 0.9978685
1.0044466 1.0024492 1.0018916 1.003693 0.9993484 0.9991597 1.0041175 0.9994515
0.99930876 1.0002071 1.0024441 0.9996263 1.0000805 0.99820936 1.003324 0.99986523
1.0018533 1.001581 1.0003613 0.9984523 1.0000978 0.99960357 1.0029514 1.0010496
0.9990605 1.0047699 1.0022174 0.9984955 0.9977375 1.0010712 0.9991048 0.99969226
1.0011984 0.99992293 0.9970505 1.0027599 1.0006441 0.99904764 0.99890035 1.0011557
1.0013757 1.0006369 0.99847716 1.0002998 0.99990064 1.0001341 1.0012689 0.99973106
1.0037935 1.0006543 0.9980508 1.0000262 1.0054753 1.0028071 1.0053701 1.0003221
00000000: df1d 803f aaf9 7f3f 7d61 803f 48d7 7f3f
00000010: 9016 803f ea4b 803f 5807 803f 3c33 803f
00000020: 40e3 7f3f b363 803f feba 7f3f 6412 803f
00000030: 98ae 803f eb12 803f c95d 803f 1922 803f
00000040: 7104 803f 4427 803f b128 803f 3cfc 7f3f
00000050: 64b0 7f3f 1340 803f edcb 803f 5d0b 803f
00000060: eeaf 7f3f b8d7 7f3f 1206 803f f71b 803f
00000070: 450a 803f 7afa 7f3f 60b3 803f 0155 803f
00000080: 2c4f 803f 894b 7f3f a7bd 803f 6934 803f
00000090: 474e 803f 50ed 7f3f f036 803f 5b2e 803f
000000a0: b61a 803f 5a0e 803f 9d40 803f 6b48 803f
000000b0: f5fa 7f3f ed03 803f e366 803f 0716 803f
000000c0: a1d4 7f3f 1beb 7f3f a918 803f c576 803f
000000d0: 20a9 7f3f 55cb 7f3f 18eb 7f3f de71 803f
000000e0: 92c0 7f3f 770a 803f 8c67 803f f15d 803f
000000f0: 8935 803f 5e57 803f 8c64 803f 590b 803f
00000100: 3d02 803f b624 803f bd58 813f 00ce 7f3f
00000110: 8fd5 7f3f a206 803f 911a 803f 4f74 7f3f
00000120: b591 803f 4150 803f fc3d 803f 0379 803f
00000130: 4cd5 7f3f eec8 7f3f ec86 803f 0edc 7f3f
00000140: b3d2 7f3f c906 803f 1750 803f 82e7 7f3f
00000150: a302 803f a68a 7f3f ec6c 803f 2bf7 7f3f
00000160: bb3c 803f ce33 803f d70b 803f 929a 7f3f
00000170: 3403 803f 05e6 7f3f b660 803f 6522 803f
00000180: 6ec2 7f3f 4d9c 803f a948 803f 679d 7f3f
00000190: ba6b 7f3f 1a23 803f 55c5 7f3f d5eb 7f3f
000001a0: 4527 803f f3fa 7f3f b43e 7f3f 705a 803f
000001b0: 1b15 803f 96c1 7f3f efb7 7f3f df25 803f
000001c0: 142d 803f df14 803f 339c 7f3f d309 803f
000001d0: 7df9 7f3f 6504 803f 9429 803f 60ee 7f3f
000001e0: 4e7c 803f 7115 803f 4280 7f3f dc00 803f
000001f0: 6ab3 803f fc5b 803f f8af 803f 8e0a 803f
