get_descriptor_cgcnn/saved_models/gllb-sc_336.ckpt (torch, 675914 bytes, 58 tensors)

crystalGraphConvNet.embedding.weight f4 [64, 92]
000000 5a fb 88 3d a8 39 d5 3a 9e 49 07 3c cc b0 09 bd
       0.066885665 0.0016267793 0.008257298 -0.033615872
000010 1d 74 4b bb e2 1f f3 3c 8c 30 d3 bb e3 fe 84 ba
       -0.003104455 0.029678289 -0.006444996 -0.0010146763
000020 2a b7 e0 3c 64 e6 49 3c 6e 87 5a 3c 60 c3 a8 bc
       0.02743109 0.012322996 0.013337953 -0.020600975
000030 63 9e 8c 3d f7 43 93 bd f9 82 bf bd 50 ab c8 3d
       0.06866147 -0.07190698 -0.09351153 0.097983
000040 51 48 7d bd 76 65 63 bc 3e 99 ed 3c 30 60 0b bd
       -0.061836544 -0.013879171 0.029003736 -0.03402728
000050 6e b5 6f 3d e4 39 1b 3d 01 67 dd bd 5f 74 d0 3c
       0.058522634 0.037897006 -0.10810662 0.025446115
000060 32 50 67 3d 49 e6 6c 3d 2a 39 be 3d c7 6c 9a 3d
       0.056472965 0.057836805 0.09288247 0.07540279
000070 48 ab f2 bb 74 50 0f 3d 3e 1a 31 bd bc 9d 75 bd
       -0.007405672 0.034988835 -0.043237917 -0.05996488
000080 78 00 44 bd 7e 86 8d 3c a9 fe 16 bd a9 16 b6 bd
       -0.04785201 0.017276045 -0.036863957 -0.08891041
000090 dd d2 b1 bd db 69 9b bd e1 4f 9a 3d 80 4a 48 3d
       -0.08682797 -0.0758855 0.07534767 0.048899174
0000a0 2b f5 a5 3d 8d c5 47 bd 36 f7 6b 3c 62 bd 20 bc
       0.08103403 -0.048772383 0.014402201 -0.009810777
0000b0 f9 c9 4d bd a3 4f 86 bd 13 91 ba 3d de f8 a0 bd
       -0.050241444 -0.06558158 0.09109702 -0.07859968
0000c0 2a d7 b6 3d d9 e5 67 3d 8e 66 15 3d b5 0a af bd
       0.08927758 0.056615684 0.036474757 -0.08546964
0000d0 9f 79 94 bd 3f a9 87 bd 2c 32 38 bb 47 9b 0e 3c
       -0.0724976 -0.06624078 -0.0028106077 0.008704013
0000e0 52 88 8b bc 60 e2 17 3d f7 d9 cc bc 1e b1 e1 3b
       -0.017032776 0.037081122 -0.025006277 0.006887569
0000f0 0c a5 9b 3c b5 ed 5d 3d 0f dc 78 bc 64 e2 68 3d
       0.018999599 0.054181773 -0.015189185 0.056856528
000100 e1 3f 6e bd 59 e9 c0 bb f4 54 c8 3a d5 ba 8e 3d
       -0.05816639 -0.005887192 0.0015284107 0.06969229
000110 07 e2 98 3d 49 36 a6 3a 50 c7 56 3d 67 36 e4 3b
       0.07464986 0.0012680973 0.052436173 0.006964493
000120 79 22 78 3d 6b 64 a6 bc d6 44 b5 bb 01 b6 f0 3a
       0.06057975 -0.020311555 -0.0055318875 0.0018364788
000130 b8 56 08 bd 11 31 80 bd 92 18 f5 3b e2 a7 c8 bd
       -0.033285826 -0.06259359 0.0074797357 -0.09797646
000140 62 0b 73 bd 51 3c 29 3d d9 2d 06 bd 10 7f 11 bd
       -0.059337027 0.041317288 -0.032758567 -0.035521567
000150 42 f4 6a bd 91 fa a9 3c d6 df 23 3d d9 a7 b7 3d
       -0.05736185 0.020749362 0.04000839 0.08967561
000160 82 5d cb bd 1f 19 00 bd 20 e8 3a 3d 2d 7e fc 3c
       -0.099299446 -0.031273957 0.045631528 0.030821884
000170 6e e5 ec 3b bf 1e 2d bd 74 62 47 bc c3 f6 9d 3c
       0.0072294986 -0.04226565 -0.012169469 0.019282704
000180 de d1 cc bc 01 23 ac 3d d9 92 24 bd 26 5e 1f bd
       -0.025002416 0.08405114 -0.040179107 -0.038908146
000190 9c 39 99 3d c7 b4 93 3d 49 02 04 bd 3d 7d 55 3d
       0.07481691 0.07212215 -0.03222874 0.05212139
0001a0 71 12 c6 bc 2a 0d 26 3c 63 51 60 3d e7 6f 62 bc
       -0.024178715 0.0101349745 0.054765116 -0.013820625
0001b0 6b e6 c0 bd ba b3 c9 3d de 0e 3e 3d cc db 29 bd
       -0.09418949 0.09848733 0.046400897 -0.04146938
0001c0 bd 91 f9 3b e5 aa b9 bc dd df ce bd 2c b5 d5 bd
       0.0076162503 -0.022664497 -0.10101292 -0.104349464
0001d0 73 af 92 3c cc 2d 8b bb 3e f6 de 3d 33 63 a4 ba
       0.017905926 -0.004247403 0.10886811 -0.0012541771
0001e0 fe 47 00 3d 30 5b cb bd 02 14 6d bd 0e 38 b5 bc
       0.031318657 -0.09929502 -0.05788041 -0.022121456
0001f0 e4 56 5c 3d d6 a2 a1 bd 97 0c a4 bc 03 2e 9d 3d
       0.053793803 -0.078923866 -0.020025535 0.07674792
000200 7a 0a 7a 3c 09 bb c5 bd 1e 4c c3 bc 0d 08 12 3d
       0.015261287 -0.09654815 -0.023840006 0.03565221
000210 a6 7d 9c 3d 8c e2 d3 bd 9d e4 9c bd 1a 80 bf bd
       0.07641153 -0.10345945 -0.07660792 -0.09350605
000220 27 49 a1 bd 65 4f 77 bd 20 98 92 3d 08 20 93 3c
       -0.07875281 -0.06037845 0.07157922 0.01795961
000230 b4 0a 47 3d c4 ce bd bd e7 7f 22 bd 5a bb 9a 3d
       0.04859419 -0.09267953 -0.03967276 0.07555266
000240 c0 c5 85 bd ce 33 8c bc 37 09 b0 3d a4 94 d0 3d
       -0.065318584 -0.017114546 0.085955076 0.10184601
000250 f7 64 a9 3d ec d9 8f bd 2b 5a fb 3c bb c9 dd bb
       0.08271211 -0.07023987 0.030682644 -0.006768433
000260 52 3e c3 3d aa 83 37 bd be bf 38 bd 3c a6 38 3d
       0.09533371 -0.0448033 -0.045104735 0.04508041
000270 04 70 a1 bd 94 54 80 3d b3 d1 9b 3d 4f cb 3d bd
       -0.078826934 0.06266132 0.07608356 -0.04633647
000280 c8 75 a5 3d 2a 6f 42 bd c7 f0 65 3b c6 8d c8 3b
       0.080791056 -0.047469296 0.0035086141 0.0061204163
000290 bf e4 bf 3d ba 02 87 bd 28 4e 6f 3d 0e 2c 79 3d
       0.09369802 -0.06592317 0.058424145 0.06083303
0002a0 ba eb 8b bd c7 4a 62 bd c7 12 31 3d 16 18 4c bc
       -0.06832071 -0.055247094 0.043230798 -0.012456914
0002b0 4e 4b a8 3d 7c 65 b7 bc 6d 8c b4 bd a9 95 85 bd
       0.08217488 -0.022387259 -0.088158466 -0.06522686
0002c0 64 56 cb 3d f2 f0 84 bd 55 fc 99 bd 41 b9 e2 bc
       0.09928587 -0.06491269 -0.07518832 -0.027676227
0002d0 d7 a4 da 3d 7e 77 b0 3c b1 85 3e 3d b7 c1 e8 3c
       0.10675972 0.021541353 0.046514217 0.028412683
0002e0 79 41 fe 3c eb ab 30 3d dd be bc 3d 72 5c 95 3d
       0.03103708 0.043132704 0.09216092 0.07293023
0002f0 24 9c 60 bd 01 74 c4 3c 47 87 78 3d 56 c9 86 3c
       -0.054836407 0.023981096 0.060675886 0.016453426
000300 52 7d 74 3d 85 00 44 bd 51 81 2d 3c 94 a9 87 bd
       0.059689827 -0.047852058 0.010589913 -0.06624141
000310 8c ec e7 3c 29 8f cd 3d 0a 4d a7 bd d7 db 69 3d
       0.028311037 0.10037071 -0.08168991 0.05709442
000320 a3 8c db 3c 84 36 46 3d cf bd 3d 3d 87 4a 9e 3c
       0.02680046 0.048391834 0.046323594 0.019322647
000330 02 ac b5 bd 6a 7f 51 bd 3f 21 7d bd 76 b4 96 3d
       -0.088706985 -0.051146902 -0.061799284 0.07358639
000340 2c 29 dc bc 6a 49 08 3c 18 29 2a bc 10 1a 3f 3d
       -0.026875101 0.0083182845 -0.010385774 0.046655715
000350 98 aa a2 3d d0 f7 9d 3d 87 b3 d7 3d 1b da 79 3d
       0.079426944 0.07713282 0.10532289 0.060999017
000360 32 9c 9d bd 5b 06 49 3d 07 6f d3 3d 62 80 92 3d
       -0.076958075 0.049078327 0.10323911 0.07153393
000370 71 63 cb ba a4 8e 0f bd 30 66 41 3d 9b cf 41 3c
       -0.0015517307 -0.035048142 0.047216594 0.011829282
000380 00 09 61 3d 4a 77 05 bd 87 6c dd 3c 35 a8 46 bd
       0.054940224 -0.032584466 0.027029289 -0.04850026
000390 b4 03 a1 3b b7 56 c5 bd 3e 25 46 bc 6c 54 e9 bd
       0.0049137715 -0.0963568 -0.01209384 -0.11393055
0003a0 f3 b1 b2 bd 89 7f bf bb cd b1 85 bd 5d 69 8c bd
       -0.08725347 -0.005844061 -0.065280534 -0.06856034
0003b0 e1 f8 e6 bd ce 01 cc bd 35 f6 5d 3d 4f d5 a4 3d
       -0.11277939 -0.09961282 0.05418988 0.08048498
0003c0 4e 46 9c bd 01 63 ba bd 7a 92 ae 3d 6f a7 91 3d
       -0.07630597 -0.09100915 0.08524032 0.071120135
0003d0 6f fd 5e bb 62 c3 c5 bd c1 82 bc 3d 49 61 8f 3c
       -0.003402557 -0.09656407 0.09204627 0.017502444
0003e0 2d 2d bf 3d c5 3b c6 3d 7c 16 64 3d 41 5c 2f 3d
       0.093347885 0.09679369 0.055685505 0.04281259
0003f0 36 5a 7d bd 2f eb 52 bd 4f 31 25 3d 3d d3 33 3d
       -0.06185361 -0.05149382 0.040330227 0.043902624

crystalGraphConvNet.embedding.bias f4 [64]
000000 3c bb be 3d 91 d1 62 3d 6c 3c b8 3d ea 2b 4f bc
       0.09313056 0.05537564 0.089958996 -0.012644747
000010 18 f0 3f bd d9 a0 93 3d 5c be f6 bc 1d d0 0a 3d
       -0.04685983 0.07208414 -0.030120067 0.03388988
000020 aa 7c 2b bd 20 ff 89 3d 06 10 78 bd 21 3e 38 3b
       -0.041866936 0.06738114 -0.060562156 0.0028113204
000030 dd f4 8c 3d 98 52 47 bd 2b b3 9d 3d c0 00 ba 3c
       0.068826415 -0.048662752 0.07700189 0.022705436
000040 a1 9e e6 3c 25 78 97 3d 0f 4a cb bd fb 60 df bc
       0.028151812 0.073959626 -0.09926235 -0.027267924
000050 a3 de 7b 3c 51 bb fa 3b c2 47 ab 3d a9 9f b2 bd
       0.015372905 0.0076517244 0.08363296 -0.08721859
000060 dc c9 44 bb 30 c2 da bc f0 6b 2d bd 09 d8 5f bc
       -0.0030027544 -0.026703924 -0.042339265 -0.013662347
000070 ff 13 20 bd ff 7e 64 3d 99 e2 21 3c 17 fa 2f bd
       -0.03908157 0.055785175 0.009880685 -0.042963114
000080 9e bb c2 bd c7 95 53 3d cb 15 a2 bb f8 94 af bd
       -0.095084414 0.05165651 -0.0049464456 -0.085733354
000090 78 cd 11 bd 58 b5 04 3d fe 41 ae 3d 8c 31 9a 3d
       -0.03559634 0.032399505 0.08508681 0.075289816
0000a0 e5 fd 28 bd b2 df 6c bd 4c 9b 25 3a 97 bf 02 3d
       -0.041257758 -0.05783052 0.00063173915 0.031920996
0000b0 2a 6f c5 bd 66 b5 be bd f6 b4 d8 bd 4f 37 bb bd
       -0.096403435 -0.09311943 -0.105813906 -0.09141409
0000c0 37 49 ce bd 1c df be bd 14 cb c5 bd 5e 8f c7 bd
       -0.100725584 -0.093198985 -0.09657875 -0.09744142
0000d0 70 22 c5 bd 55 f2 4b 3d 43 fe ad 3d 6a ee a3 3d
       -0.09625709 0.049791653 0.08495762 0.08004458
0000e0 31 a7 d9 3c e8 f0 02 bd 62 4f 2f bc 2c 43 a6 bd
       0.02656898 -0.031968027 -0.010700079 -0.08118281
0000f0 f0 9d 01 bd ca aa 8e bd 64 83 8b 3d 1f bd 71 3b
       -0.03164476 -0.06966169 0.0681217 0.0036886407

crystalGraphConvNet.convs.0.fc_full.weight f4 [128, 169]
000000 e8 33 d0 3c 05 ea 95 bb 84 37 2c bd ea 6b 80 3c
       0.025415376 -0.0045750164 -0.04204513 0.015676457
000010 68 0f 08 bd 48 5b 38 bc 8e 32 0a 3c fb ed 0f 3d
       -0.033217818 -0.011252232 0.008434905 0.035139065
000020 1e bc 09 bd 07 5c 16 bd f0 b7 4d bd 6f 8a 97 bd
       -0.03362667 -0.036708858 -0.050224245 -0.07399451
000030 f2 c6 61 3d 42 c9 4b 3d f2 30 92 3d 9f c4 8d 3d
       0.05512137 0.04975248 0.07138242 0.06922268
000040 f9 82 f0 3c 1b 4c 06 3c 72 d6 a6 3b 40 c8 d2 3c
       0.029359328 0.008196856 0.005091482 0.025730252
000050 18 89 53 bd 4b 01 1f 3d 6d d0 15 bc 7f 89 3f 3d
       -0.051644415 0.038819592 -0.009143931 0.046761986
000060 b9 9d 45 3d f2 e5 7f 3d b7 18 85 bd ce 7c d4 bc
       0.04824612 0.062475152 -0.064988546 -0.025938418
000070 66 ca 46 bd 6d 52 74 3b 7e 55 9a 3c 6d 52 bc 3c
       -0.048532866 0.0037280575 0.018839594 0.022988522
000080 3c 46 00 bc df 10 57 bd d2 4e 37 bb 0d 93 e0 bc
       -0.007829245 -0.052506324 -0.0027970565 -0.02741387
000090 ec fd ff bc e6 57 30 3d 09 7b 72 3d 83 a1 a1 bc
       -0.03124901 0.043052576 0.059199367 -0.019730335
0000a0 8e 75 90 bc 4f 94 07 bd 0c 8c 59 bd de 5b d2 3c
       -0.01763418 -0.033100422 -0.053112075 0.025678571
0000b0 97 8d 6d bd 4f b4 f1 bb 5d 15 f7 3c ec 10 ad bd
       -0.05799636 -0.007376231 0.030161554 -0.08450493
0000c0 64 02 a4 3d ae de 1c bd a2 53 23 3d 7f c3 d4 bc
       0.080082685 -0.0382983 0.03987468 -0.025972126
0000d0 ae 3c 81 bd 17 fc 7f bb ff 11 5f 3d 68 32 48 3d
       -0.06310402 -0.003906017 0.05446052 0.048876196
0000e0 21 2c 58 bc 51 56 d5 bc f8 74 2c bd 28 c9 60 3b
       -0.013194115 -0.026042135 -0.042103738 0.0034299586
0000f0 9f f8 8f bc c7 e4 cf 3a d5 69 ad bc d2 12 d6 bc
       -0.017574606 0.0015861028 -0.021168629 -0.026132021
000100 44 9f fd bc 7c 10 fb bc 09 20 4e 3c d0 e1 0b bd
       -0.030959733 -0.030647509 0.01258088 -0.0341509
000110 d1 1b 93 3d 95 dc 0c 3c fc 96 bf 3b 9b 90 1f 3d
       0.0718304 0.008597513 0.005846856 0.038956266
000120 88 42 4d 3d cd 4c 15 3d cb 6b 7c bd fd 17 71 3d
       0.050112277 0.036450196 -0.061626237 0.058860768
000130 83 c7 64 3c 36 52 5d bd 73 e8 0f 3d 65 4e 25 3d
       0.013963583 -0.05403348 0.03513379 0.040357966
000140 5c 80 14 3b c5 79 ab 3c d2 30 97 3d ae 9f 7a 3d
       0.0022659516 0.020932088 0.073823586 0.06118744
000150 72 69 58 bd 3d dd 55 3d 20 b5 9c bd 3b 4b c3 bb
       -0.052834935 0.052212942 -0.07651734 -0.005959896
000160 05 68 a5 bd ac f6 5d bd 13 31 bf ba 32 e4 c0 3c
       -0.08076481 -0.054190323 -0.0014586769 0.023546312
000170 84 5c 60 bd bc d9 33 3d b6 a6 3b bd 58 a8 92 3d
       -0.05477573 0.04390882 -0.045813285 0.07161015
000180 d6 ce 57 bd 89 98 db 3c 00 ae b9 bc a7 78 a1 bc
       -0.05268749 0.026806133 -0.022665977 -0.019710852
000190 8d 4f 3d bd 04 7c e6 3c 3c 89 93 bd f4 4b 2e 3d
       -0.046218444 0.028135307 -0.0720391 0.042552903
0001a0 1d 75 80 3d 75 66 8a bd 6b eb 99 3d 78 8e 5b 3d
       0.062723376 -0.067578234 0.075156055 0.053602666
0001b0 a1 94 9d 3b 0d 3c 09 3d 31 91 c6 3c f6 19 19 bd
       0.0048089777 0.033504535 0.024239155 -0.037378274
0001c0 c8 ea 8e 3d 17 e4 44 3d 8c 93 0d 3d 75 2d 7a 3d
       0.06978375 0.048069086 0.03456454 0.061078507
0001d0 85 1e 5f 3d 53 91 92 bd 53 30 19 bd a0 77 78 3d
       0.054472465 -0.07156625 -0.0373996 0.06066096
0001e0 f7 4e 0c bd 86 f6 35 3d d5 d5 73 bd b1 64 e9 3c
       -0.034254994 0.044424556 -0.059530098 0.028490396
0001f0 c6 10 f4 3c d5 38 22 bd bc f5 6e b9 3c a3 48 3d
       0.029793154 -0.03960498 -0.00022788992 0.048983797
000200 01 7f 4e 3d 4f 50 18 bd 8a cf f9 3c fc 6b 1b 3c
       0.05041409 -0.037185963 0.03049447 0.009486195
000210 69 19 fc 3b e4 dc 1f 3d 1d 02 ce bc ad cc fe 3c
       0.007693459 0.039029017 -0.025147492 0.031103456
000220 e3 ba a1 bc 8b d0 9e 3d 1b 88 06 bd c9 9b 37 bc
       -0.019742435 0.0775462 -0.032844644 -0.011206576
000230 f9 1c 59 bd d2 7a 9f bc 67 2e cf bc d8 5e fa 3c
       -0.053006146 -0.019467745 -0.025290681 0.030562803
000240 94 51 b6 3c 7e 60 a2 bd f6 ba ac bc f8 17 d5 bc
       0.022255696 -0.07928561 -0.021085244 -0.026012406
000250 3b 07 74 3d 64 ec 3a bc aa e5 ab bd ae 3f 56 bd
       0.059577208 -0.011408899 -0.08393414 -0.052306823
000260 d8 0e 7d 3d 12 a9 73 3d 4e a9 77 3d ca b4 a1 bc
       0.061781734 0.05948741 0.060464196 -0.019739527
000270 27 91 0c 3d 7b c8 8b bd 25 36 e5 39 ee f6 2c 3c
       0.034318116 -0.06825348 0.00043718625 0.0105569195
000280 23 14 fc 3c 8f 46 16 bd bc 27 37 bd d4 45 5e bd
       0.03077132 -0.036688384 -0.044715628 -0.054265812
000290 8e c3 99 3d 72 71 3f bd 74 cc 2e 3d f9 21 71 bd
       0.07508002 -0.04673905 0.04267545 -0.05887029
0002a0 74 50 72 3d 9b 05 b6 bc fe 92 65 bd b0 2a 12 3d
       0.059158757 -0.02221947 -0.056048386 0.03568524
0002b0 c9 cf 70 3c e7 7b d5 bc ff 32 db 3b f0 8a 93 3d
       0.014697977 -0.026060058 0.006689429 0.072042346
0002c0 4e 18 e4 bc 0a ca 37 3d d2 8b 51 3d a2 21 34 bd
       -0.02784362 0.044870414 0.051158734 -0.043977387
0002d0 7d 0c 7f bd a7 8c 55 3d cb 3c d1 3c d9 53 1d 3d
       -0.06226777 0.05213609 0.025541684 0.03841004
0002e0 2c 58 80 bd 7a ee 30 bd d1 ea 0e 3d 91 71 60 3d
       -0.062668175 -0.04319618 0.034891907 0.054795805
0002f0 83 80 77 3b 93 97 06 3d 36 bb ff bc 74 90 9a bc
       0.0037765808 0.032859396 -0.031217199 -0.018867709
000300 37 9d 10 bd 6f 3a 8b 3b 3f 30 8f 3c d0 d8 ae 3c
       -0.03530618 0.004248909 0.01747906 0.021343619
000310 90 96 2a bd d0 f3 6c 3d ea 47 0c 3d 2f dc 3f 3d
       -0.041647494 0.057849705 0.03424827 0.046840843
000320 31 cf 1d bd dd df 51 bb 93 17 b2 3b 4d 57 f6 3c
       -0.03852767 -0.0032024302 0.005434939 0.030070925
000330 e8 7c 69 3d 1a 80 9b 3c 14 bb 4b bd 8a 45 50 3d
       0.057003886 0.018981982 -0.04973896 0.050847568
000340 5b d5 00 3d 85 39 5d bd 11 64 61 3c 99 80 96 3c
       0.03145347 -0.054009933 0.013756768 0.018371867
000350 08 6c 98 3d f2 61 16 bd ba 37 8b 3d 5c ce 6f 3d
       0.0744248 -0.0367145 0.067977384 0.05854641
000360 c9 5c 59 bc 0e c8 99 3d b7 7c 47 bd 17 78 06 3d
       -0.013266751 0.075088605 -0.04870292 0.03282937
000370 da 7e 4a ba 01 72 34 bd 12 ba 92 3d 54 88 98 3d
       -0.0007724591 -0.044054035 0.07164396 0.074478775
000380 b8 5a 83 bd f1 a3 06 bb b6 aa 85 ba c5 3a b0 3c
       -0.064137876 -0.0020544494 -0.001019797 0.021512398
000390 cb d3 17 bc 19 db 17 3d 32 8b 26 bc 42 2f 0a 3d
       -0.009266804 0.037074182 -0.010165023 0.033736475
0003a0 11 73 85 bd b3 36 4a b8 17 ce a0 bc e5 41 6d bd
       -0.06516088 -4.8211496e-05 -0.019629521 -0.05792417
0003b0 34 b7 e1 bc b9 5d 32 bd 78 e9 40 bd f3 fe 08 3d
       -0.027553178 -0.043546412 -0.047097653 0.033446264
0003c0 90 63 03 3d 6d 76 11 3d d7 48 a3 bd e9 a3 69 3d
       0.032077372 0.03551333 -0.079728775 0.057041083
0003d0 6f b1 33 bd 50 13 5b bd dd bb 68 3c bf 0d 64 3c
       -0.043870386 -0.053485215 0.014204946 0.013919293
0003e0 4f 20 f3 3c 55 85 82 3d cd 13 db 3c c7 49 a3 3c
       0.029678492 0.06373087 0.02674284 0.01993264
0003f0 f9 21 ab bb e6 f6 ac bc e8 72 1d 3d 91 38 4c 3d
       -0.0052225557 -0.021113824 0.03843966 0.049858633

crystalGraphConvNet.convs.0.fc_full.bias f4 [128]
000000 b1 39 8f 3d 7a 68 8e bc c4 74 14 3c 07 92 e1 bb
       0.06993426 -0.017383803 0.009061042 -0.006883863
000010 d6 9e c5 3c ac d1 c3 3c da fb 91 bd d0 d3 7d 3d
       0.02412359 0.02390369 -0.07128115 0.06196958
000020 9e 92 0b bc 44 2f 4d 3d 47 0a cc 3c 8d b3 8b 3c
       -0.008518843 0.050093904 0.024907244 0.01705339
000030 cb 4f 0f 3d a6 19 5a 3d 21 5c fd bc 52 92 71 bd
       0.034988206 0.053247117 -0.03092772 -0.058977433
000040 d7 d1 29 3d 8a 4d 94 bd 96 6e 90 bd e1 bb bb 3c
       0.041459884 -0.07241352 -0.070523426 0.022916736
000050 88 27 58 3d 6a 3a 93 3d 9a 66 93 bc 63 f4 86 3d
       0.052772075 0.07188876 -0.01799326 0.06589582
000060 cf b0 8a bc 3e 70 70 bd f3 a1 69 3d 82 94 51 bd
       -0.016930012 -0.058700792 0.057039212 -0.05116702
000070 74 ca 10 bd 3e 2a 31 bd 8b 88 8b 3d d1 c1 73 3c
       -0.035349324 -0.043253176 0.06813153 0.014877752
000080 80 47 06 bd 94 7b 8a 3c f6 f8 69 bd 49 32 7f 3d
       -0.03278303 0.01690463 -0.057122193 0.062303815
000090 b3 b9 af 3a 00 ea 92 bd f0 52 93 3c 7b 30 0a bd
       0.0013406783 -0.07173538 0.017983884 -0.03373764
0000a0 59 ee 57 bb df d6 ce bc 72 c8 8f bd 20 8d 9c bd
       -0.0032948463 -0.025248943 -0.07020654 -0.07644105
0000b0 67 1d bb 3c 07 98 92 bd a2 a3 ed 3b 43 f4 95 3b
       0.022841169 -0.07157903 0.0072521726 0.0045762374
0000c0 4a 67 05 3c 16 21 e3 bc 12 7e 76 3d 95 42 f0 3b
       0.008142302 -0.027725738 0.060178824 0.007332156
0000d0 02 48 e2 3c 6e 1c 9b bd 84 c3 24 3c 15 35 8d 3d
       0.027622227 -0.07573782 0.01005638 0.0689489
0000e0 75 0f da 3c cf ea 7f bc c4 86 2c 3d 19 b0 04 bd
       0.026618699 -0.015619948 0.04212071 -0.032394502
0000f0 6f 80 49 3d e0 6c ea 3c c3 57 f7 bb 73 72 56 ba
       0.04919475 0.028616369 -0.007548304 -0.00081805064
000100 8d 32 98 3d 62 96 8f 3c 36 db 2f bd 43 f3 41 bc
       0.07431517 0.017527763 -0.042933665 -0.011837783
000110 ec 81 76 3d 23 ed c3 bb 5c fd f3 bc 0c 43 59 bd
       0.060182497 -0.0059791966 -0.029783897 -0.053042457
000120 cd 69 8d bd f7 46 86 bd a8 42 88 bd 8b 11 31 3c
       -0.069049455 -0.06556504 -0.06653339 0.010807405
000130 2c 10 e4 bc c6 bd 4d 3d 29 ad 45 3d e1 66 88 bd
       -0.027839743 0.05022981 0.04826084 -0.066602476
000140 1f 74 89 3c 95 28 92 3c 99 86 87 bd 98 03 90 3d
       0.016779004 0.017841617 -0.06617469 0.070319355
000150 f1 58 05 3b 1d f6 a8 bc d8 a9 3b 3d f8 14 46 3d
       0.0020347203 -0.020625168 0.045816272 0.04835984
000160 e6 93 87 3d d5 ea 40 3d 68 6b 5b bc c7 a7 81 bd
       0.06620006 0.047098953 -0.013392307 -0.06330829
000170 f4 b0 a5 3b 6d 00 6b 3d 7d 03 87 3d 1c 7c 5d 3d
       0.005056495 0.057373453 0.06592462 0.054073438
000180 4c 16 9c bd 97 c2 7d bd b3 b3 76 3b 27 11 92 bd
       -0.0762144 -0.061953153 0.003764373 -0.07132178
000190 76 08 3f bc a9 57 86 bd 13 6a 1b 3c 9e 78 92 bc
       -0.011659732 -0.065596886 0.009485739 -0.01787978
0001a0 50 97 50 bd 2e d7 74 3d 56 92 a5 3c 26 e3 5b 3d
       -0.050925553 0.059775524 0.02021138 0.053683423
0001b0 8b 70 6c bd fe ed cc bc a1 68 eb bc 90 ec 5f bd
       -0.057724517 -0.025015827 -0.028736414 -0.054668963
0001c0 a0 cf 25 3d 0b 49 10 3d d2 35 7e 3d 0b 74 1f bb
       0.04048121 0.03522591 0.062063046 -0.0024330642
0001d0 69 12 d2 bc 8e c0 c8 3c ff a0 1d 3d ee 5b f1 ba
       -0.025643544 0.02450588 0.038483616 -0.0018414238
0001e0 f4 a6 a4 3c a2 42 27 bd 22 3c cf bc 53 24 69 bd
       0.02009914 -0.04083503 -0.025297228 -0.056919407
0001f0 56 d7 1e bd 74 13 5a 3b d0 c0 8d 3c 05 91 53 3c
       -0.03877958 0.0033275755 0.017303854 0.012912993

crystalGraphConvNet.convs.0.bn1.weight f4 [128]
000000 c9 ef 7f 3f 35 26 80 3f 1b 40 80 3f e8 ad 7f 3f
       0.9997526 1.001166 1.0019563 0.99874735
000010 4f ea 80 3f 12 0f 80 3f 5e 80 80 3f dc b2 7f 3f
       1.0071505 1.0004599 1.0039175 0.9988229
000020 93 81 80 3f 84 a2 80 3f 36 f4 7f 3f 2d 11 80 3f
       1.0039543 1.0049596 0.9998201 1.0005242
000030 d2 46 80 3f 2f b2 7f 3f d4 40 80 3f 17 26 80 3f
       1.0021613 0.9988126 1.0019784 1.0011624
000040 33 6e 7f 3f 26 9f 7f 3f 52 17 80 3f 03 f6 7f 3f
       0.99777526 0.99852216 1.0007117 0.9998476
000050 14 f8 7f 3f 3e f3 7f 3f 20 36 80 3f b8 c8 80 3f
       0.9998791 0.99980533 1.0016518 1.0061255
000060 a8 00 80 3f c9 65 80 3f 40 c4 80 3f 11 83 80 3f
       1.00002 1.0031062 1.0059891 1.0039998
000070 70 01 80 3f 00 70 80 3f ba 9b 80 3f 83 19 80 3f
       1.0000439 1.003418 1.0047524 1.0007786
000080 c7 a9 7f 3f 0d 79 80 3f ca 0f 80 3f ef 34 80 3f
       0.99868435 1.0036942 1.0004818 1.0016154
000090 3f 63 80 3f 11 1a 80 3f a2 5d 80 3f 8b 4b 80 3f
       1.0030288 1.0007955 1.0028574 1.0023054
0000a0 5e 97 7f 3f ca 09 80 3f 1a 06 80 3f 73 ee 7f 3f
       0.99840343 1.0002987 1.0001862 0.9997322
0000b0 e6 3c 80 3f 16 35 80 3f f7 30 81 3f 9e 98 7f 3f
       1.0018585 1.00162 1.0093068 0.9984225
0000c0 52 52 7f 3f 98 18 80 3f 8e 11 80 3f 68 4c 7f 3f
       0.99734986 1.0007505 1.0005357 0.9972596
0000d0 87 5f 80 3f 3c e8 7f 3f 49 db 80 3f 0c fc 7e 3f
       1.0029153 0.99963737 1.006692 0.99603343
0000e0 62 fc 7f 3f 8a f2 7f 3f fd 65 80 3f 2b f8 7f 3f
       0.9999448 0.9997946 1.0031124 0.9998805
0000f0 73 5f 80 3f 2d 2a 80 3f a4 96 80 3f 68 5d 80 3f
       1.0029129 1.0012871 1.0045972 1.0028505
000100 3d 99 7f 3f 4b d1 7f 3f 91 44 7f 3f 7a 5f 80 3f
       0.998432 0.9992873 0.99714 1.0029137
000110 29 5b 80 3f fa c1 7f 3f 10 5c 80 3f 11 20 80 3f
       1.002782 0.9990536 1.0028095 1.0009786
000120 92 0d 80 3f 6c a9 7f 3f a1 2e 80 3f 94 13 80 3f
       1.0004141 0.9986789 1.001423 1.0005975
000130 26 83 7f 3f f5 17 80 3f 72 13 80 3f 1b 49 7f 3f
       0.9980949 1.0007311 1.0005934 0.99720925
000140 ff 38 80 3f c8 5c 80 3f 61 18 80 3f fb 9c 7f 3f
       1.0017394 1.0028315 1.000744 0.9984891
000150 ed 2c 80 3f 96 dc 7f 3f 28 04 80 3f ba d5 80 3f
       1.001371 0.9994596 1.0001268 1.0065224
000160 4e b4 80 3f fc 31 80 3f f4 6a 7f 3f b2 14 80 3f
       1.0055025 1.0015254 0.9977257 1.0006316
000170 0e e4 7f 3f 18 03 80 3f 65 fb 7f 3f e0 f9 7f 3f
       0.9995736 1.0000944 0.9999297 0.99990654
000180 a7 1b 80 3f ae 9b 7f 3f 2c 66 80 3f b5 2c 80 3f
       1.0008439 0.99846923 1.003118 1.0013644
000190 0e e1 7f 3f 93 e6 7f 3f 80 7a 7f 3f 75 b2 7f 3f
       0.9995278 0.99961203 0.99796295 0.9988168
0001a0 da b6 7f 3f dc 14 80 3f 2f ec 7f 3f 80 df 7f 3f
       0.99888384 1.0006366 0.9996976 0.9995041
0001b0 28 3d 80 3f f8 7c 7f 3f b4 40 80 3f 64 3b 80 3f
       1.0018663 0.9980006 1.0019746 1.0018125
0001c0 93 69 80 3f 06 cb 7f 3f 15 18 80 3f 44 2d 80 3f
       1.0032219 0.99919164 1.0007349 1.0013814
0001d0 62 46 80 3f 20 d9 7f 3f e6 c4 7f 3f e1 81 80 3f
       1.0021479 0.9994068 0.9990982 1.0039636
0001e0 27 9f 7f 3f ff 84 80 3f 5e fe 7f 3f 6c 90 80 3f
       0.9985222 1.0040587 0.9999751 1.0044074
0001f0 e3 6b 80 3f 0a 38 80 3f 96 72 7e 3f fe fa 7f 3f
       1.0032924 1.0017102 0.99393594 0.9999236

crystalGraphConvNet.convs.0.bn1.bias f4 [128]
000000 df 10 26 b9 75 12 ca ba 48 dc 45 bb 83 0c ed 39
       -0.00015837279 -0.0015416878 -0.0030191112 0.00045213485
000010 b5 a2 0c 3a b6 c2 23 3b e2 a4 af bb c8 c7 9e 3a
       0.00053648214 0.0024987883 -0.0053602317 0.0012113983
000020 33 14 33 bb 5b d0 83 ba 61 27 c9 39 d1 f0 93 ba
       -0.0027325272 -0.0010056602 0.00038367047 -0.0011286979
000030 8e a6 b0 b9 72 6a 0f 3a 84 5c af ba 0f ce a5 37
       -0.0003369343 0.00054708787 -0.0013379012 1.9765486e-05
000040 a4 85 08 3b 2e 98 c4 3a 19 ca b5 3a 62 61 51 3a
       0.002083161 0.0014998966 0.0013869434 0.00079872285
000050 c1 a5 eb b9 c6 4c 77 b9 7d 9e 96 39 c2 40 68 bb
       -0.0004494619 -0.00023584356 0.00028728312 -0.003543899
000060 23 69 20 3b ff 55 37 ba c0 e9 7e bb 5b 62 74 ba
       0.002447673 -0.00069937104 -0.003889665 -0.00093225174
000070 09 15 7e bb 03 be 45 3b f8 41 33 bb de 22 55 39
       -0.0038769862 0.003017307 -0.0027352553 0.00020326252
000080 20 ba be 3a 53 f0 6f bb 3d 2a 94 ba ea ca e6 b9
       0.0014551319 -0.003661175 -0.0011304092 -0.000440202
000090 d7 f8 ec b9 2d 2e 17 ba 49 3b 59 ba 01 5c 01 bb
       -0.00045198828 -0.00057670736 -0.0008286727 -0.0019738676
0000a0 aa 65 91 3a c1 93 73 ba cd 36 ef ba 9a 12 9e 3a
       0.001109292 -0.00092917314 -0.0018250585 0.0012059987
0000b0 8d 0f 31 ba 8f 28 88 ba b1 41 b2 bb 98 08 f3 37
       -0.00067543314 -0.0010388064 -0.00543996 2.897186e-05
0000c0 d2 88 29 3a 2f 03 62 ba 47 c0 f0 ba 19 50 07 3b
       0.0006467226 -0.000862169 -0.001836785 0.0020647107
0000d0 20 b1 12 3a fb 34 8a ba 41 e8 19 bb d0 c9 78 3b
       0.00055958517 -0.0010544354 -0.0023484381 0.0037962086
0000e0 0f 86 98 b8 a2 b3 bb b8 e3 98 8b bb 07 43 42 b9
       -7.272895e-05 -8.950314e-05 -0.004260169 -0.00018526251
0000f0 83 51 35 3a 60 5c 1c ba d9 fb 1c bb ea 30 ec b9
       0.0006916748 -0.00059646927 -0.0023953824 -0.00045049872
000100 03 55 4b 3a 5b 45 45 39 89 59 bf 3a c9 ba c7 ba
       0.0007756503 0.00018813221 0.0014598827 -0.0015238161
000110 2b a9 1a ba 5e 89 88 3a ed 62 26 bb 41 e1 f1 39
       -0.0005899842 0.0010416915 -0.0025388554 0.0004613493
000120 d4 fd a1 ba c2 a3 8c 3a a7 db 2a b9 9e f3 bc b9
       -0.0012358972 0.0010729956 -0.0001629429 -0.00036039663
000130 f7 88 e2 39 ec 09 8f b9 46 3d d7 ba d0 e0 77 3a
       0.00043208126 -0.00027282478 -0.0016421459 0.0009455802
000140 d2 c1 11 ba 17 44 88 ba 9f c1 bf 38 81 36 b4 3a
       -0.00055601925 -0.0010396269 9.1436545e-05 0.0013749154
000150 ba 96 19 ba 63 2e a3 b8 17 a2 0e b7 d9 92 46 bb
       -0.0005858947 -7.781086e-05 -8.501599e-06 -0.003029993
000160 83 dc 04 bb 65 e5 a0 ba 77 f1 9f 3a 44 9e cb 39
       -0.0020273037 -0.0012275396 0.00122027 0.00038837094
000170 02 f9 d3 39 88 ad c0 b9 56 fa 6e b9 8f 82 b1 39
       0.0004043058 -0.00036750385 -0.00022790706 0.00033857345
000180 a4 fb 48 ba 33 72 6a 3a f9 30 32 bb b7 87 af b9
       -0.0007666892 0.00089434086 -0.0027189835 -0.00033479717
000190 38 f8 9f b8 b0 8b 8d 39 f8 aa 9a 3a 88 1d 29 3a
       -7.627945e-05 0.0002699769 0.001180022 0.0006451239
0001a0 13 75 52 3a 79 d0 4c ba 72 3a 7a 39 1f 17 47 39
       0.00080283097 -0.0007813047 0.0002386363 0.00018986732
0001b0 04 00 d8 ba 52 9d 5e 3a 8f 8d 29 bb 37 ac a9 ba
       -0.0016479497 0.00084920705 -0.002587173 -0.0012945001
0001c0 32 37 ba ba d9 0c 14 3a 77 c5 6f ba 3a e4 c4 b9
       -0.0014207123 0.00056476664 -0.0009146551 -0.00037554075
0001d0 e6 6d 0d bb b4 e1 9b 39 79 10 cc 3a 1a ce c0 ba
       -0.0021580397 0.00029732066 0.0015568874 -0.001470986
0001e0 41 16 ea 3a dd 28 c2 ba 74 c1 c2 ba 18 9b fc ba
       0.0017859415 -0.0014813204 -0.0014858679 -0.0019272296
0001f0 ff 32 f6 ba 47 f8 37 ba 3c e6 2a 3b cd b2 61 b9
       -0.0018783509 -0.0007017892 0.0026077172 -0.0002152428

crystalGraphConvNet.convs.0.bn1.running_mean f4 [128]
000000 b6 ae b3 3d 64 e6 d4 bd 41 7f 7d bb 10 ba dc bd
       0.08773558 -0.10395506 -0.0038680586 -0.10777676
000010 ab a2 19 3e 1a 45 ce bc 98 51 13 bd 2d 65 96 3c
       0.15003459 -0.025179435 -0.035966486 0.018358791
000020 f8 d9 86 39 4b 96 cd 3c 1d 53 96 bd 5a 60 1e 3e
       0.0002572087 0.02509608 -0.07340071 0.15466443
000030 99 94 86 bb 9f 38 a8 3d c1 3e 1f be e9 02 47 3c
       -0.0041070697 0.082139246 -0.15551282 0.01214669
000040 52 c4 59 3c 31 c5 03 be 7e b2 b0 bd 6c ee c6 3d
       0.013291435 -0.12868191 -0.08627795 0.09713444
000050 17 08 0b bc 4c 71 e1 3d 0a 8f 93 3d fa ae 2b 3d
       -0.0084858155 0.11007938 0.07205017 0.041914918
000060 8b 6d 1c 3d 9f 28 b7 bd 9c d3 16 3d 2a 7f aa bd
       0.038190406 -0.08943295 0.0368229 -0.08325036
000070 d0 53 1b be ad 59 42 bd b2 b3 98 bc 2e cf 13 bd
       -0.1516869 -0.047448803 -0.018640373 -0.036086254
000080 7a 54 6c 3c 0a be 8a bc bf c6 10 bd 00 b7 75 3d
       0.014424438 -0.01693632 -0.03534579 0.059988976
000090 af fe 5f 3d 54 e2 e4 bd 2e fe 1f bd ba d3 e2 bd
       0.054686245 -0.11175981 -0.039060764 -0.1107554
0000a0 e2 cc 81 bd 5a 11 04 bd f8 39 a9 bd 13 8f ec bd
       -0.063379064 -0.03224311 -0.0826301 -0.11550727
0000b0 44 00 00 bd 3f d3 1e bd d3 47 74 3d 31 ad 74 3d
       -0.031250253 -0.03877568 0.05963881 0.05973548
0000c0 a2 32 17 ba 5a a6 29 bd f5 7f c8 3d 6e 1a e4 3d
       -0.0005767738 -0.04141841 0.09790031 0.111378536
0000d0 d1 02 3d bd cf c0 fa bb 60 09 28 3b da c4 1d 3e
       -0.046145264 -0.007652379 0.0025640354 0.15407124
0000e0 d2 1c 5b 3d ed c3 70 3d ba fe aa 3d a1 83 05 bd
       0.053494282 0.0587806 0.083493665 -0.032596234
0000f0 07 ba fb 3d de 78 38 3d 29 b8 21 3d dc 2b 66 bd
       0.12291341 0.045037143 0.03948227 -0.05619417
000100 51 98 8c 3d 1a 17 dc 3d 33 37 be bc 1f 90 d4 bc
       0.068649895 0.10746594 -0.02321968 -0.025947629
000110 d5 5e f9 3c a0 02 40 3c 63 fe 3c bd 10 30 ad bd
       0.030440727 0.011719376 -0.04614104 -0.08456433
000120 60 c8 46 bd 37 4b 8a bd 39 d4 99 bd 31 b3 54 3d
       -0.048530936 -0.06752627 -0.075111814 0.051928703
000130 f6 60 15 be 62 d6 82 3d 6a 0b 3d bc 1e 2d a5 3a
       -0.14587769 0.063885465 -0.011538366 0.0012601947
000140 10 13 af bc c0 17 7b 3d c0 c7 bd bd b7 d3 d7 3d
       -0.021371394 0.061301947 -0.09266615 0.10538428
000150 84 1b 13 3d 16 29 44 ba 5a d5 25 bd dd ed b0 3d
       0.035914913 -0.0007482929 -0.04048667 0.08639119
000160 91 40 09 3e ab b8 fc 3d d8 8f 20 bc fe 9b 3c bd
       0.13403536 0.1233991 -0.00979992 -0.046047203
000170 f8 ce f5 bc 6e 9c 00 be dd dc 03 3d 43 0a 8b 3d
       -0.030005917 -0.12559673 0.032193054 0.06789067
000180 73 b3 f4 bd fb c5 bb bd 52 95 fb 3c be 9a 61 bd
       -0.1194829 -0.09168621 0.03071085 -0.055079214
000190 70 1f 72 38 32 14 4d 3c 82 3a 7d 3c 97 59 5d 3d
       5.7726575e-05 0.012517022 0.015455844 0.054040518
0001a0 7e 0f b9 bd ae 9c a8 3d 38 e5 71 3d 3f e8 a4 bd
       -0.09036158 0.08233009 0.05905649 -0.0805211
0001b0 96 a1 df bd 8c d6 72 bd 02 7a bc 3d f1 56 06 bd
       -0.10919492 -0.05928664 0.09202959 -0.032797758
0001c0 9d 31 36 bd f5 30 ab 3d 44 01 06 bd ac ba 16 3d
       -0.04448091 0.08358947 -0.03271605 0.036799118
0001d0 c3 3b d7 bc 2d 95 a7 3d fc f2 14 3e d5 41 ca 3d
       -0.026273614 0.0818275 0.14545816 0.09875838
0001e0 2d a6 d8 bc c4 8e 66 3b c3 b7 58 bd 1f 2e 5d bd
       -0.026446426 0.003518031 -0.052909624 -0.053999063
0001f0 a2 6d b4 3d a8 d5 af bd 0f 63 0c bd e3 c8 66 3d
       0.08809973 -0.085856736 -0.034274157 0.056343924

crystalGraphConvNet.convs.0.bn1.running_var f4 [128]
000000 a8 dc ca 3b 3c 02 f1 3b 36 18 fc 3b 52 e7 07 3c
       0.006190855 0.0073550027 0.007693316 0.008294897
000010 18 d4 33 3c 99 a1 33 3c 09 b9 c7 3b d5 f3 19 3c
       0.01097586 0.010963821 0.006095056 0.009396513
000020 a4 fd f4 3b 53 8f 40 3c f8 38 f1 3b 93 cd 10 3c
       0.0074765254 0.011752921 0.0073615275 0.008838075
000030 53 60 a2 3b ee bc ee 3b 57 a1 f4 3b b0 6f 12 3c
       0.0049553304 0.007285706 0.0074655223 0.008937761
000040 2d cf 1c 3c 2b 48 15 3c a9 9a 05 3c bd 59 25 3c
       0.009570879 0.0091114445 0.00815455 0.010092196
000050 ed 65 f1 3b fb 1c d3 3b b4 dd 19 3c ef 41 3a 3c
       0.007366887 0.0064426637 0.009391237 0.011368259
000060 d5 32 51 3c 8c d3 03 3c 33 20 e2 3b 25 2c 37 3c
       0.012768467 0.008046042 0.006900811 0.0111799585
000070 3c 23 ff 3b 97 84 4c 3c 4e a8 d2 3b 5c 7b a2 3b
       0.0077861827 0.012482784 0.006428755 0.0049585532
000080 00 ca 11 3c 17 db a4 3b 13 ff e2 3b 6a de dc 3b
       0.008898258 0.0050310004 0.00692738 0.006740381
000090 3c 33 40 3c 26 78 52 3c 70 0c 14 3c 96 47 c1 3b
       0.011730965 0.012846028 0.009036168 0.0058984263
0000a0 47 bb 11 3c 48 36 00 3c b0 5c f8 3b cc a1 6d 3c
       0.008894748 0.007825442 0.0075794086 0.014503907
0000b0 a5 fc 30 3c 96 8c ef 3b 6e ff 28 3c 79 85 28 3c
       0.010802423 0.0073104603 0.010314805 0.010285729
0000c0 56 ff 18 3c e9 b5 69 3c 8a f4 22 3c d3 c1 11 3c
       0.009338221 0.014264562 0.009945998 0.008896309
0000d0 53 23 21 3c 21 cd eb 3b 66 83 20 3c 8b cc eb 3b
       0.009835082 0.007196084 0.009796953 0.0071960143
0000e0 99 81 e7 3b af 19 37 3c aa fc 33 3c c2 c0 ed 3b
       0.00706501 0.011175557 0.010985533 0.0072556445
0000f0 41 95 16 3c f4 b2 68 3c 67 5b fb 3b 3e 2d 3b 3c
       0.009190858 0.014202822 0.007670808 0.011424361
000100 83 9d de 3b 0a 81 62 3c 56 37 44 3c 73 9d 0d 3c
       0.006793679 0.013824711 0.011976084 0.008643496
000110 7c 82 28 3c 36 f2 53 3c f6 07 c8 3b b9 22 3e 3c
       0.010285016 0.012936166 0.0061044646 0.011604958
000120 69 ea 1d 3c 8d d1 40 3c 4b a8 10 3c 65 5f 99 3c
       0.009638407 0.011768711 0.008829187 0.018722245
000130 5a 46 35 3c d9 34 0d 3c 83 22 13 3c b5 eb 12 3c
       0.011064136 0.008618557 0.008980396 0.00896733
000140 48 e3 40 3c 66 e1 3c 3c f4 a4 14 3c 4f bb 02 3c
       0.011772938 0.011528349 0.009072531 0.007979228
000150 a2 5c e8 3b f5 7e 1f 3c ba 36 3e 3c e5 4e 38 3c
       0.007091121 0.009734859 0.0116097275 0.011249279
000160 4a 00 95 3c e3 58 15 3c c6 6c 0b 3c 64 14 64 3c
       0.018188614 0.0091154305 0.00850982 0.013920877
000170 7f c7 e8 3b 39 ca 5f 3c f3 91 64 3c 89 4c d8 3b
       0.00710386 0.0136590535 0.013950813 0.0066009206
000180 4a e4 b4 3b 9f 4a 0a 3c dd cf 34 3c b1 7e e4 3b
       0.0055203782 0.008440643 0.011035887 0.0069731106
000190 d1 60 26 3c f2 b0 2d 3c 1b 25 23 3c 5e 0c 60 3c
       0.010154919 0.010601269 0.009957577 0.013674824
0001a0 cc 0a 2a 3c b4 e8 f3 3b 36 ed 0f 3c 7e f5 79 3c
       0.010378551 0.007443512 0.008784583 0.015256284
0001b0 49 9f d0 3b 4e 0b 0a 3c df c9 0e 3c 59 24 0f 3c
       0.0063666445 0.008425547 0.008715122 0.008736693
0001c0 dc e9 2e 3c be 1d 0c 3c 11 08 30 3c 3c 04 25 3c
       0.010675874 0.008552013 0.010744111 0.01007181
0001d0 2e 3c 1a 3c a8 38 95 3c 63 d8 68 3c 44 f0 0a 3c
       0.009413762 0.018215492 0.014211747 0.008480135
0001e0 f2 1d 4a 3c 6b 29 c2 3b f4 8a 5e 3c 1e 34 f7 3b
       0.012336241 0.0059253476 0.013582934 0.0075440546
0001f0 42 7b 2d 3c 58 e3 68 3c 63 64 04 3c b1 43 6c 3c
       0.010588469 0.014214359 0.008080575 0.014420436

crystalGraphConvNet.convs.0.bn2.weight f4 [64]
000000 7c ff 7d 3f 76 08 7f 3f 75 52 7e 3f 02 73 7f 3f
       0.99217963 0.99622285 0.9934457 0.99784863
000010 37 65 81 3f 2f 42 80 3f fe f2 80 3f 40 b2 7e 3f
       1.0109013 1.0020198 1.0074155 0.9949074
000020 b8 1e 80 3f 94 7e 80 3f 0f a8 81 3f ab a5 7e 3f
       1.0009375 1.0038629 1.0129412 0.9947154
000030 d6 90 80 3f 7e 4e 7e 3f 50 77 81 3f 2e 2f 7d 3f
       1.00442 0.9933852 1.0114536 0.98900115
000040 7c d4 7e 3f 42 7a 80 3f 1a 29 80 3f ca 2a 7d 3f
       0.99542975 1.003731 1.0012543 0.98893416
000050 2b 5e 80 3f 91 26 81 3f 20 81 7d 3f 73 f6 82 3f
       1.0028738 1.0089895 0.99025154 1.023146
000060 fa 3a 7f 3f b9 a8 7f 3f e3 0d 7f 3f 0e 9e 7f 3f
       0.99699366 0.99866825 0.99630564 0.9985055
000070 53 dc 80 3f 3e a4 80 3f e5 02 80 3f 3d 3f 7f 3f
       1.0067238 1.0050123 1.0000883 0.9970587
000080 e4 38 80 3f 37 c0 7f 3f 00 71 80 3f fd 4a 80 3f
       1.0017362 0.9990267 1.0034485 1.0022885
000090 3b 61 80 3f 1f c7 7d 3f 86 f9 7e 3f 72 e8 7d 3f
       1.0029672 0.9913196 0.9959949 0.9918281
0000a0 f4 54 7e 3f d5 f2 7f 3f 08 5e 7d 3f bb 96 7f 3f
       0.9934838 0.9997991 0.98971605 0.9983937
0000b0 12 45 81 3f 6e 65 7e 3f 0b d6 82 3f 96 24 81 3f
       1.0099204 0.9937352 1.0221571 1.008929
0000c0 d8 4d 80 3f 2a 6f 7f 3f bc 23 80 3f 35 15 7e 3f
       1.0023756 0.99779 1.0010905 0.9925111
0000d0 a4 76 80 3f cd 35 80 3f 5f 81 7e 3f 77 15 7f 3f
       1.0036206 1.0016419 0.99416155 0.9964213
0000e0 24 73 7d 3f 8d 22 80 3f 4c 57 80 3f 8f 00 81 3f
       0.99003816 1.0010544 1.0026641 1.0078295
0000f0 39 5f 7f 3f 17 3c 81 3f f0 79 7f 3f 54 1e 80 3f
       0.99754673 1.0096463 0.99795437 1.0009255

crystalGraphConvNet.convs.0.bn2.bias f4 [64]
000000 df e8 78 3a dd d4 a1 bb 5b a5 6e bb 3f f2 0d bb
       0.000949515 -0.0049387054 -0.0036414478 -0.0021659283
000010 fb f0 a4 3a a3 a6 e0 3a 14 3a b1 bb aa 73 36 3b
       0.0012584025 0.0017139505 -0.005408535 0.0027839937
000020 e0 33 18 bb d8 75 5e bb b3 c0 71 3b a7 fc 38 bb
       -0.002322428 -0.0033944752 0.003688854 -0.0028226764
000030 2b 84 77 3a 28 66 53 bb e6 ed e2 ba 1e ec ab bb
       0.0009441997 -0.0032256935 -0.0017313331 -0.005246653
000040 75 46 e8 ba 44 4c 75 3b 06 55 8a 3a 8c b4 b7 bb
       -0.0017721193 0.003742949 0.0010553903 -0.0056062397
000050 76 31 3a ba 7a a1 1f 3b ef 4a 41 bb 19 1d c4 bb
       -0.0007102707 0.0024357722 -0.0029494127 -0.005984914
000060 10 fd 87 ba 8c 9f b5 bb cf 2e 9d bb 6f 6b c0 bb
       -0.0010375101 -0.005542701 -0.00479684 -0.005872182
000070 e1 a2 29 3a cf 7f 43 3b 56 0d 14 bb cb 2d 64 bb
       0.0006471109 0.0029830819 -0.0022590957 -0.0034817334
000080 cd 81 28 3a ef 43 39 bb 9f d2 96 bb 15 a2 b6 ba
       0.0006428033 -0.0028269251 -0.0046027447 -0.0013933802
000090 4d a8 9c ba 36 e4 87 bb 75 fa 98 ba ee 38 60 bb
       -0.0011952013 -0.004147078 -0.0011671322 -0.003421362
0000a0 c2 57 e4 b8 fb 14 e1 b9 fd 0a de bb b4 05 09 b9
       -0.000108882334 -0.00042930976 -0.0067762122 -0.00013067463
0000b0 25 29 c2 ba 73 1b 02 bb 12 e1 c2 bb 94 ed f1 b9
       -0.0014813287 -0.0019852787 -0.0059472406 -0.00046144112
0000c0 71 76 c3 ba 4a b7 f6 b9 15 80 86 bb bb 0f 99 bb
       -0.0014912618 -0.00047057337 -0.004104624 -0.0046710647
0000d0 c9 7c 5a bb ad 82 46 3b f0 13 17 bb 91 71 bf ba
       -0.0033338538 0.0030290291 -0.0023052655 -0.0014605989
0000e0 c5 31 7c bb 30 94 8e ba 80 33 72 bb 61 3d 1f bb
       -0.0038481813 -0.0010877904 -0.0036956966 -0.002429806
0000f0 d5 ee b7 bb 67 06 d8 3a 4a 8d 93 3a a0 57 0d b9
       -0.005613188 0.00164814 0.0011257317 -0.0001347945

crystalGraphConvNet.convs.0.bn2.running_mean f4 [64]
000000 d1 cf 89 40 f0 28 a4 40 14 d8 98 40 18 7f a1 40
       4.306618 5.1299973 4.7763767 5.0467644
000010 0c 1b 93 40 fb 0d 9d 40 84 b4 9c 40 69 db a8 40
       4.5970516 4.9079566 4.8970356 5.2767835
000020 32 66 9b 40 82 4f 9f 40 6c 37 9e 40 8d be b6 40
       4.856225 4.9784555 4.9442654 5.7107606
000030 20 8f 97 40 98 5d 9a 40 ef a1 a8 40 54 90 9e 40
       4.7362213 4.823925 5.2697673 4.955118
000040 52 6f a0 40 ac 6d 9b 40 d8 30 9b 40 c9 7e 9b 40
       5.013589 4.8571377 4.8497124 4.8592267
000050 c7 4e a8 40 cb 3d 9c 40 2a 0e a0 40 98 88 9f 40
       5.2596164 4.882543 5.001729 4.985424
000060 74 fe a6 40 eb 74 99 40 34 55 97 40 f6 59 ab 40
       5.218561 4.795522 4.729151 5.3547316
000070 ee c4 a0 40 c6 47 9f 40 ae 4c 97 40 a3 38 9d 40
       5.0240393 4.9775114 4.7281103 4.9131637
000080 33 d2 9f 40 66 93 96 40 c3 2b 9e 40 ee a4 97 40
       4.994409 4.705493 4.942842 4.738883
000090 2e 2a a3 40 35 bb a2 40 22 f3 97 40 5f 24 95 40
       5.098899 5.0853524 4.7484293 4.66069
0000a0 15 39 9f 40 d9 ed 95 40 b2 de a4 40 b0 fa a2 40
       4.975718 4.685284 5.1521845 5.0931015
0000b0 e3 1d a5 40 51 cc 9c 40 50 f2 9b 40 94 84 9e 40
       5.1598983 4.899941 4.873329 4.953684
0000c0 b9 77 9d 40 b9 3e a6 40 08 46 9e 40 04 0a a4 40
       4.9208646 5.1951566 4.9460487 5.1262226
0000d0 3c 40 a0 40 1e cb a1 40 ed 96 8b 40 81 25 99 40
       5.007841 5.0560446 4.3621736 4.785828
0000e0 0f 98 a1 40 90 eb 9e 40 85 2e 9c 40 5b 6e 99 40
       5.049812 4.966255 4.8806787 4.794721
0000f0 59 57 a5 40 ba 4d b0 40 40 e8 99 40 30 af 97 40
       5.1669126 5.509488 4.809601 4.740135

crystalGraphConvNet.convs.0.bn2.running_var f4 [64]
000000 3b 74 d4 40 1d 52 5e 41 3d 68 c7 40 b0 c0 60 41
       6.6391883 13.895047 6.2314744 14.047043
000010 06 3b d0 40 bf 57 e4 40 d7 36 0d 41 cc d4 52 41
       6.507205 7.135711 8.825889 13.176952
000020 5a 67 e3 40 ee 07 f4 40 36 80 fd 40 61 b7 9d 41
       7.106366 7.625968 7.9219007 19.71454
000030 f8 93 20 41 ab 98 f8 40 ab 6f d0 41 51 7f 09 41
       10.036125 7.768636 26.054525 8.593583
000040 c1 9d 22 41 53 22 a6 40 0a f1 f2 40 7e 27 d9 40
       10.163514 5.19169 7.5919237 6.786071
000050 ca 85 70 41 a7 7b c5 40 c9 f3 1d 41 45 61 2f 41
       15.032663 6.1713443 9.872018 10.961247
000060 e7 14 56 41 cd 8c fe 40 fa 73 00 41 0c 45 5b 41
       13.380103 7.9546876 8.028315 13.704357
000070 88 03 60 41 a2 33 42 41 e6 11 02 41 8c 1f 54 41
       14.000862 12.137606 8.12937 13.257702
000080 ad 3b 4c 41 39 a8 0e 41 87 1c 82 41 22 9c 1c 41
       12.764569 8.91607 16.26393 9.788118
000090 d4 ff 2a 41 7c 29 79 41 7c 56 24 41 b5 d8 e2 40
       10.687458 15.572628 10.271114 7.0889535
0000a0 e2 f3 02 41 36 39 e8 40 21 b2 57 41 63 dc 75 41
       8.184542 7.2569838 13.4809885 15.366305
0000b0 fe c7 3a 41 89 d7 05 41 86 8b f1 40 e4 00 54 41
       11.673826 8.365121 7.5482817 13.250217
0000c0 e2 06 3e 41 34 7d 69 41 2d 5d 35 41 28 87 59 41
       11.87668 14.593067 11.335248 13.595497
0000d0 b2 75 48 41 67 50 61 41 b6 41 91 40 83 95 ed 40
       12.528734 14.0821295 4.5392714 7.424501
0000e0 15 29 1c 41 fa 5f 09 41 0b 5b e4 40 3d 63 06 41
       9.76003 8.585932 7.1361136 8.399228
0000f0 c8 d3 89 41 6f 8c 68 41 7a 11 d0 40 61 2f 33 41
       17.228409 14.534286 6.5021334 11.199067

crystalGraphConvNet.convs.1.fc_full.weight f4 [128, 169]
000000 ce 11 88 bd 87 99 26 bc eb fc 9f 3d 12 65 ab 3a
       -0.06644021 -0.01016844 0.07811912 0.0013076386
000010 44 be 52 bd f2 e6 55 3b 8e cc 81 bc 99 b9 09 bd
       -0.051450983 0.0032638875 -0.01584461 -0.033624265
000020 ba b7 a1 bb e5 2a cd ba 86 0b 65 3d bf 73 85 bd
       -0.004935232 -0.0015653042 0.055919193 -0.065162174
000030 fa e6 08 3c 0c 6f 87 3d 04 dc 5f 3d 0d d6 ed 3c
       0.00835585 0.066129774 0.054653183 0.029032731
000040 f8 de d3 bb f2 be 80 bd cc 9e 3c bd 89 5f 3c 3d
       -0.006465789 -0.0628642 -0.046049878 0.045989547
000050 cd 65 90 bc 2a 4f 2c bd 80 d3 83 3c b1 e0 7f 3d
       -0.017626667 -0.042067684 0.016092062 0.06247014
000060 0c 2f 16 bd 80 54 87 3d 0c 48 4c bd 30 d4 f7 bc
       -0.03666596 0.06607914 -0.049873397 -0.030252546
000070 e0 32 fd bc aa 80 43 3b 35 be 52 bd 41 58 48 bc
       -0.030908048 0.0029831328 -0.051450927 -0.012228073
000080 a4 a0 73 3d 38 62 ca bc 36 48 4f bd 74 77 de bc
       0.05947937 -0.024705037 -0.050605975 -0.027156569
000090 33 70 99 bd 8b 42 0c 3d d9 88 6e bd 84 27 69 bd
       -0.074921034 0.034243148 -0.058235977 -0.05692245
0000a0 d1 9e 87 bd de f1 dd bc e2 88 a6 bd 72 a6 34 bc
       -0.06622089 -0.02709287 -0.08131577 -0.011026012
0000b0 b6 98 81 bd 9f 79 8f 3b 40 43 11 bd 37 89 96 3d
       -0.063279554 0.004378512 -0.035464525 0.073503904
0000c0 d1 4f 8c bd 57 df a6 3c f5 e0 33 3d 5e 2d da 3b
       -0.06851161 0.020370169 0.043915708 0.00665824
0000d0 f5 a1 2d bd 52 0d 62 bd 81 55 50 bd 4a 47 87 3d
       -0.042390782 -0.055188484 -0.050862793 0.06605394
0000e0 2d fa a3 3d b7 49 8f bd 01 37 24 bd 72 f8 2b bd
       0.080067016 -0.06996482 -0.04009152 -0.041984983
0000f0 1e 3c 76 bd 60 a9 1d bd 5b 7d 10 3d 22 08 28 bd
       -0.060115926 -0.038491607 0.0352758 -0.04102338
000100 67 74 7e bd 29 c6 6b bd 9d e8 d6 bb e9 f9 10 3d
       -0.06212273 -0.057562027 -0.0065584914 0.035394583
000110 3d ef d9 bb 04 fd 23 bd de d1 23 3c 9e 01 94 3d
       -0.006650834 -0.040036216 0.009998767 0.07226871
000120 2c f9 24 bd ac 81 83 bd 14 92 d9 3c 79 5b 56 bb
       -0.04027669 -0.06421217 0.026558913 -0.003270833
000130 31 e8 44 3c 92 34 7d 3c d4 9b 66 bc 80 5b 88 bc
       0.012018249 0.015454428 -0.014075238 -0.016645193
000140 fb df 3f 3d f5 bd 82 3d 78 eb 5a 3c ab ab 8e bd
       0.046844464 0.06383888 0.013361804 -0.06966337
000150 67 98 2a 3d a0 be 80 3d 81 92 a9 3c 53 0d 13 3d
       0.04164925 0.06286359 0.020699741 0.03590138
000160 bb 8d 86 3d 83 58 13 3c 83 94 9a bc b3 a4 07 bd
       0.06570002 0.008993271 -0.018869644 -0.033116054
000170 b3 7f 29 bc c3 3d 04 bd 8c 77 9c bd 9a f0 91 bd
       -0.010345387 -0.032285463 -0.07639989 -0.07125969
000180 e9 40 e5 3c cd e3 88 3c c7 06 91 3d 81 4f 96 bd
       0.027985053 0.016710186 0.07081371 -0.07339383
000190 da d5 e5 3c 0d ca 8e 3d 81 f1 c5 bb 26 61 82 3c
       0.028056074 0.06972132 -0.0060407524 0.015915465
0001a0 b4 20 7d bd 90 b7 97 bd 09 44 fb bc c2 69 18 bd
       -0.061798766 -0.07408059 -0.03067209 -0.037210234
0001b0 1a f0 ab bc 16 e9 80 3c 4d b7 08 3d 29 1e 67 3b
       -0.020988513 0.015736144 0.033377934 0.003526578
0001c0 53 ba 86 3b 07 bb b2 bc 41 d5 6f bd 71 01 7b 3d
       0.004111567 -0.021817697 -0.058552984 0.06128067
0001d0 28 bf cb 3c e3 e2 0b bd 17 b8 3a bd 2a 65 2c bd
       0.024871424 -0.034151923 -0.045585718 -0.042088665
0001e0 04 92 0b 3c f2 1b 39 bd e4 8a d9 3c 43 2f 15 bd
       0.0085187 -0.045192666 0.026555486 -0.036422025
0001f0 b4 46 65 3d 3a 0b 1d 3d fd 35 a9 3c 79 75 9a bd
       0.05597563 0.038340785 0.020655626 -0.075419374
000200 4d 47 44 3d 14 21 17 3b 43 73 44 3d 13 11 75 bd
       0.04791956 0.0023060488 0.047961485 -0.059830736
000210 cc b9 87 bd 24 19 83 3d 49 32 85 3c 35 8d e6 bc
       -0.06627235 0.064012796 0.01625933 -0.028143505
000220 3e 6d 8c 3d 06 1f 93 3d ce 3a 06 3d 6f 83 cf bc
       0.06856774 0.071836516 0.032770924 -0.025331227
000230 6f de 11 bd 63 be 92 bd ff 41 1c bd 2b d2 d4 3c
       -0.03561252 -0.0716522 -0.038148876 0.025979122
000240 f3 45 80 3d 15 1f a7 bb 3f 12 7e bd 55 d6 cf 3c
       0.06263342 -0.005100141 -0.06202912 0.025370756
000250 bb e5 c6 bc c3 bb 6f bd cc 41 6c bd ef d9 16 bd
       -0.024279466 -0.058528673 -0.057679936 -0.03682893
000260 c2 17 8a 3d 7a 27 c5 3c 27 1a 29 bd 78 d8 8f bd
       0.06742813 0.024066675 -0.041284706 -0.0702371
000270 37 4e f1 bc b8 39 15 3d 7a fb d2 bc 34 32 3a 3d
       -0.029456241 0.036431998 -0.025754679 0.045458034
000280 c0 19 8b bd ef 00 86 3d d9 27 82 bd ed d7 3a bd
       -0.06792021 0.06543147 -0.063552566 -0.04561608
000290 14 d7 cb bc 83 88 53 bd b6 4f 85 bc 28 c8 89 bc
       -0.02488283 -0.05164386 -0.01627336 -0.016819075
0002a0 1e 98 f6 bc 2e 45 9f bd 0c e6 98 bd 15 9b 70 bd
       -0.030101832 -0.07776867 -0.07465753 -0.058741648
0002b0 40 b2 f9 bb 3f 02 c3 bc 01 f5 21 3c 29 04 8e bc
       -0.007620126 -0.023804782 0.009885074 -0.017335968
0002c0 67 b3 72 3b da 69 90 3c 74 1a 39 3d 26 94 fc bc
       0.0037033202 0.017628599 0.045191243 -0.030832361
0002d0 9a 0e cc 3c 2e 37 17 3d 49 5a 73 bd a9 00 08 3d
       0.024909306 0.036917858 -0.059412275 0.033203755
0002e0 e6 42 f6 3c 3d 1f ae 3b c3 31 51 bd d2 f5 fb b9
       0.030061197 0.0053137825 -0.051072847 -0.000480576
0002f0 65 d1 18 3d 1a b5 91 bd a4 7a 05 3b a7 96 ea bc
       0.03730907 -0.071146205 0.002036729 -0.02863629
000300 f3 b0 0e 3c 76 a6 21 3d 75 34 3e 3d f0 95 55 bd
       0.00870918 0.03946539 0.046436746 -0.052144945
000310 df 8c a5 3d 83 6b 65 3d dc 19 85 bd d9 1e 95 3d
       0.0808351 0.056010734 -0.06499073 0.07281274
000320 ee 80 85 3d cc 0e cd 3c 37 78 01 bb a2 c6 11 3d
       0.06518732 0.02503147 -0.0019755492 0.03558982
000330 c8 19 97 bc 12 ed b3 3c 80 a7 82 bd ce f6 e0 bc
       -0.01844491 0.02196363 -0.06379604 -0.027461436
000340 ee 26 f4 bc 03 79 50 bd e1 ec 9a bd 4e 09 29 3d
       -0.02980372 -0.050896656 -0.07564712 0.04126864
000350 46 bf f6 3b 98 cc 7b 3b 5b d8 66 3d b0 15 43 3c
       0.007530126 0.0038421508 0.056358676 0.011907026
000360 0d 2d 63 3b 0f ad 1a bd 00 0f 79 3d 4f 7a 9e bd
       0.0034664304 -0.037762698 0.06080532 -0.07738172
000370 70 3e d7 3c 5b 81 27 bd fa 32 93 3d 55 0a 74 bd
       0.02627489 -0.040894847 0.071874574 -0.059580166
000380 67 49 1c bd 53 8c 7b 3d f0 b0 2b bd 31 8b 74 3d
       -0.03815594 0.06141312 -0.041916788 0.059703056
000390 54 ad 52 bd d0 ec ba 3c 91 b8 72 bd cc d9 9c 3d
       -0.05143483 0.022818 -0.059258047 0.07658729
0003a0 3a 7b 0c 3d 9a 2b 4d 3d 84 47 a7 bc c8 97 ef 3c
       0.034297206 0.05009041 -0.020419843 0.02924718
0003b0 6b bf f3 3b 42 65 f4 bc fc a5 64 bc 66 a7 1f bd
       0.0074385903 -0.02983344 -0.013955589 -0.038978003
0003c0 49 4a 60 3d fe b8 75 3b e8 b9 8b 3d 20 12 8b 3d
       0.054758344 0.0037494297 0.06822568 0.067905664
0003d0 41 37 4c bd cb 6b 92 bd eb 72 90 3d 74 56 8f bd
       -0.04985738 -0.07149466 0.07053169 -0.069989115
0003e0 ca 77 43 bd 7d 7b 14 3c 62 c1 2d bd 2f a9 35 bc
       -0.04772166 0.009062645 -0.042420752 -0.0110877
0003f0 93 62 1f bb 1a 5d df bc 2f 16 a8 bb 73 b7 3c bc
       -0.002432023 -0.027266074 -0.0051295976 -0.011518347
