get_descriptor_cgcnn/saved_models/gllb-sc_378.ckpt (torch, 675978 bytes, 58 tensors)

crystalGraphConvNet.embedding.weight f4 [64, 92]
00000000: 975e 04bd e81e 19bd 8ddf 3a3d eee6 8abd
00000010: 25d0 cf3d d457 193c 10ab 4fbb 8a76 ac3b
00000020: 4c94 983d bf88 8d3d cfc6 4abc 995c 583d
00000030: 3f33 b03d 830d 203d 05c2 2f3a 70df 9ebd
00000040: 7b09 36bd 72f4 983d e4de 9e3d fde4 bdbd
00000050: 17a8 83bc ee7e 273d a699 773d d98e b93d
00000060: f11b 943b 8c21 bdbd ce0e a93d f6f7 15bd
00000070: fa6f a0bd eb54 713d e0c6 a93d 2d40 8b3d
00000080: fbad aebd 9425 133c 8b2d af3d 87cb 433d
00000090: 34cb e7bc c955 24bd 56ef 85bc 29c2 a6bc
000000a0: b62b e6bb 21ff 27bd 09d3 ff3c c758 ac3d
000000b0: 0793 6dbb 5789 87bd a75e 123d 9fb5 023d
000000c0: 479a 7f3d 3594 783d 9224 98bd c6d8 41bd
000000d0: aad9 91bd cebc 783c c709 833a c8ca 21bd
000000e0: 10cf cf3c 3128 9dbc a451 99bd 5d3a f0bc
000000f0: 4ebb 663d 53ef 143b c355 9e3d 2eb7 babd
00000100: 457d 783c 05dd 1abd 3974 a1bd 3732 cabc
00000110: 6af6 773d 1e93 d13d 1ceb b53d 5353 a73d
00000120: 360d 073d ea5e 86bd d06e 823d 5f35 663d
00000130: d142 67bd 75b4 a7bd 6a6f ffbb 34e0 65bb
00000140: eb0a b2bd dce3 e2bc 56af b8bd 64f9 e9bc
00000150: 4c15 5b3d 9b78 bc3d e0f5 8b3d f84b a43d
00000160: 80a4 d73d 79b6 22bd 51ab afbd add4 07bd
00000170: 414e c3bd f949 88bd 36d7 cabd 746a 63bd
00000180: e7ed 833d 30d4 a5bd 9371 31bd 3e16 8b3c
00000190: c3a9 06bc 6e5d d3bd 188a 5abc 76a2 0bbd
000001a0: 1a8b 993d 924b 12bc 8c85 25bc 02b8 923d
000001b0: 34f6 88bd 6386 e73c 4bfd 453d ee94 043d
000001c0: a8f7 87bc dd23 33bd dfb0 a4bd 9c4e 8cbd
000001d0: a3ce a03d 969b b2bc bb71 163d 0efe 173d
000001e0: 2bac bcbc abdb 9c3d 43bd b5bd 4471 b73c
000001f0: c9a9 58bd fe6f 953d f916 efba 981c 77bd
00000200: 9ae0 393d c876 10bd 22c2 063d 9301 adbd
00000210: 922e bfbc cd8e babd 3bad d3bc 3dbd 443d
00000220: 78b5 d63c 5b68 6dbc fab6 7fbd 65a9 b9bc
00000230: 259f 9b3d 8f45 1a3c 3e4e 0abd 25d3 f7bb
00000240: dce1 d2bc d96c 1bbc 9833 4c3d ced7 443d
00000250: af89 cc3d 7e3d 373d e0b3 4b3d 5c85 9abc
00000260: 2617 7a3d e98a b53c d111 5d3d 793d 91bd
00000270: 14d3 51bd 102e 4f3d 488f b13d 0bbe 1cbd
00000280: 971f a53d 4c60 b4bd f385 ab3d bbca 823d
00000290: 2087 383d b9d2 153d d11b 843d 627f 26bd
000002a0: 5d1a 9bbd 705b cb3c 2110 a33c f4ec 8cbd
000002b0: 6761 49bd 94d8 cb3d bb5d 01bd e81e c2bb
000002c0: 3951 843d 4ea1 943d 3ac9 36bc 3fe9 1b3d
000002d0: dcff 5dbd fd91 7dbd 6a01 a6bd 2228 583d
000002e0: fd12 92bd e7f7 933d 146a 89b8 3008 36bd
000002f0: f1b9 5ebd 99e5 553d a6c8 5abd 4e2f d5bd
00000300: 4e9c 54bd dcbd b83d 0b2d b1bd b3aa 9cbc
00000310: 8ba8 55bd 8d91 45bd 2184 263d ff96 ac3d
00000320: 2435 6bbd 390f d03d 721c 3dbd 25e4 903d
00000330: 8319 253d a35e fbbc eaff d2bc 5f44 b73d
00000340: 69bf c03c 9d82 d63c d80e ed3c 38cc b13d
00000350: 889b 0d3d 4fd9 15bd 017f cf3b cd79 a8bd
00000360: e313 cdbd 4513 b33d 8ba6 2cbc 2ef9 413b
00000370: 13a9 e9bc 9655 8e3d d1b8 dbbd 60a2 803d
00000380: 3483 3b3d cef6 07bd cfd8 313d b555 0cbd
00000390: 3623 45bc ddf1 a7bc b6b9 613d 3e58 233d
000003a0: 5937 7fbd c2c7 2a3d 071e 4dbb 9016 a73d
000003b0: e8d3 7dbb dbfc d4bc c073 11bd 707d 10bd
000003c0: 1aff d9ba d3a5 a5bd 1b3c 6fbd a93a cb3d
000003d0: 7b0e 90bd 10d9 833d 5bee 7ebd 240a 813d
000003e0: 7dad eabc 7d13 7bbd 941d 443d 56fe d4bd
000003f0: e1a1 a3bb 71d4 9f3c 062d a9bb ea61 4a3d
-0.03231677 -0.03738299 0.04562335 -0.067823276 0.10147122 0.009359319 -0.0031687655 0.0052631544
0.074501604 0.06910848 -0.012376501 0.052822683 0.086035244 0.039075386 0.00067046314 -0.07757461
-0.044442635 0.07468499 0.07757357 -0.09272192 -0.016071362 0.040892534 0.060449265 0.09060449
0.0045199324 -0.09234914 0.08254777 -0.036613427 -0.07833858 0.058918875 0.082898855 0.0679935
-0.08529278 0.008981127 0.085536085 0.04780152 -0.028295137 -0.040120874 -0.016349476 -0.020356255
-0.0070242537 -0.041014794 0.03122856 0.084153704 -0.0036250965 -0.06617992 0.0357348 0.03191149
0.06240299 0.060688216 -0.0742885 -0.047325872 -0.07121594 0.015181733 0.0009997421 -0.039500028
0.02536729 -0.019184204 -0.07486275 -0.029324705 0.05633097 0.0022725656 0.077312015 -0.0911697
0.015166585 -0.037808437 -0.07883496 -0.024682147 0.060537733 0.102331385 0.08882734 0.0817019
0.032971583 -0.06561072 0.06368792 0.056203242 -0.056460205 -0.08188716 -0.007795264 -0.0035076262
-0.08693489 -0.027696542 -0.09017818 -0.028561302 0.053487107 0.09202691 0.06834006 0.080223024
0.10529423 -0.0397248 -0.08577598 -0.033161808 -0.0953641 -0.06654734 -0.099043295 -0.055521443
0.06441861 -0.08097112 -0.043321203 0.01697838 -0.008219185 -0.10320555 -0.013338588 -0.03409048
0.07497235 -0.00892915 -0.010102641 0.07164003 -0.066875845 0.028262323 0.048337262 0.032368593
-0.016597584 -0.043735374 -0.08041548 -0.06850931 0.07851913 -0.021802705 0.036729556 0.03710752
-0.023031315 0.07659086 -0.088739894 0.022392876 -0.052896295 0.072967514 -0.0018241099 -0.060330003
0.045380212 -0.03526953 0.032899983 -0.08447566 -0.023337636 -0.09109268 -0.025839439 0.048032034
0.026209578 -0.014490212 -0.06243036 -0.022663781 0.07598714 0.009415998 -0.033766024 -0.007563012
-0.025742464 -0.0094864005 0.04985389 0.04805737 0.099871986 0.044736378 0.04973209 -0.018862419
0.061057232 0.022160964 0.05397207 -0.07091803 -0.05122669 0.050581038 0.08669907 -0.038267177
0.08062666 -0.0880743 0.08375158 0.06386324 0.04505074 0.036577914 0.06450618 -0.040648825
-0.07573388 0.024823874 0.019905152 -0.06881133 -0.049165156 0.099534184 -0.03158353 -0.0059240945
0.064608045 0.07257329 -0.011156375 0.038064238 -0.054199085 -0.061906803 -0.081057385 0.05277265
-0.07132528 0.07225018 -6.552428e-05 -0.044441402 -0.054376546 0.052220915 -0.05341401 -0.10409413
-0.051906876 0.09020588 -0.086511694 -0.019124364 -0.05216269 -0.04823451 0.04065335 0.08427238
-0.057423726 0.101591535 -0.046169706 0.07074765 0.040307533 -0.030684775 -0.025756795 0.089485876
0.023528771 0.026185328 0.028937742 0.0868153 0.034572154 -0.036584195 0.0063322787 -0.08226357
-0.10013559 0.0874391 -0.010537754 0.0029597986 -0.028523004 0.06949918 -0.1072861 0.062809706
0.045779422 -0.033194356 0.043419655 -0.034261424 -0.012032321 -0.020501072 0.05510875 0.039879076
-0.062308643 0.04169441 -0.0031298415 0.081586 -0.0038731042 -0.025999477 -0.03551078 -0.035275877
-0.0016631812 -0.08088269 -0.05840693 0.09923298 -0.07034012 0.06437886 -0.062239032 0.06300762
-0.028647179 -0.061297882 0.04787977 -0.10400073 -0.0049936627 0.01951048 -0.005162838 0.049409784

crystalGraphConvNet.embedding.bias f4 [64]
00000000: b77f 2d3c 7be2 b9bd d62f 373d bd46 0abd
00000010: daa5 fb3c 4398 92bd cbf1 4bbd 52c9 2dbc
00000020: 6127 a9bc 8c05 e13c 1808 2b3d c552 00bd
00000030: bfa3 913d 03ca 77bc 9f69 3d3d 9998 9abd
00000040: cf2e edbc f9d6 ca3c 1659 43bd 312b aebc
00000050: e0fb 10bd 0a42 22bd 9fce b33d 37b5 763d
00000060: 982a 373d 0f05 973d de3c 71bb 8c21 72ba
00000070: 4710 4f3d 1bce 073d 1196 63bc 270d 923d
00000080: 38f8 bfbd 9741 ab3d 7b72 8cbd 6225 653d
00000090: 0cce 373d 3a0e 903d 937c 54bd a064 73bd
000000a0: ac7c acbd 88c8 9abd 283c 8ebd 341a 9a3d
000000b0: 55ad 34bd 675e 8fbd 6d1c cfbd 0a85 70bc
000000c0: ef87 79bd 9c93 27bd 5f7d 463b 18a3 d23c
000000d0: 77e5 90bd ab42 9b3c 8020 6bbd bdf9 3bbd
000000e0: b49d 10bc 9723 ad3d a874 dcba 0f7e 8c3d
000000f0: a6bf 843c 342b dabc 7e6f ae3a 43c5 c73d
0.010589532 -0.09076401 0.044723354 -0.033758868 0.030718733 -0.07157948 -0.04979114 -0.0106070805
-0.02064866 0.027468465 0.041755766 -0.031328935 0.0711131 -0.015123847 0.046243306 -0.07548637
-0.028952984 0.02476071 -0.04769238 -0.02126083 -0.035396457 -0.03961376 0.08779644 0.060231414
0.044718355 0.07374012 -0.0036809961 -0.0009236566 0.050552633 0.033155542 -0.013890759 0.07131415
-0.09373516 0.0836212 -0.06857773 0.055943854 0.044874236 0.070339635 -0.051876616 -0.059422135
-0.08422217 -0.075577796 -0.06945068 0.07524529 -0.044110615 -0.07000428 -0.10112844 -0.0146801565
-0.060920652 -0.040912256 0.003028713 0.025712535 -0.07075017 0.018952688 -0.05740404 -0.045892466
-0.008826662 0.08454054 -0.0016819434 0.06859981 0.016204666 -0.026631929 0.0013308374 0.097544216

crystalGraphConvNet.convs.0.fc_full.weight f4 [128, 169]
00000000: 0a67 a3bc 7343 55bd 2248 263d 2466 72bd
00000010: 5a4d 223d 8224 2e3d 0596 733d f44f 3fbd
00000020: e471 2fbc 2c99 76bd 5261 8fbc 945d fb3c
00000030: ad13 33bc 8b34 84bd 7a53 64bd 1d66 febb
00000040: a7bc 913d ee9d 14bd bb27 febb 2398 2ebc
00000050: 3048 babc 0bbd 743d 1176 10bc bed1 85bd
00000060: 5b75 203d 1e53 783d 2474 823d 973c e73c
00000070: 3062 803d bba3 303d e3d5 4b3c 1339 82bc
00000080: 14bd 2bbd 1d03 cebc 1d39 973d b6cf 63bc
00000090: 3355 843d 1651 dcbc 03f0 973d 8a17 8cbd
000000a0: 5f75 233d 100f 4bbc fb2f 88bd b430 2b3d
000000b0: 6402 8d3d 7c73 95bd 6e07 aabb cb61 503c
000000c0: bf33 1b3d 177d 793d e186 0d3c a515 3bbb
000000d0: e39a 27bd 6b64 52bd f177 433b 33a7 2dbc
000000e0: cc6f 92bc de40 623d 433a 1bbd e3ff f73b
000000f0: e904 00bc 7bd6 913d d116 273d 3d43 8abb
00000100: 7575 afbc d80a 4a3c 6856 83bd b08f 0b3c
00000110: 3481 ddbc 0ae4 cc3c 5bcd f13c fe33 953d
00000120: 4b5f 60bd 72c1 713c 3802 dc3c ba41 b33c
00000130: 27c3 b23c 8871 a3bb 345d a6bd fb5d d7bc
00000140: c91d 95bd 8049 1dbd 8d24 ae39 019c b2bc
00000150: 1da4 a0bc ecc9 893d 63b9 a73d c73d 86bd
00000160: 659c 6fbc d596 13bd 2214 973d 54c9 8dbd
00000170: 20b4 783d 4dc6 203d 20bc 51bd 5ac4 7f3d
00000180: 6d5d 463d ba37 7e3c 5c4d 84bd 47b1 00bd
00000190: c3b0 ab3c 1eeb 293c cd8e b43d c23d 913c
000001a0: 63bc 31bd cd7f 843c 8f4d a23c 8c8d 83bd
000001b0: 57a4 f3bc 0835 4dba ee4f 533d 55bf d93c
000001c0: d2b2 6e3d 9196 62bd f55f 80bb c815 113c
000001d0: f40f bc3c 3c51 dbbc 9e59 0b3d b614 20bd
000001e0: 9628 34bd 95bb 4c3c 963e 253d 2ca7 3a3d
000001f0: 57be 883b 4562 26bd 0c1d f23b 50e4 90bc
00000200: 2db0 34bd 8f5d 40bd ad81 c2bc 730b 63bc
00000210: 6d9d f83c 9cd9 723d 81dc 363d ae85 043d
00000220: a51d 16bd d7a6 af3d a0c7 3f3d 8338 f5bc
00000230: 07c2 68bd 2593 353c 586c a13c a655 3dbd
00000240: 6582 ec3c 1570 08bd 6922 ca3c 178e 9b3c
00000250: 717e 4bbd 4ec5 69bd 5baf 08bd fd4d f1bc
00000260: 748d 943c 6c72 46bd 48cd a8bc 176f 1abc
00000270: bccf 8dbd 82d5 e3bc 0224 663d be3f 973c
00000280: f268 bfbc c54f 403c 4017 423d 2343 363d
00000290: 8e7a 80bd 4fca 433d 5e99 6fbd 455d 19bc
000002a0: 3e7a 79bd 8a24 56bc 29f3 04bd 17b0 78bd
000002b0: b12d 703d 0553 08bd a4d8 143d f3c4 82bd
000002c0: f9bc 963d ade0 9ebd 7528 7b3c 0d53 29bb
000002d0: 7c7f a23d 80d8 07bd b0f0 d9bc 98ee 873d
000002e0: 950c ae3c 1af0 053d e418 3fbd 9274 92bd
000002f0: a1ed bfbc 1245 48bd 7105 8abc 61d8 0dbd
00000300: 73c0 41bd 59f7 86b9 665b cc38 728d 483d
00000310: 4c63 20bd b82d 163d 0a56 933d a191 093d
00000320: ee1d b1bb ac30 953d 31a8 4abd e124 163d
00000330: 2f94 8f3c 43ec 93bd 271a 8fbd 0e00 29bd
00000340: 0249 5fbd 004a f4bc d305 8dbb b491 58bd
00000350: debb 413c dd60 0f3d b234 00bd 9eee 82bd
00000360: 2a3f 55bd 333f 35bd 1165 4e3d 292c 80bd
00000370: 4967 a93c 17f2 5cbd dda3 733d 0b83 de3b
00000380: 78ed 38bd d034 ed3c eb23 b6bb 2ab0 59bd
00000390: 88e3 63bc 223b 7abd 8240 08bc 3558 1cbb
000003a0: 1a0b 9dbd 7ff7 2f3d dcb9 033d 0157 dd3c
000003b0: 714e 7fbd fc27 c5bc 2648 703d 9b15 9f3d
000003c0: b9f9 5bbd 3040 933d c4df 6a3d 14e2 4d3d
000003d0: e6e1 eabc 85cd 85bc 39fa ee3c 0ef9 10bc
000003e0: c33e 69bd d3b1 873d 5142 f9bc 8ccc a8bc
000003f0: c515 7ebd 855c 7cbd 1b9c 51bd 19f3 1bbd
-0.019946594 -0.052066278 0.040596135 -0.05917944 0.03962455 0.042515285 0.05946924 -0.04670711
-0.010708306 -0.06020467 -0.01750246 0.03068427 -0.010929984 -0.06455334 -0.055743672 -0.0077636377
0.07116061 -0.036283426 -0.007756201 -0.010656389 -0.0227395 0.059750598 -0.008817212 -0.06534146
0.03917442 0.06062614 0.06369808 0.028227134 0.06268728 0.043124896 0.012441131 -0.015896356
-0.041928366 -0.025147969 0.0738394 -0.013904503 0.06461563 -0.026894134 0.074188255 -0.06840427
0.039906856 -0.012393728 -0.066497765 0.041794494 0.068852216 -0.072974175 -0.005188874 0.012718628
0.037891146 0.06091031 0.008638115 -0.0028546837 -0.040919196 -0.051365297 0.002982613 -0.010598945
-0.017875575 0.055237643 -0.03789736 0.007568346 -0.007813671 0.07120987 0.040793244 -0.004219441
-0.021418313 0.012331687 -0.06412965 0.0085181445 -0.027039148 0.025011081 0.029516866 0.07285307
-0.05477838 0.014755594 0.026856527 0.021881927 0.021821572 -0.004987899 -0.08123246 -0.02628993
-0.07281072 -0.038400173 0.000332151 -0.021802904 -0.019609505 0.06727967 0.081896566 -0.06554752
-0.01462469 -0.036032517 0.07376887 -0.06923166 0.060718656 0.039251614 -0.0512048 0.062443115
0.04842894 0.015516216 -0.06460068 -0.031419065 0.02095831 0.010370998 0.088162996 0.017729644
-0.04339255 0.016174221 0.019812373 -0.06423482 -0.02974145 -0.00078280317 0.0515899 0.026580492
0.058276005 -0.055319373 -0.003917689 0.008855291 0.022956826 -0.026772134 0.034021012 -0.03908225
-0.04398402 0.012495895 0.04034289 0.045569584 0.004173081 -0.04062106 0.0073887166 -0.017686993
-0.044113327 -0.046964224 -0.023743475 -0.01385771 0.030348504 0.05928956 0.044643883 0.03235405
-0.036649365 0.08576744 0.046821237 -0.029934173 -0.056825664 0.011082445 0.019704983 -0.04622426
0.02887077 -0.033310015 0.024674611 0.018988652 -0.04968113 -0.05707293 -0.033370357 -0.029456133
0.018133856 -0.048448965 -0.020605698 -0.0094259 -0.06924388 -0.02781177 0.056186683 0.018463012
-0.023365472 0.011737769 0.047385454 0.04449762 -0.062733755 0.04780036 -0.05849587 -0.009360616
-0.060907595 -0.013070235 -0.032458458 -0.060714807 0.058637325 -0.0332823 0.036339417 -0.06385221
0.073602624 -0.07757697 0.01532947 -0.0025836856 0.07934472 -0.033165455 -0.026604027 0.06637305
0.021246234 0.03269968 -0.046654597 -0.0715114 -0.02342874 -0.048893996 -0.016848298 -0.034630183
-0.047302675 -0.0002574276 9.744502e-05 0.048963018 -0.039157197 0.036664695 0.07194145 0.03358615
-0.005405179 0.07284674 -0.049476806 0.036656264 0.017526714 -0.07222798 -0.0698741 -0.041259818
-0.054512985 -0.029820442 -0.004303673 -0.05287333 0.011824576 0.035004485 -0.031300254 -0.06393169
-0.05206219 -0.044249725 0.050389353 -0.06258423 0.020679133 -0.053941812 0.059482444 0.006790524
-0.045148343 0.028955847 -0.005558481 -0.05314652 -0.013909228 -0.06109155 -0.008316161 -0.0023856286
-0.07668133 0.04296064 0.03215967 0.027019026 -0.062330667 -0.024066918 0.058662556 0.07767793
-0.05370495 0.07189977 0.057342306 0.050264433 -0.02867217 -0.01633335 0.02917205 -0.008848442
-0.05694462 0.06625714 -0.03042713 -0.020605348 -0.06203248 -0.06161167 -0.051174264 -0.038073633

crystalGraphConvNet.convs.0.fc_full.bias f4 [128]
00000000: 3c39 8c3c 35ac 4abd 6e63 873d 5bf3 413d
00000010: 9423 eabc 8f13 89bc 0c01 e9bb e7a7 783d
00000020: d18c 083c 1135 69bd b227 973d 0a27 253d
00000030: b967 6f3c 1bd8 1dbd c9e2 fa3b 1dc5 d5bb
00000040: 907b 8e3b 35b7 85bd 7fd7 73bd f824 c33c
00000050: 7b76 dc3c 8f2b 39bd 5f5d a33c 33a6 b9bc
00000060: 36b3 4dbd cfa8 433c 7c2e 44bd 42d9 423d
00000070: efe0 293d 8e7d 96bd 8850 223d 8063 023c
00000080: 0fdd 443d 5c97 1f3d 6ac3 34bd a1ec 97bc
00000090: 09e4 92bd f7fa 90bc ba33 76bd fed6 7c3d
000000a0: 6301 2b3d e3f0 563d dc3f 66bc 541a 69bd
000000b0: 66ce 1f3d a522 8ebd 0f59 5d3c 7704 423d
000000c0: 774a 983c f81c 63bb aa23 1bbd 8af1 92bc
000000d0: dfc9 ae3c 556a c3bc a5f1 563d 5808 c2bc
000000e0: 090a 91bd 9551 5b3d 9b9c ff3c 2799 41bd
000000f0: b51c f0bc 3f46 493b f575 4b3d bc35 0e3c
00000100: be6f 53bd 0e2e 91bd 7153 603d ad88 323d
00000110: b452 96bd 4c44 193d dbc2 6a3d 7b47 93ba
00000120: 33dc 733d ee3d 13bc ef00 6fbd b007 733d
00000130: 6692 7b3d 70d1 3f3d 3470 0f3d 48b1 453d
00000140: 5573 273d 3f1f 923d 93d9 99bd 346c 92bd
00000150: 038c 21bd e9f4 903c 8df4 35bd 68fe e73c
00000160: 3312 0bbd 269c a83c 5db9 413c f509 e93c
00000170: d36d c93c 8e53 19bd 473f 01ba 8e96 0cbd
00000180: a4d4 9cbd 9c10 46bc 4140 473d ec04 6c3d
00000190: bfcb 393b ebf2 af3c dcce a83b 13fe 91bd
000001a0: d68a 423d 150c 733c 617e 343d d8c7 8fbd
000001b0: 39cd 113d f68c 0e3d 9466 7cbd f027 48bd
000001c0: 59da ce3b 50a8 6ebd 054f 253d d5cc c6bb
000001d0: d43e 163d 9fb7 d6bc d3ac 9c3d ce21 41bd
000001e0: 28d3 5a3d 317e fcbc 68f8 723d 8708 393c
000001f0: 3724 09bd 6d46 b63c 501d ecbc 7dba a9bc
0.017117135 -0.049480636 0.066107616 0.047351222 -0.028581418 -0.01673296 -0.0071107205 0.060707
0.0083343545 -0.056935374 0.07380618 0.040320434 0.014612132 -0.038536172 0.0076564294 -0.006523742
0.004348226 -0.065290846 -0.059531685 0.023821339 0.026911965 -0.045207556 0.019941984 -0.022662258
-0.050219737 0.011942103 -0.047895893 0.047570474 0.04147428 -0.073481664 0.03962758 0.007958293
0.04806238 0.038962707 -0.044131674 -0.01854545 -0.071724005 -0.017697794 -0.060107924 0.06172847
0.04174937 0.05247582 -0.014053311 -0.056909874 0.039015196 -0.06940202 0.013510003 0.04736754
0.018590195 -0.0034654718 -0.03787581 -0.01793744 0.021336494 -0.023854414 0.052476544 -0.02368562
-0.07081992 0.0535446 0.031202605 -0.047265198 -0.029310564 0.0030712036 0.04967304 0.008679803
-0.051620238 -0.07088862 0.054767076 0.043587375 -0.07339993 0.03741865 0.057314735 -0.0011236513
0.05953617 -0.008986933 -0.0583505 0.059333503 0.061418913 0.046830595 0.035019115 0.04826477
0.040881474 0.07134866 -0.07512202 -0.07149544 -0.039440166 0.017694907 -0.044422675 0.028319553
-0.033952903 0.02058227 0.011823979 0.02844713 0.024588501 -0.0374332 -0.00049303885 -0.034323268
-0.076577455 -0.012088921 0.04864526 0.05762188 0.0028350202 0.021478137 0.0051516127 -0.07128539
0.047495686 0.014834424 0.044065837 -0.07020539 0.035596106 0.0348024 -0.061621264 -0.048866212
0.00631265 -0.058265984 0.040358562 -0.0060668983 0.03668101 -0.026210604 0.07650151 -0.04715138
0.05342403 -0.030821892 0.05931893 0.011293537 -0.033481803 0.022250379 -0.028822571 -0.020718807

crystalGraphConvNet.convs.0.bn1.weight f4 [128]
00000000: c17e 803f 8430 803f 8c09 803f 9143 803f
00000010: eb35 803f 85b7 7f3f 6f73 803f c21d 803f
00000020: 3010 803f 5748 803f de34 803f 42d4 803f
00000030: 8d21 803f 3d3e 803f 6517 803f 5962 803f
00000040: 91f0 803f f216 803f ba08 803f 8c67 803f
00000050: e910 803f 270f 803f ab26 803f a798 7f3f
00000060: 1e4b 803f 5ba2 803f 1d97 7f3f 4aa8 7f3f
00000070: 7482 813f 7ad1 803f 775f 803f 3029 803f
00000080: 7ac7 7f3f 9b25 803f 3dba 7f3f 3bf6 7e3f
00000090: 7d08 803f e53a 803f e21c 803f 6c88 7f3f
000000a0: 9db6 7f3f ae15 803f 4a0d 803f 2984 803f
000000b0: 180a 803f 979d 803f ebd6 7f3f 786e 7f3f
000000c0: 63a8 803f bb26 803f ee11 803f a52f 803f
000000d0: f5f2 7f3f 2f04 803f b666 803f 5353 7f3f
000000e0: 01a4 7f3f f15f 803f 900e 803f c5a4 803f
000000f0: 5500 803f 202d 803f 511f 803f 053c 803f
00000100: b106 813f c3d7 7f3f 222f 803f 5b09 803f
00000110: b7eb 7f3f efbf 7f3f a513 803f c034 803f
00000120: 4e12 803f 1c89 803f 51a5 803f 2349 803f
00000130: 7ce1 7f3f 289e 7f3f 5f1c 803f 3744 803f
00000140: 3c05 813f 537b 803f 2558 803f 5078 7f3f
00000150: 7b50 7f3f 7370 803f afa9 7f3f 151d 803f
00000160: 2d19 803f f750 803f fb32 803f 62ca 7f3f
00000170: cca8 803f 05b4 7f3f 6750 803f cecd 803f
00000180: d71f 803f 1f16 803f f64e 803f 060f 803f
00000190: f841 803f 3f38 803f a4c0 7f3f 4c36 803f
000001a0: 4d38 803f 88a9 7f3f a3fa 7f3f cbea 7e3f
000001b0: abc0 7f3f a2c8 7f3f eb31 803f 2e42 803f
000001c0: aa5e 7f3f 4f7b 803f c4ed 7f3f 9804 803f
000001d0: c2de 7f3f 56f4 7e3f 170d 803f 75b3 803f
000001e0: 151c 803f 430e 803f 2c2c 803f 1bc3 7e3f
000001f0: a405 803f 85d6 7f3f c3f3 7f3f 86e8 7f3f
1.0038682 1.0014806 1.0002913 1.002062 1.0016454 0.99889404 1.0035228 1.0009081
1.000494 1.0022076 1.0016134 1.0064776 1.0010239 1.0018994 1.000714 1.0030013
1.0073415 1.0007002 1.0002663 1.00316 1.000516 1.0004624 1.00118 0.99842304
1.0022924 1.0049547 0.99839956 0.99866164 1.0117936 1.0063927 1.0029134 1.001257
0.9991375 1.0011476 0.9989355 0.9959447 1.000259 1.0017973 1.0008814 0.9981754
0.9988802 1.0006616 1.0004056 1.0040332 1.000308 1.0048093 0.99937314 0.99777937
1.0051388 1.001182 1.0005472 1.001454 0.999801 1.0001277 1.0031345 0.9973652
0.99859625 1.0029279 1.0004444 1.0050284 1.0000101 1.0013771 1.0009557 1.0018317
1.0080167 0.999386 1.0014384 1.0002855 0.9996905 0.9990224 1.0005995 1.0016098
1.0005586 1.0041842 1.005045 1.002232 0.99953437 0.998507 1.0008658 1.0020818
1.0079722 1.0037636 1.00269 0.9979296 0.9973218 1.0034317 0.9986829 1.0008875
1.0007683 1.0024709 1.0015558 0.99918187 1.0051513 0.99884063 1.0024537 1.0062807
1.0009717 1.0006751 1.0024097 1.0004585 1.0020132 1.0017165 0.9990332 1.001657
1.0017182 0.9986806 0.99991816 0.99577016 0.99903363 0.99915516 1.0015234 1.0020196
0.9975382 1.0037631 0.99972177 1.0001402 0.99949276 0.9959158 1.0003995 1.0054766
1.000857 1.0004352 1.001348 0.9951646 1.0001721 0.99936706 0.99981326 0.9996418

crystalGraphConvNet.convs.0.bn1.bias f4 [128]
00000000: 9523 9bbb b3fd 58ba 81a3 5639 c4b2 81ba
00000010: 393c 07b8 908d 623a 122c 0cbb 8504 e53a
00000020: 87ba 093b 0c32 833a 0bb9 8939 f664 84ba
00000030: 0753 d639 07fa 22ba e044 c0b9 e0bb e1ba
00000040: f296 47bb 05ae 2939 ee22 0fba f4ae f7ba
00000050: 5c66 f4b9 2741 0ebb 84e1 bcba 4c38 c23a
00000060: cc3f 14bb 323c abba b211 883a b7a6 9e3a
00000070: 1e36 a2bb 703e 02bb c785 4abb dad6 85ba
00000080: 1a17 d239 7e60 62ba 8e69 8739 1b61 7c3b
00000090: dcba 1aba 20cc ddba 801b 9cb9 a324 973a
000000a0: c7af 8239 0686 dbb9 f0b9 72ba 159d 10bb
000000b0: 95e1 86b9 ac2a 11bb 1ce2 8839 7a71 b43a
000000c0: 0603 81bb 97f6 a3ba 2c19 2e39 d100 20bb
000000d0: 7629 84b9 a068 07bb 0006 ed39 42a7 273b
000000e0: c6c1 d0b9 69bf c4ba 5b28 4c3a 4aa5 2cbb
000000f0: e17e 47ba bb6e 3bba cf3c 613a d818 96ba
00000100: 72da b2bb 791e 313a e1ef 09ba 0a30 d3b7
00000110: 0b2f bbb8 cca0 a03a 7eb2 5839 9552 dcba
00000120: 3a00 ee39 e236 12bb ab11 24bb d049 9cba
00000130: 136e c9b6 dc00 633a b08c b5b8 316e 63ba
00000140: 829c 51bb 6c82 11bb 4604 68ba 35e0 633a
00000150: aab1 cb3a 129e 20bb 6a1a 613a a901 5a39
00000160: e6e0 47ba 5994 12ba 84e1 2fb9 5b44 fc39
00000170: d613 9cba 4df6 a2b9 17e6 1dbb 071f 4dbb
00000180: 9543 4c36 4e36 18ba 9bd0 b7ba 6f85 8238
00000190: 5fbc 85ba 5e70 6eba 2bc9 ad39 92bb 2aba
000001a0: cc42 69ba 6891 8539 fa4e e6b9 c842 e63a
000001b0: 4790 853a e481 4039 3978 20b9 cc5a 14ba
000001c0: a14f 3c3a d83e 03bb ac12 25b9 7799 e738
000001d0: 69e4 2939 a412 043b 63e4 cd37 bd9f 2bbb
000001e0: a17a d7b9 122e 61ba 100d aab9 0628 cc3a
000001f0: 66c5 53b9 94fe 8e38 a4a2 8b39 65af ca38
-0.0047344663 -0.000827755 0.0002046954 -0.0009895195 -3.2242595e-05 0.000864231 -0.0021388573 0.001747266
0.002101572 0.0010009422 0.00026268544 -0.001010089 0.0004087912 -0.00062170665 -0.0003667241 -0.0017222129
-0.003045496 0.00016181923 -0.0005460222 -0.0018896745 -0.0004661557 -0.0021706314 -0.0014410471 0.0014817803
-0.0022621034 -0.0013064204 0.001038125 0.0012104128 -0.004950299 -0.0019873641 -0.0030902491 -0.0010211125
0.00040071533 -0.0008635594 0.0002582785 0.0038510028 -0.0005902478 -0.0016921796 -0.00029775128 0.0011531304
0.00024926497 -0.0004187079 -0.0009259274 -0.0022066284 -0.00025726543 -0.0022150679 0.00026108406 0.0013766729
-0.003937128 -0.0012509403 0.0001660331 -0.002441455 -0.00025207893 -0.0020661727 0.00045208633 0.002558187
-0.00039817224 -0.0015010658 0.0007787996 -0.0026343637 -0.0007610154 -0.0007149984 0.000859213 -0.0011451496
-0.0054581696 0.0006756555 -0.000526188 -2.517553e-05 -8.925617e-05 0.0012254952 0.00020665859 -0.0016809279
0.00045395066 -0.0022310545 -0.0025034945 -0.0011923853 -6.003081e-06 0.0008659491 -8.656958e-05 -0.00086757826
-0.0031984155 -0.0022202982 -0.00088507344 0.0008692772 0.0015540619 -0.002450828 0.0008587005 0.00020790719
-0.000762476 -0.00055915635 -0.00016773312 0.00048116114 -0.0011907767 -0.00031082556 -0.0024093443 -0.0031299011
3.0437707e-06 -0.0005806432 -0.0014023961 6.223737e-05 -0.0010203234 -0.00090957235 0.00033147013 -0.00065129355
-0.0008898198 0.00025476073 -0.0004392786 0.001756751 0.0010190093 0.00018358935 -0.00015303575 -0.0005659282
0.00071834965 -0.0020026471 -0.00015742582 0.000110435234 0.00016202185 0.0020152712 2.4544255e-05 -0.002618774
-0.0004109936 -0.0008589934 -0.0003243466 0.0015575893 -0.00020196065 6.8185065e-05 0.00026633323 9.6647804e-05

crystalGraphConvNet.convs.0.bn1.running_mean f4 [128]
00000000: 7333 edbc 9636 c8bd 16ab abbd 53ff 6b3d
00000010: 16ee 14be d21e 06bc 85b2 2d3d 8243 c63d
00000020: 6147 f43c cc4b 0a3d 3cc9 223d 6e07 5b3d
00000030: 1933 a4bd 289d 5e3c add5 67bd d175 5e3d
00000040: 7a6e 323b 66d2 14be 73bf 2fbe 3315 003d
00000050: fb0a 5dbd c8b6 cbbc aa3b fabc ba50 b23c
00000060: 0125 2abe 10b7 313d 1ac9 c9bd 541a a93d
00000070: 12e0 0d3d ebb3 83bd a5fc a63c 2b95 72bb
00000080: 570c ed3d 0358 073e 5fb8 0e3b 972d 4a3d
00000090: 6ce5 28be df5e 803c 4144 69bd e560 c93c
000000a0: 8493 283e c284 973b 9892 8f3d e586 15bd
000000b0: 6b2f 273d 0727 37bd 6816 433d dcef 123c
000000c0: 485c 1dbc 00bd b5bb d82c 88bd 3edb 62bd
000000d0: 4ed5 a5bb 4af8 0abd e2e5 f0ba cb69 033b
000000e0: a96c 78bd 0939 c33d 1f69 a63d 730b eebd
000000f0: 8c60 27bd b233 963d 5f40 153e d839 af3d
00000100: be0d 8abd 8e9e 053d 5bf6 d33d 97f2 3b3e
00000110: 0b4f abbd f5d8 b7bd 0c04 c83c ce8f c43b
00000120: 4522 fe3d 825e 023c 6bb6 bfbc a2f6 123d
00000130: f6d2 ba3a c0b6 193c 7437 273d 938d 08bd
00000140: af9c f5bc 084f b03d 8041 95bd 3598 2a3d
00000150: f0e4 2c3d 1dc3 d93d d4ee 59bc 2fad 1dbd
00000160: d5b1 40bd 87d8 283e 745b a7bc b6a6 613e
00000170: aa4c 56bd 019a 2bbe 857e ef3c 78d2 353d
00000180: 41d4 5fbd d96d cfbc 0223 533d a9cf 1d3e
00000190: 0091 15bd 463d 34bd 8f12 8f3d 045f 80bd
000001a0: ac28 c03d 3bbe c3bc c361 1d3e af03 3fbd
000001b0: 6bab bd3d ce52 133d b647 30bc ca65 b7bd
000001c0: f41b 99bd 46bc b4bd 56f0 033e ce68 bcbd
000001d0: 5b05 e53b 4ff0 a23c 3c9b 9f3d f386 eb3c
000001e0: b4fa cb3c 4a49 c53d 1a4e c33d 9407 093d
000001f0: f053 f93c 4c25 e83b f46b c9bb 9401 bcbd
-0.028955197 -0.097760364 -0.083822414 0.057616543 -0.14543948 -0.008186059 0.042406578 0.09680845
0.029819192 0.03376369 0.039742693 0.053473882 -0.080175586 0.013587274 -0.05660026 0.054311577
0.0027226494 -0.14533386 -0.17162876 0.031270217 -0.05396555 -0.02486743 -0.030546028 0.021767009
-0.16615678 0.043387473 -0.0985281 0.08256975 0.03463752 -0.06430801 0.020384142 -0.003701518
0.11574619 0.13217168 0.0021777374 0.049359884 -0.16493767 0.015670238 -0.056949858 0.024582336
0.16462523 0.0046239803 0.070103824 -0.0365056 0.040816706 -0.044714954 0.04762879 0.00896832
-0.009604521 -0.005546212 -0.06649178 -0.055384867 -0.0050608283 -0.033928193 -0.0018379057 0.0020052071
-0.0606505 0.09532363 0.08125519 -0.116232775 -0.04086356 0.07334079 0.14575337 0.08555955
-0.06740902 0.032621913 0.10349723 0.1835426 -0.083646856 -0.08976928 0.024415992 0.005998588
0.1240888 0.007957103 -0.023402413 0.03587974 0.0014253545 0.00938195 0.04082437 -0.03333814
-0.02998194 0.08608824 -0.07287884 0.041649062 0.04221052 0.10632918 -0.01330157 -0.03849524
-0.047044594 0.16488849 -0.02042935 0.22036251 -0.052319206 -0.16757967 0.029235134 0.04439017
-0.05464578 -0.025320934 0.051547058 0.15411247 -0.036515236 -0.044003747 0.06985962 -0.06268123
0.093827575 -0.02389442 0.15369324 -0.046634372 0.09261211 0.03596764 -0.010759285 -0.089549616
-0.07476035 -0.08824973 0.1288465 -0.091996774 0.006989164 0.019889979 0.077932805 0.028750872
0.024899818 0.096331194 0.09536381 0.033454493 0.030435532 0.0070845243 -0.006146902 -0.091799885

crystalGraphConvNet.convs.0.bn1.running_var f4 [128]
00000000: 9dd5 053c 353b d03b f5f3 3d3c 3f51 203c
00000010: da42 3b3c de6e 533c 36eb 4b3c 9b4d 213c
00000020: 7c22 8a3c 72ca 543c c0c5 1b3c 0514 573c
00000030: 700c 8e3c de0f 023c 0530 113c e6c5 143c
00000040: 05b1 d83b 1fda 8b3c 2cad ef3b c1fe 4c3c
00000050: 074f 643c f90f fc3b 516a 503c e0fb 1b3c
00000060: 24a3 333c 1bf5 3b3c db8a b73b 7254 433c
00000070: f7c7 323c 68df 153c 9375 1d3c 463b eb3b
00000080: 35dc 903c 10f4 e03b 1134 503c 0f28 6d3c
00000090: 61c3 513c 5fee 213c 93c4 1b3c 8647 253c
000000a0: adab 1c3c d2a6 223c 7ef6 003c 4b24 3b3c
000000b0: 059e 443c 6499 d23b 0021 293c 55d3 473c
000000c0: d485 033c 9fd4 d93b 5377 193c 029f 193c
000000d0: 510c 3b3c 2802 523c 15bc 0c3c db17 f23b
000000e0: b446 e23b 0279 1b3c 4750 e73b c75e 153c
000000f0: 0a9f 313c 6273 053c e5d7 0a3c 7723 bb3c
00000100: c043 143c 7cb3 3a3c 1e91 353c 1ec3 643c
00000110: e313 403c 7232 5d3c 2e7c 773c 081d 193c
00000120: 348a 873c 9838 0f3c 5cb6 ef3b 4a78 4b3c
00000130: 4168 703c 5c3a 2c3c dff1 8a3c 1c79 403c
00000140: 9e26 433c e86a b33c a4ea 293c 95bd 2d3c
00000150: 6976 6c3c 19d4 533c 557c 253c 1838 be3b
00000160: 4bd4 293c ec05 893c 1223 7c3c 883c 6c3c
00000170: 5b8c 823c b524 373c 8ba9 3a3c 6740 6a3c
00000180: 6d54 333c 40c0 193c a772 7a3c f764 903c
00000190: d5b0 0c3c b90f ea3b bc8f 483c b16c c43b
000001a0: 91e8 083c a31e 773c 0236 533c 3e97 663c
000001b0: 616a 283c 3d25 d03b 6439 243c 4d78 233c
000001c0: 2e1e 5d3c dccc 003c 2f31 e13b 4783 223c
000001d0: b91b 263c 62eb 103c fd35 6f3c 9aec 1e3c
000001e0: dd14 c63c 70a3 283c 3282 ac3b f8ec 4a3c
000001f0: 81d8 063c b0da 7d3c 7527 cf3b 452c 153c
0.008168605 0.0063547143 0.011593808 0.009784996 0.011429513 0.012904851 0.012446215 0.009845163
0.016862147 0.01298772 0.0095075965 0.013127332 0.017339915 0.007938353 0.008861546 0.009080386
0.0066128992 0.017071782 0.007314345 0.01251191 0.013934857 0.007692334 0.01272066 0.009520501
0.010964189 0.011472012 0.0056012697 0.011921989 0.010911933 0.0091475025 0.009610551 0.007178697
0.017683128 0.006865032 0.012707726 0.014474883 0.01280293 0.009883492 0.009507316 0.010087853
0.009562415 0.009927468 0.007871268 0.011422227 0.012000565 0.006426977 0.010322809 0.012196382
0.008027513 0.006647661 0.009366828 0.009376289 0.011416511 0.012817897 0.008589764 0.0073880977
0.006905401 0.0094893 0.0070591304 0.009116835 0.0108411405 0.008145185 0.008474325 0.02284406
0.009049356 0.0113953315 0.011081962 0.013962535 0.011723491 0.013500797 0.01510529 0.0093453005
0.016545393 0.00874152 0.00731544 0.012418816 0.014673294 0.010511961 0.016961036 0.011747625
0.0119110625 0.021901563 0.010370884 0.010604282 0.014432528 0.012928986 0.010100444 0.0058050267
0.010365556 0.016726457 0.015389221 0.014418729 0.015936067 0.011178185 0.011392961 0.014297581
0.010945422 0.009384215 0.015286124 0.017626269 0.008587082 0.0071429876 0.0122413 0.0059944023
0.008356229 0.015082988 0.012891294 0.014074145 0.010279269 0.0063520954 0.010023449 0.009977412
0.013495965 0.007861342 0.006872318 0.009918994 0.0101384455 0.008845182 0.014600274 0.009699965
0.02417987 0.010292873 0.005264544 0.012385599 0.0082303295 0.015494034 0.0063218423 0.009104793

crystalGraphConvNet.convs.0.bn2.weight f4 [64]
00000000: 21d8 823f c62f 7e3f 4643 7e3f 6a29 7f3f
00000010: 6711 803f 8fa3 7a3f 6e6a 803f 2ca3 7f3f
00000020: a5bf 7b3f 3e38 7d3f 6610 803f a28f 803f
00000030: 92a4 7d3f 10a7 7f3f bfbf 7e3f 9c67 7f3f
00000040: d70c 853f 4717 803f 3c03 7e3f 2195 7d3f
00000050: 5c35 7f3f 1089 813f cf79 7e3f 775c 7f3f
00000060: 9e6a 803f 2df3 803f 2603 803f 28aa 7f3f
00000070: bc7b 833f 39f0 7f3f 21c2 813f 9522 813f
00000080: c3fe 7e3f 6afd 7f3f 2909 7f3f 060f 7d3f
00000090: 52e7 7f3f dfe6 803f 29cf 7d3f 2649 803f
000000a0: c385 7f3f 490a 803f eada 7e3f d16d 7e3f
000000b0: 56fb 7b3f d9af 803f 0f6d 803f abac 7e3f
000000c0: 6b40 803f aaca 813f a485 7f3f 11b7 7f3f
000000d0: a0ed 7f3f bb62 7b3f 03b5 7f3f bc63 7f3f
000000e0: ed83 7f3f 6b29 803f ad9a 803f a2ea 7e3f
000000f0: 26ea 7d3f e0eb 7f3f 21c3 7e3f 42cc 7f3f
1.0222207 0.99291646 0.993214 0.9967257 1.0005311 0.9790582 1.003248 0.99858356
0.983393 0.98913944 1.0005004 1.0043833 0.9907924 0.9986429 0.9951133 0.9976747
1.0394543 1.0007104 0.99223685 0.9905568 0.99690795 1.0119953 0.99404615 0.99750465
1.0032537 1.0074211 1.0000961 0.9986901 1.0272136 0.99975926 1.0137368 1.0088679
0.99607486 0.99996054 0.9962335 0.9885105 0.9996234 1.0070456 0.99144226 1.0022323
0.9981348 1.0003139 0.99552786 0.99386317 0.98430383 1.0053664 1.0033282 0.9948222
1.0019659 1.0139973 0.99813294 0.9988871 0.9997196 0.98197526 0.99885577 0.9976156
0.9981068 1.001264 1.0047203 0.9957677 0.9918541 0.9996929 0.99516493 0.9992105

crystalGraphConvNet.convs.0.bn2.bias f4 [64]
00000000: 9e6a 3cbb 000a 87bb 70fb b7bb ce53 fcba
00000010: 34e9 43bb 5b36 eebb 98d1 b4ba fcea cbbb
00000020: 2533 f4bb 64ba 08bc a5f3 19bc f936 0ebc
00000030: 2290 aab9 bf8f 7fbb 090a ceba dd49 14bc
00000040: 4025 f53a c810 82bb 091e 09bc 2cd7 c5bb
00000050: 1759 e9bb 2c57 8b3b d6fb b5bb 682f 2e3b
00000060: f880 a7bb 2e44 a9ba 30b2 91ba 3c36 f2ba
00000070: 498a cfbb ea99 9dbb fa9a 7b3a c71c 28bc
00000080: 027c 71ba 544f 4fbb 3d98 84ba c0c8 abbb
00000090: 64a4 0dbc a79d f6b9 878c 56bb 0858 0f3b
000000a0: 8478 04bb 0826 ceba b808 abbb de6b 8bbb
000000b0: 2577 b4bb 936b 913b f08a af39 3e79 37bc
000000c0: e410 9dbb 9501 803b 3b9a 9fba 1891 02bb
000000d0: 5e5f 7fbb 2cf0 e7bb 0912 b8b8 dfde 98bb
000000e0: 8de7 6fba 10fd cfba 8f94 203b 11df 73bb
000000f0: c565 2bbb aec2 9bba d253 94b8 a153 f9ba
-0.0028750072 -0.004121065 -0.0056146905 -0.001925105 -0.0029893639 -0.0072696633 -0.0013795374 -0.0062230807
-0.007452386 -0.00834522 -0.009396468 -0.008680099 -0.00032532314 -0.0038995591 -0.0015719543 -0.0090508135
0.0018703118 -0.0039692856 -0.008368977 -0.0060376134 -0.007121216 0.004252335 -0.005553703 0.002657855
-0.00511181 -0.0012913996 -0.0011115726 -0.0018479298 -0.0063336235 -0.0048096078 0.00095979834 -0.010260767
-0.0009211899 -0.0031632977 -0.0010116171 -0.005242437 -0.008645151 -0.00047038237 -0.003273757 0.002187254
-0.0020213434 -0.0015727887 -0.005219545 -0.004254802 -0.005507367 0.0044378727 0.00033482118 -0.01119834
-0.0047932733 0.0039064386 -0.0012176702 -0.0019922908 -0.0038966755 -0.0070781913 -8.777163e-05 -0.00466524
-0.000915163 -0.0015868265 0.002450261 -0.0037211815 -0.0026153189 -0.0011883581 -7.072803e-05 -0.0019022116

crystalGraphConvNet.convs.0.bn2.running_mean f4 [64]
00000000: eb04 9d40 a9bc a640 7f42 9b40 18b7 9d40
00000010: d599 8640 ad47 ae40 9d65 9a40 bfe8 9740
00000020: af6f aa40 74bb a540 c991 9540 aa72 9c40
00000030: e0e1 ae40 bab5 a040 aa3b a240 ccc9 9a40
00000040: 1967 9b40 edc2 9340 d05f 9a40 071f a140
00000050: 6de6 a640 2e92 9a40 d9f2 a940 603a 9740
00000060: fd1f a140 f14c a740 a835 9d40 daa8 a740
00000070: a455 8d40 6279 9c40 924f ab40 19c2 a440
00000080: 70cd a340 2233 a640 ea46 a740 992c a540
00000090: 9afe 8d40 30d5 9440 6490 ac40 4140 9440
000000a0: 78a2 9b40 f50d ad40 3717 a640 6585 a740
000000b0: 0085 a840 8bcf 9b40 3c3c a840 e9a9 9e40
000000c0: 357e 8f40 4b7a a240 7e8c 9a40 7b9a a340
000000d0: d1af a740 9aaa ab40 76c1 8f40 2bbc 9740
000000e0: ec3e a740 bcf1 a540 f8cb a240 7c32 a640
000000f0: ebee a940 44ea 9140 e4e8 9c40 9f79 a740
4.9068503 5.21053 4.851867 4.9286003 4.2062783 5.4462495 4.824904 4.7471614
5.3261333 5.1791325 4.674046 4.888997 5.4650726 5.0221834 5.069783 4.8371334
4.856335 4.6175447 4.824196 5.0350375 5.215628 4.830344 5.3108945 4.725876
5.035155 5.2281423 4.9128 5.239362 4.416704 4.889817 5.353463 5.1486936
5.118828 5.193742 5.2274065 5.161694 4.4373293 4.651024 5.392626 4.6328435
4.8635826 5.4079537 5.190334 5.2350335 5.2662354 4.869085 5.257353 4.958241
4.484156 5.0774283 4.82965 5.1126075 5.240212 5.3645754 4.492366 4.7417197
5.226431 5.1857586 5.0873985 5.1936626 5.310415 4.559847 4.903429 5.2335963

crystalGraphConvNet.convs.0.bn2.running_var f4 [64]
00000000: 52aa 0b41 5100 4741 b153 5041 a86d ea40
00000010: 4f17 6e40 8015 b341 1b9b 2d41 c43c f540
00000020: 551d 5041 cd4f 3641 ff05 1441 7fa9 d240
00000030: 46ec a841 7c79 5f41 6045 1541 4477 1d41
00000040: b6f0 2341 9310 d640 9019 3d41 da95 5f41
00000050: d1eb 6d41 577d ce40 557a 8941 5342 f740
00000060: bad2 4f41 7579 2441 7a39 0841 31d4 d340
00000070: 5590 ad40 b6eb c940 2cef ed41 6d6d 3741
00000080: 5de3 5941 92c9 2841 f767 3841 91cb 5041
00000090: 8776 9e40 9b65 f140 9ff3 6741 9df3 1941
000000a0: 0f94 c940 d6d2 8341 9dd3 0841 55c1 3441
000000b0: ad76 cc41 4688 1341 564e 2b41 3c9c 6141
000000c0: 383d 1f41 d65b 4741 4b0c 1041 b3cb 6041
000000d0: ef3b 0b41 3436 b241 64c2 fb40 09c9 1141
000000e0: bc23 4241 c8cc 1541 fa06 3441 5cf2 f640
000000f0: 794b 4841 82ab b540 dbc7 3c41 4359 3b41
8.729082 12.437577 13.020432 7.325886 3.7201726 22.385498 10.850368 7.6636677
13.007161 11.394483 9.251464 6.5831904 21.115368 13.967159 9.329437 9.841618
10.246267 6.689523 11.818741 13.974085 14.870072 6.4528003 17.184732 7.726846
12.988947 10.279653 8.514032 6.6196523 5.4238687 6.3100233 29.741783 11.464215
13.618009 10.5492115 11.525382 13.049699 4.9519687 7.543653 14.496978 9.621976
6.2993236 16.477947 8.551663 11.2972 25.557947 9.22077 10.706625 14.100643
9.952446 12.459921 9.003001 14.049731 8.702132 22.276466 7.8674793 9.111581
12.133724 9.362495 11.251703 7.717085 12.518426 5.677186 11.798793 11.709292

crystalGraphConvNet.convs.1.fc_full.weight f4 [128, 169]
00000000: cf9f d73c 5603 c2bc a8d5 853c 3e55 c53c
00000010: 8584 4dbd e7a2 cebc 8108 013d bf68 8d3d
00000020: 9ceb beba de3e 9eba c198 113c ff70 103d
00000030: fd6f 873d 8705 b13c fc0e 38bc 82a7 0bbd
00000040: 6d7e 4c3d 387e fa3c 1e8c 8ebb 925c 663d
00000050: 2fbd 7a3d 296e d13b c19f ecba 2cdb 19bd
00000060: a09f 793d e10c 23bd 648c 483c 344f 39bd
00000070: 31e3 15bd 9828 b63c a080 a2bd 27f5 89bd
00000080: 7ca0 a33b fae3 ce3c cec1 603c 46dd a43b
00000090: 53d2 40bd edf3 9ebc 56a9 893d c46f 133d
000000a0: 6701 3ebd 22d6 94ba 0eeb 513d abb1 44bc
000000b0: efbf 0fbd 1f52 ba3d 44d7 47bd 1b99 70bd
000000c0: b57c 283d 3545 c4bc 079f 153c 3076 123d
000000d0: 0ec9 8e3d 4a8a 003d de63 ea3c 8ee9 553d
000000e0: 8f76 aebc 64e0 823b a083 3b3d 85f4 79bd
000000f0: 207c 9abd c882 063d 50a2 6c3d e4d3 4fbd
00000100: 2f72 83bc 532c 863d c315 10bd 0bf0 163d
00000110: 0e89 56bc 4a41 9e3d 6bd4 26bc 23e8 2a3d
00000120: 28b0 443c 298a 27bd 2dfb 5abd d188 fbbc
00000130: 750d 2dbd 7f99 123d 1c37 ef3b 4e56 fb3c
00000140: 2713 6a3d 7cd6 58bc 842c 0abb 4f26 8b3d
00000150: 65a8 8dbd 2204 06bc d60f 153c d8de 81bd
00000160: da17 a43d c4a6 a23d d2ee 1fbd 6ea7 6c3d
00000170: b42d 2fbc f38b 13bd 7d4a 933c 3271 9a3c
00000180: 3acf 223c 72ee 20bd 5d42 8e3b 0f30 d33c
00000190: 5a19 ccbc 99cd 333c 19ed 82bb feb2 75bd
000001a0: a38e 42bd b85c 67bd 2686 a4bd 182c e5bc
000001b0: 8cfd 9dbd a04c 4d3d cc2c 14bd 0294 89bd
000001c0: b8cf 6fbd 9e26 5abb a626 31bd f4de 583d
000001d0: 9914 5dbc 12c2 f9bc c181 17bd c618 cebb
000001e0: 5b9c 42bb a0a8 d2bc 31cf 9abc e3b9 7abd
000001f0: eddb 863d 9468 92bd badb 19bd 17e5 483b
00000200: d725 12bd 08e8 8bbd 32d2 39bc d62b 833d
00000210: 8b8a 8dbd 7463 a1bb 1317 7cbd 1021 e73c
00000220: 0133 a5bc f37c 353d 376b ecbc c312 e43b
00000230: 768e e4bc b8dd a3bc 8ac9 86bd 1025 963d
00000240: 5b6b 86bd 4743 7b3d 2102 6abc 7a8e 9a3d
00000250: aa45 473d 6f7d 9c3d 1d79 e4bb d8b2 703c
00000260: ce85 70bc d660 5ebd 96d9 563b aa3a 9abc
00000270: ca91 19bc f3b1 663d 48ff 09bd aeff 5bbd
00000280: a3e6 61bd f7f6 f2bc d3da 9bbd 9ed3 013c
00000290: 016c 75bd 9e71 053d e306 28bc 8ae1 44bc
000002a0: ca94 923d e42b 093c 9961 c43b 4e5a dabc
000002b0: 0f26 a4bc 8b1e 43bc 0565 64bd 0695 91bb
000002c0: 3764 bfbb f2bb 71bd 827e fdbc 569c ca3c
000002d0: 2ba0 83bd 5bc3 1c3d 5bb2 3f3d 51d8 6e3d
000002e0: b1ce 28bd 488c 78bd f924 8f3c cf2c 72bc
000002f0: 8ab7 653d dfb1 ecbc e6bf 50bd f954 823d
00000300: df5c acbc 5c30 74bd 202e 97bd de06 97bd
00000310: 464f 433d e338 d9bb 6efc 8d3b 972f 0c3d
00000320: 1cd7 54bd 57f1 9b3d c259 9f3d e6f6 a5bc
00000330: ce4b 2dbc 0b2f 46bd 9966 23bd 4b60 063d
00000340: 885b 88bc ce4c 98bd 9853 2c3d 76e7 49bd
00000350: a051 bf3c c3ae 163d c6eb 4e3d 98f0 9d3b
00000360: 795e 95bd 6efb d23c c6f7 793c bf15 043d
00000370: e7fc 773d f098 3f3d 8a52 0bbc 66bd 9f3b
00000380: 3b54 48bd ecab 6e3d 75e3 563d c8ac 9fbd
00000390: 5f2f 343d 59da 7ebd ee38 5e3d f6d4 69bb
000003a0: e259 a03c d42a e7bc 9145 3e3d aeaa 8fbd
000003b0: d130 2e3d 8bdf adbc 6f5d 453d 8c62 debb
000003c0: 67a7 023d 5c48 28bd a304 7a3d bf12 a0bd
000003d0: a702 c23c 8df0 553c 9227 2d3c 0df9 0cbd
000003e0: e244 4cbc 0016 753d d7b0 69bd b40d 90bb
000003f0: 023b 733d 9c6b 85bc e52e adbc 53ce 57bd
0.02632132 -0.023683231 0.01633723 0.024088498 -0.05017521 -0.025224162 0.03150225 0.06904744
-0.0014566067 -0.0012073179 0.008886517 0.03526401 0.06613157 0.021609081 -0.011234041 -0.034095295
0.049925257 0.030577764 -0.0043501994 0.056240626 0.061215576 0.006391306 -0.0018052981 -0.037562534
0.060943246 -0.039807204 0.012240503 -0.04524155 -0.03659362 0.022236153 -0.079346895 -0.06736212
0.0049934965 0.025255192 0.013718082 0.0050312607 -0.04707558 -0.019403422 0.067217514 0.03599526
-0.046388056 -0.001135532 0.051249556 -0.01200525 -0.03509515 0.090976946 -0.048789278 -0.058739763
0.041134555 -0.023958782 0.009132153 0.035757244 0.06971942 0.031381883 0.028612074 0.05222469
-0.021296768 0.0039940346 0.045779824 -0.061024208 -0.07543206 0.032839566 0.05777198 -0.050739184
-0.016045658 0.06551423 -0.035177004 0.036850017 -0.0130942 0.07727297 -0.01018248 0.04172529
0.01200489 -0.040903244 -0.053462196 -0.030704888 -0.04224916 0.035790917 0.0073002707 0.030680802
0.05714717 -0.013234731 -0.0021083662 0.06794416 -0.06916884 -0.008179696 0.009098014 -0.06341332
0.08012362 0.07941964 -0.039046116 0.05777686 -0.010692049 -0.036022138 0.017979855 0.018852804
0.009937102 -0.0392899 0.004341407 0.025779752 -0.024914432 0.010974311 -0.0039955494 -0.059985153
-0.04749931 -0.056484908 -0.08033399 -0.027975127 -0.07714376 0.050121903 -0.036175534 -0.067176834
-0.058547705 -0.0033287178 -0.04324975 0.052947 -0.01349368 -0.030488048 -0.036988977 -0.0062895743
-0.0029695246 -0.025715172 -0.018897625 -0.06121243 0.06584916 -0.07148853 -0.037563063 0.0030654126
-0.035680618 -0.06831366 -0.011341618 0.064048454 -0.069111906 -0.004925186 -0.061545443 0.028214008
-0.020165922 0.044308614 -0.028859718 0.0069602444 -0.027899962 -0.020003185 -0.06581409 0.07331288
-0.06563445 0.061343458 -0.014282734 0.075467065 0.04865042 0.07641112 -0.0069724456 0.014691077
-0.014680339 -0.05429157 0.00327835 -0.018826801 -0.009373138 0.05632205 -0.03369072 -0.053710632
-0.055151593 -0.029658778 -0.07610097 0.007923989 -0.059917454 0.032579057 -0.010255548 -0.012016663
0.071572855 0.008372281 0.00599308 -0.026654389 -0.020037679 -0.0119091375 -0.055760402 -0.004442814
-0.005840804 -0.05901713 -0.030944113 0.02473275 -0.06427034 0.038272243 0.046800952 0.058311764
-0.04121274 -0.060680658 0.017473685 -0.014781191 0.05608324 -0.02889341 -0.05096426 0.063638635
-0.021040378 -0.05961643 -0.073818445 -0.07374357 0.047683023 -0.006629096 0.0043330705 0.034225073
-0.051962957 0.07614391 0.07780792 -0.020259332 -0.010577155 -0.048384707 -0.039892767 0.032806676
-0.016645208 -0.07436524 0.04207191 -0.049293004 0.023354352 0.03678776 0.05051782 0.004819941
-0.0729341 0.025754657 0.015256828 0.0322473 0.06054392 0.046776712 -0.008503566 0.004874873
-0.048908453 0.058269426 0.052463014 -0.07796627 0.04399049 -0.06221995 0.05425351 -0.0035679913
0.01957411 -0.028218664 0.046453062 -0.070149764 0.042527024 -0.021224758 0.04818481 -0.00678665
0.03189793 -0.041084632 0.06103958 -0.078160755 0.023682905 0.01305784 0.010568516 -0.0344172
-0.012467595 0.059835434 -0.057053413 -0.004396165 0.059382446 -0.016286664 -0.021140525 -0.052687

crystalGraphConvNet.convs.1.fc_full.bias f4 [128]
00000000: b259 93bd c02c 06bd 95f8 8cbd 161f 013d
00000010: 8276 63bc e310 5e3d 88dd 4f3d a397 22bb
00000020: c53e feba e354 54bc 2495 80bd 9736 7ebd
00000030: bcce 7abd 286d ab3c 1d38 8e3d 18e9 823d
00000040: cf50 cbbc 7453 54bd 858e b5bc 4f38 b93b
00000050: 52a5 59bd 947c 94bd 35e0 8d3d a8dd 5b3b
00000060: 685b b7bc dd19 983c 4b85 82bd fcbe 2dbd
00000070: 8eb6 853d 25fe 253d 1702 54bd 9c84 73bd
00000080: 7966 3f3d 1eec 0bbd 81ce 5a3d 5b56 333c
00000090: 545f 8ebd fa00 943d caf3 6f3d 8fb2 83bc
000000a0: 5b40 063d 9958 65bd a9ba 8fbd 03b5 e0bc
000000b0: 79ab 143d 4570 a03c a5e1 933d ad07 8cbd
000000c0: b987 783b c5f7 103c cf70 b23c bb82 2bbd
000000d0: 395c e3ba 0b85 993d 7650 843d 1e64 f3bc
000000e0: f73a 0f3d 60e7 273d 7ce2 c7bc d901 f5ba
000000f0: d428 5a3d 4146 d33c 92e9 7a3d 3736 313d
00000100: 2dbe 24bd 866f 893d f5d2 0b3c c5de b13b
00000110: db37 f8bc 968b 8d3d 773d 713d 455e e6bc
00000120: 58f1 90bd b74e 8fbc 232a a83c 7d9c 83bd
00000130: addf 0dbd 7c72 7cbc 8570 66bd 10a7 e03c
00000140: d267 1e3d c6c3 5a3c e53f c23a e2bc 953d
00000150: 85d6 69bd 6dd7 9c3d 1500 16bc 7729 d6bc
00000160: 6afa 3d3d ab16 94bd 7717 80bb bee6 6ebd
00000170: 6db6 543b 1962 653d 4d05 4c3d 7437 573d
00000180: c81d 293d 9fc4 e2bb 2d54 1b3d 95b8 0cbc
00000190: 6d58 443d 19cb 8fbc ff29 88bd 8a5e bbbb
000001a0: 25f8 df3c a1ad 253b 6f77 6a3d 9fd4 8e3d
000001b0: f0d8 b03c bc73 0e3c b255 b23c 183b d5bb
000001c0: cda0 0bbd 5c8b 5bbd 9415 8bbd 8565 c6bc
000001d0: 68af f8bc be35 363d 761b 8b3c 2d3b 77bd
000001e0: 4012 983d 505b 9abd c075 cabc f7e5 123d
000001f0: 190e 1dbd 25f3 81bd 3e22 46bd ef60 04bd
-0.071948424 -0.03275752 -0.06883351 0.031523786 -0.013883235 0.054215323 0.050748378 -0.002480962
-0.0019397369 -0.012959692 -0.06278446 -0.06206378 -0.061232314 0.020926073 0.069442965 0.06392115
-0.024818806 -0.0518374 -0.022162685 0.0056524645 -0.053136177 -0.07250324 0.0692753 0.0033548865
-0.022382453 0.01856702 -0.0637308 -0.042418465 0.0652896 0.040525574 -0.051759806 -0.059452638
0.046728585 -0.034160726 0.053419594 0.010945882 -0.06951776 0.07226749 0.058582105 -0.016076354
0.032776218 -0.055992696 -0.070180245 -0.027430063 0.03629634 0.019584784 0.07220773 -0.068374015
0.0037922694 0.008848135 0.021782307 -0.04187272 -0.001734621 0.07496079 0.06460659 -0.029710826
0.034968343 0.04099214 -0.024399988 -0.0018692567 0.053261593 0.025790336 0.061257906 0.043264594
-0.04022043 0.067107245 0.008534183 0.0054281675 -0.030300071 0.069113895 0.058896508 -0.028121123
-0.07077283 -0.017493589 0.020527905 -0.06426332 -0.034637142 -0.015408155 -0.05625965 0.027423412
0.03867323 0.01335234 0.0014820067 0.07311417 -0.057089347 0.07658277 -0.009155293 -0.026142819
0.04638139 -0.07230886 -0.003909047 -0.05832552 0.0032457367 0.056001756 0.049809743 0.05254312
0.041288167 -0.0069204117 0.037922073 -0.00858893 0.047935892 -0.0175529 -0.06648635 -0.005718057
0.027340004 0.0025280493 0.057242807 0.06974148 0.021587819 0.008694585 0.021769378 -0.0065072887
-0.0340889 -0.0535997 -0.06791225 -0.02421833 -0.030357078 0.044484846 0.016980868 -0.06035917
0.07425356 -0.07536948 -0.02471435 0.035863843 -0.038343523 -0.06345204 -0.0483725 -0.032319006

crystalGraphConvNet.convs.1.bn1.weight f4 [128]
00000000: cce4 7f3f 5a56 803f 9409 803f d81f 803f
00000010: 8d10 803f 1f0f 803f 59b0 7f3f bad8 7f3f
00000020: 44dc 7f3f 528f 803f 647b 803f bb20 803f
00000030: 3020 803f 6611 803f 7032 803f 4c14 803f
00000040: c301 803f 2737 7f3f 32f4 7f3f a4eb 7f3f
00000050: 911c 803f 0eca 7f3f c638 803f d8b1 7f3f
00000060: 6141 803f fe45 813f e2ec 7f3f b383 7f3f
00000070: 1ddd 7f3f 1204 803f fa30 803f dea2 7f3f
00000080: e721 803f 7526 803f 97b8 7f3f 16e7 803f
00000090: 0b96 803f 8a36 803f c1a1 7f3f 1d53 803f
000000a0: 0803 803f 1f49 803f d00c 803f 9e10 803f
000000b0: aa21 803f e333 803f ceb6 7f3f 010a 803f
000000c0: f91f 803f 360b 803f 0b54 803f a568 7f3f
000000d0: c043 7f3f 24fe 7f3f 0705 803f d663 803f
000000e0: fc62 803f 588b 803f 1e01 803f ee37 803f
000000f0: e707 803f b405 803f 0e3b 803f 8747 803f
00000100: 2fc5 803f 6942 803f a355 803f 6912 803f
00000110: 4839 803f dd4b 803f 433f 803f 5f4d 803f
00000120: 6c14 803f 181e 7f3f 2b3b 803f e4a9 7f3f
00000130: 180b 803f f54a 803f 35f1 7f3f f702 803f
00000140: 8781 803f 2861 803f c7d8 7f3f 2d20 803f
00000150: 583f 803f 6825 803f c215 803f c204 803f
00000160: 2b39 7f3f 42c9 7f3f 71f5 7f3f c2e8 7f3f
00000170: 629d 803f 1d15 803f 777e 7f3f fd46 803f
00000180: a80a 803f 0bc4 7f3f 95f7 7d3f f69f 7f3f
00000190: 067f 803f bdfa 7f3f a219 803f f0d4 7f3f
000001a0: aff5 7f3f 453e 803f cf22 803f 96d7 7f3f
000001b0: 5a1a 803f 6bc1 7f3f d544 803f c51d 803f
000001c0: 5867 803f 9515 803f eacc 7f3f 6b7b 803f
000001d0: 0c61 803f 4ce7 7f3f d903 803f 9458 803f
000001e0: 87bc 7f3f 8d0b 803f 9cf8 7f3f 1394 7f3f
000001f0: acb0 7f3f 0706 803f 8598 803f c6a7 7f3f
0.9995849 1.0026352 1.0002923 1.0009718 1.0005051 1.0004615 0.9987846 0.99940073
0.99945474 1.0043738 1.0037656 1.0009989 1.0009823 1.000531 1.0015392 1.0006194
1.0000538 0.9969353 0.9998199 0.99968934 1.0008718 0.99917686 1.0017326 0.99880743
1.0019952 1.0099485 0.9997083 0.9981033 0.9994677 1.0001242 1.0014946 0.9985789
1.0010346 1.0011736 0.99891037 1.0070522 1.004579 1.0016644 0.9985619 1.0025364
1.0000925 1.0022315 1.000391 1.0005071 1.0010273 1.0015835 0.9988831 1.0003053
1.0009757 1.0003421 1.0025648 0.9976905 0.99712753 0.9999716 1.0001534 1.0030468
1.0030208 1.0042524 1.0000341 1.0017068 1.0002412 1.000174 1.0018022 1.0021828
1.0060176 1.0020267 1.0026134 1.0005618 1.0017481 1.0023152 1.0019306 1.0023612
1.0006232 0.99655294 1.0018057 0.9986861 1.0003386 1.0022875 0.9997743 1.0000905
1.0039529 1.002965 0.9994015 1.0009819 1.0019331 1.0011415 1.000664 1.0001452
0.99696606 0.9991647 0.9998389 0.99964535 1.004803 1.0006443 0.99802345 1.0021664
1.0003252 0.9990851 0.99205905 0.99853456 1.0038764 0.9999197 1.0007823 0.9993429
0.9998426 1.0019003 1.0010623 0.99938333 1.0008042 0.9990451 1.0021006 1.0009085
1.0031538 1.0006586 0.9992205 1.0037664 1.0029616 0.99962306 1.0001174 1.0027032
0.99897045 1.0003525 0.9998872 0.9983532 0.99878955 1.0001839 1.0046545 0.99865377
