get_descriptor_cgcnn/saved_models/hse_168.ckpt (torch, 675914 bytes, 58 tensors)

crystalGraphConvNet.embedding.weight f4 [64, 92]
-0.034942836 0.032465495 0.070126556 -0.094121344 0.008335092 -0.029454801 -0.031865127 -0.035635952
0.06009536 0.025721366 0.054570768 -0.008624504 0.019023132 -0.011713887 0.023331763 -0.008813443
-0.00081219827 0.08709818 -0.009323947 0.049153704 0.06467548 0.115621015 -0.017946571 -0.07405238
0.087353185 -0.09738544 -0.05773478 0.08429387 0.06357155 0.019200223 -0.08613702 -0.08151641
0.013023683 0.019589655 -0.02786393 0.08892037 -0.05605212 -0.054233395 -0.0007617856 -0.08792095
0.10360397 -0.022076221 -0.063306995 0.0021949548 -0.07105862 0.042550188 0.06118698 0.059458073
0.011160381 -0.016550975 -0.038666777 -0.07819921 0.08633127 -0.028882662 -0.04501136 0.035691462
0.08576757 -0.015664792 0.011484465 0.102159254 -0.066081434 0.09952491 0.017212762 -0.05022754
0.096150495 -0.06274315 -0.0683126 -0.011884677 0.043417387 0.076681994 0.077012114 -0.019747067
-0.06970716 0.06942828 -0.05691715 0.095411986 0.089820035 0.06844153 0.10795136 -0.018537682
0.0721725 0.09759692 -0.02335611 0.07616367 -0.036964998 -0.026522163 -0.02689066 0.03704552
-0.046579406 -0.026207328 -0.023045884 -0.011104635 0.01676476 -0.06605215 0.020997224 0.034366846
-0.10426995 -0.08840947 0.018244874 0.05738819 0.05835706 0.04913618 -0.05840822 0.035112366
-0.02728874 0.031486016 0.015962845 -0.0234041 -0.06896033 0.02463452 -0.05358583 -0.051744644
-0.11067366 -0.075908184 -0.07218559 0.08943307 -0.012887305 -0.016858043 0.07126489 -0.0576067
0.0605005 -0.0012690615 0.02591901 0.016238078 0.08030361 -0.09380163 0.046782434 0.040210336
-0.055668734 0.06525521 0.063620485 0.105847016 -0.03568515 0.07757425 0.01731662 0.01845965
-0.09546582 -0.010077373 -0.055650335 0.10545857 0.06206635 -0.1001225 0.0018628432 0.02498244
-0.07951646 0.101430856 -0.03988844 0.09058487 -0.057686247 0.10975565 -0.05698787 -0.007891084
-0.03485132 0.11085594 0.012976522 -0.01515605 0.021713955 0.034199007 0.05984586 -0.09446228
0.026758235 0.027551189 -0.10011924 -0.023494637 0.06286124 0.05033146 -0.00057515234 0.0896068
0.071547724 -0.022642246 0.052200142 0.040298942 -0.0143679725 -0.061770707 0.043383364 0.08550302
-0.0024205097 0.06264836 -0.0057599354 0.055628747 -0.027633704 -0.011533107 0.089810155 -0.079971366
-0.017373968 -0.027036313 -0.09423147 0.08808465 -0.10963255 0.07163987 -0.019806396 0.057914168
0.051333945 -0.044730596 0.06908135 -0.10061124 -0.07233917 0.008037479 0.09689662 -0.020870771
0.057315208 0.06533047 -0.03390478 -0.03197644 -0.07217145 -0.05566773 0.028425256 0.0057385056
-0.039105326 0.053253923 -0.011472373 -0.07373517 -0.11361669 0.03745974 0.043637168 0.044080604
-0.00033006046 -0.05816087 -0.06088437 -0.0617488 0.0093344515 0.0801522 -0.07020785 -0.050926834
-0.015585764 0.029400235 0.10081454 -0.008861047 0.0059996652 0.034237202 -0.045666132 0.049675696
-0.078112096 -0.05391082 0.0072375997 0.0031673065 -0.035895634 -0.017962907 0.089965574 0.033242572
0.040630028 -0.06253916 -0.023465792 -0.023778157 0.083441414 0.09253426 -0.059164967 -0.048350655
-0.07718573 0.00073932967 0.012185824 -0.025840934 -0.046336163 -0.089978024 -0.05442546 0.090844125
00000000: 3820 0fbd 8afa 043d 839e 8f3d b1c2 c0bd
00000010: e98f 083c 324b f1bc 0285 02bd 01f7 11bd
00000020: 8d26 763d 9db5 d23c 9985 5f3d cb4d 0dbc
00000030: 66d6 9b3c 9aeb 3fbc 4122 bf3c 4266 10bc
00000040: b4e9 54ba 8860 b23d 78c3 18bc 6555 493d
00000050: 9474 843d b6ca ec3d b004 93bc c6a8 97bd
00000060: 3ae6 b23d 0472 c7bd 4e7b 6cbd 44a2 ac3d
00000070: cd31 823d c949 9d3c 9b68 b0bd 13f2 a6bd
00000080: 4961 553c 7c7a a03c e642 e4bc e21b b63d
00000090: e896 65bd d623 5ebd 91b2 47ba e60f b4bd
000000a0: 512e d43d 31d9 b4bc 19a7 81bd 3bd9 0f3b
000000b0: 2f87 91bd 1b49 2e3d 339f 7a3d 4f8a 733d
000000c0: 08da 363c e995 87bc 0e61 1ebd e826 a0bd
000000d0: 73ce b03d 559b ecbc d55d 38bd 3631 123d
000000e0: e8a6 af3d 7353 80bc 5629 3c3c df38 d13d
000000f0: b455 87bd b7d3 cb3d c701 8d3c 65bb 4dbd
00000100: 8dea c43d 7b7f 80bd 7ae7 8bbd f3b7 42bc
00000110: 6ed6 313d 730b 9d3d 87b8 9d3d 9ac4 a1bc
00000120: a1c2 8ebd 6a30 8e3d f521 69bd 5c67 c33d
00000130: 91f3 b73d 132b 8c3d 9a15 dd3d 56dc 97bc
00000140: 2dcf 933d e5e0 c73d 5055 bfbc b3fb 9b3d
00000150: 9c68 17bd 0245 d9bc cd49 dcbc 0bbd 173d
00000160: 0cca 3ebd c0b0 d6bc b9ca bcbc 37f0 35bc
00000170: 4056 893c 5a46 87bd 5f02 ac3c 40c4 0c3d
00000180: 7c8b d5bd 0610 b5bd 4676 953c e10f 6b3d
00000190: d007 6f3d 0543 493d 753d 6fbd fcd1 0f3d
000001a0: a38c dfbc 7bf7 003d 83c4 823c f5b9 bfbc
000001b0: 133b 8dbd 55ce c93c d17c 5bbd 31f2 53bd
000001c0: dfa8 e2bd c075 9bbd 0ad6 93bd af28 b73d
000001d0: 4625 53bc e119 8abc 54f3 913d 01f5 6bbd
000001e0: 5fcf 773d a356 a6ba 1b54 d43c b805 853c
000001f0: 3876 a43d 121b c0bd f09e 3f3d 98b3 243d
00000200: e604 64bd 86a4 853d 754b 823d 52c6 d83d
00000210: 982a 12bd 40df 9e3d 96db 8d3c b138 973c
00000220: 9583 c3bd 911b 25bc 9bf1 63bd aafa d73d
00000230: 4939 7e3d 060d cdbd a52a f43a f9a7 cc3c
00000240: 87d9 a2bd fbba cf3d 1062 23bd 8f84 b93d
00000250: 6a48 6cbd 92c7 e03d 1d6c 69bd 9b49 01bc
00000260: 42c0 0ebd 7008 e33d 7a9b 543c 1551 78bc
00000270: 77e1 b13c 4214 0c3d ef20 753d 7175 c1bd
00000280: 1634 db3c 08b3 e13c 510b cdbd d377 c0bc
00000290: 65bd 803d 5c28 4e3d d2c5 16ba c583 b73d
000002a0: 9d87 923d 3b7c b9bc d1cf 553d 8110 253d
000002b0: a567 6bbc 4803 7dbd c1b2 313d 351c af3d
000002c0: 6aa1 1ebb c94d 803d d7bd bcbb f8da 633d
000002d0: 1460 e2bc 5bf5 3cbc 63ee b73d 07c8 a3bd
000002e0: da53 8ebc 427b ddbc 6efc c0bd ba65 b43d
000002f0: 0887 e0bd edb7 923d 0641 a2bc 6837 6d3d
00000300: 8b43 523d 6e37 37bd 867a 8d3d 440d cebd
00000310: 8f26 94bd a1af 033c bc71 c63d 2ef9 aabc
00000320: 5ac3 6a3d fbcb 853d bddf 0abd baf9 02bd
00000330: a0ce 93bd d803 64bd 15dc e83c 130a bc3b
00000340: e82c 20bd c920 5a3d 9ff6 3bbc 7702 97bd
00000350: deaf e8bd 626f 193d e3bc 323d dd8d 343d
00000360: f70b adb9 183a 6ebd e461 79bd 4fec 7cbd
00000370: 87ef 183c d626 a43d 22c9 8fbd a898 50bd
00000380: 6f5b 7fbc c3d8 f03c db77 ce3d ed2d 11bc
00000390: d798 c43b 4f3c 0c3d 690c 3bbd be78 4b3d
000003a0: 3cf9 9fbd 98d1 5cbd 6329 ed3b 9692 4f3b
000003b0: 4d07 13bd f226 93bc df3f b83d 5d29 083d
000003c0: ac6b 263d 8814 80bd 553b c0bc 69ca c2bc
000003d0: 55e3 aa3d 9a82 bd3d f756 72bd 560b 46bd
000003e0: 8d13 9ebd 93cf 413a 0da7 473c 5eb0 d3bc
000003f0: fdca 3dbd 6646 b8bd 3bed 5ebd 7c0c ba3d

crystalGraphConvNet.embedding.bias f4 [64]
0.10322127 0.0841478 0.054985706 0.07676742 -0.04401043 0.04098131 0.002666916 0.05823133
0.064081565 -0.014068199 0.070938766 -0.07887853 0.0047556516 0.05712957 -0.10415933 0.04527133
-0.02589328 -0.08849676 0.08780633 -0.04474471 0.0021699874 -0.10103358 -0.03279533 0.06753108
-0.046478942 -0.006184496 0.052989934 0.028697882 0.010952849 -0.06997751 0.08054079 0.09622313
-0.024017263 -0.059094775 -0.077588655 -0.096382834 0.03352768 -0.02433271 0.05710507 -0.029338941
-0.101708464 0.053664926 -0.03549224 -0.03557337 -0.076108605 0.039145857 0.02114817 -0.099548645
0.095540136 -0.08338611 -0.015777415 -0.032586675 0.09833322 -0.05034204 0.030197775 0.05816883
0.09995295 -0.018108578 -0.027687218 0.0903428 -0.007660565 -0.045701098 -0.06485572 0.07127868
00000000: ac65 d33d af55 ac3d b138 613d 3d38 9d3d
00000010: 4844 34bd 05dc 273d 6dc7 2e3b fa83 6e3d
00000020: 323d 833d 4e7e 66bc 5848 913d 118b a1bd
00000030: 4cd5 9b3b b200 6a3d 7d51 d5bd 6e6e 393d
00000040: 251e d4bc ca3d b5bd ced3 b33d 3b46 37bd
00000050: 5936 0e3b b2ea cebd 6554 06bd bc4d 8a3d
00000060: b460 3ebd 50a7 cabb f90b 593d d217 eb3c
00000070: 9473 333c 5e50 8fbd 92f2 a43d a210 c53d
00000080: dabf c4bc 5d0d 72bd cde6 9ebd 5d64 c5bd
00000090: 5254 093d 6455 c7bc 02e7 693d 3858 f0bc
000000a0: 874c d0bd c1cf 5b3d 5060 11bd 62b5 11bd
000000b0: d4de 9bbd 6857 203d ed3e ad3c 29e0 cbbd
000000c0: 8caa c33d 56c6 aabd a33f 81bc 9b79 05bd
000000d0: ed62 c93d 7433 4ebd 5361 f73c 7042 6e3d
000000e0: 22b4 cc3d 7158 94bc 4ed0 e2bc a505 b93d
000000f0: 7a05 fbbb 1331 3bbd 13d3 84bd 8efa 913d

crystalGraphConvNet.convs.0.fc_full.weight f4 [128, 169]
-0.038780678 0.064070545 -0.0016084533 0.06810078 -0.049504545 0.07320443 -0.015157047 0.0112433955
0.039373666 0.030695528 -0.025982048 -0.054537784 0.030860344 -0.02921807 0.022305608 -0.061354026
0.04271708 -0.025267482 0.014376205 -0.057891175 0.065378666 0.00037364222 0.016182976 -0.04585586
-0.06711804 0.06260792 0.044345587 0.032303818 -0.022265544 -0.02332401 -0.00961317 -0.05444698
0.028578471 -0.04588125 -0.058971304 0.023435349 -0.028659368 -0.04087424 -0.06538368 0.02836225
-0.05954825 0.06194049 -0.044154316 0.004078919 0.021018924 0.01229617 0.053774796 -0.07877048
0.07076357 0.06990771 0.05110091 -0.056488786 -0.017898124 0.015759967 0.022116851 -0.06930826
0.062533066 0.018965239 -0.062944695 0.016916841 0.03500093 0.052296776 0.036931135 0.0390815
-0.06424742 0.05439796 -0.059028104 -0.015721273 -0.04946741 0.029307334 -0.036574338 0.0488194
0.042877283 -0.068533346 0.0203365 0.0020834205 -0.05285459 0.009739826 0.037194323 -0.044440188
0.029182777 0.06302845 -0.042791355 -0.07410602 0.024372928 0.01988301 0.053980168 -0.014609755
-0.07103449 -0.023634652 -0.06779524 -0.08257984 -0.012552427 -0.07030884 -0.022500513 -0.010332536
-0.08425322 0.0017150319 -0.013640031 0.014918101 -0.06582085 0.014832617 0.0035164158 -0.020421756
-0.030377243 0.024924327 -0.03598965 0.0007249173 0.06820568 -0.027068453 0.04445032 -0.009225225
0.0075321137 -0.025210606 -0.038803093 0.016975911 -0.0031135234 0.074932255 -0.0005818774 0.045099813
-0.0021076659 -0.027963098 -0.020883745 0.019601414 0.028993672 -0.018301655 0.02001089 0.017555185
-0.056197673 -0.029814823 -0.004516154 0.037227128 0.045611426 0.005402946 0.0063446257 0.04466381
-0.033059154 -0.0015360555 0.060535014 -0.054787587 0.036556777 0.040889412 0.001130453 -0.048930716
0.00951962 0.011602079 -0.057044208 -0.06795321 -0.07942997 -0.062305283 0.04209009 0.022670804
-0.0022232474 -0.010527142 -0.05195528 -0.05456769 0.07119271 0.044902183 -0.027081512 0.06722704
0.06516856 -0.036980152 0.07607963 0.0076443967 0.044207692 -0.032621916 -0.013416602 -0.021417473
0.07171069 -0.005163173 0.016043633 -0.07115821 -0.010906402 0.019851219 -0.034645848 0.00905138
-0.06412893 0.010287113 0.04430126 0.040086124 0.010775371 0.056571566 0.024881156 0.02113998
-0.05134768 0.00966112 -0.013682709 0.039760828 0.06483826 7.40368e-05 -0.01301321 0.037618328
-0.050310507 0.00285679 0.06660775 0.022283288 0.06776964 0.010944458 -0.073597796 0.013625082
0.054549538 -0.06587032 -0.060482044 0.03555921 -0.019305816 -0.0664855 -0.04477597 0.019282341
0.06887937 0.028910046 -0.024583194 -0.046155974 -0.012902969 0.022086335 -0.021878451 0.01676656
-0.055417385 0.01634832 -0.07250746 0.044003822 0.028109018 0.06031057 0.074121736 -0.0048782374
0.018098362 -0.034060955 0.0035581393 -0.039651487 0.04105284 0.015099394 -0.019401766 -0.0051307967
-0.025209943 -0.02813798 -0.007046133 0.005918428 0.0010413612 0.04067893 -0.042763807 0.03694575
-0.045456123 -0.011480428 -0.04215012 0.05520644 -0.06538335 0.06282191 -0.016590318 0.022924468
0.0015243153 0.042727508 -0.059622433 -0.041027825 -0.056534626 0.015430086 0.066940464 -0.038084652
00000000: 7dd8 1ebd 6b37 833d bdd2 d2ba 6c78 8b3d
00000010: 47c5 4abd 34ec 953d 4355 78bc 3836 383c
00000020: 4846 213d 3075 fb3c 4ed8 d4bc 0363 5fbd
00000030: d5ce fc3c bc5a efbc 40ba b63c 5c4e 7bbd
00000040: 1bf8 2e3d c0fd cebc 2d8a 6b3c 4c1f 6dbd
00000050: 40e5 853d 69e5 c339 2992 843c 5bd3 3bbd
00000060: 2f75 89bd 9538 803d b8a3 353d 0251 043d
00000070: 3b66 b6bc ff11 bfbc 8f80 1dbc cc03 5fbd
00000080: 661d ea3c faed 3bbd e58b 71bd 7dfb bf3c
00000090: 0dc7 eabc bf6b 27bd e1e7 85bd f357 e83c
000000a0: dee8 73bd 50b5 7d3d 28db 34bd 74a8 853b
000000b0: e12f ac3c e075 493c f642 5c3d 6b52 a1bd
000000c0: 7eec 903d c62b 8f3d 304f 513d c960 67bd
000000d0: 169f 92bc 0c1b 813c 662e b53c 7df1 8dbd
000000e0: 5611 803d fd5c 9b3c 26e9 80bd 3095 8a3c
000000f0: 235d 0f3d 2535 563d 1a45 173d ec13 203d
00000100: 2794 83bd 65d0 5e3d 74c7 71bd e6c9 80bc
00000110: 579e 4abd ef15 f03c f9ce 15bd daf6 473d
00000120: 17a0 2f3d 365b 8cbd bb98 a63c ff89 083b
00000130: 0e7e 58bd cb93 1f3c 1359 183d ea06 36bd
00000140: b810 ef3c 0f15 813d fd45 2fbd e6c4 97bd
00000150: bca9 c73c b2e1 a23c 4f1a 5d3d c15d 6fbc
00000160: 887a 91bd 759d c1bc 3bd8 8abd 9f1f a9bd
00000170: b2a8 4dbc 15fe 8fbd ff52 b8bc cc49 29bc
00000180: f48c acbd ecca e03a 707a 5fbc 0d6b 743c
00000190: 15cd 86bd 8104 733c ab73 663b 874b a7bc
000001a0: b2d9 f8bc 1a2e cc3c e269 13bd 6008 3e3a
000001b0: 6baf 8b3d a9be ddbc 8a11 363d 6625 17bc
000001c0: f3cf f63b 7986 cebc feef 1ebd 1111 8b3c
000001d0: 410c 4cbb 1576 993d 2289 18ba 95ba 383d
000001e0: c420 0abb de12 e5bc 6314 abbc 2593 a03c
000001f0: 2384 ed3c 5aed 95bc e1ed a33c e4cf 8f3c
00000200: 882f 66bd 373e f4bc 3ffc 93bb 797b 183d
00000210: 0cd3 3a3d 320b b13b 94e6 cf3b 66f1 363d
00000220: 0969 07bd 7855 c9ba 90f3 773d f368 60bd
00000230: 8fbc 153d a87b 273d b52b 943a 936b 48bd
00000240: 2ef8 1b3c a516 3e3c 30a7 69bd 0d2b 8bbd
00000250: 2eac a2bd d333 7fbd a966 2c3d 1fb8 b93c
00000260: e7b3 11bb 097a 2cbc 0fcf 54bd 5f82 5fbd
00000270: 7ccd 913d 5aeb 373d 0cda ddbc 55ae 893d
00000280: 1877 853d 8078 17bd a3cf 9b3d d97d fa3b
00000290: 2013 353d 8f9e 05bd 4fd1 5bbc b273 afbc
000002a0: 0edd 923d d62f a9bb f06d 833c 65bb 91bd
000002b0: c4b0 32bc 069f a23c cee8 0dbd 3d4c 143c
000002c0: 0756 83bd 478b 283c 3d75 353d 5931 243d
000002d0: 2f8b 303c 96b7 673d 91d3 cb3c c02d ad3c
000002e0: f251 52bd ad49 1e3c 712d 60bc 40dc 223d
000002f0: ecc9 843d 3444 9b38 5c35 55bc ad15 1a3d
00000300: 6412 4ebd fc38 3b3b a569 883d 718b b63c
00000310: cfca 8a3d 6250 333c 71ba 96bd bc3b 5f3c
00000320: 566f 5f3d 05e7 86bd 05bc 77bd 89a6 113d
00000330: 3b27 9ebc 8d29 88bd 0267 37bd 00f6 9d3c
00000340: a110 8d3d c3d4 ec3c b262 c9bc 0c0e 3dbd
00000350: f966 53bc 67ee b43c 703a b3bc 065a 893c
00000360: 57fd 62bd e9ec 853c cb7e 94bd 5a3d 343d
00000370: e244 e63c 3708 773d 23cd 973d 9fd9 9fbb
00000380: 0443 943c 8083 0bbd ac2f 693b 9969 22bd
00000390: 0627 283d 7363 773c 74f0 9ebc 3e20 a8bb
000003a0: 1585 cebc 9f81 e6bc 3fe3 e6bb 5fef c13b
000003b0: 497e 883a f39e 263d 1a29 2fbd 6d54 173d
000003c0: 3330 3abd 6818 3cbc 9ba5 2cbd 2620 623d
000003d0: b5e7 85bd c6a8 803d 6be8 87bc 18cc bb3c
000003e0: 89cb c73a 0a03 2f3d a736 74bd cb0c 28bd
000003f0: da90 67bd 79ce 7c3c 1518 893d a7fe 1bbd

crystalGraphConvNet.convs.0.fc_full.bias f4 [128]
0.0064711925 -0.06131123 -0.032773238 -0.06365163 -0.032379374 0.040273733 -0.040621195 -0.060370646
-0.019033935 -0.0105994865 0.009623179 -0.0603543 0.03814706 0.07499528 -0.07499708 -0.075910404
-0.06229257 -0.059329208 0.060805634 -0.007896288 0.051432986 0.05298687 0.07018643 -0.012680505
0.045166735 0.0090858145 0.054712452 -0.07318996 -0.07405483 -0.07231451 -0.050144196 -0.048695475
-0.058934003 0.029320542 -0.013099634 -0.039697632 -0.062000725 0.057604775 -0.052128572 -0.020311212
0.010367706 -0.04497997 0.06965821 -0.075052366 0.010985695 -0.04725961 -0.024133574 0.028160252
-0.07336379 0.035545435 -0.011806962 0.005405163 -0.0048346506 0.024929322 0.002907438 -0.05667683
-0.054016616 0.013567736 0.030786341 -0.019335508 -0.05404828 -0.07307401 0.020397156 -0.041260604
-0.07685565 -0.057052493 -0.052266076 0.068168946 0.029378125 0.03510936 -0.019517994 -0.0061310795
-0.010591822 0.06721049 -0.009339546 -0.055492412 0.06885875 0.0013105785 -0.054183017 0.057997696
-0.007157735 0.03049846 -0.009700277 0.05158802 0.020752938 0.046667535 0.016611585 0.0072587836
-0.027988799 0.05975318 -0.004444978 0.06029363 0.06389395 -0.06897321 0.050768796 -0.035937566
0.008521088 -0.06540386 0.041770685 -0.007140266 0.011507123 0.022004303 0.026312895 0.06420467
0.04507624 -0.022261178 0.06357169 -0.0067721372 -0.015527101 -0.07120124 0.046692397 0.06384775
0.056518774 -0.012791612 -0.0032187498 0.024105256 0.046960764 -0.07398202 -0.025316687 -0.016432378
0.05478814 -0.030772047 0.06167548 -0.034878496 0.0022870714 0.029563935 -0.0023177487 -0.026267411
00000000: 4c0c d43b 7c21 7bbd 3b3d 06bd c95b 82bd
00000010: 3ca0 04bd 12f6 243d 6962 26bd 3647 77bd
00000020: 0eed 9bbc 78a9 2dbc 8aaa 1d3c 1236 77bd
00000030: 1740 1c3d 2097 993d 1298 99bd ea76 9bbd
00000040: 7e26 7fbd 2f03 73bd 540f 793d 6f5f 01bc
00000050: 65ab 523d c308 593d e7bd 8f3d e5c1 4fbc
00000060: c100 393d abdc 143c 2a1a 603d 9ee4 95bd
00000070: 0faa 97bd a119 94bd 0064 4dbd e874 47bd
00000080: c864 71bd a231 f03c d99f 56bc fc99 22bd
00000090: 79f4 7dbd fcf2 6b3d c584 55bd b363 a6bc
000000a0: 50dd 293c eb3c 38bd f7a8 8e3d 0eb5 99bd
000000b0: 58fd 333c 4b93 41bd c6b3 c5bc 54b0 e63c
000000c0: c13f 96bd 1798 113d fd71 41bc cb1d b13b
000000d0: fd6b 9ebb 9438 cc3c b78a 3e3b f725 68bd
000000e0: 8740 5dbd 364b 5e3c a333 fc3c 8065 9ebc
000000f0: bb61 5dbd d4a7 95bd f017 a73c e100 29bd
00000100: 7f66 9dbd e0af 69bd f414 56bd 299c 8b3d
00000110: 65aa f03c d5ce 0f3d 33e4 9fbc 39e7 c8bb
00000120: 5289 2dbc a7a5 893d e504 19bc 034c 63bd
00000130: d105 8d3d b8c7 ab3a 03ef 5dbd fe8e 6d3d
00000140: 6f8b eabb e8d7 f93c e9ed 1ebc f64d 533d
00000150: 1102 aa3c 7526 3f3d 0515 883c 17db ed3b
00000160: c448 e5bc c0bf 743d 2ea7 91bb 74f6 763d
00000170: d5da 823d d441 8dbd f1f2 4f3d 4533 13bd
00000180: 099c 0b3c 75f2 85bd bd17 2b3d e4f8 e9bb
00000190: 5f88 3c3c 5e42 b43c 248e d73c bd7d 833d
000001a0: dda1 383d 135d b6bc e031 823d cee8 ddbb
000001b0: 6265 7ebc f5d1 91bd 8740 3f3d 9cc2 823d
000001c0: 3b80 673d e993 51bc a9f1 52bb 6378 c53c
000001d0: ee59 403d e383 97bd f164 cfbc 329d 86bc
000001e0: 8769 603d a915 fcbc 6e9f 7c3d c1dc 0ebd
000001f0: b1e2 153b 1130 f23c 5fe5 17bb c12e d7bc

crystalGraphConvNet.convs.0.bn1.weight f4 [128]
0.9996393 1.0027868 0.9959549 1.0063593 1.0019525 1.0010899 1.005298 0.99794996
1.0044702 1.001338 0.99906087 1.0001942 1.001531 1.0060879 0.99851024 1.0012469
0.9982087 1.0000601 1.000729 1.0013069 0.9976217 1.0017554 1.0026344 1.0000358
1.0039622 1.0014625 1.0004203 0.9993025 0.99798757 1.0016936 0.9968258 0.99776775
0.9987751 1.001224 0.9979604 0.99755657 1.0033653 0.9998744 1.0006467 1.0002788
1.008479 1.0039898 1.0004418 1.0014257 1.0039898 1.0056568 1.0009892 1.0036061
1.0020553 0.99876106 1.00349 1.0006692 1.001907 1.003001 1.0035458 1.0004256
1.002351 1.0015514 1.0015677 1.0007708 0.9996625 1.0003172 0.9992475 1.0018677
1.0035148 0.99915797 1.002311 0.9963742 0.9964127 1.002964 0.9989521 1.0047135
0.9984446 0.99734306 1.0042996 0.9996998 0.9985768 0.99745727 1.0046523 1.0008223
1.0008582 1.001005 1.0045213 0.99895483 1.0047582 0.9990226 1.0007463 0.9982262
1.0008833 1.0009762 0.998652 1.00245 1.002244 0.9970696 0.99904686 1.0016059
1.0014731 0.99909264 1.0050148 1.0001951 1.0000374 1.0020559 0.999805 1.0016446
0.99942905 1.0020046 1.0008636 0.9987447 1.0015343 1.0039226 0.99564177 1.0046604
0.99804443 0.9998657 1.0041604 1.0000032 0.99940765 0.99820143 0.9961284 1.0024273
1.0035915 1.0022588 0.9985571 0.99984187 1.0018117 1.0058619 0.9999238 0.998227
00000000: 5ce8 7f3f 515b 803f e6f6 7e3f 62d0 803f
00000010: fb3f 803f b723 803f 9bad 803f a679 7f3f
00000020: 7b92 803f d82b 803f 74c2 7f3f 5d06 803f
00000030: 2b32 803f 7dc7 803f 5e9e 7f3f dc28 803f
00000040: 9b8a 7f3f f801 803f e317 803f d32a 803f
00000050: 2364 7f3f 8539 803f 5356 803f 2c01 803f
00000060: d581 803f ec2f 803f c60d 803f 4ad2 7f3f
00000070: 1d7c 7f3f 7f37 803f fa2f 7f3f b56d 7f3f
00000080: baaf 7f3f 1c28 803f 557a 7f3f de5f 7f3f
00000090: 466e 803f c5f7 7f3f 3115 803f 2309 803f
000000a0: d715 813f bd82 803f 7a0e 803f b82e 803f
000000b0: bd82 803f 5db9 803f 6a20 803f 2a76 803f
000000c0: 5943 803f ceae 7f3f 5c72 803f ee15 803f
000000d0: 7d3e 803f 5662 803f 3074 803f f20d 803f
000000e0: 0a4d 803f d632 803f 5f33 803f 4219 803f
000000f0: e2e9 7f3f 650a 803f afce 7f3f 333d 803f
00000100: 2c73 803f d1c8 7f3f ba4b 803f 6112 7f3f
00000110: e714 7f3f 2061 803f 53bb 7f3f 749a 803f
00000120: 119a 7f3f e051 7f3f e48c 803f 53ec 7f3f
00000130: bba2 7f3f 5c59 7f3f 7298 803f f21a 803f
00000140: 1f1c 803f ef20 803f 2794 803f 81bb 7f3f
00000150: eb9b 803f f2bf 7f3f 7418 803f c18b 7f3f
00000160: f21c 803f fd1f 803f a8a7 7f3f 4850 803f
00000170: 8849 803f f43f 7f3f 89c1 7f3f 9f34 803f
00000180: 4530 803f 89c4 7f3f 53a4 803f 6506 803f
00000190: 3a01 803f 5e43 803f 38f3 7f3f e435 803f
000001a0: 95da 7f3f b041 803f 4c1c 803f bcad 7f3f
000001b0: 4732 803f 8980 803f 61e2 7e3f b698 803f
000001c0: d77f 7f3f 33f7 7f3f 5488 803f 1b00 803f
000001d0: 2ed9 7f3f 218a 7f3f 4502 7f3f 8a4f 803f
000001e0: b075 803f 044a 803f 70a1 7f3f a3f5 7f3f
000001f0: 5e3b 803f 15c0 803f 02fb 7f3f ce8b 7f3f

crystalGraphConvNet.convs.0.bn1.bias f4 [128]
-4.6134148e-05 -0.0012891397 0.0040723947 -0.006167048 -0.0009551146 -0.0015896803 -0.0014825581 0.00079406827
-0.0032079997 0.0030739782 0.0014773514 0.001966105 0.00020714031 -0.0008427386 0.0017972761 0.00044608247
-0.0005338149 -0.00018829075 -0.0022298016 -0.0012375762 -0.00010210082 0.0004978367 -0.0010386682 0.00082230987
-0.0017607243 0.0009059416 0.0009818724 7.0856627e-06 0.003122302 -0.0028460715 0.0014793545 0.0016779216
0.00043053445 -0.0013598751 0.0020200224 0.002034921 -0.00068797945 0.00392086 -0.00020115434 -0.00097365456
-0.0011554847 -0.0023651659 0.0022593015 0.00091515464 -0.0018700158 -0.0052703856 0.0004855706 -0.0022785745
-0.0015982067 0.0009819955 -0.002795491 0.00077930425 0.003133156 -0.0022643937 -0.0052725775 0.00018963797
-0.0015068566 0.0009514273 0.0049132127 -0.0015770681 0.0023183469 0.002297882 0.0012992218 -0.0018153763
-0.0014328071 -0.00040199963 -0.00023699024 0.0007559343 0.0019970788 -0.00128757 -5.4583918e-05 -0.0034954806
-0.0003038666 0.002083856 -0.0021810536 0.0012660016 0.00084796344 0.0014990629 -0.0018260968 -0.000492937
-0.00078961474 -0.00019010146 -0.0019503513 -0.0001891601 -0.0026931656 0.0006126593 5.360211e-05 0.00057956
-0.0003540759 0.0002288646 0.001340355 -0.00040165323 -0.0010159939 0.0009286591 0.001241685 -1.116609e-05
-0.00023411647 0.0006128555 -0.002558051 0.0006072766 -0.00080332026 -0.00075208314 -0.0004543284 -0.001074362
-0.0006678333 -0.0015808203 -9.2961585e-05 0.00063096714 -0.00021458624 -0.00179632 0.0018081804 -0.002047575
-4.8031226e-05 0.00043078334 -0.0017747127 0.0002682212 -0.001129434 0.002786971 0.001649608 -0.000674435
-0.0018092789 -0.0008555003 0.0023157825 0.00024798192 -0.0003353288 -0.0022624582 0.00072386436 0.0009787487
00000000: 2a80 41b8 5af8 a8ba b971 853b f314 cabb
00000010: a860 7aba d25c d0ba 6552 c2ba 0529 503a
00000020: 4e3d 52bb cc74 493b b0a3 c13a c5d9 003b
00000030: ce33 5939 3beb 5cba 9492 eb3a 2de0 e939
00000040: b6ef 0bba ea6f 45b9 dd21 12bb 2b36 a2ba
00000050: f61e d6b8 4181 023a ec23 88ba 4890 573a
00000060: 1bc8 e6ba b67c 6d3a 2cb2 803a 61c1 ed36
00000070: 899f 4c3b 2885 3abb e6e6 c13a b5ed db3a
00000080: 5bb9 e139 d63d b2ba 5a62 043b 4f5c 053b
00000090: 8559 34ba 8f7a 803b f5ec 52b9 da3c 7fba
000000a0: a273 97ba e600 1bbb ca10 143b fde6 6f3a
000000b0: 511b f5ba 33b3 acbb 2f94 fe39 2354 15bb
000000c0: eb7a d1ba 4db6 803a 8e34 37bb 394a 4c3a
000000d0: a355 4d3b 3966 14bb 96c5 acbb 8ed9 4639
000000e0: b881 c5ba 3569 793a 04ff a03b a0b5 ceba
000000f0: 68ef 173b 1098 163b a64a aa3a ecf1 edba
00000100: 07cd bbba 7ac3 d2b9 9580 78b9 e429 463a
00000110: 6ce1 023b aec3 a8ba 09f1 64b8 6f14 65bb
00000120: 4950 9fb9 4d91 083b 02f0 0ebb f7ef a53a
00000130: dd49 5e3a 347c c43a a459 efba 7138 01ba
00000140: 26fe 4eba f955 47b9 eea2 ffba 4759 46b9
00000150: d27f 30bb df9a 203a d4d2 6038 9ded 173a
00000160: 43a3 b9b9 60fb 6f39 daae af3a fc94 d2b9
00000170: 192b 85ba 4271 733a 09c0 a23a fe55 3bb7
00000180: 297d 75b9 09a8 203a f9a4 27bb a531 1f3a
00000190: e995 52ba 7227 45ba ed32 eeb9 9bd1 8cba
000001a0: 8911 2fba 8733 cfba 5ff4 c2b8 7d67 253a
000001b0: 8e02 61b9 7f72 ebba 7700 ed3a 9c30 06bb
000001c0: 2375 49b8 c3da e139 7a9d e8ba 0aa0 8c39
000001d0: 8409 94ba 9da5 363b a937 d83a 91cc 30ba
000001e0: 5325 edba a743 60ba 62c4 173b 9203 8239
000001f0: 12cf afb9 c045 14bb b7c1 3d3a 5b49 803a

crystalGraphConvNet.convs.0.bn1.running_mean f4 [128]
0.00981675 -0.056111444 -0.011035655 0.08147092 -0.057450727 0.04927293 0.051151145 -0.008710591
-0.0066490266 -0.10296168 0.02421416 -0.088664316 -0.13205248 0.057705153 -0.10362525 -0.10048114
-0.012796534 0.108433425 0.09005116 -0.15378779 0.058607906 -0.029379467 -0.018213782 -0.018301189
0.04146524 -0.1708451 0.12577122 -0.005987744 -0.12682684 -0.06344152 -0.110350594 -0.070567854
-0.0055028712 0.095548965 0.15700853 -0.081785396 -0.0152097475 0.01327446 -0.08399256 -0.010763549
-9.199456e-05 0.0039043871 0.05443726 -0.16019674 0.018992316 -0.016794814 -0.07574682 0.012286441
-0.0026379507 0.039559167 -0.12680474 0.056867763 0.025355771 0.07612471 -0.025179131 -0.07478199
-0.016531864 -0.01760744 -0.054751046 0.007853324 0.014193782 -0.13672414 0.06806292 -0.114374906
-0.00582295 -0.03046394 0.04794256 0.1573947 -0.12422247 0.05027301 0.09915692 0.006673606
-0.0593798 0.119535655 0.042596288 -0.07849937 -0.08567621 0.09737855 0.07618689 0.14079359
-0.011270769 -0.012378187 -0.052009348 0.10928601 0.03294074 0.0056960736 0.033690255 0.036693983
0.017101532 0.050893933 -0.04447587 0.08549452 0.11636432 -0.0069873356 0.06988414 -0.06588052
-0.031031776 -0.09356822 0.12514757 0.13175328 0.021643741 -0.14602873 0.07829616 0.019010268
0.0871536 0.038000133 -0.01674411 -0.024233777 0.020413294 0.055631075 0.12611926 0.05570684
0.062137265 -0.08292067 0.03979621 0.08604421 0.09681017 -0.12117351 0.06212778 0.044953756
0.04977209 -0.012536451 -0.002287964 0.02892623 -0.09071303 -0.0013664842 0.049277056 0.07692623
00000000: 6fd6 203c 1dd5 65bd e4ce 34bc 3ada a63d
00000010: 7451 6bbd 69d2 493d dd83 513d deb6 0ebc
00000020: 14e0 d9bb 93dd d2bd c65c c63c a395 b5bd
00000030: c438 07be 3d5c 6c3d 7a39 d4bd 0ec9 cdbd
00000040: 8ea8 51bc 5812 de3d be6c b83d 8c7a 1dbe
00000050: d80e 703d 35ad f0bc 1235 95bc 60ec 95bc
00000060: 75d7 293d 05f2 2ebe 2cca 003e d634 c4bb
00000070: e5de 01be a1ed 81bd 7eff e1bd e185 90bd
00000080: 6e51 b4bb 2daf c33d d8c6 203e 1a7f a7bd
00000090: 4e32 79bc 1f7d 593c 4b04 acbd 9959 30bc
000000a0: 34ed c0b8 bfe0 7f3b 9bf9 5e3d 9d0a 24be
000000b0: c695 9b3c 4795 89bc 2621 9bbd 124d 493c
000000c0: 78e1 2cbb cb08 223d 1ad9 01be 2cee 683d
000000d0: e8b6 cf3c 46e7 9b3d 7744 cebc 4d27 99bd
000000e0: d56d 87bc 7a3d 90bc a242 60bd 3aab 003c
000000f0: 098d 683c 6a01 0cbe 9264 8b3d 643d eabd
00000100: 72ce bebb 838f f9bc 6b5f 443d 142c 213e
00000110: 5a68 febd 12eb 4d3d c912 cb3d 44ae da3b
00000120: 3c38 73bd 1ccf f43d 7279 2e3d 47c4 a0bd
00000130: 0277 afbd 686e c73d df07 9c3d 322c 103e
00000140: 08a9 38bc e1cd 4abc c107 55bd 58d1 df3d
00000150: dfec 063d 21a6 ba3b cbfe 093d 6e4c 163d
00000160: 8318 8c3c 2876 503d 542c 36bd c017 af3d
00000170: 6b50 ee3d 05f6 e4bb 6a1f 8f3d 5eec 86bd
00000180: 5a36 febc b2a0 bfbd af26 003e 55ea 063e
00000190: 374e b13c 8e88 15be bd59 a03d 6cbb 9b3c
000001a0: 967d b23d 07a6 1b3d f22a 89bc ea85 c6bc
000001b0: c839 a73c 69dd 633d 6825 013e db2c 643d
000001c0: a583 7e3d 50d2 a9bd 5a01 233d f237 b03d
000001d0: 6944 c63d d129 f8bd b379 7e3d 6e21 383d
000001e0: d2dd 4b3d b065 4dbc abf1 15bb b3f6 ec3c
000001f0: c1c7 b9bd 9a1b b3ba bdd6 493d 808b 9d3d

crystalGraphConvNet.convs.0.bn1.running_var f4 [128]
0.009070825 0.009327263 0.0089839995 0.008359317 0.0071315966 0.0070009395 0.006431341 0.010666718
0.009149979 0.0083100265 0.010881782 0.011434886 0.023191001 0.011236493 0.010103972 0.010011843
0.0074773952 0.008232985 0.0061882306 0.0101817595 0.0060230214 0.009938072 0.0045875194 0.015594966
0.0115624815 0.008086312 0.009382324 0.0084634945 0.0083296485 0.0098333405 0.013279963 0.011995694
0.008915833 0.0075910147 0.0073964265 0.011012103 0.008506488 0.011128644 0.011525699 0.013191984
0.012128748 0.010841726 0.007034438 0.008341733 0.012452723 0.014131952 0.009527126 0.009827597
0.01022074 0.015465941 0.0061881957 0.0106233535 0.010866715 0.010277004 0.010143817 0.011895124
0.0055351816 0.007814678 0.015984997 0.014798455 0.009823266 0.008604293 0.008522731 0.007820708
0.0070903087 0.011221854 0.02665357 0.008210222 0.010172285 0.009209769 0.009523525 0.007099326
0.0072319536 0.016805468 0.012417367 0.018275058 0.010987042 0.02417344 0.013763757 0.008895424
0.0059688156 0.009509648 0.007549057 0.009323949 0.007900174 0.010193667 0.011494722 0.008623976
0.011138316 0.011662839 0.011778192 0.006202473 0.012747059 0.010439918 0.011382217 0.0065608183
0.018740695 0.008859368 0.0074768453 0.011528469 0.008670594 0.012673705 0.008978861 0.0064801658
0.011496368 0.025670072 0.008543389 0.00852155 0.011151225 0.02383062 0.015488657 0.00791197
0.010691223 0.009946361 0.0069710775 0.013807033 0.009440406 0.0114800455 0.012048175 0.0070050755
0.0078853825 0.0087208785 0.012032085 0.009502229 0.010192691 0.016564056 0.012424054 0.014443345
00000000: cc9d 143c 60d1 183c a031 133c 84f5 083c
00000010: 2bb0 e93b 2368 e53b 00be d23b 75c3 2e3c
00000020: cbe9 153c c726 083c 8049 323c 6359 3b3c
00000030: 0efb bd3c 4419 383c 218b 253c b708 243c
00000040: f004 f53b a4e3 063c a4c6 ca3b 65d1 263c
00000050: c45c c53b 4cd3 223c e752 963b 0782 7f3c
00000060: 9070 3d3c 737c 043c 52b8 193c 78aa 0a3c
00000070: 1479 083c 051c 213c 3494 593c 9689 443c
00000080: b713 123c 0cbe f83b b95d f23b 1c6c 343c
00000090: cc5e 0b3c eb54 363c 49d6 3c3c 3123 583c
000000a0: a8b7 463c 7fa1 313c 2581 e63b c4ab 083c
000000b0: 8206 4c3c b489 673c aa17 1c3c ee03 213c
000000c0: e474 273c dc64 7d3c 59c6 ca3b 930d 2e3c
000000d0: 4e0a 323c e160 283c 4132 263c c4e3 423c
000000e0: 7860 b53b 2309 003c f8f2 823c 3875 723c
000000f0: c4f1 203c 05f9 0c3c eda2 0b3c 6d22 003c
00000100: d255 e83b dedb 373c 9658 da3c 2b84 063c
00000110: a8a9 263c 92e4 163c 8f08 1c3c 76a1 e83b
00000120: 06fa ec3b 9fab 893c 3672 4b3c 93b5 953c
00000130: ff02 343c 6107 c63c 6281 613c 1dbe 113c
00000140: 0e96 c33b 5bce 1b3c 145e f73b 7ac3 183c
00000150: bb6f 013c 5703 273c 5c54 3c3c 944b 0d3c
00000160: 7c7d 363c 7e15 3f3c 51f9 403c 1d3e cb3b
00000170: 0ad9 503c 310c 2b3c 7a7c 3a3c 22fc d63b
00000180: 1686 993c e226 113c 5300 f53b e7e1 3c3c
00000190: 1b0f 0e3c 5fa5 4f3c 131c 133c 9257 d43b
000001a0: 435b 3c3c 0b4a d23c 92f9 0b3c f99d 0b3c
000001b0: a1b3 363c 6f38 c33c 23c4 7d3c 35a1 013c
000001c0: 3d2a 2f3c 10f6 223c a36d e43b e536 623c
000001d0: efab 1a3c cd16 3c3c b565 453c d58a e53b
000001e0: b131 013c 04e2 0e3c 3922 453c 3daf 1b3c
000001f0: 3fff 263c 58b1 873c 428e 4b3c c8a3 6c3c

crystalGraphConvNet.convs.0.bn2.weight f4 [64]
1.0030311 1.0072174 0.98384565 1.0156157 0.99668986 1.0115724 1.0042281 1.0098597
1.0120738 0.98644507 1.000647 0.9948455 0.99227756 1.000701 1.010988 1.0000045
0.98749745 0.9935719 1.0138218 1.0010209 1.0150441 0.9910346 1.0018102 1.0046948
1.0084829 0.9995701 0.9908279 1.011418 0.99192643 0.99573314 0.985566 0.989597
1.0038948 0.9922687 1.0079347 0.9910781 1.0039104 0.9984636 0.9848357 1.0019659
1.0085913 0.99439824 0.99753886 0.9729019 1.0029877 1.0077213 0.9918423 1.0164797
0.9931737 0.9957955 1.0157036 0.99735034 0.99379283 1.0004746 1.010844 0.9986579
1.0083373 0.9968512 0.98810834 1.0062957 1.0004544 0.9997926 0.99057454 0.9982935
00000000: 5363 803f 80ec 803f 4fdd 7b3f b2ff 813f
00000010: 1127 7f3f 347b 813f 8c8a 803f 1543 813f
00000020: a28b 813f aa87 7c3f 3315 803f 32ae 7e3f
00000030: e705 7e3f f816 803f 0e68 813f 2600 803f
00000040: a2cc 7c3f ba5a 7e3f eac4 813f 7421 803f
00000050: f7ec 813f 72b4 7d3f 513b 803f d799 803f
00000060: f815 813f d3e3 7f3f e6a6 7d3f 2576 813f
00000070: e4ee 7d3f 5ee8 7e3f 0e4e 7c3f 3b56 7d3f
00000080: a07f 803f 5205 7e3f 0104 813f 4bb7 7d3f
00000090: 2380 803f 4f9b 7f3f 311e 7c3f 6b40 803f
000000a0: 8519 813f e290 7e3f b55e 7f3f 1910 793f
000000b0: e761 803f 03fd 803f 61e9 7d3f 021c 823f
000000c0: a240 7e3f 74ec 7e3f 9302 823f 5a52 7f3f
000000d0: 3569 7e3f 8d0f 803f 5663 813f 0ba8 7f3f
000000e0: 3211 813f a431 7f3f abf4 7c3f 4cce 803f
000000f0: e40e 803f 68f2 7f3f 4b96 7d3f 2a90 7f3f

crystalGraphConvNet.convs.0.bn2.bias f4 [64]
-0.0009425115 -0.00063378597 -0.004682865 0.002605723 0.0012419493 -0.00089424115 -0.0021928477 -0.0011451874
-0.0036093097 -0.0010231055 0.0036655606 -0.0005061047 -0.0013814218 0.0013656102 -0.0015032216 0.0007330981
-0.0038343815 -0.00431545 -0.001183187 -5.9642527e-05 -0.002001779 -0.0031842256 -0.0019500416 0.0059771077
0.0025969876 -0.0024614404 -0.0029440015 0.0015669337 -0.00067671615 -0.0026508851 -0.0055269394 -0.0029839145
0.00089909014 -0.0024354602 -0.0005139006 -0.002282322 -0.0010459591 0.0010596543 -0.0050532445 -0.0010003285
-0.0051484453 -0.0033637101 -0.0018472433 -0.0056253746 -0.000682068 -0.0040956573 -0.0018408968 -0.002294763
-0.004699957 -0.0027370213 -0.0011330245 -0.0023114088 0.0007268293 -0.00095596444 0.0018895748 -0.004268387
-0.001019445 -0.003567813 3.9996754e-05 0.001051919 -0.00012085561 -0.0060244724 -0.0024452778 -0.0026315963
00000000: e012 77ba a824 26ba b872 99bb c7c4 2a3b
00000010: e7c8 a23a 826b 6aba e1b5 0fbb 1d1a 96ba
00000020: 2b8a 6cbb b919 86ba e739 703b 1dac 04ba
00000030: d310 b5ba 46fe b23a bf07 c5ba 612d 403a
00000040: 3f4a 7bbb 9e68 8dbb 2b15 9bba ad28 7ab8
00000050: 4730 03bb 71ae 50bb 8a98 ffba 9ddb c33b
00000060: 3932 2a3b 1e50 21bb 26f0 40bb 9261 cd3a
00000070: a765 31ba 79ba 2dbb 541b b5bb c78d 43bb
00000080: ebb0 6b3a 3e9c 1fbb 49b7 06ba 0293 15bb
00000090: 9018 89ba 19e4 8a3a b095 a5bb 741d 83ba
000000a0: 4ab4 a8bb b171 5cbb 331f f2ba 1055 b8bb
000000b0: cfcc 32ba dd34 86bb 3f4a f1ba bc63 16bb
000000c0: 1902 9abb 995f 33bb fe81 94ba 017b 17bb
000000d0: b088 3e3a b099 7aba 9cab f73a d3dd 8bbb
000000e0: e69e 85ba f8d1 69bb 30c2 2738 8be0 893a
000000f0: dd73 fdb8 f068 c5bb f440 20bb dc76 2cbb

crystalGraphConvNet.convs.0.bn2.running_mean f4 [64]
4.9743958 4.8560557 4.832226 5.175459 5.0648465 5.116377 4.670745 5.2983484
4.8712463 4.6828938 5.507774 4.992073 5.2893233 5.2507176 4.8724275 5.380938
4.9286594 5.2491374 5.1356483 5.0861487 4.973993 5.2552776 4.7024746 5.1412783
4.898451 5.1844144 4.9892063 5.221834 5.4485917 4.923108 4.906459 4.4635353
5.2121377 4.9837275 4.799125 5.086098 4.8108187 5.042439 5.2755203 4.6817765
4.669875 5.25131 4.556024 5.0470686 5.237918 4.477091 5.3343534 5.0657125
4.561675 4.736709 5.142808 5.419891 4.9585376 5.2016773 5.385251 4.849257
5.0565557 4.6772866 5.462676 5.029566 5.2334976 4.6243286 4.8304086 4.5726466
00000000: 402e 9f40 cf64 9b40 98a1 9a40 5c9d a540
00000010: 3913 a240 5cb9 a340 be76 9540 128c a940
00000020: 40e1 9b40 44da 9540 af3f b040 10bf 9f40
00000030: 2342 a940 e105 a840 edea 9b40 a530 ac40
00000040: 94b7 9d40 eff8 a740 3b57 a440 bbc1 a240
00000050: f32a 9f40 3c2b a840 ac7a 9640 5a85 a440
00000060: 1cc0 9c40 b9e6 a540 94a7 9f40 4419 a740
00000070: dd5a ae40 1a8a 9d40 b601 9d40 48d5 8e40
00000080: d5c9 a640 b27a 9f40 6f92 9940 51c1 a240
00000090: 3af2 9940 a95b a140 10d1 a840 1dd1 9540
000000a0: 9e6f 9540 bb0a a840 f3ca 9140 9681 a140
000000b0: 069d a740 5444 8f40 06b3 aa40 511a a240
000000c0: 3ef9 9140 1f93 9740 e291 a440 bf6f ad40
000000d0: 57ac 9e40 2474 a640 fa53 ac40 1d2d 9b40
000000e0: 4ecf a140 55ac 9540 3ece ae40 34f2 a040
000000f0: d078 a740 80fa 9340 b592 9a40 1f53 9240

crystalGraphConvNet.convs.0.bn2.running_var f4 [64]
7.5105147 8.726983 8.908143 8.682155 8.77721 9.140491 8.202121 10.483394
10.404827 8.805393 15.964594 12.315587 13.54683 14.147518 7.047547 14.534879
13.561532 13.756408 9.025122 9.823886 11.812915 15.815892 9.9159775 14.245179
6.9373055 12.054238 10.39223 10.381024 15.21 8.441808 9.867306 6.4771156
14.236329 14.018642 7.951211 8.887104 8.80752 12.595792 12.697221 8.903149
7.516704 10.46665 8.058702 19.105297 11.237214 4.9930773 9.117733 6.615466
7.314507 6.8564687 8.491743 17.923773 7.310437 9.245248 9.830996 13.769837
9.835355 6.55759 15.481129 11.96786 12.07626 6.240776 10.034849 5.5121684
00000000: 2356 f040 b9a1 0b41 c187 0e41 1bea 0a41
00000010: 746f 0c41 733f 1241 e33b 0341 fbbb 2741
00000020: 2c7a 2641 e4e2 0c41 fa6e 7f41 a50c 4541
00000030: d1bf 5841 3c5c 6241 8185 e140 dd8e 6841
00000040: 09fc 5841 3f1a 5c41 e666 1041 a32e 1d41
00000050: b301 3d41 e50d 7d41 d8a7 1e41 41ec 6341
00000060: 68fe dd40 29de 4041 9346 2641 ad18 2641
00000070: 295c 7341 a511 0741 7ce0 1d41 8844 cf40
00000080: 01c8 6341 5c4c 6041 5270 fe40 9431 0e41
00000090: 9aeb 0c41 5d88 4941 d127 4b41 4c73 0e41
000000a0: d788 f040 6677 2741 72f0 0041 a6d7 9841
000000b0: a1cb 3341 4ac7 9f40 3ce2 1141 e6b1 d340
000000c0: 7110 ea40 3168 db40 2ede 0741 e363 8f41
000000d0: 1aef e940 89ec 1341 c24b 1d41 4151 5c41
000000e0: 9d5d 1d41 c7d7 d140 b4b2 7741 5b7c 3f41
000000f0: 5c38 4141 70b4 c740 be8e 2041 af63 b040

crystalGraphConvNet.convs.1.fc_full.weight f4 [128, 169]
-0.024554746 -0.028842004 0.04579778 0.0025858274 0.03737993 0.03830621 -0.06830975 -0.054418363
0.06669214 -0.041923083 -0.016415598 0.07305624 0.06662232 -0.044809297 -0.021752918 0.00082267326
0.009697832 -0.055419493 -0.011837133 -0.03775478 -0.045790564 0.08006014 0.071517006 -0.036209498
-0.03094953 0.036546342 0.014164793 0.051946256 -0.017890401 -0.023873799 0.03849753 -0.044505205
-0.017386151 -0.051201947 0.05210314 -0.061976995 -0.0059220823 -0.0018684996 0.056291763 -0.034970213
-0.056008045 -0.08170206 0.039925728 0.066778116 -0.064975366 0.046900474 -0.03830049 -0.049478445
-0.04422457 0.040465597 -0.04986591 0.0754482 0.022537177 -0.06252783 0.0261585 -0.04120434
-0.027207047 -0.031690013 -0.035765775 -0.03750055 0.004573327 0.017647617 -0.043805566 0.0029734196
0.07314513 0.07384471 0.0052236686 0.07612307 0.0403406 -0.014223619 -0.034974877 -0.025938785
0.00055672525 0.06668316 -0.05881408 0.056913204 0.0717652 0.029050192 -0.060363814 -0.06467467
0.003912413 -0.02735031 -0.03766922 0.047086354 -0.020712467 0.07034604 0.036590524 -0.054206442
-0.041822277 0.034202706 0.022716548 0.037187126 -0.070317194 -0.07083508 0.05943775 -0.012458351
0.08218254 0.03897197 0.07551862 -0.0012081153 0.07012784 -0.039898384 0.005396495 -0.00036097612
-0.044252634 0.05670328 -0.06296037 0.0061703227 -0.02479009 0.032850083 0.02920909 -0.07671041
-0.029568825 0.06891762 -0.017820664 0.06387867 0.068160966 0.057819456 -0.044854973 -0.0075271623
0.042334206 0.0606941 0.038281325 0.037027605 0.0650492 0.045760073 -0.056180082 -0.05117027
-0.018668203 -0.04203638 -0.041855622 0.037108872 -0.049913824 -2.302091e-05 0.053514734 0.02705767
0.041753124 0.07600502 0.0075022206 -0.06469257 -0.023672117 0.020615794 -0.07324082 0.06410679
0.04849274 -0.059602443 -0.026938159 0.0014575783 0.0678015 -0.05163961 -0.048589725 -0.07319441
-0.069656804 -0.055343427 -0.07618687 0.0602287 0.05705024 0.067839645 0.04000018 -0.0122741535
0.041232813 -0.059891377 -0.04153192 -0.008830612 0.07115797 -0.063015215 0.019968713 0.008495881
-0.07318337 -0.06661376 0.061663847 0.06565264 0.042082738 0.018333498 -0.040327553 -0.049041368
0.062216364 0.025657393 -0.06971034 -0.03673431 0.037596464 0.01841106 -0.02699621 0.010763978
0.0348826 -0.0071304035 -0.06094801 -0.0003210157 -0.059099942 -0.06304113 0.053480025 -0.056061067
0.06185254 0.03448539 0.07609981 -0.066085905 0.02565524 0.04978006 0.009918567 -0.04530938
0.039339397 -0.06410783 0.04756275 -0.042215332 -0.05451721 -0.012520647 0.060396258 -0.06630864
-0.029674252 -0.0041651507 -0.0014351193 -0.06312703 -0.07020119 7.9047815e-05 0.011368964 0.053574324
0.025919665 0.01069666 -0.0523259 -0.037074044 -0.021778416 0.076771244 3.4875924e-05 -0.020543355
0.019988654 -0.03763557 0.015826065 0.05711652 0.0444855 0.057605613 -0.062595524 -0.05190155
0.05274852 0.033314366 0.025982058 -0.053900927 -0.020431334 0.034529775 -0.040212516 -0.00066451053
0.058818128 -0.0076347217 -0.0036765505 -0.016325425 0.028646339 0.027790241 -0.046947896 -0.053169403
-0.062875 0.05529762 0.024931889 -0.006698861 -0.028459094 0.069117166 0.026071532 0.02982715
00000000: 0927 c9bc 1146 ecbc 7496 3b3d fc76 293b
00000010: b31b 193d f9e6 1c3d fbe5 8bbd cae5 5ebd
00000020: e495 883d 8ab7 2bbd 017a 86bc 839e 953d
00000030: 4871 883d f489 37bd 2d33 b2bc aba8 573a
00000040: a8e3 1e3c 8dff 62bd 89f0 41bc c2a4 1abd
00000050: e38e 3bbd 92f6 a33d 8277 923d 6950 14bd
00000060: de89 fdbc 9eb1 153d 7313 683c 99c5 543d
00000070: e48e 92bc fc92 c3bc 96af 1d3d 174b 36bd
00000080: 676d 8ebc 22b9 51bd 1a6a 553d 97db 7dbd
00000090: 070e c2bb 71e8 f4ba 3192 663d ed3c 0fbd
000000a0: b168 65bd 6953 a7bd 2989 233d f7c2 883d
000000b0: ce11 85bd b61a 403d f9e0 1cbd e9a9 4abd
000000c0: d324 35bd 41bf 253d 3240 4cbd 9684 9a3d
000000d0: e39f b83c 970e 80bd 5a4a d63c e2c5 28bd
000000e0: 50e1 debc 63cd 01bd 227f 12bd 2d9a 19bd
000000f0: d9db 953b bc91 903c 776d 33bd b4dd 423b
00000100: 1dcd 953d e53b 973d 4f2b ab3b 6ae6 9b3d
00000110: 2f3c 253d 2f0a 69bc d141 0fbd 937d d4bc
00000120: 33f1 113a 2e91 883d 08e7 70bd d21d 693d
00000130: a2f9 923d abfa ed3c 0c40 77bd 2774 84bd
00000140: b333 803b c20d e0bc 0a4b 1abd 9fdd 403d
00000150: 31ad a9bc 9611 903d f2df 153d 9307 5ebd
00000160: d64d 2bbd 2318 0c3d 0e18 ba3c 8751 183d
00000170: 7602 90bd fc11 91bd 0075 733d 1d1e 4cbc
00000180: 524f a83d 13a1 1f3d 82a9 9a3d 9f59 9eba
00000190: 2f9f 8f3d 7d6c 23bd 15d5 b03b 6541 bdb9
000001a0: 4042 35bd b341 683d 5ef1 80bd 6b30 ca3b
000001b0: 9614 cbbc cf8d 063d e747 ef3c 591a 9dbd
000001c0: 523a f2bc ae24 8d3d a4fc 91bc d2d2 823d
000001d0: fa97 8b3d 18d4 6c3d d9b9 37bd 6aa6 f6bb
000001e0: a266 2d3d 609a 783d e1cc 1c3d 42aa 173d
000001f0: 8438 853d ea6e 3b3d 161d 66bd eb97 51bd
00000200: 0fee 98bc 572e 2cbd cd70 2bbd 79ff 173d
00000210: 7072 4cbd 071d c1b7 4432 5b3d 0ca8 dd3c
00000220: 5305 2b3d 85a8 9b3d 30d5 f53b 8a7d 84bd
00000230: 07ec c1bc 74e2 a83c 48ff 95bd 6c4a 833d
00000240: 53a0 463d b121 74bd 6aad dcbc 360c bf3a
00000250: 83db 8a3d 0e84 53bd 0506 47bd f3e6 95bd
00000260: 3aa8 8ebd caaf 62bd dd07 9cbd 5fb2 763d
00000270: 83ad 693d 83ef 8a3d 3bd7 233d 8819 49bc
00000280: bde3 283d a950 75bd 601d 2abd 45ae 10bc
00000290: 45bb 913d 1f0e 81bd 6d95 a33c 4f32 0b3c
000002a0: 2ae1 95bd cc6c 88bd 3b93 7c3d e474 863d
000002b0: f35e 2c3d 2230 963c 812e 25bd 9adf 48bd
000002c0: 96d6 7e3d 742f d23c 4bc4 8ebd b776 16bd
000002d0: c0fe 193d cbd2 963c 2827 ddbc 655b 303c
000002e0: 0fe1 0e3d 29a6 e9bb 9fa4 79bd ff4d a8b9
000002f0: c812 72bd b51b 81bd df0d 5b3d 4aa0 65bd
00000300: 1759 7d3d 8d40 0d3d 38da 9b3d 0c58 87bd
00000310: f02a d23c 2de6 4b3d 7c81 223c 5496 39bd
00000320: 5922 213d f74a 83bd 28d1 423d fce9 2cbd
00000330: 704d 5fbd 6623 4dbc 1162 773d d3cc 87bd
00000340: 6b17 f3bc d17b 88bb 9d1a bcba bf48 81bd
00000350: a4c5 8fbd 79c6 a538 e444 3a3c c070 5b3d
00000360: 7a55 d43c 0b41 2f3c af53 56bd f4da 17bd
00000370: a668 b2bc 3e3a 9d3d bd47 1238 8a4a a8bc
00000380: 3fbf a33c c127 1abd aaa5 813c 03f3 693d
00000390: 6d36 363d ddf3 6b3d 1532 80bd b896 54bd
000003a0: d50e 583d a574 083d 53d8 d43c 38c7 5cbd
000003b0: 9d5f a7bc 186f 0d3d e1b5 24bd 8c32 2eba
000003c0: 47eb 703d b02c fabb 48f2 70bb e6bc 85bc
000003d0: baab ea3c 5ca8 e33c 704c 40bd 29c8 59bd
000003e0: 9cc4 80bd c27f 623d f63d cc3c 1e82 dbbb
000003f0: 0c23 e9bc 4d8d 8d3d f793 d53c 1158 f43c

crystalGraphConvNet.convs.1.fc_full.bias f4 [128]
-0.045721248 0.014165255 0.039066996 -0.06087342 0.042568 -0.05688859 0.04799721 -0.04307936
-0.04504723 0.019456992 0.0050507346 -0.04399775 0.02726056 -0.076477945 -0.035803337 0.028482364
-0.04234847 -0.0724954 -0.02017301 -0.014595784 -0.04398469 -0.048769623 0.014514465 -0.05965308
0.0017340686 -0.010366477 -0.059304304 0.054921437 -0.017719774 0.046779387 -0.05971352 -0.069755115
-0.009637448 0.058878094 -0.03714227 0.04137793 0.07141704 -0.027398322 0.03949392 0.01708958
-0.030781591 0.0050696777 0.038466014 -0.05105326 0.06716211 0.0002031339 -0.0019740167 -0.06929771
-0.02068061 -0.075385906 0.026124094 0.021509117 -0.07608567 0.054500032 -0.017034605 -0.03185874
0.03506028 0.055283614 0.04431723 0.0032182366 -0.037633456 0.013414767 -0.06300103 -0.00343179
0.037912827 0.015786475 -0.036067873 0.07386947 -0.031496003 0.0019280205 -0.039698876 -0.0051596398
-0.044037327 -0.03174795 -0.024074262 0.0057542194 -0.05063887 0.03568411 0.0357811 -0.0023750484
-0.051127188 0.047997303 0.038312078 -0.06609949 -0.0554552 -0.004770164 -0.009652053 0.033346243
-0.06638767 0.057632796 0.0011097306 -0.05102529 0.041054644 -0.047398724 -0.011306453 -0.03322108
0.032942194 -0.01009945 -0.058203176 0.06322574 0.068484694 0.053582855 -0.054364447 -0.06276101
0.06685676 0.055243906 0.032249637 0.004649317 0.063021794 0.020944828 -0.024918282 -0.061993536
-0.024659043 -0.01754935 0.04016669 0.042929955 -0.058112945 -0.059957277 -0.056050073 0.022871623
0.046113502 0.0445405 0.05985815 0.060249064 -0.02159357 0.017279718 0.025378287 -0.04637378
00000000: 3446 3bbd 6315 683c b704 203d 6856 79bd
00000010: c85b 2e3d 0304 69bd b998 443d fc73 30bd
00000020: 7283 38bd 4564 9f3c a280 a53b fc36 34bd
00000030: 8a51 df3c 78a0 9cbd 85a6 12bd d953 e93c
00000040: 9775 2dbd 7878 94bd de41 a5bc 2823 6fbc
00000050: 4a29 34bd a8c2 47bd 14ce 6d3c ca56 74bd
00000060: b049 e33a 28d8 29bc 12e9 72bd 4df5 603d
00000070: 0f29 91bc be9b 3f3d 2a96 74bd c5db 8ebd
00000080: 63e6 1dbc 282a 713d 7e22 18bd e87b 293d
00000090: 1943 923d 7272 e0bc 60c4 213d 72ff 8b3c
000000a0: ad29 fcbc 8a1f a63b 8a8e 1d3d 391d 51bd
000000b0: 4a8c 893d 5700 5539 815e 01bb f5eb 8dbd
000000c0: 626a a9bc ed63 9abd 3202 d63c e333 b03c
000000d0: ced2 9bbd 6d3b 5f3d 288c 8bbc 4f7e 02bd
000000e0: 5e9b 0f3d 1271 623d fc85 353d 0de9 523b
000000f0: 8a25 1abd 9cc9 5b3c af06 81bd e2e7 60bb
00000100: 7b4a 1b3d a352 813c e8bb 13bd e048 973d
00000110: f401 01bd a2b5 fc3a 4a9b 22bd 3212 a9bb
00000120: 7c60 34bd 230a 02bd 6337 c5bc e48d bc3b
00000130: b46a 4fbd 8029 123d 348f 123d b3a6 1bbb
00000140: be6a 51bd d298 443d 20ed 1c3d 2b5f 87bd
00000150: fe24 63bd 094f 9cbb a523 1ebc 1296 083d
00000160: 42f6 87bd 5e10 6c3d 6174 913a e5ff 50bd
00000170: ea28 283d 2a25 42bd b33e 39bc d412 08bd
00000180: 65ee 063d 2a78 25bc 7466 6ebd 7f7c 813d
00000190: b441 8c3d b279 5b3d 41ad 5ebd d888 80bd
000001a0: 32ec 883d 6f47 623d 3218 043d 4c59 983b
000001b0: 9211 813d 7d94 ab3c 6d21 ccbc efec 7dbd
000001c0: c301 cabc a8c3 8fbc d485 243d 52d7 2f3d
000001d0: d707 6ebd c395 75bd c394 65bd 455d bb3c
000001e0: 83e1 3c3d 1970 363d d22d 753d b9c7 763d
000001f0: 00e5 b0bc 328e 8d3c 20e6 cf3c 6ff2 3dbd

crystalGraphConvNet.convs.1.bn1.weight f4 [128]
0.9994053 1.000058 1.0093273 1.0000709 1.0059484 1.0027324 1.0006685 1.0033084
1.0013883 1.0021394 1.0008779 1.0053228 1.0019475 1.0036172 1.0010759 1.001786
1.000895 1.0006009 1.0003561 1.0035591 0.99769706 0.99896455 1.0016539 1.0017693
1.0057869 1.0008572 1.0014728 1.0089507 1.0047486 1.0016856 1.0022217 1.0011312
1.0010046 1.0008872 1.0019333 1.0004401 0.99933696 1.0003153 0.9996722 1.0008314
1.0039015 1.0001359 1.0017562 1.0069021 1.0036898 1.0101475 0.9991799 1.0005541
1.002401 1.0022912 1.0038031 0.9989416 1.0006462 1.0043155 1.004181 1.0019246
1.0025594 0.9981986 0.9990383 0.99915093 0.9999182 1.0040449 1.010426 0.9995278
1.0010681 1.000241 1.0059085 0.99958795 1.0026739 1.001445 1.0064862 1.0005159
1.0034817 1.0032183 1.0008106 1.0023575 1.0016662 0.99766916 1.000236 1.0053389
0.99849784 0.99926704 1.0007629 0.99836236 1.0016865 1.0005251 1.001207 1.0049176
1.0023732 0.9992894 1.0031987 0.99832034 0.99843097 0.9981232 1.0021174 0.999062
0.9994611 1.0002227 0.9987833 0.99782413 1.0001867 0.99887776 0.9999979 1.0018573
1.0091362 1.0007278 0.998896 1.0010877 0.99912107 1.006399 1.0001078 1.0032682
0.99833983 0.9985402 0.9979924 1.0000064 1.0015509 1.0049716 0.9999925 0.9979086
1.0004636 1.0011088 1.0021865 1.0048189 0.99914277 1.0048195 1.0065491 1.0008779
00000000: 07d9 7f3f e701 803f a331 813f 5302 803f
00000010: ebc2 803f 8959 803f e815 803f 696c 803f
00000020: 7e2d 803f 1b46 803f c41c 803f 6bae 803f
00000030: d13f 803f 8776 803f 4123 803f 863a 803f
00000040: 541d 803f b113 803f ab0b 803f a074 803f
00000050: 1369 7f3f 24bc 7f3f 3236 803f fa39 803f
00000060: a0bd 803f 171c 803f 4330 803f 4c25 813f
00000070: 9a9b 803f 3c37 803f cd48 803f 1125 803f
00000080: eb20 803f 121d 803f 5a3f 803f 6c0e 803f
00000090: 8cd4 7f3f 550a 803f 84ea 7f3f 3e1b 803f
000000a0: d87f 803f 7404 803f 8c39 803f 2be2 803f
000000b0: e878 803f 834c 813f 41ca 7f3f 2812 803f
000000c0: ad4e 803f 144b 803f 9f7c 803f a3ba 7f3f
000000d0: 2d15 803f 698d 803f 0189 803f 113f 803f
000000e0: de53 803f f289 7f3f f9c0 7f3f 5bc8 7f3f
000000f0: a4fa 7f3f 8b84 803f a455 813f 0ee1 7f3f
00000100: 0023 803f e607 803f 9cc1 803f ffe4 7f3f
00000110: 9e57 803f 5a2f 803f 8ad4 803f e810 803f
00000120: 1772 803f 7569 803f 901a 803f 404d 803f
00000130: 9936 803f 3f67 7f3f bc07 803f f2ae 803f
00000140: 8e9d 7f3f f7cf 7f3f 0019 803f ad94 7f3f
00000150: 4337 803f 3511 803f 8d27 803f 24a1 803f
00000160: c44d 803f 6ed1 7f3f d168 803f ec91 7f3f
00000170: 2c99 7f3f 0185 7f3f 6245 803f 87c2 7f3f
00000180: afdc 7f3f 4c07 803f 43b0 7f3f 6771 7f3f
00000190: 1e06 803f 74b6 7f3f ddff 7f3f dc3c 803f
000001a0: 602b 813f d917 803f a6b7 7f3f a423 803f
000001b0: 66c6 7f3f afd1 803f 8803 803f 186b 803f
000001c0: 3393 7f3f 55a0 7f3f 6e7c 7f3f 3600 803f
000001d0: d232 803f e9a2 803f 82ff 7f3f f076 7f3f
000001e0: 310f 803f 5524 803f a647 803f e89d 803f
000001f0: d2c7 7f3f ed9d 803f 9ad6 803f c41c 803f
