get_descriptor_cgcnn/saved_models/hse_126.ckpt (torch, 675914 bytes, 58 tensors)

crystalGraphConvNet.embedding.weight f4 [64, 92]
0.068050295 -0.07894387 0.03224381 -0.08896107 -0.040434998 0.05017093 0.10551426 0.014723441
0.076692484 -0.038209926 0.07011797 0.030256718 0.08830827 -0.09853172 0.065133125 0.05068905
0.07103533 0.04313431 -0.05224262 -0.028743211 -0.037493184 -0.100653626 0.051203452 -0.06448202
-0.07481042 0.017128037 0.09073499 0.030879166 0.09650789 0.0717238 -0.099473104 0.04800893
-0.013597918 -0.043150615 0.07156606 0.015274444 0.0081729125 0.08897272 0.077472724 -0.035623107
0.022504238 -0.08436816 0.08599278 -0.0011169087 0.04137116 -0.059249636 0.01958268 0.026522094
-0.09391832 -0.024689335 0.002180762 -0.06822531 -0.06706159 -0.08804129 0.017387066 -0.07327631
0.06803466 -0.045378383 -0.009737635 0.09911499 0.058258478 0.027804617 -0.06779502 0.09883308
0.02692165 0.08265605 0.07916625 -0.019012213 -0.035231978 -0.019951068 0.032147612 0.034927536
0.008904796 0.037712593 0.058515478 -0.019663021 -0.045737095 -0.088326484 0.016782654 0.029418148
-0.011634044 0.030942673 -0.06741885 -0.0053254412 0.020416435 -0.05398411 0.032919552 -0.06802066
-0.075114906 0.016281778 -0.088611394 0.06261117 -0.054199737 -0.1043676 0.04894094 0.03850543
-0.08561836 0.037288573 0.07879761 -0.07871744 0.087014854 -0.06399467 -0.06396338 -0.07114991
-0.027311936 0.081854895 0.037911795 -0.052848525 -0.0651225 -0.065902226 0.056354903 -0.039383482
-0.034602635 0.079367585 -0.08013206 0.051920634 0.062781274 0.023088265 -0.047012076 0.036305808
0.067029916 0.04047626 0.03392616 0.009557629 0.0076077324 0.022315286 -0.10510423 0.069238216
-0.09110105 0.008598016 -0.09825686 -0.027386162 0.008325882 -0.036885865 -0.07895295 0.035553895
0.08501426 -0.09622625 -0.0020079785 -0.04553408 0.07859402 -0.02469114 -0.07347556 -0.07998589
-0.0436674 0.051802002 0.09835637 0.059678085 0.050159466 -0.0013906406 -0.056008693 -0.026280383
-0.061468035 0.100148275 -0.050728887 0.111611456 0.055984523 0.027587634 0.025214657 0.0678311
-0.07638383 -0.051521312 -0.04179322 -0.08417123 0.02743489 0.06636774 -0.07593655 -0.09784236
-0.09457572 -0.10150487 0.05618632 0.015898997 -0.013940654 -0.036339715 -0.06533414 -0.0020879477
0.07877062 -0.11127603 -0.06878072 0.027424049 -0.061395027 0.030660154 -0.09819751 0.09729817
-0.09040648 0.055354953 -0.10205343 -0.04149796 -0.033719607 -0.080313385 0.08686254 0.03608713
-0.03598514 0.039650947 -0.09916138 0.00562338 0.022703666 0.020422753 0.014889105 -0.009258591
-0.0041102883 -0.06806439 -0.04280963 -0.008913242 0.06509502 -0.09831205 0.031436607 0.08112218
0.021385811 0.066066176 -0.05772892 0.075722516 -0.072649375 -0.033351395 -0.017344031 -0.034067158
0.057385948 -0.081513874 0.089689516 -0.043965284 -0.07527442 -0.101360224 -0.06308388 -0.06537706
0.02165685 0.01438977 -0.0629075 -0.0020323312 -0.02970082 -0.030824952 -0.008700847 -0.06394086
0.09480632 -0.105485044 0.11318221 -0.0776016 -0.066146225 0.026500115 0.086029194 -0.09604815
-0.110736154 0.07920637 -0.018410388 -0.08505089 -0.009014465 0.04486713 0.058674105 0.0783369
0.049948294 0.026973791 -0.10092635 -0.032529246 -0.047518224 0.035827924 0.06156601 -0.0104126735
00000000: f45d 8b3d 53ad a1bd 1612 043d 3931 b6bd
00000010: 2b9f 25bd 0880 4d3d dc17 d83d 963a 713c
00000020: f310 9d3d 0382 1cbd 039a 8f3d f0dc f73c
00000030: f7da b43d 00cb c9bd 8464 853d 529f 4f3d
00000040: f97a 913d 9aad 303d 5cfc 55bd e276 ebbc
00000050: 7492 19bd 7d23 cebd b6ba 513d 260f 84bd
00000060: 3536 99bd 1950 8c3c 44d3 b93d 4ef6 fc3c
00000070: eea5 c53d ede3 923d 8eb8 cbbd 03a5 443d
00000080: cdc9 5ebc b3be 30bd 3a91 923d a941 7a3c
00000090: aee7 053c 5437 b63d 05aa 9e3d 89e9 11bd
000000a0: cf5a b83c 37c9 acbd fc1c b03d 3d65 92ba
000000b0: ce74 293d bfaf 72bd db6b a03c dd44 d93c
000000c0: 4058 c0bd 4a41 cabc 1deb 0e3b b6b9 8bbd
000000d0: 9657 89bd fe4e b4bd 526f 8e3c e411 96bd
000000e0: c155 8b3d afde 39bd 9a8a 1fbc cdfc ca3d
000000f0: 71a0 6e3d 82c6 e33c 1ed8 8abd ff68 ca3d
00000100: cb8a dc3c 9347 a93d ea21 a23d 80bf 9bbc
00000110: 684f 10bd 6c70 a3bc 37ad 033d 2d10 0f3d
00000120: 6ce5 113c 8578 1a3d edad 6f3d 5814 a1bc
00000130: d256 3bbd 84e4 b4bd c77b 893c 54fe f03c
00000140: b89c 3ebc 7d7b fd3c e512 8abd 0a81 aebb
00000150: 5e40 a73c 711e 5dbd a7d6 063d 6a4e 8bbd
00000160: d8d5 99bd 5d61 853c e479 b5bd 493a 803d
00000170: 8b00 5ebd aebe d5bd 4c76 483d dfb7 1d3d
00000180: ae58 afbd e7bb 183d a460 a13d 9c36 a1bd
00000190: d834 b23d a30f 83bd 3cff 82bd 0bb7 91bd
000001a0: 48bd dfbc 8aa3 a73d 6649 1b3d b277 58bd
000001b0: f25e 85bd bff7 86bd 66d4 663d 9350 21bd
000001c0: 7ebb 0dbd 798b a23d 471c a4bd bbaa 543d
000001d0: 7893 803d 9a23 bd3c bc8f 40bd 66b5 143d
000001e0: fb46 893d 6fca 253d 28f6 0a3d 9a97 1c3c
000001f0: 494a f93b 8cce b63c e340 d7bd c4cc 8d3d
00000200: 3093 babd b1de 0c3c e53a c9bd f258 e0bc
00000210: 4869 083c a215 17bd 16b2 a1bd f6a0 113d
00000220: f51b ae3d 4512 c5bd 4a98 03bb f281 3abd
00000230: e7f5 a03d 1345 cabc 5b7a 96bd a4cf a3bd
00000240: 96dc 32bd 562e 543d 116f c93d 0271 743d
00000250: 0374 4d3d 2846 b6ba 5f69 65bd f549 d7bc
00000260: e8c5 7bbd 8a1a cd3d 18c9 4fbd 8c94 e43d
00000270: 0750 653d 76ff e13c f88e ce3c 08eb 8a3d
00000280: 206f 9cbd 0308 53bd 5e2f 2bbd f761 acbd
00000290: 22bf e03c cfeb 873d 9f84 9bbd 9361 c8bd
000002a0: eab0 c1bd c9e1 cfbd a023 663d 9d3e 823c
000002b0: 5767 64bc f4d8 14bd e8cd 85bd f3d5 08bb
000002c0: 7e52 a13d b0e4 e3bd e8dc 8cbd 66a8 e03c
000002d0: 5a79 7bbd 012b fb3c c71b c9bd 4344 c73d
000002e0: 0827 b9bd e0bb 623d 6401 d1bd c4f9 29bd
000002f0: 921d 0abd 587b a4bd fde4 b13d 19d0 133d
00000300: 2765 13bd 0869 223d 1f15 cbbd 5544 b83b
00000310: 0afd b93c 9e4d a73c 6ff1 733c 58b1 17bc
00000320: 99af 86bb 5865 8bbd 2759 2fbd d908 12bc
00000330: 8a50 853d d457 c9bd acc3 003d 6323 a63d
00000340: 4c31 af3c b44d 873d 2975 6cbd 6814 9b3d
00000350: 32c9 94bd 799b 08bd 1215 8ebc 018a 0bbd
00000360: 870d 6b3d bff0 a6bd 23af b73d f114 34bd
00000370: 7a29 9abd f395 cfbd 1f32 81bd 68e4 85bd
00000380: b569 b13c 12c3 6b3c a6d5 80bd dc30 05bb
00000390: 224f f3bc 9c84 fcbc ff8d 0ebc 6df3 82bd
000003a0: d129 c23d 8b08 d8bd 13cc e73d 96ed 9ebd
000003b0: ac77 87bd c516 d93c 1330 b03d e4b4 c4bd
000003c0: a3c9 e2bd f336 a23d 62d1 96bc 292f aebd
000003d0: 68b1 13bc 99c6 373d 4254 703d 196f a03d
000003e0: 9596 4c3d 24f8 dc3c 79b2 cebd 633d 05bd
000003f0: 78a2 42bd 4dc0 123d a42c 7c3d eb99 2abc

crystalGraphConvNet.embedding.bias f4 [64]
-0.018118666 0.05167339 -0.10007128 -0.03972797 0.0564114 0.020713415 -0.057717066 -0.04552545
0.016981414 0.049020056 0.08168548 0.07244181 0.07953834 0.024548644 0.06152062 0.09843935
0.0927986 -0.023424556 -0.053494994 0.092281856 -0.0046346406 0.0950339 0.06737712 -0.009446392
0.06235333 0.07010813 0.023042185 0.015821 -0.0804808 -0.10248858 -0.09798881 0.038941544
0.02381603 0.07466483 -0.08995401 0.015749635 -0.028085887 0.10219545 -0.049861737 -0.028310228
-0.0193742 0.06065729 -0.09715271 -0.044179127 -0.026229544 0.07126643 0.0087369615 -0.08546769
-0.0306438 0.0073005566 -0.010541416 0.087177925 -0.011400962 0.081976235 -0.07679221 -0.046009343
-0.015918575 -0.018638555 -0.093509324 -0.034629334 0.0937256 -0.0074539687 0.06075925 0.054172013
00000000: 996d 94bc 7aa7 533d 2cf2 ccbd ccb9 22bd
00000010: a40f 673d 2eaf a93c bb68 6cbd e578 3abd
00000020: 9b1c 8b3c 41c9 483d b84a a73d 5f5c 943d
00000030: ffe4 a23d 3d1a c93c 0cfd 7b3d 929a c93d
00000040: 310d be3d dbe4 bfbc 911d 5bbd 45fe bc3d
00000050: 2fde 97bb 22a1 c23d 04fd 893d 0ac5 1abc
00000060: 3566 7f3d da94 8f3d f7c2 bc3c 0b9b 813c
00000070: 1ed3 a4bd 88e5 d1bd 5bae c8bd 2b81 1f3d
00000080: d619 c33c e0e9 983d cf39 b8bd 6105 813c
00000090: 6014 e6bc d94b d13d d23b 4cbd daea e7bc
000000a0: a4b6 9ebc c773 783d 00f8 c6bd 2cf5 34bd
000000b0: 57df d6bc 22f4 913d 7925 0f3c af09 afbd
000000c0: b508 fbbc 8239 ef3b e7b5 2cbc 578a b23d
000000d0: 1acb 3abc 28e3 a73d 3c45 9dbd 4b74 3cbd
000000e0: ac67 82bc e2af 98bc d181 bfbd 7dd7 0dbd
000000f0: 35f3 bf3d 6c40 f4bb b1de 783d 79e3 5d3d

crystalGraphConvNet.convs.0.fc_full.weight f4 [128, 169]
0.009671576 0.06897069 0.009028971 -0.059322312 0.042619947 0.011756575 -0.033316378 0.0362799
0.028332468 0.014925418 0.041253086 -0.016488481 -0.07837518 0.015899971 0.011658653 0.018450275
-0.030849453 0.063758135 -0.00022615182 0.043158308 0.008846442 -0.043927263 0.031759266 -0.009806092
0.07659476 0.050385386 0.0576228 -0.004284583 0.0043229186 0.050061338 -0.027727978 0.07439861
0.043791022 -0.058317948 -0.03332656 -0.008684979 -0.03923234 -0.052282475 0.015719999 -0.05827173
-0.029805653 0.04285408 0.054273725 -0.027477909 0.0054220133 0.026589388 0.0011917305 0.032561634
0.07608777 0.03990191 0.05463957 -0.06467317 0.023997096 -0.027973058 -0.01423735 -0.021804394
0.06920837 -0.024230933 0.048420552 -0.021875795 -0.03166871 -0.023032185 -0.015525932 0.03782302
0.049954224 -0.041809484 -0.011746383 0.064244755 0.03133337 -0.07239256 -0.028352434 0.012430926
-0.028216444 0.0046459367 -0.01919862 -0.0075367033 0.05591332 -0.07324427 -0.007361417 -0.008831958
0.006859125 -0.04854733 -0.0154490555 -0.036599286 0.062814064 0.060939856 -0.027372193 -0.051248036
-0.040286556 -0.06429393 0.017969701 0.039555024 -0.017867422 0.07082517 0.028936356 0.07595598
-0.016205262 0.009799997 0.0053268466 -0.017506426 -0.049520086 0.04287242 -0.05953044 -0.076085456
-0.014491911 0.02811696 0.06997616 -0.03952684 -0.011772571 0.034306973 -0.0030705044 0.01499151
0.0010137603 -0.03863132 0.06656027 -0.011581639 0.055521883 -0.032335613 0.011625362 0.061517984
-0.049174625 -0.048976123 -0.043037605 -0.06782981 0.0062117036 -0.01870474 0.05425786 -0.05041151
-0.024540205 0.0030699787 -0.0020993254 0.044930704 0.07119386 0.023996541 0.026585575 -0.030985419
0.05241057 -0.07256895 0.05072139 0.008485615 0.04391086 -0.076146744 0.03689575 -0.0067943656
-0.021008601 0.0743666 0.07416436 -0.027848225 -0.052952357 0.046236392 -0.031203758 0.06918338
-0.0057686656 0.036222175 -0.04843121 0.010567404 -0.039952457 0.024192816 0.04032426 0.063329585
-0.04772415 0.07295044 -0.013517546 -0.030890264 0.024380593 -0.046556704 0.010479863 -0.032534014
0.027523307 0.025085734 0.046886902 -0.031909 -0.026770972 0.012490699 0.011364343 0.042008504
-0.025199525 -0.0018841994 0.029138394 0.06737769 -0.01148146 -0.019000743 -0.06896193 -0.04681866
0.025350621 -0.015909543 0.0053526643 -0.025190245 -0.048413895 -0.020781495 -0.029668562 0.059206173
-0.023615697 0.014619506 0.05050871 -0.030093158 -0.0250339 0.03708416 0.02500332 0.036378495
-0.018228156 -0.015820913 -0.045686662 -0.041162748 -0.013477362 -0.046730198 -0.01700856 0.04379159
0.0026804747 0.08038185 0.0332415 0.07386217 0.07313603 0.0654127 -0.018189883 -0.033146307
-0.008873859 -0.042888585 -0.050835643 -0.019601705 -0.0051024933 0.02273579 -0.046677068 0.004004713
-0.020625638 0.07682213 -0.034911733 0.047075298 0.050218858 0.04269388 0.021668708 -0.026282242
-0.06789992 0.0136127155 0.07574028 0.072401516 -0.05852905 -0.047083784 -0.043226257 0.07327023
0.07427154 -0.05714854 -0.041946102 0.06767428 -0.060395893 0.050154094 0.06368254 -0.031179914
-0.009904063 0.018876716 0.0012935176 0.058981113 0.026207833 -0.024214204 -0.06740779 0.041879173
00000000: 8875 1e3c 8140 8d3d 40ee 133c f4fb 72bd
00000010: 4192 2e3d a69e 403c c176 08bd 3c9a 143d
00000020: 7e19 e83c be89 743c fff8 283d da12 87bc
00000030: 2b83 a0bd a840 823c ef03 3f3c 0825 973c
00000040: feb7 fcbc a093 823d 2b23 6db9 c4c6 303d
00000050: abf0 103c 13ed 33bd 0116 023d bba9 20bc
00000060: b7dd 9c3d e860 4e3d e305 6c3d b065 8cbb
00000070: 45a7 8d3b 1e0d 4d3d c925 e3bc 4c5e 983d
00000080: 375e 333d cdde 6ebd 6e81 08bd 714b 0ebc
00000090: 17b2 20bd 2626 56bd 3ac7 803c 56ae 6ebd
000000a0: fc2a f4bc c387 2f3d 204e 5e3d 5a19 e1bc
000000b0: 25ab b13b fdd1 d93c d733 9c3a 595f 053d
000000c0: e8d3 9b3d 2f70 233d becd 5f3d 5e73 84bd
000000d0: 8f95 c43c c127 e5bc c643 69bc 219f b2bc
000000e0: 1ebd 8d3d f37f c6bc a154 463d de34 b3bc
000000f0: 0db7 01bd fead bcbc 7b60 7ebc 50ec 1a3d
00000100: cd9c 4c3d 6c40 2bbd e773 40bc c192 833d
00000110: 6b57 003d 8d42 94bd 5d43 e8bc 15ab 4b3c
00000120: 2c26 e7bc f13c 983b 6d46 9dbc 73f6 f6bb
00000130: 5e05 653d 1801 96bd 0b38 f1bb ebb3 10bc
00000140: 83c2 e03b 91d9 46bd 091e 7dbc 22e9 15bd
00000150: a9a4 803d 129c 793d a63b e0bc 76e9 51bd
00000160: 8403 25bd 89ac 83bd 3235 933c 7304 223d
00000170: b35e 92bc c90c 913d f00b ed3c cf8e 9b3d
00000180: e6c0 84bc 2b90 203c d48c ae3b a369 8fbc
00000190: 93d5 4abd fe9a 2f3d 31d6 73bd b1d2 9bbd
000001a0: 7b6f 6dbc 8a55 e63c a94f 8f3d e5e6 21bd
000001b0: bee1 40bc 7885 0c3d 843a 49bb f39e 753c
000001c0: 27e0 843a e03b 1ebd c050 883d eac0 3dbc
000001d0: ea6a 633d 5972 04bd 4d78 3e3c 48fa 7b3d
000001e0: 556b 49bd 309b 48bd 3348 30bd 5bea 8abd
000001f0: 8c8b cb3b af3a 99bc 7d3d 5e3d 4d7c 4ebd
00000200: 8a08 c9bc b231 493b d694 09bb 4209 383d
00000210: 16ce 913d 6594 c43c fec9 d93c 22d5 fdbc
00000220: 77ac 563d 089f 94bd 3bc1 4f3d 4007 0b3c
00000230: e0db 333d d3f2 9bbd ff1f 173d 45a3 debb
00000240: 3b1a acbc 844d 983d 7ce3 973d f621 e4bc
00000250: 92e4 58bd 5f62 3d3d 069f ffbc 04b0 8d3d
00000260: 1307 bdbb b45d 143d ce5f 46bd e822 2d3c
00000270: 30a5 23bd 0330 c63c 0d2b 253d f1b2 813d
00000280: 667a 43bd 0a67 953d b278 5dbc 940d fdbc
00000290: cfb9 c73c 3eb2 3ebd bbb3 2b3c 6342 05bd
000002a0: 8f78 e13c 9980 cd3c 7b0c 403d 03b3 02bd
000002b0: cc4e dbbc caa5 4c3c 8231 3a3c 1c11 2c3d
000002c0: 3c6f cebc 3ef7 f6ba a4b3 ee3c 50fd 893d
000002d0: bc1c 3cbc 72a7 9bbc ea3b 8dbd ecc4 3fbd
000002e0: 1bac cf3c bb54 82bc 6765 af3b c65b cebc
000002f0: a64d 46bd f43d aabc 7c0b f3bc 2c82 723d
00000300: b575 c1bc a786 6f3c 39e2 4e3d ed85 f6bc
00000310: e513 cdbc 8fe5 173d c3d3 cc3c 9e01 153d
00000320: 3753 95bc dc9a 81bc f021 3bbd 459a 28bd
00000330: 27d0 5cbc 2a68 3fbd 8955 8bbc cf5e 333d
00000340: e7aa 2f3b 3d9f a43d 3d28 083d 0d45 973d
00000350: 58c8 953d 18f7 853d f302 95bc 6cc4 07bd
00000360: aa63 11bc f1ab 2fbd 0939 50bd c193 a0bc
00000370: d132 a7bb 6840 ba3c 7430 3fbd f839 833b
00000380: 19f7 a8bc ec54 9d3d 9bff 0ebd 07d2 403d
00000390: 4ab2 4d3d c7df 2e3d 9382 b13c db4d d7bc
000003a0: 1d0f 8bbd de07 5f3c b81d 9b3d 3f47 943d
000003b0: 28bc 6fbd edda 40bd 040e 31bd b40e 963d
000003c0: ad1b 983d 9614 6abd adcf 2bbd d098 8a3d
000003d0: af61 77bd 616e 4d3d fe6b 823d 056d ffbc
000003e0: a744 22bc 58a3 9a3c 408b a93a 2e96 713d
000003f0: cfb1 d63c de5c c6bc 180d 8abd 7f89 2b3d

crystalGraphConvNet.convs.0.fc_full.bias f4 [128]
-0.048878275 0.0021834024 -0.049315307 0.014353905 0.03728978 0.036894687 0.006518122 0.046029277
-0.033207875 -0.061840244 -0.048168976 -0.01909213 -0.04714912 -0.003046583 -0.024241673 0.00706468
0.051378738 0.07659184 0.046799865 0.07042475 -0.07189512 -0.07613987 -0.037205487 -0.03807204
-0.016079364 -0.0034192975 -0.045458212 -0.045145206 0.06585066 -0.029718742 0.048045132 -0.035707448
0.06959958 0.0026247764 0.049270395 0.007871689 -0.051805265 0.034959868 0.015397311 -0.044388857
-0.056612313 -0.014973556 0.0070844977 -0.0318043 -0.007595325 0.028890362 -0.036932454 -0.07343724
-0.042789146 -0.021442048 -0.070827834 0.0051992005 0.03682563 0.032535307 0.07015033 -0.025874034
0.045422014 -0.039805196 -0.029002145 -0.053639118 0.025824813 0.032817967 -0.029940123 -0.045383476
-0.072499104 0.013087782 0.016916981 -0.07091937 -0.06602178 -0.06900558 0.005784316 -0.06929549
-0.020958677 -0.058437306 -0.010460271 -0.039292146 -0.05477165 -0.050847784 -0.033243943 0.009829824
-0.028328009 0.02573263 -0.032701466 0.028091941 0.04901474 0.034955107 0.021716032 -0.011051259
0.011444019 0.0124914795 0.04763947 -0.041273087 -0.059225388 0.015709769 0.0047644633 -0.01847333
0.051036984 0.008542946 0.046310876 -0.009369165 -0.024814002 -0.005317846 -0.008742175 -0.024472792
-0.04051095 0.048129097 -0.010895598 -0.01774145 -0.00088498247 0.061998483 0.0070681768 0.023988733
-0.0049155103 0.07331815 0.016633473 0.062898956 -0.05065731 0.07490017 -0.040960915 -0.011540856
-0.054098275 -0.07277959 0.06459106 0.019731209 -0.05150128 -0.06681741 0.010258007 -0.01803823
00000000: 9634 48bd 6a17 0f3b d9fe 49bd a42c 6b3c
00000010: 2bbd 183d e21e 173d f895 d53b 3289 3c3d
00000020: fb04 08bd 324c 7dbd d54c 45bd 1967 9cbc
00000030: 701f 41bd 2ea9 47bb 7996 c6bc d57e e73b
00000040: 8372 523d 2fdc 9c3d 37b1 3f3d da3a 903d
00000050: c03d 93bd 38ef 9bbd c864 18bd 6df1 1bbd
00000060: dfb8 83bc 4b16 60bb 6432 3abd 2eea 38bd
00000070: b6dc 863d b874 f3bc f9ca 443d f941 12bd
00000080: 398a 8e3d 7104 2c3b c1cf 493d 42f8 003c
00000090: c231 54bd 1432 0f3d 0145 7c3c 17d1 35bd
000000a0: 50e2 67bd a553 75bc 1325 e83b 3a45 02bd
000000b0: 34e2 f8bb 7bab ec3c 7c46 17bd 4466 96bd
000000c0: ac43 2fbd 3ca7 afbc 2f0e 91bd 0e5e aa3b
000000d0: 79d6 163d be43 053d faaa 8f3d c8f5 d3bc
000000e0: 6f0c 3a3d c60a 23bd e895 edbc b1b4 5bbd
000000f0: 8f8e d33c 226c 063d fd44 f5bc 06e4 39bd
00000100: 697a 94bd 236e 563c 7b95 8a3c 2d3e 91bd
00000110: 6d36 87bd cc52 8dbd 5c8a bd3b cbea 8dbd
00000120: 88b1 abbc f55b 6fbd 8e61 2bbc cdf0 20bd
00000130: 3d58 60bd c445 50bd cd2a 08bd 450d 213c
00000140: 2410 e8bc 3dcd d23c f9f1 05bd 1221 e63c
00000150: aec3 483d 162d 0f3d d2e5 b13c 5710 35bc
00000160: b27f 3b3c 10a9 4c3c 9b21 433d f80d 29bd
00000170: 5296 72bd c6b1 803c 371f 9c3b 6255 97bc
00000180: 280c 513d b6f7 0b3c 79b0 3d3d 2081 19bc
00000190: bc46 cbbc 5341 aebb 573b 0fbc 2a7b c8bc
000001a0: cfee 25bd 0423 453d 7383 32bc 8456 91bc
000001b0: 2bfe 67ba 1ff2 7d3d 2a9c e73b 0584 c43c
000001c0: 4a12 a1bb d427 963d ec42 883c 2bd1 803d
000001d0: 0a7e 4fbd 4365 993d a2c6 27bd dc15 3dbc
000001e0: 2796 5dbd 770d 95bd 5148 843d 58a3 a13c
000001f0: 02f3 52bd 91d7 88bd 3311 283c e9c4 93bc

crystalGraphConvNet.convs.0.bn1.weight f4 [128]
0.9990484 1.001163 1.0027308 0.99942005 1.0005552 1.0039519 1.0026877 1.0003034
1.0021468 0.99982846 1.0018685 0.99973196 1.0013828 1.0003718 1.0006428 1.0007337
1.0018302 0.9982944 1.0006367 0.9968093 0.9997984 1.0026275 0.9984685 0.9995577
1.0027504 0.9977494 0.99915767 1.0053614 1.0007621 0.9987945 1.0014874 0.9982458
1.0011547 0.99875337 1.0011457 1.0006901 1.0014056 0.9998456 1.0028641 1.0003359
1.0094811 1.0007181 0.9995869 0.9999865 1.0006098 1.0177625 1.0021598 0.99909353
1.0030922 1.0040137 0.99908936 1.0018976 0.99996173 1.000844 1.0079145 1.0007585
1.0043069 1.0037717 1.0010978 0.99877244 1.0000508 1.0044107 0.9993039 1.000915
1.0015341 1.0015967 0.999385 0.9996904 1.0043826 1.0022992 0.9973915 1.0001911
0.9982996 0.99970704 1.0004032 1.0026053 1.0011953 1.0018106 0.9998819 0.9990913
0.99764615 0.9998173 1.0044131 1.0017732 1.0012337 0.9966858 0.99994314 1.0003006
1.0056137 1.0001328 1.0071874 0.99981016 0.9974661 0.998995 0.99885863 1.0040084
0.9987542 1.0009115 0.99976915 0.99871564 0.99819094 0.9999229 0.9963714 1.0005106
1.0016276 0.99786323 1.000751 1.001339 1.0010793 1.0057073 0.9980921 1.00251
1.0077771 0.997975 0.9998714 1.0005792 1.0022119 0.9988766 1.0012366 1.0013063
0.99782383 1.0002065 0.997396 1.0024637 0.99900305 1.0090204 0.9987734 0.99926805
00000000: a3c1 7f3f 1c26 803f 7c59 803f fed9 7f3f
00000010: 3112 803f 7f81 803f 1258 803f f109 803f
00000020: 5946 803f c2f4 7f3f 3a3d 803f 6fee 7f3f
00000030: 502d 803f 2f0c 803f 1015 803f 0b18 803f
00000040: f93b 803f 3990 7f3f dd14 803f e52e 7f3f
00000050: caf2 7f3f 1956 803f a29b 7f3f 03e3 7f3f
00000060: 205a 803f 816c 7f3f ccc8 7f3f afaf 803f
00000070: f918 803f ffb0 7f3f bd30 803f 098d 7f3f
00000080: d625 803f 4dae 7f3f 8b25 803f 9d16 803f
00000090: 0f2e 803f e2f5 7f3f da5d 803f 020b 803f
000000a0: ad36 813f 8817 803f ede4 7f3f 1eff 7f3f
000000b0: fb13 803f 0b46 823f c646 803f 98c4 7f3f
000000c0: 5365 803f 8583 803f 52c4 7f3f 2e3e 803f
000000d0: 7efd 7f3f a81b 803f 5803 813f db18 803f
000000e0: 218d 803f 977b 803f f923 803f 8daf 7f3f
000000f0: aa01 803f 8890 803f 61d2 7f3f fc1d 803f
00000100: 4532 803f 5234 803f b2d7 7f3f b6eb 7f3f
00000110: 9c8f 803f 574b 803f 0d55 7f3f 4306 803f
00000120: 9090 7f3f cdec 7f3f 360d 803f 5f55 803f
00000130: 2b27 803f 543b 803f 43f8 7f3f 73c4 7f3f
00000140: bd65 7f3f 07f4 7f3f 9c90 803f 1b3a 803f
00000150: 6d28 803f cd26 7f3f 46fc 7f3f da09 803f
00000160: f3b7 803f 5a04 803f 84eb 803f 8ff3 7f3f
00000170: f059 7f3f 23be 7f3f 33b5 7f3f 5983 803f
00000180: 5bae 7f3f de1d 803f dff0 7f3f d4ab 7f3f
00000190: 7189 7f3f f2fa 7f3f 3212 7f3f bb10 803f
000001a0: 5535 803f f773 7f3f 9c18 803f e02b 803f
000001b0: 5e23 803f 04bb 803f f782 7f3f 3f52 803f
000001c0: d7fe 803f 4a7b 7f3f 92f7 7f3f fb12 803f
000001d0: 7b48 803f 60b6 7f3f 8528 803f ce2a 803f
000001e0: 6271 7f3f c406 803f 5855 7f3f bb50 803f
000001f0: aabe 7f3f 9527 813f 9daf 7f3f 08d0 7f3f

crystalGraphConvNet.convs.0.bn1.bias f4 [128]
0.0012436042 0.0015737514 -0.0020992933 0.0012528775 0.00029558025 -0.003960175 -0.0011229649 0.0009598304
-0.0015125043 -0.0010460325 -0.0017103298 0.00015191843 -0.0007785569 0.00020207075 -0.0009725476 -0.0010478897
0.0002799066 -0.0013245996 0.00056491286 0.002013949 -0.00055477995 -0.00089068926 0.00041638632 -0.0011049557
-0.001604175 0.00079731824 0.0012540342 -0.003355983 0.0012147051 3.9021717e-05 -0.0013779086 0.00011604611
0.00039722072 0.00074836885 -0.0032329168 0.0010161722 -0.0012628975 8.833262e-05 -0.00087011285 0.0009257466
-0.0007553116 -2.8865601e-05 0.00066816754 0.0014632501 -0.0013844314 -0.0049569095 0.0006332505 0.0012002339
-0.005163368 -0.0026431293 0.00022336937 -0.0008601239 0.0004944377 0.00038693933 -0.0041500954 -0.00047678815
-0.0010824966 -0.00046888387 -0.0038528221 0.00015341616 -0.00068913656 -0.0054068356 0.00087554916 0.00025315126
0.00020058882 -0.00031711604 -0.00023557515 0.0005949457 -0.0022474106 -0.0025052063 0.00136695 5.3025393e-05
0.00086081587 0.00017733529 -0.0006580871 -0.0010007669 -0.00015519468 -0.0007162396 -9.03236e-06 -4.9626527e-05
0.000525668 0.0005228417 -0.002450796 -0.0012354389 -0.0008905264 0.0013207393 0.00022798995 -0.00024078142
-0.0031098211 -0.00016835326 -0.003980972 -0.0023629013 0.001473356 0.000112077454 0.00076557527 -0.0013671922
0.0001837702 -0.0005932268 -0.00012737354 0.0009366384 0.00021244668 -0.00012918793 0.0014956017 -0.0001645273
-0.0014778347 0.0016768731 -0.0004684508 -4.7355174e-05 -0.00048972125 -0.0020179164 0.0011454673 -0.0006625454
-0.00701541 0.00038136332 0.00021628001 -0.0001870202 -0.0009842057 0.0006425571 -0.0025848958 -0.0007577917
0.00014458361 -0.0003873398 0.0014917847 -0.00088622776 0.0005161087 -0.004603196 0.0016534256 0.00054969755
00000000: 6f00 a33a 5646 ce3a 4c94 09bb 9837 a43a
00000010: 1cf8 9a39 5bc4 81bb 7330 93ba 219d 7b3a
00000020: 393f c6ba 071b 89ba 252d e0ba 4b4c 1f39
00000030: 1218 4cba f4e2 5339 91f2 7eba 5859 89ba
00000040: 6ec0 9239 309e adba a916 143a 75fc 033b
00000050: a76e 11ba 257d 69ba 6d4e da39 29d4 90ba
00000060: 2e43 d2ba 1f03 513a 685e a43a 0df0 5bbb
00000070: bd36 9f3a 40ab 2338 f19a b4ba c85d f338
00000080: 1042 d039 2f2e 443a 58df 53bb 1531 853a
00000090: cf87 a5ba 373f b938 4918 64ba cdad 723a
000000a0: 1a00 46ba 6824 f2b7 f727 2f3a 87ca bf3a
000000b0: cf75 b5ba 926d a2bb b900 263a 2b51 9d3a
000000c0: 7831 a9bb 5a38 2dbb 4238 6a39 f079 61ba
000000d0: 279d 013a 1ede ca39 86fd 87bb 6cf9 f9b9
000000e0: 8fe2 8dba 87d4 f5b9 a17f 7cbb 56de 2039
000000f0: 2ca7 34ba d32b b1bb 1c85 653a 63b9 8439
00000100: 2755 5239 9842 a6b9 b904 77b9 21f6 1b3a
00000110: 4b49 13bb 632e 24bb 3b2b b33a 9567 5e38
00000120: 60a8 613a 14f3 3939 7a83 2cba 2a2c 83ba
00000130: c1bb 22b9 07c2 3bba b189 17b7 1426 50b8
00000140: fbcc 093a 500f 093a 899d 20bb 73ee a1ba
00000150: 3772 69ba a81c ad3a 9610 6f39 457a 7cb9
00000160: 24ce 4bbb fc87 30b9 d072 82bb e8da 1abb
00000170: a01d c13a 200b eb38 e3b0 483a 5c33 b3ba
00000180: 70b2 4039 c782 1bba 938f 05b9 bd88 753a
00000190: 39c4 5e39 9f76 07b9 1108 c43a f684 2cb9
000001a0: e7b3 c1ba 86ca db3a 679a f5b9 3b9f 46b8
000001b0: a360 00ba 053f 04bb 8123 963a abae 2dba
000001c0: 86e1 e5bb b8f1 c739 39c9 6239 da1a 44b9
000001d0: 7700 81ba 4771 283a 5b67 29bb 8aa6 46ba
000001e0: 5e9b 1739 de13 cbb9 fd87 c33a bd51 68ba
000001f0: 784b 073a 68d6 96bb c2b7 d83a 9419 103a

crystalGraphConvNet.convs.0.bn1.running_mean f4 [128]
-0.047928173 -0.014391912 -0.060155384 0.08546066 0.123023406 0.053483568 0.07013132 -0.08952311
-0.01404199 0.028768593 -0.02257478 -0.0691225 -0.018402452 0.02592126 -0.020929148 -0.010227221
0.04610898 0.03940587 0.12639175 0.07117757 -0.023759108 -0.03282809 -0.12485218 0.007383837
0.02911356 -0.0039523426 -0.0897628 -0.08325738 0.040560666 0.014303235 0.0973943 -0.14780551
0.03532433 0.02096982 0.06600739 -0.104929216 0.02095603 -0.0310911 -0.07770739 -0.031336185
0.03162446 -0.007630959 0.013829369 -0.12873133 0.08734764 0.06900309 -0.0646193 -0.10775732
-0.008678888 -0.06074697 0.025666904 -0.13292652 0.0082956785 0.013550626 0.16040394 -0.1366337
0.03324028 0.0751664 0.021061847 -0.046372935 0.16000725 -0.031499773 0.029307732 -0.055008903
-0.049352482 0.050385963 -0.04519648 -0.1388819 -0.039605707 -0.12680534 -0.029825497 -0.07457509
0.019443681 -0.07106317 0.0027097315 -0.07396061 -0.15306954 0.07129878 0.033777814 0.004256852
-0.041723393 0.15718569 0.023633443 0.103163116 0.045034274 -0.014319642 0.0022094622 -0.01727822
-0.07028292 -0.072361656 0.07985901 0.0043547093 -0.10108987 -0.024891889 0.036981605 -0.15365614
0.14464146 -0.0362537 -0.037231274 -0.034338966 -0.0028189144 -0.19203132 -0.056603443 0.07966722
-0.009625819 -0.07830006 -0.0038521206 0.07459387 -0.028684901 0.03449006 -0.091325365 0.031265195
-0.09507534 0.016734945 -0.034410197 0.18454166 -0.0138202235 0.03736197 0.030890984 0.01375661
-0.09596656 -0.11364337 -0.030732563 -0.08343971 -0.048373114 -0.10729505 0.14072077 0.03773953
00000000: 5550 44bd 0ecc 6bbc 7e65 76bd 0006 af3d
00000010: b2f3 fb3d 9611 5b3d 02a1 8f3d e457 b7bd
00000020: 6010 66bc 1dac eb3c bfee b8bc 1990 8dbd
00000030: bdc0 96bc d258 d43c 9b73 abbc 1390 27bc
00000040: c5dc 3c3d 0d68 213d d76c 013e 8cc5 913d
00000050: 76a2 c2bc bf76 06bd 80b2 ffbd 1df4 f13b
00000060: 907f ee3c a782 81bb 8fd5 b7bd d882 aabd
00000070: f122 263d 1e58 6a3c aa76 c73d 545a 17be
00000080: 3fb0 103d e6c8 ab3c e22e 873d 21e5 d6bd
00000090: fbab ab3c c3b2 febc 0d25 9fbd 5f5a 00bd
000000a0: a688 013d 200d fabb 9494 623c 25d2 03be
000000b0: 52e3 b23d 7e51 8d3d 2057 84bd dfaf dcbd
000000c0: e531 0ebc d1d1 78bd 6643 d23c e41d 08be
000000d0: 99ea 073c 7203 5e3c ee40 243e b4e9 0bbe
000000e0: f626 083d d7f0 993d e589 ac3c 8cf1 3dbd
000000f0: f1d8 233e e805 01bd c516 f03c 0451 61bd
00000100: d425 4abd 8361 4e3d f21f 39bd 0f37 0ebe
00000110: 9839 22bd 42d9 01be 9a54 f4bc d3ba 98bd
00000120: 5b48 9f3c 9189 91bd c095 313b a978 97bd
00000130: 43be 1cbe 1805 923d 9b5a 0a3d 107d 8b3b
00000140: 26e6 2abd 49f5 203e ec9a c13c 2f47 d33d
00000150: dc75 383d ef9c 6abc a0cc 103b 0e8b 8dbc
00000160: 7ef0 8fbd 5932 94bd 1f8d a33d f3b1 8e3b
00000170: 3508 cfbd 13ea cbbc 067a 173d 0958 1dbe
00000180: e41c 143e c27e 14bd d27f 18bd 04a7 0cbd
00000190: 89bd 38bb dca3 44be 03d9 67bd 9128 a33d
000001a0: 9cb5 1dbc c85b a0bd dc73 7cbb acc4 983d
000001b0: 99fc eabc 7345 0d3d cb08 bbbd ef0f 003d
000001c0: dcb6 c2bd b917 893c b5f1 0cbd 7df8 3c3e
000001d0: 386e 62bc dd08 193d 170f fd3c 6863 613c
000001e0: 1e8a c4bd dbbd e8bd dbc2 fbbc 70e2 aabd
000001f0: e322 46bd 82bd dbbd 1b19 103e c494 1a3d

crystalGraphConvNet.convs.0.bn1.running_var f4 [128]
0.007621895 0.01543429 0.0074179447 0.009420905 0.010357787 0.009158591 0.009491472 0.010994515
0.010522545 0.007559859 0.0063301655 0.012630272 0.0075494265 0.0073375884 0.009355257 0.0060213017
0.011709694 0.014175826 0.0073088524 0.00960981 0.019297713 0.011830942 0.010093842 0.005739513
0.010577122 0.006914593 0.010005388 0.0114391 0.0108062085 0.012238969 0.017162006 0.0068865824
0.011107058 0.014053377 0.0068587153 0.0073628263 0.011727972 0.008458919 0.028202323 0.007864872
0.014757614 0.008848818 0.012981935 0.012136058 0.009056703 0.0094192745 0.007089238 0.014311962
0.010119236 0.006542697 0.009172208 0.009551539 0.01603966 0.009769129 0.015824627 0.013872317
0.009387848 0.0075422474 0.008294889 0.0072360197 0.017462164 0.011205351 0.01234765 0.008921322
0.01085458 0.010762326 0.010750717 0.026216248 0.016264103 0.016109241 0.013307752 0.009671212
0.010982526 0.011800264 0.011809239 0.01270196 0.0125901215 0.012603806 0.012105618 0.00851776
0.0065791802 0.010183105 0.0062021744 0.014238186 0.010247102 0.012712968 0.023426097 0.008452755
0.019045316 0.0073398007 0.011898597 0.00801824 0.013302134 0.011453049 0.010190695 0.010592568
0.008455363 0.014765593 0.010100881 0.005521058 0.026791913 0.016757531 0.00821184 0.011004777
0.024999168 0.019570542 0.0058532413 0.008493021 0.021461066 0.017804164 0.026398635 0.023651479
0.0079236515 0.011131969 0.0119375 0.0089875115 0.019149616 0.009043285 0.013297631 0.013140487
0.008823745 0.017516155 0.01712378 0.011212879 0.01062483 0.016435308 0.012452214 0.013732785
00000000: 17c1 f93b 1be0 7c3c 3b12 f33b 245a 1a3c
00000010: b5b3 293c ea0d 163c 1e82 1b3c 5722 343c
00000020: c166 2c3c b2b8 f73b 476d cf3b 33ef 4e3c
00000030: 2e61 f73b 2770 f03b cb46 193c 574e c53b
00000040: 04da 3f3c b941 683c 197f ef3b 7772 1d3c
00000050: 3d16 9e3c 91d6 413c a460 253c 8612 bc3b
00000060: aa4b 2d3c cf93 e23b a4ed 233c 106b 3b3c
00000070: 860c 313c f585 483c 5697 8c3c d7a8 e13b
00000080: 61fa 353c 2340 663c 13bf e03b dd43 f13b
00000090: ae26 403c 4797 0a3c 8f08 e73c aadb 003c
000000a0: ebc9 713c a2fa 103c 2fb2 543c 51d6 463c
000000b0: 9162 143c 4d53 1a3c d74c e83b b87c 6a3c
000000c0: 27cb 253c 1f64 d63b 0747 163c 0f7e 1c3c
000000d0: 9b65 833c b20e 203c a6a2 813c b748 633c
000000e0: 7dcf 193c f524 f73b 49e7 073c 221c ed3b
000000f0: d00c 8f3c a696 373c cc4d 4a3c bd2a 123c
00000100: 69d7 313c 7854 303c c623 303c 75c3 d63c
00000110: 4c3c 853c 87f7 833c c208 5a3c 0174 1e3c
00000120: 0df0 333c e555 413c 8a7b 413c e21b 503c
00000130: cc46 4e3c 3280 4e3c a456 463c 138e 0b3c
00000140: 2a96 d73b 0ad7 263c 9c3b cb3b 4847 693c
00000150: 76e3 273c 0d4a 503c 16e8 bf3c 6d7d 0a3c
00000160: ec04 9c3c b682 f03b 55f2 423c f05e 033c
00000170: 32f1 593c 92a5 3b3c dff6 263c 738c 2d3c
00000180: 5d88 0a3c 63eb 713c 2a7e 253c fee9 b43b
00000190: b77a db3c 1747 893c f48a 063c 614d 343c
000001a0: 0ecb cc3c 6752 a03c 8ccc bf3b 5026 0b3c
000001b0: 1ecf af3c 0ada 913c f341 d83c bfc0 c13c
000001c0: 34d2 013c dd62 363c 8195 433c 5b40 133c
000001d0: a8df 9c3c 492a 143c 4fde 593c 324b 573c
000001e0: 7891 103c 0a7e 8f3c 2b47 8c3c 39b6 373c
000001f0: c413 2e3c 57a3 863c 5f04 4c3c 7aff 603c

crystalGraphConvNet.convs.0.bn2.weight f4 [64]
0.99491876 0.99302876 0.9987733 1.0001528 1.0009911 1.0022966 1.0032507 0.99729425
1.0051353 0.9940127 1.0106508 1.006839 1.0038569 1.0032345 0.9965375 0.9943829
0.9959959 0.9979188 1.0067832 1.0021298 1.0000155 0.9928224 0.9950451 1.0002118
1.0018289 0.992435 1.0161204 1.0074943 1.0009831 0.9884569 0.9967514 1.0130081
0.9980682 0.99965036 0.9988255 0.9907378 0.98767996 1.0012767 1.0033482 0.99249184
1.0208409 0.9865492 0.9983142 0.9889667 1.0026805 1.0083544 0.99202603 1.0018567
1.0133687 1.00311 1.0085777 0.9962424 1.000548 0.9942969 1.0145401 0.99890363
1.0016515 1.0039095 0.99867463 1.0076563 1.0023751 1.0172887 0.993121 0.9970728
00000000: ffb2 7e3f 2237 7e3f 9baf 7f3f 0205 803f
00000010: 7a20 803f 414b 803f 856a 803f ad4e 7f3f
00000020: 46a8 803f 9e77 7e3f 015d 813f 1ae0 803f
00000030: 627e 803f fd69 803f 151d 7f3f e18f 7e3f
00000040: 96f9 7e3f 9b77 7f3f 46de 803f ca45 803f
00000050: 8200 803f 9c29 7e3f 47bb 7e3f f106 803f
00000060: ee3b 803f 3810 7e3f 3c10 823f 93f5 803f
00000070: 3720 803f 830b 7d3f 1a2b 7f3f 40aa 813f
00000080: 6681 7f3f 16e9 7f3f 07b3 7f3f fea0 7d3f
00000090: 98d8 7c3f d629 803f b76d 803f f213 7e3f
000000a0: eaaa 823f 7d8e 7c3f 8591 7f3f ec2c 7d3f
000000b0: d657 803f c211 813f 6bf5 7d3f d73c 803f
000000c0: 11b6 813f e965 803f 1319 813f be09 7f3f
000000d0: f511 803f 3e8a 7e3f 73dc 813f 26b8 7f3f
000000e0: 1e36 803f 1b80 803f 24a9 7f3f e2fa 803f
000000f0: d44d 803f 8436 823f 2e3d 7e3f 2a40 7f3f

crystalGraphConvNet.convs.0.bn2.bias f4 [64]
-0.0034900482 -0.0014843465 -0.002245908 0.0007437109 -0.0044077183 -0.0044170227 0.002643092 -0.0019365395
0.0022274056 -0.0030041966 0.0025442718 0.00032852372 -0.00099568 0.0011590909 -0.00095699413 -0.0036265599
-0.0016607245 0.0024431995 -0.0015627176 0.0011092422 -0.00082069763 -0.0015073922 -0.0015615558 -0.0010560842
-0.0067222305 -0.0029022852 0.0003012954 -0.0035662083 0.004017673 -0.005225489 -0.001374935 0.0035413597
-0.0019005704 -0.0028805041 -0.0010561645 -0.0022885003 -0.0039524445 -0.00088317617 0.0036880483 -0.0006273871
-0.007578474 -0.0005957518 -0.0021736154 -0.0056774374 -0.0006918607 -0.0036726997 -0.0023066185 0.0023868587
0.0021205666 -0.0023102688 0.004888265 -0.003893744 -0.00024576185 -0.0010884257 -0.0035431106 -0.0005099982
-0.0048659123 -9.272803e-05 0.00028366855 0.00062699977 -0.0023720327 -0.00285956 -0.0023555101 -0.0044322484
00000000: 4bb9 64bb 678e c2ba 1530 13bb 98f5 423a
00000010: 9f6e 90bb acbc 90bb ba37 2d3b 7cd3 fdba
00000020: aaf9 113b 0ee2 44bb ccbd 263b b53d ac39
00000030: 7a81 82ba a3ec 973a cade 7aba 94ab 6dbb
00000040: abac d9ba 161e 203b 1ad4 ccba fe63 913a
00000050: 1624 57ba b093 c5ba 1ead ccba 4e6c 8aba
00000060: 2846 dcbb 4434 3ebb 2ff7 9d39 0cb7 69bb
00000070: afa6 833b 943a abbb 2a37 b4ba 2816 683b
00000080: 8f1c f9ba d7c6 3cbb 006f 8aba aafa 15bb
00000090: 8283 81bb f384 67ba 2fb3 713b 3c77 24ba
000000a0: d954 f8bb 3a2c 1cba 3773 0ebb cc09 babb
000000b0: fc5d 35ba adb1 70bb a32a 17bb d86c 1c3b
000000c0: 34f9 0a3b e167 17bb bd2d a03b 2f2e 7fbb
000000d0: 99d9 80b9 82a9 8eba 8833 68bb 66b1 05ba
000000e0: 3b72 9fbb fb76 c2b8 59b9 9439 3e5d 243a
000000f0: 1b74 1bbb 7567 3bbb e75e 1abb 653c 91bb

crystalGraphConvNet.convs.0.bn2.running_mean f4 [64]
4.343934 5.155884 4.512976 5.417627 4.9483542 5.129549 5.2466087 5.198407
4.8368735 5.2208066 5.050813 4.4976816 4.36317 4.6838765 4.8559284 4.9460597
5.196455 4.7449937 5.2574368 5.0635486 4.762415 4.9819727 5.326825 4.8878403
4.8964443 5.1777363 4.582695 4.710667 5.3209805 4.8370023 4.844342 4.7364316
5.2760506 5.4296327 5.0059266 5.0235753 5.738462 5.3258586 5.050926 4.719948
5.2541428 5.348876 5.2167344 4.99012 5.573507 4.53133 5.0424204 4.6873837
4.8242917 5.175181 5.290769 5.2629147 5.5665727 4.922628 5.2447453 4.7575955
5.097599 5.2717476 5.2806506 4.675981 5.3770657 5.1418934 5.02989 5.3864746
00000000: 8201 8b40 00fd a440 4d6a 9040 335d ad40
00000010: eb58 9e40 4425 a440 38e4 a740 5a59 a640
00000020: abc7 9a40 d910 a740 43a0 a140 02ed 8f40
00000030: 179f 8b40 51e2 9540 c463 9b40 1f46 9e40
00000040: 5c49 a640 fdd6 9740 ec3c a840 9708 a240
00000050: b465 9840 526c 9f40 5a75 aa40 3069 9c40
00000060: acaf 9c40 04b0 a540 70a5 9240 c9bd 9640
00000070: 7945 aa40 b9c8 9a40 da04 9b40 d990 9740
00000080: 68d5 a840 8dbf ad40 8d30 a040 21c1 a040
00000090: 7ba1 b740 6f6d aa40 30a1 a140 d009 9740
000000a0: f021 a840 fe29 ab40 7def a640 10af 9f40
000000b0: 2b5a b240 a800 9140 825b a140 0cff 9540
000000c0: 9960 9a40 159b a540 fb4d a940 cc69 a840
000000d0: 5d21 b240 2b86 9d40 f4d4 a740 393e 9840
000000e0: 881f a340 28b2 a840 17fb a840 a3a1 9540
000000f0: ec10 ac40 648a a440 dcf4 a040 005e ac40

crystalGraphConvNet.convs.0.bn2.running_var f4 [64]
5.670634 6.859398 7.7867355 19.543 7.563413 9.355361 18.193102 14.073124
11.2272 12.442341 9.110125 3.7009203 5.088783 6.713773 10.498017 9.337917
10.043788 8.887945 10.04439 7.637355 8.222824 8.239058 17.937937 12.123954
9.580293 10.23605 6.9025655 6.283977 18.458082 8.718519 8.965385 8.920493
10.008527 19.187166 9.072506 10.8075695 18.010965 16.58409 21.424263 4.931679
7.3825912 21.04391 15.0646515 13.709443 13.00621 5.5297728 13.696673 5.9126782
6.2602086 13.005762 9.32694 10.22684 14.35906 9.102852 12.127591 7.2214184
11.154694 10.713415 12.326461 5.515004 12.467127 13.359862 11.559703 10.079085
00000000: d575 b540 3080 db40 f02c f940 1058 9c41
00000010: 7b07 f240 8faf 1541 798b 9141 842b 6141
00000020: 9ca2 3341 d413 4741 12c3 1141 e1db 6c40
00000030: 4fd7 a240 3ad7 d640 e1f7 2741 1c68 1541
00000040: 5bb3 2041 0635 0e41 d2b5 2041 3665 f440
00000050: b090 0341 2ed3 0341 e580 8f41 b7fb 4141
00000060: e148 1941 dcc6 2341 d1e1 dc40 5716 c940
00000070: 27aa 9341 0e7f 0b41 3872 0f41 57ba 0e41
00000080: ed22 2041 517f 9941 fc28 1141 ceeb 2c41
00000090: 7516 9041 37ac 8441 e464 ab41 50d0 9d40
000000a0: 303e ec40 ed59 a841 d008 7141 e159 5b41
000000b0: 7019 5041 e6f3 b040 9325 5b41 a934 bd40
000000c0: a153 c840 9a17 5041 253b 1541 23a1 2341
000000d0: b6be 6541 48a5 1141 9d0a 4241 dc15 e740
000000e0: a079 3241 266a 2b41 2f39 4541 ea7a b040
000000f0: 5a79 4741 ffc1 5541 8bf4 3841 ef43 2141

crystalGraphConvNet.convs.1.fc_full.weight f4 [128, 169]
-0.04251816 -0.008537625 0.015879761 -0.062419012 -0.008592549 -0.023026109 -0.054317698 -0.04492275
-0.0032638717 0.050096404 0.015245221 0.017895438 -0.053915292 -0.017488485 0.044536438 -0.025647689
-0.0045293 0.05272932 0.023547143 0.029252067 0.022549177 -0.04885763 -0.07559224 0.05996832
-0.044850465 0.03861449 0.027008861 -0.02609781 0.057405416 0.025921091 -0.026428929 -0.0426311
-0.011621429 0.024902668 -0.04672723 0.0076999995 -0.0064994 0.026080705 -0.0068181604 0.06468957
0.021313325 -0.015667759 0.063845485 0.021425122 0.07500361 0.027973147 0.06657033 -0.005463136
-0.07737365 0.030074894 0.023437824 -0.0028813202 -0.056325633 0.07422798 -0.028572397 0.04374587
-0.018535279 -0.013312519 -0.018953655 -0.05306426 -0.039417762 -0.03862168 0.023603357 -0.0027849786
-0.048968747 0.057822734 0.036307085 -0.048138108 -0.0047069024 0.06384943 -0.013719624 0.06686436
-0.06549695 -0.05748575 0.07193614 0.059384994 -0.002057384 0.078282975 0.006652439 -0.06010762
0.003453239 0.04662123 -0.076604486 0.019602435 -0.06350147 -0.012998389 0.036419984 -0.033832613
-0.07202013 0.06773084 0.0304418 0.05354288 0.03964655 0.027003702 0.039531283 -0.0667662
-0.0021627385 0.0139121935 0.004596675 -0.024545334 -0.018120142 -0.0512274 0.06756579 -0.046088412
0.018250795 -0.06910005 -0.06466272 0.041242875 -0.046211664 0.047052722 0.028190456 -0.002922849
-0.0703747 -0.07484265 0.07950407 0.0044206115 0.07748043 -0.0078648925 0.060006343 -0.033244595
-0.045633413 -0.02776976 -0.061583836 -0.021466363 0.00081595976 0.060088765 0.058236253 0.07046436
0.020257024 -0.07626567 -0.017699737 0.0507616 -0.04752895 -0.016627064 0.027170667 0.051260106
-0.056009855 -0.013834023 -0.037907485 -0.024623878 0.055201326 -0.03472589 -0.009081247 0.03969467
0.024006156 0.0617847 0.0075651 0.035288613 0.05490813 0.046726473 -0.026997043 0.057463877
-0.03092177 0.06067865 -0.014948689 0.07065368 0.042884767 -0.07370316 0.00681795 0.045661263
0.07259191 -0.056031913 0.025738113 -0.003479765 -0.008813638 0.040536333 0.02003014 -0.05172925
-0.046048846 -0.047116105 -0.066278584 0.008904482 -0.043518476 0.02180451 -0.04309225 0.032531712
-0.002938301 0.06719744 -0.075001836 -0.068120204 -0.041265514 -0.05328358 -0.09412668 0.071663275
-0.047345046 -0.03044858 0.034440335 0.06977532 0.061683837 -0.01320871 -0.024258142 0.06512048
0.04850504 0.058692187 -0.034970045 -0.060581528 -0.07412499 -0.0134499725 -0.0029988936 -0.037737444
-0.038342282 -0.07667121 -0.01658107 0.07492756 -0.014028042 -0.034508873 0.0104601225 0.039758828
-0.0036548097 -0.07797132 -0.06371704 -0.06938692 -0.02678876 -0.05043058 0.015787547 -0.06156211
-0.027822036 -0.05036517 0.042384997 -0.060746986 -0.029773615 0.062215075 0.06434304 -0.058870427
0.03286896 -0.027246116 -0.0096468525 0.031476922 0.059917618 -0.07785421 0.04871124 0.055613775
0.038356315 -0.071260124 0.04360364 0.07556165 0.060192455 -0.02111971 -0.03276955 0.042440683
-0.06714087 0.00737108 0.0658593 0.023811257 -0.075203285 -0.018470896 -0.0035882103 -0.004922362
0.00092500047 -0.055500925 0.038043283 -0.034385484 -0.021112064 -0.0008718817 -0.042346537 -0.06759548
00000000: 8627 2ebd 65e1 0bbc 4616 823c 14ab 7fbd
00000010: c3c7 0cbc 40a1 bcbc 3c7c 5ebd eb00 38bd
00000020: aee6 55bb e331 4d3d 17c7 793c 7499 923c
00000030: 48d6 5cbd 0344 8fbc d76b 363d 1a1b d2bc
00000040: 866a 94bb b3fa 573d f0e5 c03c 08a2 ef3c
00000050: 0db9 b83c f01e 48bd 1bd0 9abd 57a1 753d
00000060: 1fb5 37bd 3a2a 1e3d b041 dd3c 13cb d5bc
00000070: f121 6b3d 7858 d43c 7b81 d8bc f39d 2ebd
00000080: ce67 3ebc ae00 cc3c 0d65 3fbd 4750 fc3b
00000090: ebf8 d4bb 34a7 d53c e06a dfbb f77b 843d
000000a0: 4899 ae3c ac59 80bc 6cc1 823d bd83 af3c
000000b0: 7e9b 993d f127 e53c 0656 883d 1b04 b3bb
000000c0: 1476 9ebd a05f f63c ae00 c03c 88d4 3cbb
000000d0: b5b5 66bd d704 983d a910 eabc df2e 333d
000000e0: 4cd7 97bc c01c 5abc b244 9bbc e959 59bd
000000f0: 8574 21bd c431 1ebd d45b c13c 3084 36bb
00000100: 7493 48bd 88d7 6c3d bdb6 143d 772c 45bd
00000110: 5c3c 9abb 7dc3 823d 46c8 60bc 2ef0 883d
00000120: 4423 86bd 2e76 6bbd 4153 933d ae3d 733d
00000130: 2dd5 06bb d352 a03d b4fc d93b 6833 76bd
00000140: bd4f 623b e7f5 3e3d d0e2 9cbd 4995 a03c
00000150: 0f0d 82bd 32f7 54bc 1f2d 153d 1194 0abd
00000160: 4a7f 93bd 77b6 8a3d 1561 f93c c74f 5b3d
00000170: 6c64 223d de36 dd3c 8eeb 213d b8bc 88bd
00000180: bbbc 0dbb f8ef 633c b49f 963b 4c13 c9bc
00000190: b170 94bc d2d3 51bd ef5f 8a3d 34c7 3cbd
000001a0: b182 953c 5484 8dbd e36d 84bd 4aee 283d
000001b0: 7148 3dbd 5bba 403d acef e63c 458d 3fbb
000001c0: 9c20 90bd 1a47 99bd 08d3 a23d c7da 903b
000001d0: 0fae 9e3d c0db 00bc 36c9 753d 7c2b 08bd
000001e0: 1aea 3abd 687d e3bc 553f 7cbd 3ada afbc
000001f0: 22e6 553a a31f 763d 2389 6e3d 9e4f 903d
00000200: 0ff2 a53c 2d31 9cbd 0aff 90bc 65eb 4f3d
00000210: b7ad 42bd 7b35 88bc 0595 de3c 1ef6 513d
00000220: 976a 65bd 19a8 62bc e144 1bbd 04b8 c9bc
00000230: c91a 623d bc3c 0ebd 83c9 14bc e196 223d
00000240: 8fa8 c43c f411 7d3d a9e4 f73b cb8a 103d
00000250: 59e7 603d 4264 3f3d e728 ddbc 3e5f 6b3d
00000260: a74f fdbc 2d8a 783d 59eb 74bc e0b2 903d
00000270: f0a7 2f3d aff1 96bd 1c69 df3b 4e07 3b3d
00000280: 11ab 943d b881 65bd bcd8 d23c c50c 64bb
00000290: 1467 10bc 6d09 263d 4016 a43c 0de2 53bd
000002a0: b79d 3cbd d1fc 40bd 11bd 87bd 1be4 113c
000002b0: 6e40 32bd 5f9f b23c 8081 30bd f93f 053d
000002c0: 8390 40bb d09e 893d 909a 99bd 9b82 8bbd
000002d0: 0706 29bd e23f 5abd 7dc5 c0bd 32c4 923d
000002e0: e1ec 41bd 4d6f f9bc 4f11 0d3d 5de6 8e3d
000002f0: 31a8 7c3d 5869 58bc 03b9 c6bc e35d 853d
00000300: 39ad 463d 3867 703d c03c 0fbd 5624 78bd
00000310: d8ce 97bd 465d 5cbc 1689 44bb 9492 1abd
00000320: cc0c 1dbd cc05 9dbd 06d5 87bc 9f73 993d
00000330: dfd5 65bc 2d59 0dbd ef60 2b3c 27da 223d
00000340: 8885 6fbb 6daf 9fbd 147e 82bd bb1a 8ebd
00000350: 1a74 dbbc 4c90 4ebd e354 813c 8d28 7cbd
00000360: 0aeb e3bc b54b 4ebd e49b 2d3d d5d1 78bd
00000370: cce7 f3bc 3cd5 7e3d 49c6 833d 1e22 71bd
00000380: 9aa1 063d 3f33 dfbc d50d 1ebc f2ed 003d
00000390: 2d6c 753d 0772 9fbd 7085 473d 45cb 633d
000003a0: 831b 1d3d d4f0 91bd bb99 323d 11c0 9a3d
000003b0: 5d8c 763d 3e03 adbc 5d39 06bd 48d6 2d3d
000003c0: 2781 89bd 1a89 f13b 3ee1 863d d30f c33c
000003d0: 2e04 9abd 4750 97bc 2e28 6bbb c44b a1bb
000003e0: bb7b 723a f054 63bd 46d3 1b3d cbd7 0cbd
000003f0: 35f3 acbc fe8e 64ba 9073 2dbd 806f 8abd

crystalGraphConvNet.convs.1.fc_full.bias f4 [128]
0.046811454 0.043729417 -0.05118097 0.017365621 0.042557225 0.06312799 0.034980144 -0.03093263
-0.024008863 0.019136155 0.03779728 -0.05176645 -0.030547775 -0.0286752 0.043053307 0.043784987
-0.062010024 0.030409593 0.033540793 -0.02896078 -0.053095277 -0.03625845 -0.019219508 -0.074692905
-0.048822507 0.012858996 0.0152271995 -0.07400306 0.03520422 0.04804407 0.032263804 -0.062222335
-0.07491134 -0.043463543 0.039428942 0.033612207 0.03676013 -0.04181818 -0.009337921 -0.035024617
-0.0260237 0.054956134 0.049253017 0.04946346 -0.036793206 -0.025200156 0.07624568 -0.06286023
-0.06796227 -0.0035637703 -0.03089539 0.063376464 0.071689166 -0.0004673579 -0.018561576 0.027128734
-0.07002206 -0.07358971 -0.019119943 0.02441565 -0.06647722 0.07552617 -0.0012827826 0.061716832
-0.008243506 -0.046626434 0.07386235 0.06016563 -0.054166548 -0.047490966 0.059058256 -0.060775384
-0.034053933 -0.043163355 0.045388572 0.036533505 0.04429193 -0.009853391 -0.03835149 -0.04764778
0.04148066 0.06108883 -0.029280435 0.039929748 -0.030195788 -0.06574422 0.056943502 0.054977722
0.06597922 0.01910219 0.014023827 0.03626795 0.06346273 -0.064237416 0.03979155 -0.006689708
0.026856521 -0.043545596 0.046923894 -0.043447606 0.03598878 0.016047359 0.015336091 0.015049512
0.06770057 -0.013093564 0.056557335 -0.038165506 0.0041344077 0.04674004 0.03386848 0.05832037
0.015722642 0.07042861 -0.06896597 0.060642812 0.060727224 -0.036403775 -0.013567507 0.031125538
-0.06742016 -0.035891067 0.06583146 0.031189956 -0.0016029498 -0.013671332 -0.03759071 0.007975909
00000000: 5ebd 3f3d 9e1d 333d 23a3 51bd 5942 8e3c
00000010: 7c50 2e3d 3f49 813d 5747 0f3d 6d66 fdbc
00000020: 3cae c4bc 6dc3 9c3c 52d1 1a3d 0f09 54bd
00000030: 543f fabc 41e8 eabc aa58 303d e357 333d
00000040: 39fe 7dbd 8a1d f93c 1262 093d 283f edbc
00000050: 6f7a 59bd be83 14bd 3b72 9dbc 98f8 98bd
00000060: 1cfa 47bd 8aae 523c 817b 793c eb8e 97bd
00000070: 4d32 103d dcc9 443d 0d27 043d d9dc 7ebd
00000080: 1e6b 99bd d406 32bd 3e80 213d f4ac 093d
00000090: ca91 163d 8a49 2bbd 14fe 18bc f975 0fbd
000000a0: a82f d5bc af19 613d 88bd 493d 329a 4a3d
000000b0: 79b4 16bd 8f70 cebc b226 9c3d ddbc 80bd
000000c0: cd2f 8bbd 258e 69bb 5418 fdbc 85cb 813d
000000d0: c5d1 923d b707 f5b9 720e 98bc 143d de3c
000000e0: ba67 8fbd 34b6 96bd 6da1 9cbc 5403 c83c
000000f0: 3525 88bd 77ad 9a3d 0b23 a8ba caca 7c3d
00000100: c50f 07bc 5cfb 3ebd 2545 973d 3c70 763d
00000110: bedd 5dbd e385 42bd 12e7 713d 9cef 78bd
00000120: 237c 0bbd 0fcc 30bd 5ee9 393d 28a4 153d
00000130: 746b 353d 1e70 21bc 7416 1dbd 522a 43bd
00000140: a0e7 293d 4838 7a3d 86dd efbc 608d 233d
00000150: 285d f7bc e8a4 86bd 973d 693d 5230 613d
00000160: 1d20 873d 327c 9c3c 32c4 653c b48d 143d
00000170: bff8 813d e88e 83bd 77fc 223d 5735 dbbb
00000180: 3502 dc3c de5c 32bd 4533 403d 1ef6 31bd
00000190: f968 133d c075 833c 3a44 7b3c 3a92 763c
000001a0: 99a6 8a3d 6386 56bc aaa8 673d 6f53 1cbd
000001b0: ed79 873b 7c72 3f3d adb9 0a3d 57e1 6e3d
000001c0: c5cc 803c e03c 903d 083e 8dbd 9964 783d
000001d0: 1cbd 783d 201c 15bd 404a 5ebc fcfa fe3c
000001e0: 9513 8abd 8302 13bd a5d2 863d 1482 ff3c
000001f0: 121a d2ba b9fd 5fbc b7f8 19bd 63ad 023c

crystalGraphConvNet.convs.1.bn1.weight f4 [128]
1.0009302 1.0003843 1.0024421 1.0000592 0.9992355 1.0014688 1.0012716 1.0015624
1.0058761 0.9999144 1.0018307 1.0003526 1.0002054 0.9989173 1.0018262 0.99858356
1.0008954 1.0069847 1.0008394 0.9999958 1.0007555 1.0005522 0.99995106 0.9998439
1.0038348 1.0006726 1.0005416 1.0008346 0.9998948 0.9982816 0.9984231 1.0082593
1.0061415 0.9996806 1.0043523 0.9998057 0.99926484 1.0003965 1.0003812 1.001205
1.0010725 1.0005099 1.000538 1.0042118 0.99986356 1.0006902 1.0001289 0.99893105
0.9996354 0.9996282 1.0040716 0.9989415 1.0049688 0.9995819 1.0017674 0.99979615
0.9994577 1.0011119 1.0006247 1.0003672 1.0007601 1.0012684 0.99807143 1.000595
1.0002035 0.99933934 1.0021865 1.0001153 0.9997456 0.99940044 0.9984174 1.0074772
0.99874926 1.0008671 1.0034138 1.0020152 1.0045578 1.0023634 1.0000216 1.000459
0.9983326 0.9986511 0.99910223 1.0003604 1.0005751 1.0020571 1.0017331 1.0015204
0.99647593 1.0074459 0.9997414 1.0034552 0.99830496 1.0018936 1.0036516 1.000861
1.0011669 1.0003225 1.0011369 0.9999934 1.0039166 1.0009412 0.9991681 0.99972034
1.002524 1.0033271 0.99934596 1.003367 0.99990594 0.9999235 1.0002196 1.000569
0.99834424 0.99930674 1.0047907 1.0005232 1.0034345 1.0021775 1.0106121 1.0007398
0.9994495 0.9993675 1.0020329 1.0033329 0.9998665 1.0021656 1.0045427 1.000811
00000000: 7b1e 803f 980c 803f 0650 803f f101 803f
00000010: e6cd 7f3f 2130 803f ab29 803f 3233 803f
00000020: 8cc0 803f 64fa 7f3f fd3b 803f 8e0b 803f
00000030: bb06 803f 0bb9 7f3f d73b 803f 2ca3 7f3f
00000040: 571d 803f e0e4 803f 811b 803f baff 7f3f
00000050: c218 803f 1812 803f cbfc 7f3f c5f5 7f3f
00000060: a97d 803f 0a16 803f bf11 803f 591b 803f
00000070: 1bf9 7f3f 628f 7f3f a898 7f3f a40e 813f
00000080: 3fc9 803f 11eb 7f3f 9e8e 803f 44f3 7f3f
00000090: d2cf 7f3f fe0c 803f 7e0c 803f 7c27 803f
000000a0: 2523 803f b510 803f a111 803f 038a 803f
000000b0: 0ff7 7f3f 9e16 803f 3904 803f f2b9 7f3f
000000c0: 1be8 7f3f a2e7 7f3f 6b85 803f a1ba 7f3f
000000d0: d1a2 803f 99e4 7f3f ea39 803f a4f2 7f3f
000000e0: 76dc 7f3f 6f24 803f 7814 803f 080c 803f
000000f0: e818 803f 9029 803f 9c81 7f3f 7f13 803f
00000100: ab06 803f b4d4 7f3f a647 803f c703 803f
00000110: 54ef 7f3f b5d8 7f3f 4898 7f3f 03f5 803f
00000120: 08ae 7f3f 6a1c 803f dd6f 803f 0942 803f
00000130: 5a95 803f 724d 803f b500 803f 0a0f 803f
00000140: ba92 7f3f 99a7 7f3f 2ac5 7f3f cf0b 803f
00000150: d812 803f 6843 803f ca38 803f d231 803f
00000160: 0c19 7f3f fdf3 803f 0def 7f3f 3871 803f
00000170: ea90 7f3f 0d3e 803f a877 803f 371c 803f
00000180: 3d26 803f 910a 803f 4125 803f 91ff 7f3f
00000190: 5780 803f d71e 803f 7bc9 7f3f aced 7f3f
000001a0: b552 803f 066d 803f 23d5 7f3f 546e 803f
000001b0: d6f9 7f3f fdfa 7f3f 3207 803f a512 803f
000001c0: 7d93 7f3f 91d2 7f3f fb9c 803f 2511 803f
000001d0: 8b70 803f 5a47 803f bd5b 813f 3e18 803f
000001e0: ecdb 7f3f 8cd6 7f3f 9d42 803f 366d 803f
000001f0: 40f7 7f3f f646 803f db94 803f 931a 803f
