get_descriptor_cgcnn/saved_models/hse_42.ckpt (torch, 675914 bytes, 58 tensors)

crystalGraphConvNet.embedding.weight f4 [64, 92]
-0.027763765 0.056942053 0.044858105 -0.06669326 -0.10496392 -0.07974942 -0.08203054 -0.03976139
0.031835917 0.06754694 -0.09133948 0.06614639 0.05725607 0.048423886 -0.0520295 -0.07680716
0.0071238284 0.027717687 -0.100925274 -0.0014532553 -0.03085706 -0.059370242 0.0670299 0.029485457
0.067022115 0.098327614 0.020765053 0.09296979 -0.08454207 0.030379046 0.01070485 -0.029953063
-0.010067812 0.050612297 -0.0560213 -0.03205406 -0.034159623 0.0055711675 0.06600801 0.036066875
0.0038769706 -0.013747467 -0.047052313 -0.006851091 0.061586298 -0.015460643 -0.09154017 -0.036798842
-0.010225349 0.058481086 -0.032222163 0.038880527 -0.0072987005 -0.023505678 -0.090610586 0.014954105
-0.016006386 -0.09157512 -0.024271963 0.06975672 0.03743952 -0.000981891 -0.07419507 0.0113957245
-0.044176023 -0.056991212 -0.06497685 0.04829796 -0.042108294 -0.051044233 -0.056487467 -0.10085338
-0.10877476 0.052730437 0.08946291 0.09123862 -0.095623694 -0.054656986 -0.07823005 0.039025865
-0.0032554206 0.10230754 -0.035858765 0.05074806 0.08581419 -0.08180112 0.11317927 0.044229455
-0.052630473 0.09329318 0.016286617 0.035485838 0.004699366 0.077160105 0.075201474 -0.028486112
0.023088295 0.066688694 0.075410195 -0.01831593 -0.0261832 -0.0038939188 -0.02935013 -0.089277595
-0.060038697 -0.037390187 -0.041432478 0.07472535 0.012036965 0.03308826 0.04294101 0.09745215
-0.03511612 0.044505548 -0.11495962 0.066314615 -0.04772969 -0.08971578 0.06154143 0.090358086
-0.054117337 0.030816238 0.07784423 0.04456003 -0.07422662 -0.010147779 0.009997185 -0.014085464
0.094107226 0.07377794 -0.08866237 0.09329475 -0.049607284 0.04421763 -0.046538316 -0.080585465
-0.0074088597 -0.06966506 -0.0765969 0.05308482 0.033201385 -0.09767967 0.030393712 -0.02589363
0.06533662 -0.0878619 0.050352138 0.046214204 -0.06509612 -0.096741326 -0.017528687 0.0782599
0.09879532 -0.034042854 -0.06931547 0.016231023 0.0024937144 0.03341987 -0.033930216 -0.0026801904
-0.014557685 0.0870436 0.021392556 -0.071214266 0.059603434 -0.030244421 -0.019361442 -0.1073951
0.07286575 0.029807033 0.10494752 -0.085282326 -0.009974277 -0.027778268 0.047768116 0.08607705
-0.03767697 0.031476356 0.024064753 -0.04436685 0.0517445 -0.090632215 -0.0073334654 -0.030291606
0.037373085 -0.05932743 -0.0134993065 -0.031041607 0.004311743 0.048129987 -0.053382393 0.07478603
-0.054737058 0.09730136 0.10356397 0.03673572 0.006335144 0.08123206 0.011645134 0.06445262
0.010313167 0.050415333 0.08857216 -0.10369324 -0.014882908 0.05654322 0.039859973 0.05252006
0.04890277 -0.098717 -0.012988023 0.025145592 -0.019635847 0.112495355 -0.045372516 -0.025780026
0.0049621863 -0.09596109 -0.07824978 -0.055784367 -0.05014901 -0.025879327 -0.042959698 0.07910343
-0.009693126 0.0285122 0.07313073 0.057222024 -0.03861108 0.10075904 -0.09474631 0.09264193
0.018311063 -0.010967164 -0.07668416 0.07302302 -0.03251657 0.07485823 0.06298606 -0.025828585
-0.027122142 -0.009051063 -0.010702894 0.109279625 -0.089684494 -0.011377523 0.07440304 0.06389837
0.049359612 -0.066861205 0.050618038 0.08466075 0.066753335 0.059285462 -0.013507227 0.018003447
00000000: d670 e3bc 123c 693d 22bd 373d 7a96 88bd
00000010: 53f7 d6bd aa53 a3bd a1ff a7bd d7dc 22bd
00000020: 6166 023d 0d56 8a3d 3110 bbbd c277 873d
00000030: 5785 6a3d 2058 463d e31c 55bd 134d 9dbd
00000040: 016f e93b 3410 e33c e9b1 cebd 287b beba
00000050: f2c7 fcbc 362e 73bd f946 893d 7c8b f13c
00000060: e442 893d fd5f c93d 791b aa3c f266 be3d
00000070: 6524 adbd 7add f83c 6563 2f3c 2060 f5bc
00000080: 77f3 24bc d74e 4f3d 9776 65bd 1e4b 03bd
00000090: f6ea 0bbd 578e b63b 352f 873d dcba 133d
000000a0: c614 7e3b 0e3d 61bc edb9 40bd 1e7f e0bb
000000b0: ea41 7c3d a34e 7dbc 6a79 bbbd 62ba 16bd
000000c0: 3988 27bc dd89 6f3d 63fb 03bd 3041 1f3d
000000d0: f029 efbb fb8e c0bc 0b92 b9bd 1002 753c
000000e0: d31f 83bc bd8b bbbd ffd5 c6bc 9cdc 8e3d
000000f0: 2f5a 193d cbb2 80ba 96f3 97bd 22b5 3a3c
00000100: ebf1 34bd 9e6f 69bd 9512 85bd 15d4 453d
00000110: bf79 2cbd c213 51bd 675f 67bd 388c cebd
00000120: 4dc5 debd dffb 573d 5538 b73d 50db ba3d
00000130: 5bd6 c3bd 01e0 5fbd 1437 a0bd 96d9 1f3d
00000140: e558 55bb 9e86 d13d a4e0 12bd 33dd 4f3d
00000150: 5abf af3d 5887 a7bd 88ca e73d f229 353d
00000160: 0d93 57bd 7f10 bf3d 836b 853c 9959 113d
00000170: 24fd 993b 1e06 9e3d 3b03 9a3d b55b e9bc
00000180: aa23 bd3c 1594 883d a970 9a3d 4a0b 96bc
00000190: 267e d6bc 1e31 7fbb af6f f0bc 2cd7 b6bd
000001a0: 23eb 75bd 7426 19bd 1ab5 29bd 9b09 993d
000001b0: b136 453c 8e87 073d eae2 2f3d fe94 c73d
000001c0: ecd5 0fbd 734b 363d f36f ebbd f5cf 873d
000001d0: 3580 43bd e8bc b7bd de12 7c3d a90d b93d
000001e0: 24aa 5dbd 5672 fc3c cc6c 9f3d 9484 363d
000001f0: 2004 98bd df42 26bc 3ccb 233c b8c6 66bc
00000200: 4abb c03d e318 973d 9e94 b5bd 5111 bf3d
00000210: 0231 4bbd 8c1d 353d f69e 3ebd fe09 a5bd
00000220: 05c6 f2bb 8eac 8ebd d6de 9cbd 786f 593d
00000230: 2dfe 073d 470c c8bd 3cfc f83c e11e d4bc
00000240: 35cf 853d f1f0 b3bd 0b3e 4e3d 1b4b 3d3d
00000250: 1d51 85bd 5120 c6bd 5298 8fbc ba46 a03d
00000260: 3355 ca3d 8570 0bbd 45f5 8dbd ecf6 843c
00000270: 966d 233b 46e3 083d 69fa 0abd 22a6 2fbb
00000280: 5b83 6ebc ea43 b23d 713f af3c c9d8 91bd
00000290: bb22 743d 26c3 f7bc e39b 9ebc f6f1 dbbd
000002a0: a33a 953d e12d f43c baee d63d 80a8 aebd
000002b0: 266b 23bc 408f e3bc 80a8 433d 2a49 b03d
000002c0: 2b53 1abd 5aed 003d 7223 c53c 04ba 35bd
000002d0: 0af2 533d 629d b9bd 914d f0bb 1a26 f8bc
000002e0: 8514 193d 5201 73bd 322c 5dbc f84a febc
000002f0: 8649 8d3b f323 453d 7fa7 5abd 6b29 993d
00000300: f733 60bd ef45 c73d 5919 d43d 3278 163d
00000310: 0a97 cf3b ff5c a63d 3bcb 3e3c bcff 833d
00000320: 8ff8 283c 4f80 4e3d 5265 b53d 1f5d d4bd
00000330: 71d7 73bc dd99 673d 3644 233d 461f 573d
00000340: 454e 483d 232c cabd b8cb 54bc 21fe cd3c
00000350: 5bdb a0bc f763 e63d 88d8 39bd a230 d3bc
00000360: d699 a23b 3f87 c4bd 6c41 a0bd 267e 64bd
00000370: 0c69 4dbd e200 d4bc 82f6 2fbd fb00 a23d
00000380: ebcf 1ebc 6b92 e93c 90c5 953d a461 6a3d
00000390: a726 1ebd c15a ce3d 5a0a c2bd 0dbb bd3d
000003a0: 1501 963c 9faf 33bc 960c 9dbd 188d 953d
000003b0: 1830 05bd 464f 993d d6fe 803d 7896 d3bc
000003c0: 412f debc e94a 14bc 315b 2fbc ffcd df3d
000003d0: 81ac b7bd ca68 3abc 9f60 983d 26dd 823d
000003e0: 4e2d 4a3d 87ee 88bd dc54 4f3d 9e62 ad3d
000003f0: f9b5 883d 50d5 723d 6b4d 5dbc f77b 933c

crystalGraphConvNet.embedding.bias f4 [64]
0.055937383 0.09143728 -0.006110118 -0.07776584 0.07968857 -0.026814857 0.032432817 0.00019183411
-0.049531676 0.035262752 0.043663204 0.08540965 -0.07566405 -0.07950496 -0.007009292 0.053736534
0.014054897 0.078281485 0.009768781 0.022837471 -0.052279517 -0.024034575 0.09569177 0.025512509
0.043327548 -0.060075883 -0.025254278 -0.05146606 -0.044992402 -0.056608498 0.048822425 -0.019802023
-0.0925689 -0.07120494 -0.09317023 0.001520618 0.002291794 -0.098336816 -0.05423091 0.029881697
-0.038116388 -0.10574061 -0.06403964 0.040468417 0.07145834 -0.017716661 -0.032639496 0.0902597
-0.052698586 -0.042507615 0.01344297 -0.011288937 -0.093891814 0.061393574 0.011694522 0.047231436
0.060568485 0.086573556 -0.03856653 -0.04102849 0.021899777 -0.07147028 0.067444846 -0.08653127
00000000: 991e 653d 7843 bb3d 6237 c8bb b243 9fbd
00000010: c333 a33d d5aa dbbc 46d8 043d 1427 4939
00000020: bae1 4abd ad6f 103d 30d8 323d 41eb ae3d
00000030: c1f5 9abd 7fd3 a2bd 34ae e5bb d71a 5c3d
00000040: 8346 663c 0b52 a03d 3d0d 203c a615 bb3c
00000050: 0c23 56bd 28e4 c4bc 0cfa c33d 9cff d03c
00000060: 3a78 313d 2112 76bd 0fe2 cebc 13ce 52bd
00000070: f449 38bd 50de 67bd 06fa 473d da37 a2bc
00000080: c394 bdbd e5d3 91bd 09d0 bebd 794f c73a
00000090: ec31 163b d064 c9bd 3b21 5ebd 76ca f43c
000000a0: ee1f 1cbd 888e d8bd 3727 83bd 36c2 253d
000000b0: c058 923d 8822 91bc feb0 05bd 14da b83d
000000c0: 79da 57bd 771c 2ebd e73f 5c3c 3cf5 38bc
000000d0: 5a4a c0bd d477 7b3d 619a 3f3c c075 413d
000000e0: a916 783d 7a4d b13d f0f7 1dbd 7d0d 28bd
000000f0: 2967 b33c 035f 92bd 8620 8a3d 4e37 b1bd

crystalGraphConvNet.convs.0.fc_full.weight f4 [128, 169]
-0.052023612 0.009403828 0.037347205 0.00051639474 -0.054609235 0.009243371 0.06017324 -0.037832357
0.025875036 0.037395768 -0.048894525 0.07058456 -0.083915874 0.027492682 -0.0491881 -0.06155576
0.07524185 -0.06021018 -0.0012056181 -0.06958423 -0.044644576 -0.037782956 -0.0050219386 0.069731094
-0.038996354 0.07467369 0.0012192487 0.0063778325 -0.05429649 -0.038065877 0.010828456 0.0034067617
-0.051105376 -0.037768267 0.054800533 0.056991864 0.079133846 0.06739857 0.020615302 0.02993559
-0.0027180929 -0.0021358847 -0.012191073 -0.042255823 0.08197361 -0.034854043 -0.07029262 -0.023700528
-0.0010426325 -0.03659409 -0.008918947 0.0017459355 0.07052596 -0.009396105 -0.06467584 -0.004040969
-0.05058092 0.040187545 -0.015122144 0.028204096 0.051781435 -0.04230155 0.004976124 0.06512075
-0.006920551 0.025202466 0.043394525 -0.031082315 -0.05141107 0.07861848 -0.012464758 -0.018457625
0.06588979 0.05821955 0.027270937 -0.02972532 -0.05696871 0.022543428 0.018635713 0.069514155
-0.042651564 0.04983756 0.0029586433 -0.05129242 -0.035580754 -0.022146514 -0.07155301 -0.01018831
-0.0091253 0.041544616 0.026074234 0.047652952 0.06575545 -0.04565283 -0.049272608 -0.03459367
0.012719821 0.0034965533 0.027187495 -0.064874314 -0.06299595 0.061713014 -0.022695877 -0.045065925
0.018347533 0.0074234335 0.02049865 -0.07126817 0.058049697 -0.019685943 -0.07109474 -0.03899227
0.004576152 0.030813837 -0.031653747 -0.03863732 -0.060318016 -0.06569613 0.05089695 -0.03754784
-0.023580471 0.03876582 0.06478537 -0.04740349 -0.05163169 0.056155212 0.05234251 0.018667497
0.02768481 -0.0009120795 0.053981606 -0.034638423 -0.010711129 0.06091015 0.065871164 0.04053742
0.07492086 -0.040028885 0.058451787 0.0027812913 -0.060860943 -0.029839063 -0.043597337 -0.03852164
0.06249729 -0.067310594 0.016389512 0.015444599 0.03419216 -0.036289535 0.00040183007 0.013733956
0.009284301 0.011797602 -0.04440869 0.01590109 -0.053417258 -0.049932122 -0.0694372 -0.015705528
0.035326842 -0.032470275 0.074547224 0.018970499 0.0685022 0.0371449 -0.0748649 0.06885482
0.07215609 -0.059153147 0.034265798 -0.013338548 0.058886103 -0.0093886005 0.060139693 -0.023864005
-0.048288155 0.034170017 0.058455147 -0.052813157 -0.008788121 0.040180355 0.017030554 0.04352605
-0.065213054 0.0521918 0.036474254 -0.0029109286 -0.048807684 -0.0129922135 0.06453996 0.0059030177
0.0115945125 -0.025350943 -0.055538088 0.060561128 0.007630299 0.05779513 -0.041309096 0.044673767
-0.066610195 0.023124605 -0.060008213 0.006231676 -0.0673128 0.0627812 0.04873722 -0.05362223
0.03475615 0.07769019 -0.062208015 0.0022207096 0.012241085 0.023837268 0.015687907 -0.059068426
0.051019378 0.02245614 0.023370441 0.038789473 -0.072926365 0.042225365 0.014449835 -0.02523234
0.003744925 0.03526492 -0.07251615 -0.013240954 -0.014494745 0.07353794 -0.015428393 0.059213147
-0.030006364 0.018023184 0.07683736 0.06706878 0.043973885 0.022897843 0.040447515 0.049864497
0.029846746 0.06997933 0.051518966 -0.06729954 -0.07312369 -0.027540626 -0.049216826 0.0054534744
-0.015294604 -0.047401536 -0.0002651209 0.050923944 -0.040864274 -0.05405544 0.009286359 0.025387406
00000000: b616 55bd 8312 1a3c 62f9 183d aa5e 073a
00000010: efad 5fbd 8271 173c 3778 763d 1af6 1abd
00000020: e2f7 d33c 4e2c 193d a045 48bd a38e 903d
00000030: 16dc abbd 5538 e13c 7679 49bd e521 7cbd
00000040: 6618 9a3d f39e 76bd d505 9eba 2d82 8ebd
00000050: 3bdd 36bd 4dc2 1abd 138f a4bb 2dcf 8e3d
00000060: a4ba 1fbd 85ee 983d 33cf 9f3a 23fd d03b
00000070: ff65 5ebd f7ea 1bbd d669 313c fa43 5f3b
00000080: df53 51bd e6b2 1abd 8676 603d 4d70 693d
00000090: ed10 a23d 4308 8a3d 6ce1 a83c 7c3b f53c
000000a0: 0822 32bb 33fa 0bbb 11bd 47bc 7114 2dbd
000000b0: c8e1 a73d 1dc3 0ebd 94f5 8fbd 9c27 c2bc
000000c0: f1a8 88ba afe3 15bd c620 12bc e0d7 e43a
000000d0: ea6f 903d 1ff2 19bc c474 84bd 1b6a 84bb
000000e0: f02d 4fbd b29b 243d dec2 77bc 470c e73c
000000f0: c518 543d 6444 2dbd c10e a33b 075e 853d
00000100: cac5 e2bb 6775 ce3c 75be 313d 57a0 febc
00000110: 6a94 52bd ba02 a13d fc38 4cbc 7234 97bc
00000120: 3af1 863d 9f77 6e3d 4d67 df3c 8482 f3bc
00000130: 0658 69bd ffac b83c eca9 983c 705d 8e3d
00000140: 68b3 2ebd 7822 4c3d cce5 413b 0018 52bd
00000150: 20bd 11bd 9b6c b5bc 628a 92bd dfec 26bc
00000160: 4882 15bc b02a 2a3d a299 d53c be2f 433d
00000170: cbaa 863d 76fe 3abd 13d2 49bd 18b2 0dbd
00000180: cc66 503c 6e26 653b 4fb8 de3c d3dc 84bd
00000190: 0504 81bd c9c6 7c3d b4ec b9bc 0c97 38bd
000001a0: 914d 963c 4640 f33b c9ec a73c 0cf5 91bd
000001b0: 85c5 6d3d 6a44 a1bc 1e9a 91bd 5cb6 1fbd
000001c0: 8cf3 953b 4d6d fc3c 5ca7 01bd 2b42 1ebd
000001d0: 0610 77bd b18b 86bd 5279 503d c4cb 19bd
000001e0: d52b c1bc e9c8 1e3d 31ae 843d 292a 42bd
000001f0: c07b 53bd 0203 663d 1a65 563d 94ec 983c
00000200: 41cb e23c 9e18 6fba d11b 5d3d 05e1 0dbd
00000210: bb7d 2fbc ec7c 793d 76e7 863d 910a 263d
00000220: 1c70 993d 54f5 23bd 246b 6f3d 5346 363b
00000230: 5349 79bd 0d71 f4bc 1f93 32bd dec8 1dbd
00000240: 29fd 7f3d 23da 89bd 4c43 863c 580b 7d3c
00000250: 140d 0c3d 56a4 14bd b8ac d239 6304 613c
00000260: 2e1d 183c bb4a 413c e3e5 35bd 0143 823c
00000270: 0ecc 5abd a085 4cbd 1735 8ebd e1a8 80bc
00000280: e1b2 103d 8dff 04bd 37ac 983d 0568 9b3c
00000290: e24a 8c3d 4025 183d c552 99bd c203 8d3d
000002a0: 92c6 933d 924a 72bd 4b5a 0c3d ed89 5abc
000002b0: 8e32 713d a5d2 19bc 0a55 763d 727e c3bc
000002c0: cdc9 45bd dcf5 0b3d aa6e 6f3d 9c52 58bd
000002d0: 0dfc 0fbc 2894 243d a983 8b3c 5f48 323d
000002e0: 6c8e 85bd 12c7 553d 0766 153d 47c5 3ebb
000002f0: 91ea 47bd 4bdd 54bc 872d 843d 1a6e c13b
00000300: e9f6 3d3c c8ac cfbc e87b 63bd f20e 783d
00000310: 9607 fa3b 96ba 6c3d ba33 29bd d7fb 363d
00000320: ed6a 88bd d06f bd3c 2ccb 75bd 1633 cc3b
00000330: 4bdb 89bd 6e93 803d aea0 473d fca2 5bbd
00000340: 775c 0e3d 091c 9f3d d5cd 7ebd 5389 113b
00000350: d58e 483c 6046 c33c ed83 803c bcf1 71bd
00000360: b2f9 503d f0f5 b73c 5e73 bf3c b6e1 1e3d
00000370: 6b5a 95bd 81f4 2c3d 00bf 6c3c 0db4 cebc
00000380: 6a6d 753b f371 103d 5983 94bd 96f0 58bc
00000390: 5e7b 6dbc 0f9b 963d 5fc7 7cbc 7c89 723d
000003a0: e8cf f5bc 5ba5 933c e85c 9d3d 5b5b 893d
000003b0: f61d 343d 4294 bb3c 4bac 253d b73e 4c3d
000003c0: 2a81 f43c 5351 8f3d 8d05 533d 57d4 89bd
000003d0: e0c1 95bd e19c e1bc 9597 49bd 0fb3 b23b
000003e0: 3896 7abc 1d28 42bd edff 8ab9 a095 503d
000003f0: 4c61 27bd 3d69 5dbd d025 183c 40f9 cf3c

crystalGraphConvNet.convs.0.fc_full.bias f4 [128]
0.028442867 -0.072979026 0.009639403 -0.02906383 -0.04045009 0.021143278 0.07292261 -0.07621334
0.01543096 0.012754651 0.0004894681 0.043516655 0.05232094 0.06081239 0.047814038 -0.068889394
-0.048194863 -0.02919469 0.04864969 0.049391612 -0.025043854 -0.074349605 -0.0035142358 0.030271702
-0.03544384 -0.055686556 0.026146453 -0.039863225 0.04360592 0.05144592 -0.0011492051 -0.046206128
0.06713146 -0.035438232 -0.027648166 0.049791466 0.054779697 0.0012418146 -0.0027961086 0.042327125
0.038663205 0.06530984 0.034582708 0.06556891 0.047389913 0.06041684 -0.027682874 -0.029415356
-0.0016250678 -0.010309416 0.04349595 -0.009063998 -0.010153906 -0.042000066 0.04727874 -0.07464407
0.0106470445 0.032664735 0.025780836 -0.029045431 0.04632552 0.05321348 -0.031665657 0.04329713
0.015768245 0.06917028 0.031192373 0.018928865 -0.011241851 -0.06560533 -0.04404102 0.011281585
-0.01735138 -0.059108526 -0.0075895973 -0.0014696815 -0.034289848 -0.01300854 0.07199075 0.033898413
0.06338766 -0.023756329 -0.00434839 0.040621366 0.0045084306 0.04433262 -0.046456374 -0.02623551
-0.03661778 0.062418908 0.07000906 0.06878788 -0.0088900905 0.0074108625 -0.007809373 -0.036946714
0.05127951 0.04508358 0.034846343 0.046692345 0.07352075 0.034552045 -0.022576813 -0.067819364
0.03341202 -0.035702262 -0.038079508 0.060140822 -0.062168222 0.0027817464 -0.044348452 0.02796798
0.004479442 -0.07656243 -0.049787458 0.021606458 0.002103204 0.07240866 0.0028051971 -0.015620198
0.039953988 -0.013738905 -0.0710199 0.028735107 -0.042511567 0.06838161 0.043748196 0.06924526
00000000: 0401 e93c 0776 95bd 96ee 1d3c 4517 eebc
00000010: feae 25bd ab34 ad3c 7358 953d bd15 9cbd
00000020: 23d2 7c3c e2f8 503c a64f 003a 853e 323d
00000030: 7b4e 563d 6a16 793d a7d8 433d e215 8dbd
00000040: fa67 45bd b429 efbc e644 473d dc4e 4a3d
00000050: c528 cdbc 9b44 98bd 184f 66bb 5cfc f73c
00000060: 8f2d 11bd 9617 64bd 1631 d63c 9f47 23bd
00000070: 1f9c 323d f5b8 523d eda0 96ba a342 3dbd
00000080: 387c 893d ae27 11bd 687e e2bc 23f2 4b3d
00000090: ad60 603d 62c4 a23a eb3e 37bb 355f 2d3d
000000a0: 4f5d 1e3d 2ac1 853d 99a6 0d3d fe48 863d
000000b0: ed1b 423d a677 773d 32c7 e2bc 79f8 f0bc
000000c0: 3a00 d5ba d3e8 28bc cf28 323d 2a81 14bc
000000d0: 925c 26bc 4308 2cbd 5aa7 413d fdde 98bd
000000e0: f170 2e3c 75cb 053d 5532 d33c aff0 edbc
000000f0: d4bf 3d3d 61f6 593d d9b3 01bd 5558 313d
00000100: 682c 813c 26a9 8d3d 2687 ff3c b510 9b3c
00000110: be2f 38bc 165c 86bd 5b64 34bd 66d6 383c
00000120: 7b24 8ebc c81b 72bd 28b2 f8bb 54a2 c0ba
00000130: 8373 0cbd c521 55bc e36f 933d 10d9 0a3d
00000140: 64d1 813d a29c c2bc f07c 8ebb 9762 263d
00000150: 75bb 933b 1f96 353d 0a49 3ebd daeb d6bc
00000160: 86fc 15bd f8aa 7f3d e960 8f3d a9e0 8c3d
00000170: bea7 11bc d2d6 f23b c5e5 ffbb 7055 17bd
00000180: 770a 523d 8fa9 383d 0abb 0e3d 7940 3f3d
00000190: 0c92 963d 7286 0d3d 02f3 b8bc e1e4 8abd
000001a0: 0bdb 083d 893c 12bd 42f9 1bbd 3956 763d
000001b0: 1ba4 7ebd f64d 363b b9a6 35bd 1b1d e53c
000001c0: 48c8 923b c3cc 9cbd efed 4bbd 0700 b13c
000001d0: e8d5 093b fe4a 943d 66d7 373b dceb 7fbc
000001e0: cba6 233d 2519 61bc e272 91bd e365 eb3c
000001f0: 9c20 2ebd a80b 8c3d 4f31 333d 75d0 8d3d

crystalGraphConvNet.convs.0.bn1.weight f4 [128]
1.0028006 1.0015754 1.002468 0.9995376 0.99976534 1.0012239 1.0006201 0.9992901
1.0084261 0.99991286 1.0012153 1.0025445 1.0013351 0.99911165 1.0010867 0.996675
1.0012488 0.99910754 1.0003167 0.9999052 1.0011075 1.0019406 1.0021518 1.0004351
1.0019386 1.0052874 1.003952 0.998371 0.99953765 1.0094119 1.0012351 1.0016992
1.0002745 0.9977762 1.000587 0.9998596 1.0043192 1.0005069 1.0018283 1.0011783
0.9978499 1.0132126 0.9978792 0.9994464 1.0016092 1.0034512 1.005309 1.0104886
1.0086398 0.9982526 1.0050671 1.0086035 0.9989927 0.99996436 0.99891096 1.0040978
1.0009669 1.0030506 1.0018904 1.0008703 0.9991145 1.004195 0.998265 0.99784255
1.0027808 0.99842334 1.0033797 1.0021051 1.0001812 0.99913245 0.9958925 0.997478
1.0007552 1.0008688 1.000711 0.9993982 1.0052087 1.0049441 0.9996452 1.0022744
1.002653 1.0038774 1.0031477 0.9985432 1.0009577 1.0000368 0.9987902 0.9986974
1.0018351 0.9955391 0.99862826 1.001611 1.0020587 1.00388 1.0034809 0.9981613
0.99909794 1.0019447 0.99910384 0.9996675 0.9953024 1.0004194 0.9995594 1.0016457
0.9991929 1.0084348 1.0044801 1.003515 1.0004549 1.0000085 1.0007181 0.99888486
1.0085847 1.0010654 0.998623 1.0025109 0.9997325 1.0008801 0.9992698 1.0057219
0.9997214 1.0043572 1.0016332 0.9982831 1.0025121 1.0024977 1.0002388 1.0040214
00000000: c55b 803f 9f33 803f df50 803f b2e1 7f3f
00000010: 9ff0 7f3f 1b28 803f 5214 803f 7ad1 7f3f
00000020: 1b14 813f 4afa 7f3f d327 803f 6153 803f
00000030: c02b 803f c8c5 7f3f 9c23 803f 1826 7f3f
00000040: ec28 803f 83c5 7f3f 610a 803f caf9 7f3f
00000050: 4a24 803f 973f 803f 8346 803f 420e 803f
00000060: 863f 803f 42ad 803f 8081 803f 3e95 7f3f
00000070: b3e1 7f3f 6934 813f 7928 803f ae37 803f
00000080: ff08 803f 436e 7f3f 3c13 803f ccf6 7f3f
00000090: 888d 803f 9c10 803f e93b 803f 9c26 803f
000000a0: 1773 7f3f f3b0 813f 0375 7f3f b8db 7f3f
000000b0: bb34 803f 1771 803f f7ad 803f b157 813f
000000c0: 1c1b 813f 7b8d 7f3f 0aa6 803f eb19 813f
000000d0: fcbd 7f3f aafd 7f3f a1b8 7f3f 4786 803f
000000e0: af1f 803f f663 803f f23d 803f 851c 803f
000000f0: f8c5 7f3f 7689 803f 4c8e 7f3f 9c72 7f3f
00000100: 1f5b 803f ac98 7f3f bf6e 803f fb44 803f
00000110: f005 803f 25c7 7f3f d0f2 7e3f b85a 7f3f
00000120: bf18 803f 781c 803f 4c17 803f 8fd8 7f3f
00000130: aeaa 803f 02a2 803f bfe8 7f3f 874a 803f
00000140: ef56 803f 0e7f 803f 2567 803f 87a0 7f3f
00000150: 621f 803f 3501 803f b7b0 7f3f a2aa 7f3f
00000160: 223c 803f a7db 7e3f 1aa6 7f3f ca34 803f
00000170: 7643 803f 247f 803f 1072 803f 8087 7f3f
00000180: e2c4 7f3f b93f 803f 45c5 7f3f 36ea 7f3f
00000190: 23cc 7e3f be0d 803f 20e3 7f3f ed35 803f
000001a0: 1bcb 7f3f 6414 813f ce92 803f 2e73 803f
000001b0: e80e 803f 4700 803f 8817 803f ebb6 7f3f
000001c0: 4e19 813f e922 803f c2a5 7f3f 4752 803f
000001d0: 78ee 7f3f d71c 803f 25d0 7f3f 7fbb 803f
000001e0: beed 7f3f c78e 803f 8435 803f 7b8f 7f3f
000001f0: 5152 803f d851 803f d307 803f c683 803f

crystalGraphConvNet.convs.0.bn1.bias f4 [128]
-0.0003364408 -0.0024215095 0.0009611119 0.002615722 -0.00031404145 -0.0013213515 0.0006000708 0.0019417913
-0.0019614622 0.00084110367 0.00072082184 -0.0008651865 -0.0002778998 0.0004174825 0.0004879843 0.003197278
-0.0025579724 0.0023507653 -0.004061705 -0.000727104 -0.0014522288 -0.0016189943 -0.0011270385 0.0012787156
0.0005314959 -0.0013557737 -0.00410982 0.0013820708 -0.0007019394 0.0016727779 3.5691826e-06 -0.0013769644
-0.0012713841 0.0006581115 -0.0010344791 0.001428811 0.0038713296 -0.00010833965 -0.0014978109 0.0013726914
-0.0012930254 -0.011328097 0.0005019125 0.0018475555 -0.00053088705 -0.0033011104 -0.003024064 0.0013770943
-0.002794706 0.0013663935 -0.0017673201 -0.0045054373 -0.00040510434 -4.392727e-05 0.00085602724 -0.0024545547
0.0010204245 -0.0045030653 -7.357629e-05 -0.000749678 0.0014648609 -0.0012857406 -0.00029743285 -0.00015017607
0.00012896518 0.0007277697 -0.0015952116 -0.00016534147 0.00034020288 -0.00027252742 0.0013811807 0.0012267034
-0.002393298 1.5288865e-07 -4.088595e-05 0.00026803825 -0.0028972756 -0.0020518946 0.00010519756 -2.7455208e-05
-0.0020708968 -0.0012010207 -0.0023269511 0.0009963266 -0.0006765877 0.00056708365 -0.00026404124 0.00090497936
-0.0010351874 0.0020080057 0.00039399354 -0.0005148614 -0.00090866897 -0.0020747173 -0.0016318519 0.00012616695
0.0002848753 -0.0007041963 0.00032559043 0.000608819 0.002715189 -5.240287e-05 0.00015075972 -0.00029576366
0.00072045566 -0.008498931 -0.001635761 -0.0014426137 6.022728e-05 0.0010600772 -0.0007883794 0.00070859666
-0.0064699803 -0.0005908269 0.00077680126 -0.0032916428 0.00037894357 0.00046390464 0.0010913077 -0.00092351635
-0.00013475372 -0.0030088664 -0.0004053946 0.000792402 -0.0014135427 -0.001427456 0.0002538985 -0.002536808
00000000: 5264 b0b9 30b2 1ebb 21f3 7b3a 886c 2b3b
00000010: eea5 a4b9 3331 adba 124e 1d3a b483 fe3a
00000020: e08b 00bb 837d 5c3a 89f5 3c3a afcd 62ba
00000030: 14b3 91b9 8de1 da39 25d8 ff39 6c89 513b
00000040: a8a3 27bb 4c0f 1a3b 0d18 85bb 209b 3eba
00000050: b658 beba 6f34 d4ba 23b9 93ba 939a a73a
00000060: 1654 0b3a 37b4 b1ba abab 86bb 9a26 b53a
00000070: 5b02 38ba 1d41 db3a 1786 6f36 427b b4ba
00000080: 92a4 a6ba 1d85 2c3a 5c97 87ba f146 bb3a
00000090: 22b6 7d3b 6834 e3b8 3252 c4ba e1eb b33a
000000a0: bc7a a9ba 7c99 39bc c792 033a ad29 f23a
000000b0: 3a2b 0bba 7157 58bb 602f 46bb 9e7f b43a
000000c0: 6327 37bb 8f18 b33a 6ca5 e7ba 59a2 93bb
000000d0: 2f64 d4b9 8c3e 38b8 0467 603a 98dc 20bb
000000e0: c4bf 853a 738e 93bb f84c 9ab8 0a86 44ba
000000f0: 9300 c03a 4c86 a8ba c3f0 9bb9 9578 1db9
00000100: d43a 0739 ccc7 3e3a 6b16 d1ba 835f 2db9
00000110: 425d b239 03e2 8eb9 bc08 b53a 56c9 a03a
00000120: e1d8 1cbb b629 2434 f47c 2bb8 7c87 8c39
00000130: 38e0 3dbb 1479 06bb 839d dc38 9c4f e6b7
00000140: e2b7 07bb 916b 9dba c37f 18bb 2c97 823a
00000150: 085d 31ba 57a8 143a 046f 8ab9 233c 6d3a
00000160: 20af 87ba bf98 033b eb90 ce39 c3f7 06ba
00000170: be33 6eba fbf7 07bb dde3 d5ba af4b 0439
00000180: 515b 9539 d099 38ba 02b4 aa39 2799 1f3a
00000190: 50f1 313b 27cb 5bb8 4115 1e39 ba10 9bb9
000001a0: f6dc 3c3a 1a3f 0bbc 0867 d6ba 1516 bdba
000001b0: 8d9c 7c38 4af2 8a3a 3fab 4eba 1ec1 393a
000001c0: 2102 d4bb b9e1 1aba 40a2 4b3a 9ab8 57bb
000001d0: f2ac c639 3a38 f339 360a 8f3a 2218 72ba
000001e0: ad4c 0db9 6730 45bb 248b d4b9 33b9 4f3a
000001f0: 9f46 b9ba 7a19 bbba ae1d 8539 9340 26bb

crystalGraphConvNet.convs.0.bn1.running_mean f4 [128]
-0.06048094 -0.07754551 0.02699816 -0.006670721 -0.014506797 0.06206372 0.03230005 0.019896388
0.027211744 -0.016438128 0.035481945 0.070490286 0.027371831 0.03362952 0.03723281 -0.005950802
-0.046143085 -0.025518304 -0.009308371 -0.0128105385 -0.11970757 -0.07030449 0.046385176 -0.007324804
-0.01998348 0.005949875 0.13378514 -0.11331204 0.108745724 0.13548738 0.05124485 0.011324809
-0.015980484 -0.059186187 -0.03270914 0.03412808 0.07148325 -0.050182514 0.039876558 -0.021761058
-0.088170685 0.15370199 0.062094927 0.11680335 -0.020388285 -0.010950321 -0.010830692 -0.032725
0.03185502 0.06251308 0.056979306 -0.034313463 -0.009982787 0.055093076 0.008742012 -0.16044179
0.011397109 0.010281476 0.0015456248 -0.13003685 0.10670754 0.1122902 0.0028699343 0.07294611
-0.024494555 -0.05996366 0.15662076 -0.023508105 -0.044987265 -0.1181635 -0.04155443 -0.077566765
-0.013488983 0.087427385 -0.023828281 -0.1073213 0.042892672 0.006155662 0.060721766 -0.005900074
0.06220028 0.042530082 -0.011359613 0.06408148 -0.05225181 0.04302519 0.044467546 -0.060725525
0.02959995 0.08730213 0.015253084 0.07211927 0.0037334776 -0.046202164 0.007496105 -0.091552846
0.23011498 0.10787888 -0.058828514 -0.04008075 0.05315239 0.044213206 -0.028551638 0.062370624
-0.06804733 -0.052286346 -0.11257908 -0.04968859 -0.0020205423 0.037374362 -0.123266146 0.05495753
-0.01961454 -0.07005177 0.0036118121 0.03349229 -0.08714965 0.027603317 0.048218075 -0.015894754
0.028946543 0.0653104 -0.060225155 0.03480058 -0.1164503 0.15074871 0.0038544072 0.1010022
00000000: ddba 77bd 2ed0 9ebd 3f2b dd3c 1096 dabb
00000010: ebad 6dbc 8736 7e3d 0f4d 043d c0fd a23c
00000020: 2aeb de3c 41a9 86bc 8455 113d 365d 903d
00000030: e43a e03c 1cbf 093d 6e81 183d f2fe c2bb
00000040: 8800 3dbd c30b d1bc 2382 18bc 4be3 51bc
00000050: 3e29 f5bd cdfb 8fbd 62fe 3d3d e904 f0bb
00000060: 65b4 a3bc 2bf7 c23b f9fe 083e 2510 e8bd
00000070: 14b6 de3d 34bd 0a3e 1fe6 513d b18b 393c
00000080: 81e9 82bc 376d 72bd 05fa 05bd e3c9 0b3d
00000090: cf65 923d 2e8c 4dbd 9a55 233d 3f44 b2bc
000000a0: d592 b4bd 0e64 1d3e 4057 7e3d 9836 ef3d
000000b0: 5505 a7bc fa68 33bc 3773 31bc a60a 06bd
000000c0: 697a 023d dc06 803d 2263 693d 468c 0cbd
000000d0: d88e 23bc 47a9 613d a83a 0f3c da4a 24be
000000e0: f1ba 3a3c a373 283c 9096 ca3a 6128 05be
000000f0: 7c89 da3d 68f8 e53d 8215 3c3b c564 953d
00000100: cea8 c8bc 749c 75bd 3161 203e 1294 c0bc
00000110: 9144 38bd b5ff f1bd fa34 2abd 53db 9ebd
00000120: e500 5dbc 210d b33d 8733 c3bc 45cb dbbd
00000130: 3ab0 2f3d 6fb5 c93b 63b7 783d 6855 c1bb
00000140: b9c5 7e3d 0634 2e3d ac1d 3abc 273d 833d
00000150: fe05 56bd 2e3b 303d 9a23 363d 54bb 78bd
00000160: 987b f23c 76cb b23d 12e8 793c 45b3 933d
00000170: 5cad 743b 7b3e 3dbd e3a1 f53b 0f80 bbbd
00000180: 43a3 6b3e 9aef dc3d 2bf6 70bd b62b 24bd
00000190: 52b6 593d e818 353d 20e5 e9bc 5778 7f3d
000001a0: 665c 8bbd 352a 56bd dc8f e6bd 4386 4bbd
000001b0: 136b 04bb dc15 193d f672 fcbd 261b 613d
000001c0: acae a0bc 4d77 8fbd 27b4 6c3b 362f 093d
000001d0: 847b b2bd 5a20 e23c 5180 453d b735 82bc
000001e0: 4d21 ed3c 76c1 853d a7ae 76bd 0e8b 0e3d
000001f0: 7f7d eebd df5d 1a3e 399a 7c3b 3eda ce3d

crystalGraphConvNet.convs.0.bn1.running_var f4 [128]
0.013044753 0.0065092994 0.0066199796 0.008979754 0.007027631 0.011624065 0.0072346916 0.013946731
0.009595273 0.011340139 0.009101617 0.012463889 0.0070149386 0.008835807 0.016453147 0.008464542
0.0077170026 0.012637486 0.0059072147 0.014777138 0.00903289 0.009076357 0.0059099635 0.008613923
0.009687391 0.01257713 0.0078284405 0.010299265 0.006672485 0.011709744 0.0057503534 0.011632329
0.007159439 0.006559693 0.014626473 0.0055837315 0.010698648 0.007455385 0.0083468165 0.012200241
0.013482677 0.014266043 0.014652038 0.014136311 0.008509855 0.012627648 0.009070061 0.011072988
0.0106823575 0.016682122 0.009257852 0.006698046 0.00831855 0.0101794945 0.0073822653 0.012367748
0.010568019 0.0069891233 0.01404943 0.01089359 0.014244864 0.00530807 0.01291889 0.011655276
0.014893212 0.009956071 0.009188453 0.009298002 0.011492635 0.005882888 0.014787632 0.012665948
0.010927827 0.013142364 0.01427238 0.014750482 0.0072032227 0.009262877 0.009890292 0.013156236
0.008890291 0.020486653 0.008010404 0.011593333 0.010800615 0.0077483887 0.009399695 0.00874807
0.013633713 0.008696897 0.0095126415 0.010412819 0.006192802 0.012095181 0.0075971726 0.0074062464
0.011405382 0.008434021 0.0214571 0.010875836 0.015982766 0.008076238 0.009543106 0.020230627
0.010502709 0.014800615 0.007067952 0.013395509 0.0070310147 0.017410334 0.0074787065 0.01810906
0.015669513 0.020537855 0.014233104 0.016031913 0.012446086 0.016387751 0.017122772 0.012954049
0.008647379 0.013947455 0.008454232 0.00934363 0.007944218 0.00752603 0.022482764 0.011033914
00000000: a9b9 553c f64b d53b 6aec d83b d11f 133c
00000010: 0b48 e63b dd72 3e3c fe10 ed3b d480 643c
00000020: 7e35 1d3c fecb 393c f31e 153c 5735 4c3c
00000030: 92dd e53b 10c4 103c c0c8 863c ddae 0a3c
00000040: e9de fc3b 750d 4f3c 4f91 c13b cf1b 723c
00000050: b0fe 133c 00b5 143c 5ea8 c13b 6921 0d3c
00000060: ddb7 1e3c 4f10 4e3c dc42 003c 40be 283c
00000070: dca4 da3b 3ada 3f3c 766d bc3b 8695 3e3c
00000080: ba99 ea3b b1f2 d63b e0a3 6f3c bcf7 b63b
00000090: 6249 2f3c 4d4c f43b 16c1 083c 85e3 473c
000000a0: 72e6 5c3c 1fbc 693c 1a0f 703c fc9b 673c
000000b0: eb6c 0b3c 32e4 4e3c 989a 143c 7a6b 353c
000000c0: 0e05 2f3c f2a8 883c 3fae 173c 487b db3b
000000d0: 874a 083c e5c7 263c eee6 f13b 18a2 4a3c
000000e0: 7c25 2d3c 0405 e53b 952f 663c 077b 323c
000000f0: 4a63 693c 52ef ad3b c1a9 533c c5f5 3e3c
00000100: a902 743c ca1e 233c 2a8b 163c a656 183c
00000110: 9b4b 3c3c 3ec5 c03b d347 723c d684 4f3c
00000120: a10a 333c 1253 573c b3d6 693c 01ac 713c
00000130: 0309 ec3b 52c3 173c e40a 223c 418d 573c
00000140: 95a8 113c a0d3 a73c 123e 033c f7f1 3d3c
00000150: 10f5 303c 32e6 fd3b 2e01 1a3c 1154 0f3c
00000160: f05f 5f3c 6e7d 0e3c e9da 1b3c 879a 2a3c
00000170: fdec ca3b de2a 463c b4f1 f83b 19b0 f23b
00000180: a4dd 3a3c d92e 0a3c cdc6 af3c 9030 323c
00000190: 4aee 823c 3352 043c b05a 1c3c b3ba a53c
000001a0: 8e13 2c3c 477e 723c 479a e73b d678 5b3c
000001b0: 6d64 e63b 1ea0 8e3c f00f f53b 7459 943c
000001c0: 5a5d 803c 013f a83c f731 693c 5c55 833c
000001d0: abea 4b3c 9b3f 863c 0e45 8c3c 383d 543c
000001e0: bdad 0d3c de83 643c 9e83 0a3c 0616 193c
000001f0: 7728 023c ea9c f63b c62d b83c 97c7 343c

crystalGraphConvNet.convs.0.bn2.weight f4 [64]
1.0006225 0.99706954 1.0055568 1.0050491 0.99525684 0.99954635 0.9945806 0.9948644
0.9995236 0.99476343 0.9936022 0.9999708 1.0116365 0.9984537 0.9950399 0.9968279
1.0085534 1.0001538 1.003967 1.0012484 1.0037265 1.0016451 0.9896633 0.9896699
0.99712366 0.99604386 1.0022708 0.985363 1.0020657 1.0055817 1.0020943 0.996935
0.9885471 1.0006229 1.0012426 0.9898834 0.98248595 1.0000961 0.99415326 1.013632
0.98586285 1.0387086 1.004841 1.0031773 1.0000523 1.0031086 1.0014353 1.0001019
1.0223151 0.98517025 1.0027437 1.0113926 0.9964943 0.9985457 0.9964927 0.9974891
0.9909307 1.009134 1.0099537 0.998139 0.9968339 1.0092473 1.0009362 1.0107734
00000000: 6614 803f f33f 7f3f 16b6 803f 73a5 803f
00000010: 27c9 7e3f 45e2 7f3f d69c 7e3f 6faf 7e3f
00000020: c7e0 7f3f d1a8 7e3f b75c 7e3f 16fe 7f3f
00000030: 4e7d 813f a99a 7f3f efba 7e3f 1d30 7f3f
00000040: 4718 813f 0a05 803f fe81 803f e828 803f
00000050: 1c7a 803f e835 803f 935a 7d3f 025b 7d3f
00000060: 7f43 7f3f bbfc 7e3f 694a 803f c040 7c3f
00000070: b043 803f e7b6 803f a044 803f 2237 7f3f
00000080: 6c11 7d3f 6914 803f b828 803f 0069 7d3f
00000090: 3384 7b3f 2603 803f d480 7e3f b2be 813f
000000a0: 8261 7c3f 67f4 843f a19e 803f 1d68 803f
000000b0: b701 803f dd65 803f 082f 803f 5703 803f
000000c0: 39db 823f 1e34 7c3f e859 803f 5075 813f
000000d0: 401a 7f3f b1a0 7f3f 251a 7f3f 725b 7f3f
000000e0: a2ad 7d3f 4e2b 813f 2a46 813f 0a86 7f3f
000000f0: 8230 7f3f 042f 813f ad1e 803f 0661 813f

crystalGraphConvNet.convs.0.bn2.bias f4 [64]
0.0018211983 -0.0010017628 0.00023987444 0.0011746354 -1.1974882e-05 -0.0028186429 0.0015548377 0.0018702646
-0.010782978 -0.005031469 -0.00401564 -0.00266851 0.001359969 -0.0012126785 -0.0020386665 9.4094874e-05
-0.0020578725 -0.0016792192 -0.001958295 0.0008688501 0.0012234085 0.0013656096 -0.002893992 -0.002402891
-0.0034688946 -0.0026556046 -0.0044291643 -0.0064154025 0.0021125323 0.0009189856 -0.0013739691 -0.0029132701
-0.0036515794 -0.0020206783 -0.00072621345 -0.004427056 -0.0037408953 -0.00064192497 -0.0043762727 0.005625823
-0.0063612764 -0.008379936 -0.0022783324 0.0025331783 -0.0013386548 -0.003995724 -0.00261463 -0.0036406133
0.0033563448 -0.0059952075 -0.0016014802 -0.00528033 -0.0026330606 -0.0016294441 -0.0018626621 -0.005084752
-0.0047236285 -0.0030102658 0.0017249534 -0.0019244909 -0.00232666 -0.0021724573 0.0029393453 0.00021519279
00000000: 46b5 ee3a 954d 83ba ce86 7b39 39f6 993a
00000010: bae7 48b7 fbb8 38bb b2cb cb3a ab23 f53a
00000020: 16ab 30bc 05df a4bb a195 83bb 2be2 2ebb
00000030: fd40 b23a bdf2 9eba 269b 05bb cd54 c538
00000040: 5fdd 06bb 3f19 dcba bd56 00bb 8bc3 633a
00000050: c75a a03a 41fe b23a 21a9 3dbb d279 1dbb
00000060: 6556 63bb a709 2ebb 8622 91bb 4c38 d2bb
00000070: 6972 0a3b 14e8 703a c116 b4ba 90ec 3ebb
00000080: 564f 6fbb 5b6d 04bb 5c5f 3eba d610 91bb
00000090: cf29 75bb db46 28ba d666 8fbb d358 b83b
000000a0: 4172 d0bb 004c 09bc 1350 15bb ae03 263b
000000b0: cd75 afba 90ee 82bb 365a 2bbb 5b97 6ebb
000000c0: 1ff6 5b3b 7273 c4bb c2e8 d1ba 9e06 adbb
000000d0: 6d8f 2cbb 1293 d5ba 9224 f4ba fe9d a6bb
000000e0: abc8 9abb e147 45bb d517 e23a 333f fcba
000000f0: e17a 18bb c95f 0ebb 08a2 403b 60a5 6139

crystalGraphConvNet.convs.0.bn2.running_mean f4 [64]
4.9599166 4.5432034 4.9022903 4.4910254 5.021264 5.3724127 5.372442 5.4831815
5.018763 5.031467 5.167864 4.6615653 4.79068 4.9406185 5.4208417 4.8366857
4.949273 4.3578053 5.0206795 5.709105 5.0698996 5.208159 4.930881 5.0976343
4.9795866 5.2753716 4.9336457 4.522667 4.7632875 4.513226 4.92586 5.4364953
4.895475 4.6754975 4.999529 5.4746213 5.123719 5.2084327 5.0127277 4.4960403
4.8573356 4.7160273 4.8571672 5.4102097 5.084229 5.2165775 5.2535853 4.85088
5.2344046 5.5577145 4.8158226 4.6751456 4.770069 4.4871755 4.7345943 4.7192435
4.714662 5.1678057 5.3173914 5.1724358 4.8127065 5.1938753 5.085963 5.150428
00000000: a3b7 9e40 ec61 9140 90df 9c40 7bb6 8f40
00000010: 32ae a040 ceea ab40 0beb ab40 3976 af40
00000020: b599 a040 c701 a140 245f a540 8b2b 9540
00000030: 404d 9940 8c19 9e40 8977 ad40 21c6 9a40
00000040: 7260 9e40 2473 8b40 68a9 a040 fdb0 b640
00000050: 9e3c a240 3da9 a640 c7c9 9d40 d21f a340
00000060: c658 9f40 d8cf a840 6de0 9d40 b0b9 9040
00000070: da6c 9840 596c 9040 a5a0 9d40 c5f7 ad40
00000080: bba7 9c40 ad9d 9540 24fc 9f40 1930 af40
00000090: 82f5 a340 7bab a640 4468 a040 90df 8f40
000000a0: 4b6f 9b40 b2e9 9640 ea6d 9b40 7020 ad40
000000b0: 01b2 a240 34ee a640 5f1d a840 693a 9b40
000000c0: 3e80 a740 ccd8 b140 381b 9a40 cb9a 9540
000000d0: 68a4 9840 f196 8f40 cc81 9740 0b04 9740
000000e0: 83de 9640 aa5e a540 1228 aa40 9884 a540
000000f0: b101 9a40 3a34 a640 35c0 a240 4ed0 a440

crystalGraphConvNet.convs.0.bn2.running_var f4 [64]
12.335106 8.418387 9.008544 5.726605 11.554014 10.808371 10.931972 13.071811
7.9071527 12.515512 10.278908 7.40821 9.534276 5.9959235 18.262163 7.6451025
9.245834 4.726198 8.597264 29.6635 13.578369 10.468535 7.62089 10.68551
9.341894 9.505612 8.2713 5.289938 8.119342 4.159938 14.427457 13.395439
14.438683 7.298967 12.726606 20.840828 10.839206 17.260794 8.6529045 4.503857
8.61786 9.632152 8.543208 8.098127 9.944113 11.922339 12.425479 6.0599647
11.707848 25.92267 8.919563 5.4188538 8.409959 7.8889937 11.045573 8.078243
13.427514 12.738025 10.816506 10.850708 7.6347785 8.77783 12.046666 8.795307
00000000: 985c 4541 b7b1 0641 ff22 1041 5940 b740
00000010: 3edd 3841 16ef 2c41 5be9 2e41 2326 5141
00000020: 6507 fd40 8a3f 4841 6876 2441 0e10 ed40
00000030: 658c 1841 9bde bf40 e918 9241 aea4 f440
00000040: f0ee 1341 043d 9740 658e 0941 d94e ed41
00000050: 0041 5941 1f7f 2741 55de f340 d9f7 2a41
00000060: 6678 1541 fd16 1841 3f57 0441 2c47 a940
00000070: d3e8 0141 361e 8540 ddd6 6641 b853 5641
00000080: d804 6741 2391 e940 2ea0 4b41 04ba a641
00000090: 636d 2d41 1b16 8a41 4c72 0a41 991f 9040
000000a0: c1e2 0941 4b1d 1a41 fbb0 0841 ee91 0141
000000b0: 161b 1f41 e7c1 3e41 c3ce 4641 3beb c140
000000c0: 5853 3b41 a161 cf41 88b6 0e41 4067 ad40
000000d0: 318f 0641 a372 fc40 abba 3041 7c40 0141
000000e0: 19d7 5641 f3ce 4b41 6910 2d41 809c 2d41
000000f0: 1b50 f440 fe71 0c41 25bf 4041 94b9 0c41

crystalGraphConvNet.convs.1.fc_full.weight f4 [128, 169]
0.0150362635 0.038015805 -0.01588641 -0.04674269 -0.021008376 0.025166707 0.023455493 0.009637391
0.011689585 0.009451391 -0.060240217 0.020058893 0.04999557 -0.03394017 0.0830813 -0.015109155
-0.0565522 0.04757185 0.045136657 -0.05864903 -0.04231732 -0.06286738 0.07586051 -0.06415512
0.03058664 -0.005046238 0.06496541 0.015526515 0.018526714 0.040740218 -0.014815104 0.049036775
0.04687868 0.078949586 -0.0025012908 -0.023391811 0.004358795 -0.07579001 -0.021843562 -0.05574849
0.021255385 0.019530652 -0.045360543 0.029742628 0.02513556 -0.06416683 0.004675462 -0.020012848
-0.025441851 0.05936157 0.04788012 -0.01016005 0.045881007 -0.034987174 0.013451701 0.06413705
-0.04184249 0.022245748 0.067207836 -0.018134382 0.07323343 -0.06751557 -0.0070912368 0.07286446
-0.035497304 -0.02763543 0.05735991 -0.05666312 -0.046441812 -0.03481013 -0.042754177 -0.056869246
-0.026025936 0.05618098 -0.04950561 -0.04728069 0.013042045 -0.02781501 -0.0008544465 -0.029187141
0.025792932 0.011170174 -0.010713986 -0.027041446 0.019432627 0.0003571067 -0.03170915 -0.06607904
-0.07525202 -0.030700004 0.049238443 0.030784408 0.03770052 -0.042457324 -0.016388606 -0.07514712
0.043108717 0.00920374 0.032635596 -0.044722725 0.03916996 -0.03357553 -0.06957073 0.069431856
0.04892517 -0.06350763 -0.0415813 -0.07189592 -0.05663413 0.04275609 -0.022571707 0.020538863
0.04859107 0.012707201 0.07442005 0.044298682 -0.06098735 0.017923351 -0.0435779 0.08147561
0.04927445 0.027652992 0.068047225 -0.03900439 -0.05534282 -0.0025262698 0.055204675 -0.011311061
-0.022702383 -0.038863063 -0.064597726 -0.047654405 -0.07095515 0.060728535 -0.04715879 -0.070102
-0.044901356 -0.006606495 -0.0032432997 0.0072780815 0.004780698 0.05000039 0.014562647 0.049686424
-0.05599524 0.05213396 -0.026040772 0.060767192 0.0011700372 -0.010028937 -0.040867444 -0.01637958
-0.058758833 -0.017472342 0.004879373 -0.051648293 -0.017914526 0.054301314 -0.014637986 -0.029059488
-0.07670239 0.0004656028 -0.031046016 0.03164682 0.0063179093 -0.0054576397 0.00899259 -0.033030566
-0.0068537733 -0.013114589 0.035676498 0.049344435 -0.011949868 0.019625084 -0.04864502 0.03942322
0.031934995 0.005772195 -0.028204218 0.06018636 0.0020783548 -0.023788596 -0.0019912985 0.04201948
0.06422842 -0.0104976855 -0.013376591 0.0075645107 -0.040642958 -0.051871404 -0.071015924 -0.005590073
-0.055548247 0.031609062 0.03540198 0.021003112 -0.06311348 -0.0013496138 0.0088290665 0.022547241
0.006015508 -0.0006104828 0.025773397 0.074495845 0.00713903 0.008239729 0.06385712 0.051405326
0.017233904 0.009279836 0.022308715 -0.07566941 -0.022479981 0.02171906 0.05944308 -0.03727537
-0.05689686 -0.053871274 0.039334618 0.026280005 0.04641133 -0.01732176 -0.046990115 0.043714967
0.038678784 6.989985e-05 -0.06593719 0.070037104 0.018474312 -0.07084126 0.050418362 -0.012109
-0.038160525 0.023500813 -0.07110118 -0.008891798 -0.06623245 0.01785753 -0.053636845 -0.004421106
0.057683565 -0.08097422 0.012785033 -0.020848865 0.058318645 -0.031963695 0.056412067 0.0015092192
0.05043685 0.022757463 -0.009696445 -0.01572447 0.04272404 -0.022076936 0.008723978 -0.03545901
00000000: a95a 763c 76b6 1b3d 3724 82bc 4375 3fbd
00000010: c219 acbc 692a ce3c bc25 c03c 26e6 1d3c
00000020: ac85 3f3c 02da 1a3c 72be 76bd 8c52 a43c
00000030: 28c8 4c3d d904 0bbd 8726 aa3d 648c 77bc
00000040: 48a3 67bd b3da 423d 37e1 383d f739 70bd
00000050: ed54 2dbd 9dc0 80bd c15c 9b3d c263 83bd
00000060: d590 fa3c ea5a a5bb 960c 853d ed62 7e3c
00000070: 56c5 973c 37df 263d 0dbb 72bc c9da 483d
00000080: dc03 403d 52b0 a13d b2ec 23bb 2fa0 bfbc
00000090: 39d4 8e3b cb37 9bbd 45f1 b2bc 8758 64bd
000000a0: c61f ae3c bffe 9f3c facb 39bd d0a6 f33c
000000b0: 17e9 cd3c e669 83bd 9e34 993b fcf1 a3bc
000000c0: 6e6b d0bc 1e25 733d f21d 443d 5776 26bc
000000d0: b9ed 3b3d b64e 0fbd 8664 5c3c 495a 833d
000000e0: 0863 2bbd b73c b63c 43a4 893d 8e8e 94bc
000000f0: 69fb 953d 9a45 8abd 9b5d e8bb f639 953d
00000100: 9f65 11bd b363 e2bc 3af2 6a3d 9617 68bd
00000110: c539 3ebd 1195 0ebd 011f 2fbd baef 68bd
00000120: 5834 d5bc 071e 663d 65c6 4abd 66a9 41bd
00000130: 4dae 553c 4edc e3bc effc 5fba df19 efbc
00000140: b34b d33c 1b03 373c b789 2fbc 0686 ddbc
00000150: 2c31 9f3c 0d3a bb39 74e1 01bd 7354 87bd
00000160: bb1d 9abd 937e fbbc 40ae 493d 952f fc3c
00000170: dc6b 1a3d bbe7 2dbd 6641 86bc bce6 99bd
00000180: c492 303d 49cb 163c e7ac 053d 2d2f 37bd
00000190: ae70 203d 7f86 09bd 197b 8ebd 4a32 8e3d
000001a0: c265 483d 4a10 82bd 2751 2abd 2b3e 93bd
000001b0: 31f9 67bd 0321 2f3d 4de8 b8bc 1e41 a83c
000001c0: 6e07 473d dd31 503c 8a69 983d 8972 353d
000001d0: dfcd 79bd fed3 923c bd7e 32bd afdc a63d
000001e0: 01d4 493d 8788 e23c 585c 8b3d 11c3 1fbd
000001f0: 27af 62bd c68f 25bb 4c1e 623d 0752 39bc
00000200: 59fa b9bc e02e 1fbd d04b 84bd 4431 43bd
00000210: ef50 91bd 7cbe 783d 9329 41bd a391 8fbd
00000220: 7cea 37bd 4c7b d8bb 8a8d 54bb f97c ee3b
00000230: 67a7 9c3b 35cd 4c3d 2b98 6e3c fe83 4b3d
00000240: 445b 65bd 6b8a 553d 7553 d5bc 05e7 783d
00000250: ef5b 993a 6950 24bc 9f64 27bd 782e 86bc
00000260: 1aad 70bd 2822 8fbc 26e3 9f3b 298d 53bd
00000270: 7cc1 92bc 0e6b 5e3d 2ad4 6fbc 2a0e eebc
00000280: 2516 9dbd 261c f439 3754 febc 19a0 013d
00000290: 7706 cf3b 00d6 b2bb a855 133c 0f4b 07bd
000002a0: 9e95 e0bb 93de 56bc 8521 123d 641d 4a3d
000002b0: 61c9 43bc c9c4 a03c 0040 47bd 3e7a 213d
000002c0: 45ce 023d ae24 bd3b 880c e7bc f985 763d
000002d0: 0235 083b 4de0 c2bc 7280 02bb 9e1c 2c3d
000002e0: 318a 833d 7cfe 2bbc 7d29 5bbc b7df f73b
000002f0: 3b79 26bd 1c77 54bd cc70 91bd ee2c b7bb
00000300: 8f86 63bd 8178 013d ab01 113d b80e ac3c
00000310: a441 81bd 86e5 b0ba caa7 103c feb4 b83c
00000320: bd1d c53b cf08 20ba bb22 d33c 4791 983d
00000330: 86ee e93b eeff 063c 86c7 823d 648e 523d
00000340: 1e2e 8d3c 740a 183c c4c0 b63c 90f8 9abd
00000350: f027 b8bc 2cec b13c 967a 733d 0fae 18bd
00000360: af0c 69bd 20a8 5cbd 561d 213d 2a49 d73c
00000370: cf19 3e3d 5de6 8dbc b578 40bd 770e 333d
00000380: a56d 1e3d 3297 9238 140a 87bd 9d6f 8f3d
00000390: 7157 973c 3915 91bd 7c83 4e3d d464 46bc
000003a0: 364e 1cbd c784 c03c 7f9d 91bd e7ae 11bc
000003b0: e1a4 87bd f449 923c 4fb2 5bbd edde 90bb
000003c0: 9a45 6c3d d0d5 a5bd 5178 513c 3dcb aabc
000003d0: 88df 6e3d 5dec 02bd 5710 673d fed0 c53a
000003e0: df96 4e3d dc6d ba3c d7dd 1ebc 9bd0 80bc
000003f0: 67ff 2e3d b1da b4bc 04ef 0e3c 783d 11bd

crystalGraphConvNet.convs.1.fc_full.bias f4 [128]
0.055851445 -0.06853213 0.058770172 -0.039749313 -0.002097126 -0.030253585 0.06455231 0.012285792
-0.024060177 0.07273072 0.012387698 0.011965798 -0.029928219 -0.022292418 -0.049852658 -0.049708165
0.023383498 -0.0039430675 -0.024009211 -0.006852095 -0.028623031 0.027616946 -0.059423037 -0.026806658
-0.0100357905 0.010639915 0.015691804 -0.006672658 -0.06973563 0.06617615 -0.0055011017 0.015917301
-0.048325256 -0.057229657 0.0020197069 -0.06755709 0.034655757 -0.03002829 0.010732028 0.010785855
-0.074749604 -0.07297502 -0.02781737 0.053156056 0.022490906 0.049482595 -0.016258039 0.00680877
-0.020300983 0.014103349 -0.049704168 0.02498834 -0.06945328 -0.06318066 0.0618709 0.04991993
-0.024837468 0.026878597 -0.0704396 0.038394965 0.06478119 0.014512503 0.005250381 -0.063052416
0.05946774 -0.026198424 0.046127625 0.017105846 -0.030246709 -0.01718711 0.075903535 0.045475587
0.017522106 -0.051149223 -0.021515986 -0.064077675 -0.07427696 0.0069133835 0.0063487454 0.044886198
-0.030841012 0.054415733 0.07198533 -0.035717204 0.0151387695 -0.018972406 -0.043863673 0.012380105
0.01042923 0.061382204 -0.035216782 0.060124453 0.022327717 -0.037966426 -0.020676678 -0.012449998
-0.043484643 -0.02299075 -0.025921997 -0.026765008 -0.0057627815 -0.042619597 -0.032495447 -0.019699445
0.070997894 -0.013204454 -0.02607775 0.00534874 -0.06617689 0.015096048 -0.055046726 0.03365881
0.014324186 -0.014394752 -0.0067329626 -0.025805585 0.026782028 -0.05426096 -0.05644231 0.015765017
0.057157446 0.061252512 0.01074177 0.012447898 0.048357286 0.022530455 0.035386104 0.066886604
00000000: 7cc4 643d 935a 8cbd feb8 703d 2dd0 22bd
00000010: f06f 09bb 5ed6 f7bc 0034 843d 594a 493c
00000020: d919 c5bc d8f3 943d c5f5 4a3c 320c 443c
00000030: 062c f5bc 979e b6bc 4d32 4cbd ca9a 4bbd
00000040: c08e bf3c d934 81bb f7ae c4bc 8a87 e0bb
00000050: d97a eabc ef3c e23c 9265 73bd a399 dbbc
00000060: 286d 24bc 0a53 2e3c 198c 803c 50a6 dabb
00000070: 8ed1 8ebd 5d87 873d 9642 b4bb 0065 823c
00000080: b4f0 45bd a569 6abd 0f5d 043b 5f5b 8abd
00000090: 32f3 0d3d e3fd f5bc 63d5 2f3c 28b7 303c
000000a0: 5216 99bd ed73 95bd 41e1 e3bc 2aba 593d
000000b0: d93e b83c 43ae 4a3d 942f 85bc 1a1c df3b
000000c0: 3f4e a6bc bc11 673c 9996 4bbd 59b4 cc3c
000000d0: 853d 8ebd dd64 81bd 576c 7d3d d778 4c3d
000000e0: f277 cbbc 8130 dc3c a342 90bd 0a44 1d3d
000000f0: 00ac 843d d9c5 6d3c 630b ac3b a021 81bd
00000100: 7294 733d 149e d6bc 52f0 3c3d 8f21 8c3c
00000110: f2c7 f7bc fbcb 8cbc 5073 9b3d 9c44 3a3d
00000120: 858a 8f3c d981 51bd 4b42 b0bc 283b 83bd
00000130: 851e 98bd aa89 e23b 2309 d03b 97da 373d
00000140: 4aa6 fcbc 08e3 5e3d 0b6d 933d 344c 12bd
00000150: 9a08 783c 056c 9bbc 65aa 33bd edd5 4a3c
00000160: 5cdf 2a3c e86b 7b3d 793f 10bd 0f45 763d
00000170: 9ee8 b63c af82 1bbd 2362 a9bc 14fb 4bbc
00000180: f41c 32bd 1957 bcbc 5e5a d4bc 4a42 dbbc
00000190: b7d5 bcbb e391 2ebd f219 05bd bb60 a1bc
000001a0: 5867 913d 7f57 58bc 01a1 d5bc 7c44 af3b
000001b0: c087 87bd 6a55 773c ad78 61bd d2dd 093d
000001c0: feaf 6a3c f7d7 6bbc 2fa0 dcbb 3c66 d3bc
000001d0: fc65 db3c be40 5ebd 0d30 67bd a325 813c
000001e0: ed1d 6a3d eae3 7a3d 40fe 2f3c 45f2 4b3c
000001f0: 4a12 463d ca91 b83c 05f1 103d d8fb 883d

crystalGraphConvNet.convs.1.bn1.weight f4 [128]
1.0059098 1.0000203 1.0003675 1.0012 0.9996925 0.9999419 1.0037748 0.9995427
1.0043985 1.0032463 1.0031306 1.0007745 1.0009143 1.0166678 1.0029845 1.0040535
1.0002818 0.9988325 1.0005177 1.0008343 1.0040913 1.0098115 1.0099229 0.99973565
1.0086967 1.0006475 0.9972029 0.99893975 1.0038023 0.9993633 1.0014548 1.0031793
1.0036162 1.0003192 0.9997838 1.0043641 1.005933 1.0013198 1.0009034 0.9999238
1.0020963 1.002343 1.001516 1.0052618 1.0002297 0.99817526 1.002005 1.0056748
1.0081172 1.0013698 1.0021303 0.9975414 1.0005352 1.0025165 1.0004319 1.0026369
0.9990143 1.0032649 0.9981737 1.0005217 1.001551 1.001035 1.0012074 1.0023887
1.000033 1.0067208 0.99986553 1.0049902 1.0011047 1.0000387 0.9982472 1.0007603
0.99968606 1.0007073 0.9995768 1.0012803 0.99995035 1.0062907 1.0011442 0.9964091
1.0007297 1.0001984 1.000639 1.0020626 0.9996919 1.0029695 1.0149522 1.0003576
1.0073575 1.0005152 1.0027575 1.0021788 1.0018718 1.0002025 0.99989676 1.0012784
1.0043902 1.0008949 1.0009129 0.9984288 0.9958714 0.9999798 1.0008795 0.9999665
0.99861866 1.0005751 1.0004075 0.9995448 0.99990433 0.9983482 0.99900603 1.0003998
1.0060103 1.002394 0.99984574 1.0019858 1.0017177 1.0053098 0.9992365 1.0061387
1.002811 1.0009753 1.0031756 0.9970719 0.9997854 0.9995779 0.999749 1.0002483
00000000: a7c1 803f aa00 803f 0b0c 803f 5227 803f
00000010: d9eb 7f3f 31fc 7f3f b17b 803f 08e2 7f3f
00000020: 2190 803f 606a 803f 9566 803f 6119 803f
00000030: f61d 803f 2c22 823f cc61 803f d384 803f
00000040: 3c09 803f 7db3 7f3f f710 803f 571b 803f
00000050: 1086 803f 8141 813f 2745 813f adee 7f3f
00000060: f91c 813f 3815 803f b048 7f3f 84ba 7f3f
00000070: 987c 803f 46d6 7f3f ac2f 803f 2e68 803f
00000080: 7f76 803f 760a 803f d5f1 7f3f 018f 803f
00000090: 6ac2 803f 3f2b 803f 9a1d 803f 02fb 7f3f
000000a0: b144 803f c74c 803f ad31 803f 6bac 803f
000000b0: 8707 803f 6a88 7f3f b341 803f f4b9 803f
000000c0: fc09 813f e32c 803f ce45 803f e05e 7f3f
000000d0: 8a11 803f 7652 803f 270e 803f 6856 803f
000000e0: 67bf 7f3f fc6a 803f 5088 7f3f 1811 803f
000000f0: d332 803f ea21 803f 9027 803f 464e 803f
00000100: 1501 803f 3adc 803f 30f7 7f3f 85a3 803f
00000110: 3324 803f 4501 803f 218d 7f3f ea18 803f
00000120: 6deb 7f3f 2d17 803f 44e4 7f3f f429 803f
00000130: bffc 7f3f 22ce 803f 7e25 803f ab14 7f3f
00000140: e917 803f 8006 803f f014 803f 9643 803f
00000150: cfeb 7f3f 4e61 803f f4e9 813f b80b 803f
00000160: 17f1 803f e210 803f 5c5a 803f 6547 803f
00000170: 563d 803f a306 803f 3cf9 7f3f e429 803f
00000180: dc8f 803f 531d 803f ea1d 803f 0899 7f3f
00000190: 6ef1 7e3f adfe 7f3f d21c 803f cefd 7f3f
000001a0: 79a5 7f3f d812 803f 5a0d 803f 2be2 7f3f
000001b0: bbf9 7f3f bf93 7f3f dcbe 7f3f 1a0d 803f
000001c0: f2c4 803f 724e 803f e4f5 7f3f 1241 803f
000001d0: 4938 803f fead 803f f7cd 7f3f 27c9 803f
000001e0: 1c5c 803f f51f 803f 0f68 803f 1b40 7f3f
000001f0: f0f1 7f3f 56e4 7f3f 8def 7f3f 2308 803f
