get_descriptor_cgcnn/saved_models/pbe_84.ckpt (torch, 675914 bytes, 58 tensors)

crystalGraphConvNet.embedding.weight f4 [64, 92]
0.101355776 -0.0625658 0.060250796 0.01670012 -0.05319271 0.06955127 0.06263023 -0.0092459535
-0.024653248 -0.030104086 -0.06290878 0.0032550113 0.091887444 0.016698545 -0.056312945 0.05837974
-0.054943357 0.007955557 -0.05264763 -0.11164175 -0.033320446 0.027577007 0.038716003 -0.006882327
0.11044577 -0.09101651 0.080495894 0.07430234 -0.041023187 0.043158814 0.004454052 0.09415084
0.024982058 -0.032067597 -0.070905104 -0.042707253 -0.013783923 -0.02845186 0.0234246 -0.044624824
-0.09335858 0.009108076 0.10748124 0.06002363 0.056604344 -0.04076914 0.024583934 -0.00939341
0.03762417 0.09967872 0.060372245 0.04455395 -0.013911808 -0.08966372 0.011871535 -0.04227069
-0.09002168 0.074830696 -0.012830921 0.013872215 0.08218516 -0.046871334 -0.029105527 0.02980113
-0.066449374 0.05471316 -0.0662658 0.04193036 0.016911993 0.030205354 -0.039801214 -0.09850969
-0.05771763 0.07329277 -0.07386333 0.06047062 0.08504589 0.090224884 0.024015706 0.02471378
0.052642714 -0.038111728 -0.014100204 -0.018763134 -0.075897485 -0.046191625 0.044460543 0.032475892
-0.027057026 0.030715037 0.04713998 -0.04267457 -0.08687105 -0.11127162 0.03249119 -0.084650755
-0.010287271 -0.03584713 -0.022425866 0.045407936 0.046053026 -0.00017511485 0.041716456 0.08604644
-0.006812777 0.07051826 -0.0019866629 -0.054572746 -0.0072666635 0.07719174 0.07335957 -0.14800723
-0.0016765433 -0.05872143 -0.024048856 0.028716091 -0.035585687 0.0026748162 0.04577868 0.05044896
0.004771868 -0.08646831 -0.06090592 -0.043960776 -0.003600078 0.01994077 -0.083383664 -0.056066066
-0.054080527 -0.075335935 -0.004281445 0.0070788516 -0.08617628 -0.08948205 -0.034784578 0.0060835895
-0.049083155 0.05440335 -0.08005632 -0.08573574 -0.021795044 0.033506937 0.094800435 0.12215317
0.08225819 -0.07153445 -0.022021078 0.07384276 -0.008116733 -0.033262853 -0.07695455 -0.00900846
-0.04063661 -0.06674178 0.101266734 0.041609507 -0.07462636 0.079964705 -0.07069856 -0.033397265
-0.041929785 0.04521438 0.046576664 0.04447193 -0.0068378057 0.02115022 -0.0143408645 -0.049090717
0.07409668 0.070234284 0.07322126 0.024500545 -0.0687792 -0.05680825 -0.08089518 -0.100388475
-0.038394682 0.12347004 -0.022329085 0.10106661 -0.104322515 -0.04846888 -0.06563305 0.04507503
0.0109747 0.047970563 -0.011484169 0.09036047 -0.08224889 -0.017568538 0.07603663 -0.04912086
0.0033386578 0.07853187 0.08163925 -0.024424197 0.026138425 -0.06739652 0.024920786 0.07906942
-0.04147281 -0.009951686 -0.11218721 -0.13347161 -0.021034468 -0.0010695938 0.11146985 0.043365072
0.114527605 -0.029095007 0.049808215 0.07614512 0.03697028 0.050598904 0.020254683 0.033368442
-0.101932466 0.026630105 0.08655948 -0.034015182 -0.094820954 -0.002044812 0.07041989 -0.039995164
-0.012294199 0.044594847 0.00057598745 0.06811968 -0.084050216 -0.08407828 -0.10723196 -0.068641834
-0.025760617 0.009550119 0.05473149 0.08700405 -0.04430992 0.036734935 -0.07619403 -0.017226845
-0.06806405 -0.023880545 0.042932473 0.015927482 -0.029449496 0.0028822995 0.0908756 0.06839729
-0.14262843 0.056040157 0.075629056 -0.08726935 -0.00089168845 -0.0025129037 -0.09567635 0.02007196
00000000: 9e93 cf3d 8022 80bd 8ac9 763d b1ce 883c
00000010: 99e0 59bd e570 8e3d 4744 803d 577c 17bc
00000020: 9cf5 c9bc d89c f6bc 52d6 80bd 0752 553b
00000030: 7c2f bc3d 63cb 883c 67a8 66bd 981f 6f3d
00000040: 490c 61bd 0658 023c 0ba5 57bd 6ea4 e4bd
00000050: 057b 08bd 2de9 e13c ac94 1e3d 2585 e1bb
00000060: 6431 e23d dd66 babd 08db a43d d32b 983d
00000070: ee07 28bd 4cc7 303d 4cf3 913b 28d2 c03d
00000080: 2ca7 cc3c 5059 03bd b236 91bd cded 2ebd
00000090: f7d5 61bc e013 e9bc f2e4 bf3c 85c8 36bd
000000a0: c832 bfbd 0a3a 153c 201f dc3d 56db 753d
000000b0: f5d9 673d 8bfd 26bd 3f64 c93c d1e6 19bc
000000c0: cd1b 1a3d 5b24 cc3d e348 773d 347e 363d
000000d0: 5aee 63bc 9da1 b7bd d480 423c 0824 2dbd
000000e0: 495d b8bd d640 993d c938 52bc 4948 633c
000000f0: b150 a83d 28fc 3fbd b76e eebc 8021 f43c
00000100: 9c16 88bd e81a 603d 5db6 87bd 2bbf 2b3d
00000110: 058b 8a3c 3871 f73c 9906 23bd 73bf c9bd
00000120: 5269 6cbd 851a 963d a845 97bd 0ab0 773d
00000130: 8a2c ae3d d3c7 b83d 96bc c43c 8e74 ca3c
00000140: e39f 573d 0b1b 1cbd 8b04 67bc 25b5 99bc
00000150: 2470 9bbd 6e33 3dbd 421c 363d 7105 053d
00000160: b2a6 ddbc 1a9e fb3c da15 413d 88cb 2ebd
00000170: 73e9 b1bd 60e2 e3bd 7b15 053d 605d adbd
00000180: f18b 28bc 71d4 12bd 73b6 b7bc acfd 393d
00000190: 19a2 3c3d 099f 37b9 e0de 2a3d 1e39 b03d
000001a0: b73d dfbb e16b 903d ac32 02bb ac87 5fbd
000001b0: 311d eebb b416 9e3d 8b3d 963d 358f 17be
000001c0: 75bf dbba e285 70bd 1b02 c5bc 023e eb3c
000001d0: 4cc2 11bd f84b 2f3b 6d82 3b3d 92a3 4e3d
000001e0: 555d 9c3b 4c16 b1bd 7c78 79bd 3710 34bd
000001f0: 49ef 6bbb d35a a33c 0ec5 aabd 88a5 65bd
00000200: 8b83 5dbd ba49 9abd 5d4b 8cbb b6f5 e73b
00000210: 317d b0bd 5d42 b7bd 467a 0ebd d958 c73b
00000220: 6b0b 49bd 0cd6 5e3d 91f4 a3bd 3896 afbd
00000230: 858b b2bc 923e 093d bb26 c23d 712b fa3d
00000240: fb76 a83d a780 92bd 8c65 b4bc df3a 973d
00000250: 0cfc 04bc a13e 08bd 599a 9dbd 3898 13bc
00000260: 9372 26bd eaaf 88bd ef64 cf3d bb6e 2a3d
00000270: b4d5 98bd 89c4 a33d 68ca 90bd 92cb 08bd
00000280: 91be 2bbd b732 393d 2cc7 3e3d 3328 363d
00000290: ac0f e0bb 3a43 ad3c f2f5 6abc 5913 49bd
000002a0: 00c0 973d fed6 8f3d 07f5 953d 5eb5 c83c
000002b0: 1cdc 8cbd c4af 68bd 5fac a5bd 7998 cdbd
000002c0: be43 1dbd dcdd fc3d 7ceb b6bc 03fc ce3d
000002d0: 0ba7 d5bd 4e87 46bd 9f6a 86bd 98a0 383d
000002e0: 3acf 333c c87c 443d 1928 3cbc e90e b93d
000002f0: 1b72 a8bd e5eb 8fbc 18b9 9b3d f432 49bd
00000300: 62cd 5a3b 51d5 a03d 7b32 a73d 4115 c8bc
00000310: 4020 d63c 3007 8abd ad26 cc3c 26ef a13d
00000320: 65df 29bd 650c 23bc 68c2 e5bd c8ac 08be
00000330: 7a50 acbc 9d31 8cba 4e4a e43d 939f 313d
00000340: 738d ea3d a758 eebc b303 4c3d f9f1 9b3d
00000350: 266e 173d cc40 4f3d 26ed a53c 59ad 083d
00000360: f8c1 d0bd 6127 da3c 1946 b13d 8153 0bbd
00000370: 7d31 c2bd 4102 06bb 4e38 903d f8d1 23bd
00000380: 9c6d 49bc 16a9 363d ddfd 163a 5582 8b3d
00000390: 8522 acbd 3c31 acbd 6e9c dbbd 1794 8cbd
000003a0: ee07 d3bc 1a78 1c3c 202e 603d 2e2f b23d
000003b0: 527e 35bd 5f77 163d 9e0b 9cbd 501f 8dbc
000003c0: 2a65 8bbd 22a1 c3bc f6d9 2f3d 5a7a 823c
000003d0: 1240 f1bc f6e4 3c3b fd1c ba3d e113 8c3d
000003e0: 300d 12be 5d8a 653d 68e3 9a3d 46ba b2bd
000003f0: 33c0 69ba 87af 24bb f6f1 c3bd f36d a43c

crystalGraphConvNet.embedding.bias f4 [64]
-0.08915785 0.06677015 -0.10178522 -0.080785096 -0.065791234 -0.045086574 0.02743632 -0.04813303
0.016124565 0.07499678 0.09322472 0.016022744 -0.10139118 -0.103101276 0.0005959201 0.068613164
0.05565291 -0.019291658 0.042090457 0.09796759 0.028904866 0.020957561 0.09672045 -0.09925704
-0.028484691 0.08324032 -0.049700078 -0.06416079 -0.098486595 -0.0837345 0.039891325 -0.021358535
0.040057752 0.058242325 0.038905457 0.040740762 -0.060063574 -0.06031052 0.075582385 0.009593385
0.06330989 0.07808035 -0.08252855 0.051737335 0.027940137 -0.08231618 -0.060713902 -0.052452195
-0.09330706 -0.0623138 0.09515879 0.09917785 -0.04565359 0.039755452 0.072266586 -0.03313081
0.015020277 0.10321178 0.08191572 0.09851664 0.09688543 0.010416574 -0.081081346 -0.051101644
00000000: 6498 b6bd cabe 883d c574 d0bd a872 a5bd
00000010: 8ebd 86bd b3ac 38bd 22c2 e03c 2427 45bd
00000020: aa17 843c e997 993d 9aec be3d 2142 833c
00000030: 2ea6 cfbd c326 d3bd 8537 1c3a 0f85 8c3d
00000040: 4ef4 633d 8a09 9ebc 0b67 2c3d 3ba3 c83d
00000050: e6c9 ec3c 31af ab3c 5f15 c63d 4647 cbbd
00000060: ba58 e9bc e779 aa3d 4f92 4bbd bb66 83bd
00000070: 57b3 c9bd fe7c abbd 1665 233d 18f8 aebc
00000080: 9913 243d 818f 6e3d 545b 1f3d c9df 263d
00000090: 3905 76bd 2a08 77bd f0ca 9a3d 932d 1d3c
000000a0: 9ea8 813d 97e8 9f3d ba04 a9bd 87ea 533d
000000b0: b7e2 e43c 6395 a8bd 24af 78bd 1dd8 56bd
000000c0: c617 bfbd c13c 7fbd 9de2 c23d c21d cb3d
000000d0: 42ff 3abd 9dd6 223d 8100 943d 2cb4 07bd
000000e0: 9c17 763c b360 d33d 6ec3 a73d 18c3 c93d
000000f0: de6b c63d 47aa 2a3c fa0d a6bd f54f 51bd

crystalGraphConvNet.convs.0.fc_full.weight f4 [128, 169]
-0.022971677 0.07263289 0.039764076 0.003676513 -0.005491262 -0.007523667 0.0055852775 0.003252922
0.07547874 0.06645461 0.023198346 0.028702367 -0.021732362 -0.0736343 0.04018621 -0.027673677
0.016632212 -0.04738793 -0.03172501 0.0392881 0.07881379 0.042994477 0.016959144 -0.036939442
-0.03904067 -0.035502438 -0.0374145 -0.037949167 -0.06142979 0.050549246 -0.08542925 0.052505057
0.07368916 0.063276105 -0.05912984 0.048373412 0.004396378 -0.01088603 -0.07713839 -0.026127236
-0.015666246 -0.058582727 0.027798457 -0.062685534 0.01808251 0.0060397964 -0.005286225 -0.022437021
0.051636588 -0.002245072 -0.0057177343 0.029472329 0.036535528 0.037985362 0.05063476 0.023033803
0.012740547 0.022062326 -0.048539475 0.015997805 0.0066893254 -0.05643756 0.07230622 -0.025371434
0.050366778 -0.07439242 0.022063145 0.08244477 -0.019422002 -0.007782004 0.013154505 0.033851217
0.007476407 0.039250452 0.00062516227 -0.0023758214 0.00441861 -0.021506974 -0.001217643 -0.013242536
0.05385659 0.03914429 0.05015449 -0.021345692 -0.053562973 -0.01977159 -0.018522777 -0.055473585
-0.01513249 0.0056978934 0.009435886 0.031553872 0.022957109 -0.022737356 0.032823984 0.058544967
-0.059582274 0.063717104 0.071669325 0.048259206 -0.041493002 -0.047012284 -0.032616533 -0.06811894
-0.039569285 0.028953632 0.04478282 -0.028665934 0.07483663 0.059354868 0.05671534 0.044502635
0.051818665 -0.040713117 0.03924168 -0.026534291 -0.0048672766 -0.019668134 0.02488523 -0.0050314707
0.029849194 -0.03627665 -0.016811017 0.069218576 -0.06801099 -0.059355758 0.0015894185 0.067060806
0.0045679533 -0.032557946 -0.0366894 -0.023918401 -0.06300771 -0.04449508 0.04504864 -0.063105896
-0.0150280725 0.022442997 0.033358242 0.047798738 -0.07568259 -0.033779297 -0.017941397 0.013792462
-0.005238405 -0.07440587 -0.049102027 -0.025732996 -0.040049076 0.02700826 -0.04754034 0.004135095
-0.06075339 -0.06985782 -0.0057412363 0.034380175 -0.022223724 0.062171753 -0.023119796 0.061238326
0.034855068 -0.06351628 0.05755994 0.0050044977 0.007834544 -0.05563582 0.0028500557 -0.067321844
-0.0006558437 0.04766322 -0.061498478 -0.0025047031 0.07133946 0.024854332 -0.05865706 0.012171256
0.07478348 -0.022855712 -0.0011892854 0.003034946 -0.012622097 0.004826499 -0.022291575 -0.0036917028
-0.07101689 -0.07460732 0.008087189 0.06115247 -0.008256483 -0.068599865 0.070207775 0.025921324
-0.015376769 0.048741743 -0.074135646 -0.061082006 0.047867477 0.042467695 -0.038621325 -0.081732005
-0.0017861419 -0.0052236672 0.0881347 0.068816885 0.043537468 -0.006616796 0.06525299 0.053559244
-0.033603348 -0.074209325 -0.04935138 -0.049069833 -0.030794635 -0.04644969 -0.05558624 0.036453374
-0.00061020075 -0.04315087 -0.028873663 0.044761617 0.024176437 -0.06517994 -0.035101965 -0.02646742
0.024395028 -0.010766066 0.03829347 0.023989707 0.06975411 0.070412956 0.0053696055 0.020039616
-0.026130777 -0.032628167 -0.021508599 0.09363039 -0.044516023 0.033582315 -0.036175538 -0.056839336
-0.02874321 0.049229022 0.010380911 0.0070679495 -0.03638058 0.008912475 -0.039987464 -0.028941164
-0.019076547 -0.038104936 0.03685009 -0.04760841 -0.0481014 0.06314352 -0.049559325 -0.0047192588
00000000: 192f bcbc 8dc0 943d a8df 223d a7f1 703b
00000010: 0bf0 b3bb 1889 f6bb b404 b73b fa2e 553b
00000020: 9994 9a3d 5b19 883d 750a be3c 3a21 eb3c
00000030: 1108 b2bc 94cd 96bd 4c9a 243d e8b3 e2bc
00000040: 4740 883c d919 42bd 16f2 01bd 8fec 203d
00000050: 2069 a13d fa1a 303d e7ed 8a3c d04d 17bd
00000060: 1ce9 1fbd 016b 11bd f23f 19bd 9670 1bbd
00000070: ce9d 7bbd ba0c 4f3d 88f5 aebd 8b0f 573d
00000080: 58ea 963d e796 813d 2232 72bd 3323 463d
00000090: 7e0f 903b 525b 32bc bbfa 9dbd c908 d6bc
000000a0: 8056 80bc 71f4 6fbd 97b9 e33c 4661 80bd
000000b0: c621 943c 7ce9 c53b 1238 adbb d8cd b7bc
000000c0: e380 533d 0f22 13bb d55b bbbb f46f f13c
000000d0: 47a6 153d 8a96 1b3d 6566 4f3d 63b1 bc3c
000000e0: babd 503c 0dbc b43c 54d1 46bd d40d 833c
000000f0: 2132 db3b 122b 67bd 4915 943d c1d7 cfbc
00000100: 654d 4e3d 0e5b 98bd c5bd b43c ced8 a83d
00000110: e41a 9fbc 2e00 ffbb fe85 573c 93a7 0a3d
00000120: a6fc f43b 15c5 203d eee1 233a abb3 1bbb
00000130: fdc9 903b 652f b0bc 5299 9fba 39f7 58bc
00000140: ba98 5c3d c355 203d cb6e 4d3d 29dd aebc
00000150: d964 5bbd 08f8 a1bc 14bd 97bc 4538 63bd
00000160: 43ee 77bc 65b5 ba3b f998 1a3c a23e 013d
00000170: 8c10 bc3c b143 babc 7172 063d d9cc 6f3d
00000180: 8b0c 74bd 1d7e 823d 5ec7 923d 72ab 453d
00000190: 91f4 29bd f48f 40bd ea98 05bd f181 8bbd
000001a0: 6713 22bd 2b30 ed3c 316e 373d d2d4 eabc
000001b0: f243 993d 171e 733d 584e 683d 6548 363d
000001c0: cf3f 543d ccc2 26bd e2bb 203d 715e d9bc
000001d0: ad7d 9fbb 111f a1bc 1cdc cb3c 09df a4bb
000001e0: 4c86 f43c d396 14bd 42b7 89bc 78c2 8d3d
000001f0: 5949 8bbd 061f 73bd 0954 d03a 2d57 893d
00000200: c5ae 953b 7b5b 05bd a047 16bd 86f0 c3bc
00000210: 300a 81bd 7940 36bd ec84 383d aa3d 81bd
00000220: 4e38 76bc 60da b73c a7a2 083d 9cc8 433d
00000230: 79ff 9abd 295c 0abd d6f9 92bc c7f9 613c
00000240: eda6 abbb 1b62 98bd 351f 49bd 01ce d2bc
00000250: 800a 24bd 6d40 dd3c a9b9 42bd b17f 873b
00000260: 8cd8 78bd 9e11 8fbd fb20 bcbb 3ad2 0c3d
00000270: 870e b6bc cfa7 7e3d ba65 bdbc 0ad5 7a3d
00000280: 30c4 0e3d d314 82bd f9c3 6b3d c5fc a33b
00000290: 765c 003c 63e2 63bd 00c8 3a3b 09e0 89bd
000002a0: edec 2bba 823a 433d d4e5 7bbd f225 24bb
000002b0: 6c1a 923d 509b cb3c 6342 70bd f369 473c
000002c0: 1528 993d e73b bbbc cce1 9bba f2e5 463b
000002d0: e9cc 4ebc 9c27 9e3b d29c b6bc 7ff0 71bb
000002e0: 4e71 91bd b9cb 98bd 2180 043c 037b 7a3d
000002f0: 3346 07bc 167e 8cbd 18c9 8f3d f558 d43c
00000300: d8ee 7bbc 6ca5 473d 6ed4 97bd 2031 7abd
00000310: b010 443d 9bf2 2d3d 6531 1ebd 1c63 a7bd
00000320: fa1c eaba 4c2b abbb f77f b43d deef 8c3d
00000330: 5854 323d b5d1 d8bb 5ca3 853d f060 5b3d
00000340: aaa3 09bd 0ffb 97bd ac24 4abd 73fd 48bd
00000350: 0845 fcbc 0842 3ebd 66ae 63bd 2250 153d
00000360: e1f5 1fba f7be 30bd 7688 ecbc f557 373d
00000370: aa0d c63c 0f7d 85bd 14c7 0fbd 34d2 d8bc
00000380: 15d8 c73c 2764 30bc 9dd9 1c3d 1086 c43c
00000390: 3edb 8e3d ab34 903d 84f3 af3b 1f2a a43c
000003a0: 3610 d6bc 1da5 05bd cd32 b0bc 4ac1 bf3d
000003b0: 6f56 36bd 9c8d 093d cd2c 14bd 5dd0 68bd
000003c0: e176 ebbc 5fa4 493d b214 2a3c 429a e73b
000003d0: ce03 15bd a105 123c e5c9 23bd 0516 edbc
000003e0: 6b46 9cbc ec13 1cbd 1ff0 163d 0901 43bd
000003f0: f905 45bd 6451 813d b8fe 4abd 03a4 9abb

crystalGraphConvNet.convs.0.fc_full.bias f4 [128]
-0.06483283 0.040430732 -0.0060574464 0.020594157 0.0036517265 0.05914829 0.023695027 0.01700621
0.02936458 0.07074608 0.020265762 -0.012310223 -0.0006058538 -0.038138088 0.043323245 0.00069567165
0.038522877 -0.0692042 -0.04429941 0.07495727 0.046909165 -0.06880524 0.038814098 0.06530932
-0.045367323 -0.055755716 0.06571831 0.076753095 -0.036404084 -0.022443688 0.06552149 0.025629524
-0.02821311 0.05697575 0.07128314 0.035558216 -0.05925841 0.024859516 -0.051997878 0.030693013
-0.04640844 -0.062014405 -0.036806606 -0.011244595 0.0043051722 -0.012702931 -0.0011189894 0.07106389
0.038827635 0.0045887427 0.022474462 -0.026388789 0.010034711 -0.06715465 0.00994717 -0.060903452
-0.010592774 0.04584318 0.008865055 -0.07490275 0.026969796 -0.0056982813 -0.029488133 -0.0072373464
0.044530123 0.0037056722 0.032433912 -0.0638034 0.0045778537 0.062322453 0.06634504 -0.03531529
-0.06373978 -0.03500903 0.03317514 0.06621282 -0.045104023 -0.05449375 -0.068391055 -0.028247358
0.07443423 0.018228265 0.06148984 0.06610645 0.019187568 0.058126595 -0.010681721 -0.075649895
0.049467333 -0.033772405 -0.02448142 -0.0018851971 -0.0043490184 0.0658986 -0.02310122 -0.067773804
0.04711667 0.031504553 -0.025662532 -0.026370842 -0.02326363 0.028543461 0.06188128 -0.039658684
0.021245407 0.007887745 0.021744965 -0.049884424 -0.010507431 -0.0462786 0.0571725 0.048783947
-0.011861587 -0.07209783 0.035352487 0.0422095 -0.053270858 0.026051149 0.013323961 -0.032043025
0.067938544 -0.011091497 0.037945516 -0.034213614 0.044873595 -0.0031693657 -0.0060775145 0.042129304
00000000: 13c7 84bd b29a 253d 8b7d c6bb 14b5 a83c
00000010: ce51 6f3b 7a45 723d 131c c23c 9b50 8b3c
00000020: fd8d f03c 52e3 903d 6204 a63c d1b0 49bc
00000030: 29d2 1eba af36 1cbd b773 313d bc5d 363a
00000040: 2aca 1d3d eeba 8dbd 4c73 35bd 3283 993d
00000050: d323 403d c3e9 8cbd 88fb 1e3d e5c0 853d
00000060: 16d3 39bd 1b60 64bd 5297 863d ba30 9d3d
00000070: 731c 15bd d3db b7bc 2230 863d 02f5 d13c
00000080: 2e1f e7bc 675f 693d e5fc 913d 7ea5 113d
00000090: f2b8 72bd 2fa6 cb3c bafb 54bd ea6f fb3c
000000a0: c716 3ebd d102 7ebd 86c2 16bd 403b 38bc
000000b0: 6712 8d3b f41f 50bc 0eab 92ba f289 913d
000000c0: ba09 1f3d 2a5d 963b 5d1c b83c 4d2d d8bc
000000d0: a168 243c 6188 89bd 74f9 223c e675 79bd
000000e0: 508d 2dbc 0fc6 3b3d bc3e 113c 9d66 99bd
000000f0: c3ef dc3c a6b8 babb 1991 f1bc 4327 edbb
00000100: 3865 363d ddda 723b 6cd9 043d 5bab 82bd
00000110: d201 963b d445 7f3d e9df 873d c4a6 10bd
00000120: 008a 82bd a165 0fbd a8e2 073d 969a 873d
00000130: ffbe 38bd d734 5fbd 9c10 8cbd 0167 e7bc
00000140: f970 983d 7153 953c c5dc 7b3d d262 873d
00000150: 3f2f 9d3c 2716 6e3d 6302 2fbc 55ee 9abd
00000160: 429e 4a3d ef54 0abd 428d c8bc b818 f7ba
00000170: 3682 8ebb d8f5 863d c53e bdbc fecc 8abd
00000180: 69fd 403d eb0a 013d 3b3a d2bc aa07 d8bc
00000190: 5e93 bebc fad3 e93c 3a77 7d3d 2571 22bd
000001a0: d90a ae3c 9a3b 013c 7f22 b23c 9c53 4cbd
000001b0: 5c27 2cbc a18e 3dbd b62d 6a3d add1 473d
000001c0: 1a57 42bc 07a8 93bd c5cd 103d dee3 2c3d
000001d0: 8b32 5abd 3869 d53c be4c 5a3c 8c3f 03bd
000001e0: 5d23 8b3d 1cb9 35bc c26c 1b3d 9323 0cbd
000001f0: 60cd 373d 22b5 4fbb e325 c7bb c78f 2c3d

crystalGraphConvNet.convs.0.bn1.weight f4 [128]
0.99883366 0.9982486 0.9995518 0.99967796 1.0007992 1.0036498 0.9985863 1.0027275
0.99937654 1.0026649 1.0088215 1.0001616 0.99876183 1.0020671 0.9991345 1.0039533
1.004269 1.0016735 1.0054458 1.0021574 1.0078425 1.0000938 0.9981377 1.0035887
0.9997274 0.99802035 0.99942964 1.0006237 1.0004042 0.99967915 1.0008222 1.0031728
1.0037111 0.99596554 1.0005995 0.9970783 0.9977443 1.0010798 0.9988808 1.0022101
1.0010903 1.0005708 1.0020382 1.0038325 1.007332 1.0008459 0.9955395 1.0034342
0.9982696 0.9997901 0.9993177 1.0025498 0.99901515 1.0010221 0.9990329 0.9983161
1.0011418 0.9989864 0.9970414 1.0085824 1.0033557 1.0045221 0.99768925 1.0008988
1.0013969 1.0012121 1.0004518 0.99945736 0.999269 0.9962011 0.9998226 0.99680024
1.0028356 1.002431 1.0019494 1.0028334 1.0036012 0.9996711 0.9999205 0.9979099
1.0022752 0.9995913 0.999813 0.998056 0.9966568 0.99998105 1.0038319 1.0002013
1.0000314 1.0024302 1.0005785 1.0000095 1.004451 1.0000949 0.9991238 0.99950844
0.9934911 1.0013235 0.9995135 1.0118634 1.0021162 0.9979921 1.0029807 0.99995387
1.0013015 0.9996401 0.9982915 1.0001469 0.9971389 0.9996276 1.0062106 1.0008895
0.9993857 1.0034646 0.99927276 0.9999683 1.0003402 0.9976888 0.99914855 0.9992204
0.9970712 0.99766195 1.0016226 0.9979895 0.9963354 0.9952096 1.0006889 1.0010012
00000000: 90b3 7f3f 388d 7f3f a0e2 7f3f e5ea 7f3f
00000010: 301a 803f 9977 803f 5aa3 7f3f 6059 803f
00000020: 24d7 7f3f 5357 803f 1021 813f 4c05 803f
00000030: dbae 7f3f bc43 803f 47c7 7f3f 8b81 803f
00000040: e38b 803f d636 803f 73b2 803f b246 803f
00000050: fc00 813f 1303 803f f485 7f3f 9875 803f
00000060: 23ee 7f3f 437e 7f3f 9fda 7f3f 7014 803f
00000070: 3f0d 803f f9ea 7f3f f11a 803f f767 803f
00000080: 9b79 803f 99f7 7e3f a513 803f 8640 7f3f
00000090: 2c6c 7f3f 6223 803f a7b6 7f3f 6c48 803f
000000a0: ba23 803f b412 803f ca42 803f 957d 803f
000000b0: 41f0 803f b81b 803f addb 7e3f 8870 803f
000000c0: 998e 7f3f 3ef2 7f3f 49d3 7f3f 8d53 803f
000000d0: 75bf 7f3f 7e21 803f 9fc0 7f3f a591 7f3f
000000e0: 6a25 803f 93bd 7f3f 1b3e 7f3f 3a19 813f
000000f0: f66d 803f 2e94 803f 9068 7f3f 741d 803f
00000100: c62d 803f b827 803f ce0e 803f 70dc 7f3f
00000110: 18d0 7f3f 0907 7f3f 60f4 7f3f 4d2e 7f3f
00000120: eb5c 803f a94f 803f e13f 803f d85c 803f
00000130: 0176 803f 72ea 7f3f cafa 7f3f 0677 7f3f
00000140: 8e4a 803f 37e5 7f3f bff3 7f3f 9980 7f3f
00000150: e624 7f3f c2fe 7f3f 907d 803f 9906 803f
00000160: 0701 803f a24f 803f f512 803f 5000 803f
00000170: da91 803f 1c03 803f 94c6 7f3f c9df 7f3f
00000180: 6f55 7e3f 5e2b 803f 1ee0 7f3f bd84 813f
00000190: 5845 803f 697c 7f3f ac61 803f fafc 7f3f
000001a0: a62a 803f 6ae8 7f3f 0890 7f3f d004 803f
000001b0: 7f44 7f3f 98e7 7f3f 82cb 803f 261d 803f
000001c0: bed7 7f3f 8771 803f 57d0 7f3f ecfd 7f3f
000001d0: 260b 803f 8868 7f3f 33c8 7f3f e8cc 7f3f
000001e0: 0f40 7f3f c666 7f3f 2b35 803f 3d7c 7f3f
000001f0: d60f 7f3f 0ec6 7e3f 9316 803f cf20 803f

crystalGraphConvNet.convs.0.bn1.bias f4 [128]
-0.00023758197 0.0017269095 0.0004931796 -4.7678564e-05 -0.00033643353 0.0044828104 0.0008210151 -0.00042822622
-0.00016883339 0.00077976595 -0.0036317287 -0.0008468827 0.00025327434 5.030885e-05 0.00023788719 0.0009107743
-0.0060636774 -0.0011121844 -0.0023464952 0.0012524356 -0.002027515 -0.00030589892 0.0011121768 -0.0023686439
0.00037940132 0.0017198381 -0.0027251418 -0.00038307652 0.0003879567 -0.0010758494 -1.7450186e-05 0.0013748307
-0.0016694209 0.0044100354 0.0008722392 0.002248302 0.0019377749 0.00096140767 -0.00021721752 -0.0009552878
-0.0008447627 -0.0006836317 -0.0009515514 -0.0012905494 0.0035942513 -0.00042258934 -1.615135e-05 0.0015742641
-0.00026482943 0.0012800115 0.0007397606 -0.0010586331 0.0022490856 0.00029670785 0.000320516 0.0026772846
-0.0010370947 0.0014687226 0.0035480696 -0.0015289262 -0.0019358 0.00013762598 0.002089813 0.00047128205
-0.00083039975 -0.00019175337 -0.0005509686 0.0001985843 0.00012118209 0.005622452 0.00031860036 0.0017929843
-0.0015454103 -0.0008861746 0.00022712268 -0.0019934878 -0.0011143291 8.419848e-05 0.00023320735 0.002611436
-0.0010483812 0.00031721228 -0.0009458719 0.0014928725 0.003827183 1.0747876e-05 -0.0014707526 -0.0011045099
-0.0002261798 -0.0007002742 2.0405772e-05 -0.00013445798 -0.0013666854 8.865434e-06 0.00040543685 0.0041246256
0.0029824215 0.0026816698 0.00019452965 -0.004993444 -0.000834595 0.0008737683 -0.001301291 -0.0003151424
-0.00065716513 0.0002803108 0.0006292701 -7.1819064e-05 0.005802835 -0.00023903263 -0.0021592586 0.0014535272
-0.0005260754 -0.002044772 0.00051089446 0.0003383068 0.00023292222 0.0017074823 0.00065804925 0.00101841
0.0012420267 0.00090213306 -0.00028066148 -0.0011601573 0.001479918 0.0035448573 0.00018464822 0.0011920754
00000000: 6d1f 79b9 7859 e23a b948 013a 78fa 47b8
00000010: 5863 b0b9 8ae4 923b 6439 573a 8d83 e0b9
00000020: de08 31b9 3569 4c3a 4c02 6ebb 5601 5eba
00000030: e8c9 8439 b702 5338 5b71 7939 07c1 6e3a
00000040: d0b1 c6bb b7c6 91ba a8c7 19bb c428 a43a
00000050: 0fe0 04bb 0f61 a0b9 76c6 913a 403b 1bbb
00000060: 62ea c639 316c e13a 4b98 32bb a9d7 c8b9
00000070: ab66 cb39 8403 8dba fd61 92b7 aa33 b43a
00000080: 78d0 daba 0f82 903b fba6 643a 4058 133b
00000090: f0fc fd3a fa06 7c3a e2c4 63b9 476c 7aba
000000a0: 1173 5dba bf35 33ba 8971 79ba a727 a9ba
000000b0: 888d 6b3b fb8e ddb9 c37c 87b7 8a57 ce3a
000000c0: ced8 8ab9 0fc6 a73a 7eec 413a d5c1 8aba
000000d0: 6565 133b 748f 9b39 ee0a a839 6275 2f3b
000000e0: 20ef 87ba 2782 c03a bb86 683b 4066 c8ba
000000f0: abba fdba b14f 1039 3ef5 083b 6816 f739
00000100: 2faf 59ba 6711 49b9 e06e 10ba 113b 5039
00000110: 2423 fe38 8c3c b83b d109 a739 9202 eb3a
00000120: 5d8f caba 2c4e 68ba c827 6e39 2da5 02bb
00000130: ae0e 92ba b793 b038 1f89 7439 a024 2b3b
00000140: d669 89ba 834f a639 64f4 77ba 7dac c33a
00000150: 7ad1 7a3b c751 3437 45c6 c0ba 34c5 90ba
00000160: ae2a 6db9 9b92 37ba 102d ab37 4afd 0cb9
00000170: 5a22 b3ba c0bc 1437 d090 d439 de27 873b
00000180: bb74 433b f4be 2f3b a8fa 4b39 0ba0 a3bb
00000190: b9c8 5aba 990d 653a 1590 aaba b239 a5b9
000001a0: 9b45 2cba aef6 9239 9af5 243a 919d 96b8
000001b0: b525 be3b d5a4 7ab9 5982 0dbb 4884 be3a
000001c0: 53e8 09ba 9501 06bb 8ced 053a c55e b139
000001d0: 953c 7439 99cd df3a f080 2c3a 2b7c 853a
000001e0: 80cb a23a 207d 6c3a bf25 93b9 6b10 98ba
000001f0: cff9 c13a d650 683b 219e 4139 6a3f 9c3a

crystalGraphConvNet.convs.0.bn1.running_mean f4 [128]
-0.009532594 0.11487724 -0.11945213 0.13166627 0.14065288 -0.048229117 0.012860991 0.09929761
0.054701973 0.011165418 0.061310835 -0.0041138753 -0.06487385 0.026084118 0.012494399 -0.09843205
0.13271695 0.025226856 -0.101561226 0.06291596 -0.06128839 -0.05682142 0.09147344 0.21667099
-0.16233847 -0.10566751 0.23381704 0.09734471 0.06819062 -0.055761714 0.05939855 0.021072164
0.033779908 0.09718692 0.13991 -0.07523437 -0.14572164 0.024966588 -0.039057247 0.017271148
0.020205371 -0.06899086 -0.060734566 -0.007465774 -0.096163265 0.011414345 -0.019110972 0.01677924
0.075773485 0.00990679 -0.09783115 -0.09173705 -0.0071408562 -0.023055656 0.03611404 0.07041585
0.030054893 -0.09149902 0.1062659 -0.08798664 0.024835523 -0.035237346 0.0035878103 -0.19614324
0.10805566 -0.17084174 0.09804461 0.02695412 0.06925356 -0.093551934 0.08798089 -0.02523873
-0.028629107 0.06712918 0.0031905347 0.14741124 0.035791494 0.07734279 0.0048920857 -0.19442898
0.21024093 0.03305396 0.11861882 -0.08164517 -0.20008804 -0.014422005 0.15768166 0.04474694
0.071511015 -0.06502919 -0.042950824 -0.0010529812 0.08351314 0.12512639 0.013825679 -0.06909458
0.09551967 -0.046425033 -0.12209335 -0.29553196 -0.05845845 0.03452769 -0.061188422 -0.09140986
0.014015358 0.0011310622 -0.028704137 -0.018988011 -0.10518967 0.020693563 0.033395544 0.015539617
0.071425065 -0.045936868 0.0045169033 0.06895431 -0.05115636 -0.057178695 -0.0052650655 -0.031447545
0.14298183 -0.04136308 0.06943731 0.062369805 0.17614192 0.021632155 -0.031549107 -0.16031444
00000000: 992e 1cbc c244 eb3d 51a3 f4bd 86d3 063e
00000010: 4f07 103e e58b 45bd e8b6 523c 8c5c cb3d
00000020: 2d0f 603d 28ef 363c 1221 7b3d b0cd 86bb
00000030: 95dc 84bd 5cae d53c 4fb5 4c3c be96 c9bd
00000040: f4e6 073e 8da8 ce3c 55ff cfbd 15da 803d
00000050: 8909 7bbd 94bd 68bd 6d56 bb3d 00df 5d3e
00000060: 0e3c 26be 3568 d8bd bc6d 6f3e aa5c c73d
00000070: 86a7 8b3d 6566 64bd e54b 733d 889f ac3c
00000080: cd5c 0a3d f009 c73d 9144 0f3e 7a14 9abd
00000090: 0e38 15be bb86 cc3c 7efa 1fbd 397c 8d3c
000000a0: bc85 a53c 144b 8dbd cfc4 78bd 74a3 f4bb
000000b0: 3ff1 c4bd 3c03 3b3c 9d8e 9cbc 9e74 893c
000000c0: 212f 9b3d 1750 223c b35b c8bd a2e0 bbbd
000000d0: d8fd e9bb 37df bcbc 51ec 133d 2f36 903d
000000e0: ae35 f63c d763 bbbd f0a1 d93d 5732 b4bd
000000f0: de73 cb3c 0955 10bd 7821 6b3b c6d9 48be
00000100: 494c dd3d 23f1 2ebe 9dcb c83d e3ce dc3c
00000110: cfd4 8d3d 2898 bfbd 532f b43d 74c1 cebc
00000120: 9787 eabc 067b 893d 4a18 513b f9f2 163e
00000130: 1a9a 123d e665 9e3d ca4d a03b 6418 47be
00000140: 6649 573e 9763 073d 6dee f23d 9535 a7bd
00000150: e1e3 4cbe 464a 6cbc 4d77 213e 9148 373d
00000160: 5e74 923d 062e 85bd 34ed 2fbd 3004 8aba
00000170: f008 ab3d 2221 003e 1a85 623c 7681 8dbd
00000180: d19f c33d 2d28 3ebd 140c fabd f74f 97be
00000190: 2172 6fbd e86c 0d3d b6a0 7abd 1835 bbbd
000001a0: aca0 653c 2640 943a f024 ebbc bf8c 9bbc
000001b0: af6d d7bd 8c85 a93c c4c9 083d e199 7e3c
000001c0: 4e47 923d 4c28 3cbd 8802 943b eb37 8d3d
000001d0: 5589 51bd 3534 6abd 9286 acbb 24cf 00bd
000001e0: d469 123e 556c 29bd 2635 8e3d 7b77 7f3d
000001f0: 8c5e 343e eb35 b13c a339 01bd 7829 24be

crystalGraphConvNet.convs.0.bn1.running_var f4 [128]
0.012793626 0.013844917 0.010072513 0.009145696 0.0077890526 0.018860754 0.010710496 0.010687527
0.009232473 0.00946441 0.009842916 0.009470845 0.011711216 0.004945693 0.006454457 0.022658475
0.021005804 0.013907747 0.006745015 0.0125319585 0.028957266 0.012903119 0.010349254 0.010819039
0.015511445 0.0073968633 0.010372509 0.014500877 0.00891883 0.0061456063 0.010251744 0.01086799
0.010473257 0.021098446 0.009150567 0.026645567 0.0077048023 0.011083633 0.0056845164 0.009224183
0.0057559763 0.018647755 0.008025788 0.009249919 0.025366955 0.007954893 0.011462898 0.020452319
0.014371942 0.012077257 0.01771189 0.009769327 0.015033083 0.011142726 0.01065377 0.009685475
0.009234382 0.016207438 0.0099014705 0.009960416 0.0114378035 0.006318941 0.009361737 0.023453085
0.012424193 0.012824718 0.0067097824 0.0109141115 0.0113533605 0.02738561 0.01649016 0.013289117
0.016117629 0.017398082 0.008660359 0.011349484 0.011246794 0.013464005 0.013292529 0.0586421
0.01688789 0.011320516 0.011444649 0.01502347 0.06399166 0.008993459 0.015751138 0.011638145
0.016628578 0.00963147 0.010128485 0.00836133 0.010890409 0.015318611 0.007782658 0.023357244
0.014254028 0.030338662 0.012241654 0.044705298 0.0099823745 0.011803428 0.011303631 0.00731397
0.009432953 0.010394195 0.0090293 0.011245253 0.055555586 0.0077660484 0.010434917 0.03199329
0.020184783 0.006700955 0.014485761 0.028159393 0.009696134 0.01617127 0.010708053 0.011102814
0.0103986915 0.019846324 0.01515246 0.024703193 0.021058157 0.012201672 0.0125140995 0.04231822
00000000: 5b9c 513c cad5 623c 2e07 253c d4d7 153c
00000010: 4f3b ff3b de81 9a3c 147b 2f3c bd1a 2f3c
00000020: cc43 173c 9d10 1b3c 2f44 213c 9a2b 1b3c
00000030: 66e0 3f3c 7b0f a23b e97f d33b 449e b93c
00000040: 5d14 ac3c 52dd 633c 4905 dd3b d852 4d3c
00000050: ca37 ed3c 9b67 533c eb8f 293c 5742 313c
00000060: b723 7e3c 6361 f23b 75f1 293c 1695 6d3c
00000070: 4920 123c 1561 c93b eef6 273c a70f 323c
00000080: 0698 2b3c a6d6 ac3c 43ec 153c ce47 da3c
00000090: 9178 fc3b 2098 353c 2e45 ba3b 0721 173c
000000a0: a19c bc3b 2dc3 983c 987e 033c f98c 173c
000000b0: 5cce cf3c 3d55 023c e1ce 3b3c 9f8b a73c
000000c0: 4b78 6b3c b0df 453c 8718 913c 870f 203c
000000d0: 524d 763c fb8f 363c 268d 2e3c d4af 1e3c
000000e0: ce4b 173c 76c5 843c c739 223c 0331 233c
000000f0: a065 3b3c 1e0f cf3b f961 193c af20 c03c
00000100: d88e 4b3c c41e 523c bcdd db3b 1ad1 323c
00000110: 7203 3a3c c957 e03c 5f16 873c 99ba 593c
00000120: 1e09 843c 6c86 8e3c 2ee4 0d3c 30f3 393c
00000130: 7944 383c 2198 5c3c e8c8 593c b332 703d
00000140: 7958 8a3c af79 393c 5682 3b3c 0025 763c
00000150: 0f0e 833d 4d59 133c 8808 813c ebad 3e3c
00000160: a838 883c 50cd 1d3c f2f1 253c f6fd 083c
00000170: b06d 323c e9fa 7a3c ab05 ff3b b157 bf3c
00000180: ba89 693c c988 f83c 3891 483c e71c 373d
00000190: 1d8d 233c 2a63 413c dd32 393c 07aa ef3b
000001a0: ac8c 1a3c 6a4c 2a3c a1ef 133c 023e 383c
000001b0: 418e 633d 567a fe3b 37f7 2a3c 650b 033d
000001c0: 8f5a a53c af93 db3b af55 6d3c 87ae e63c
000001d0: 89dc 1e3c 9c79 843c d470 2f3c 94e8 353c
000001e0: 465f 2a3c c294 a23c 0642 783c 5a5e ca3c
000001f0: 2882 ac3c 86e9 473c f007 4d3c df55 2d3d

crystalGraphConvNet.convs.0.bn2.weight f4 [64]
1.0102661 0.99369174 1.0001261 0.991886 0.9879723 0.98088413 0.9868704 1.0012525
1.0146971 1.0027642 1.0227643 1.0028642 1.0061458 0.99673134 0.99479854 1.0029538
1.0018357 0.9968291 1.0057944 1.0080878 1.0094815 0.9913006 1.0038296 1.0009873
1.0147223 1.009688 1.0011226 0.99068725 1.0033121 1.0028183 0.99813986 1.0026888
0.9884339 0.9820086 1.0079201 1.0446804 1.0005128 0.98948705 1.0150312 1.0018559
1.0052251 1.0057474 0.9982712 0.9939284 0.98730767 0.9876374 1.0098777 1.0068849
0.99495554 1.0004256 0.9885766 1.0081424 0.9900762 0.9960972 0.9910029 0.9941017
0.9913703 1.0003344 0.99331516 1.01437 0.97953063 0.9980872 0.99623996 0.9989028
00000000: 6650 813f 9562 7e3f 2204 803f 3eec 7d3f
00000010: c1eb 7c3f 391b 7b3f 8aa3 7c3f 0b29 803f
00000020: 98e1 813f 945a 803f f1e9 823f db5d 803f
00000030: 63c9 803f c929 7f3f 1eab 7e3f ca60 803f
00000040: 273c 803f 3130 7f3f dfbd 803f 0509 813f
00000050: b136 813f e0c5 7d3f 7d7d 803f 5a20 803f
00000060: 6ce2 813f 753d 813f c924 803f ae9d 7d3f
00000070: 886c 803f 5a5c 803f 1886 7f3f 1b58 803f
00000080: 010a 7d3f ea64 7b3f 8703 813f 16b8 853f
00000090: ce10 803f 064f 7d3f 8bec 813f d03c 803f
000000a0: 37ab 803f 55bc 803f b48e 7f3f 1772 7e3f
000000b0: 32c0 7c3f ced5 7c3f ac43 813f 9be1 803f
000000c0: 68b5 7e3f f20d 803f 5b13 7d3f cf0a 813f
000000d0: a275 7d3f 3a00 7f3f 5eb2 7d3f 737d 7e3f
000000e0: 72ca 7d3f f50a 803f e749 7e3f e0d6 813f
000000f0: 85c2 7a3f a582 7f3f 9509 7f3f 18b8 7f3f

crystalGraphConvNet.convs.0.bn2.bias f4 [64]
0.001467663 -0.0014807574 -0.0009747516 -0.003999848 -0.005335935 -0.001722724 -0.0039219633 -0.0006955955
0.00031784034 -0.0016419636 0.0010548119 -0.0021504022 2.9061042e-05 -0.0032930488 0.00047469186 0.0033521191
-0.0016780449 -0.0012416948 -0.005004663 0.0020068064 0.005755693 -0.0020778088 -0.0035067608 -0.0049453354
0.006223991 0.0021204643 -0.0010705821 -0.006525009 -0.0017456413 0.0004473178 -0.00028197412 -0.00022041179
-0.0026774083 -0.0015178126 0.0027983342 0.009320063 -0.000996983 -0.002148372 0.003967847 -0.0039407806
-0.0017140949 0.0007393728 -0.0020605384 0.0008144993 -0.0014856987 -0.003253639 0.0011661265 0.0040825224
-0.0032868155 -0.0025279403 -0.0029954566 0.0042084623 -0.003314357 -0.0011749618 -0.0002755946 -0.0010534811
-0.0038498018 0.002570438 -0.0015933479 -0.0019331954 -0.006355319 0.0017605474 0.0017437051 0.0002888535
00000000: 995e c03a f915 c2ba 7986 7fba 2811 83bb
00000010: 11d9 aebb 06cd e1ba d083 80bb a058 36ba
00000020: cfa3 a639 2837 d7ba 9d41 8a3a c3ed 0cbb
00000030: 1dc8 f337 31d0 57bb 10e0 f839 3aaf 5b3b
00000040: d8f1 dbba 5dc0 a2ba 28fe a3bb a084 033b
00000050: 419a bc3b d92b 08bb afd1 65bb 7b0c a2bb
00000060: 9ff2 cb3b 7df7 0a3b c652 8cba becf d5bb
00000070: 01ce e4ba fb85 ea39 edd5 93b9 571e 67b9
00000080: 7577 2fbb 57f1 c6ba 4264 373b 2db3 183c
00000090: 33ad 82ba b3cb 0cbb b704 823b aa21 81bb
000000a0: 7bab e0ba 78d2 413a 190a 07bb 1f84 553a
000000b0: c7bb c2ba 013b 55bb b6d8 983a aec6 853b
000000c0: 9d67 57bb cdab 25bb 6c4f 44bb 24e7 893b
000000d0: af35 59bb 2d01 9aba ae7d 90b9 f614 8aba
000000e0: f54c 7cbb cb74 283b e2d7 d0ba 4663 fdba
000000f0: 4840 d0bb 2bc2 e63a 098d e43a 4371 9739

crystalGraphConvNet.convs.0.bn2.running_mean f4 [64]
5.4459176 4.8246536 5.0491543 5.609691 5.3240547 5.796223 4.5642853 5.4226875
4.735562 5.297696 4.481678 5.5605793 4.6684947 5.1369042 4.969136 5.728704
5.255519 4.958058 5.1078553 5.5277634 5.6688204 5.3632793 5.189192 5.074484
5.1708565 4.857396 5.217243 4.711976 5.366329 5.4204307 5.6082177 5.3234525
4.689789 5.696697 5.089093 5.6304317 5.29133 5.19357 5.0766487 4.8440795
5.011678 5.2296653 5.086057 5.066642 5.754498 5.048687 4.655191 5.6138387
5.118175 4.856958 5.3387933 4.789146 5.2021294 5.0429063 5.4978514 4.9337454
5.1348 5.480396 5.3125978 4.5631437 5.5120697 5.1348414 5.3344674 5.7341385
00000000: f544 ae40 9063 9a40 ac92 a140 9782 b340
00000010: a85e aa40 a97a b940 a00e 9240 a886 ad40
00000020: b989 9740 ba86 a940 e869 8f40 44f0 b140
00000030: 4f64 9540 8561 a440 2a03 9f40 8b51 b740
00000040: 362d a840 69a8 9e40 8d73 a340 70e3 b040
00000050: fa66 b540 fc9f ab40 dc0d a640 2c62 a240
00000060: a877 a540 ca6f 9b40 a8f3 a640 82c8 9640
00000070: f8b8 ab40 2b74 ad40 8576 b340 b959 aa40
00000080: c012 9640 584b b640 dad9 a240 7f2c b440
00000090: 9352 a940 ba31 a640 e873 a240 b302 9b40
000000a0: ab5f a040 6b59 a740 fbc0 a240 ee21 a240
000000b0: d924 b840 d88e a140 53f7 9440 91a4 b340
000000c0: 17c8 a340 336c 9b40 65d7 aa40 af40 9940
000000d0: d877 a640 7d5f a140 66ee af40 3ee1 9d40
000000e0: 4850 a440 675f af40 cd00 aa40 4605 9240
000000f0: e062 b040 9f50 a440 f5b3 aa40 107e b740

crystalGraphConvNet.convs.0.bn2.running_var f4 [64]
12.287313 6.823464 11.63606 16.239092 10.29238 20.196102 6.20719 9.819197
5.9077106 8.266573 10.041924 14.576346 5.7731686 9.915752 7.062345 37.577587
12.931449 9.860219 9.29811 27.070208 55.662987 20.015028 11.266753 7.0495343
14.384263 8.911551 12.72854 5.3118258 12.936738 11.873009 16.8573 38.426235
6.67291 30.850372 7.699199 46.050133 15.662727 21.478834 9.6445 12.918968
13.108866 17.099705 9.69629 8.271267 45.463745 8.276947 8.489447 44.61933
13.253688 8.896871 17.586115 6.5498595 21.414436 28.247438 13.973037 13.744691
6.547371 21.761255 7.915854 5.0523696 15.771583 10.827602 22.340117 48.855488
00000000: d698 4441 d159 da40 4d2d 3a41 a9e9 8141
00000010: 97ad 2441 9e91 a141 4da1 c640 6e1b 1d41
00000020: f70b bd40 e243 0441 b9ab 2041 b738 6941
00000030: ccbd b840 eca6 1e41 bbfe e140 734f 1642
00000040: 37e7 4e41 75c3 1d41 0fc5 1441 c98f d841
00000050: e6a6 5e42 c71e a041 9f44 3441 c995 e140
00000060: f125 6641 b795 0e41 1aa8 4b41 7afa a940
00000070: e1fc 4e41 d8f7 3d41 c0db 8641 77b4 1942
00000080: 7b88 d540 90cd f641 d75f f640 5633 3842
00000090: 889a 7a41 a7d4 ab41 df4f 1a41 18b4 4e41
000000a0: eabd 5141 32cc 8841 0124 1b41 1c57 0441
000000b0: e0da 3542 606e 0441 c6d4 0741 327a 3242
000000c0: 1b0f 5441 9559 0e41 5db0 8c41 7398 d140
000000d0: c450 ab41 c1fa e141 8f91 5f41 41ea 5b41
000000e0: 1084 d140 0d17 ae41 ad4e fd40 03ad a140
000000f0: 6758 7c41 dc3d 2d41 8fb8 b241 056c 4342

crystalGraphConvNet.convs.1.fc_full.weight f4 [128, 169]
0.052551236 -0.041271705 -0.03565609 0.05716076 0.010582039 0.010197501 -0.052408595 -0.06091874
-0.07109611 0.068129815 0.050598193 -0.059150554 -0.043976158 0.074821986 0.049907323 -0.01889281
0.031179152 -0.0020503441 0.017342446 -0.040243305 0.036236983 0.05616458 0.07217542 0.04777549
-0.054570645 -0.0062706196 -0.044822205 -0.044305198 0.046779368 0.017978087 0.013931161 0.047792803
0.01874256 -0.040425453 -0.02130565 0.02882138 0.059555147 0.0144014 -0.008625952 -0.058858808
0.02370193 -0.038273554 -0.051609028 -0.017050138 0.024724916 0.0645105 0.045030136 0.04237565
0.025394129 0.07165559 -0.026388949 -0.062466223 -0.003392208 0.029365508 -0.011534897 -0.066445835
-0.000116797615 -0.0013787774 0.05223368 -0.0648933 -0.0034318753 0.0728189 0.07060228 -0.025217542
0.0071860855 -0.031937998 0.020157881 0.035466146 0.07030745 0.014171182 0.016700407 -0.067551054
-0.05377776 -0.010167505 0.0066777435 -0.01079029 0.059456356 -0.043206517 0.04386395 0.067128435
-0.048234653 -0.039890163 -0.07349333 -0.06155073 0.05394051 -0.043158602 -0.015201044 0.06702221
-0.01759765 -0.020120887 0.013561008 -0.07523492 0.028167728 0.050918 -0.059800897 0.041613095
0.05019333 0.023780074 0.064465374 -0.0070997863 0.015918707 0.052392572 -0.057413805 -0.036544476
-0.0042523593 -0.062480625 0.030581295 0.009662634 0.02848801 0.07334188 -0.003307197 -0.007948499
-0.0068253493 -0.05534052 -0.0692277 -0.00025372196 -0.05927795 0.029208627 0.045769494 0.013833033
0.012689247 -0.048938453 0.022440866 -0.055849448 0.013797812 -0.01648907 -0.028936872 -0.04658255
0.057157747 0.054454144 0.041840773 -0.06701941 0.052695632 -0.046084907 0.043583144 -0.06824719
0.0016564367 0.0557144 0.06356227 -0.06263964 0.039942764 0.07442653 -0.017567467 0.013510567
-0.013969384 0.027809883 -0.042462435 -0.052828863 -0.071699016 -0.026914828 0.051327895 0.07175785
-0.003799499 -0.018582141 0.048806027 0.067396365 -0.020092625 -0.022221148 0.065866575 0.025016705
-0.01408117 0.020596698 0.023164026 -0.055536695 0.03695653 0.03585126 0.041999746 0.012099551
0.06498214 0.04027993 -0.0018008935 0.06868642 -0.0063833906 0.049441155 -0.021907235 -0.0018516398
-0.026233012 -0.0058325194 0.067551464 -0.041733563 0.010642248 0.069538325 -0.021747958 0.06560199
0.0043571517 0.078703985 -0.009933616 -0.010574855 0.044612676 0.016178131 -0.015548722 -0.04453189
-0.026078518 0.0014601334 -0.008507436 -0.06528201 -0.038186297 0.036392294 0.057618182 0.046261802
-0.06462951 0.034289006 0.042297505 -0.053389356 -0.06748557 -0.048482314 -0.03185058 -0.06505219
0.003937085 -0.0063708127 0.026796088 -0.07712306 -0.014985884 -0.007265688 0.010203926 0.06677525
0.06627124 0.028773895 0.0115856435 0.03844874 0.009040703 0.050028235 0.017716948 0.019618073
-0.0025021997 0.03123955 -0.07123667 -0.055799477 -0.023412347 -0.043973543 -0.00066874956 0.06291864
0.04027238 0.008014796 0.016610205 -0.0013238008 -0.059104025 -0.008103501 0.057972264 0.017662143
-0.0731032 0.053770013 0.043565433 -0.022303538 -0.060839202 0.0054718764 0.05140963 0.06991834
-0.029934866 -0.056236263 -0.042731866 -0.059630312 0.017279623 -0.013452591 0.020397224 0.034387805
00000000: f73f 573d 850c 29bd 1f0c 12bd 6721 6a3d
00000010: 4a60 2d3c 6b13 273c 65aa 56bd ee85 79bd
00000020: d69a 91bd a587 8b3d 0d40 4f3d da47 72bd
00000030: 5820 34bd 453c 993d 9f6b 4c3d 18c5 9abc
00000040: 6c6b ff3c 115f 06bb bf11 8e3c 2ad6 24bd
00000050: 3b6d 143d d50c 663d b5d0 933d 3bb0 433d
00000060: 7885 5fbd c579 cdbb 7d97 37bd 5e79 35bd
00000070: b99b 3f3d c846 933c 863f 643c 63c2 433d
00000080: ff89 993c 2995 25bd 3089 aebc d11a ec3c
00000090: 19f0 733d daf3 6b3c dd53 0dbc ef15 71bd
000000a0: 8d2a c23c bbc4 1cbd fd63 53bd bbac 8bbc
000000b0: e88b ca3c 151e 843d 8571 383d 1792 2d3d
000000c0: 5907 d03c 2ac0 923d a32d d8bc 95dc 7fbd
000000d0: ce4f 5ebb ef8f f03c ddfc 3cbc c114 88bd
000000e0: 3ef1 f4b8 18b8 b4ba fcf2 553d c7e6 84bd
000000f0: 50e9 60bb 1322 953d ee97 903d 0595 cebc
00000100: 4179 eb3b 6bd1 02bd 2422 a53c f344 113d
00000110: 5afd 8f3d 3f2e 683c 4bcf 883c 3558 8abd
00000120: 1246 5cbd 9b95 26bc f9d0 da3b c2c9 30bc
00000130: 8288 733d 51f9 30bd afaa 333d a27a 893d
00000140: b391 45bd de63 23bd ac83 96bd 9e1c 7cbd
00000150: b9f0 5c3d 13c7 30bd cd0d 79bc f142 893d
00000160: f228 90bc 8fd4 a4bc fd2e 5e3c c414 9abd
00000170: 02c0 e63c 658f 503d c9f1 74bd 7e72 2a3d
00000180: 8597 4d3d 6ece c23c 6c06 843d 53a5 e8bb
00000190: f367 823c 9899 563d bd2a 6bbd a9af 15bd
000001a0: 6057 8bbb afeb 7fbd a085 fa3c 0650 1e3c
000001b0: b05f e93c 4534 963d 8fbd 58bb 6c3a 02bc
000001c0: 2ea7 dfbb beac 62bd 41c7 8dbd fc05 85b9
000001d0: 70cd 72bd ee46 ef3c cb78 3b3d f2a3 623c
000001e0: 8fe6 4f3c b073 48bd e8d5 b73c 64c2 64bd
000001f0: 3810 623c 1614 87bc 050d edbc 58cd 3ebd
00000200: 3e1e 6a3d 4f0b 5f3d 3b61 2b3d 7941 89bd
00000210: 60d7 573d 87c3 3cbd 3d84 323d 2fc5 8bbd
00000220: cb1c d93a c834 643d ef2c 823d 3649 80bd
00000230: 069b 233d f06c 983d a6e9 8fbc 6d5b 5d3c
00000240: d8df 64bc 8dd1 e33c 17ed 2dbd 1463 58bd
00000250: efd6 92bd 7c7c dcbc 333d 523d c8f5 923d
00000260: 0401 79bb 9339 98bc d4e8 473d 1b07 8a3d
00000270: 4a99 a4bc 2009 b6bc 0ee5 863d d5ef cc3c
00000280: b5b4 66bc 68ba a83c 7cc2 bd3c 727a 63bd
00000290: bb5f 173d c5d8 123d ed07 2c3d 323d 463c
000002a0: 5b15 853d 91fc 243d f50b ecba 77ab 8c3d
000002b0: c32b d1bb cf82 4a3d cd76 b3bc b9b2 f2ba
000002c0: 9de6 d6bc b81e bfbb 6c58 8a3d d0f0 2abd
000002d0: d35c 2e3c 1c6a 8e3d c628 b2bc 565a 863d
000002e0: 70c6 8e3b 8e2f a13d 9bc0 22bc 2842 2dbc
000002f0: c8bb 363d 0088 843c 11c0 7ebc 1267 36bd
00000300: 9ea2 d5bc f261 bf3a c662 0bbc 93b2 85bd
00000310: 3c69 1cbd 1610 153d 0b01 6c3d 047d 3d3d
00000320: 7a5c 84bd a172 0c3d 2640 2d3d ccae 5abd
00000330: e035 8abd 6495 46bd c175 02bd 153a 85bd
00000340: aa02 813b 40c2 d0bb 7883 db3c b2f2 9dbd
00000350: 5a87 75bc 0215 eebb 5e2e 273c 76c1 883d
00000360: 37b9 873d 3bb7 eb3c b6d1 3d3c 6d7c 1d3d
00000370: 751f 143c 68ea 4c3d 2223 913c 15b6 a03c
00000380: f2fb 23bb 16ea ff3c 88e4 91bd fe8d 64bd
00000390: 40cb bfbc 9a1d 34bd 064f 2fba 7ddb 803d
000003a0: a7f4 243d 7e50 033c 2012 883c 6283 adba
000003b0: 1017 72bd 8cc4 04bc 5374 6d3d 33b0 903c
000003c0: 21b7 95bd f23d 5c3d ab71 323d e9b5 b6bc
000003d0: 8732 79bd 6d4d b33b e792 523d 5931 8f3d
000003e0: f739 f5bc ff57 66bd 9c07 2fbd ea3e 74bd
000003f0: ff8d 8d3c 4268 5cbc 1418 a73c 3ada 0c3d

crystalGraphConvNet.convs.1.fc_full.bias f4 [128]
-0.020911282 0.04298854 0.021908402 0.03085174 -0.06061114 -0.007720049 0.06885725 0.002392802
-0.041671213 0.07496611 -0.012359466 -0.061414603 0.029598577 0.043797128 0.061652075 0.023476424
-0.05069485 0.05439202 -0.04787602 0.0027983007 -0.0008078394 -0.023895785 -0.023327691 0.07126963
-0.021923373 0.059198793 -0.06592004 -0.06387144 -0.06798345 -0.015209593 0.049088158 -0.02447708
-0.017506553 0.01390626 0.062090408 -0.07322116 0.012847828 -0.04032234 -0.048237674 -0.07484364
0.006723178 0.027180113 0.059144985 -0.052080184 0.05343078 0.05226041 0.05717128 -0.023119166
-0.067251906 -0.015253526 0.027202515 -0.025486149 0.02201271 -0.047859468 0.07455581 0.0701526
0.04033157 0.054385222 -0.059396673 0.07439077 -0.06313672 0.024966728 0.024043031 -0.048048194
0.018547757 -0.015276394 0.037521567 0.056989525 0.06258167 -0.012233118 0.023847334 -0.07484118
0.06756872 0.040377114 0.07490733 -0.009704158 -0.07591305 -0.07593155 0.009105197 -0.038066626
0.039769463 -0.010478029 0.026770629 -0.06854983 0.01690904 0.012010344 0.014681054 0.02584495
-0.0026439368 -0.025622277 -0.0045632184 0.038227916 0.02649736 -0.031235008 0.021438489 -0.07480309
0.059453197 0.010607931 0.031468723 0.039725985 0.064574875 0.029812602 -0.008926154 0.06644356
-0.021542642 0.03808019 0.014533362 0.013527657 -0.049262047 0.039256986 -0.07172397 0.00042397215
-0.014787814 -0.076655135 0.01806462 -0.011599457 0.048473835 -0.05933206 0.015509504 0.06233933
0.06387961 0.032088276 -0.05857841 -0.052518286 0.07423977 -0.04378222 -0.03947589 -0.03846979
00000000: 234e abbc c014 303d 4079 b33c cabc fc3c
00000010: 6343 78bd 77f8 fcbb 0805 8d3d 8ed0 1c3b
00000020: 6faf 2abd d587 993d 5c7f 4abc e18d 7bbd
00000030: b778 f23c 9e64 333d e386 7c3d a151 c03c
00000040: 67a5 4fbd 2bca 5e3d a519 44bd b263 373b
00000050: 2fc5 53ba 18c1 c3bc b719 bfbc d0f5 913d
00000060: a598 b3bc 6f7a 723d 1601 87bd 08cf 82bd
00000070: e83a 8bbd a831 79bc aa10 493d 2884 c8bc
00000080: e769 8fbc 15d7 633c 8352 7e3d faf4 95bd
00000090: b27f 523c 0a29 25bd de94 45bd 9f47 99bd
000000a0: 1b4e dc3b d4a8 de3c 0342 723d 0852 55bd
000000b0: 3cda 5a3d 030f 563d 6f2c 6a3d 6864 bdbc
000000c0: 5ebb 89bd ede9 79bc cfd7 de3c 54c8 d0bc
000000d0: 0054 b43c 4a08 44bd b7b0 983d 2bac 8f3d
000000e0: b732 253d 0ac3 5e3d ed49 73bd 305a 983d
000000f0: d34d 81bd 0687 cc3c e4f5 c43c 2fce 44bd
00000100: 77f1 973c d749 7abc 37b0 193d d96d 693d
00000110: d22a 803d 6a6d 48bc 7c5b c33c 5546 99bd
00000120: 7861 8a3d 7962 253d 0469 993d 30fe 1ebc
00000130: 4d78 9bbd 0082 9bbd f72d 153c c0eb 1bbd
00000140: 4ee5 223d 0aac 2bbc 144e db3c da63 8cbd
00000150: d484 8a3c 09c7 443c ce88 703c cab8 d33c
00000160: e645 2dbb cfe5 d1bc 0d87 95bb e094 1c3d
00000170: fe10 d93c 8fe0 ffbc c59f af3c 5d32 99bd
00000180: 3285 733d e3cc 2d3c 59e5 003d b7b7 223d
00000190: d53f 843d 8f39 f43c 013f 12bc 9013 883d
000001a0: 327a b0bc f9f9 1b3d 571d 6e3c 1ba3 5d3c
000001b0: 00c7 49bd efcb 203d 04e4 92bd 9448 de39
000001c0: 9648 72bc 5efd 9cbd 41fc 933c a60b 3ebc
000001d0: 808c 463d 2d06 73bd 931b 7e3c 8657 7f3d
000001e0: 50d3 823d ff6e 033d eaef 6fbd 6a1d 57bd
000001f0: 050b 983d fc54 33bd 79b1 21bd 8092 1dbd

crystalGraphConvNet.convs.1.bn1.weight f4 [128]
0.999981 1.0012422 0.9997649 1.0032874 0.9992376 0.9977777 1.0021137 1.0003539
0.998491 1.0023353 0.9996213 1.006094 1.0015458 1.0046809 1.0007657 0.99936974
1.0027789 1.0071864 0.99982333 1.0000845 0.99840105 0.9999786 1.0001652 1.0011232
1.0013475 1.0022742 1.0025725 1.0006762 1.0020919 0.999243 1.0027936 0.99994093
1.0027165 1.0019276 0.99985665 1.0026104 1.0008166 0.999939 1.000156 1.0011437
0.99508226 1.0052043 1.0002321 1.0004342 1.0008025 1.0014803 0.99931115 0.9988136
1.0044624 1.0000278 0.99866 1.0012366 1.0002704 0.99839664 1.0035188 1.0002269
0.9990727 1.0071619 0.9994487 0.9996618 0.998503 0.9973029 1.0022205 1.0023555
1.0020485 1.0005833 1.0004749 0.9985445 1.0000812 1.0033857 0.99829245 1.0019426
1.0008742 0.99795073 0.99940157 0.99530464 1.0004412 0.9979184 1.0001795 0.99997747
1.0040388 1.0016352 1.0025685 1.0009526 1.0010722 1.0007273 0.9991713 0.99902236
1.0048397 1.0007566 1.0009294 1.0004327 0.9996741 1.0017794 0.9993199 1.0000038
1.0046116 1.0011286 0.9999717 1.0006613 1.0003157 1.0014803 0.9986339 1.001806
1.0026181 1.001013 1.0000157 0.99843127 0.99884754 0.9991507 1.0010986 1.002178
0.99685705 1.0004504 1.0003623 0.9996265 0.99953914 1.0013436 0.9958197 1.0051051
1.0003452 0.9996576 1.0004988 1.0022438 0.99997914 1.0016773 0.99866486 0.9989743
00000000: c1fe 7f3f b428 803f 98f0 7f3f b96b 803f
00000010: 09ce 7f3f 5c6e 7f3f 4345 803f 990b 803f
00000020: 1b9d 7f3f 864c 803f 2ee7 7f3f b0c7 803f
00000030: a732 803f 6299 803f 1719 803f b2d6 7f3f
00000040: 0f5b 803f 7ceb 803f 6cf4 7f3f c502 803f
00000050: 3697 7f3f 99fe 7f3f 6a05 803f ce24 803f
00000060: 282c 803f 854a 803f 4c54 803f 2816 803f
00000070: 8c44 803f 64ce 7f3f 8a5b 803f 21fc 7f3f
00000080: 0459 803f 2a3f 803f 9bf6 7f3f 8a55 803f
00000090: c21a 803f 01fc 7f3f 1d05 803f 7a25 803f
000000a0: b6bd 7e3f 89aa 803f 9b07 803f 3a0e 803f
000000b0: 4c1a 803f 8230 803f dbd2 7f3f 40b2 7f3f
000000c0: 3992 803f e900 803f 2fa8 7f3f 8528 803f
000000d0: dc08 803f ec96 7f3f 4e73 803f 6f07 803f
000000e0: 3ac3 7f3f aeea 803f dfdb 7f3f d6e9 7f3f
000000f0: e59d 7f3f 3e4f 7f3f c348 803f 2f4d 803f
00000100: 2043 803f 1d13 803f 900f 803f 9da0 7f3f
00000110: a902 803f f16e 803f 1890 7f3f a83f 803f
00000120: a51c 803f b379 7f3f c8d8 7f3f 49cc 7e3f
00000130: 750e 803f 9577 7f3f e205 803f 86fe 7f3f
00000140: 5884 803f 9535 803f 2a54 803f 371f 803f
00000150: 2223 803f d517 803f b1c9 7f3f eebf 7f3f
00000160: 969e 803f cb18 803f 741e 803f 2e0e 803f
00000170: a4ea 7f3f 4f3a 803f 6ed3 7f3f 2000 803f
00000180: 1d97 803f fb24 803f 25fe 7f3f ab15 803f
00000190: 580a 803f 8230 803f 79a6 7f3f 2e3b 803f
000001a0: ca55 803f 3221 803f 8400 803f 3199 7f3f
000001b0: 79b4 7f3f 57c8 7f3f 0024 803f 5e47 803f
000001c0: 0632 7f3f c20e 803f df0b 803f 86e7 7f3f
000001d0: cce1 7f3f 072c 803f 0aee 7e3f 49a7 803f
000001e0: 500b 803f 8fe9 7f3f 5810 803f 8649 803f
000001f0: a2fe 7f3f f636 803f 80a8 7f3f c8bc 7f3f
