get_descriptor_cgcnn/saved_models/pbe_168.ckpt (torch, 675914 bytes, 58 tensors)

crystalGraphConvNet.embedding.weight f4 [64, 92]
0.019486599 0.11584217 0.07905781 -0.01131388 0.06258248 -0.014142068 -0.08458473 0.04504442
-0.004471496 -0.009337135 -0.003216456 0.071445815 -0.07369426 0.012196907 -0.028345026 0.06690858
0.026149 -0.03337788 0.04561981 0.042685617 0.06947267 -0.0835644 -0.07481132 0.04385236
-0.032279678 -0.01209805 -0.093350895 -0.07906779 -0.09769218 -0.04826295 -0.062186312 0.04605048
-0.029747143 -0.080750376 0.07606462 -0.0019174307 0.026561236 -0.040758986 0.0927843 0.035949826
-0.0006900483 0.06132124 0.080634974 -0.05917554 -0.03450321 -0.037386246 0.046672195 -0.030353233
0.050607305 0.10009372 -0.0704977 0.0775794 0.099253744 0.030666297 0.047479138 -0.021923782
-0.08696924 -0.060453467 -0.07100144 0.057879478 -0.053739566 0.024710258 -0.036915503 -0.0029256549
-0.02906385 0.07202568 0.028397476 0.05433769 -0.0997096 0.057126842 0.094475925 0.09165731
0.094668955 -0.022153838 -0.014483867 -0.014695311 -0.065734066 0.017395386 -0.01049586 -0.033342797
0.03673302 0.045746423 0.019767562 -0.093404815 0.041151978 0.063265845 -0.033479698 -0.060587835
0.015179284 -0.042286616 -0.027036037 -0.10440745 -0.03788482 -0.07530925 0.10942512 -0.025309335
0.016585045 0.062057532 -0.06469859 -0.019922335 0.0790113 -0.048850175 0.07060815 -0.04932157
0.1088462 0.03230421 -0.11851475 -0.0014313656 0.09706604 0.081314765 -0.038286828 0.015733216
0.041752763 0.07611851 -0.0013504821 0.037530772 -0.03246384 0.021299653 0.035725154 -0.048569594
0.13410899 -0.0025781603 0.05292746 0.10730339 0.0034295027 -0.095256224 0.049718406 -0.018763084
-0.01839941 -0.050242044 -0.025591739 -0.022088576 -0.016194116 0.111281715 0.076641396 -0.04765131
-0.07182376 0.09459926 -0.10776155 -0.044959843 -0.06707888 -0.010033559 -0.08495561 -0.077982314
0.020725936 -0.1093757 0.09647554 0.08769517 0.08288067 0.09024595 -0.007190288 -0.09380998
0.044143975 -0.07904688 0.09396377 -0.095483355 0.024417745 0.04006658 -0.011249093 0.084737465
-0.07754361 0.047504555 -0.045340907 -0.06508724 -0.04101951 0.07931581 0.005650444 -0.031091444
-0.08742741 -0.05351231 -0.08119782 -0.007381781 -0.06700681 -0.07441484 0.023265062 0.011313491
-0.08013919 0.07397369 -0.039864935 0.10095259 0.06819494 0.09310592 0.08832709 0.007635201
0.06436081 -0.066661835 0.072454736 0.051678088 -0.040207364 0.08903505 0.060024213 -0.08895855
0.07614028 0.0078517385 0.061629467 0.009288397 0.060720485 -0.07682069 0.0389714 -0.042172436
0.039781228 -0.023397919 -0.06545063 -0.015798163 -0.064846285 -0.0035560187 0.0828681 -0.0016956022
-0.035043318 -0.072834104 0.02542173 -0.0447056 -0.10860675 -0.025256703 -0.011022987 0.08010861
-0.03334862 -0.06786022 0.0070480253 -0.09458822 0.08233813 0.018317292 0.028063977 0.10297843
0.08939111 -0.017959625 -0.0877489 -0.084372245 0.064489216 0.08384502 -0.0014791403 0.00750507
0.072715156 -0.11664926 -0.04261833 -0.061805766 -0.087673075 -0.090658255 -0.072977275 0.06604531
-0.055118036 -0.0018104094 -0.032364268 0.058469154 0.05796879 0.06132438 -0.06388153 -0.11201845
0.06841496 0.050579917 0.07415074 -0.08131951 0.010854468 0.067890584 0.03804111 -0.08315862
00000000: 5ca2 9f3c a93e ed3d 10e9 a13d da5d 39bc
00000010: 3e2b 803d 22b4 67bc c23a adbd 7f80 383d
00000020: a185 92bb c8fa 18bc 2dcb 52bb 2f52 923d
00000030: 04ed 96bd 89d5 473c d433 e8bc 5e07 893d
00000040: 6d36 d63c 3eb7 08bd d6db 3a3d 1dd7 2e3d
00000050: b047 8e3d d023 abbd ad36 99bd 889e 333d
00000060: b237 04bd e636 46bc c12e bfbd 4bee a1bd
00000070: d612 c8bd 5faf 45bd 13b7 7ebd 6e9f 3c3d
00000080: 48b0 f3bc 7460 a5bd c4c7 9b3d 4c52 fbba
00000090: f396 d93c e5f2 26bd b205 be3d 2040 133d
000000a0: 5ce4 34ba fb2b 7b3d f323 a53d 0d62 72bd
000000b0: 3d53 0dbd 5222 19bd 582b 3f3d 58a7 f8bc
000000c0: 9b49 4f3d f0fd cc3d 1961 90bd f3e1 9e3d
000000d0: 8c45 cb3d e337 fb3c 7c79 423d 8199 b3bc
000000e0: ee1c b2bd 0e9e 77bd 3469 91bd 0813 6d3d
000000f0: 051e 5cbd 2b6d ca3c b634 17bd 58bc 3fbb
00000100: 5017 eebc 3382 933d d3a1 e83c 3391 5e3d
00000110: 8c34 ccbd d6fd 693d 987c c13d d4b6 bb3d
00000120: cce1 c13d f77b b5bc be4d 6dbc 9ac4 70bc
00000130: 959f 86bd c580 8e3c d4f6 2bbc 7592 08bd
00000140: 5d75 163d 9a60 3b3d 95ef a13c 064b bfbd
00000150: fa8e 283d 8691 813d 0222 09bd f32a 78bd
00000160: 88b2 783c bb34 2dbd ae7a ddbc 93d3 d5bd
00000170: 1d2d 1bbd bc3b 9abd 471a e03d 8655 cfbc
00000180: 5cdd 873c 0a30 7e3d b280 84bd 2a34 a3bc
00000190: add0 a13d 1f17 48bd 019b 903d 6a05 4abd
000001a0: c2ea de3d 6b51 043d dcb7 f2bd a99c bbba
000001b0: 8fca c63d 5b88 a63d a6d2 1cbd f2e2 803c
000001c0: f204 2b3d 05e4 9b3d a902 b1ba deb9 193d
000001d0: cef8 04bd 9c7c ae3c 8a54 123d e9f0 46bd
000001e0: de53 093e 5af6 28bb 77ca 583d e1c1 db3d
000001f0: 82c1 603b b215 c3bd 87a5 4b3d 0ab5 99bc
00000200: 5cba 96bc 9aca 4dbd c4a5 d1bc 1af3 b4bc
00000210: 86a9 84bc abe7 e33d 2af6 9c3d 052e 43bd
00000220: 5618 93bd 42bd c13d 16b2 dcbd d027 38bd
00000230: a760 89bd cc63 24bc 35fd adbd 31b5 9fbd
00000240: 70c9 a93c 5e00 e0bd f894 c53d 8699 b33d
00000250: 57bd a93d ded2 b83d 829c ebbb 721f c0bd
00000260: 50d0 343d 55e3 a1bd 1470 c03d c78c c3bd
00000270: b907 c83c db1c 243d 1e4e 38bc d68a ad3d
00000280: 2fcf 9ebd 2394 423d 63b7 39bd 754c 85bd
00000290: 1304 28bd 5470 a23d 5c27 b93b 7cb3 febc
000002a0: 240d b3bd b92f 5bbd 0b4b a6bd dee2 f1bb
000002b0: de3a 89bd cf66 98bd 5f96 be3c 385c 393c
000002c0: 0420 a4bd 857f 973d 6a49 23bd 3bc0 ce3d
000002d0: caa9 8b3d 51ae be3d d5e4 b43d b530 fa3b
000002e0: 9acf 833d 0086 88bd 2663 943d 67ac 533d
000002f0: 7ab0 24bd 0258 b63d f3db 753d e62f b6bd
00000300: 6fef 9b3d 94a4 003c 2e6f 7c3d 5c2e 183c
00000310: 0bb6 783d 2a54 9dbd 7aa0 1f3d 01bd 2cbd
00000320: a4f1 223d feac bfbc fb0a 86bd 266b 81bc
00000330: 21ce 84bd 180c 69bb c0b6 a93d f83e deba
00000340: 9589 0fbd 0c2a 95bd 3b41 d03c 381d 37bd
00000350: 376d debd 25e7 cebc c299 34bc fc0f a43d
00000360: 9098 08bd 4dfa 8abd 1ff3 e63b 78b7 c1bd
00000370: e5a0 a83d 250e 963c 6de6 e53c 5be6 d23d
00000380: b012 b73d 1020 93bc b2b5 b3bd 5bcb acbd
00000390: ec12 843d f0b6 ab3d b6df c1ba 17ed f53b
000003a0: afeb 943d cfe5 eebd 8f90 2ebd 0b28 7dbd
000003b0: f18d b3bd 09ab b9bd 1c75 95bd c342 873d
000003c0: 73c3 61bd 424b edba 6590 04bd 5a7d 6f3d
000003d0: af70 6d3d 462f 7b3d 52d4 82bd ee69 e5bd
000003e0: 241d 8c3d e32c 4f3d 58dc 973d d88a a6bd
000003f0: f0d6 313c 380a 8b3d ffd0 1b3d 114f aabd

crystalGraphConvNet.embedding.bias f4 [64]
0.07560876 0.044282172 0.03767182 0.051347 -0.03419638 -0.013068214 -0.03471862 -0.04414079
0.08346052 -0.08416679 -0.09058306 -0.07640553 0.09235955 -0.044133857 -0.02603292 -0.034077443
0.09525203 -0.05173212 -0.03723054 -0.08268601 0.064519145 0.02516081 -0.05807484 0.033373673
-0.08668387 -0.02125543 0.049005333 -0.063649066 0.03002307 0.029369611 0.037567623 0.021604156
0.0018155361 -0.11077915 -0.03226426 -0.07509517 -0.03350127 -0.03450077 -0.091213495 0.036718752
0.08637377 -0.007252531 -0.004537374 0.08360967 0.018373257 0.07799797 0.00531903 0.016499769
0.065291144 0.081152074 -0.10162002 0.0915978 0.058318254 0.031884324 -0.0891108 0.071583435
-0.06207896 -0.018161986 -0.04312216 -0.03218195 -0.055091262 0.036287785 -0.023194034 0.08954944
00000000: c4d8 9a3d 3961 353d c44d 1a3d 3b51 523d
00000010: 8111 0cbd 101c 56bc 1d35 0ebd f9cc 34bd
00000020: 59ed aa3d a35f acbd 9d83 b9bd 817a 9cbd
00000030: 0127 bd3d b4c5 34bd fe42 d5bc ca94 0bbd
00000040: 7f13 c33d 0fe5 53bd 0d7f 18bd 4857 a9bd
00000050: 9d22 843d 0b1e ce3c e2df 6dbd d5b2 083d
00000060: 5087 b1bd de1f aebc d1b9 483d 715a 82bd
00000070: f1f2 f53c 8a98 f03c 82e0 193d 33fb b03c
00000080: 48f7 ed3a 2ee0 e2bd 8727 04bd 7fcb 99bd
00000090: a138 09bd ae50 0dbd 24ce babd 6766 163d
000000a0: bbe4 b03d a4a6 edbb 40ae 94bb 8c3b ab3d
000000b0: 8383 963c 66bd 9f3d 424b ae3b 862a 873c
000000c0: 5db7 853d 0f33 a63d 281e d0bd a197 bb3d
000000d0: 1fdf 6e3d 2399 023d b97f b6bd 569a 923d
000000e0: 8246 7ebd 72c8 94bc dda0 30bd 38d1 03bd
000000f0: 60a7 61bd 80a2 143d 6a01 bebc b265 b73d

crystalGraphConvNet.convs.0.fc_full.weight f4 [128, 169]
-0.026944777 -0.044542454 0.030511793 -0.038339827 -0.036472037 -0.0073602777 -0.027336618 0.010269049
-0.030664742 0.03113249 -0.0025518332 -0.0066654095 -0.0633242 0.02867392 0.06446008 -0.064652584
-0.036335997 -0.06589434 -0.059518676 -0.04327995 0.007835271 -0.018061593 -0.023760462 0.0070773354
0.014413182 -0.052110083 -0.0060933256 -0.06066613 -0.03987967 -0.027142826 -0.07009547 -0.029849734
-0.061743718 0.056957368 0.012099562 -0.018560475 -0.05102195 0.027964268 -0.017322645 -0.02333963
-0.052040003 -0.0062466846 0.048905224 -0.03528884 0.0034771636 0.057464343 -0.08069958 -0.05597986
0.057265587 0.053335395 0.005271125 0.0025393846 0.03645315 0.03587753 0.004495698 0.06859915
0.012837997 -0.0072353366 0.017449288 0.026100075 0.03773195 0.029265204 0.07017941 -0.072195694
-0.018577216 0.052214067 -0.039957147 -0.050688483 -0.0029816977 -0.055044558 0.06719941 -0.065771334
-0.0017471313 -0.05947698 0.06013952 0.045120496 0.03932971 -0.0168569 0.07142549 0.07357974
-0.030573847 -0.039896473 0.009344537 -0.076214455 -0.034518495 0.043183737 -0.069987774 -0.055656258
-0.042507745 -0.05486815 -0.039096035 -0.04326315 0.032771453 0.031509575 -0.05471498 -0.039537232
-0.00976471 -0.02654771 -0.037253648 0.0056162104 0.07781545 0.026514826 0.0332373 0.007773071
0.0060234354 0.0801831 -0.054009996 -0.029095007 0.06818802 0.03311572 -0.04346057 0.013753785
0.025661193 0.017938286 0.05113879 0.042320088 -0.053055044 0.05273182 0.039970122 -0.045236968
-0.056661356 -0.040504016 -0.027960503 0.010623226 0.04967544 -0.0071659107 0.0652336 -0.055729914
-0.02594661 -0.050900344 0.055789627 -0.04135076 -0.052279625 0.054455206 -0.014989179 -0.035181496
0.037003048 0.053600453 0.05025294 0.050014727 -0.06979689 -0.033620656 0.033907976 -0.031938054
-0.001699026 0.025843466 -0.03819343 0.070030436 -0.07010341 -0.06461498 -0.07435279 0.008260996
0.022297964 -0.059843864 0.06866303 0.07026016 -0.05139384 -0.058140673 0.046149917 -0.00018733126
0.0005586874 0.023398226 -0.031937838 0.07149752 0.01625493 -0.00077530975 -0.023432631 0.03046642
0.038883165 -0.058863398 0.04140875 -0.03317471 0.06201492 -0.009152944 0.06890869 0.04806267
-0.051107645 0.049043454 -0.07149805 -0.07275232 -0.049150467 0.008701795 0.033654556 0.016523143
-0.027082514 -0.05163911 0.057673324 -0.0485241 -0.04063511 -0.057991236 -0.055492382 -0.03619004
0.029177994 0.042966735 -0.022197008 -0.039605305 0.0033261115 -0.021611229 -0.04938899 -0.004220797
-0.036315512 0.082317054 -0.07745274 0.06971253 -0.010001244 0.029998882 0.035476197 0.021679157
0.03851309 -0.037311822 -0.016551444 -0.040290188 -0.048109353 0.07141362 -0.020974249 0.063161075
-0.06713424 -0.031488616 0.0038833173 -0.076159135 -0.055854127 -0.052830063 0.019750446 0.0510044
0.005352296 -0.0055783214 -0.04373957 0.03853594 0.020018142 0.05398703 -0.033324156 -0.08058109
-0.039553862 0.07469261 -0.014506732 0.0731441 0.00070320355 -0.07470322 -0.009951241 -0.010576688
-0.006604856 0.057770956 0.0062956694 -0.036823787 0.0620269 -0.007259168 0.045232363 0.047678806
0.0526616 -0.035172872 -0.014844959 -0.012245485 0.0487651 0.07227364 0.005651498 -0.050893772
00000000: 4bbb dcbc 2672 36bd def3 f93c 390a 1dbd
00000010: b463 15bd 7c2e f1bb 0bf1 dfbc 833f 283c
00000020: a034 fbbc 9009 ff3c a83c 27bb 8269 dabb
00000030: 1eb0 81bd 92e5 ea3c a503 843d 9368 84bd
00000040: 0ed5 14bd 9df3 86bd dbc9 73bd 5146 31bd
00000050: 825f 003c e8f5 93bc 4da5 c2bc fee8 e73b
00000060: 4425 6c3c 6271 55bd 85aa c7bb 0c7d 78bd
00000070: dd58 23bd a25a debc 378e 8fbd 6e87 f4bc
00000080: fbe6 7cbd 214c 693d 3e3d 463c 230c 98bc
00000090: 64fc 50bd 5215 e53c 38e8 8dbc c032 bfbc
000000a0: e627 55bd fdb0 ccbb d850 483d 088b 10bd
000000b0: 20e1 633b bb5f 6b3d d245 a5bd 234b 65bd
000000c0: 528f 6a3d 3776 5a3d 67b9 ac3b ce6b 263b
000000d0: e64f 153d 51f4 123d a650 933b b67d 8c3d
000000e0: 7656 523c 6716 edbb cff1 8e3c d3cf d53c
000000f0: d18c 1a3d 95bd ef3c 39ba 8f3d 56db 93bd
00000100: 3f2f 98bc 6bde 553d 1baa 23bd ba9e 4fbd
00000110: 9668 43bb 6776 61bd d89f 893d 1fb3 86bd
00000120: 0000 e5ba 229e 73bd db54 763d 45d0 383d
00000130: 3118 213d 7b17 8abc 8747 923d fab0 963d
00000140: 0176 fabc 7c6a 23bd d419 193c 5316 9cbd
00000150: 4463 0dbd 6ee1 303d c055 8fbd d1f7 63bd
00000160: 9a1c 2ebd 6dbd 60bd 2a23 20bd b334 31bd
00000170: 5c3b 063d 2f10 013d d11c 60bd cbf1 21bd
00000180: 2afc 1fbc 957a d9bc 4897 18bd 3008 b83b
00000190: b55d 9f3d 9f35 d93c d623 083d 3fb5 fe3b
000001a0: 3d60 c53b 0a37 a43d 9639 5dbd a758 eebc
000001b0: 29a6 8b3d 59a4 073d b603 32bd 8e57 613c
000001c0: 6c37 d23c 50f3 923c e876 513d d457 2d3d
000001d0: 3f50 59bd 52fd 573d b6b7 233d 664a 39bd
000001e0: bd15 68bd 8ae7 25bd 6d0d e5bc 0a0d 2e3c
000001f0: 7978 4b3d 04d0 eabb 3299 853d 0d45 64bd
00000200: fc8d d4bc e17c 50bd aa83 643d 6a5f 29bd
00000210: 2923 56bd 6c0c 5f3d 2c95 75bc 791a 10bd
00000220: 8290 173d 268c 5b3d 07d6 4d3d 3edc 4c3d
00000230: acf1 8ebd d0b5 09bd 17e3 0a3d 7ad1 02bd
00000240: dab1 deba adb5 d33c b770 1cbd 1e6c 8f3d
00000250: 6092 8fbd dc54 84bd 4746 98bd 2159 073c
00000260: 38aa b63c d71e 75bd 349f 8c3d 8fe4 8f3d
00000270: 5982 52bd ea24 6ebd b207 3d3d 5a6e 44b9
00000280: e074 123a a3ad bf3c 40d1 02bd 4b6d 923d
00000290: 0f29 853c 283e 4bba caf5 bfbc b794 f93c
000002a0: f443 1f3d bf1a 71bd 399c 293d 34e2 07bd
000002b0: 5b03 7e3d 3bf6 15bc 0020 8d3d 5ddd 443d
000002c0: 4056 51bd cae1 483d 926d 92bd 2bff 94bd
000002d0: 0052 49bd f991 0e3c 5cd9 093d 8b5b 873c
000002e0: 26dc ddbc 8883 53bd dd3a 6c3d 35c1 46bd
000002f0: 0071 26bd 3888 6dbd fb4b 63bd 023c 14bd
00000300: b006 ef3c e3fd 2f3d 80d6 b5bc 2c39 22bd
00000310: e4fa 593b 080a b1bc 1c4c 4abd 9d4e 8abb
00000320: 93bf 14bd d895 a83d 8b9f 9ebd 71c5 8e3d
00000330: 42dc 23bc 37c0 f53c 7d4f 113d 7d98 b13c
00000340: e7bf 1d3d 48d4 18bd e596 87bc 5307 25bd
00000350: 500e 45bd 4e41 923d 30d2 abbc 985a 813d
00000360: ad7d 89bd 35fa 00bd 417f 7e3b 52f9 9bbd
00000370: 4cc7 64bd 5664 58bd b0cb a13c fde9 503d
00000380: 5062 af3b 5aca b6bb 4328 33bd ddd7 1d3d
00000390: 16fd a33c 8121 5d3d e97e 08bd b307 a5bd
000003a0: 3b03 22bd 70f8 983d a5ad 6dbc 93cc 953d
000003b0: 3157 383a 00fe 98bd 880a 23bc d849 2dbc
000003c0: 8c6d d8bb 3da1 6c3d e74b ce3b 8ad4 16bd
000003d0: eb0f 7e3d 51de edbb 9245 393d da4a 433d
000003e0: b1b3 573d 6e11 10bd 4538 73bc 49a1 48bc
000003f0: eabd 473d 3404 943d 3430 b93b fd75 50bd

crystalGraphConvNet.convs.0.fc_full.bias f4 [128]
0.0075441054 0.030869046 0.034637302 -0.07032565 -0.045003477 -0.07206277 0.04234159 -0.06876193
0.058269612 -0.018107088 -0.039309222 0.057182044 -0.072557956 0.0048759533 0.004849789 -0.03906364
-0.04669353 0.021271396 0.04224936 -0.07102279 -0.03222165 0.015131305 0.017747203 0.03542482
0.05531955 -0.04966692 -0.07139552 0.0044363406 0.06856151 -0.041825388 -0.06503928 -0.0026295523
0.058054365 0.0066640237 0.047020096 -0.058164343 -0.063655175 -0.043225575 -0.049735572 0.024451474
0.04167581 -0.054648634 0.021018635 0.06679295 -0.018830499 0.0471293 -0.0598299 -0.011135209
0.020454187 -0.072538204 0.047621693 -0.039066005 0.02754435 -0.027095746 0.013991038 -0.02502007
0.01312618 0.034101143 -0.027253773 0.03990695 -0.03665007 -0.033905562 0.024055501 0.0368515
0.0628646 -0.00411129 0.005574488 0.02938721 -0.015646065 -0.06995016 0.054004207 -0.062071603
0.071530156 -0.05544584 -0.04046629 0.070042506 0.06514282 -0.061865434 -0.046631146 -0.046275456
0.03132252 -0.04632134 -0.029155387 -0.020551464 0.026374714 -0.0014033397 0.064407654 0.016858457
0.025625061 0.03442604 0.025429947 0.0076920786 0.021535408 0.0557962 0.059045218 -0.031724446
0.07205294 0.05074244 0.0512774 0.055531427 -0.040026285 0.003664984 0.061747566 -0.015267448
0.043517854 0.07556569 -0.0065674833 -0.03963785 -0.022373432 0.045752972 -0.040140938 -0.01364382
-0.0222229 -0.033122238 0.033927925 0.013519045 0.06267018 -0.03170205 -0.065401785 0.01693355
-0.009069159 0.0048987796 0.0030163983 -0.07529893 0.06261714 -0.051218837 0.025412992 -0.017899303
00000000: 8b34 f73b 15e1 fc3c d8df 0d3d e506 90bd
00000010: 9155 38bd a595 93bd 606e 2d3d 0ed3 8cbd
00000020: 1eac 6e3d 5155 94bc b502 21bd b837 6a3d
00000030: 4499 94bd 76c6 9f3b fbea 9e3b 3201 20bd
00000040: b741 3fbd 5a41 ae3c aa0d 2d3d 6674 91bd
00000050: d9fa 03bd 4be9 773c 9562 913c 9e19 113d
00000060: c196 623d 8a6f 4bbd d037 92bd b95e 913b
00000070: fa69 8c3d 1951 2bbd 5033 85bd 9154 2cbb
00000080: 6aca 6d3d e25d da3b 2598 403d bc3d 6ebd
00000090: a55d 82bd 4d0d 31bd 87b7 4bbd 754e c83c
000000a0: 41b4 2a3d 3fd7 5fbd 462f ac3c beca 883d
000000b0: 6b42 9abc a70a 413d 3210 75bd 7470 36bc
000000c0: 8a8f a73c e98e 94bd f70e 433d ad03 20bd
000000d0: b0a4 e13c e6f7 ddbc ab3a 653c e4f6 ccbc
000000e0: 300f 573c a4ad 0b3d 4e43 dfbc 7875 233d
000000f0: 621e 16bd 8fe0 0abd 0b10 c53c 99f1 163d
00000100: 28bf 803d 00b8 86bb 32aa b63b 72bd f03c
00000110: 2d2c 80bc 0842 8fbd 8433 5d3d cb3e 7ebd
00000120: 677e 923d 2d1b 63bd fbbf 25bd 7272 8f3d
00000130: 9969 853d 9c66 7dbd 4d00 3fbd 558b 3dbd
00000140: 0b4c 003d 72bb 3dbd 47d7 eebc 8b5b a8bc
00000150: c90f d83c 44f0 b7ba 29e8 833d bf1a 8a3c
00000160: a6eb d13c 5202 0d3d 7752 d03c d50d fc3b
00000170: 066b b03c 8e8a 643d 66d9 713d 7ef1 01bd
00000180: 7e90 933d 4ed7 4f3d 4008 523d ec74 633d
00000190: 9af2 23bd 3a30 703b 04eb 7c3d 5124 7abc
000001a0: c73f 323d 2fc2 9a3d 0b34 d7bb 4c5b 22bd
000001b0: 7d48 b7bc 7867 3b3d d36a 24bd 548a 5fbc
000001c0: cd0c b6bc 2fab 07bd 02f8 0a3d fc7e 5d3c
000001d0: 3959 803d 02da 01bd 5ff1 85bd 3ab8 8a3c
000001e0: cf96 14bc f185 a03b c4ae 453b 5336 9abd
000001f0: 6a3d 803d d8ca 51bd e82e d03c 8fa1 92bc

crystalGraphConvNet.convs.0.bn1.weight f4 [128]
1.0034081 0.9999018 1.003939 1.0025147 1.0012138 1.0000039 1.0063416 1.0016977
0.9999679 1.0003381 1.0048304 0.99869305 0.99928576 1.0088449 1.0047921 0.99984217
1.0060793 1.0009763 1.0000196 1.0027798 1.0027598 1.0006659 1.0008183 1.0005468
0.9994982 0.9999862 0.999378 1.0007975 1.0026356 1.005705 1.0029485 1.0066841
0.99850625 1.0019494 1.0023263 1.0012041 1.0048723 1.0001924 1.0025792 0.99998415
1.000868 0.9944781 0.9982529 1.0013336 0.9991597 0.9995358 1.0023938 1.003958
0.99955237 1.025893 1.0012884 0.99669427 1.0017066 1.0013163 1.0004003 1.0014712
1.0008945 1.0028358 0.99943537 0.99737865 1.0029879 1.0010818 0.99589366 1.0379783
1.0010833 1.0005158 0.99909 0.99875116 0.9998339 0.9989917 1.0006598 1.0007327
0.9997044 0.99902743 1.0095991 1.0007067 1.0016211 1.0119826 1.0003608 1.0034698
0.99841994 0.99813193 0.99854237 1.0010207 0.99864113 0.9995469 1.002652 1.0036415
0.9994983 1.0003196 1.006383 0.9990569 1.0025802 0.99975187 1.0014414 1.0075587
1.0047793 1.0021757 0.9992374 1.001712 0.99964726 0.99702185 0.9965421 1.001256
1.0024617 1.0037068 1.0005955 1.0004679 1.0020385 1.0066242 1.0011407 1.0044578
1.0010334 1.014971 0.9989368 1.0016555 0.99968946 1.0009501 0.9997185 0.99662423
0.99760264 1.0005729 0.99994516 1.002621 0.997629 1.0044342 1.0038245 1.0190446
00000000: ad6f 803f 90f9 7f3f 1381 803f 6752 803f
00000010: c627 803f 2100 803f cdcf 803f a137 803f
00000020: e5fd 7f3f 140b 803f 489e 803f 59aa 7f3f
00000030: 31d1 7f3f d421 813f 079d 803f a8f5 7f3f
00000040: 35c7 803f fe1f 803f a400 803f 175b 803f
00000050: 6f5a 803f d215 803f d01a 803f eb11 803f
00000060: 1ddf 7f3f 18ff 7f3f 3dd7 7f3f 221a 803f
00000070: 5d56 803f f1ba 803f 9e60 803f 06db 803f
00000080: 1b9e 7f3f e13f 803f 3a4c 803f 7527 803f
00000090: a89f 803f 4e06 803f 8454 803f f6fe 7f3f
000000a0: 711c 803f 1e96 7e3f 818d 7f3f b32b 803f
000000b0: eec8 7f3f 94e1 7f3f 714e 803f b281 803f
000000c0: aae2 7f3f 7650 833f 382a 803f 5b27 7f3f
000000d0: ec37 803f 222b 803f 1e0d 803f 3530 803f
000000e0: 501d 803f ec5c 803f ffda 7f3f 3554 7f3f
000000f0: e861 803f 7323 803f e3f2 7e3f 79dc 843f
00000100: 7f23 803f e710 803f 5dc4 7f3f 28ae 7f3f
00000110: 1df5 7f3f ecbd 7f3f 9f15 803f 0218 803f
00000120: a1ec 7f3f 43c0 7f3f 8b3a 813f 2817 803f
00000130: 1f35 803f a588 813f d30b 803f b371 803f
00000140: 7398 7f3f 9385 7f3f 79a0 7f3f 7221 803f
00000150: f2a6 7f3f 4ee2 7f3f e756 803f 5377 803f
00000160: 1fdf 7f3f 790a 803f 28d1 803f 31c2 7f3f
00000170: 8c54 803f bdef 7f3f 3b2f 803f aff7 803f
00000180: 9c9c 803f 4b47 803f 06ce 7f3f 1938 803f
00000190: e2e8 7f3f d33c 7f3f 621d 7f3f 2829 803f
000001a0: aa50 803f 7779 803f 8313 803f 550f 803f
000001b0: cc42 803f 10d9 803f 6125 803f 1392 803f
000001c0: dd21 803f 92ea 813f 52ba 7f3f 3f36 803f
000001d0: a6eb 7f3f 221f 803f 8ded 7f3f c422 7f3f
000001e0: e362 7f3f c612 803f 68fc 7f3f e355 803f
000001f0: 9d64 7f3f 4d91 803f 527d 803f 0e70 823f

crystalGraphConvNet.convs.0.bn1.bias f4 [128]
-0.0013153056 -0.0031865377 -0.002021148 0.00045407764 -9.099856e-05 0.0013038702 -0.0027756651 -0.0009550112
0.0013716728 0.0023784502 -0.0026770828 -0.00028047856 0.0029203799 -0.009911774 -0.0013950024 -0.0036748087
-0.0016993831 0.000973796 -0.0005805411 -0.0016150505 -0.0015496564 -0.00038004442 0.002595303 -0.00064356683
0.0006639384 0.00042652187 -0.00030168548 0.001366216 -0.00021962782 -0.002233989 -0.0027512454 -0.0054071583
-0.0013850908 -0.00044739054 -0.0021312032 5.647074e-05 -0.0015585142 -0.0014823437 -0.00020786138 -0.0007394517
-0.00018492753 0.0038065896 0.00078087294 -0.001252707 0.0007161967 -0.0035570958 -0.00054765714 -0.0032444904
0.00017132738 -0.012045015 0.0014331056 0.0027409724 -0.00084822305 0.00051902904 -0.00049388525 -0.0020464356
-7.7171266e-05 7.575641e-05 0.0006091411 0.0024899351 -0.0046048495 -0.0016886775 0.0031554126 -0.011936313
0.00031144702 -0.00021252064 0.00082997564 0.0011190424 -0.0010417454 0.00078574684 -0.0024942318 -0.0005095582
0.00031054107 0.0010618321 -0.004722682 -5.2471485e-05 -0.0012724203 -0.0028080991 -0.0002696004 -0.0010243317
1.9231631e-05 0.0012528277 0.0002884822 -0.0014295691 0.00041529394 5.687791e-05 -0.00039098324 -0.0019409155
0.0007253171 0.00032656503 -0.0040140324 0.0007293516 -0.0013572789 -0.00085668906 -0.0014876755 -0.00348241
-0.0026744462 -0.0015006261 7.86182e-05 -0.00022869435 8.2214974e-05 0.0013817515 0.0019219008 -0.0008246601
-0.0016559229 0.0001958525 -0.00016880524 -1.7585357e-05 -0.00021485692 -0.003540163 -0.00030997873 -0.0019376294
-0.0006855745 -0.010504023 3.78661e-05 -0.00023262663 0.0003337025 -0.000395685 0.000390838 0.0016021774
0.0014140414 -0.00092472095 0.0005097919 -0.0008825124 -0.00028335754 -0.002683739 -0.0014239537 -0.008764154
00000000: 5566 acba 3bd5 50bb 3d75 04bb 4511 ee39
00000010: 7bd6 beb8 a0e6 aa3a efe7 35bb b759 7aba
00000020: b4c9 b33a c6df 1b3b ff71 2fbb 320d 93b9
00000030: d863 3f3b fe64 22bc 83d8 b6ba 0fd5 70bb
00000040: d6bd deba 5846 7f3a 742f 18ba 1ab0 d3ba
00000050: d71d cbba b340 c7b9 f615 2a3b 0ab5 28ba
00000060: 270c 2e3a cc9e df39 8a2b 9eb9 9a12 b33a
00000070: e54b 66b9 1e68 12bb 3d4e 34bb 882e b1bb
00000080: ef8b b5ba be8f eab9 a8ab 0bbb ffda 6c38
00000090: 0f47 ccba 334b c2ba 5df5 59b9 c3d7 41ba
000000a0: 1be9 41b9 fa77 793b 7fb3 4c3a df31 a4ba
000000b0: 26bf 3b3a 2a1e 69bb a690 0fba 84a1 54bb
000000c0: 58a6 3339 7458 45bc 0bd7 bb3a e3a1 333b
000000d0: 495b 5eba 730f 083a 1478 01ba 7e1d 06bb
000000e0: 02d7 a1b8 6adf 9e38 c4ae 1f3a 2e2e 233b
000000f0: 47e4 96bb 9d56 ddba 0acb 4e3b 8690 43bc
00000100: b649 a339 13d8 5eb9 b992 593a d5ac 923a
00000110: 2d8b 88ba 94fa 4d3a 4476 23bb df93 05ba
00000120: 1ed0 a239 2c2d 8b3a bac0 9abb d414 5cb8
00000130: 57c7 a6ba 1608 38bb 2759 8db9 de42 86ba
00000140: 9d53 a137 ec35 a43a 6d3f 9739 6160 bbba
00000150: cfbb d939 3190 6e38 e2fc ccb9 5166 feba
00000160: 3523 3e3a d136 ab39 2588 83bb f531 3f3a
00000170: b9e6 b1ba 6e93 60ba 1bfe c2ba 2539 64bb
00000180: c345 2fbb a8b0 c4ba d3df a438 accd 6fb9
00000190: d46a ac38 e31b b53a 4ae8 fb3a 012e 58ba
000001a0: 8d0b d9ba c15d 4d39 5001 31b9 4484 93b7
000001b0: 374b 61b9 1402 68bb a484 a2b9 0ef8 fdba
000001c0: 20b8 33ba 1119 2cbc 6ad2 1e38 3ced 73b9
000001d0: cbf4 ae39 f173 cfb9 63e9 cc39 2700 d23a
000001e0: 5b57 b93a f968 72ba 8ea3 053a 6858 67ba
000001f0: 9b8f 94b9 abe1 2fbb f5a3 baba 8797 0fbc

crystalGraphConvNet.convs.0.bn1.running_mean f4 [128]
0.036585253 -0.046225775 -0.09913468 -0.077031694 -0.058230817 -0.042227417 0.08360384 0.00025158582
0.10866434 -0.085232034 -0.0608649 0.009375723 0.009618637 -0.045335602 -0.011974726 -0.10980591
0.012789702 0.019621218 -0.047561727 -0.11283905 0.06279023 0.055651613 0.081836015 0.024909973
0.11424105 -0.11016501 0.018892271 -0.0062469984 0.16381603 -0.05620303 -0.140764 -0.018626088
0.052531913 0.048481088 0.076771006 -0.033733185 -0.05828048 -0.04244198 -0.042157132 0.04965534
-0.010574652 -0.04573081 -0.081099056 0.07369912 0.043293297 0.12741569 -0.061746385 0.0914017
-0.009741614 -0.026014945 0.06820487 -0.024719225 0.014936452 0.003817555 -0.0518069 -0.03665747
0.020333357 0.11876433 0.03428578 0.0074523273 -0.010130203 -0.03877612 0.00015228943 0.0058918293
-0.012231409 -0.030437758 0.09313902 0.0037655176 -0.01451205 0.057295606 0.015868781 -0.010462435
0.064000346 -0.032061186 -0.07923542 -0.06508371 -0.01654308 0.0500946 -0.030546183 -0.037852895
-0.08048372 -0.12753893 -0.08398265 -0.04125784 -0.005803018 0.0037653774 0.07352712 0.03319507
0.0076058717 0.06253077 -0.0038449476 0.015619215 -0.004074529 0.046937656 0.017086515 -0.025226416
0.045601793 0.03527001 0.1379745 -0.046804633 0.01678466 -0.081137665 0.02675771 -0.017854765
0.0409524 -0.02275184 0.03507147 0.052778725 -0.06887757 0.02809612 -0.0110577615 0.12104522
-0.012664789 -0.0531588 0.05418591 0.09939299 0.11472385 -0.047469195 -0.121191345 0.04895798
0.039739363 -0.040938407 0.033542354 -0.03405433 0.0030352375 0.027888587 0.019066492 -0.08474321
00000000: 6bda 153d 3d57 3dbd 2007 cbbd cbc2 9dbd
00000010: 7083 6ebd a8f6 2cbd 7d38 ab3d 47e7 8339
00000020: 698b de3d 228e aebd 794d 79bd a29c 193c
00000030: 7d97 1d3c d3b1 39bd a431 44bc ece1 e0bd
00000040: e68b 513c adbc a03c 16d0 42bd 2918 e7bd
00000050: 2a98 803d f2f2 633d a499 a73d 0010 cc3c
00000060: 36f7 e93d 319e e1bd f7c3 9a3c 9fb3 ccbb
00000070: 64bf 273e 2635 66bd 7024 10be bd95 98bc
00000080: b42b 573d 1b94 463d 1e3a 9d3d cf2b 0abd
00000090: 83b7 6ebd a4d7 2dbd f5ac 2cbd 6663 4b3d
000000a0: 4e41 2dbc 3b50 3bbd 4317 a6bd 90ef 963d
000000b0: 5054 313d 4279 023e c7e9 7cbd d130 bb3d
000000c0: 4a9b 1fbc 4b1d d5bc ffae 8b3d f97f cabc
000000d0: 05b8 743c f22f 7a3b 7933 54bd 2526 16bd
000000e0: 2492 a63c b73a f33d 3f6f 0c3d a732 f43b
000000f0: 27f9 25bc b5d3 1ebd e2af 1f39 3f10 c13b
00000100: 3f66 48bc 9b58 f9bc acbf be3d e7c6 763b
00000110: f3c3 6dbc ccae 6a3d 3fff 813c a26a 2bbc
00000120: 9d12 833d 9752 03bd 2e46 a2bd 9c4a 85bd
00000130: 5a85 87bc ff2f 4d3d fd3b fabc a30b 1bbd
00000140: a6d4 a4bd 9199 02be 18ff abbd fbfd 28bd
00000150: 3e27 bebb 8dc4 763b 6395 963d 8ef7 073d
00000160: ad3a f93b 2210 803d 84fb 7bbb bce7 7f3c
00000170: a083 85bb b341 403d 05f9 8b3c a1a7 cebc
00000180: f2c8 3a3d 4977 103d 3049 0d3e 37b6 3fbd
00000190: fc7f 893c 812b a6bd fc32 db3c 2844 92bc
000001a0: b4bd 273d 1162 babc 1aa7 0f3d 812e 583d
000001b0: af0f 8dbd d629 e63c 9d2b 35bc 8ee6 f73d
000001c0: fa7f 4fbc 0bbd 59bd 0bf2 5d3d 8d8e cb3d
000001d0: 56f4 ea3d 0f6f 42bd 2b33 f8bd 2a88 483d
000001e0: bec5 223d 08af 27bd b563 093d 8e7c 0bbd
000001f0: d6ea 463b 9b76 e43c 5531 9c3c d98d adbd

crystalGraphConvNet.convs.0.bn1.running_var f4 [128]
0.0059195138 0.013088525 0.008527938 0.008558866 0.007633217 0.0075281695 0.0072600413 0.0068148705
0.007013388 0.009330402 0.007957982 0.00948578 0.015784292 0.02055755 0.005737973 0.007674081
0.010516696 0.00907921 0.008702149 0.006848343 0.009779714 0.00809739 0.007714485 0.010032582
0.007391279 0.008803118 0.008207238 0.0069293766 0.007969453 0.010875158 0.0065387837 0.013819773
0.0067256857 0.009835787 0.0071292976 0.008229439 0.007170466 0.006713456 0.011824792 0.009704469
0.0065546096 0.013003398 0.0065390724 0.010542713 0.0057702935 0.00905717 0.011896094 0.005713433
0.008416511 0.011900438 0.0078472085 0.011581699 0.009705087 0.0068186903 0.0058281883 0.006009079
0.012809713 0.005528044 0.006659538 0.010718956 0.009651076 0.006882165 0.011509758 0.012305492
0.006510773 0.019087544 0.010209442 0.017684065 0.008567758 0.012164937 0.0082242945 0.010292408
0.006782248 0.0070300894 0.014035455 0.013149134 0.009695085 0.0324932 0.0076446044 0.009896964
0.009243897 0.011017749 0.015409415 0.011229335 0.007879076 0.010599749 0.006853852 0.007519349
0.011492596 0.0091206 0.0067265355 0.013856204 0.011473048 0.018500028 0.011504976 0.015377425
0.0060386863 0.009138922 0.010308501 0.012566532 0.014454955 0.012922299 0.008498367 0.0073344205
0.006512205 0.025479367 0.0071121524 0.005967337 0.010377581 0.01971336 0.007262787 0.00800081
0.0098107 0.018602232 0.011265785 0.011393392 0.010602709 0.013961429 0.00790757 0.013904626
0.014356805 0.017401297 0.011125136 0.009348256 0.009420691 0.012685916 0.009034754 0.01844607
00000000: 7bf8 c13b 4171 563c c4b8 0b3c 7c3a 0c3c
00000010: 1120 fa3b ddae f63b a4e5 ed3b 474f df3b
00000020: 90d0 e53b 8bde 183c 3262 023c 3f6a 1b3c
00000030: 0f4e 813c 4f68 a83c 9b05 bc3b db76 fb3b
00000040: 384e 2c3c f8c0 143c 7593 0e3c 1168 e03b
00000050: 183b 203c eaaa 043c cac9 fc3b b35f 243c
00000060: 8b32 f23b f43a 103c a777 063c d30f e33b
00000070: 4f92 023c b82d 323c 4b43 d63b 546c 623c
00000080: 2463 dc3b 4826 213c e29c e93b c5d4 063c
00000090: 3af6 ea3b 8dfc db3b c6bc 413c 7eff 1e3c
000000a0: 0dc8 d63b 340c 553c b745 d63b 58bb 2c3c
000000b0: bb14 bd3b 8664 143c d6e7 423c c037 bb3b
000000c0: 68e5 093c 0efa 423c 9491 003c 2bc1 3d3c
000000d0: 1602 1f3c 526f df3b 63fa be3b cfe7 c43b
000000e0: d5df 513c 9824 b53b 4138 da3b 8f9e 2f3c
000000f0: 8c1f 1e3c c983 e13b 6d93 3c3c f99c 493c
00000100: 5358 d53b 7b5d 9c3c 8145 273c 2cde 903c
00000110: c85f 0c3c 724f 473c 31bf 063c 7da1 283c
00000120: 9f3d de3b aa5c e63b f7f4 653c 776f 573c
00000130: 22d8 1e3c 9717 053d 977f fa3b e026 223c
00000140: b773 173c ca83 343c c577 7c3c 3ffb 373c
00000150: 3d17 013c 92aa 2d3c 4796 e03b df64 f63b
00000160: 714b 3c3c 926e 153c 456a dc3b 2205 633c
00000170: 73f9 3b3c 5f8d 973c 5e7f 3c3c 98f1 7b3c
00000180: 2ce0 c53b 6bbb 153c fde4 283c dbe3 4d3c
00000190: 7ad4 6c3c 0db8 533c bc3c 0b3c 9455 f03b
000001a0: 5664 d53b 1bba d03c 0f0d e93b a789 c33b
000001b0: bb06 2a3c ea7d a13c acfc ed3b d415 033c
000001c0: 0fbd 203c b563 983c 2194 383c 5aab 3a3c
000001d0: fcb6 2d3c 7abe 643c c18e 013c 3ad0 633c
000001e0: ce38 6b3c 2a8d 8e3c 3446 363c 6d29 193c
000001f0: 3e59 1a3c 97d8 4f3c 8106 143c 361c 973c

crystalGraphConvNet.convs.0.bn2.weight f4 [64]
1.0043995 1.0098404 1.0155368 1.0004852 1.0014837 0.9894313 1.0046656 0.9823115
0.9935496 0.98305535 1.0015022 1.0011771 0.9980987 1.0353374 1.0032744 1.0111635
0.99538 0.98891926 0.99581265 1.0021769 0.9838157 0.9894716 0.9963107 0.99748385
0.9984224 0.99677056 1.0208453 1.0089216 1.0071621 0.99841905 0.9997379 1.0316422
0.9975773 0.9969365 0.99595934 0.9889232 1.0122349 0.9922857 0.9883855 0.99637944
0.99635154 0.98802763 0.99280053 0.9916216 0.98852676 1.0161272 0.9914283 1.016035
0.9996876 1.0333476 0.9899708 0.9930879 0.99786484 0.9929111 1.009414 0.9936807
0.98595625 0.9984227 0.9986886 0.9926955 1.0065948 0.99963415 1.002338 1.0286679
00000000: 2a90 803f 7342 813f 1cfd 813f e60f 803f
00000010: 9e30 803f 5f4b 7d3f e298 803f c478 7b3f
00000020: 4459 7e3f 84a9 7b3f 3931 803f 9226 803f
00000030: 6583 7f3f f085 843f 4c6b 803f ce6d 813f
00000040: 39d1 7e3f d029 7d3f 94ed 7e3f 5547 803f
00000050: 59db 7b3f 034e 7d3f 380e 7f3f 1a5b 7f3f
00000060: 9c98 7f3f 5b2c 7f3f 0fab 823f 5824 813f
00000070: b0ea 803f 6498 7f3f d3ee 7f3f da0c 843f
00000080: 3a61 7f3f 3b37 7f3f 31f7 7e3f 122a 7d3f
00000090: ea90 813f 7006 7e3f d506 7d3f b912 7f3f
000000a0: e510 7f3f 61ef 7c3f 2d28 7e3f eada 7d3f
000000b0: 1710 7d3f 7510 823f 3fce 7d3f 6f0d 823f
000000c0: 87eb 7f3f bc44 843f ba6e 7d3f 023b 7e3f
000000d0: 1274 7f3f 6c2f 7e3f 7a34 813f dc61 7e3f
000000e0: a167 7c3f a198 7f3f 0eaa 7f3f 4b21 7e3f
000000f0: 19d8 803f 06e8 7f3f 9d4c 803f 64ab 833f

crystalGraphConvNet.convs.0.bn2.bias f4 [64]
0.00064935256 0.0007371096 0.0010886341 -0.0011661344 0.0021699953 -0.0035215267 -0.003490037 -0.005997367
0.0004976226 -0.0032655452 -0.009926692 0.0029571373 0.0018417131 -0.0085338475 -0.0048093097 0.0038468593
-0.0042487714 -0.0046074204 5.977643e-05 0.0018395047 -0.0056754276 -0.0048775757 0.0005684285 -0.0026399908
0.0020927438 -0.00040622614 -0.0018258798 -0.0029586523 -0.0013564371 -0.0039183246 -0.004617055 -0.0107256565
-0.0065272097 -0.007277734 -0.008350427 -0.00015929397 -0.0018961998 -0.0019269532 -0.0029959045 -0.0005567919
-0.0011355946 -0.0051551433 -0.0018795001 -0.0054848855 -0.006036507 -0.0025240744 -0.009765404 -0.0057004495
-0.003687007 -0.016069956 -0.0036542516 -0.0043194387 -0.0045324233 -0.005642074 0.0038704325 -0.0014757443
-0.0044601453 -0.005803541 -0.0013898577 -0.00084694737 -0.002323701 -0.006652287 -0.0004864985 -0.01205638
00000000: 5039 2a3a 973a 413a 80b0 8e3a fad8 98ba
00000010: 7b36 0e3b 6ac9 66bb 1bb9 64bb 9085 c4bb
00000020: e372 023a c202 56bb 90a3 22bc 88cc 413b
00000030: a365 f13a 8dd1 0bbc 6a97 9dbb 971b 7c3b
00000040: 4739 8bbb d8f9 96bb 74b8 7a38 891b f13a
00000050: f0f8 b9bb 12d4 9fbb 9702 153a b203 2dbb
00000060: 6a26 093b c0fa d4b9 5c52 efba f3e5 41bb
00000070: 7aca b1ba 4a65 80bb aa4a 97bb aaba 2fbc
00000080: 34e2 d5bb 0f7a eebb 3bd0 08bc 2608 27b9
00000090: e889 f8ba d291 fcba f056 44bb acf5 11ba
000000a0: 3bd8 94ba 7aec a8bb 8f59 f6ba 8eba b3bb
000000b0: e4cd c5bb f16a 25bb 13ff 1fbc d6ca babb
000000c0: b6a1 71bb 24a5 83bc 2b7c 6fbb 148a 8dbb
000000d0: b984 94bb 26e1 b8bb 15a7 7d3b c36d c1ba
000000e0: 6926 92bb a12b bebb e32b b6ba ad05 5eba
000000f0: 3c49 18bb 6efb d9bb b910 ffb9 1f88 45bc

crystalGraphConvNet.convs.0.bn2.running_mean f4 [64]
4.966685 5.6398787 4.670737 5.342577 5.12132 4.9349613 4.5662456 4.9882164
5.3588443 5.363331 5.356895 4.920605 4.898343 5.051426 4.784749 5.169037
5.069002 5.3680863 5.6972933 5.066349 4.8413343 5.149449 4.779631 5.0269847
5.1201806 4.612429 4.7380056 5.2310123 5.177716 4.99455 5.081526 5.4332113
5.0019565 4.914341 5.086077 5.073251 4.9300466 5.109957 4.9560747 5.13131
5.1084633 5.4285593 5.066214 5.2832727 4.5508685 5.521675 4.7808423 4.6055627
5.302539 5.0977616 4.849961 4.898411 4.947499 4.8684244 5.034131 4.418716
5.339183 5.2826867 5.049404 5.069206 4.924438 4.8500557 4.5670767 4.599179
00000000: 15ef 9e40 e379 b440 ad76 9540 64f6 aa40
00000010: dae1 a340 34eb 9d40 af1e 9240 789f 9f40
00000020: a77b ab40 68a0 ab40 af6b ab40 9975 9d40
00000030: 3abf 9c40 48a5 a140 aa1c 9940 c068 a540
00000040: 4435 a240 5dc7 ab40 3a50 b640 881f a240
00000050: 36ec 9a40 49c8 a440 bdf2 9840 0fdd a040
00000060: 85d8 a340 0599 9340 be9d 9740 7464 a740
00000070: d9af a540 5bd3 9f40 dc9b a240 dedc ad40
00000080: 0710 a040 4842 9d40 25c1 a240 1258 a240
00000090: f1c2 9d40 c584 a340 2a98 9e40 b133 a440
000000a0: 8878 a340 c2b6 ad40 6d1e a240 9210 a940
000000b0: b7a0 9140 90b1 b040 a9fc 9840 c560 9340
000000c0: 66ae a940 dd20 a340 e132 9b40 c8bf 9c40
000000d0: e951 9e40 22ca 9b40 9a17 a140 1f66 8d40
000000e0: 96da aa40 c50b a940 b894 a140 f036 a240
000000f0: ff94 9d40 a833 9b40 7e25 9240 792c 9340

crystalGraphConvNet.convs.0.bn2.running_var f4 [64]
8.535277 12.726986 6.3026047 11.30518 9.59426 8.003382 4.6701775 10.342031
20.985664 18.355413 12.5275955 11.147038 13.245035 10.326551 5.639548 9.037309
6.816947 19.105642 16.190266 6.0962386 8.375948 12.631677 8.226279 7.3518724
12.477749 5.3065815 5.1804266 6.043808 5.2120957 7.3948345 6.929382 10.241324
10.922355 7.1840053 8.150682 11.10063 8.528915 10.184231 8.846664 9.086369
12.139845 18.74256 13.733034 6.557931 4.3301134 20.593508 6.514754 3.8984118
7.163468 8.78307 5.9704037 6.84268 5.717348 6.150604 8.109387 4.3484077
12.285082 17.256006 7.360007 10.399228 6.9651484 6.4684253 5.870664 6.334862
00000000: 7f90 0841 bca1 4b41 f0ae c940 04e2 3441
00000010: 1782 1941 da0d 0041 1872 9540 f578 2541
00000020: a4e2 a741 e3d7 9241 0871 4841 455a 3241
00000030: aaeb 5341 8e39 2541 2d77 b440 d198 1041
00000040: 6e24 da40 5bd8 9841 aa85 8141 6314 c340
00000050: e203 0641 591b 4a41 d79e 0341 8a42 eb40
00000060: dca4 4741 84cf a940 0ec6 a540 e066 c140
00000070: 7dc9 a640 7ca2 ec40 7fbd dd40 77dc 2341
00000080: f7c1 2e41 5fe3 e540 3269 0241 2e9c 3141
00000090: 7076 0841 9cf2 2241 f08b 0d41 c461 1141
000000a0: ce3c 4241 c3f0 9541 82ba 5b41 92da d140
000000b0: 4a90 8a40 81bf a441 dd78 d040 947f 7940
000000c0: 213b e540 7487 0c41 8c0d bf40 3cf7 da40
000000d0: 84f4 b640 bfd1 c440 0dc0 0141 2826 8b40
000000e0: b28f 4441 4d0c 8a41 2d85 eb40 3d63 2641
000000f0: 7fe2 de40 57fd ce40 7bdc bb40 31b7 ca40

crystalGraphConvNet.convs.1.fc_full.weight f4 [128, 169]
0.0146308355 -0.0474856 -0.024361633 -0.07186751 0.061646566 -0.039827265 -0.05418359 0.029104885
-0.027988108 0.06255845 0.04200845 -0.06515959 -0.032244716 -0.064218715 -0.028791146 -0.0032501137
0.020407533 -0.059985604 -0.07554527 0.007806686 -0.035113495 -0.01550298 0.06799886 0.025414525
0.013642374 0.049749922 -0.0677069 -0.014687994 0.024467701 -0.057659782 -0.0050725234 -0.06952885
-0.041615706 0.03176225 0.009298465 0.052164875 0.07477856 0.017528754 -0.013376667 -0.0038007572
0.05291472 -0.070225954 -0.036965925 0.032089476 -0.021168403 0.028190127 -0.049421724 -0.006208253
-0.014988197 -0.04165708 0.023393713 -0.038897365 -0.037411816 -0.05999479 0.019658413 0.03927542
-0.0210347 0.062842116 -0.06807821 0.05471862 -0.07702446 0.051848345 -0.026066141 -0.03282075
0.03382656 0.024839412 0.06893608 -0.08039714 -0.048116267 -0.049371682 -0.056666557 0.009467428
0.043999273 0.003268643 -0.06934366 -0.05569743 0.056967504 -0.0133730145 -0.032651745 0.0687389
0.062247694 -0.007969955 -0.043916173 0.020206453 0.048592858 0.05898532 -0.06554384 0.057271935
0.061758287 0.05283683 -0.011453074 -0.06855981 0.021013433 -0.071819365 0.06086913 0.06326994
-0.07200205 0.07576961 -0.057505865 0.028468056 0.037293483 0.06571501 -0.06303864 0.037888918
-0.050520025 -0.0053910995 -0.058618907 -0.0006947113 0.046599314 -0.051271394 -0.023146218 0.06765182
0.037960514 -0.07320623 0.039708354 -0.018517306 0.05203013 -0.028654685 -0.06217624 0.01998493
0.008169069 -0.008619006 0.04350864 0.008943084 0.03040719 0.03366098 -0.055500016 -0.015550784
0.046632703 0.056905903 -0.0077455738 -0.042683106 0.030750599 0.06815084 0.0026734169 -0.009689321
0.042802393 -0.07404885 0.07041715 0.045309197 0.028240576 0.057259534 0.064524 -0.0461599
0.061471574 -0.002522931 -0.011687357 0.0059129708 0.0637999 -0.0484176 0.07653975 -0.036500383
-0.04370903 -0.033226132 -0.03848053 0.06478708 0.0046988283 -0.057758544 0.013138138 0.06490562
-0.06673457 0.0057039997 0.07388401 -0.05699 0.050386734 -0.0024088256 -0.06289599 -0.029454177
-0.04190302 -0.05889772 0.068532266 -0.027505329 -0.039147627 -0.053567003 0.0041560046 -0.05438183
0.05883406 0.04319213 0.067937054 0.0024195148 -0.03601411 -0.07251883 -0.027991708 -0.03504715
-0.0071959607 -0.015592763 -0.051881976 -0.07867103 -0.03580318 0.033076283 -0.061030168 -0.05458381
0.07001894 -0.029815396 0.053157754 -0.037306644 0.045891877 -0.012560074 -0.054237764 -0.043664504
0.00424144 0.047942296 0.056280807 -0.042766377 0.00780456 -0.00693683 -0.04725944 -0.05617396
0.074630514 0.07175753 -0.012427659 0.041532997 0.06656012 -0.07300693 0.058207825 0.038953543
0.0062025515 -0.015137859 0.009435922 -0.059853237 -0.06746473 0.0486616 0.00022454966 0.023068367
0.02356545 0.009409699 -0.068095714 0.066717036 0.061253298 -0.044874907 -0.02107789 0.055092078
0.057558324 -0.05770448 0.03962035 -0.0047829635 -0.00898321 -0.058885727 -0.075966515 0.08211887
0.0006466323 0.064311154 0.024146462 -0.077359 0.071146116 -0.06289812 -0.05275915 -0.044978403
0.04617606 0.055816054 -0.027078893 0.053057015 0.039098725 0.06314539 0.008819429 -0.05704135
00000000: 2cb6 6f3c 4380 42bd 0c92 c7bc 462f 93bd
00000010: 1c81 7c3d ea21 23bd 9def 5dbd 5e6d ee3c
00000020: 5147 e5bc a51e 803d 0d11 2c3d 6472 85bd
00000030: 0913 04bd 1a85 83bd 69db ebbc dcff 54bb
00000040: b32d a73c 77b3 75bd 7bb7 9abd 3bcf ff3b
00000050: 2bd3 0fbd 3600 7ebc fc42 8b3d 1f32 d03c
00000060: 4484 5f3c 93c6 4b3d eaa9 8abd e9a5 70bc
00000070: 7d70 c83c aa2c 6cbd 6937 a6bb 2465 8ebd
00000080: 3b75 2abd 2219 023d 9758 183c d6aa 553d
00000090: 8025 993d 7698 8f3c cf29 5bbc 2016 79bb
000000a0: 1bbd 583d a0d2 8fbd 9569 17bd 4170 033d
000000b0: 5c69 adbc fbee e63c 6f6e 4abd 9a6e cbbb
000000c0: 0e91 75bc 9da0 2abd 2ca4 bf3c d852 1fbd
000000d0: 223d 19bd 19bd 75bd ae0a a13c 43df 203d
000000e0: f750 acbc 5eb3 803d 976c 8bbd a220 603d
000000f0: 00bf 9dbd ee5e 543d a988 d5bc 0d6f 06bd
00000100: b88d 0a3d 067c cb3c 5c2e 8d3d 41a7 a4bd
00000110: 9015 45bd f639 4abd 311b 68bd 451d 1b3c
00000120: 9538 343d bb36 563b 0c04 8ebd fd22 64bd
00000130: c256 693d 7d1a 5bbc d6bd 05bd fbc6 8c3d
00000140: 70f7 7e3d 6a94 02bc 72e1 33bd 0188 a53c
00000150: 4e09 473d 979a 713d d93b 86bd fa95 6a3d
00000160: 42f6 7c3d 6f6b 583d ada5 3bbc 1669 8cbd
00000170: 5d24 ac3c 0816 93bd e951 793d ac93 813d
00000180: d075 93bd 192d 9b3d 458b 6bbd d735 e93c
00000190: 0dc1 183d 9795 863d 671a 81bd 6931 1b3d
000001a0: 16ee 4ebd d2a7 b0bb 611a 70bd 491d 36ba
000001b0: ecde 3e3d f401 52bd 239d bdbc 0a8d 8a3d
000001c0: 7c7c 1b3d 26ed 95bd 3aa5 223d 9bb1 97bc
000001d0: 8c1d 553d 3bbd eabc 83ac 7ebd 70b7 a33c
000001e0: 8fd7 053c bb36 0dbc 1e36 323d 0386 123c
000001f0: 8018 f93c 19e0 093d fc53 63bd b7c8 7ebc
00000200: ef01 3f3d 2a16 693d 95ce fdbb 7bd4 2ebd
00000210: aee8 fb3c ab92 8b3d 7e34 2f3b f5bf 1ebc
00000220: 9051 2f3d eca6 97bd de36 903d 2396 393d
00000230: c858 e73c f988 6a3d 2925 843d 2a12 3dbd
00000240: 9ec9 7b3d c257 25bb 547c 3fbc 98c1 c13b
00000250: 86a9 823d 8951 46bd dfc0 9c3d 6d81 15bd
00000260: 3d08 33bd 2018 08bd c39d 1dbd 17af 843d
00000270: a1f8 993b 3994 6cbd 5841 573c 3ded 843d
00000280: 22ac 88bd 9ee8 ba3b 8050 973d 596e 69bd
00000290: 5262 4e3d 63dd 1dbb 9dcf 80bd e349 f1bc
000002a0: 80a2 2bbd bc3e 71bd a55a 8c3d db52 e1bc
000002b0: 4359 20bd 1369 5bbd 182f 883b 7bbf 5ebd
000002c0: fcfb 703d 3bea 303d 9522 8b3d b990 1e3b
000002d0: 8883 13bd c184 94bd de4e e5bc 9a8d 0fbd
000002e0: 18cc ebbb ca78 7fbc 3282 54bd 471e a1bd
000002f0: 5ba6 12bd ff7a 073d c5fa 79bd 4693 5fbd
00000300: 1766 8f3d 6b3f f4bc f2bb 593d dace 18bd
00000310: 1ff9 3b3d c5c8 4dbc 6b28 5ebd 8dd9 32bd
00000320: c7fb 8a3b 245f 443d b486 663d cc2b 2fbd
00000330: 65bd ff3b 594e e3bb 1d93 41bd ab16 66bd
00000340: e2d7 983d 9df5 923d 619d 4bbc 811e 2a3d
00000350: ac50 883d a884 95bd 546b 6e3d c08d 1f3d
00000360: c63e cb3b c804 78bc 2099 1a3c ab28 75bd
00000370: f32a 8abd 6351 473d 1775 6b39 dff9 bc3c
00000380: 550c c13c 232b 1a3c c475 8bbd f1a2 883d
00000390: bde4 7a3d c0ce 37bd 8aab acbc 3ba8 613d
000003a0: 47c2 6b3d 885b 6cbd f348 223d 68ba 9cbb
000003b0: 502e 13bc 2932 71bd 5594 9bbd f02d a83d
000003c0: c282 293a 91b5 833d cdce c53c 656e 9ebd
000003d0: 0eb5 913d bbd0 80bd fa19 58bd 463b 38bd
000003e0: 1c23 3d3d 609f 643d 8ed4 ddbc 5052 593d
000003f0: fc25 203d 5f52 813d 5e7f 103c 31a4 69bd

crystalGraphConvNet.convs.1.fc_full.bias f4 [128]
0.05890799 0.050736602 0.032746904 -0.050336674 0.015604643 0.037545096 -0.0011670429 0.059470996
0.05297839 0.014050805 0.042032022 -0.031194972 -0.03030418 -0.049884662 -0.06735113 0.04141106
0.071631975 -0.056097876 0.0038887518 -0.05819762 0.06453769 -0.048254464 0.00053850585 0.063240185
0.07221471 0.039070405 0.054751407 0.0057737217 -0.047262706 0.01745359 0.0110875005 -0.0729131
0.031295292 -0.04356677 0.0014037067 -0.030416857 0.032594454 -0.03987552 0.04001615 -0.065935574
-0.017397294 0.02304974 0.016873177 -0.014071576 0.04854509 0.04428497 -0.06348834 0.021797419
-0.031634122 0.031996883 -0.009530074 -0.035734516 -0.07679393 0.066083506 -0.057940815 -0.01704977
-0.075238004 -0.0030278787 0.037412148 -0.054561663 0.023178756 -0.010159686 0.002324938 0.07561536
0.011645036 -0.07122604 0.024664467 0.039856452 0.021669049 0.0125081185 -0.013391206 -0.06921755
-0.037711944 -0.036579914 0.026292743 -0.028992344 -0.06340116 0.016367164 -0.028767625 0.073241524
-0.07167959 0.013993031 -0.07318666 -0.055451863 -0.00683708 0.07616157 0.071081854 0.016354637
0.076668434 -0.011141934 0.0069821426 0.039695118 -0.0631082 0.04857709 -0.04636383 0.00349531
-0.036348738 -0.01588043 -0.06830009 -0.04790419 0.0582679 0.03067004 -0.021917854 -0.054209325
0.0060466295 -0.029251603 0.02498231 -0.04726346 0.05128447 0.0031727436 3.664385e-05 0.031629976
-0.0052010957 0.021919306 -0.031215174 0.04924115 -0.04198659 0.05495985 -0.025057914 -0.060300853
-0.043440968 -0.0694388 0.045327894 -0.07685755 -0.06178389 0.034233388 -0.018946998 0.07064219
00000000: 8149 713d 2fd1 4f3d 9e21 063d d42d 4ebd
00000010: 9eaa 7f3c e3c8 193d 76f7 98ba dc97 733d
00000020: deff 583d 5935 663c c529 2c3d 998c ffbc
00000030: 7940 f8bc dc53 4cbd 64ef 89bd a59e 293d
00000040: c9b3 923d e3c6 65bd 6eda 7e3b a160 6ebd
00000050: 562c 843d 79a6 45bd 842a 0d3a 1284 813d
00000060: 4ee5 933d 4a08 203d 0343 603d 7d31 bd3b
00000070: 8a96 41bd d5fa 8e3c 59a8 353c 7753 95bd
00000080: 7e2f 003d 1273 32bd 95fc b73a c62c f9bc
00000090: c381 053d 8354 23bd f9e7 233d 3b09 87bd
000000a0: c584 8ebc cfd2 bc3c 9e39 8a3c 788c 66bc
000000b0: 37d7 463d 2864 353d 2d06 82bd 8090 b23c
000000c0: c892 01bd 2a0f 033d 0724 1cbc 5b5e 12bd
000000d0: 2346 9dbd ca56 873d 5953 6dbd f6ab 8bbc
000000e0: 6216 9abd 606f 46bb 7b3d 193d 0d7c 5fbd
000000f0: 60e1 bd3c d074 26bc fd5d 183b 3adc 9a3d
00000100: d2ca 3e3c f5de 91bd 230d ca3c 8540 233d
00000110: 4a83 b13c daee 4c3c ca66 5bbc eec1 8dbd
00000120: d777 1abd d2d4 15bd e163 d73c 5a81 edbc
00000130: 78d8 81bd 6e14 863c 15aa ebbc a7ff 953d
00000140: c0cc 92bd 0743 653c e3e2 95bd 7e21 63bd
00000150: 9609 e0bb 99fa 9b3d 5d93 913d 29fa 853c
00000160: 5704 9d3d a98c 36bc 75ca e43b 5997 223d
00000170: df3e 81bd c5f8 463d 00e8 3dbd 9211 653b
00000180: 6ae2 14bd ad17 82bc ebe0 8bbd 2f37 44bd
00000190: 52aa 6e3d bc3f fb3c 128d b3bc 990a 5ebd
000001a0: ce22 c63b 0fa1 efbc b4a7 cc3c 5497 41bd
000001b0: aa0f 523d ceed 4f3b 09b2 1938 6f8e 013d
000001c0: f46d aabb 1e90 b33c f7b6 ffbc 17b1 493d
000001d0: 21fa 2bbd 941d 613d 4146 cdbc 07fe 76bd
000001e0: 28ef 31bd ee35 8ebd bea9 393d 7e67 9dbd
000001f0: 1b11 7dbd 4f38 0c3d bc36 9bbc daac 903d

crystalGraphConvNet.convs.1.bn1.weight f4 [128]
1.0002021 1.0005805 1.0008689 0.99874955 1.0013726 1.0013816 1.0017403 1.0144712
1.0016506 1.0016075 1.0004239 1.001843 1.0042557 1.014747 1.0032424 0.9997302
1.0025982 0.99995553 0.9997271 1.0009781 1.0054889 1.0038828 1.0001163 1.0000914
1.0006887 0.99834865 1.0006628 1.0095202 1.0010933 1.005578 1.0047951 0.99884456
1.0006627 1.0006825 0.99897474 0.9998027 0.99839175 0.99879915 1.0006697 0.9989516
0.9965266 0.99913293 1.0006577 1.0029438 1.000251 1.0012941 1.0059652 0.99990994
1.0015522 1.0005649 1.0009785 0.9998869 1.0036172 1.0009049 0.9993672 1.0007466
1.0044281 1.0004241 1.0004992 0.99996936 1.0003645 1.0002621 1.0036398 1.0112172
1.0003141 0.99916345 1.0022454 1.0046281 0.9989379 0.9986485 1.0033827 0.99985236
1.0000347 0.9994062 1.0073617 0.99990666 1.0041054 1.006033 1.0011494 1.0004989
1.0036503 1.0020086 1.0004104 0.9998188 1.0039147 0.9986889 1.0009282 1.009095
1.0005038 1.0052613 0.9991616 1.0088432 0.99850863 1.0012901 1.0035248 0.9994933
0.99741775 0.997892 1.001661 1.0005643 1.0024815 1.0019228 1.0017798 1.0026214
1.0032262 1.001237 1.0015833 1.0041388 0.9986467 1.0022322 1.0035837 1.0001024
1.0005189 0.9987978 0.9975879 1.0003319 1.0116568 0.99934185 1.0012622 1.003525
1.0048878 1.0048444 1.0008146 1.0027702 1.0055633 0.9995786 1.0004109 1.0130972
00000000: 9f06 803f 0613 803f 791c 803f 0dae 7f3f
00000010: fa2c 803f 462d 803f 0739 803f 31da 813f
00000020: 1636 803f ad34 803f e40d 803f 643c 803f
00000030: 738b 803f 3be3 813f 3f6a 803f 52ee 7f3f
00000040: 2355 803f 16fd 7f3f 1dee 7f3f 0d20 803f
00000050: dcb3 803f 3b7f 803f d003 803f ff02 803f
00000060: 9116 803f c793 7f3f b815 803f f537 813f
00000070: d323 803f c8b6 803f 209d 803f 47b4 7f3f
00000080: b715 803f 5d16 803f cfbc 7f3f 12f3 7f3f
00000090: 9a96 7f3f 4db1 7f3f f215 803f 4bbb 7f3f
000000a0: 5e1c 7f3f 2dc7 7f3f 8d15 803f 7660 803f
000000b0: 3a08 803f 682a 803f 78c3 803f 19fa 7f3f
000000c0: dd32 803f 8312 803f 1020 803f 96f8 7f3f
000000d0: 8776 803f a71d 803f 87d6 7f3f 7718 803f
000000e0: 1a91 803f e60d 803f 5c10 803f fefd 7f3f
000000f0: f20b 803f 9708 803f 4577 803f 916f 813f
00000100: 4b0a 803f 2dc9 7f3f 9449 803f a797 803f
00000110: 65ba 7f3f 6ea7 7f3f d86e 803f 53f6 7f3f
00000120: 2301 803f 16d9 7f3f 3af1 803f e2f9 7f3f
00000130: 8786 803f b0c5 803f aa25 803f 5910 803f
00000140: 9d77 803f d141 803f 730d 803f 20f4 7f3f
00000150: 4780 803f 13aa 7f3f 6a1e 803f 062a 813f
00000160: 8210 803f 67ac 803f 0ec9 7f3f c621 813f
00000170: 439e 7f3f 462a 803f 8073 803f cbde 7f3f
00000180: c556 7f3f da75 7f3f 6d36 803f 7e12 803f
00000190: 5051 803f 023f 803f 523a 803f e655 803f
000001a0: b769 803f 8928 803f e233 803f 9f87 803f
000001b0: 4fa7 7f3f 2549 803f 6e75 803f 5b03 803f
000001c0: 0111 803f 36b1 7f3f ec61 7f3f e00a 803f
000001d0: f87d 813f ded4 7f3f 5c29 803f 8273 803f
000001e0: 2aa0 803f be9e 803f b11a 803f c65a 803f
000001f0: 4cb6 803f 62e4 7f3f 770d 803f 2bad 813f
