get_descriptor_cgcnn/saved_models/pbe_294.ckpt (torch, 675914 bytes, 58 tensors)

crystalGraphConvNet.embedding.weight f4 [64, 92]
000000 9f 4b bf bd db 7f 83 3d 6e cd c5 bd e3 8b a2 bd
       -0.093405955 0.06420871 -0.09658323 -0.079368375
000010 eb 07 98 bd d1 3d bd 3b 8e d5 a9 bc 60 6d 98 bd
       -0.07423385 0.0057751914 -0.020731714 -0.074427366
000020 7f 9f 8e bd a7 fb 87 ba 62 7e e2 bc 6b 55 b3 3c
       -0.06964015 -0.0010374681 -0.027648155 0.021891316
000030 63 0b 55 bd 68 29 03 3d 3e 1f 57 bd a9 75 8a 3d
       -0.052012812 0.03202191 -0.05252003 0.06760723
000040 5e 05 06 3d 1c f6 ec bc 62 40 6b 3c 61 bb 69 3c
       0.032719962 -0.028925948 0.014358612 0.014265866
000050 8c 57 94 3c 2a 30 96 ba 6e 85 b4 b9 88 a0 b3 bd
       0.018108152 -0.0011458446 -0.00034431688 -0.08770853
000060 c0 29 63 bd 25 95 1f 3d fa c6 9c 3d 63 74 e0 bd
       -0.055459738 0.038960595 0.07655139 -0.10959699
000070 a6 9b 0f 3c f0 21 7d bc dc df a6 3d a0 f8 c4 3b
       0.008765137 -0.015449986 0.081481665 0.0060110837
000080 ef 05 30 bc d5 f8 65 3b fe 74 be bc fa ea 49 3d
       -0.010743602 0.0035090942 -0.023249146 0.049296357
000090 35 59 21 3d 9a 14 f8 bc 18 2f e0 3d 55 cc 7d bd
       0.039391715 -0.030283261 0.109464824 -0.061962444
0000a0 0c aa ae bd e1 15 67 bd 0f 45 b8 3d 3a 47 1b 3d
       -0.085285276 -0.05641735 0.08997547 0.037909724
0000b0 4d 50 4e 3d 8a 32 81 bd 29 76 a2 3d dc b0 b7 3c
       0.05036955 -0.06308468 0.079326935 0.0224232
0000c0 47 80 38 bc 78 aa 75 bd 6d 80 4b 3d a4 7d da 3d
       -0.011261052 -0.059977025 0.049683023 0.10668495
0000d0 89 e1 22 3c c3 09 83 3d 74 4f c5 bc 6f 9b ca 3d
       0.009941467 0.06398346 -0.024085738 0.09892928
0000e0 d3 54 91 3c 7d bb 69 bd ea a9 80 bd 2a 55 bb 3c
       0.017740643 -0.05706357 -0.062824085 0.022867758
0000f0 c8 54 b7 3b b3 cc fa bc 56 cd a2 3d a0 83 80 3c
       0.0055948235 -0.030615186 0.07949321 0.015687764
000100 04 f3 5b bd ab b5 89 3d db b3 96 bc fe 60 a5 bd
       -0.053698555 0.067241035 -0.018396309 -0.080751404
000110 a0 7a a8 3c 38 d5 a1 3d bd bf 30 bb ef 6c 9b 3d
       0.020566285 0.079019964 -0.0026969754 0.07589137
000120 49 8d ad 3d 3a 51 2e 3d 59 83 d1 bc 20 62 4b 3d
       0.08474214 0.042557932 -0.025575327 0.049654126
000130 aa 87 75 bd 41 13 56 bd 1c ee 98 bd 58 9b aa bd
       -0.059943832 -0.052264456 -0.07467291 -0.08330411
000140 76 b6 93 bd 40 aa 27 3d c1 0b 91 3d ad 6f 19 37
       -0.07212536 0.040933847 0.0708232 9.145512e-06
000150 d2 1e a5 bd 6a de 04 bd 70 22 cb bd 1b 01 e6 38
       -0.08062519 -0.032438673 -0.09918678 0.000109674605
000160 dd bb ba 3d 21 f1 87 bd 01 86 49 bd 3b 29 aa 3d
       0.09117863 -0.066377886 -0.04920006 0.08308645
000170 05 31 95 3d bb 72 a6 3d 66 0c 34 3d e5 55 d1 3d
       0.0728474 0.08127352 0.043957137 0.10221461
000180 92 e3 0d 3c 5b 79 a7 bd 5b 6c c7 ba ef bb 9c bd
       0.008660214 -0.081774436 -0.0015214788 -0.07653033
000190 c7 2c 19 bd a2 62 ab bd cc ae b7 3d 42 2f b0 bd
       -0.03739622 -0.08368422 0.08968887 -0.08602764
0001a0 5b 60 9c 3d bd e4 5e 3c fc 92 36 3d 91 b2 c4 3d
       0.07635566 0.01360434 0.04457377 0.09604371
0001b0 38 ca 6e 3c 54 91 17 3d ab f9 90 bd 02 a9 88 bd
       0.01457458 0.03700383 -0.070788704 -0.06672861
0001c0 17 be 51 bd 50 a3 55 3c c2 99 b4 bd d7 64 44 bd
       -0.051206674 0.013039425 -0.088183895 -0.04794773
0001d0 ba b2 a0 3d a5 96 7f 3d d9 43 47 bc 1f 44 bc bd
       0.078465894 0.062399525 -0.012162172 -0.091926806
0001e0 9c 08 0d bc 15 6b 45 3d 85 bf 2d 3d e0 00 93 3d
       -0.00860801 0.048197825 0.042418975 0.07177901
0001f0 65 86 b4 bb e0 2d 68 bd 5d 19 47 3d de f7 31 3d
       -0.005509185 -0.056684375 0.048608173 0.043449275
000200 71 49 82 bd ca 80 bd 3d bc 9e e0 3d c5 f4 14 3d
       -0.06361664 0.0925308 0.10967776 0.036366243
000210 19 94 22 bd 95 f1 d4 3c dd 75 98 bd 73 04 85 bd
       -0.03969202 0.025994102 -0.07444356 -0.06494989
000220 1f 52 97 3c e5 ba ac 3c 47 2b cb bc 48 07 fc bc
       0.018471776 0.021085212 -0.02480091 -0.03076519
000230 5c e2 ca bd 37 23 d6 3d 69 95 32 bd ce 90 d9 bd
       -0.09906456 0.104559354 -0.04359952 -0.106233224
000240 bc e7 b3 bd f1 ab d5 3c b6 36 dd 3d 18 85 56 bd
       -0.08784434 0.026082965 0.10801451 -0.05237302
000250 cb 1d 76 bc b3 a3 be 3d ec e9 83 bd 9b 06 a2 3c
       -0.015021752 0.09308567 -0.064411014 0.01977854
000260 57 76 2d bd 6b 5d 40 bd 00 9e b1 bd 2d 76 7f bd
       -0.042349186 -0.04696409 -0.08672714 -0.06236856
000270 f4 fa dc bc 0e f6 3a 3c 35 18 70 bd 22 de 5f 3d
       -0.026975133 0.011411203 -0.058616836 0.0546552
000280 b5 c6 9c 3d 83 c7 82 bd 6b 37 1e 3d c2 fa 23 bd
       0.07655088 -0.0638571 0.03862707 -0.040034063
000290 6a a1 b1 3c cf 93 ce bd 86 9c 3f 3d 7c 19 9f bd
       0.021683414 -0.10086786 0.04678013 -0.07768533
0002a0 7e a8 d2 3d 4f 2f 97 3d 78 4c 87 3d 97 dd 3f bd
       0.102860436 0.0738207 0.06606382 -0.046842184
0002b0 18 4d b6 3d 1b 67 b5 bc cf 6c b7 3c 77 f6 c7 bc
       0.08901423 -0.022143891 0.022390751 -0.024409516
0002c0 7b b4 b5 bd 7d 8c a3 3d 38 3d 3a 3d 48 72 73 3d
       -0.088723145 0.079857804 0.04546854 0.05943516
0002d0 9a 2b 81 bd 11 c9 89 bc 62 73 c4 bc 1a 10 e4 3d
       -0.063071445 -0.016819509 -0.0239808 0.11135884
0002e0 af e7 b8 bc 4a 30 d6 bb 79 36 b9 bd 8c 56 c5 3d
       -0.022571413 -0.006536518 -0.09043593 0.09635648
0002f0 f2 d1 91 3d 1b b8 7d 3c 27 b8 6e bd e9 e7 ce 3d
       0.07120122 0.015485789 -0.05828109 0.10102827
000300 14 08 07 bd f4 08 b1 3b 78 aa a9 3d 0e 42 e0 bd
       -0.03296669 0.0054026786 0.082844675 -0.10950099
000310 95 51 16 3d e9 fd a1 3d 99 35 4c 3d 98 42 9b 3d
       0.036698896 0.07909758 0.049855802 0.07581061
000320 2f c3 77 3d 5a 31 27 bd a5 67 6e 3c 31 f1 44 bc
       0.060488876 -0.04081855 0.014551078 -0.012020395
000330 de 61 23 bc 58 1d 9b 3d 04 2a 86 3d 27 b7 68 bd
       -0.009972064 0.07573956 0.065509826 -0.056815293
000340 e1 cb 96 bd 35 78 9f bd eb 82 fc 3c e4 b5 92 bd
       -0.073631056 -0.077865995 0.030824145 -0.07163599
000350 39 4f 65 3c 5f 11 ac 3d 15 6f 11 3d 5b d7 95 bc
       0.013995939 0.08401751 0.035506327 -0.018291166
000360 93 68 af bd 30 75 8d 3d 08 82 b2 3d 4d 48 4d bd
       -0.08564868 0.06907117 0.08716208 -0.05011778
000370 e3 e4 d0 3c f7 7e d8 3d df 67 1b 3d c0 bf 9d bd
       0.025499767 0.105710916 0.037940856 -0.07702589
000380 87 29 4f bb d7 1e 83 3d 43 42 15 3d 20 53 8a bb
       -0.0031610446 0.064023666 0.036440145 -0.004221335
000390 b3 2d af 3b 19 0b be 3d 51 36 d1 3d 9f 3d 82 bc
       0.005346024 0.092794605 0.10215438 -0.015898524
0003a0 ce c5 be 3a fb 81 6e 3d c3 46 a0 3c af 10 ae bc
       0.00145548 0.058229428 0.019564992 -0.02124819
0003b0 77 99 63 ba f8 8c e4 bc e9 35 ba 3a 7f 0b 4c bd
       -0.0008682231 -0.02789925 0.001420674 -0.04981565
0003c0 36 df 91 3d 17 b2 8a 3d b0 b7 b0 bd 91 71 65 3d
       0.07122652 0.06772249 -0.086287856 0.05601651
0003d0 60 b0 a8 bd 2c 83 bb 3d d1 5e 54 3b ce 9c bd bd
       -0.08236766 0.091558784 0.0032405148 -0.09258424
0003e0 bb a0 96 bd 83 2e 3f bd 10 cd 46 bd d2 77 b0 bc
       -0.07354876 -0.046675216 -0.048535407 -0.02154151
0003f0 a8 67 9b 3c 96 14 3d bc aa 0f ca bc 1a bd c0 bd
       0.018970326 -0.011540553 -0.024665672 -0.09411068

crystalGraphConvNet.embedding.bias f4 [64]
000000 75 cb d1 bd ac 4b 88 bd 29 a6 3d 3d 2a f6 bc 3d
       -0.102438845 -0.06655058 0.04630104 0.092266396
000010 fc e0 04 3d 6a a2 a8 3d b2 7a a4 39 ba 38 d0 3d
       0.032441124 0.08234103 0.00031371933 0.1016707
000020 13 11 63 3c 98 79 32 bc 3f 0e 35 bd b7 eb 99 bd
       0.013859051 -0.010893248 -0.04420304 -0.07515662
000030 5f 59 98 3c 51 1b b9 bd 19 e7 70 bd 3e 60 44 3c
       0.018597303 -0.09038413 -0.058814142 0.011985837
000040 01 f8 a6 bc 8f 3c ae bc 10 90 10 bd ed 96 03 ba
       -0.02038193 -0.021269111 -0.03529364 -0.0005019743
000050 86 ff cc bd 12 83 7e bd f3 e3 1a bd 0a 71 1d bd
       -0.10009675 -0.062136717 -0.037815046 -0.03843788
000060 33 7e 8b bd f5 b8 6f 3d f2 9f bc bd f5 79 78 bd
       -0.0681118 0.058526 -0.09210195 -0.060663182
000070 d6 7f 07 bd 8d 21 24 3d a7 64 de bc 7d ce 58 3d
       -0.0330809 0.04007106 -0.027147604 0.052931298
000080 65 98 6f bd f4 a6 9f 3d e3 37 a4 bd 2e 6d a9 bb
       -0.058494944 0.07795516 -0.08018472 -0.005170486
000090 99 f4 b5 bd 5d 60 56 3d ad d6 69 3d 10 71 54 3d
       -0.08884544 0.052337993 0.057089496 0.051865637
0000a0 87 33 29 3d d3 d5 5e bd 31 3c b7 3c b2 3e 83 3d
       0.041308906 -0.054403137 0.022367569 0.064084426
0000b0 34 95 c8 bd 9f 00 83 bd 14 49 c9 bd ff 45 88 bd
       -0.09794083 -0.06396603 -0.09828392 -0.06653976
0000c0 56 ab d9 3b 8a b3 8c 3c aa 10 96 bd 5c 8c c8 3c
       0.0066427393 0.017175455 -0.07327397 0.024480991
0000d0 68 8c f0 3b c3 3e 8a 3c 58 1f 5c 3c bd 0d 09 bd
       0.0073409565 0.01687563 0.013435207 -0.033460367
0000e0 da 71 ab bc 21 12 fd 3a 67 05 6f bd f8 97 cb bd
       -0.020928312 0.0019307771 -0.05835476 -0.09941095
0000f0 3b da a6 3d ad a1 94 3d d3 57 b0 bd ec 44 2f bd
       0.08147093 0.072574 -0.08610501 -0.04279034

crystalGraphConvNet.convs.0.fc_full.weight f4 [128, 169]
000000 b7 c3 35 bd 58 96 4d 3d e3 dd 5b 3d 30 3f 79 3c
       -0.0443761 0.050192207 0.053678405 0.015212819
000010 5e cc 80 bd cb b4 d7 3a fc 12 f8 3c c4 5b 37 3c
       -0.0628898 0.0016457079 0.03028249 0.011191312
000020 18 12 96 3d 5c 54 13 bc fc b5 90 3d 7f fc 95 3d
       0.0732767 -0.008992281 0.07065961 0.073235504
000030 da d8 7b bc 6f 23 f4 bc db 9d 60 bd 75 a0 6d bd
       -0.015371526 -0.029802052 -0.054838043 -0.058014352
000040 a4 6f 6e 3d 9d 66 b0 bb 18 5c 6f 3c 19 a6 9e 3d
       0.058211938 -0.005383326 0.014609359 0.07746524
000050 7e bb 18 3d ec 59 85 3d da 98 92 bd cc 9f 76 3c
       0.03728818 0.06511292 -0.0715806 0.015052747
000060 7b 73 4c bd db 46 56 bc db 88 8f bd d4 07 25 bc
       -0.04991482 -0.013078417 -0.07008525 -0.010072667
000070 38 59 1e 3d c3 56 51 bd 06 6f 69 bd ee 75 b7 bc
       0.038659304 -0.051108133 -0.056990646 -0.0223951
000080 2e 57 a8 bc 23 5f 92 bd 82 24 45 bd 20 81 0e bd
       -0.020549383 -0.07147052 -0.04813052 -0.034791112
000090 71 76 1f 3d 3d 5c b0 3b 6e 2b 74 3d 96 3c 8c 3d
       0.038931314 0.0053820894 0.05961173 0.06847493
0000a0 71 52 90 3c ef 8b 8c bd cb bd 5b 3d 3c 95 7b 3d
       0.017617436 -0.06862628 0.053647798 0.061421618
0000b0 6d 59 8b 3d a9 3a ab bb a5 89 3d 3d 49 03 68 bd
       0.06804166 -0.0052254987 0.046273846 -0.056643758
0000c0 89 9b 9f 3c e1 05 ef bb c5 ec d5 bc 19 03 56 3d
       0.019483345 -0.007294402 -0.026113877 0.052249048
0000d0 77 0a be bc 18 f4 2c 3b 56 d5 93 3d 5c 2b 90 3d
       -0.02319835 0.0026390608 0.07218425 0.0703952
0000e0 e6 1c 87 bd e4 67 99 3c 5a 86 46 bc ec f4 45 bd
       -0.06597309 0.018726297 -0.012116993 -0.04832928
0000f0 aa 34 3d 3a 3e ac a4 3d f3 b5 ca 3c fd cd 10 b9
       0.00072176254 0.08040665 0.024744963 -0.00013809647
000100 d6 ac 21 3d 12 4f 90 3d b1 cd 53 bb 9e 16 82 3d
       0.03947147 0.070463315 -0.0032318647 0.0635197
000110 c4 f4 83 3c 89 e6 0e bc 0f 24 2c 3c c8 16 89 bd
       0.016107924 -0.008721956 0.010506644 -0.06693798
000120 9b 7a 28 bd 39 0f be 3c 27 00 0e bd 55 00 6d bd
       -0.04113255 0.023200618 -0.034668114 -0.057861645
000130 be 9f 7d bd 5f 8c 2d 3d 06 06 8f 3b 2e d4 22 3b
       -0.06191992 0.042370196 0.0043647317 0.0024845707
000140 4f 7d 06 3d c5 db 5e 3d 13 8e 65 3d 73 85 b6 3c
       0.032834347 0.054408807 0.056043696 0.02228043
000150 9a 0a 6c 3d 61 df 81 bd df 49 a3 bc 86 da e6 ba
       0.057627298 -0.06341434 -0.019932685 -0.0017612732
000160 6b 5b 2b 3b a3 6c 32 bd 80 04 a8 3c 40 64 82 bd
       0.0026147019 -0.043560635 0.020509958 -0.063667774
000170 a7 c4 99 bb 52 38 84 bd 72 48 23 3b b5 f4 4e 3d
       -0.0046926322 -0.06456055 0.0024915007 0.05052634
000180 2d 0d c5 3a ff 0e 64 3d 5c b1 4c bc fa 0c c6 3c
       0.0015033834 0.055678364 -0.012493458 0.02417611
000190 03 c7 be 3c 3d 5b 1b 3c 76 27 95 3d 20 41 cd bb
       0.023288256 0.009482202 0.07282917 -0.006263867
0001a0 e1 63 87 3d 47 ab 6b bd 9f b8 e5 3c 4d 85 c7 3b
       0.06610847 -0.05753639 0.028042136 0.0060888887
0001b0 e6 4e a9 b7 85 8f 26 bd 72 2c aa 3c db 9d 85 bd
       -2.018311e-05 -0.040664215 0.020773146 -0.06524249
0001c0 8a 69 8e bd 1f 4d fe 3b cd b6 5f 3c 56 c0 37 3c
       -0.06953724 0.0077606584 0.013654423 0.01121529
0001d0 28 50 e1 bb 59 4e 43 bb 9c 63 4d bd 2a 05 74 bd
       -0.0068760104 -0.0029801338 -0.050143823 -0.059575237
0001e0 80 29 79 3c 9e 93 f9 3c d8 af 3f 3d 60 95 b6 3c
       0.015207648 0.030465897 0.046798557 0.022288024
0001f0 b0 cd 13 bd 12 d9 e0 bc 94 e5 5c bd e9 ca 50 3d
       -0.03608483 -0.027447257 -0.05392988 0.05097476
000200 10 64 99 bd 3c 2a ce 3c c2 f8 14 bd 30 3a f8 bc
       -0.074897885 0.025166623 -0.036370046 -0.030301183
000210 0f 84 56 bd 42 cd e6 3c 02 43 8c 3c a5 98 26 3b
       -0.052372035 0.028174046 0.017121796 0.0025420573
000220 7b 4e 5c bc cf 15 88 3d e5 05 3e bd 48 9e a7 3d
       -0.013446446 0.06644785 -0.04639234 0.08184487
000230 5a 5b 04 39 c7 ca 5a 3d 69 55 69 3d 0e a5 fc 3c
       0.00012622532 0.05341604 0.05696622 0.030840423
000240 de c0 9e bd 98 99 7c 3c 27 2e 8d bc b0 d6 dc bc
       -0.0775163 0.015417479 -0.017233921 -0.02695784
000250 c7 95 f5 bc 5c ec 3e 3d d3 91 9c ba 57 fe 94 bd
       -0.029978646 0.04661213 -0.0011945314 -0.07275074
000260 33 ee c8 3c f1 04 45 3c 6d c0 7c bc a8 8a 1f 3d
       0.024527645 0.012025104 -0.015426737 0.038950592
000270 02 ee 8f bb cc 19 da bb 57 79 ee 3c a4 bd 3e bd
       -0.0043923864 -0.0066559073 0.029110594 -0.046567574
000280 28 fc 19 3b d9 d7 11 3b 14 85 be bb 23 2a e1 3c
       0.0023496244 0.00222539 -0.005814204 0.027485913
000290 d9 db cd bb 12 8f 42 bd 4f 40 4d bd 14 b3 4f bb
       -0.0062823114 -0.047499724 -0.050110158 -0.0031692432
0002a0 9e 46 c6 bc 68 07 29 bb 6e 69 9a bd 69 58 1d 3c
       -0.024203595 -0.0025791768 -0.0753964 0.009603598
0002b0 82 c2 25 bd 0f 8b 58 3a 4b 71 40 3d 12 c3 29 bc
       -0.0404687 0.00082604674 0.046983045 -0.01036145
0002c0 16 a1 84 3d be 19 99 bd bc 0b 2b bd 6e 9a 0a 3d
       0.06476037 -0.07475613 -0.041759238 0.033838682
0002d0 64 1e 48 3d 4e 96 7f bd fc 8e e7 3c 13 91 49 3d
       0.048857108 -0.0623992 0.028266422 0.04921062
0002e0 f5 4f 01 3d d7 3b f6 3c 50 da f3 bc 3b 86 24 bd
       0.031570394 0.03005783 -0.029767185 -0.040167075
0002f0 ae da 52 3d 56 2c 28 3c 56 d0 79 bd 25 49 6a bd
       0.05147808 0.010264477 -0.0609897 -0.057198662
000300 3a 46 91 bd b8 12 b7 3b cb 12 42 3d 34 8c 5f bc
       -0.07093473 0.0055869482 0.047381204 -0.013644267
000310 46 5d 8f bc 37 10 09 bd 0b 40 0e 3d ba 69 e0 3c
       -0.01750053 -0.03346273 0.034729045 0.027394164
000320 f3 4b a6 bb 27 dc 85 3d 96 56 e3 3b 8b 6d 53 3d
       -0.005074972 0.06536131 0.006937812 0.05161814
000330 3d 41 67 bc 66 f1 07 3d 43 30 3e 3d c6 86 70 3d
       -0.014114675 0.0331892 0.046432745 0.05872228
000340 56 a9 e3 3c 04 d4 a5 3d 93 18 6f 3d bd 7d 42 3d
       0.027790707 0.080970794 0.058373045 0.047483195
000350 b5 d7 1b bd 4d 6e 50 3d ad e4 17 3d 70 41 1f 3d
       -0.03804751 0.05088644 0.037083317 0.038880765
000360 c8 54 98 3c b0 c7 ee 3c 1b b8 e8 3c 2f 6a 9b bd
       0.018595114 0.029147953 0.0284081 -0.07588612
000370 64 85 74 3d 5c e6 1d bd 55 d2 36 3d a3 69 96 3d
       0.059697524 -0.038549766 0.044634182 0.07344367
000380 34 c0 86 bd 5f 5b 8e 3d 19 ee 59 3d f2 01 30 3c
       -0.065796286 0.069510214 0.053205583 0.010742651
000390 91 54 96 3d f9 7d 3a 3d 59 f4 d0 3c 2a e7 32 3d
       0.073403485 0.045530293 0.025507139 0.043677486
0003a0 d0 98 bd bc 9d b0 41 bd 21 6c 85 bd 1c 79 37 bb
       -0.023144156 -0.047287572 -0.065147646 -0.002799577
0003b0 c3 2d e1 3c 8c 25 7e 3d 61 15 18 3c 11 3f 19 3d
       0.027487641 0.062047526 0.009282441 0.03741366
0003c0 a8 dc b1 bc 61 55 49 3c 96 97 3d bd 22 a8 cc 3c
       -0.021711662 0.012288422 -0.04628714 0.024982516
0003d0 91 3e 40 3d d0 bf aa 3c 66 ed 7d bc c7 ef 71 bd
       0.046934668 0.020843416 -0.015498495 -0.05906656
0003e0 a5 e9 45 3d bd 15 2c bd 93 18 0b bc c4 5e ee bc
       0.048318524 -0.04201292 -0.008489746 -0.029097922
0003f0 d6 63 cb bc 7c b8 cd 3c 0f ba 95 bc 05 51 36 bb
       -0.024827879 0.025112383 -0.018277196 -0.0027819287

crystalGraphConvNet.convs.0.fc_full.bias f4 [128]
000000 ec 56 7e 3d cc 13 8c bc b4 9f 7a 3d d2 8b 78 3d
       0.062094614 -0.017099284 0.06118746 0.060680218
000010 18 39 96 bb ea 0a 24 bd 1b 3e 98 3d e4 c9 98 bd
       -0.004584443 -0.04004947 0.07433721 -0.074603826
000020 3a fc af 3c bc cd 76 3d a8 3f e7 3c d3 02 88 bd
       0.021482576 0.060254797 0.028228596 -0.06641164
000030 ce 5a 58 3d de 7d f9 bc 8e b9 89 3d f6 e1 fb 3b
       0.052820973 -0.030455526 0.06724845 0.0076868488
000040 83 52 46 3d 10 c7 f1 bc e8 07 88 bd 1e 87 02 3d
       0.048418533 -0.029513866 -0.06642133 0.03186714
000050 00 c0 85 39 48 43 9b 3d 7c 58 67 bd b6 0c 75 bd
       0.00025510788 0.07581192 -0.05648087 -0.059826575
000060 90 94 90 bd 2a 68 34 bd 97 e5 ae bc 5e ba 90 bd
       -0.07059586 -0.04404465 -0.021349711 -0.07066797
000070 7e 0a 17 bd 0d 7f 9d 3c 8d 63 e5 3b 3f 29 5c bd
       -0.03687524 0.019225622 0.007000393 -0.053750273
000080 74 f8 cc bc 72 32 6a bd 49 5f 9c bd a3 27 0f bd
       -0.025020815 -0.057177015 -0.07635362 -0.03494991
000090 75 4f 7e bd 03 23 39 bd fc 69 b4 bc df f0 40 bd
       -0.062087495 -0.045199405 -0.022023194 -0.047104713
0000a0 7e 92 2a 3c 65 18 96 3d 0c 56 6a bc 38 81 cc 3c
       0.010410903 0.07328872 -0.014302742 0.02496396
0000b0 34 55 8c bd 81 c7 6f bc cd 41 86 3d db 41 9c bd
       -0.06852189 -0.014634968 0.06555519 -0.076297484
0000c0 4d 39 f6 3c 82 dd ed bc d2 a1 bc 3c 5d 13 96 3d
       0.03005662 -0.029036287 0.02302638 0.07327912
0000d0 b5 c6 96 3c a4 d3 15 bd 0b 9f 2d bd ce 5d 06 3b
       0.018405298 -0.03657879 -0.042388003 0.002050269
0000e0 8d 85 c1 3c 50 f5 55 3d 16 4b 95 bd fd c3 22 bc
       0.023623252 0.0522359 -0.07289712 -0.009934423
0000f0 a0 17 93 3d a3 ff b7 bc 9b f3 89 ba 2b 1c 65 3c
       0.071822405 -0.022460764 -0.0010524871 0.013983767
000100 ac 52 89 bd 56 55 8d 3c 3b 2e 24 bd d7 f4 35 bc
       -0.067052215 0.017252605 -0.04008315 -0.011105738
000110 a8 37 ba 3c 26 c0 15 bd 7a 98 58 bd 52 32 67 3d
       0.022731617 -0.0365602 -0.052879788 0.056444474
000120 14 c6 8a 3c ca 5c 53 bd c0 30 76 bd a0 a4 51 3d
       0.016940154 -0.051602162 -0.060105085 0.05118239
000130 d4 69 98 3d 4c 25 0a bd fe 4b 8c 3d 50 f0 03 bd
       0.0744206 -0.033726975 0.06850432 -0.0322116
000140 55 ef 65 bd c6 4c 28 bb c2 6b aa 3c 1d 4c 73 bd
       -0.056136448 -0.0025680526 0.020803336 -0.05939876
000150 59 2f c2 3c f8 5e d7 b9 fb 41 ac bb b3 1a 18 bd
       0.023704218 -0.00041078753 -0.005256889 -0.037134837
000160 b9 d7 14 bd 78 3e 29 bd 00 92 8c 3d 8f a9 b8 bc
       -0.03633854 -0.04131934 0.06863785 -0.02254179
000170 82 0b 93 bd dd 66 09 ba ba 15 c9 3c 8f d4 73 3d
       -0.07179929 -0.0005241463 0.024546493 0.059528884
000180 69 66 f3 bc 85 c6 ef 3c e8 5b 3e bd 8e 7e 8c 3d
       -0.029711919 0.029269466 -0.046474367 0.06860076
000190 80 c4 81 3a f2 93 82 bd a0 2e 9f 3b 5f 9b 55 bd
       0.000990048 -0.063758746 0.004857853 -0.052150127
0001a0 a0 28 16 bd 8c 84 de bc 4f 42 57 3d 9e 49 9c 3d
       -0.036659837 -0.027162813 0.05255347 0.07631229
0001b0 96 74 0c bd 17 6a d0 bc 45 3b b3 3c 06 86 69 3b
       -0.034290873 -0.025441213 0.021878848 0.0035632863
0001c0 83 ee 82 bc bd 72 19 3d 73 0d 8c 3d 14 29 e9 3c
       -0.015982872 0.03746294 0.06838503 0.02846197
0001d0 1d d2 df bc 21 75 46 bd 53 f4 91 bd 64 16 26 bc
       -0.02732187 -0.048451547 -0.07126679 -0.010137174
0001e0 57 a8 16 3d 74 0f b1 3b f3 70 35 bd 01 f7 9e 3c
       0.036781635 0.0054034535 -0.04429717 0.01940489
0001f0 75 91 40 bd 47 ec 49 bd 1c fb 2e bc 17 78 41 3d
       -0.04701372 -0.049297597 -0.010679986 0.047233667

crystalGraphConvNet.convs.0.bn1.weight f4 [128]
000000 90 81 80 3f db b1 7f 3f 36 bd 7f 3f 6c 49 7f 3f
       1.0039539 0.9988076 0.9989809 0.9972141
000010 06 9f 7f 3f ad 0b 80 3f 2c 1c 80 3f 69 10 80 3f
       0.99852026 1.0003563 1.0008597 1.0005008
000020 3a 32 80 3f 09 22 80 3f 37 d5 7f 3f 0b 16 80 3f
       1.0015328 1.0010387 0.99934715 1.0006727
000030 bc ff 7f 3f 24 03 80 3f 6e bb 7f 3f 9b e6 7f 3f
       0.99999595 1.0000958 0.9989537 0.9996125
000040 33 0f 80 3f a0 13 80 3f 2d 00 80 3f 6b 47 80 3f
       1.0004638 1.0005989 1.0000054 1.0021795
000050 6f ae 7f 3f 01 f3 7f 3f 01 c3 7f 3f 2a cf 7f 3f
       0.9987554 0.9998017 0.9990693 0.9992548
000060 62 42 80 3f e8 05 80 3f 73 bf 80 3f a6 6b 7f 3f
       1.0020258 1.0001802 1.0058426 0.99773633
000070 af f3 7f 3f 12 f6 7f 3f 24 16 80 3f 67 5c 80 3f
       0.99981207 0.9998485 1.0006757 1.0028199
000080 5b c6 7f 3f cb ae 7f 3f cf 1d 80 3f 54 1a 80 3f
       0.9991204 0.9987609 1.0009097 1.0008035
000090 28 06 80 3f f3 d5 7f 3f 03 ab 7f 3f fc fd 7f 3f
       1.0001879 0.99935836 0.9987032 0.99996924
0000a0 30 46 80 3f e1 a8 7f 3f 9e f7 7f 3f b6 bf 7f 3f
       1.002142 0.99867064 0.9998721 0.999019
0000b0 a9 21 80 3f 05 37 80 3f fe c2 7f 3f fb 7c 80 3f
       1.0010272 1.0016791 0.9990691 1.0038141
0000c0 81 b2 7f 3f 3c ee 7f 3f ba 0c 80 3f 2f 6c 7f 3f
       0.9988175 0.9997289 1.0003884 0.9977445
0000d0 07 be 7f 3f 30 88 7f 3f 09 da 7f 3f 32 da 7f 3f
       0.99899334 0.9981718 0.9994207 0.99942315
0000e0 cb 0a 80 3f bc 42 80 3f 55 46 80 3f 53 4b 80 3f
       1.0003294 1.0020366 1.0021464 1.0022987
0000f0 6f 45 80 3f d9 50 80 3f eb 9f 7f 3f 72 d5 7f 3f
       1.002119 1.0024673 0.9985339 0.99935067
000100 c5 09 7f 3f 0f 27 80 3f f0 12 80 3f 5f 14 80 3f
       0.9962428 1.001192 1.0005779 1.0006217
000110 6a 28 80 3f c9 e8 7f 3f 94 8f 7f 3f a5 f5 7f 3f
       1.0012333 0.99964577 0.9982846 0.999842
000120 da 05 80 3f cd d7 7f 3f 42 0f 80 3f 06 91 7f 3f
       1.0001786 0.9993866 1.0004656 0.99830663
000130 43 94 7f 3f 92 16 80 3f 28 0c 80 3f 27 13 80 3f
       0.99835604 1.0006888 1.000371 1.0005845
000140 37 04 80 3f c5 f2 7f 3f d9 db 80 3f 1b c3 80 3f
       1.0001286 0.9997981 1.0067092 1.0059541
000150 13 1c 80 3f 47 06 80 3f a3 1b 80 3f d6 14 80 3f
       1.0008568 1.0001916 1.0008434 1.0006359
000160 ab 7a 7f 3f 94 d1 7f 3f 5d 4e 7f 3f 68 3c 80 3f
       0.9979655 0.99929166 0.9972895 1.0018435
000170 ee 08 80 3f 1a 56 7f 3f 16 2d 80 3f bb 9c 7f 3f
       1.0002725 0.99740756 1.0013759 0.99848527
000180 a1 24 80 3f a2 e9 7f 3f 71 89 7f 3f d7 b1 7f 3f
       1.0011178 0.9996587 0.99819094 0.9988074
000190 e3 11 80 3f df f8 7f 3f b3 0b 80 3f f2 17 80 3f
       1.0005459 0.9998912 1.000357 1.0007308
0001a0 dc 19 7f 3f 85 3b 80 3f e3 2d 80 3f ff fb 7f 3f
       0.99648833 1.0018164 1.0014004 0.9999389
0001b0 0d b2 7f 3f 7b 49 81 3f db 20 80 3f 1a 65 7f 3f
       0.9988106 1.010055 1.0010027 0.99763644
0001c0 3d 4e 80 3f 59 12 80 3f 2c c5 7f 3f a6 44 80 3f
       1.0023876 1.0005599 0.99910235 1.002095
0001d0 78 f3 7f 3f 37 04 80 3f 65 20 80 3f 8b ac 7f 3f
       0.9998088 1.0001286 1.0009886 0.99872655
0001e0 6b eb 7f 3f 75 92 7f 3f 69 ad 7f 3f fc bc 7f 3f
       0.99968594 0.9983285 0.9987398 0.9989774
0001f0 a0 1f 80 3f f5 97 7f 3f 38 a5 80 3f 20 f4 7f 3f
       1.0009651 0.99841243 1.0050421 0.9998188

crystalGraphConvNet.convs.0.bn1.bias f4 [128]
000000 1f 3a 07 bb 57 cd b7 3a f8 08 99 ba f6 88 1a 3b
       -0.0020634008 0.0014022988 -0.0011675647 0.002358017
000010 1c 82 82 3a a8 33 1f 3a 92 8a a2 b9 49 bc 5b ba
       0.0009956989 0.0006073066 -0.0003100229 -0.00083822437
000020 f2 ed 8b ba 4a a1 9f b6 e1 0c 8a 39 75 aa b6 ba
       -0.0010675772 -4.757346e-06 0.00026331007 -0.0013936298
000030 94 08 eb 3a 75 13 51 ba 3c ad 9c 3a be e5 42 b9
       0.0017931634 -0.00079756166 0.0011953483 -0.00018586867
000040 10 c8 fd 39 3c 80 8e b9 82 2a bf ba 98 ed 68 ba
       0.0004840498 -0.00027179893 -0.0014584812 -0.0008885502
000050 ac eb 44 3a 82 95 11 b8 f9 2d be b8 c2 62 10 3a
       0.00075119245 -3.4709934e-05 -9.068469e-05 0.000550788
000060 bb 30 86 b9 99 a3 83 38 0c a8 15 bb 4c 09 9f 3a
       -0.0002559478 6.277039e-05 -0.002283576 0.0012133508
000070 da 01 0a 3b 21 72 af 3a af 12 eb 3a 4a 2e e4 ba
       0.0021058233 0.0013385453 0.0017934645 -0.0017408815
000080 34 ba 95 3a 05 29 80 3a ac bc 83 ba d2 45 84 ba
       0.0011423291 0.000977785 -0.0010050735 -0.0010091609
000090 c6 1e e9 3a 69 10 5a b9 0f bb 6f 3a 77 33 4c 3a
       0.001778566 -0.00020796213 0.00091450004 0.0007789651
0000a0 73 e3 8c ba c1 f2 f7 3a e8 d8 83 3a 91 bb e9 3a
       -0.0010748937 0.0018916951 0.001005915 0.0017832388
0000b0 6a 29 d9 ba 6f fb 1a 3b d1 20 67 3a d9 cb aa ba
       -0.0016568128 0.0023648401 0.0008816841 -0.0013030722
0000c0 a5 6f d5 3a 84 c1 83 3a 69 a5 2c b9 77 5f 21 39
       0.0016283883 0.0010052179 -0.00016464818 0.0001538972
0000d0 d3 24 47 bb 29 5a 69 3a 23 bf 95 3a af 6c 27 3a
       -0.003038694 0.00089016795 0.0011424761 0.00063867396
0000e0 85 1b 15 b9 7e 86 f3 ba a9 bf 91 ba 0d 61 13 bb
       -0.00014219999 -0.001857951 -0.0011119741 -0.0022488267
0000f0 2b 57 05 bb 68 7a 90 ba ae 1c e8 3a 0a 85 d3 3a
       -0.0020346146 -0.0011022808 0.0017708743 0.0016137671
000100 05 85 b6 3a ff c1 d7 b9 f8 b3 86 39 8e 85 32 3a
       0.0013925141 -0.00041152534 0.0002569256 0.00068100623
000110 18 2a 4a b9 78 5e 40 b9 5d d8 41 3a b7 f2 39 b6
       -0.00019279902 -0.00018345739 0.00073946064 -2.7708427e-06
000120 34 d5 33 b9 76 38 5e 39 1f 6c 11 39 22 47 1b 3a
       -0.00017150195 0.00021192603 0.00013868556 0.00059233804
000130 da fd bc 3a 53 1f ed b9 48 19 ef b8 2b e1 30 ba
       0.0014418915 -0.000452275 -0.00011401117 -0.000674742
000140 12 b8 b4 b9 24 5f 92 b9 c5 c5 a9 bb 0a b4 37 bb
       -0.00034469418 -0.00027918175 -0.0051810467 -0.0028030896
000150 e7 95 82 38 8f 51 25 3a 7c d5 f5 b9 39 97 00 ba
       6.2268045e-05 0.00063064037 -0.000468891 -0.00049053464
000160 13 7d 69 3a d1 ca 78 3a fa c8 57 3a 92 46 16 ba
       0.0008906882 0.0009490671 0.0008231547 -0.00057325617
000170 8a 5d fd 38 6c d4 e5 3a 67 26 a2 b9 63 fc e9 39
       0.00012081403 0.001753462 -0.0003092766 0.00044629266
000180 e7 98 fa b9 d3 dd 35 38 4b b5 70 3a 0c 25 3d 3a
       -0.00047797637 4.3360353e-05 0.0009182288 0.0007215298
000190 30 e3 22 3a 93 05 8a 39 6f 9b 51 b7 85 ae 9b b9
       0.0006213663 0.00026325564 -1.24935605e-05 -0.0002969393
0001a0 f3 fc a7 3a 93 03 cd b9 4a 74 c3 b9 80 38 c3 b6
       0.0012816474 -0.0003910331 -0.0003727994 -5.8180303e-06
0001b0 69 cf 8e 39 ce 99 8c bb 01 86 28 ba 3d 74 ea 39
       0.00027238883 -0.004290796 -0.00064286595 0.00044718562
0001c0 d5 2a 95 ba a1 e5 9f b8 d0 37 f1 39 4e 47 8f ba
       -0.0011380563 -7.6244825e-05 0.00046008686 -0.0010931285
0001d0 58 83 84 39 06 a3 ac 39 52 2d b6 b9 d7 6f 03 3a
       0.0002527486 0.00032927858 -0.0003474751 0.0005013919
0001e0 d2 c0 85 39 10 11 1d 3a 7e da 47 39 86 14 84 38
       0.000255114 0.0005991617 0.00019059514 6.298073e-05
0001f0 ae 20 2d 39 b6 6e 50 3a 1e f9 e6 ba 36 d6 37 b9
       0.0001651074 0.00079510675 -0.001762185 -0.0001753204

crystalGraphConvNet.convs.0.bn1.running_mean f4 [128]
000000 4d 7b 35 3e 2e cb 07 bd 0d 7a d5 3c 2b 1f 8c bc
       0.17722817 -0.03315275 0.026059175 -0.017104706
000010 a1 5c ca 3d c4 09 0a bd da d8 82 3d 4b 76 28 bc
       0.09880949 -0.03370072 0.063890174 -0.0102821095
000020 47 94 ff 3d 7e 18 d7 bb 3b 49 b4 3d 08 96 f2 bd
       0.124794535 -0.006564199 0.0880303 -0.118450224
000030 84 44 c8 3d 65 a7 73 3d fd 2d be 3c ae 66 6a bd
       0.09778693 0.05948581 0.023215288 -0.05722683
000040 a7 fa 4e bc 8a a4 c8 bc 1e 8c fa bd b2 12 80 3c
       -0.012633002 -0.02449252 -0.122337565 0.015633915
000050 dd 29 43 3d 3c 2b 0f 3d 49 ff 0d bd b7 d8 4d bd
       0.047647346 0.03495334 -0.034667287 -0.050255504
000060 de d0 e8 bd 8a db d1 3c 49 ec 05 be 34 b2 42 3d
       -0.11367963 0.02561738 -0.13078417 0.04753323
000070 85 d1 2b bc c2 ca 85 bd 4b 3e 84 3d a8 3b f2 3b
       -0.010486965 -0.065328136 0.06457194 0.0073923655
000080 1f e0 ad bd e2 5e 64 bd 33 39 1b be 24 85 bc bd
       -0.08490013 -0.05575455 -0.15158539 -0.09205082
000090 b4 f9 43 3d 19 7a 8f 3c ce a6 d8 3d 10 d6 0f be
       0.047845557 0.017514275 0.105786905 -0.14046502
0000a0 ec 62 45 bd 6e 46 ca 3c 09 01 57 3c c0 d4 13 3d
       -0.048190042 0.024691787 0.013122805 0.036091566
0000b0 c4 2e 8c bb 25 fc cb 3d 0e e1 d1 3d f2 97 07 3d
       -0.004278036 0.09960202 0.10248004 0.03310389
0000c0 44 96 be bd a4 d2 b7 bd 3b 9b c1 3d 1d 0d f3 3d
       -0.09306005 -0.089757234 0.09453436 0.118677355
0000d0 a1 86 2c 3e 6a 4c 2d be 43 e5 c5 bd 3b 11 42 bd
       0.16848232 -0.16923681 -0.09662869 -0.047379714
0000e0 6a 37 79 bc 1d 5f 27 3e 74 e6 92 bd 5a 95 0a bd
       -0.015210966 0.16344877 -0.07172862 -0.03383384
0000f0 9e cc a0 3d 6d 7b e1 bc a6 b6 c2 3c 23 21 e4 3c
       0.07851528 -0.027524674 0.023768734 0.027847832
000100 cb c2 51 bc d2 99 5d 3c 39 65 5e bd 01 bb 0c be
       -0.01280279 0.013525443 -0.054295752 -0.13743211
000110 a0 9c b5 3d 30 1d ce bd 94 73 ce bc 85 56 f0 3c
       0.088677645 -0.10064161 -0.025201596 0.02933813
000120 ee e6 2b bc 33 12 39 bd fb 18 0d 3d ca 64 27 3e
       -0.01049207 -0.04518337 0.03444765 0.16347042
000130 9e 7f 72 3d f2 3d 14 be 01 04 92 3d ae 8d 2f ba
       0.059203736 -0.14476755 0.0712967 -0.0006696832
000140 44 d5 4f bd 7e 1e 1b bd 20 f6 f2 3d 75 94 12 be
       -0.050740495 -0.037870876 0.11863351 -0.14314444
000150 ce 98 0f 3e 15 eb 52 bd a3 ad a9 3d e0 2a 5b bd
       0.14023134 -0.051493723 0.08285072 -0.053507686
000160 94 6a cc bd 0a 45 04 be e0 86 eb 3b 4a 9d 48 bd
       -0.09981266 -0.12916961 0.007187709 -0.048978128
000170 f1 7e 0b bd 3e b6 ee bd 2b 40 25 bd 5f 11 e6 3d
       -0.034056608 -0.11655854 -0.0403444 0.11233782
000180 09 50 23 3b 6d ed 54 3d 7c e7 6b 3d 9a 3a e5 3c
       0.002491953 0.05198424 0.057593808 0.027982045
000190 84 a5 6b bd 18 26 15 be 8e 05 d5 bc 3c 97 99 3d
       -0.057530895 -0.14565313 -0.026003625 0.07499549
0001a0 34 93 44 3d 81 51 e0 3d c7 68 2f 3e 8e ec 97 3c
       0.047991946 0.10953046 0.17129813 0.018545415
0001b0 59 66 a7 bd e7 4e 7d bd b6 72 b4 bc 29 cd ab 3c
       -0.08173818 -0.061842825 -0.022027355 0.020971851
0001c0 e1 0d 03 3d 4a 92 c7 bd ab 1c 51 3d 94 0b c3 3a
       0.031995658 -0.09744699 0.05105273 0.001488077
0001d0 b4 12 25 3d 6f 27 86 bd 1e 8f 23 bd 99 30 c1 3d
       0.04030104 -0.0655049 -0.03993141 0.094330974
0001e0 ea 5e 00 3e e3 f6 b9 bd 92 4d 13 bd 67 56 1b 3d
       0.12536207 -0.09080293 -0.03596265 0.037924197
0001f0 6f 0b b9 bd e0 5c cc 3c 8e 9b b2 bd 36 2f 28 3d
       -0.09035384 0.02494663 -0.08721076 0.04106065

crystalGraphConvNet.convs.0.bn1.running_var f4 [128]
000000 5d ec 67 3c ea e1 76 3c 3f 7e 19 3c 55 57 58 3c
       0.0141554745 0.015068511 0.009368478 0.013204415
000010 4b b3 00 3c 0d 96 18 3c 33 bb 82 3c ca 52 3d 3c
       0.007855247 0.009313119 0.015958404 0.011555383
000020 e7 cc fd 3b da 54 34 3c ba b2 0e 3c 8d 97 29 3c
       0.0077453735 0.011006558 0.008709604 0.010351074
000030 9a 4f 16 3c 0d 07 e7 3b 12 16 1d 3c 0f 86 48 3c
       0.009174252 0.007050401 0.0095877815 0.012238993
000040 3b d8 00 3c ca f3 33 3c 38 d6 5f 3c f5 d1 07 3c
       0.007864053 0.010983417 0.013661914 0.008289804
000050 95 cf 7c 3c 62 f8 0a 3c 3d 43 49 3c 32 3e 53 3c
       0.015430351 0.008482071 0.012284097 0.0128932465
000060 9f 0d fe 3b 3e c6 49 3c 4c 76 28 3c 1d 97 33 3c
       0.0077530886 0.012315331 0.01028211 0.010961321
000070 e7 44 34 3c ca f0 4f 3c 5c c4 e1 3b e6 4d 0a 3c
       0.011002756 0.012691686 0.006889863 0.008441424
000080 07 f8 2c 3c 2f de 0a 3c 86 69 11 3c 71 4b 4f 3c
       0.010557181 0.008475824 0.008875256 0.012652264
000090 92 68 24 3c 22 22 53 3c 9c bf 6d 3c 10 15 6d 3c
       0.010034697 0.012886556 0.014511015 0.014470354
0000a0 0c 3b 16 3c 5b 36 44 3c 17 90 26 3c 6c 75 2a 3c
       0.009169351 0.01197585 0.01016619 0.010403972
0000b0 68 74 fb 3b 03 e8 5b 3c 8d 59 06 3c 6b 54 64 3c
       0.007673789 0.013422015 0.0082000615 0.013936142
0000c0 76 3b 0d 3c a4 e4 f9 3b f6 8e bb 3b fd 57 fe 3b
       0.008620134 0.007626133 0.0057238294 0.007761954
0000d0 e4 dc f6 3b 18 4d b3 3c 98 cd 3f 3c c1 ba 4d 3c
       0.0075336564 0.021887347 0.011706732 0.012556733
0000e0 98 e6 51 3c 64 3c 37 3c 3d 4a 1b 3c ae 03 a1 3b
       0.0128113255 0.011183832 0.009478149 0.0049137687
0000f0 39 33 3d 3c 75 3f e4 3b 8c 8e 17 3c 22 d1 08 3c
       0.011547857 0.0069655725 0.009250294 0.008350642
000100 d2 70 39 3c 53 76 35 3c ce 21 28 3c 35 c1 de 3c
       0.011318402 0.011075574 0.010261966 0.027191738
000110 bb 21 bb 3c 27 92 19 3c 60 94 3e 3c 8a af dc 3b
       0.022843232 0.009373224 0.011632055 0.006734793
000120 58 ec 47 3c 64 98 2f 3c 06 59 8e 3c c6 cd b7 3b
       0.012202345 0.010717485 0.017376434 0.005609247
000130 9d ef 6c 3c 81 68 2c 3c ba 10 45 3c 09 4d 3d 3c
       0.014461425 0.010522963 0.012027914 0.011554011
000140 c3 f6 13 3c 82 c6 e9 3b df bd 35 3c 25 09 1d 3c
       0.009031001 0.0071342597 0.011092632 0.0095847
000150 fe b9 81 3c 6d 1a 1a 3c 9d 1e 37 3c e3 fb ea 3b
       0.015835758 0.009405714 0.011176732 0.0071711405
000160 c6 51 8a 3c 19 72 d9 3b 4c ed 45 3c bb 1e 12 3c
       0.016884696 0.006635916 0.012080502 0.0089184595
000170 ce 76 47 3c 43 42 79 3c bc f4 7c 3c d1 33 0a 3c
       0.012174321 0.015213552 0.015439209 0.008435206
000180 fc d6 1e 3c e1 69 13 3c 71 0c 43 3c 4b 24 e5 3b
       0.009694811 0.0089974115 0.011904822 0.006992852
000190 9c 89 6a 3c a0 73 17 3c 21 64 6e 3c 97 6b 3f 3c
       0.014315035 0.009243876 0.01455024 0.011683366
0001a0 51 6e f1 3c 67 46 be 3c d1 db 6c 3c e5 b6 97 3c
       0.029471548 0.02322693 0.014456705 0.018519828
0001b0 6d 22 27 3c 34 06 55 3c f5 cc cb 3b 7f 1c 21 3c
       0.010201079 0.013001967 0.006219501 0.009833454
0001c0 1b b0 45 3c 21 88 6e 3c 0f 45 8f 3c 5d db e8 3b
       0.012065913 0.014558823 0.017488984 0.0071062283
0001d0 b8 d6 67 3c 2a da 31 3c 6d 40 06 3c e9 eb 2d 3c
       0.014150314 0.010855237 0.008194071 0.010615327
0001e0 4c 76 33 3c ec 65 7c 3c 9a 8e 1b 3c 8e a6 83 3c
       0.010953497 0.015405159 0.009494448 0.01607063
0001f0 d0 c3 1b 3c 53 ed 7b 3c c4 85 32 3c b4 51 18 3c
       0.009507135 0.015376407 0.01089615 0.009296823

crystalGraphConvNet.convs.0.bn2.weight f4 [64]
000000 97 32 7e 3f 9c 0e 81 3f 00 59 80 3f 69 60 80 3f
       0.99295944 1.0082583 1.0027161 1.0029422
000010 3e 21 7f 3f 8b b0 7f 3f d5 78 7e 3f af 07 80 3f
       0.996601 0.9987876 0.99403125 1.0002345
000020 77 30 80 3f 63 1e 7f 3f a0 20 80 3f c9 06 80 3f
       1.001479 0.9965574 1.0009956 1.0002071
000030 ad d7 81 3f b2 71 7f 3f 2d 9a 7f 3f b9 d6 80 3f
       1.0143944 0.9978286 0.9984463 1.0065528
000040 9a 6b 7f 3f a5 b1 7e 3f 6f 29 80 3f 43 b8 82 3f
       0.9977356 0.99489814 1.0012645 1.0212482
000050 a0 55 80 3f 54 59 7e 3f 62 fd 80 3f 6f 6b 7f 3f
       1.0026131 0.99355054 1.0077326 0.99773306
000060 a4 46 7e 3f 6a bf 7e 3f fa 91 80 3f 96 e8 7f 3f
       0.9932654 0.99510825 1.0044549 0.9996427
000070 db 24 7d 3f 45 88 7d 3f dd c6 7e 3f aa 14 80 3f
       0.9888436 0.99036056 0.9952219 1.0006306
000080 ef d3 80 3f c6 48 7f 3f df 3f 7e 3f 36 50 80 3f
       1.0064677 0.9972042 0.9931621 1.0024478
000090 73 a8 7f 3f 4c 2e 7f 3f dd 17 7d 3f 49 4f 80 3f
       0.9986641 0.9968002 0.9886454 1.0024196
0000a0 04 b4 7e 3f d3 aa 7f 3f d4 6c 7e 3f f7 11 7e 3f
       0.9949343 0.9987003 0.9938481 0.9924616
0000b0 ac 9c 7f 3f 12 71 83 3f 7f c4 7e 3f 7f 78 7f 3f
       0.9984844 1.0268881 0.9951858 0.9979324
0000c0 0f 2c 80 3f 07 4e 7f 3f 89 f7 7e 3f 92 72 80 3f
       1.0013446 0.99728435 0.9959646 1.0034964
0000d0 46 cb 80 3f d4 cc 7f 3f 0a d4 7e 3f 97 39 7e 3f
       1.0062034 0.9992192 0.99542296 0.99306625
0000e0 41 01 80 3f b1 56 80 3f 50 49 7f 3f a9 7c 7f 3f
       1.0000383 1.0026456 0.9972124 0.9979959
0000f0 e9 15 80 3f 6e e6 80 3f 42 9c 7e 3f db 15 80 3f
       1.0006686 1.0070322 0.9945718 1.000667

crystalGraphConvNet.convs.0.bn2.bias f4 [64]
000000 8f e5 c6 bb 56 68 74 3b e4 eb 6f 3b cf 94 0c bb
       -0.006069846 0.0037293634 0.0036609108 -0.0021451002
000010 4a aa 17 3a 65 e6 93 ba ba 67 0c bb 56 d0 5e 3b
       0.0005785568 -0.0011283873 -0.002142413 0.003399869
000020 cf 0d a7 ba 3c 6c ea b9 1e b6 31 3b ed 61 6d 39
       -0.0012745204 -0.000447126 0.0027116607 0.00022638561
000030 4b 83 e4 3b 4b 1d 66 bb ea 1d f1 ba 8d 43 81 3a
       0.006973659 -0.0035112675 -0.0018395756 0.0009862051
000040 1b 6e 8c 3a 1e 23 89 bb 38 71 52 3b 37 8a 11 3b
       0.0010713966 -0.0041850945 0.003211094 0.0022207627
000050 c1 c8 d8 39 6d 35 dd ba 14 ef 10 3b 20 c1 2c bb
       0.00041348304 -0.0016876884 0.0022115158 -0.0026360229
000060 31 88 a6 ba 17 30 32 bb 65 70 0f 3a 19 ff 3d ba
       -0.0012705383 -0.0027189308 0.0005471765 -0.00072477903
000070 4b d8 b6 bb a7 03 a0 ba 25 bb d9 b8 77 b2 2f bb
       -0.0055799833 -0.001220812 -0.00010382225 -0.0026809254
000080 7b 39 a9 3a 00 83 3a 39 91 6c 74 bb 77 0d b1 ba
       0.0012910807 0.00017787144 -0.0037296156 -0.0013508041
000090 9e 93 be b9 e1 01 3e bb 9d ca 88 bb eb ca 3c 3b
       -0.00036349607 -0.002899282 -0.004174544 0.0028807472
0000a0 01 24 17 bb 3c cf 4a 39 51 78 4a bb b1 cd 51 bb
       -0.0023062231 0.00019341422 -0.0030894468 -0.003201347
0000b0 6e ad 18 bb 93 f5 21 3b 18 0c 98 bb 5c c6 d4 39
       -0.0023296732 0.0024713024 -0.0046401136 0.0004058358
0000c0 76 21 a3 3a 6d c3 75 ba 8f 06 85 bb 4c b9 26 bb
       0.0012445885 -0.0009375129 -0.0040596197 -0.0025440035
0000d0 86 0e aa 3a 38 82 09 3b ff bb 87 ba 1d d4 88 ba
       0.0012974299 0.0020982157 -0.001035571 -0.0010439191
0000e0 26 80 c0 b9 ee fc e1 3a 56 1b 7d bb f9 e7 4e bb
       -0.00036716572 0.0017241517 -0.003862103 -0.0031571372
0000f0 d6 4e 0b b7 a7 c8 c9 3a 0d ec 67 bb c9 42 fd ba
       -8.303401e-06 0.0015394882 -0.00353885 -0.0019322272

crystalGraphConvNet.convs.0.bn2.running_mean f4 [64]
000000 6c ea aa 40 4c 21 a7 40 c1 bb 8f 40 17 29 b4 40
       5.341116 5.2228146 4.491669 5.630016
000010 4e 26 ae 40 6c 46 aa 40 73 e0 ab 40 72 f1 98 40
       5.442176 5.3210964 5.3711486 4.7794733
000020 27 15 9c 40 ba 08 9e 40 26 49 b2 40 45 a4 94 40
       4.877582 4.9385653 5.5714293 4.6450524
000030 aa 9b b0 40 8c 77 95 40 cc 14 ae 40 4b a4 a1 40
       5.519002 4.670843 5.4400387 5.0513053
000040 a5 0b a4 40 b0 23 96 40 f5 5c 98 40 fa f4 a7 40
       5.1264215 4.6918564 4.7613473 5.2486544
000050 50 6d b4 40 41 17 a0 40 60 a4 b4 40 c8 03 a0 40
       5.638344 5.0028386 5.6450653 5.0004616
000060 f6 6a 92 40 79 68 93 40 14 35 a4 40 4e e2 8c 40
       4.5755568 4.606503 5.1314793 4.402625
000070 09 8d b2 40 51 27 a9 40 a4 4e 97 40 db 0e a0 40
       5.579716 5.2860494 4.7283497 5.0018134
000080 1a 46 95 40 07 ac 96 40 a0 15 a1 40 6a 45 a6 40
       4.6648073 4.7084994 5.03389 5.1959734
000090 c8 2d 9b 40 ba 07 96 40 f5 20 8c 40 f8 88 8c 40
       4.8493385 4.688443 4.379023 4.39172
0000a0 28 2f 97 40 1d 1f b6 40 59 bf a5 40 56 b4 a2 40
       4.7245064 5.691298 5.179608 5.0845137
0000b0 95 95 95 40 7f 63 9c 40 6d 37 9e 40 99 d3 a7 40
       4.6745095 4.8871455 4.944266 5.24458
0000c0 4a aa 8b 40 9b 0b a9 40 47 05 9f 40 1e e1 9c 40
       4.3645372 5.2826667 4.969394 4.90248
0000d0 76 ca 9f 40 46 25 ab 40 94 f0 a7 40 9d eb a5 40
       4.9934645 5.3483 5.2481174 5.1850114
0000e0 48 7c 95 40 16 76 8d 40 2b ae aa 40 6e ff 9b 40
       4.671421 4.420665 5.3337607 4.8749304
0000f0 d3 1c 97 40 d7 0d ad 40 27 6e 96 40 58 7f a6 40
       4.7222686 5.4079394 4.7009463 5.203045

crystalGraphConvNet.convs.0.bn2.running_var f4 [64]
000000 b7 0c 01 41 a1 a4 35 41 2a 2b be 40 e4 5a 8e 41
       8.065604 11.352693 5.942769 17.79438
000010 b2 ab 58 41 c5 a3 52 41 0c ec 53 41 c6 ba 1e 41
       13.541918 13.164983 13.245129 9.920599
000020 2c 93 02 41 74 24 60 41 93 d3 84 41 12 02 1d 41
       8.160931 14.0089 16.603308 9.813005
000030 ee 34 64 41 68 c8 93 41 aa 00 8c 41 9a e2 fe 40
       14.262922 18.472855 17.500324 7.9651613
000040 0f f7 72 41 4c c5 51 41 eb 73 a7 40 50 97 07 41
       15.185317 13.110668 5.2329 8.474442
000050 92 c9 b9 41 0d e3 9c 41 4f 12 15 41 e2 b7 51 41
       23.223423 19.610865 9.31697 13.107393
000060 d5 ff 0d 41 af d4 c0 40 e4 30 43 41 d0 0c a2 40
       8.874959 6.0259624 12.199436 5.064064
000070 f7 8d 69 41 f8 34 83 41 83 0c ca 40 c8 e9 29 41
       14.597159 16.400864 6.3140273 10.6195755
000080 04 a7 fb 40 fe b8 2e 41 9f 53 ef 40 11 c5 87 41
       7.8641376 10.920164 7.4789577 16.971224
000090 2d 54 ee 40 48 2c 0f 41 ff 95 b7 40 8a e6 a5 40
       7.4477754 8.948311 5.73706 5.184392
0000a0 30 27 da 40 63 21 ab 41 3c e0 37 41 f0 0a 49 41
       6.8172836 21.391302 11.492245 12.56517
0000b0 60 9e 34 41 c9 5b 3c 41 45 18 4f 41 b0 aa 47 41
       11.288666 11.7724085 12.943425 12.479172
0000c0 c2 e1 67 40 83 d2 96 41 fb 5e 02 41 a6 5b 2e 41
       3.6231542 18.852789 8.148189 10.897375
0000d0 c2 5b b1 40 aa 3d 73 41 c2 18 33 41 6a cc 59 41
       5.542451 15.202555 11.193544 13.612406
0000e0 15 4d 08 41 10 28 82 40 1a 14 89 41 02 47 d6 40
       8.518819 4.0673904 17.134815 6.696168
0000f0 0f 67 10 41 dd 03 35 41 87 f2 e3 40 20 31 02 41
       9.025161 11.313443 7.1233554 8.136993

crystalGraphConvNet.convs.1.fc_full.weight f4 [128, 169]
000000 da df e4 3a 72 fe 8f 3c a9 05 4e 3b ad 10 17 3d
       0.0017461732 0.017577384 0.003143648 0.036881138
000010 b8 97 ef 3c 05 d5 d4 bc 94 58 95 3d 8b 54 05 3d
       0.02924715 -0.025980482 0.072922856 0.03255133
000020 3e d1 3b 3c 47 fd 94 bd 98 95 5a bd 6b b2 fe 3c
       0.011463461 -0.07274871 -0.05336532 0.031090936
000030 7b a6 88 bd da 34 9a bd 35 b8 0a bd 1d 37 a2 3d
       -0.06672379 -0.07529612 -0.03386708 0.07920668
000040 63 2e 1a 3d d4 31 2e 3d c1 2b 2a bd 0b e1 5a 3d
       0.037641894 0.04252799 -0.041545633 0.053437274
000050 f0 da 40 3b f3 2d 72 3d 46 44 e3 bc 8d 0c e0 3c
       0.0029427372 0.05912585 -0.027742516 0.027349735
000060 c7 bb 85 bd 1f 29 88 3d 97 1e 04 3c 69 57 17 3d
       -0.06529956 0.06648468 0.008063934 0.036948595
000070 ef 7b 82 bd 03 16 84 3d 20 42 7d bc 37 79 6b bd
       -0.06371295 0.06449511 -0.01545766 -0.057488646
000080 a7 64 6f 3d 96 6d 65 bd 2b 9f 5c bd ca 3a d7 3b
       0.0584456 -0.056012712 -0.053862732 0.0065682875
000090 e7 99 bc 3c 19 7d 89 bb 47 55 ab 3c f6 2f 9b 3c
       0.023022605 -0.004195821 0.020914687 0.018943768
0000a0 d3 2e 84 bd f7 a4 b1 bc 6b e2 88 bb c8 e7 9a 3d
       -0.064542435 -0.021685107 -0.0041773818 0.0756374
0000b0 a9 a4 95 bd ac b1 09 3d 0d d4 d5 bc 16 eb 15 3d
       -0.07306797 0.033616707 -0.02610209 0.03660115
0000c0 53 13 8b bd 46 3f da 3c 3f d1 65 bd e3 80 b3 bc
       -0.06790795 0.0266415 -0.056107756 -0.021912044
0000d0 45 33 c9 3c 87 70 20 3d 90 7a b9 3c fa c3 13 bd
       0.02456058 0.039169814 0.02264145 -0.03607557
0000e0 31 a4 9e bc 0b 6e 64 3d fe 1d 0f 3d d3 17 61 3d
       -0.019365402 0.055769008 0.034940712 0.05495436
0000f0 d8 7c d3 3c 50 68 56 bd 0f 1a d4 3c 3f 52 1a 39
       0.025816366 -0.052345574 0.025891332 0.00014717224
000100 d8 7d 6f 3c 90 e3 96 3d dd d2 7b 3d 38 bb 86 3d
       0.014617406 0.07367623 0.06148039 0.06578678
000110 6a ac 17 3d dd c5 70 bc 68 bf ef 3a 83 33 99 3d
       0.03702966 -0.014695612 0.0018291296 0.07480528
000120 0c 47 83 bd fe 4c 17 3d eb 58 66 bd 49 2a 99 3d
       -0.064100355 0.03693866 -0.056237143 0.074787684
000130 16 22 8c 3d 8d 15 52 bd a9 f2 5b 3d 8d fb 77 3b
       0.06842439 -0.051290084 0.053698216 0.0037839145
000140 e1 d4 3a 3d 15 50 14 ba 6b c6 0d 3d 7d af a3 3c
       0.045613173 -0.0005657685 0.034613054 0.01998114
000150 cc 54 83 bd a6 33 95 bd b6 d5 3c 3d 3b ac 4b bc
       -0.06412658 -0.07285242 0.046102248 -0.0124312
000160 d6 b3 24 bb f6 d9 7d 3d e4 da e9 bb 43 c5 96 bd
       -0.0025131605 0.061975442 -0.0071366895 -0.073618434
000170 49 18 23 bd b9 75 8a 3d 36 bd 68 bc 2d ca 29 3d
       -0.039818082 0.06760735 -0.014205268 0.041452575
000180 ad ed 62 3d d2 1c 27 bd 5a 0b 96 bd 0d 0b 88 3d
       0.055402447 -0.04079897 -0.07326384 0.06642733
000190 1b 01 4d 3b 47 6b 89 3d 39 a2 6e bc 51 64 45 3d
       0.0031281176 0.06709915 -0.014565044 0.048191372
0001a0 da c2 0f bd 0d a7 fd 3b d2 00 e5 3c d7 6f 82 3d
       -0.035097934 0.0077408613 0.027954493 0.06368988
0001b0 a6 49 84 3d 93 39 fc 3c d0 35 04 3d 97 e7 ad bc
       0.0645936 0.030789172 0.032277882 -0.021228595
0001c0 c3 3b 90 bd af df 4f 3d a4 08 7e 3d af eb 82 bd
       -0.07042649 0.05075043 0.06201996 -0.06392609
0001d0 c4 ca dd bc 9a d1 9c 3c 99 68 64 bd 79 15 8a 3d
       -0.027074225 0.019142915 -0.055763815 0.06742377
0001e0 e3 9f 4e 3d 4c e9 04 bc d0 13 b9 3c f8 1b 3d bd
       0.05044545 -0.008112263 0.022592455 -0.04616925
0001f0 6f a8 22 3d c2 ac a6 bc 67 60 f2 3c a5 01 6a bd
       0.039711412 -0.02034605 0.029586984 -0.057130475
000200 c5 51 97 bb cf c1 28 3d 38 2d 1a 39 43 98 46 bd
       -0.004617902 0.041200455 0.0001470343 -0.04848505
000210 f0 01 57 ba e1 d5 d0 3b b0 37 82 bd 68 aa 1e bd
       -0.0008201888 0.0063731526 -0.06358278 -0.03873673
000220 b8 05 84 bc c5 39 3a bd c9 ec 11 3d 3d 00 8e bd
       -0.016116008 -0.04546525 0.035626207 -0.06933639
000230 3d c7 71 3c 40 73 e4 3c 5d 7c 12 3d 18 0f 1d bd
       0.014756975 0.027886987 0.035763133 -0.038344473
000240 61 93 8c 3d c4 29 f4 bb 26 5a 0d 3d 5f 32 7a bd
       0.06864048 -0.007451268 0.0345098 -0.061083194
000250 dc 99 d1 3c c8 7c 56 bd 8b 10 61 3c 49 cb 95 3c
       0.025586061 -0.052365094 0.013736854 0.01828541
000260 a2 e9 0d bd 80 b7 76 bd 9e fd fe 3c 1d 2b 81 bd
       -0.034646638 -0.060233593 0.031126793 -0.06307051
000270 50 92 9b 3d 54 e0 35 bd 84 90 34 3d b9 49 f4 bc
       0.07596266 -0.04440339 0.044083133 -0.02982031
000280 57 9f 63 3d d4 4d 00 3d 12 a6 5e 3d b4 35 12 bd
       0.05557188 0.031324223 0.054357596 -0.035695747
000290 4a 59 da 3c 05 60 90 3c d9 eb 50 3b 8f b0 3a bd
       0.026653904 0.01762391 0.0031878857 -0.045578536
0002a0 12 6c 7f 3d 5c 05 0b 3c 32 f8 dd 3c 19 7a 83 3d
       0.062358923 0.0084851645 0.027095888 0.06419773
0002b0 58 b4 00 bd 2e f1 aa bd 6a d8 9c bd b0 c7 f3 3c
       -0.03142199 -0.083467826 -0.07658465 0.029758304
0002c0 b8 72 2b 3d ee a7 1c bb c3 33 90 3d 6f 70 4e bd
       0.04185745 -0.0023903805 0.07041123 -0.050400194
0002d0 6d 4b f8 3c a1 87 31 3d d0 47 db bc bf 50 09 bd
       0.030309403 0.043342236 -0.026767641 -0.03352427
0002e0 e2 6e fa 3c c4 cf 9c 3c 25 ed 16 bc de 9f 89 3c
       0.030570451 0.01914204 -0.009211813 0.016799863
0002f0 e3 a2 80 bc 39 f7 95 3b 41 1d 8f 3d d5 f8 06 bc
       -0.01570267 0.0045765904 0.069880016 -0.008238037
000300 0a e7 4f 3d 10 5a 41 bc af 54 10 bd 0a fb f6 3c
       0.050757445 -0.011801258 -0.03523701 0.030149002
000310 94 dd 41 bd c0 de 08 bd a0 f1 08 3d c0 60 82 3c
       -0.047330454 -0.033415556 0.033433557 0.015915275
000320 f0 43 0d 3d bd 5e d4 3c 86 34 8a bd 6c 6e 99 3c
       0.03448862 0.025924081 -0.06748299 0.018729411
000330 75 20 10 3d dc 30 be 3c 99 b7 f6 bc 84 f7 f4 bb
       0.035187203 0.023216657 -0.030116843 -0.007475795
000340 8c 0e 7c bd d7 aa ad bd a4 3f 87 bc 1f 15 74 3d
       -0.06153731 -0.08479851 -0.016509838 0.059590455
000350 21 b4 23 3d 08 38 af 3c ae 2f 75 3d 50 14 2c 3d
       0.039966706 0.021389022 0.059859924 0.04201156
000360 09 15 b2 3c 6e e7 b8 ba aa 1a 8a 3c 2a d6 b2 bd
       0.021738546 -0.0014107057 0.016858418 -0.08732255
000370 a1 64 90 3d ce 6f 33 3d 8b c0 b9 bc 53 46 4a 3d
       0.070504434 0.043807797 -0.02267482 0.049383473
000380 7e 6e ae bc 84 83 5f bd 78 f4 1e 3d d6 70 8e bd
       -0.021292921 -0.054568782 0.038807362 -0.069551155
000390 fc 01 4d bd 1a 2c 8d bd 53 47 ae bd 2a da 2a bd
       -0.05005072 -0.06893177 -0.08509698 -0.041711964
0003a0 19 4b 30 3d 20 6c 48 bc 1a b6 cc bc 8a dd 5d 3c
       0.04304037 -0.01223281 -0.024989177 0.013541589
0003b0 85 43 1a bd 78 72 99 bc d6 3b 89 bd 9a 7f 7d 3d
       -0.037662048 -0.01873134 -0.06700866 0.06188927
0003c0 91 21 57 bd ef 63 e9 bc a7 be 5e bd 8e 51 8a bc
       -0.052522246 -0.028490035 -0.05438104 -0.016884591
0003d0 02 33 65 3d ab 59 b4 3d dc ad 3d bd 02 b3 83 bd
       0.055956848 0.08806165 -0.046308383 -0.064306274
0003e0 9f d4 8e bd f1 0f 1d bb 93 f0 71 bd e9 4c 41 3d
       -0.06974148 -0.00239658 -0.05906732 0.047192488
0003f0 29 61 39 3c 2f 0d 5a bd 6e fb 03 bd c7 df 44 bd
       0.011314669 -0.05323523 -0.032222204 -0.048064973
