get_descriptor_cgcnn/saved_models/scan_42.ckpt (torch, 675914 bytes, 58 tensors)

crystalGraphConvNet.embedding.weight f4 [64, 92]
00000000: 1226 a53d 2359 d43d dc57 e6bc ac68 ca3d
00000010: 5c12 bcbc 108e 8f3c 8297 53bd b55a 7e3d
00000020: bed2 bf3d 71b2 9cbd 2345 aa3d 2d82 bf3c
00000030: 7f02 9e3d 7920 553c dd57 863d e6b9 09bd
00000040: 6a42 cd3d ee28 853c 4bf5 9cbd 1afc c53c
00000050: 2115 e3bc 0fcb debc 3b9c 35bd b73f 983d
00000060: ac44 b3bd 5e36 48bd a31b 92bc 4326 5dbd
00000070: 16a1 233c 02ec e4bd 9b58 993d ffc2 a2bd
00000080: 884e b33d 800e ce3c f4b2 9fbc 6469 783d
00000090: 10c8 623c 327c 9e3d bbd3 073d a80c 28bd
000000a0: da44 ca3c 26f9 32bd 2597 493d 329c bc3d
000000b0: 99a6 883d 17be 2bbd fe61 9e3d 4a2e 823c
000000c0: 43d9 603d 60fa 45bd 8da3 00be e2b5 aebc
000000d0: 3043 a0bd 7d09 733d 1fc9 f53c b08b 2e3d
000000e0: ace2 163d 64d5 0cbc e7dd be3d 4709 8bbd
000000f0: ba14 043c 1d2c 9fbd 95fc b93c 3fff c6bc
00000100: a801 263d dbe5 e2bc 9264 8d3d 1f1b 7dbd
00000110: 7fd8 80bd 1fb3 7ebd 6006 d53d 8c4f 0e3d
00000120: ef84 e43d 2d86 d5bd 98e3 9fbd 72b7 a0bd
00000130: b9a1 8fbd 6a6d 303d 1f09 503d a6ec 983d
00000140: ed2f 66bd 22a7 8fbd 3961 873d e3f4 24bd
00000150: e2c9 683d 113a 06bd 33b5 853d 78dd c0bd
00000160: 2426 34bd 7ab3 ab3c 57d4 c03c cff6 86bc
00000170: 928f 643d 257b b13d 8740 90bd ecbf 78bd
00000180: db59 c03d c4a0 e3bc b448 15bd 8e12 cebd
00000190: 1a09 76bd dd79 cc3c d649 97bc ef59 c1bd
000001a0: 341d 0ebc 4c04 a0bd 4278 e5bd 7f05 87bd
000001b0: 07b7 b8bd 4fc8 08bd 1a11 023e 3d37 053c
000001c0: dc90 883d 807d 93bd 41d2 8dbd af28 62bd
000001d0: 57e2 4fbc 77cc bbbd 5fc8 f5bc 473a 7ebd
000001e0: 1eb4 3e39 8c95 5fbd 2fc6 5ebd f627 cbbd
000001f0: 7860 a1bd f075 f5bc 5339 9bbc 9c8e 8dbd
00000200: 475a 9b3d f827 163c 8519 9f3d 37cd 4d3d
00000210: 0d38 cabd 58b8 683d b877 04bd 4bf6 5abd
00000220: 870f 8ebd a8e2 d4bd 79d6 3a3d 9230 c4bc
00000230: 8e4f ea3c 4bb5 e2bd 1538 9c3d 6785 99bd
00000240: 8bc7 793c b11b 353d 7e05 583d 45e0 aa3d
00000250: 5625 9c3d 2e37 c8bd 3494 283d 2dd0 38bd
00000260: 41ba 9abc 6b06 d1bd 8112 9e3d a8bd c3bd
00000270: a82b ab3d 48c9 773d 078f 0a3d 4fe0 66bd
00000280: fb4e d23d efae bb3c a005 8d3c 182a bcbd
00000290: be5b 793c 0802 4fbc d932 84bd 0937 8c3d
000002a0: 3d6a be3c 4f48 cabc 634f 02bd 6758 523c
000002b0: 55a9 c23c 141b 07bd 6aff 89bd 044c 4bbd
000002c0: 9647 9bbd c2a6 283d 3db5 773d b815 aebd
000002d0: a081 f13c 3d30 5f3d b3d6 8a3c 69e9 a5bc
000002e0: e08e 5f3d 4912 613d 1cd5 433d d48b a0bc
000002f0: 6921 ccbc 7eb4 343c 5fb8 76bc b759 04bd
00000300: 013d 8c3d ee91 b73d 6296 30bc 034a a5bc
00000310: c4cf 1ebb 93c5 263c 72b5 eb3c 2c8c c73c
00000320: a417 f7bd d45d 3cbd 241e b93d a454 213d
00000330: 29e0 8dbb b910 88bd d247 67bd e26c acbd
00000340: c831 49bd 2fbf 103d c56f 7e3d 44b2 743d
00000350: 98f3 b0bd ea1a 87bd b5b6 313c 4686 b63d
00000360: 587b 273c d602 30bd 2839 dd3c 9036 02bd
00000370: 96b6 8cbd d76a 943d 9a7c 41bd 7397 36bd
00000380: b582 a9bd bc9e 9a3d 2ac2 b43d ba10 033d
00000390: 1b4a 91bd 0f8d debd 3016 adbd a0a1 b13d
000003a0: 787d 853d 7ec7 c03d 974e 4b3d 7033 783b
000003b0: 6631 20bc c451 99bd 65dd b6bd a53b c7bd
000003c0: dec7 3b3d 34a7 64bd 8a96 cfbc ac37 6ebd
000003d0: 8ce2 ecba 702e 8bbd 2f4c 6fbd 84b7 a73c
000003e0: eeeb 73bd acd0 8f3d 6675 ecbc 5fa1 9cbd
000003f0: b106 9cbc 5d01 4fbd 09c3 18bd d844 cbbd
0.08063902 0.10368564 -0.028118066 0.09883246 -0.022957973 0.017523795 -0.05165816 0.062098224
0.09366368 -0.076512225 0.08313968 0.023377502 0.0771532 0.01300823 0.06559727 -0.033624552
0.10022433 0.016254868 -0.076639734 0.024168063 -0.027720036 -0.027196435 -0.044338446 0.07434028
-0.087533325 -0.048879974 -0.017835444 -0.053991567 0.009987136 -0.111778274 0.07487603 -0.07947349
0.08755213 0.025153399 -0.019494511 0.060647383 0.013841644 0.07738532 0.033160906 -0.041027695
0.024691034 -0.043694638 0.04921641 0.092094794 0.06672401 -0.04192933 0.07733534 0.015891213
0.054894697 -0.04833448 -0.1256239 -0.021326963 -0.07825315 0.05933522 0.030003129 0.042613685
0.036837265 -0.008595798 0.09319668 -0.06788879 0.008061582 -0.07772086 0.022703448 -0.024291633
0.040528923 -0.027697494 0.06903948 -0.061793443 -0.06291293 -0.062182542 0.104016066 0.03474383
0.111581676 -0.104259826 -0.07807082 -0.078474894 -0.07013268 0.043073095 0.05078995 0.07467012
-0.05619805 -0.070143 0.066103406 -0.040272605 0.056833155 -0.03277022 0.06528702 -0.09417242
-0.043981686 0.020959605 0.023538752 -0.01647511 0.05580098 0.08666066 -0.070435576 -0.060729906
0.093921386 -0.02778662 -0.03644629 -0.10062133 -0.060067274 0.024960453 -0.018467825 -0.094409816
-0.008673955 -0.078133196 -0.11204578 -0.06592845 -0.09019285 -0.033394154 0.12701836 0.008130846
0.06668255 -0.072016716 -0.069248684 -0.05521458 -0.012688241 -0.09169858 -0.030002771 -0.062067296
0.00018186911 -0.05458598 -0.05438822 -0.09919731 -0.07879728 -0.029963464 -0.018948233 -0.06911966
0.075855784 0.009164803 0.07768539 0.050244536 -0.09873972 0.05681643 -0.032340735 -0.05345754
-0.06936555 -0.10394794 0.045614693 -0.023948941 0.028602388 -0.11069735 0.07627884 -0.074961476
0.015245329 0.04421586 0.052739613 0.08343557 0.07624309 -0.0977615 0.041156963 -0.045120407
-0.01888764 -0.10206302 0.07718373 -0.095576584 0.08357936 0.06049469 0.033827808 -0.05636626
0.102689706 0.022910563 0.017214596 -0.09187716 0.015219627 -0.012634762 -0.06455011 0.068464346
0.023244018 -0.024692683 -0.03181399 0.01283846 0.023762384 -0.032984808 -0.067381695 -0.04963304
-0.07582013 0.041174658 0.060475577 -0.08500236 0.029480755 0.054489363 0.01694808 -0.0202529
0.054579616 0.05494908 0.04781066 -0.019597925 -0.024918275 0.011029361 -0.015058606 -0.03231212
0.06847573 0.08963381 -0.010778042 -0.020176893 -0.0024232725 0.010178941 0.028773043 0.024358831
-0.12065056 -0.04598792 0.09038952 0.03938736 -0.0043297005 -0.066438146 -0.056464978 -0.08419205
-0.04911974 0.035338577 0.06211831 0.05974032 -0.08640212 -0.0659693 0.010846783 0.089123294
0.010222279 -0.042971455 0.027004793 -0.031790316 -0.06870763 0.072469406 -0.04723797 -0.044578027
-0.082768835 0.075498074 0.08826096 0.031998374 -0.070942126 -0.108667485 -0.084514976 0.08673406
0.06518072 0.0941305 0.049635496 0.0037872456 -0.0097774025 -0.07486299 -0.089289464 -0.09728173
0.045844905 -0.05582352 -0.025340337 -0.05815856 -0.0018072887 -0.067959666 -0.058422264 0.02047325
-0.059551172 0.07022223 -0.028864574 -0.076479666 -0.01904616 -0.05053841 -0.037295375 -0.0992524

crystalGraphConvNet.embedding.bias f4 [64]
00000000: 52f3 25bd 429c d7bc 2c8f 64bd bb24 9d3d
00000010: d5c9 3e3c 2f1c d6bc 6aeb 45bd 08eb bdbd
00000020: 8b61 e63b 5453 bb3d aeb1 893d fe08 a73d
00000030: 8cbc 8f3d 58d3 313d 1016 a5bb 27e9 9ebd
00000040: 4046 9a3d a540 98bd 131f 74bd 9cde 283d
00000050: 79f3 763d dc4d 5cbd 2169 823d 25fd c2bd
00000060: 9bcb ba3c 2ffe 363d 6c0a be3c 8a99 68bd
00000070: aeb0 91bd 488a aa3d ea3c d33c 0388 3cbd
00000080: 36d7 cf3d d0b5 ccbc 494c b2bc d8ac be3c
00000090: 0111 b33d 005a 44bd 0e6d b53b c4a8 49bd
000000a0: a9ef 48bd 32aa 91bc 88d4 48ba 52d9 583d
000000b0: 36c0 9fbd e07b 6f3d 7441 a93d 9a3a 3bbc
000000c0: dcdd 3cbc 23cf c53c 1eeb c2bd 5983 9c3d
000000d0: d809 9abc 4e4f 8c3b d400 473d caf5 303d
000000e0: 8267 43bd d9d4 a1bd eba3 ccbd fdfa acbd
000000f0: 5876 abbc edef aabd f9a2 2fbc 0930 6dbd
-0.04051525 -0.026319627 -0.0558006 0.076730214 0.0116448 -0.026136486 -0.04832021 -0.09273344
0.007030671 0.09146753 0.06723343 0.08156012 0.07018384 0.043414444 -0.0050380304 -0.07759314
0.075329304 -0.07434205 -0.059599947 0.04122792 0.060290787 -0.05378519 0.06367708 -0.0952094
0.022802165 0.044676002 0.023198329 -0.05678705 -0.07113777 0.08327156 0.025785882 -0.04602815
0.1014847 -0.024989039 -0.021764891 0.023275778 0.087434776 -0.047937393 0.005536682 -0.049233213
-0.049056683 -0.01778135 -0.0007661064 0.052941628 -0.07800333 0.058467746 0.08264437 -0.011427546
-0.011527505 0.024146622 -0.09517501 0.0764224 -0.018803522 0.004281915 0.048584774 0.043203153
-0.047706135 -0.079019256 -0.09992202 -0.0844631 -0.020930454 -0.083465435 -0.010720008 -0.057907138

crystalGraphConvNet.convs.0.fc_full.weight f4 [128, 169]
00000000: 4ba8 423d 4490 7c3d e351 903d bf92 60bd
00000010: b67a 3fbd 0cfe 0b3d a0d1 cfbc a376 6d3d
00000020: 1110 90bd 572c 953d 4420 72bd 4ae6 91bd
00000030: 98b0 a0bb 5b6d 23bd f5ff 3bbd 6b7f 443d
00000040: 5648 7f3d a8cd 4d3d a566 0d3c d13e 4e3b
00000050: 6934 36bd f0fc 913d 65d6 20bd be0a 89bd
00000060: 65f9 823d d14d fcbb c93c 6e3d 5460 d3bc
00000070: dde2 543d 95cd 51bd db93 5e3d b470 753d
00000080: c1e7 a7ba 0f81 693d 45f2 163c 5fc4 88bd
00000090: 7ac9 f13c f5fa 51bd f5de 263c 6b3b 8fbd
000000a0: 7ad7 01bd b419 71bc 9c43 b3bc cd39 86bd
000000b0: a569 42bd 8b4e 89bd 3db8 74bd f55a 9dbd
000000c0: 8924 28bd 066e b3bc 863b 923d 9fd4 48bd
000000d0: 72e2 4fbd 6f17 5ebd 9f32 9f3d acbd 2dbc
000000e0: d4e7 88bc f6f4 1b3d 3ebf 13bd 5f03 68bc
000000f0: a9a6 9f3d 6f11 4f3d 4e03 81bd 5d81 acbc
00000100: af22 113c 72b5 073d e259 02bd c8df 663d
00000110: c8a8 4b3c cbbf 67bd f899 903c 1cef 8fbd
00000120: 463d 033c 28b8 96bd 8b37 bfbc 402a a7bc
00000130: c125 7ebd 2b67 97bc f494 dd3b 1f56 28bd
00000140: 9421 0d3c 1092 443d ef01 623c 4932 90bd
00000150: a3eb 7dbb 31a7 2fbd ed0e b73c bc6a 81bd
00000160: ab4c 59bd 9767 a3bb 8c87 583d 133d a2bc
00000170: cca9 d4bb 82a3 deba 72fd 4bbd 9099 6ebc
00000180: c65c 87bb bda5 a43c 819b 313d 1c17 bb3c
00000190: 0122 273d 9199 4ebc 8ae1 f2bc 0e91 703d
000001a0: e500 883d b2ad 363d 3059 863d 9c43 3a3d
000001b0: 7e22 703d f557 913d 1a37 85bd d2ed aabd
000001c0: 4749 18bd 6d62 553d 6256 9b3d 3c9a f23b
000001d0: 4ae2 45bd 7d3c ddbc 013f 213d d665 8f3d
000001e0: d0e7 933c 0c5d 64bd cabd a93d b740 923d
000001f0: 9e83 e8bc da42 06bd 9620 3b3d 893d 51bd
00000200: 1480 833d cf69 7ebc 8a39 89ba 2553 28bd
00000210: ecc1 9bbd 3ff9 8b3c 4731 efbc 8acd 39bd
00000220: 5939 793d c241 4e3c 8aea 99bc ca6e 82bd
00000230: dce5 d2bc bc5b 82bb a240 083d f061 a7bd
00000240: 374a 0c3d adb0 833d d99a c43c edf2 babd
00000250: 0dba f23b d522 e8bc 6414 b83c 945c d5bb
00000260: fc7c 133d 60c3 92bb 56f2 823c 468d 013d
00000270: 97d4 68bd 7e62 523c 2a64 8c3d 3705 5c3d
00000280: 06eb 9c3b 52a0 5dbc c047 023d cd88 8abd
00000290: c5cb bdbc d6a4 883d 3230 223c 4f70 82ba
000002a0: 5e00 78bd 1c69 7ebd e676 9fbb a178 9fbd
000002b0: 5ccd a4bc a0e0 10bd aa50 6d3c c3dc ac3c
000002c0: 5d14 a9bd dbac ec3c 8bc1 85bc d2d5 ffbc
000002d0: 3eb6 953c 5d0b 84bd 4081 a4bd 2960 573c
000002e0: 8eeb 5dbd a2f2 d2bc 3f38 8bbd da34 99bc
000002f0: 818a 9c3d fc94 bfbd bde9 65bd dd8c 80bc
00000300: d0ca 45bd afa0 703c 1898 dcbb d6db 663d
00000310: 5200 a2bd 2616 07bc 3e0d fa3c 5128 f4bb
00000320: 7b29 193b f48c 823d e640 72bd ad58 9b3d
00000330: feb2 c63c 7724 573c b7d3 5d3d 0c31 943c
00000340: 631c e73b f275 bfbc 04e8 abbd da80 0f3c
00000350: 75be 503d d06b f83b 903a 2bbc 2fd2 4abd
00000360: 60d7 fa3c 9a55 8f3b 2859 8abd ca61 2b3d
00000370: e444 393c ce1c fe3c 8a95 9b3d 744b 803d
00000380: 6cbb 97bc 8887 943c f921 0f3d 948f 233d
00000390: ce7b 29bd 520d c93c a7e3 38bd a950 64bb
000003a0: 23b7 8bbd 48e3 0e3d 8321 893d 28e3 b2bd
000003b0: 8787 09bd aec3 cdbc 9d4a 83bd 70bc 993d
000003c0: 5510 8dbd c96e 27bd e573 a6bd 7ca4 1a3b
000003d0: dfc1 9bbd 80f7 8cbd 3654 803d 9fa6 213d
000003e0: 679e cd3c b39a 8b3d e003 9d3c ba13 953c
000003f0: b9d1 2dbd 9cae f03b 0117 72bd 3bb8 0c3b
0.047523778 0.06166102 0.07046869 -0.054827448 -0.046747886 0.034177825 -0.025368512 0.05797447
-0.070343144 0.07283848 -0.059112802 -0.07124002 -0.004903864 -0.03989921 -0.045898397 0.047973078
0.062324844 0.050244957 0.008630429 0.0031470547 -0.044483576 0.07128322 -0.039266963 -0.06691502
0.063952245 -0.007699706 0.058163438 -0.025802769 0.051974166 -0.05122145 0.054340225 0.059921935
-0.0012810157 0.057007845 0.009213035 -0.0667808 0.029515017 -0.051264722 0.010184993 -0.06993755
-0.031699635 -0.014715601 -0.021882825 -0.065539934 -0.04746403 -0.06704434 -0.059746016 -0.07683364
-0.041050468 -0.02190305 0.071402594 -0.049030896 -0.050753064 -0.054221567 0.07773327 -0.010604303
-0.016712107 0.03807541 -0.036071055 -0.01416096 0.0779546 0.050553735 -0.062994584 -0.021057779
0.008858367 0.033132024 -0.031824 0.05636576 0.012430377 -0.056579392 0.017651543 -0.07028028
0.008010214 -0.07359344 -0.023341915 -0.020405889 -0.062047724 -0.018481812 0.0067621414 -0.041097756
0.008613963 0.04799086 0.013794406 -0.07040841 -0.0038745187 -0.042884056 0.022345984 -0.06319186
-0.053051632 -0.004986714 0.052863643 -0.019804513 -0.006489968 -0.0016985985 -0.04980225 -0.014562979
-0.0041309325 0.020098561 0.04336119 0.022838168 0.040803913 -0.012609855 -0.029648561 0.058732085
0.066407956 0.044599243 0.0655998 0.045474634 0.058626644 0.070968546 -0.065046504 -0.08346142
-0.037179258 0.05209582 0.075848356 0.00740364 -0.04831151 -0.027006382 0.039366726 0.070018455
0.018054873 -0.0557528 0.082881525 0.071412496 -0.028383072 -0.0327786 0.045685373 -0.051084075
0.06420913 -0.015528156 -0.0010469418 -0.041094918 -0.07605347 0.017086623 -0.029198302 -0.045362033
0.060845707 0.01258892 -0.018788595 -0.063687876 -0.025744371 -0.0039782207 0.033264764 -0.08172977
0.034250464 0.064301826 0.023999618 -0.09128366 0.007407433 -0.028336922 0.02247066 -0.0065112803
0.036007866 -0.004478857 0.015984695 0.03162887 -0.056843366 0.012840865 0.06855042 0.05371591
0.004788759 -0.013526993 0.031806707 -0.06764374 -0.023168454 0.06672065 0.009899186 -0.0009951683
-0.060547225 -0.06211196 -0.0048664687 -0.0778668 -0.020117454 -0.03537047 0.014484564 0.021101361
-0.08255837 0.028891018 -0.01632764 -0.031229887 0.018275376 -0.0644748 -0.08032465 0.013145485
-0.05417972 -0.025750462 -0.067978375 -0.01870196 0.07643605 -0.093545884 -0.056131113 -0.015692169
-0.04828912 0.014686747 -0.006731998 0.056361996 -0.07910217 -0.008245027 0.030523892 -0.007451095
0.0023370672 0.06374541 -0.059143923 0.07585273 0.024255272 0.0131312525 0.054156985 0.018089794
0.0070529445 -0.02337167 -0.08393863 0.008758748 0.050962884 0.0075812116 -0.010450974 -0.049516853
0.030620277 0.004374218 -0.067552865 0.041841306 0.011307929 0.031019595 0.07596882 0.062643915
-0.018521987 0.018131033 0.03494451 0.03993185 -0.041377835 0.024542484 -0.04513898 -0.0034838116
-0.0682204 0.03488472 0.06695845 -0.08734733 -0.033576515 -0.025117721 -0.06410716 0.07506645
-0.06887881 -0.040877137 -0.08127574 0.0023596575 -0.07605337 -0.068831444 0.06266062 0.039465543
0.025099946 0.06816616 0.019166887 0.018197883 -0.042436335 0.007345034 -0.05910397 0.0021472115

crystalGraphConvNet.convs.0.fc_full.bias f4 [128]
00000000: ddda 993d 67a6 91bc 741a 72bd 5bf4 87bd
00000010: 62d6 96bc fee4 9c3d 0dfc 5dbd f22f 8abd
00000020: 765f 9abd 977d 3bbd a5ce 523d 01e6 683d
00000030: fbf8 913c c3c8 08bd 020c 973d 43bd 08bd
00000040: fe89 92bd 454d 1d3d 321b 963d 6541 0ebd
00000050: 2e33 10bd 8122 9abc 0f19 2ebd a5bd 243d
00000060: d424 d0bc 18d4 483c eff5 213c 0b2f 2f3d
00000070: 7148 afbc b7c5 f2bc 72c9 74ba b269 843c
00000080: cb80 cf3c f2db 5fbd c0b2 063c a6c3 7a3d
00000090: ad71 0dbd a141 3c3c 49d7 a8bc 3d85 843d
000000a0: 2919 9dbd 0752 533c 33e9 bb3c cb69 b93b
000000b0: dc3e 393d 0fef 663d 359e 81bd 4e39 10bd
000000c0: 6884 f7bc f4ba f9bc 09f3 98bd f62d 393d
000000d0: 12b0 81bd 0d13 55bc ef85 8cbd 77ea d13c
000000e0: f5c6 873d 4964 f9bc 28b1 0cbd 8503 0bbc
000000f0: 07ec 0abd c121 7bbc 7990 d73c cf6f 26bd
00000100: 7ccd c7bc 00da 77bd 9d13 533d a473 673c
00000110: 114a 113c ccac 413a c281 953d 52f2 8e3d
00000120: fe45 783d 9399 27bd cd35 9c3d 1617 793d
00000130: 1aa6 8bbd 5e53 78bd b281 90bd 2d68 cabc
00000140: 685b 95bd 280d 4abd f292 47bd 9ae7 943d
00000150: 141d 07bd e97a fcbb 6de0 733d 8c99 733c
00000160: 8a3d 5c3b fc5c e0bc 7f04 6b3d db85 71bd
00000170: 0575 d53c 423e 563c c559 3b3d fdce 40bd
00000180: 6baa 3e3d c52b 313d fdf3 7cbd 254f 973d
00000190: 05ab 18bc 9eae 3f3d 4b8e 18bd faec ab3b
000001a0: 0c79 6abd 19ce 49bd c444 c83b 48a9 163d
000001b0: 84b1 8a3d 336f 9cbd cf70 3b3d c095 df3c
000001c0: 1b0a 953d 5dda d6ba 36f2 8bbb ffec 9abd
000001d0: 876a 313d 5748 28bc a48f b7bc dabe 89bc
000001e0: 11ae 54bd a4c2 bdbc bca1 b03c 5bea 463d
000001f0: ed49 5ebd 5a78 92bd fc83 4d3c 6684 823d
0.07512448 -0.017779542 -0.05910726 -0.06638404 -0.018412773 0.07660864 -0.054195452 -0.06747426
-0.07537739 -0.04577407 0.051466603 0.056859974 0.017818918 -0.033394586 0.07375337 -0.03338362
-0.07155226 0.038403768 0.07329406 -0.034730334 -0.03520506 -0.01881528 -0.042504366 0.04021992
-0.025408186 0.012257598 0.009885295 0.042769473 -0.021396847 -0.029635293 -0.0009337879 0.01616368
0.025329968 -0.054653116 0.008221328 0.06122174 -0.034532238 0.0114902565 -0.020610468 0.06470726
-0.076708145 0.012897975 0.022938346 0.0056583635 0.045225963 0.056380328 -0.06329004 -0.0352109
-0.030214503 -0.030484654 -0.0746823 0.045209847 -0.06332411 -0.01300503 -0.06861483 0.025624497
0.06629745 -0.030443328 -0.034348637 -0.008484726 -0.0339165 -0.015327872 0.026314007 -0.040633973
-0.024389975 -0.060510635 0.051532377 0.014126692 0.008867756 0.00073881145 0.0730014 0.06979813
0.060613625 -0.040917944 0.07627449 0.060813032 -0.06818791 -0.06062638 -0.070559874 -0.024707878
-0.07292825 -0.049328953 -0.048724122 0.07270737 -0.032986715 -0.0077050817 0.0595402 0.014868151
0.0033606016 -0.027388088 0.057377335 -0.058965545 0.026056776 0.013076367 0.045739908 -0.0470724
0.046549242 0.043254633 -0.061756123 0.073881425 -0.009318118 0.046797387 -0.037245076 0.0052467557
-0.057244346 -0.049268816 0.006111713 0.036782533 0.0677214 -0.07638397 0.04576188 0.027293086
0.07277318 -0.0016391982 -0.004270817 -0.07564735 0.043314483 -0.010271153 -0.02240736 -0.016814638
-0.051923815 -0.023164101 0.021561496 0.048563343 -0.05426972 -0.071518615 0.012543675 0.06372909

crystalGraphConvNet.convs.0.bn1.weight f4 [128]
00000000: 2732 7f3f 8cd9 7f3f a44b 803f f8e6 7f3f
00000010: 7197 803f 722a 803f ba6a 803f 5109 803f
00000020: f80d 803f 525c 803f 6116 803f 4970 803f
00000030: cf5c 803f 7d36 803f 8d8f 7f3f c963 7f3f
00000040: 253b 803f c2a7 7f3f 1e39 803f 7421 803f
00000050: 961a 803f 933a 803f 38f3 7f3f dba5 7f3f
00000060: 8814 803f c8a9 7f3f 4b55 803f ff24 803f
00000070: 2cdd 7f3f 07ae 7f3f f102 803f 9642 803f
00000080: fbb1 803f 1059 803f ee66 803f 6309 803f
00000090: e0e3 7f3f 3ad0 7f3f 2c39 803f ed00 803f
000000a0: d677 803f 42c9 7f3f 4b00 803f 5642 7f3f
000000b0: 615e 7f3f dc9d 7f3f 3b64 803f b138 7f3f
000000c0: 3706 803f 9e60 7f3f 9943 803f 25e1 7f3f
000000d0: 772e 803f 4d0d 803f 134c 7f3f 2128 803f
000000e0: fc4e 803f 34d4 7f3f c265 803f 647b 7f3f
000000f0: 7381 803f 0918 803f 1991 7f3f 1a53 803f
00000100: 3e83 803f 092c 7f3f b70a 803f 0e0f 803f
00000110: c753 7f3f dfd9 7f3f 5725 803f ef9e 7f3f
00000120: a274 803f 5fa9 7f3f 0d0d 803f d195 803f
00000130: bab4 7e3f b8b6 7f3f e143 803f 6e27 803f
00000140: 0a5b 803f f623 803f a354 7f3f 6021 803f
00000150: cad5 7f3f d08b 7f3f 0d6f 803f 9f46 803f
00000160: 365b 7f3f d329 803f f156 803f 525d 803f
00000170: 8174 803f 4e65 803f 65d0 7f3f b5f1 7f3f
00000180: 5da7 7f3f 2bb7 7f3f 4fac 7f3f f205 803f
00000190: 40ff 7f3f a58e 803f 8ebb 7f3f 6e22 803f
000001a0: 2ca8 7f3f d349 803f 62f7 7f3f 141a 803f
000001b0: 7425 803f bc6f 803f bab1 7f3f 9230 803f
000001c0: 9f14 803f f404 803f 8504 803f 3227 803f
000001d0: 72bd 7f3f 1508 803f 9e35 803f 7a14 813f
000001e0: 72e6 7f3f 3e49 803f c3bc 7f3f 2c90 803f
000001f0: ab80 7f3f de39 7f3f e588 7f3f 1101 803f
0.996859 0.99941325 1.0023084 0.99961805 1.0046216 1.0012953 1.003257 1.0002843
1.0004263 1.0028174 1.000683 1.0034267 1.0028323 1.0016629 0.99828416 0.99761635
1.001805 0.99865353 1.0017431 1.0010209 1.0008113 1.0017875 0.999805 0.9986245
1.0006266 0.9986844 1.0026029 1.001129 0.99946856 0.9987492 1.0000898 1.002032
1.0054315 1.002718 1.0031412 1.0002865 0.99957085 0.99927104 1.0017447 1.0000283
1.0036571 0.9991647 1.000009 0.99710596 0.99753386 0.9985025 1.0030588 0.9969588
1.0001897 0.997568 1.0020629 0.9995292 1.001418 1.0004059 0.99725455 1.0012246
1.0024104 0.9993317 1.0031054 0.99797654 1.0039505 1.0007335 0.99830776 1.002536
1.0040052 0.9967657 1.000327 1.0004594 0.9973721 0.9994182 1.0011395 0.9985189
1.0035594 0.99867815 1.0003983 1.004572 0.99494517 0.9988818 1.0020715 1.0012033
1.0027783 1.0010974 0.9973852 1.0010185 0.9993559 0.9982271 1.003389 1.0021552
0.9974855 1.0012764 1.0026532 1.0028479 1.0035554 1.0030916 0.9992736 0.9997819
0.9986475 0.9988887 0.998723 1.0001814 0.99998856 1.0043532 0.9989556 1.0010507
0.99865985 1.0022529 0.9998685 1.0007958 1.001143 1.0034099 0.99880564 1.0014822
1.0006293 1.0001512 1.0001379 1.0011961 0.99898446 1.0002466 1.0016363 1.0084374
0.99961007 1.0022352 0.998974 1.0043998 0.99805707 0.99697673 0.9981826 1.0000325

crystalGraphConvNet.convs.0.bn1.bias f4 [128]
00000000: 9828 4c3b a93f 913b c3dc 11bb 0d72 2a3a
00000010: 66b2 08bb df0f 98ba 05b0 36bb 836b 06ba
00000020: ae5c feba 6033 38ba a1c0 b0ba d8f2 3f3b
00000030: 7735 3b3a 01c4 5539 f2c7 273b e738 443a
00000040: 7c6b 14bb 0a04 fd39 fb99 3c3a 8e44 1c3a
00000050: 755e 7dba c2c2 e9b9 4d24 ca39 17f1 d23a
00000060: 4552 81ba 3834 4b3b 4d4a 28bb bb09 c73a
00000070: 0baf bf39 2835 b53a 30d7 da39 6d48 3f3a
00000080: c16c c5ba 424c 1a3a 90c5 91ba a033 b839
00000090: de2a 0d3a 1d4b 2fba 55af 4eb8 759f fd38
000000a0: 85da 0dbb 38bc 9c3a 2d68 4fb9 d5da 903a
000000b0: fd8c b23a a4e1 213a 2a2a 83ba 8596 033b
000000c0: 139e a039 7a61 e03a d7b6 0bbb 5d8a 003b
000000d0: e5bd a1ba ef12 a93a 7d7d 063b 7820 83ba
000000e0: 5290 c338 8dfe 88b9 d34b adba 3d7d 7f39
000000f0: ae36 45bb eaf3 433a 8008 93ba 4c29 baba
00000100: 07ea bcba 28ac 903b 0821 34b9 0ad1 e1b8
00000110: 204d 9a3a d7a8 38b9 3f58 94ba d23c 263a
00000120: 0104 42ba 7127 9538 db9d 1b39 ed18 64ba
00000130: bc33 2c3b e18f 2b3a 572f 31ba 957c 1fba
00000140: bc74 94ba f024 72b9 89d0 fc3a c1a9 c0b5
00000150: 7305 da39 9eb3 a63a 34cf 04bb 6427 70ba
00000160: 269e 40b9 6f9f 53b9 e10a e7ba ecdd e0ba
00000170: 07b9 09bb b5e6 92ba 2c40 fd39 6587 323b
00000180: afd9 9b38 eb3b 1b3a 5187 4d39 72e2 5239
00000190: 571d 8e3a f46f 53bb aaac 6e3a 72e2 8cba
000001a0: 0c9e 313a 4d27 37ba 4380 b9b8 bca2 01ba
000001b0: d6ff cfb8 21b8 b4ba db62 5a3a 66c7 773a
000001c0: e97c 71b9 60a5 2739 0ddc a8b9 2ae6 bfb9
000001d0: 4320 c038 7746 7fba 0bd3 93ba 2acc 81bb
000001e0: fb31 1e39 289e 15ba dfef 643a d6f0 eeba
000001f0: 9917 c53a f8c7 113b 283d 7e3a fce4 cbb9
0.0031152125 0.0044326377 -0.0022256828 0.000650198 -0.0020858287 -0.001160141 -0.0027875912 -0.0005127715
-0.0019406283 -0.00070266984 -0.0013485142 0.0029289033 0.0007141451 0.0002038628 0.0025601354 0.0007485286
-0.0022647073 0.0004825893 0.0007194576 0.0005961143 -0.0009665259 -0.0004458633 0.0003855549 0.0016093579
-0.0009866437 0.0031006467 -0.0025679052 0.0015185395 0.00036560776 0.0013825046 0.00041740527 0.0007296864
-0.0015062318 0.0005885997 -0.00111215 0.00035133678 0.0005385111 -0.0006686913 -4.9277518e-05 0.00012093681
-0.002164514 0.0011957949 -0.00019779867 0.0011051545 0.001362234 0.00061752857 -0.0010007073 0.002007873
0.00030635353 0.0017118894 -0.0021318698 0.001961372 -0.0012339918 0.0012899319 0.0020521574 -0.0010004183
9.325206e-05 -0.00026129597 -0.001322145 0.0002436535 -0.0030092406 0.00074750057 -0.0011217743 -0.0014202981
-0.0014413007 0.004415054 -0.00017178443 -0.000107677726 0.0011772253 -0.00017610505 -0.0011317803 0.00063414604
-0.00074011093 7.11222e-05 0.00014840758 -0.0008701224 0.0026275953 0.0006544572 -0.00067590683 -0.0006083933
-0.0011326293 -0.00023092679 0.0019288223 -1.435452e-06 0.0004158426 0.0012718325 -0.0020265104 -0.0009161143
-0.00018369462 -0.00020181922 -0.0017627144 -0.0017155982 -0.0021014826 -0.0011207672 0.00048303732 0.0027241346
7.431523e-05 0.0005921709 0.00019600733 0.00020111518 0.0010842484 -0.0032262774 0.00091047084 -0.0010748638
0.0006775565 -0.0006986752 -8.845378e-05 -0.0004945209 -9.918182e-05 -0.0013787785 0.00083307707 0.0009452015
-0.00023030084 0.00015987968 -0.00032207408 -0.00036601844 9.161283e-05 -0.0009737978 -0.0011278106 -0.003961106
0.00015086673 -0.0005707466 0.00087332533 -0.0018229734 0.001503694 0.0022244435 0.0009698444 -0.00038889784

crystalGraphConvNet.convs.0.bn1.running_mean f4 [128]
00000000: 6fc1 dc3c 6046 4ebd f03e 8ebb 4bf9 d3bd
00000010: 089c 04be 66a0 d13d bb80 aabc 953b b9bc
00000020: 6727 a1bd f2e1 9dbc 0665 0c3e 853a 7c3d
00000030: 35b6 e03d d684 f0bd c9ea 42bd 58e9 d83c
00000040: 8791 c5bb c71b ad3c 8ae5 973d e03d 46be
00000050: d7bd 623d 460a 9a3c 00eb 5abd c3d7 573c
00000060: 71a9 0dbe 5c06 fdbc cc60 de3d 9218 593d
00000070: 5e19 79bd 8e65 edbc b1aa 953c 1301 c1bc
00000080: ff11 103c b275 03bd f1f5 01bd f0cd 913c
00000090: c6df 06bd 173f d43d 2b50 6dbd 4016 4d3c
000000a0: da8c bdbd 7841 09bd 27e0 ba3d d49a cebd
000000b0: 3d4d 263d 1aae 0d3e 6aa7 16bd d657 6e3d
000000c0: e251 d5bd 3a8f 14bc 6ff5 01be 0733 3c3d
000000d0: cc03 d73d 4fe4 863d 2a57 15be aa9e 473b
000000e0: 64c5 383e a6a5 18be acac b8bd 47e5 8c3d
000000f0: 0f3a 76bd c827 233c b354 43bd 9cf5 a8bd
00000100: 5dfb 6fbd 21e9 cdbd 8947 2bbc 1460 babd
00000110: 577e b43c 4c8f aabc 5462 09bd 696d b83d
00000120: 29cc 113d c36a 13bd ec91 113d f679 9ebc
00000130: 6722 0ebe d480 d6bd 2e15 193c 7f07 5d3b
00000140: 98fc d6bd 1a36 e4bd bef0 c63b 7a0a 433e
00000150: e331 dd3d fa0f 0e3c 4c8b 84bd f4ea f0ba
00000160: 1ae7 dbbd dd1d 47bc aa16 993c 0e79 ddbc
00000170: fa93 523d 78b1 be3d 37f9 cc3d 410e 2bbe
00000180: 4be5 aa3d 2a8f 59bd dd62 28be e119 db3d
00000190: 5476 0abd 1a79 063e 4f21 98bd 0e2d 47bd
000001a0: 0403 013d c28a 06bd 45c3 03bd 2ea6 273e
000001b0: d1f1 fc3d 30cd 66bc 93b3 103e 1ec2 66bd
000001c0: 520b 4a3e 2d63 6abd 850d a2bd da4f 3abc
000001d0: e14a 803d 261b a13d 2582 b6bc 304b 19bd
000001e0: c6c3 18be 4e03 2fbd 83df 2f3e 0c25 9fbd
000001f0: 2e83 17be abe2 02be d65a 68b9 5b8d 8b3c
0.026947705 -0.050360084 -0.004340999 -0.10350283 -0.12950146 0.10235672 -0.020813337 -0.022611419
-0.078688435 -0.019272778 0.13710412 0.061579246 0.10972253 -0.117440864 -0.04758719 0.026478454
-0.006029311 0.02113141 0.07416828 -0.19359541 0.055356827 0.018803727 -0.05344677 0.013174
-0.13834168 -0.030886821 0.10858306 0.053001948 -0.060815208 -0.02897909 0.018269869 -0.023560083
0.008793353 -0.032094665 -0.03172869 0.017798394 -0.03292825 0.10363596 -0.057937782 0.012517512
-0.09255381 -0.0335097 0.09124785 -0.10088125 0.040601004 0.13835946 -0.036780752 0.058189236
-0.104160085 -0.009067351 -0.12691282 0.0459471 0.10498771 0.06586515 -0.14584032 0.0030459561
0.18044049 -0.1490694 -0.090173095 0.06879669 -0.060113963 0.009958215 -0.047688197 -0.08249971
-0.058589328 -0.100542314 -0.010454067 -0.09100357 0.0220329 -0.020820282 -0.03354104 0.09005243
0.035595093 -0.035990488 0.035539553 -0.019345265 -0.13880311 -0.10473791 0.009343429 0.0033726392
-0.10497397 -0.111431316 0.006071179 0.19046965 0.10800531 0.008670801 -0.06471881 -0.0018380568
-0.107374385 -0.012153116 0.018687565 -0.027035262 0.051410653 0.09311193 0.100084715 -0.16704656
0.083445154 -0.053115048 -0.16443963 0.106982954 -0.033804253 0.13132134 -0.07428228 -0.048626952
0.031497017 -0.032847174 -0.032168645 0.16371986 0.1235081 -0.014087006 0.14131002 -0.05633747
0.19730881 -0.057223488 -0.07912735 -0.011371577 0.06264282 0.07866506 -0.022278855 -0.03742522
-0.14918432 -0.04272776 0.17175107 -0.07770738 -0.14796135 -0.1278178 -0.00022159083 0.017035177

crystalGraphConvNet.convs.0.bn1.running_var f4 [128]
00000000: 959f 813c 62e4 313c 141b ef3b 6783 1c3c
00000010: b8d3 1d3c f2af 363c 16be ed3b 2e35 f33b
00000020: 4148 373c c8aa 1b3c fe7d 163c 0248 373c
00000030: 9c0d 813c a0a0 193c 994d 163c d356 953c
00000040: 5b2c 193c e6e4 173c 3e0f 323c e275 363c
00000050: 7d24 233c b5f0 003c 6dc6 263c 3ae5 2c3c
00000060: 6228 823c dc5c 2f3c 4a1a 7a3c 814c 803c
00000070: 4e77 203c 3f3b 523c da2c 2c3c b6fe 2b3c
00000080: 0f94 063c 8f12 f53b 692b 493c 48c0 6f3c
00000090: bd5f 243c b2c5 de3b 6985 073c 3a31 073c
000000a0: 3dbd e23b 846d 093c 271f f23b 19dd be3b
000000b0: a041 233c 3452 093c 9544 153c f74e 1a3c
000000c0: 4584 093c 01ae 293c a5b1 033c 2679 343c
000000d0: a3f5 4c3c 0207 903c e42a 273c 69bc ff3b
000000e0: 047f 403c e300 383c 3b37 f83b f9c7 603c
000000f0: 067d 263c f675 133c 0cb0 2f3c d330 1d3c
00000100: fb42 713c 3315 aa3c f70c 303c 128e f83b
00000110: 8754 3b3c 8719 033c 84d4 3d3c d8fd 0f3c
00000120: 62c9 c73b 5b7a 383c 34ee 8d3c 0cf2 523c
00000130: 8902 cd3c 472d 043c 627b 8b3c 5ee6 813c
00000140: dcb7 253c 8886 0a3c ab38 963c 712e 2c3c
00000150: 6cd0 1b3c 60a4 713c a964 193c c257 193c
00000160: a0d7 7d3c 1fbc 343c 49c3 333c c2a6 9a3c
00000170: aa6f f83b 28c7 5d3c 2316 433c 8b18 b03c
00000180: f299 623c 149d 353c 5d2f 903c 5122 413c
00000190: d7e6 273c 9d80 293c beb3 593c c659 493c
000001a0: ce26 3a3c 6da8 273c 1958 513c 596d 953c
000001b0: f19a 3a3c f726 013c bbb8 3d3c 6807 6d3c
000001c0: 1fd8 843c a8c8 313c db07 473c 96f0 973c
000001d0: c853 3d3c 4f4c 4b3c 99a7 143c 2103 2e3c
000001e0: af76 2c3c e467 293c ab68 a03c 4e56 393c
000001f0: 5d17 853c ae93 4d3c 47e0 4f3c bc79 2d3c
0.015823165 0.010857673 0.007296929 0.009552813 0.009632997 0.011150347 0.007255326 0.007422111
0.01118666 0.009501167 0.009185312 0.011186602 0.01575356 0.009376675 0.009173774 0.018229878
0.009348954 0.009270882 0.010867892 0.011136504 0.00995743 0.007869889 0.010179144 0.010552699
0.015888397 0.010703292 0.015265057 0.01566148 0.009794069 0.012831508 0.01050874 0.01049774
0.008214011 0.007479019 0.012278416 0.014633246 0.010032591 0.0067984695 0.008271554 0.008251483
0.0069195316 0.008387927 0.0073889676 0.0058246967 0.009964377 0.008381415 0.0091105895 0.009418241
0.008393352 0.010356427 0.008037959 0.011015212 0.012509736 0.017581467 0.010203097 0.0078044427
0.011749033 0.01123068 0.0075749434 0.013719552 0.010161644 0.009000292 0.010723125 0.00959416
0.014725442 0.020762062 0.010745279 0.0075852955 0.011433727 0.008001692 0.011586312 0.008788548
0.0060970047 0.011259641 0.017325498 0.012875091 0.025025623 0.008067436 0.017026607 0.015856918
0.010114636 0.008454926 0.018337568 0.010509119 0.009510141 0.014748663 0.009362378 0.009359302
0.015493304 0.01103118 0.010971853 0.018878344 0.007581671 0.013536252 0.011907133 0.021496078
0.013830649 0.011084814 0.01760071 0.011787967 0.010247908 0.010345605 0.013287483 0.01228947
0.011361791 0.010233027 0.012777352 0.018240618 0.01138948 0.007882825 0.011579688 0.014467098
0.016216336 0.010851063 0.012147869 0.018547338 0.01155562 0.01240833 0.0090731615 0.010620863
0.010526343 0.010339711 0.01958116 0.011312081 0.016246492 0.012547417 0.012687749 0.010588106

crystalGraphConvNet.convs.0.bn2.weight f4 [64]
00000000: f59b 803f e8e8 783f 579a 803f 30db 7f3f
00000010: c189 803f 4e81 803f 6c23 803f 555c 7f3f
00000020: b8f6 803f 06e2 803f 8833 7f3f 2fb1 803f
00000030: 336b 7e3f 0bb2 7f3f 13b6 7e3f bb37 803f
00000040: c10d 803f c9cf 7e3f 0cb6 7f3f a658 803f
00000050: 5eab 803f f8ec 7f3f c5fc 803f 56f6 803f
00000060: 9c3e 7f3f 2880 7e3f 54c6 813f d62f 803f
00000070: 469c 803f e0f1 7f3f 8e25 803f 2099 7e3f
00000080: 4140 813f 6837 7e3f a380 7e3f eae2 7d3f
00000090: 34cb 7f3f 5513 813f 195e 803f c131 7f3f
000000a0: d1be 7e3f d533 7e3f b6f0 7e3f 5457 7e3f
000000b0: 5b89 7f3f 3811 803f 965d 803f f11b 7e3f
000000c0: 2117 7f3f e38b 7c3f 6766 813f 350e 803f
000000d0: 2115 803f 0639 803f a0bc 7e3f aa81 823f
000000e0: e9cf 7e3f 5475 803f 65f3 7f3f b6d3 803f
000000f0: ed69 813f e580 7d3f 28cc 7f3f b200 803f
1.0047594 0.97230387 1.0047101 0.9994383 1.0042039 1.0039461 1.001081 0.9975026
1.0075293 1.0068977 0.99688005 1.0054072 0.99382323 0.99881047 0.99496573 1.0017008
1.0004197 0.99535805 0.99887156 1.0027053 1.0052297 0.9997096 1.0077139 1.0075176
0.9970491 0.994143 1.013865 1.0014598 1.0047691 0.99978447 1.0011461 0.994524
1.0097734 0.99303293 0.99415034 0.9917437 0.9991944 1.0084025 1.0028716 0.99685293
0.9950991 0.9929784 0.99586046 0.99352 0.9981896 1.0005255 1.002856 0.99261385
0.99644667 0.9865095 1.0109376 1.0004336 1.0006448 1.0017402 0.9950657 1.019582
0.99535996 1.0035806 0.99980766 1.0064609 1.0110451 0.990248 0.9992089 1.0000212

crystalGraphConvNet.convs.0.bn2.bias f4 [64]
00000000: 8b27 9638 918a 04bb 58d3 1fbb d0e5 0939
00000010: e6d9 f83a 6114 8d39 b6f3 d2ba 09ba b838
00000020: 73df ebb9 4e5b 3bb9 19d7 acba 189a 8cba
00000030: a971 89ba b090 efb9 aa6b 05bb d77c f4b9
00000040: c1a9 adba 1e27 80ba 6bbb 4a3b 142e 1fba
00000050: 9bc9 463b 28e7 f539 bff0 16bb 24c5 1a3b
00000060: 75db 05bb 30f9 b0ba 3635 7b3b 9c4f f63a
00000070: 56ef 3eba 202c 68b8 28a5 383b 2759 a2ba
00000080: 4b97 8b3a bb7f 53bb 79e6 22bb 8743 69bb
00000090: a590 263a 1f2f c8ba 2034 a43b 1b15 1fbb
000000a0: f769 f0ba 8df2 69bb 25aa 2cba 010d 42bb
000000b0: 5cc4 07b9 9a40 05bb 4822 9c3a 3403 f039
000000c0: f36a 0fbb d8f2 ccba 32f5 8f39 6616 99b9
000000d0: 8e3b 14ba 7780 ba38 c9ea 5cba 4011 5bb9
000000e0: 9400 0c3a 8bf2 1fbb 32d8 2b3a 280c 2a3b
000000f0: 4646 813a f7ad 25bb c923 4ab9 a03b 39bb
7.159923e-05 -0.0020224194 -0.0024387445 0.0001315095 0.0018985837 0.000269088 -0.001609436 8.8084555e-05
-0.00044989176 -0.00017867723 -0.0013186663 -0.0010727076 -0.0010486144 -0.00045693433 -0.0020358362 -0.0004663232
-0.0013249443 -0.0009777283 0.0030934464 -0.0006072235 0.0030332569 0.00046902266 -0.002303168 0.002361604
-0.0020424996 -0.0013501998 0.0038331277 0.0018792036 -0.00072835886 -5.5354205e-05 0.0028174613 -0.0012386189
0.0010649947 -0.0032272178 -0.002485661 -0.0035593228 0.0006353951 -0.0015272832 0.0050110966 -0.0024274054
-0.0018342127 -0.003569755 -0.0006586633 -0.0029609802 -0.00012947753 -0.0020332695 0.0011912072 0.00045778754
-0.0021883815 -0.0015636338 0.0002745777 -0.00029199122 -0.00056546263 8.8930996e-05 -0.00084273197 -0.00020891894
0.00053406623 -0.0024406041 0.0006555348 0.0025947187 0.0009862862 -0.0025280693 -0.00019277552 -0.00282643

crystalGraphConvNet.convs.0.bn2.running_mean f4 [64]
00000000: 6cd1 8440 d1cc ab40 3f05 9f40 4fb9 a540
00000010: 4fed 9040 9853 9b40 ef98 9540 41a6 b040
00000020: c3a5 aa40 fa25 a040 d5ad a740 2020 9c40
00000030: 0ce6 a840 751f 9f40 5a01 a540 9c6b b040
00000040: 6915 9940 23d3 a040 2722 b440 f4e3 8a40
00000050: adf0 a540 aab1 9340 c14e 8f40 a474 a340
00000060: 17e8 aa40 d236 ab40 2f75 a440 6607 a240
00000070: 4a6f ac40 ca0a 9940 3b05 a340 1e08 a340
00000080: 840b 9e40 3be5 9540 d1b1 a340 2eb8 9e40
00000090: 15b6 a540 80a6 a540 05d6 ac40 4e0c ac40
000000a0: 7249 a140 2b3c 9c40 3880 ad40 89f3 9540
000000b0: 883b 9e40 2809 9c40 f971 b240 c6e5 a640
000000c0: b56d 9840 8c7b a240 9076 a140 5301 9a40
000000d0: 9880 a440 719d 8e40 253b 9540 1bfa a440
000000e0: f910 a040 656a 9b40 2006 a640 2c30 9d40
000000f0: 8e19 aa40 1288 a340 a3e1 9740 1101 a740
4.150564 5.368752 4.9693904 5.1788707 4.5289683 4.8539543 4.6749187 5.5202947
5.3327346 5.004636 5.2399697 4.8789215 5.278082 4.97259 5.156415 5.513136
4.7838635 5.0257735 5.629169 4.3403263 5.1856294 4.6154375 4.4783635 5.1079884
5.3408313 5.350442 5.1393046 5.063403 5.388585 4.782567 5.0943885 5.094741
4.9389057 4.684232 5.115456 4.959983 5.178477 5.1765747 5.4011254 5.376502
5.0402155 4.8823447 5.4219017 4.6859784 4.944767 4.8761177 5.5764127 5.2155485
4.763392 5.0775814 5.045723 4.8126616 5.1406975 4.456719 4.66347 5.1555305
5.002072 4.8567376 5.1882477 4.9121304 5.3156195 5.11036 4.7462935 5.21888

crystalGraphConvNet.convs.0.bn2.running_var f4 [64]
00000000: 7038 8540 c57c fb41 a841 0941 add9 8341
00000010: aa8f af40 ba2d e940 92ea cf40 4ff4 5d41
00000020: 229a 5341 d836 1f41 d545 3941 09af cb40
00000030: 0ed7 7741 e152 9041 1450 6241 bd61 3141
00000040: 2190 0241 764d 1f41 44c0 ea41 c531 8b40
00000050: f366 4041 210c 0e41 9cb0 e240 aca0 8241
00000060: 1f47 9341 3933 b041 1596 dd40 0288 2041
00000070: 25c4 4b41 ee91 1041 f8a9 1b41 c118 3741
00000080: 7526 8e41 4893 0441 ced1 0a41 024d 5541
00000090: d86b 9c41 bfc7 1141 036f 1341 b5be 7641
000000a0: 2ae5 2b41 6265 5341 4114 5841 5e08 9040
000000b0: f5e7 1c41 d8ba 3341 2e27 9841 4b4e ac41
000000c0: f876 1a41 69ba 7841 64c0 8941 4431 3841
000000d0: 30d6 7341 d544 9740 764f f340 9e1b 3b41
000000e0: dc99 d640 dcf3 0641 7f21 aa41 be06 bf40
000000f0: 850a 7e41 f7f2 4c41 d064 e240 6c4f 1f41
4.1631393 31.435923 8.578529 16.481287 5.486287 7.286832 6.497384 13.872146
13.22513 9.95089 11.579549 6.3651166 15.490004 18.040468 14.14455 11.086362
8.160188 9.956411 29.34388 4.3498254 12.025134 8.877961 7.084059 16.328453
18.409727 22.025011 6.9245706 10.033205 12.735387 9.035627 9.728996 11.443543
17.768778 8.285957 8.676222 13.331301 19.552658 9.111266 9.214602 15.421559
10.743448 13.212252 13.504945 4.5010214 9.80663 11.233116 19.01913 21.538229
9.654045 15.54551 17.21894 11.512028 15.239792 4.7271523 7.60345 11.6942425
6.7062817 8.434536 21.266356 5.969573 15.877568 12.809318 7.074806 9.95689

crystalGraphConvNet.convs.1.fc_full.weight f4 [128, 169]
00000000: ed0e dabb 4187 2cbc 8c7a 6abd 2ef5 9fbc
00000010: 001b 55bd fcef 253d 60b7 87bb f8ab 44bc
00000020: dd62 dcbc af36 103d 275a a2bd 8b9a 873d
00000030: 5c56 0fbd 38a0 23bd b986 72bb 21a5 8b3d
00000040: aa77 1fbd 1f36 393d 158d 723b 7be1 81bd
00000050: 820e 11bc da84 913c 822e 483d afc3 9dbc
00000060: 5fa0 0fbd f692 87bc 02f4 373d 8784 3ebb
00000070: 0c9a 0cbd 08cd f13c 9eb9 6fbd 1922 ac3c
00000080: 107b 4f3d f4fb b73c eee8 393d 5ffe 89bd
00000090: a451 893d 3528 3a3c d37f 7bbd afa6 77bb
000000a0: 099d 82bd 7651 30bd 2db9 af3b 65a0 163c
000000b0: 17d1 72bd 3f94 803d 3c7e fc38 b2f1 293d
000000c0: 7a94 eebc aa2e 803c fa89 7cbc a4f3 823d
000000d0: 73fa 813c 1060 31bd aef1 f0bb 895b 56bd
000000e0: 84c3 6c3d b685 6bbd 817d fabc 9a44 103d
000000f0: 32e2 1e3c 9267 cd3c e23e 53bc 6585 783d
00000100: 3d91 bebc 1967 643c a770 053d 396b a13c
00000110: c1fd bb3c da6d 2d3d 0d9a a1bd f070 853d
00000120: 33aa 5b3d 0f31 afbc 9d61 13bd c732 37bd
00000130: b3c3 093c 730b 213d 4aee 02bd feea eabc
00000140: 88e7 0f3d d14f 76bd 87b3 7cba 420d 6f3d
00000150: 87a3 803b 2ea3 4b3d 7a65 3bbc ec6d 7c3d
00000160: d323 26bd 504e 8dbd f87e e7bc e8a0 e9bc
00000170: cf74 c2bc 1290 7bbc 3a5b 9a3a 6cf3 123d
00000180: 3c0a 2bbd 3cc9 a73a 216a 25bc 807a 0f3d
00000190: 4901 973d 3dbd 61bd 31b7 0bbd e35b 94bd
000001a0: a1c9 5dbd 536a 1ebd a899 87bd 0867 063d
000001b0: db94 e5bc 7a76 92bd 5f03 c03c 77cb 373d
000001c0: 72ee d93b 10c2 23bc e2b9 22bc d2bf 543d
000001d0: 512b 30bd 87de f3bc ae1f 89bd d2be 78bd
000001e0: 796e 9b3d 7f48 be3c 144d 973c a054 9bbd
000001f0: 0b99 963d 8c53 8abd ca26 74bc a160 903b
00000200: 7cb6 e2bc 59de 163c 5e12 24bd 8b1f 823d
00000210: 6c02 80bd 099b 8f3d c968 c63c 7d13 0bbd
00000220: 1ec4 593d a75d c0bb d3d7 b5bc 0ff6 943d
00000230: 6a15 923d 8ff1 4dbd 06dd 2abd edfe 633d
00000240: 95b8 7a3d 4649 903c dc6a 8dbc e59d 66bd
00000250: c1d5 c03c afac b4bb 8468 803d d07d 753d
00000260: 0457 943d 2817 06bd 26d6 903d ca1f f9bc
00000270: c181 2a3d 778d d0ba 3c16 933d 6298 1dbd
00000280: 1e50 573d a623 b33c 7786 3bbc 6fa6 3ebd
00000290: c4bb 813d c589 423d 4579 443c ad0c 893d
000002a0: 148c 5c3c df20 04bd fbf1 1cbd ffc7 753d
000002b0: 2ced 913d 84c6 b6bb a6a3 9a3d 28b8 703d
000002c0: 1415 6dbd 9c30 57bd d43c 893d 6ab2 653d
000002d0: 0c1a 6d3d 5b01 07bb f4b8 acbc bc23 45bd
000002e0: 92f6 03bd 48bd 913c 26e1 7dbd 68b1 283d
000002f0: ff61 28bc bb18 933d 92e3 753d d49e 2ebd
00000300: 8957 a3bb ab29 943d 8661 bdba 6b35 72bd
00000310: 9783 963c 13b4 6dbd 6032 81bd 9296 323d
00000320: 44f2 a6bc bedf 3e3d 4c68 763d 1b3d 803d
00000330: 1787 a53b 8674 673d f9cd 2d3d 1b30 be3c
00000340: 78e3 943d e9df 5ebc ee52 433d 2fbf 263c
00000350: 88da 953d 12af 86b9 ef5c 993d 3dda b03c
00000360: 6e19 843d 87cb 46bd 95b7 d4bd 15c5 91bd
00000370: 0881 3c3d a598 0abd 0d2b 1cbd 0f6d 3a3b
00000380: 9997 73bd ac1a 9ebc ae2d 36bd ee85 763d
00000390: 5379 a5bc 7aef 5bbd 4a57 d5bc ca21 c9ba
000003a0: cb5f 8e3d 80fd e63a 1880 58bd 78a9 8b3a
000003b0: 0896 2ebd 812c 313c c2c0 9c3d 1f54 80bd
000003c0: 8866 8b3b 804c 153d 3854 8abd e4e6 08bd
000003d0: d2c2 1fbd 8402 91bd 07ae 3dbd 322d fa3a
000003e0: 5d49 993d de8c 603c bd80 153d 5d54 eb3a
000003f0: 5b59 3ebd 2392 f8bc 79bf 833d b350 6d3d
-0.0066546113 -0.010530294 -0.057245776 -0.01952609 -0.052027702 0.04051207 -0.004141733 -0.012003891
-0.02690261 0.0352084 -0.079273514 0.066212736 -0.034994468 -0.03994772 -0.003700657 0.06818605
-0.03893248 0.04521763 0.003701036 -0.06341835 -0.008853557 0.017763544 0.04887248 -0.019258348
-0.03506505 -0.016549569 0.04491044 -0.0029070692 -0.034326598 0.029516712 -0.058526628 0.021012353
0.05065447 0.022459008 0.045388155 -0.067379706 0.06705025 0.011362125 -0.0614012 -0.003778856
-0.06377608 -0.043046437 0.005362651 0.0091935145 -0.059281435 0.06278276 0.000120398094 0.041490264
-0.029123534 0.015647251 -0.015413756 0.06394127 0.015866494 -0.043304503 -0.007353029 -0.05233339
0.057803646 -0.057500564 -0.030577423 0.035221674 0.009697484 0.0250738 -0.01289341 0.06067409
-0.023262614 0.013940596 0.032578137 0.019704448 0.022948148 0.04234109 -0.07890711 0.06515682
0.05362911 -0.021385698 -0.035981763 -0.04472616 0.008408475 0.03931756 -0.03196553 -0.028676506
0.035132915 -0.060134713 -0.0009639789 0.058362253 0.003925744 0.049716167 -0.011437768 0.061628267
-0.04056151 -0.068997025 -0.028258786 -0.028519109 -0.02373734 -0.015354173 0.0011776455 0.035876676
-0.041757807 0.0012801061 -0.010096104 0.035028934 0.07373292 -0.055112112 -0.03411025 -0.072440885
-0.054147366 -0.038675617 -0.066211045 0.032813102 -0.028025081 -0.07151504 0.023439107 0.044871774
0.0066507393 -0.009994999 -0.009932013 0.051940747 -0.04301006 -0.029769195 -0.066954955 -0.060728855
0.0758943 0.023227928 0.01846937 -0.075845 0.073534094 -0.067542166 -0.014901826 0.0044060503
-0.027674906 0.009208285 -0.04005658 0.063536726 -0.06250462 0.070119925 0.024219887 -0.033954132
0.053165548 -0.005870539 -0.02219764 0.072734945 0.07132991 -0.050279196 -0.04171469 0.055663038
0.061211187 0.017613064 -0.017262869 -0.056302924 0.023539426 -0.0055137496 0.06269935 0.059934437
0.072431594 -0.032736927 0.070720956 -0.030410666 0.04162765 -0.00159113 0.07181975 -0.0384754
0.05256664 0.021867584 -0.011445633 -0.046545442 0.063346416 0.04749467 0.0119918035 0.06691871
0.013461132 -0.03225791 -0.038316708 0.060005184 0.07125315 -0.005577864 0.07550745 0.058769375
-0.05788143 -0.052536592 0.06701055 0.056078352 0.05788617 -0.0020600173 -0.021084286 -0.048129782
-0.03221757 0.017790452 -0.061982296 0.041184813 -0.01027727 0.07182451 0.06003148 -0.04263194
-0.0049848002 0.0723451 -0.001444862 -0.059132975 0.018373294 -0.05803306 -0.063084364 0.043600626
-0.020379193 0.046600096 0.06015806 0.06261655 0.0050515044 0.05650761 0.04243276 0.023216298
0.07269949 -0.013603189 0.04768651 0.010177418 0.07317072 -0.0002568891 0.07488429 0.02158844
0.06450163 -0.048533943 -0.10386578 -0.071176685 0.04602149 -0.03383698 -0.038126994 0.0028446352
-0.059470747 -0.019299828 -0.044477157 0.06018632 -0.020199453 -0.05369518 -0.0260426 -0.0015345153
0.06951865 0.0017623156 -0.052856535 0.0010655364 -0.04262355 0.010813833 0.07653953 -0.06266045
0.004254166 0.03644991 -0.06754345 -0.03342332 -0.039004155 -0.07080558 -0.046308544 0.0019086956
0.07484696 0.01370546 0.036499728 0.0017954219 -0.046471935 -0.03034312 0.06433005 0.05793829

crystalGraphConvNet.convs.1.fc_full.bias f4 [128]
00000000: 77d0 453d 92e6 c3ba 286d 7bbc 6d72 cb3c
00000010: 41cf db3c ca18 b63c 6329 24bc de4b a83c
00000020: 4a69 90bd 17de 2c3d 0de5 5b3d a87c 853d
00000030: 0def 94bd 0a2d 8b3c c8d9 713d 404d 02bd
00000040: 32f9 09bc 0f6f 8e3c 746f 623d 88c3 263d
00000050: d44b 18bd 3e14 9cbd 2852 263c ad69 4d3d
00000060: b8dd 8c3d e357 9c3d 1e57 8bbc e3bb 91bd
00000070: 4a39 3d3d 1224 4abd 92f8 3f3d 39fe 093d
00000080: 60c5 16bd 3f96 313a ff04 843d 9005 21bc
00000090: 3286 983c b223 aa3c d43e 863d 4214 9d3d
000000a0: 1b27 ed3a 6d2a 513d c428 813d 198c 9ebc
000000b0: 05a4 59bd 63a0 273d 7b52 873c b2b1 c9bc
000000c0: 30ae 873d 0fe8 66bd c6bd 6e3d 8a78 b9bc
000000d0: 0392 40bc f3b0 edba 8d66 0e3d b4ee 5e3d
000000e0: 6dc1 323c a3c7 07bd 8f5d 463d e5f2 3a3d
000000f0: 9c2e 673d 9e9f 84bb 3c08 b6bb 955e 583b
00000100: 1e7b 103b 99c9 ce3c ebfe 953d 5486 18bd
00000110: 2801 9bbd c81c b33b c02a 8bbc dbb6 0bbd
00000120: 8122 ce3c e224 963d 5cd4 5a3d c516 66bc
00000130: fcb2 713d d90a babc 6fb7 90bd b908 0bbd
00000140: 419d 6ebd 9e9c b73c 5946 5d3d ce1d c13c
00000150: 1293 56bc c186 d03c 63a7 d2bb a1b2 6cbd
00000160: 69c5 9b3d 8151 663c 4fd0 8cbd 1e5b 1f3c
00000170: 60aa 893d 38fd c8bb 8e2e b43a bc20 e3bc
00000180: 349f 0abd 7b7c 15bd 78ad 8c3c 99a3 97bd
00000190: 4dab 1bbd 405b 823d 9d6d 7f3c b281 93bc
000001a0: 147d 5a3c 28d3 70bc 3ca6 d03b 1870 87bd
000001b0: 4713 9d3d 6a6b 5dbd 08a0 643d fc7e 64bd
000001c0: 5809 243c d207 84bd 8256 7dbb 4abb 173d
000001d0: 451e 99bd ca24 30bd afec 56bd 0da6 42bd
000001e0: 175d 373d e6a1 773d 8d2d 71bd efb6 2e3d
000001f0: a1c5 7939 d80e 89bd 5719 5cbd b32d 23bb
0.04829451 -0.0014946035 -0.015345849 0.024834836 0.026832225 0.022228617 -0.010019633 0.020543989
-0.07051332 0.04220399 0.053685237 0.06517917 -0.07272158 0.01698925 0.059045583 -0.031811953
-0.008421229 0.017386941 0.05528207 0.040713817 -0.03718169 -0.076210484 0.0101514235 0.05014961
0.06878227 0.076339506 -0.017009314 -0.07115915 0.046197213 -0.049350806 0.046867914 0.03368971
-0.036809325 0.00067744026 0.064462654 -0.009827986 0.018618677 0.020768974 0.06554952 0.076698795
0.0018093319 0.05106585 0.063066036 -0.019353913 -0.053134937 0.04092444 0.016518822 -0.024620865
0.066250205 -0.056373652 0.05828645 -0.022640485 -0.011753562 -0.00181344 0.03476577 0.054426864
0.010910374 -0.033149373 0.04842907 0.0456418 0.056440935 -0.004047348 -0.005555181 0.003301536
0.002204604 0.025242614 0.07324012 -0.03723748 -0.0756858 0.0054660775 -0.016988158 -0.03410993
0.025162937 0.073312536 0.053425178 -0.014043515 0.059008583 -0.02271025 -0.07066237 -0.033943865
-0.058255438 0.022413548 0.054022167 0.023573782 -0.013096588 0.02545488 -0.0064286455 -0.05778754
0.076060124 0.014057518 -0.06875669 0.009726314 0.067219496 -0.0061337017 0.0013746785 -0.02772557
-0.033843234 -0.036495667 0.01717256 -0.07404251 -0.038005162 0.06365061 0.015590099 -0.01800618
0.013335485 -0.014698781 0.006367473 -0.06613177 0.076696925 -0.054057516 0.05581668 -0.055785164
0.010011993 -0.06446804 -0.00386563 0.037043847 -0.074764766 -0.043003835 -0.052471813 -0.04752164
0.04476651 0.060457133 -0.05888133 0.042654928 0.00023820113 -0.06692284 -0.053735103 -0.0024899065

crystalGraphConvNet.convs.1.bn1.weight f4 [128]
00000000: 00cd 7f3f 8a2a 803f 9f1e 803f b10f 803f
00000010: f629 803f 9c40 803f fe0b 803f 94be 7f3f
00000020: 6e06 803f 7725 803f a033 803f 234a 803f
00000030: dc34 803f 9ec4 7f3f a10e 803f b7f2 7f3f
00000040: 2ee8 7f3f 7314 803f 584d 803f 51cf 7f3f
00000050: 9b87 803f ee49 803f 6119 803f 207b 803f
00000060: 8206 803f d402 803f bfb9 7f3f cfdf 7f3f
00000070: 150c 803f 60c4 803f 56bd 7f3f d11d 803f
00000080: 53c7 803f 0b07 803f 21e7 803f af63 7f3f
00000090: 5f71 7f3f 56b0 7f3f 575a 803f 581e 803f
000000a0: 1476 803f 80f7 7f3f 7e12 803f 6111 803f
000000b0: 3f1a 803f 1151 803f 0b30 803f 21ba 7f3f
000000c0: 4f97 803f 1e4b 803f 8d23 803f b8bc 7f3f
000000d0: a49c 803f 7be7 7f3f 5713 803f 0ba3 7f3f
000000e0: e504 803f d012 803f bd83 803f 1010 803f
000000f0: af2b 803f 4b0f 803f 9d0a 803f a412 803f
00000100: 6d09 803f 4097 7f3f 2de4 7f3f 05f9 7f3f
00000110: 7901 803f 4b4b 803f e333 803f 9e46 803f
00000120: 730f 803f 5713 803f c2e1 7f3f ae79 7f3f
00000130: 2b3f 803f 3c3f 803f 541d 803f 223d 803f
00000140: 1b92 7f3f d00d 803f 62e4 7f3f e4d1 7f3f
00000150: 1b27 803f eba8 7f3f 8b10 803f 6d5c 7f3f
00000160: 8e13 803f 9111 803f 4908 803f 9f0d 803f
00000170: 692e 803f 113a 803f 8436 803f 92df 7f3f
00000180: 5504 803f d314 803f 597b 803f bf99 803f
00000190: 7a69 803f 0634 803f 8d8a 7f3f e04c 7f3f
000001a0: 7249 803f 9509 803f 1fb0 7f3f e53f 803f
000001b0: 73bc 7f3f 68ed 7f3f 7a36 803f 7823 803f
000001c0: 2642 803f 7b23 803f f5ff 7f3f 8d85 803f
000001d0: 40c5 7f3f 8e48 803f 22da 7f3f 2d63 803f
000001e0: fc93 803f 669f 7f3f 0dec 7f3f e108 803f
000001f0: 23d7 7f3f d3c5 7f3f 8b1d 803f 5401 803f
0.9992218 1.0012982 1.0009345 1.0004789 1.0012805 1.0019717 1.000366 0.99900174
1.0001962 1.0011433 1.0015755 1.0022625 1.0016131 0.9990939 1.0004464 0.9997973
0.99963653 1.0006241 1.0023603 0.99925715 1.0041384 1.0022562 1.0007745 1.0037575
1.0001986 1.0000863 0.998928 0.9995088 1.0003687 1.0059929 0.9989828 1.0009099
1.0060829 1.0002149 1.0070535 0.9976148 0.99782366 0.9987844 1.002757 1.000926
1.0036035 0.9998703 1.0005643 1.0005304 1.000801 1.002474 1.0014662 0.99893385
1.0046176 1.0022924 1.0010849 0.99897337 1.0047803 0.99962586 1.0005902 0.9985816
1.0001494 1.0005741 1.0040203 1.0004902 1.0013331 1.0004667 1.0003239 1.0005689
1.0002877 0.99840164 0.99957544 0.9998935 1.000045 1.0022978 1.0015835 1.0021551
1.0004715 1.0005902 0.99953854 0.99795043 1.0019277 1.0019298 1.000895 1.0018656
0.99832314 1.0004215 0.9995786 0.9992964 1.0011934 0.99867123 1.0005049 0.99750406
1.0005968 1.0005361 1.0002528 1.0004157 1.0014163 1.001772 1.0016637 0.99950516
1.0001322 1.0006355 1.0037643 1.004692 1.0032189 1.0015876 0.99820787 0.99726677
1.0022414 1.0002924 0.99878114 1.0019499 0.99896926 0.9997163 1.0016625 1.0010824
1.0020187 1.0010828 0.99999934 1.0040756 0.99910355 1.0022142 0.9994222 1.0030266
1.0045161 0.998526 0.9996956 1.000271 0.9993765 0.9991123 1.0009016 1.0000405
