training_megnet_p_u/saved_models/gllb-sc_84_p_u/state.pt (torch, 710362 bytes, 106 tensors)

bond_expansion.rbf.centers f4 [100]
000000 00 00 00 00 62 de 4e 3d 62 de ce 3d ca 26 1b 3e
       0.0 0.05050505 0.1010101 0.15151516
000010 62 de 4e 3e fd 4a 81 3e ca 26 9b 3e 96 02 b5 3e
       0.2020202 0.25252524 0.3030303 0.35353535
000020 62 de ce 3e 2e ba e8 3e fd 4a 01 3f e3 38 0e 3f
       0.4040404 0.45454544 0.5050505 0.5555555
000030 ca 26 1b 3f b0 14 28 3f 96 02 35 3f 7c f0 41 3f
       0.6060606 0.65656567 0.7070707 0.75757575
000040 62 de 4e 3f 48 cc 5b 3f 2e ba 68 3f 14 a8 75 3f
       0.8080808 0.85858583 0.9090909 0.9595959
000050 fd 4a 81 3f f0 c1 87 3f e3 38 8e 3f d6 af 94 3f
       1.010101 1.060606 1.111111 1.1616161
000060 ca 26 9b 3f bd 9d a1 3f b0 14 a8 3f a3 8b ae 3f
       1.2121212 1.2626263 1.3131313 1.3636364
000070 96 02 b5 3f 89 79 bb 3f 7c f0 c1 3f 6f 67 c8 3f
       1.4141414 1.4646465 1.5151515 1.5656565
000080 62 de ce 3f 55 55 d5 3f 48 cc db 3f 3b 43 e2 3f
       1.6161616 1.6666666 1.7171717 1.7676767
000090 2e ba e8 3f 21 31 ef 3f 14 a8 f5 3f 07 1f fc 3f
       1.8181818 1.8686868 1.9191918 1.9696969
0000a0 fd 4a 01 40 77 86 04 40 f0 c1 07 40 6a fd 0a 40
       2.020202 2.070707 2.121212 2.1717172
0000b0 e3 38 0e 40 5d 74 11 40 d6 af 14 40 50 eb 17 40
       2.222222 2.2727273 2.3232322 2.3737373
0000c0 ca 26 1b 40 43 62 1e 40 bd 9d 21 40 36 d9 24 40
       2.4242425 2.4747474 2.5252526 2.5757575
0000d0 b0 14 28 40 2a 50 2b 40 a3 8b 2e 40 1d c7 31 40
       2.6262627 2.6767678 2.7272727 2.777778
0000e0 96 02 35 40 10 3e 38 40 89 79 3b 40 03 b5 3e 40
       2.8282828 2.878788 2.929293 2.979798
0000f0 7c f0 41 40 f6 2b 45 40 6f 67 48 40 e9 a2 4b 40
       3.030303 3.0808082 3.131313 3.1818182
000100 62 de 4e 40 dc 19 52 40 55 55 55 40 cf 90 58 40
       3.2323232 3.2828283 3.3333333 3.3838384
000110 49 cc 5b 40 c2 07 5f 40 3c 43 62 40 b5 7e 65 40
       3.4343436 3.4848485 3.5353537 3.5858586
000120 2f ba 68 40 a8 f5 6b 40 22 31 6f 40 9b 6c 72 40
       3.6363637 3.6868687 3.7373738 3.7878788
000130 15 a8 75 40 8e e3 78 40 08 1f 7c 40 81 5a 7f 40
       3.838384 3.8888888 3.939394 3.989899
000140 fd 4a 81 40 ba e8 82 40 77 86 84 40 34 24 86 40
       4.040404 4.090909 4.141414 4.1919193
000150 f1 c1 87 40 ad 5f 89 40 6a fd 8a 40 27 9b 8c 40
       4.2424245 4.292929 4.3434343 4.3939395
000160 e4 38 8e 40 a0 d6 8f 40 5d 74 91 40 1a 12 93 40
       4.4444447 4.4949493 4.5454545 4.5959597
000170 d7 af 94 40 93 4d 96 40 50 eb 97 40 0d 89 99 40
       4.646465 4.6969695 4.7474747 4.79798
000180 ca 26 9b 40 86 c4 9c 40 43 62 9e 40 00 00 a0 40
       4.848485 4.8989897 4.949495 5.0

embedding.layer_node_embedding.weight f4 [89, 64]
000000 d1 00 dd 3d 89 d4 59 bd 1d 32 ae bf 27 1b 52 bf
       0.10791171 -0.053181205 -1.3609043 -0.8207268
000010 ab f1 76 3e 40 b1 6a 3e db 7a 46 be d9 f0 8f bf
       0.24115627 0.22919178 -0.19382803 -1.1245376
000020 f2 c3 90 bf 4a 87 48 40 b4 ec e7 be be b2 1c bf
       -1.1309798 3.1332574 -0.45297778 -0.6121024
000030 e1 6c 9d bf 44 d5 4b 3e f7 08 2e bf 29 21 a2 3f
       -1.2298852 0.19905573 -0.6798243 1.266637
000040 72 91 dd bf dc 3a 32 be f5 40 a0 3e e8 5a 13 3e
       -1.7310011 -0.17405266 0.31299558 0.14390147
000050 ee fd 64 3f 5a 35 b7 be 21 c2 b0 3f 36 e6 a5 bf
       0.89449966 -0.35782892 1.3809243 -1.296088
000060 2e 02 a9 bf 79 9d 9b bf 10 01 3b 3f f8 45 65 3e
       -1.320379 -1.2157432 0.73048496 0.22389972
000070 1d 14 0b c0 76 2c 9c bd aa f2 85 bf e1 79 ca 3f
       -2.1731026 -0.07625668 -1.046468 1.5818444
000080 5c 73 83 3d dd dc 19 bf 5c 99 a4 be 91 17 43 3f
       0.064184874 -0.60102636 -0.32148254 0.76207834
000090 09 24 87 be 35 c2 99 be 38 bd e1 bf cc 0e df 3f
       -0.2639468 -0.3003098 -1.763587 1.7426391
0000a0 e9 b3 40 be 6e 7f c3 be c8 ab f8 3e 81 9f d3 be
       -0.1881863 -0.3818316 0.4856856 -0.4133263
0000b0 4d d5 82 be de 4f 3e 3e 9e 75 49 40 91 5a e7 3e
       -0.2555336 0.18585154 3.1478038 0.45186284
0000c0 ff bf 02 be 97 3f 4b 3f 71 c1 a1 bf 70 b0 ff bd
       -0.12768553 0.79393905 -1.2637159 -0.12484825
0000d0 3b 6a e4 3e 2b b5 3c bf de 54 2f be 5a 1d d2 bd
       0.44612297 -0.7371394 -0.17122218 -0.102595046
0000e0 02 90 3e bf 73 37 26 bf 0d 37 fa 3e dc 38 f2 bd
       -0.7443849 -0.6492836 0.48870125 -0.11827251
0000f0 c1 7e 25 3f 89 b6 8a 3f 3a 8e 0a bf 00 b5 c0 bd
       0.64646536 1.0836955 -0.5412327 -0.09409523
000100 41 dd a9 3e 4f ee bf 3e 51 55 7f 3e b3 f6 a7 3e
       0.33176616 0.37486503 0.2493489 0.32805404
000110 26 94 61 be 58 86 9e 3f 6d d9 09 3e 2c 05 25 3f
       -0.2202917 1.2384748 0.13461848 0.64461017
000120 83 a1 c8 be 98 91 29 3f 01 e5 7e be 45 a6 8c 3d
       -0.39185724 0.66237783 -0.24892046 0.06867651
000130 91 2b e2 3f 1d b1 d0 bc 18 29 da be 7b 4e a3 bf
       1.7669545 -0.02547508 -0.42609477 -1.2758325
000140 49 71 25 bf 76 ad aa bf 64 15 34 3f eb ec d0 3d
       -0.64625984 -1.3334186 0.7034514 0.102014385
000150 76 4c 80 3f d4 df a7 3f 27 d0 9f bf 0c 35 60 3f
       1.0023334 1.3115182 -1.2485398 0.87580943
000160 7c ec 93 3f 08 85 3e be 34 62 9f 3e 08 fe a2 3e
       1.1556544 -0.18605435 0.3112961 0.31834435
000170 01 6c 6b bf ee 8a f7 3e b9 49 03 c0 91 b6 00 40
       -0.91961676 0.48348182 -2.0513747 2.011143
000180 27 1e d9 bf fd c1 89 3f f9 15 40 3f d1 37 82 bf
       -1.6962327 1.0762326 0.7503353 -1.0173284
000190 0d 13 10 3f d8 4f 87 bf 0a 13 8e 3e 5c c1 1e 3f
       0.5627907 -1.0571241 0.277489 0.62013793
0001a0 58 3c 57 3f 82 3f be 3f c1 e1 a7 3e 1a bf a9 3f
       0.8407645 1.4863131 0.32789424 1.3261445
0001b0 da 8a 58 bd 56 71 36 bf 30 52 5a 3f e3 3b 00 3f
       -0.052866794 -0.71266687 0.8528166 0.5009138
0001c0 8f 63 46 3e 30 18 b9 3d 2b f9 a3 3e da 04 c7 3f
       0.19373916 0.090378165 0.32026038 1.5548356
0001d0 0c 88 89 3e b1 1c d1 be ba 90 2b bf 63 fa 80 bf
       0.26861608 -0.40842202 -0.6701771 -1.0076412
0001e0 99 fd 31 3e 95 a8 e0 bd e4 d0 5c bf 2b be 16 3e
       0.17381896 -0.109696545 -0.8625624 0.14720981
0001f0 9c e8 3b 3f c1 a0 8c 3f 82 75 0c 3f e0 b2 3f be
       0.7340181 1.0986558 0.548668 -0.18720579
000200 91 f4 7d bf e8 34 97 bf 6c f8 83 bf 5a d9 ba 3f
       -0.99201304 -1.1813021 -1.0310187 1.459758
000210 39 db 36 bf 36 26 23 3f 99 e1 b2 be f1 24 0a bf
       -0.7142826 0.6373018 -0.34937742 -0.5396262
000220 88 f8 f3 bf 98 19 64 3f 04 94 0c c0 09 26 5b bf
       -1.9060221 0.8910155 -2.1965342 -0.8560491
000230 70 f2 81 bd ea e7 3a bf 32 4c 9d be 5b cc 13 c0
       -0.063450694 -0.7301012 -0.30722195 -2.3093479
000240 4d a5 85 bf 28 25 64 3e 50 f5 e7 be 49 31 3a bf
       -1.0441071 0.22279799 -0.45304346 -0.72731453
000250 6c a0 09 3f 90 98 51 3f 9f 97 1a 40 b4 f8 ef be
       0.5376041 0.81873417 2.4155042 -0.46869433
000260 c6 5d 5b be 0d 03 97 bf 12 80 60 3d 8f 37 39 bf
       -0.2142249 -1.1797806 0.054809637 -0.723504
000270 ee 98 f7 bc ca 61 92 3f 3d 0a 1a 40 10 8e 5d be
       -0.03022429 1.1436093 2.406875 -0.21636224
000280 d7 7a fa be 7b 9f 66 3e ac 22 d0 3e c8 5b 4a 3f
       -0.48921844 0.22521774 0.40651453 0.790463
000290 86 bf 70 3f 85 e7 55 bf 15 1a 90 3f 6c 6a 7b bf
       0.9404224 -0.83556396 1.125796 -0.9820926
0002a0 ee 32 58 3f e5 c1 88 bf 5b 75 09 3f d9 d5 2f 3f
       0.8445271 -1.0684172 0.53694695 0.6868568
0002b0 6f 2d 51 bf 45 a8 bb 3d 2e d0 88 3f 3d 04 5e 3e
       -0.8170995 0.09162954 1.0688531 0.21681304
0002c0 5c 49 22 3f af 14 94 bc fc fe 1f 3e 9b 9c 8b 3e
       0.6339319 -0.018076269 0.15624613 0.27267918
0002d0 81 ff f5 bf f2 66 a1 3d 4f f3 ff 3f 10 31 a2 bf
       -1.9218599 0.078809634 1.9996127 -1.2671223
0002e0 4c 55 db bd 99 ec 26 bf 8b 10 8f 3d 2d 92 bc be
       -0.107096285 -0.6520477 0.06985577 -0.36830273
0002f0 9f 00 b7 3d b8 01 45 3f 32 40 0c bf cc 12 91 3f
       0.08935665 0.7695575 -0.54785454 1.1333861
000300 ee 57 f3 bf b2 10 e4 3e 88 0f b8 bf ca 4e 7c 3f
       -1.9011209 0.44543988 -1.437974 0.9855772
000310 32 2a 8b 3f 25 70 07 3e 6c 0e 5e 3f 78 32 86 3f
       1.0872252 0.13226373 0.86740756 1.0484152
000320 c1 b2 bc 3d 6f 42 e8 3d 5f 28 d7 3e 97 06 f5 3e
       0.09213782 0.11340796 0.42022988 0.4785659
000330 a8 d3 a2 3f ac 7a fc bf 79 98 31 bf 9b 71 4b bf
       1.2720842 -1.9724936 -0.6937328 -0.79470223
000340 d4 22 b3 bf 58 38 e8 be 37 db 00 c0 31 03 f9 bc
       -1.3995004 -0.45355487 -2.0133798 -0.03039703
000350 7b 97 45 bf ff a7 a8 bf 49 da 74 3f 3b 68 d6 3f
       -0.77184266 -1.3176268 0.95645577 1.6750559
000360 5f 8d a0 3f 76 3a 65 3f 34 b7 03 3e 13 4e 04 3f
       1.2543143 0.8954233 0.12862855 0.5168163
000370 91 3a fd 3f 56 9d 29 3f 57 45 cb be a9 58 8c 3f
       1.9783498 0.662557 -0.3970134 1.0964557
000380 d4 1e 6d 3c a8 69 c3 3f d9 ed ea 3c 03 cf bd 3f
       0.014472682 1.5266619 0.028677868 1.48288
000390 5c eb 85 3e 95 06 98 3f f2 fb da 3f 2a e6 18 3f
       0.26156127 1.1877009 1.7108138 0.597262
0003a0 61 2e 21 3f 4b bd 3c 3f 38 61 68 bf cf 6b c2 3f
       0.62961394 0.7372634 -0.90773344 1.518915
0003b0 23 08 90 3f af 3f 6a bf 09 9a 19 bf 7f 5f cf 3e
       1.1252483 -0.91503423 -0.60000664 0.40502545
0003c0 95 8c c9 bf 79 19 3e 3f 46 c8 ae bf 1c 2c 57 3e
       -1.5746027 0.7425762 -1.3654869 0.2101292
0003d0 4e fe 92 be 94 9a 36 be ac ae 38 be 36 1f 15 c0
       -0.28709644 -0.17832404 -0.18035382 -2.33003
0003e0 39 9e 0f bf 39 a1 e2 3b 40 4b e5 3f 84 9b 38 3f
       -0.56100804 0.006916192 1.791359 0.721123
0003f0 09 36 0f 3f 23 dc 40 3f 69 28 cf 3f 2a ce 01 3f
       0.55941826 0.753359 1.6184207 0.50705206

edge_encoder.layers.0.weight f4 [64, 100]
000000 c6 8e 39 3b d2 11 f7 3d d0 8f 11 3d 31 6c cf 3d
       0.002831386 0.12063946 0.03553754 0.10128058
000010 62 ea 63 3d 3a 63 88 3d 45 99 96 3c 5f 02 51 bd
       0.055643447 0.06659551 0.018383631 -0.051027652
000020 10 02 69 bd 0e d5 68 bd f4 e3 76 bd 64 db 09 3d
       -0.056886733 -0.05684381 -0.060275987 0.033656493
000030 24 df 76 bd a1 67 55 bd 1d 6f 0b bc 4e ba 03 bd
       -0.060271397 -0.05210078 -0.008510378 -0.032160096
000040 a5 53 25 3d f3 2e bc bd 6f 88 86 3d ed 02 b4 3b
       0.040362973 -0.09188642 0.065689914 0.005493513
000050 59 ce 11 bc ba 22 87 bc b9 8e cd bd 14 6c 72 3d
       -0.008899295 -0.016496051 -0.10036988 0.059185103
000060 6e 0c e1 bd f4 d4 b8 bd b3 13 13 bd 37 17 b1 bb
       -0.10988699 -0.090249926 -0.03590746 -0.0054043788
000070 16 cc 60 bd 7b ea 61 3d 44 74 90 bd 97 07 da 3c
       -0.05488213 0.05515526 -0.07053426 0.026614947
000080 0a b3 b0 bd d6 fa c2 bc f5 af c1 bd c0 d1 28 bd
       -0.08627899 -0.023801249 -0.09457389 -0.04121566
000090 f1 50 bf ba ef 14 ae bd 58 7d 73 3d 69 00 84 bd
       -0.0014596266 -0.085000865 0.05944571 -0.06445391
0000a0 0c ce 92 bd ef ce 20 bd ac 02 6e bd 2a ec d8 bd
       -0.071682066 -0.039259847 -0.058108017 -0.1059192
0000b0 14 42 94 bc a5 5f 63 3d 67 07 0b bd 45 be d0 bc
       -0.018097915 0.055511136 -0.033942606 -0.025481353
0000c0 4e 3a 05 be 8b 6d 2e 3d 75 d1 30 3d 7f 9c e0 bc
       -0.13010523 0.042584937 0.043168504 -0.027418373
0000d0 73 23 fc bc cf e9 02 bc 14 76 05 be 62 76 71 bd
       -0.030778622 -0.007990315 -0.13033324 -0.05895079
0000e0 56 0e 11 bd 3a 31 f0 bd 5a fa dc bc b9 c8 91 3b
       -0.035414062 -0.11728139 -0.026974846 0.004448977
0000f0 cc 66 a6 bd 53 5d 05 be 0a 52 8c 3c b0 40 00 be
       -0.08125076 -0.13023882 0.017128963 -0.12524676
000100 58 50 8a 3a 65 b9 1d 3d c2 2f 6c 3d 13 11 fe bd
       0.0010552509 0.038506884 0.057662733 -0.124056004
000110 e6 09 8b bd 1e b9 09 3c 1e a4 00 be ce 93 03 be
       -0.06788997 0.008405952 -0.12562606 -0.12849352
000120 24 d1 10 3d 38 03 5c bd 9c 0c c6 bd 34 83 38 3b
       0.035355702 -0.053714007 -0.09670374 0.0028154375
000130 b9 8b ee bd ef 36 cb bd 8e df a1 3c 0b 65 01 bd
       -0.11647744 -0.09922587 0.01975992 -0.031590503
000140 76 6f 1a 3d 3e d0 89 3d dd b1 21 bc a5 91 39 3d
       0.037703954 0.06729172 -0.009869066 0.045304913
000150 8c 2c 4f 3d 95 b7 85 3d 20 e7 2f 3d 94 43 a3 bd
       0.050579593 0.06529156 0.042945027 -0.07971874
000160 07 8a 53 bd 3b 1b fe bd a8 25 5c bc 6f 2e 91 bd
       -0.051645305 -0.124075375 -0.013436712 -0.07088935
000170 71 7a a5 bd 83 81 21 3b f4 fd db bb ae c6 96 3c
       -0.080799945 0.0024643845 -0.006713623 0.018405285
000180 58 9f 8a 3c 5d d2 8b 3d a2 21 18 bd f4 c4 ae bd
       0.016921684 0.06827233 -0.03714145 -0.085336596
000190 b2 db 03 bd 64 6a 75 bc 4f 05 42 be 72 98 9a bd
       -0.03219194 -0.014978979 -0.18947338 -0.07548608
0001a0 e8 e9 27 be 7c 29 30 be 5a 32 40 bd 69 f4 b7 ba
       -0.16397822 -0.17203325 -0.04692302 -0.0014034632
0001b0 6e 1d 8c bd 11 70 04 be 10 55 32 bd d9 80 68 bd
       -0.06841551 -0.12933375 -0.043538153 -0.056763504
0001c0 9b c7 f9 bd 0f 76 a6 bd 41 81 ea bd 08 91 33 bd
       -0.12196275 -0.08127987 -0.114504345 -0.043839484
0001d0 48 33 bb 39 a2 fc c7 bd 29 3b 4b 3c 2d 09 7b bd
       0.00035705627 -0.09764983 0.012404242 -0.061288048
0001e0 82 c7 24 be 97 99 ce bc 12 2f c9 bd a8 cd 29 3c
       -0.16091731 -0.025219722 -0.09823431 0.010363974
0001f0 11 68 26 bb ea 87 05 be 0b 41 02 3b 90 45 0b bc
       -0.0025391618 -0.13040128 0.0019875194 -0.008500472
000200 7e 65 83 bd 10 ea 05 3b 87 bb 84 bd 83 c0 86 3c
       -0.064158425 0.0020433702 -0.064810805 0.016449219
000210 50 23 b1 bb 90 b7 19 bd 9c 73 34 3b 40 bd 83 3d
       -0.005405821 -0.037528574 0.002753473 0.06432581
000220 aa f4 cc bd b2 da c1 bd 31 41 d8 bd 6c c7 57 3d
       -0.100076035 -0.09465541 -0.10559309 0.052680418
000230 47 ce 80 3c ee 54 7b bd 07 26 a2 bd 75 b7 35 3d
       0.01572336 -0.061360292 -0.079174094 0.04436441
000240 08 46 6e 3d c1 c4 c7 bd 1b 82 16 3c 99 59 94 bd
       0.058172256 -0.09754325 0.009186293 -0.07243652
000250 8c 1f d1 bb 8c 5d 11 bd 4f eb b2 bd e0 8d 92 3c
       -0.0063819345 -0.035489604 -0.08736288 0.017889917
000260 9f a1 01 3c 15 d0 10 bd 36 b3 42 bd 65 3a 32 3b
       0.007912069 -0.035354692 -0.04753419 0.002719545
000270 19 80 8d 3a a6 33 03 3d 88 a2 9d 3d 3a 1a c7 bd
       0.0010795622 0.032031678 0.07697016 -0.09721799
000280 06 d0 99 3d 1d f8 b0 3d a7 13 af bd 88 6f d0 bc
       0.075103804 0.08641074 -0.0854867 -0.025443807
000290 ed 44 a4 bd 8d 2c cb 3d 84 de 27 3c f2 79 37 bd
       -0.08020959 0.09920607 0.010245923 -0.04479403
0002a0 32 14 8f bd 97 c5 74 3d f5 a0 a2 3c 4f c8 c0 3d
       -0.06986274 0.05975875 0.01985214 0.09413206
0002b0 d5 1e 26 bd 03 de 16 3d e6 56 a4 bd 2b 91 a5 bc
       -0.040556747 0.03683282 -0.08024387 -0.020210823
0002c0 7b 0c 5e bd 32 6f 82 3d d2 fb 92 bd b4 a5 71 3c
       -0.05421112 0.06368865 -0.07176937 0.014748979
0002d0 90 95 7f bc 33 3d a1 bc 34 38 cc 3c 5c 64 b4 3d
       -0.015599623 -0.019682502 0.024929143 0.088082045
0002e0 0d ae 83 bd 47 57 8f 3d 80 d4 b2 bc 6f 72 18 3d
       -0.06429682 0.06999069 -0.021829844 0.037218507
0002f0 56 37 93 3d 98 ae 05 bd 35 f8 78 3d b3 6d aa 3c
       0.07188289 -0.03263721 0.060783584 0.020804262
000300 31 36 3a 3c 08 a5 f4 bc 5c 74 bf 3b d4 c0 99 3d
       0.011365459 -0.02986385 0.0058427285 0.07507482
000310 21 ab b7 bd e8 31 27 3d 8b 89 5b bd 9b 5a 49 3d
       -0.08968187 0.04081908 -0.053597968 0.049158674
000320 39 b8 f4 bc 20 5d 9d bd 94 ee 8c bc 37 de 1f be
       -0.029873 -0.07683778 -0.017203607 -0.15612112
000330 41 63 1d be 60 31 5d bd 5b b3 21 be c5 5c 9c bd
       -0.15369894 -0.054002166 -0.15791075 -0.07634882
000340 19 07 05 3c d8 13 f8 bd 22 0a 29 be 54 01 2f be
       0.008119368 -0.1211316 -0.16507772 -0.1709035
000350 88 93 3f bd 47 af d1 3b 68 30 2f be 65 50 9d bb
       -0.046771556 0.0063990685 -0.1710831 -0.0048008435
000360 27 1c fb bb 91 1f d0 bc a7 55 81 3c 7a bc 00 be
       -0.007663268 -0.025405677 0.015787913 -0.12571898
000370 15 f3 ab bd 6b 2a 9c bd 7b 81 53 bc 16 75 ed bd
       -0.083959736 -0.07625278 -0.0129092885 -0.11594598
000380 d5 85 14 be 1e 82 14 3d e4 0d cb bd 62 ed 10 be
       -0.14504178 0.036256902 -0.09914759 -0.14153054
000390 41 0d 14 bd fd 7b 44 3d e4 a3 a9 bd fa c1 4f bc
       -0.036145452 0.047969807 -0.08283213 -0.012680525
0003a0 68 61 e3 3b 93 ff 34 3d 34 b8 a8 bd 3a 51 69 bd
       0.006939102 0.044189047 -0.08238259 -0.05696223
0003b0 89 5c 52 3d 4f e9 47 ba 9e 2e c5 bd 84 89 9f bc
       0.05135778 -0.0007626013 -0.09628032 -0.019474752
0003c0 e1 81 8f 3b 48 87 77 bc 56 be 46 3d f1 d9 91 3d
       0.0043794964 -0.015107937 0.048521362 0.07121647
0003d0 c4 bf 90 bc e2 26 2d 3d d0 df 26 bd 12 c0 be 3c
       -0.017669566 0.04227341 -0.040740788 0.023284946
0003e0 6a 0f 89 bd 67 3e ac 3d 94 7d 96 3d 6f 55 d7 3d
       -0.06692393 0.0841034 0.07348171 0.10514342
0003f0 25 04 cf bc b5 ad 72 bd c3 6f c2 3c a9 bb 8f bd
       -0.025270531 -0.05924769 0.023734933 -0.07018215

edge_encoder.layers.0.bias f4 [64]
000000 90 65 7e bd 46 60 90 3d 72 47 42 3d 54 52 46 bd
       -0.062108576 0.07049613 0.047431417 -0.048418358
000010 4e 3b 38 bd 31 37 8c 3b 53 f2 99 bb 1c b4 67 3d
       -0.044978432 0.0042790403 -0.0046980768 0.05656825
000020 3a 91 64 bc 01 11 80 3d ab 78 5a 3d 5b 20 bb bc
       -0.01395064 0.06253243 0.053337734 -0.022842577
000030 e2 f9 52 bb 1c 9f aa bd 42 49 78 3c ff ad 8c 3d
       -0.0032192399 -0.08331129 0.015154185 0.068691246
000040 eb ed fa 39 e4 fc b0 bc 0d 62 05 bd 39 14 db 3c
       0.00047860979 -0.021604963 -0.03256421 0.026743041
000050 22 1a 15 3d fb cf fb bc 4b 0f b9 3c 9f 00 4b 3d
       0.036401875 -0.030738821 0.0225903 0.04956114
000060 71 72 bf 3a d3 62 42 bd ca 59 69 bd e2 bf 9b bd
       0.001460625 -0.047457527 -0.056970395 -0.07604958
000070 0f e3 6a bd 3c 58 ce bd 14 a1 40 bd 8e 37 1e 3d
       -0.057345446 -0.10075423 -0.047028616 0.0386272
000080 ac e2 f5 bd d5 2d 08 bd 5c 8f fd 3c 2c 8d a7 3d
       -0.12006125 -0.033246834 0.030952148 0.08181223
000090 94 b8 00 3d 00 7a 34 3c f6 af bb 3d 0f dc ae 3d
       0.031426027 0.011015415 0.09164421 0.085380666
0000a0 7c b3 ab bd 61 a7 d5 3b 5f d3 bb 3d 74 6d 54 3d
       -0.08383843 0.0065201973 0.09171175 0.051862195
0000b0 77 c0 43 3d 06 27 cb 3d 97 38 da bb 9c e3 84 bd
       0.04779097 0.099195525 -0.006659578 -0.064887255
0000c0 20 69 df 3d 0b 68 bf 3c 4c 2d 6f 3d 27 3e 61 3d
       0.10908723 0.023365041 0.058392808 0.054990914
0000d0 f8 b8 cc 3d 93 48 d0 3d 94 07 21 3c 12 de 4c bd
       0.099962175 0.101700924 0.009828467 -0.05001647
0000e0 a6 e5 4b 3d 4d 65 99 3d 22 4e e2 3d d8 29 96 3d
       0.049779557 0.07490025 0.11050059 0.073322
0000f0 3c 99 79 3d f6 7e 80 3b 42 22 c4 bd f9 7c 80 3d
       0.06093715 0.003921385 -0.09576847 0.06273837

edge_encoder.layers.2.weight f4 [32, 64]
000000 b6 39 7f 3c 59 5a 09 be 39 22 b3 bd e3 45 22 3d
       0.015577724 -0.13413371 -0.08746762 0.03961743
000010 5d 4e 6e bd 3d 76 ad bd bf 36 08 be 7c 07 95 bc
       -0.0581802 -0.08469818 -0.13302134 -0.018192045
000020 2f ad 6d 3d 41 68 aa 3c 16 5b 85 bc e4 06 02 bd
       0.05802649 0.020801665 -0.016278785 -0.031744853
000030 80 2b a5 3d bb 1a cc 3d 82 ea 80 3d 9d 57 b7 bd
       0.080649376 0.09966036 0.06294729 -0.08952258
000040 66 31 a9 bd 16 82 0c bd 65 9a 64 3a d0 f8 9d bc
       -0.08261375 -0.034303747 0.00087205163 -0.019283682
000050 fd c0 0f 3d 17 fb 77 3d 6b ab 29 3d 07 04 a5 3d
       0.035096157 0.060542192 0.041423243 0.08057409
000060 e2 bf ee bd bf 67 a3 3d 4e 97 01 be 7a ab 88 bd
       -0.116576925 0.07978772 -0.12655374 -0.066733316
000070 63 95 34 3d dc 68 f5 bd 8a 66 ce bd 40 b1 aa bd
       0.04408778 -0.11982891 -0.100781515 -0.08334589
000080 ec 5d 2a 3d 28 bc 60 bd 88 4c b2 3d 91 a0 eb bd
       0.041593477 -0.05486694 0.087060034 -0.11505235
000090 cb b6 14 3d de e2 ab 3d 79 48 19 bd db 9d 0c 3c
       0.036307137 0.08392881 -0.03742263 0.008582558
0000a0 8d 09 61 3c 27 d6 be 3d 57 cb b8 bd 01 16 38 bd
       0.013735187 0.0931819 -0.09023159 -0.04494286
0000b0 7c 53 f1 bd b4 e3 ad bb da 01 a2 3d f7 1d 13 3d
       -0.117835015 -0.0053066853 0.079105094 0.03591725
0000c0 c7 69 81 bd c4 fe 14 be 7d 55 cb 3d b9 58 68 bd
       -0.063190036 -0.1455031 0.09928415 -0.056725238
0000d0 dc 35 84 3c aa 90 db bd 1f d0 b9 bd eb c4 65 3d
       0.016138963 -0.10720952 -0.09072899 0.056096
0000e0 dc 1a 50 bd 97 d4 c5 bd 2d 61 de bd c6 c1 89 bd
       -0.050806865 -0.09659689 -0.108583786 -0.067264125
0000f0 9d 1c cb 3d 94 cc c5 bb a2 73 17 3d f8 53 bd 3d
       0.09917567 -0.0060363505 0.03697551 0.092445314
000100 29 cf 0a 3e 5c f6 1d bb 19 19 4d 3d 9c e4 a0 bd
       0.13555588 -0.002410314 0.050072763 -0.07856104
000110 44 46 06 3a 1f 81 98 3c 70 f2 9e bd c6 50 57 bc
       0.0005122165 0.018616257 -0.07761085 -0.0131418165
000120 40 2b 9f 3d 43 69 a3 3d e6 79 1d 3d 46 63 8a 3d
       0.07771921 0.079790615 0.03844633 0.06757216
000130 37 0a 94 3d ba 62 66 bd ad 69 0a 3e 7f e8 8b bd
       0.07228511 -0.056246497 0.13516875 -0.068314545
000140 17 48 ca 3d 98 b2 8b 3d 5b ca 1f 3b b1 cc 18 3d
       0.09877031 0.068211734 0.0024382088 0.037304584
000150 33 4e 26 3d 27 f4 0d 3e d6 a8 08 bd fa 83 10 3e
       0.04060192 0.13862668 -0.03336414 0.14112845
000160 60 9a 4d bd 46 03 9c 3d 6c 86 93 3d f0 0e 0e 3d
       -0.05019605 0.07617812 0.07203373 0.034682214
000170 cb 28 ad bd e1 25 26 3b a9 93 bb bd a8 c4 8a 3c
       -0.08455046 0.0025352167 -0.09159023 0.016939476
000180 e0 99 95 bd 55 39 3c bd 6f 16 0c 3e 52 1c c9 3d
       -0.0730474 -0.045953114 0.13680433 0.09819855
000190 b6 e9 03 3e ed 5f 63 bd e2 c2 26 3d b2 25 b8 3d
       0.12882122 -0.055511404 0.0407132 0.08991565
0001a0 25 b1 b7 3d e0 2d b3 3b 76 25 57 3c 7d 4f ba bd
       0.089693345 0.005468115 0.01313149 -0.090971924
0001b0 46 84 56 bd ad d6 b0 3d d6 ed 0a 3d 7c 70 fa 3d
       -0.05237224 0.08634696 0.033918224 0.12228486
0001c0 31 7a b1 bc e3 3f 79 3d e1 a8 a2 3d f3 1c 27 3d
       -0.02166471 0.060851943 0.07942367 0.040799093
0001d0 61 0f 98 bd 7e 60 fb 3d 14 7c 6b 3d 9e b0 55 3d
       -0.07424808 0.12274264 0.057491377 0.05217039
0001e0 31 14 1f bd 14 06 83 bd 48 22 25 bc 84 40 b9 3d
       -0.038837615 -0.06397644 -0.010078974 0.090455085
0001f0 6b 04 bb bc 4f 26 02 3e 54 03 16 3d e6 f5 3c bd
       -0.022829255 0.12709926 0.036624268 -0.046132945
000200 c1 54 05 3a ba 67 be bd 58 0d 0c 3d 58 22 cd bc
       0.00050861767 -0.09297128 0.034192413 -0.02504079
000210 08 55 47 3d 35 db 75 3d e8 2b 9c 3a ef 86 54 bd
       0.048665076 0.060023505 0.001191494 -0.051886495
000220 cb 9a e2 3d f4 eb 93 ba 67 ce e5 bd 6c ba 33 bd
       0.11064681 -0.001128553 -0.11221009 -0.043878958
000230 6c ca 51 3d c8 49 8f bd 0c 9b b8 bd 7a e9 66 bc
       0.051218435 -0.069964945 -0.09013948 -0.014093751
000240 8c 9c e6 bb 3f 86 d6 3c f0 1e ee bd 2f 1c 97 bd
       -0.007037705 0.02618706 -0.116269946 -0.073784225
000250 5c 81 5d bd 7e d3 e8 bd 2d e4 16 3c 52 fb ba 3d
       -0.054078445 -0.11368464 0.009209675 0.09129967
000260 bf e8 82 3c ac 08 84 bd cd dc 4d 3d 6e 54 cc 3d
       0.015980123 -0.064469665 0.0502594 0.09977041
000270 a8 fb 19 bd bd 19 b4 3d bf 94 9e bd ee 9f 65 bd
       -0.037593514 0.08793972 -0.07743215 -0.056060724
000280 a1 be 94 bc b7 e5 48 bd 1f c0 86 3c 87 42 de bd
       -0.018157305 -0.0490472 0.016449032 -0.10852533
000290 76 6b ab 3d 8e 53 ac 3d c5 44 cb 3d b7 13 5b 3d
       0.08370106 0.08414374 0.09925226 0.0534856
0002a0 4b 7d 69 3b b1 43 bc 3d 56 0a 51 bd f1 0c b8 3d
       0.003562766 0.091925986 -0.051035248 0.089868434
0002b0 8d 25 a8 bc 1b 55 ad bd ba b6 fe bc a2 17 9d 3d
       -0.020525718 -0.08463498 -0.03109299 0.07670523
0002c0 11 63 89 bd 4d 76 52 bd 2c 08 2a 3d 2d 47 ce bc
       -0.067083485 -0.05138235 0.0415117 -0.025180424
0002d0 52 69 ba 3c 5c 3a e5 3d 9b 10 e2 3d 2a 59 e5 bd
       0.022755299 0.11192772 0.110383235 -0.11198647
0002e0 d4 0f f5 bc c9 8c d2 bd 75 a6 06 be 4a 8c 8b bc
       -0.029914774 -0.10280759 -0.13149436 -0.017034668
0002f0 e7 36 d6 3d 9f b4 a9 bd 32 dc 47 3d cf f4 b2 bd
       0.104596905 -0.08286404 0.04879398 -0.087381
000300 ac bd 3d bd a9 a2 19 bd f7 0a a8 bd 11 32 24 bc
       -0.046323463 -0.03750864 -0.082052164 -0.010021702
000310 5a 04 cb 3d 1d b5 25 bc 11 c9 82 bd 03 1f cf 3d
       0.09912939 -0.010113982 -0.063860066 0.10113337
000320 54 88 d2 bd b3 02 ff bb 45 3a ab bd a2 ae b1 3d
       -0.10279909 -0.007782304 -0.083607234 0.08675887
000330 af 8a ec 3d dd e6 eb 3d 89 66 9d 3b d1 10 b1 3d
       0.11549889 0.11518643 0.004803483 0.086457856
000340 34 8e 9c bd c5 66 c7 3d 58 16 e8 3d 47 57 42 bc
       -0.076443106 0.097363986 0.11332387 -0.011861629
000350 c1 d1 8d bd 44 ad 89 bd 39 05 5f 3d ce d3 e6 3c
       -0.06924773 -0.06722501 0.05444834 0.028177168
000360 25 8b 16 bd 69 87 64 bd 31 d6 bc bd 62 09 a1 3d
       -0.036753792 -0.0557932 -0.09220541 0.07863118
000370 f1 eb b6 3d 9a 6d 8a 3d 4b 74 ed bd 9e 52 f1 bd
       0.08931721 0.06759186 -0.11594447 -0.11783336
000380 4d 32 bc 3d 8d 16 72 3d 62 6e a8 bd 29 9d 8b bb
       0.091892816 0.059103537 -0.08224179 -0.0042606783
000390 34 54 2f bd 7e 8f e1 bd fd 8a ac 3d 18 2c ba bd
       -0.04280491 -0.11013697 0.084249474 -0.090904415
0003a0 4e c7 81 3d f5 ec ff 3d dd ec 92 3d dd 43 6e 3d
       0.063368425 0.12496368 0.07174084 0.05817019
0003b0 58 50 a0 bd 0f a8 f6 bd 33 e4 24 bd e0 ec 19 bd
       -0.07827824 -0.120437734 -0.04025669 -0.037579417
0003c0 b9 6a 9d 3d 99 48 ee bd 8a 3a b9 3d 08 c0 bf 3d
       0.07686371 -0.11634941 0.090443686 0.09362799
0003d0 cd b7 0a bd 9e a5 ef bd a2 48 ec bc 46 45 b1 3d
       -0.033866692 -0.11701511 -0.028843228 0.08655791
0003e0 97 5d 79 bd 8e be 92 bd b1 c8 af bd 4b a0 34 bd
       -0.06088027 -0.07165252 -0.08583201 -0.04409818
0003f0 ef 34 6d 3d 78 52 9f 3d c0 59 ce 3d bf 49 6c bd
       0.05791181 0.077794015 0.10075712 -0.057687517

edge_encoder.layers.2.bias f4 [32]
000000 52 62 79 3d 78 45 a4 bd 8f cf 0c 3d bb b2 53 bd
       0.06088478 -0.080210626 0.03437763 -0.051684123
000010 c8 1b 20 3d 5d 20 e3 bc 3c b7 b8 3d e7 70 82 bd
       0.039088994 -0.027725393 0.09019324 -0.06369191
000020 d8 1f 09 be 58 fb ab bb 82 cb d7 3d aa 04 80 bd
       -0.13391054 -0.0052484684 0.10536863 -0.062508896
000030 88 bc 48 3c 01 ba 68 3c c8 0b e8 b8 39 89 ce 3d
       0.012251981 0.014204503 -0.000110648165 0.10084767
000040 c4 59 81 bd 6a 03 a4 bd a6 07 e0 bd fb 3f cc 3c
       -0.063159496 -0.08008464 -0.10938959 0.024932852
000050 b6 a2 ba bd 82 68 52 bd 51 cd 2b bd bf b1 12 bd
       -0.09113066 -0.051369198 -0.04194385 -0.035814043
000060 fc 35 26 bd e4 25 b7 3d bc 18 f3 bc 3f c7 b1 3d
       -0.040578827 0.08942774 -0.02967488 0.08680581
000070 19 ca d7 bd d8 2b b9 3d 86 0e b5 3d c9 a2 e5 3a
       -0.10536594 0.09041566 0.08840661 0.0017519827

node_encoder.layers.0.weight f4 [64, 64]
000000 4d 3c f2 bb ca 66 05 3e 1c 8d 24 be 7b 03 ae 3d
       -0.0073924423 0.13027492 -0.16069454 0.084967576
000010 ef bc c8 3d 21 6b 29 3e a5 4b 33 3e 95 a6 27 be
       0.09801661 0.16544773 0.17509325 -0.1637214
000020 04 17 28 bd 11 86 6c 3e 14 f8 91 3d 0c a6 66 be
       -0.041037574 0.23098017 0.07127395 -0.2252428
000030 c0 a5 df bc 9b 2c 3e 3e f7 05 a7 3d 85 dd e7 3d
       -0.027300715 0.18571703 0.081554346 0.11321548
000040 48 5f 73 bd 6e ce d5 3d 48 32 a6 3d 2f bb a3 3d
       -0.05941704 0.10439764 0.08115059 0.07994687
000050 e1 f4 35 3d 5a dc 35 be b3 cc 80 3e 8d 26 5f be
       0.044422988 -0.17759839 0.25156173 -0.2179205
000060 bf fe 70 3d f1 40 4b be ec 34 42 3e c8 4c cc bd
       0.058836695 -0.19848992 0.189655 -0.09975582
000070 25 2f cc bd 10 0b c1 bc 77 52 9f 3d da 60 14 3e
       -0.099699296 -0.023564845 0.07779401 0.14490071
000080 0a b8 07 bc 06 03 4d be 30 68 b6 bd 30 a0 82 bc
       -0.008283624 -0.20020685 -0.08906591 -0.015945524
000090 28 8b 82 bc e1 96 e3 bc 3a 9c 68 be 7b 16 c6 bd
       -0.015935495 -0.027781906 -0.22715846 -0.096722566
0000a0 5d dd 74 3d 55 f9 4d be 23 04 de 3d 8d 6f 87 bd
       0.05978142 -0.20114644 0.10840633 -0.066130735
0000b0 48 87 ab bd fd 52 6d 3d d3 dd 43 3e 41 4c 0d 3a
       -0.08375412 0.057940472 0.19127588 0.0005390086
0000c0 97 e9 b4 3d f5 3c 88 3c 09 d9 04 be 43 9b 57 bc
       0.08833616 0.01663063 -0.12973417 -0.013159576
0000d0 d8 fb 69 3d d4 bd f3 3d 88 de a7 3d aa 0f 95 bd
       0.057124943 0.11901441 0.08196741 -0.07278378
0000e0 69 9f 06 be 4e 78 72 bc bd 8c 60 be 4e 35 17 3e
       -0.13146748 -0.014799191 -0.21928687 0.14766428
0000f0 27 6a 95 3c 5f d7 16 be 7e 9c 21 3d 4f 92 71 bd
       0.018239094 -0.14730595 0.039455883 -0.05897742
000100 97 81 ae 3d 7d 05 17 3d 86 20 47 be 0e 18 07 3d
       0.08520811 0.03687047 -0.19446 0.032981925
000110 9c 73 34 3d 40 86 87 3d c8 8e 11 3e 70 7d 41 be
       0.044055566 0.06617403 0.14214623 -0.18895507
000120 c5 e2 f3 bd 70 15 54 3e 93 d0 a2 bc d0 b5 8d bc
       -0.11908487 0.20711303 -0.019874847 -0.017298609
000130 a6 dd a0 3d 42 4e 6e 3e 39 7f 21 bd 70 0f e6 3c
       0.07854776 0.2327204 -0.03942797 0.028083533
000140 5b 04 78 3c 64 f6 f2 3d b9 02 ac 3d 1a 84 57 3e
       0.015137757 0.118634015 0.08398957 0.21046486
000150 40 bd 64 3d 20 3d 84 3b 22 59 38 3e ac 49 e6 bc
       0.055844545 0.004035607 0.18002751 -0.028111301
000160 56 29 34 3c 3e fe 9f bd 6c 50 2c 3c 67 42 ff 3d
       0.010996183 -0.07812165 0.010517221 0.12463837
000170 58 14 2e be 0a 35 59 3d 74 49 16 3d 7a 41 d1 3d
       -0.16999948 0.053029098 0.036691144 0.10217567
000180 a4 32 da 3c 3c b5 c5 bd af ec 3b be 7a 18 d4 3d
       0.026635475 -0.09653708 -0.18352006 0.10356231
000190 44 36 91 3d d7 8c 45 3d 76 f9 48 be 5d e9 29 bd
       0.070904285 0.04823002 -0.19626412 -0.04148232
0001a0 68 b8 d1 3d b6 c1 04 be e1 d6 08 3a 8f f5 33 bc
       0.10240251 -0.1296452 0.0005220008 -0.010983839
0001b0 79 10 f5 bd ec f8 87 3d 08 4c 7b 3d 51 ab af bc
       -0.119660325 0.06639275 0.061351806 -0.021443995
0001c0 33 27 88 bd cd ae 5c bd 83 13 6a be 68 3f 23 3d
       -0.06648102 -0.05387764 -0.22859006 0.03985539
0001d0 20 e3 15 3e ea 9a c4 3d 86 b7 02 3e a4 de d2 bd
       0.14637423 0.0959986 0.12765321 -0.102963716
0001e0 5a cc 37 3d 42 d0 28 bd e0 f6 b4 bb e5 05 b4 3d
       0.04487262 -0.041214235 -0.005522594 0.08790187
0001f0 0a 33 57 be 06 d9 c8 3d 16 fc ef 3d 78 b3 00 be
       -0.21015564 0.09807019 0.117180035 -0.12568462
000200 7c a5 3f 3d d8 98 f9 bd 74 88 2a 3e db e2 9f b9
       0.046788678 -0.12187356 0.16653615 -0.00030495864
000210 d0 e9 f3 3c 30 93 b8 bd 2e 05 5f 3c fd 87 5b bd
       0.029774576 -0.09012449 0.013612075 -0.053596485
000220 35 18 9f bd d8 e0 e3 bd a4 75 71 be fb 42 cf 3d
       -0.07768289 -0.1112687 -0.23580033 0.101201974
000230 22 60 9d 3d 6e bd a4 bd 48 d9 86 bd 0f 72 da 3d
       0.076843515 -0.08043943 -0.06584412 0.10666286
000240 3a bd dc 3c d2 a7 40 3c d7 8a e6 bc 92 00 bf 3d
       0.026945699 0.0117587615 -0.028142376 0.09326281
000250 14 05 68 bc 8f a0 6a 3e ca 6b 07 3b 27 cd a8 3d
       -0.014161367 0.2291281 0.0020663613 0.08242255
000260 4b b4 ef bd 96 14 86 3d ff 5e 44 be d8 10 32 be
       -0.1170431 0.06546895 -0.19176863 -0.17389238
000270 2b ae 6e ba 01 1d 51 bd 26 9d 31 be 64 8a 06 3d
       -0.00091049325 -0.05105305 -0.17345104 0.032846823
000280 6a fb 1c be 1d 29 76 3d 49 77 fe 3d 3e 99 1d bc
       -0.15330282 0.060097802 0.124250956 -0.009619055
000290 65 4e a5 bc 7b b8 f3 3d 57 65 bb 3d 11 22 29 be
       -0.020178983 0.11900421 0.091501884 -0.16516902
0002a0 81 35 7a 3d c8 7d 24 bd 9e 55 64 bd 63 a7 76 3d
       0.06108618 -0.040159017 -0.055745713 0.060218226
0002b0 c9 6e 24 be 2c 6e 00 be 04 a6 b3 3d d1 5b 87 3d
       -0.16057886 -0.12542027 0.08771899 0.066093095
0002c0 97 c9 07 3e 1f f5 19 3c fd 33 b1 bd 3f 84 6d 3d
       0.13260494 0.00939682 -0.08652494 0.057987448
0002d0 21 57 89 bd 95 c2 c7 bd e9 c8 f1 bd 8a e9 a9 3d
       -0.06706072 -0.097539105 -0.11805899 0.08296497
0002e0 a3 58 15 3e ff 2d d7 bd cb ac 38 3e 0f dd 93 bd
       0.14584593 -0.1050682 0.18034665 -0.07219898
0002f0 bd af 92 bd 41 37 4b bb 80 3f 12 bd b4 78 70 3e
       -0.07162426 -0.0031008276 -0.03570509 0.23483545
000300 4e af 0e 3e 55 2f 67 bd b7 f1 09 3e 88 30 76 3d
       0.13934061 -0.056441624 0.13471113 0.060104877
000310 1f b4 43 3c 78 64 76 bd 1e ed 68 bd 54 83 53 3d
       0.0119448 -0.06015441 -0.056866758 0.051638916
000320 83 fe dc bc 1d 24 a3 bd 3e 3f 31 be 3b 41 6d bd
       -0.02697683 -0.079658724 -0.17309281 -0.057923537
000330 23 45 14 be 24 81 b8 3d 52 7d bf 3c bc 27 e3 3d
       -0.14479499 0.090090066 0.023375187 0.11091563
000340 2b 08 49 bd 5f 45 1b be 97 2a 6d 3d 37 95 04 3e
       -0.049080055 -0.15163182 0.057901945 0.12947546
000350 a0 ee 28 3e bd 8f 91 bc ea 3e 13 3d f2 87 13 3e
       0.16497278 -0.017768735 0.03594867 0.14407328
000360 a3 3a 03 3d 4f 33 cf 3d f8 8a d8 bd 30 99 fc bd
       0.032038342 0.10117208 -0.10573381 -0.12333906
000370 5d 78 6a 3d af c6 49 3c 21 c9 3d be ec ad 08 bc
       0.057243694 0.012315436 -0.18533756 -0.008342247
000380 4a 25 39 be 44 2c ac bc 5a c4 9e 3c a8 2b 8c 3b
       -0.18080631 -0.021017201 0.019380737 0.004277665
000390 dd ab d5 3d 71 a0 02 be 51 a9 a4 bb 90 5a ee bd
       0.10433171 -0.12756516 -0.005025067 -0.11638367
0003a0 55 75 68 bd 29 6e bc bc f6 d8 93 3d 72 bb 02 3e
       -0.05675252 -0.023001747 0.072191164 0.12766817
0003b0 62 86 ae bd b0 41 36 be 00 79 0c 3e 34 f0 d6 bd
       -0.08521725 -0.17798495 0.13718033 -0.10495034
0003c0 94 36 8d bd ec d8 19 be b5 30 47 3d 64 6b 07 be
       -0.068951756 -0.15024155 0.048630435 -0.1322456
0003d0 85 9a 92 bd 60 ef 43 3d 0d 6e bc 3c 49 a3 47 bd
       -0.071583785 0.047835708 0.023001695 -0.048739705
0003e0 a1 41 74 3d 67 aa 0a be 42 53 fc 3d 80 7d b6 bd
       0.0596329 -0.13541566 0.12320568 -0.08910656
0003f0 46 a4 1b be 14 4f 2a 3d ef 34 47 3c 09 04 93 3d
       -0.15199384 0.04157932 0.012158616 0.07178504

node_encoder.layers.0.bias f4 [64]
000000 38 ff e0 bc a0 36 0e 3e 31 44 03 bd db ea 14 3d
       -0.027465448 0.13888025 -0.032047454 0.036356788
000010 ad 1b e3 3d d9 75 39 3d 15 8b e4 3d 18 46 be 3d
       0.11089263 0.045278404 0.1115934 0.09290713
000020 f2 a3 4c bc 36 8f 07 3c 2b 49 3e 3d db af c7 3a
       -0.0124902595 0.00827389 0.046456497 0.0015234904
000030 f4 c5 d1 ba aa 40 ea bd d2 6a 04 3e 4e 9c d9 3d
       -0.0016004429 -0.11438115 0.12931374 0.10625516
000040 6e 59 52 3c 7d 7c cc 3d 12 9f a6 3d 91 1a 62 3c
       0.0128387045 0.09984682 0.08135809 0.013800279
000050 9d d8 43 3c a4 24 b0 3c 17 18 f1 3d c5 9b 05 3d
       0.0119535 0.021501847 0.11772173 0.032619257
000060 7f fb d0 3d 85 54 25 3e f5 89 38 bd c3 1e 3e 3d
       0.10204219 0.16145523 -0.04505344 0.046416055
000070 14 f6 1e 3d d1 1e 81 bd 62 43 9d 3d eb 14 5f 3d
       0.038808897 -0.06304706 0.07678868 0.05446331
000080 b6 98 0c 3e 6b d9 da 3c d4 b4 5f bc 61 8d 82 3c
       0.1373013 0.026715001 -0.013653953 0.015936555
000090 65 23 49 bd 41 be b9 bd 03 b6 a6 3d 34 db e6 3d
       -0.04910602 -0.09069491 0.08140185 0.112722784
0000a0 82 5c 85 3c b9 6c 8a 3d d6 d8 13 3d 79 cc 70 3d
       0.016279463 0.067590185 0.036095463 0.05878875
0000b0 b7 35 f6 bb 32 df 8f 3d 0c 0b 80 bd fc 6e 92 3c
       -0.0075137275 0.07024993 -0.06252107 0.017875187
0000c0 42 ab d3 3d 5f b7 f4 3d 37 a1 bf 3d 74 19 fb 3a
       0.10335399 0.11949038 0.09356921 0.0019157366
0000d0 e8 90 46 bd f4 41 07 bd 92 3c ea 3d 1c 0f fd bc
       -0.048478037 -0.033021882 0.11437334 -0.030890994
0000e0 94 16 91 bd 42 d6 22 3e a7 e0 27 3e b6 a0 bf 3d
       -0.070843846 0.15902045 0.16394292 0.09356825
0000f0 ce 95 5a 3d a3 d3 c5 3d b7 07 69 bd e9 93 9f bd
       0.05336552 0.09659507 -0.056892123 -0.077918835

node_encoder.layers.2.weight f4 [32, 64]
000000 5a f3 87 3d e1 51 c9 3d 86 4d bc bd 3b ed 34 be
       0.066382125 0.0983007 -0.09194474 -0.17668621
000010 2c d9 23 3e c5 9f 28 3e af 7c ad bc 76 03 a9 bd
       0.16000813 0.16467197 -0.021177618 -0.08252613
000020 11 21 f4 3d 50 3c ac bc 32 11 cb 3c 4e 6a dd 3d
       0.119203694 -0.021024853 0.024788473 0.10811292
000030 9f 34 63 3d de 5b f9 bd cb 34 05 3e c8 e1 ea 3d
       0.055470105 -0.121757254 0.1300842 0.114688456
000040 49 9f f9 3d b6 b4 3f 3d 61 d6 b5 bc a8 0f 95 3d
       0.12188584 0.0468032 -0.02219695 0.07278377
000050 d4 b5 28 3d 05 4e 2c bc 7d 06 1d 3e 20 8b d2 bd
       0.04118903 -0.010516648 0.15334506 -0.10280442
000060 5e 99 80 bc 94 f8 8e bd a1 15 aa 3d 35 e6 04 3d
       -0.015698131 -0.06981006 0.08304907 0.032446105
000070 9d f8 36 be af 2d 18 3d 6e 4f c8 bd db 6e 36 be
       -0.17868276 0.037152942 -0.09780775 -0.17815726
000080 aa 66 bf bd c9 03 10 bd 7e 91 49 3d 66 4e ee 3d
       -0.093457535 -0.03515986 0.049211018 0.11636047
000090 e4 3b 0c 3e c4 e4 11 3e d5 f7 7f bc 88 57 4c bd
       0.13694721 0.14247423 -0.015623053 -0.049888164
0000a0 cd c7 3b 3e 5b 4d 9f 3d 75 79 d7 3d 60 ca 47 3e
       0.18337937 0.07778426 0.10521213 0.19510794
0000b0 8b d1 b1 39 37 cd 2d 3e 02 9c 42 3d ea 8c 8b 3d
       0.00033916192 0.16972815 0.047512062 0.068139866
0000c0 2f bb 1d 3e 5e 03 18 3e 10 39 c5 3d 01 db d4 bc
       0.15403436 0.14845034 0.096300244 -0.025983335
0000d0 c4 63 e0 bd 7e 71 eb 3d 62 34 4b 3d 7d 5b ab bc
       -0.10956529 0.11496256 0.049610503 -0.020917648
0000e0 e1 2a ca 3c 5e f3 d7 3d 85 62 4a bd 13 e7 15 be
       0.02467865 0.105444655 -0.04941036 -0.14638929
0000f0 2a d6 af 3d f3 fa f6 bb d4 48 c8 bd c4 74 fc 3a
       0.085857704 -0.0075372397 -0.09779516 0.0019260873
000100 ed ae f0 3c 9f 6f b8 3b 37 74 c8 bc 2a 76 94 3d
       0.029380286 0.0056285406 -0.024469478 0.072491005
000110 2f f8 b5 3d 29 5b 57 3d b8 02 07 3e b1 5d 17 be
       0.08885228 0.05257717 0.13184631 -0.14781834
000120 d4 b4 c5 3d 9e 56 21 3e bf ee e2 bd 5c 98 94 bd
       0.09653631 0.15755698 -0.110806935 -0.07255623
000130 ff 82 c1 3d a6 d1 8f bd 2b 13 32 3c 65 40 1b 3e
       0.09448814 -0.07022409 0.010868828 0.15161283
000140 ce f1 0a 3e 21 b2 1e 3e e4 66 1c 3d 64 2e b0 3d
       0.13568804 0.15497638 0.03818406 0.08602598
000150 b0 30 ee 3d 82 29 d1 3d 86 f5 1c 3d ec 1b 43 3d
       0.1163038 0.10212995 0.038320087 0.04763405
000160 90 ac 14 be b7 93 1b 3e 2c 50 69 3d dc 5d 31 3e
       -0.14518952 0.15193067 0.056961223 0.17320961
000170 29 29 aa 3d 41 c2 04 3e 6d 00 f6 3d ea 3c 05 3d
       0.08308632 0.12964727 0.120118 0.032528795
000180 a9 2d 10 3e 62 69 38 3e df 66 20 3e d1 66 1d 3e
       0.14079918 0.1800895 0.15664242 0.15371253
000190 a8 ef 17 bd 69 02 06 bc 25 21 32 3e 02 c9 f4 3d
       -0.03709379 -0.008179286 0.17395456 0.11952402
0001a0 c5 6c bd 3d 10 7d 66 3d 86 70 07 3e 27 d2 b5 3d
       0.09249262 0.056271613 0.13226518 0.08877974
0001b0 97 4f 68 3d 28 67 33 3e 62 b0 22 be 4d 28 0a 3e
       0.056716528 0.1751982 -0.15887597 0.13491936
0001c0 e5 ad 1d 3e 0e c5 53 3d 31 b9 ce bc 7e ca 4a 3b
       0.15398367 0.051701598 -0.02523479 0.0030943449
0001d0 68 f3 14 be 8d db a5 3d 60 fc b8 bd 43 83 2d 3e
       -0.14545977 0.080985166 -0.09032512 0.16944604
0001e0 7f 5d 03 3e ca ae 5b bd de cf 9a 3d 6f 76 6f bd
       0.12828635 -0.05363349 0.07559179 -0.058462556
0001f0 f1 60 09 3e db b0 e1 3c e5 ab bc 3d 0d 8c f9 3b
       0.13415886 0.027550152 0.09212474 0.0076155723
000200 32 65 26 3d 86 b8 f8 bd 52 cb 07 be 28 22 2e 3d
       0.04062385 -0.1214457 -0.13261154 0.042513043
000210 9b 40 bf bd b9 5b 6c bd 9c 08 96 3c 95 c7 d6 3d
       -0.093384944 -0.05770466 0.018314652 0.10487286
000220 25 c9 53 bd 66 a9 aa 3c df 21 36 3d 31 b7 1b 3e
       -0.0517055 0.020832729 0.044465896 0.152066
000230 28 c2 e6 bd fc f9 b9 bc d7 12 1c bc e6 9d b5 3d
       -0.11267501 -0.02270221 -0.009525976 0.08868007
000240 ca ce 81 bc 4c b7 81 bd 5e 02 1b 3d fc fc da 3b
       -0.015845675 -0.06333789 0.037844054 0.00668299
000250 0d 0a 91 bc ad ef 04 3e 9d 46 8b bc 34 36 ce 3d
       -0.017704988 0.12982054 -0.017001444 0.10068932
000260 2c e8 e8 3c cd 78 1b 3d 63 87 19 bd 0f 70 3d bd
       0.02843102 0.037957 -0.03748263 -0.046249446
000270 ad 25 9f bd d3 9d 85 bc ab 46 bf 3d 57 13 1c 3d
       -0.07770858 -0.016310608 0.09339651 0.03810438
000280 e2 03 70 bd 3e bb 3d bd 7c 7d 4d bc f3 0c 8d bd
       -0.058597453 -0.046321146 -0.012542125 -0.068872355
000290 6b e3 cc bd a4 5a 32 3d 4e 46 12 3d 5d 43 e9 bd
       -0.10004314 0.043543473 0.03571158 -0.11389802
0002a0 fb cb 38 bd d2 5e a5 bd e2 f7 41 3d 70 8a 94 bd
       -0.045116406 -0.08074726 0.04735554 -0.07252967
0002b0 2e 60 39 3d e6 ea ea bd 81 31 5f bd b2 01 63 bc
       0.04525774 -0.114705846 -0.05449057 -0.013855385
0002c0 d5 c6 a1 bd 82 ba 3e 3c aa 98 c7 bd 8a 0a 7c 3c
       -0.07899252 0.011641147 -0.09745915 0.015383372
0002d0 1c 1c 99 3d ef 64 9b bd 9f e0 ca bd 33 b0 9d bd
       0.074760646 -0.07587611 -0.09906124 -0.07699623
0002e0 3a 72 c6 bd a2 ee 22 3e 76 a1 c5 bc 9b 8c 9a bd
       -0.09689756 0.15911344 -0.024124842 -0.075463496
0002f0 57 d3 52 3d 90 fc b5 bd 3b 06 00 be eb 38 99 3b
       0.05147108 -0.08886063 -0.12502377 0.0046759746
000300 30 8c a0 3d 0b 13 b0 3d f3 e9 5e 3d 90 1c c5 3d
       0.07839239 0.08597382 0.05442233 0.096245885
000310 b9 72 d2 3d 51 f1 04 3e 12 20 61 3d de 0a f7 bd
       0.10275788 0.1298268 0.054962225 -0.120626196
000320 dc c3 dc 3d 1b 97 71 bd e3 24 5b bc a1 9d ad bd
       0.10779545 -0.058981996 -0.013375494 -0.08477331
000330 8d e2 a0 3d 07 c7 a2 bd c3 c0 fb 3d 24 10 66 bc
       0.07855711 -0.07948118 0.12292626 -0.014041934
000340 af c0 f6 3d 19 4a 96 3d d1 c2 fc bc e0 19 19 3e
       0.1204847 0.07338352 -0.030854614 0.14951277
000350 29 0a ab 3d e3 49 69 3d 07 60 03 3e 38 c9 06 bc
       0.08351547 0.05695523 0.128296 -0.008226685
000360 34 f5 06 be 00 ba 0b 3e f5 e7 96 bd b3 5c 9a 3c
       -0.13179475 0.13645172 -0.07368461 0.01884303
000370 42 7a 14 3e 04 3a 60 bb fe 62 e2 3d ec dd 6f bd
       0.14499763 -0.0034214268 0.110540375 -0.05856125
000380 33 ab 94 3d 9c d0 10 bd fa 56 d2 3d 6c 18 21 3d
       0.07259216 -0.035355195 0.10270496 0.03932993
000390 ea 12 99 3d d3 97 b9 bd c7 e5 d6 3d 47 c3 a4 3d
       0.07474311 -0.09062161 0.10493045 0.08045059
0003a0 08 c6 83 3c 63 f5 83 bd e9 e6 b6 bc bf 0e 37 3d
       0.01608564 -0.06443288 -0.022326903 0.044691797
0003b0 2a 44 c5 3c 30 21 23 3e a6 5b 14 be 85 58 99 bd
       0.024080355 0.15930629 -0.14488086 -0.07487587
0003c0 5b f9 0d bd c6 b6 7b bd 71 c8 80 bc 5b 97 34 bd
       -0.034661632 -0.061453603 -0.015720578 -0.044089656
0003d0 ed 30 dc bd cc 53 07 3d d0 4f c7 bd 5d de a4 3d
       -0.10751519 0.0330389 -0.0973202 0.08050225
0003e0 28 32 9f 3d 36 c3 30 3d 87 e5 eb 3d 60 4f 0d be
       0.077732384 0.043154918 0.11518388 -0.1379981
0003f0 e4 48 d9 3d 0e 0e 41 bc 41 e4 20 be 90 2d 56 bc
       0.10609606 -0.011783136 -0.15712072 -0.013072386

node_encoder.layers.2.bias f4 [32]
000000 17 e5 01 bc 1c f4 5f 3c 4f 65 04 be fa 9e d8 3c
       -0.007928154 0.01366904 -0.12929271 0.026442993
000010 37 30 8a 3d 2b c2 42 3d c0 8b 93 3c 25 e3 d5 3b
       0.067474775 0.047548454 0.018010974 0.006527322
000020 a2 26 46 bd 05 83 81 bd 29 4b f2 3d 8a ec d3 bd
       -0.048376687 -0.06323818 0.11830742 -0.103478506
000030 84 bf 22 bd 3f 79 c6 bd 60 e4 31 bd 4e b7 ff 3d
       -0.039733425 -0.096910946 -0.043430686 0.124861345
000040 78 78 5a bd 57 62 94 3d 0e 27 d0 bc 0f 32 d1 3c
       -0.053337544 0.07245319 -0.025409248 0.025536565
000050 2e 40 9f bd de fd bc 3d a6 d7 9c 3d b8 15 31 3d
       -0.07775913 0.09228109 0.07658319 0.043233603
000060 53 dc 08 3e df 3c 59 3d e5 fb 76 3c a8 1a b0 bd
       0.13365297 0.053036567 0.015074705 -0.08598834
000070 e0 78 9a ba c1 0b 7c 3c 71 f6 aa bd f8 8c dd 3c
       -0.0011785291 0.015383662 -0.08347786 0.027044758

state_encoder.layers.0.weight f4 [64, 2]
000000 c4 5d 2f 3f 07 5c 31 3f cf 1a 1e 3f 58 24 06 bf
       0.6850245 0.6928105 0.61759657 -0.52399206
000010 6c 8c 71 be 81 73 2b bf 32 2a 18 3f 23 37 0d 3f
       -0.23588723 -0.6697312 0.59439385 0.55162257
000020 eb 09 28 bf 66 46 16 3f 04 36 0d 3e e1 cf 15 bf
       -0.65640134 0.5870117 0.13790137 -0.58520323
000030 12 65 8d 3e 4f 41 8f 3e de 6a 29 bf ba 95 c2 3c
       0.27616173 0.27979514 -0.6617869 0.023753036
000040 fb 5c 24 bf f6 09 e0 be 2c f9 10 3f 55 d1 e8 3e
       -0.64204377 -0.437576 0.56630206 0.45472208
000050 39 d6 2c bf 54 b1 91 3e d0 b5 2b bf 07 da e8 be
       -0.6751438 0.28455603 -0.670743 -0.45478842
000060 2a 31 02 3f 97 74 0e 3f 0e b7 86 3d 99 dc 26 3f
       0.5085627 0.5564665 0.06577884 0.65180355
000070 ac 35 a9 be b5 97 34 3f 00 b6 be 3e d5 54 ca 3e
       -0.3304876 0.70543987 0.3724823 0.39517847
000080 7d 5c b7 bd e2 8f f2 3e 6f 34 3e be 73 15 07 bf
       -0.089531876 0.473754 -0.1857469 -0.52767104
000090 25 e1 5b 3e 0d a1 d5 3d 3f 60 65 be f9 a3 76 be
       0.21472605 0.104311086 -0.22399996 -0.24085988
0000a0 f7 63 81 3e 24 0a 53 be d3 6a a1 be 39 ef dd be
       0.2527158 -0.20609337 -0.31526813 -0.43346575
0000b0 e1 df bd be f0 60 f9 3e 98 fe 93 3e fc df 0a 3f
       -0.3708487 0.4870677 0.28905177 0.54248023
0000c0 24 13 18 bf f8 45 05 be ba 72 6c 3e 96 f8 3a 3e
       -0.59404206 -0.13014972 0.2309064 0.1825889
0000d0 e5 44 13 bf d3 60 a7 3e c4 34 14 be 31 57 10 be
       -0.57527 0.3269106 -0.14473253 -0.14095761
0000e0 86 50 df bd 6b 5c 44 be 7b 8f 9f 3e 76 9c fa bd
       -0.109040305 -0.1917588 0.31164154 -0.12236874
0000f0 62 99 8e be 77 f0 eb be d7 1f 89 be cb 36 88 be
       -0.27851397 -0.46081898 -0.26782104 -0.26604304
000100 10 b9 b3 3e b4 35 cd bd 7d 8a 33 3f ae 87 45 3d
       0.3510213 -0.10020009 0.7013319 0.048225097
000110 65 89 de 3e 03 59 c9 3e 4d 2f 1b bf c0 96 15 bf
       0.434642 0.39325723 -0.6061905 -0.5843315
000120 9a 5d d7 3d 81 bf a6 3e 58 cd 21 3e dc 6b c9 bd
       0.105159 0.3256798 0.15800989 -0.09835026
000130 76 83 62 be 3a b9 05 bf 74 ba a9 be 7b dd ce 3e
       -0.22120461 -0.5223576 -0.33150065 0.4040335
000140 8b f0 1d be a1 a2 9d 3d e9 8b 1a 3f f3 9c 1a bf
       -0.15423791 0.076970346 0.60369736 -0.60395736
000150 95 76 9a 3e 9a 69 63 3e 6e 00 33 be c6 59 16 bf
       0.30168596 0.22208253 -0.17480633 -0.58730733
000160 49 c6 1e bf 1b 4c 1a 3f bc f6 2d bd da d3 d7 be
       -0.6202131 0.6027238 -0.042471632 -0.42153817
000170 67 86 05 3e 77 6e 2f 3f 97 b9 64 3e 04 9a 32 3f
       0.13039552 0.6852793 0.22336422 0.6976626
000180 be 18 9f be 54 a4 2a be c6 24 2c bf aa f7 15 3f
       -0.31073564 -0.16664249 -0.6724361 0.5858103
000190 30 31 07 3e 0f 76 90 3e 2c 7d 19 3f 95 55 0d bf
       0.13202357 0.28215072 0.5995662 -0.5520871
0001a0 fb 53 cc 3e 1e b4 0c 3f 7e 25 f5 be 0e 77 29 3f
       0.39907822 0.54962337 -0.47880167 0.6619729
0001b0 0d 8e 0e bf e0 6f a9 be 8a cd 34 3f 60 55 1f 3f
       -0.556855 -0.33093166 0.7062613 0.62239647
0001c0 e0 15 1b 3f b6 45 14 3e 01 48 2a 3e e5 5f b2 3d
       0.60580254 0.14479718 0.1662903 0.08709697
0001d0 30 2d 07 bd 40 71 11 bf 01 b8 82 3c b1 ae 2e 3f
       -0.03300208 -0.5681343 0.01595688 0.6823531
0001e0 8a 81 1d bf 02 ce c4 be 95 d4 12 3e 75 e3 bf bd
       -0.61525786 -0.3843842 0.14338906 -0.09369556
0001f0 86 69 6e be 0d 82 9a 3e 11 d1 cd be 87 03 aa bd
       -0.23282441 0.30177346 -0.40198568 -0.08301454

state_encoder.layers.0.bias f4 [64]
000000 08 bb cb 3e db 4b a0 3e 09 f3 31 bf 94 5b 23 bf
       0.3979113 0.31307873 -0.6951147 -0.6381161
000010 5d bf 08 bf 83 14 52 be 4c 1b a0 3d c2 56 cf 3e
       -0.53417 -0.20515637 0.078177065 0.40495878
000020 5c 38 18 bf 4b bb 25 3f a8 67 f8 be 3e db 2e 3e
       -0.59461 0.6473891 -0.48516583 0.17075822
000030 94 26 da 3b 81 48 84 3d 10 d8 17 bf f9 cf 19 3c
       0.006657431 0.064591415 -0.5931406 0.009387963
000040 ad 1b 31 3f f6 06 f1 be 56 a0 e5 3e a3 33 07 be
       0.69182855 -0.47075623 0.4484889 -0.13203292
000050 fc 53 60 be ca 3e 1a bf 37 6d 4e 3e 74 d0 3c be
       -0.21907037 -0.6025206 0.2015885 -0.18438894
000060 a4 5a d1 be fd df 49 3d 96 ef c5 bd 17 e0 26 bf
       -0.40889466 0.049285877 -0.09664838 -0.65185684
000070 0a b1 75 3d a8 a6 32 bf f7 1a d3 bd 81 c8 d5 be
       0.05998329 -0.6978555 -0.103078775 -0.41754535
000080 87 9f 8a be 0a da 0f 3d 5b 6b 10 bf 53 c9 e0 bd
       -0.27074835 0.035120048 -0.5641381 -0.109758995
000090 36 9b fe be a5 fd 82 bd 3a 66 49 3e 1c e7 23 3f
       -0.49727792 -0.06396035 0.19667903 0.6402452
0000a0 98 ab 25 bf db 60 10 3f db 05 d0 be 87 9a c6 3d
       -0.64714956 0.5639779 -0.40629467 0.096974425
0000b0 f8 7d d1 3d c0 9d 85 be 9e 20 8c 3d 98 39 e6 bd
       0.10229105 -0.26096916 0.06842159 -0.11241454
0000c0 0f ea 0e 3f 93 2b ef be f9 7f 26 bf ad 26 ac bd
       0.55825895 -0.46712932 -0.6503902 -0.08405814
0000d0 13 39 8c be 7a c4 47 be 6f fd ae 3e 07 44 47 be
       -0.27387294 -0.19508544 0.3417773 -0.19459544
0000e0 27 2e cd 3d 06 ae 0e bf f6 21 f8 be be 41 42 3e
       0.100185685 -0.5573429 -0.4846341 0.18970391
0000f0 7a 51 26 bf 1b 3b aa be c3 9e 23 bf 90 d0 b6 3e
       -0.64968073 -0.3324822 -0.63914126 0.35705996
