get_descriptor_megnet/saved_models/gllb-sc_210/state.pt (torch, 710298 bytes, 105 tensors)

bond_expansion.rbf.centers f4 [100]
0.0 0.05050505 0.1010101 0.15151516 0.2020202 0.25252524 0.3030303 0.35353535
0.4040404 0.45454544 0.5050505 0.5555555 0.6060606 0.65656567 0.7070707 0.75757575
0.8080808 0.85858583 0.9090909 0.9595959 1.010101 1.060606 1.111111 1.1616161
1.2121212 1.2626263 1.3131313 1.3636364 1.4141414 1.4646465 1.5151515 1.5656565
1.6161616 1.6666666 1.7171717 1.7676767 1.8181818 1.8686868 1.9191918 1.9696969
2.020202 2.070707 2.121212 2.1717172 2.222222 2.2727273 2.3232322 2.3737373
2.4242425 2.4747474 2.5252526 2.5757575 2.6262627 2.6767678 2.7272727 2.777778
2.8282828 2.878788 2.929293 2.979798 3.030303 3.0808082 3.131313 3.1818182
3.2323232 3.2828283 3.3333333 3.3838384 3.4343436 3.4848485 3.5353537 3.5858586
3.6363637 3.6868687 3.7373738 3.7878788 3.838384 3.8888888 3.939394 3.989899
4.040404 4.090909 4.141414 4.1919193 4.2424245 4.292929 4.3434343 4.3939395
4.4444447 4.4949493 4.5454545 4.5959597 4.646465 4.6969695 4.7474747 4.79798
4.848485 4.8989897 4.949495 5.0
00000000: 0000 0000 62de 4e3d 62de ce3d ca26 1b3e
00000010: 62de 4e3e fd4a 813e ca26 9b3e 9602 b53e
00000020: 62de ce3e 2eba e83e fd4a 013f e338 0e3f
00000030: ca26 1b3f b014 283f 9602 353f 7cf0 413f
00000040: 62de 4e3f 48cc 5b3f 2eba 683f 14a8 753f
00000050: fd4a 813f f0c1 873f e338 8e3f d6af 943f
00000060: ca26 9b3f bd9d a13f b014 a83f a38b ae3f
00000070: 9602 b53f 8979 bb3f 7cf0 c13f 6f67 c83f
00000080: 62de ce3f 5555 d53f 48cc db3f 3b43 e23f
00000090: 2eba e83f 2131 ef3f 14a8 f53f 071f fc3f
000000a0: fd4a 0140 7786 0440 f0c1 0740 6afd 0a40
000000b0: e338 0e40 5d74 1140 d6af 1440 50eb 1740
000000c0: ca26 1b40 4362 1e40 bd9d 2140 36d9 2440
000000d0: b014 2840 2a50 2b40 a38b 2e40 1dc7 3140
000000e0: 9602 3540 103e 3840 8979 3b40 03b5 3e40
000000f0: 7cf0 4140 f62b 4540 6f67 4840 e9a2 4b40
00000100: 62de 4e40 dc19 5240 5555 5540 cf90 5840
00000110: 49cc 5b40 c207 5f40 3c43 6240 b57e 6540
00000120: 2fba 6840 a8f5 6b40 2231 6f40 9b6c 7240
00000130: 15a8 7540 8ee3 7840 081f 7c40 815a 7f40
00000140: fd4a 8140 bae8 8240 7786 8440 3424 8640
00000150: f1c1 8740 ad5f 8940 6afd 8a40 279b 8c40
00000160: e438 8e40 a0d6 8f40 5d74 9140 1a12 9340
00000170: d7af 9440 934d 9640 50eb 9740 0d89 9940
00000180: ca26 9b40 86c4 9c40 4362 9e40 0000 a040

embedding.layer_node_embedding.weight f4 [89, 64]
-0.03709809 0.5963272 0.2841849 -0.7230282 -0.55029404 -2.6930797 0.04019612 -0.19129376
1.2081078 -0.9901504 -0.2313679 1.0496395 0.42380404 0.38912272 -0.6183676 0.45216954
0.94178253 1.8413949 -1.0258304 0.32038683 0.24368304 0.119118795 -0.8747669 -1.1425558
-0.6218701 -0.65751505 -1.1229873 0.02611634 -1.6202465 -0.9082782 0.9928453 0.45747542
0.9314225 0.69194084 0.30086815 -0.66590047 0.06889203 2.2200153 -0.46495602 -0.22072792
-1.0850595 -1.537796 -0.07874737 0.13853492 -2.5848396 0.12331542 0.16475102 0.17782632
-0.67288065 1.9825512 -1.170152 0.1754111 -1.3727204 -1.2668219 -0.15725543 0.39109498
-1.4586393 0.60980386 -0.8173057 -1.0234421 -0.47844872 -1.0758538 2.3379998 2.1315584
0.7614484 0.7992875 0.6202071 0.9449649 0.40025318 -0.33172014 0.25851804 -2.6550145
0.7989935 -0.24917813 -1.7348888 -0.62584287 0.21853395 -0.34799218 -0.5433407 0.5448592
-0.5382418 -0.6709636 -0.056335364 -1.7612005 -0.6091913 -1.5470254 -0.7555031 1.0085956
1.1791762 1.0768213 1.0109825 0.015348267 0.37388274 -0.6404025 0.07885107 0.81700957
-0.20550147 0.36995292 0.4044273 0.9161625 -0.18020812 -0.84328586 0.7604231 0.9948712
-0.8643313 -1.2466313 1.3597089 -0.34984776 0.7675397 -0.6507481 -0.5559096 -1.5129151
1.249693 -1.1906894 -1.3609025 -1.2025588 -0.12278499 -0.14449781 0.93437344 -0.15230246
0.2260184 -0.049946003 -1.0921135 0.33030602 1.5388459 -0.23346628 -1.5594337 -0.28737748
3.8851225 -0.029112298 1.1584805 0.7581434 -0.18091144 0.5369009 0.733919 0.2849
2.141484 1.578148 1.7333863 2.2380466 0.16419615 0.72317547 -0.09440976 0.61280644
1.183435 1.035368 0.84018564 -0.72484666 -0.44373965 0.05266213 -1.1982067 0.83877766
0.31955338 -1.5015893 0.6870758 -0.81945705 -1.4015497 0.53717667 0.33522892 -0.43028066
2.275759 0.21993199 -0.87767905 -0.8719853 -0.4054932 0.5426528 -1.0776175 0.42773938
0.4741585 -1.009024 0.17731601 -0.6887859 -1.4513692 0.9831738 -1.1626203 -3.0622559
0.68622065 -0.60049117 1.079561 -0.3794439 -0.7482556 1.3729775 -2.2181807 0.7253567
0.29499018 0.20830071 0.20575847 -1.1248719 0.22764383 -0.39918125 0.24932359 -1.8870852
-0.7533963 0.75741243 -0.5485718 0.54240793 -0.04056086 0.4764054 -1.1377126 0.7189699
0.051756624 1.3182602 0.18672588 -2.3545458 0.44780618 -0.5692382 -0.15620272 -0.092315994
0.17907728 -0.48248723 -0.36037236 -0.8412245 0.033001214 1.3965185 2.276106 -1.9837439
0.43328983 -1.5942137 -2.251543 -0.9259767 0.38307768 0.82509923 1.1563774 0.31859452
0.8380224 -0.7717441 -0.017635308 1.5689355 0.85422033 0.035311297 1.4160082 0.3441864
-1.6985109 -0.4234207 0.23764586 -0.31570488 -1.2674694 2.0264425 -0.75145465 0.3855508
0.71118015 1.8356965 1.4973437 0.24075201 -0.22879803 0.92620087 0.3395844 1.4213868
0.86215097 0.22671327 -0.65301615 0.50576305 1.4999106 0.44830155 0.6798565 0.7484286
00000000: 2bf4 17bd e6a8 183f af80 913e 6018 39bf
00000010: 12e0 0cbf 6b5b 2cc0 b0a4 243d 83e2 43be
00000020: 47a3 9a3f 7f7a 7dbf b5eb 6cbe 965a 863f
00000030: d8fc d83e 183b c73e 574d 1ebf c482 e73e
00000040: a918 713f d4b2 eb3f 694e 83bf be09 a43e
00000050: 0c88 793e 8ef4 f33d b9f0 5fbf 453f 92bf
00000060: e132 1fbf e852 28bf 0cbe 8fbf eff1 d53c
00000070: 3d64 cfbf ec84 68bf 1c2b 7e3f 383a ea3e
00000080: b471 6e3f 0923 313f 640b 9a3e 7478 2abf
00000090: 4417 8d3d bb14 0e40 b70e eebe 8006 62be
000000a0: 3be3 8abf 80d6 c4bf 4d46 a1bd 19dc 0d3e
000000b0: 036e 25c0 cb8c fc3d 7eb4 283e 1a18 363e
000000c0: e841 2cbf 3dc4 fd3f 8ac7 95bf f89e 333e
000000d0: 4db5 afbf 3827 a2bf 9107 21be 9a3d c83e
000000e0: b1b4 babf 1b1c 1c3f f23a 51bf 2700 83bf
000000f0: 3bf7 f4be 94b5 89bf caa1 1540 746b 0840
00000100: 48ee 423f 1b9e 4c3f e4c5 1e3f 38e9 713f
00000110: fced cc3e 39d7 a9be 7a5c 843e c2eb 29c0
00000120: d78a 4c3f 8d28 7fbe d610 debf 3d37 20bf
00000130: 5dc7 5f3e 082c b2be 6018 0bbf e47b 0b3f
00000140: 37ca 09bf 45c4 2bbf e9bf 66bd 056f e1bf
00000150: f6f3 1bbf ee04 c6bf a768 41bf a919 813f
00000160: 3fef 963f 48d5 893f e067 813f 4c77 7b3c
00000170: 8f6d bf3e 6bf1 23bf ab7c a13d 8a27 513f
00000180: fa6e 52be 786a bd3e 1811 cf3e a089 6a3f
00000190: 7a88 38be 95e1 57bf 17ab 423f e1af 7e3f
000001a0: d144 5dbf 9d91 9fbf f10a ae3f 3f1f b3be
000001b0: 7b7d 443f 6d97 26bf 1750 0ebf 34a7 c1bf
000001c0: f1f5 9f3f 8368 98bf 0e32 aebf 72ed 99bf
000001d0: b276 fbbd 3cf7 13be 1933 6f3f 2df5 1bbe
000001e0: 5e71 673e 2e94 4cbd 60ca 8bbf df1d a93e
000001f0: e7f8 c43f c911 6fbe 869b c7bf 2423 93be
00000200: d9a5 7840 ea7c eebc 1749 943f b015 423f
00000210: d940 39be 5672 093f 1ee2 3b3f 6ade 913e
00000220: 130e 0940 c100 ca3f 9adf dd3f 283c 0f40
00000230: 0923 283e 0722 393f e759 c1bd e2e0 1c3f
00000240: cc7a 973f f086 843f 6816 573f 8d8f 39bf
00000250: d831 e3be 3fb4 573d d65e 99bf 22ba 563f
00000260: 809c a33e 1434 c0bf 33e4 2f3f f0c7 51bf
00000270: fb65 b3bf 6984 093f 20a3 ab3e bf4d dcbe
00000280: 09a6 1140 da35 613e 93af 60bf 6e3a 5fbf
00000290: ce9c cfbe 4beb 0a3f 5fef 89bf a800 db3e
000002a0: e7c4 f23e b327 81bf 5492 353e 4654 30bf
000002b0: 77c6 b9bf 47b1 7b3f bed0 94bf 00fc 43c0
000002c0: 28ac 2f3f cab9 19bf 0e2f 8a3f 7946 c2be
000002d0: ae8d 3fbf babd af3f acf6 0dc0 fab0 393f
000002e0: f408 973e c84c 553e 59b2 523e cdfb 8fbf
000002f0: 771b 693e 7c61 ccbe af4e 7f3e 028c f1bf
00000300: 94de 40bf c8e5 413f 346f 0cbf 3fdb 0a3f
00000310: 2523 26bd 69eb f33e 91a0 91bf 690e 383f
00000320: c1fe 533d c0bc a83f 1235 3f3e e1b0 16c0
00000330: da46 e53e 98b9 11bf 9bf3 1fbe 2b10 bdbd
00000340: 0960 373e 9108 f7be ba82 b8be 7d5a 57bf
00000350: 482c 073d 1ec1 b23f b9ab 1140 52eb fdbf
00000360: 2ad8 dd3e 320f ccbf 4819 10c0 cf0c 6dbf
00000370: c222 c43e b439 533f 2d04 943f d21e a33e
00000380: a388 563f 0591 45bf ec77 90bc e1d2 c83f
00000390: 2fae 5a3f 94a2 103d c23f b53f 3339 b03e
000003a0: ce68 d9bf 99ca d8be 7059 733e 12a4 a1be
000003b0: 703c a2bf 3cb1 0140 555f 40bf ea66 c53e
000003c0: e70f 363f 1af8 ea3f f5a8 bf3f b287 763e
000003d0: 084a 6abe 801b 6d3f 02de ad3e 01f0 b53f
000003e0: edb5 5c3f 8627 683e 112c 27bf b079 013f
000003f0: 12fd bf3f c887 e53e 130b 2e3f 0499 3f3f

edge_encoder.layers.0.weight f4 [64, 100]
-0.041312486 -0.11177991 -0.14130478 -0.1452296 -0.15241465 -0.05816824 -0.16837622 -0.046246633
-0.090352915 -0.14148803 -0.032079484 0.00031000838 -0.013019675 -0.0671586 -0.06422486 -0.17472634
-0.11776089 -0.123736076 -0.12039831 -0.043491222 -0.17515747 -0.08753325 -0.069648944 -0.098821886
-0.16708633 0.0045605805 -0.0013519538 -0.020393552 -0.05999512 -0.07887197 -0.06205834 -0.045282874
-0.06274547 -0.016221318 -0.1026284 -0.024461476 -0.1534566 -0.15770487 -0.07753464 -0.09941582
-0.05242922 -0.04794114 -0.04496827 -0.08024602 0.025844801 -0.12945883 0.0045505855 -0.03188123
-0.052431453 0.05460373 0.06607132 -0.100437075 0.08454625 -0.08762179 0.002645584 -0.019513529
0.008616719 -0.03031084 0.097783946 0.108516544 0.022089759 0.0071737636 0.027457027 0.04792486
0.105967514 -0.04624895 0.10801942 -0.024481038 -0.074591495 -0.06563795 0.06491769 0.1192586
0.11220264 0.10218435 0.04691203 -0.032874633 0.037171397 0.10256769 0.10124932 0.10363026
0.043396685 0.037154276 -0.017980944 -0.07477179 0.006683776 -0.07139209 -0.05394221 0.06101095
0.10867605 0.09761167 0.11272415 0.022631975 0.032164413 0.013080444 0.031105436 0.02984563
0.04572704 0.08080503 0.06446963 0.057430476 0.14838584 0.03141106 -0.021974036 0.05420108
-0.002548546 -0.008440026 0.099543 0.023298817 -0.024358356 0.042507015 0.009074233 -0.032501522
0.08290123 0.08211046 -0.08212299 -0.073246285 -0.081109196 -0.09118768 -0.049765967 -0.040359166
-0.059267316 0.009636783 -0.0795534 -0.101091735 0.010614953 0.029506316 0.010307092 -0.09390807
-0.05754325 -0.12533776 0.032358866 -0.12656298 0.042120643 0.05204423 0.00088282954 -0.0141636785
-0.1485811 -0.1178557 -0.0185859 0.005560022 -0.080785535 -0.04841294 0.037117682 0.00020276823
-0.034996767 -0.123277105 -0.06657924 -0.01774329 -0.08182056 -0.13779701 -0.07627435 -0.03358424
-0.09469707 -0.14085972 -0.08475295 0.019825066 -0.05921765 0.019818539 -0.053054243 -0.037269764
0.027161185 -0.044323828 -0.11426486 -0.05065498 0.07731168 0.06313723 -0.017559696 0.04061663
0.003433593 0.0678943 0.046550278 0.084909424 0.09509624 -0.06766308 -0.06529288 -0.00026689022
-0.052970026 0.04492753 0.07113263 0.06138799 0.108141676 0.0428558 -0.061687607 -0.047650974
0.0256498 -0.085233316 -0.06407509 0.07488318 0.04268846 -0.055024587 0.0068330406 0.060626496
-0.04372444 -0.03312392 -0.018569905 -0.057604875 0.09977305 -0.032430883 0.031190207 0.05024402
0.11135978 0.22288506 0.093723014 0.09198974 0.2235103 0.1805782 0.16855496 0.23749313
0.25161695 0.15875387 0.15968439 0.12538293 0.08749276 0.1522656 0.124468274 0.17609687
0.099817246 0.21659581 0.15947114 0.037201814 0.18907213 0.09000146 0.10608083 0.13920745
0.12894426 0.14149067 0.13043226 0.19755882 0.04318477 0.0823828 0.03144886 0.009993504
0.020203967 0.17184603 0.05830383 0.15846597 -0.031091843 -0.018258376 0.09313513 0.10199685
-0.00963644 -0.00619176 0.114894986 -0.021348933 -0.08272023 0.05496224 0.034878366 0.030936806
-0.06090734 -0.04619675 -0.106946655 -0.05084742 -0.1380057 -0.13151845 -0.05126622 -0.07584721
00000000: 4837 29bd deec e4bd 33b2 10be 11b7 14be
00000010: 9612 1cbe d241 6ebd d16a 2cbe 1c6d 3dbd
00000020: f30a b9bd 3de2 10be c765 03bd 9f88 a239
00000030: 7a50 55bc 738a 89bd 5388 83bd 76eb 32be
00000040: 9f2c f1bd 5769 fdbd 6493 f6bd da23 32bd
00000050: 7b5c 33be a244 b3bd 1ba4 8ebd 2163 cabd
00000060: ae18 2bbe ec70 953b 0b34 b1ba 6110 a7bc
00000070: 71bd 75bd a187 a1bd e330 7ebd 897a 39bd
00000080: b280 80bd 92e2 84bc d72e d2bd 6f63 c8bc
00000090: ba23 1dbe 637d 21be 7bca 9ebd 859a cbbd
000000a0: 06c0 56bd ee5d 44bd a630 38bd 0658 a4bd
000000b0: 7ab8 d33c db90 04be 141d 953b e595 02bd
000000c0: 5dc2 56bd 29a8 5f3d 6650 873d f4b1 cdbd
000000d0: 9626 ad3d 0e73 b3bd 8961 2d3b d6da 9fbc
000000e0: 242d 0d3c 704e f8bc f342 c83d ec3d de3d
000000f0: 95f5 b43c e411 eb3b 8fed e03c dc4c 443d
00000100: 7f05 d93d 8a6f 3dbd 4939 dd3d 758c c8bc
00000110: 6dc3 98bd 316d 86bd 91f3 843d da3d f43d
00000120: 7fca e53d 0746 d13d d426 403d 8da7 06bd
00000130: 0941 183d 020f d23d ce5b cf3d 1a3c d43d
00000140: b9c0 313d 152f 183d c64c 93bc f421 99bd
00000150: 9403 db3b 0436 92bd 82f2 5cbd 9ee6 793d
00000160: 8d91 de3d a1e8 c73d ebdb e63d b166 b93c
00000170: d5be 033d 5c4f 563c d4d0 fe3c d37e f43c
00000180: 474c 3b3d 1c7d a53d a708 843d 383c 6b3d
00000190: 75f2 173e e2a8 003d e502 b4bc f401 5e3d
000001a0: 8205 27bb 0948 0abc 33dd cb3d 29dd be3c
000001b0: 2d8b c7bc d61b 2e3d 17ac 143c 5120 05bd
000001c0: 1fc8 a93d 8729 a83d 1930 a8bd 2602 96bd
000001d0: 941c a6bd 9bc0 babd 66d7 4bbd a74f 25bd
000001e0: 49c2 72bd 99e3 1d3c e5ec a2bd 2f09 cfbd
000001f0: 57ea 2d3c 3bb7 f13c 14df 283c e052 c0bd
00000200: 79b2 6bbd 8b58 00be bb8a 043d ba99 01be
00000210: b286 2c3d 552c 553d b06d 673a c60e 68bc
00000220: a525 18be 545e f1bd 7541 98bc d830 b63b
00000230: e372 a5bd a64c 46bd b608 183d 2f9e 5439
00000240: c558 0fbd b578 fcbd b25a 88bd 605a 91bc
00000250: 8a91 a7bd a91a 0dbe ba35 9cbd a18f 09bd
00000260: 8af0 c1bd 883d 10be f492 adbd 2d68 a23c
00000270: 358e 72bd 7d5a a23c 684f 59bd 2ea8 18bd
00000280: 2281 de3c e78c 35bd b203 eabd 997b 4fbd
00000290: 9655 9e3d 184e 813d 5ad9 8fbc a05d 263d
000002a0: 2206 613b 2b0c 8b3d 81ab 3e3d fee4 ad3d
000002b0: d1c1 c23d f192 8abd 46b8 85bd 66ed 8bb9
000002c0: 19f7 58bd ee05 383d fcad 913d f971 7b3d
000002d0: 6279 dd3d 9089 2f3d 25ac 7cbd ab2d 43bd
000002e0: 881f d23c ce8e aebd cd39 83bd 5a5c 993d
000002f0: 18da 2e3d 7661 61bd b3e7 df3b 7d53 783d
00000300: 6618 33bd f3ac 07bd ea1f 98bc 17f3 6bbd
00000310: d055 cc3d 3fd6 04bd 9b82 ff3c accc 4d3d
00000320: 9910 e43d fb3b 643e daf1 bf3d 1e65 bc3d
00000330: e2df 643e 7ee9 383e ac99 2c3e 6631 733e
00000340: f0d3 803e 6090 223e 4e84 233e 6264 003e
00000350: 672f b33d 83eb 1b3e 39e9 fe3d bd52 343e
00000360: fc6c cc3d 4bcb 5d3e 674c 233e ee60 183d
00000370: 209c 413e af52 b83d e840 d93d 668c 0e3e
00000380: f709 043e eee2 103e 0990 053e dc4c 4a3e
00000390: 83e2 303d 50b8 a83d 85d0 003d cbbb 233c
000003a0: ca82 a53c 68f8 2f3e ffcf 6e3d e744 223e
000003b0: 52b4 febc 9792 95bc a2bd be3d b9e3 d03d
000003c0: 29e2 1dbc 3fe4 cabb 104e eb3d f5e3 aebc
000003d0: 3969 a9bd 1620 613d 9edc 0e3d 2f6f fd3c
000003e0: fa79 79bd ce38 3dbd d906 dbbd 6245 50bd
000003f0: 5e51 0dbe c6ac 06be 87fc 51bd c855 9bbd

edge_encoder.layers.0.bias f4 [64]
0.058866613 0.060630854 0.05333697 -0.053423714 0.070116 0.043746542 -0.036488142 -0.06646489
0.051350582 0.09884408 0.004834693 0.09654497 -0.06808513 0.0834722 0.011969025 0.015292756
0.035553005 0.030713025 -0.06263824 0.092447504 0.020545077 0.108324766 0.09234975 0.024882577
-0.00085332204 0.024712488 -0.059009757 -0.066004395 -0.069697194 -0.017046653 -0.09496 0.06992656
-0.024012595 0.0064030234 0.04601723 0.05959915 0.03728108 0.104220554 0.05414348 0.019280085
0.08970646 0.012930853 -0.06962302 0.05679302 0.030657342 0.035734143 -0.01644246 -0.010286114
0.0005361151 0.13767807 -0.021448713 -0.07448777 -0.024890942 0.0032526325 -0.01479784 0.05351673
-0.0029315809 0.10045664 -0.030150851 0.1099922 -0.048193667 0.045254905 0.071005784 0.051811416
00000000: 1e1e 713d 0f58 783d de77 5a3d d3d2 5abd
00000010: fa98 8f3d 932f 333d 9774 15bd bf1e 88bd
00000020: fd54 523d c46e ca3d 586c 9e3b 5fb9 c53d
00000030: 3770 8bbd 79f3 aa3d bb19 443c 788e 7a3c
00000040: 07a0 113d e299 fb3c 7a48 80bd 1e55 bd3d
00000050: 264e a83c 60d9 dd3d de21 bd3d 8cd6 cb3c
00000060: 79b1 5fba d871 ca3c 37b4 71bd 502d 87bd
00000070: 67bd 8ebd 6ca5 8bbc 637a c2bd a835 8f3d
00000080: 10b6 c4bc 74d0 d13b 907c 3c3d 3d1e 743d
00000090: 0cb4 183d 9671 d53d 8ec5 5d3d 45f1 9d3c
000000a0: 05b8 b73d eedb 533c 8496 8ebd cc9f 683d
000000b0: 1b25 fb3c f75d 123d 56b2 86bc 1787 28bc
000000c0: 138a 0c3a 7bfb 0c3e 36b5 afbc 0b8d 98bd
000000d0: 17e8 cbbc 1e2a 553b a472 72bc 5c34 5b3d
000000e0: c41f 40bb 36bc cd3d ebfe f6bc 9743 e13d
000000f0: b966 45bd 355d 393d 7b6b 913d 3538 543d

edge_encoder.layers.2.weight f4 [32, 64]
0.024456745 -0.13529004 -0.02998027 0.12236733 0.036001854 -0.01734815 -0.08772742 -0.04722101
-0.13368881 0.1214333 -0.04521704 0.09691616 -0.059628848 0.07034659 -0.07840456 -0.06325133
-0.021134354 0.099932194 0.06627823 0.0009897333 -0.10536737 -0.10337569 0.019011749 -0.09200276
-0.06165933 -0.020159358 0.1302936 0.11341672 0.101610415 -0.0008237078 -0.04999817 0.05709851
0.058854736 -0.108799204 0.08548603 0.11918655 -0.15048288 0.102469586 0.12653293 0.024952022
0.0045848927 -0.041701116 0.025415543 -0.0579038 -0.1921265 0.018092338 -0.053017426 -0.04802863
-0.0065508718 -0.2111122 0.034855906 -0.055800796 -0.043624565 -0.15501386 -0.099652626 -0.042572174
0.05101139 -0.045899577 -0.07337696 0.05879261 -0.024058932 0.13667773 0.09507468 0.07788607
0.09439061 0.052802876 -0.14079145 0.05612459 -0.06200093 0.08809473 -0.11695252 0.07402302
-0.084118895 -0.12942913 0.03254241 0.100713715 -0.049715843 -0.0004795848 0.07807931 0.1050309
0.019175172 -0.0552798 0.08770062 -0.10074002 -0.062197793 0.04532777 0.05651619 -0.053493924
-0.093741104 0.009784858 -0.035537995 -0.119976394 0.02264508 0.101164185 -0.035226267 0.03768868
0.094638854 -0.08898489 0.039757095 0.11445044 -0.008965461 0.07643282 0.053396992 0.10317823
0.0021307503 0.059438296 0.038003787 0.013669964 -0.04885173 0.11043109 0.0058495733 0.014473987
-0.0049190824 -0.10625258 0.0015376251 0.046062 0.02915761 -0.06805953 -0.03953795 -0.113079384
0.032176808 0.0041406597 0.07111453 -0.093713984 -0.025094057 -0.005525621 -0.104128234 -0.018073214
-0.11888566 0.049508438 -0.076477386 -0.003611326 0.104547575 -0.087114595 0.08762399 0.096218504
-0.07230413 0.12516491 -0.073185086 0.09482331 0.06834312 -0.056365192 -0.028376658 0.08877425
-0.022238113 -0.010027886 -0.044780903 -0.021538455 -0.038821667 0.015782159 0.0006699858 -0.0021220467
0.06519573 -0.09535394 0.007656321 0.04742297 0.06639164 0.12721476 -0.0058107516 -0.08704602
-0.09166603 0.088346764 0.0041991514 -0.09174879 -0.0056682294 -0.06078973 0.025297416 0.00522477
-0.06863439 0.051861156 -0.054341156 0.12337059 -0.13316461 0.027069153 -0.07406488 0.008991968
-0.015892375 0.096600644 -0.040740915 0.050172657 0.064655714 -0.11585127 -0.042145364 0.019711731
-0.08892098 0.06458671 0.0011421723 -0.059476767 -0.13054897 0.009862143 0.09424516 -0.0712984
-0.036454786 -0.012243535 -0.10682673 -0.09233528 -0.10167154 -0.10016118 0.052775566 0.10034072
-0.06558921 -0.11002424 -0.08398048 -0.10841057 -0.10172085 0.12676756 0.041943815 0.058933422
-0.102756955 -0.026693135 0.0657681 -0.1087522 -0.09282454 0.1158937 0.075944155 0.0068525346
0.117001854 -0.12654044 -0.06688949 0.082430415 -0.09705367 -0.11957162 0.123572096 -0.05797977
-0.106793985 0.05155922 -0.049875364 0.02162155 0.02307306 -0.026490755 0.047274087 0.013063328
0.07002822 0.12803885 0.026642293 0.08394214 0.0010830812 -0.02140032 -0.09987905 0.009633587
-0.10035004 0.02422839 0.041918315 -0.044066947 0.06003572 0.065457575 -0.07270667 -0.070579074
-0.07251996 -0.014914214 0.13647705 -0.025927208 -0.017315213 -0.06902115 -0.089639515 0.010471101
00000000: 8359 c83c 7989 0abe 2f99 f5bc b99b fa3d
00000010: ae76 133d b51d 8ebc 6faa b3bd d16a 41bd
00000020: b8e5 08be 06b2 f83d 8135 39bd fb7b c63d
00000030: 613d 74bd df11 903d 9292 a0bd ea89 81bd
00000040: f421 adbc 40a9 cc3d e1bc 873d f0b9 813a
00000050: d9ca d7bd a2b6 d3bd 87be 9b3c f16b bcbd
00000060: 7e8e 7cbd 3d25 a5bc af6b 053e 0647 e83d
00000070: 1f19 d03d 18ee 57ba e2ca 4cbd 21e0 693d
00000080: aa11 713d 1ed2 debd 4d13 af3d 1418 f43d
00000090: 2f18 1abe 93db d13d d991 013e 2f68 cc3c
000000a0: de3c 963b cace 2abd 4234 d03c 892c 6dbd
000000b0: cfbc 44be 6236 943c cd28 59bd abb9 44bd
000000c0: b2a8 d6bb cc2d 58be 11c5 0e3d 608f 64bd
000000d0: acaf 32bd f4bb 1ebe ad16 ccbd 2960 2ebd
000000e0: 52f1 503d 3201 3cbd a946 96bd 85d0 703d
000000f0: 3d17 c5bc 3ff5 0b3e 84b6 c23d bb82 9f3d
00000100: dd4f c13d d447 583d a22b 10be e6e2 653d
00000110: b0f4 7dbd 036b b43d ce84 efbd 6299 973d
00000120: 8746 acbd 1289 04be 314b 053d fe42 ce3d
00000130: d7a2 4bbd c870 fbb9 0ce8 9f3d 711a d73d
00000140: 4015 9d3c 126d 62bd 629c b33d c950 cebd
00000150: 1dc3 7ebd 9da9 393d 857d 673d 721c 5bbd
00000160: 56fb bfbd ab50 203c 4a90 11bd 2fb6 f5bd
00000170: 2d82 b93c 2b2f cf3d 6b49 10bd 725f 1a3d
00000180: 04d2 c13d b63d b6bd 56d8 223d fe64 ea3d
00000190: dee3 12bc cf88 9c3d ceb6 5a3d 1c4f d33d
000001a0: 0fa4 0b3b 9275 733d dca9 1b3d fcf7 5f3c
000001b0: c018 48bd b229 e23d c7ad bf3b 4d24 6d3c
000001c0: 4130 a1bb f49a d9bd 238a c93a 82ab 3c3d
000001d0: f1db ee3c cb62 8bbd 8cf2 21bd 2a96 e7bd
000001e0: d4cb 033d 5fae 873b 7fa4 913d 1eed bfbd
000001f0: 0d92 cdbc 4510 b5bb 2f41 d5bd 470e 94bc
00000200: 537a f3bd 5cc9 4a3d 2da0 9cbd ffab 6cbb
00000210: 0a1d d63d 2369 b2bd 3574 b33d 350e c53d
00000220: 3014 94bd 3b2b 003e 10e2 95bd b932 c23d
00000230: 7af7 8b3d 30df 66bd 2a76 e8bc 46cf b53d
00000240: b42c b6bc 014c 24bc 2e6c 37bd 6a71 b0bc
00000250: 7803 1fbd 9649 813c fca1 2f3a 0912 0bbb
00000260: 5785 853d ed48 c3bd e0e1 fa3b 973e 423d
00000270: 57f8 873d 9644 023e 1e68 bebb 2f45 b2bd
00000280: 66bb bbbd 26ef b43d 0999 893b cae6 bbbd
00000290: 8ebc b9bb a7fe 78bd 873c cf3c 8c34 ab3b
000002a0: 3090 8cbd 5d6c 543d d594 5ebd b8a9 fc3d
000002b0: 4e5c 08be 21c0 dd3c 54af 97bd 0c53 133c
000002c0: ba30 82bc 8fd6 c53d f2df 26bd d881 4d3d
000002d0: 376a 843d 6e43 edbd 9ea0 2cbd 7f7a a13c
000002e0: 341c b6bd 0946 843d f1b4 953a e99d 73bd
000002f0: a1ae 05be d394 213c 9b03 c13d e504 92bd
00000300: 9d51 15bd 1c99 48bc f9c7 dabd 471a bdbd
00000310: 2b39 d0bd 4e21 cdbd 312b 583d 6f7f cd3d
00000320: a353 86bd 6454 e1bd f5fd abbd 5c06 debd
00000330: 0553 d0bd 5bcf 013e 47cd 2b3d 2c64 713d
00000340: 3d72 d2bd 90ab dabc 6db1 863d 79b9 debd
00000350: cb1a bebd ad59 ed3d 9c88 9b3d 3a8b e03b
00000360: ab9e ef3d d193 01be 5bfd 88bd 47d1 a83d
00000370: 13c4 c6bd f7e1 f4bd 5e13 fd3d 327c 6dbd
00000380: ceb6 dabd c32f 533d 1c4a 4cbd ad1f b13c
00000390: b703 bd3c 2403 d9bc 79a2 413d 9207 563c
000003a0: f56a 8f3d 9e1c 033e f040 da3c dbe9 ab3d
000003b0: 2df6 8d3a b94f afbc 638d ccbd 31d6 1d3c
000003c0: 5284 cdbd 9e7a c63c 8ab2 2b3d 8b7f 34bd
000003d0: 04e8 753d 9f0e 863d 3ce7 94bd c38b 90bd
000003e0: 5885 94bd bf5a 74bc a4c0 0b3e 4c65 d4bc
000003f0: a2d8 8dbc f65a 8dbd ec94 b7bd fb8e 2b3c

edge_encoder.layers.2.bias f4 [32]
-0.14224854 -0.077358805 -0.10803243 0.05495822 0.10470006 0.051840454 -0.05481428 0.06576565
0.015701175 -0.07150265 -0.105594546 -0.10288168 0.124719925 -0.01227202 0.02853675 -0.01097798
-0.073893666 -0.052027367 0.019893743 0.10767234 0.027722077 -0.05805762 0.06062763 -0.1140733
-0.057479974 0.10564752 0.0935103 0.025260758 -0.1118968 0.084550746 0.020727668 0.04111036
00000000: 9aa9 11be 4b6e 9ebd 1b40 ddbd df1b 613d
00000010: fc6c d63d a856 543d f084 60bd 24b0 863d
00000020: c09f 803c fb6f 92bd f441 d8bd a1b3 d2bd
00000030: 296d ff3d 9510 49bc e7c5 e93c fcdc 33bc
00000040: 9055 97bd a61a 55bd 34f8 a23c 5183 dc3d
00000050: 6919 e33c d4cd 6dbd ae54 783d 439f e9bd
00000060: 1f70 6bbd ba5d d83d 5482 bf3d a6ef ce3c
00000070: 262a e5bd f128 ad3d 12cd a93c 5663 283d

node_encoder.layers.0.weight f4 [64, 64]
-0.0029061665 -0.016931811 -0.2773625 -0.019868363 0.01995949 -0.14017966 -0.09736109 -0.13410169
-0.13137344 -0.0044273767 -0.088499345 0.14515051 -0.0789205 -0.034211524 -0.043417435 -0.046856716
0.089294724 0.022360299 0.062541 -0.02369288 0.042640027 0.09711313 -0.13179128 0.033225548
0.05845701 0.07985353 -0.03147781 0.04460535 -0.16923667 -0.07843681 0.19439268 -0.15443188
0.21384393 0.0018490915 0.093956515 -0.22783272 -0.1810602 0.13174292 0.1582788 0.01941677
-0.017880753 0.06975053 0.014186461 0.02599647 0.11954053 -0.08917484 0.13273987 -0.027304582
0.10371241 -0.016759427 0.04263485 -0.04151039 0.03952232 0.06341906 0.10283544 -0.016282246
0.07775488 -0.13045935 -0.12469981 -0.047289364 0.03358458 -0.06588262 0.07628983 -0.06900444
-0.0477724 -0.18770665 0.23817356 -0.084767364 -0.11644384 -0.100161865 0.03279271 0.16822089
-0.05214823 0.13075541 -0.3553291 -0.13268226 0.21625118 -0.03786106 0.11780361 -0.18761483
-0.20780249 0.13695556 -0.15138413 0.071487434 -0.017596496 0.08689148 0.27446884 0.08238966
0.12336696 -0.4062834 -0.20500702 0.113229714 0.28009975 0.20402613 -0.06525198 -0.049152546
-0.10864738 0.035966597 0.013344282 0.05921346 0.08609074 -0.08589733 -0.113866 -0.14216414
0.21993846 -0.21915503 -0.049298458 -0.10442273 0.05833648 0.08341103 0.05605891 0.0021853794
-0.11525945 0.11436211 0.05956018 0.11281158 -0.12531683 0.08200929 0.081177 0.17849776
-0.19319165 0.16517895 0.17473975 0.3026705 0.09437288 -0.0033833405 -0.15095218 0.05250235
0.07893838 0.08484784 -0.1037039 0.0912833 -0.06931799 0.0062113083 -0.10965033 0.21726125
-0.13913924 -0.15833826 -0.025021393 0.025008729 0.19245207 -0.19719522 -0.044151787 -0.06482236
-0.08969531 -0.06710574 -0.010861203 -0.022224423 -0.0029740266 0.012464926 0.027996596 -0.1213894
0.08403352 0.009328449 -0.13583833 0.07346397 0.27080062 0.046303887 -0.060592063 0.007831488
-0.08349181 0.19939388 -0.13278268 -0.028709095 0.16370621 0.025020715 0.121971935 0.05080492
0.25830433 0.09135025 0.039283507 -0.072791755 0.06232558 -0.13104616 -0.052702237 -0.0745717
0.031774957 0.032000076 0.069551356 -0.12729062 -0.20771402 -0.06493372 -0.017227812 -0.08929462
0.03295157 0.10119943 -0.017472615 -0.06478273 -0.088304944 0.007906754 -0.080326736 0.129025
0.1040833 -0.038347073 0.30790877 0.024796901 -0.15283202 0.13348408 0.03801366 0.064830065
-0.21160844 -0.0037464274 -0.1435293 -0.17704068 0.10803569 -0.15814906 0.21675466 0.09116239
-0.25178304 -0.07551908 0.0034815776 0.080126815 -0.18177982 0.102022626 0.21440195 -0.02672678
-0.05608625 -0.32379505 -0.10841276 0.2368375 0.31091404 0.12443518 -0.013373284 -0.013614275
0.07077182 0.08216915 -0.060766563 0.06138332 0.27524108 -0.076803625 -0.16805328 -0.12771495
0.025074651 -0.18876041 -0.16881688 -0.07968061 0.17948273 0.13579875 -0.14689104 -0.17280383
-0.18580066 0.06187348 0.12382597 0.1907326 -0.13504106 -0.036647197 0.10239926 0.15350313
-0.23558691 0.11956388 0.18426014 0.28401715 0.052781757 0.16176048 -0.1973345 0.041389763
00000000: 6275 3ebb 95b4 8abc 7502 8ebe fac2 a2bc
00000010: 1682 a33c 428b 0fbe 4065 c7bd f451 09be
00000020: c286 06be 8713 91bb 253f b5bd 56a2 143e
00000030: 12a1 a1bd 6221 0cbd 7bd6 31bd d4ec 3fbd
00000040: 27e0 b63d f22c b73c 7f15 803d 9217 c2bc
00000050: 4fa7 2e3d 40e3 c63d 4bf4 06be 8317 083d
00000060: 9e70 6f3d 3f8a a33d e0ee 00bd 19b4 363d
00000070: 614c 2dbe 7aa3 a0bd e00e 473e 6423 1ebe
00000080: e7f9 5a3e 375d f23a 466c c03d fb4c 69be
00000090: d867 39be 9ee7 063e d613 223e eb0f 9f3c
000000a0: a87a 92bc 5ed9 8e3d 556e 683c 8df6 d43c
000000b0: aad1 f43d 4ca1 b6bd f6ec 073e dcad dfbc
000000c0: 2c67 d43d 114b 89bc e1a1 2e3d cc06 2abd
000000d0: 28e2 213d dae1 813d 639b d23d 5862 85bc
000000e0: f33d 9f3d 2397 05be 9d62 ffbd 7eb2 41bd
000000f0: fc8f 093d 78ed 86bd d83d 9c3d 3352 8dbd
00000100: feac 43bd 2c36 40be c5e3 733e 839a adbd
00000110: 1c7a eebd aa21 cdbd a651 063d 1942 2c3e
00000120: 6299 55bd bfe4 053e b2ed b5be dcdd 07be
00000130: f370 5d3e 3314 1bbd 0543 f13d 1a1e 40be
00000140: 2dca 54be 143e 0c3e 7104 1bbe 0168 923d
00000150: 8726 90bc 29f4 b13d 2e87 8c3e e9bb a83d
00000160: d1a7 fc3d 6104 d0be 5ced 51be fbe4 e73d
00000170: 3c69 8f3e 3aec 503e d5a2 85bd 2e54 49bd
00000180: 8482 debd b651 133d faa1 5a3c d089 723d
00000190: 5850 b03d f0ea afbd 9432 e9bd 7a93 11be
000001a0: 8c37 613e 2d6a 60be 2eed 49bd 96db d5bd
000001b0: 3cf2 6e3d 67d3 aa3d 079e 653d 9538 0f3b
000001c0: 260d ecbd af36 ea3d 60f5 733d c209 e73d
000001d0: 0e53 00be 7df4 a73d 2140 a63d 1ec8 363e
000001e0: 08d4 45be ac24 293e faee 323e a1f7 9a3e
000001f0: 9246 c13d 09bb 5dbb 3593 1abe b40c 573d
00000200: 72aa a13d b4c4 ad3d b662 d4bd bdf2 ba3d
00000210: 97f6 8dbd 3b88 cb3b 5a90 e0bd bc79 5e3e
00000220: 847a 0ebe 6d23 22be aaf9 ccbc 1bdf cc3c
00000230: 2812 453e 8bed 49be 81d8 34bd 96c1 84bd
00000240: 2db2 b7bd bc6e 89bd 30f3 31bc fe0f b6bc
00000250: e3e7 42bb b039 4c3c 1e59 e53c 019b f8bd
00000260: c419 ac3d 5ad6 183c 3419 0bbe 4774 963d
00000270: 61a6 8a3e 25a9 3d3d 622f 78bd a44f 003c
00000280: c1fd aabd e92d 4c3e 2ff8 07be 562f ebbc
00000290: 9aa2 273e 3ef8 cc3c 6ccc f93d d218 503d
000002a0: 7740 843e d715 bb3d bee7 203d d813 95bd
000002b0: 1b49 7f3d f730 06be 4dde 57bd 0cb9 98bd
000002c0: 7526 023d 8312 033d f170 8e3d 7958 02be
000002d0: fcb2 54be f8fb 84bd 5721 8dbc 19e0 b6bd
000002e0: 3af8 063d a641 cf3d bb22 8fbc cfac 84bd
000002f0: 39d9 b4bd 548b 013c 5882 a4bd 211f 043e
00000300: a029 d53d d211 1dbd 38a6 9d3e df22 cb3c
00000310: ff7f 1cbe 0db0 083e 36b4 1b3d a0c5 843d
00000320: e2af 58be 9f86 75bb 58f9 12be 274a 35be
00000330: d141 dd3d d4f1 21be eff4 5d3e 59b3 ba3d
00000340: b5e9 80be bfa9 9abd 2e2b 643b 8719 a43d
00000350: 7d24 3abe 3df1 d03d 2f8c 5b3e 1ff2 dabc
00000360: b2ba 65bd 77c8 a5be 8207 debd 8885 723e
00000370: 2030 9f3e dfd7 fe3d 9e1b 5bbc 680e 5fbc
00000380: d1f0 903d 4d48 a83d 5ce6 78bd 136d 7b3d
00000390: 66ec 8c3e 384b 9dbd 2916 2cbe b5c7 02be
000003a0: 5b69 cd3c 694a 41be 55de 2cbe 962f a3bd
000003b0: 52ca 373e d40e 0b3e 9b6a 16be 7df3 30be
000003c0: 8742 3ebe 0c6f 7d3d 7898 fd3d 684f 433e
000003d0: 3448 0abe 5f1b 16bd b4b6 d13d ed2f 1d3e
000003e0: b23d 71be e8dd f43d b1ae 3c3e b26a 913e
000003f0: af31 583d 8aa4 253e 0e12 4abe 5088 293d

node_encoder.layers.0.bias f4 [64]
0.050288476 0.09841249 0.05303195 0.23508617 0.16245684 0.07759428 0.052254744 0.12165003
-0.087064646 -0.057070367 -0.001703407 0.081070825 0.08187683 0.032637496 0.17329733 -0.03788717
0.008097996 0.0835266 0.15247089 0.121523425 0.1799091 0.17249103 0.102095276 0.08278625
-0.0045715678 0.0804158 0.08042496 0.02032213 -0.059624337 0.091441736 0.06761215 0.12718211
-0.027870195 0.15013167 0.054022595 0.06833299 0.124885276 -0.025280034 0.03617648 0.12321029
-0.07445022 0.031389695 -0.08990173 -0.034816436 0.036260284 0.09158825 0.101888984 0.03928534
0.0630022 0.1896484 0.109586224 -0.017867006 0.0150187155 0.18070307 0.13772514 -0.056577574
-0.052896243 -0.041491497 -0.05331399 0.08310441 0.12512426 0.109386235 0.009541917 0.14187284
00000000: 4afb 4d3d 7d8c c93d 0838 593d 6eba 703e
00000010: 165b 263e c0e9 9e3d 1209 563d a723 f93d
00000020: f34e b2bd 9ec2 69bd db44 dfba 7608 a63d
00000030: 0aaf a73d e5ae 053d db74 313e 942f 1bbd
00000040: 75ad 043c fe0f ab3d 5421 1c3e 46e1 f83d
00000050: 173a 383e 7da1 303e 5417 d13d d68b a93d
00000060: 17cd 95bb 0ab1 a43d d7b5 a43d 987a a63c
00000070: a638 74bd ce45 bb3d 3d78 8a3d 073c 023e
00000080: 0950 e4bc 1ebc 193e cc46 5d3d 2bf2 8b3d
00000090: dac3 ff3d 1318 cfbc ca2d 143d ad55 fc3d
000000a0: 5b79 98bd 7b92 003d 661e b8bd ae9b 0ebd
000000b0: aa85 143d 9f92 bb3d 2cab d03d aae9 203d
000000c0: 4c07 813d 3133 423e be6e e03d d45d 92bc
000000d0: 0f11 763c 3a0a 393e d207 0d3e e3bd 67bd
000000e0: bba9 58bd fdf2 29bd c55f 5abd a532 aa3d
000000f0: 9320 003e e405 e03d b355 1c3c 1d47 113e

node_encoder.layers.2.weight f4 [32, 64]
0.10907493 0.050287176 0.06890758 -0.06905549 -0.023801725 -0.0149109755 -0.050626546 -0.14272694
0.06264703 -0.027351478 0.11080541 -0.096832804 -0.009456368 -0.040884625 0.14062746 0.04562819
-0.1467513 -0.016400315 0.18168771 0.0009367152 -0.039081536 -0.05187494 -0.067235306 0.13579474
0.0126108015 0.057248984 -0.09044324 0.023304 0.009644337 -0.13900685 -0.14644964 -0.061575513
-0.09144831 -0.07013299 0.07188944 -0.09767825 -0.10800727 -0.12339514 -0.0075412006 -0.09656266
-0.0051050284 0.032000538 -0.1338931 0.022307647 -0.14372396 -0.013610377 -0.12697087 -0.10891007
0.03426306 0.08786501 0.10062212 -0.09146124 0.09479854 -0.030278763 0.14175855 0.08212263
0.023089802 -0.09970861 -0.061479565 0.052739296 -0.022444688 -0.08720004 -0.061943956 -0.07091462
0.047784325 0.10115565 0.08606002 0.055008 0.016390016 0.03299584 0.0970486 -0.08685437
-0.08322489 -0.039869536 -0.1040847 0.08728564 0.0726625 0.15764554 0.019417657 -0.028421039
-0.03829646 -0.026373874 0.19414838 0.080047175 -0.10021629 -0.043890417 0.06258708 0.13680588
0.107854314 -0.012715666 -0.061414704 -0.021419587 0.067475244 -0.07917909 0.011103931 0.010767396
0.06299455 0.021595413 0.082366325 -0.022093894 -0.034593664 -0.06122381 0.10130479 -0.0332524
-0.12602259 0.03551469 -0.033858433 -0.09227897 0.06185426 -0.094130926 -0.025953699 -0.09642287
0.13721105 0.034315716 0.015462017 0.11635987 -0.09577918 -0.08155573 0.1458593 0.066437036
-0.09220756 -0.06927643 -0.13236271 0.035718527 0.08031203 -0.011678829 0.051115774 -0.071165726
0.12986428 -0.07699821 -0.057260517 -0.02530717 -0.042034186 0.031896353 0.10269323 -0.07502977
-0.08891686 -0.011682601 0.011609686 -0.01713525 0.14105992 -0.061010018 -0.04801797 0.0035880138
0.12868987 -0.08132077 0.10267977 0.056990176 -0.13821068 0.12047082 0.13805136 0.16023473
0.020862417 0.13836774 -0.03447935 -0.02332409 0.027640956 -0.14482917 0.012203543 0.038553063
0.14703134 0.14447713 0.017562661 -0.054580357 0.073838875 0.043735754 -0.04763247 0.14926119
-0.061627638 0.027799869 -0.14268415 -0.14435974 0.14899467 -0.010350754 0.13627525 -0.045938376
0.16359362 0.00017923558 0.040802617 0.037140537 0.13857159 0.09235848 -0.05491088 -0.0108937565
0.15011342 0.1079347 -0.09662379 0.00955471 0.09714875 0.14423825 -0.00500033 0.028304515
0.12212776 -0.08222263 0.04850373 -0.25732592 0.106834315 -0.18399726 -0.099186435 -0.031946737
-0.09568836 0.056137722 -0.1771585 -0.13841774 -0.10638833 0.061993342 0.11319857 -0.016936772
0.08984907 -0.036577374 0.08885957 0.16395196 -0.070738845 0.1340331 -0.042908076 0.18582053
-0.14679629 0.12656055 0.117042 0.063153274 0.13077621 -0.0504355 -0.025859255 -0.0070506283
0.027521418 0.0064232633 0.011993341 0.030094407 0.12788376 0.18756291 0.06834887 -0.02183319
-0.08370785 0.1341193 0.13524035 -0.097951084 0.14805521 0.17084806 0.019473147 0.089590706
0.1711655 0.06289893 -0.02125641 0.025468385 0.14089888 0.10144124 0.0073144957 0.08401602
0.17022346 -0.08704463 0.07997563 -0.051057924 -0.03274508 -0.017314794 0.071886204 -0.06938557
00000000: ad62 df3d edf9 4d3d 6b1f 8d3d f76c 8dbd
00000010: d6fb c2bc 2a4d 74bc c85d 4fbd 0327 12be
00000020: 164d 803d 3510 e0bc f2ed e23d 4750 c6bd
00000030: e2ee 1abc a376 27bd a500 103e a0e4 3a3d
00000040: f945 16be f459 86bc 580c 3a3e e58d 753a
00000050: f613 20bd d17a 54bd aab2 89bd c70d 0b3e
00000060: 899d 4e3c e97d 6a3d 4e3a b9bd 08e8 be3c
00000070: 4803 1e3c d057 0ebe e5f6 15be 9b36 7cbd
00000080: 4049 bbbd e3a1 8fbd c53a 933d 890b c8bd
00000090: ea32 ddbd 97b6 fcbd 2d1c f7bb a5c2 c5bd
000000a0: 1548 a7bb ff12 033d 461b 09be 87be b63c
000000b0: 602c 13be 0ffe 5ebc a704 02be 3e0c dfbd
000000c0: 6c57 0c3d 92f2 b33d f812 ce3d 0850 bbbd
000000d0: bd25 c23d 2b0b f8bc 2729 113e e92f a83d
000000e0: d326 bd3c 0734 ccbd ffd1 7bbd 2905 583d
000000f0: ecdd b7bc ef95 b2bd f2b8 7dbd af3b 91bd
00000100: 7fb9 433d b22a cf3d 3c40 b03d 1250 613d
00000110: 5b44 863c a526 073d 6bc1 c63d b4e0 b1bd
00000120: d071 aabd 3d4e 23bd 5c2a d5bd d0c2 b23d
00000130: 14d0 943d d56d 213e c711 9f3c 3dd3 e8bc
00000140: c0dc 1cbd 060e d8bc d5ce 463e c6ef a33d
00000150: 333e cdbd 70c6 33bd a82d 803d d716 0c3e
00000160: b9e2 dc3d 5e55 50bc fc8d 7bbd 2178 afbc
00000170: 7630 8a3d a628 a2bd 43ed 353c bb69 303c
00000180: 4903 813d dde8 b03c adaf a83d 41fe b4bc
00000190: 16b2 0dbd d1c5 7abd e378 cf3d ab33 08bd
000001a0: 110c 01be da77 113d 24af 0abd c2fc bcbd
000001b0: e45a 7d3d b7c7 c0bd da9c d4bc 5b79 c5bd
000001c0: 0e81 0c3e a38e 0c3d 6654 7d3c 154e ee3d
000001d0: e027 c4bd b106 a7bd 245c 153e 2410 883d
000001e0: 51d7 bcbd cde0 8dbd 178a 07be 974d 123d
000001f0: a27a a43d 8f58 3fbc c65e 513d 56bf 91bd
00000200: 24fb 043e 3db1 9dbd 018a 6abd fb50 cfbc
00000210: 0a2c 2cbd c0a5 023d d450 d23d 35a9 99bd
00000220: 0b1a b6bd 6168 3fbc 8d36 3e3c 395f 8cbc
00000230: 0372 103e a4e5 79bd 7eae 44bd e224 6b3b
00000240: 47c7 033e 818b a6bd c549 d23d 886e 693d
00000250: 1a87 0dbe 68b9 f63d 565d 0d3e 9314 243e
00000260: a9e7 aa3c 46b0 0d3e 383a 0dbd 2912 bfbc
00000270: 496f e23c 194e 14be 5ff1 473c d1e9 1d3d
00000280: 628f 163e d0f1 133e 92df 8f3c a78f 5fbd
00000290: d638 973d 4324 333d 441a 43bd edd7 183e
000002a0: 436d 7cbd 8dbc e33c cb1b 12be 0ad3 13be
000002b0: 0f92 183e 3596 29bc bd8b 0b3e e129 3cbd
000002c0: 1685 273e 2ff1 3b39 a520 273d ad20 183d
000002d0: b6e5 0d3e 7126 bd3d 3bea 60bd ba7b 32bc
000002e0: 55b7 193e de0c dd3d b2e2 c5bd 5c8b 1c3c
000002f0: edf5 c63d 31b3 133e cfd9 a3bb dfde e73c
00000300: 1e1e fa3d 5764 a8bd d9ab 463d 39c0 83be
00000310: f3cb da3d c769 3cbe 4222 cbbd 95da 02bd
00000320: 42f8 c3bd abf0 653d 0a69 35be 61bd 0dbe
00000330: 20e2 d9bd bbec 7d3d a7d4 e73d fcbe 8abc
00000340: ca02 b83d 28d2 15bd 02fc b53d 06e3 273e
00000350: 87df 90bd f93f 093e 61c0 2fbd bd47 3e3e
00000360: c451 16be 1799 013e b7b3 ef3d 8156 813d
00000370: 33ea 053e 7495 4ebd cad6 d3bc f508 e7bb
00000380: 9974 e13c 3d7a d23b b87f 443c 8c88 f63c
00000390: f6f3 023e 7e10 403e 7efa 8b3d 85db b2bc
000003a0: 056f abbd 9256 093e 727c 0a3e 949a c8bd
000003b0: c99b 173e cbf2 2e3e 2686 9f3c 557b b73d
000003c0: 0246 2f3e 27d1 803d ec21 aebc 13a3 d03c
000003d0: cc47 103e 6dc0 cf3d 70ae ef3b 9710 ac3d
000003e0: 0f4f 2e3e 7444 b2bd 43ca a33d 1d22 51bd
000003f0: b41f 06bd c1d7 8dbc 1339 933d 061a 8ebd

node_encoder.layers.2.bias f4 [32]
-0.060311176 -0.0030333379 -0.018278765 0.07446009 0.045984738 -0.042085785 -0.008086614 -0.06325603
0.07682752 0.07434207 -0.065711126 0.114528 0.07409166 0.0093114255 0.07130039 -0.018607909
0.030689258 0.08860673 0.077074535 -0.0110234 0.001839013 0.038041662 -0.054210037 0.098545164
0.06924386 0.11029104 0.113179885 0.029545395 0.027837655 0.07161169 -0.0221111 -0.10940784
00000000: da08 77bd f7ca 46bb 59bd 95bc 887e 983d
00000010: 7e5a 3c3d 2562 2cbd b87d 04bc 618c 81bd
00000020: bf57 9d3d a840 983d 8e93 86bd a88d ea3d
00000030: 5ebd 973d f38e 183c f005 923d 9d6f 98bc
00000040: 0a68 fb3c 7277 b53d 41d9 9d3d 7e9b 34bc
00000050: 090b f13a 93d1 1b3d 580b 5ebd 0cd2 c93d
00000060: bacf 8d3d 45e0 e13d dbca e73d 2f09 f23c
00000070: cb0b e43c 26a9 923d 5622 b5bc 3811 e0bd

state_encoder.layers.0.weight f4 [64, 2]
-0.24175642 0.14019474 0.04517906 0.5704875 -0.4327319 -0.67520136 0.2792532 -0.16261914
0.05699577 -0.31735244 -0.25107896 0.6704673 -0.10042692 0.5629025 0.638625 0.35613126
-0.037122186 0.19062176 0.51110876 0.3412432 0.29505754 0.28060746 0.22928989 -0.013255689
0.6694894 0.70575005 0.13751134 -0.3337744 -0.64177966 0.5428573 0.30478182 -0.5897059
-0.5478907 0.62687486 0.5020317 -0.15682328 0.59908575 -0.14912364 -0.27085486 -0.39337322
-0.116916284 0.28816178 0.5737613 -0.15907502 -0.25705153 0.5240112 0.11463538 0.15543605
0.40367162 -0.065985106 -0.17064382 0.18520218 -0.5047341 -0.11727596 -0.45620862 0.47502574
0.6163744 -0.27376208 0.69518214 0.45288745 -0.4974353 0.27995747 -0.0072932593 0.41464153
0.0804424 0.014782248 0.1571811 0.42468327 0.107584715 -0.23586185 0.07597155 -0.25914967
-0.037070427 -0.59231234 -0.29928797 -0.41509098 -0.587756 -0.30153954 0.18491752 0.23503156
0.020514725 -0.5091925 0.5889456 0.00060876907 0.11624126 0.18486956 0.4989177 0.32243636
0.1905684 0.5127691 0.20165396 0.3107148 -0.45078287 -0.22237165 0.21175765 0.5915856
0.18760261 0.6228381 -0.29834828 0.14705212 -0.1338809 0.41691554 -0.27063957 -0.25538537
0.33255616 0.19128616 0.058872066 -0.018770266 -0.5580486 0.52726525 0.60252357 -0.66473913
-0.37392548 0.062663846 -0.60659254 -0.09514584 -0.08624004 0.17174579 0.5836205 0.34269282
-0.6253985 -0.33310777 -0.54869235 -0.39257294 0.56171745 -0.0646944 -0.37371534 0.1721906
00000000: ff8e 77be 368f 0f3e ae0d 393d 780b 123f
00000010: 098f ddbe ffd9 2cbf 47fa 8e3e a285 26be
00000020: 6674 693d 057c a2be 6c8d 80be bfa3 2b3f
00000030: a1ac cdbd 611a 103f ee7c 233f d656 b63e
00000040: 6f0d 18bd 5a32 433e 06d8 023f 6eb7 ae3e
00000050: c811 973e c8ab 8f3e f8ca 6a3e 642e 59bc
00000060: a863 2b3f 09ac 343f c6cf 0c3e 7ae4 aabe
00000070: ac4b 24bf b2f8 0a3f 5d0c 9c3e f7f6 16bf
00000080: 9142 0cbf df7a 203f 2685 003f 4896 20be
00000090: af5d 193f deb3 18be 7dad 8abe 3768 c9be
000000a0: ce71 efbd f189 933e 05e2 123f 90e4 22be
000000b0: 429c 83be 9925 063f f4c5 ea3d a12a 1f3e
000000c0: 0cae ce3e 3323 87bd 41bd 2ebe a4a5 3d3e
000000d0: 4136 01bf 612e f0bd 2d94 e9be 9336 f33e
000000e0: b6ca 1d3f 8b2a 8cbe 75f7 313f dde0 e73e
000000f0: d7af febe 9656 8f3e 4bfc eebb e54b d43e
00000100: fcbe a43d 3e31 723c 15f4 203e 1670 d93e
00000110: 6055 dc3d c585 71be f996 9b3d 44af 84be
00000120: 29d7 17bd c8a1 17bf 463c 99be ce86 d4be
00000130: 2d77 16bf 6463 9abe 055b 3d3e 1dac 703e
00000140: 7f0e a83c 715a 02bf 24c5 163f cd95 1f3a
00000150: e60f ee3d 724e 3d3e 2472 ff3e 6116 a53e
00000160: 5d24 433e d644 033f 607e 4e3e 0316 9f3e
00000170: 03cd e6be 65b5 63be ffd6 583e 2772 173f
00000180: e61a 403e 5172 1f3f 1bc1 98be d594 163e
00000190: 1318 09be f475 d53e 4591 8abe dfc1 82be
000001a0: cd44 aa3e 85e0 433e d623 713d 1ac4 99bc
000001b0: 46dc 0ebf dbfa 063f fc3e 1a3f 582c 2abf
000001c0: 2973 bfbe e755 803d a649 1bbf d2db c2bd
000001d0: 9e9e b0bd 21de 2f3e 2768 153f 6f75 af3e
000001e0: 1e1a 20bf 1a8d aabe 1a77 0cbf 52ff c8be
000001f0: b7cc 0f3f 7f7e 84bd 9e57 bfbe bc52 303e

state_encoder.layers.0.bias f4 [64]
-0.56860316 0.19098057 -0.046158444 -0.5566241 0.6068022 0.60262334 -0.14250745 -0.27719554
0.24022299 -0.03311415 0.34906816 0.6503418 0.44930404 0.47511995 -0.42388195 0.47613004
0.0802413 -0.33912748 -0.4394622 0.05944726 -0.64742583 -0.28375044 -0.13478449 -0.5825808
-0.60648626 0.36058098 -0.5538421 -0.12537244 0.5379171 -0.03587245 0.31278506 0.6047605
-0.5403344 -0.30939806 0.6233893 0.15167889 0.049520034 0.6546701 0.45785296 -0.20890331
0.2841432 0.0420161 -0.25221515 0.020546092 0.35049576 0.19408676 -0.34111345 -0.668494
0.057186387 0.061345853 0.088995785 -0.7017255 0.45935565 0.58592117 0.009301849 0.12421892
-0.3254666 -0.68521994 0.44715264 0.122744784 0.30070695 -0.32829022 -0.41239476 -0.6737967
00000000: fa8f 11bf 6990 433e a310 3dbd eb7e 0ebf
00000010: 6457 1b3f 8645 1a3f 79ed 11be 93ec 8dbe
00000020: 04fd 753e b4a2 07bd 10b9 b23e cd7c 263f
00000030: 2e0b e63e ec42 f33e 0e07 d9be 51c7 f33e
00000040: 8d55 a43d 1ea2 adbe 3101 e1be f87e 733d
00000050: b3bd 25bf bd47 91be f204 0abe 0424 15bf
00000060: af42 1bbf 129e b83e 99c8 0dbf a261 00be
00000070: efb4 093f fdee 12bd 5d25 a03e 96d1 1a3f
00000080: 5b53 0abf 6c69 9ebe 7196 1f3f b651 1b3e
00000090: 85d5 4a3d 7698 273f b46b ea3e c0ea 55be
000000a0: 387b 913e 1319 2c3d 5822 81be 4750 a83c
000000b0: 2e74 b33e aebe 463e 6ca6 aebe 6c22 2bbf
000000c0: 463c 6a3d ca45 7b3d 6c43 b63d 48a4 33bf
000000d0: aa30 eb3e eefe 153f c866 183c 7d66 fe3d
000000e0: 8fa3 a6be 936a 2fbf 31f1 e43e 9e61 fb3d
000000f0: 43f6 993e a815 a8be 6825 d3be f17d 2cbf

state_encoder.layers.2.weight f4 [32, 64]
-0.08751272 0.088507436 -0.011780051 0.070224755 -0.10634006 -0.071550995 0.103976846 -0.057877913
-0.104210146 -0.08191858 0.10117322 0.06428413 -0.042613417 -0.062386926 -0.11588424 -0.0067632766
0.06261856 0.0458162 0.069358245 -0.049816143 0.123198554 -0.028528677 0.06843766 -0.082888685
0.11922995 -0.064797394 -0.07500198 0.10137298 -0.04802006 -0.104949854 -0.05157545 0.07142519
-0.05968954 0.0056443694 -0.10711996 -0.029914279 -0.031736057 0.063448355 0.10404122 -0.01522019
-0.08381898 0.06920235 -0.050716825 0.0546127 0.10497199 0.02392077 -0.115985 -0.028534064
-0.052475177 0.08921713 -0.06544999 0.011287306 0.0749439 0.028935215 0.05434562 0.043322377
-0.044878874 -0.107504755 -0.030679865 0.082200535 -0.026871545 -0.04578792 -0.077815704 0.06321447
-0.11359157 -0.056530345 -0.02463662 -0.10788091 -0.021393267 0.11495214 -0.012451862 0.1015584
-0.105498746 0.085056216 0.09244518 -0.059588075 0.04335764 -0.07162849 -0.032891963 0.07110685
0.05799761 -0.024230974 -0.12333083 0.05501529 -0.02614101 -0.002719255 -0.10680287 0.054430902
0.057169445 -0.03167224 -0.0457093 0.03949195 -0.0746967 -0.07730358 0.010023972 0.058544118
-0.0811799 -0.08922679 0.090824895 -0.0517912 -0.090206474 -0.119673006 0.07825996 0.02834473
-0.06496779 -0.050586097 0.11677097 -0.122491844 -0.11604585 -0.02370849 -0.10400559 0.0097336
-0.074096285 -0.044524383 -0.02700811 -0.010978731 -0.10629322 0.052021783 0.10129299 0.08232352
0.026302299 0.04200184 0.019635895 0.098368935 -0.09724449 0.072106615 -0.06859273 0.037791118
-0.09312067 -0.013071984 0.08782817 -0.023688614 0.034893602 0.0013870972 0.009225532 -0.070643365
-0.00030211388 0.023537861 0.05477551 -0.015725115 0.12766166 0.04314676 0.030170267 0.08340432
0.02950597 0.027691226 -0.08919597 -0.0709802 0.012135177 -0.020124525 0.008257108 0.044592187
-0.12042813 0.05665586 0.035003018 0.09503298 0.028430862 0.023758492 -0.112798214 -0.08144187
-0.034762315 -0.022296334 0.03122636 -0.04017715 0.06103188 -0.021408843 -0.06578438 -0.096259266
-0.075280845 -0.11780495 0.015782844 0.10489591 0.07632783 0.089683965 0.01593755 0.12050422
-0.1191908 0.09614005 0.10214823 -0.0665753 -0.012393326 -0.034849003 0.1218145 0.109876014
-0.12171232 0.047950298 -0.016148264 -0.0710566 0.114403635 -0.118545726 -0.082417764 -0.010106084
-0.1206636 -0.11971728 -0.030572785 0.0107056685 -0.07533815 -0.024921026 -0.014054007 -0.06292293
-0.0441307 -0.03679194 -0.08909512 0.08837175 0.07557118 -0.073762365 -0.037459526 0.039086483
0.10608574 -0.09385684 -0.11385211 0.06735428 -0.12980878 -0.06872664 -0.08611571 0.08187168
0.055340476 -0.10289589 -0.12387568 -0.090839334 -0.10477936 0.035320014 -0.0057098344 -0.12450567
-0.05608746 -0.015182485 -0.06268145 0.013473402 -0.12094272 -0.07605684 -0.07798746 -0.06254628
0.10989988 -0.022506667 -0.114149496 0.079053245 0.068903096 0.091069944 -0.08674933 -0.02661975
-0.051267065 0.051194318 -0.05366983 -0.07015068 -0.079693936 0.009770909 0.032896943 -0.092643626
-0.028883075 -0.0532308 -0.02498441 0.054510478 -0.10508766 -0.07890053 -0.006356555 0.08466622
00000000: de39 b3bd 6343 b53d 1d01 41bc ffd1 8f3d
00000010: d1c8 d9bd 5489 92bd d0f1 d43d 6411 6dbd
00000020: 216c d5bd eec4 a7bd e833 cf3d 66a7 833d
00000030: 688b 2ebd 6f89 7fbd b754 edbd 7a9e ddbb
00000040: 293e 803d c5a9 3b3d b20b 8e3d 030c 4cbd
00000050: 864f fc3d f9b4 e9bc 0b29 8c3d 8bc1 a9bd
00000060: d52e f43d 7fb4 84bd a39a 99bd a39c cf3d
00000070: afb0 44bd f3ef d6bd c740 53bd 5f47 923d
00000080: 057d 74bd 67f4 b83b b661 dbbd ca0e f5bc
00000090: abfd 01bd 36f1 813d 9013 d53d 1b5e 79bc
000000a0: 49a9 abbd f6b9 8d3d 72bc 4fbd 91b1 5f3d
000000b0: 8efb d63d 7ef5 c33c 8b89 edbd 45c0 e9bc
000000c0: 36f0 56bd 78b7 b63d a50a 86bd 65ee 383c
000000d0: 307c 993d 8b09 ed3c 8399 5e3d ce72 313d
000000e0: e9d2 37bd 742b dcbd 5754 fbbc c158 a83d
000000f0: b721 dcbc 1d8c 3bbd d75d 9fbd 9776 813d
00000100: b2a2 e8bd 5d8c 67bd bdd2 c9bc abf0 dcbd
00000110: ef40 afbc 076c eb3d e502 4cbc dafd cf3d
00000120: ba0f d8bd f431 ae3d e653 bd3d a012 74bd
00000130: c897 313d f5b1 92bd b9b9 06bd 78a0 913d
00000140: e78e 6d3d 0980 c6bc e094 fcbd b657 613d
00000150: ac25 d6bc 8735 32bb 77bb dabd f0f2 5e3d
00000160: 822a 6a3d c0ba 01bd ad39 3bbd 50c2 213d
00000170: 95fa 98bd 5751 9ebd 963b 243c f5cb 6f3d
00000180: a641 a6bd 89bc b6bd 6702 ba3d 0223 54bd
00000190: 2cbe b8bd 1f17 f5bd c246 a03d 3533 e83c
000001a0: d50d 85bd 5e33 4fbd 9e25 ef3d 01dd fabd
000001b0: 72a9 edbd 4f38 c2bc e200 d5bd ad79 1f3c
000001c0: cbbf 97bd 335f 36bd 1d40 ddbc 23e0 33bc
000001d0: 42b0 d9bd cb14 553d b372 cf3d 3c99 a83d
000001e0: eb77 d73c 1f0a 2c3d 75db a03c a775 c93d
000001f0: 1f28 c7bd a2ac 933d 587a 8cbd dcca 1a3d
00000200: 0db6 bebd e02b 56bc 41df b33d a00e c2bc
00000210: 98ec 0e3d 42cf b53a b026 173c 78ad 90bd
00000220: 0a65 9eb9 79d2 c03c 495c 603d f5d1 80bc
00000230: bdb9 023e a8ba 303d a327 f73c e2cf aa3d
00000240: 81b6 f13c b6d8 e23c 60ac b6bd 115e 91bd
00000250: 9fd2 463c 30dc a4bc d248 073c 4ca6 363d
00000260: 06a3 f6bd fa0f 683d 535f 0f3d a7a0 c23d
00000270: d7e7 e83c 2ba1 c23c c002 e7bd ffca a6bd
00000280: ee62 0ebd cda6 b6bc 6cce ff3c cc90 24bd
00000290: 91fc 793d 9961 afbc f6b9 86bd 9423 c5bd
000002a0: d82c 9abd b943 f1bd 064b 813c abd3 d63d
000002b0: c451 9c3d 3aac b73d 778f 823c ebca f63d
000002c0: 4e1a f4bd 13e5 c43d 1733 d13d a258 88bd
000002d0: 600d 4bbc d4bd 0ebd e179 f93d ad06 e13d
000002e0: 4f44 f9bd 8867 443d 5d49 84bc 1f86 91bd
000002f0: 744c ea3d 1ac8 f2bd a5ca a8bd fd93 25bc
00000300: 7a1e f7bd 552e f5bd c773 fabc d466 2f3c
00000310: e34a 9abd 2e27 ccbc c742 66bc bddd 80bd
00000320: 65c2 34bd 25b3 16bd 8177 b6bd 40fc b43d
00000330: 10c5 9a3d b910 97bd 296f 19bd 2619 203d
00000340: 7b43 d93d 0438 c0bd 4c2b e9bd 0af1 893d
00000350: 98ec 04be 8dc0 8cbd 6f5d b0bd 57ac a73d
00000360: b2ac 623d 15bb d2bd 88b2 fdbd f909 babd
00000370: 9096 d6bd b8ab 103d 9019 bbbb d4fc febd
00000380: f7bb 65bd f5bf 78bc 225f 80bd 8bbf 5c3c
00000390: d1b0 f7bd b0c3 9bbd e4b7 9fbd 4418 80bd
000003a0: 3013 e13d e75f b8bc 36c7 e9bd abe6 a13d
000003b0: 111d 8d3d e182 ba3d a2a9 b1bd a911 dabc
000003c0: 6afd 51bd 22b1 513d e5d4 5bbd 29ab 8fbd
000003d0: 9336 a3bd 2a16 203c f2be 063d f1bb bdbd
000003e0: 339c ecbc 8a08 5abd 1bac ccbc 6146 5f3d
000003f0: 3338 d7bd 9a96 a1bd a64a d0bb 7c65 ad3d

state_encoder.layers.2.bias f4 [32]
-0.053805098 0.06289711 -0.005373971 -0.09970237 0.12365222 -0.060725253 0.10740791 -0.0869911
-0.009202796 -0.06828162 0.036344804 -0.06848443 -0.1313551 0.019578224 -0.11408784 -0.07260235
-0.024917234 0.030406868 0.08693499 -0.13152039 -0.08333901 -0.06717003 -0.070027694 0.04952851
0.013741208 0.033086278 0.06978114 -0.06903013 -0.06981781 -0.05644799 -0.12744139 -0.11334859
00000000: bc62 5cbd 33d0 803d 2318 b0bb c230 ccbd
00000010: 603d fd3d 0bbb 78bd aef8 db3d 6428 b2bd
00000020: 53c7 16bc 3cd7 8bbd 4ade 143d 9141 8cbd
00000030: f481 06be 8362 a03c e3a6 e9bd 8ab0 94bd
00000040: 3a1f ccbc d317 f93c f90a b23d 48ad 06be
00000050: a5ad aabd 7190 89bd ae6a 8fbd 68de 4a3d
00000060: ce22 613c 7a85 073d 6ae9 8e3d ab5f 8dbd
00000070: a4fc 8ebd 0236 67bd ff7f 02be 4e23 e8bd
