training_megnet_p_u/saved_models/pbe_252_p_u/state.pt (torch, 710362 bytes, 106 tensors)

bond_expansion.rbf.centers f4 [100]
00000000: 0000 0000 62de 4e3d 62de ce3d ca26 1b3e
00000010: 62de 4e3e fd4a 813e ca26 9b3e 9602 b53e
00000020: 62de ce3e 2eba e83e fd4a 013f e338 0e3f
00000030: ca26 1b3f b014 283f 9602 353f 7cf0 413f
00000040: 62de 4e3f 48cc 5b3f 2eba 683f 14a8 753f
00000050: fd4a 813f f0c1 873f e338 8e3f d6af 943f
00000060: ca26 9b3f bd9d a13f b014 a83f a38b ae3f
00000070: 9602 b53f 8979 bb3f 7cf0 c13f 6f67 c83f
00000080: 62de ce3f 5555 d53f 48cc db3f 3b43 e23f
00000090: 2eba e83f 2131 ef3f 14a8 f53f 071f fc3f
000000a0: fd4a 0140 7786 0440 f0c1 0740 6afd 0a40
000000b0: e338 0e40 5d74 1140 d6af 1440 50eb 1740
000000c0: ca26 1b40 4362 1e40 bd9d 2140 36d9 2440
000000d0: b014 2840 2a50 2b40 a38b 2e40 1dc7 3140
000000e0: 9602 3540 103e 3840 8979 3b40 03b5 3e40
000000f0: 7cf0 4140 f62b 4540 6f67 4840 e9a2 4b40
00000100: 62de 4e40 dc19 5240 5555 5540 cf90 5840
00000110: 49cc 5b40 c207 5f40 3c43 6240 b57e 6540
00000120: 2fba 6840 a8f5 6b40 2231 6f40 9b6c 7240
00000130: 15a8 7540 8ee3 7840 081f 7c40 815a 7f40
00000140: fd4a 8140 bae8 8240 7786 8440 3424 8640
00000150: f1c1 8740 ad5f 8940 6afd 8a40 279b 8c40
00000160: e438 8e40 a0d6 8f40 5d74 9140 1a12 9340
00000170: d7af 9440 934d 9640 50eb 9740 0d89 9940
00000180: ca26 9b40 86c4 9c40 4362 9e40 0000 a040
0.0 0.05050505 0.1010101 0.15151516 0.2020202 0.25252524 0.3030303 0.35353535
0.4040404 0.45454544 0.5050505 0.5555555 0.6060606 0.65656567 0.7070707 0.75757575
0.8080808 0.85858583 0.9090909 0.9595959 1.010101 1.060606 1.111111 1.1616161
1.2121212 1.2626263 1.3131313 1.3636364 1.4141414 1.4646465 1.5151515 1.5656565
1.6161616 1.6666666 1.7171717 1.7676767 1.8181818 1.8686868 1.9191918 1.9696969
2.020202 2.070707 2.121212 2.1717172 2.222222 2.2727273 2.3232322 2.3737373
2.4242425 2.4747474 2.5252526 2.5757575 2.6262627 2.6767678 2.7272727 2.777778
2.8282828 2.878788 2.929293 2.979798 3.030303 3.0808082 3.131313 3.1818182
3.2323232 3.2828283 3.3333333 3.3838384 3.4343436 3.4848485 3.5353537 3.5858586
3.6363637 3.6868687 3.7373738 3.7878788 3.838384 3.8888888 3.939394 3.989899
4.040404 4.090909 4.141414 4.1919193 4.2424245 4.292929 4.3434343 4.3939395
4.4444447 4.4949493 4.5454545 4.5959597 4.646465 4.6969695 4.7474747 4.79798
4.848485 4.8989897 4.949495 5.0

embedding.layer_node_embedding.weight f4 [89, 64]
00000000: 5131 00c0 d8ed 50bf 53b8 c43f ee9c 81bf
00000010: 13ef 013f b10a 293f 163f 8d3f 58bc 09bf
00000020: ff86 05bf bbc8 cc3f 4e6c 77be c024 893f
00000030: 27d1 b2bd 14be 703f 95ea 82bf 467c cf3d
00000040: 201b a73e 09d9 c93f 8d8c cfbe 117d cabf
00000050: e58d 2abf 039c eabe d289 10bf 822f fbbf
00000060: 548d 0c3d 6d67 a7bf e6f0 8a3f fabc 17bf
00000070: 77bb 713f 864f 12bf 0b1c 07c0 d163 83bf
00000080: 7fc6 a4bc b1ff b6bf fc1c 723f bf7f 76bc
00000090: b11d 8cbf 2608 71be a3b8 c13f 9d1a 4b3e
000000a0: 8c62 acbf defd ccbf ef57 81bf 76d0 bcbf
000000b0: af07 6abf 9cce 8cbf 64f5 cbbf 6a7b 1ebe
000000c0: 7c99 12bf 56f3 86bf 25f6 933f 5006 da39
000000d0: 8bf0 c53f 6f8d b83f 94c2 e7bd a820 033f
000000e0: 7399 a73f 9d3c 6abf aa4a d13f ed99 8a3e
000000f0: ff19 8cbf 3de2 2d3f aa5f 83be d8c6 2f40
00000100: f0f5 e3be ecd0 8fbf 5036 85bd 28d0 95bf
00000110: cdc8 a93d 2ce5 0840 6cb7 bcbf d5f6 8cbf
00000120: 9e6e 47bf 5108 16bf dbcc 0c40 f7e9 793e
00000130: 89bb 87be 3865 97be 86f3 00be 87ea 323f
00000140: d51a 0dbf 9d5f 54bf d442 a33f f240 383f
00000150: 7d91 8cbe b652 d2bf a7f4 35be 00f7 57be
00000160: 7fea 1c3f f7c7 11bf 70a5 0a3f a4e5 433f
00000170: 36a5 09bf 9089 b93f 0ca1 a03e b23f 4dbf
00000180: 0da2 8b3f 1e8a 9bbf 26e5 0240 04df fb3e
00000190: 621f babf 7020 1f3d fce2 00c0 a481 d9bc
000001a0: e090 0d3e 3ab7 9bbe d83e c13d 3d4e 823d
000001b0: 5331 a5bf a2e3 2bbe d30e 79bf 6123 3abf
000001c0: 4be3 8b3e f69f 1dc0 5f9c 4e3f 3b56 523f
000001d0: fea2 acbe 6ff9 b0bf 46f3 e7bf cd87 cdbc
000001e0: 4b95 a7be 0447 c3bf 40ea 7f3f fb02 693f
000001f0: c8d3 e3bd 6330 d93e d533 8fbf 13ab 233e
00000200: 4cca 80bf 1260 44bf 44ff 203e acc0 e43d
00000210: 766c 523c 3c3d b2bd 7018 25c0 c0b4 cb3e
00000220: 646f ff3e 7bea d7bf e51a f9bd bcfd 3c3e
00000230: 15de 9bbf 5e17 cdbd 28ce 673f 32aa 6a3f
00000240: 71a4 a6bf 818d d4bf 9cd1 f53e 045c 0bc0
00000250: 0b53 6d3f c28b 503f a7c2 1c3e 89f5 c53d
00000260: 4107 25c0 630a b53f 21ec 55bf a541 96bf
00000270: 4513 323e 6338 da3f de74 05c0 308c b6bb
00000280: 70ef 5cbf 4fc7 8b3f 0c67 bdbd 678b f1bf
00000290: 5e2b 4bbf 19a7 5dbf 125c 8f3f 390b 3fbf
000002a0: 86e1 70be af57 603f c12d f6bd a8cc bf3e
000002b0: 813a 2f3f ae5c 48bf 60b6 93bf b530 793f
000002c0: 7b9d 5d3e ce02 0ebf 10ae f8be 4fa3 553f
000002d0: 0607 ee3e fd68 a63f cc71 6b3f 98ef 023e
000002e0: 91e0 4bc0 de0e 79bf 0da1 0d40 f197 103f
000002f0: 3c4b cf3f 8433 b63e 566e 1e3f 359b ed3e
00000300: bd8f 963f d945 adbf ab0c af3f d400 ff3e
00000310: 73ba ba3f 376e afbf a7dd 243e fef2 fd3e
00000320: 3df2 b9bf 65d2 19bf 11d1 cb3e a55d bf3f
00000330: 1edb 93bf 425f 2ebf aaec 0cbe 7e52 aebe
00000340: 8ef0 b83f f996 b93f 86fe aabe 513a 1140
00000350: ec9d dc3f 441d 5ebe f726 e13f 1516 86bf
00000360: d529 fd3e 6ac7 bb3f 818d 073f 975b ec3f
00000370: 3435 633d 1824 053f f7c1 d23e e312 0140
00000380: eade 27bf 028f 65bf 9fcc 84bf 0296 343f
00000390: b39e a0bf 5a22 b7be d413 4cbf e646 08bf
000003a0: 6ab0 74bd ccc8 0ac0 d7fd 693f b70d d23e
000003b0: a1fd aebe 5567 25be f880 2fbf 77de 2cbe
000003c0: d18e a63f 3a1e b9bb 3181 edbe 0c9a 4fbf
000003d0: 396a 9c3f a971 913e f87f 7cbf 4b12 88bf
000003e0: 4f34 0f40 c11b 883f 0b3c 66be d0cc 39bf
000003f0: 61cf debd 4fed ea3e 2b18 893f 8c87 7e3f
-2.00301 -0.8161292 1.5368751 -1.0126016 0.50755423 0.6603194 1.1034877 -0.53803015
-0.5215911 1.5998758 -0.24162409 1.071434 -0.08731299 0.94040036 -1.0227839 0.10131125
0.32637882 1.5769359 -0.4053692 -1.5819417 -0.66622764 -0.45822152 -0.564603 -1.9623873
0.03431447 -1.3078438 1.0854766 -0.5927273 0.94426674 -0.57152593 -2.1110866 -1.0264837
-0.020114182 -1.4296781 0.94575477 -0.0150451055 -1.0946561 -0.23538265 1.5134472 0.19834371
-1.3467574 -1.6014974 -1.010496 -1.4751117 -0.91417974 -1.1000552 -1.5934262 -0.15476766
-0.5726545 -1.054301 1.1559492 0.00041584903 1.5464033 1.4418162 -0.1131641 0.51221704
1.3093704 -0.9149874 1.6350911 0.2707056 -1.0945433 0.6792334 -0.25658923 2.7465115
-0.44523573 -1.1235633 -0.065045 -1.1704149 0.08290253 2.1389875 -1.4743476 -1.1012827
-0.77903163 -0.5860644 2.2000034 0.24405657 -0.26510265 -0.2956941 -0.12592897 0.6988911
-0.5511907 -0.82958394 1.2754769 0.719741 -0.2745475 -1.6431491 -0.17769109 -0.21090317
0.6129531 -0.5694575 0.5415869 0.7652228 -0.53767717 1.4495106 0.3137287 -0.80175316
1.0908829 -1.2151525 2.045236 0.49193585 -1.4540827 0.038849294 -2.013854 -0.026551075
0.13824797 -0.30413228 0.094358146 0.06362579 -1.2905678 -0.16786054 -0.97288245 -0.72710234
0.27321848 -2.4628882 0.80707353 0.8216283 -0.33718103 -1.3826121 -1.8121116 -0.025089169
-0.3273109 -1.5256047 0.9996681 0.9102017 -0.111243784 0.4241973 -1.1187693 0.15983228
-1.0061736 -0.7670909 0.15722376 0.11169562 0.012843242 -0.08703086 -2.5796165 0.3978634
0.49889672 -1.6868433 -0.12163333 0.18456167 -1.2177149 -0.100142226 0.90548944 0.9166595
-1.3018934 -1.6605684 0.48011482 -2.1774912 0.9270484 0.81463253 0.15308629 0.09665973
-2.5785677 1.4143795 -0.8356343 -1.1738783 0.17390163 1.7048458 -2.085258 -0.005570911
-0.8630285 1.0920199 -0.0924817 -1.8870667 -0.7936305 -0.86583096 1.1199973 -0.746265
-0.2352353 0.87633795 -0.120204456 0.37460828 0.68448645 -0.7826642 -1.1540031 0.97339946
0.21642105 -0.5547303 -0.485703 0.83452314 0.46489733 1.300079 0.91970515 0.1278671
-3.1855814 -0.9728831 2.2129548 0.56481844 1.6194835 0.35586178 0.6188711 0.46407476
1.1762615 -1.3536941 1.3675741 0.4980532 1.458815 -1.370551 0.16100179 0.4959945
-1.452705 -0.6008666 0.39807943 1.4950453 -1.1551244 -0.681141 -0.13762155 -0.34047312
1.4448411 1.4499198 -0.3339731 2.2691844 1.7235694 -0.21690851 1.7590016 -1.0475489
0.49445978 1.4670231 0.5295029 1.8465451 0.05547066 0.520082 0.41163608 2.0167778
-0.65574515 -0.8967134 -1.0374945 0.70541394 -1.2548431 -0.35768396 -0.79717755 -0.5323318
-0.059738554 -2.1685057 0.91402954 0.4102609 -0.34177878 -0.161527 -0.68556166 -0.16881739
1.3012334 -0.0056493552 -0.46387628 -0.8109443 1.2219917 0.28407028 -0.98632765 -1.0630583
2.2375677 1.063347 -0.22483842 -0.72578144 -0.10879398 0.45884177 1.07105 0.9942558

edge_encoder.layers.0.weight f4 [64, 100]
00000000: db7a 56bc 71b3 22be 1f4f 45be eab4 adbd
00000010: fdf4 d4bc 3f65 41be 17e4 37be e461 2bbe
00000020: 940a 63bd 3ae8 9dbd bb4c 20bd 9236 6abd
00000030: 4029 94bd 2696 c33c 378c 88bd 61d4 d6bd
00000040: ad2f 1fbd 64ff 4abd b2d6 373d 29f5 cc3c
00000050: 4eb4 ecbd 64f4 dcbd d4a4 86bd 3877 343d
00000060: 0b65 d9bd 08f0 a5bd 8ef8 f7bb 5539 cfbc
00000070: e35b ddbd 4e38 6c3d cd4c 143c e4d5 863d
00000080: 9138 a4bd 2a83 603c 9f27 0a3d 3f4c abbd
00000090: 64ff fa3b 02f5 823d 2ab5 a5bc 9836 d3bd
000000a0: 238a a7bd 62a9 963d e240 703d f87d c23c
000000b0: 66a7 6bbd d741 703c 37eb acbd 2f27 f63c
000000c0: ab91 8ebd a687 6ebd ecd7 f63b 1058 303d
000000d0: c793 8ebd 14a8 833d 1039 8abd 7039 e73c
000000e0: 8570 c83d 027f 8cbb 3525 b43d 6f5e 0bbd
000000f0: 8a1d 723d 9ee8 6ebd 765d 20bd d576 8f3d
00000100: f5e0 58bb dfbb dd3d 20ca 9b3d ff43 85bc
00000110: 7082 9f3d b411 cdbb bcc7 923d e39d 493d
00000120: 3a86 3a3d e3a7 86bc c7f7 d43c 06b2 17bc
00000130: 59c2 a43c c483 353d 9e91 7abd 43bd 08bc
00000140: 7c5c fc3d 78f7 dd3d 9c3e dbbb b954 c03d
00000150: a54d bb3d 7c29 433d 3a1e 063d 2187 58bd
00000160: 1a61 67bd 0201 953d ac3e bf3d e8f3 3d3c
00000170: 7612 9e3b ea7d 663d 62c1 aabb f1ae 5f3c
00000180: 734c aebd 1a52 7cbd fca9 c03c ab68 7cbd
00000190: ad07 87bd 78a8 5bbe 7cbc 6cbe 6a55 10be
000001a0: 2bf9 20bd d29f 43be 0adb 63be 144c ebbd
000001b0: 86c1 45be 39ec 1cbe 3731 1abe 0e98 f3bd
000001c0: 1f76 03be bead a3bd b7a0 21be 6620 1fbe
000001d0: b82c cebc 4f85 d4b9 0f55 c2bd 3d68 d5bb
000001e0: e3d3 4cbd 6c01 eebd 35a3 86bd aba6 08be
000001f0: 825e a9bd 534a c4bd cd59 223d 6dc8 05bd
00000200: 5753 873c 3c58 c63c e1cb 0cbd 9c2f c1bd
00000210: f9d6 c2bd 3c7e 753d c3fb d1bc b208 883b
00000220: 877e 503c e066 33bc 13d1 abbd eb32 75bd
00000230: 38af 24bd 0a6e e3bc 4a6e 993d c2f4 cf3d
00000240: 8676 51bd 931a 6cbd 871d 41bd 21ea 1e3d
00000250: 5ec3 243d f40f 3b3d 8521 933d e0fb d03d
00000260: cf08 88bd 80ae 48bc 62e8 d43d d23d 603d
00000270: ab08 61bd 96ca 993d c7c1 afbc f2fa 29bd
00000280: dc9c cc3d ec46 d33d 305d 2a3e 884b 123e
00000290: cf53 e73d becf 1d3e 7f9c 013e dcb8 213d
000002a0: 66a4 2d3d 2378 af3c 0a2a dd3d caa5 d83d
000002b0: 1b6b 6ebc 0c76 0d3d c1c4 d23d a936 1b3e
000002c0: a46b b4bb 31d7 dd3d cc84 233e da0c bd3d
000002d0: 9629 173e 76de 003e 5bda 153e a327 ff3d
000002e0: 907f 163e 3109 c53d 08cf 79bb f0a8 843d
000002f0: f79d 7f3c ca5f 35bd 5466 37bd f2be 1b3a
00000300: e649 af3d 36d5 3dbc 77ba 153c 1bab 043e
00000310: 7946 f43d 2e84 0bbd 78ca c93d d010 02bd
00000320: 0bc0 843d 33c3 713e 8ee8 4f3e 1615 6e3e
00000330: 1ab4 a43d 8e4b 0d3e d788 df3d 990a 3e3d
00000340: f40f 3a3d 07ce 243e 543d ca3d 4d6a f53d
00000350: f492 943d 2b0c ce3d 49b5 5c3e 0e77 463d
00000360: 0a9a 0d3e 237c 1d3e f8ec 293e e97f e13d
00000370: 8b8d 8e3d 768a 7f3d eb85 4f3c af09 c03d
00000380: 9810 393e 2c81 873c 9e70 d43d fc54 123e
00000390: 67e5 9b3d 0830 663d 9c7c 253e 753c d43d
000003a0: 424f 03bd 67a9 2dbb cba2 2b3b 0d2b 293d
000003b0: c380 fe3d bbaf c93d b0da 8cbd 0e39 db3d
000003c0: 27d2 00bd f2c6 82bd 24e6 b13d 66d4 843d
000003d0: f67a 8f3d 7c82 a7bd 9eea 47bd 1786 63bd
000003e0: c083 11bd 9d72 e3bd f8fc 2f3d c6d3 f5bd
000003f0: b893 64bc 71b6 d5bd 6dfd d6bb 764a 17be
-0.013090814 -0.15888764 -0.19268464 -0.08481772 -0.025995726 -0.18886279 -0.17958103 -0.16736561
-0.05543001 -0.07710309 -0.039135676 -0.05718095 -0.0723443 0.023875307 -0.06667369 -0.10489727
-0.038863827 -0.049559966 0.044882484 0.025019245 -0.11557828 -0.10788801 -0.06574407 0.04405901
-0.106149755 -0.08102423 -0.007567472 -0.025295893 -0.108085416 0.057670884 0.009051514 0.06583765
-0.08018602 0.013703147 0.033729192 -0.08364152 0.0076598395 0.06394388 -0.020227987 -0.10313147
-0.08180644 0.07356526 0.058655627 0.023741707 -0.05753269 0.014664135 -0.08443301 0.030047981
-0.06961378 -0.058234833 0.007533064 0.043052733 -0.0696178 0.06428543 -0.06749165 0.02822563
0.097870864 -0.0042876014 0.08796159 -0.034025606 0.059110202 -0.05832731 -0.03915163 0.07005087
-0.003309307 0.10826849 0.07606912 -0.016267775 0.07788551 -0.006258214 0.071670026 0.049222838
0.045538165 -0.016437477 0.025997056 -0.009258753 0.020112203 0.044315115 -0.061174028 -0.008345905
0.123223275 0.108382165 -0.006690813 0.093911596 0.09145669 0.047646984 0.03274367 -0.052863244
-0.056489088 0.07275583 0.093381256 0.011593796 0.004823978 0.056272425 -0.0052110413 0.013652549
-0.08510675 -0.061601736 0.023518555 -0.061623257 -0.06593261 -0.21450984 -0.23118776 -0.14095083
-0.039300125 -0.19103935 -0.22251526 -0.1148912 -0.19312105 -0.15324487 -0.15057836 -0.118942365
-0.12838028 -0.07992123 -0.15783964 -0.15539703 -0.025167808 -0.00040535114 -0.0948888 -0.0065126703
-0.05000676 -0.11621365 -0.06574098 -0.13344829 -0.08269979 -0.09584489 0.039636422 -0.032661844
0.016519232 0.024211995 -0.03437412 -0.09432909 -0.09513659 0.05993484 -0.025632745 0.004151427
0.012725479 -0.01094982 -0.08389487 -0.059863012 -0.040206164 -0.027762432 0.07491739 0.10154106
-0.051138423 -0.05764253 -0.0471473 0.0387975 0.04022538 0.04566951 0.07184128 0.10204291
-0.06642305 -0.012248635 0.10395886 0.054746456 -0.054939907 0.07509343 -0.021454705 -0.041499086
0.09990856 0.10316262 0.1663711 0.14286625 0.11295282 0.15411279 0.12657355 0.039482936
0.04239311 0.02141959 0.10799034 0.10578497 -0.014551903 0.034536406 0.10291434 0.1515757
-0.005505996 0.1083206 0.15968627 0.09230967 0.14761958 0.12584862 0.14634077 0.12458732
0.14697099 0.09620894 -0.0038117785 0.06477535 0.015601627 -0.044280805 -0.044775322 0.0005941234
0.08559017 -0.011586478 0.009138695 0.12955897 0.11927504 -0.034061603 0.09853071 -0.031754315
0.06481942 0.23609619 0.20303556 0.23250231 0.08042164 0.13798353 0.10914772 0.046396825
0.04542537 0.16094218 0.09874979 0.11983166 0.072545916 0.100609146 0.2155353 0.048453383
0.13828292 0.15379386 0.16594303 0.11010725 0.06960591 0.062387906 0.012666206 0.09376847
0.18072736 0.016541086 0.103730425 0.14290231 0.076121144 0.05619815 0.16160816 0.10363094
-0.032058008 -0.0026498677 0.0026189561 0.041300822 0.12426903 0.09847971 -0.06877649 0.10704242
-0.031450417 -0.06385602 0.08686474 0.06485824 0.07005875 -0.08179185 -0.048807733 -0.0555478
-0.035526037 -0.11105845 0.04296586 -0.12003283 -0.0139512345 -0.104351886 -0.0065609724 -0.14774498

edge_encoder.layers.0.bias f4 [64]
00000000: abe0 a3bc a78b 21bc 0322 5cbd 3003 26bd
00000010: 65b6 17bd ec05 9ebd 48bf 42bd 7783 083c
00000020: 4605 59bb 72a1 24bd 3035 e13d 9722 603d
00000030: 7933 053d 3f99 d13d b12b 1abd ef4b df3c
00000040: c8f1 783d f52a 70bc a382 f4bb a317 333a
00000050: ccbe 373d f756 e43b 4268 0d3c 769a 053e
00000060: 3733 23bd a52a e23d 9aec 2aba af14 9ebc
00000070: 214d f3bc a540 f43d 4c5c a8bc ebd2 a43c
00000080: 927e 393c 0442 50bd 10fa 57bc 64b2 c93d
00000090: 044d 193c 13d5 2dbd f123 e43c 9d95 cd3c
000000a0: ad66 44bc 8049 4cbd 3eb5 bd3d 0945 073d
000000b0: 162e 803d 3cc9 cdbc 5d50 0abc 8cb0 40bc
000000c0: 54bb 2dbd c0eb a3bd 90c7 47bd 0797 90bc
000000d0: 5871 11bd e2b5 2cbd ec75 a13d ba21 0dbd
000000e0: c879 e13d b1dc 53bd 4f6e 9f3d 9502 093e
000000f0: 2a27 353c 47c8 ddbc 08e6 663d feef 853d
-0.020004591 -0.009859956 -0.053743374 -0.040530384 -0.03703918 -0.07715973 -0.0475457 0.008332125
-0.0033114715 -0.04019303 0.10996473 0.054720487 0.03251979 0.102343075 -0.037639324 0.027257888
0.060777456 -0.014658679 -0.007461862 0.000683183 0.044859692 0.006968375 0.008630814 0.13047203
-0.039843764 0.1104329 -0.0006520242 -0.019296972 -0.029699864 0.119263925 -0.020551823 0.020120105
0.011321681 -0.050844207 -0.013182178 0.098484784 0.009356741 -0.04243953 0.02784917 0.025095755
-0.01198737 -0.049874783 0.09263085 0.03302482 0.0625879 -0.02512037 -0.008442012 -0.011760842
-0.04241498 -0.0800395 -0.048774302 -0.01765014 -0.035508484 -0.042165644 0.0788382 -0.034455992
0.11009556 -0.05172414 0.077847116 0.13379891 0.011056701 -0.027073039 0.05637172 0.065399155

edge_encoder.layers.2.weight f4 [32, 64]
00000000: c219 de3d 2102 84bd 8f9b 9abd 24d9 75bc
00000010: 779b b0bd c658 d03d 507c a2bd 50f7 18bd
00000020: 3440 e9bd 9f74 17be 94ec f53d 4ebe d33d
00000030: bfd5 9fbd de13 20bd 5f06 f1bd fda8 05be
00000040: bf99 05be 3077 06bc b268 bbbc f3a3 d93d
00000050: 22a7 883d 69d9 5abd dca0 473d 6475 e23c
00000060: 44af 1f3d bedb 6abd 9120 2abd e609 fcbd
00000070: eda4 92bd c655 adbd 3e74 993d 2798 2a3d
00000080: 9cce 7a3d 8a92 9dbd 7605 a93d 2b90 8cbc
00000090: c998 9d3d 6255 183d 63bf dabd e973 21be
000000a0: 34b3 183e 86e3 f43d 8b0d 51bd 306f a9bd
000000b0: d050 af3d 068e ae3d edef fc3c f5e0 083e
000000c0: 1fdb 453d 7f64 bdbd 9923 183d 1fb2 99bd
000000d0: 819c babd b125 fc3c bb98 09bd 3e66 81bd
000000e0: eee8 88bd 3610 f73d 0133 65bd 286b 89bd
000000f0: d07a 623d 0906 e73d 5cfc 513c 8262 9b3d
00000100: 4932 bbbc 290e 18be ea99 0bbc 0f0f 663d
00000110: 8fb4 84bd 5de2 f13d 97f3 723c 46f6 be3a
00000120: cc15 8e3d 56cc fcbd 0474 c13d b130 dc3d
00000130: 89d6 043e b6b2 ddbc 0cd3 dd3d 3ff1 043e
00000140: 8865 503d 6ef4 013e f60a babd d201 a2bd
00000150: 1f78 b4bc 4097 133d 2e17 923d 249c bfbd
00000160: 2879 26bc c4bb cf3d 6bbc 373c 3502 6e3d
00000170: c561 fbbd 7901 b13d c294 aebd b2ed a23c
00000180: 29c9 7b3d 126f 14be 2265 28be 4e0f bebb
00000190: 00a0 0b3d 4d42 0b3e e166 9d3d cef4 93bd
000001a0: 56ff bbbd e7f4 0d3e 2865 85bd 515e 9abd
000001b0: 42a3 01bd d2c5 bd3d 4922 a43d 9935 0d3e
000001c0: 61ab a63c 6b86 fc3d 1c7d bebd d83f 01bd
000001d0: a371 eb3c 8048 533d 317a d43d 0715 dcbd
000001e0: 68d9 3dbd ec3f 8a3d eb5e e2bb dec9 bdbc
000001f0: cf78 c9bd 0d2e 0e3d 7060 28be cd65 dabd
00000200: e0de d5bd 564d 14bc bafe f03d d98a ec3d
00000210: 3904 e5bc ad3b e0bc aa1a 233e 3948 133e
00000220: f8df 00be 4a9d 00bc 8070 043d c614 823c
00000230: 3fd4 2abd f8e7 e7bc 3e67 b13c 1e33 eeba
00000240: 2ff8 a6bd f870 05bc fb2a cd3c d81e 1a3b
00000250: 4766 3dbe 4802 abbd 57c3 f53b 9742 bb3d
00000260: c03f 64be bcd5 c23d 2a94 a9bd 2ff1 953c
00000270: 27cd 213d 11bc 2c3e 7de8 b83d 4ad3 1ebd
00000280: 34a2 323d 79c8 90bd f566 e0bd 6617 0ebe
00000290: 886b 1cbd 513b 303e 8107 82bc 4bb4 f1bc
000002a0: bbfa 9dbd 9963 0d3e 6320 91bc a95e 1cbe
000002b0: 4ae4 18be bb72 0b3d ec1e b6bd d00c 01bd
000002c0: 58dc 193c 39ad 95bc 01ce 2bbd 5fcc 813d
000002d0: 71bf c9bd 867a aabc ed50 3e3e e1c3 17be
000002e0: cbf9 28be 202d b6bd b393 2cbe dbd9 8c3d
000002f0: 13d2 57bc 76bd c6bc 17e2 eabd bf6a c1bd
00000300: e12e ca3d 7452 9ebc 97f2 d23c bcd4 033e
00000310: 8048 813d f422 8a3d 6d67 743d 89cc 4d3e
00000320: 97c5 913d 3c78 69bd 1e93 563d c834 e83d
00000330: 0f6b e5bb 29aa 5a3e 8306 ae3c 4da1 323e
00000340: 0e0e 51bd 2c3e 893d 29c4 39bd 2b8d 893d
00000350: 2f04 dbbc 8866 e53d e573 593d bbe6 8e3d
00000360: 2c16 123d 3db0 4ebd 711d 6e3c 2597 8f3d
00000370: 912d 7f3d 915b 343b b6a0 fdbd 5bf6 6d3c
00000380: b11e cc3d abcd ecbd d145 1abc e957 c83c
00000390: 9d53 b93d 9a62 583d 4c87 fa3d 1a22 c63d
000003a0: b119 373d 7b4a 683d 8ce7 a03c 2d2e 753d
000003b0: 7d22 a03d 3461 de3d 6be7 fbbd 3d74 fd3c
000003c0: 4380 f93d d6e6 943d a223 373d 0370 34bd
000003d0: 3e10 33bc f552 493e 90ca 5a3e 20a7 de3d
000003e0: 5b9f 0abb ea73 cfbd a631 063e 7b47 003e
000003f0: b5c5 993d d0ad 503d 10c6 d9bd 8b74 9cbc
0.10844757 -0.064457186 -0.07549202 -0.015005384 -0.086234026 0.10173182 -0.07933867 -0.03734523
-0.11389199 -0.14790581 0.12008014 0.10339032 -0.07804441 -0.039081447 -0.11768793 -0.13052745
-0.1304693 -0.008207127 -0.022877071 0.10626974 0.06672503 -0.053429995 0.04873739 0.027643867
0.038985506 -0.05733847 -0.041534964 -0.123065755 -0.07160363 -0.084636256 0.074928746 0.04164901
0.061232194 -0.07693966 0.08252995 -0.017158588 0.07695157 0.037190802 -0.10681035 -0.15766872
0.1491211 0.11957459 -0.051038306 -0.082731605 0.08560336 0.085231826 0.030876124 0.13367064
0.048304673 -0.09247684 0.037143324 -0.07504677 -0.09111882 0.030779691 -0.03359292 -0.06318329
-0.06685053 0.12063639 -0.055956844 -0.067098916 0.055292904 0.11280448 0.012816515 0.07587148
-0.022851126 -0.14849152 -0.008520583 0.056166705 -0.06479751 0.118107535 0.014828584 0.0014569245
0.06937751 -0.123436615 0.09445956 0.10751475 0.12972464 -0.027062755 0.108312696 0.12982653
0.050878078 0.12690899 -0.09084122 -0.079105034 -0.022029934 0.036032915 0.071333274 -0.09355953
-0.010160722 0.10143235 0.011214356 0.058107574 -0.122745074 0.08642859 -0.08524467 0.019888733
0.06147114 -0.14495495 -0.16444829 -0.0058001643 0.034088135 0.1359951 0.07685638 -0.07224427
-0.09179561 0.13862954 -0.06513435 -0.07537521 -0.031649835 0.09266247 0.08014352 0.13789977
0.020345392 0.12330326 -0.093012065 -0.031555027 0.02874071 0.051582813 0.10374869 -0.10746198
-0.046349913 0.067504734 -0.0069082878 -0.023167547 -0.098374955 0.034711886 -0.16443038 -0.10663948
-0.10442901 -0.009051641 0.11767335 0.115499206 -0.027956115 -0.027372206 0.1592814 0.1438302
-0.12585437 -0.007850001 0.03233385 0.015879046 -0.04170632 -0.028308854 0.021655675 -0.0018173193
-0.08152806 -0.00814461 0.025044909 0.002351692 -0.18496047 -0.083500445 0.007500093 0.091435604
-0.22289944 0.09513423 -0.08280213 0.018303482 0.03950229 0.16868617 0.090287186 -0.03877572
0.04361172 -0.07069487 -0.109571375 -0.13876113 -0.038188487 0.17210127 -0.015872719 -0.029504916
-0.07713839 0.13807525 -0.017715639 -0.15270485 -0.14930835 0.034044962 -0.08892617 -0.03150636
0.009390913 -0.018271076 -0.041944508 0.06337809 -0.09850968 -0.020810377 0.18585558 -0.14820816
-0.16501538 -0.08895326 -0.16853218 0.0687749 -0.013172644 -0.024260264 -0.114689045 -0.09444188
0.09872223 -0.019326426 0.025750441 0.1287412 0.063126564 0.06744948 0.059668947 0.20097555
0.071177654 -0.05699943 0.052386396 0.11338192 -0.007001288 0.21353973 0.02124334 0.17444344
-0.051038794 0.067013115 -0.04535309 0.06716379 -0.026735393 0.11201197 0.05308904 0.06977602
0.035665676 -0.050461043 0.014533387 0.070112504 0.062299315 0.0027520398 -0.12384169 0.014524068
0.099667914 -0.115626656 -0.00941606 0.024455981 0.09049151 0.05282841 0.12232837 0.09674473
0.044702236 0.056711655 0.01964166 0.05985849 0.07819078 0.10858384 -0.12299999 0.030939216
0.12182667 0.07270591 0.044711716 -0.044052135 -0.010929165 0.19660552 0.21366334 0.1087172
-0.0021152112 -0.10129531 0.13104877 0.12527268 0.07508413 0.05094701 -0.106334805 -0.01909854

edge_encoder.layers.2.bias f4 [32]
00000000: 6496 b43c 75f2 fe3c d63a 983c 40f5 ccbd
00000010: 4778 b4bd def8 95bd 38cd 77bd 4d66 8f3d
00000020: 90f5 a1bd 238c aa3d 8209 80bd 9a88 eb3d
00000030: af87 893d a09a 913d 1e2f cc3d 7697 0e3e
00000040: 6aa5 c53d f83a c63c 0201 bc3d fcb7 b83d
00000050: caf7 08bd 96c7 10bd e596 fd3d c92c f8bb
00000060: 6f3f f3bc 59aa c2bd 62c5 ad3d e466 26bd
00000070: ed97 ec3d db34 0cbb 9e9f 9bbd d0ce fdbb
0.022044368 0.031121472 0.018582743 -0.10007715 -0.088120036 -0.07322858 -0.060498446 0.07001934
-0.079081655 0.0832751 -0.062518135 0.11500664 0.06715333 0.071095705 0.099699244 0.13924965
0.09650691 0.02419804 0.0917988 0.09019467 -0.033439435 -0.03534659 0.123822965 -0.007573698
-0.029693333 -0.095051475 0.084849134 -0.040625468 0.11552415 -0.002139381 -0.07598804 -0.0077456012

node_encoder.layers.0.weight f4 [64, 64]
00000000: 13cf aa3c 5595 303d 527d a6bd ebff 81bd
00000010: 0512 673d a4bb ffbd 3a62 a0bd 1aa8 d8bd
00000020: a8f5 84bd 16ba 1fbe 22e3 34be 4a6e efbd
00000030: 1a60 da3d a690 303e 02f5 9d3d 1398 d3bc
00000040: ab08 16be 4ea2 2ebc 3930 f93c e087 f3bd
00000050: 56d0 e6bc fe18 87bd 39b2 2ebe fad0 cf3d
00000060: 37f2 b93d 1276 20be f7b5 7bbe 459a 1ebe
00000070: 61b0 fabd 3e0e 3d3e 011b 443e 4f26 043b
00000080: 8012 243e f7f7 2c3e 56ff 063d 3534 4a3d
00000090: a416 a4bd 0b05 02be 3a2e 463e 2f26 363e
000000a0: dcd3 cebd 8999 35bd d55f 103a a081 8b3d
000000b0: d00c ea3d f311 37be 21ba 44bd 529f 2ebe
000000c0: 94c6 95bd a1f8 853c 21e3 ad3d a13b 883e
000000d0: a1c8 e1bd 45e8 da3d fc2a f9bb 08f3 2bbe
000000e0: 4d6b d93d 2901 653d 0651 fc3d 1cab 173e
000000f0: 7bc3 13be a234 1a3e c919 4f3d 9a82 5dbe
00000100: ee8c 833d 5520 d83b c578 3a3e 4620 973d
00000110: 05a0 6e3d 74db dc3d a013 523b 7b21 9bbd
00000120: 2524 59be caa2 d2bb b1ad 9d3d e49b 503e
00000130: b8c2 32be 9ab5 66bd cad0 f83d f0d2 c9bd
00000140: 5ae5 61bc 6621 0c3e d776 263d 0034 1e3e
00000150: dc55 1ebe 1d74 13be 712c 71bc 984c 5bbe
00000160: 762a 4bbd b872 cabd 9acd 1f3e 07f3 fb3d
00000170: 97db 873d bb67 29bc db31 f4bd 77dc ebbd
00000180: e279 d7bc c875 c2bd 39ab fcbd 6d49 eebd
00000190: 7f68 c03c 528b f4bd ac5b 11be b9a9 a5bd
000001a0: 3f5b b1bd b8fd babd 0426 203d 3e71 32be
000001b0: e09a 09be a2ab d03d 13fb 28be e517 233c
000001c0: 019d 4f3d 09d2 41be 142d 77bd 4209 7fbc
000001d0: 44d5 9ebd 2cfb 183e e96c 383d 4c74 2fbd
000001e0: 721c 12bd b259 2fbc e186 033e 3250 0b3c
000001f0: ef11 b1bd 1f62 95bd 880a ba3d 3272 f0bb
00000200: 7622 013d 7b82 aabc 34ac 053e 9f7b 7c3b
00000210: b7ec b93d cdf6 53bd 0e20 c03d c74f 943d
00000220: ecc2 29bc 5c32 d13d 1646 d13d 71c2 a93c
00000230: afed 87be a06c d3bc 2c11 a0bd f352 11be
00000240: 1ed1 e83c 3443 8abc 6119 c13d 9b61 af3d
00000250: 7b87 8ebc 1094 34be 914f 0c3e 726c 02be
00000260: 5ada 9d3d c564 513e d8ec 003e 307e aabb
00000270: f912 733d ae99 853d d16d acbd ad3b 7f3c
00000280: b380 56bd 9f67 0cbe f6ad 18bd f2ec 64bd
00000290: 1538 0a3e 0699 a03b c0a6 1dbe 7fb1 8abc
000002a0: eece 6bbc a6af abbd b149 2bbd 4525 b53b
000002b0: ad02 b6bd dc06 27bd 691e 02be 2630 c5bc
000002c0: 7165 903d ce9f 8a3d 1021 41be b148 b9bd
000002d0: 8a41 8b3d 4e6b f3bc f1b0 adbd 6b25 2fbc
000002e0: 7d6a a93c e880 b5bd 9485 3b3d d5cd 95bd
000002f0: e3a2 353d a0a9 b73c 5be2 333b 1f9f 91bd
00000300: 4a17 163e d3b4 0cbe cdf1 8b3e 9052 c93d
00000310: bdc7 e83d 3b50 6ebd 6b3b 26bc fed8 693d
00000320: 9a99 18be 9fa4 943d 9ce5 d9bc 833a ab3d
00000330: 520f e43c 952c 7bbd b3d0 063d aa9b f1bd
00000340: fea6 ca3c 5367 30bc 61ba 6d3d 39fe 943d
00000350: 0ed3 0bbe 555f 1dbe 71f2 8f3d c127 8a3c
00000360: 171e 213e 648f 5c3e 0b47 233e b0ba 06bd
00000370: 0850 a13d ef44 47bd a4b3 23be a33c 8a3d
00000380: 6856 56be a50e 96bd d8d3 06be 35c8 b9bc
00000390: 8c1b 563e e75a debd f4c6 4bbe 485a 923c
000003a0: a526 613d 8fbd dd3d 5d08 6c3c bc5b 8a3d
000003b0: ff91 5fbe 0929 ab3d 8885 c73d c361 65bd
000003c0: 48cf 133d ceb9 07be 5aa9 e9bd adc9 e3bd
000003d0: e7e9 183e d370 9fbb bd76 5e3d ea16 ed3d
000003e0: 2119 28be cd05 1cbe 4861 04be b272 57bd
000003f0: 607f 503e e90f 8dbd f3b0 c93d 05ae 693d
0.020850694 0.043111164 -0.08129372 -0.063476406 0.05641367 -0.124869615 -0.07831235 -0.10578938
-0.06492168 -0.1559833 -0.1766477 -0.11690958 0.10662861 0.17242679 0.07712747 -0.02582935
-0.14651744 -0.010658814 0.030418502 -0.118911505 -0.028175514 -0.06596564 -0.17060174 0.10147281
0.09079402 -0.1567004 -0.24581133 -0.15488537 -0.12240673 0.18462464 0.19150926 0.0020164435
0.16022682 0.16891466 0.03295835 0.049366195 -0.08012131 -0.12697236 0.19353572 0.17788003
-0.10099003 -0.044335876 0.0005507444 0.068118334 0.11428225 -0.17877941 -0.04802907 -0.17052963
-0.073132664 0.016353907 0.08490587 0.26607993 -0.11024595 0.10688833 -0.007604001 -0.16791928
0.10616169 0.05590931 0.123201415 0.14811367 -0.14430039 0.1505914 0.0505617 -0.21631852
0.064233646 0.006595651 0.18210132 0.073792025 0.058258075 0.10784045 0.0032055154 -0.07574745
-0.21205194 -0.0064280974 0.07699145 0.20371968 -0.17457092 -0.056325532 0.12149198 -0.09854686
-0.013787592 0.13684615 0.04064068 0.15449524 -0.1546244 -0.14399762 -0.014720068 -0.21415937
-0.04960104 -0.09885162 0.15605775 0.12302213 0.0663368 -0.010339673 -0.11923572 -0.1151666
-0.026303235 -0.09495121 -0.12337346 -0.116350986 0.023487328 -0.11940636 -0.14195126 -0.08089013
-0.08659982 -0.09130424 0.039098755 -0.17426011 -0.13437986 0.10188986 -0.16502027 0.009954427
0.05068684 -0.18927778 -0.060345724 -0.015566172 -0.07755521 0.14939564 0.04502574 -0.04283552
-0.03567166 -0.010702537 0.12844421 0.008503007 -0.08645999 -0.07294106 0.0908404 -0.007337832
0.031527005 -0.020814171 0.13053972 0.0038525832 0.09078353 -0.05174904 0.09381114 0.07241779
-0.010361414 0.102146834 0.10218446 0.0207226 -0.26548526 -0.025808632 -0.07815775 -0.14191799
0.028420027 -0.016877748 0.09428669 0.08563539 -0.017398586 -0.17634606 0.13702227 -0.12736681
0.07707663 0.20448597 0.12590349 -0.005203031 0.059344266 0.06523453 -0.08419383 0.015578193
-0.05236883 -0.13711403 -0.037275277 -0.05589003 0.13497956 0.0049010543 -0.15395641 -0.01693034
-0.014392598 -0.08383112 -0.041818324 0.0055281245 -0.08887229 -0.040778026 -0.12706913 -0.02407081
0.070505984 0.067687616 -0.18860269 -0.09047068 0.0679961 -0.029714253 -0.084810145 -0.0106900735
0.02068066 -0.088624775 0.045781687 -0.0731465 0.044344794 0.02241975 0.002744815 -0.07110428
0.14657322 -0.13740854 0.27332917 0.09830201 0.11366222 -0.058181982 -0.010146002 0.057091706
-0.14902344 0.072579615 -0.026598744 0.083607696 0.027839337 -0.061321814 0.032913875 -0.11797269
0.024737831 -0.010766822 0.058039073 0.072750516 -0.1365473 -0.15368398 0.07028664 0.01686466
0.15734135 0.21539074 0.1594507 -0.032892883 0.07876593 -0.048649725 -0.15986496 0.06749847
-0.20931399 -0.07327012 -0.1316675 -0.022678474 0.20908946 -0.10857182 -0.19900113 0.017865315
0.054968495 0.10827171 0.014406291 0.06755778 -0.21833037 0.08357436 0.09742266 -0.056001436
0.03608635 -0.13254473 -0.11409254 -0.11122451 0.14932977 -0.0048657446 0.054312456 0.11576636
-0.16415836 -0.15236588 -0.12927735 -0.052599616 0.2036109 -0.068878 0.098482035 0.057050724

node_encoder.layers.0.bias f4 [64]
00000000: 3c35 f63d 0052 a83d 24f9 893b daea 323e
00000010: dc90 af3d 0554 9e3b b29e 0dbd 11e0 703e
00000020: 0dec 1b3d 390c 80bd dc30 06bd ca68 9e3d
00000030: 6354 793d eb08 f0bb 17aa e0bd 6daa 9bbd
00000040: 25fe 4dbc bd8f 46bc 690e d83d 559d a23d
00000050: 1c46 a43c f646 8e3c f6a4 a23d c3e2 cd3c
00000060: fd3b 82bd 7f8c 3c3e 9d6d cf3d 2af9 acbd
00000070: 96b3 9abc c87a a0bd 0038 153d f855 df3b
00000080: efe4 9bbd 7d67 0e3d ab44 3eba 34dc e13d
00000090: 25d9 9d3c 9a53 123e 4501 7fbd 25e5 ea3d
000000a0: 4ff2 4bbd e561 cd3d 3d3e e63d f861 ec3c
000000b0: e7aa d1bd 3cac 49bd 54ac b73d 717a dc3d
000000c0: 1a2c fa3c 8f36 d53d 102a 283e 352a 693d
000000d0: ef4d 6d3e aaba 08bd c097 6b3d 121d 603d
000000e0: 7c47 803d 7704 31bb 4b7c ff3c c3e3 19bd
000000f0: d2f6 013e 7170 213e f1aa 103d b3fb 353d
0.120218724 0.08218765 0.004210608 0.17472401 0.085725516 0.0048317933 -0.03457517 0.23522975
0.038066912 -0.06252331 -0.03276144 0.07734831 0.060871493 -0.007325282 -0.10969942 -0.076008655
-0.0125728 -0.012119231 0.105496235 0.07940165 0.020052962 0.017367821 0.0794162 0.025132542
-0.06359098 0.1841297 0.10128329 -0.08445962 -0.018884461 -0.07835919 0.03643036 0.006815668
-0.07612025 0.034766663 -0.0007258157 0.110283285 0.019268582 0.14289704 -0.06225707 0.11469487
-0.04979163 0.100284375 0.1124234 0.028855309 -0.10237675 -0.04923652 0.08968416 0.10765541
0.030538607 0.10410797 0.16422296 0.056925017 0.2317426 -0.03338114 0.057517767 0.054715224
0.062636346 -0.0027010718 0.031187197 -0.037570726 0.1269181 0.15765549 0.035319272 0.044429492

node_encoder.layers.2.weight f4 [32, 64]
00000000: ee27 d6bd ded3 be3c e107 f33d 61b2 063e
00000010: 13a1 3bba b805 133e 3404 b63b 9fe6 cc3d
00000020: 93a2 00be cbba 8cbc 0ece f73c b0f5 093d
00000030: dd32 2d3c 09f9 d1bb 579e 1c3d 8b75 183e
00000040: 2661 ddbd 0e01 f63d 4877 8c3c e6e3 b83c
00000050: 1140 1c3e 586c 003e 2ba6 843c 85b9 313e
00000060: 6fb0 00bc aea9 77bd 705f ec3c 770d d43b
00000070: 39a2 91ba 2638 d23d 8d06 a53d 630b a23d
00000080: 0042 63bd 93aa d83d 53d3 91bd 821a b63d
00000090: 9cd8 c53c 4468 1a3d 9890 da3d 8e5c f3bd
000000a0: f063 15be 6493 3ebe 6781 0e3e aa92 1c3e
000000b0: e9e9 debd 2f0a 013e 4b6c 56bd ff8e 133d
000000c0: b8c0 c9bd 16ef 03be 831e 253e 9fb5 86bd
000000d0: 0b27 01bd 1e27 143e db60 78bd 7d30 303e
000000e0: d040 333d 27ae 083e 3d1f 16bd f15a 833d
000000f0: 9b7f 12be b5b2 a83c 6a33 17bc 8636 e23d
00000100: de98 2a3d 9554 963d 6a54 333d e13a 6abd
00000110: e213 e43d c256 5f3d b593 42bc 0af5 65bd
00000120: e58c c73c e6fd 983d b4b5 763c dcb2 6fbc
00000130: 4bf7 043e 9743 1ebd 7b85 a4bd 2125 dcbc
00000140: 4bd8 7e3d b9ef d83d e7db b7bc d593 fb3d
00000150: 94de f5bd a2b5 193d c8a4 a03c 351f 973d
00000160: e974 debd 936a 0ebd 2eea 97bd c84e ddbd
00000170: 63e1 b3bd eee2 103d 77bc 0d3e 2e8d 8a3d
00000180: 9ccb 2a3c 505c babd 76b3 1a3d ad3d 423d
00000190: 5cd9 023e ea22 2b3d 04d5 123e 4fca 23bd
000001a0: 892d 33bd 4474 023e a676 003e 17ad 6f3d
000001b0: c985 f93d 33d6 52bd 2a91 ccbd 7b37 d73d
000001c0: 38d8 79bd 56bf d73d 12ed 56bd b3af fc3d
000001d0: bc52 773b 942d 74bc 22bd 9dbd 33de d1bc
000001e0: fa23 123d 88ed 0e3d ce44 a9ba 634f 543d
000001f0: 5840 b0bc 460a 3f3c 0e58 c03d 1128 763d
00000200: 4ff8 473d ce47 8ebc bece 8e3d a1ba 77bd
00000210: f8c1 b3bd 51ec fd3d 1f34 2f3d 694e a8bd
00000220: de9d 293c 0049 14be 9cc4 e2bd 0565 46bd
00000230: 0940 5f3d 6580 863d bfed 0b3b 7f17 58bd
00000240: 9282 803c dbe9 95bd 6bba 583d f874 8abd
00000250: 9d4c bbbd 4312 b33d f906 bb3d ec30 bb3d
00000260: 5d2b 0fbe 70ca 22bd cd26 573c 5f79 88bd
00000270: c8db 1f3d 3280 a6bd 2746 dd3d 7617 823d
00000280: e0b5 223d 0cb5 703d 4bb1 2abd a086 2f3d
00000290: 5d68 e5bc b1cd a03c 0fc6 56bd dfe9 033d
000002a0: 2dc4 773d 712f b03d 2f0b 07bd fc89 b3bc
000002b0: 6f93 19bd c706 05be 6f70 c9bd 3875 a8bd
000002c0: a236 083c 4095 97bd 7a27 d0bd dd12 98bd
000002d0: eea5 3f3d 5aa3 a03c 5217 aabd c1ca d2bd
000002e0: bf34 fe39 c592 2cbc 2a94 c0bd c9d2 85bd
000002f0: 2bcb 0c3d adfe f93d 441c 4bbd e20e 5ebc
00000300: 75e4 90bd 0096 ddbb 507a 84bc c9d0 013d
00000310: b6da 44be 5ff0 2b3e 980b c83c d0b1 a53d
00000320: ee93 17be 6da4 4abe 5a0d 4a3e c4a8 01be
00000330: 9e18 ba3d 079e 643d 4039 2e3d 0bbe 223d
00000340: 61db ffbd 2980 b03d 0501 0d3e 59ac 183e
00000350: cb2c 043c 0c8a 0b3e 7de0 f73c d033 053e
00000360: bd79 df3b 4850 2bbe a30d 523e 6e6d 513e
00000370: f7f4 83bd 0f01 04be 6b90 eb3d 970c c3bd
00000380: 6c5e 8fbd 0ae2 073e cc7f 35be 30fb 943a
00000390: 5890 023e 79f6 463e 01d1 b13c dfcd cd3d
000003a0: f619 e73c 05a1 0fbd a7b4 343e aca0 273e
000003b0: f09d 283e fa86 96bc 8605 103e c55c 223e
000003c0: cd37 35be 2981 2a3e 439d 373e d9f8 483d
000003d0: d6bc 623d d729 363e 6695 13bb 8191 19bd
000003e0: 81a7 263e c30c 33be c1e2 6e3d a713 4e3e
000003f0: 1ffa f3bd f7f6 5b3e 15c1 983d 7915 703e
-0.10456835 0.023294386 0.11866737 0.13153984 -0.0007157486 0.1435765 0.0055547003 0.10004925
-0.12562017 -0.017178914 0.030249622 0.03368157 0.010571209 -0.006407861 0.038236942 0.14888589
-0.10809545 0.1201192 0.017146721 0.022569608 0.15258814 0.1254133 0.016192516 0.17355926
-0.007854565 -0.060464554 0.028854102 0.0064713317 -0.0011110968 0.10264616 0.0805789 0.07912328
-0.055482864 0.105794095 -0.07120385 0.08891775 0.024151139 0.03769709 0.1067211 -0.11882888
-0.14588904 -0.18610913 0.1391655 0.15290323 -0.108844586 0.12601541 -0.05234937 0.036025044
-0.09851211 -0.12884173 0.1612492 -0.0657761 -0.031531375 0.14468047 -0.060639244 0.17205997
0.043762982 0.13347684 -0.036650885 0.0641383 -0.1430649 0.020593027 -0.009228567 0.11045556
0.04164969 0.073403515 0.043781675 -0.057185058 0.11136605 0.054526098 -0.011876036 -0.05614189
0.024359176 0.07470302 0.01505797 -0.014630046 0.1298496 -0.038638677 -0.08033272 -0.026873173
0.06221799 0.105925985 -0.022443725 0.12284056 -0.12005344 0.037526734 0.019609824 0.07378999
-0.108621426 -0.034769606 -0.07417713 -0.10806042 -0.087832235 0.035372667 0.13841425 0.06765209
0.010424521 -0.090996385 0.037768804 0.0474221 0.12778229 0.041781344 0.14339072 -0.03998786
-0.043744598 0.12739664 0.12545261 0.05851468 0.121837206 -0.051473808 -0.09988625 0.10508629
-0.060997218 0.10534541 -0.05247218 0.123381995 0.0037738523 -0.014903445 -0.0770209 -0.025618648
0.03567884 0.034894496 -0.0012914182 0.05183352 -0.021515056 0.011660164 0.09391795 0.060096804
0.04882079 -0.017368224 0.06973027 -0.060480718 -0.08777231 0.123985894 0.042774316 -0.082180806
0.01035258 -0.14480972 -0.110726565 -0.048436183 0.054504428 0.06567458 0.0021351425 -0.052756783
0.01568726 -0.07319995 0.052912157 -0.06760591 -0.09145472 0.087437175 0.09132189 0.091401905
-0.13981386 -0.03974384 0.013131809 -0.06663775 0.03902796 -0.0812992 0.10804396 0.06352131
0.03972423 0.05876641 -0.041672986 0.042852998 -0.028003866 0.019629331 -0.052434977 0.03220546
0.060489822 0.08602799 -0.03296965 -0.021916382 -0.03749412 -0.12990867 -0.09835898 -0.08225483
0.008313807 -0.07401514 -0.101637796 -0.07425473 0.046789102 0.019609142 -0.08305229 -0.102925785
0.00048485954 -0.010533039 -0.0940326 -0.06534345 0.034373444 0.12206779 -0.049587503 -0.013553353
-0.07074825 -0.006762266 -0.016171604 0.031693254 -0.19224057 0.16790913 0.02441959 0.08090556
-0.14802524 -0.19789286 0.19731656 -0.12662035 0.090867266 0.05581477 0.042535067 0.03973202
-0.12493015 0.086181946 0.1376992 0.14909495 0.00806732 0.1362688 0.030258412 0.13008046
0.0068199323 -0.16729844 0.20513014 0.204519 -0.06443208 -0.12891029 0.11502155 -0.09523886
-0.070004314 0.13269821 -0.17724532 0.0011366364 0.12750375 0.1942996 0.021706106 0.100490324
0.028210621 -0.03506567 0.17647038 0.16369885 0.16466498 -0.018374909 0.14064607 0.15855701
-0.17697068 0.16650833 0.17931084 0.049065445 0.05535587 0.17789398 -0.0022519468 -0.03749228
0.16274835 -0.17485337 0.058321718 0.20124684 -0.11912941 0.21480928 0.074587025 0.23445691

node_encoder.layers.2.bias f4 [32]
00000000: 023b 533d 0690 a4bc 5213 b33d a33a 053e
00000010: b178 f23d 5af9 b63d 01f9 423d 8f22 ecbd
00000020: a91a 2dbd 776f 1a3d f4ce 7ebd aed2 ae3c
00000030: 490e 323c 2e99 5c3d a22d 84bd 4eb0 90bd
00000040: 77f3 9c3d 1ba0 203d 0b26 233d 3099 10bd
00000050: 0e6a 36bc d334 dcbd c57b 9fbd 0ba4 7cbc
00000060: 199e d3bd d2c3 10bd 8ff2 6139 94e6 2a3d
00000070: 2dbc e63d 9ee0 4cbd 1843 153e 61a0 4cbd
0.051569946 -0.020088207 0.087439194 0.1301065 0.11839426 0.08934279 0.04760075 -0.11530029
-0.042261753 0.037703957 -0.062209085 0.021340694 0.010867664 0.05385702 -0.06454016 -0.070648775
0.07663625 0.03921519 0.039831202 -0.03530234 -0.011133684 -0.10752263 -0.07787279 -0.01541997
-0.10332889 -0.035343 0.00021548032 0.041723803 0.112663604 -0.0500189 0.14576375 -0.049957637

state_encoder.layers.0.weight f4 [64, 2]
00000000: 51c8 27bd 4fb8 183f 805e e53c 8274 c8bc
00000010: 6eb5 aebe 4005 863e 537f cabe 556e 283f
00000020: bb4c 0ebf a852 1d3e 1fd5 be3e 041d 453e
00000030: 8e71 063f c4f8 d9be 3649 08bf be61 ff3e
00000040: 6a7e fdbe 2391 843e 707a 09bf 7693 66be
00000050: 910a 16bf a743 1d3d 8feb 45bd 9b6e 21bf
00000060: ba5c 16bf 0794 323f e2c9 fc3d 3fc6 bbbe
00000070: d0c3 0dbf 209f 1abf 4434 28bf f286 9e3e
00000080: 2881 573e 14e4 2abf 08b8 d33e 9817 1abf
00000090: 00e8 aabe 1861 b7be ca20 983c 6d2d c33e
000000a0: 69d2 063f cdec c0bd c436 2fbe f47e 27bb
000000b0: d44c 04bf 780e 713e 2883 72be 4c90 ebbe
000000c0: 4a52 24be 6f34 e6be 9e03 043e a6c2 103f
000000d0: 5295 ee3e 659e 1bbc 8a6e b3be f670 bd3e
000000e0: 8705 523e 331d 51bd e98c 573e a160 d73e
000000f0: 4484 fa3e 09c2 97bd b7a6 8abe e4e6 e83d
00000100: af35 55be 2870 d0be 7096 633e 2634 8dbe
00000110: 8762 2bbf 415a 8d3e a96f 2a3f 68e8 113e
00000120: 7643 24bf c190 f7be a5f1 1bbf 87fa 953d
00000130: 3fd5 abbd 78af f7be 1aeb 653e c089 023f
00000140: 53eb 653e 97ee 01bf 5800 1a3f f397 a23e
00000150: 428e f93e d7ab 91be 2c4a 09bf c899 afbe
00000160: d41f 013e 93c6 a23e 1e74 123f ba2b 53be
00000170: d575 ddbd a47f b1be 7077 82bd c92a a33e
00000180: 2e1e 033f 11b4 0a3f a2d4 9bbe a3c5 a03e
00000190: c6a7 223f c11d 503e 9c83 9c3e b3a2 8dbe
000001a0: 52f7 203f a5da 243f 120f 4ebe 675e 1d3f
000001b0: 8337 673e 0fdf bb3e 0ee2 523e 1a15 4abe
000001c0: 66a9 10bf b768 af3e b710 21bf e885 153f
000001d0: a0de 143e 889c 79bc aae3 fd3e d112 3fbe
000001e0: 358d 013f 02ad ccbd 7b86 a9be 64c5 093f
000001f0: 68a4 823e 1fc0 22be 82b2 623e 77b2 ff3e
-0.04096252 0.5965623 0.027999163 -0.024469618 -0.34122795 0.2617588 -0.39550266 0.65793353
-0.5558583 0.15363562 0.37271973 0.1924935 0.5251702 -0.42572606 -0.5323671 0.4987926
-0.4951051 0.2589198 -0.5370245 -0.2251719 -0.58609873 0.038394596 -0.04832035 -0.63059396
-0.5873524 0.6975712 0.123431936 -0.36674687 -0.5537691 -0.60399055 -0.6570475 0.3096233
0.21045363 -0.6675427 0.41351342 -0.6019225 -0.33380127 -0.35816264 0.018570323 0.38120595
0.5266481 -0.09420166 -0.17110735 -0.0025557848 -0.5167973 0.23540676 -0.23682845 -0.46008527
-0.16047016 -0.4496188 0.12892005 0.5654701 0.46598297 -0.009498213 -0.35045272 0.37000245
0.20509921 -0.051053237 0.21049847 0.4206591 0.48929036 -0.07410056 -0.27080318 0.11372164
-0.2082126 -0.40710568 0.22225356 -0.2757885 -0.66947216 0.2760792 0.6657663 0.14248812
-0.6416544 -0.48352626 -0.60915595 0.07323175 -0.08390283 -0.4837606 0.22452965 0.5099144
0.2245305 -0.50754684 0.60156775 0.31756553 0.48741347 -0.28451416 -0.536288 -0.34297013
0.12609798 0.31792125 0.5720843 -0.20622149 -0.1081349 -0.34667695 -0.06370437 0.3186858
0.51217926 0.5418101 -0.30435663 0.31400785 0.6353725 0.2032385 0.3056916 -0.27663192
0.6287738 0.64396125 -0.20122936 0.6147217 0.2257977 0.36693618 0.20594046 -0.19734612
-0.5650848 0.3425958 -0.6291613 0.5840745 0.1453805 -0.015235074 0.49587756 -0.18659522
0.5060609 -0.09993936 -0.33110413 0.5381682 0.25516057 -0.15893601 0.22138408 0.49940845

state_encoder.layers.0.bias f4 [64]
00000000: e68e babd f4c5 c03e f470 cd3e 0706 1bbf
00000010: 1dd2 2a3f 3c34 e33e a9f1 1a3f 9549 7bbe
00000020: b3cd 4abe 1688 263f 2831 b53e bc56 7d3e
00000030: 1703 fabd 1dd9 febe 923e a6be 030f e03e
00000040: fbcd 013f d46f 32bf df13 09bf 89f6 2bbf
00000050: b483 c53e 9e62 1bbf b108 0cbc 636a 123f
00000060: afe1 58be db85 07bf 470a 323f 1d27 13bc
00000070: 5480 72be 3c0f a43d f564 273f 17a3 de3e
00000080: 4cc3 48be 9c9c 0d3f 19b1 1f3e b528 133e
00000090: 7621 7f3e 1a39 9c3d 3472 b0be 0886 5f3d
000000a0: e784 f33e a6ce 94be ae06 44be b46c 583e
000000b0: c926 083f 9dca 6b3e 953c 0f3f b5d6 65be
000000c0: 4a4b eb3e 1d61 853e ce38 313f 4193 263f
000000d0: 8a8e adbe f525 b3be 9be7 18bf 02ef a93e
000000e0: c035 26bf 790a a6be 0c8e 0bbf 59a8 fabe
000000f0: 1495 b13e 4ddb 113f d047 eebe 0293 30bf
-0.09109287 0.37651026 0.4012524 -0.6055607 0.6672686 0.4437579 0.60524994 -0.24539788
-0.1980503 0.650514 0.35389066 0.24740118 -0.122076206 -0.4977502 -0.32469612 0.43761453
0.50704926 -0.69701886 -0.53545946 -0.6717306 0.38577044 -0.6069735 -0.008546994 0.57193583
-0.21179841 -0.5293862 0.6954693 -0.008981493 -0.23681766 0.08010718 0.65388423 0.43483803
-0.1960575 0.5531709 0.15594901 0.14370997 0.24915108 0.07628079 -0.3446213 0.05457118
0.47562334 -0.2906391 -0.19143173 0.21135217 0.5318418 0.2302651 0.55951816 -0.22445185
0.45955878 0.26050654 0.692273 0.6506844 -0.3389781 -0.34989896 -0.597284 0.3319016
-0.64925766 -0.32429865 -0.5451362 -0.48956564 0.3468405 0.5697525 -0.46539164 -0.68974316

state_encoder.layers.2.weight f4 [32, 64]
00000000: 742b a93d 698f ba3d 8628 bcbd 5dd6 e93d
00000010: 7254 25bd b5d9 c7bd 501b d1bd a543 563d
00000020: 2ef6 883c 99d5 9bbc 7c3c a1bd 9242 0d3d
00000030: 18a7 9d3c 1238 98bc 9dcf 3f3d 71b8 f5bc
00000040: 7ce1 38bd 24a9 10bc f185 173c de7f 3b3d
00000050: 42a4 5bbd ed05 cdbd d2e7 fabd b1fd 673d
00000060: ed85 5f3d a497 cabd 04a9 a63d 14ed eb3d
00000070: 72c7 553d 1d60 f5bd 8f8f 85bd 64fa f43d
00000080: da74 02be 3341 3bba 82a0 35bd ad78 59bd
00000090: ffd0 ce3c 3313 04bd 2951 80bd cc1f 59bd
000000a0: 3d14 5ebd d71b ac3d 0a55 d03d c844 11bb
000000b0: 090d 11bd 841c 053c 5e4f 14bd b7fc 803d
000000c0: 1e88 fd3a 7b0e 48bd 4e44 dcbc 0428 b13d
000000d0: 9dbb 02be 9610 e4bc 15df a03d f059 17bd
000000e0: 2ad1 353d a0ec 02be 8444 bcbc 5dc7 62bd
000000f0: 4dc0 3e3c 416c a4bd c6b9 5fbc 575e d63d
00000100: bb15 85bd d70a d13d 005d d23d 07cf 93bd
00000110: 6e6b 413c 0fce 913c 5f9c ff3b b2bf 9abd
00000120: 572d af3d 824b 19bd 4695 27bd 5fb1 a2bd
00000130: 3bb6 10bd 0a8d 1dbd 57e5 04bd 5dcb 81bd
00000140: f841 e5bd b4c2 9cbc adca f0bd eaa2 a5bd
00000150: afdb 7b3d a8bb 9e3d 4b43 1f3c 9802 67bb
00000160: 1fc8 9f3d be4a 0a3d 6e6b 933d 1fe0 05bd
00000170: 4f6d 84bd 4322 9abd a7fc dd3d 0107 89bd
00000180: cb6c 963d 46e7 a73d da64 05be 7266 1a3c
00000190: b09c 043c e311 513d 909a 0b3c 716b b33d
000001a0: ac4a 003d 6391 9c3d e9b3 a93d 9da2 c6bd
000001b0: 46a3 a4bd 4050 f33a c059 b83c 79a9 e1ba
000001c0: 547d 233d 978f 8e3c 22ca 873d f370 b13c
000001d0: 7818 a1bc 6475 c0bd 8e7f 03be 5e7c e43c
000001e0: 4bef 0ebb ea24 a5bd 106e ef3b de3a e9bd
000001f0: 3dc8 bfbc be57 0cbe c512 a03d 28b8 1f3d
00000200: d731 00be a696 823d 3a3c e6bd 1e9a b5bc
00000210: 38ee 02bd af30 f2bc e215 e1bd d8ae e3bc
00000220: 570e 9e3d 7d35 ae3d 57d3 2f3d c3d8 84bd
00000230: e471 bfbb 9497 88bd 5e31 1d3d 2d49 763d
00000240: 8ac4 60bd c419 19bd 861e 0ebe 9ded a9bc
00000250: 4059 e4bd cac2 c0bd b664 0ebe fe3e fa3a
00000260: 5971 11be c8b0 873b 7e64 a4bd 1add 57bc
00000270: 2256 f4bd 4d9a 0cbd 95bc 243d 148c 90bd
00000280: 450e e4bc f69c 513c 348f b2bd a315 983d
00000290: cae6 993c e983 01bd fb93 babd b546 66ba
000002a0: b306 503a 8a40 97bd 12aa efbd fcbc 8abd
000002b0: 4559 e1bb 5cf4 adbc 4432 d1bd c901 b3bd
000002c0: 1808 113d 07ac 67bd 9fc0 b9bd 03f4 04be
000002d0: 6009 48bd bbe1 52bd b6f0 a0bd b2ac 12bc
000002e0: a72c cc3d 2b7f 953d 0016 22bd 0f5a adbd
000002f0: 423b 1bbd 6c6e 033a ff06 973d 6ad7 b93d
00000300: e367 b83d b030 20bc 9445 ccbc fb77 6abd
00000310: 7011 90bd 3865 40bd 35b8 dbbd c660 c83d
00000320: 355d bcbc 13da 05be c01b aabd ac02 f8bd
00000330: a118 9abd 7c6a 0bbc aa77 67bd 2d70 b9bd
00000340: 314c b2bd 0500 64bd acc7 b7bd 8284 42bd
00000350: 2359 acbc ac9d 8b3d 8194 823d cd84 b1bd
00000360: 4bcf 13be 3875 a73d fe2d 6ebd 38d1 b6bd
00000370: 4e18 e4bd 840f 0abe f6d6 d4bb 93c8 09bd
00000380: a295 36bc ba10 30bc c8da 833d 3124 71bd
00000390: 6e3e aabd db6c 89bd 5b27 f73c 7247 b1bc
000003a0: fda2 253d 9b22 92bd 68ac b4bd 594d 203d
000003b0: f75c 11be 0e84 873d b1bf b4bd 6dbf 74bd
000003c0: 59e9 4fbd be5b 393d 8b05 02be 4ae7 2ebb
000003d0: 6b17 7d3d 51c2 f6bc 1203 37bd 3a8c febd
000003e0: 325f 0cbe 11c6 ba3c 391d 50bd 2e46 90bd
000003f0: ebc1 e0bd 297e b03d e581 1fbd d39b 08be
0.08260241 0.091093846 -0.09187417 0.1141784 -0.040363736 -0.09758321 -0.102102876 0.052310605
0.01671895 -0.01902275 -0.078728646 0.034487315 0.019244716 -0.018581424 0.046828855 -0.029995175
-0.045136914 -0.008829389 0.009248243 0.04577624 -0.053623445 -0.10010896 -0.122512475 0.056638423
0.05457108 -0.098922044 0.08137706 0.115198284 0.05219216 -0.11981223 -0.06521522 0.11961821
-0.12739888 -0.00071431993 -0.044342525 -0.0530936 0.025246141 -0.032244872 -0.0626548 -0.05300884
-0.05421852 0.084037475 0.1017247 -0.002216624 -0.035412822 0.008124474 -0.036208503 0.062982015
0.0019342934 -0.048841935 -0.026888039 0.086502105 -0.12766881 -0.02783994 0.078550495 -0.036951005
0.044388928 -0.12785578 -0.02298189 -0.05536591 0.011642528 -0.0802846 -0.013655132 0.10467213
-0.064982854 0.10207146 0.102716446 -0.07217222 0.011805398 0.017798452 0.0078006233 -0.07556094
0.0855357 -0.037425525 -0.040913843 -0.07943987 -0.03533004 -0.038464583 -0.032445278 -0.063376166
-0.11194223 -0.01913581 -0.11757407 -0.08087714 0.061488803 0.07750636 0.009720634 -0.0035249349
0.07801842 0.033762686 0.07198225 -0.03268444 -0.064661615 -0.07526066 0.10839205 -0.06690789
0.07344969 0.08198409 -0.13026753 0.009423839 0.008093998 0.05104245 0.008520737 0.08760727
0.031321213 0.07644918 0.08286268 -0.09698985 -0.080389544 0.0018563345 0.022503734 -0.0017216644
0.039914444 0.017402453 0.06630351 0.021660304 -0.019664988 -0.093973905 -0.12841627 0.027891334
-0.002181011 -0.080636814 0.0073068216 -0.11388181 -0.02341091 -0.13705346 0.0781608 0.038993984
-0.12519012 0.0637639 -0.11241956 -0.022168215 -0.031965464 -0.02956423 -0.10990502 -0.027793333
0.07717579 0.08506296 0.04292616 -0.064866565 -0.0058424342 -0.06669536 0.03837716 0.06012838
-0.054874934 -0.037378088 -0.13878831 -0.020743186 -0.111498356 -0.09412153 -0.13905606 0.001909226
-0.14203395 0.004140947 -0.0802698 -0.013175273 -0.11930491 -0.03432684 0.04021891 -0.07057968
-0.027838835 0.01279377 -0.0871872 0.07426002 0.018786807 -0.03161994 -0.09110256 -0.000878434
0.00079355686 -0.07385357 -0.1170236 -0.06774327 -0.006877097 -0.021234684 -0.102146655 -0.08740575
0.03540811 -0.056560542 -0.09069943 -0.12983708 -0.048837066 -0.051484805 -0.07858412 -0.008952307
0.09969454 0.07299646 -0.039571762 -0.08464443 -0.03789831 0.00050137076 0.07374381 0.0907429
0.0900419 -0.009777233 -0.024935521 -0.05724333 -0.07034576 -0.04697153 -0.10728494 0.09784083
-0.022993663 -0.1307147 -0.08306074 -0.121098846 -0.07524229 -0.008509275 -0.056510605 -0.09054599
-0.087059386 -0.05566408 -0.08973631 -0.04748965 -0.021038597 0.06817183 0.06375981 -0.08667908
-0.14434545 0.081766546 -0.05814933 -0.08926624 -0.11137448 -0.13482481 -0.006495352 -0.033638548
-0.011144074 -0.010746175 0.064382136 -0.058872405 -0.08312689 -0.06710216 0.030170133 -0.021640513
0.04043864 -0.07135507 -0.088219464 0.039136264 -0.1419562 0.06616984 -0.08825625 -0.05975287
-0.050759647 0.045253508 -0.12697427 -0.0026688152 0.06178991 -0.030121954 -0.044680662 -0.1242909
-0.13708189 0.022799524 -0.05080912 -0.07044636 -0.10974487 0.08617813 -0.038942236 -0.13340692

state_encoder.layers.2.bias f4 [32]
00000000: b109 343d 7936 5bbd fa52 7e3d 897e c4bc
00000010: 3120 99bd f992 853d efd1 7bbd 496c b13d
00000020: a1b1 e23d 4e1b 5e3b fefc 96bd b09e a23d
00000030: 1f4b d03d 86a7 93bd 82f9 91bd 227b 993d
00000040: 6303 063c 4022 713d 9a49 a83d 3ea4 b4bd
00000050: fe64 243b b50a 9b3d 18aa e0bd efe8 acbd
00000060: 3744 e33c c7ad e63c 5ad4 dabd 11f4 ecbd
00000070: e05e 463b 0961 cdbd 171f 30bd 1a70 dbbd
0.043954555 -0.053518746 0.06209085 -0.023986118 -0.07476843 0.065221734 -0.061479505 0.08663232
0.11069036 0.0033890787 -0.07372473 0.079404235 0.10170578 -0.07209687 -0.07127668 0.07494189
0.008179518 0.058870554 0.082171634 -0.08820389 0.002508461 0.075704016 -0.10969943 -0.08442866
0.027742488 0.028159035 -0.10685034 -0.115699895 0.0030268952 -0.100282736 -0.0429984 -0.10714741
