get_descriptor_megnet/saved_models/gllb-sc_252/state.pt (torch, 710298 bytes, 105 tensors)

bond_expansion.rbf.centers f4 [100]
00000000: 0000 0000 62de 4e3d 62de ce3d ca26 1b3e
00000010: 62de 4e3e fd4a 813e ca26 9b3e 9602 b53e
00000020: 62de ce3e 2eba e83e fd4a 013f e338 0e3f
00000030: ca26 1b3f b014 283f 9602 353f 7cf0 413f
00000040: 62de 4e3f 48cc 5b3f 2eba 683f 14a8 753f
00000050: fd4a 813f f0c1 873f e338 8e3f d6af 943f
00000060: ca26 9b3f bd9d a13f b014 a83f a38b ae3f
00000070: 9602 b53f 8979 bb3f 7cf0 c13f 6f67 c83f
00000080: 62de ce3f 5555 d53f 48cc db3f 3b43 e23f
00000090: 2eba e83f 2131 ef3f 14a8 f53f 071f fc3f
000000a0: fd4a 0140 7786 0440 f0c1 0740 6afd 0a40
000000b0: e338 0e40 5d74 1140 d6af 1440 50eb 1740
000000c0: ca26 1b40 4362 1e40 bd9d 2140 36d9 2440
000000d0: b014 2840 2a50 2b40 a38b 2e40 1dc7 3140
000000e0: 9602 3540 103e 3840 8979 3b40 03b5 3e40
000000f0: 7cf0 4140 f62b 4540 6f67 4840 e9a2 4b40
00000100: 62de 4e40 dc19 5240 5555 5540 cf90 5840
00000110: 49cc 5b40 c207 5f40 3c43 6240 b57e 6540
00000120: 2fba 6840 a8f5 6b40 2231 6f40 9b6c 7240
00000130: 15a8 7540 8ee3 7840 081f 7c40 815a 7f40
00000140: fd4a 8140 bae8 8240 7786 8440 3424 8640
00000150: f1c1 8740 ad5f 8940 6afd 8a40 279b 8c40
00000160: e438 8e40 a0d6 8f40 5d74 9140 1a12 9340
00000170: d7af 9440 934d 9640 50eb 9740 0d89 9940
00000180: ca26 9b40 86c4 9c40 4362 9e40 0000 a040
0.0 0.05050505 0.1010101 0.15151516 0.2020202 0.25252524 0.3030303 0.35353535
0.4040404 0.45454544 0.5050505 0.5555555 0.6060606 0.65656567 0.7070707 0.75757575
0.8080808 0.85858583 0.9090909 0.9595959 1.010101 1.060606 1.111111 1.1616161
1.2121212 1.2626263 1.3131313 1.3636364 1.4141414 1.4646465 1.5151515 1.5656565
1.6161616 1.6666666 1.7171717 1.7676767 1.8181818 1.8686868 1.9191918 1.9696969
2.020202 2.070707 2.121212 2.1717172 2.222222 2.2727273 2.3232322 2.3737373
2.4242425 2.4747474 2.5252526 2.5757575 2.6262627 2.6767678 2.7272727 2.777778
2.8282828 2.878788 2.929293 2.979798 3.030303 3.0808082 3.131313 3.1818182
3.2323232 3.2828283 3.3333333 3.3838384 3.4343436 3.4848485 3.5353537 3.5858586
3.6363637 3.6868687 3.7373738 3.7878788 3.838384 3.8888888 3.939394 3.989899
4.040404 4.090909 4.141414 4.1919193 4.2424245 4.292929 4.3434343 4.3939395
4.4444447 4.4949493 4.5454545 4.5959597 4.646465 4.6969695 4.7474747 4.79798
4.848485 4.8989897 4.949495 5.0

embedding.layer_node_embedding.weight f4 [89, 64]
00000000: 51a9 7cbf fee2 42bf da06 75bf e31c 26be
00000010: 66d4 90bf 69c3 5fbe b849 e5bf 1d10 053e
00000020: 2aa7 a23f 157f 11bd 1f28 a93e a076 36bf
00000030: 5613 04c0 e6bf 5f3f 2863 f5bf dbd1 963e
00000040: 32e3 ca3f 28c7 fb3d 65ac 13c0 eded a6be
00000050: f806 023e 565c 08c0 06fc b83e 16d8 00bd
00000060: ee51 a63f e066 4a3f 4033 cc3f 9531 cebe
00000070: a3ff 97bf 78a0 b5bf 06a9 7a3f 8dc8 c0be
00000080: 9fc3 f7bf 0b74 c1bf e7bb 80bd 73c6 1040
00000090: 5312 333f aade 9a3f 592e bc3f 8aea f43d
000000a0: 8a6e 2bbf 657b f13f 4144 183f 1f40 e73f
000000b0: 4173 733e 0587 103f 8ea5 68bf 0aed acbf
000000c0: 210c b0be f026 76bf 0f91 353f 5020 54bf
000000d0: 0a26 f2bf 0d51 f2be cb10 ef3e 646e 1ebf
000000e0: 53c9 1f3f e39a d3bd 5ec9 37c0 cec5 4fbf
000000f0: f9f1 313f 5f62 abbf 9098 843f cdca 343e
00000100: e795 f53f 62b9 bdbd b811 0e3f 6964 22be
00000110: 269c 1b3f 5d70 1dbf 6423 09bf baff f73e
00000120: ed65 97bf a63c 2040 735a a1bf 7ef4 afbf
00000130: 126d 7d3f dd8e 28bf 79bb 6b3e 4c07 763f
00000140: e26a 50bf 7927 d73f c8aa 87bf 0162 97bf
00000150: f990 8d3e 3625 5040 c29e 873e 60d3 023e
00000160: 7d22 453e 0220 7d3c 1f84 bfbe 22e5 d2be
00000170: 04de b83f d627 0340 1c43 29c0 168e 893d
00000180: 9a92 543f 5341 c83e 9061 48bf 642d 8fbb
00000190: 60b2 823f ca25 8abf ab14 eabd 8a05 893f
000001a0: b587 87bf c010 c03f a4ea abbe 4cab aa3e
000001b0: 263a 903e 3700 54be 3ca8 603f f36c 3b3d
000001c0: 1242 3ebf 367c 6f3f 0b64 753f 6e69 2fbe
000001d0: cf56 42bf d2d8 d0bc e1b1 fb3e 28ea f73e
000001e0: 6f6a 07bf 8c39 95bf be76 273d bec8 de3f
000001f0: f4a6 62be fce0 89bf 8c3d 7f3e 25b8 17c0
00000200: 28f6 613e a8f0 d93e e9f2 a9be fb50 e23e
00000210: dcc9 22bf 1325 fe3d 5232 7ebd 90dd 4d3f
00000220: 0265 be3f df04 343f 506a 4abf 4dec a33f
00000230: ad8c 7ebf 483c cdbe 5c5f 01bd 1450 af3f
00000240: e58b b53f d650 f13e 8c37 43bf f036 ddbe
00000250: dd13 c83e af01 ad3f b5e1 5e3e c238 d6b9
00000260: 3ac0 bb3f 3750 10bf 1fde 9dbf 6f46 233f
00000270: a646 f6be a3a3 97bd 9cc4 be3d 2253 cb3d
00000280: be70 9e3f b4f1 573f f710 31bf cc9d 253f
00000290: 8bbe 51bf 439b cabd 0b13 64bf 1080 cdbf
000002a0: f48a c2bf 2d6b 98bd b884 903e 56c6 bc3e
000002b0: 4178 68be b1b1 7e3f 394c 1f3f 0717 60bf
000002c0: 351d 653e ffde fd3f 67ad 18bf c9c9 773f
000002d0: 6fc0 b6bf ce48 b5be 3226 44bf a43f a9bf
000002e0: 8e8d 0b3f c986 013f c602 e03e 57e2 8abf
000002f0: c228 8fbe 92a8 af3e a1c9 483f ca6d e93f
00000300: e107 1dbe 2c00 43bf 7261 f43f 97c7 0e3f
00000310: 2490 99be dd5f debd d1ab 9abe e4d0 afbf
00000320: bef6 963f 2985 7fbf 6a66 833f 4653 5d3f
00000330: b9db 07bf ff3e 653f ae11 9dbf 9c1a 843f
00000340: 2458 d33f 8be1 a93f e396 9a3f a187 b13e
00000350: d31e cdbf f93b 683f 0929 813f 0025 1d3d
00000360: 4ef1 f03e fc3c babf c566 293f 38c4 ea3e
00000370: 95de a83f cebb 263f 2d64 0ebf 5f2a 8dbc
00000380: 7be0 86be 4c9a b43e e17c a93f c0aa 64bd
00000390: b5a9 f43e 4045 4c3e 769b c4bf 6155 103f
000003a0: f0a1 a23e a3ca 343f d91b 9b3f 026d 97be
000003b0: 773f 08be 14e0 43be 3737 7ebe a510 3cbf
000003c0: 033a e5be ad92 723e 3a94 623f 568a 54bf
000003d0: 21de 33c0 e204 353f c774 833e 1381 09bf
000003e0: c436 aa3d 4977 9cbe 6e0a 9a3f fadb 35bf
000003f0: a37a 46bf c228 77bf b937 acbf fb6b 61be
-0.98695856 -0.7612761 -0.9571358 -0.16221957 -1.1314819 -0.21851887 -1.7913122 0.12994428
1.2707264 -0.035521585 0.33038422 -0.7127476 -2.0636802 0.8740219 -1.9170885 0.29456982
1.5850585 0.122938454 -2.3073971 -0.32603398 0.12697971 -2.1306357 0.3612978 -0.031456076
1.2993753 0.79063225 1.595314 -0.40272203 -1.1874889 -1.4189596 0.9791416 -0.37653008
-1.9356574 -1.5113539 -0.062858395 2.2621124 0.69949836 1.2099202 1.4701644 0.11958797
-0.66965544 1.8865782 0.5947915 1.8066443 0.23774435 0.56456023 -0.90877616 -1.3509839
-0.34384254 -0.96153164 0.70924467 -0.82861805 -1.8917859 -0.47327462 0.466925 -0.6188719
0.6241657 -0.10332277 -2.8716655 -0.811612 0.69509846 -1.3389395 1.0359058 0.17655487
1.9186372 -0.092638746 0.55495787 -0.15858616 0.6078514 -0.6149958 -0.53569627 0.4843729
-1.182798 2.5037017 -1.2605728 -1.3746488 0.98994553 -0.6584299 0.23020734 0.96104884
-0.8141309 1.6808921 -1.0598993 -1.1826783 0.27649668 3.2522712 0.2648831 0.12775946
0.19251437 0.015449526 -0.37405488 -0.4119044 1.4442754 2.0493064 -2.644721 0.06716554
0.83036196 0.39112338 -0.7827387 -0.0043694247 1.0210686 -1.0792782 -0.11429723 1.0704815
-1.058829 1.5005112 -0.33577454 0.33333814 0.28169364 -0.20703207 0.87756705 0.0457582
-0.74319565 0.93548906 0.9585578 -0.17130062 -0.7591371 -0.025494013 0.49159148 0.48420835
-0.5289678 -1.1658187 0.040884726 1.7405012 -0.22134 -1.0771785 0.24925822 -2.3706143
0.22066557 0.4256642 -0.33193138 0.44202408 -0.6358926 0.12409415 -0.062059708 0.804162
1.4874575 0.7031993 -0.7906847 1.2806488 -0.99433404 -0.40085053 -0.031585082 1.3696313
1.4183317 0.47131985 -0.7625663 -0.43205976 0.39077654 1.3516139 0.21765788 -0.0004085955
1.4668038 -0.563724 -1.2333411 0.6377935 -0.48100775 -0.07404258 0.09314844 0.09927966
1.2378156 0.84353185 -0.6916651 0.64693904 -0.8193137 -0.09892895 -0.8909156 -1.6054707
-1.5198655 -0.07442317 0.28226256 0.36870068 -0.22702123 0.99489886 0.6222568 -0.87535137
0.22374423 1.9833678 -0.5963959 0.96792275 -1.4277476 -0.35407108 -0.7662078 -1.3222547
0.5451287 0.5059629 0.43752116 -1.0850323 -0.27960783 0.34308296 0.7843266 1.823663
-0.15335037 -0.7617214 1.9092238 0.557733 -0.29992783 -0.10858128 -0.3020921 -1.3735623
1.179405 -0.9981256 1.0265629 0.8645519 -0.53069645 0.8954925 -1.227102 1.032062
1.6511273 1.3271955 1.2077297 0.3467379 -1.6025032 0.9071651 1.0090648 0.038365364
0.470591 -1.4549861 0.6617244 0.45852828 1.3192927 0.6513032 -0.55621606 -0.017232118
-0.2634314 0.3527397 1.3241235 -0.055826902 0.47785726 0.19948292 -1.5359943 0.5638028
0.31764174 0.706217 1.2117873 -0.29575354 -0.1330546 -0.19128448 -0.2482575 -0.734629
-0.44770822 0.23688765 0.88507426 -0.83023584 -2.8104327 0.70710576 0.25675032 -0.53712577
0.08311227 -0.30559757 1.2034433 -0.7103878 -0.7753088 -0.96546566 -1.3454505 -0.22013848

edge_encoder.layers.0.weight f4 [64, 100]
00000000: c6a7 d83d 4ef2 a43b 8fec ec3d 7bdb 043d
00000010: 6daa a63d 440b 343c edaf 023e 3c96 113d
00000020: a273 9b3d fd29 df3d dbef edbc d245 4e3d
00000030: f9ed e73b d334 d73d 95ea ac3d 932a 74bc
00000040: d12a 0b3e 7e6f 033d f651 023e 4440 da3d
00000050: c4ae 74bc 365c 48bd b4e9 803b acf0 24bd
00000060: b657 09bd 86c0 ac3c 336b 8b3d 411b cbbc
00000070: 9777 c43c b249 923d 3dcd 863b f7de 8dbd
00000080: 6859 d83d fa1c 95bd bcf0 b03b c4cf a03c
00000090: 925e c63d 3334 d33d be3f 2fbc 595e 41bd
000000a0: 3114 adbd f908 0abd bbcf 1d3d 179c 5c3d
000000b0: d7e5 2a3d 7a93 ab3d 9755 073d f833 9d3d
000000c0: 62cc 243d 9ed4 163d 2611 64bd 11f0 a9bc
000000d0: 7ebd 053c 9c81 963c 5411 483d d64f b83b
000000e0: 6f89 6f3d b048 8fbd 7786 6c3d 57dc 993d
000000f0: c014 f03b b524 8dbd 7160 29bc 4530 65b9
00000100: 9692 cebd 565b b1bd e076 4dbc 00a0 a43d
00000110: 3bdd 643d 5d14 11bd 1763 d239 7a6a 033d
00000120: 96b2 803d 9dc0 c7bc e3c1 96bd d39c 7bbd
00000130: 2f19 bdb8 061b 9a3d 429a 45bd 0e7e 4abd
00000140: 428a 49bd e812 c9bd 6e98 203c eaaa 0c3c
00000150: bf3a a53d 1df5 c9bc 6f89 3c3d 0790 463c
00000160: a118 693d 32e8 2d3c c8cb 08bd 9438 1fbd
00000170: 3712 64bd 7f23 a83d ee33 4b3c e5c9 babc
00000180: c356 043d b66c a6bd b307 54bd d830 26bd
00000190: 5d4f 9bbb eed0 863c 17f6 45bd 195e 3a3d
000001a0: 439e 91bd 2a52 b3bc bf8c e23c 75fb 613d
000001b0: 2ffc 7fbc 4213 e5bc 3821 d9bd b6ec 71bd
000001c0: 9fd3 a5bd 88a7 43bd 21f4 ffbc 8c7a b0bd
000001d0: ef4c 8e3c 40c0 cf3b 0d0f 433c 5d55 95bd
000001e0: ea70 273d 4782 973c 2ed6 6a3d 7042 7b3d
000001f0: e2ef 85bd 6610 86bd b09e 78bd 8084 6e3d
00000200: 1080 d1bc f38d a03d acc7 1cbd ca4c 053d
00000210: 44a9 37bb fc54 0ebd c4a2 8a3d 57b6 90bd
00000220: d3f6 54bc c092 96bd 224a 8b3d ae59 d4bd
00000230: 4e71 2c3c dc27 abbd ea4f b5bc 6d09 cabc
00000240: 747b e73b f6c7 5abd cd13 debd aa3c d13b
00000250: 5ffd 133d 7fca 493d 2f48 92bd 5dbe ecbb
00000260: 50de 80bd 9390 37bd 1622 c9bd ec0d cf3c
00000270: 7448 b63d 198b 10bd 68c0 aabc d37a 9b3b
00000280: 044d acbd 84a2 a13d c397 b63d a45c a7bc
00000290: 04ff 8d3d b0b0 873c 8628 f23c 0db9 50bd
000002a0: ac12 723d 9553 d5bd 937c 523d baa8 80bc
000002b0: 4101 3a3d 23b3 9f3d 9781 803d 1a90 5ebc
000002c0: e367 b5bd d3a4 1e3c fae4 44bd 4d8d b63c
000002d0: d764 c1bc 9e57 77bd af26 afbd 4d9b 623d
000002e0: 04f3 dd3c 4cf5 983d 1e93 ebbc 0ecd bebd
000002f0: 59cb ae3d 78d7 733d ac95 92bd 855e 04bd
00000300: 3067 b33d 0e32 bdbd 5f99 3abc 2625 9a3c
00000310: aaba adbd b849 163d a53a c6bd a433 ff3c
00000320: db72 1fbd 0b66 28bd 58f1 fc3b 568b 40bc
00000330: dc9e 783d 2f92 023e e229 c53d a943 503d
00000340: f833 ff3d 76a5 8fbc 49c3 f43c 8c1c 883c
00000350: 388e f33d 80d4 a03d b5fb e63d 32f1 cf3d
00000360: 8ab0 b23d 840c c63d 379a 783d 40e0 42bc
00000370: 0cfa b5bc ad7b cabc 6906 7dbd ba88 503d
00000380: 2e0c 1ebd 342d 323d f391 30bd f180 33bd
00000390: e55a 28bb b468 3fbd 37a6 7cbc ada2 95bc
000003a0: fb0d 95ba 7fff d13b 278a e4bb c368 d83c
000003b0: 5162 26bc 9b9a c53d 4e8c dd3d c0fb 3bbd
000003c0: 43db 9fbd 5f70 bf3d 0222 53bc c3d4 c73d
000003d0: 9836 ae3d d657 d9bb ad7c a4bd f192 5dbd
000003e0: 07a0 0d3c cbd4 453d b29e 4f3d 3e37 29bd
000003f0: c68e 61bd fd04 c93d 93dd 193d 9976 8e3d
0.10578875 0.005033768 0.115685575 0.032435875 0.08137975 0.010989014 0.12762423 0.035543665
0.075904146 0.108966805 -0.029045036 0.050359555 0.007077929 0.10508122 0.084431805 -0.014902729
0.13590552 0.03208875 0.12726578 0.10656789 -0.0149342455 -0.048916064 0.0039341096 -0.040268585
-0.033530913 0.021087896 0.06807556 -0.02479327 0.023982806 0.071429625 0.004113822 -0.06927293
0.10563928 -0.072809175 0.0053997915 0.01963032 0.096860066 0.103126906 -0.01069635 -0.047209118
-0.08451117 -0.033699963 0.038528185 0.053859796 0.0417231 0.08377738 0.03304061 0.07675928
0.040233977 0.03682386 -0.055680417 -0.020744355 0.008162854 0.01837235 0.04884465 0.0056247516
0.058480676 -0.06996286 0.057745423 0.075127296 0.0073266923 -0.06891767 -0.010337935 -0.00021857124
-0.10086553 -0.08659999 -0.012540549 0.0803833 0.055875044 -0.03541981 0.0004012815 0.032083966
0.062840626 -0.024383837 -0.073612 -0.061428856 -9.016913e-05 0.075246856 -0.048242815 -0.04943662
-0.04920412 -0.09818059 0.009801967 0.008585671 0.080678456 -0.024653012 0.046029504 0.0121193
0.056908254 0.010614442 -0.033397466 -0.038872316 -0.055681434 0.08209895 0.012402518 -0.022801349
0.032309305 -0.08126204 -0.051765155 -0.040573925 -0.0047396854 0.016457047 -0.048330393 0.045499895
-0.07110264 -0.021889765 0.027655004 0.05517145 -0.01562409 -0.027963284 -0.10602039 -0.059063636
-0.08097004 -0.047767192 -0.03124434 -0.08617124 0.01737067 0.0063400567 0.011905444 -0.072916724
0.040879168 0.018494738 0.057333164 0.061342657 -0.06539895 -0.065460965 -0.06069821 0.05823183
-0.02557376 0.07839575 -0.03827636 0.032543935 -0.0028024474 -0.034749016 0.06769326 -0.070660286
-0.012998301 -0.07352209 0.06801249 -0.103686675 0.010525061 -0.08357212 -0.022132833 -0.024662698
0.0070642773 -0.053413354 -0.108436204 0.0063854055 0.036130305 0.04926538 -0.07142674 -0.0072248415
-0.06292403 -0.04481561 -0.098209545 0.025275193 0.08900538 -0.035288904 -0.0208437 0.0047448664
-0.08413127 0.078923255 0.08915665 -0.020429917 0.06933406 0.016563743 0.029560339 -0.05095773
0.05909984 -0.10416333 0.051388334 -0.015705455 0.045411352 0.077978395 0.06274717 -0.013584161
-0.088577054 0.009682852 -0.04806993 0.022284174 -0.023607654 -0.060386293 -0.085523 0.055323888
0.027093418 0.07468662 -0.028756674 -0.09316455 0.08534879 0.05953166 -0.07157454 -0.032316703
0.08759916 -0.09238063 -0.011389106 0.018816542 -0.08482869 0.036691397 -0.09679154 0.031152554
-0.038927894 -0.04111294 0.0077192 -0.01175197 0.060698375 0.12751077 0.09627129 0.050845776
0.12461084 -0.017534953 0.029878275 0.016615175 0.118923604 0.07853031 0.11278478 0.10153426
0.087250784 0.09670356 0.060693946 -0.011894286 -0.022213958 -0.024717176 -0.06177369 0.050911643
-0.038585834 0.04350014 -0.043107938 -0.04382414 -0.0025688943 -0.046730712 -0.015420488 -0.018266046
-0.0011371964 0.0064086313 -0.006974477 0.026417142 -0.010155276 0.09648629 0.108177766 -0.045894384
-0.07805493 0.09347605 -0.012886526 0.09757378 0.08506507 -0.0066327853 -0.080315925 -0.054095212
0.0086441105 0.04829864 0.050688453 -0.04131245 -0.0550678 0.098154046 0.037564825 0.069562145

edge_encoder.layers.0.bias f4 [64]
00000000: 0a8d c63d c50b 65bd f164 c0bd 68b4 5b3d
00000010: e79e 273d 609f c0bd 886d 573c 3edf b83d
00000020: 07cd 663d 1368 953d 3850 ac3d 0319 843c
00000030: 7fe4 a8bd df74 2b3d 4bc7 913d 967f 7f3d
00000040: eaea 023d f3cf aa3d 65bd 103d 002f 86ba
00000050: 772e 45bc a978 3a3b b8d5 c5bd c775 d73d
00000060: 0401 d2bd 4ba1 90bd 6a79 b43c 2248 80bd
00000070: c595 923d f2b0 c43c b9df a33d e258 b7bc
00000080: 854b c03c dbc4 903d 7eeb ae3c b4f5 8bbd
00000090: 9847 7d3d 0e56 aa3d 2a32 e8bc 9f30 b6bd
000000a0: f0bd 123d f2a9 bd3b 07b5 c3bc bde7 a0bc
000000b0: 0056 493c dea7 c5bd 294a ab3a 651d cabd
000000c0: 998a 78bc d027 9dbc 3551 c0bd d454 c03d
000000d0: 3fc3 983d 68ca 3dbd f92f ac3c 5d8d 8abc
000000e0: 6131 103d 44e5 55bd 3900 b9bc 31dc afbd
000000f0: 8c45 2dbd 984c 6fbc 9921 653d 6d8f 403d
0.0969487 -0.055919427 -0.09394253 0.053638846 0.040923025 -0.09405398 0.013148673 0.09026955
0.056347873 0.07295241 0.08413738 0.016125208 -0.08246707 0.041859504 0.0711809 0.062377535
0.031962313 0.083404444 0.03533687 -0.0010237396 -0.012035004 0.0028453267 -0.09659904 0.10520511
-0.102541 -0.07062014 0.022030551 -0.06263758 0.071574725 0.024010155 0.08001656 -0.02238125
0.02347351 0.07068797 0.021352526 -0.068339735 0.061835855 0.08317195 -0.028344233 -0.088959925
0.03582567 0.0057880813 -0.023890032 -0.019641751 0.01228857 -0.09651159 0.0013068366 -0.09868888
-0.015169763 -0.019184023 -0.09390489 0.0939118 0.07459115 -0.046335608 0.021018969 -0.01691311
0.03520334 -0.052220598 -0.022583114 -0.0858692 -0.042302653 -0.014605664 0.055940244 0.04701178

edge_encoder.layers.2.weight f4 [32, 64]
00000000: 5380 c5bd e347 83bd a229 93bc f6c0 f33d
00000010: 3fab 363d a6dd bcbb 2d8c 243d 6726 23bb
00000020: bda9 cb3d 38c1 9e3c 622c f83d 3e83 a9bd
00000030: 3cdd 43bc 7125 9abd e2bb ecbc 79fa 94bd
00000040: e453 f33d f9a4 58bd 6659 b73c 322e f3bd
00000050: eb2a 863d 0b91 203c 41ce 3a3d 5152 8f3c
00000060: b7f1 babd 285d b8b9 e4f0 a63d 210e 0ebd
00000070: ad29 4fbd b1ab 36bd 1b58 8cbd 558b 93bc
00000080: 0965 d9bd c293 1ebd 2e89 ffba 7d96 aa3d
00000090: 98d8 16bd 872a 42bd ca3d 743d 3f69 4fbd
000000a0: a2fc 4abd f698 bf3d 778e ea3d 43f8 c43d
000000b0: f4f7 1ebc a1ba 953d 14b0 d13c 65ed 7c3d
000000c0: d787 ac3d 70a5 1b3d 2d96 48bc ecaf 73bc
000000d0: 84a8 a43d d7cf be3c 5b72 f83d 7ec2 8dbd
000000e0: 60ea 213d 1493 8fbd 7a98 703c 2413 fe3d
000000f0: c36a a53d 7026 a93c 3279 2ebd c3b5 ddbc
00000100: d7c9 f4bd e53e bfbc 10a3 463d c612 ba3d
00000110: 6dad 9f3d 6505 af3d b94a cf3d 4f4d 2cbd
00000120: ac85 fdbd f3ba c23d 7ca7 873c d0f7 663d
00000130: 2097 e93d 55d7 fbbd 12d4 a7bd f260 eabd
00000140: 714f a1bd ae8e febd 787a 0ebc 9f36 d5bb
00000150: e52d 39bd c7a8 86bd 266f e43d 2b33 b8bd
00000160: 3671 e13d 510c 2cbd ddb6 01be 68ee ba3d
00000170: 9692 16bd 022e edbd 4f23 45bc 4481 16bd
00000180: ed5c 013c d56f a3bd a45f c33c fee9 a33c
00000190: e2c1 343c 1e72 ec3c 5121 c0bd 2278 a03a
000001a0: aefc 143d 2281 e93d bf51 ecbd 17b2 213b
000001b0: 4a33 91bb bc55 b33d 786a c13d 020f d83d
000001c0: 8400 163d 74e3 793d cd40 d23d c32b 493d
000001d0: 41e6 99bd e066 a0bb c0ed 313d 5f63 9dbd
000001e0: 143d d5bb a9fc 673d 6812 9d3d 18ae 5e3d
000001f0: 57b6 d23d 0d0d d93c 584b 8cbd 04ab d43d
00000200: b51a d6bd fdc8 8e3d 2c82 d83b 4a8a c93d
00000210: 25d9 27bd 101c 3fbd 8a73 ccbc 088a 77bd
00000220: 4571 213d f870 9bbd 5dbc 96bd ba28 ed3c
00000230: 42bf bf3d 8d00 eebc c5be 2ebb 74c0 6fbd
00000240: dda7 d2bd e39e dfbc de59 dabd e49a af3b
00000250: c451 57bd 29cd 9abd 85c5 bebd c9b3 e33d
00000260: 3e30 e9bd ec84 973b 93be 90bd 21ed 243d
00000270: 9035 75bd c9c6 66bc c3a0 c2bc 8e0d 90bc
00000280: bd0f 7c3d 306a ac3d 8032 f53d a8e6 90bd
00000290: e9e9 a8bc 178e acbd ce5d a73d 170c b33d
000002a0: 7a4d 03bd 3d89 e1bd 81ac e7bc 1b6c ddbd
000002b0: 7f30 a6bd ff28 15bd 5ef7 173d 1f1f be3d
000002c0: 107d 003e a00b e53d 24dd 0bbd b0c0 59bd
000002d0: 4fd0 c03b 6f66 343d b0b5 39bd cecb 283d
000002e0: 76ce 2abd d9cc a73d eb3a 7abd 13b1 783d
000002f0: 3073 d3bc af45 a73d 909f 2fbd 9415 bfbd
00000300: be4e e53d 1364 50bd a2f3 c9bd 6c00 b93d
00000310: 304c 57bb 5229 93bd 8584 b43d cb1c 95bd
00000320: 3315 cbbd 9597 e4bc 19a4 f2bc a976 793d
00000330: e972 50bc 4db1 c63d b2d6 e63c 62a1 d7bd
00000340: d90f 56bd dab3 08be 5495 0dbc 0b5c c0bb
00000350: ed1c 0ebd e431 cdbd 8c5f b6bc 2ff5 8fbd
00000360: 17c0 403d 6775 a1bd 1941 493b 0075 cd3c
00000370: 769a bd3d a451 a3bc 99c9 26bd e0e4 ecbd
00000380: a97a ccbd bf4b 8abd f1f3 2abd 4973 883d
00000390: 0d42 783c acd3 75bd 993d d7bd cde4 1abd
000003a0: e4b0 663d 54dd 8f3c 8197 cebd ae10 bc3d
000003b0: ea20 953c 02d1 a93d e248 50bd d622 dc3d
000003c0: 3452 64bd 609f 963c 33aa 6e3c 0ac2 863d
000003d0: d214 ecbc 304f 953d 9c5c 7e3d 8267 5ebd
000003e0: fbf6 a6bd 323e c93d bc49 bdbc b5b6 d4bd
000003f0: 3c5b 623d 8f51 9fbd f582 39bd 33f6 983d
-0.096436165 -0.06410196 -0.017964188 0.11902039 0.044596907 -0.0057637272 0.040172745 -0.0024894716
0.099444844 0.019379243 0.1211784 -0.082769856 -0.011954602 -0.07526673 -0.028898183 -0.07274336
0.11881235 -0.052891705 0.022381496 -0.118740454 0.06551155 0.009800206 0.045606855 0.017495306
-0.09128135 -0.00035164622 0.08151415 -0.034681443 -0.050576854 -0.04459733 -0.06852742 -0.018010775
-0.10614974 -0.03871513 -0.0019495839 0.083294846 -0.036827654 -0.04740384 0.05962924 -0.05063748
-0.049557336 0.09355347 0.11452954 0.09617665 -0.009702671 0.07310987 0.025596656 0.061749835
0.08424347 0.03799957 -0.012242836 -0.014873486 0.08039954 0.023292465 0.121311866 -0.06921862
0.039530158 -0.07010475 0.014684791 0.124059945 0.08077004 0.020648211 -0.04259605 -0.02706421
-0.119525604 -0.02334542 0.048495352 0.09085612 0.0779675 0.08545951 0.10121674 -0.042065915
-0.123790115 0.09508314 0.016559355 0.056388676 0.11405778 -0.12296931 -0.08194746 -0.11444272
-0.0787648 -0.12429558 -0.008696191 -0.0065067555 -0.045209784 -0.065751605 0.111540124 -0.089941345
0.110079214 -0.042003933 -0.12667413 0.09127504 -0.03676089 -0.11581041 -0.012032344 -0.03674437
0.00789569 -0.07980315 0.023849316 0.020009037 0.011032553 0.028863009 -0.093813546 0.0012242834
0.036373787 0.11401583 -0.11539029 0.00246728 -0.004431163 0.08756587 0.094441354 0.105497375
0.036621585 0.06100793 0.10266266 0.049114 -0.075146206 -0.004895076 0.043439627 -0.07684969
-0.006507525 0.05663744 0.07669526 0.054365247 0.10288685 0.02649548 -0.06850308 0.10384181
-0.10454313 0.06971929 0.0066073146 0.0984083 -0.04097857 -0.04665762 -0.024957437 -0.06043437
0.039414663 -0.075899065 -0.07360146 0.028950084 0.093626514 -0.029052997 -0.0026664 -0.058533147
-0.10285924 -0.027297443 -0.10661672 0.0053590406 -0.052568212 -0.075586624 -0.093150176 0.11118276
-0.113861546 0.004624 -0.07067599 0.040265206 -0.059865534 -0.01408548 -0.023758298 -0.017584588
0.061538447 0.08418691 0.11972523 -0.07075244 -0.02061935 -0.08425539 0.08172189 0.0874254
-0.03205631 -0.11012504 -0.028280498 -0.10811635 -0.08114719 -0.03641605 0.037101142 0.0928328
0.12547708 0.11183858 -0.034146443 -0.053162277 0.0058842073 0.044043 -0.045339286 0.04120999
-0.041700803 0.081933685 -0.061091345 0.060715746 -0.025811762 0.08167588 -0.04287678 -0.093302876
0.111966595 -0.05087669 -0.098609224 0.090332836 -0.0032851808 -0.071856156 0.088143386 -0.072808824
-0.09916153 -0.027904311 -0.029619263 0.06090418 -0.012722709 0.09701786 0.028178547 -0.10528828
-0.052261207 -0.13349858 -0.00864156 -0.0058703474 -0.034695555 -0.100192815 -0.022262357 -0.07029187
0.04705819 -0.07883721 0.0030708967 0.025080204 0.09257977 -0.01993639 -0.040719602 -0.11567092
-0.09984333 -0.06752729 -0.041736547 0.06662614 0.0151524665 -0.06001632 -0.10509796 -0.037815858
0.05632104 0.017561592 -0.10087491 0.09182869 0.018204171 0.08291818 -0.050850756 0.10748832
-0.055742458 0.018386543 0.014566946 0.06579979 -0.028818522 0.072904944 0.062100038 -0.05429793
-0.081525765 0.09826316 -0.023106448 -0.10386411 0.05526279 -0.07779228 -0.045290906 0.07468834

edge_encoder.layers.2.bias f4 [32]
00000000: 41d1 90bd e533 c0bd d189 82bd 9ebb 1fbd
00000010: a11a 29bc ba92 70bd 914b 8ebd 9252 ca3d
00000020: c9a8 e2bd 304b 193d 24df 9c3d 1e2d a8bd
00000030: 370e 9cbd 3c4d 35bd 2ff1 b2bd 151e 81ba
00000040: 141c c8bd f482 0cbe a028 75bd 1b56 b5bd
00000050: 9fb4 41bd bdff 03be 3c79 c03a d6d8 41bd
00000060: 83bd 4dbd 6683 83bc fc05 863d 6fbb 9c3d
00000070: eed3 3e3d dbba db3d c988 853d a468 dfbd
-0.07071162 -0.09384898 -0.06373943 -0.038997285 -0.01032129 -0.05873368 -0.06948007 0.0987903
-0.110673495 0.03742522 0.07659748 -0.082117304 -0.07619899 -0.04426311 -0.08737408 -0.0009850884
-0.097709805 -0.1372183 -0.059853196 -0.08854314 -0.047291394 -0.12890525 0.0014684568 -0.04732593
-0.05022956 -0.016053867 0.0654411 0.076529376 0.04658883 0.10728999 0.0652023 -0.109086305

node_encoder.layers.0.weight f4 [64, 64]
00000000: 3e31 04be 7328 a1bb ac10 43bd 2de1 18be
00000010: 93e1 adbd 516a 11bd 1bea 58bd 89ad 04bd
00000020: fd36 35bd 0726 41be 6c77 dc3d 574e 2a3e
00000030: ea9e c9bc 7ceb b33d 4740 8abd 429f a7bd
00000040: b012 1c3d d987 c13d 2683 bebd d8c0 e03d
00000050: e72e f23d 5acc 1abe e8e2 523e dd34 1f3e
00000060: 50cc 123e 1918 9cbd 912e ecbc 7728 a53d
00000070: 9186 643d f6ca 2c3e 1abc 283b 6dea a03d
00000080: 0974 05be 39d6 6bbd 7aec dcbc 4e3e 4fbc
00000090: c3aa 34bd 75b1 30bc 7ab5 9fbc ceca 29be
000000a0: eb53 dbbd e1fa 6ebd 859c 363d f2a3 acbb
000000b0: eceb 53ba c70b 3e3e f4f7 41be 9d17 4f3d
000000c0: 4356 d3bd c8eb 89bd bd54 34bd 31f1 dcbd
000000d0: 078e cfbd c000 1fbc e75d 773d 3e32 1cbe
000000e0: 3f3d 06bd 6765 103e ed80 e13c f271 3e3e
000000f0: 0fb2 013e c9be d7bc 9902 973d e24d 91bc
00000100: 298c 55bd 7e5a cbbd b23e b2bd 079f 7abd
00000110: 6d73 46be 9cf1 de3d 771f 6d3d 95be bcbc
00000120: 9f64 bd3c 5bae b13d 2921 6c3d a272 9d3c
00000130: 38d7 ec3d 9cd0 a23d 2fd1 88bd 850e d03c
00000140: 33f0 c33c 559a cc3d 6a42 febc 4778 c83c
00000150: e55a 77bd de51 c5bd e7c6 27bd 51b4 b53b
00000160: c737 cbbb 4feb abbd 668b c53d 4ecb 053d
00000170: e5d6 543e 28ce 8bbb 5770 143c 1537 ae3d
00000180: e720 9bbd efd8 223e 0aea 363e 12a4 0c3d
00000190: 783b fb3c 0aca 073e 0970 e73c 24d7 823b
000001a0: 989f f7bd bdd9 c13d 10b1 343e 2dbe 9ebb
000001b0: 92ce 76bd 986d b83d b09d f7bd d1c9 dd3c
000001c0: 344c dfbd d396 a63c c0fc 323d 1785 58bd
000001d0: 06ed 8dbc ebe9 e23c bbdf 11bd 8cf1 d5bd
000001e0: 770e 753b 0e99 ddbb 5849 70bc 70f0 b2ba
000001f0: 6702 c43c 448c aabb 4a2d 133e abff b93d
00000200: e860 173d bb4c 6abd 6f44 32be eb79 343d
00000210: 835e b1bd 95d9 31bd 1d56 91bd 8c3b 253d
00000220: 9431 d33d d70a 07be e280 96bd b7a3 84bc
00000230: 5030 bf3d 6aa5 043e 1143 dabd de9a b0bd
00000240: cacd 023e e05c 2e3e 7ce1 71bd eb31 91bb
00000250: b1e1 bc3d 6b66 613c 6127 603c 31e9 e73d
00000260: c4aa efbd d03f 9ebc 81f6 8b3d 5bdb 213e
00000270: fdb4 c33d 68ec 0b3e d759 d5bd e7ea 133b
00000280: b3f5 10be 549e 01bd 9e1d 363d dade 0fbd
00000290: 12c4 84bd d8df 163e a73d 9c3d 706d a5bd
000002a0: 6cb2 f23c 9f3a 8c3d b824 3e3d 9726 513d
000002b0: f428 97bd e4d9 f43d 91d7 07be 5eb0 663d
000002c0: 406e 20be 1043 bbbd 1dcd 3ebc fc50 10be
000002d0: 78ce 19be e338 053d f5b8 8f3d 174c 9bbb
000002e0: 98ad 28be 6e41 9bbd 19ab 0dbe 245a 9f3c
000002f0: 88fe 4cbd b541 0db9 af1a 1d3d d30c dc3d
00000300: 7c17 a9bd 9e44 c1bc bc2b c6bd 82ff 20be
00000310: a1f1 9c3d 312f 713d 8daf e2bd 05f7 a7bb
00000320: 0e4f 623d 020c 4cbc 43ba cf3c 8535 23bd
00000330: b47e 823c 083f 8f3d 25be 04be ce04 dcbd
00000340: ff65 d93c 48e8 db3d 6209 823d d295 943d
00000350: d360 b33d 53ea d63c 2edb 59bc 5e06 a9bd
00000360: 6f7a 2fbe 590a 363d 2600 b33d 0e19 e2ba
00000370: 7a29 9b3d 3d83 2a3d fe8c d0bd 71bb 573d
00000380: c428 933d e3f3 2f3d a64f ba3d 3a1b aa3d
00000390: ac75 373d b17c d8bd 5cfe a5bd 7281 d9bd
000003a0: 0deb 17be decd 2c3e 7e97 9a3c 9eb0 12bc
000003b0: ef44 b9bd d47b 4c3c b9fe 0fbe a377 153e
000003c0: 41fc 9b3d cb3c 073e 1968 75bd 2ff2 8cbd
000003d0: b286 d5bc 7024 41bd b9fb 763d b955 b53c
000003e0: e715 e0bd 2d99 ea3d f083 08be dd77 243d
000003f0: 709f 153c eeb0 0abe 66bb b93d ea76 1c3e
-0.1290941 -0.004918152 -0.04762332 -0.14929648 -0.084902905 -0.03550178 -0.052957635 -0.03239206
-0.044241894 -0.18862163 0.107649654 0.16631447 -0.024611909 0.087851495 -0.06750541 -0.08184673
0.03810376 0.09449739 -0.09302358 0.10974282 0.11825352 -0.15117016 0.2059437 0.1554751
0.14335752 -0.07621784 -0.028830798 0.08064359 0.055792395 0.16874298 0.0025746883 0.07857213
-0.13032545 -0.057577346 -0.02696823 -0.012649132 -0.044108164 -0.010784497 -0.019495714 -0.1658127
-0.107093655 -0.058344726 0.044582862 -0.0052685672 -0.00080841663 0.1855918 -0.18942243 0.05055963
-0.103191875 -0.06734425 -0.044026125 -0.10788191 -0.101345114 -0.009704769 0.060392287 -0.15253541
-0.032773253 0.14101182 0.027527297 0.18598154 0.1266558 -0.02633609 0.07373542 -0.017737333
-0.05213562 -0.099293694 -0.087033644 -0.061186817 -0.19379969 0.10885927 0.057891335 -0.023040095
0.023119269 0.08675834 0.05764881 0.0192197 0.11564487 0.07949945 -0.066805236 0.025397548
0.023918247 0.09990374 -0.031037528 0.024471415 -0.06038942 -0.096347556 -0.040961172 0.005545177
-0.0062017175 -0.08394491 0.09645729 0.03266459 0.20785101 -0.004266519 0.009059987 0.085066
-0.07574635 0.15903066 0.17862716 0.034336157 0.030668005 0.13260666 0.028251665 0.003992932
-0.12090987 0.094653584 0.17645669 -0.004844448 -0.060255595 0.09005278 -0.120906234 0.027073773
-0.109032065 0.02033559 0.043698072 -0.0528613 -0.017324936 0.027699431 -0.035613757 -0.10446462
0.0037392655 -0.0067626303 -0.014665924 -0.0013651978 0.023926927 -0.0052047092 0.14372745 0.09081968
0.03695765 -0.057202082 -0.17408918 0.044061583 -0.08660605 -0.043420393 -0.07096503 0.04033999
0.10312191 -0.13187729 -0.07348801 -0.016191347 0.09335387 0.12953725 -0.10657323 -0.086232886
0.12773815 0.17027617 -0.05905293 -0.0044309995 0.09222735 0.0137573285 0.013681264 0.113237746
-0.11702493 -0.019317538 0.06834126 0.15806334 0.09556005 0.136644 -0.10417526 0.0022570433
-0.14156227 -0.031645134 0.04446184 -0.035124637 -0.0648271 0.14733827 0.07628947 -0.08077514
0.029626094 0.068471186 0.046421736 0.051062193 -0.07380858 0.11955622 -0.13265826 0.05632054
-0.15667057 -0.091436505 -0.0116455825 -0.14093393 -0.15020168 0.032524955 0.070177 -0.004739295
-0.16472471 -0.07580839 -0.138348 0.019452162 -0.050047427 -0.00013471286 0.038355526 0.107446335
-0.082564324 -0.02359229 -0.096763104 -0.15722468 0.076632746 0.058882896 -0.1106864 -0.0051258826
0.055251174 -0.012454035 0.025357371 -0.039845962 0.015929557 0.06994444 -0.1296316 -0.10743104
0.026537893 0.107376635 0.06349446 0.072551385 0.08758702 0.026234781 -0.013296885 -0.082531676
-0.17136548 0.044443462 0.08740263 -0.0017249899 0.075762704 0.041629065 -0.10183142 0.052668992
0.0718551 0.042957198 0.09097223 0.08305974 0.044789955 -0.10570658 -0.08105156 -0.10620393
-0.14835759 0.16875407 0.018871065 -0.008953242 -0.09046351 0.012480695 -0.14062013 0.14596419
0.07616473 0.13206784 -0.05991373 -0.0688213 -0.026065204 -0.04715389 0.060298655 0.022135602
-0.109416775 0.11454997 -0.1333158 0.040153373 0.009132251 -0.13544056 0.090689465 0.15279737

node_encoder.layers.0.bias f4 [64]
00000000: 65b5 babc 06d9 6cbd bb4a 8ebd f2d3 e13d
00000010: 5a1c 25bd 1eed 8abd ec65 d1bd c80a 38bc
00000020: 4253 1a3e 9c78 69bd b96e 923d 3766 fd3d
00000030: b831 1e3e 59f6 f03c 2e01 9e3d eb9f 7fbd
00000040: 50af 713d d74d dbbd 552f 9dbd dae9 12bc
00000050: 05a6 0a3e 4ccb 113e 1e3c 813d d424 823c
00000060: 03a3 e83d d35f bebc bd39 a53c c41f a23d
00000070: 5617 013e f820 ea3d b4f3 d43b aa87 2d3e
00000080: 3ed1 963d f00b d8ba e94e 5ebc 9153 69bc
00000090: 2f20 17bd 15b7 8e3d 2089 bfbd b952 ae3d
000000a0: b815 193e 6eeb 403e 7d75 2d3d c11d 10bd
000000b0: b462 e43c 38e2 1f3e ca3f 86bc f703 1bbd
000000c0: bc47 0dbd 1028 e63d ad86 123e 34a7 be3d
000000d0: fbf3 f53d 0ca6 a23d d1cf 1d3e 2bcc b13d
000000e0: ebf3 013d fc86 273e 9f98 213d 410d 613d
000000f0: 5793 de3d f067 bf3b 2436 97bd ec3a 853d
-0.022791574 -0.057824157 -0.069478475 0.110267535 -0.04031024 -0.06783508 -0.10224518 -0.011233039
0.15070823 -0.056999788 0.07150025 0.123730116 0.15448654 0.029414343 0.07715069 -0.06240837
0.05900508 -0.10708206 -0.076750435 -0.008966887 0.13539894 0.14237708 0.063102946 0.015886702
0.11359217 -0.023239052 0.020169133 0.07916215 0.12606558 0.114320695 0.0064987782 0.16946283
0.073641285 -0.001648305 -0.013568618 -0.014241115 -0.036895927 0.06968514 -0.093523264 0.08511872
0.14949691 0.1883981 0.042348374 -0.035184626 0.027879097 0.1561364 -0.016387839 -0.037845578
-0.03449224 0.1123811 0.14309187 0.09309235 0.12009426 0.07941827 0.15411307 0.0868152
0.03172676 0.16360086 0.03945219 0.05494428 0.108679466 0.0058412477 -0.073833734 0.06505379

node_encoder.layers.2.weight f4 [32, 64]
00000000: 9254 123e 8ddc 953d fbeb 573d d5f1 053d
00000010: 8d3f 0f3e 1e46 fd3c 950e b03d 853f 97bd
00000020: 37c3 813c c20c 93bd 5010 8dbd 8f8d e43d
00000030: b941 083e dc79 253e c577 d63b ab14 f33d
00000040: 210c c43a d161 0e3d ff3d 483d 1746 ae3b
00000050: 5c7a b1bd 26c5 273e fae1 bdbc b979 273e
00000060: 7338 38bd 6400 e03d 118f 8c3d 7732 f33d
00000070: d733 c0bd 6852 2c3c fdba f6bc ee26 253e
00000080: a37a 193e 9b82 26bd a2ac e83d ddcb 2d3d
00000090: 7eb2 2d3d 3516 1abe aa44 293e 03d9 963d
000000a0: 1abb aebc 4a67 073e 8d3a 8d3d b6a9 ca3d
000000b0: ece8 2abc 3929 f0bb b051 e4bd 543d 17bc
000000c0: 0b1b 2fbc 0922 973d 1a65 fe3d 1fb5 7fbc
000000d0: 50ff 183e 37f2 86bd 0291 c63d c3c5 c53d
000000e0: 345e dd3c 8b0c 973c dddc 8bbd e38f e23d
000000f0: 16fd 04bd 32b2 613c 4068 b1bd 192c 1dbe
00000100: 5b96 c33d f371 b0bb 74e5 383e 0256 a13d
00000110: 31c2 073e b0a2 333d b375 c5bd 8660 acbd
00000120: fd81 363e afc2 2f3e a7c6 1cbe 372c 9b3c
00000130: 2c26 ef3d ce1a 3b3e 0a2f b13d 9107 10be
00000140: 40a9 f8bd 1ec5 443c 9ea8 a23c 559b acbd
00000150: bdd6 b83d 60fa 3e3e d56a f13b d037 0ebd
00000160: f253 863c ec03 cbbb db74 cc3d 6217 e83d
00000170: 0534 abbc 56ce 393d d899 36bd f01e d53c
00000180: ab7b 35bc 6751 903d 8714 733d 58eb f13c
00000190: fd60 f33d d41f 83bd 4277 873d 2c8b 083e
000001a0: 8ef8 0fbd f104 973d 2580 b93d 10f4 783d
000001b0: 6393 e43d 05b2 193e d1e1 6bbd cf13 ae3c
000001c0: 8a12 193e 6a30 e4bc fb3c 173d 3187 c83d
000001d0: 814f f5bc 534d 45bd b68a f73d bbf0 1e3e
000001e0: a443 d23d 8d18 133e 1a39 0ebe 360a d4bc
000001f0: 09c1 263e d06b 533d bee3 b2bd 8141 20be
00000200: 8763 4ebd ec68 013e a0eb e53d 69b1 a5bd
00000210: cf35 33bd 50e6 c13d bd71 783c decf 4a3b
00000220: 2d34 4fbd b4f3 c23c c4ca cabd a3c4 873d
00000230: fe16 fe3d 1139 d7bd 3e57 c9bc b0fd 8abd
00000240: 5325 1a3d d12a ee3d 357b dfbd d7dd d9bc
00000250: c2fa 11bd 2dcd ef3d 0670 eebd 8f7c 33bd
00000260: 2435 563d 00de ac3d b71e 40bd dc46 c3bd
00000270: 2858 ccbd fe47 a1bd 15cb aabd c6d9 0bbd
00000280: 53ee 4fbc c5ca e9bd 2c63 cf3d 0eb4 ebbd
00000290: fbab c93d c565 253d bae0 ee3d eff3 b5bc
000002a0: 8b69 11bd 44a2 8e3d 1419 03be 7af5 8bbd
000002b0: 6687 503c 2631 9cbd 5866 3f3e d25e e23d
000002c0: 9fa9 e33d 878b d93d 4268 943c 3504 9d3d
000002d0: e6e4 033e d98e a23d 4136 bb3b b60d d03c
000002e0: bc2d ca3d 6df0 8dbc d4f2 debd 1ec1 ff3d
000002f0: 19b0 b2bd 5e10 813c f466 b73d 1c25 8b3c
00000300: 44de 633c 4856 29bb 5464 423d 3e14 803a
00000310: 4b14 9c3b 2f83 243e 9fcb bb3c 511c be3d
00000320: a8ee 233d 7570 4abd 143b 8abd cb19 41bd
00000330: fe80 1d3d 7662 003e 5f72 3e3e 7565 26be
00000340: 4160 f1bd de48 5ebd d013 32bd e997 c1bd
00000350: 969b 793d db1c 423e 72e1 09be 4795 c43d
00000360: f548 29bc 988f 13bd c915 59bd 0aa8 f23d
00000370: 2b5d 4f3d f67b 37bd 4591 1abe 2121 bb3d
00000380: 07af cd3d fdb3 d93d 1f01 95bc f09f 703d
00000390: 87de 083e 3031 84bd 387b bb3d e7fe 8b3d
000003a0: f4e5 943c 10d2 03bd 481c 0dbd d87f 5b3d
000003b0: 88df c0bb 5608 82bb 887d 0cbd 012d 2cbd
000003c0: cb3f 35bd 2c69 cc3d fc41 493a 7158 08ba
000003d0: ee48 fd3d daf6 afbd 4f57 cf3d 7276 283e
000003e0: bdff 713d ada0 563d f57c 773d de0b 0d3e
000003f0: efca ee3d 6298 683d 807d 983d e77a 18be
0.14290074 0.07317457 0.052715283 0.032701332 0.13989086 0.030917224 0.08596531 -0.07385162
0.015840156 -0.07180168 -0.06887877 0.11159813 0.13306321 0.16159767 0.0065450394 0.118691765
0.0014957228 0.034761254 0.04888725 0.005318414 -0.08665916 0.163838 -0.023179043 0.16355027
-0.04497571 0.109375745 0.06863225 0.1187486 -0.09384888 0.010517694 -0.03011846 0.16128132
0.14988188 -0.0406519 0.11361052 0.042430747 0.04240655 -0.15047534 0.165301 0.073656105
-0.021329451 0.13222995 0.06895933 0.09895651 -0.010431509 -0.007329133 -0.11148393 -0.00923093
-0.0106876 0.073795386 0.12421627 -0.0156071475 0.14941144 -0.065891676 0.09695627 0.09656861
0.027022459 0.018438598 -0.06829236 0.110626005 -0.032467924 0.013775395 -0.08662462 -0.15348853
0.095501624 -0.0053846776 0.1805628 0.07877733 0.13257672 0.043856323 -0.0964159 -0.08416848
0.17823024 0.1716411 -0.15310155 0.018941982 0.116772026 0.18271944 0.0865155 -0.14065386
-0.12141657 0.012009887 0.019855794 -0.08428065 0.09025333 0.18650198 0.0073674717 -0.034721196
0.01639745 -0.006195536 0.09983226 0.11332585 -0.020898828 0.045362793 -0.04458031 0.026015729
-0.011076848 0.07046776 0.05934575 0.029531166 0.118837334 -0.06402555 0.066145435 0.1333434
-0.03514915 0.073739894 0.09057645 0.06077963 0.11160924 0.15009315 -0.057588402 0.02124968
0.14948478 -0.027855117 0.03692339 0.09791411 -0.029945137 -0.048169445 0.12087004 0.15521519
0.10266808 0.14364834 -0.1388897 -0.025883775 0.16284575 0.05161649 -0.087348446 -0.15649988
-0.050387885 0.12637681 0.112265825 -0.08090479 -0.043752488 0.09467757 0.015163836 0.0030946652
-0.050586868 0.023797847 -0.09901956 0.06629302 0.12406729 -0.105089314 -0.024577733 -0.06786668
0.03763325 0.1162926 -0.10912172 -0.02659504 -0.035639532 0.11709056 -0.116424605 -0.04381996
0.052296773 0.08440781 -0.046904292 -0.09535 -0.09977752 -0.078750595 -0.08339516 -0.03414323
-0.012691098 -0.11415628 0.101263374 -0.11508952 0.09847256 0.040380258 0.11663957 -0.022211043
-0.035501044 0.069645435 -0.12802535 -0.0683393 0.012727594 -0.07626562 0.18691385 0.11053242
0.11116337 0.10622316 0.01811612 0.07666818 0.12880287 0.07937402 0.0057132547 0.025397163
0.098720044 -0.017326558 -0.108861595 0.12488006 -0.08724994 0.015754875 0.089551836 0.016985469
0.013907973 -0.002583878 0.04745896 0.0009771658 0.0047631613 0.16065668 0.022924243 0.09282745
0.040022522 -0.049423654 -0.067495495 -0.04714374 0.038453095 0.1253756 0.18598317 -0.1624964
-0.11785937 -0.05426871 -0.043475926 -0.09452803 0.060939394 0.1895632 -0.13464907 0.09598785
-0.010332336 -0.036025614 -0.05299929 0.11848457 0.05062596 -0.044795953 -0.15094478 0.09137178
0.100431494 0.10630033 -0.018189011 0.05874628 0.13366137 -0.06454694 0.091543615 0.06835728
0.018176056 -0.032182753 -0.0344508 0.05358872 -0.005886022 -0.003968279 -0.034299403 -0.042035107
-0.04425029 0.099809974 0.0007677374 -0.0005201167 0.12367426 -0.08592005 0.10124075 0.16451433
0.05908178 0.052399326 0.060421903 0.13774058 0.116598 0.05678595 0.07445812 -0.14890634

node_encoder.layers.2.bias f4 [32]
00000000: f242 47bd 506e ea3d cd14 97bd aa94 6abd
00000010: f28c 9cbc a971 663c 1875 bdbc 0f01 9c3b
00000020: cd13 fabc 9ee7 d13d 47d5 c13d 073a d73d
00000030: 8691 06bb cc8e c5bd 8592 87ba 2e1d ed3d
00000040: a7ab b83b 8653 b33d 2d82 ccbc ec13 0e3d
00000050: 530c 283d bd50 0a3d 17e6 203d 51da 213e
00000060: e9a7 c7bd 143b dabc 27b1 d13d 3664 b5bd
00000070: 74e4 84bd 2e79 9e3c 7524 af3d c2fc a3bc
-0.04864783 0.11446822 -0.07377014 -0.057270683 -0.019110177 0.014065185 -0.023127124 0.0047608684
-0.03052702 0.102492556 0.094645076 0.10509115 -0.0020533516 -0.09646377 -0.0010343349 0.11577831
0.005635697 0.08756165 -0.024964416 0.034686968 0.04102738 0.033768404 0.03928193 0.15805937
-0.09748823 -0.026639499 0.10238867 -0.08857004 -0.064888865 0.019344892 0.085518755 -0.020017985

state_encoder.layers.0.weight f4 [64, 2]
00000000: 5f28 933e 5191 10bf a04a e73e 7be5 97bd
00000010: 82e7 ffbe 0707 52be 5665 df3d 89e2 0ebf
00000020: a91e 953e 4fbf 00bc b165 0d3f 3e58 96be
00000030: da17 fd3e cd05 a2be 155c 9f3d 4a46 083f
00000040: 801c cdbe 1c32 23bf 38dd 073f 1372 153f
00000050: cb4f dbbe f0e6 703e 6c47 2b3f e37f 343f
00000060: 0b0f f5be 95b5 9a3d f3b2 7fbe 237a a53e
00000070: 9ef1 cf3e e891 123f 1b92 b53e 7af1 353c
00000080: 9905 f33e ed47 f83d 2cf5 d8be 8f4f 81bd
00000090: d0f7 60bd d241 103f ad5e c8bd be85 653d
000000a0: 96a1 f83e 90be 2dbf 3452 13be c986 d83e
000000b0: f363 24bf 1581 37be 1afc 81be 774e 9c3b
000000c0: ca19 d4be d794 1cbf 6fb8 b53e dea6 2a3e
000000d0: aec1 ee3e 6ed7 513e 7695 ba3e 9aa1 943e
000000e0: 4dbb b839 1516 f93e f406 0a3f e0e6 0f3f
000000f0: 90f1 a93e 1053 cc3e 7f30 17bf 954c 1dbd
00000100: 25f9 783e 8a3a 9d3e b4c0 cfbe 6fcf 833e
00000110: 7433 653e a52d 00be 253c 02bf ce32 823d
00000120: bdf5 fd3d aadc 99be db11 04bf 1385 bebe
00000130: 9cc9 003f 1141 11bd a377 8c3e a97a 5f3e
00000140: e7c7 22bf 8add cd3e 46c7 29bf 9059 8a3a
00000150: 3b0d 0cbf 5026 573e 725a 29bf eb8d b93e
00000160: ca08 10be 5b37 2cbf f0ef 83be 178b 76be
00000170: 6d95 b0be ea8c 2b3f ceb3 dfbe 0920 713e
00000180: 9d91 c7be 712e 4bbe 515f d2be 0e56 5d3d
00000190: dfa3 df3d 9806 893e 3390 8ebe d862 18bf
000001a0: 0056 06bf 158b 9dbe d39a 82be 410e 4a3e
000001b0: 9186 00bf 0fca 14bf 8498 27bf 7190 0cbf
000001c0: dbfc a43d 26cc 8a3e 0946 8fbe 126b a4be
000001d0: 662b bd3d c465 d53e cd56 993e 1af7 d03e
000001e0: f632 f7bd 4098 fcbd 65e3 acbe f536 ccbe
000001f0: 7d68 f6be 876b 2b3f 6da7 87ba d802 c33d
0.28741738 -0.56471735 0.45174122 -0.07416817 -0.49981314 -0.20510493 0.10908 -0.55814415
0.29124954 -0.0078581115 0.55233294 -0.29364198 0.4943226 -0.3164505 0.07781235 0.5323225
-0.40060806 -0.63748336 0.5307193 0.5837719 -0.42834315 0.23525596 0.66905856 0.7050764
-0.4786304 0.07554165 -0.24970607 0.32319745 0.40614027 0.57253885 0.35463032 0.011104936
0.47465208 0.12123094 -0.4237455 -0.06314003 -0.054923832 0.56350434 -0.09783683 0.05603575
0.4856078 -0.678689 -0.14386827 0.42290333 -0.6421501 -0.17920335 -0.2538765 0.004770096
-0.41425925 -0.6116461 0.35492274 0.16665217 0.4663214 0.20492336 0.36442155 0.29029542
0.00035234765 0.4864966 0.5391686 0.5621166 0.3319211 0.39907122 -0.59058374 -0.038403112
0.24313791 0.30708724 -0.40576708 0.25744197 0.22382909 -0.12517412 -0.50873023 0.063573465
0.124003865 -0.30051166 -0.51589745 -0.37210903 0.5030763 -0.035462443 0.27435026 0.21824135
-0.63586277 0.40208083 -0.6631969 0.0010555256 -0.5470769 0.21010709 -0.66153634 0.36241087
-0.14065853 -0.67271966 -0.25768995 -0.24076496 -0.34489003 0.6701189 -0.43691868 0.23547377
-0.38978282 -0.19841935 -0.41088346 0.054037146 0.10919928 0.26762843 -0.2784439 -0.59525824
-0.52474976 -0.30770174 -0.25508747 0.19732 -0.5020533 -0.58120817 -0.65467095 -0.549079
0.08056041 0.27108878 -0.2798312 -0.32112938 0.09236793 0.41679204 0.29949036 0.40813524
-0.12070267 -0.12333727 -0.33767238 -0.3988568 -0.48126593 0.6696095 -0.0010349579 0.09522027

state_encoder.layers.0.bias f4 [64]
00000000: fc35 073f c585 c2be e8ae 2f3e 4e4a 77be
00000010: 3769 623e 2adf 023f 97b8 67be 8aa9 bc3e
00000020: 63d9 1e3f 708d 89be 9577 843e e8b3 703e
00000030: a367 c3be 66fa 8e3e e658 16bf 5918 703c
00000040: 2aa1 92be 9d28 e0be a514 01bf 4f03 0e3e
00000050: 71e1 82be e800 dfbe bd45 bebe a183 dbbe
00000060: 47c3 0abd 2ef5 18bf a238 da3c 9531 a5bc
00000070: 213b 83be 3b8a b63e b846 7bbe 2ffb 87be
00000080: 8be4 213f 7e5c 053f 8ead ea3e 8065 a63e
00000090: 2059 20be c63d 2dbf 861f bdbd 1af2 2c3f
000000a0: 2c1d 053f 9251 25bf 9f03 ab3d e055 d33e
000000b0: ff08 953e 8517 2d3f 50f0 023e 705c e33e
000000c0: 9099 83be d5fb b0be 5628 b63e 5f9d ba3d
000000d0: 580e 27bf 7361 a2bd 2897 2dbf ae2e 563c
000000e0: fcc2 183f f3d2 19bf 2306 893e cba6 85be
000000f0: 6f1d a83c c681 f03d 1344 053e f31a 823e
0.5281675 -0.37992683 0.17156565 -0.24149439 0.22110449 0.5112177 -0.22629009 0.36848098
0.62050456 -0.2686572 0.25872484 0.23506129 -0.38165006 0.27925414 -0.587294 0.014654242
-0.28638583 -0.43780985 -0.50422126 0.1386845 -0.25562623 -0.4355538 -0.3716258 -0.42873862
-0.033877637 -0.59749115 0.026638333 -0.020165244 -0.2563105 0.35652336 -0.24538696 -0.26558825
0.63239354 0.52094257 0.45835537 0.32499313 -0.15658998 -0.67672384 -0.09234528 0.6755692
0.5199764 -0.6457759 0.083503 0.41276455 0.29108426 0.6761401 0.12786984 0.44406462
-0.25703096 -0.34567133 0.3557765 0.091120474 -0.6525626 -0.07928743 -0.6780877 0.013072653
0.5967252 -0.6008751 0.26762494 -0.26103815 0.020521848 0.11743502 0.1301425 0.25411186

state_encoder.layers.2.weight f4 [32, 64]
00000000: d5ad 2a3d 3bb3 e03d 16bb f9bd 8d36 f73c
00000010: 41b4 09be 12e1 2b3d 9b6b a83d 0a60 a0bb
00000020: f56d 32bd 7807 84bd aad2 803d 9eb3 b8bd
00000030: c7f2 8bbc 1866 843d ee3b 46bc ae20 993c
00000040: 5b22 dbbd 6a49 86bd 8f23 d9bd 6f69 10bd
00000050: 3f6b 9c3d 6061 d1bd 1257 0f3c 1605 1a3a
00000060: 9385 813d afd7 743b c418 d3bc 08c2 58bd
00000070: 91d2 d1bc 98c7 d33c 9fa2 95bd 5de8 35bd
00000080: 0081 e43d 6586 963d b541 5f3c 04d7 253d
00000090: 522e edbd 7594 05be a0e9 eabd 7c3e 863d
000000a0: c7f3 83bd 54c8 be3d dd1f bc3d be36 df3d
000000b0: b403 cd3c ba48 c23d 2cf4 fcbd b42d c5bd
000000c0: 05c4 f1bd fb16 d5bd b549 02bd fe95 6f3d
000000d0: 9ea0 a83d dfb5 b6bb e54a 24bd 5904 ac3d
000000e0: 8380 d53d 5ebc 00be 192e bfbd f1fd b8bd
000000f0: 98f7 f1bd 1cff aa3d 1690 0b3d 6cea 923c
00000100: 3eea d4bc 9ebf acbd f9f4 c7bd 17be 123d
00000110: 81ec 5abd af92 65bc 7206 06bd 3f33 9f3c
00000120: 5211 df3d a532 db3d 6e96 55bd 54d0 0cbe
00000130: 82af d53d 8465 e5bb 748d f6bc d1d4 d73d
00000140: e575 2b3d 5716 6bbc 6463 a43d 46b3 873d
00000150: 5321 783d 3041 a33d 4ca7 febd 98c9 993d
00000160: b2b7 28bd a7a7 c43d 767d 973d f822 ddbd
00000170: 7ff4 1f3d 61ca 6cbd d5fe 97bc 4352 c33c
00000180: 3688 0dbe 3fbc d33d 3692 93bd 0958 01be
00000190: b8bb 3abd 45ec a6bd e4ea f93c 48d8 05bc
000001a0: e4da c63c ed6c 99bd cbdb 3ebb 54fe e1bb
000001b0: e396 a83d 9c6d 763d 5e9a efbd a7c8 d0ba
000001c0: 5183 c03d 6a28 3bbd b27b f9bd e878 d8bc
000001d0: d06f 0abe ad5d 00bd e9bb c43b 76e4 eabc
000001e0: d7ea 55bb b5ae c5bc 227d 00be 08e3 2b3d
000001f0: ecc6 06be 94e7 703d 41d3 e13d 6168 a4bd
00000200: c4b4 44bd 242d f2bd e492 af3c 5710 cd3d
00000210: a0b5 71bd 3d77 1b3a 9771 8d3d 228a e43d
00000220: cbc6 923d db36 fe3d b35f 53bd c04b ac3d
00000230: 2d7f 5cbd b804 f2bd 7327 15bd eb64 863d
00000240: c3ba 0d3c 82d4 e23d 2e3c 33bd 15a4 e13c
00000250: c426 443d d458 8cbd 15dc c53d 27cf f5bd
00000260: 9536 58bd 9122 bd3d 20c9 d7bd e5b7 65bd
00000270: c40b 82bc b57a 8c3a 2a33 8bbd e72e 50bd
00000280: a38b 173d 7f17 413d 80c3 95bd af33 81bd
00000290: d626 163d 4d73 803d b06b 64bd d19f 9ebd
000002a0: f5aa 23bd 6b2f acbc 979d 61bd 9be8 c3bb
000002b0: 8c94 e63d 7ea5 fc3d 556a 2f3d 0337 9a3d
000002c0: b2e8 d03a 82ea 2a3d fd6f 3c3d fec3 21bc
000002d0: 3af2 99bd 5b6b a9bd 8bb0 fa3d d578 af3a
000002e0: 3289 ffbb ce4f 4e3c 2fbd ff3d ffe0 8e3d
000002f0: 84f2 6a3d cfb3 f13d 7ad9 30bd 7ad9 d43d
00000300: 86b6 363d 4d33 6ebc d9b6 313d 09e8 8cbd
00000310: 4a57 f53d bb91 24bd db44 9abd 1d24 913d
00000320: b3d9 9bbd 24c0 933d dc28 7fbd d19b eabc
00000330: 24d1 46bd abf5 87bc 0539 603d c941 4b3d
00000340: 9fa9 d13d f7b1 5cba 83f7 bb3d 8ba2 c6bc
00000350: 327d f2bd e477 cf3d ffa7 fe3c ff61 b0bd
00000360: bbd7 aebc a7db 153d 8d53 b23d 1712 b13d
00000370: 64dc 6d3c 83fa cbbc 7f9c 8f3d f496 d3bd
00000380: 0d82 aabd fe16 143d b2b1 b2bd 420a c73d
00000390: 95d2 a1bd 3189 f43d 6bcb c93d b50e 9a3d
000003a0: ce0c d03c bad5 b1bc b34e 1dbd b26d 7a3c
000003b0: 6f20 07bd 4e1a c13d 4e89 ae3d 8b75 cf3c
000003c0: 96da 713d 42e0 b6bd e3ea 26bd 9324 943d
000003d0: c948 f9bd b474 e9bd 8540 9dbd eba3 a9bd
000003e0: 21d4 5e3d cdfb fb3d a6d0 f33d 1571 c73d
000003f0: 54c9 75bb 657a cd3c 1520 adbd ebc4 f13d
0.041669685 0.109716855 -0.12193887 0.030177379 -0.13447668 0.04196269 0.08223649 -0.0048942612
-0.043561894 -0.06446737 0.06290181 -0.09018634 -0.017083539 0.06464785 -0.012099249 0.01869234
-0.10699912 -0.06556971 -0.106024854 -0.0352568 0.07637643 -0.10223651 0.0087487865 0.00058753917
0.063243054 0.0037360003 -0.025768645 -0.052919418 -0.025613101 0.02585201 -0.07306408 -0.044411052
0.11157417 0.073498525 0.013626506 0.040488258 -0.115811005 -0.13044913 -0.11470342 0.06554887
-0.06442981 0.09315553 0.09185765 0.10899113 0.02502618 0.09486528 -0.123512596 -0.09627858
-0.11804966 -0.10404774 -0.031808574 0.058492653 0.0823376 -0.00557588 -0.040110487 0.08399267
0.10424902 -0.12571856 -0.09334964 -0.090328105 -0.11814803 0.083494395 0.034072958 0.017934047
-0.025990602 -0.084349856 -0.09763522 0.035825815 -0.053448204 -0.014012023 -0.03272099 0.019433616
0.108919755 0.10703019 -0.052145414 -0.13751346 0.10433866 -0.007000627 -0.030096747 0.105386384
0.04186048 -0.014348588 0.0802677 0.066259906 0.060578655 0.07971418 -0.12434253 0.07509154
-0.04119081 0.0960229 0.07396977 -0.107976854 0.03905153 -0.05781019 -0.01855413 0.023842936
-0.13821492 0.103386395 -0.07205622 -0.12631239 -0.04558918 -0.081505336 0.030507512 -0.008169241
0.024274297 -0.07491479 -0.0029122706 -0.0068967734 0.08231904 0.060163125 -0.11699365 -0.001592894
0.094000466 -0.04569284 -0.12181796 -0.02642484 -0.13519216 -0.031339336 0.006003846 -0.028673392
-0.0032641196 -0.024131158 -0.12547734 0.04196456 -0.1316182 0.0588146 0.110266216 -0.08027721
-0.048023954 -0.11825016 0.021432348 0.10012882 -0.0590111 0.00059305487 0.06906431 0.11159159
0.07166823 0.124128066 -0.051604938 0.08412886 -0.05383222 -0.11817306 -0.036414575 0.06562217
0.0086504845 0.11075689 -0.043758564 0.02754406 0.047888532 -0.0685288 0.09661118 -0.12002402
-0.05278643 0.09235109 -0.105364084 -0.05608358 -0.01587475 0.0010717722 -0.06796868 -0.05082598
0.036998402 0.04714155 -0.07312679 -0.06308686 0.03665813 0.06271992 -0.05576676 -0.07745326
-0.03995796 -0.021018704 -0.05508193 -0.0059786565 0.11258802 0.12336253 0.042826016 0.07530024
0.0015938489 0.04172755 0.046005238 -0.009873388 -0.07516904 -0.082724296 0.12240704 0.0013387451
-0.0077983374 0.012592269 0.12487256 0.06976508 0.057360187 0.11801874 -0.04317615 0.10393043
0.04460766 -0.014538598 0.043387268 -0.06880195 0.1197954 -0.040178042 -0.075326644 0.07086966
-0.07609882 0.07214382 -0.062294826 -0.028638752 -0.048539296 -0.016596636 0.054741878 0.049623284
0.10237431 -0.0008418853 0.091780685 -0.024247428 -0.11840285 0.10130289 0.031085966 -0.08612441
-0.021343103 0.03658643 0.08707342 0.086460285 0.014517877 -0.024899727 0.07012271 -0.103315264
-0.083255865 0.03615474 -0.08725299 0.097187534 -0.079014935 0.1194023 0.09853252 0.075223364
0.02539673 -0.021708358 -0.03840513 0.015284942 -0.032989915 0.09428845 0.085222825 0.025324604
0.05904635 -0.089294925 -0.04075135 0.072335385 -0.12172086 -0.113992125 -0.07678322 -0.08283218
0.05440152 0.123038866 0.11905031 0.097383656 -0.0037504034 0.025082776 -0.08453385 0.11805137

state_encoder.layers.2.bias f4 [32]
00000000: 2231 033d a9b3 72bd 01ee a73d 3603 7e3d
00000010: 5588 1bbd 231c e6bd 6d02 dd3a f238 eebb
00000020: 8a7f bdbd 681b edbd a1b6 8cbc 662f cf3d
00000030: fb9a d53d 8a22 91bc a5b6 75bd a580 263d
00000040: 3ab5 4f3d 51e5 0dbd ffb9 de3b ba15 02be
00000050: 6213 efbd 9033 a2bd 9fc6 e1bd 6505 9d3d
00000060: 4d86 47bd 67a8 5abb 376b 21bc 7b08 323d
00000070: b795 b9bd 19a8 4cbd 4d55 cabd 0f98 b9bd
0.03202928 -0.05925337 0.081996925 0.06201478 -0.037971813 -0.112358354 0.0016861685 -0.007269972
-0.09252842 -0.11577493 -0.017176928 0.101164624 0.10429951 -0.017716665 -0.059988637 0.04065003
0.05070994 -0.03464252 0.006797075 -0.127036 -0.11673619 -0.07919991 -0.11024212 0.076670446
-0.048712064 -0.0033364536 -0.009852222 0.04346512 -0.09061759 -0.049964998 -0.09879551 -0.09062206
