get_descriptor_megnet/saved_models/pbe_42/state.pt (torch, 710298 bytes, 105 tensors)

bond_expansion.rbf.centers f4 [100]
000000 00 00 00 00 62 de 4e 3d 62 de ce 3d ca 26 1b 3e
       0.0 0.05050505 0.1010101 0.15151516
000010 62 de 4e 3e fd 4a 81 3e ca 26 9b 3e 96 02 b5 3e
       0.2020202 0.25252524 0.3030303 0.35353535
000020 62 de ce 3e 2e ba e8 3e fd 4a 01 3f e3 38 0e 3f
       0.4040404 0.45454544 0.5050505 0.5555555
000030 ca 26 1b 3f b0 14 28 3f 96 02 35 3f 7c f0 41 3f
       0.6060606 0.65656567 0.7070707 0.75757575
000040 62 de 4e 3f 48 cc 5b 3f 2e ba 68 3f 14 a8 75 3f
       0.8080808 0.85858583 0.9090909 0.9595959
000050 fd 4a 81 3f f0 c1 87 3f e3 38 8e 3f d6 af 94 3f
       1.010101 1.060606 1.111111 1.1616161
000060 ca 26 9b 3f bd 9d a1 3f b0 14 a8 3f a3 8b ae 3f
       1.2121212 1.2626263 1.3131313 1.3636364
000070 96 02 b5 3f 89 79 bb 3f 7c f0 c1 3f 6f 67 c8 3f
       1.4141414 1.4646465 1.5151515 1.5656565
000080 62 de ce 3f 55 55 d5 3f 48 cc db 3f 3b 43 e2 3f
       1.6161616 1.6666666 1.7171717 1.7676767
000090 2e ba e8 3f 21 31 ef 3f 14 a8 f5 3f 07 1f fc 3f
       1.8181818 1.8686868 1.9191918 1.9696969
0000a0 fd 4a 01 40 77 86 04 40 f0 c1 07 40 6a fd 0a 40
       2.020202 2.070707 2.121212 2.1717172
0000b0 e3 38 0e 40 5d 74 11 40 d6 af 14 40 50 eb 17 40
       2.222222 2.2727273 2.3232322 2.3737373
0000c0 ca 26 1b 40 43 62 1e 40 bd 9d 21 40 36 d9 24 40
       2.4242425 2.4747474 2.5252526 2.5757575
0000d0 b0 14 28 40 2a 50 2b 40 a3 8b 2e 40 1d c7 31 40
       2.6262627 2.6767678 2.7272727 2.777778
0000e0 96 02 35 40 10 3e 38 40 89 79 3b 40 03 b5 3e 40
       2.8282828 2.878788 2.929293 2.979798
0000f0 7c f0 41 40 f6 2b 45 40 6f 67 48 40 e9 a2 4b 40
       3.030303 3.0808082 3.131313 3.1818182
000100 62 de 4e 40 dc 19 52 40 55 55 55 40 cf 90 58 40
       3.2323232 3.2828283 3.3333333 3.3838384
000110 49 cc 5b 40 c2 07 5f 40 3c 43 62 40 b5 7e 65 40
       3.4343436 3.4848485 3.5353537 3.5858586
000120 2f ba 68 40 a8 f5 6b 40 22 31 6f 40 9b 6c 72 40
       3.6363637 3.6868687 3.7373738 3.7878788
000130 15 a8 75 40 8e e3 78 40 08 1f 7c 40 81 5a 7f 40
       3.838384 3.8888888 3.939394 3.989899
000140 fd 4a 81 40 ba e8 82 40 77 86 84 40 34 24 86 40
       4.040404 4.090909 4.141414 4.1919193
000150 f1 c1 87 40 ad 5f 89 40 6a fd 8a 40 27 9b 8c 40
       4.2424245 4.292929 4.3434343 4.3939395
000160 e4 38 8e 40 a0 d6 8f 40 5d 74 91 40 1a 12 93 40
       4.4444447 4.4949493 4.5454545 4.5959597
000170 d7 af 94 40 93 4d 96 40 50 eb 97 40 0d 89 99 40
       4.646465 4.6969695 4.7474747 4.79798
000180 ca 26 9b 40 86 c4 9c 40 43 62 9e 40 00 00 a0 40
       4.848485 4.8989897 4.949495 5.0

embedding.layer_node_embedding.weight f4 [89, 64]
000000 f2 02 9b bf d2 c7 91 3f ad 5e 5e 3f a5 83 5f 3f
       -1.2110274 1.1389105 0.86863214 0.8731025
000010 e3 d5 17 3f 62 1c ed 3f 1c 16 33 bf 63 dc 8b bf
       0.5931074 1.8524287 -0.6995561 -1.0926632
000020 38 a5 f8 3e d0 12 14 bf ad db a4 bf c3 00 f3 bf
       0.48563552 -0.57841206 -1.287954 -1.8984607
000030 8c 02 c4 3d 32 a3 b2 3e 24 48 67 3f f4 04 74 3f
       0.09570798 0.34890133 0.9034445 0.9532006
000040 e3 85 18 bf 08 a0 be be 3a ee 20 3f da e3 1f bf
       -0.59579295 -0.3723147 0.62863505 -0.6245705
000050 53 13 b4 3e 48 8d 19 bf 6a 65 05 bf 96 e6 78 bf
       0.35170993 -0.59981203 -0.5210787 -0.97226846
000060 87 b5 ae bf f0 d0 4c bf 74 4f bf bf 95 9b ac 3e
       -1.3649148 -0.80006313 -1.4946122 0.3371245
000070 72 72 f1 bf f6 34 15 3e 5b 92 10 bf f7 79 57 bf
       -1.8863051 0.14570984 -0.5647332 -0.8417048
000080 dd a7 f5 be 22 18 17 3f e5 60 cc be d2 4c 88 bf
       -0.47979632 0.590212 -0.39917675 -1.0648444
000090 30 37 1d bf 9c 95 87 3f d3 41 b4 bf a9 01 1c c0
       -0.61412334 1.0592532 -1.4082588 -2.4376013
0000a0 c9 fa a0 bf 2a e7 6b 3f 7b 90 53 bf 2d b1 37 3e
       -1.2576534 0.92149603 -0.82642335 0.17938681
0000b0 d0 df b3 bf 17 97 e3 bf 8f b6 9c 3f 48 c8 e7 be
       -1.4052677 -1.7780484 1.2243212 -0.4526999
0000c0 26 f6 41 be d3 4e c9 3e 83 93 f9 bf 96 db 16 3f
       -0.18941554 0.3931795 -1.9498142 0.5892881
0000d0 09 0e 3b be eb 16 c9 3e 9d 9d 44 bf 80 0d 20 3e
       -0.18267073 0.39275298 -0.76803 0.1563015
0000e0 53 72 d9 3f f2 d0 f4 bd 0a 11 58 c0 3c 8b cc bd
       1.6988014 -0.11953916 -3.37604 -0.09987494
0000f0 a9 12 83 be 35 28 6d be ea a4 0c c0 94 31 6e bf
       -0.25600174 -0.23159869 -2.1975656 -0.930444
000100 f7 87 40 bf 8b 82 55 3f 3c cc 9c bf 91 a1 06 40
       -0.75207466 0.8340232 -1.2249827 2.1036112
000110 8f 80 11 40 09 d4 01 40 cd 55 d5 be 37 f4 bd 3f
       2.2734716 2.0285666 -0.41667023 1.4840153
000120 23 c0 22 3f 59 c7 1f bf a5 30 91 bc 8d 45 ce bf
       0.6357443 -0.62413555 -0.01772339 -1.6114975
000130 45 3e 44 3f fd 55 f7 3d 59 cc 44 bf a6 4d d9 3e
       0.76657516 0.12076948 -0.7687431 0.42442054
000140 53 59 ae 3d 7d c0 07 c0 84 2e a0 3e b1 f7 7b 3f
       0.08513131 -2.1211236 0.3128549 0.9842482
000150 eb f3 8a bf a0 30 95 3f 00 60 ef bd 90 15 20 3f
       -1.0855688 1.1655464 -0.116882324 0.625329
000160 09 2f a7 3f 5c b6 96 3f 74 36 fb 3f d3 db 75 3f
       1.3061229 1.1774402 1.9625993 0.9603855
000170 e4 b8 0d 40 c4 42 b5 3e bb 50 09 40 58 36 f6 be
       2.2144098 0.354025 2.1455524 -0.48088336
000180 4b e9 36 bf ca 39 93 3e 38 d8 0f bf 8b 06 9d bf
       -0.71449727 0.28755027 -0.561893 -1.2267622
000190 f1 88 7b 3f da 84 ba 3e 34 a2 95 3f 45 20 1f 40
       0.9825583 0.36429483 1.1690125 2.4863446
0001a0 e6 a4 a0 be 90 5f 9f 3f b5 e1 6b 3f 6a 37 1b be
       -0.31375808 1.2451038 0.92141277 -0.15157858
0001b0 94 02 0a be 9c 08 e4 3e 39 09 1c 3f 18 a9 e6 be
       -0.13477546 0.44537818 0.6095157 -0.45050883
0001c0 7d b9 c3 3e 7c 48 84 3f ce 60 d8 bd d2 1f 8e 3e
       0.38227454 1.033462 -0.10565339 0.27758652
0001d0 09 6b ac 3e 5e fb 81 3f 07 07 ea be f8 2f 81 3f
       0.3367541 1.0154836 -0.45708486 1.0092764
0001e0 71 19 56 3f 88 fe 1e bf d7 71 51 3e 8e df de bf
       0.8363257 -0.62107134 0.20453583 -1.7411973
0001f0 d4 56 88 bf 4a ba c0 be 0c a3 00 3f 81 85 b7 3f
       -1.0651498 -0.37642127 0.5024879 1.4337617
000200 fa d0 59 be 59 3c 8d bf e8 19 25 bf c4 7e 38 3f
       -0.21271124 -1.1034042 -0.64492655 0.7206843
000210 1d 12 af be 09 27 f8 3d 28 0b d6 be 21 f3 f5 bf
       -0.34193507 0.1211682 -0.41805387 -1.9214822
000220 c2 0a c6 bf 15 04 d4 3e 2d c5 9a 3f cf d9 6f 3f
       -1.5472033 0.41409364 1.2091423 0.93691725
000230 bc 41 c3 be 9b b0 68 3f 6c 3b 13 bd 3a f8 ee be
       -0.3813609 0.9089448 -0.03594534 -0.46673757
000240 69 3b b5 bf f8 04 a7 bd c5 a2 73 bf 41 b9 15 be
       -1.4158756 -0.081552446 -0.9517024 -0.1462145
000250 ac 68 86 3e e6 4a 19 bf c9 b9 a7 3e 29 10 98 be
       0.26251733 -0.5987991 0.3275893 -0.2969983
000260 08 4c bb 3f 1f 3e 5d 3f 85 72 aa bf a0 bd 76 3f
       1.4632578 0.86422914 -1.3316199 0.96383095
000270 cd 1c dd bf 4d 4c 29 3f 0b 1b 45 bf fa 26 08 3d
       -1.7274414 0.6613205 -0.7699439 0.033240296
000280 fb 63 07 bf 80 ac 57 3c e6 e0 25 3f 70 e1 e2 be
       -0.52886933 0.013163686 0.6479629 -0.4431262
000290 df fc 9e bf 1f 13 f4 be 77 cd 98 bb e1 3e c8 bf
       -1.242092 -0.47670838 -0.004663165 -1.5644189
0002a0 e7 44 13 3e fb 44 ad bd 07 36 8a 3b c0 c6 a4 be
       0.14381753 -0.084604226 0.0042178663 -0.32182884
0002b0 6e 99 99 3e 4b f2 96 3f f7 58 80 bf 96 47 c4 3e
       0.2999987 1.1792692 -1.002715 0.38335866
0002c0 52 26 6e bf 7d 99 d1 3f 07 0e 82 bf d8 4b b5 bd
       -0.9302722 1.6374966 -1.0160531 -0.08852357
0002d0 2e 08 8c be 40 14 ab bf 3f ac 1f bf 79 9d 21 3f
       -0.2734999 -1.3365555 -0.623722 0.6313091
0002e0 87 31 02 bf 28 59 d3 bf 0b 0e 28 3f b4 0d eb 3f
       -0.5085682 -1.6511583 0.6564643 1.8363557
0002f0 56 48 70 bf 19 eb 09 c0 b6 dd 8c bf df 61 1c be
       -0.93860376 -2.1549742 -1.1005161 -0.1527171
000300 35 b1 8b bf ac fe 03 40 37 b3 a2 be f1 e9 60 be
       -1.0913454 2.062419 -0.31777355 -0.21964242
000310 02 1c 15 bf 5a 30 d2 3e a7 f4 65 bf 47 33 ea bf
       -0.5824586 0.41052514 -0.89826435 -1.8296899
000320 82 d3 99 3f 55 cb 2b 3e b3 69 fe 3f aa 1c f0 be
       1.2017672 0.16776784 1.9876007 -0.4689687
000330 ae 4d 1f bf b2 ec 32 3f 74 10 32 bf 69 98 83 bf
       -0.62227905 0.6989242 -0.69556355 -1.0280887
000340 27 9f ab 3e 71 01 10 3e 4a 10 63 3f f8 c6 ab be
       0.3351986 0.1406305 0.8869673 -0.3355024
000350 2f 9e e9 bd 1c c3 b7 3e d8 3a 48 bf b7 36 ce 3e
       -0.11407124 0.35891044 -0.7821479 0.4027612
000360 05 4d 80 bf 84 95 2b 3f e9 7a 92 bf 65 62 a5 3e
       -1.0023504 0.6702502 -1.1443759 0.32301632
000370 1d 96 4d bf 62 5f ac 3d 4c f2 29 bf 75 79 39 bf
       -0.8030718 0.0841663 -0.6638534 -0.72450954
000380 a9 ea 12 3f 05 bc 27 bf d8 fd b0 bf aa 64 d4 be
       0.57389313 -0.6552127 -1.3827467 -0.4148305
000390 9d 77 81 bf 2f 68 58 3f ce 9e e9 3f 04 5d 63 3f
       -1.0114628 0.8453397 1.8251588 0.88813806
0003a0 f0 eb c0 bf 3a aa d6 bf 6c f9 1d bf da e0 ee be
       -1.5072002 -1.6770699 -0.6170871 -0.46655923
0003b0 e0 8e 09 3f c4 cf 47 bf 47 da 00 c0 a5 41 1f 3e
       0.53733635 -0.780514 -2.0133226 0.15552385
0003c0 f4 e9 1f 3e be 67 03 3f a0 17 14 3f dd ec ea be
       0.1561659 0.51330173 0.5784855 -0.45883837
0003d0 c8 e7 2d bf bb 0e 1a c0 32 b7 83 3e 0c 98 89 3d
       -0.67931795 -2.407149 0.25725704 0.06718454
0003e0 bf 52 a8 3f 08 81 9c bf 5b 6a 57 3d c0 1f 3f 3f
       1.3150252 -1.2226877 0.052591663 0.7465782
0003f0 84 71 22 3f de 2c b0 3d 07 73 b0 be ba a9 a9 3e
       0.6345446 0.08602308 -0.3446276 0.33137304

edge_encoder.layers.0.weight f4 [64, 100]
000000 eb 8c 86 3d dd d2 30 bd c8 2a 5b 3d 0a 56 d5 bb
       0.06569847 -0.043169845 0.053507596 -0.006510501
000010 71 22 bd bd 3b 14 f8 bc d7 bd aa bb 13 9d cb bd
       -0.09235085 -0.030283084 -0.005210619 -0.09942069
000020 e1 1c 1a bc 0c f2 9d bd 14 4a 1d 3d e2 94 c1 bd
       -0.009406299 -0.077121824 0.038400725 -0.09452225
000030 56 89 43 3d eb 82 8d bd 09 a4 a4 bd b4 9c df bc
       0.047738396 -0.06909736 -0.080391 -0.027296402
000040 6b 78 e2 bb 15 9d d1 bd b5 09 f1 3c 89 d1 f2 bd
       -0.0069113276 -0.10235039 0.029423574 -0.11856372
000050 6c e8 fa bc 1e dd 1e 3c 26 14 70 3d e7 7f 97 bd
       -0.030628406 0.009696273 0.058612965 -0.07397442
000060 95 05 b9 3c 14 2b c7 bd 50 7c 85 3d 1a 1d 6d bd
       0.02258567 -0.097250134 0.06517851 -0.05788908
000070 40 3a 7b bd 82 06 3c 3d 2b 1d 0c be 3a 41 80 bd
       -0.06133485 0.045904644 -0.13683002 -0.06262441
000080 78 6c da bd c9 a1 89 3b 8d f4 e4 bd 01 12 01 bc
       -0.1066522 0.0042001945 -0.11179457 -0.007877828
000090 07 2b 71 bd a3 38 0a bc e9 0a cb bd 30 e8 7d bd
       -0.058878925 -0.008436355 -0.0991419 -0.06198901
0000a0 df 03 0f be b9 cd 56 3c d0 25 12 bd 6a b4 96 bd
       -0.1396632 0.013110572 -0.035680592 -0.0735863
0000b0 4b 3b 56 bd 67 7b 5f 3c f9 af b4 bd b2 ce 1d bd
       -0.05230264 0.013640261 -0.088226266 -0.038527198
0000c0 21 ec a8 bd 37 0b 25 3c 41 5f ff bd 40 5e 82 bd
       -0.08248163 0.010073475 -0.1246934 -0.06365633
0000d0 9c 7c 51 bd 53 19 90 bd 64 33 9e bc db db 57 3d
       -0.051144227 -0.0703608 -0.019311614 0.052699905
0000e0 2d b1 e2 bd eb 04 3e bc 73 e4 c7 bd 4e f9 66 bd
       -0.1106895 -0.011597852 -0.0976037 -0.0563901
0000f0 19 fb 85 bd 15 09 1b bd b3 d2 09 3d 8c f9 e9 bd
       -0.06542034 -0.03785046 0.033648204 -0.114245504
000100 b7 58 23 bc 2e 87 87 3d 9f 7d 41 bd 7d 04 1d 3b
       -0.009969882 0.0661758 -0.047238942 0.0023958974
000110 3c 32 8e 3c 3e bb 43 bc c3 5b a5 bc 4a 2b 98 3d
       0.017357938 -0.0119464975 -0.020185357 0.07430132
000120 26 e1 61 3d 6d b2 e6 bc 4a 08 48 3c 61 71 4e bc
       0.05514636 -0.028161252 0.0122090075 -0.012600274
000130 13 f9 53 3d 3a aa dc 39 de 6e 92 3d 37 34 e2 3c
       0.051751208 0.000420885 0.071500525 0.027612789
000140 d4 14 1e 3d 4f 6e 88 3d 8e bb 8a 3d 1e 45 3e bc
       0.038594082 0.06661665 0.067740545 -0.0116131585
000150 04 0c a6 3d 95 81 8a bd dd db 8d bd 79 20 04 bb
       0.081077605 -0.06762997 -0.06926701 -0.0020160957
000160 62 84 bc bc b6 d0 c2 3d 36 d5 c6 bc a5 fb b9 3d
       -0.023012344 0.09512465 -0.024271589 0.090812005
000170 4b 43 af bd a2 a8 55 3d f3 e3 24 bc 8c 86 ce bc
       -0.08557757 0.052162774 -0.010064113 -0.025210641
000180 ff 62 21 3d e0 09 a2 bd 94 79 91 3d 8a 51 84 3d
       0.03940105 -0.0791204 0.07103267 0.06460865
000190 58 4e dc 3c bb 2b e3 3d 6c 72 3f 3e e8 75 06 3e
       0.026892826 0.11092325 0.18695992 0.13130915
0001a0 4e e4 f0 3d 6e ca 95 3d af 6c a7 3b dc 01 68 3d
       0.11762296 0.07314001 0.0051093916 0.0566424
0001b0 ef 68 e3 3c 7f 6e 35 3e 1a 11 83 3d 70 43 1d 3d
       0.027759997 0.17717932 0.06399746 0.03839439
0001c0 ce fb 2e 3e fd 08 9d 3d cc a4 03 3d 89 89 35 3d
       0.17088243 0.0766773 0.032139584 0.044320617
0001d0 67 72 8d 3d 1d d6 5a 3b bc 58 6e 3d 59 82 ce bc
       0.06906586 0.0033391782 0.058190092 -0.025208639
0001e0 66 a7 2a 3d 63 d2 ac 3d 21 37 10 bc 44 c4 9f 3d
       0.04166355 0.084385656 -0.008802206 0.078011066
0001f0 27 b5 11 3e b5 f1 66 3d 28 24 5a 3c 78 d3 0f 3e
       0.1422926 0.056382854 0.013314284 0.14045513
000200 db f2 0a 3e 2f d7 3e bd 9a 7c c2 3d 35 5b 2a bd
       0.13569205 -0.046591934 0.09496422 -0.041590888
000210 a2 e0 e4 3d 2d a3 df bc f2 d7 3c 3a 43 9c 45 bd
       0.11175658 -0.027299488 0.0007203809 -0.048244726
000220 8d e3 3a 3d 5d 2b c8 bc 64 5a 0c bc 5d a2 d1 bc
       0.045627166 -0.02443474 -0.008566473 -0.025590116
000230 10 b1 d9 3c 4c 91 84 3d a0 98 e3 3d e3 9b 75 3c
       0.026573688 0.06473026 0.11113095 0.01499078
000240 81 2a c1 3d 69 65 b7 3c 71 1c 67 bd 93 23 cc 3c
       0.09431935 0.022387223 -0.05642361 0.024919307
000250 eb 00 92 bd 44 97 38 3d 1a 25 3f 3d c7 5d 26 bc
       -0.07129081 0.045066133 0.046666242 -0.010154194
000260 40 d7 cb 3d 8a 0c 5c bc 62 eb 98 3d 04 0d 94 bc
       0.09953165 -0.013430724 0.07466771 -0.018072613
000270 1f 25 d7 3c 34 51 be 3d 58 e5 56 3d ac f6 08 3d
       0.026262818 0.09292832 0.052464813 0.03343837
000280 66 23 a5 3d 1a 98 70 3c ad ed 62 bd ab b2 9d 3c
       0.08063392 0.014684701 -0.055402447 0.019250235
000290 83 53 1f 3d 21 39 db bd 4b c0 a3 3c db f7 ca ba
       0.038898002 -0.10704256 0.019989153 -0.0015485244
0002a0 24 e7 fb bd 4d 4d ea bc f7 e7 82 bd 05 b5 9c bd
       -0.12299946 -0.028601313 -0.063919 -0.07651714
0002b0 24 77 a0 bc c4 c7 01 be 0e b3 cf bc 18 b6 f1 bd
       -0.01958806 -0.12673861 -0.025353935 -0.1180231
0002c0 34 8f 12 bd 6b cb 00 be 99 31 97 3c 71 fa 5e 3c
       -0.0357811 -0.12577598 0.018456267 0.013609515
0002d0 9f 0e 0e 3d 1b a5 2d bd 61 22 26 3b 4e 36 3f 3d
       0.034681913 -0.042393785 0.0025350081 0.04668265
0002e0 d2 35 ed bd e3 06 34 3d 40 c2 f3 bd d9 da d4 3c
       -0.11582531 0.04395188 -0.119022846 0.025983261
0002f0 66 28 d0 bd 30 27 39 bd 14 13 15 bc d1 14 ea bd
       -0.101639554 -0.045203388 -0.009098787 -0.11429752
000300 b5 dd 03 3d 0d b0 31 bd 37 93 57 3d 92 f3 68 bd
       0.03219386 -0.043380786 0.05263063 -0.05687291
000310 ac 09 da bb c4 a1 2b 3d dc 89 98 3c a8 e4 66 bd
       -0.006653985 0.04190232 0.018620424 -0.056370407
000320 6e 37 d5 bd 93 f9 1f ba 26 42 62 bd 91 89 23 3d
       -0.10410963 -0.0006102558 -0.055238865 0.039926115
000330 f8 30 1c 3d 49 84 b3 bd 80 03 04 be 45 7b 6b bd
       0.038132638 -0.08765466 -0.1289196 -0.057490606
000340 7f 36 82 3a 03 72 9a bd a4 88 9b bd af 04 3d bd
       0.0009934454 -0.07541277 -0.075944215 -0.046147045
000350 12 49 16 bb ef b3 92 3d 1c c7 50 3d 0b 9a 9a bd
       -0.0022931737 0.07163226 0.050971135 -0.075489126
000360 44 25 1f bd a8 4f 78 bd 61 84 66 bd 9d 2e d3 bc
       -0.0388539 -0.06062284 -0.05627859 -0.025779063
000370 86 41 43 bd 2b 10 da bd 25 65 46 3c c4 f6 53 bd
       -0.04766991 -0.10647615 0.012109076 -0.051749006
000380 59 11 7e 3d da 41 44 bd f1 ec a4 bd ca 1f a6 3c
       0.062028263 -0.047914363 -0.080530055 0.02027883
000390 1b c6 a9 3d 0f d5 56 bc 12 d7 40 bd ea 81 01 3b
       0.08289739 -0.013112321 -0.047080107 0.0019761273
0003a0 71 e3 89 3d 52 b5 45 3d 56 6f d8 bc 2b bd ba bd
       0.06732834 0.048268624 -0.026420277 -0.09118112
0003b0 10 94 2b 3b bd bc 58 bd ae a3 d5 bd 4b 3f 2f 3d
       0.0026180781 -0.05291437 -0.1043161 0.04278497
0003c0 76 54 90 3c d1 97 57 bd 2e ec a7 bd a9 af af bd
       0.0176184 -0.052635018 -0.081993446 -0.085784264
0003d0 b1 29 be bd be 9b c5 3a dd 5c de bd a3 79 60 3c
       -0.09285296 0.0015076322 -0.10857556 0.013700875
0003e0 d3 a8 f7 bc 99 3a a6 bd 4b 2c e9 3c 06 32 7a 3d
       -0.030231869 -0.08116645 0.028463503 0.061082862
0003f0 76 81 44 3d 53 98 c3 bb 69 32 3d bb 0d 0c e8 bd
       0.047975026 -0.005969086 -0.0028869158 -0.113304235

edge_encoder.layers.0.bias f4 [64]
000000 bb 80 09 bd 75 f5 55 bd 95 bf a5 bd e4 d0 96 bd
       -0.033570033 -0.05223604 -0.08093182 -0.073640615
000010 c4 e3 ad bc fd 0d ad 3d 0f 7c 52 bc 9a ab d6 3d
       -0.021226771 0.08449934 -0.012846961 0.10481949
000020 e6 b7 25 bd b0 bb 43 bd dc c3 4b bd 94 ac 29 3d
       -0.040458582 -0.047786415 -0.049747333 0.04142435
000030 69 96 8b bd 58 55 b4 3d e9 4d c1 bc 50 e4 6a 3d
       -0.06815798 0.088053405 -0.02359672 0.057346642
000040 80 21 32 3d df 6f 72 3d d0 38 bc 3c 07 de 8f bd
       0.04348898 0.05918872 0.022976309 -0.0702477
000050 67 7e a8 bd 10 51 8d bd 7b ea 87 bc e0 45 41 bd
       -0.08227234 -0.06900227 -0.016591301 -0.04718578
000060 90 88 4f 3d 8e 8d c6 bc 8d 29 90 3d 8d 8e 26 3c
       0.050667346 -0.02423742 0.07039175 0.010165823
000070 e3 09 75 3d f9 1c 5e 3c dc 7a 55 bd 69 1a d3 bc
       0.05982388 0.013556712 -0.05211912 -0.02576943
000080 87 b9 21 3d 5d 4e 67 3d c1 3d 69 3d 42 80 81 3d
       0.039483573 0.056471217 0.05694366 0.06323291
000090 93 22 95 3d a2 77 b3 bd 30 8a 64 bd cd 51 7d bd
       0.07281985 -0.087630525 -0.05579585 -0.06184559
0000a0 6d 31 b3 bc c1 48 f7 3d 14 0a 2c 3b 07 70 4a 3d
       -0.021874154 0.120744236 0.0026251124 0.049423244
0000b0 6a c9 89 bd b7 53 84 3d fa 73 3d bd 0d eb 51 bc
       -0.0672787 0.0646128 -0.046253182 -0.012812388
0000c0 2b b7 03 3e dc 55 73 3d 0e 49 a4 bd 47 2b 45 3d
       0.12862842 0.059408054 -0.080217466 0.048136976
0000d0 75 ae eb 3c 9b 38 c5 bc e1 81 f6 3c 27 0d c0 bd
       0.028769711 -0.024074843 0.030091228 -0.093775086
0000e0 be c7 b2 3d c9 41 ac 3d ec be 81 3d c9 6a d7 3d
       0.08729504 0.08410985 0.063352436 0.105184145
0000f0 d4 87 35 bd 86 e5 12 bd 8b f5 be bd 1c 85 a5 bb
       -0.04431899 -0.03586342 -0.09324177 -0.0050512683

edge_encoder.layers.2.weight f4 [32, 64]
000000 d4 c0 c6 3d de f5 da 3d 73 c0 f9 bc 36 f2 5d 3d
       0.09704748 0.10691427 -0.030487275 0.05418607
000010 1a 7c 69 3d 5b 1c 43 3d b9 93 93 bd c0 62 01 3d
       0.057003118 0.047634464 -0.0720591 0.031588316
000020 ce 4b a9 3d a9 2f 16 3e 11 d6 c2 3d 5e 9c 1a bd
       0.08266412 0.14666618 0.09513486 -0.03774678
000030 2f 72 68 bc 3a d2 bb 3d e8 91 ac bd b6 4e da 3d
       -0.01418738 0.09170957 -0.08426267 0.10659544
000040 4c 40 3b 3c 33 d5 62 bd 20 69 b2 bc d2 f0 3c bd
       0.011428904 -0.055379104 -0.021778643 -0.0461281
000050 c1 9f 1d 3d 13 78 df 3d ca 8a fa bc 34 c0 90 3b
       0.03848243 0.10911574 -0.030583758 0.0044174436
000060 1e f7 7c 3b 25 d9 e3 3d e2 8f e5 bc 91 9d 52 bd
       0.0038599442 0.111254014 -0.02802271 -0.0514198
000070 0a 81 bd 3d e4 b9 bb bd 0b 20 81 bd 9b d1 04 3e
       0.09253128 -0.09166315 -0.0630494 0.12970583
000080 e6 57 b2 bd e2 f6 cd bd ea 8d de bd 26 be 93 bb
       -0.087081715 -0.10056855 -0.10866912 -0.0045087514
000090 21 ba 93 3c 7a bf f9 bd 09 fd 29 bd 2b f0 fe bc
       0.01803309 -0.121947244 -0.04150108 -0.03112038
0000a0 08 1e c7 3d 31 c8 e6 bd 51 6b 64 3d 6e be 03 3e
       0.09722525 -0.11268652 0.055766407 0.12865612
0000b0 5c 79 2b 3b 87 a5 67 bd 3f 41 d6 3d 33 00 dc 3d
       0.0026164865 -0.056554344 0.104616635 0.107422255
0000c0 12 cd 83 bd be b8 03 3c e6 89 12 3d 03 f1 6a 3d
       -0.064355984 0.008039651 0.03577604 0.057358753
0000d0 c5 36 4c 3d 98 0c c3 bd 75 38 ba 3d 3d 48 3c 3d
       0.04985692 -0.095238864 0.090927996 0.04596733
0000e0 a5 04 2b 3d 64 50 59 bd e2 f1 2b bd 8b db 25 bd
       0.041752476 -0.053055182 -0.041978724 -0.040492576
0000f0 c3 4b 97 bd ac d7 82 3c b1 c3 e6 bd fd a2 d7 bc
       -0.07387497 0.015971981 -0.11267794 -0.026322836
000100 fa 82 c7 bd fb f8 93 3d 3d 83 85 bd 59 a1 ac 3c
       -0.09741779 0.07225224 -0.06519172 0.02107303
000110 10 3f ad bd d9 28 a0 bd 9d b1 ed bd ac 9e e3 bc
       -0.08459294 -0.07820291 -0.11606143 -0.027785622
000120 2b bc a9 3d d9 59 c7 bc f2 45 0c bd a1 67 96 3c
       0.08287843 -0.024334835 -0.034246393 0.018359961
000130 35 aa ce bc 85 29 ab 3d c4 c0 6a bc b1 b5 e1 3d
       -0.025227645 0.083575286 -0.0143281855 0.11020983
000140 db 20 32 bd e7 05 58 3d c4 1f 97 3d 13 0c c4 3d
       -0.043488365 0.052740004 0.07379106 0.095726155
000150 c9 62 e9 3d c3 ab 07 3d 30 f7 13 bc 9a 1d 8d bd
       0.11395795 0.03312279 -0.009031102 -0.06890412
000160 0e 8e d0 bd 58 9e 5e 3d b1 a7 76 bd a2 d1 20 bd
       -0.10183345 0.054350227 -0.060218517 -0.03926242
000170 c7 4c aa 3d 9c 71 2e bd 7a d3 68 3d 6c 4a 8f bd
       0.08315425 -0.042588815 0.056842305 -0.06996617
000180 37 fe 44 bd f7 6c 1f 3d ca 8e a1 3d 35 6f d4 3d
       -0.048094 0.038922276 0.07888563 0.103727736
000190 d8 7c ab 3b 1b 4a 46 3c 4f 8f 8a bd 0b e8 05 be
       0.0052333884 0.012102629 -0.06765615 -0.13076799
0001a0 ec d6 42 3c 14 2e d7 bd 81 85 9b 3d 9c d9 da bd
       0.011892062 -0.105068356 0.07593823 -0.10686037
0001b0 39 e7 2a 3d 29 20 94 bc 3d 29 95 bd ee e1 9b 3d
       0.041724417 -0.018081741 -0.07283256 0.07611452
0001c0 da 33 ee bd d5 f8 c7 3d ec a2 05 bd fa 6e 89 bd
       -0.11630984 0.09764258 -0.032626078 -0.0671062
0001d0 a4 88 78 3b 5d 9e 84 bc e3 1a 0a be 34 a8 b5 3c
       0.003792324 -0.016188795 -0.13486819 0.022174932
0001e0 72 a9 9b 3c 1c 30 99 3c 27 70 4d 3d d4 36 66 3d
       0.019001696 0.018699698 0.050155785 0.056204632
0001f0 e6 2f f8 bd 66 78 c0 3d 44 79 dc bd cf 40 4d bd
       -0.12118511 0.09397964 -0.10765317 -0.050110634
000200 70 f8 96 3b 02 cf 2f bd 62 d1 cd 3c 11 37 dc 3b
       0.004607253 -0.042922027 0.025124256 0.0067204316
000210 47 48 b3 3d 5d 76 b9 bc 42 4e a4 bd 0e 44 1d 3d
       0.0875402 -0.022639448 -0.08022739 0.03839498
000220 23 c3 bc bd 16 5a 8b 3c 84 d8 1c be 75 24 90 bd
       -0.09216907 0.01701073 -0.15316969 -0.070382036
000230 2b 34 d4 3c 1c 65 e3 bb ea ed b7 bd 8a ed a5 3d
       0.025903782 -0.0069395434 -0.089809254 0.081019476
000240 c8 72 02 3d 52 55 a3 3c 24 7a 21 3d 15 83 3b bd
       0.031847745 0.019938145 0.039423123 -0.045779306
000250 96 1d 69 3d 60 d8 9c 3d c6 af 0f be 2a 72 d0 bc
       0.05691298 0.07658458 -0.14031896 -0.025445063
000260 5c 80 ac ba 9a e9 fc bd ce 28 d9 bd 83 07 00 3d
       -0.0013160813 -0.123492435 -0.10603486 0.031257164
000270 74 1d 8d 3d 5b 71 cb 3c af 11 7b 3c cf 2d 50 3c
       0.06890383 0.024834326 0.01532404 0.012706234
000280 83 6b 04 3d 7d 98 b1 3d 4e 05 bb 3d c8 b3 92 bd
       0.032329094 0.08671663 0.09131871 -0.07163197
000290 ff 2a 29 bc fc e5 fc bd 0f e6 02 be ce 67 c8 bd
       -0.0103251925 -0.123485535 -0.12783073 -0.09785424
0002a0 45 d2 78 bd 82 22 da bd e8 d7 fa bd 1c 42 ea bb
       -0.060747404 -0.10651113 -0.12248212 -0.007148994
0002b0 44 e6 ed 3c 41 f3 88 3d 5a 51 f8 bd 77 af 3e 3d
       0.029040463 0.06687022 -0.121248916 0.046554055
0002c0 dd 0f 36 3d 02 43 56 3d 61 17 7f 3c c9 52 e1 bd
       0.044448722 0.052309997 0.015569539 -0.11002118
0002d0 f3 74 9c 3d 6d d7 87 ba dd ad bf bd f3 58 e5 bd
       0.07639494 -0.0010363885 -0.09359334 -0.11198606
0002e0 98 fd bf 3c 54 a5 b7 3c 0a 73 8e bc 6b cf 95 3d
       0.023436353 0.022417702 -0.01738884 0.073149525
0002f0 1f d2 24 be af 46 ce 3d 25 a4 2f bd 73 e2 50 bd
       -0.1609578 0.100720756 -0.04288115 -0.05099721
000300 3a 88 1b 3d 6c 45 ba 3c 61 63 70 bd 6c 65 bf 3d
       0.037971713 0.022738181 -0.058688525 0.093455166
000310 35 87 8c bd 8b 04 fe 3d 23 31 f6 3d a8 7f 49 3d
       -0.06861726 0.1240321 0.12021091 0.049194008
000320 91 cd 3b bc db ca c1 bb 04 37 c9 bd bf 70 b2 bd
       -0.011462585 -0.005914075 -0.098249465 -0.08712911
000330 8c 42 a4 bd 60 76 d0 bc 57 c1 c1 bd a8 4b 97 3d
       -0.08020505 -0.02544707 -0.09460705 0.07387477
000340 b6 8a 07 bd 30 a9 3d 3d 85 6b 76 3d e4 89 fa 3d
       -0.03309127 0.046303928 0.060161132 0.12233332
000350 9e 7b d6 bc 6a 33 09 3e b6 9b 19 3d 26 86 91 3c
       -0.026181992 0.13398519 0.037502013 0.017764162
000360 10 6c db 3d e1 58 98 3c 94 65 e2 bd 6e d4 b5 3d
       0.10713971 0.018597068 -0.11054531 0.08878408
000370 5f 28 13 3b 1f a2 4f 3d 40 b5 09 bd 33 13 4f bd
       0.0022454483 0.05069172 -0.03362012 -0.05055542
000380 b2 27 af 3a 2e 0b c6 3d 8f e5 60 bc 3a 21 d7 bd
       0.001336327 0.09670101 -0.013726606 -0.10504384
000390 92 14 d3 3b 14 be 06 bd 56 1b 98 3c f4 fa 2e 3d
       0.006441661 -0.032896116 0.018567722 0.042719796
0003a0 54 60 f3 3c 18 22 f8 3d e7 ff 0c bd af e2 d2 3d
       0.029709019 0.12115878 -0.034423735 0.10297143
0003b0 d2 51 97 bd bf e3 0d 3d 02 b3 b2 3d a4 2e 26 3d
       -0.07388653 0.034641024 0.08725549 0.040571824
0003c0 c5 0c 8e 3d 51 00 96 bd f6 b4 10 bd e7 74 05 3e
       0.06936029 -0.07324279 -0.035328828 0.13032876
0003d0 4e 3a 0f 3d e8 1c 91 3d ff 12 ac bd e6 11 b7 bc
       0.034967713 0.070855916 -0.08402061 -0.022347402
0003e0 46 d8 96 bd da f5 c3 3d bf fa 1c bc 41 92 c1 3d
       -0.0736547 0.09568377 -0.009581267 0.09451724
0003f0 9c ad 6b bd 1f 80 b9 3d 23 d2 52 bc 57 8b 96 bd
       -0.057538614 0.0905764 -0.012867483 -0.07350796

edge_encoder.layers.2.bias f4 [32]
000000 88 91 40 3c db 3f de 3d bb 21 8b bd 10 9b c8 3d
       0.011753447 0.10852023 -0.06793543 0.09795201
000010 b6 26 39 3d 9d 9e 87 bd 61 68 e0 ba a7 5b 82 bd
       0.045202933 -0.0662205 -0.0017120951 -0.063651375
000020 28 39 b6 bb 10 a9 eb bc 5f fd 1a 3d f2 54 e5 bd
       -0.005561013 -0.028767139 0.03783929 -0.11197843
000030 8a b9 33 bd 4a f1 d6 bd cc 8e f8 bc 03 0f cc 3d
       -0.043878116 -0.10495241 -0.030341528 0.09963801
000040 c5 06 c7 bc 41 ff 43 bd 7b 0d d6 bd 97 45 22 bd
       -0.02429522 -0.04785085 -0.1045179 -0.039617147
000050 bb 70 c7 bd 60 5e f3 3d 20 65 a9 bd ac 91 66 bd
       -0.097382985 0.11883235 -0.08271241 -0.056291267
000060 6f d9 48 3d c1 12 05 3e 3a 29 06 bd 66 f3 a4 3d
       0.049035486 0.12995435 -0.03275416 0.08054237
000070 fc 63 ed bd 65 99 b6 3d 0c c9 72 bd 88 04 02 be
       -0.11591336 0.089159764 -0.059273764 -0.12697041

node_encoder.layers.0.weight f4 [64, 64]
000000 1a 0c 5e be 17 1e ba bd 16 2e 34 3d b4 6b 38 be
       -0.21684304 -0.090877704 0.043989263 -0.18009835
000010 cd e8 35 3e 44 a8 a9 bc 5b 3e 30 bd 1f 31 93 bd
       0.17764588 -0.020710118 -0.043028217 -0.071871035
000020 f9 eb 48 be f1 60 26 bd 4f b2 36 be 8e df 60 bd
       -0.19621266 -0.040619794 -0.17841457 -0.0549007
000030 8d b3 f4 3c 1e 10 15 bd c8 1f bf bc f8 02 81 bd
       0.029870773 -0.036392324 -0.023330584 -0.06299394
000040 56 87 12 be db 53 2c 3d aa 52 d3 3d 26 d3 6e be
       -0.14309439 0.04207216 0.10318501 -0.23322734
000050 c8 0e 78 be 88 32 56 be 9e fc 99 3d e0 d4 3c 3d
       -0.24224389 -0.20917714 0.07518886 0.04610145
000060 6d 9c 8d 3e 39 e4 a1 3d 11 b1 09 3c b1 b9 a4 3d
       0.27658406 0.07904858 0.008404032 0.0804323
000070 d9 b4 15 3d e1 34 51 3c d5 3b 31 bb 5a de 0f 3e
       0.036549423 0.012768955 -0.002704372 0.14049664
000080 f3 9d 49 be ba f7 3c be fd 74 c6 3d ee e7 5f 3d
       -0.19689159 -0.18453875 0.096902825 0.054664545
000090 ee 01 87 3e dc 57 3a bd 5e d0 3b bd 3e c4 b8 bd
       0.2636866 -0.045493945 -0.04585301 -0.09021805
0000a0 e9 a1 10 3e d7 dd 46 3d 02 69 12 bd be b9 b5 bc
       0.14124264 0.048551407 -0.035744675 -0.022183295
0000b0 60 76 ec 3d d3 47 33 3e 3e 82 80 be a8 19 67 3e
       0.11546016 0.17507868 -0.25099367 0.22568381
0000c0 31 a5 ef 3c 73 7c a3 3d 30 c0 66 3d 08 4b 83 be
       0.029253574 0.07982721 0.056335628 -0.25643182
0000d0 0f 7f 26 bd 1e 23 b9 bd ad 26 72 3e c3 29 55 3e
       -0.040648516 -0.09039901 0.23647566 0.20816712
0000e0 3e b9 e4 bd e6 91 3f ba 73 8a ec 3d ee 53 03 3d
       -0.11168145 -0.00073078123 0.115498446 0.032062463
0000f0 4d 30 cd 3d f9 7c 09 be f0 e9 10 3e 43 da 87 3d
       0.10018978 -0.1342658 0.1415174 0.06633427
000100 32 69 d6 bd 93 79 f3 bd 8d 42 e4 3d 82 0e 61 bc
       -0.10469283 -0.11888423 0.11145506 -0.013736369
000110 97 9e 99 3d 25 78 7b 3b 03 c6 8c bd 0a fa 2b 3e
       0.07500952 0.0038371172 -0.06873705 0.16794601
000120 6a 4b f3 bd 0a 60 04 3d 00 1b 06 be ca a0 c9 bb
       -0.118796185 0.032318152 -0.13096237 -0.0061532008
000130 53 e3 74 3e 7c f2 19 be f2 30 18 bd f2 d6 8e 3c
       0.23914842 -0.15033907 -0.037156053 0.017436478
000140 92 1d 95 3d 4e 5f a4 3d 5f 2d 45 3e 40 e9 23 be
       0.07281031 0.080259904 0.19255589 -0.16006947
000150 a6 e7 14 be ac ed 10 be 52 dc c2 3d a4 af 1d 3e
       -0.14541492 -0.14153165 0.09514679 0.15399033
000160 4a 58 19 3e a3 a3 03 be f3 5e 8d 3d 5b 97 55 3e
       0.14975086 -0.12855391 0.06902876 0.20858519
000170 e0 1d a7 bd 9a 2b a0 bd 37 f5 49 bb 79 d7 55 3e
       -0.08159995 -0.07820816 -0.0030816325 0.20882978
000180 46 fe 5b be 4c fd d9 bc 0d 53 bb 3d 64 4f fc bd
       -0.21483716 -0.02661004 0.091467 -0.1231983
000190 02 11 8a 3e e7 eb 9e 3a 09 b0 e4 3c de e6 41 be
       0.269661 0.0012124748 0.027915971 -0.18935725
0001a0 b8 34 46 3e 50 82 86 bd 87 68 ee 3c 29 3a bc 3c
       0.19356048 -0.06567824 0.029102577 0.022976952
0001b0 e0 ec 8b 3d 36 e7 0b 3e 07 dd 92 bd 5b ba 75 3e
       0.0683229 0.13662419 -0.07171064 0.2399687
0001c0 09 aa 35 3d c9 f9 eb 3d 74 7a 53 3e b4 87 55 be
       0.04435161 0.11522252 0.20652181 -0.20852548
0001d0 d0 cb 7a be 61 85 25 be 89 e0 80 3e 8d 92 13 3e
       -0.24491811 -0.16164161 0.25171307 0.14411373
0001e0 de 74 1a 3c 16 b1 5f 3b 72 a7 a8 3c 8f 0d e5 bc
       0.009427277 0.003413265 0.020587657 -0.027960567
0001f0 34 c5 92 bb 76 02 86 bc 35 89 26 3e ef b8 5f 3e
       -0.004479075 -0.016358595 0.16263278 0.2184789
000200 b9 a8 42 be a5 f2 9c 3d 2d 6f de bd 39 d2 b9 bd
       -0.19009675 0.07663468 -0.10861049 -0.090733
000210 83 8d 94 3e ff 45 72 bd c3 b9 bf 3d 43 ca 0e 3d
       0.29014215 -0.059148785 0.09361603 0.03486086
000220 94 e2 8f be 66 a5 f0 bc 8e 65 bc 3c 0f 4c c1 bd
       -0.28102553 -0.029375743 0.022997644 -0.09438335
000230 f5 da 3b 3d b8 fe 45 3b 2d 8a c4 bd 7a 48 c6 bd
       0.04586311 0.0030211639 -0.095966674 -0.096817926
000240 fe 20 47 be 9f 15 2e 3e 69 53 25 3e 3e 49 9f bd
       -0.1944618 0.17000435 0.161451 -0.07777642
000250 8b 42 3f be f8 ab c2 bd 28 6c 73 bd ab a7 fe 3d
       -0.18677728 -0.09505457 -0.059429318 0.12434324
000260 98 b3 49 3e 0b bd 84 bd 19 7d f5 3d bb 26 27 3e
       0.19697416 -0.064813696 0.11986751 0.16323368
000270 77 fe 75 bd 21 70 a5 bc 7b 0a 15 be e4 3b 61 3e
       -0.06005713 -0.020195069 -0.14554779 0.21995503
000280 7d d6 a0 bd bd df 8a bd f0 fa da bd b1 26 b7 bd
       -0.078534104 -0.06780956 -0.10692394 -0.08942927
000290 12 0e 62 3e 56 20 4a be a0 09 0c 3e 89 02 91 be
       0.2207568 -0.19738898 0.13675547 -0.28322247
0002a0 d6 63 c2 3d d5 60 de 3b 8f 3a 26 3e d7 b5 a6 3d
       0.094916984 0.0067864456 0.16233276 0.08140152
0002b0 4e c6 38 3e aa ba cb 3c 7d 5d 21 be 65 74 2c 3e
       0.18044397 0.024869282 -0.15758319 0.16841276
0002c0 03 fb 22 be bc 55 aa bd 31 e5 82 3e 6c ab 90 be
       -0.15916066 -0.08317134 0.25565484 -0.28255785
0002d0 15 66 9f 3b 0f 33 28 be e2 98 03 3d ca b5 81 bd
       0.004864464 -0.16425727 0.032128222 -0.06333502
0002e0 2f ed 90 bd af 2a f3 3d 8c 7a 32 3e 3f c4 f0 bd
       -0.07076489 0.118733756 0.1742956 -0.11756181
0002f0 9a 5e 67 bd 04 99 c8 bd b9 2a ba 3b 8f cd d3 bb
       -0.056486703 -0.097948104 0.0056813625 -0.0064637135
000300 32 78 00 be 5f ba 87 3c dc 22 63 3c ca ec 2f 3d
       -0.12545851 0.01656836 0.013863292 0.04295043
000310 2b 11 11 3d a3 cd 14 3e e0 23 0a 3d fe a9 80 3b
       0.035416763 0.14531569 0.03372562 0.0039265146
000320 d5 1b f6 3d 13 4a 50 bc 85 ea 22 be 9e 03 b1 bd
       0.12017027 -0.012712973 -0.15909775 -0.08643268
000330 29 22 80 3d 71 52 c0 bd 03 ba 0e 3e 45 7a 23 3e
       0.062565155 -0.093907245 0.13938145 0.15964611
000340 43 6a f9 bd ee ff 07 be cc 6a 15 be 0b a5 22 3c
       -0.12178471 -0.13281223 -0.14591521 0.009927045
000350 2f 80 6d 3e cb 69 d2 3d de 34 99 bd bf 09 9f bd
       0.2319343 0.10274085 -0.07480787 -0.07765531
000360 fb 4a ce bd 63 2f f8 bd 82 c4 38 be e2 7b 2f bd
       -0.10072895 -0.12118413 -0.18043712 -0.042842753
000370 97 b2 64 3c 02 a7 d5 3c 39 01 2a bd 30 4d 6b bd
       0.013958595 0.026080612 -0.041505072 -0.05744666
000380 94 25 99 bd 00 e4 bd 3c 12 f3 93 3d 1b 41 b8 3d
       -0.074778706 0.023180008 0.07224096 0.08996793
000390 f2 3d a0 bd 03 79 f5 bc a2 7e 94 3b 70 ad 04 be
       -0.07824315 -0.02996493 0.0045316974 -0.12956786
0003a0 2c 79 11 be fc 8c 1a 3e 55 69 c3 bc 90 d5 d8 3d
       -0.1420638 0.15092844 -0.023853937 0.10587609
0003b0 f9 55 48 be a9 ad 0b bc 54 87 24 3e 73 37 5a ba
       -0.19564046 -0.0085252905 0.16067249 -0.00083243026
0003c0 bc 19 1c bd fc 67 d9 3c ee 27 67 be 15 f2 f1 3d
       -0.03811048 0.026538841 -0.22573826 0.118137516
0003d0 35 4d c9 bc e3 39 df 3c f0 df 1e be bb 92 51 bd
       -0.024572948 0.027249282 -0.15515113 -0.051165324
0003e0 66 94 e7 bc 91 4c e4 bc 96 36 25 be 48 2a 56 3d
       -0.028269004 -0.027868541 -0.16134104 0.052286416
0003f0 dd 35 87 bd 59 22 1e be cc fe 91 bd 1a cf 51 be
       -0.066020705 -0.1544279 -0.07128677 -0.20489159

node_encoder.layers.0.bias f4 [64]
000000 86 56 20 3e a4 d6 68 3d 20 b2 e1 bc 45 98 f7 bc
       0.15658006 0.056845322 -0.027550757 -0.030223975
000010 dd df 59 3d 00 ba cc bc e9 01 2b 3e 52 29 38 3d
       0.05319201 -0.024991035 0.16699947 0.04496128
000020 4b 47 88 3d 9a 71 30 bc 2a 53 a9 bd ec f7 2b 3e
       0.06654223 -0.010769272 -0.082678154 0.16793793
000030 bf cc 9f 3d d5 3a 1f 3e b0 f7 22 3e 4c 5d f4 bc
       0.07802724 0.15549786 0.15914798 -0.029829644
000040 42 90 1a 3e 1e e3 a9 bc 5f d0 6b 3c 48 f7 4c bc
       0.15094092 -0.02073818 0.014392941 -0.012510128
000050 4c bf 17 3e a1 30 2c 3d 79 70 e0 3d 20 6f 13 bb
       0.14819068 0.042038564 0.109589525 -0.0022496656
000060 b7 b8 12 3e 3f 68 b7 3c 92 d5 e3 3d 4c 05 20 3c
       0.14328276 0.022388576 0.1112472 0.009766888
000070 fe 45 cb bc c1 08 a7 3c f6 02 bb 3d 9e a0 b8 3d
       -0.024813648 0.020389916 0.09131424 0.0901501
000080 f5 cf f4 bc 32 c8 fb 3d c3 b6 c1 bd cf d9 f6 bc
       -0.029884318 0.122940436 -0.09458687 -0.030133156
000090 6b 53 73 39 0d ee 50 3e 49 35 1a bc b9 01 2a bc
       0.00023205362 0.20403309 -0.009412118 -0.010376387
0000a0 13 c1 41 bd a5 17 05 3e 4a 47 dd 3c fa b1 e7 3d
       -0.04730327 0.12997301 0.027011532 0.11313243
0000b0 0d 15 18 bc 7c 46 bf 3d a6 33 47 bd 34 df 6e 3d
       -0.009282363 0.09339616 -0.04863324 0.05831833
0000c0 57 e8 0f 3e 29 aa ed 3d 98 ac 48 3d 32 eb 1b bd
       0.14053474 0.11604721 0.048992723 -0.038066097
0000d0 79 d6 19 bc fb f6 f5 3d bf 95 cd 3d aa f9 d6 3d
       -0.009389513 0.120099984 0.100383274 0.104968384
0000e0 40 ab fa 3c d6 33 9b 3d 1d 31 db 3b 40 0a c0 3d
       0.030599236 0.07578246 0.0066892044 0.09376955
0000f0 07 8b 5a bd 32 2c 08 3e 17 67 64 3d aa be e0 3c
       -0.053355243 0.13298109 0.055762377 0.027434666

node_encoder.layers.2.weight f4 [32, 64]
000000 e6 0d 02 bd fc 2d 9b 3d 44 9c 0c 3d fe 0f b2 bd
       -0.031751536 0.0757713 0.034328714 -0.086944565
000010 2d 89 21 be 32 7d 2a 3c 1a 1c bb bd a8 18 7c 3d
       -0.15774985 0.010405825 -0.09136219 0.06154695
000020 11 12 7c 3d 44 43 6b bb d7 49 1e 3d ad d9 56 be
       0.061540667 -0.0035898248 0.038644638 -0.20981474
000030 b7 7e e2 bc 6b 8e 52 bd 73 f2 ad 3d 2b 3a f5 3d
       -0.027648313 -0.05140535 0.08493509 0.11973985
000040 7e 53 3d bd b6 e8 bf 3d 9d e1 49 bc 1a e0 11 3d
       -0.046222202 0.09370558 -0.012321857 0.03561411
000050 3c 13 10 3e 26 65 95 3d 4f 9f 6d 3d 34 e3 f8 bc
       0.14069837 0.07294683 0.058013257 -0.030381776
000060 4a d1 c4 bd be 38 e2 bd e1 8f 34 bb 35 b5 83 3c
       -0.09610231 -0.11045979 -0.0027551579 0.016077617
000070 bc e0 15 bd 6d ac 80 bc 31 07 02 be 16 ae 22 be
       -0.036591277 -0.015707219 -0.12698056 -0.15886721
000080 c4 33 1f bd 8d c6 31 bd 03 52 af bd e1 45 61 bc
       -0.038867727 -0.043402243 -0.08560564 -0.013749571
000090 1c 22 91 3d 8f 87 c9 bd 30 8c f1 bc dc 34 8d bd
       0.07086584 -0.09840309 -0.029485792 -0.06894848
0000a0 e2 00 84 3d 32 04 16 bc 52 b1 03 3e 9e 83 47 3e
       0.06445481 -0.009156274 0.12860611 0.19483802
0000b0 1f 56 41 3d c9 d4 c8 3d 03 1a 53 3d 14 50 87 bd
       0.047201272 0.098062105 0.05153848 -0.066070706
0000c0 2c d1 ca bc b4 d8 44 bd 6d 71 ea bc a6 f3 a9 bc
       -0.024757944 -0.048058227 -0.028618539 -0.020746063
0000d0 d0 98 bf bd e4 d3 9c 3d 61 4c e1 bd a3 70 0c bd
       -0.093553185 0.076576024 -0.11000896 -0.034287106
0000e0 dc c0 81 3b bf e8 03 be 2a d9 14 3d ae a4 ae bc
       0.003959758 -0.12881754 0.036339916 -0.02131876
0000f0 9b f0 03 3e 49 b8 44 3c 33 00 6f bd b2 1e af 3d
       0.12884752 0.012006828 -0.0583498 0.085507765
000100 57 1c 83 3d 3a 40 1d 3e f1 bf 34 3c af ac 8d 3b
       0.0640189 0.15356532 0.0110320905 0.004323564
000110 e0 45 1f 3e a4 10 e6 3d a5 9c b1 bd 9d 27 6a bd
       0.15553999 0.11233643 -0.08672456 -0.057166684
000120 cc 5a e9 3d 5d c3 90 3c 33 68 da bc b9 8b 29 3e
       0.11394271 0.017671281 -0.026661014 0.16557206
000130 5a 10 d5 3d 7f 9d 2b 3d 95 41 8f 3d e7 55 29 3d
       0.104035094 0.041898247 0.06994931 0.04134169
000140 a8 96 d8 3d 1f ae 0e be b9 67 f9 3d 4d 05 1d 3e
       0.105756104 -0.1393361 0.12177987 0.15334053
000150 ed cd 98 bd 1a fd 89 3d 94 30 89 3d 62 ba ee 3c
       -0.07461152 0.067377284 0.06698719 0.029141609
000160 eb 39 14 3e 1a e0 61 3d 13 db 18 bd 15 e5 b1 3d
       0.14475219 0.05514536 -0.0373183 0.08686272
000170 62 b7 0e bd 10 cd aa 3d e4 29 1b 3e 8f da 1a 3e
       -0.034842856 0.08339894 0.15152699 0.15122436
000180 c0 10 04 be c4 86 46 bd f9 62 04 3e 3c 1e d2 bc
       -0.12897015 -0.048468366 0.1292838 -0.025649182
000190 d2 8d 08 be e3 47 af 3d 55 73 c2 bc 7c 82 98 bd
       -0.1333535 0.08558633 -0.023736635 -0.07446763
0001a0 57 db bd bc 77 53 5c 3d 1e bd d6 bd b0 44 42 3e
       -0.023175878 0.053790536 -0.1048529 0.18971515
0001b0 ed 27 48 3e 39 25 da bd 94 45 a3 bd af 8c 26 3d
       0.1954648 -0.10651631 -0.07972255 0.04066151
0001c0 16 61 42 3d 0d df 03 be 69 6b 12 3d 0b 6e b2 3d
       0.04745587 -0.12878056 0.035746966 0.08712395
0001d0 6c 8e 80 bd e7 13 15 bd f3 93 5c 3d ab cf 95 bd
       -0.06277165 -0.036395933 0.053852033 -0.07315
0001e0 8f fc b1 bd 92 a0 88 3d 02 9e 78 bd a4 ab ec 3c
       -0.0869075 0.06671251 -0.060697563 0.028890438
0001f0 d0 e2 de bd 44 cd 19 3d b8 83 6c 3c 8f 03 9b bd
       -0.10883105 0.037549272 0.014435701 -0.07569038
000200 76 d3 77 3c 64 db 18 3e 62 f2 46 3c 06 81 9c bc
       0.0151261 0.14927441 0.0121427495 -0.019104492
000210 cd 57 f2 3d c3 ea 17 be 2d a8 10 3d 07 48 61 bd
       0.11833153 -0.14835648 0.035316635 -0.05500033
000220 47 3e 81 3d 79 9c 65 3c eb 0b 57 3e bb 6c da 3d
       0.063107066 0.014014357 0.2100064 0.1066527
000230 da e4 0b bd 90 93 cc 3b 93 3a cd 3b 05 dd 34 bd
       -0.034153797 0.0062431768 0.006263086 -0.044156093
000240 54 81 be 3d a7 b8 89 bd 21 ce 55 bc 0c 28 38 bd
       0.09302011 -0.06724673 -0.013049633 -0.044960067
000250 97 ce 88 bd a6 17 5e bd bd 43 fa 3c 2d c9 18 be
       -0.06680029 -0.05422177 0.030549878 -0.14920492
000260 93 78 97 bd f8 ee 95 bd fc c7 25 3d 2a df 61 bd
       -0.073960446 -0.0732097 0.040473923 -0.055144466
000270 89 f1 41 bd 4c 8d b9 3d 82 48 2a 3e 3c cf 72 3b
       -0.047349487 0.09060153 0.16629222 0.003704979
000280 aa 27 d7 3d 53 4c f1 3d 70 eb 3f 3c a7 b1 ba bc
       0.10505612 0.11782136 0.0117138475 -0.02278979
000290 1c e5 97 3d fe 7a bf bd 91 37 fc bd de 05 90 3d
       0.07416746 -0.09349631 -0.12315286 0.07032369
0002a0 8b b8 ea bb 9a 7f 80 3d b2 26 00 be ae 45 01 be
       -0.0071631125 0.06274338 -0.12514761 -0.12624237
0002b0 8b 8f 17 bd 8e 1e e1 bd 2a da ed bd a5 71 9a bd
       -0.037002128 -0.10992156 -0.11613877 -0.07541207
0002c0 5e 35 c7 bc aa 96 85 3d 2b d9 6c 3d ce fa f3 3d
       -0.02431744 0.065228775 0.057824295 0.119130716
0002d0 91 36 27 3d fc 61 a9 3b dc d0 4a bd b6 e4 7d 3d
       0.040823523 0.0051691514 -0.04951559 0.061985694
0002e0 28 f0 e0 bd 02 d0 91 bc 00 2f a6 bd c6 32 15 bc
       -0.10983306 -0.017799381 -0.08114433 -0.009106344
0002f0 f6 32 b2 3d 7b 28 54 bc a3 0f 2a 3e 97 ea 03 be
       0.08701126 -0.012949104 0.16607527 -0.12882458
000300 5e 81 6c bd 66 38 ee bc be e1 69 3d c6 c9 1d bc
       -0.05774056 -0.029079627 0.05710005 -0.009630626
000310 eb 5f e1 3d 60 7f 9c 3d ab 38 60 3c 6c 3b ff bc
       0.11004623 0.07641482 0.013685386 -0.031156264
000320 ee 27 a1 bd cf 96 c8 3c 9d e4 a4 3c 7c 81 e9 bc
       -0.07868944 0.024485974 0.020128543 -0.028504126
000330 36 20 e9 bd 0d 92 1c bd ba 78 1d bb 4b 90 91 3d
       -0.11383097 -0.038225222 -0.0024028257 0.071076
000340 7e 17 f2 bd 4e 24 48 3d c4 f0 49 bd 3b 36 c6 bb
       -0.11820887 0.048862748 -0.049301878 -0.0060489452
000350 f6 7d 35 3d 34 91 1f be 1f ed c6 bc 57 f3 72 3d
       0.04430958 -0.15582734 -0.02428299 0.0593141
000360 5d c4 16 be 99 69 8a bd 03 a1 2f be 73 9a 08 be
       -0.14723344 -0.067584224 -0.17151265 -0.13340168
000370 a7 1f 03 bd 4c c0 26 bc 1a 6d 67 3d bf af 80 bd
       -0.032012608 -0.010177683 0.05650053 -0.06283521
000380 6a 5f d9 bc 27 7d a4 3d 46 cb 1b bc 6d 4f 59 bd
       -0.026534755 0.080316834 -0.009508913 -0.053054262
000390 f8 f7 c8 bd 6f f7 8a 3d e9 c2 18 3d 95 fc 0a be
       -0.09812921 0.067854755 0.037295256 -0.13572915
0003a0 5c c8 1d be e5 37 ac bd 89 6c e5 bd b5 83 15 3b
       -0.15408462 -0.084090985 -0.11202342 0.00228141
0003b0 e2 d1 aa 3d f6 58 d7 3c e9 4b 84 bc 03 ad 04 3d
       0.08340813 0.026287537 -0.016149478 0.03239156
0003c0 a4 cd a4 3d ac 12 51 3d 31 f9 a7 3d 1c fb 23 bd
       0.08047035 0.051043198 0.08201826 -0.0400344
0003d0 a9 ce ed bd 1e 2b 0a bd 64 49 6f bd cb 86 29 be
       -0.11611683 -0.033732526 -0.0584196 -0.16555326
0003e0 e7 ab 6d 3d d4 11 0f bd 53 0a 84 3d 72 b9 06 be
       0.058025267 -0.03492911 0.06447282 -0.1315668
0003f0 c0 4f 0f bb ed 63 56 bd 17 97 c3 3d 27 ab b9 3c
       -0.0021867603 -0.05234139 0.095503025 0.02266462

node_encoder.layers.2.bias f4 [32]
000000 0f 4e 62 bd 0e 4d 40 3c 55 01 8b 3d a7 a6 f1 bd
       -0.055250224 0.011737121 0.067873634 -0.117993645
000010 7d 39 20 bd 87 69 c6 3d 87 50 18 3e 58 fa 0c 3b
       -0.039117325 0.096880965 0.14874469 0.0021511521
000020 a3 d4 86 bb 8c d7 bb 39 72 26 3c 3d 8e 27 df 3c
       -0.0041147037 0.00035828014 0.0459351 0.02724054
000030 02 c8 87 3d 34 06 9d 3d 1c 86 7d bc 3a 39 a5 bc
       0.06629945 0.07667199 -0.015473869 -0.02016889
000040 c0 4f d2 3d e5 74 70 bd f2 c8 80 bd 86 d3 dd bd
       0.10269117 -0.05870523 -0.06288327 -0.108313605
000050 49 19 ca 3d b6 fc a4 bc 50 0a b4 bd 93 88 eb 3b
       0.09868104 -0.020140033 -0.087910295 0.007187912
000060 3a c3 0b bd 2c 02 ae 3b 88 4e 15 3e 4b 62 01 bb
       -0.03412173 0.0053103175 0.14580739 -0.0019742425
000070 8e 57 83 3d 91 a1 cd 3d 0a da ff 3d ca d7 01 3e
       0.06413184 0.10040582 0.124927595 0.12679973

state_encoder.layers.0.weight f4 [64, 2]
000000 e1 e7 31 bf 96 0f 12 be a4 5b 5e 3e b5 03 27 bf
       -0.69494444 -0.14263758 0.21714646 -0.6524003
000010 52 74 84 be b2 99 f6 3e 1b 6d e5 be 06 a9 dc 3e
       -0.25869995 0.48164135 -0.44809803 0.43097705
000020 4a 61 e2 3e e3 4f ba 3e 3b 0f 5a 3e 0a d5 bf be
       0.4421485 0.36389074 0.21294872 -0.37467223
000030 cd 5f c2 be 66 4c 16 3e 05 00 fd 3d de ca a3 be
       -0.37963715 0.14677581 0.12353519 -0.31990713
000040 37 63 89 3e 00 95 9c bc c2 9e 7e 3e 6e 8d 81 3e
       0.26833507 -0.019114017 0.24865249 0.25303215
000050 5c 43 23 be dd b9 0d 3f b0 fd 06 bf 0f 16 38 be
       -0.15943664 0.5536173 -0.52730846 -0.17977165
000060 7d b1 1f 3e 6a fe af 3e c0 09 5e bd b7 47 6e 3d
       0.1559505 0.3437379 -0.054208517 0.05817386
000070 6a c6 1f 3f df bd 2e 3f f9 c9 1f bf 48 4d ea be
       0.6241213 0.6825847 -0.6241756 -0.45762086
000080 74 37 89 be e4 bf 28 be 75 76 0b bf 5b b6 d9 be
       -0.2680012 -0.1647945 -0.54477626 -0.4252194
000090 21 f7 a5 be 61 a5 b8 3c 9d 0c ad 3e 76 1f 90 be
       -0.32415107 0.022539796 0.33798686 -0.28149003
0000a0 5c 60 25 3f 11 c1 88 be af 73 12 3d b3 31 33 3f
       0.6460016 -0.26709798 0.035754856 0.6999771
0000b0 87 a8 36 3e 0a e5 9d be 4a bc 8d 3e 49 d3 7e 3d
       0.17837726 -0.30838805 0.27682716 0.062213216
0000c0 c8 5c 29 3d 7b 58 1e 3f 03 78 4e be 00 8d c2 3e
       0.04134825 0.6185376 -0.20162968 0.379982
0000d0 13 88 95 3e 84 fc fc be 29 ce 79 3e 90 e8 ae 3d
       0.2920538 -0.49411404 0.2439505 0.085404515
0000e0 d9 a1 1e 3f c2 e4 81 bc 28 4a df 3c 74 4a 66 be
       0.6196571 -0.01585615 0.02725704 -0.22489339
0000f0 f0 5a 0a bf 20 d6 d4 3e 93 87 96 3e eb 86 e0 3e
       -0.5404501 0.41569614 0.2940031 0.43852934
000100 93 24 20 bf ac 02 0d 3f 00 5a 1a bf 33 a9 7c be
       -0.6255581 0.550822 -0.6029358 -0.2467392
000110 dc 9e 0a 3d 98 ab 8b be f5 dd 58 be 71 ca ca 3e
       0.033842906 -0.27279353 -0.2117842 0.39607576
000120 63 3b 0d be 1a 16 9b 3d a6 f5 0b 3f dd 55 32 3e
       -0.13792185 0.07572575 0.54671705 0.17415567
000130 9e b4 d5 3e 9e 39 76 3d 93 9e 45 be 8b f5 67 be
       0.41739362 0.06011354 -0.19298773 -0.22652261
000140 93 ad 80 3e c0 9f 1d bf 07 de 02 bf ad 09 4f be
       0.25132427 -0.61571884 -0.51120037 -0.20218535
000150 cc 1a eb 3e 1b 77 2d 3f 92 d0 d3 bd 7c cf aa bb
       0.45918882 0.67759866 -0.10342516 -0.0052127223
000160 b0 87 89 be f2 de a7 bd 2a e0 31 bf c0 a9 e7 bc
       -0.26861334 -0.0819682 -0.6948267 -0.028279185
000170 a4 ae 55 3e 83 42 0b be b8 0e a8 bd c7 f1 31 3f
       0.20867401 -0.13599591 -0.082059324 0.6950955
000180 9f 69 7d be a3 13 8c bd f4 ba a4 3e 2c 4d d9 3e
       -0.24747322 -0.06839683 0.32173884 0.4244169
000190 0a 15 27 bf cb 7b de be dd 3f 1b be 47 d5 e6 3e
       -0.6526648 -0.43453822 -0.1516108 0.45084593
0001a0 b6 b0 26 bf f5 de 2d bd 42 7b 20 3c 22 0e 27 3f
       -0.6511339 -0.042448957 0.009795012 0.6525594
0001b0 76 25 2b 3f 34 7e 12 3d 8f ef 08 bf 88 68 91 3e
       0.66854036 0.035764888 -0.5349054 0.28400064
0001c0 49 28 63 3d 4b 4d 19 3f a1 7b 2d bf 23 24 66 ba
       0.05545834 0.59883565 -0.6776677 -0.00087791885
0001d0 1e 00 22 3f e3 9e 29 bf 9f 68 19 be e5 7f 42 3d
       0.6328143 -0.66258067 -0.14981316 0.04748525
0001e0 ae 85 0c bf e4 f9 cf be 39 be 95 be ff 19 8f be
       -0.5489148 -0.4062034 -0.2924669 -0.2794952
0001f0 cb d8 31 bf 18 95 09 bf 60 08 29 3f e9 1d b0 3e
       -0.69471425 -0.53743124 0.66028404 0.3439782

state_encoder.layers.0.bias f4 [64]
000000 e6 4f bb 3e 46 0f f0 be 47 00 08 bc e7 f3 57 be
       0.36584395 -0.46886653 -0.008300847 -0.21089135
000010 c1 67 c5 3e fa 17 9c bd 02 28 9e be ad a2 a6 3d
       0.3855572 -0.07621761 -0.308899 0.08136497
000020 07 2a ee be 17 18 0e bf 36 09 82 3b ca b9 80 bb
       -0.4651644 -0.5550551 0.003968383 -0.003928398
000030 26 b2 22 3f 04 c7 6d 3e 59 9a 45 bb 58 00 cf 3e
       0.6355308 0.2322045 -0.0030151813 0.4042995
000040 0d 85 07 bf 4f a2 6b 3d 6c f5 8c be ca 91 9f 3e
       -0.52937394 0.057527836 -0.27530992 0.31165916
000050 d6 70 af be 6c b4 71 be b2 ae af be b9 dc 2c 3f
       -0.34265774 -0.23603982 -0.3431297 0.67524296
000060 12 46 22 3f 5f 1f 2b 3e 63 53 02 3f 21 c4 2d bf
       0.6338817 0.16711186 0.5090849 -0.67877394
000070 2b 03 b0 3e 42 d4 2b 3e 7e d1 25 3f f2 21 ac be
       0.34377417 0.16780189 0.64772785 -0.33619648
000080 b4 90 da 3c 7e 85 0d bf 43 ef b0 3e 66 b5 3c be
       0.026680328 -0.5528182 0.34557542 -0.18428573
000090 c7 d1 b9 bd 35 b1 14 bf ff 65 da be 7a dc c7 3e
       -0.09073215 -0.58082896 -0.42655942 0.39035398
0000a0 eb bb 26 3f 02 be d9 be fd 60 b0 3e 84 b0 13 bf
       0.6513049 -0.42527777 0.34448996 -0.57691216
0000b0 c7 b5 de bd 65 b2 24 3f 3a e0 d0 3e 97 2f fb be
       -0.10874515 0.6433471 0.4079607 -0.49059746
0000c0 67 66 30 3f e5 b7 1d be d2 74 bf 3e 43 4a 2c 3f
       0.68906254 -0.15402181 0.37393814 0.67300814
0000d0 14 94 26 bf e5 20 bb be db 84 2d 3c d9 c5 3a be
       -0.650697 -0.36548534 0.010590757 -0.18239535
0000e0 6b 25 fd be 0d 58 df bc de ee 25 3e 31 7b 9f 3e
       -0.4944261 -0.027263666 0.16204402 0.31148675
0000f0 7c 2b e9 be 86 35 f5 be e0 f7 90 be 15 3f af 3d
       -0.45540988 -0.47892398 -0.28314114 0.08556954
