training_megnet_p_u/saved_models/hse_336_p_u/state.pt (torch, 710362 bytes, 106 tensors)

bond_expansion.rbf.centers f4 [100]
0.0 0.05050505 0.1010101 0.15151516 0.2020202 0.25252524 0.3030303 0.35353535
0.4040404 0.45454544 0.5050505 0.5555555 0.6060606 0.65656567 0.7070707 0.75757575
0.8080808 0.85858583 0.9090909 0.9595959 1.010101 1.060606 1.111111 1.1616161
1.2121212 1.2626263 1.3131313 1.3636364 1.4141414 1.4646465 1.5151515 1.5656565
1.6161616 1.6666666 1.7171717 1.7676767 1.8181818 1.8686868 1.9191918 1.9696969
2.020202 2.070707 2.121212 2.1717172 2.222222 2.2727273 2.3232322 2.3737373
2.4242425 2.4747474 2.5252526 2.5757575 2.6262627 2.6767678 2.7272727 2.777778
2.8282828 2.878788 2.929293 2.979798 3.030303 3.0808082 3.131313 3.1818182
3.2323232 3.2828283 3.3333333 3.3838384 3.4343436 3.4848485 3.5353537 3.5858586
3.6363637 3.6868687 3.7373738 3.7878788 3.838384 3.8888888 3.939394 3.989899
4.040404 4.090909 4.141414 4.1919193 4.2424245 4.292929 4.3434343 4.3939395
4.4444447 4.4949493 4.5454545 4.5959597 4.646465 4.6969695 4.7474747 4.79798
4.848485 4.8989897 4.949495 5.0
00000000: 0000 0000 62de 4e3d 62de ce3d ca26 1b3e
00000010: 62de 4e3e fd4a 813e ca26 9b3e 9602 b53e
00000020: 62de ce3e 2eba e83e fd4a 013f e338 0e3f
00000030: ca26 1b3f b014 283f 9602 353f 7cf0 413f
00000040: 62de 4e3f 48cc 5b3f 2eba 683f 14a8 753f
00000050: fd4a 813f f0c1 873f e338 8e3f d6af 943f
00000060: ca26 9b3f bd9d a13f b014 a83f a38b ae3f
00000070: 9602 b53f 8979 bb3f 7cf0 c13f 6f67 c83f
00000080: 62de ce3f 5555 d53f 48cc db3f 3b43 e23f
00000090: 2eba e83f 2131 ef3f 14a8 f53f 071f fc3f
000000a0: fd4a 0140 7786 0440 f0c1 0740 6afd 0a40
000000b0: e338 0e40 5d74 1140 d6af 1440 50eb 1740
000000c0: ca26 1b40 4362 1e40 bd9d 2140 36d9 2440
000000d0: b014 2840 2a50 2b40 a38b 2e40 1dc7 3140
000000e0: 9602 3540 103e 3840 8979 3b40 03b5 3e40
000000f0: 7cf0 4140 f62b 4540 6f67 4840 e9a2 4b40
00000100: 62de 4e40 dc19 5240 5555 5540 cf90 5840
00000110: 49cc 5b40 c207 5f40 3c43 6240 b57e 6540
00000120: 2fba 6840 a8f5 6b40 2231 6f40 9b6c 7240
00000130: 15a8 7540 8ee3 7840 081f 7c40 815a 7f40
00000140: fd4a 8140 bae8 8240 7786 8440 3424 8640
00000150: f1c1 8740 ad5f 8940 6afd 8a40 279b 8c40
00000160: e438 8e40 a0d6 8f40 5d74 9140 1a12 9340
00000170: d7af 9440 934d 9640 50eb 9740 0d89 9940
00000180: ca26 9b40 86c4 9c40 4362 9e40 0000 a040

embedding.layer_node_embedding.weight f4 [89, 64]
-0.24665736 1.5470539 -0.1299965 -1.5485817 0.5851167 0.5065194 -0.006248882 -1.4227494
-0.59259015 -0.6276726 0.8580121 0.16907391 0.43462092 -0.54256964 -1.4396381 -0.45728096
1.2080225 -0.14686525 -0.4450531 0.6736104 1.4692857 -0.8745813 -0.15172961 0.46165156
-0.19442557 0.477748 1.3941545 -0.30716866 0.28232878 -0.6646991 -2.6869812 0.9594245
-0.74604994 -0.84807295 0.951756 0.27754527 -0.09429871 -0.27513343 0.18583657 0.34266883
1.3615434 1.5080962 -2.1072364 -2.4254432 0.8747698 -0.32190746 0.47055867 -0.47134805
0.5509956 1.0372125 -1.3662194 0.5715973 -0.77090514 0.9789783 1.0508076 1.1180804
1.1292388 -1.7416348 -0.6831885 -0.035796493 0.7962152 -0.41840273 0.49767882 -0.7127517
0.86793905 1.0071371 0.6363317 0.7831932 1.5571828 1.5804629 -1.1877764 1.788671
0.66164786 -0.089772746 1.2422289 0.6390897 -0.009828859 -0.3212577 -0.7963867 -1.0953132
-0.5412455 0.79392976 0.24298902 -0.62150365 -1.7670845 0.42195797 0.14241944 -1.2329894
-0.9564858 -1.6250317 -0.5998075 -1.4728913 -0.3246103 0.72490776 0.99371785 -0.48626545
1.139016 0.0055430876 -0.18022946 -0.98008066 0.2817049 -1.2746961 -0.20576324 2.1296718
-0.04988465 -0.78057396 0.5984611 0.82740796 -0.14261688 -0.84174746 -0.0038353894 -0.13877809
0.04881098 0.2750824 2.238835 0.6883155 1.1690766 0.96479386 -0.31305018 -0.8618997
-0.9130329 0.33272806 1.0998282 -0.14830157 -0.010598514 -0.18739215 -0.37094307 -0.4181919
-0.0070551625 -0.36910877 1.5418888 0.6601885 -1.0294863 0.70105666 1.4427625 1.4003371
0.03130413 -1.7627051 -1.5292925 0.15166464 0.3696249 -1.002847 -0.77534866 0.6660059
0.24243475 0.19093707 -0.5941675 -0.21496364 -0.6870974 0.5317288 0.39667436 -1.6229556
-2.0943983 -0.19213471 -0.51815903 -0.07925135 -0.083401546 0.36158317 1.0672162 -1.3925482
-0.16479038 0.6872835 -1.2592753 -0.2848996 0.80970365 -1.8245846 0.88580203 1.5649997
-1.2592765 0.6626238 0.59322083 0.3987187 0.32456237 0.020028219 1.8427595 0.4449176
0.5313575 1.972633 -0.3672738 0.81922656 1.2254962 0.40785554 -1.5803233 -1.1059282
-0.62767136 -0.44967043 1.9059478 -0.8576688 -0.6682632 -0.5034892 0.67952955 -0.663807
-3.0994525 1.5522033 1.2189877 -0.1170926 -0.10280891 -0.55527514 0.688017 0.74033266
0.19225071 -0.48831496 -1.3137743 -2.277721 -0.19478703 0.07265116 0.043740623 -0.07546631
0.19895193 0.9227964 0.023976706 -0.45576677 -0.8575896 -3.0585206 -1.3883638 -1.0327684
0.29514697 -0.7067482 -1.033148 1.3912449 -0.91877896 -2.306378 -0.8964388 0.30261806
-0.55166537 -1.2767172 1.9973594 -0.070646204 -0.4870179 0.8803513 -0.3095008 -1.7036971
0.6657146 -0.32807538 -0.5318183 1.5693487 0.88733524 -0.17704467 -0.3157749 -0.1253678
0.8916752 -0.30753407 -2.4288673 0.5308602 0.7136384 0.41244775 -1.289173 0.40028507
0.7081414 0.8214729 0.08706082 0.608428 -0.8660408 1.1052827 0.03902878 -0.26934645
00000000: bf93 7cbe dd05 c63f cd1d 05be ed37 c6bf
00000010: 35ca 153f 41ab 013f 6cc3 ccbb a71c b6bf
00000020: fdb3 17bf 27af 20bf aea6 5b3f b621 2d3e
00000030: a286 de3e d8e5 0abf 1046 b8bf bb20 eabe
00000040: 7ba0 9a3f d863 16be 00de e3be bb71 2c3f
00000050: 8e11 bc3f 8fe4 5fbf 025f 1bbe 985d ec3e
00000060: 7f17 47be 639b f43e a873 b23f 3645 9dbe
00000070: 668d 903e b829 2abf 80f7 2bc0 d89c 753f
00000080: 21fd 3ebf 4f1b 59bf 48a6 733f 6a1a 8e3e
00000090: af1f c1bd 4ade 8cbe f14b 3e3e 4a72 af3e
000000a0: 0e47 ae3f 4c09 c13f f6dc 06c0 763a 1bc0
000000b0: eaf0 5f3f 0ed1 a4be 11ed f03e 8854 f1be
000000c0: 0c0e 0d3f 61c3 843f 47e0 aebf 3354 123f
000000d0: 0a5a 45bf 529e 7a3f dd80 863f 421d 8f3f
000000e0: e68a 903f e4ed debf 71e5 2ebf 589f 12bd
000000f0: c2d4 4b3f e238 d6be c2cf fe3e e576 36bf
00000100: 4131 5e3f dee9 803f a2e6 223f 597f 483f
00000110: c451 c73f 9c4c ca3f 0f09 98bf 2cf3 e43f
00000120: c161 293f c6da b7bd 5b01 9f3f 629b 233f
00000130: 3909 21bc e47b a4be 00e0 4bbf 3933 8cbf
00000140: 118f 0abf fb3e 4b3f 1dd2 783e dd1a 1fbf
00000150: d32f e2bf e00a d83e 67d6 113e 99d2 9dbf
00000160: 41dc 74bf 0a01 d0bf fc8c 19bf b487 bcbf
00000170: 5233 a6be 8e93 393f 4b64 7e3f c9f7 f8be
00000180: 47cb 913f caa2 b53b 128e 38be 91e6 7abf
00000190: a03b 903e 3e29 a3bf 99b3 52be 8b4c 0840
000001a0: d953 4cbd b2d3 47bf bf34 193f 02d1 533f
000001b0: 290a 12be c37c 57bf 285b 7bbb d81b 0ebe
000001c0: 06ee 473d 9ad7 8c3e 1349 0f40 7235 303f
000001d0: 4da4 953f bbfc 763f 1d48 a0be 75a5 5cbf
000001e0: 86bc 69bf 555b aa3e 2cc7 8c3f 5edc 17be
000001f0: 64a5 2dbc bae3 3fbe 40ec bdbe 401d d6be
00000200: fe2e e7bb d3fb bcbe 9d5c c53f 1d02 293f
00000210: 35c6 83bf 7378 333f 71ac b83f 3f3e b33f
00000220: c238 003d 52a0 e1bf dbbf c3bf fa4d 1b3e
00000230: 7a3f bd3e 4a5d 80bf 407d 46bf 5d7f 2a3f
00000240: d140 783e 0285 433e 5c1b 18bf 6e1f 5cbe
00000250: 9de5 2fbf 611f 083f e718 cb3e 02bd cfbf
00000260: 9f0a 06c0 f6be 44be 12a6 04bf 884e a2bd
00000270: 6ece aabd 6e21 b93e 8a9a 883f 053f b2bf
00000280: cfbe 28be d0f1 2f3f ef2f a1bf 5cde 91be
00000290: bd48 4f3f fd8b e9bf ecc3 623f e951 c83f
000002a0: f92f a1bf b7a1 293f 52dd 173f dc24 cc3e
000002b0: 0a2d a63e 3812 a43c 8bdf eb3f 3dcc e33e
000002c0: 0c07 083f 3d7f fc3f 500b bcbe d5b8 513f
000002d0: 0fdd 9c3f 71d2 d03e 0948 cabf 0e8f 8dbf
000002e0: 12af 20bf 343b e6be 19f6 f33f 2f90 5bbf
000002f0: 4c13 2bbf abe4 00bf a6f5 2d3f 41ef 29bf
00000300: 6e5d 46c0 99ae c63f ca07 9c3f 3fce efbd
00000310: 7a8d d2bd 8326 0ebf e221 303f 7186 3d3f
00000320: 5fdd 443e 6b04 fabe c229 a8bf 2ec6 11c0
00000330: 4076 47be 22ca 943d 5e29 333d 158e 9abd
00000340: 0eba 4b3e 633c 6c3f cc6a c43c 435a e9be
00000350: fe8a 5bbf cdbe 43c0 e8b5 b1bf c131 84bf
00000360: 811d 973e 73ed 34bf 323e 84bf 5014 b23f
00000370: 1935 6bbf b29b 13c0 037d 65bf c1f0 9a3e
00000380: f139 0dbf 786b a3bf 79a9 ff3f f5ae 90bd
00000390: 695a f9be b45e 613f e476 9ebe bf12 dabf
000003a0: 466c 2a3f 7ff9 a7be 3e25 08bf 6be0 c83f
000003b0: 6728 633f 334b 35be 3fad a1be 6b60 00be
000003c0: d344 643f 1b75 9dbe 9072 1bc0 74e6 073f
000003d0: 02b1 363f 5a2c d33e 9f03 a5bf 2af2 cc3e
000003e0: c148 353f 0c4c 523f f14c b23d f0c1 1b3f
000003f0: dab4 5dbf e779 8d3f a4dc 1f3d c7e7 89be

edge_encoder.layers.0.weight f4 [64, 100]
0.07462159 -0.008138935 0.06783746 -0.07847771 -0.08914642 0.04866153 0.027615536 0.03186168
0.004216944 0.02135419 0.036637686 -0.08977207 0.016229758 -0.10942004 -0.09530855 -0.03697328
-0.005458613 0.0048337015 -0.07575564 -0.10265656 -0.07095421 -0.10390327 -0.07756736 0.0063594393
0.07003149 -0.052240375 0.07189758 0.06255658 -0.07756164 -0.009474362 0.007498273 -0.054035474
0.015237912 -0.07913106 -0.05467769 -0.12610641 -0.07444882 -0.118820265 -0.07602041 -0.05253532
0.014824242 0.048822533 0.008245678 0.0604567 -0.036834914 0.033609487 -0.05186374 0.013446303
0.048754472 -0.073791996 -0.0141677335 -0.0001736475 0.06810443 -0.087233886 -0.06068041 0.012253732
0.029309636 -0.103220634 -0.021264145 0.050370242 -0.09918624 0.053403717 0.049065165 0.064810105
0.103962965 -0.07134646 -0.081314735 0.050013673 -0.017285675 -0.07033891 0.09569569 0.06733198
0.09840958 0.07815612 0.028628249 -0.0446986 -0.022534117 0.065723814 0.04840796 -0.049016774
-0.07606071 0.04890302 0.09222018 0.07973751 -0.0715428 -0.025148964 -0.03591699 0.056661423
-0.034095548 -0.0054907114 0.03302192 -0.00898057 -0.055535138 -0.014350793 -0.038132783 0.023527319
0.0938149 0.04033232 -0.009087598 -0.028814 -0.20228702 -0.08603492 -0.03389433 -0.01194222
-0.06939748 -0.18821241 -0.12698987 -0.036966726 -0.11141554 -0.035846762 -0.18401848 -0.17871146
-0.13783096 -0.08652628 -0.011010873 0.01889841 -0.039580036 -0.023743795 -0.028062634 -0.048123617
-0.060641784 -0.011798379 -0.12318791 -0.093517095 -0.12517588 -0.09480999 0.012283835 0.019086294
0.057114754 -0.049763743 0.038735222 0.029400354 0.06302066 -0.03663119 -0.10521397 0.052901346
-0.063927546 -0.069764644 0.00823347 -0.038370423 -0.0037620263 -0.07456919 0.02101917 0.009483028
0.01231409 0.040944703 0.04053816 -0.064244755 0.017673181 -0.047633577 -0.07981034 0.06334413
0.043051768 0.07241195 -0.09932982 -0.007127803 0.0552839 -0.03620093 -0.051717576 -0.06523005
-0.058890168 0.047993615 -0.036940727 0.07994101 0.011059645 0.06122748 0.07010722 -0.08694859
-0.034819003 0.005289482 -0.10748979 0.06047675 -0.02330691 -0.08669137 -0.02113918 -0.046742927
0.023177367 -0.032964367 -0.031380326 0.009171084 -0.0733101 0.058612466 -0.025586821 0.078578584
-0.038134314 0.026784847 0.057982992 0.062434547 0.036707923 0.04398562 -0.080023766 0.025827307
0.07017925 0.10748473 -0.0035970046 0.023991333 0.012926871 -0.067088135 0.11091203 0.108515225
0.06932642 0.098674126 0.19866557 0.062490284 0.16718918 0.0644044 0.09608739 0.12695763
0.041658554 0.14744595 0.16395733 0.17304328 0.1856949 0.033564623 0.0053756637 0.07442386
0.11592703 0.16576475 -0.0131314285 -0.004795321 0.0159038 -0.02644887 -0.04335259 0.0961689
0.061949346 0.08526074 0.12575348 0.0030506065 0.06158889 -0.03813052 -0.038620383 0.0985852
0.0068547223 0.044883084 0.09888515 0.09517443 0.101629674 -0.07126056 -0.041999526 0.09365287
0.06332249 0.040783793 0.06978132 0.08960899 -0.08581768 0.017424848 -0.021369888 0.036470633
-0.05219079 -0.016711513 -0.0074268715 -0.044691764 -0.09212259 0.06455623 -0.011256004 0.007673433
00000000: 34d3 983d 2b59 05bc 5eee 8a3d ecb8 a0bd
00000010: 6692 b6bd 5051 473d fa39 e23c 6581 023d
00000020: 4a2e 8a3b fbee ae3c 6611 163d 6bda b7bd
00000030: 45f4 843c 9d17 e0bd 2131 c3bd 4b71 17bd
00000040: 2ade b2bb 0764 9e3b c625 9bbd 9a3d d2bd
00000050: 7150 91bd 3dcb d4bd a3db 9ebd d862 d03b
00000060: ab6c 8f3d 01fa 55bd 0a3f 933d aa1d 803d
00000070: a3d8 9ebd 5b3a 1bbc 13b4 f53b 4d54 5dbd
00000080: 6fa8 793c 770f a2bd b7f5 5fbd 0a22 01be
00000090: 9f78 98bd 0a58 f3bd 97b0 9bbd 472f 57bd
000000a0: 61e1 723c 23fa 473d e118 073c 72a1 773d
000000b0: 35e0 16bd 1aaa 093d 136f 54bd e24d 5c3c
000000c0: c5b2 473d 4220 97bd c81f 68bc 2515 36b9
000000d0: 567a 8b3d aea7 b2bd 068c 78bd e1c3 483c
000000e0: c31a f03c 5765 d3bd 2532 aebc 0751 4e3d
000000f0: 2822 cbbd dbbd 5a3d 8ef8 483d 29bb 843d
00000100: 89ea d43d 181e 92bd 5788 a6bd 23db 4c3d
00000110: b09a 8dbc d90d 90bd 1afc c33d 59e5 893d
00000120: f68a c93d 5110 a03d ca85 ea3c e115 37bd
00000130: 7899 b8bc 359a 863d 6d47 463d d0c5 48bd
00000140: b8c5 9bbd 884e 483d efdd bc3d 6b4d a33d
00000150: 0885 92bd 3305 cebc b21d 13bd cf15 683d
00000160: c6a7 0bbd 6deb b3bb fe41 073d 3e23 13bc
00000170: d078 63bd 971f 6bbc 1f31 1cbd 5dbc c03c
00000180: 0722 c03d 8133 253d 26e4 14bc 560b ecbc
00000190: 5424 4fbe 1333 b0bd c8d4 0abd 4da9 43bc
000001a0: 4420 8ebd c1ba 40be a209 02be 6c6a 17bd
000001b0: d52d e4bd 0ed4 12bd 576f 3cbe 2300 37be
000001c0: 8f23 0dbe b134 b1bd f366 34bc d7d0 9a3c
000001d0: ad1e 22bd 5982 c2bc 9ce3 e5bc 451d 45bd
000001e0: 8563 78bd fd4d 41bc f149 fcbd e485 bfbd
000001f0: 1b2e 00be bd2b c2bd 2342 493c dc5a 9c3c
00000200: 29f1 693d 11d5 4bbd d3a8 1e3d 03d9 f03c
00000210: fa10 813d 960a 16bd 6c7a d7bd 15af 583d
00000220: 72ec 82bd c4e0 8ebd ade5 063c 4e2a 1dbd
00000230: 548c 76bb bbb7 98bd 6530 ac3c b45e 1b3c
00000240: 09c1 493c a2b5 273d 570b 263d c192 83bd
00000250: 59c7 903c 6d1b 43bd 9b73 a3bd 91ba 813d
00000260: 0d57 303d b74c 943d 6f6d cbbd 5890 e9bb
00000270: 5f71 623d 6d47 14bd cfd5 53bd 5597 85bd
00000280: d136 71bd f494 443d 294f 17bd 1db8 a33d
00000290: 8333 353c abc9 7a3d 6094 8f3d 1a12 b2bd
000002a0: 5f9e 0ebd 6453 ad3b 9b23 dcbd 78b6 773d
000002b0: 22ee bebc 3f8b b1bd 132c adbc 8375 3fbd
000002c0: 76de bd3c a505 07bd a888 00bd 5042 163c
000002d0: 9b23 96bd a013 703d 749b d1bc cfed a03d
000002e0: ba32 1cbd e56b db3c 937f 6d3d 5ebb 7f3d
000002f0: 0c5b 163d 442a 343d 80e3 a3bd ca93 d33c
00000300: 23ba 8f3d f420 dc3d b9bb 6bbb 7989 c43c
00000310: 3acb 533c 8165 89bd d925 e33d 3b3d de3d
00000320: 03fb 8d3d a915 ca3d fd6e 4b3e d0f5 7f3d
00000330: a433 2b3e 74e6 833d 77c9 c43d 2e01 023e
00000340: 29a2 2a3d 12fc 163e 6ee4 273e 4232 313e
00000350: ce26 3e3e 0f7b 093d 5626 b03b 896b 983d
00000360: 276b ed3d 3cbe 293e 3425 57bc 1122 9dbb
00000370: b048 823c 4dab d8bc 7c92 31bd 33f4 c43d
00000380: 99be 7d3d 2f9d ae3d 85c5 003e afec 473b
00000390: a244 7c3d c02e 1cbd 6830 1ebd 0ae7 c93d
000003a0: 949d e03b 53d7 373d 4c84 ca3d d0ea c23d
000003b0: 3823 d03d 0ef1 91bd b207 2cbd 13cd bf3d
000003c0: 39af 813d e80c 273d 82e9 8e3d eb84 b73d
000003d0: 2ec1 afbd 8ebe 8e3c e70f afbc 3b62 153d
000003e0: 03c6 55bd 95e6 88bc 1d5d f3bb b60e 37bd
000003f0: c5aa bcbd 0f36 843d 1a6b 38bc 6c71 fb3b

edge_encoder.layers.0.bias f4 [64]
-0.04105545 -0.040731177 0.08299219 0.020755006 0.040950403 0.018104244 -0.044752013 0.11017351
-0.010057282 -0.070951544 0.057582654 0.091844365 -0.057297647 -0.06059081 0.017073488 -0.018544257
-0.007597381 -0.10310764 -0.076694965 0.045015182 0.06022941 -0.02870232 -0.0715202 -0.06363444
0.0494052 0.032723073 -0.034792647 0.015751649 0.096723065 -0.023884991 -0.076065466 -0.008944526
0.06284089 -0.066408284 -0.049031273 -0.02016956 0.077552296 -0.029966936 0.096244544 -0.049510572
0.034539085 0.059910394 0.021654017 0.04119231 0.084240265 -0.010690953 -0.11817421 -0.044603374
0.053380713 0.08142037 0.02543031 0.07018629 0.013864578 0.07028109 0.042234957 -0.07184911
-0.05567964 -0.07144556 -0.0535793 -0.013482835 0.026577909 -0.0313241 0.043515187 -0.014405759
00000000: c229 28bd bcd5 26bd cff7 a93d 6706 aa3c
00000010: 9cbb 273d 5a4f 943c e34d 37bd a6a2 e13d
00000020: 4cc7 24bc 0b4f 91bd cadb 6b3d e618 bc3d
00000030: f0b0 6abd 122e 78bd b3dd 8b3c 20ea 97bc
00000040: 73f3 f8bb 192a d3bd 4012 9dbd d761 383d
00000050: 1db3 763d 2121 ebbc 2f79 92bd c652 82bd
00000060: 1b5d 4a3d a108 063d bc82 0ebd 9a09 813c
00000070: be16 c63d 75aa c3bc 36c8 9bbd 108c 12bc
00000080: b9b2 803d 1101 88bd 04d5 48bd a23a a5bc
00000090: bdd3 9e3d 387d f5bc dc1b c53d 99cb 4abd
000000a0: db78 0d3d 9a64 753d c463 b13c 45b9 283d
000000b0: 2986 ac3d 1b29 2fbc 5205 f2bd 07b2 36bd
000000c0: bca5 5a3d b9bf a63d 3a53 d03c d4bd 8f3d
000000d0: 4128 633c 88ef 8f3d 90fe 2c3d a025 93bd
000000e0: 5610 64bd 0d52 92bd f875 5bbd 1ce7 5cbc
000000f0: eab9 d93c b34d 00bd fb3c 323d 2206 6cbc

edge_encoder.layers.2.weight f4 [32, 64]
0.05843247 0.0061124973 0.05667313 0.035876993 0.019100934 0.061473135 0.12230772 -0.018243188
-0.004896046 0.09072961 -0.04699343 -0.100416444 -0.09057479 -0.09912436 0.041303735 -0.020376612
0.056033116 0.1018217 0.04753116 -0.034127574 0.12100936 0.08145432 -0.07116131 0.08074865
0.02522264 -0.053312887 0.076011986 0.005371074 0.120644204 -0.081585936 0.09270496 -0.10382647
-0.05271752 0.08325434 0.07103043 0.007953258 -0.019718127 -0.040678393 0.007574044 -0.05760897
-0.046750586 1.7666212e-05 -0.06604652 -0.017160887 -0.09429481 -0.012687125 -0.05494767 0.07432585
0.0702604 -0.041616045 -0.056858778 -0.08067879 -0.012286558 0.04310982 0.0548944 0.10067923
0.11537865 0.056209754 0.015397918 0.026248228 -0.031578712 -0.0015806825 0.09164147 -0.0192612
0.009254242 -0.051629383 0.13088775 0.08992531 -0.09537568 -0.08153908 0.07290659 -0.02029028
-0.07361681 -0.016329389 0.0050770813 -0.05418206 0.075538255 -0.13079421 0.078739226 -0.073619954
-0.01083097 -0.0004649754 0.14514558 -0.032988206 0.043662272 -0.12502293 -0.012253412 0.11755981
-0.029419225 -0.0055821543 -0.06792878 0.008576992 0.08397761 0.080841824 0.124480024 -0.067377
-0.119062155 -0.113631524 -0.057107948 -0.078303196 -0.089667305 0.14672394 0.08444533 0.10603419
0.12314389 -0.11362365 0.12837787 -0.060251758 -0.035372496 -0.05158394 0.1001386 -0.05250604
-0.0077501056 0.12807293 0.067613095 0.005973003 -0.10093324 0.07151934 -0.077105395 0.08441862
-0.09890953 0.064829215 -0.017781643 0.08304643 0.059236906 -0.097995594 -0.08105063 0.031030364
-0.112451695 0.084042326 0.083398774 -0.026318442 0.052541986 -0.05282991 -0.0783474 0.0156089915
-0.049497522 -0.06899524 -0.11741592 0.0026957497 0.09655105 -0.038957078 -0.041251816 0.12433637
0.10932931 -0.09909333 0.11377404 -0.10649123 -0.015310569 -0.091009565 -0.0021597797 0.023829047
-0.12246713 -0.017979708 -0.022129318 -0.11178749 -0.03347331 0.08796178 -0.04915034 0.01108068
-0.012020422 0.09020672 0.08487447 -0.11225098 0.06432962 -0.026689261 -0.009300202 0.046756033
0.084951065 0.12522358 -0.10336581 0.10054164 -0.016175155 -0.029576994 0.08161973 0.032879174
-0.04359009 -0.13198464 -0.04380436 -0.033718564 -0.12011604 0.06873362 0.07251386 0.03451713
0.099644594 -0.1225178 -0.09344509 -0.020247767 -0.02033776 -0.024849515 -0.13304019 -0.064472005
0.016330454 -0.08342833 -0.019803911 0.014223816 -0.08879284 -0.006113404 -0.009529758 0.10828393
-0.016742483 -0.030649032 0.05958397 0.047454063 -0.1005853 0.060844764 -0.016385378 -0.025609186
-0.04333624 -0.073014595 0.07111981 0.106458224 0.11541158 0.063186295 0.10923375 0.061064925
0.009553413 0.009648305 0.0054448457 -0.006131627 0.114554465 0.104485564 0.10355358 -0.09074457
0.079601616 -0.11982331 0.101953365 0.07443119 0.06562586 -0.012907315 -0.06727293 0.08117745
-0.020850783 -0.065509975 0.09331102 0.045645762 -0.095747426 -0.01767665 -0.11383954 -0.016567048
0.05285584 0.085209064 -0.096221454 0.08736251 -0.021340514 0.056611493 -0.0061972686 0.09426313
0.12196115 0.13266931 0.041783307 -0.072828874 -0.11618722 -0.074669205 -0.050121296 -0.004270811
00000000: e356 6f3d 584b c83b 1522 683d c1f3 123d
00000010: 9079 9c3c 41cb 7b3d 787c fa3d bd72 95bc
00000020: 036f a0bb 72d0 b93d 2f7c 40bd 23a7 cdbd
00000030: 477f b9bd b601 cbbd 1b2e 293d daec a6bc
00000040: fb82 653d e587 d03d 09b0 423d 5bc9 0bbd
00000050: c1d3 f73d 86d1 a63d 05bd 91bd 8c5f a53d
00000060: b69f ce3c 9d5e 5abd 2cac 9b3d d6ff af3b
00000070: 4f14 f73d 8716 a7bd 19dc bd3d f9a2 d4bd
00000080: 54ee 57bd 4081 aa3d 6778 913d 624e 023c
00000090: e987 a1bc 639e 26bd b02f f83b 62f7 6bbd
000000a0: 8b7d 3fbd e731 9437 6643 87bd fd94 8cbc
000000b0: a31d c1bd a9dd 4fbc cf10 61bd 2738 983d
000000c0: afe4 8f3d 9675 2abd c0e4 68bd ec3a a5bd
000000d0: 8f4d 49bc ec93 303d f3d8 603d ea30 ce3d
000000e0: a44b ec3d 333c 663d 8d47 7c3c 8606 d73c
000000f0: ae58 01bd e72e cfba 86ae bb3d aac9 9dbc
00000100: 1b9f 173c 5579 53bd 7007 063e c32a b83d
00000110: 5354 c3bd f6fd a6bd 0d50 953d cd37 a6bc
00000120: 69c4 96bd 36c5 85bc a55d a63b 02ee 5dbd
00000130: cdb3 9a3d ebee 05be 0842 a13d 0fc6 96bd
00000140: 6174 31bc f1c7 f3b9 0ba1 143e a41e 07bd
00000150: 36d7 323d 0306 00be 89c2 48bc 33c3 f03d
00000160: 9600 f1bc 81ea b6bb 3f1e 8bbd 8386 0c3c
00000170: 74fc ab3d 6690 a53d 62ef fe3d f4fc 89bd
00000180: dcd6 f3bd a5b7 e8bd 06ea 69bd 6d5d a0bd
00000190: 7ea3 b7bd cd3e 163e acf1 ac3d 7428 d93d
000001a0: dd32 fc3d 84b3 e8bd 7d75 033e 8cca 76bd
000001b0: c0e2 10bd ae49 53bd 7715 cd3d 9310 57bd
000001c0: 99f4 fdbb 8d25 033e bc78 8a3d 2eb9 c33b
000001d0: 16b6 cebd bb78 923d 6fe9 9dbd abe3 ac3d
000001e0: 1491 cabd 2ec5 843d cfaa 91bc 3f14 aa3d
000001f0: 66a2 723d eab1 c8bd dffd a5bd 6433 fe3c
00000200: 134d e6bd 621e ac3d facc aa3d c699 d7bc
00000210: 4436 573d 2d64 58bd 9a74 a0bd dbbc 7f3c
00000220: eabd 4abd 604d 8dbd c277 f0bd 2dab 303b
00000230: 8fbc c53d 7591 1fbd aaf7 28bd 11a4 fe3d
00000240: 0ce8 df3d 72f1 cabd 5d02 e93d 1318 dabd
00000250: 2ed9 7abc 3963 babd 178b 0dbb 2235 c33c
00000260: 0cd0 fabd 2e4a 93bc 8b48 b5bc d7f0 e4bd
00000270: 4f1b 09bd 4e25 b43d de51 49bd be8b 353c
00000280: 4ef1 44bc 4dbe b83d abd2 ad3d d8e3 e5bd
00000290: 3fbf 833d 70a3 dabc e05f 18bc 4183 3f3d
000002a0: d3fa ad3d 9c3a 003e 74b1 d3bd c6e8 cd3d
000002b0: c281 84bc 744b f2bc 3f28 a73d 50ac 063d
000002c0: 868b 32bd fb26 07be 336c 33bd 7a1c 0abd
000002d0: 66ff f5bd 36c4 8c3d 2682 943d d661 0d3d
000002e0: 7712 cc3d 9dea fabd 2460 bfbd a5de a5bc
000002f0: 609b a6bc 3691 cbbc b03b 08be e609 84bd
00000300: 72c7 853c 79dc aabd d03b a2bc 020b 693c
00000310: 05d9 b5bd f352 c8bb b422 1cbc f7c3 dd3d
00000320: 8827 89bc ae13 fbbc 520e 743d 315f 423d
00000330: aaff cdbd 5c38 793d a13a 86bc 5bca d1bc
00000340: 5781 31bd ad88 95bd 43a7 913d c506 da3d
00000350: e85c ec3d d167 813d f2b5 df3d 371f 7a3d
00000360: eb85 1c3c ed13 1e3c ad6a b23b d1eb c8bb
00000370: 889b ea3d 87fc d53d e613 d43d 4ad8 b9bd
00000380: 2c06 a33d ec65 f5bd edcc d03d 616f 983d
00000390: da66 863d 3479 53bc 64c6 89bd 5d40 a63d
000003a0: 43cf aabc 182a 86bd d919 bf3d 0df7 3a3d
000003b0: 3a17 c4bd 9fce 90bc b424 e9bd 9eb7 87bc
000003c0: 5e7f 583d 1782 ae3d c10f c5bd 1eeb b23d
000003d0: 4dd2 aebc 74e1 673d 7512 cbbb 070d c13d
000003e0: c4c6 f93d 77da 073e f924 2b3d 4e27 95bd
000003f0: 91f3 edbd 2bec 98bd fd4b 4dbd 29f2 8bbb

edge_encoder.layers.2.bias f4 [32]
0.09701915 0.032795537 -0.075262666 0.085409455 -0.10681864 -0.11013297 -0.1333963 -0.11167916
0.11827724 -0.10534425 -0.010620351 0.048845384 0.101031825 -0.09813754 -0.11336147 -0.080511734
0.0907413 0.0983933 0.06636332 -0.1298386 0.09645729 -0.028429048 -0.11621225 0.10346258
-0.0657223 -0.079312965 0.0107888635 0.032620333 0.06504839 0.10535535 0.041193128 0.058540374
00000000: fab1 c63d 9d54 063d 5023 9abd 27eb ae3d
00000010: bbc3 dabd 658d e1bd 0a99 08be 0bb8 e4bd
00000020: 563b f23d babe d7bd fb00 2ebc 1912 483d
00000030: c6e9 ce3d 56fc c8bd 0f2a e8bd 56e3 a4bd
00000040: 93d6 b93d 6d82 c93d 7ee9 873d 69f4 04be
00000050: 668b c53d 09e4 e8bc b000 eebd 30e4 d33d
00000060: 6a99 86bd d66e a2bd c6c3 303c e69c 053d
00000070: 1738 853d 8cc4 d73d 20ba 283d 08c8 6f3d

node_encoder.layers.0.weight f4 [64, 64]
0.050489254 -0.14391555 -0.03917423 0.030694257 -0.14018168 -0.008876288 0.1214072 0.12956567
0.1017053 -0.1474179 -0.024661317 -0.05736808 -0.086935945 -0.16624746 0.016400645 0.060467638
0.0066199545 0.05871681 -0.12093639 -0.14131545 -0.115763076 0.021492943 -0.099560484 -0.027908621
-0.023020482 -0.096996404 -0.09269884 -0.15627722 0.034775846 -0.09405619 0.14797172 -0.06760946
0.107872866 -0.1269471 -0.09142517 0.06443533 0.10523219 -0.14656942 0.09971966 0.06693643
0.12665166 -0.12007703 0.12894408 -0.058358952 -0.08698265 0.17915305 -0.007861961 -0.0033650792
-0.031801138 0.025747146 -0.13040401 0.075023755 0.08986739 -0.13489057 -0.008896688 -0.11314569
-0.063797 -0.10673892 0.16488306 0.011042689 -0.11488467 -0.14091967 -0.046859328 0.12943076
0.1740963 -0.05389981 -0.040308926 -0.14963 0.017482148 0.118481226 -0.11122842 0.018561479
0.18512706 -0.06262637 -0.3202645 -0.026027603 -0.24799098 -0.18059963 0.012825414 0.03424817
0.19392669 -0.23813106 -0.1793058 -0.17400636 -0.007252837 -0.0110104075 -0.087944314 -0.14466552
-0.26051524 -0.1715401 -0.1593557 0.106416635 -0.015274949 -0.097669564 0.038660534 0.15716372
0.00065900164 -0.15356827 0.081654504 0.053823452 0.033507533 -0.12719026 -0.024894645 0.013687242
-0.0019579194 -0.15767735 0.1516049 0.0070826854 -0.14935093 0.056670543 0.11290327 0.002378058
-0.2586303 -0.018762687 -0.17668025 0.11479664 -0.0155638745 -0.17116123 -0.24622297 -0.14172517
-0.04990654 -0.049478814 0.12426992 -0.015420268 -0.27649218 -0.10599059 -0.021352202 -0.0074340915
-0.046819925 -0.13744323 -0.01484325 -0.11320266 -0.19305214 0.11450807 0.16106911 -0.0032760396
0.090570286 -0.09491057 -0.13947046 -0.043804094 -0.023869528 0.033910673 -0.038491216 0.08875709
0.12180925 -0.19423215 -0.06923835 0.05348805 -0.09858916 0.03614464 0.03048763 -0.06683146
-0.15917681 -0.04819624 -0.033532146 0.0369323 0.13394618 0.11020872 0.12102462 -0.0124020465
0.22729991 -0.11763434 0.015549693 -0.14464408 0.18342096 -0.21928547 -0.10332093 0.0723078
0.081744686 -0.097800225 0.08353594 0.11340266 -0.097019054 0.22923744 0.14663734 0.009340119
-0.19970554 -0.08597304 -0.021614825 -0.21547651 -0.23466282 -0.12012703 -0.23645717 0.055099312
0.026959416 0.021261228 0.09043375 0.06043043 -0.24389543 -0.08165812 -0.01899235 0.068531916
0.04407685 0.11995348 -0.021662947 0.13871963 0.091735 0.050313402 0.0026090222 -0.18092376
-0.06915469 0.019746793 0.0054113935 0.14182462 0.21395646 -0.03154016 -0.12441858 0.065966226
0.028771013 0.10680986 0.01261209 0.043795258 -0.029776482 -0.12804976 0.116039924 -0.047368713
0.04975107 0.06523366 0.046262413 -0.15882827 -0.0561206 0.2019533 -0.048605617 0.045167275
-0.060659863 0.16134322 0.06395557 -0.05632653 -0.06844456 -0.008684989 0.038021613 0.05901022
0.0009938735 0.14303137 -0.040124778 0.02560925 -0.04317542 -0.17240323 -0.08459661 0.07839051
0.16780512 -0.008745765 0.106551245 0.14696524 -0.010106732 0.05444558 0.19507402 -0.08143517
0.113787636 0.18254887 -0.055409867 -0.07330911 0.19233467 0.09511229 -0.05630282 0.05086558
00000000: d2cd 4e3d 995e 13be 2875 20bd 8672 fb3c
00000010: c98b 0fbe da6d 11bc 57a4 f83d ddac 043e
00000020: de4a d03d b8f4 16be 8806 cabc cbfa 6abd
00000030: 790b b2bd c63c 2abe a55a 863c eaac 773d
00000040: 34ec d83b 0a81 703d 7fad f7bd ffb4 10be
00000050: 3115 edbd f811 b03c 5ee6 cbbd 9fa0 e4bc
00000060: 7395 bcbc 0da6 c6bd e4d8 bdbd 2307 20be
00000070: 1e71 0e3d 88a0 c0bd e685 173e d476 8abd
00000080: 73ec dc3d 6cfe 01be 1f3d bbbd acf6 833d
00000090: f983 d73d 4b16 16be d239 cc3d f815 893d
000000a0: f9b0 013e f2ea f5bd eb09 043e cc09 6fbd
000000b0: f623 b2bd e673 373e 74cf 00bc a988 5cbb
000000c0: e941 02bd aeeb d23c a188 05be 0ea6 993d
000000d0: 650c b83d c120 0abe 6ac3 11bc edb8 e7bd
000000e0: 00a8 82bd ef99 dabd 1bd7 283e 65ec 343c
000000f0: a748 ebbd 3f4d 10be 91ef 3fbd 7f89 043e
00000100: 4d46 323e 0cc6 5cbd f91a 25bd 9b38 19be
00000110: b936 8f3c 49a6 f23d bacb e3bd 3e0e 983c
00000120: f391 3d3e 4142 80bd b5f9 a3be d737 d5bc
00000130: 59f1 7dbe 1cef 38be af21 523c cf47 0c3d
00000140: b894 463e a1d8 73be f19b 37be b92e 32be
00000150: 35a9 edbb ff64 34bc 261c b4bd 3323 14be
00000160: 4162 85be 35a8 2fbe 242e 23be f7f0 d93d
00000170: c843 7abc fb06 c8bd 825a 1e3d 87ef 203e
00000180: dac0 2c3a 0041 1dbe 7a3a a73d fb75 5c3d
00000190: 323f 093d 2a3e 02be dbef cbbc 7440 603c
000001a0: 7050 00bb 2c76 21be 513e 1b3e df15 e83b
000001b0: 73ef 18be 5f1f 683d d439 e73d 31d9 1b3b
000001c0: 316b 84be 35b4 99bc abeb 34be 801a eb3d
000001d0: 9fff 7ebc e444 2fbe e021 7cbe 6720 11be
000001e0: cd6a 4cbd 4caa 4abd 3a81 fe3d 4ba5 7cbc
000001f0: 6290 8dbe 9811 d9bd d0ea aebc ae99 f3bb
00000200: 40c6 3fbd ebbd 0cbe 1a31 73bc ccd6 e7bd
00000210: 76af 45be 3583 ea3d 4def 243e d3b2 56bb
00000220: ea7c b93d 7960 c2bd 58d1 0ebe ec6b 33bd
00000230: 078a c3bc ebe5 0a3d f7a8 1dbd 47c6 b53d
00000240: 2177 f93d cbe4 46be d6cc 8dbd 4916 5b3d
00000250: 1de9 c9bd 670c 143d 32c1 f93c efde 88bd
00000260: 3fff 22be 6c69 45bd 0159 09bd 5346 173d
00000270: 3029 093e 1cb5 e13d c2db f73d f431 4bbc
00000280: 4fc1 683e 46ea f0bd 24c4 7e3c 941d 14be
00000290: b4d2 3b3e 5f8c 60be ec99 d3bd 1d16 943d
000002a0: c269 a73d 7c4b c8bd e414 ab3d a73f e83d
000002b0: edb1 c6bd 38bd 6a3e 1928 163e 4c07 193c
000002c0: 9c7f 4cbe a212 b0bd 9311 b1bc e0a5 5cbe
000002d0: 734b 70be 2905 f6bd d421 72be d1af 613d
000002e0: fed9 dc3c 072c ae3c 5435 b93d e685 773d
000002f0: b9bf 79be 5f3c a7bd d895 9bbc 765a 8c3d
00000300: ed89 343d 2caa f53d 7e76 b1bc 850c 0e3e
00000310: 8fdf bb3d 6d15 4e3d 21fc 2a3b 1444 39be
00000320: f9a0 8dbd 07c4 a13c 0f52 b13b 793a 113e
00000330: 6717 5b3e 4130 01bd 2bcf febd 4d19 873d
00000340: 30b1 eb3c 21bf da3d f1a2 4e3c a862 333d
00000350: cfed f3bc 7a1f 03be 57a6 ed3d b205 42bd
00000360: c7c7 4b3d 3a99 853d a87d 3d3d e1a3 22be
00000370: b7de 65bd d9cc 4e3e af16 47bd 5201 393d
00000380: 7a76 78bd 2837 253e 23fb 823d a6b6 66bd
00000390: a92c 8cbd 7c4b 0ebc 8dbc 1b3d b3b4 713d
000003a0: dc44 823a d176 123e e159 24bd 7dca d13c
000003b0: b6d8 30bd 798a 30be fd40 adbd 348b a03d
000003c0: 1bd5 2b3e 664a 0fbc 8a37 da3d 0e7e 163e
000003d0: b596 25bc 5402 5f3d 7cc1 473e 7bc7 a6bd
000003e0: 7e09 e93d 17ee 3a3e 75f5 62bd 1623 96bd
000003f0: 61f3 443e 3bca c23d c99d 66bd 6d58 503d

node_encoder.layers.0.bias f4 [64]
0.14254968 -0.035991546 0.14094129 0.011120115 0.08728936 -0.006007379 0.16377941 -0.041770283
-0.04169072 0.11185876 0.067560144 0.028935153 -0.007514102 -0.030196369 0.05385216 -0.0059853843
0.026426904 0.05801899 -0.030010248 -0.056539897 0.044101033 0.06631534 -0.03460199 0.16754176
0.033069793 -0.017989479 0.03588144 -0.002480821 -0.117871895 0.11454623 0.1006025 0.0015414377
0.058379345 0.051435508 0.09315116 -0.07345619 -0.06211529 0.031254746 0.08403135 -0.033581764
0.05361335 0.06705331 0.08421005 0.065227285 -0.048187956 -0.06064101 0.041911807 0.08977049
0.095110364 0.020022906 0.15806426 0.10082033 -0.03911236 -0.02708527 0.007512885 0.111787595
0.14759408 -0.001959146 0.13679755 0.01287237 0.04218748 0.09420552 0.079742335 0.014946445
00000000: 8bf8 113e df6b 13bd ea52 103e 2531 363c
00000010: c4c4 b23d 8cd9 c4bb cab5 273e 5117 2bbd
00000020: e3c3 2abd 3516 e53d f95c 8a3d 6a09 ed3c
00000030: db38 f6bb 605e f7bc 1594 5c3d 0b21 c4bb
00000040: 3c7d d83c 52a5 6d3d 0dd8 f5bc 6196 67bd
00000050: 49a3 343d 56d0 873d d1ba 0dbd 1190 2b3e
00000060: 3174 073d ac5e 93bc 6bf8 123d 4595 22bb
00000070: d266 f1bd 3797 ea3d af08 ce3d 110a ca3a
00000080: 2e1f 6f3d 0aae 523d 09c6 be3d 3370 96bd
00000090: 9a6c 7ebd fa04 003d a118 ac3d 088d 09bd
000000a0: ac99 5b3d 3f53 893d 5276 ac3d e295 853d
000000b0: bc60 45bd b562 78bd b7ab 2b3d 97d9 b73d
000000c0: 39c9 c23d 1407 a43c 99db 213e e47a ce3d
000000d0: 4834 20bd eee1 ddbc a62e f63b e5f0 e43d
000000e0: e722 173e 0465 00bb a814 0c3e a2e6 523c
000000f0: c7cc 2c3d d3ee c03d f34f a33d efe1 743c

node_encoder.layers.2.weight f4 [32, 64]
0.090303145 -0.04231955 0.007425695 0.15365136 0.016524201 0.17658333 0.12259494 -0.024385095
-0.063648224 0.05290456 0.1846812 -0.113511056 0.03499214 0.12045532 0.0730862 0.13595818
0.11145929 0.08289617 -0.13909705 0.015794283 0.15380163 0.027287442 0.042703938 0.0674481
0.17517869 -0.14832285 -0.12366545 0.16489017 0.0035207623 -0.023301823 -0.051506598 0.11890843
0.112622485 0.12395995 -0.0027143282 -0.11757915 0.1086115 0.11259443 0.16374245 0.04262891
0.10668298 0.046552356 0.019223599 0.051584512 -0.10250041 0.037020963 -0.09448818 0.10522551
-0.031518985 -0.13606398 -0.08118828 -0.10318824 -0.051661734 0.11328905 -0.07882787 0.022117788
0.13193944 0.17569613 0.062753774 0.11328946 0.15899603 0.019823954 0.106882 0.08067348
-0.14607172 -0.004803879 -0.04490691 0.13318913 0.12197205 0.07585479 -0.01197944 0.0022623886
-0.016328758 0.0072061396 0.08000349 0.02403269 0.049034115 0.08691787 0.036172815 -0.04162743
0.1652785 0.044227216 0.03339814 0.064629294 0.09425987 0.045602363 -0.026485076 -0.037934028
0.02984435 -0.09016233 -0.13203047 0.09791502 -0.018244253 0.14710425 0.064542234 0.07252445
0.09624136 0.042925313 0.08860854 0.036220517 0.04096003 0.07979505 0.0017417381 0.0786868
-0.044896502 -0.069695614 -0.05306884 -0.0089466125 -0.02790289 0.039391525 -0.07892795 0.18135472
0.06450487 0.10124044 -0.07354483 -0.17425501 -0.08217593 -0.0064659836 -0.09134388 -0.045737192
0.009698278 0.14894088 0.1556978 0.15783212 0.16862825 -0.107497156 0.13771069 -0.022532128
0.057455055 0.04101095 -0.09804868 0.019485703 -0.08315924 -0.06768123 0.0024112144 -0.10433322
-0.027538234 -0.08007816 -0.019288031 0.029209021 -0.018810803 -0.09463439 -0.06420943 -0.12691006
0.07348628 -0.038437705 -0.080888085 -0.1168709 -0.10487014 0.096840106 0.05189361 0.11276941
-0.109975435 0.096535936 -0.018358529 -0.112696566 0.040593952 -0.0018949171 -0.08492609 -0.11561642
-0.033924144 -0.021384569 0.10648623 0.12490379 -0.074206926 0.09101229 -0.060257122 -0.08551529
0.003154769 0.08952984 0.039758693 -0.025311336 0.08640554 -0.016586142 0.043038618 -0.0017413714
0.026167363 0.022593142 -0.106630005 -0.06625275 -0.029905964 -0.12042294 0.12407782 -0.016119234
-0.12624489 0.061951127 -0.042832106 -0.059312087 -0.12870796 0.02797308 0.106691614 0.03801803
-0.018143376 -0.02900358 -0.1271909 0.07538013 0.09382837 0.13961428 0.17195141 0.13299766
0.10391048 -0.03468495 0.08811514 -0.16699272 -0.004054891 -0.053144824 0.17193893 0.067892455
-0.01804268 -0.08140369 -0.0550395 0.091117136 -0.019335063 0.15648383 0.0713786 -0.11315218
-0.03726926 -0.14671525 -0.036075927 0.12368159 -0.06900236 0.1803664 0.00680283 0.0016519092
0.15590522 0.12918 0.08420033 -0.11331099 0.0013697341 -0.058163684 0.08415818 0.05966039
0.13444874 -0.1391615 -0.024497695 0.11995154 -0.036522683 0.07171339 -0.05007709 0.017603574
0.12950046 0.03243019 0.014707929 -0.14652817 -0.13645652 0.12562244 -0.0786705 -0.09632882
0.13486943 0.1782879 0.10977983 0.18084407 0.17094158 -0.14488444 0.074179135 -0.14375009
00000000: dbf0 b83d 4457 2dbd 3f53 f33b c856 1d3e
00000010: c35d 873c 43d2 343e 0e13 fb3d 40c3 c7bc
00000020: 005a 82bd 74b2 583d 121d 3d3e 7c78 e8bd
00000030: eb53 0f3d 47b1 f63d 38ae 953d 9f38 0b3e
00000040: c544 e43d 78c5 a93d 756f 0ebe 0363 813c
00000050: 2d7e 1d3e ea89 df3c 53ea 2e3d 3b22 8a3d
00000060: 0b62 333e f2e1 17be 5044 fdbd f8d8 283e
00000070: 97bc 663b 77e3 bebc 95f8 52bd 4386 f33d
00000080: 9ea6 e63d b7de fd3d dfe2 31bb 56cd f0bd
00000090: b56f de3d e997 e63d 1aac 273e a79b 2e3d
000000a0: 9b7c da3d afad 3e3d cf7a 9d3c 484a 533d
000000b0: bceb d1bd 4ba3 173d 0583 c1bd 7980 d73d
000000c0: 0d1a 01bd 5b54 0bbe 0a46 a6bd 5b54 d3bd
000000d0: 419b 53bd 1704 e83d 8270 a1bd 5d30 b53c
000000e0: 221b 073e b0e9 333e 0d85 803d 4e04 e83d
000000f0: dbcf 223e d865 a23c f3e4 da3d 2338 a53d
00000100: d393 15be dc69 9dbb 4ff0 37bd bb62 083e
00000110: 7bcc f93d c259 9b3d 6a45 44bc 9544 143b
00000120: e3c3 85bc 7b21 ec3b dfd8 a33d 34e0 c43c
00000130: ffd7 483d ff01 b23d f229 143d 8681 2abd
00000140: c43e 293e 9927 353d 7dcc 083d 5d5c 843d
00000150: 520b c13d 8bc9 3a3d 3bf7 d8bc b660 1bbd
00000160: 237c f43c 07a7 b8bd ff32 07be ac87 c83d
00000170: f974 95bc 7fa2 163e b82e 843d b387 943d
00000180: 311a c53d 74d2 2f3d 6578 b53d f75b 143d
00000190: b4c5 273d 966b a33d 084b e43a 8c26 a13d
000001a0: 65e5 37bd 93bc 8ebd b65e 59bd d094 12bc
000001b0: 9a94 e4bc 0259 213d faa4 a1bd 0db5 393e
000001c0: 211b 843d 2657 cf3d ac9e 96bd e86f 32be
000001d0: db4b a8bd 9ae0 d3bb 8012 bbbd ec56 3bbd
000001e0: 87e5 1e3c f583 183e 3e6f 1f3e be9e 213e
000001f0: e2ac 2c3e 7827 dcbd 0804 0d3e 4c95 b8bc
00000200: fe55 6b3d 19fb 273d bfcd c8bd 7ba0 9f3c
00000210: 644f aabd 759c 8abd 7705 1e3b a8ac d5bd
00000220: dd97 e1bc 0500 a4bd ef01 9ebc c247 ef3c
00000230: 1d19 9abc adcf c1bd 3c80 83bd b6f4 01be
00000240: fa7f 963d db70 1dbd a7a8 a5bd 035a efbd
00000250: 28c6 d6bd 1b54 c63d 658e 543d a6f3 e63d
00000260: cd3a e1bd a2b4 c53d a064 96bc 75cd e6bd
00000270: d845 263d de5e f8ba bbed adbd 4dc8 ecbd
00000280: 0bf4 0abd b12e afbc 7415 da3d 8fcd ff3d
00000290: cdf9 97bd a764 ba3d 2cd0 76bd a422 afbd
000002a0: 3ec0 4e3b 6c5b b73d 03da 223d b859 cfbc
000002b0: 63f5 b03d a9df 87bc 4349 303d ba3e e4ba
000002c0: f05c d63c 4115 b93c d560 dabd 86af 87bd
000002d0: 5afd f4bc 4da0 f6bd 831c fe3d 7c0c 84bc
000002e0: 5746 01be 77c0 7d3d b870 2fbd 3bf1 72bd
000002f0: 05cc 03be cd27 e53c 2281 da3d cbb8 1b3d
00000300: 6ba1 94bc ea98 edbc 553e 02be e660 9a3d
00000310: 1729 c03d 0cf7 0e3e 0814 303e 8a30 083e
00000320: 05cf d43d ce11 0ebd b675 b43d 2400 2bbe
00000330: e4de 84bb 63ae 59bd c210 303e 330b 8b3d
00000340: 3ece 93bc fab6 a6bd 1971 61bd 9f9b ba3d
00000350: 9164 9ebc 4c3d 203e f22e 923d 55bc e7bd
00000360: a7a7 18bd 863c 16be 5ac4 13bd c64c fd3d
00000370: 1c51 8dbd f8b1 383e 46ea de3b e084 d83a
00000380: 9ea5 1f3e c347 043e 3971 ac3d 980f e8bd
00000390: a688 b33a 0b3d 6ebd 205b ac3d 745e 743d
000003a0: eeac 093e 5a80 0ebe 64af c8bc 27a9 f53d
000003b0: cf98 15bd 78de 923d a21d 4dbd 5f35 903c
000003c0: c59b 043e 85d5 043d 87f9 703c 7b0b 16be
000003d0: 42bb 0bbe 2ba3 003e 001e a1bd 0b48 c5bd
000003e0: 361b 0a3e 1a91 363e 3fd4 e03d 302f 393e
000003f0: 4f0b 2f3e 965c 14be 3beb 973d 3933 13be

node_encoder.layers.2.bias f4 [32]
-0.06962985 -0.06009515 -0.027961787 0.012165392 0.02518257 -0.031681683 -0.021798981 0.049057204
0.07372253 0.08021622 0.029717369 -0.08375812 -0.055283986 0.011978727 0.13531715 -0.025825562
0.110343084 -0.06156268 0.08919597 -0.06218335 0.13700427 0.1183482 0.10243784 -0.12648864
0.07065545 0.008387024 -0.068059765 0.06923083 -0.017465832 0.022712028 0.08979082 0.07884354
00000000: 189a 8ebd 5526 76bd 1e10 e5bc 5a51 473c
00000010: ad4b ce3c a7c4 01bd c793 b2bc 35f0 483d
00000020: d6fb 963d 6748 a43d d771 f33c 6189 abbd
00000030: 7671 62bd 6c42 443c 9490 0a3e 2190 d3bc
00000040: 8efb e13d 2629 7cbd 60ac b63d f8b3 7ebd
00000050: d94a 0c3e 8b60 f23d eeca d13d 3d86 01be
00000060: ceb3 903d ba69 093c eb62 8bbd e5c8 8d3d
00000070: 8114 8fbc 930e ba3c 40e4 b73d b978 a13d

state_encoder.layers.0.weight f4 [64, 2]
0.5318199 0.54934454 0.48865116 -0.27922007 -0.38669994 -0.24459855 0.076563455 -0.0068829176
0.17490217 0.28299433 0.27467725 0.43740925 -0.15175891 -0.05132382 -0.03466258 -0.41598803
0.45189488 -0.14498802 0.705636 -0.45683676 -0.4116662 -0.08063493 -0.40134075 0.4711714
-0.24456577 0.45965385 -0.076492146 0.43940675 -0.6008365 -0.45341107 0.30423248 -0.06821619
-0.35998213 0.58346874 0.112207636 -0.15727703 -0.14795735 0.21564469 0.41045475 0.0440223
-0.34139106 -0.16034709 -0.5805438 -0.071821265 0.057484675 0.3190288 -0.12951903 0.027543556
0.55406433 -0.6278137 0.5704047 0.6146268 0.68050694 0.3069329 0.052112132 -0.6953386
-0.24990653 -0.386128 0.26805732 -0.5470118 0.5338616 0.57564175 -0.110408895 -0.07800269
0.58649486 0.7046668 -0.6856687 -0.57122415 0.11970716 0.24558732 -0.011442363 -0.15740271
-0.60077804 0.30680496 -0.6750469 -0.44776237 -0.21462692 -0.13652089 0.533211 -0.22338665
0.1903339 0.06836724 -0.59628516 -0.015252438 0.35194784 0.36013344 0.7025517 0.20850332
0.052298423 -0.5153557 0.13284257 0.42069465 0.006576004 0.5265506 0.5163302 0.6122756
0.6500622 -0.499668 -0.04015229 0.10473829 0.2962083 0.27393824 -0.44773397 0.40799066
-0.0044803787 -0.3933733 -0.038225252 0.55082536 0.60986227 0.078012384 -0.64527845 -0.38211006
0.5224294 -0.08810934 -0.36645067 -0.278861 0.4122315 0.33646908 -0.04239568 -0.2935565
-0.30326656 -0.091054305 -0.24766685 -0.3046064 0.48592424 0.12612756 -0.050208192 0.096925445
00000000: 5925 083f d8a1 0c3f 7c30 fa3e eff5 8ebe
00000010: 89fd c5be 0b78 7abe 4dcd 9c3d 198a e1bb
00000020: 8e19 333e a2e4 903e 7fa2 8c3e 1bf4 df3e
00000030: b066 1bbe ed38 52bd 59fa 0dbd 62fc d4be
00000040: c45e e73e bd77 14be 90a4 343f 82e6 e9be
00000050: eac5 d2be ed23 a5bd 897c cdbe 613d f13e
00000060: 736f 7abe c057 eb3e eaa7 9cbd ecf9 e03e
00000070: 6cd0 19bf 7f25 e8be 5cc4 9b3e eeb4 8bbd
00000080: 944f b8be 355e 153f 1ecd e53d 3b0d 21be
00000090: 2282 17be f6d1 5c3e 2027 d23e ba50 343d
000000a0: cfca aebe 0732 24be 859e 14bf 0717 93bd
000000b0: 0d75 6b3d be57 a33e a3a0 04be 06a3 e13c
000000c0: 29d7 0d3f 66b8 20bf 0b06 123f 2f58 1d3f
000000d0: b435 2e3f 4f26 9d3e 8873 553d b601 32bf
000000e0: 7fe7 7fbe 92b2 c5be cf3e 893e f708 0cbf
000000f0: 27ab 083f 425d 133f 0f1e e2bd e0bf 9fbd
00000100: 8724 163f 0b65 343f fc87 2fbf bf3b 12bf
00000110: 0729 f53d 3e7b 7b3e c078 3bbc 2d2e 21be
00000120: 97cc 19bf 8a15 9d3e e0cf 2cbf 1c41 e5be
00000130: 29c7 5bbe 22cc 0bbe 8480 083f 78bf 64be
00000140: e4e6 423e 2004 8c3d 25a6 18bf 5de5 79bc
00000150: 8232 b43e 6963 b83e 6eda 333f e581 553e
00000160: df36 563d 5aee 03bf e207 083e 4a65 d73e
00000170: 857b d73b 05cc 063f 372e 043f 18be 1c3f
00000180: 7a6a 263f 7cd4 ffbe ba76 24bd 0781 d63d
00000190: 9da8 973e a241 8c3e 633d e5be 27e4 d03e
000001a0: 24d0 92bb 3a68 c9be 1592 1cbd e402 0d3f
000001b0: ef1f 1c3f f5c4 9f3d f830 25bf eea3 c3be
000001c0: efbd 053f ab72 b4bd 6c9f bbbe dec6 8ebe
000001d0: 0210 d33e ad45 ac3e 18a7 2dbd 0a4d 96be
000001e0: c145 9bbe ae7a babd 619c 7dbe 5ff5 9bbe
000001f0: 10cb f83e 9527 013e 1ba7 4dbd d980 c63d

state_encoder.layers.0.bias f4 [64]
0.34626752 -0.70618474 -0.13909698 0.17239282 0.2635834 0.6341609 0.3462848 0.62452185
-0.061423775 -0.6393858 0.26045105 0.19876292 -0.59750426 -0.17662887 -0.63491106 0.05202115
0.55241 0.22486323 0.14655113 -0.16284977 -0.39991835 -0.49153727 0.45639136 0.467718
-0.30950513 0.5373344 0.56665987 -0.7083763 0.2006907 0.27203062 -0.17257294 -0.40886605
0.42093262 -0.05613359 -0.096382335 0.6090097 -0.5149954 -0.35901576 0.21603559 0.043040145
-0.21061894 0.08241932 -0.12257522 0.29538682 0.61065924 -0.21881746 -0.63038814 -0.14802583
0.67971885 0.20498435 -0.28518263 0.024023382 0.3239392 -0.29290134 -0.16783328 0.6355402
-0.5324491 -0.2243832 0.6372026 0.6723993 0.43109486 0.29888266 0.6331264 0.62007433
00000000: fa49 b13e 86c8 34bf 706f 0ebe be87 303e
00000010: 67f4 863e 5e58 223f 3e4c b13e aae0 1f3f
00000020: 7f97 7bbd caae 23bf d759 853e 8288 4b3e
00000030: 0af6 18bf 33de 34be 8889 22bf 2114 553d
00000040: be6a 0d3f 8c42 663e 8011 163e 17c2 26be
00000050: 19c2 ccbe c6aa fbbe 21ac e93e bc78 ef3e
00000060: 7577 9ebe bf8e 093f 9f10 113f 2658 35bf
00000070: dd81 4d3e 9947 8b3e f6b6 30be e456 d1be
00000080: 7b84 d73e 56ec 65bd 1a64 c5bd 0fe8 1b3f
00000090: bdd6 03bf ead0 b7be 6f38 5d3e dd4a 303d
000000a0: 7eac 57be 76cb a83d b808 fbbd f13c 973e
000000b0: 2a54 1c3f af11 60be 1e61 21bf 1594 17be
000000c0: 0e02 2e3f 6be7 513e 7503 92be afcc c43c
000000d0: 5cdb a53e 2af7 95be 7ddc 2bbe c3b2 223f
000000e0: 964e 08bf b6c4 65be b61f 233f 5c22 2c3f
000000f0: 77b8 dc3e 2607 993e 9214 223f 31bd 1e3f

state_encoder.layers.2.weight f4 [32, 64]
-0.08569042 -0.038712136 0.01249455 0.060780577 -0.074319035 0.0072177206 -0.029641831 -0.008854811
0.026145093 -0.01076999 -0.073797986 0.10866872 0.10840108 0.0356256 0.033239234 -0.06375369
-0.0813605 -0.038228285 0.085299216 0.105957344 -0.12688361 0.10711097 -0.075192496 -0.11892602
0.11502858 -0.12456145 0.043549042 -0.004505297 -0.12277 0.11318609 -0.090853035 -0.009608193
-0.09556811 -0.055291243 -0.11265214 -0.12178839 0.035471708 0.05777905 -0.05212549 -0.123403676
0.06261915 -0.012519662 0.07570454 -0.0582331 -0.10148997 -0.053519722 -0.1039551 -0.049593158
0.04252113 -0.0065017245 -0.03750255 -0.065061875 0.07839621 0.07323729 -0.011725445 -0.110754065
-0.11194288 0.033375375 -0.11339263 -0.09946086 0.033618532 0.08868396 0.09420952 -0.03122608
0.09405514 0.023593549 -0.13166997 -0.0220622 0.06890703 -0.055126164 -0.08160143 -0.114176065
-0.12911277 0.08441488 -0.025675934 -0.047483575 -0.0016759433 0.04362834 -0.07084957 0.07348328
-0.05541144 -0.114837326 0.0039247456 -0.05925046 -0.010300988 -0.111170314 -0.02434216 0.012326141
-0.06032389 -0.04273564 0.102509804 -0.03387484 -0.03792274 0.10539547 0.11172841 0.1039073
-0.06871858 0.05147274 0.05887725 0.086250596 0.020449892 0.056847353 -0.07545971 -0.10163199
0.07549839 -0.0010160353 0.040273003 -0.12514338 0.023903439 -0.06501309 -0.096023835 -0.06355646
0.007415215 0.0069786008 -0.015991902 0.10044613 -0.07188894 0.031907145 0.07314079 0.00073260313
-0.049749244 0.114186004 -0.12225176 0.018379215 0.052691262 -0.016261885 0.009461319 -0.04975967
-0.022129755 0.08141212 0.052781016 0.106279574 0.08166676 0.05718218 -0.07233682 -0.0808048
-0.07492916 -0.095377035 0.09009144 -0.025981016 0.10602358 0.03952229 0.09413863 -0.12666903
-0.011608294 0.090216756 0.08094667 -0.117350206 -0.032614514 0.029410552 0.056243096 -0.015174598
0.02616969 -0.11076306 0.020502586 -0.06297085 0.036067117 0.060604084 -0.05155387 0.11602188
0.07557972 0.055692583 -0.011909578 -0.030828279 -0.12255674 -0.025634015 0.08358721 -0.028669931
0.11067228 -0.10712972 -0.045433406 -0.101653345 -0.06274164 -0.063295566 0.08196621 0.052089132
-0.05224449 0.06102042 0.109350525 0.082789 -0.093736835 -0.071757875 0.06508276 -0.06740386
-0.065470055 0.05910492 -0.041396923 -0.049401395 -0.011399483 0.061765276 -0.0417935 -0.0012856061
-0.01505178 0.047052793 0.08778951 -0.0400128 -0.06521119 0.04530213 -0.04445966 0.0353618
0.024577249 -0.028888639 -0.1111642 0.027095629 0.07931312 -0.106449075 -0.09952008 -0.031531665
-0.08118677 -0.07382197 -0.05754001 0.07369476 -0.10661993 0.04403785 0.0905144 -0.11846822
-0.075322814 -0.07104961 -0.0037065763 0.016153082 -0.10797607 -0.025892459 -0.07393494 0.020165252
0.014294528 0.009111269 0.09948448 -0.025476817 -0.053468075 -0.117656134 -0.12951796 -0.057772614
-0.1115263 0.10028151 -0.049756736 -0.02565314 -0.046412125 0.0017004667 -0.11771551 0.042578865
0.05155979 0.056447405 -0.062634744 0.08326444 -0.015545825 -0.10305763 -0.027721232 0.016162703
-0.1202201 0.02605995 -0.015565741 -0.084799655 0.09652621 0.052739892 -0.060221333 0.11500827
00000000: 757e afbd 9e90 1ebd f1b5 4c3c 0ef5 783d
00000010: 9434 98bd a182 ec3b 6dd3 f2bc c513 11bc
00000020: 3c2e d63c 9d74 30bc 6623 97bd b58d de3d
00000030: 6301 de3d 26ec 113d dd25 083d 4b91 82bd
00000040: 55a0 a6bd 4395 1cbd 5bb1 ae3d 2a00 d93d
00000050: c7ed 01be ff5c db3d 86fe 99bd 7c8f f3bd
00000060: 1b94 eb3d 131a ffbd 7b60 323d 2ca1 93bb
00000070: d66e fbbd 1cce e73d 2811 babd af6b 1dbc
00000080: 37b9 c3bd 1279 62bd 2ab6 e6bd 316c f9bd
00000090: c84a 113d baa9 6c3d 8a81 55bd 11bb fcbd
000000a0: 783e 803d 451f 4dbc fb0a 9b3d d585 6ebd
000000b0: f9d9 cfbd 7f37 5bbd 69e6 d4bd 3222 4bbd
000000c0: a32a 2e3d 6b0c d5bb 469c 19bd 293f 85bd
000000d0: 318e a03d 6ffd 953d 151c 40bc 07d3 e2bd
000000e0: 4f42 e5bd 9eb4 083d 653a e8bd 23b2 cbbd
000000f0: 96b3 093d f09f b53d ecf0 c03d d6cd ffbc
00000100: fb9f c03d 4247 c13c 7ed4 06be c9bb b4bc
00000110: 211f 8d3d f9cb 61bd a71e a7bd 24d5 e9bd
00000120: 2336 04be b5e1 ac3d 5656 d2bc 237e 42bd
00000130: 53ab dbba a1b3 323d 9419 91bd 677e 963d
00000140: 1bf7 62bd d52f ebbd 279b 803b 9cb0 72bd
00000150: 7ac5 28bc 43ad e3bd 3669 c7bc 95f3 493c
00000160: 2f16 77bd 910b 2fbd a9f0 d13d 58c0 0abd
00000170: e054 1bbd 95d9 d73d ddd1 e43d 5acd d43d
00000180: 54bc 8cbd 14d5 523d 4529 713d 27a4 b03d
00000190: 8886 a73c c5d8 683d 9f8a 9abd 6f24 d0bd
000001a0: e69e 9a3d 7d2c 85ba 4ef5 243d 9625 00be
000001b0: 25d1 c33c 9525 85bd 25a8 c4bd e429 82bd
000001c0: 55fb f23b bfac e43b 7301 83bc b3b6 cd3d
000001d0: 823a 93bd 11b1 023d d7ca 953d 2a0c 403a
000001e0: ddc5 4bbd 5ada e93d 215f fabd 0290 963c
000001f0: cbd2 573d a537 85bc a603 1b3c ccd0 4bbd
00000200: 7649 b5bc 66bb a63d e830 583d 1ba9 d93d
00000210: e740 a73d dd37 6a3d 5425 94bd fd7c a5bd
00000220: 7674 99bd 0955 c3bd dc81 b83d 24d6 d4bc
00000230: e422 d93d 20e2 213d c1cb c03d 87b5 01be
00000240: b730 3ebc 90c3 b83d 5ec7 a53d 4e55 f0bd
00000250: cc96 05bd 66ee f03c 295f 663d e19e 78bc
00000260: d161 d63c bed7 e2bd 0af5 a73c dcf6 80bd
00000270: 1dbb 133d fd3b 783d 272a 53bd e19c ed3d
00000280: 8ac9 9a3d e81d 643d 6420 43bc 968b fcbc
00000290: 07ff fabd 6dfe d1bc c52f ab3d 34dd eabc
000002a0: 26a8 e23d d466 dbbd 6118 3abd a12f d0bd
000002b0: b07e 80bd 1ba1 81bd e6dd a73d 6a5b 553d
000002c0: 51fe 55bd 8cf0 793d 2bf3 df3d 478d a93d
000002d0: 19f9 bfbd cbf5 92bd 1c4a 853d 090b 8abd
000002e0: 2a15 86bd 0018 723d d28f 29bd 1e59 4abd
000002f0: e6c4 3abc 96fd 7c3d a92f 2bbd c881 a8ba
00000300: be9b 76bc 6eba 403d fdca b33d 76e4 23bd
00000310: 728d 85bd ba8e 393d 551b 36bd 89d7 103d
00000320: 3a56 c93c dea7 ecbc 0eaa e3bd a7f7 dd3c
00000330: eb6e a23d f901 dabd 2fd1 cbbd 5927 01bd
00000340: 4045 a6bd f92f 97bd 13af 6bbd 47ed 963d
00000350: 8d5b dabd 0861 343d 9d5f b93d 779f f2bd
00000360: d942 9abd 7582 91bd 08ea 72bb 7853 843c
00000370: 8f22 ddbd 6c1c d4bc 346b 97bd 9931 a53c
00000380: 9933 6a3c 6f47 153c 85be cb3d c2b4 d0bc
00000390: 5701 5bbd b3f5 f0bd 5ba0 04be faa2 6cbd
000003a0: e767 e4bd 6460 cd3d b8cd 4bbd 8926 d2bc
000003b0: a41a 3ebd 32e2 de3a d414 f1bd 2d67 2e3d
000003c0: 5c30 533d 6535 673d a546 80bd 8c86 aa3d
000003d0: eab3 7ebc e10f d3bd a317 e3bc a567 843c
000003e0: f535 f6bd ad7b d53c 7307 7fbc 71ab adbd
000003f0: 89af c53d c905 583d a5aa 76bd 7589 eb3d

state_encoder.layers.2.bias f4 [32]
0.04685729 0.068611294 0.003946815 0.03479696 -0.014012198 -0.103186294 -0.026288172 0.111141704
-0.11487273 0.0728485 -0.05673112 0.053215064 -0.019239198 -0.04435324 -0.118614234 -0.11421449
0.049884535 0.0017418339 0.119168825 -0.008648329 0.028281959 -0.06478415 0.081122965 -0.038920872
-0.13197027 -0.015874198 -0.014277681 0.044086322 0.053276833 -0.07164036 -0.04475108 0.020765135
00000000: 6eed 3f3d 1484 8c3d 4954 813b 4287 0e3d
00000010: 6b93 65bc 5653 d3bd 4b5a d7bc 439e e33d
00000020: 6542 ebbd 9831 953d e45e 68bd 0af8 593d
00000030: 869b 9dbc beab 35bd 05ec f2bd 49e9 e9bd
00000040: ba53 4c3d 3f4e e43a c90e f43d b9b1 0dbc
00000050: 91af e73c 8dad 84bd cc23 a63d 7e6b 1fbd
00000060: 3723 07be 9b0a 82bc efec 69bc dc93 343d
00000070: cf38 5a3d 2eb8 92bd e94c 37bd a51b aa3c
