training_megnet_p_u/saved_models/gllb-sc_210_p_u/state.pt (torch, 710362 bytes, 106 tensors)

bond_expansion.rbf.centers f4 [100]
0	0x00000000	0.0
1	0x3d4ede62	0.05050505
2	0x3dcede62	0.1010101
3	0x3e1b26ca	0.15151516
4	0x3e4ede62	0.2020202
5	0x3e814afd	0.25252524
6	0x3e9b26ca	0.3030303
7	0x3eb50296	0.35353535
8	0x3ecede62	0.4040404
9	0x3ee8ba2e	0.45454544
10	0x3f014afd	0.5050505
11	0x3f0e38e3	0.5555555
12	0x3f1b26ca	0.6060606
13	0x3f2814b0	0.65656567
14	0x3f350296	0.7070707
15	0x3f41f07c	0.75757575
16	0x3f4ede62	0.8080808
17	0x3f5bcc48	0.85858583
18	0x3f68ba2e	0.9090909
19	0x3f75a814	0.9595959
20	0x3f814afd	1.010101
21	0x3f87c1f0	1.060606
22	0x3f8e38e3	1.111111
23	0x3f94afd6	1.1616161
24	0x3f9b26ca	1.2121212
25	0x3fa19dbd	1.2626263
26	0x3fa814b0	1.3131313
27	0x3fae8ba3	1.3636364
28	0x3fb50296	1.4141414
29	0x3fbb7989	1.4646465
30	0x3fc1f07c	1.5151515
31	0x3fc8676f	1.5656565
32	0x3fcede62	1.6161616
33	0x3fd55555	1.6666666
34	0x3fdbcc48	1.7171717
35	0x3fe2433b	1.7676767
36	0x3fe8ba2e	1.8181818
37	0x3fef3121	1.8686868
38	0x3ff5a814	1.9191918
39	0x3ffc1f07	1.9696969
40	0x40014afd	2.020202
41	0x40048677	2.070707
42	0x4007c1f0	2.121212
43	0x400afd6a	2.1717172
44	0x400e38e3	2.222222
45	0x4011745d	2.2727273
46	0x4014afd6	2.3232322
47	0x4017eb50	2.3737373
48	0x401b26ca	2.4242425
49	0x401e6243	2.4747474
50	0x40219dbd	2.5252526
51	0x4024d936	2.5757575
52	0x402814b0	2.6262627
53	0x402b502a	2.6767678
54	0x402e8ba3	2.7272727
55	0x4031c71d	2.777778
56	0x40350296	2.8282828
57	0x40383e10	2.878788
58	0x403b7989	2.929293
59	0x403eb503	2.979798
60	0x4041f07c	3.030303
61	0x40452bf6	3.0808082
62	0x4048676f	3.131313
63	0x404ba2e9	3.1818182
64	0x404ede62	3.2323232
65	0x405219dc	3.2828283
66	0x40555555	3.3333333
67	0x405890cf	3.3838384
68	0x405bcc49	3.4343436
69	0x405f07c2	3.4848485
70	0x4062433c	3.5353537
71	0x40657eb5	3.5858586
72	0x4068ba2f	3.6363637
73	0x406bf5a8	3.6868687
74	0x406f3122	3.7373738
75	0x40726c9b	3.7878788
76	0x4075a815	3.838384
77	0x4078e38e	3.8888888
78	0x407c1f08	3.939394
79	0x407f5a81	3.989899
80	0x40814afd	4.040404
81	0x4082e8ba	4.090909
82	0x40848677	4.141414
83	0x40862434	4.1919193
84	0x4087c1f1	4.2424245
85	0x40895fad	4.292929
86	0x408afd6a	4.3434343
87	0x408c9b27	4.3939395
88	0x408e38e4	4.4444447
89	0x408fd6a0	4.4949493
90	0x4091745d	4.5454545
91	0x4093121a	4.5959597
92	0x4094afd7	4.646465
93	0x40964d93	4.6969695
94	0x4097eb50	4.7474747
95	0x4099890d	4.79798
96	0x409b26ca	4.848485
97	0x409cc486	4.8989897
98	0x409e6243	4.949495
99	0x40a00000	5.0

embedding.layer_node_embedding.weight f4 [89, 64]
0	0xbe022738	-0.12710273
1	0xbbf22f61	-0.007390902
2	0x3d580034	0.05273457
3	0xbd89420f	-0.06702053
4	0xbf48cab0	-0.78434277
5	0xbf74b69c	-0.9559114
6	0x3eb2ee03	0.34947214
7	0xbfb49f88	-1.4111185
8	0x3fdbd4ef	1.7174357
9	0xbf8d6cda	-1.1048844
10	0x3fe52c9e	1.7904241
11	0x3f57bdcf	0.84274
12	0x3fddaf3d	1.7319103
13	0xbf6efb44	-0.9335215
14	0xbf6c46e7	-0.9229569
15	0x3f7c62d8	0.98588324
16	0x3fb7bb96	1.4354122
17	0xbf6ff0d2	-0.9372684
18	0xbebb997c	-0.36640537
19	0x3f554c9f	0.8332004
20	0xbfa69916	-1.3015468
21	0x3e634138	0.22192848
22	0xbf28f26a	-0.65994895
23	0x3fdadd4b	1.7098783
24	0xbf9b7b02	-1.2146914
25	0xbfb2adf3	-1.3959335
26	0x3f9ddf3d	1.2333752
27	0xbd4a85f7	-0.049444165
28	0x3f0b36bf	0.5438041
29	0x3fef43ee	1.8692605
30	0x3eb82238	0.35963607
31	0xbeab215d	-0.33423892
32	0x3ff3f6a3	1.9059643
33	0x3e821b18	0.25411296
34	0xbfc0f336	-1.5074222
35	0x3fb46206	1.4092414
36	0xbf85614a	-1.0420315
37	0x3f92404d	1.1425873
38	0xbeb52df5	-0.35386625
39	0xbf6f2766	-0.9341949
40	0xbe3973db	-0.18110602
41	0x3f64f70d	0.8943947
42	0x3fc9a47d	1.5753323
43	0x401b51fb	2.4268787
44	0xbe46e68a	-0.19423881
45	0xbe799385	-0.2437268
46	0xbe807784	-0.25091183
47	0xbf5b810d	-0.8574379
48	0x3fb64343	1.4239277
49	0xbee2cb25	-0.44295612
50	0x3d9b443a	0.075813726
51	0xc0075f10	-2.1151772
52	0x3e5fdace	0.21860811
53	0x3ee986f5	0.45610777
54	0x3fc4c794	1.5373406
55	0xbeba6acc	-0.36409605
56	0xbfb43dbb	-1.4081339
57	0xbef7721a	-0.4832924
58	0x3f5550f7	0.8332667
59	0x3f90bb75	1.1307207
60	0xbf4bab99	-0.7955871
61	0x3f2f643c	0.6851232
62	0xbf2ff415	-0.68731815
63	0x3f1a5153	0.6028034
64	0x3e6f4ab6	0.23368344
65	0xbda0ec65	-0.07857589
66	0xbeb415a0	-0.3517275
67	0xbd65ddcb	-0.05611972
68	0x3edb8a55	0.42878976
69	0xbf531c6a	-0.8246523
70	0xbe0d5b50	-0.13804364
71	0x3f2dc87b	0.67884034
72	0x3d23dec2	0.04000736
73	0x3b60a7e6	0.0034279763
74	0x3f216fd0	0.6306124
75	0xbf82daf8	-1.0223074
76	0xbf216b72	-0.63054574
77	0x3e977253	0.2957941
78	0xbf362885	-0.7115558
79	0xbfb07bc9	-1.3787776
80	0xbf90fdf1	-1.1327497
81	0xbfad1940	-1.3523331
82	0x3f0da621	0.5533162
83	0x3c148bd4	0.009066541
84	0xbf80be74	-1.0058122
85	0xbf800175	-1.0000445
86	0xbef3e2ec	-0.47634065
87	0x3ebee6d9	0.37285498
88	0xbf7f2552	-0.9966632
89	0x3d965d91	0.07342065
90	0x40185b98	2.3805904
91	0x3f9edaad	1.2410485
92	0xbe3f7792	-0.18697956
93	0x3e706d74	0.23479253
94	0x3f52d61a	0.82357943
95	0x3f6f5018	0.9348159
96	0x3a980a9e	0.0011599844
97	0xbfa96f40	-1.3237076
98	0x3ee17779	0.44036463
99	0x3ea1072b	0.3145078
100	0xbf2e5f8d	-0.6811455
101	0x3fb1dcdf	1.389553
102	0x3f95d34b	1.1705106
103	0xbe74986b	-0.23886268
104	0xbf4bbcdc	-0.7958505
105	0x3fa8e671	1.3195325
106	0x3eb25de9	0.34837273
107	0x3fd98581	1.6993867
108	0x3fd8e51d	1.694492
109	0x3da92705	0.082593955
110	0x3ed416b5	0.41423574
111	0xbf0a3acc	-0.53995967
112	0xbebb84cb	-0.3662475
113	0x3f45c9fb	0.7726132
114	0x3f681a10	0.9066477
115	0xbdec95f7	-0.11552041
116	0xbfae0da0	-1.3597908
117	0x3f205109	0.6262365
118	0x3df246cb	0.11829909
119	0x3f938f1c	1.1528049
120	0xbeefb9c6	-0.4682142
121	0x3e0c8c69	0.13725437
122	0xbfa07111	-1.2534505
123	0xbd1b76ed	-0.037955213
124	0x3e525cd2	0.2054322
125	0x3eb5afec	0.3548578
126	0xbdbc1a27	-0.09184676
127	0x3f908f98	1.1293821
128	0xc0040261	-2.0626452
129	0xbed8866a	-0.4229005
130	0x3dacbc00	0.08434296
131	0xbe850d45	-0.25986686
132	0xbe220cd7	-0.1582521
133	0xc01c1be7	-2.439203
134	0x3eaffd5b	0.34372982
135	0xbf66a46c	-0.9009464
136	0xbfc1b207	-1.5132455
137	0xbf6efa94	-0.933511
138	0x3ea23899	0.31683806
139	0x3f0fae1c	0.56125045
140	0xbee307b2	-0.4434181
141	0xbf85326e	-1.0406015
142	0xc00ef14a	-2.233477
143	0xbfa0b8ca	-1.2556393
144	0xbe29ec82	-0.16594127
145	0x3e88e242	0.2673512
146	0xbd7c2499	-0.06155834
147	0xbf048e54	-0.51779675
148	0xc026b697	-2.6048944
149	0xc046f552	-3.1087232
150	0x3fe7520a	1.8071911
151	0xbf08ab6a	-0.5338656
152	0x3e5687a6	0.20950183
153	0xbf06085f	-0.52356523
154	0xbea5e27e	-0.32399362
155	0xbf38595d	-0.7201136
156	0x3e9ba7b1	0.30401376
157	0xbf977b7d	-1.1834561
158	0xbede129b	-0.4337357
159	0xbf425cd2	-0.7592288
160	0x3fceb55d	1.6149098
161	0x3c0d1c25	0.008612667
162	0xbe2d92d0	-0.16950536
163	0xbf7b77fa	-0.98229945
164	0x3ffa8e86	1.9574745
165	0x3ecb3dd3	0.39695606
166	0x400f9d0c	2.2439604
167	0x3fb8726e	1.4409921
168	0xbe912312	-0.2834707
169	0xbf4bb823	-0.79577845
170	0xbfc1a7de	-1.5129354
171	0xbf95d78b	-1.1706403
172	0xbf7b9f52	-0.9828998
173	0xbe6b47a8	-0.22976553
174	0x3f9e5b50	1.2371616
175	0xbead59dc	-0.3385762
176	0xbfee26df	-1.8605613
177	0xbfa04f53	-1.2524208
178	0x3fcb03fc	1.5860591
179	0x3f369da3	0.71334285
180	0x3f9967a8	1.1984758
181	0x3f77a33d	0.96733457
182	0xbf937f5f	-1.1523246
183	0xbedb523d	-0.4283618
184	0x3fefbc03	1.8729252
185	0x3f3d9abe	0.7406424
186	0xc01743fd	-2.3635247
187	0x3fcc4c6e	1.5960824
188	0xbea525eb	-0.32255492
189	0xbf4d75c0	-0.802578
190	0xbff33e73	-1.9003433
191	0x3f831dcc	1.0243468
192	0x3e87efbd	0.26550093
193	0x3fa29959	1.2703048
194	0x3f708b10	0.9396219
195	0xc01851cb	-2.3799922
196	0xbdf5a7e6	-0.11994915
197	0x40096f25	2.1474087
198	0xbf9cce7e	-1.2250516
199	0xbf47d3b7	-0.78057426
200	0xbff78f9e	-1.9340703
201	0x3f13dd0d	0.5775917
202	0x3f13b1a3	0.5769293
203	0xbee10625	-0.4395
204	0xbee84e2e	-0.45372146
205	0xbf829e93	-1.0204643
206	0xbf02a30e	-0.5103005
207	0x3c0b161e	0.00848916
208	0xbba09e8e	-0.0049017137
209	0x3f066a2f	0.52505773
210	0x3f1a691e	0.60316646
211	0xbeb20b48	-0.34774232
212	0xbf41409f	-0.7548923
213	0xbd9e4a38	-0.07729
214	0x3f6a8a23	0.9161703
215	0xbf10462e	-0.56357086
216	0xc0180dad	-2.3758347
217	0xbea4341b	-0.32071003
218	0xbfb289f8	-1.3948355
219	0x3f66a870	0.90100765
220	0x3f035fec	0.5131824
221	0x3eda4cfd	0.42636862
222	0x3f814076	1.0097797
223	0x3f80174b	1.0007108
224	0xbfa9ee9a	-1.327594
225	0xbecd19d1	-0.4005876
226	0xbf14572b	-0.5794551
227	0x3ff4779b	1.9099001
228	0x3f06c39a	0.52642214
229	0xbfc03f15	-1.5019251
230	0x3f0cced6	0.55003107
231	0xbf61e151	-0.8823443
232	0xbf3ebdd1	-0.74508387
233	0x3fced343	1.6158222
234	0xbf8347da	-1.0256302
235	0x3f15faca	0.585858
236	0x3e459fd5	0.19299252
237	0x3f0c3e21	0.547823
238	0x3f099d34	0.537555
239	0x3e40c0a7	0.18823491
240	0x3eef4765	0.46734157
241	0x3cf242eb	0.029572925
242	0x3f2cfa50	0.67569447
243	0xbe84a282	-0.25905234
244	0xbee692fa	-0.4503401
245	0xbfdb8de6	-1.7152679
246	0x40118bec	2.2741652
247	0xbf429ee2	-0.76023686
248	0x3eea32ca	0.45741874
249	0x3f62cee3	0.88596934
250	0xbfc78412	-1.558718
251	0x3e900f11	0.28136495
252	0xbf226016	-0.63427866
253	0xbea81b2b	-0.32833228
254	0xbf026b0d	-0.50944597
255	0x3fbd9940	1.4812393

edge_encoder.layers.0.weight f4 [64, 100]
0	0x3db3f68d	0.0878726
1	0x3e316cd7	0.17326675
2	0x3e5b8abc	0.21439642
3	0x3e66a766	0.22524795
4	0x3e3899e4	0.18027455
5	0x3e2222ab	0.15833537
6	0x3e08b161	0.13348915
7	0x3e111f87	0.14172183
8	0x3d70ecbe	0.058819525
9	0x3e035e21	0.12828876
10	0x3e39498c	0.18094462
11	0x3db1ffce	0.08691369
12	0x3d9f9439	0.07791943
13	0x3d4b941c	0.049701795
14	0x3d23107a	0.039810635
15	0x3e2ca4b3	0.16859703
16	0x3d9b394d	0.07579289
17	0x3e2282ae	0.15870163
18	0x3e14967e	0.14510533
19	0x3b2a0027	0.0025940032
20	0x3d41b46e	0.04729121
21	0x3c94e810	0.018177062
22	0x3dd129d3	0.102130555
23	0x3da8bddf	0.0823934
24	0x3dbb6546	0.09150176
25	0x37263874	9.907515e-06
26	0x3d47ea9c	0.048807725
27	0x3dc4ab13	0.09602942
28	0x3dd1f685	0.10252098
29	0x3d02dba4	0.031947747
30	0xbc14c0ca	-0.009079168
31	0x3db86a4d	0.0900465
32	0x3df75ebc	0.12078616
33	0x3c552791	0.013009922
34	0x3d3e0b99	0.04639778
35	0xbd9afd26	-0.075678155
36	0x3d42a2f8	0.0475187
37	0xbc21ce72	-0.009875881
38	0x3daa7efc	0.083250016
39	0xbb3ad801	-0.0028510096
40	0x3d7882bc	0.060671553
41	0xbddae4b0	-0.1068815
42	0xbdd15ad5	-0.10222403
43	0x3d582ddc	0.05277811
44	0xbc33daaa	-0.010977427
45	0xbd8548ff	-0.065080635
46	0xbca495b1	-0.02009091
47	0x3c6d691d	0.014490393
48	0xbd7d5667	-0.061849978
49	0x3d3054ff	0.04304981
50	0xbd0cf21c	-0.03441058
51	0xbd0a56ad	-0.033774067
52	0xbd5178c4	-0.05114056
53	0xbdf69bb0	-0.12041414
54	0xbd66796f	-0.05626815
55	0x3d29bca5	0.04143967
56	0x3d47c162	0.04876841
57	0x3d43dc15	0.04781731
58	0xbdbcb51a	-0.0921423
59	0x3d260e8d	0.04054122
60	0x3d0ab102	0.033860214
61	0x38aef731	8.3430095e-05
62	0xbc271a4c	-0.010199141
63	0xbe14ce89	-0.14531912
64	0xbd0b0c8b	-0.03394751
65	0x3afca6b6	0.0019275758
66	0xbe141a7d	-0.1446323
67	0xbca05913	-0.019573724
68	0x3c0fa499	0.0087672705
69	0xbc77fc0c	-0.015135776
70	0xbd9bb184	-0.07602218
71	0xbd2bc5ae	-0.04193657
72	0x3cb692c3	0.022286778
73	0x3c8c08f5	0.017094115
74	0x3d626041	0.055267576
75	0xbd0b5c49	-0.034023557
76	0xbdd0638d	-0.10175238
77	0xbddad255	-0.10684649
78	0xbdf21ad6	-0.11821525
79	0xbc46102b	-0.012088816
80	0xbd1f31d8	-0.038865894
81	0x3d4145ed	0.047185827
82	0x3d0595bf	0.032613512
83	0x3cfd286c	0.030903064
84	0xbdccbf27	-0.09997397
85	0x3d21ac2b	0.039470833
86	0x3d0f41e6	0.034974955
87	0x3cab0492	0.020876203
88	0xbde762af	-0.11298119
89	0xbcef80a5	-0.029236147
90	0xbd99f3e5	-0.07517222
91	0x3b42c447	0.0029719041
92	0x3cf748a6	0.030186009
93	0xbdb797e2	-0.08964516
94	0xbcb2a736	-0.021808248
95	0xbc4c1c70	-0.012457952
96	0xbb477654	-0.003043552
97	0xbddf5a4a	-0.10905893
98	0x3d05b9cb	0.03264789
99	0xbe0036d3	-0.12520914
100	0xbe7605e1	-0.2402568
101	0xbd750cfc	-0.059826836
102	0xbd662d98	-0.056195825
103	0xbddbb5ed	-0.10728059
104	0xbe658155	-0.22412618
105	0xbe64a271	-0.22327591
106	0xbe64248f	-0.22279571
107	0xbe23d4eb	-0.1599919
108	0xbd80aee2	-0.06283356
109	0xbdb461c6	-0.08807711
110	0xbd860dd0	-0.06545603
111	0xbe23061f	-0.15920304
112	0xbe4aaa1f	-0.19791459
113	0xbe186fc0	-0.14886379
114	0xbdc34fba	-0.09536691
115	0xbccdf6bf	-0.025142072
116	0xbdfec47a	-0.12439819
117	0xbda017a8	-0.07817012
118	0xbcc61df8	-0.024184212
119	0x3c6968ea	0.014246205
120	0xbe089ec5	-0.13341816
121	0xbdeca2c9	-0.11554486
122	0x3cc54cb4	0.024084426
123	0xbd38ddb7	-0.04513332
124	0xbe0758bc	-0.13217443
125	0x3d3d2f1d	0.04618751
126	0x3bf30f6a	0.007417609
127	0x3b402037	0.0029316077
128	0xbd513a83	-0.05108119
129	0xbcfd2ac1	-0.030904176
130	0x3cc1491c	0.023594432
131	0xbd8e8f01	-0.069608696
132	0xbd0d08e8	-0.03443232
133	0x3dacc336	0.08435671
134	0x3da38ac9	0.079854555
135	0xbd68da51	-0.056848828
136	0xbd8985c5	-0.06714968
137	0x3dba7c54	0.09105745
138	0x3d63edf6	0.05564686
139	0x3c7d6a26	0.015467202
140	0xbd00c56c	-0.031438276
141	0xbc501f04	-0.012702707
142	0x3da0dea0	0.07854962
143	0xbdb08371	-0.086188205
144	0xbd5df726	-0.054190777
145	0x3c9134c9	0.017725365
146	0x3d9c92be	0.07645176
147	0xbd4e0b80	-0.050303936
148	0xbb8b4c58	-0.0042510442
149	0x3dc4a894	0.09602466
150	0xbce2b719	-0.027675198
151	0xbc73d56a	-0.014882425
152	0xbd78d1b2	-0.060746856
153	0x3d048942	0.03235746
154	0xbd6fd345	-0.05855109
155	0x3cc4fc10	0.024045974
156	0x3dc1d98b	0.09465321
157	0x3da03007	0.078216605
158	0x3d6e86f8	0.058234185
159	0xbcb60031	-0.022216888
160	0xbcb9eb09	-0.022695081
161	0x3d78bb6e	0.060725622
162	0xbc8769d4	-0.016529955
163	0xbcfa312c	-0.030541025
164	0xbd882805	-0.06648258
165	0xbd245685	-0.040121574
166	0x3cafc4a7	0.021456076
167	0x3d7695b7	0.060201373
168	0x3d4b168b	0.049582046
169	0x3d2226e7	0.03958788
170	0xbadec656	-0.0016996365
171	0x3d687921	0.056756143
172	0xbd574313	-0.0525542
173	0xbd45bc38	-0.048275203
174	0xbcf754a4	-0.030191727
175	0x3d8ca556	0.06867473
176	0x3cc07f4e	0.023498204
177	0x3bbc80f2	0.005752676
178	0x3ca9f860	0.020748317
179	0xbcb16e6d	-0.0216591
180	0x3da26d7e	0.0793104
181	0xbd3e42b3	-0.046450328
182	0xbd97309c	-0.073823184
183	0xbdbc8773	-0.092055224
184	0x3d2a3033	0.041549873
185	0xbca91921	-0.020641865
186	0xbcf80767	-0.030276967
187	0xbcf51be6	-0.02992053
188	0xbc96baf9	-0.018399702
189	0x3c690170	0.014221534
190	0xbd1774db	-0.036976676
191	0x3d0a1184	0.03370811
192	0x3d8b13a3	0.06790855
193	0x3db81c00	0.089897156
194	0x3cd85a35	0.026410202
195	0x3d1178aa	0.035515465
196	0x3d17303f	0.036911245
197	0x3bae74a5	0.0053239637
198	0x3d5cd296	0.053911768
199	0xbcab52c0	-0.020913482
200	0xbe0af38a	-0.13569465
201	0xbe0cfb0f	-0.13767646
202	0xbe238219	-0.15967597
203	0xbe26a45b	-0.16273634
204	0xbd97800e	-0.07397471
205	0xbdb9f87f	-0.090806
206	0xbdd93dd1	-0.10607494
207	0xbdcec08a	-0.10095318
208	0xbe2eb103	-0.17059712
209	0xbe1e4fe5	-0.15460165
210	0xbd93c512	-0.072153226
211	0x3ca5757f	0.020197628
212	0xbce6bc37	-0.02816592
213	0x3d07c09e	0.03314268
214	0xbe0eab13	-0.13932447
215	0xbde88f7e	-0.11355494
216	0xbd562dd5	-0.052289803
217	0xbcc3c08f	-0.02389553
218	0xbcd76375	-0.026292542
219	0xbe0981c2	-0.13428405
220	0xbdd6cde7	-0.104884915
221	0xbc98c97f	-0.018650768
222	0x3a396c11	0.0007073293
223	0xbd2c10c4	-0.042008176
224	0x3bdc52be	0.006723731
225	0xbde97766	-0.113997266
226	0xbca9c80e	-0.020725276
227	0xbc0be879	-0.0085393125
228	0xbcd06305	-0.025437841
229	0x3d45d0a0	0.048294663
230	0x3951a3d7	0.00019992828
231	0x3ce665ab	0.028124651
232	0xbcc102ac	-0.023560844
233	0xbd865b61	-0.06560398
234	0x3d69a747	0.057044294
235	0x3bb6676f	0.0055665295
236	0xbc6e29b3	-0.014536309
237	0xbcf10a49	-0.02942385
238	0x3d0fc452	0.035099335
239	0x3d0b0d39	0.033948157
240	0x3cc62eca	0.024192233
241	0xbd085c24	-0.033290997
242	0x3d03be5e	0.03216397
243	0xbcdf2401	-0.027238848
244	0xbc9cae5d	-0.019126112
245	0xbb4fa279	-0.0031682535
246	0x3c967829	0.018367844
247	0xbd1832ee	-0.037157945
248	0xbc75011d	-0.014953879
249	0xbcd16ddc	-0.02556508
250	0xbd2f76ec	-0.042838022
251	0x3e15c259	0.14624919
252	0x3e059a5f	0.13047169
253	0x3e0a0103	0.13476948
254	0x3e011786	0.1260663
255	0x3d8c4298	0.06848639

edge_encoder.layers.0.bias f4 [64]
0	0x3d349734	0.04408951
1	0x3da4aacd	0.0804039
2	0xbd1e0dfa	-0.038587548
3	0x3d096af3	0.03354926
4	0x3de6ebd2	0.11275448
5	0x3dac2d75	0.08407108
6	0x3da8fc2b	0.08251222
7	0xbd464d79	-0.048413727
8	0x3aeb7053	0.0017962552
9	0x3dee9074	0.11648646
10	0xbd0d4e6f	-0.03449863
11	0x3be5fa71	0.0070183803
12	0xbd7694e1	-0.060200576
13	0xbd3ea7e0	-0.046546817
14	0x3dba8ef9	0.09109301
15	0x3d56b226	0.05241599
16	0xbc43bcc4	-0.011946861
17	0x3da07dfb	0.07836529
18	0x3ddc1927	0.10746985
19	0xbd16a2d9	-0.036776397
20	0x3d8123f9	0.06305689
21	0x3daaca0c	0.08339319
22	0xbd76dc7c	-0.060268864
23	0x3dd0ae71	0.10189522
24	0x3cd4bf91	0.025970252
25	0xbd5cbd02	-0.05389119
26	0xbd2144bd	-0.039372195
27	0x3ddd36f2	0.108014956
28	0x3cca83a4	0.024720974
29	0x3c47a50f	0.012185349
30	0xbd939633	-0.072063826
31	0xbc6c5e53	-0.0144267855
32	0x3cd9ef0e	0.026603248
33	0x3d1a3382	0.037646778
34	0x3d259578	0.040425748
35	0xbd5da02e	-0.054107837
36	0x3d39659f	0.04526293
37	0xbbb7f352	-0.005613723
38	0xbba10696	-0.004914115
39	0x3a7fee00	0.0009762943
40	0x3d9bd630	0.076092124
41	0x3c90d8d9	0.017681526
42	0x3da4051f	0.08008789
43	0xbc7d5825	-0.01546291
44	0x3dcfc7b2	0.10145511
45	0x3d1d16e4	0.03835191
46	0xbc43f431	-0.011960075
47	0xbdac2204	-0.084049255
48	0xbdb0adfa	-0.086269334
49	0x3ddc4768	0.10755807
50	0x3da8a3c6	0.08234362
51	0x3da7540f	0.0817033
52	0x3dbbbc74	0.09166804
53	0xbdbef890	-0.09324753
54	0xbd2ffb38	-0.04296419
55	0x3c8d98c4	0.017284758
56	0xbc7cf541	-0.015439332
57	0x3dc51f40	0.09625101
58	0x3d59fbca	0.05321864
59	0x3d8bab8a	0.06819828
60	0xbd2348d7	-0.039864387
61	0xbd930a1f	-0.07179665
62	0xbd60e854	-0.054909065
63	0x3c008646	0.007844513

edge_encoder.layers.2.weight f4 [32, 64]
0	0x3d0f7bae	0.03503006
1	0xbda12925	-0.07869176
2	0x3d86b0a1	0.06576658
3	0x3dfc3fcb	0.12316855
4	0xbc5b6d02	-0.013392689
5	0x3da4e9b6	0.08052389
6	0x3e16f6a1	0.14742519
7	0xbd8e48b0	-0.06947458
8	0x3a8aa132	0.0010576604
9	0x3cbdd4a2	0.02317268
10	0x3e05a5aa	0.13051477
11	0xbe0d9f3f	-0.13830279
12	0xbdb3ccdd	-0.08779309
13	0xbdd7e354	-0.10541406
14	0x3e1e4f55	0.1545995
15	0xbde9ee2a	-0.11422379
16	0x3d7754c9	0.06038359
17	0xbd9a4424	-0.07532528
18	0xbdfa53d2	-0.12223019
19	0x3a9dd66c	0.0012042052
20	0x3e36b9fd	0.17844386
21	0xbd6e56e8	-0.05818835
22	0x3dd43e04	0.10363391
23	0x3d0fb067	0.03508034
24	0xbd49be41	-0.049253706
25	0xbdd84549	-0.1056009
26	0xbcdd90ca	-0.02704658
27	0x3e3db4d5	0.18526013
28	0x3ca9369b	0.02065592
29	0x3e3bd11b	0.18341486
30	0x3ce24552	0.027620945
31	0xbd501b0f	-0.050807055
32	0x3e0d1c54	0.13780338
33	0xbc87eda7	-0.016592814
34	0x3e31e7e2	0.17373613
35	0x3e4a574a	0.1975986
36	0x3e1de776	0.15420327
37	0x3a65304a	0.00087428524
38	0x3ceb3027	0.028709484
39	0x3db6f01c	0.08932516
40	0xbded7bd3	-0.11595883
41	0xbc784451	-0.015153007
42	0xbca63941	-0.020290973
43	0x3bdf278e	0.006810135
44	0x3dc18cd1	0.09450687
45	0xbdbaad27	-0.091150574
46	0x3c46f8d1	0.012144283
47	0x3e266a70	0.1625154
48	0x3d3980e1	0.045288924
49	0xbdb0bf72	-0.08630265
50	0xbc62ff84	-0.013854865
51	0x3c2c192b	0.010504047
52	0x3d4611d3	0.048356842
53	0xbd95daa7	-0.07317095
54	0x3c1a0d15	0.009402533
55	0xbdb952c4	-0.090489894
56	0x3da2b362	0.07944371
57	0x3a5be089	0.00083876454
58	0xbddeb7d7	-0.108749084
59	0xbd4cc823	-0.049995553
60	0x3e0c7c5c	0.13719314
61	0xbd28df65	-0.04122867
62	0x3df7e8a2	0.12104918
63	0x3dd774be	0.10520314
64	0xbbafe568	-0.0053679235
65	0x3ccbb21f	0.024865208
66	0x3d3443de	0.044010036
67	0xbd8f68c7	-0.070024066
68	0xbd8365c3	-0.06415894
69	0xbd6d1678	-0.057882756
70	0x3da3246a	0.0796593
71	0xbccc6d40	-0.024954438
72	0xbd3ede4f	-0.04659873
73	0xbe03e192	-0.12879017
74	0x3cf3b91d	0.029751355
75	0xbcec578f	-0.028850345
76	0xbde6e34f	-0.112738244
77	0x3dbb9727	0.091596894
78	0x3d4bac19	0.049724672
79	0xbd983dbf	-0.07433652
80	0x3d81eeb8	0.0634436
81	0x3c772e38	0.015086703
82	0xbcf80306	-0.03027488
83	0xbdcc4dba	-0.09975763
84	0x3d032005	0.032012958
85	0x3d56d5c2	0.05244995
86	0x3d909621	0.07059885
87	0xbd18f9a3	-0.037347447
88	0xbe0ea7db	-0.1393122
89	0xbdf6a766	-0.120436475
90	0xbd9907fa	-0.074722245
91	0xbd4be4ed	-0.049778868
92	0xbcad7b48	-0.02117695
93	0xbd04cb2d	-0.032420326
94	0x3c7cd12d	0.015430731
95	0x3c24d0f8	0.010059588
96	0x3cf6f480	0.030145884
97	0x3d207194	0.039170817
98	0x3d439c61	0.047756556
99	0x3dcb61a3	0.09930732
100	0xbdb8131d	-0.089880206
101	0xbce0fc4e	-0.027464058
102	0xbd87fb12	-0.06639685
103	0xbd2f8fe1	-0.042861823
104	0xbdc21405	-0.09476475
105	0x3d9daddd	0.076991774
106	0xbdee11f0	-0.11624515
107	0x3cf71aad	0.030164087
108	0x3b1faa87	0.0024363117
109	0x3ce9e4aa	0.028551418
110	0xbd9c8be1	-0.07643867
111	0xbdbff323	-0.093725465
112	0xbdf60b32	-0.12013854
113	0x3d014632	0.031561084
114	0x3d2303f6	0.0397987
115	0xbdcd2eba	-0.10018678
116	0x3d329214	0.043596342
117	0x3cd089f8	0.025456414
118	0xbdbf9007	-0.09353643
119	0x3d92e219	0.07172031
120	0x3da5696c	0.08076748
121	0xbc8d7cbb	-0.01727139
122	0xbdcfbb7f	-0.10143184
123	0xbd843379	-0.0645513
124	0x3d829f99	0.06378097
125	0xbd30db0e	-0.043177657
126	0xbdc8967c	-0.097943276
127	0x3dc13cd7	0.094354324
128	0x3db6f00b	0.08932503
129	0xbd5d2aef	-0.053996023
130	0xbcb71379	-0.022348152
131	0xbd005e42	-0.03133989
132	0xbca5b005	-0.020225534
133	0x3dc55366	0.096350476
134	0xbcdec139	-0.027191745
135	0xbdf60c3d	-0.12014053
136	0x3c9d7a0e	0.01922324
137	0x3dafcf9f	0.085845225
138	0x3d764a15	0.060129244
139	0xba851cef	-0.0010155718
140	0x3da1da31	0.07902945
141	0xbd6b255a	-0.057408668
142	0xbd90b983	-0.070666336
143	0xbc1aa4ba	-0.009438688
144	0xbbeda331	-0.00725212
145	0x3dcc121e	0.09964393
146	0xbdee0029	-0.11621124
147	0xbd0424c6	-0.032261632
148	0xbcd0283d	-0.025409812
149	0x3dc2aaf1	0.09505261
150	0x3d8d64ee	0.069040164
151	0x3daf0a2e	0.085468635
152	0xbe0a75bc	-0.13521475
153	0x3da275c8	0.07932621
154	0x3dd42e6e	0.10360418
155	0xbd8c0ebf	-0.0683875
156	0xbda9864f	-0.082775705
157	0x3d50c193	0.050965857
158	0x3db9cfd6	0.09072845
159	0xbdf3e34c	-0.11908588
160	0xbdbb0fee	-0.09133898
161	0x3d0a2d4e	0.033734612
162	0x3cbd8de6	0.023138952
163	0xbcf163f7	-0.029466612
164	0x3d1bbaeb	0.038020056
165	0x3d95c59e	0.07313083
166	0xbc76c3aa	-0.015061298
167	0x3d539d50	0.051663697
168	0xbd025a10	-0.03182417
169	0xbdfac1ab	-0.122439705
170	0xbcc2d279	-0.023782002
171	0xbb997deb	-0.0046842
172	0x3dae3c58	0.085076034
173	0xbdb74d10	-0.089502454
174	0x3cadedf6	0.021231633
175	0xbc16d09c	-0.00920501
176	0x3dcde043	0.1005254
177	0xbd218ae3	-0.039439093
178	0xbd9c32aa	-0.07626851
179	0xbd773bcd	-0.060359765
180	0xbdf7c8ac	-0.12098822
181	0xbcb1df25	-0.021712849
182	0xbd696151	-0.056977574
183	0xbd5626d6	-0.05228313
184	0xbdcb9368	-0.09940225
185	0x3c9a1432	0.018808458
186	0x3dda9795	0.10673443
187	0xbd4ddc32	-0.050258823
188	0xbda41dc8	-0.08013493
189	0xbc8fb6ad	-0.017543161
190	0xbc533271	-0.012890444
191	0xbdceadf6	-0.10091774
192	0x3dc28435	0.09497873
193	0xbd0770c3	-0.033066522
194	0x3c79d6a3	0.015248927
195	0x3e1597bc	0.14608663
196	0x3d9f9782	0.0779257
197	0xbc349486	-0.011021739
198	0x3ddd23d3	0.107978486
199	0xbcafa511	-0.021441014
200	0x3db21a08	0.08696371
201	0xbc1e70e4	-0.00967047
202	0x3d35f990	0.044427454
203	0xbd1b16a1	-0.037863377
204	0xbd060439	-0.03271887
205	0xbd653ed5	-0.055968124
206	0x3ce4ab83	0.027913814
207	0x3d489e7b	0.048979264
208	0x3ab9b993	0.0014169685
209	0x3de25f1d	0.11053298
210	0xbd8e7a6e	-0.06956945
211	0xba8fa952	-0.0010960496
212	0x3da22036	0.079163
213	0xbc894369	-0.016755776
214	0xbd5a16e9	-0.053244505
215	0x3d7a05a6	0.061040543
216	0x3de256f2	0.1105174
217	0xbcd96260	-0.026536167
218	0x3da4a6c0	0.080396175
219	0x3e0f5165	0.13995893
220	0xbd695edd	-0.056975234
221	0x3d593335	0.05302735
222	0x3d33dc80	0.043911457
223	0xbd903187	-0.070406966
224	0xbd97aac5	-0.074056186
225	0x3cd0c714	0.025485553
226	0x3ce6f64b	0.028193614
227	0x3df31427	0.11869078
228	0x3cb601a0	0.022217572
229	0x3d54654a	0.05185441
230	0xbcfc0fe3	-0.030769294
231	0xbc58b162	-0.013225885
232	0xbd2d27fa	-0.042274453
233	0x3deee04a	0.116638735
234	0x3e134021	0.14379932
235	0xbc44bb27	-0.012007511
236	0x3e0ea5a0	0.13930368
237	0x3c9a8d3d	0.018866176
238	0x3c9da74e	0.019244816
239	0x3dfb37de	0.12266515
240	0x3ca34a91	0.019933017
241	0x3d00dba8	0.03145948
242	0xbdd68612	-0.10474791
243	0x3d25febf	0.040526148
244	0xbcedf206	-0.02904607
245	0xbdde5cdd	-0.10857556
246	0xbd80826e	-0.062748775
247	0x3a490375	0.00076680566
248	0xbcbcac45	-0.023031363
249	0x3ddbdbdf	0.107352965
250	0xbdee3c0e	-0.11632548
251	0xbca9e7c7	-0.020740403
252	0x3cf779f2	0.030209515
253	0x3d5b2899	0.053505514
254	0x3dc892a4	0.097935945
255	0x3e16ee0f	0.1473925

edge_encoder.layers.2.bias f4 [32]
0	0x3e08ebd2	0.13371208
1	0x3ddf6ad0	0.10909045
2	0x3d816b96	0.063193485
3	0x3d203990	0.039117396
4	0xbd558d57	-0.052136745
5	0x3df6afbd	0.12045238
6	0x3d94ba90	0.072621465
7	0xbcb1366e	-0.0216324
8	0x3cbda6a7	0.023150755
9	0x3da237c2	0.07920791
10	0xbda9b6fd	-0.08286855
11	0x3ce2e775	0.027698258
12	0xbd48345d	-0.048878063
13	0x3db02008	0.085998595
14	0x3ddedf21	0.10882402
15	0x3d27e177	0.040986504
16	0x3c37294c	0.01117928
17	0xbc9c788b	-0.019100448
18	0xbd2172e2	-0.0394162
19	0x3ce8c3a8	0.028413609
20	0xbda23e82	-0.07922079
21	0x3da9a486	0.082833335
22	0x3d597a88	0.05309537
23	0x3db6aeff	0.089200966
24	0x3cef96e1	0.02924675
25	0x3d630a28	0.055429608
26	0xbd1fe0dc	-0.039032802
27	0xbd12724f	-0.035753544
28	0xbde7417f	-0.11291789
29	0x3c360545	0.011109655
30	0x3daaa552	0.083323136
31	0x3cf0c325	0.029389927

node_encoder.layers.0.weight f4 [64, 64]
0	0xbe0268fc	-0.12735361
1	0xbd8fdd83	-0.07024672
2	0xbe48e574	-0.1961878
3	0x3dacb358	0.084326446
4	0xbe16194c	-0.14658087
5	0xbbf9af7f	-0.0076197977
6	0xbd90e67b	-0.07075211
7	0x3dd31e53	0.10308518
8	0x3cc978b6	0.024593692
9	0xbdfb2a58	-0.12263936
10	0x3e6579cf	0.22409748
11	0xbe6127fe	-0.21987912
12	0x3e0740e2	0.13208345
13	0x3d666736	0.056250773
14	0x3db0e029	0.08636505
15	0x3d57aca2	0.05265487
16	0xbe7a39f7	-0.24436174
17	0xbcbd49e2	-0.02310652
18	0x3dbf6666	0.09345703
19	0x3dde8f87	0.108672194
20	0x3dc22764	0.094801694
21	0x3dd6fd9f	0.10497593
22	0xbe41c4ae	-0.18922684
23	0x3d526957	0.05136999
24	0xbde367db	-0.11103793
25	0x3cb26615	0.021777192
26	0x3d9d53bb	0.07681986
27	0x3cba6b89	0.022756355
28	0x3dc6781e	0.09690879
29	0xbe15a0cf	-0.14612125
30	0x3d4ab080	0.04948473
31	0xbcd227e7	-0.025653793
32	0x3db0eead	0.08639274
33	0x3e09a756	0.1344274
34	0xbe4465f6	-0.1917952
35	0xbe2c4d9f	-0.16826485
36	0x3a7eb811	0.0009716759
37	0x3ddfca6c	0.10927281
38	0x3e332f14	0.17498428
39	0x3d4633c4	0.04838921
40	0x3d11da1d	0.0356084
41	0x3d2f6193	0.042817663
42	0xbdb609d9	-0.08888597
43	0x3e2cb663	0.1686645
44	0x3df5ed40	0.120081425
45	0x3d431b3d	0.0476334
46	0x3d99b31e	0.07504867
47	0x3b3fef96	0.0029287091
48	0x3e14f073	0.14544849
49	0xbd758cc9	-0.059948716
50	0x3cd59f49	0.02607693
51	0x3de1a655	0.110180534
52	0x3de28ce3	0.11062028
53	0xbd178a1a	-0.03699694
54	0x3cd89958	0.026440307
55	0x3e7567fb	0.23965447
56	0xbd5896ea	-0.052878298
57	0x3dc9d8a1	0.09855772
58	0xbe4fcb9b	-0.20292513
59	0x3c9f1e51	0.019423636
60	0x3d890bd1	0.06691707
61	0x3e5a8b31	0.2134216
62	0xbdd708cb	-0.10499724
63	0x3d2825e5	0.041051764
64	0xb773d350	-1.4533129e-05
65	0x3db222af	0.086980216
66	0xbdecbe6f	-0.1155976
67	0x3d01ef8c	0.03172259
68	0xbe66e6a2	-0.22548917
69	0xbe199cb2	-0.15001181
70	0xbd9ec5dc	-0.077525824
71	0x3b7a5ac5	0.0038201076
72	0xbdb3eb2b	-0.08785089
73	0x3db329b7	0.08748191
74	0xbce0c6e7	-0.027438594
75	0x3b8594fa	0.0040765973
76	0x3e0f79d1	0.14011313
77	0x3db4e1d7	0.08832138
78	0x3dfbd2c2	0.12296058
79	0xbdbe4962	-0.092913404
80	0xbe5c3717	-0.2150539
81	0xba10a003	-0.00055170077
82	0x3e0f27d1	0.13980033
83	0x3e1ea201	0.15491487
84	0x3d714bf9	0.058910344
85	0x3d19eb46	0.03757789
86	0x3cc9fb61	0.024656
87	0xbcee155f	-0.029062925
88	0x3daca84d	0.08430538
89	0x3d4c4ed9	0.049879882
90	0x3e6f2fac	0.23358029
91	0xbd069ee1	-0.032866362
92	0xbd4d311c	-0.050095662
93	0xbd551a6e	-0.05202716
94	0xbd6e4708	-0.05817321
95	0x3d523f34	0.051329806
96	0x3d00f750	0.031485856
97	0x3e411915	0.18857224
98	0xbc80325a	-0.01564901
99	0xbbdc41cf	-0.006721712
100	0x3e47015c	0.19434112
101	0x3d614914	0.055001333
102	0x3bcbce83	0.0062196865
103	0x3d4d1fb4	0.050079063
104	0x3791ecd6	1.7395632e-05
105	0xbd26a54b	-0.04068498
106	0xbe0d9a5d	-0.13828416
107	0x3e0a1cd2	0.13487557
108	0x3e30f597	0.17281185
109	0xbd0bbd7e	-0.03411626
110	0xbcfbce4c	-0.030738018
111	0xbbde2580	-0.0067793727
112	0x3d127f28	0.035765797
113	0xbe0142c1	-0.12623121
114	0xbda74791	-0.08167947
115	0x3d807d3b	0.06273886
116	0x3cc85a22	0.024457041
117	0x3d855ead	0.065121986
118	0xbbb19e20	-0.0054204613
119	0x3e3bbbdd	0.18333383
120	0xbdc28d0f	-0.09499561
121	0xbc70a6e9	-0.014688232
122	0x3c1bfb83	0.009520414
123	0x3c91ee65	0.01781387
124	0xbc66318a	-0.014049897
125	0x3c44462a	0.011979619
126	0xbe0e27d2	-0.13882378
127	0x3db5311f	0.0884726
128	0xbd0cfeec	-0.0344228
129	0xbccfc4f6	-0.025362473
130	0x3d133197	0.035935964
131	0x3e102bcb	0.14079206
132	0x3d0d8ead	0.034559894
133	0xbca01d71	-0.019545289
134	0xbc31f876	-0.01086246
135	0x3dab14cd	0.08353577
136	0xbe53f16d	-0.20697565
137	0x3e1e9a7e	0.15488622
138	0x3c69f565	0.014279698
139	0x3d8a8e8e	0.067654714
140	0xbd0c5478	-0.034260243
141	0xbe3f44c0	-0.1867857
142	0x3ceedb41	0.029157283
143	0xbd22dacb	-0.03975944
144	0xbe22de23	-0.15905051
145	0x3e2e390c	0.17013949
146	0x3d88c9ab	0.0667909
147	0x3d0d6db3	0.034528445
148	0xbdb4a467	-0.0882042
149	0xbd64d002	-0.055862434
150	0xbd1543d3	-0.036441635
151	0x3e5a9887	0.21347247
152	0x3e097520	0.13423586
153	0x3d85290a	0.06501968
154	0x3db2acc8	0.08724362
155	0xbd22ea4b	-0.03977422
156	0xbd0d391a	-0.034478284
157	0xbe1f841d	-0.15577741
158	0x3c8731a4	0.016503163
159	0xbe7818f6	-0.24228272
160	0x3d8f8942	0.07008602
161	0x3d15b115	0.03654583
162	0x3db796b1	0.08964289
163	0xbdd426fb	-0.103589974
164	0x3e49fc18	0.19725072
165	0x3e2deae8	0.16984141
166	0xbc613f3e	-0.013747988
167	0x3e0c3000	0.13690186
168	0x3e25e477	0.16200434
169	0x3bfdf8c9	0.007750605
170	0x3dfff5c4	0.12498048
171	0x3e020e15	0.12700684
172	0x3e111b13	0.14170484
173	0xbded0968	-0.1157406
174	0x3e820ee2	0.2540198
175	0x3dc3fec4	0.09570077
176	0xbdb8e8fb	-0.090288125
177	0xbe1f57a9	-0.15560783
178	0x3e02245a	0.1270918
179	0xbe3bb961	-0.18332435
180	0x3de06efb	0.10958668
181	0xbd458424	-0.048221722
182	0xbe09cef1	-0.13457848
183	0x3db5980d	0.08866892
184	0xbe319b43	-0.17344384
185	0x3d1cf745	0.038321752
186	0xbe881abf	-0.26582906
187	0x3d7047f5	0.058662374
188	0x3c173edb	0.0092312945
189	0x3e2d287d	0.16909976
190	0x3b9c0d5b	0.0047623343
191	0xbdf58ac9	-0.11989362
192	0xbe05cfb2	-0.1306751
193	0x3cd6f3da	0.026239324
194	0x3dccc066	0.099976346
195	0xbdbd82a2	-0.09253432
196	0xbd59b23d	-0.053148497
197	0xbea079bc	-0.31342876
198	0xbd359138	-0.044327945
199	0xbdfd87cb	-0.12379416
200	0xbe088152	-0.13330582
201	0x3cd87861	0.026424589
202	0x3e1a11f0	0.15045905
203	0xbd5e301c	-0.0542451
204	0x3e28660a	0.16445175
205	0xbdd77d3d	-0.10521934
206	0xbdca160f	-0.098674886
207	0x3d531c85	0.05154087
208	0xbd91b539	-0.071146436
209	0xbe03e2e0	-0.12879515
210	0xbdce2719	-0.10066051
211	0x3de74c17	0.1129381
212	0xbe5a4e15	-0.21318848
213	0xbdac793d	-0.08421562
214	0x3e39b1c1	0.18134214
215	0x3d3196e3	0.043356787
216	0x3c20415c	0.009781208
217	0xbc708d39	-0.014682108
218	0x3dabd646	0.08390479
219	0x3cd3892c	0.025822245
220	0xbd5b89b4	-0.05359812
221	0x3d3d30c3	0.04618908
222	0xbda06c81	-0.078331955
223	0x3d872b72	0.066000834
224	0x3d12041b	0.035648447
225	0x3e354ef1	0.17705895
226	0x3ce42252	0.027848396
227	0x3ba22aef	0.0049489657
228	0xbd69b9ea	-0.057062067
229	0x3e032fdc	0.12811226
230	0xbdef691b	-0.11689969
231	0x3e2634d3	0.16231088
232	0xbe24ddea	-0.16100278
233	0x3d192860	0.03739202
234	0xbd45c108	-0.048279792
235	0xbdc07325	-0.09396962
236	0xbe3f4c0b	-0.18681352
237	0x3d526c0f	0.051372584
238	0x3e45b01b	0.1930546
239	0x3db808c7	0.08986049
240	0xbe3f3096	-0.18670878
241	0xbd1768d6	-0.036965214
242	0xbb299d71	-0.0025881196
243	0xbcbf6258	-0.023362324
244	0x3cc0c4a7	0.023531271
245	0xbb13d47a	-0.0022557066
246	0x3da3ede1	0.08004356
247	0xbdc480f8	-0.09594911
248	0xbd93ba01	-0.07213212
249	0x3d913b99	0.070914455
250	0xbdfcbfd1	-0.123412736
251	0x3de5ee15	0.11227051
252	0xbdc47026	-0.09591703
253	0x3d874f42	0.06606914
254	0xbe3019a2	-0.17197278
255	0xbd843815	-0.06456009

node_encoder.layers.0.bias f4 [64]
0	0x3a887e58	0.001041363
1	0xbcc69035	-0.024238685
2	0x3dac4775	0.08412067
3	0xbccd12a6	-0.025033306
4	0x3dd0e732	0.10200347
5	0x3e0dd652	0.13851288
6	0x3e1a385b	0.1506056
7	0x3e065880	0.13119698
8	0x3c8c9b01	0.017163755
9	0x3e1408f2	0.14456537
10	0x3e23958e	0.1597502
11	0x3e045414	0.12922698
12	0x3df37049	0.11886651
13	0x3d597753	0.053092312
14	0xb6b0868a	-5.260871e-06
15	0xbdb8ab5b	-0.090170585
16	0x3ce8f322	0.028436247
17	0xbd631654	-0.055441216
18	0x3d0a5a76	0.033777677
19	0x3d9aca28	0.075580895
20	0x3dc0a5b2	0.09406604
21	0xbd218f0c	-0.03944306
22	0xbd3ea19c	-0.04654084
23	0x3e054ad6	0.13016829
24	0x3e192d6d	0.14958735
25	0x3de55aa3	0.11198928
26	0xbd8a389b	-0.06749078
27	0x3e036e7c	0.12835115
28	0xbd146236	-0.036226474
29	0xbd5fd7ae	-0.054649048
30	0x3d628d78	0.055310696
31	0x3db0f9c2	0.086413875
32	0x3e19bb81	0.15012933
33	0xbcf76dd0	-0.03020373
34	0x3dbdac3b	0.09261366
35	0xbc325d20	-0.010886461
36	0x3d9240be	0.07141255
37	0x3d693894	0.056938723
38	0x3d98def7	0.07464402
39	0x3b8544fe	0.0040670624
40	0xbd45fe34	-0.04833813
41	0xbcee031d	-0.029054219
42	0x3ca97e73	0.020690178
43	0xbd4ca6af	-0.04996365
44	0x3dbb610a	0.09149368
45	0x3db6131b	0.08890363
46	0x3e3d6dea	0.1849896
47	0x3d1887ce	0.03723889
48	0xbd440944	-0.0478604
49	0x3e0b614d	0.13611336
50	0x3e07557b	0.13216202
51	0x3db43aca	0.088002756
52	0x3d2c98e1	0.042137984
53	0x3d7342a2	0.059389718
54	0x3e149392	0.14509419
55	0x3d8e2346	0.069403216
56	0x3dd860cf	0.1056534
57	0x3d571a31	0.052515212
58	0xbcf6cd9d	-0.03012734
59	0x3e0cb7c2	0.13741973
60	0x3c943102	0.018089775
61	0xbdbb9f57	-0.09161251
62	0x3e0beed0	0.13665318
63	0xbd590de4	-0.052991763

node_encoder.layers.2.weight f4 [32, 64]
0	0xbe10e636	-0.14150319
1	0xbd32dbe3	-0.04366673
2	0x3d922bb6	0.071372434
3	0x3c816a57	0.015797777
4	0x3da16b21	0.07881761
5	0x3cdf6c25	0.027273247
6	0xbc765c3f	-0.015036642
7	0xbc800d90	-0.015631467
8	0x3db10576	0.0864362
9	0x3e150451	0.14552428
10	0x3da35359	0.07974882
11	0x3d3014d9	0.042988632
12	0x3d43544e	0.04768782
13	0xbdbb71cc	-0.091525644
14	0x3e2dc667	0.16970216
15	0x3cbc5b3d	0.022992725
16	0x3d48eef1	0.049055997
17	0xbd9fc0bd	-0.07800434
18	0xbcac6c7d	-0.021047825
19	0x3d8baa34	0.06819573
20	0x3d921cd0	0.07134402
21	0xbde8e7b2	-0.113723174
22	0x3e19c5f1	0.15016915
23	0xbd81a4ea	-0.06330283
24	0xbd40adfe	-0.047040932
25	0x3e44c39b	0.19215243
26	0x3d3f7db8	0.046750754
27	0x3da42429	0.080147095
28	0x3cca63b0	0.024705738
29	0xbd8d0447	-0.068855815
30	0xbc994393	-0.01870898
31	0xbdd87484	-0.105690986
32	0xbd7c5909	-0.061608348
33	0x3e21b0ea	0.15790144
34	0xbc9e0de7	-0.019293739
35	0x3ce7e055	0.028305212
36	0x3d990545	0.07471708
37	0x3b30f332	0.0027000424
38	0x3d8aee1a	0.067836955
39	0xbd1190d1	-0.0355385
40	0x3daff933	0.08592453
41	0x3cb8c34e	0.022554066
42	0xbdc2ac16	-0.09505479
43	0x3d80b71d	0.06284926
44	0x3baaecbb	0.0052162088
45	0x3dc60bd9	0.096702285
46	0xbd410979	-0.047128174
47	0xbd8e40dc	-0.06945965
48	0x3e03bedb	0.12865774
49	0x3ba4e3ba	0.00503203
50	0xbd44879d	-0.047980893
51	0xbdd681c6	-0.10473971
52	0xbdfdde85	-0.12395958
53	0xbdaece2f	-0.0853542
54	0xbdb5fafa	-0.088857606
55	0xbdf7862c	-0.12086138
56	0x3c98c2e5	0.01864762
57	0x3e175217	0.14777409
58	0x3c947fc9	0.018127339
59	0xbe006531	-0.12538601
60	0x3c99e615	0.01878647
61	0x3d81bcf4	0.06334868
62	0xbd2e2313	-0.042513918
63	0xbc3709ad	-0.0111717405
64	0x3d483610	0.048879683
65	0x3e181811	0.1485293
66	0x3c2fae6f	0.010722741
67	0x3dfa9df8	0.122371614
68	0x3e2c3322	0.1681638
69	0x3d1f629c	0.0389124
70	0xbcd002e5	-0.025392005
71	0xbd837208	-0.06418234
72	0x3d3ae2ce	0.045626454
73	0xbe09ddd8	-0.13463533
74	0x3e086303	0.1331902
75	0x3dc17b54	0.09447351
76	0x3d992aec	0.0747889
77	0x3d0f2e60	0.034956336
78	0xbe0d10dc	-0.13775963
79	0xbd7655cc	-0.060140416
80	0x3e282fb7	0.16424452
81	0x3dedb759	0.116072364
82	0x3e12ec82	0.14348033
83	0x3cff30c6	0.031151187
84	0x3d2a01a1	0.04150546
85	0xbd92c106	-0.071657225
86	0xbb2e3855	-0.002658387
87	0x3d5bd4d5	0.05366977
88	0x3d07e341	0.03317571
89	0xbe2ffbb5	-0.17185862
90	0x3de2f710	0.1108228
91	0x3de1a784	0.11018279
92	0x3d763a30	0.060114086
93	0x3c93ad93	0.018027103
94	0x3d07e74c	0.033179566
95	0x3cb6a2bd	0.022294397
96	0x3db3dd75	0.08782474
97	0xbdb0eb37	-0.08638614
98	0x3e1521b7	0.14563642
99	0xbdb9fcca	-0.09081419
100	0xbe0a9cdc	-0.135364
101	0x3de50a84	0.11183646
102	0xbd226dde	-0.03965556
103	0xbc03dc00	-0.008048058
104	0xbd369255	-0.044573147
105	0x3d6c5065	0.057693858
106	0x3d67a3d2	0.056552716
107	0xbd9362a0	-0.071965456
108	0x3d924805	0.07142643
109	0xbd4dc715	-0.050238688
110	0xbd81f3e7	-0.06345349
111	0x3d9f84e4	0.07789019
112	0x3de33d73	0.11095705
113	0xbd6e4cbb	-0.058178645
114	0xbd22bd9c	-0.039731607
115	0x3dfcfe20	0.12353158
116	0xbdaebbf2	-0.085319415
117	0x3d480cb3	0.048840236
118	0x3e028cd6	0.12749037
119	0xbda3173a	-0.079634145
120	0xbc4698eb	-0.012121419
121	0xbde6fec7	-0.11279064
122	0x3e0f4497	0.13991009
123	0x3bd345f0	0.006447546
124	0xbcfc096f	-0.030766217
125	0xbcdbf7d5	-0.026851574
126	0x39e40a3b	0.0004349517
127	0xbd8d6be0	-0.06905341
128	0x3dbf5158	0.09341687
129	0xbd702805	-0.058631916
130	0x3e0734dc	0.13203758
131	0x3dcbf639	0.099590726
132	0x3e17347a	0.14766112
133	0x3df23062	0.118256345
134	0x3e0210b2	0.12701681
135	0xbd74c88f	-0.05976158
136	0xbda400f0	-0.08007991
137	0xbdce4b13	-0.10072913
138	0x3e11ea37	0.14249502
139	0xbd17fe5d	-0.037107814
140	0x3db8e2d2	0.090276375
141	0xbbde0d96	-0.006776522
142	0xbd5cea5f	-0.05393445
143	0x3dfa1da3	0.12212684
144	0x3e0603a4	0.13087326
145	0x3e0ca4be	0.13734719
146	0x3cf0eb80	0.02940917
147	0x3e0605d9	0.13088168
148	0x3e07ae99	0.13250197
149	0x3e00f2a7	0.12592565
150	0xbdfd9ef2	-0.12383832
151	0xbc8ed2e6	-0.017434549
152	0x3d4639ba	0.048394896
153	0x3a8ff22e	0.0010982209
154	0x3cb10e54	0.021613277
155	0x3e34d9fa	0.17661276
156	0xbdad4705	-0.084608115
157	0xbd46b42c	-0.04851167
158	0xbb726c61	-0.0036990868
159	0xbba35424	-0.0049843956
160	0x3cbda1ad	0.023148382
161	0xbdb79bcd	-0.089652635
162	0x3e03c07b	0.12866394
163	0x3de1eac9	0.1103111
164	0x3dfcbaed	0.12340341
165	0x3dee0c2b	0.116234146
166	0x3e1fe41c	0.1561436
167	0x3dccce9a	0.100003436
168	0xbe3d7db5	-0.18504985
169	0xbc893570	-0.016749114
170	0x3ccdf7e4	0.025142618
171	0xbe28c5ea	-0.16481748
172	0x3e11885e	0.14212176
173	0xbdfe79ca	-0.12425573
174	0x3ddc2fa4	0.10751274
175	0xbcfcac27	-0.030843807
176	0xbd9c108a	-0.07620342
177	0xbd8cc258	-0.06873006
178	0xbd9e38bb	-0.07725664
179	0x3e0925dd	0.1339335
180	0x3e0d7564	0.13814312
181	0x3df169f4	0.11787787
182	0x3dfbc667	0.122937016
183	0x3d4949e9	0.04914275
184	0x3e1e6063	0.15466456
185	0xbdf5ec2e	-0.12007938
186	0x3e03d889	0.1287557
187	0xbb53ea30	-0.0032335632
188	0xbd650ee0	-0.05592239
189	0x3dbca6ca	0.092115
190	0x3dffce9a	0.12490578
191	0xbd0690a3	-0.03285278
192	0x3e429bc1	0.19004728
193	0xbd7e4ccd	-0.06208496
194	0xbd875178	-0.06607336
195	0x3df98170	0.12182891
196	0x3d509ed5	0.050932724
197	0xbd2d3e66	-0.042295836
198	0x3d56696f	0.052346643
199	0x3c978889	0.018497722
200	0x3d5455c9	0.051839624
201	0xbe0e0b9f	-0.1387162
202	0xbcb01c36	-0.021497827
203	0xbaf52913	-0.0018704258
204	0x3e26b925	0.16281565
205	0x3e325ca2	0.17418149
206	0x3b4b1a18	0.0030990895
207	0x3bdc116d	0.0067159445
208	0x3e223d63	0.1584373
209	0x3b3da1e5	0.0028935608
210	0xbca343b6	-0.019929748
211	0x3c7f7b27	0.015593327
212	0x3aa4731f	0.0012546516
213	0xbd160b3c	-0.036631808
214	0xbdb676c6	-0.08909373
215	0x3e10cd18	0.14140737
216	0x3d5a07df	0.053230163
217	0x3bca0f67	0.006166387
218	0xbdb2910c	-0.08719072
219	0x3ddb449a	0.10706444
220	0x3e040a14	0.1289447
221	0x3ddaaa69	0.106770344
222	0x3c94f47e	0.01818299
223	0x3e325650	0.17415738
224	0x3e141f91	0.14465167
225	0xbe03d790	-0.128752
226	0x3d8b5acb	0.06804427
227	0xbd33e661	-0.04392088
228	0xbdc312e8	-0.095250905
229	0x3e0c0fb5	0.13677867
230	0xbd50d157	-0.050980892
231	0xbbbebf5b	-0.005821151
232	0xbe17f0e3	-0.14837985
233	0xbd25776e	-0.0403971
234	0x3dfef0b3	0.124482535
235	0xbd41640a	-0.047214545
236	0xbd551d33	-0.0520298
237	0x3c651220	0.013981372
238	0x3d1d258f	0.038365897
239	0x3e107813	0.14108305
240	0xbd98facf	-0.07469713
241	0xbe26142c	-0.16218632
242	0x3d8f885f	0.070084326
243	0x3e1f6071	0.15564133
244	0x3e195ad5	0.14976056
245	0x3d249598	0.040181726
246	0x3d416d05	0.04722311
247	0xbd884bd6	-0.066550896
248	0x3d965c5d	0.07341836
249	0xbdc4bbbf	-0.09606122
250	0x3e2bb8eb	0.1676976
251	0x3e110e0f	0.14165519
252	0xbb7a53c7	-0.0038196908
253	0x3d9cf19a	0.07663269
254	0x3cc67940	0.024227738
255	0x3a856ab0	0.001017889

node_encoder.layers.2.bias f4 [32]
0	0x3dc4a9a9	0.096026726
1	0x3ce09657	0.027415438
2	0x3e139a37	0.14414297
3	0xbd4c7fe1	-0.049926642
4	0xbd3c62f3	-0.045992803
5	0x3d1534d0	0.03642732
6	0xbc2568fb	-0.01009583
7	0x3e05427e	0.13013646
8	0xbd242fb2	-0.04008455
9	0x3d95a532	0.07306899
10	0x3e19b044	0.15008646
11	0x3de5a8b1	0.11213816
12	0x3e02aaf5	0.12760527
13	0x3e04312e	0.12909386
14	0xbc3756e9	-0.011190155
15	0xbdc3463c	-0.095348805
16	0xbc7ae9c1	-0.01531452
17	0x3d2f4522	0.04279054
18	0x3b4dbddc	0.0031393683
19	0x3dbbd4b2	0.09171428
20	0xbc90d924	-0.017681666
21	0x3df400c1	0.11914206
22	0x3db3d1c6	0.087802455
23	0x3dd4f152	0.10397591
24	0xbda382d1	-0.079839356
25	0x3c578194	0.013153452
26	0xbd42d8b5	-0.04756995
27	0xbd8c1d3d	-0.06841514
28	0x3da44f8c	0.08022985
29	0x3d37a236	0.04483243
30	0x3e15fab2	0.14646414
31	0xbdc04e4d	-0.09389935

state_encoder.layers.0.weight f4 [64, 2]
0	0xbec0bdd5	-0.3764483
1	0x3efb2582	0.49052054
2	0x3f242ac8	0.6412778
3	0x3f2fefb9	0.6872516
4	0x3f1dcbf9	0.6163936
5	0xbe77811f	-0.2417035
6	0xbebed084	-0.3726846
7	0xbe73eec4	-0.2382155
8	0xbd2f4860	-0.04279363
9	0xbe946649	-0.28984287
10	0x3e60f420	0.21968126
11	0xbd929cb2	-0.071587935
12	0x3eca9ee6	0.39574355
13	0xbeffec37	-0.49984905
14	0xbee692ad	-0.4503378
15	0x3dc5d9c0	0.09660673
16	0xbeba9e96	-0.36449116
17	0x3f0c88a0	0.54895973
18	0x3f2a64ed	0.6656025
19	0x3e3d51d9	0.18488254
20	0xbeac97ff	-0.33709714
21	0xbeb4bfee	-0.3530268
22	0x3d1ccea1	0.038282994
23	0xbf141166	-0.5783905
24	0x3e58d2ff	0.21174239
25	0xbcf36b05	-0.029714117
26	0xbeb573e9	-0.35439995
27	0x3f2bad7d	0.670616
28	0xbe911bc1	-0.28341487
29	0x3ef9d8d8	0.4879825
30	0xbd0aa4f6	-0.033848725
31	0x3e185b5e	0.14878604
32	0x3efb9acf	0.49141547
33	0xbf1833ce	-0.5945405
34	0xba5f721c	-0.00085237785
35	0xbec55b33	-0.38546142
36	0x3e5c41a5	0.21509416
37	0xbf2f7cfc	-0.68550086
38	0xbdbf5231	-0.09341849
39	0x3b317d44	0.002708272
40	0xbe90cdc1	-0.28281978
41	0x3f1e5d19	0.61860806
42	0xbf2806dd	-0.6563547
43	0x3f2a2553	0.664632
44	0xbe385065	-0.17999418
45	0x3e804c45	0.2505819
46	0x3d237cc4	0.039913908
47	0x3d477965	0.048699755
48	0xbec5986e	-0.38592857
49	0xbe4aabf6	-0.1979216
50	0x3e279d4b	0.16368596
51	0xbe34ab9c	-0.17643589
52	0x3ed1fbcb	0.41012415
53	0x3ef161d7	0.47144958
54	0xbed04842	-0.40680128
55	0x3f17bf1c	0.59275985
56	0xbd8ef811	-0.06980909
57	0x3ead236e	0.33816093
58	0xbee83379	-0.4535177
59	0x3e87ae2e	0.26500076
60	0x3d89f8bc	0.067368954
61	0x3d32bcf8	0.043637246
62	0xbf047c02	-0.5175172
63	0x3ed5b701	0.41741183
64	0x3f0a336e	0.53984725
65	0xbeeca33d	-0.4621829
66	0xbf2839f1	-0.6571341
67	0x3ef675b3	0.48136672
68	0x3ef172b0	0.47157812
69	0x3ef9583b	0.48700127
70	0x3d80d332	0.06290282
71	0x3a65149b	0.0008738727
72	0xbe5effc2	-0.21777251
73	0xbe6156c9	-0.22005762
74	0x3f000ce1	0.5001965
75	0xbf12618e	-0.57180107
76	0x3ea3ea58	0.32014728
77	0xbc9414b3	-0.018076276
78	0xbe0a66b6	-0.13515744
79	0x3e048cc6	0.12944326
80	0x3f2244cf	0.63386244
81	0x3ed36139	0.41285113
82	0x3cc4749e	0.023981389
83	0xbecfe4d5	-0.40604272
84	0xbe6a4de1	-0.22881271
85	0x3e7efef3	0.24901943
86	0x3e95edd0	0.29283
87	0x3ceb3f0c	0.028716587
88	0xbe119ab1	-0.14219166
89	0x3efd0b36	0.49422616
90	0xbe6c6b7a	-0.23087874
91	0x3e88f685	0.2675058
92	0xbe5ab632	-0.21358564
93	0x3e1557f6	0.14584336
94	0x3e5d985f	0.21640156
95	0x3eadeaec	0.33968294
96	0x3ea81f3a	0.32836324
97	0x3ef017cc	0.46893156
98	0xbeb2a52b	-0.34891638
99	0x3f2618c6	0.6488155
100	0xbeecf7f3	-0.4628292
101	0x3ef2c477	0.47415516
102	0xbf1513ca	-0.5823332
103	0x3f2e3f4b	0.6806533
104	0xbce48d32	-0.027899358
105	0xbf0180a1	-0.505869
106	0x3e3097ca	0.17245403
107	0xbe75b8a9	-0.23996224
108	0xbd5829a5	-0.05277409
109	0x3e4ebb5d	0.20188661
110	0xbf1231ee	-0.57107437
111	0xbdd3b3d8	-0.10337037
112	0xbcd08213	-0.02545265
113	0x3f0cecda	0.55048907
114	0x3f23ba2e	0.6395596
115	0x3f16e082	0.5893632
116	0x3dbde61f	0.09272408
117	0x3f346612	0.70468247
118	0xbef588cf	-0.4795594
119	0xbe2ec3b5	-0.17066844
120	0x3f160fcf	0.5861787
121	0xbecdf009	-0.40222195
122	0xbd9f2ac3	-0.07771828
123	0xbeb86990	-0.36018038
124	0xbe0f0e5d	-0.13970323
125	0xbf1a5234	-0.6028168
126	0x3e93dc1f	0.28878877
127	0x3ec584b2	0.385778

state_encoder.layers.0.bias f4 [64]
0	0xbf0651e9	-0.52468735
1	0xbd491522	-0.04909242
2	0x3eb1ae92	0.347035
3	0x3f160bda	0.58611834
4	0x3e0ed354	0.13947803
5	0xbf2398cd	-0.6390503
6	0x3ea43f63	0.3207961
7	0x3cde9089	0.02716853
8	0x3e3d4949	0.18484987
9	0xbf32c045	-0.6982463
10	0x3f140139	0.57814366
11	0x3e34903a	0.17633143
12	0x3ea7986b	0.32733473
13	0x3e437f00	0.19091415
14	0xbe880782	-0.26568228
15	0x3e28f9f1	0.16501595
16	0x3f1b8eb8	0.60764647
17	0xbd4e1a2b	-0.050317924
18	0xbea5fea3	-0.32420835
19	0xbed7a9b8	-0.42121673
20	0xbf0d375b	-0.5516259
21	0x3f1af0ae	0.605235
22	0x3f2dd32b	0.6790034
23	0x3da80686	0.08204369
24	0x3e75cac0	0.24003124
25	0xbf2a6eaf	-0.6657514
26	0x3ece8a56	0.40339917
27	0x3e860ad0	0.26180124
28	0xbed5cddb	-0.41758618
29	0xbecd76d4	-0.4012972
30	0x3e961a25	0.29316822
31	0xbeebd5cc	-0.46061552
32	0xbe14e74f	-0.14541362
33	0x3e39f303	0.18159108
34	0xbf053989	-0.52040917
35	0xbf1fec3d	-0.62469846
36	0xbe1b0fae	-0.151427
37	0x3d250c61	0.04029501
38	0xbf079255	-0.5295766
39	0x3e8ca0cf	0.27466437
40	0xbf09a7aa	-0.5377146
41	0x3e199f76	0.15002236
42	0xbe03f9dc	-0.12888283
43	0xbe301488	-0.17195332
44	0x3e1ba4b0	0.15199542
45	0xbf383375	-0.7195352
46	0xbeaf6cd2	-0.3426271
47	0x3f1b06e2	0.6055738
48	0xbf2c12c5	-0.6721614
49	0xbf1b67c6	-0.6070522
50	0xbe4e327c	-0.20136446
51	0xbf2bc1fe	-0.67092884
52	0xbeb394c7	-0.35074446
53	0x3f195747	0.598988
54	0x3f1e4d00	0.6183624
55	0xbe752a1f	-0.23941849
56	0xbec0ef1d	-0.3768243
57	0xbebb88d4	-0.3662783
58	0xbda23f5d	-0.07922242
59	0x3d98a71d	0.07453749
60	0x3e108ca9	0.14116158
61	0xbebee535	-0.37284246
62	0xbe571777	-0.21005045
63	0x3e9d03aa	0.30666858
