training_megnet_p_u/saved_models/pbe_210_p_u/state.pt (torch, 710362 bytes, 106 tensors)

bond_expansion.rbf.centers f4 [100]
00000000: 0000 0000 62de 4e3d 62de ce3d ca26 1b3e
00000010: 62de 4e3e fd4a 813e ca26 9b3e 9602 b53e
00000020: 62de ce3e 2eba e83e fd4a 013f e338 0e3f
00000030: ca26 1b3f b014 283f 9602 353f 7cf0 413f
00000040: 62de 4e3f 48cc 5b3f 2eba 683f 14a8 753f
00000050: fd4a 813f f0c1 873f e338 8e3f d6af 943f
00000060: ca26 9b3f bd9d a13f b014 a83f a38b ae3f
00000070: 9602 b53f 8979 bb3f 7cf0 c13f 6f67 c83f
00000080: 62de ce3f 5555 d53f 48cc db3f 3b43 e23f
00000090: 2eba e83f 2131 ef3f 14a8 f53f 071f fc3f
000000a0: fd4a 0140 7786 0440 f0c1 0740 6afd 0a40
000000b0: e338 0e40 5d74 1140 d6af 1440 50eb 1740
000000c0: ca26 1b40 4362 1e40 bd9d 2140 36d9 2440
000000d0: b014 2840 2a50 2b40 a38b 2e40 1dc7 3140
000000e0: 9602 3540 103e 3840 8979 3b40 03b5 3e40
000000f0: 7cf0 4140 f62b 4540 6f67 4840 e9a2 4b40
00000100: 62de 4e40 dc19 5240 5555 5540 cf90 5840
00000110: 49cc 5b40 c207 5f40 3c43 6240 b57e 6540
00000120: 2fba 6840 a8f5 6b40 2231 6f40 9b6c 7240
00000130: 15a8 7540 8ee3 7840 081f 7c40 815a 7f40
00000140: fd4a 8140 bae8 8240 7786 8440 3424 8640
00000150: f1c1 8740 ad5f 8940 6afd 8a40 279b 8c40
00000160: e438 8e40 a0d6 8f40 5d74 9140 1a12 9340
00000170: d7af 9440 934d 9640 50eb 9740 0d89 9940
00000180: ca26 9b40 86c4 9c40 4362 9e40 0000 a040
0.0 0.05050505 0.1010101 0.15151516 0.2020202 0.25252524 0.3030303 0.35353535
0.4040404 0.45454544 0.5050505 0.5555555 0.6060606 0.65656567 0.7070707 0.75757575
0.8080808 0.85858583 0.9090909 0.9595959 1.010101 1.060606 1.111111 1.1616161
1.2121212 1.2626263 1.3131313 1.3636364 1.4141414 1.4646465 1.5151515 1.5656565
1.6161616 1.6666666 1.7171717 1.7676767 1.8181818 1.8686868 1.9191918 1.9696969
2.020202 2.070707 2.121212 2.1717172 2.222222 2.2727273 2.3232322 2.3737373
2.4242425 2.4747474 2.5252526 2.5757575 2.6262627 2.6767678 2.7272727 2.777778
2.8282828 2.878788 2.929293 2.979798 3.030303 3.0808082 3.131313 3.1818182
3.2323232 3.2828283 3.3333333 3.3838384 3.4343436 3.4848485 3.5353537 3.5858586
3.6363637 3.6868687 3.7373738 3.7878788 3.838384 3.8888888 3.939394 3.989899
4.040404 4.090909 4.141414 4.1919193 4.2424245 4.292929 4.3434343 4.3939395
4.4444447 4.4949493 4.5454545 4.5959597 4.646465 4.6969695 4.7474747 4.79798
4.848485 4.8989897 4.949495 5.0

embedding.layer_node_embedding.weight f4 [89, 64]
00000000: 8f47 063f ceb4 34bf 393a 803e 34d5 453f
00000010: 44e3 b5bf ff6e 843e 40a5 0440 b2f6 9cbc
00000020: 89d5 713f 01d0 86be a0cb e73e 6645 9e3f
00000030: d885 4dbf de80 28bf 1d29 00c0 572b 88bf
00000040: 2c0c 14bf 983a 313f a03b 17bf 94c8 d33e
00000050: b415 71bf a86f bfbf e1c4 2b3f f2a3 05c0
00000060: efe1 cabf a2e0 77bf 8f8e 93be bb4f 77be
00000070: 259e 94be 5dfd 653f ce73 f63e 206b 673f
00000080: c628 bfbe 7446 e5bf 056a 413e d41a e33e
00000090: 4fc9 c33e dca6 29bf 00af 7dbf 9344 a63e
000000a0: 83ef 1d40 6485 1fbf e299 71bf c261 883b
000000b0: 829c 62bf 8e86 873f ddc8 823f 2a76 c23e
000000c0: 6484 3a3f 784f 87bf 102d 6cbe 173e 8a3f
000000d0: 8227 b83f 0d1f c03f b094 11c0 19e3 c0bf
000000e0: 94af bb3e 4f53 1fbe c6e2 483f 670b 4a3d
000000f0: 9607 93bf 104c e6bd d1f0 0ec0 56ba 48bf
00000100: 472c e13e c0ea 9fbe 7e39 a43e 0341 93bf
00000110: 0991 0a3f 2409 413f 97bf acbe f57b 0e3e
00000120: c70d d1bf b7ed 21bf e9bd 193f 1dd8 01be
00000130: db04 443f 54a6 9dbf 14af 1dbf 1b26 183e
00000140: 91c8 bd3e 1c25 303f 78cf c63e cbe3 d43f
00000150: a765 a4bf d158 3b3e 38db 0b40 5634 51bf
00000160: 74a3 adbe d410 5a3f 166d 993f ba44 883e
00000170: 61a7 e43f 4e4e 90bf 6875 bcbf b2b7 88bf
00000180: 8cfc 603f 2563 2bbf 4005 8abd 8df2 403e
00000190: fc1a 3a3f 238b 88be f2e5 fe3e 9cfe 3dbd
000001a0: 1706 3ebe dac8 a13f 4931 143f adb3 78bd
000001b0: 6715 883f 5dc1 163f 09b1 c53e 4b16 813f
000001c0: 1916 51bf 9837 14bf e202 533e 9bb6 bd3e
000001d0: 66c7 843e a3f9 c93d fa50 6abf d1d6 c3be
000001e0: a0e3 6f3d 84bf 42bf f268 443d 8cde 24bd
000001f0: 7ba5 9dbf a7f7 efbf a435 95bf e036 fcbe
00000200: c300 ec3e 009d 763f 9e8a da3d 10a5 11bf
00000210: 52d2 013f 6bed 61bf e8b1 cfbe 7af6 2cbe
00000220: 5bff 8d3f d723 9a3f 9f61 3540 98d8 6ebf
00000230: 0ef1 1c3f 8b95 5fbe 0f92 543f d9e1 bcbf
00000240: 67de 363f 7d9a 1c3c 1297 41be fa88 4f3e
00000250: 0fe3 763f bac0 833f b746 893f 6e74 4bbe
00000260: f16a a5be a225 d83d e56f e23e 527a 903e
00000270: 8ebd 1bbf 121b 393f 05cc 1dbf 100e 6e3f
00000280: 1314 6cbe 7fa1 1540 611d 6f3f 92cf 8abf
00000290: 8a6a 5c3f a3c2 ce3f 67af eebf 0ad2 90be
000002a0: a702 dd3e 05f1 7bbf b8be 613e 4112 afbe
000002b0: 7dce ba3f fd3f 8ebe 7a87 613f dd27 b33f
000002c0: a86d 52be 9a51 943f 3e98 b13d 6eb6 88bf
000002d0: 4165 d3bf 125a b9bf 66da a13e b014 953e
000002e0: 597c 4abf 9bc5 bebf 0c93 1d3e 48b9 923e
000002f0: b868 8d3f 0f8c 253f 2c93 1f3f 04a6 6d3f
00000300: 3746 89bf 425f 493e 74a2 4d3e 5028 67bf
00000310: a1d3 cd3e 0e97 e0bf 460a 0340 39cb 2c3d
00000320: ab77 bd3d 1469 65bb 866c 8b3e 8a72 c1bf
00000330: 93a5 fd3e f75b 6c3d c482 1bbf 9cf8 683e
00000340: f4e3 8c3c a91c a93f d2cf 5e3f 5724 48bf
00000350: 37e5 963f 5a6e 65bf 8773 60bf f340 8c3f
00000360: a5ba fe3d 3bb5 603f 368b b4be 098b 353f
00000370: 93b7 15bf e07d 84bf bf9e b33f f88a 02bf
00000380: 19e7 863f 1145 e43e a234 1f40 9980 40be
00000390: c7a5 c2bf 4170 733f 006d 743e 2226 7f3f
000003a0: 5b0c a53f 0c4a 563f 08c8 91bf 3a74 963f
000003b0: ae7d 2bbe c421 cabf 05f5 ecbd db31 d6be
000003c0: e434 c8bf 6e59 bdbe 4230 ed3e 9557 8b3f
000003d0: eaf8 813f dd6c c13e fbaf f33e 7590 a43f
000003e0: 37f0 f43f eb88 1d3d 7494 8a3f 71d5 32bf
000003f0: 26f6 10be 2018 70bf d996 913f 1cee a0be
0.5245294 -0.70588386 0.2504442 0.7727845 -1.4209981 0.25865933 2.072586 -0.019160602
0.94466454 -0.2633057 0.4527254 1.2364929 -0.80282354 -0.65821636 -2.0025094 -1.0638226
-0.5783107 0.6923003 -0.59075356 0.41363966 -0.9417374 -1.495595 0.6709729 -2.0881314
-1.58502 -0.9682714 -0.288197 -0.24151509 -0.29026905 0.89839727 0.48135227 0.90397835
-0.37335795 -1.7912126 0.188881 0.44356406 0.38239524 -0.6627023 -0.99095154 0.32474193
2.4677436 -0.6231291 -0.9437543 0.0041620443 -0.8852006 1.0587938 1.0217549 0.37980777
0.7285826 -1.0571127 -0.23064065 1.0800198 1.4387057 1.5009476 -2.2747002 -1.5069305
0.36657393 -0.15559123 0.7847103 0.04932728 -1.148669 -0.112449765 -2.2334483 -0.78409326
0.43979093 -0.31233788 0.32075113 -1.1504215 0.54127556 0.7540457 -0.3373992 0.13914473
-1.633233 -0.6325335 0.60055405 -0.12680097 0.7656991 -1.2316384 -0.61595273 0.14858286
0.37067083 0.68806624 0.3883016 1.6632017 -1.2843522 0.182956 2.185255 -0.81720483
-0.33913767 0.8518193 1.1986415 0.26614934 1.786358 -1.1273897 -1.472333 -1.0681059
0.87885356 -0.6694816 -0.067392826 0.18842526 0.72697425 -0.26668653 0.4978481 -0.046385393
-0.1855701 1.263942 0.57887703 -0.060718227 1.0631531 0.588888 0.3861163 1.0084928
-0.81674343 -0.5789733 0.20606568 0.3705338 0.2593338 0.098620676 -0.9152981 -0.3824983
0.05856669 -0.7607348 0.047951646 -0.0402513 -1.2316126 -1.8747452 -1.1656995 -0.49260616
0.4609433 0.96333313 0.106709704 -0.5689249 0.5071155 -0.88252896 -0.4056542 -0.16890898
1.1093553 1.2042187 2.8340833 -0.93299246 0.6130532 -0.2183439 0.8303537 -1.4756423
0.7143311 0.009558317 -0.18905285 0.20267096 0.96440214 1.029319 1.0724705 -0.19868633
-0.32308152 0.10554053 0.44225994 0.28218323 -0.6083611 0.7230693 -0.61639434 0.9299021
-0.23054533 2.337982 0.93404204 -1.0844595 0.86100066 1.6153148 -1.8647279 -0.28285247
0.43166086 -0.9841464 0.2204541 -0.34193614 1.4594265 -0.27783194 0.88097346 1.399654
-0.20549643 1.1587403 0.08671616 -1.0680673 -1.6515275 -1.4480612 0.31611937 0.29117346
-0.7909599 -1.4904054 0.15388125 0.28656983 1.1047583 0.6466684 0.6233394 0.92831445
-1.0724553 0.19665244 0.20081502 -0.90295887 0.40200523 -1.7546098 2.047502 0.042185996
0.092513405 -0.0035005258 0.27231234 -1.511308 0.49540386 0.057704892 -0.6074641 0.22751087
0.01719854 1.3211871 0.8703586 -0.7818045 1.1788701 -0.8962151 -0.8767628 1.0957321
0.12437943 0.87776536 -0.3526246 0.70915276 -0.5848324 -1.0350914 1.403282 -0.509933
1.0539275 0.44583943 2.4875875 -0.18799056 -1.5206841 0.9509316 0.23869705 0.9966756
1.2894396 0.83706737 -1.138917 1.175422 -0.16747162 -1.5791554 -0.11570171 -0.41834912
-1.5641141 -0.36982292 0.4632588 1.0886103 1.0154088 0.3777837 0.475952 1.2856585
1.9135808 0.038460653 1.0826554 -0.69856936 -0.14156398 -0.9378681 1.137416 -0.31431663

edge_encoder.layers.0.weight f4 [64, 100]
00000000: 0933 453d d311 a73d 758c 5c3e 34c6 fd3d
00000010: df8c 583e a8cb a83d b650 013e 5809 1a3e
00000020: b995 c13d cd16 023b 2bd4 593d 778b 9a3b
00000030: acb3 8f3c 0704 583d e060 ae3d 962f 0c3e
00000040: bc0b 8bbb fdcb 0e3d c391 73bc 87ed 6abb
00000050: 4861 143e 56e2 4abd 0db6 f43c dfc1 36bd
00000060: 3192 1c3d d914 713d 75d1 c23d e747 62bd
00000070: ffb2 47bd f5c6 97bd 5660 84bd 81e1 3e3d
00000080: a00e db3c c47b a13d 444d 1b3d 40f4 8a3d
00000090: a8d2 b9bd a529 94bd 29d7 b0bc fc3a 11bd
000000a0: 801f 3fbd 30fc 46bc 9716 223d e31f a0bd
000000b0: 2b88 48bc 96be 99bc b82d 99bd 1356 593d
000000c0: aa9d 04bc 67a1 3a3d ec05 babc 0639 8cbd
000000d0: bdef f83b 657e efbc 4489 3dbd 32fd 6b3c
000000e0: f0e9 72bc b0e3 a03d ce32 f3bc b658 5bbd
000000f0: 2651 5e3d 4f20 843d 193e 9ebd d031 a0bc
00000100: 260b 323b 5cfa 3d3d 63c2 31bd 5b79 8f3c
00000110: 53a7 74bd ddf4 a43d 7099 b8bd ec16 c4bd
00000120: 51ae 03bd b20f 573d 0bbe 723d fce8 bd3c
00000130: e2ea 1bbd af30 223b 9620 1a3d 8e24 b33a
00000140: 19c9 08bd 153c 5a3d ab46 3c3d 2126 c2bd
00000150: 54ed 8f3d d5f3 1d3d 36bc 58bc f7cc 39bc
00000160: dfe8 413d c367 a4bd 1800 9abd 9b13 8e3d
00000170: 64a3 383d 5676 e93c a554 be3c 4458 003d
00000180: 614b 8f3d 611a 4cbd ddda a63c 362d 21bd
00000190: 1943 043e 3b24 12bd 68bc e9bb 6e0c 103c
000001a0: 8ecb a63d 60b5 11bd afd2 143e a531 de3d
000001b0: 350f 143e 1552 a13d 9b3a 5b3d 56ba 823d
000001c0: ede4 593d ac64 e0ba b5c0 cd3d b97c 1cbd
000001d0: 4505 c7bc 464f 90ba 96a1 81bd 9a6e e73b
000001e0: 6ff5 71bd 7fed a6bc 7c7f d43c 6435 46bc
000001f0: 5da4 503d f764 b1bb ca22 df3d 60ae 9f3d
00000200: 7f1d 48bd e794 d53c 60c6 97bd 8e09 9e3c
00000210: 47c0 643c 7394 bc3d daa8 bcbc 25fb ff3c
00000220: 216b ec3c 8fba 073d 1911 c9bd 017c 583d
00000230: 8982 0a3d bf9c ef3b 3b61 86bc 1e83 12bd
00000240: caa4 59bd bee2 993c 7e08 583d d781 843d
00000250: f63a ddbd bb52 95bd 6203 173d b458 1cbd
00000260: f35e 8b3d eae5 593d ff2f ef3c cfdc b6bb
00000270: 165a ea3b d007 42bd bace 243d c768 33bb
00000280: 3d28 00bd 8f18 d9bc 8bcc 61bc 429f b63d
00000290: 4d7b b3bd 3136 953d e734 8fbd 1a83 d8bd
000002a0: 85d1 7bbd dd48 dbbc 6ac2 2a3b 72e0 d6bd
000002b0: 0bf7 383d 0784 833d 7248 743c 3af3 b8bd
000002c0: 8a25 20bd 0716 44bd 234c debb d25f 1b3d
000002d0: 0ceb 52bd bc35 91bd fc9c 4c3d e7b2 cfbc
000002e0: 18df 933d 75cd 143d e3f1 2f3d d54e afbc
000002f0: d9cf a63d 0484 c63c e245 3e3d 5ef2 90bc
00000300: 9710 b7bd d978 a83d 6a5b 23bd 4755 8bbd
00000310: 5a7a be3d 7d38 d63d 4ca7 cf3d 639c b23d
00000320: 3a0b f23d 544a 4dbc f695 703d 11eb 47bd
00000330: d851 623d 162d 013d b4e6 e53c 730b c03c
00000340: d23c a6bd 1b39 a2bc 1131 3d3d f658 a1bd
00000350: 83a8 e03c 0822 a7bc 6876 7cbd 3e3a 6f3d
00000360: 7818 a3bd 6abb b5bc 4e5d 3e3d 75bd 843d
00000370: a78e 1ebb 88ca 61bd 2e4e 18bd 7b22 b5bd
00000380: 4944 68bd 6386 9bbc 3145 68bd 37e4 d83c
00000390: 4059 1dbd 983d 94bd 25df b53c bf9e 88bc
000003a0: 3ef0 15bd 6ab0 fc3c 8641 4c3d 1304 9c3d
000003b0: c295 95bd d63b fdbb 7ff0 4d3d 724e 46bc
000003c0: 9b2d 8c3c 1730 a63c 496e 693d 49d8 243b
000003d0: 275b 3cbd 7b85 1ebd 8937 5ebd 82d7 9bbd
000003e0: fb00 bc3c a014 453d 65c1 e13c 3227 a1bd
000003f0: 4d43 29bd f8c4 403d edcd 793d d67e a83d
0.048144374 0.081576966 0.21537955 0.1239132 0.21147488 0.08241969 0.12628445 0.15042627
0.094523855 0.0019850016 0.053180855 0.0047163325 0.017541729 0.052738216 0.08514571 0.13690028
-0.004243342 0.034862507 -0.014866295 -0.0035847144 0.14490235 -0.049532257 0.029871965 -0.044618484
0.038225356 0.058857772 0.09512607 -0.055244353 -0.04875469 -0.07410995 -0.06463687 0.046601776
0.026740372 0.078849345 0.037915483 0.06784868 -0.090733826 -0.072345056 -0.021586971 -0.035456643
-0.0466609 -0.012145087 0.039572325 -0.07818582 -0.012239496 -0.018767636 -0.07479423 0.053060602
-0.008094231 0.04556408 -0.022707902 -0.06846814 0.0075969384 -0.029235074 -0.046273485 0.014403628
-0.014826283 0.07855928 -0.029687312 -0.0535514 0.054276608 0.06451475 -0.07726688 -0.019555002
0.002716729 0.04638134 -0.043398272 0.017513921 -0.059729885 0.080545165 -0.09013641 -0.095746845
-0.032148663 0.052505203 0.05926327 0.023182385 -0.0380658 0.0024748256 0.037628733 0.001366751
-0.033394907 0.053279955 0.04596583 -0.09479929 0.070276886 0.038562614 -0.013228467 -0.011340371
0.047341224 -0.080276035 -0.07519549 0.06937333 0.045077696 0.02849881 0.023233721 0.031334177
0.06996799 -0.049829844 0.020368034 -0.039349757 0.1291622 -0.035679083 -0.0071330555 0.008792026
0.08144294 -0.035573363 0.14533494 0.10849313 0.14458926 0.07876984 0.053522687 0.06383197
0.053196836 -0.0017119846 0.100465216 -0.038204882 -0.024294505 -0.0011009953 -0.06329648 0.0070627453
-0.059071954 -0.020376919 0.025939696 -0.01209769 0.050938 -0.0054136473 0.10895307 0.07796931
-0.048856255 0.026071979 -0.07410884 0.019291665 0.013961858 0.09208002 -0.023029733 0.031247685
0.028859677 0.0331369 -0.09817714 0.052852634 0.033815894 0.0073123868 -0.016403785 -0.035769574
-0.05313567 0.018784877 0.052742474 0.064700775 -0.108022615 -0.0729117 0.03686846 -0.03817053
0.068052195 0.05319778 0.029197691 -0.0055805217 0.0071518524 -0.04737073 0.040236212 -0.0027375685
-0.031288374 -0.026500968 -0.013781677 0.08917095 -0.08763752 0.07285727 -0.06992512 -0.10571881
-0.06147911 -0.026768142 0.0026055821 -0.10492028 0.045157474 0.064216666 0.01490985 -0.09030767
-0.0390983 -0.04787257 -0.0067839785 0.03793318 -0.05149369 -0.07090327 0.0499544 -0.025353862
0.07220286 0.03632875 0.04295529 -0.021399895 0.081451125 0.024232872 0.046453364 -0.017693695
-0.08938711 0.08226175 -0.0398821 -0.06803375 0.093006805 0.10459993 0.10139331 0.08721235
0.118185475 -0.012529928 0.058736764 -0.04880816 0.055253834 0.031537138 0.02806411 0.02344296
-0.08117069 -0.01980262 0.04618937 -0.07878296 0.027424103 -0.02040197 -0.06163636 0.058405153
-0.079636514 -0.022184093 0.0464757 0.064814486 -0.0024193914 -0.05512479 -0.037183933 -0.08844467
-0.056705747 -0.018984979 -0.05670661 0.026476009 -0.038415194 -0.072383106 0.02220113 -0.016677259
-0.036606066 0.03084584 0.049867176 0.076179646 -0.07303955 -0.0077280803 0.050278183 -0.012103664
0.01711159 0.020286603 0.05698994 0.002515333 -0.045985367 -0.038701516 -0.05425218 -0.07609464
0.022949686 0.048115373 0.027558038 -0.07868804 -0.04132395 0.047062844 0.0609874 0.08227317

edge_encoder.layers.0.bias f4 [64]
00000000: 67e6 a2bd 6fa8 41bb d0d9 4cbd 7a7b 07bd
00000010: 0aeb 90bd bb73 d93d fc1a 43bb 4117 7fbd
00000020: ab7d be3d d6d3 c1bd 450a 193d 39a8 f0bc
00000030: 4add edbc bc00 df3d 3083 60bd 610d 80bd
00000040: eed9 f03a 460e 333d 247b 383d f0da afbd
00000050: 1dd0 9ebd 52cd 993d d00d 3abd 4543 f9bc
00000060: 23fa 9fbd bdca adbb e98a 7b3c 07b1 3d3c
00000070: 2cf0 833c 3887 0e3d b11c 84bd 94c2 433c
00000080: 2bc0 d13d 99fd ac3d dc2b 03bc b3ca a1bd
00000090: 6e2f 0e3c 2434 b3bb 9dfc 8e3d 4ec6 d7bc
000000a0: 1834 913d 455e b33d 4a71 b8bd c424 5e38
000000b0: 7019 823d f9ec a7bc c50f 853d a4f7 c63c
000000c0: f7d8 a2bd a4a7 00bd 16a7 aebd 30c8 033e
000000d0: b8ac 76bd bb4a bcbd fb72 c33b 79fd bfbd
000000e0: 69b2 88bc cbde aa3d 8159 8abb 7b7d 653d
000000f0: a756 ecbd d3b4 513d 1b77 503d 95d9 3abd
-0.07954102 -0.0029549857 -0.05001241 -0.03307674 -0.0707608 0.10617777 -0.0029770723 -0.062278036
0.09301313 -0.094642326 0.03736331 -0.02937709 -0.029036183 0.10888812 -0.05481261 -0.06252552
0.0018375495 0.043714784 0.04503931 -0.08586681 -0.07754538 0.07509865 -0.04542333 -0.030427584
-0.07811382 -0.0053037093 0.015352943 0.011577851 0.016105734 0.034796923 -0.06450785 0.0119482465
0.10241731 0.084468074 -0.008006062 -0.0789999 0.0086783 -0.005468862 0.06981776 -0.026339676
0.07090014 0.08758215 -0.09005983 5.2963165e-05 0.06352508 -0.02049874 0.064971484 0.024288006
-0.07951539 -0.031409875 -0.08527963 0.12869334 -0.06022331 -0.09193941 0.0059646345 -0.09374518
-0.016686635 0.08343276 -0.0042220955 0.05602787 -0.11539965 0.051197838 0.050894838 -0.04561766

edge_encoder.layers.2.weight f4 [32, 64]
00000000: 5228 8fbd b307 8d3d 6436 d6bc 00e1 c83c
00000010: 6f85 75bd 2e2e 823c 7c1a fa3d 74ec c53d
00000020: 7339 d53d f58d d93d bdc0 073d 4cb0 fdbc
00000030: 1bbe 863d 0dbb 97bd 1eac b53d b34c bbbd
00000040: 2c53 183c 2da1 f5bc cb77 373d a90e f6bd
00000050: 53d8 593b 11e1 b73d c70c c3bd fa4a e2bd
00000060: eefe 92bd 8786 ecbd 52a0 133d 2c29 48bd
00000070: 583e bfbd b592 403d 18be 93bd 5a68 56bd
00000080: 0f5d aebc 65b5 e3bc 24e4 0abd eee8 993d
00000090: b617 fa3b 4125 283d 751d 4dbd 2f05 853d
000000a0: 973b a33d 8b22 5cbd 47b4 823d 7d1f a93d
000000b0: ea4b 98bd 5f6f 623d 4b46 c03d 1cad 1d3c
000000c0: 9cf0 94bc b697 033e fa8a 083d 1645 a2bc
000000d0: f688 66bd bf7d a0bc fa27 7ebd 2612 f53d
000000e0: 8f8a 113d ed06 9c3c b43a adbd 9091 823d
000000f0: 813b a4bd d8b9 723c 2cf7 fbbc 02ca 8f3b
00000100: c293 82bd c2e1 a8bd 1137 e43c 1942 db3d
00000110: 049a 18bc 59fa b13d 4d27 f2bd 7154 95bc
00000120: 31ca 3a3c 1681 a23d 06cb 18bd 1c79 b5bb
00000130: 24db 14bc 6ec0 a9bc 4efc 913d 661b f1bd
00000140: e54f ecbd bad8 13be 6b71 0ebe 6311 30bd
00000150: 34c9 adbc 49f2 803d 662a 0ebe d644 0ebd
00000160: faa4 1c3d 8f96 61bd 8e85 b3bc 7cb7 823c
00000170: 8558 a8bd c039 93bd 2a52 98bd 7de6 113d
00000180: b4a3 ac3d d76e 313d 689f 9f3d f34b eebd
00000190: 863b 57bd 1b2d b0bd f519 843c eefc 47bb
000001a0: ca9b 8e3c 9aef 0abd 6ef8 0abe c902 aabd
000001b0: 3cd2 c6bd b414 e63c 2070 813c 87e4 473c
000001c0: 1f45 72bd 5840 c83c 72eb 303d 23a5 00be
000001d0: 4f0a 02be 802f 5cbd 4291 9f3c d80f 51bd
000001e0: e4f6 a63b af8e babd 0b97 cfbb 32cd d8bd
000001f0: e8fb debc df25 eebd 1012 d1bc b2bc 0cbe
00000200: ab2c 4cbd 90fd 7b3b aa24 813b ac45 94bd
00000210: 7d06 2abc 3e06 dabd 8c36 bd3d 9932 b13d
00000220: 0c0f fdbd 653b fdbd 4b89 12bd aab7 ce3d
00000230: 669f 723d 101d e0bd 2551 00be 905d 6b3c
00000240: 0083 2dbb 21db 60bd cc2d 203b d435 f33c
00000250: 6411 6cbd b3ee 49bd 21d2 c33b b62a f9bd
00000260: be02 8fbd a238 0ebe 64ed 133c 6775 abbd
00000270: 17a0 c93d be72 c53d cf3e ce3d 1b14 f6bd
00000280: e7e9 3abd 29c2 a3bd 6a1a ca3c 821f a93d
00000290: 2ddd 23bd 3a1f fb3c d073 d9bd 6c70 933d
000002a0: 8dce e2bd 7637 ba3d ac2e 913c dc7a d5bd
000002b0: ac33 703d 140a 01be cfcb a4bd 6b8d fbbb
000002c0: af31 48bd af5c c33d 104d 30bd 2617 87bd
000002d0: 5267 ab3c 3e05 3a3d 8ea7 5d3c ee96 4c3d
000002e0: 683b e43a 1cc7 cd3c 6bb1 c4bc 54a8 2cbd
000002f0: 14de d43d c70c a9bd 4671 0dbe 14dd 4ebd
00000300: 7112 ab3d 8dba 6ebd f444 b03d 5e86 073e
00000310: 89a9 d33d edc1 c63d 20d9 e43d 630c babd
00000320: 3252 503d 54b6 c4bd b897 98ba 5d37 0a3e
00000330: 4d91 953d 2a2a e2bc 8206 9fbd b566 013e
00000340: 894f b03d bc6c acbd b8fd 9c3d 1794 35bd
00000350: 6186 e0bd 21fc 673d 2880 c53d 8def 933d
00000360: ce76 66b9 d916 7d3d 5f28 e03d 14f4 1bbd
00000370: e77c df3b 8d7a 933d 5cd7 b1bb f46f 96bc
00000380: 055b d93d 12ef 873c 486d 9f3d 5b35 d6ba
00000390: d5f7 0c3d c41b 6ebd 7c60 9dbd f6fe 093e
000003a0: 1a43 de3d 0d2a 2dbd 6e74 8dbc ad52 cabd
000003b0: 74f1 fe3d 0933 6fbd 9761 8a3c 5bd9 72bd
000003c0: 7f31 e2bd d791 893c bb68 ccbd c293 043d
000003d0: 5c32 29bd cf84 9f3d ee2d b43d c722 a13d
000003e0: d530 0cbd 0008 65bc e313 52bd 1701 803d
000003f0: cfbc 5a3d b4cd ef3d 6d36 fa3d 6417 66bc
-0.06990112 0.06886234 -0.026148982 0.02452135 -0.059941705 0.01589116 0.12212083 0.096642405
0.10411348 0.10622779 0.033142794 -0.030967854 0.065792285 -0.07408724 0.088707194 -0.091454886
0.0092971735 -0.029984081 0.044791978 -0.12014515 0.0033240512 0.08978475 -0.095239215 -0.11049457
-0.0717753 -0.115490966 0.036041565 -0.04886739 -0.09338063 0.04701491 -0.07213992 -0.05234561
-0.021284608 -0.027796457 -0.033908978 0.07515131 0.007632221 0.041051153 -0.05007692 0.06495129
0.0797035 -0.05374388 0.063820414 0.08257959 -0.074363545 0.055281993 0.09388407 0.009623792
-0.018181138 0.12850842 0.033335663 -0.019808333 -0.05628296 -0.01959121 -0.062049843 0.11966352
0.03553253 0.019046271 -0.08458462 0.0637542 -0.08019162 0.014814816 -0.03075751 0.004388095
-0.06375839 -0.08246185 0.027858289 0.107059665 -0.009314064 0.08690328 -0.11823902 -0.018228741
0.011400745 0.079347774 -0.037302993 -0.005538119 -0.00908545 -0.02072164 0.071282014 -0.11772804
-0.11538676 -0.14438143 -0.13910453 -0.04298533 -0.021214105 0.06296212 -0.13883361 -0.034733616
0.03824327 -0.055075224 -0.02191427 0.015956633 -0.08220009 -0.07188749 -0.074375466 0.0356202
0.084296614 0.043318596 0.07794076 -0.1163558 -0.052547 -0.08602353 0.016125659 -0.0030515748
0.01740827 -0.033919908 -0.13571331 -0.083013125 -0.09708068 0.028086044 0.015800536 0.012200481
-0.05914795 0.024444744 0.04319329 -0.12562995 -0.12699245 -0.053756237 0.019478444 -0.0510405
0.0050953496 -0.09109246 -0.0063351444 -0.10586013 -0.027219728 -0.11628317 -0.025521308 -0.13743857
-0.049847286 0.0038450696 0.0039411383 -0.07239851 -0.0103775235 -0.10645722 0.092389196 0.08652229
-0.123563856 -0.12364844 -0.035775464 0.10093625 0.059234045 -0.10943043 -0.12530954 0.014365569
-0.0026475787 -0.054896478 0.002444136 0.029688753 -0.057633772 -0.049299907 0.005975977 -0.121663496
-0.06982945 -0.13888791 0.009028766 -0.08372002 0.09844988 0.09641026 0.100705735 -0.120155536
-0.045633223 -0.079960175 0.024670798 0.08257963 -0.04000585 0.030654538 -0.106177926 0.07199177
-0.11074553 0.090926096 0.01772245 -0.10423824 0.05864303 -0.12601501 -0.08046686 -0.0076767704
-0.048875507 0.09539162 -0.043042243 -0.06596212 0.02092329 0.045415156 0.013528718 0.049948625
0.0017412724 0.025119357 -0.02401038 -0.042152718 0.103939205 -0.0825439 -0.13812742 -0.050503805
0.08353127 -0.058283377 0.08606902 0.13234851 0.10335071 0.09704957 0.11174226 -0.09084394
0.050859638 -0.09605089 -0.0011641895 0.13497682 0.073031045 -0.027607996 -0.07764913 0.12636836
0.0860892 -0.08419177 0.076655805 -0.044330683 -0.10963131 0.056636933 0.096435845 0.07223425
-0.00021978767 0.061789367 0.109452 -0.038074568 0.0068203094 0.07201109 -0.005427284 -0.01836393
0.10613064 0.01659349 0.077845156 -0.0016342805 0.03441604 -0.058131948 -0.076844186 0.13476166
0.10852642 -0.04227643 -0.017267432 -0.098790504 0.12448397 -0.05839828 0.016892238 -0.059289318
-0.11044597 0.016793175 -0.09980913 0.032367475 -0.041307792 0.07789003 0.08797823 0.078679614
-0.034226257 -0.013978958 -0.051288497 0.06250208 0.05340272 0.11709157 0.12217412 -0.014043663

edge_encoder.layers.2.bias f4 [32]
00000000: 603d c83d e7d8 f2bc ee88 20bd faa9 933d
00000010: 832f 023b 6ff4 05be 43da 24bd e5b8 2cbc
00000020: 399f ae3d 794a 003e 8a9a 8fbd 0e86 8cbd
00000030: 62b5 dcbd ebe4 f5bd f62d 11be 26a4 a9bc
00000040: f252 1c3d 988f 13be ae2b 073d e66d 6fbc
00000050: 8337 503c 2931 f6bd 2f07 41bd d764 533d
00000060: 379e 9f3d 2356 0abe 96df d73d b35e 453d
00000070: 771a edbd 1683 073d 1f05 0a3d 99f1 533b
0.09777331 -0.029644443 -0.039193086 0.07210155 0.0019864745 -0.13081525 -0.040247213 -0.010542129
0.08526463 0.12528409 -0.07011898 -0.068615064 -0.107767835 -0.12006553 -0.14177689 -0.020708155
0.03816504 -0.14410245 0.03300064 -0.014613604 0.0127085475 -0.12021095 -0.04712599 0.05160984
0.07793849 -0.13509421 0.105406925 0.048186015 -0.115773134 0.033083998 0.03369629 0.0032340048

node_encoder.layers.0.weight f4 [64, 64]
00000000: 8819 a13d b518 403d 4652 a33d 1ae6 5f3d
00000010: 9298 2dbe 880c b63c 8658 d33d a4d6 0c3e
00000020: 2918 9e3b adfe 57bd 46d6 123e c772 453e
00000030: 2aec dcbd 46b5 af3d 0b0f a6bd 38b1 74bd
00000040: 656f 93bd cad7 963b 472f ccbd f2de 343d
00000050: 9329 313d 9923 23be cb8e 903d 3319 41bd
00000060: e2bf 5abe a9d8 25be 62cc 17be 64af 8cbd
00000070: 6180 503d d9e2 9a3c fe46 fdbd d290 833d
00000080: 3f19 9dbb ab11 49bc 13c1 ecbd dfbb bf3d
00000090: d8c5 5fbd 463c 29bd 3bdb cebd d8a3 0bbd
000000a0: 38b6 523d 5fb3 e63c 87f8 83bc 76a5 06bd
000000b0: c972 753d 8c84 e43d 0a22 4f3e c5ab 9fbd
000000c0: a69f 263b b121 17be 3f19 9fbd b6a1 af3d
000000d0: bf73 6a3d 393c 5d3d d497 25be 19f3 013d
000000e0: 522b 49bd aaf9 0ebd fb7d c43b 3dec 273e
000000f0: b9dd b7bc efe5 04be 1370 5abe 9433 02be
00000100: 598f 4b3e d1a6 3bbe e7e2 bd3a f452 d63c
00000110: 7b2c 2b3e 4b7f f13d cc5b 89be ab04 2dbe
00000120: 07c4 803d aec1 f7bc 40f7 fa3c da98 733e
00000130: 8db7 dcbc 957a 52bd 5534 d23c caf9 263e
00000140: 0653 0fbd cbf4 c93d 2c68 f3bc 7563 28be
00000150: 8188 9a3d 8966 c93d 6632 aa3d 687f 063e
00000160: 0be2 5d3d b441 c03d 11f9 88bd 2c6a 843c
00000170: 0b30 2cbd 23c1 7abd bd0d 2bbe 6699 4abe
00000180: ae94 0f3d dfda afbd e92e 4a3d d906 f2bd
00000190: 2a0b 993d 33e9 40bd d9fa 6a3d dbaf c3bd
000001a0: 2447 923d 16a4 be3d 0dc1 e33d d9ca 1d3e
000001b0: cb4f 1a3d aa35 2bbc b110 a23c 7c3e 36be
000001c0: cc4b 2cbd 8fb6 8b3c a711 58bd 9761 2abe
000001d0: d34a 553d e72c 1ebe 77f9 4abd 1d92 95bc
000001e0: 25ea 843d 4472 cc3a bf44 d13d f12d 833c
000001f0: 1101 b93d 8789 7a3d 2233 afbd d18b 3c3e
00000200: b4df 47be 105c 003e 1a46 ac3d 9351 053d
00000210: 2f4a 15be b7ac 533e 14ae ba3d 461a 3f3e
00000220: 57f6 d43d 840d 1cbe 51a0 533e 547b 99bd
00000230: 1a7e 70be 76da 183e 89c6 33be 5c99 57be
00000240: 7c67 fabc 16f7 57bc 843c 06bc 17d3 c23d
00000250: bf80 03be 82f3 0cbe 3a57 dcbd 5fc9 47be
00000260: 6886 0cbe 49ab 8dbe 266c a63d 2f3a 43bd
00000270: f9c1 823c 052f 853e da72 9fbd 291a 513e
00000280: c099 893d 2131 12be 5048 0d3e ebcc 0e3c
00000290: 7432 24be 29de 183c 9a8a 87bd 1ee3 fc3d
000002a0: 4648 cabd d693 67be 5e34 56be 2bec 45bd
000002b0: 9ef2 993c 1f55 013e 17a1 13bc f158 373e
000002c0: 4740 273e dd6a 6bbe 762a d53d c85e 1b3e
000002d0: e681 ad3d 7180 04be 4288 4bbe 07df 05bc
000002e0: 616c 1abd 22cc 53be 7572 febd 41bc 9b3c
000002f0: df13 883d 8da2 13be 0cb8 27be 205d e4bd
00000300: bd79 39be 057f 4d3e 7202 973d 9f0c 2e3d
00000310: f37c 76be 9f16 743d 2ebb f43d 327a 6e3e
00000320: 2150 723e ee86 95be d8fa 143e 22da 63bd
00000330: b666 04be c46b be3c 7767 13be a204 06be
00000340: efd9 3cbe b056 4dbe eb3f 1cbe af73 c63d
00000350: d64f 3abe b7d5 9f3d 9c15 c1bd c454 49be
00000360: 488a 47be 9248 81be 3fff e93c 2e21 18be
00000370: 5a85 203e 6e23 003e 761b 02be ce3f 99bc
00000380: e783 5d3d fd50 81bc 3f22 1cbd 35f0 3a3e
00000390: b712 43bd 34a2 d83d dd31 2dbe 6a7e d43c
000003a0: 868a 17be 89a9 12be ddee 29be f675 efbc
000003b0: a4a3 aebc 8c88 07bd 44b9 833c ecd4 95bc
000003c0: 1ff4 ed3d bf90 55be fe85 c0bd f3e3 183e
000003d0: 5472 403e f601 c2bd a7a2 55bd e406 093e
000003e0: 312d b7bd c587 1dbe d07d b63b cb76 323e
000003f0: 61ee 8b3d e6cb ed3c 77f5 d3bd e2aa 2cbe
0.07866198 0.046898562 0.07974677 0.0546628 -0.16952732 0.022222772 0.10319619 0.13753754
0.0048246575 -0.052733112 0.14339551 0.19282065 -0.10787232 0.08579497 -0.08108338 -0.05973932
-0.07198981 0.004603361 -0.09969955 0.04415793 0.04325254 -0.15931548 0.070584856 -0.047143172
-0.2136226 -0.1619593 -0.1482406 -0.068693906 0.05090368 0.018906998 -0.12367056 0.06424107
-0.0047942693 -0.012272279 -0.115602635 0.093620054 -0.054632038 -0.041317247 -0.10100409 -0.0340918
0.05144331 0.028161703 -0.016109718 -0.03287264 0.05992392 0.11158094 0.20227829 -0.07796434
0.0025424748 -0.14758946 -0.07768487 0.08575766 0.05723929 0.05401251 -0.16171199 0.031725977
-0.04911358 -0.034906067 0.0059964634 0.16398712 -0.022444593 -0.12978338 -0.21331815 -0.12714988
0.19878902 -0.18325354 0.0014487178 0.026162602 0.16716187 0.11791857 -0.26827848 -0.16896312
0.06287389 -0.03024372 0.030635476 0.23788777 -0.026942993 -0.051386435 0.02565972 0.16306224
-0.034991287 0.09861144 -0.029712759 -0.1644419 0.07545567 0.0983401 0.08310394 0.13134539
0.05417065 0.09387532 -0.06688131 0.016163908 -0.042038005 -0.061219346 -0.1670446 -0.1978508
0.0350539 -0.08586668 0.049361143 -0.11817712 0.074728325 -0.047097396 0.057368133 -0.09555026
0.07142475 0.09308641 0.11120806 0.15409411 0.037673753 -0.010449806 0.01978335 -0.17797273
-0.042064473 0.017054824 -0.05275121 -0.1663879 0.05207331 -0.15446816 -0.049554314 -0.018258149
0.06489972 0.0015598019 0.102181904 0.016013118 0.090334065 0.061166313 -0.08554675 0.1841271
-0.1951893 0.12535119 0.08411808 0.0325485 -0.1457908 0.20671354 0.09115234 0.18662366
0.10398548 -0.15239531 0.20666625 -0.07494226 -0.23485604 0.14927086 -0.17556204 -0.21054596
-0.030566923 -0.0131814685 -0.008193139 0.095129184 -0.12842081 -0.13764766 -0.10758825 -0.1951041
-0.13723147 -0.27669743 0.081260964 -0.04766291 0.015961634 0.26012436 -0.07785578 0.20420136
0.067187786 -0.14276554 0.13797116 0.008715848 -0.16034871 0.009330311 -0.06618233 0.12348007
-0.09877066 -0.22614989 -0.20918414 -0.04832093 0.018792447 0.12630127 -0.009010575 0.17905022
0.16333114 -0.22989984 0.104084894 0.15172875 0.08472042 -0.12939622 -0.19876197 -0.00817085
-0.037701014 -0.20683339 -0.12424175 0.019010665 0.06644415 -0.14417477 -0.16378802 -0.11150575
-0.18112846 0.20067985 0.07373513 0.042492505 -0.24071102 0.059591886 0.11949764 0.23288801
0.23663379 -0.29204506 0.14548814 -0.05562795 -0.12929806 0.023244746 -0.14394937 -0.13087705
-0.1844251 -0.200526 -0.15258758 0.09690034 -0.18194517 0.07804435 -0.0942795 -0.19661242
-0.19486344 -0.2525068 0.028564094 -0.14856407 0.1567587 0.12513515 -0.12705788 -0.018707182
0.05408087 -0.015785689 -0.038118597 0.18255694 -0.04762527 0.10577813 -0.16913553 0.025939185
-0.14798936 -0.14322485 -0.16595025 -0.029231053 -0.021318264 -0.033089206 0.016079552 -0.018290006
0.11618828 -0.20855998 -0.09400557 0.14930706 0.18793613 -0.0947303 -0.05215707 0.13381535
-0.089441665 -0.15383823 0.0055691972 0.17428128 0.068325765 0.02902789 -0.10349553 -0.16862062

node_encoder.layers.0.bias f4 [64]
00000000: a61f 6dbc 82d2 203d 20c1 483e 34fd 493e
00000010: 5657 95bd 1ced 21bc 72a6 493d 54cf 1b3d
00000020: bff4 5dbd e779 933d a296 54bb 3e98 153d
00000030: f233 c4bd 2ff5 ee3d f836 4c3d 993f 2e3e
00000040: f1d8 8a3d 5484 4c3d 135a da3d 2894 3e3d
00000050: 3806 273e a95b 993d 7cb9 a43d 6376 92bd
00000060: 9cae ca3d eaf0 40bc 5aad a23d 585f 223d
00000070: 7ab1 6a3d 68f7 5a3d 2b4d e03d 0493 9f3d
00000080: abcb 873d b93a 38bd 29dd 0b3d 1903 833d
00000090: 8338 64bc 8f68 183e c62e ec3d 7b87 d4bd
000000a0: 2f70 b33d 3be2 0a3e cd4d 1e3e 7ded 803d
000000b0: 3be6 fa3d 1b80 1a3e f9a9 153e 15ef 1b3e
000000c0: ad65 853d b79e 87bd 9c6f 023c a368 2f3e
000000d0: 0ca9 ac3c 0e26 d2bc 7132 ae3d 7e7d b53b
000000e0: ab6b 5f3d 6880 04bd 50a6 713d 38dc da3d
000000f0: c2f9 b5bd f7a4 393e e8bb 0d3d b1a8 f53d
-0.014472878 0.039263256 0.19604921 0.19725496 -0.07292049 -0.009883191 0.049231 0.03803952
-0.054188486 0.072009854 -0.0032438417 0.036522143 -0.0958022 0.11667859 0.04985711 0.17016448
0.067796595 0.049930885 0.106617115 0.04652801 0.16310966 0.07488186 0.08043191 -0.07151487
0.09896585 -0.011776188 0.079432204 0.039641708 0.05729816 0.0534586 0.109522186 0.07791713
0.066306435 -0.044977877 0.03414646 0.06397075 -0.013929489 0.14883636 0.11532359 -0.10377403
0.08761632 0.13562863 0.15459366 0.06295297 0.12250944 0.15087931 0.1461562 0.15227921
0.06513534 -0.06622069 0.00796118 0.1712976 0.021076702 -0.025652912 0.08505715 0.0055386415
0.05454604 -0.03234902 0.0589965 0.10686535 -0.08885528 0.18129335 0.03460303 0.11995066

node_encoder.layers.2.weight f4 [32, 64]
00000000: 049a 013e e783 84bd 4412 16bd cd53 8b3d
00000010: 2ee9 a83d 268f 5f3d a9ee 583d 16ac ae3d
00000020: f18c cdbc d254 d3bc d2aa 8ebd c595 4dbd
00000030: f3f3 d8bd 1c1d 683d c0c1 d13d 99b4 1f3e
00000040: db29 d1bd e000 283d c137 94bc ef86 e43d
00000050: 08b0 bdbd 743b c43d 2e42 ff3d 3f3e 7c3b
00000060: bdc9 983d d428 133c 998a 643c 1dd0 4bbd
00000070: 6d0f 58bd 9857 aabd ebba e63c 1439 ebbd
00000080: 277a e83d db3d 81bd b15a 873d 49b7 a03d
00000090: eee5 b63d 7151 133e 4d25 983d 9cfe 3dbd
000000a0: 5beb ee3d d44c 7f3d 6c26 a8bd 5f46 8d3d
000000b0: c6a1 133b c22c 083e ef4b 56bd e4a4 923d
000000c0: e353 e13d e7f0 9bbd 1081 ddbd 8fe2 91bc
000000d0: ff84 183e 9b34 a03c 17ed 08bd 4850 d13d
000000e0: 5096 873d d134 c23d d582 bf3d 4378 8ebd
000000f0: f698 983d fe1d 423d 9b3d f43d 8d7a 993d
00000100: c70a 043d 7bc7 c13d 6995 9b3d 0fea e63c
00000110: 101d 91bd a27b 033e bde7 733c 79a7 2fbd
00000120: cdc4 28bb a40b ccbd 0432 afba 8f05 ad3d
00000130: f347 26be db33 bdbd 5f19 08bd 2211 043e
00000140: af26 babd baa5 28bd 2740 be3d 5557 093e
00000150: 4b28 0a3e ecec ba3d d5ad 82bd aa29 ccbd
00000160: a637 f93d ca10 d9bd 5dbf b73d 6d0d b73d
00000170: 9701 cdbd 4f8c 793d d5af b43d 0999 08be
00000180: f31c b9bd cfd8 71bd 38bd 0f3d a82b 35bd
00000190: 1fe8 b4bd 0a7b cfb8 cf2f 913d f47e 9e3d
000001a0: a152 243d 4208 f7bd 67ab a8bd 4713 e63d
000001b0: 5a7a c73d b3bd 8b3d 58d8 eabc 1140 a4bd
000001c0: fc5a 943d b395 a1bd 9579 563d 2ce6 663d
000001d0: 2ee1 d43d 6b43 adbd 87ee 273d 345f 27be
000001e0: 6788 bdbb 7919 80bc fc6f 843d c855 063d
000001f0: ecf9 413d 7040 e83c 4cd3 f6bd e690 02be
00000200: fe4d 03bc 6cdb 0cbe 942a 023e 0048 a13d
00000210: 831a cfbd 6f88 98bc 48f8 ba3d 3138 d2ba
00000220: 3a23 c43c a987 163e d06a 6bbd cd14 923c
00000230: 9f01 da3b b9d5 0e3e cc74 b5bd 2288 95bd
00000240: 7354 3e3b 8612 fcbd 2db0 aa3d 6a98 193e
00000250: d79a 70bd be86 773b 78e0 72bc 47bd 9abd
00000260: 1777 db3d 57c1 a6bc 7197 ed3d 0fde 8abd
00000270: 0cd5 0c3c 1497 723c 4808 7abc 7af0 9ebd
00000280: 2a6c cf3d 32bb 083d 00be a6bd 5e11 7d3d
00000290: ee5b 803d 2161 6bbd 133d 8dbd 0e8f 89bc
000002a0: 1f2b 473c 624d 93bd 944d f63d f51d a1bd
000002b0: 3853 bd3c 628b f3bc a726 ce3d 25db fa3d
000002c0: 906e 88bd 76a8 e33d e18b c63d 9e07 d03d
000002d0: 8c97 a8bd 757a 473d baf6 97bc 2675 72bd
000002e0: e6c1 d93d bf98 b4bd 9925 28be cb79 9dbd
000002f0: 7951 b13d 3a62 cab9 2b6c 3cbd 29ea 213b
00000300: 192a 983d f82c 913d 01e2 47bd 9e72 69bd
00000310: 8ed3 f63c bbca 65bc 1023 963d 02f8 f1bb
00000320: 8322 c43d 6130 a33d efe0 d3bc ce8a 37bc
00000330: 192a 38bd 6340 58bd 3541 8c3d c2a8 a9bc
00000340: 67e5 a0bc ad53 02bc 780c 723d 56fe a3bd
00000350: 019f cd3c c865 463d 02c0 cdbd e998 953c
00000360: 652b 8b3b 1ddb 693d d618 8e3b 6f69 f1bd
00000370: d58e 18bd 7f1d 7a3d 9d77 9eb9 cabc e73d
00000380: 57a4 2c3d d52f 69bc fe35 dbbd 9453 96bd
00000390: 6e06 e73d 1ef0 e3bd 3ffd 913d fe02 8abc
000003a0: 163c c6bd 8475 ccbd 39ce 80bd e4f0 d83d
000003b0: fcd8 953d a11f d23c 3ff4 92bd 83ce 8f3d
000003c0: d80f 8a3d f4d4 cf3c 5ea2 18bd 6844 60bd
000003d0: faf2 0bbd 0c97 df3d ac6b 75bb 186c 97bd
000003e0: dd59 eebd bf70 71bd c752 9e3c 1099 f1bb
000003f0: 7ddd b23b f08b 8c3b 68a4 e2bd 113c 24bc
0.12656409 -0.06470471 -0.036638513 0.06803093 0.082476005 0.054579876 0.05296198 0.085289165
-0.02509162 -0.025797281 -0.06966175 -0.05019166 -0.105934046 0.056668386 0.10242033 0.15596236
-0.102130614 0.04101646 -0.018092992 0.11158549 -0.09262091 0.09581652 0.12463795 0.003848925
0.074603535 0.008981902 0.01394906 -0.04975902 -0.052749086 -0.083174884 0.028165301 -0.11485496
0.11351424 -0.06310626 0.06609095 0.07847459 0.08930574 0.14386536 0.074289896 -0.046385393
0.11665984 0.06232913 -0.082104534 0.06898188 0.0022526844 0.13298324 -0.05231851 0.07160357
0.11002328 -0.07614308 -0.10815632 -0.017808227 0.14894484 0.019556334 -0.03342923 0.102203906
0.06620467 0.0948273 0.09351126 -0.06956532 0.0745105 0.047391884 0.11925813 0.07494078
0.03223684 0.09461876 0.07596857 0.02818778 -0.07085621 0.12840131 0.014886794 -0.042884324
-0.0025752068 -0.09963158 -0.0013366346 0.08448326 -0.16238384 -0.09238406 -0.03322732 0.1289716
-0.090894096 -0.041173674 0.0928958 0.13412221 0.13491933 0.091272205 -0.06380812 -0.09968884
0.12168817 -0.105989054 0.089720465 0.08938108 -0.10010069 0.060924824 0.088226 -0.13339628
-0.09038725 -0.059044655 0.035092562 -0.044231087 -0.08833336 -9.893447e-05 0.07089197 0.07739058
0.040117864 -0.12062122 -0.082358174 0.112341456 0.097401336 0.06823292 -0.028667614 -0.08020032
0.072439164 -0.07889881 0.052362043 0.056371853 0.10394512 -0.084601246 0.04099896 -0.16344911
-0.0057840827 -0.015637146 0.06466672 0.03279665 0.047357485 0.028351039 -0.120520204 -0.12750587
-0.0080142 -0.13755578 0.12711555 0.07875061 -0.101124786 -0.018619744 0.09129387 -0.0016038475
0.023942579 0.14700188 -0.05747491 0.017832184 0.0066530253 0.13948716 -0.08860168 -0.07301356
0.0029042035 -0.123082206 0.08334384 0.14999548 -0.058741417 0.0037769522 -0.014824025 -0.07555633
0.10716074 -0.020355863 0.11601151 -0.067806356 0.008595716 0.014806528 -0.0152607635 -0.07760711
0.101280525 0.03338165 -0.081417084 0.06178414 0.06267534 -0.057465676 -0.068964146 -0.016791847
0.012156277 -0.07192494 0.120265156 -0.07867042 0.02311097 -0.029729549 0.10065966 0.1224883
-0.06661713 0.11116116 0.096946485 0.10157703 -0.0823203 0.04870077 -0.018550266 -0.059193753
0.10632686 -0.088181965 -0.16420592 -0.07689246 0.08658118 -0.00038601627 -0.046001595 0.002470622
0.074299045 0.07088655 -0.04879952 -0.056994073 0.030130174 -0.0140253855 0.073309064 -0.007384301
0.09576895 0.07968212 -0.025864093 -0.011202527 -0.044962022 -0.05279578 0.06848375 -0.020710353
-0.019640638 -0.00795452 0.059093922 -0.08007495 0.025100233 0.04843691 -0.10046388 0.01826139
0.0042471164 0.05709373 0.004336457 -0.11787688 -0.03724559 0.061063286 -0.00030225227 0.113153055
0.042148914 -0.014232595 -0.107036576 -0.0734016 0.11280523 -0.11129783 0.07128381 -0.01684713
-0.09679429 -0.09983352 -0.06289334 0.10592821 0.07316777 0.025649847 -0.071754925 0.07021811
0.06741303 0.025370099 -0.03726422 -0.054752737 -0.034167267 0.10917482 -0.003744821 -0.07393664
-0.11638234 -0.058945414 0.01932658 -0.007372983 0.0054585324 0.004289143 -0.11066514 -0.010024087

node_encoder.layers.2.bias f4 [32]
00000000: d91c d6bc 73f3 a7bd 0e3c 8a3d 0058 12bd
00000010: 0bf8 20bd 51dc 89bd e2ee e6bc 400a adbd
00000020: 0a88 d53a a6f0 89bc 6c3b eebc 836a 57bd
00000030: 657d db3d 4545 803d 7cff bfbd 75f0 e4bc
00000040: 30db dfbc cdab 663d bf38 acbd 2fc3 d6bc
00000050: e1c2 3ebd 7f34 0a3e 75f9 8d3d 2398 f3bc
00000060: 2a55 92bd 80a3 0e3e 5c43 133e bdd5 003d
00000070: 2ecc d1bd 731b d13d 5310 54bd 011b e43d
-0.026136803 -0.08200731 0.06749736 -0.035728455 -0.039299052 -0.06731475 -0.02819008 -0.08449221
0.0016291153 -0.016838383 -0.029081069 -0.052591812 0.107172765 0.06263212 -0.09374902 -0.02794669
-0.027326196 0.056316186 -0.08409261 -0.026216118 -0.04657257 0.13496588 0.06932346 -0.02973563
-0.0714515 0.13929558 0.14381164 0.031453837 -0.10244022 0.10210314 -0.05177338 0.11137963

state_encoder.layers.0.weight f4 [64, 2]
00000000: ed4f 933e 7e26 cebe 6b2b e83d e23b 0ebf
00000010: b555 2c3f 8e34 ff3e 0588 00bf a43f 15bf
00000020: e341 213f dda8 163f c084 e5be 5673 91be
00000030: bd65 30be d3e7 c13d f0a1 5d3e 5a95 f0bc
00000040: 871f ba3e acba 2dbe d7ae 09be 2eec 0e3d
00000050: 05a4 0cbf 4e92 213f 1ea2 a63d f195 073f
00000060: 1d64 8a3e ec03 0ebf d027 47be edc4 6c3d
00000070: a154 18be 93d7 643e 708b b4be 72d7 8dbe
00000080: b737 02bf 7f97 83bd f8dd acbd 82a0 efbe
00000090: 026c ecbe d484 d0be b3bc 2b3f 9161 16bf
000000a0: ddf4 b2be 1c41 333f 76cc b13d d67c 193f
000000b0: 533e 1abe 7b07 333c ac3d f0be 26fd c93e
000000c0: 8da1 8f3a 2555 1bbe 6fd4 06bf ea06 d33d
000000d0: 81d9 b9be b2ef 003f 730c 5d3e 9d61 123f
000000e0: ddec 1e3f 627b 083f cf32 253f 04cd 103f
000000f0: a936 933e bdd0 2dbf 1d2c af3e 53eb bf3d
00000100: cb74 d93d 683d dd3e c5a0 953e 9dd2 77be
00000110: d377 fcbe 5564 fa3d 66c8 ce3e 816c 2fbe
00000120: 9647 1c3f 5725 793e b95d f03e 17da 3b3e
00000130: 247e 34bf 8973 d03e cbe0 243e 7da4 003f
00000140: 3901 4dbe 2835 50be 2de6 d0be ccce d4be
00000150: 3086 aebd 5607 5f3c 55ee b6be b595 91be
00000160: 780d fabe faaa 763e ba85 cbbe 21a7 adbe
00000170: db3a ccbd 7831 863e a064 643d 5b43 9fbe
00000180: abca 043f aaa1 ae3e 5c55 233f bd34 debe
00000190: 2170 33bf 2f03 243e 5256 c8bd e90a 0c3f
000001a0: b8c7 33bf c8e8 ccbe d019 093f f5a5 163c
000001b0: 0c9a 92be 8e71 96be eb83 74be e793 7b3e
000001c0: ed5c d7be c2ef 5abc d59a 1cbe d5b8 f8be
000001d0: c64a db3e 1f14 d23e 72f4 b8be 95ff f73b
000001e0: 7a44 b13d b761 a4be 2175 213e 1163 babe
000001f0: 33c1 18bf 6113 b93e 60bf f13e 3dd5 e7be
0.28771916 -0.40263742 0.11336406 -0.55560124 0.6731828 0.49844784 -0.5020755 -0.5830023
0.6299116 0.58851415 -0.44827843 -0.28408307 -0.1722631 0.09468045 0.21643806 -0.029368091
0.36352178 -0.16965741 -0.13445602 0.034893207 -0.54937774 0.6311387 0.0813639 0.5296317
0.27029505 -0.55474734 -0.19448781 0.05780499 -0.14876033 0.2234786 -0.35262632 -0.27703434
-0.50866264 -0.0642538 -0.08440775 -0.46802145 -0.46176153 -0.4072634 0.6708481 -0.58742625
-0.3495244 0.70021224 0.08681576 0.5995611 -0.15062837 0.010927076 -0.46922052 0.3945095
0.001095818 -0.15169199 -0.526679 0.10304053 -0.36298755 0.50365746 0.2158678 0.57180196
0.62080175 0.5331327 0.6453065 0.5656283 0.2875264 -0.67896634 0.34213343 0.093710564
0.106179796 0.43210912 0.2922422 -0.24201436 -0.4931017 0.12226168 0.40387267 -0.17131235
0.6104673 0.2433065 0.46946505 0.18344913 -0.70504975 0.40713146 0.16101377 0.5025099
-0.20019998 -0.20332778 -0.4080061 -0.41564023 -0.08521688 0.013612589 -0.35728708 -0.2843453
-0.488384 0.2408866 -0.39750463 -0.33916572 -0.09972163 0.26209617 0.055760026 -0.31106076
0.51871747 0.34107715 0.63802123 -0.4339961 -0.7009297 0.1601684 -0.09782089 0.5470415
-0.7022662 -0.40021348 0.5355501 0.009194841 -0.28633153 -0.2938351 -0.23878448 0.24568139
-0.42063084 -0.013362827 -0.15293439 -0.48578516 0.42830485 0.41030976 -0.36123997 0.0075683095
0.08655639 -0.321058 0.15767337 -0.36403707 -0.596698 0.36147597 0.4721632 -0.45279875

state_encoder.layers.0.bias f4 [64]
00000000: d252 5abe 754b c83d b338 2e3f fc0a a6be
00000010: bb0a 15bf 7cd0 27be 4cc2 11bf c7e7 db3e
00000020: af47 f33d 2c22 35bf ebb1 f83e ed9c fdbd
00000030: 9bd2 063f 0eb1 40bc 855c 7d3e 9096 023f
00000040: 8f40 433e 4bb9 053f b2b6 e93d e02b 5abe
00000050: bd88 fe3e d90e 66be 7427 8c3d af94 aabe
00000060: d122 c0bc 0f5e 303f 80a1 da3e 94ce 72be
00000070: 5492 aa3e d185 bebe 30fd 08bf b3ec 393e
00000080: aa5c dabc 37e4 033e e8a7 633d 0855 34bf
00000090: 1e28 d9be 9df9 2dbf d9d2 abbe 1f15 aa3e
000000a0: f90a 3abe f897 cebe 7a4c abbd 0a63 8cbe
000000b0: 9b59 92be 981b 25bf 0eed 13bf d5e1 f23e
000000c0: 3b05 f83e f9ec 1c3f 0eda 0dbf a471 d13e
000000d0: 5991 0fbf f512 62be 1328 a4be 4562 23bf
000000e0: 24f5 9fbe f1c9 14be 1c24 333f cee3 113f
000000f0: 6799 563e 688f cebc 6310 d1be 4ed4 f5be
-0.21320656 0.09780017 0.68055266 -0.32430255 -0.582195 -0.16388124 -0.569371 0.4295027
0.11878907 -0.7075527 0.4857324 -0.12383447 0.5266511 -0.011760963 0.24742325 0.5101099
0.19067596 0.5223586 0.114117995 -0.213058 0.49713698 -0.22466601 0.068434626 -0.33316562
-0.023454102 0.6889352 0.4270134 -0.23711616 0.33314764 -0.3721147 -0.53511333 0.181567
-0.026655514 0.12880026 0.05558005 -0.7044225 -0.4241342 -0.67959005 -0.33559301 0.3321924
-0.18168248 -0.40350318 -0.08364196 -0.2741931 -0.2858399 -0.6449523 -0.5778359 0.4743792
0.4844149 0.6129909 -0.5541085 0.40907013 -0.5608116 -0.22077544 -0.32061824 -0.6382182
-0.31241715 -0.1453016 0.69976974 0.5698823 0.20956956 -0.025214866 -0.40832815 -0.48013538

state_encoder.layers.2.weight f4 [32, 64]
00000000: 74c0 b2bd b326 0c3d 3e9e 71ba 0ceb 8abc
00000010: 027a b5bd ee7a a73b 0ab0 8b3d 111d 9a3c
00000020: 353a aebd 9c84 e7bd eb3b 92bd e499 05be
00000030: c387 9b3d 8858 0abe 5602 6ebd b5ae 213d
00000040: 7fdd 83bd 5428 9cbc f761 3bbd b354 0fbd
00000050: a48a 1abd 6a83 8fbd 2487 423c 62f7 aabd
00000060: 235f 813c 4e14 98bd da48 cebd cf33 7fbd
00000070: 4fce a93d dcd5 9abd 2e2b 873d 1b76 3dbd
00000080: 7631 c73d 0732 de3c 4b5c 0cbe 0bee fb3c
00000090: 4b43 02be e657 f8bc 0471 85bd 13e9 cf3c
000000a0: 76c0 1abd 8381 ca3d e2f6 983d ba2a 963d
000000b0: 2823 9ebd d10a 833d 113e 2fbc 6b4c 453c
000000c0: c7c1 f5bd cb22 013d b602 3b3d 1e49 893d
000000d0: c988 08be aa97 f9bd d1ed 8b3d 85c9 c73c
000000e0: d132 16ba 5be0 cebd f9ee e0bd 4cec 09bd
000000f0: 4e44 f13b 0bd6 d1bd 8e19 de3d 664e a0bb
00000100: d9cd cfbc 6c34 99bd df44 d0bd cdbf 9ebd
00000110: 76e8 b33d 99ad 94bb edba e63d 3f5d edbd
00000120: c5c3 493c d3b0 c0bc 02c6 3bbd 0c0d 9e3d
00000130: 04f1 af3d 84ab aebd fbba 55bc 6ffe 8c3c
00000140: 9b6e 10bd b48c bbbc ca78 973c c68e 513d
00000150: 7bf1 c1bd 0e55 91bd 3b9e 86bd 81c1 c23d
00000160: 6535 1abd e08f ac3d 6bdc b2bc 79d8 bcbd
00000170: 4599 06bd ced8 cfbd 6771 b13d e9fb 5a3c
00000180: 8cb6 df3c 289a ed3d 2503 08bc a4ca 20bd
00000190: a1d8 90bd 50e9 e6bd 4863 823d 6850 c9bd
000001a0: b9eb ca3d 6cbd 42bd f9ad bc3d 3a57 4bbd
000001b0: 5fa8 53bc 71d5 483d 534f 18bd 79f9 dbbc
000001c0: 34a7 c83d 6456 2d3d f745 2b3b f20a c6bc
000001d0: 96fd 333b cb4f 58bd 5b56 9c3d bd80 b43d
000001e0: 31e4 173d 27d4 c4bd a472 d4ba 7e96 3fbd
000001f0: 3ac6 68bd a36d 47bd d373 45bd 551e 2ebd
00000200: 4920 9dbd 21bb a8bc 72e4 cabb 3552 263d
00000210: 236d fa3b d1be a53d 9845 ed3c e725 393d
00000220: 1d46 9c3d 1ae7 333d f335 86bc 8a4a 313c
00000230: 5ef6 853d a1ab 55bd daf6 253d 1136 d4bd
00000240: 7e5c c8bd 9a6e b2bd 9abf 6dbc 5cb0 273c
00000250: 8761 d2bd c13c 2d3d d8f5 6ebd 1372 c1bd
00000260: ad8c 09bd 938a cdbb acbf c5bd dce7 bdbd
00000270: 4c08 d63d c580 903d 9c93 b83d 9892 843c
00000280: 3ea9 6f3d 0229 473d d7a9 bcbd 671e ed3d
00000290: 51ee 5bbd 3eeb 70bc 07a8 aebd 2d6d b33d
000002a0: 3d73 6dba 0d16 e83d d0f3 f03d 069c 4dbc
000002b0: d565 f33d f646 a7bd 70bf c8bd 1256 023d
000002c0: 1c76 9f3d bddc 8fba bab5 67bd 2d48 a23d
000002d0: 4f65 e2bd 0242 33bd 4a48 e4bd a476 ac3c
000002e0: f007 bcbd aa3a aebc 021a 8e3d d026 233d
000002f0: 4970 63bd 9f21 05bc d5b5 e6bd da9b c2bd
00000300: fcac d83d 10c8 be3d 0f12 aabd ad3b 063d
00000310: f15c e0bc 3e5f 95bd f70e d7bd 5de6 02be
00000320: 8b28 d33c c6ae 413d 74cd d83d f606 333d
00000330: 7094 733d 3fd4 7b3a 92b0 0cbd 66fa 91bd
00000340: f55a 62bd e697 36bd 3c7d 0ebc 0c50 f63d
00000350: 64e4 6dbd 5c22 7dbd 3949 6f3d 55ff 7abd
00000360: 4cbb 34bd ac0a dcbd 8040 9abd e60a 4bbd
00000370: 32d7 e7bc 8299 c4bd 2603 73bd 79e2 373d
00000380: 5ab8 a93d 72cf 243d ba0b f2bd 4874 67bd
00000390: ddb4 e5bb fa43 3c3d 0d31 e83d 853c f4bd
000003a0: bf9e 9a3c da83 cbbd a7ac a83d 635f 613c
000003b0: 8421 253d c12d a1bd 6cb6 a43c d706 693d
000003c0: 2d54 983b 39ce 81bd 5bd1 e0bc e856 15bd
000003d0: 53d2 f0bd d830 e93c 5bad babd 9e96 363b
000003e0: cbc0 a8bd e272 04bd f518 353d dccd d33d
000003f0: 587f 623d 95f2 4d3c 5da9 dabd 95d4 ad3c
-0.08728114 0.034216594 -0.00092170003 -0.016957782 -0.08861162 0.00511109 0.06820686 0.018812688
-0.08507196 -0.1130459 -0.07140335 -0.13046986 0.07594254 -0.13510334 -0.058107696 0.039473254
-0.064387314 -0.019062199 -0.045747723 -0.034992885 -0.037729874 -0.07007487 0.01187304 -0.08347966
0.015792435 -0.07425748 -0.10072489 -0.062305268 0.08291303 -0.07560322 0.06600033 -0.046255212
0.09726231 0.027123464 -0.13707082 0.030753156 -0.12720983 -0.03031535 -0.06515697 0.025379693
-0.0377812 0.09887984 0.07468964 0.07332368 -0.07721549 0.063985474 -0.01069595 0.012042145
-0.11999851 0.03152732 0.045656882 0.06703399 -0.1333343 -0.12187131 0.06832469 0.024388084
-0.0005729618 -0.10101386 -0.109830804 -0.033672616 0.007362879 -0.102459036 0.10844718 -0.0048921583
-0.02536671 -0.07480702 -0.10169386 -0.07751427 0.08784573 -0.004537296 0.11266122 -0.11590051
0.0123147415 -0.023521816 -0.04584313 0.07717332 0.08590892 -0.08528808 -0.013045068 0.017211167
-0.03526173 -0.02289424 0.018490214 0.05116155 -0.09469887 -0.07096301 -0.06573149 0.09509564
-0.037648577 0.084258795 -0.02183362 -0.092209764 -0.032861013 -0.10148774 0.08664208 0.013365724
0.027308725 0.116016686 -0.008301531 -0.039255753 -0.07072569 -0.112749696 0.06366593 -0.098297894
0.09908242 -0.047543928 0.0921287 -0.049643733 -0.012918561 0.04903168 -0.037185024 -0.026852356
0.097975165 0.042318717 0.0026134232 -0.024175141 0.0027464381 -0.05281047 0.076336585 0.088136174
0.037082855 -0.09610777 -0.0016208482 -0.04677438 -0.05682967 -0.048688542 -0.04820616 -0.042509396
-0.076721735 -0.020597043 -0.0061917836 0.040605742 0.0076424046 0.08093036 0.028963849 0.045202162
0.076305605 0.043921567 -0.016383147 0.010820994 0.065411314 -0.05216563 0.04051862 -0.10361875
-0.097832665 -0.08712502 -0.014511013 0.010234918 -0.10272508 0.042294268 -0.058339924 -0.09445586
-0.033581425 -0.006272623 -0.09655699 -0.09272739 0.10450801 0.07055811 0.09012529 0.016183183
0.05851101 0.048623092 -0.09212082 0.115780644 -0.053694073 -0.014704524 -0.085281424 0.08761058
-0.00090580044 0.11332331 0.117652535 -0.012549406 0.11884657 -0.081678316 -0.09802139 0.031820364
0.077861995 -0.0010975819 -0.056569792 0.07923923 -0.11054479 -0.04376412 -0.111466005 0.021052666
-0.091812015 -0.021268208 0.06938554 0.039831936 -0.055527005 -0.008125692 -0.112651505 -0.095023826
0.10579869 0.09315503 -0.08304226 0.032771755 -0.027388068 -0.07293557 -0.10500901 -0.12783189
0.025776168 0.047285818 0.10586062 0.04370781 0.059467733 0.0009606517 -0.034348078 -0.07127838
-0.055262525 -0.044578455 -0.00869685 0.120269865 -0.05807914 -0.061800346 0.05841944 -0.06127866
-0.044123933 -0.10744223 -0.07531834 -0.04957094 -0.028300855 -0.09599592 -0.059329174 0.044893716
0.082871154 0.040236898 -0.11818643 -0.05650738 -0.007010086 0.045963265 0.11337481 -0.11925606
0.018874524 -0.09937258 0.08236056 0.013755652 0.040315166 -0.07870055 0.020106517 0.05689129
0.0046487064 -0.06338162 -0.027443578 -0.036459833 -0.11758866 0.028465673 -0.09115096 0.002786077
-0.08239897 -0.032336123 0.044213254 0.10341999 0.055297226 0.012570043 -0.10676835 0.021219531

state_encoder.layers.2.bias f4 [32]
00000000: b7e2 b4bd 2e63 9cbd bffc 38bc 4622 a43d
00000010: bedd c83b cb9d 89bd 6cae d13c 75bf 143c
00000020: da8a b8bd f3c3 8c3d 4601 45bd 6622 973d
00000030: 1050 b7bd 91c0 88bd cb0d bebd ee4b 80bd
00000040: 9afa f7bc bc78 463d 07ca 803b a672 a7bd
00000050: 20dd 95bd a70d 5ebd b1f0 0dbd cdb6 e13d
00000060: 7fb0 e8bd 8f37 b13d 0ae2 9cbd 5607 c33c
00000070: 514d 693d 0a01 ce3d 283b c4bd 63a8 5ebd
-0.08832305 -0.076361045 -0.011290728 0.0801435 0.0061299494 -0.0671955 0.025595866 0.00907885
-0.09010859 0.06873312 -0.048096918 0.07379608 -0.089508176 -0.06677354 -0.092799746 -0.062644824
-0.030270863 0.048454985 0.0039303335 -0.08176164 -0.07317567 -0.05421224 -0.03465337 0.110211946
-0.11361789 0.08653175 -0.07660301 0.023807209 0.0569585 0.10058792 -0.09581596 -0.054359805
